models/dense_max/epoch_0035.pth (torch, 645162 bytes, 174 tensors)

rb1.conv1.weight f4 [10, 3, 3, 3]
00000000: a09f a7bd 56c8 a63d 7c07 97bd e60a 6fbe
00000010: 49d9 8b3e cb3d 393e 234a 53be 72dd 3e3e
00000020: c5fc f5bd f46e 3abe 8ffa 383c f9fe 28bd
00000030: aae4 9dbe 90c0 933e 122a 2b3e b9cf 85bc
00000040: fd9f 8d3e 1bdc 65be 8ee5 bebc 2546 213b
00000050: c858 bdbd 8a94 64be 5c2e 5d3d 1efb 053c
00000060: 2b0b 033e 871e 8e3d 4fd9 113e df15 713d
00000070: f25d 7a3c 3c7b 253e 405b 603d c73d 103e
00000080: 3346 b8be f27d 5fbd a8fe 123d 72e4 92bd
00000090: c578 0cbd 76e8 d1bc f0a6 c0bb 5b0e 23bd
000000a0: f80f dc3e dc8d 6bbe 5e69 67bd 9e81 aa3d
000000b0: 3932 02be 8d9f 0bbe 2574 31be 2149 fc3d
000000c0: 81b6 143c 21cf b53e c8d9 89be 837c e5ba
000000d0: 2adb c43d f4f9 3b3d e4cd 033d ea88 8d3e
000000e0: 8215 3e3e 40ae 06be e94f 95bd d30b c13d
000000f0: 06f5 78bd ae3f 66be b9f6 44ba a6fd 793e
00000100: 5515 7a3e 7862 a13e 42fe 713b e0cb 2ebe
00000110: 392e e6bd 90d2 e1bd 7d98 89be 8148 39be
00000120: 0995 643d 816a 2f3e 01c7 773d 49b8 2dba
00000130: 37ee 2dbd 2b2a babd c2cb d03d 9b95 51be
00000140: 8fcb fcbd 90b1 43be ccc8 0b3d 22c3 24be
00000150: 1a24 923d 4f44 9cbe 2a1e 2abe 5f91 3e3d
00000160: c76b cf3d 31b4 283e 4443 d4bd 8793 1fbe
00000170: 576f 27be 7cf6 573e 7eb7 8abe f700 00be
00000180: 1b5e 8b3e fd72 d43c b46e df3c a3c4 17bd
00000190: 14c5 cd3c a309 0bbe dfbb 5a3c 3025 30be
000001a0: 0a10 fdbd adb4 423e b1a3 7d3c e94d 6b3e
000001b0: abe5 7bbe 05a6 6cbe 3e88 423e a391 babd
000001c0: 3668 2bbe 0669 173e e44a f4bd 4418 13bc
000001d0: 0f6d 683e dae9 6f3e f6bc 5fbe 449b b5bd
000001e0: beba 9fbd ff09 24bc eea4 2c3e 3c8c b93d
000001f0: 5fad f43d 9b6b ff3d 7105 863e d3bf a63d
00000200: 29b1 81bd c16d 5f3e 1f71 f23c 3fda 8dbe
00000210: 7d07 123e 9823 493c c061 42be 211f 40be
00000220: dada 17be 521c 003e 33de d13c a61b 13be
00000230: bae3 acba 6f53 fe3d 2da0 a6bd 2d4b f73c
00000240: 469b 9b3d c728 423e f0ce 623e a995 1cbd
00000250: 7a90 e0be 22b3 f9bd c123 373e e14f f0bd
00000260: 9496 a2be 22cc 5c3c f510 acbd 406c 663e
00000270: 7e12 b1bd 08ad 2abe f0f3 e73b fe4d 71be
00000280: b8b0 abbe d050 d93c 25e3 aebc 6e5e 14bd
00000290: e4d9 cd3d 9f33 af3d 7d4e 4f3e 17ea f3bd
000002a0: 5279 b4bc 1100 0abd 05f7 a03c ad2d 7f3d
000002b0: 0b07 dc3c f3e5 873d 2255 073e b1eb 973e
000002c0: 0958 80bd c44f d73c f000 1c3d 0e5c 3ebe
000002d0: 5e42 82be ccf6 15be a728 c8bd 9a46 a1bb
000002e0: 5cc3 f13d e190 183e 55e3 9fbd 0b4c c93e
000002f0: 7892 8a3e 68ba 823c 8e13 0ebe e963 483e
00000300: 1ad4 87be ffa7 92bd 6959 9c3d 5caa 613e
00000310: 9415 36bd 0225 503e de19 053e e8a8 abbc
00000320: 2be0 4b3e 0455 5bbe 0996 c6be a9d7 adbb
00000330: d23a 1a3e 2380 0b3e 3b67 82be 29ba e8bd
00000340: 7b46 b7bd 40ca 893d 643f a6bd 0aeb 1abe
00000350: 22d5 bc3e 5532 853e 72a1 b4bd 5aed 00bd
00000360: ebd2 90be c649 d73d 57f7 8cbb 5de9 11bd
00000370: 1ef6 423e a421 973e 3e2c 8abc 091b 183e
00000380: 3745 5fbd eb91 a1bd fd1e 10be 1734 1abe
00000390: 6e84 523c e98b f83d dc9b 8abd 53a3 763e
000003a0: 0d85 95be 1c0c 56be f019 833d 3f98 c53d
000003b0: eef4 dfbd 17a2 e63d 75bb 4d3e 765a ae3c
000003c0: 2b0f 1e3d 465d 9a3c 5a41 6cbe 7bf5 7c3e
000003d0: 3ade e83e 7b49 4d3e 0a86 193e e7cf 9a3e
000003e0: 5330 533d abee a9bd 7418 3dbe f3a5 b0be
000003f0: 13f4 313e 3e49 9d3e eeea 0d3d e14a 89bd
-0.08184743 0.0814368 -0.073744744 -0.23344001 0.27314213 0.18089978 -0.2063375 0.18639162
-0.120111026 -0.18206388 0.011290207 -0.041258786 -0.3083852 0.2885785 0.16715267 -0.016334401
0.27661124 -0.22447245 -0.02330282 0.002460846 -0.09245449 -0.22322288 0.05399929 0.008177547
0.12797229 0.069394164 0.14243053 0.05885875 0.015281187 0.16160291 0.054774523 0.14086066
-0.35991058 -0.05456347 0.03588739 -0.07172479 -0.034294862 -0.025623541 -0.0058792755 -0.039808612
0.42980933 -0.23003334 -0.05649697 0.08325504 -0.12714471 -0.13635083 -0.17329462 0.12318636
0.009076715 0.3550959 -0.26923966 -0.0017508421 0.09612115 0.04589267 0.032178774 0.2764352
0.18562892 -0.13152409 -0.07290632 0.094260834 -0.060780548 -0.2248523 -0.0007513571 0.24413165
0.244222 0.31520438 0.003692523 -0.1706996 -0.11239285 -0.1102649 -0.26874152 -0.18094064
0.055806194 0.17130472 0.06049252 -0.0006626887 -0.042463508 -0.09090074 0.10195114 -0.20467226
-0.12343513 -0.19110703 0.03412704 -0.16090062 0.07135792 -0.30520865 -0.16613069 0.046525355
0.10127979 0.16474988 -0.103643924 -0.15583621 -0.16351067 0.2109012 -0.27093118 -0.12500368
0.27220234 0.025933737 0.027274467 -0.03705276 0.025118388 -0.13577895 0.013350456 -0.17201686
-0.12356575 0.19014235 0.015480922 0.22978939 -0.2459933 -0.23110206 0.18997285 -0.09109809
-0.16738972 0.14786157 -0.11928347 -0.008977953 0.22697853 0.23429051 -0.21849427 -0.08867505
-0.0779929 -0.010012149 0.1685979 0.09059951 0.119471304 0.12471696 0.26176026 0.08142056
-0.06332619 0.21819212 0.029594956 -0.2770557 0.14260669 0.012276553 -0.18982601 -0.18761875
-0.14829579 0.12510803 0.025618648 -0.14366016 -0.0013190426 0.124182574 -0.0813602 0.030187214
0.075979754 0.18960868 0.22149253 -0.038228665 -0.43860227 -0.1219237 0.17884733 -0.11733986
-0.31755507 0.013476403 -0.08401672 0.22502232 -0.08646105 -0.16667569 0.00707864 -0.23564908
-0.33533263 0.026527792 -0.021348545 -0.036222868 0.10051325 0.08554768 0.20244785 -0.119098835
-0.022030506 -0.03369147 0.019649038 0.06229942 0.026858827 0.06635656 0.1321607 0.29672006
-0.062667914 0.026283152 0.03808683 -0.18589804 -0.2544126 -0.14644927 -0.09773379 -0.0049217464
0.1180484 0.14899017 -0.07807032 0.3931583 0.27064872 0.015958026 -0.13874647 0.19569363
-0.26529008 -0.07160949 0.07634241 0.22037643 -0.044454172 0.20326617 0.12998149 -0.020954564
0.19909732 -0.2141915 -0.38786343 -0.0053052497 0.150615 0.13623099 -0.25469384 -0.11363632
-0.0894899 0.06728029 -0.081175596 -0.15128723 0.36881357 0.26014963 -0.08819856 -0.031476356
-0.28285918 0.10512118 -0.004301946 -0.035622943 0.19039199 0.29517853 -0.0168668 0.14854063
-0.054509368 -0.0788916 -0.14074321 -0.15058933 0.0128489565 0.12136061 -0.06768009 0.24085741
-0.29203072 -0.20903057 0.064014316 0.09648179 -0.109353885 0.11261385 0.2009104 0.02128337
0.038588684 0.018843304 -0.23071805 0.24703018 0.45482045 0.20047562 0.14992538 0.30236742
0.051559757 -0.082974754 -0.1846636 -0.3450161 0.17378263 0.30719942 0.034647875 -0.06703735

rb1.conv1.bias f4 [10]
00000000: 2de4 0539 584f 9d39 7422 a136 8515 9c38
00000010: 3cd7 a5b8 e01e 9934 3c36 5637 8e89 e336
00000020: 6367 93b7 0b14 efb7
0.0001276887 0.0003000449 4.802185e-06 7.442668e-05 -7.907904e-05 2.8520935e-07 1.2768021e-05 6.7811407e-06
-1.7571909e-05 -2.8500353e-05

rb1.bn1.weight f4 [10]
00000000: 35ac 4b3f cb42 9e3f 1bab 5a3f b437 5f3f
00000010: 6101 123f 88df 4c3f 35ed 2c3f 6375 7c3f
00000020: e0a6 523f 86cf 2c3f
0.7955964 1.2364134 0.85417336 0.8719437 0.57033354 0.8002858 0.6754945 0.9861662
0.8228588 0.67504156

rb1.bn1.bias f4 [10]
00000000: c278 a53e c80c 903f 5456 443c e8f2 1e3d
00000010: eb0b 633d 5fa4 b3bc 33a4 483b 5885 443f
00000020: 8d82 0a3f 2a6e fd3d
0.32318693 1.12539 0.011983473 0.038805872 0.055431288 -0.021928964 0.0030615448 0.76765966
0.54105455 0.12374528

rb1.bn1.running_mean f4 [10]
00000000: 2c77 3bbc eee0 f9bb 86b8 3d3c 065e d33c
00000010: 73c5 c5bc e856 bd3d 5aff 7ebd 1ff1 61bb
00000020: 78f5 33bc 1ec3 f1bc
-0.011441987 -0.0076256907 0.011579638 0.02580167 -0.024142003 0.09245092 -0.06225524 -0.0034475995
-0.010983817 -0.029511984

rb1.bn1.running_var f4 [10]
00000000: 8303 a23d e78a 1f3d 23fb 443e 86fc 6b3e
00000010: b8c2 223d e777 cf3e 1ddf 583e d337 6d3d
00000020: c3a2 283d 4cf0 c73e
0.07910826 0.038950827 0.19236426 0.23045549 0.03973648 0.40521166 0.21178861 0.057914566
0.041170847 0.3905052

rb1.conv2.weight f4 [10, 10, 3, 3]
00000000: 3cc1 83bc d650 41be 142e cfba e3da 903c
00000010: 7c46 11be 999e 4bbd 4fd9 773c 0606 51bd
00000020: c6a7 e5bc 14da 933c 59db 343e 7aaf 82be
00000030: 5c52 85be 1af3 b0bd 3bce 133e 2363 113e
00000040: 9089 58be 6b25 c43c 8ba4 04be 27ad b63d
00000050: dc2a e4bd 325a a03b 25eb 50be 1e01 30be
00000060: 35fe 9b3c bde7 db3d 97ad 213e 9e04 1a3e
00000070: 69bb 1e3e 0aa0 013e 3338 d63d f022 e53d
00000080: 1039 d43c 5c66 03be 8cf3 98bd 3038 72be
00000090: 314d 08be e2ae 413d a8d1 34bd fe70 c1ba
000000a0: 37e4 c1bd 31da 993c 7a40 7cbd 917e 24bc
000000b0: 3f79 9abd b38f ac3d 5bca 713e df88 2d3e
000000c0: c86e cabc 7621 353b 5f2e 11bd 1285 50bd
000000d0: 3858 503d 1e84 203e 0318 80bd 4ef5 27bd
000000e0: 4b1e a7bd 19af b5bd 93d3 6fbe e11c a5bd
000000f0: 1904 c73d 79cc 8c3d cee3 78bd 5235 1cbd
00000100: c19f e23d c175 8e3e 3b5b 72bd d6cf 82be
00000110: 165b cabe 7d70 a63c 1813 293e 8767 db3d
00000120: f797 39bd be4e 2bbe a16a d7bd a510 f63d
00000130: d11f 6d3d 7202 d73d 669b 4cbe d49a 81bc
00000140: 0c52 43bd d457 a4be 26d2 a1be e611 e7bd
00000150: 8fa4 33be f217 41bd 4c08 3dbd 66ef 06be
00000160: f6b9 9fbd 498d 733d 28c2 11bc 0709 f0bd
00000170: f15d 033e d017 ab3c e8a3 863d f8f2 9f3e
00000180: 518f 35bd b17b 273e 2a19 bfbd c517 dd3d
00000190: 6783 a33d 1713 2ebe 2876 233e a8f1 edbe
000001a0: 6c98 783d 5f91 a0be d46f f73d f4a9 123e
000001b0: 1b18 983c 5179 0a3e 293b d1bd 7b93 d5bb
000001c0: 6e7c 2fbe 3ef7 1abe 57f7 d73c 6efc c3bd
000001d0: b810 65bd 5f95 67be 5b8c cf3d 4c83 403d
000001e0: 6af1 8e3d b807 49bd 9957 c8bd 1b35 e53b
000001f0: f8b5 44be 99b2 64bc 8a04 3e3e 56b0 603e
00000200: 90e6 353d 8385 963d a928 fabc 4cba c4bd
00000210: 4dce 99bc 64a5 14be 11fd 27be 6d3a a3bd
00000220: 113f adbd a194 bcbd 884c 50bd f806 7bbd
00000230: a24f 01be 0394 9cbd 2bfd 37be 61d5 74bd
00000240: 5ab8 d33d 79aa 233e f0f4 dc3d ae6c 1b3e
00000250: 7de8 343e e6d8 fb3d c331 183e b210 3e3e
00000260: 6555 fa3c 95f5 be3d 3e17 8fbe 3387 8fbb
00000270: adc8 40bd 08ab 83be e6fe 4e3e f51b 36bd
00000280: 73e7 833e 825b c2bb a02f d63d 465a 7ebb
00000290: f518 57be 71f9 193d 07e0 d9bd 2c6c 1d3e
000002a0: 9680 16bc 9f9a 123e 4122 05bd f8d5 e6bc
000002b0: 11dc bfbb d55f 9e3c 737e 493d be40 f5bc
000002c0: 92be 193d 05a2 89bd 1190 1a3e d86f 0e3d
000002d0: 4ead e43c 0577 a5be 4467 86bd 8198 5e3c
000002e0: 425a 99bd 5ec3 cbbc d602 b03d b7cc 863d
000002f0: 1416 8d3d ca79 8fbd 7e72 0bbe 734b 233c
00000300: 2263 92bd cbee 18be 5332 e2bc 5bd6 95bb
00000310: fbc4 123e 0423 1e3e 3632 883e e7d5 4d3d
00000320: 564a 413d 50f2 b63e 7fcd 7c3d 4f67 20be
00000330: 6921 a43d 2673 e4bd 9713 2dbd b7a0 bc3d
00000340: 61b0 4d3d 2f29 ec38 3438 28bb b500 193d
00000350: 08ce 5c3b 4a4a 923e c05c 16bc f13f da3c
00000360: d032 c53d 956f f43d f347 013d 2821 703e
00000370: e23e 993d 6364 1f3d b999 b53d ac97 443d
00000380: ad71 3d3c 80cb 5d3e ab09 6b3e 1cf8 343e
00000390: c600 3b3e 5f33 c33d 9a9a 2f3d 6500 1e3d
000003a0: 1213 2c3d 4069 d6bd f76f 9a3c 5d9a 3bbd
000003b0: b480 edbd d87d a63c 0472 42bd c676 e8bd
000003c0: 440d de3c e9c4 0bbc b20d ebbd 9ea6 2a3e
000003d0: 39ee d63d 8bb5 44bb c45d 933d 4841 9f3d
000003e0: a33d 91bc ed7c debd 02d9 ef3c 5ce7 4bbd
000003f0: 11b6 8d3e cbb4 933e 07ce 78bd 7a84 4b3e
-0.016083352 -0.18878493 -0.0015806579 0.017682498 -0.14187044 -0.049711797 0.015127494 -0.051031135
-0.028034102 0.018048324 0.176618 -0.25524503 -0.26039398 -0.08640118 0.1443414 0.14197974
-0.21146226 0.023943624 -0.12953393 0.08919745 -0.11140987 0.0048935646 -0.204022 -0.17187926
0.019042114 0.1073756 0.15788876 0.15040824 0.15501179 0.12658706 0.10459938 0.111883044
0.025906116 -0.12832016 -0.07468328 -0.23654246 -0.13310696 0.047285922 -0.044145256 -0.0014758406
-0.09467357 0.0187808 -0.061584927 -0.010039941 -0.07542657 0.08425846 0.23612349 0.16946743
-0.024711028 0.0027638352 -0.035444614 -0.050908156 0.050865382 0.15675399 -0.0625458 -0.041005425
-0.08160075 -0.08871288 -0.23420553 -0.08062149 0.097175784 0.068749376 -0.060764126 -0.038136788
0.11065627 0.27824214 -0.059169035 -0.2554919 -0.39522618 0.02031731 0.1651119 0.10713106
-0.04531094 -0.16729257 -0.10518385 0.120148934 0.05789167 0.10498513 -0.19981155 -0.015820898
-0.047685668 -0.32098258 -0.31605643 -0.11282711 -0.17543243 -0.047141977 -0.04615049 -0.13177261
-0.07799141 0.059460912 -0.008896388 -0.11720472 0.12828805 0.020885378 0.065742314 0.31240058
-0.04432613 0.16355778 -0.093309715 0.10795549 0.079840474 -0.1699947 0.15963042 -0.46473432
0.060692236 -0.3136091 0.120818764 0.14322644 0.018566182 0.13522841 -0.10216362 -0.006517825
-0.1713731 -0.15133378 0.026363058 -0.095696315 -0.055924147 -0.22615574 0.101341926 0.047000214
0.0697964 -0.049079627 -0.09782333 0.006994856 -0.1921004 -0.013958597 0.18556419 0.21942267
0.044409335 0.07349684 -0.030536966 -0.09605846 -0.01877513 -0.14516217 -0.16405131 -0.07970128
-0.084592946 -0.09208036 -0.050854236 -0.061285943 -0.12628034 -0.076454185 -0.1796767 -0.059773806
0.10337897 0.15982999 0.107889056 0.15178177 0.17666812 0.122972295 0.14862733 0.18561056
0.030558297 0.09324185 -0.2794742 -0.0043801307 -0.04706638 -0.25716424 0.20214424 -0.044460256
0.2576252 -0.0059313187 0.104583025 -0.0038811131 -0.21005614 0.0375914 -0.10638433 0.15373296
-0.009185931 0.14316796 -0.03250337 -0.0281782 -0.0058550914 0.019332806 0.049192857 -0.029938098
0.037535258 -0.06720356 0.1509402 0.03477463 0.02791467 -0.32317367 -0.06562665 0.013586164
-0.074879184 -0.024873432 0.08594291 0.06582015 0.06888977 -0.07005651 -0.13617894 0.009966719
-0.07147814 -0.14934842 -0.027611887 -0.0045726723 0.14332955 0.15443045 0.26600808 0.05025282
0.047190033 0.35731745 0.061719414 -0.15664409 0.08014185 -0.11154775 -0.04225501 0.092103414
0.050217036 0.00011261028 -0.0025668265 0.03735419 0.003369214 0.28572303 -0.009177387 0.026641818
0.09628832 0.11935345 0.031562757 0.23450148 0.07482697 0.038914096 0.08867211 0.047996208
0.011562747 0.2165966 0.22952907 0.17672771 0.18262014 0.09531283 0.04287205 0.038574595
0.042010374 -0.104692936 0.018852217 -0.04580151 -0.11596814 0.020323679 -0.047472015 -0.11350779
0.027105935 -0.008530834 -0.114772215 0.16665122 0.10494656 -0.0030015435 0.07195619 0.07776123
-0.017729586 -0.108636715 0.029278282 -0.04978119 0.27677968 0.28848872 -0.060743358 0.19874755

rb1.conv2.bias f4 [10]
00000000: fc4a 7a38 6285 acb7 f6b5 0337 ab30 ab38
00000010: 6d40 bcb7 4400 0b38 57b4 33b8 a2a7 5537
00000020: 341b 3337 a82d 9e38
5.967448e-05 -2.0566109e-05 7.850575e-06 8.1629805e-05 -2.2441347e-05 3.314043e-05 -4.284488e-05 1.2734819e-05
1.0675565e-05 7.542531e-05

rb1.bn2.weight f4 [10]
00000000: 00a4 843f 943a 913f bd4c 4e3f 2787 8d3f
00000010: 9af5 393f a520 893f 3ada a93f 1aef 883f
00000020: e696 8e3f 8fc4 5b3f
1.0362549 1.1346002 0.80585843 1.105687 0.72640383 1.0713087 1.3269722 1.0697968
1.11398 0.858468

rb1.bn2.bias f4 [10]
00000000: 7fff 723d 0153 7cbd 451e 953e d3ba bbbc
00000010: 569d 853e 7b55 c03d 08a8 83bc 5498 d13d
00000020: f2df 723d 1aae 8e3e
0.05932569 -0.061602596 0.29124656 -0.022916233 0.260966 0.09391304 -0.016071334 0.102341324
0.059295602 0.27867204

rb1.bn2.running_mean f4 [10]
00000000: 81fb 9dbf b868 8abe 4b64 4c3f 9077 d8bc
00000010: 1fa1 0dbf f476 14be b2a2 1dbf 5054 88be
00000020: 6cbb b53d 0799 c63f
-1.2342378 -0.2703302 0.79840535 -0.0264242 -0.55323976 -0.14498502 -0.6157638 -0.26626825
0.088736385 1.551545

rb1.bn2.running_var f4 [10]
00000000: e4b5 c03f 06a0 9f3f 5d6f 803f 375a c53f
00000010: 6ca4 453f 4287 cb3f 490a 0040 3068 cb3f
00000020: c06d f23f 1813 d23f
1.5055509 1.247071 1.0033985 1.5418156 0.7720401 1.5900652 2.0006278 1.589117
1.8939743 1.6412077

rb1.shortcut.conv.weight f4 [10, 3, 1, 1]
00000000: 5af0 e63e a2b6 293c bb2d ac3e 9606 a7be
00000010: 07a9 0dbf 49d2 bbbe e9e2 bd3e a92a b5be
00000020: 72a6 d93d f4af f0be e777 33bf e33b 2d3e
00000030: 1cec d3bd 2135 4abe e7d5 133f 7fc7 c03e
00000040: c4d5 143e a3d2 f43e 6e0a b9be 7e68 adbe
00000050: b3e1 a7be 6f51 90be 9712 35bf 1b42 833e
00000060: e3fa 99be 9785 05bf 6ff0 84bd 22c1 91be
00000070: 48d1 613d eb10 15bf
0.4510525 0.010358484 0.3362864 -0.32622212 -0.5533604 -0.36683872 0.3708718 -0.3538411
0.1062745 -0.47009242 -0.7010483 0.16917376 -0.10347769 -0.1974683 0.57748264 0.37652203
0.1453467 0.47816953 -0.3614077 -0.33868784 -0.32789382 -0.2818713 -0.7073149 0.25636372
-0.30074224 -0.52156967 -0.064911716 -0.2846766 0.055131227 -0.5822894

rb1.shortcut.conv.bias f4 [10]
00000000: 8f18 0538 3d08 c937 e213 bfb8 c92a 48b5
00000010: e227 e2b7 39a6 a3b8 f3f5 4738 77d8 9737
00000020: 8da1 64b8 ccb1 a7b5
3.1732543e-05 2.3964903e-05 -9.111293e-05 -7.4568067e-07 -2.6959871e-05 -7.803407e-05 4.7674355e-05 1.8101402e-05
-5.4509892e-05 -1.2494215e-06

rb1.shortcut.bn.weight f4 [10]
00000000: df68 793f 3034 6a3f fe61 803f 2a21 643f
00000010: e944 923f e2b3 6f3f fe61 133f 09f3 2c3f
00000020: c29a 643f 756e 673f
0.97425646 0.9148588 1.0029905 0.89113104 1.142728 0.93633854 0.575714 0.6755834
0.8929864 0.9040292

rb1.shortcut.bn.bias f4 [10]
00000000: 7fff 723d 0153 7cbd 451e 953e d3ba bbbc
00000010: 569d 853e 7b55 c03d 08a8 83bc 5498 d13d
00000020: f2df 723d 1aae 8e3e
0.05932569 -0.061602596 0.29124656 -0.022916233 0.260966 0.09391304 -0.016071334 0.102341324
0.059295602 0.27867204

rb1.shortcut.bn.running_mean f4 [10]
00000000: 3b8f 50bd aac2 993d 11bb fcbb 2f44 063d
00000010: d8e9 3abd 7274 8dbd 221c 7f3d 6ac1 8e3c
00000020: 23c3 2b3d 92d7 883d
-0.050917845 0.07507832 -0.0077127297 0.03277987 -0.045633167 -0.06906976 0.06228269 0.017426211
0.041934144 0.06681742

rb1.shortcut.bn.running_var f4 [10]
00000000: fc05 1b3e de4b bd3e 58e3 0e3c 629f 7b3e
00000010: 995e 083d c850 743e ae29 803e 7498 0a3e
00000020: 82ec 3f3e 52ec 253e
0.15139002 0.36971945 0.008721195 0.24572518 0.03329334 0.2385894 0.250318 0.13534719
0.18742564 0.1620343

rb2.conv1.weight f4 [20, 10, 3, 3]
00000000: afc4 953d db8a 023e b731 983d 7bf2 283e
00000010: be9e 6c3e b3a5 e63d fea9 1a3d 8250 d63d
00000020: bed4 013e da49 183e 1d2e e7bd 525c fbbd
00000030: faa3 fdbd 3053 a2bd 5129 01bd 707c 1b3e
00000040: f2a9 15be d6eb c7bd ec37 b9bd b30a a2be
00000050: 6197 38be a199 033b 8aa5 87be 78f8 23be
00000060: c497 3a3d 7722 463d e4fc c7bd e4b8 d1bc
00000070: 4fc2 f3bd 774b cb3d e766 b23d f513 923d
00000080: e8da de3d 2268 253d e4fb 1b3d 21e7 553e
00000090: 512f aabb d04e 003e eb18 febc 8227 67bd
000000a0: 654c 833c c0da a53d 9adf b03c 334a 98be
000000b0: 9d67 6fbe f1a7 be3d dd4c 353d 862b 9b3d
000000c0: 981c 17be 51de 94bd aff9 bcbd cf0d 3dbd
000000d0: 1942 efbe 0540 11bd 4007 e43d de9a a63d
000000e0: 11fa 223e 9e89 893d ccb7 0c3d b2eb f73d
000000f0: dd1f 383d 3ec2 0bbd 8d6f 2fbd 7aa0 913d
00000100: 0d72 bebd 270a 793d d08f acbd 80ec afbe
00000110: 9d16 70bd 2a2a 733d dec1 17be 4642 edbd
00000120: 60b1 48bc 8ca5 873c dac2 2abe a118 2dbe
00000130: da48 973d 6e05 263e a43f 28be 78a9 10bd
00000140: a3fd b53d db60 06be e5c1 963c 4fb4 17be
00000150: 9927 27bb 4ad4 0a3d 4ff4 04bd 0ffa a4bd
00000160: 9ae3 5a3d d13a 603e c418 7dbe 7d1c 2ebe
00000170: 79e2 98bd e801 2c3d d9f0 2ebd 33c0 443b
00000180: dce3 203e e655 3c3e da0c 613e e047 90be
00000190: dca8 07be 5168 0abd 3a00 14be 9a61 bc3d
000001a0: aa54 a2bb 6036 90bd 74c3 f3bc 3ea8 84bb
000001b0: b577 83be c67a c3be 70ae 77be 07f2 d23d
000001c0: bf1b b03c 6bc8 b0bc 948e 4b3e ed1e 843e
000001d0: 27e1 a03e a51b 8cbd 9b54 d33c 86ba 79bc
000001e0: 061f 28be d67d 703d b963 cbbd f9ba aebd
000001f0: ce42 4fb9 31e0 a3bd 123b 3c3e 3d3d 743e
00000200: 269e 9c3c 9a19 d73b ab13 5dbc 6060 07be
00000210: 5ec3 3dbe ae14 7bbe 6b5a 66be c608 37ba
00000220: 4d50 e4bc 6fd4 103e 4177 67bd 7368 4c3d
00000230: 8ddf 493d 5eef 2d3d 5053 53b9 726a af3d
00000240: 20cd bc3d d1e8 df3d 14ab 333d fc93 86bd
00000250: c1ea 3b3c 1d87 e3bd 5306 94bc 45d7 923c
00000260: 926d 37bd 0498 153e 7eb6 923e 16b3 083e
00000270: d304 69bc 61c4 a73d 6f1b d53d 5fbf 07be
00000280: 9a98 7d3c 9254 5fbd 7cc2 dabd 9cb3 993d
00000290: 0fb0 95bd cebe f3bd 4bd3 9c3d 3ca1 34be
000002a0: 27a7 963c 7cbf e83c cf8f 73bd 5315 7ebd
000002b0: 5deb 663c 0095 a93c 6d43 863c 8812 0e3e
000002c0: 8081 633d 756a 45bc 95a2 a23d e4ea 82bd
000002d0: a445 11bd 5d1f 943d 6082 d1bd 9122 b1bc
000002e0: 1d34 403d b300 1bbd 7f57 bfbc c850 3ebd
000002f0: 83bf 6e3d 0f62 7dbc acd8 bf3c a2ac 3b3e
00000300: 230c 20be aa34 963d d24d e83d 5f4f bbbd
00000310: 19b3 86be 073e 3abe c565 cc3d 446a 44be
00000320: 6504 6a3d 940f 403e b359 e6bc b437 9bbc
00000330: 0164 4e3d 038e 373d 287d 773d bcb3 773e
00000340: 1fc9 6f3e 70c1 023e 6d5d 28bd f316 483e
00000350: 8203 403d ecf8 a8bd 712a ea3d 6199 0c3d
00000360: 205d 25be 4ce4 443c 7ce2 77bd 32e4 97bd
00000370: e087 8bbd a478 5dbb 6317 d43d 10b9 39bd
00000380: 4a31 3ebb 1060 003e 5a04 363d 2d16 afbd
00000390: 3a21 a5be 9025 453d f784 243d 3dee 80be
000003a0: b6ec 013d 5c42 a93d 893a 723e ed78 393e
000003b0: 1765 243d 964f bcbd b64c 93bd da07 e4bd
000003c0: 7808 17bf 8b53 e4be fbe2 0abe 0a86 4cbd
000003d0: f765 0d3c 16a7 693d cb92 e6bd 48d1 7c3d
000003e0: 4707 a03d 6626 81bd b67a a3bd ceb3 c6bd
000003f0: 8443 b7bd ccbd 97bd dfe4 b8bc eaad 2dbe
0.07312905 0.12748282 0.07431357 0.16498749 0.2310743 0.11262073 0.037759773 0.104645744
0.12678811 0.14871922 -0.11288092 -0.12273468 -0.12384792 -0.07926023 -0.031533543 0.15184188
-0.1461561 -0.09761779 -0.090438694 -0.31648788 -0.18026496 0.0020080584 -0.26493484 -0.16012752
0.04555489 0.048372712 -0.09765032 -0.025600858 -0.11902296 0.09926503 0.08711033 0.07132713
0.10881597 0.040382512 0.03808202 0.2088895 -0.005193629 0.12530065 -0.031017741 -0.056434162
0.016027639 0.08098364 0.021590997 -0.2974411 -0.23379369 0.09309376 0.044262756 0.07576661
-0.14757001 -0.07268966 -0.09227311 -0.046155747 -0.46730116 -0.035461444 0.11134195 0.08135007
0.15915705 0.067157015 0.03435497 0.12105502 0.044952262 -0.03412079 -0.042830992 0.071106866
-0.09299097 0.060800698 -0.084258676 -0.34360123 -0.058615316 0.059366383 -0.14820048 -0.11584906
-0.012249321 0.016558431 -0.16675892 -0.16903926 0.07386942 0.16213009 -0.16430527 -0.035317868
0.08886268 -0.13122885 0.018403003 -0.14814876 -0.002550578 0.03389386 -0.032459553 -0.080555074
0.053439714 0.21897437 -0.24716479 -0.17003055 -0.07465071 0.041994005 -0.04271016 0.0030021786
0.15711921 0.18392143 0.21977559 -0.28179836 -0.13248008 -0.03379089 -0.14453211 0.091983035
-0.0049539404 -0.07041621 -0.029756285 -0.0040483763 -0.25677267 -0.38179606 -0.24187636 0.10300069
0.021497605 -0.021579942 0.19878608 0.25804844 0.31421778 -0.0684121 0.025797179 -0.015242225
-0.16418085 0.058713757 -0.0993113 -0.08531756 -0.00019765945 -0.080017455 0.18381909 0.23851486
0.01911838 0.0065643312 -0.013493459 -0.13220358 -0.18531558 -0.24519607 -0.22495429 -0.00069822033
-0.027870322 0.14143537 -0.056510214 0.049904298 0.04928546 0.042464606 -0.00020153564 0.08565225
0.09218812 0.10933078 0.043864325 -0.065711945 0.011469544 -0.11109755 -0.018069422 0.017924914
-0.04478223 0.1460877 0.28654855 0.13349566 -0.014222342 0.08191753 0.10405623 -0.13256596
0.015478278 -0.054524012 -0.10681626 0.07504961 -0.07308971 -0.119016275 0.076574884 -0.17639631
0.018390251 0.02841162 -0.05946332 -0.062032055 0.014094201 0.020700932 0.016389573 0.13874257
0.055543423 -0.012049307 0.07941166 -0.06392458 -0.035466805 0.072325446 -0.10229945 -0.021622928
0.0469247 -0.037842464 -0.023357151 -0.046463758 0.05828811 -0.0154652735 0.023418747 0.18327573
-0.1562963 0.073342636 0.11342968 -0.09145998 -0.26308516 -0.18187724 0.099803485 -0.19181162
0.057133097 0.18755943 -0.028118944 -0.01894746 0.05038834 0.044813167 0.060422093 0.24189657
0.23416565 0.12769103 -0.041104723 0.19540004 0.046878345 -0.08250603 0.11433876 0.03432596
-0.16148806 0.012017321 -0.060518727 -0.07416572 -0.068130255 -0.0033793831 0.10356023 -0.045342505
-0.0029021078 0.12536645 0.044437744 -0.085491516 -0.32251912 0.048131526 0.040165868 -0.2518176
0.031719886 0.0826461 0.23655142 0.18112536 0.04013547 -0.09194867 -0.07192366 -0.1113431
-0.589973 -0.44594988 -0.13563149 -0.049932517 0.008630267 0.05704411 -0.11258467 0.061723024
0.07813888 -0.06306152 -0.0798239 -0.09702264 -0.089484245 -0.07409248 -0.022570072 -0.16960874

rb2.conv1.bias f4 [20]
00000000: 0d14 5cb8 b867 6437 6f25 c7b7 dd72 68b6
00000010: 913b 8f37 5d31 0137 2afa 1138 152e 9bb6
00000020: 63ba 9eb6 d050 00b8 5f31 92b7 9fac b7b7
00000030: 5a9b c9b7 7c50 7bb7 6aff 85b5 84f3 28b8
00000040: 154d 47b8 91f2 8cb7 5c83 5336 3dec 21b8
-5.247076e-05 1.3614008e-05 -2.374008e-05 -3.4637553e-06 1.7074666e-05 7.7004925e-06 3.4803677e-05 -4.6247246e-06
-4.730465e-06 -3.059284e-05 -1.7427546e-05 -2.1895683e-05 -2.4033408e-05 -1.4979505e-05 -9.983607e-07 -4.0281113e-05
-4.7517085e-05 -1.6802254e-05 3.1517911e-06 -3.8605405e-05

rb2.bn1.weight f4 [20]
00000000: 0fed 553f 53fc 5d3f 566b 653f 7eed 853f
00000010: 5c4b 883f 5753 3d3f 3d95 733f 401d 563f
00000020: 4fff 2e3f 268e 5b3f fc3a 473f cdc1 813f
00000030: 39ff 803f 13b9 743f 050b 6a3f 40b5 893f
00000040: e1b3 653f b060 603f c002 743f 1e07 713f
0.8356485 0.8671314 0.89616907 1.0463102 1.0647998 0.7395529 0.95149595 0.8363838
0.6835832 0.85763776 0.7782438 1.0137268 1.0077888 0.955949 0.91423064 1.0758438
0.897276 0.87647533 0.95316696 0.94151485

rb2.bn1.bias f4 [20]
00000000: 7908 3e3d fcca 22be 62e6 033e 7155 9dba
00000010: 6777 90be 996d 7ebd e945 df3c 28aa 313e
00000020: 6ccf 82bb eaf9 ba3d 8e5d 313d 5d0b 893d
00000030: 800f b5bd 32ae d23c a1f9 d8bd 12c2 9ebd
00000040: e7ad 0c3e 6d97 df3b 703c 033e 0ad6 afbd
0.0463948 -0.15897745 0.12880853 -0.0012003613 -0.28216097 -0.06211624 0.027255015 0.17350066
-0.003992012 0.091296986 0.04330211 0.066916205 -0.08840847 0.025717828 -0.10594488 -0.0775186
0.13738213 0.0068234713 0.12816024 -0.085857466

rb2.bn1.running_mean f4 [20]
00000000: f1b6 a9bf acd3 66be 4327 d1bf 85ed 3ac0
00000010: b4d0 9bbf 6cca 293e 8288 a5bf 29dd bfbf
00000020: f160 a73f d35b 83be d2f0 d8be 2a11 83bf
00000030: b764 1bc0 e7b8 29bf e376 49bf 6565 e6bf
00000040: 98b0 f9bf f240 b6be 513f dabf ca6b 16be
-1.3258954 -0.22541684 -1.6340107 -2.920747 -1.2173066 0.16581124 -1.2932284 -1.4989368
1.3076459 -0.25655994 -0.4237123 -1.0239613 -2.4280221 -0.66297764 -0.7869703 -1.7999693
-1.9507017 -0.35596424 -1.7050573 -0.14689556

rb2.bn1.running_var f4 [20]
00000000: a725 da3f 54d2 c13f 8498 e93f d3b7 3640
00000010: 1cc3 1640 97f6 b93f 5ee2 0f40 8d10 2040
00000020: a408 aa3f 979f 9e3f c0a1 c23f b933 1240
00000030: 6f92 1f40 30eb 0440 76cb be3f 8cd6 2b40
00000040: c4b5 1c40 6963 f33f e77b e03f 96f0 0d40
1.704274 1.5142312 1.8249669 2.8549697 2.3556585 1.4528378 2.2481914 2.5010102
1.3283887 1.2392453 1.5205612 2.284407 2.4933126 2.0768547 1.4905841 2.68497
2.448594 1.9014713 1.7537812 2.2178092

rb2.conv2.weight f4 [20, 20, 3, 3]
00000000: 57b9 d5bc c359 d53d 2b20 95bd 1d77 853c
00000010: 96a3 a33c 6c53 fabd e311 0bbd 49df 0abe
00000020: c877 a4bd a918 5bbe 5114 163e 1055 063e
00000030: a62d c13c 3d0c 3d3e 014b 013e 0490 3f3d
00000040: 439b 813d 0c84 133e ef06 883c 70cf 3abd
00000050: 88ee 5a3d 5d82 193e cd7e 433d e309 ad3c
00000060: 72d1 02ba 4d0a 73bc 88c9 eabd d54c 33be
00000070: fb99 aebc 22cc 07be 220f d6bd 843d d83d
00000080: b46c 82be 0304 8abe 4069 2cbd 6507 ebbc
00000090: c828 e5bd 8581 9abd cb3d d4bd c175 653b
000000a0: b3c5 7e3c 6aa2 0ebd 874a a63d 3b42 1d3e
000000b0: cf79 273d 9dfd 1bbe 2822 bebc a62a bebd
000000c0: 5d0b 1bbe 162c 1c3e 732f d83c ce13 a13d
000000d0: 5562 82bc 76ef 063d 72a1 a6bc c2f3 0abc
000000e0: 1ac3 b7bd 9319 c03d 82e7 dd38 3c59 a0bd
000000f0: 8404 00be 9c35 21be 759c 393d b855 3fbe
00000100: fff8 aabd 38a3 15be 43a1 13bd 8bcb 0bbe
00000110: 9006 1abe 2547 e5bd aad9 5bbe 0be4 8d3d
00000120: 5f71 2e3e 4bbe 87be 7cfc 60be a735 7e3e
00000130: 9de5 263d 217d debd 6c5f abbd 16d2 4a3d
00000140: 79b1 0e3e 233f 563d 7daf 61be 81e0 45be
00000150: 18b8 ab3d 5e67 ddbd ea04 133e cb4f 7bbd
00000160: ad90 853d 4aff 8e3e fd4f 2ebb 6532 ad3c
00000170: 40f8 c6bd 0028 373e bd27 8d3d 289c 89bd
00000180: d273 8f3d cba2 1bbe 4ccc 8abe 0180 b33a
00000190: ba1b 813d c012 073e f06d 643c c0bf 3fbd
000001a0: 1d0c 0b3e cb15 c5bd ce5b d4bd 26bb a0bd
000001b0: 1d9a cdbc 8ff0 823d 84c3 8bbc bfa5 03be
000001c0: aea8 12be 0b54 c4bd 5db0 97be 283c 34be
000001d0: c178 32be e14b 143c a02d 093d 99f1 a8bc
000001e0: 40ea f53d 5612 1cbd 92ab 983d d015 e33d
000001f0: f049 e8bb 36ed 80bb dedc 363e 6e34 cf3c
00000200: a443 193e eb6f 33bb 847e cfbd 0e5c e13d
00000210: 9e8e 4a3d ff9b 0f3e a7e6 4e3e 5245 a43d
00000220: ded5 8f3d c9d6 f23d 8528 a23c 9132 cd3d
00000230: 9d5d b13d a2f7 263d db46 a1bc c4c7 60be
00000240: 147b 6e3d 5272 10bb e55a ee3c 63b1 7d3d
00000250: 5b82 d93d e497 223d b04b c8bd c72f 28bd
00000260: 432b 793d 94d6 a33d 4265 e8bd 9b7a 963a
00000270: a42a 0a3d f2ba 1dbe c6c5 683d 9ec4 19bc
00000280: 4d75 88bc f0cf 75bd d1b8 0ebe d05d 65bc
00000290: 2f26 9cbc f38d f8bd 0023 ea3d 6d19 553d
000002a0: b404 7fbe fabd 1cbd 3da6 e6bd 3211 7c3e
000002b0: 0e41 473d 01b8 c03d 1891 563d b7a9 a03d
000002c0: dac8 173e ad27 1a3e 8a88 383e 4c7b 143d
000002d0: 382e 123e 940b 023e 42a3 48be 1f68 68be
000002e0: b127 9d3d 4431 e1bd 4397 e43b 96de 7dbd
000002f0: e6f9 00be 541f 6fbd e53b 72be 7745 1ebd
00000300: 7ed1 063e 28f8 1abd 0efe a63d 247e 9b3d
00000310: 962a 793d fe3b 98ba d31f c1bd 9d1b a3bd
00000320: d793 5cbd 85f2 5fbe ba30 9abd 5db0 1ebd
00000330: a71c 2bbd 3827 003d 7d0b 5b3d b989 18be
00000340: 5ce8 aebb 8bfb 94bc 7a54 0cbe 4637 a43d
00000350: 3715 d4bd 1852 69be c5c4 20be 409e 0cbe
00000360: c23d 46be e6b9 13be bebf eabd 06a4 8abd
00000370: 7021 a9bb b1bb 28be 5e00 cc3d 5d50 7cbd
00000380: 5de5 edbd 13d9 5dbd c6c6 91bd 6529 243e
00000390: 81ff 67be 9412 5dbe 0b2c 823d 5abe 9d3c
000003a0: fee6 3abc 0070 ad3d 2a3c 35bc e1ae 28bd
000003b0: 8305 1e3e 5a6f 20bd 6f65 223c 8468 093d
000003c0: a8f0 5bbc d9ce e53d 194c b7bc c081 eb3c
000003d0: 8597 fb3c 2b8b 4fbe 475b 843d f89b de3d
000003e0: 3222 adbd f392 26bd 06df 80bd 8481 e3bd
000003f0: 6eee 02be e7b6 46bd a487 74bd 362b d93d
-0.026089353 0.10417511 -0.07281526 0.01629215 0.019975465 -0.12222943 -0.033952605 -0.13561739
-0.08030659 -0.21396126 0.14656188 0.13118386 0.023581337 0.184617 0.12626268 0.046768203
0.06328442 0.1440584 0.016604869 -0.045607984 0.053450137 0.14991136 0.04772835 0.021122878
-0.0004990316 -0.014833999 -0.1146422 -0.17509778 -0.021313658 -0.13261464 -0.10452105 0.10558608
-0.2547356 -0.26956186 -0.04209256 -0.02869005 -0.11189419 -0.07544235 -0.103633486 0.0035012814
0.015550065 -0.03482286 0.08119684 0.15357296 0.04088765 -0.15233465 -0.023209646 -0.09285478
-0.15141053 0.15251192 0.026389813 0.078651056 -0.015916029 0.03294321 -0.020340655 -0.008480968
-0.089727595 0.09379878 0.00010581223 -0.0782952 -0.12501723 -0.15743107 0.045315225 -0.18685043
-0.083482735 -0.14613044 -0.036042463 -0.13651864 -0.15041566 -0.1119521 -0.21469751 0.06928261
0.17035435 -0.2651237 -0.21971315 0.24825154 0.04074632 -0.1086371 -0.0836781 0.04951676
0.13934888 0.052306306 -0.220396 -0.19323923 0.083847225 -0.10810731 0.14357343 -0.061355393
0.06521735 0.27929145 -0.002659797 0.021142194 -0.09715319 0.17886353 0.06892345 -0.067192376
0.07004513 -0.1519882 -0.2710899 0.0013694764 0.063041165 0.13190746 0.013942227 -0.046813726
0.1357884 -0.09623297 -0.10369073 -0.07848196 -0.025097901 0.06393539 -0.017061003 -0.12856196
-0.14322159 -0.095863424 -0.29626742 -0.17601073 -0.17428876 0.009051294 0.033490777 -0.020623015
0.1200757 -0.038103424 0.074545994 0.11088145 -0.007088892 -0.0039345277 0.17857692 0.025293555
0.14967209 -0.002737994 -0.10131553 0.11003886 0.049452417 0.14024352 0.20205174 0.08021034
0.07023214 0.11857373 0.019794712 0.100194104 0.086604334 0.040763505 -0.019687107 -0.21951205
0.058222845 -0.0022040796 0.029096076 0.061936747 0.106205665 0.039695635 -0.09780061 -0.04106119
0.060832273 0.07999912 -0.113474384 0.0011480631 0.03373207 -0.15403345 0.056829236 -0.009385256
-0.016657496 -0.060012758 -0.1393769 -0.013999417 -0.019061176 -0.1213645 0.11432457 0.0520262
-0.24904138 -0.038267113 -0.11262176 0.24615934 0.048646025 0.09410096 0.052384466 0.078448705
0.14822713 0.15054198 0.18020836 0.036250398 0.14275444 0.12699729 -0.19593528 -0.22695969
0.07673586 -0.10995725 0.0069760396 -0.061979853 -0.12595329 -0.058379486 -0.2365566 -0.038640466
0.13165852 -0.037834316 0.08153926 0.07592419 0.06083163 -0.0011614559 -0.09429898 -0.07964251
-0.05385193 -0.21869858 -0.07528825 -0.038742412 -0.041775372 0.031287402 0.053477753 -0.14896287
-0.005337758 -0.018186351 -0.137041 0.08018355 -0.10355609 -0.22785223 -0.15700062 -0.13732243
-0.19359496 -0.14426383 -0.11462353 -0.06769566 -0.0051614568 -0.16477849 0.099610075 -0.061600078
-0.11616013 -0.054162096 -0.07117991 0.16031416 -0.22656061 -0.21589118 0.06356057 0.019255806
-0.011407612 0.08468628 -0.0110617075 -0.041182403 0.1543179 -0.039168693 0.009911879 0.03354694
-0.013424076 0.11221094 -0.022375153 0.028748393 0.030711899 -0.20267932 0.06462722 0.108695924
-0.08453788 -0.040667485 -0.06292538 -0.111086875 -0.12786266 -0.048514273 -0.05969967 0.10603945

rb2.conv2.bias f4 [20]
00000000: c975 7237 ad67 f136 012e 9ab7 74a0 1037
00000010: 92ab 8537 6c0e f0b6 c8d5 a5b5 6069 e7b5
00000020: 4c9c a137 800f 85b7 c434 bfb7 dc7e 8e37
00000030: 06fd 67b7 d4f8 d937 c5b2 3c38 0961 99b7
00000040: 8042 6833 4a53 5ab7 60e5 e936 e421 0137
1.4451748e-05 7.194429e-06 -1.8379653e-05 8.620427e-06 1.593473e-05 -7.1542363e-06 -1.2355677e-06 -1.7241509e-06
1.9265477e-05 -1.5862053e-05 -2.2793545e-05 1.6986793e-05 -1.3827585e-05 2.5984285e-05 4.4989185e-05 -1.8284207e-05
5.407719e-08 -1.3013205e-05 6.970644e-06 7.69689e-06

rb2.bn2.weight f4 [20]
00000000: ccc6 593f f0bf 6a3f 687c 973f 8659 8e3f
00000010: 9e4f 983f 82db 8b3f cace 9e3f b0db 9b3f
00000020: 38f8 9d3f 3bfa 923f d582 923f 1cb5 7e3f
00000030: 6c90 943f 9782 813f 4fe5 8b3f eb93 a23f
00000040: ca93 aa3f 804b a53f b182 8c3f 7ba9 5d3f
0.85068965 0.91699123 1.1834841 1.112107 1.1899297 1.0926363 1.2406857 1.2176418
1.2341375 1.1482614 1.1446177 0.994951 1.1606574 1.0117978 1.0929354 1.2701391
1.3326352 1.2913666 1.0977384 0.8658673

rb2.bn2.bias f4 [20]
00000000: b31a 553e 66ac 5a3d 196d 3abe f2f4 bc3a
00000010: 6682 9fbd 0c1a 2abe 6e75 b93d bfb2 74be
00000020: 4c17 6f3e fff6 24be 016c 683d 28b0 06be
00000030: 9daa 38bc c724 4e3d fc2a 3fbc 6f9f 423e
00000040: 2b8f a9bc aa45 fabd 9731 cc3d c736 8cbe
0.20810966 0.05338707 -0.1820568 0.0014416261 -0.077885434 -0.16611499 0.09055601 -0.23896311
0.23348731 -0.16109847 0.056743626 -0.13153136 -0.011271146 0.050328042 -0.011667963 0.19006132
-0.02069815 -0.122203186 0.09970396 -0.27385542

rb2.bn2.running_mean f4 [20]
00000000: 0f33 21bf e3ad 01c0 c2b0 8bbf f76e 93bf
00000010: ec4c 34bf 35ec 323e 4766 96bf e670 ff3e
00000020: b585 36c0 687e 5fbd 7b90 64bf ff07 a53d
00000030: 9236 dfbf fc4f e3be 674e 693e 76a7 b5bf
00000040: 3385 2fc0 03d4 22be 3979 13c0 823c 613e
-0.62968534 -2.0262382 -1.0913317 -1.1518239 -0.70429873 0.17472918 -1.1749963 0.49890822
-2.8519108 -0.05456391 -0.8928296 0.08058166 -1.7438529 -0.4439696 0.22783814 -1.419173
-2.7425048 -0.15901189 -2.3042738 0.21995738

rb2.bn2.running_var f4 [20]
00000000: caed 513f 7651 643f 8832 323f 2a71 893f
00000010: 952b 1d3f b205 823f 6987 843f 48cb 233f
00000020: 063f 943f 8dfe 4f3f 6689 453f 6905 2b3f
00000030: 5209 263f b156 6e3f cdb4 9d3f 6224 7b3f
00000040: d699 6b3f 825b 7b3f ffa2 6d3f 9f90 1e3f
0.8200346 0.891868 0.69608355 1.073766 0.61394626 1.0157988 1.0353824 0.6398206
1.1581733 0.8124779 0.7716278 0.6680513 0.6485797 0.9310103 1.2320801 0.9810239
0.9203161 0.98186505 0.9282684 0.61939424

rb2.shortcut.conv.weight f4 [20, 10, 1, 1]
00000000: 4604 2dbc 491d 91bd d79c c1be e126 b7bd
00000010: 119d 043f 6fbb babc 8949 433c 64a3 a1bc
00000020: 4414 82bc 8774 71be 7cbb 3dbd f3ee 083e
00000030: b359 19bf 8dc8 993d 2486 29be 0a8d 50be
00000040: 4205 05bd 71d6 d0bb bbc3 1a3c 2115 253c
00000050: a534 c5bd 298c 02be efea 03bd 8100 d4bc
00000060: cb9e 513d ea5c c03e ceda 1b3e ec29 f63d
00000070: dc24 1bbe 77e3 bfbe 2a90 83bd 7578 1dbb
00000080: 024e a63e 21dd 0c3e 2364 463e 0a0f 15be
00000090: c219 813e 4aab 4a3e 1b77 dc3e 7fb8 0abe
000000a0: 21ca fcbd 5ac2 433d 8946 653d 0f3b e03e
000000b0: 7ce8 8a3d 99e5 8dbd 5f02 debc bf3d a8bd
000000c0: 3e38 b33e bee2 c6bd bee9 8c3e 54ce 323e
000000d0: 177e e4bd c861 bebe 8652 91bd 1c5b 88bd
000000e0: 4f28 493e 5b27 08be 25fb 13be cc49 cfbe
000000f0: fbd5 e2bd efbf 2b3e b63e 0d3c 8b97 a4be
00000100: 9768 ff3c 55f2 cabe bf7e 81be f4e2 9c3d
00000110: d604 7c3e 99da 87bd f4a8 353e 239b 3d3e
00000120: f9e2 673c 035e 34bd 1a02 2abe 8f86 23bd
00000130: a3cf 96be 742c 453d 0aad 16bf 5fe5 44be
00000140: d498 b3bd 0109 0d3e 11ac 9bbd fb50 69bd
00000150: a608 35bf c99b b1bd 11a1 1cbb a3a8 8a3e
00000160: 14b2 babd d0bd febb 80ad 85be 9101 b93e
00000170: 2575 1ebe 5fcc 3ebe fb48 483e b420 01be
00000180: 288f 38bc a3f7 fc3d 0191 803b 56c8 cbbe
00000190: 2823 b3bc 5511 873d 5adf d9be 8e1c 833e
000001a0: b73d 9fbe 03b1 05be 63b2 8a3e 51a9 6c3d
000001b0: 145b ef3d ebee 573d 1ccd bf3b e9f7 d5bc
000001c0: 2e9b 9fbe 4efd 833e 2ec5 8a3e df39 6c3e
000001d0: 042e b4bd 5f94 88bd 2caf 1a3e 1892 51be
000001e0: 056e bdbd 1326 b6be 217b 613e 3540 a73e
000001f0: 0646 c8bd 1c6d c5bc 1c35 673d 1c98 e0bd
00000200: 2136 c6be e852 d53d 4bec 5fbd bf03 48be
00000210: 5e3e d3bd fc9b bfbd 56b9 213d 9cdd f73d
00000220: 79ff d63d c6f8 7c3d cf18 25bf e4d8 20be
00000230: d861 e53c ad6c 82be fb97 1bbc 7fea 31be
00000240: bbc6 94bc c417 c0be dbf7 cebe e794 9ebd
00000250: 876c aabd 472c 453e cf69 be3e 4d4d aabe
00000260: f43d 6c3e 8417 e43d a505 06be 3069 123e
00000270: 034c 203e ea3a eabd d9a7 9cbe e8fa 25bd
00000280: 4156 213e 51ce a13e 2d3d 04be 69e4 bd3d
00000290: 7698 f23b b759 8a3e 0e9c 4f3e 7ba3 f13d
000002a0: d1f7 ce3d 5b77 983b d0f5 443d 6bbd a73d
000002b0: e84d 8dbe d1d0 f83d 9099 483d ea7c 813e
000002c0: e799 823e 94ad ce3e 6d1d 203e 61f6 fbbd
000002d0: d259 d03c 6764 ac3d f193 efbc b823 85be
000002e0: 4316 d5bb d7cd 753d a170 8ebc 4a08 9fbe
000002f0: 44f0 eebe 8304 b7bc b94a 7fbe 1b5c 15be
00000300: a456 bf3e 0742 36bc a571 2c3e 72fd 81bd
00000310: ae39 973d 275c e0bd 1a14 68be f5b1 b53d
-0.010560101 -0.07085664 -0.37814972 -0.089429624 0.51802164 -0.022794453 0.011919388 -0.019731231
-0.015878804 -0.23579608 -0.046321377 0.13372402 -0.59902495 0.07508955 -0.16555077 -0.20366302
-0.032475717 -0.0063732197 0.00944608 0.010075838 -0.09629182 -0.1274878 -0.032206472 -0.025879147
0.051176827 0.37570888 0.15220186 0.12019715 -0.1515078 -0.3747823 -0.064239815 -0.0024028097
0.3248139 0.13756229 0.19374137 -0.14556518 0.25214964 0.19791904 0.4305962 -0.13546942
-0.123432405 0.04779277 0.05597547 0.43795058 0.06782624 -0.06928558 -0.02710074 -0.08214902
0.35003847 -0.097112164 0.2752208 0.1746152 -0.11156862 -0.37183976 -0.07095818 -0.06658003
0.19644283 -0.13296263 -0.14451273 -0.4048599 -0.1107597 0.16772436 0.0086209085 -0.32146868
0.031177802 -0.3963801 -0.25292012 0.076604754 0.2461122 -0.06633491 0.17740232 0.18516211
0.014153236 -0.04403497 -0.16602364 -0.039923247 -0.2945529 0.048138097 -0.58857787 -0.19228123
-0.08769384 0.13772966 -0.076011784 -0.056961995 -0.7071632 -0.08672292 -0.0023899714 0.27081785
-0.09115997 -0.0077740923 -0.26108932 0.36134008 -0.15474375 -0.18632649 0.1955909 -0.12610132
-0.0112646 0.123519205 0.003923536 -0.39801282 -0.02186735 0.06595103 -0.42553216 0.25607723
-0.31101772 -0.13055806 0.27089223 0.05777866 0.11687294 0.052718084 0.0058533084 -0.02611919
-0.3117308 0.25779194 0.2710356 0.23068951 -0.08797839 -0.066689245 0.15105885 -0.20465887
-0.092495 -0.35575923 0.22019626 0.32666174 -0.09778981 -0.024099879 0.056447133 -0.109665126
-0.38713172 0.10416204 -0.054668706 -0.19532679 -0.1031463 -0.093559235 0.03948339 0.121028155
0.10497946 0.061760686 -0.6449098 -0.15707737 0.028000757 -0.25473538 -0.009496684 -0.1737461
-0.018161168 -0.37518132 -0.40423474 -0.077432446 -0.08321481 0.19255172 0.371901 -0.332621
0.23070508 0.11137298 -0.1308809 0.14297938 0.15653996 -0.11437018 -0.30596808 -0.040522486
0.1575556 0.3160272 -0.12913962 0.092720814 0.0074034287 0.27021572 0.20274374 0.117987595
0.10105861 0.0046529 0.048085988 0.081904255 -0.275985 0.121492036 0.048974574 0.25290614
0.25508043 0.40366805 0.15636225 -0.123028524 0.025433455 0.08417588 -0.029245349 -0.26003814
-0.006502898 0.060010757 -0.01738769 -0.31061012 -0.46667683 -0.022341019 -0.24930848 -0.14585917
0.3737079 -0.011124141 0.16840227 -0.06347169 0.073840484 -0.10955077 -0.22663918 0.08871833

rb2.shortcut.conv.bias f4 [20]
00000000: 37cb 53b8 b282 dd35 a45e 9637 cbff 30b7
00000010: 1c3e 2937 948d a637 986d 40b7 e6ef a0b7
00000020: 5e21 8e36 2eb2 8bb7 f019 21b5 2ee7 5eb7
00000030: 9051 f837 e2c7 0f38 d233 ad37 e508 4137
00000040: b6e2 a2b6 2056 deb7 3b9b 22b7 5471 de36
-5.049558e-05 1.650382e-06 1.7925464e-05 -1.0549974e-05 1.0087646e-05 1.985467e-05 -1.1469609e-05 -1.9185198e-05
4.2358142e-06 -1.6653063e-05 -6.001492e-07 -1.3286057e-05 2.9601884e-05 3.4280012e-05 2.0647338e-05 1.1505767e-05
-4.854369e-06 -2.6504567e-05 -9.692095e-06 6.6293087e-06

rb2.shortcut.bn.weight f4 [20]
00000000: b552 723f 383c 333f 6140 673f b53b 063f
00000010: ac85 2f3f 6ff6 2f3f 3d25 073f 1492 423f
00000020: c923 503f eb5c 553f 6831 0d3f 6615 2f3f
00000030: 4128 f13e bb73 5d3f b7d0 893f 41f4 f23e
00000040: 1b1b 323f a300 073f da7c b33e f2ef 393f
0.9465745 0.7001376 0.9033261 0.52434856 0.6856334 0.687354 0.52791196 0.7600415
0.81304604 0.83344907 0.5515351 0.68392026 0.47101024 0.86504716 1.076682 0.47451976
0.6957261 0.52735347 0.35056192 0.7263175

rb2.shortcut.bn.bias f4 [20]
00000000: b31a 553e 66ac 5a3d 196d 3abe f2f4 bc3a
00000010: 6682 9fbd 0c1a 2abe 6e75 b93d bfb2 74be
00000020: 4c17 6f3e fff6 24be 016c 683d 28b0 06be
00000030: 9daa 38bc c724 4e3d fc2a 3fbc 6f9f 423e
00000040: 2b8f a9bc aa45 fabd 9731 cc3d c736 8cbe
0.20810966 0.05338707 -0.1820568 0.0014416261 -0.077885434 -0.16611499 0.09055601 -0.23896311
0.23348731 -0.16109847 0.056743626 -0.13153136 -0.011271146 0.050328042 -0.011667963 0.19006132
-0.02069815 -0.122203186 0.09970396 -0.27385542

rb2.shortcut.bn.running_mean f4 [20]
00000000: 63a3 9cbe 6a6a 59bf b272 f5bd 667b 813f
00000010: 6468 d33e a491 37bf 7c7e 10bf 85f4 53bf
00000020: 2e88 32bf 763e 09bf ed4c 49be 202b f13d
00000030: dd6f 49be 7e29 40bf ced3 65bf f4a2 113e
00000040: 576d 623f a133 403f 7470 4ebf 0ead 343d
-0.30593404 -0.84928 -0.11984767 1.0115783 0.4129058 -0.71706605 -0.56443 -0.8279498
-0.69739044 -0.5361093 -0.19658251 0.117758036 -0.19671579 -0.7506331 -0.89776313 0.14222318
0.8844809 0.7507878 -0.8064034 0.04411035

rb2.shortcut.bn.running_var f4 [20]
00000000: a807 003f ae2f ce3e c2c6 b83e f291 073f
00000010: bf57 dc3e f72f ef3e ed18 c23e 8b19 0c3f
00000020: 5706 c83e 1c66 9c3e a0b0 df3e 7b3c 973e
00000030: 3ffd 793e 4ab9 2b3f 7e63 ef3e b184 bc3e
00000040: c8f0 a63e be83 d63e 602f 063f ae45 2e3e
0.5001168 0.40270752 0.3608914 0.5295707 0.43035695 0.46716282 0.37909642 0.54726475
0.39067337 0.30546653 0.43689442 0.2953833 0.24413012 0.67079604 0.46755594 0.36819986
0.32605577 0.41897386 0.5241604 0.17018768

res1_sc1.conv.weight f4 [20, 3, 1, 1]
00000000: 8b28 0cbf 4a9c b63d 96b3 aa3e d972 79be
00000010: 2c55 0f3f b1ae 73be a702 203c 772c 9dbe
00000020: 4d0f c5be 17c5 c33e ec01 adbe 2d6e b2be
00000030: 47cd f63e 79b4 f0bd 9fce 5c3e 8a91 0abf
00000040: 6dfb bfbe 7d11 a53e 6bcf 34be 1339 bc3e
00000050: 9fbb 003f 308e b53e fae8 0fbf 1c4a a8be
00000060: 7385 2c3e e1cf 073f 2052 35be 51f7 873e
00000070: d52b 86be 2a61 b9be caa7 cdbd 4567 84be
00000080: 14a6 bdbe a58a 193e 207f abbd 6917 d3be
00000090: 28a8 b1be 4078 4abe e02b 64bd a5f9 033b
000000a0: df39 18be afa6 f2be b9ff 6cbe 39a0 6b3e
000000b0: d835 b33e 7f07 c23e 3a5e 223e 29cc 85be
000000c0: efd2 cf3d e8a9 a7be 81bf 763d f16e 693d
000000d0: 0ba5 b1be cb2a 623d 3dbe 733e 964f 9b3e
000000e0: 956a c7bd 86b5 03bf 7b46 1e3e 4669 913d
-0.54749364 0.089165285 0.33340138 -0.24360217 0.55989337 -0.23797108 0.009766257 -0.30697986
-0.38488236 0.38236305 -0.3379053 -0.34849682 0.4820349 -0.117531724 0.21563195 -0.54128325
-0.3749651 0.32239905 -0.17657249 0.36762294 0.5028629 0.35460043 -0.5621487 -0.3286904
0.16847782 0.53051573 -0.1770711 0.26555875 -0.26205316 -0.36206943 -0.10041769 -0.25860038
-0.3704077 0.14994295 -0.083738565 -0.41228798 -0.34698606 -0.19772434 -0.055705905 0.0020137813
-0.14865826 -0.47392794 -0.23144425 0.23010339 0.35002017 0.37896344 0.15856257 -0.26132324
0.10147654 -0.32746816 0.060241226 0.056990568 -0.3469623 0.05521659 0.23803039 0.30334157
-0.09737126 -0.5144886 0.15456574 0.071001574

res1_sc1.conv.bias f4 [20]
00000000: e06e c4b7 e45e 30b8 2116 7c38 8021 11b7
00000010: 13ac 6138 dc4c 0ab8 3b7a d235 4457 e7b7
00000020: a5f1 8337 aa75 a7b7 5d48 1eb8 0c75 99b7
00000030: eb9e d5b7 02c8 0638 cc37 0937 e6a2 8f38
00000040: 546b e7b5 f60f db37 5049 0db8 fc49 0838
-2.3416651e-05 -4.2050044e-05 6.010209e-05 -8.650473e-06 5.3804437e-05 -3.2973345e-05 1.5681793e-06 -2.7577982e-05
1.5728941e-05 -1.9962743e-05 -3.773753e-05 -1.8293525e-05 -2.546558e-05 3.213436e-05 8.178828e-06 6.8491136e-05
-1.7242078e-06 2.6114267e-05 -3.3685297e-05 3.249383e-05

res1_sc1.bn.weight f4 [20]
00000000: 8dd7 4d3f 7d77 6a3f 00fe 2c3f 212c 0e3f
00000010: 02e2 013f 6ef6 1b3f ab45 0d3f 1841 173f
00000020: ecf3 1a3f 10cf 253f 717a 153f 26d6 123f
00000030: 4d3e ea3e 5f4b 163f fcd4 253f af5c c03e
00000040: f5d3 0a3f a463 f33e 71df db3e 2120 503f
0.8040703 0.91588575 0.67575073 0.55536085 0.50735486 0.60922897 0.5518443 0.590837
0.60528445 0.6476908 0.58389956 0.57358015 0.45750657 0.5870876 0.64778113 0.37570712
0.5422967 0.47536957 0.4294391 0.81299025

res1_sc1.bn.bias f4 [20]
00000000: b31a 553e 66ac 5a3d 196d 3abe f2f4 bc3a
00000010: 6682 9fbd 0c1a 2abe 6e75 b93d bfb2 74be
00000020: 4c17 6f3e fff6 24be 016c 683d 28b0 06be
00000030: 9daa 38bc c724 4e3d fc2a 3fbc 6f9f 423e
00000040: 2b8f a9bc aa45 fabd 9731 cc3d c736 8cbe
0.20810966 0.05338707 -0.1820568 0.0014416261 -0.077885434 -0.16611499 0.09055601 -0.23896311
0.23348731 -0.16109847 0.056743626 -0.13153136 -0.011271146 0.050328042 -0.011667963 0.19006132
-0.02069815 -0.122203186 0.09970396 -0.27385542

res1_sc1.bn.running_mean f4 [20]
00000000: 0a1e 91bc cafe db3b 5645 533d de54 143d
00000010: 5cd6 06bd 484e 873b f5fb 75bd e8bf 393d
00000020: 2e13 4bbc deaf 1c3d da00 543d 2b9e 203d
00000030: 022a da3c 900f 5b3d 43dc 16bd cee5 af3b
00000040: af06 ad3b 83df 063c 2cca 4cbc 79e7 863b
-0.017714519 0.006713723 0.051579796 0.03621375 -0.032919273 0.004129205 -0.060054738 0.04534903
-0.0123947095 0.038253658 0.051758625 0.03921334 0.026631359 0.05348164 -0.03683115 0.005367971
0.0052803378 0.008232 -0.012499373 0.004116949

res1_sc1.bn.running_var f4 [20]
00000000: b77b cf3c b8ae e73b b859 f13d 0ea4 283d
00000010: d1c0 a83d 9184 cc3d f109 083e 6739 b73d
00000020: 7660 8c3d 5d0c 373d f17a 053e 4624 203d
00000030: 9cd6 b03d 8dd9 cd3d 95ce 273d 1c19 e43c
00000040: 46ad 063c ce6d 6f3c e75e 483d 1cce f23c
0.025327547 0.0070703886 0.117846906 0.04117208 0.08239902 0.099862225 0.13285042 0.089464955
0.06854336 0.044689525 0.1303518 0.039097093 0.086346835 0.1005126 0.040968496 0.027844004
0.008220023 0.014613582 0.04891863 0.029639296
