models/dense_max/epoch_0003.pth (torch, 645162 bytes, 174 tensors)

rb1.conv1.weight f4 [10, 3, 3, 3]
0	0xbd6b3a19	-0.057428453
1	0x3d5ad07c	0.053421482
2	0xbde3f9b6	-0.11131613
3	0xbe439a74	-0.19101888
4	0x3e5d3848	0.21603501
5	0x3e4ccf15	0.2000087
6	0xbe0a3c2f	-0.1349952
7	0x3e68921d	0.22711988
8	0xbdc6b909	-0.097032614
9	0xbde4d22e	-0.11172901
10	0x3cc0cfb9	0.02353655
11	0xbd0198fb	-0.031640034
12	0xbe967c21	-0.29391578
13	0x3e44370a	0.1916162
14	0x3e3af678	0.18258083
15	0x3bf2b271	0.007406526
16	0x3e7b61ec	0.24549073
17	0xbe692e67	-0.22771607
18	0x3a7a138c	0.0009539656
19	0x3c06d8c5	0.008230393
20	0xbd734a2a	-0.0593969
21	0xbe4da26c	-0.2008149
22	0xbc8bbe64	-0.017058559
23	0x3d14ef96	0.0363613
24	0x3e2f6917	0.17129932
25	0x3ce35f2d	0.027755344
26	0x3dfb96e6	0.12284641
27	0x3ba6c734	0.005089665
28	0x3d9b9c57	0.07598179
29	0x3e147c51	0.14500548
30	0x3dd4398f	0.10362541
31	0x3da816a6	0.08207445
32	0xbe828549	-0.25492314
33	0xbd9b6b6a	-0.07588847
34	0x3da28659	0.07935781
35	0xbe04905a	-0.12945691
36	0xbde2e3d5	-0.11078612
37	0xbbb2ddd2	-0.005458572
38	0xbd75b550	-0.059987366
39	0xbc82320f	-0.01589301
40	0x3eb584ee	0.3545298
41	0xbe14e8d3	-0.1454194
42	0xbd5383b4	-0.051639274
43	0x3e095f04	0.13415152
44	0xbe3a4bfa	-0.18193045
45	0xbe2520c5	-0.16125782
46	0xbe0cfe26	-0.13768825
47	0x3d84f735	0.064924635
48	0x3d70e514	0.058812216
49	0x3e93c35f	0.28859994
50	0xbe673c3c	-0.22581571
51	0xbd233958	-0.03984961
52	0x3ddada51	0.10686172
53	0x3c93c309	0.018037336
54	0x3c899de1	0.016798915
55	0x3e513c6d	0.20433207
56	0x3e234f39	0.1594819
57	0xbe02cba7	-0.12773
58	0xbd9fffe0	-0.07812476
59	0x3ddecdd1	0.108791
60	0xbc9e7d9b	-0.019347003
61	0xbe21cb66	-0.15800247
62	0x3d91524a	0.070957735
63	0x3e86a82c	0.2630018
64	0x3e36cdb3	0.17851906
65	0x3e8b33c9	0.27187946
66	0x3cb4a8e3	0.022053188
67	0xbe31c176	-0.17358956
68	0xbe03746d	-0.12837382
69	0xbdb6b2c9	-0.08920819
70	0xbe6562ef	-0.22401021
71	0xbe34866a	-0.176294
72	0x3dc206de	0.09473966
73	0x3e11ea41	0.14249517
74	0x3cb57099	0.022148417
75	0x3cbd3a1a	0.023098994
76	0xbd03d7bb	-0.03218816
77	0xbde45b86	-0.11150269
78	0x3e0dc570	0.13844848
79	0xbe0963f8	-0.13417041
80	0xbdcb3485	-0.09922127
81	0xbe458d8b	-0.19292276
82	0x3dbb924a	0.09158762
83	0xbdfc667f	-0.12324237
84	0x3d80641f	0.062690966
85	0xbe8e0f0a	-0.2774585
86	0xbe1b8116	-0.15185961
87	0x3c753627	0.014966524
88	0x3d734a6a	0.05939714
89	0x3dec69ae	0.11543594
90	0xbe05d808	-0.1307069
91	0xbdc932fe	-0.09824179
92	0xbde9cfa1	-0.11416555
93	0x3e684cfa	0.22685614
94	0xbe4d9263	-0.20075373
95	0xbdc08bb8	-0.09401649
96	0x3e6d4e33	0.23174362
97	0xbd15601f	-0.03646862
98	0xbd768ed7	-0.060194816
99	0xbd86cb54	-0.065817505
100	0x3d7225a6	0.059117936
101	0xbe206d95	-0.15666802
102	0x3c9e1307	0.019296182
103	0xbdcd42b4	-0.10022488
104	0xbdfb5750	-0.12272513
105	0x3e38d628	0.18050444
106	0x3d33b753	0.043876003
107	0x3e5dbf46	0.21654996
108	0xbe2f3f4a	-0.17113987
109	0xbe5348cd	-0.2063324
110	0x3e3a61a2	0.18201306
111	0xbbdda841	-0.006764442
112	0xbe4b5642	-0.19857123
113	0x3dc40ed0	0.09573138
114	0xbd072595	-0.032994825
115	0xbd86d6e1	-0.06583954
116	0x3e1b8bf7	0.15190111
117	0x3e671956	0.22568259
118	0xbe669454	-0.2251752
119	0xbdeb545e	-0.11490701
120	0xbd6085e0	-0.054815173
121	0xbbf0bc2c	-0.0073466506
122	0x3e2c5ba6	0.16831836
123	0x3e1fc224	0.15601403
124	0x3dcd8349	0.10034806
125	0x3dc9b472	0.0984887
126	0x3e5581c3	0.20850281
127	0x3d8c49c8	0.0685001
128	0xbe0f8d73	-0.14018802
129	0x3e46e808	0.1942445
130	0x3d901bf1	0.070365794
131	0xbe7df359	-0.24799861
132	0x3e43f6d0	0.1913712
133	0x3daf05f4	0.08546057
134	0xbdf2156d	-0.11820493
135	0xbe366e60	-0.17815542
136	0xbdff73ff	-0.124732964
137	0x3e26b26d	0.16279002
138	0xbcb00115	-0.021484891
139	0xbdd51567	-0.10404473
140	0x3d95fd4c	0.07323703
141	0x3d9d74cf	0.07688295
142	0xbdf32ff6	-0.11874382
143	0x3c300d47	0.010745353
144	0x3caad684	0.020854242
145	0x3e42b3b9	0.19013871
146	0x3e68e085	0.22741897
147	0xbe12a55e	-0.14320895
148	0xbec51adb	-0.38497052
149	0xbd26b3bf	-0.040698763
150	0x3dea5cd2	0.11443485
151	0xbd9decf9	-0.077112146
152	0xbe9d3eee	-0.30712074
153	0x3d6e42bb	0.058169108
154	0xbdb4c7d9	-0.088271804
155	0x3e703e98	0.23461378
156	0xbdeb3012	-0.11483778
157	0xbe547ee1	-0.20751525
158	0xbd2003d1	-0.03906614
159	0xbe2f56e8	-0.17122996
160	0xbe880aa8	-0.2657063
161	0x3c562971	0.013071404
162	0xbd683cc9	-0.056698594
163	0xbdcd1e75	-0.10015575
164	0x3e04ade1	0.12956955
165	0x3d0ee471	0.034885827
166	0x3e02e45d	0.12782426
167	0xbdb74a7a	-0.08949752
168	0x3d0f2c7f	0.034954544
169	0xbc9f478e	-0.0194433
170	0x3dc41367	0.09574013
171	0x3e02fc9d	0.12791677
172	0x3d133423	0.035938393
173	0x3e335a02	0.17514804
174	0x3dde59c0	0.10856962
175	0x3e309f9f	0.1724839
176	0xbd1a22cb	-0.037630837
177	0x3e4136c5	0.18868549
178	0x3e0cee70	0.13762832
179	0xbd038fcb	-0.032119554
180	0xbe5c37b3	-0.21505623
181	0xbde59568	-0.112101376
182	0xbc61d14f	-0.013782813
183	0xb9ac77a6	-0.00032895542
184	0x3d92b1ee	0.07162844
185	0x3e2a71e6	0.16645011
186	0xbd91990a	-0.07109268
187	0x3eaff573	0.3436695
188	0x3e85e720	0.26152897
189	0xbc8ac585	-0.016939888
190	0xbdb82a7f	-0.089924805
191	0x3e3ebac6	0.18625936
192	0xbe62381e	-0.2209172
193	0x3ccd6940	0.025074601
194	0xbcb536d9	-0.02212088
195	0x3e6e077a	0.2324504
196	0xbdd74762	-0.10511662
197	0x3e11b09d	0.14227529
198	0x3d584f7f	0.05281019
199	0x3cb4bac0	0.022061706
200	0x3e58cd49	0.2117206
201	0xbe6a278f	-0.22866653
202	0xbe94fb4b	-0.2909797
203	0x37a76b18	1.995782e-05
204	0x3e0f774d	0.14010353
205	0x3e037e23	0.12841086
206	0xbe416e55	-0.18889745
207	0xbe21d315	-0.15803178
208	0xbdb470e4	-0.08810595
209	0x3d820b76	0.06349842
210	0xbd8e7c27	-0.06957274
211	0xbe00c44e	-0.12574884
212	0x3ea94715	0.33062044
213	0x3e92b2ab	0.28651938
214	0xbe02133c	-0.1270265
215	0x3ab22b1d	0.0013593171
216	0xbe81d5ad	-0.25358334
217	0x3da2a3eb	0.07941421
218	0xbd3a079d	-0.045417417
219	0x3d25cfef	0.040481504
220	0x3e01acb7	0.12663542
221	0x3e4f1137	0.2022141
222	0x3af91b59	0.0019005343
223	0x3e1f0168	0.1552788
224	0xbdaf361a	-0.08555241
225	0xbde3cde9	-0.111232586
226	0xbe16802a	-0.14697328
227	0xbe0cd9b3	-0.1375492
228	0x3cfb1474	0.030649401
229	0x3dfe444b	0.124153696
230	0xbd90b355	-0.07065455
231	0x3e620dae	0.22075531
232	0xbe6da814	-0.23208648
233	0xbe07fc72	-0.13279894
234	0x3d494240	0.049135447
235	0x3db0845c	0.086189955
236	0xbd8c87a1	-0.06861807
237	0x3e03804f	0.12841915
238	0x3e47be35	0.19506152
239	0x3d1c1171	0.03810257
240	0xbc7d79c8	-0.015470929
241	0x3d2fbd7a	0.04290531
242	0xbe4a3b2f	-0.19749139
243	0x3e89f2cf	0.2694306
244	0x3ec12925	0.37726703
245	0x3e956a32	0.29182583
246	0x3e81fcfc	0.25388324
247	0x3e88d8db	0.26727948
248	0x3d438592	0.047734804
249	0xbc8ce929	-0.017201023
250	0xbdffd27f	-0.12491321
251	0xbe8ebd7a	-0.27878934
252	0x3e28a879	0.16470517
253	0x3e84e51e	0.25956053
254	0x3dd3ca56	0.10341327
255	0xbd3e4b0e	-0.046458296

rb1.conv1.bias f4 [10]
0	0xb960e38f	-0.00021447077
1	0x39459b6d	0.00018845285
2	0x395ce6c8	0.00021066808
3	0xb9e5e488	-0.00043848553
4	0xba25c219	-0.00063231733
5	0x3983337e	0.00025024632
6	0xb8973924	-7.210884e-05
7	0xbab0096c	-0.0013430542
8	0x3a8336c5	0.001001083
9	0xb8560b35	-5.1032013e-05

rb1.bn1.weight f4 [10]
0	0x3f40b8ee	0.7528218
1	0x3fa67bc6	1.3006523
2	0x3f60c1f9	0.8779598
3	0x3f630ef2	0.8869468
4	0x3f3ace4e	0.72971046
5	0x3f5a53f6	0.85284364
6	0x3f374863	0.7159483
7	0x3f7df863	0.99207133
8	0x3f5113b2	0.8167068
9	0x3f34ca52	0.70621216

rb1.bn1.bias f4 [10]
0	0x3e8e01bb	0.27735695
1	0x3f857bd4	1.0428414
2	0x3db81ba6	0.089896485
3	0x3dc46b61	0.095907934
4	0x3d941fe4	0.07232645
5	0x3bbae31c	0.005703343
6	0xbd24f328	-0.040270954
7	0x3f546a2c	0.82974505
8	0x3f05d87c	0.52283454
9	0x3d33d4b0	0.043904006

rb1.bn1.running_mean f4 [10]
0	0xbc9f7311	-0.019464048
1	0x37a1e470	1.929907e-05
2	0xba02f294	-0.00049952534
3	0x3cb05b10	0.021527797
4	0xbd2f3836	-0.042778216
5	0x3dd96834	0.10615578
6	0xbddb55f5	-0.107097544
7	0xbc062fb3	-0.008190083
8	0xbc9a3d38	-0.01882802
9	0xbd1f8914	-0.038949087

rb1.bn1.running_var f4 [10]
0	0x3d714584	0.058904186
1	0x3d0cb756	0.03435453
2	0x3df3d399	0.119055934
3	0x3e18c920	0.14920473
4	0x3d826744	0.063673526
5	0x3ebdc1ea	0.37062007
6	0x3ed9f849	0.4257224
7	0x3d313eb8	0.043272704
8	0x3d0a357f	0.033742424
9	0x3ee0a6bd	0.4387721

rb1.conv2.weight f4 [10, 10, 3, 3]
0	0xbdd97e46	-0.10619788
1	0xbdd30e68	-0.10305482
2	0xbce6843c	-0.028139226
3	0x3cb12c73	0.02162764
4	0xbe0b36fd	-0.13595195
5	0xbd33825f	-0.043825503
6	0xbda69c85	-0.081353225
7	0x3c7f8443	0.0155954985
8	0x3d07d346	0.03316047
9	0xbd029bf7	-0.03188702
10	0x3df29e3d	0.11846588
11	0xbe7f4e48	-0.24932206
12	0xbe72de8c	-0.23717707
13	0xbdc38dd0	-0.09548533
14	0x3e622adb	0.2208666
15	0x3de728c7	0.112870745
16	0xbe6a548b	-0.22883813
17	0xbd11569d	-0.03548299
18	0xbe570797	-0.20998989
19	0xbadd888e	-0.0016901658
20	0xbd24ebb3	-0.040263843
21	0xbd361f5b	-0.044463497
22	0xbe7099f9	-0.23496236
23	0xbe2dfbcd	-0.16990586
24	0xbcbf9a37	-0.023388965
25	0x3de41dd6	0.11138503
26	0x3d9ab2f4	0.07553664
27	0x3dd12f6f	0.10214125
28	0x3e0dcb14	0.13847
29	0x3d9b5ffb	0.07586666
30	0xbcbf75e3	-0.023371642
31	0x3c9ecab7	0.019383771
32	0x3d59e27c	0.053194508
33	0xbd8537fa	-0.06504817
34	0xbd3edfc2	-0.04660011
35	0xbe2fd8da	-0.17172566
36	0xbdc097b3	-0.09403934
37	0x3d7362f0	0.059420526
38	0xbc8b18b7	-0.016979558
39	0xbc9ef10b	-0.019402048
40	0xbe13ee09	-0.14446272
41	0xbb51607e	-0.0031948383
42	0xbdde901e	-0.10867332
43	0xbcd51aa3	-0.026013678
44	0xbdf57bee	-0.11986528
45	0x3d44ed7c	0.048078045
46	0x3e414abf	0.1887617
47	0x3e440e8f	0.19146179
48	0xbcf79923	-0.030224388
49	0x3c2bedf5	0.010493745
50	0xbd172f84	-0.03691055
51	0xbd583ba8	-0.052791268
52	0x3d40f911	0.04711253
53	0x3dd738f9	0.105089135
54	0xbc08c9bf	-0.008348881
55	0x3c86147b	0.016367188
56	0xbda8d00a	-0.08242805
57	0xbd5bd217	-0.053667154
58	0xbe2ab240	-0.1666956
59	0xbced7da3	-0.028990572
60	0x3dc6e95e	0.0971248
61	0x3dce521c	0.10074255
62	0xbd972b35	-0.07381288
63	0x3b3ddcc8	0.0028970707
64	0x3db2a538	0.08722919
65	0x3e8f1120	0.27942753
66	0xbd308bbc	-0.04310201
67	0xbe65bf41	-0.22436239
68	0xbe812689	-0.25224712
69	0xbd21e371	-0.039523546
70	0x3dd9ba84	0.10631278
71	0x3c91f906	0.017818939
72	0xbb322f16	-0.002718871
73	0xbd6fa778	-0.05850932
74	0xbdcbae8e	-0.09945403
75	0x3e1eb0cd	0.15497132
76	0x3d442751	0.047889058
77	0x3d8b633c	0.06806037
78	0xbd6577a4	-0.0560223
79	0xbd175bb5	-0.036952693
80	0xbd19a18d	-0.037507582
81	0xbe421e8f	-0.1895697
82	0xbe6e4a53	-0.2327054
83	0xbd859457	-0.06522434
84	0xbddd7474	-0.10813227
85	0xbb0add00	-0.0021188855
86	0xbd14f635	-0.036367614
87	0xbde26a44	-0.11055425
88	0xbd4f595f	-0.05062234
89	0x3d6b1bc0	0.05739951
90	0x3d863e94	0.065549046
91	0x3cd7ab6c	0.026326858
92	0x3dc8e061	0.09808422
93	0xbd8970f1	-0.06710995
94	0x3db53294	0.08847538
95	0x3e77efb0	0.24212527
96	0xbcb5ee76	-0.022208434
97	0x3d8f742a	0.070045784
98	0xbde9c189	-0.11413867
99	0x3d1b7d6c	0.03796141
100	0x3db0d1cf	0.08633768
101	0xbe35729f	-0.17719506
102	0x3dfc09f2	0.123065844
103	0xbea2b651	-0.3177972
104	0x3d509753	0.050925564
105	0xbe9467ca	-0.28985435
106	0x3dabece8	0.08394796
107	0x3e725226	0.2366415
108	0xbbd27a3c	-0.006423263
109	0x3e0a9657	0.13533913
110	0xbd752ece	-0.05985909
111	0x3d937fe1	0.07202125
112	0xbe0b9dd1	-0.13634421
113	0xbe11fcd2	-0.142566
114	0xbcb600ac	-0.022217117
115	0xbd08f4ee	-0.03343671
116	0x3cc201c0	0.023682475
117	0xbe119d8b	-0.14220254
118	0x3dc8c112	0.0980245
119	0x3bce5bf9	0.006297585
120	0x3d3198f1	0.043358747
121	0xbd0fa3ef	-0.03506845
122	0xbde420b4	-0.1113905
123	0xbd2db481	-0.04240847
124	0xbe3469a3	-0.17618422
125	0xbc18ac63	-0.009318444
126	0x3dfbf202	0.12302019
127	0x3de50614	0.111828
128	0x3d53d966	0.051721
129	0xbc292efc	-0.010326143
130	0xbd0d6985	-0.03452446
131	0x3c2f99f5	0.010717859
132	0x3d1b6b70	0.037944257
133	0xbdc08df5	-0.09402076
134	0xbdf85e24	-0.12127331
135	0xbda9d2c9	-0.08292157
136	0xbd80d28d	-0.062901594
137	0xbd2fd888	-0.04293111
138	0xbd1b6453	-0.037937474
139	0xbd6be373	-0.05758996
140	0xbdc4bb4a	-0.09606035
141	0xbd21cc79	-0.03950164
142	0xbe02d0d6	-0.12774977
143	0xbcb5d6bb	-0.022197118
144	0x3e03e03a	0.12878504
145	0x3e1b43f7	0.15162645
146	0x3d6e5086	0.058182262
147	0x3e0dcd42	0.13847831
148	0x3df7b6e7	0.12095433
149	0x3d435ca6	0.04769578
150	0x3dd9faeb	0.10643562
151	0x3e0c2828	0.13687193
152	0xbcf829a5	-0.030293295
153	0x3dcb427a	0.09924789
154	0xbe087a3b	-0.13327877
155	0xbd3820e1	-0.04495323
156	0xbd4eebb6	-0.05051776
157	0xbe92a364	-0.28640282
158	0x3e22a673	0.15883808
159	0xbd91878c	-0.07105932
160	0x3e865315	0.26235262
161	0x3d069e09	0.032865558
162	0x3e069091	0.13141085
163	0xbcbce4ca	-0.023058314
164	0xbe38603f	-0.18005465
165	0xbca36083	-0.019943481
166	0xbdb5c334	-0.08875123
167	0x3de27566	0.11057548
168	0x3c09d709	0.008413085
169	0x3d89e59a	0.06733246
170	0x3d50a091	0.050934378
171	0xbd88fd11	-0.066888936
172	0xbcabec29	-0.020986633
173	0x3c99cc0c	0.018774055
174	0x3dbb660e	0.09150325
175	0xbd0f9efe	-0.035063736
176	0x3c557d69	0.013030388
177	0xbdbc325a	-0.09189291
178	0x3daac24f	0.08337843
179	0x3ceb7651	0.028742941
180	0x3d825240	0.06363344
181	0xbe5a7867	-0.21334992
182	0xbd1031f3	-0.035203885
183	0x3d992589	0.074778624
184	0xbcde3217	-0.027123494
185	0xbd25cf70	-0.04048103
186	0x3da0b3e9	0.07846815
187	0xbcc44115	-0.023956815
188	0x3ce0327c	0.027367823
189	0xbd81999a	-0.06328125
190	0xbdaea30c	-0.085271925
191	0xbc986e9f	-0.018607436
192	0x3c028d84	0.00796831
193	0xbe0f0833	-0.13967972
194	0x3c92fdb9	0.01794325
195	0xbd187800	-0.037223816
196	0x3d71b905	0.05901434
197	0x3d7e3283	0.06205989
198	0x3e70176b	0.23446433
199	0x3d1675f5	0.036733586
200	0xbc21e2f4	-0.00988077
201	0x3e6164f5	0.22011168
202	0x3ce403ad	0.027833784
203	0xbde241f9	-0.110477395
204	0x3df61053	0.12014832
205	0xbd0b7773	-0.034049463
206	0xbd80e760	-0.06294131
207	0x3d9de8aa	0.07710393
208	0x3d8ae1d0	0.067813516
209	0xbc573ff1	-0.013137803
210	0x3db51a1d	0.08842871
211	0x3dee365e	0.116314635
212	0x3bea3e2f	0.007148526
213	0x3e5b4972	0.21414736
214	0x3cbeb31d	0.023278767
215	0x3dbf32f2	0.09335889
216	0x3e18ed74	0.14934331
217	0x3dd0b128	0.1019004
218	0x3d839376	0.0642461
219	0x3e611608	0.2198106
220	0x3cfac665	0.03061218
221	0x3df53044	0.119720966
222	0x3de27fbf	0.11059522
223	0x3d885978	0.0665769
224	0x3d7719d1	0.060327355
225	0x3e8da822	0.27667338
226	0x3e326567	0.17421494
227	0x3e2a8cbd	0.1665525
228	0x3dfa0064	0.12207106
229	0x3d3dfa45	0.046381254
230	0x3d936486	0.07196908
231	0x3d996db5	0.07491628
232	0x3c4e40a7	0.0125886565
233	0xbde6c510	-0.112680554
234	0x3c0cb3af	0.008587762
235	0x3ca04e25	0.019568512
236	0xbd92d90d	-0.071703054
237	0xbd4232e1	-0.047411803
238	0xbcb7310b	-0.022362253
239	0xbd3a0617	-0.045415964
240	0xbc125399	-0.008931064
241	0xbd1041ec	-0.035219118
242	0xbe0cad74	-0.13738042
243	0x3e25a401	0.16175844
244	0x3d8621c5	0.0654941
245	0xbbd35c72	-0.0064502293
246	0x3d560325	0.052249093
247	0x3db1a690	0.086743474
248	0xbc9c061a	-0.019045878
249	0xbdbd9c6c	-0.09258351
250	0x3ba4b670	0.005026631
251	0xbd952605	-0.07282642
252	0x3e2fb00a	0.17156997
253	0x3e6079be	0.21921441
254	0x3c84e7ce	0.016223814
255	0x3e20bae9	0.156963

rb1.conv2.bias f4 [10]
0	0x37ffbe3b	3.0486952e-05
1	0xb9b444a0	-0.00034383405
2	0xb973240b	-0.00023187713
3	0x39973168	0.00028837775
4	0x390cabad	0.00013415395
5	0x39048f2a	0.00012641834
6	0x39f0c2c9	0.00045921493
7	0x38112712	3.460708e-05
8	0xb82b6e2e	-4.087219e-05
9	0xb7ca24a7	-2.4097344e-05

rb1.bn2.weight f4 [10]
0	0x3f82aad3	1.0208381
1	0x3f8e4449	1.1114589
2	0x3f4e0e0a	0.8049017
3	0x3f8a0936	1.0784061
4	0x3f4b9b43	0.79533786
5	0x3f8a786f	1.0818003
6	0x3fa637c6	1.2985771
7	0x3f88ffb6	1.0703037
8	0x3f87e983	1.0618137
9	0x3f5e74b1	0.86896807

rb1.bn2.bias f4 [10]
0	0x3d813b68	0.06310159
1	0xbd924978	-0.07142919
2	0x3df9c04b	0.1219488
3	0xbd8a4a1e	-0.06752418
4	0x3df776b2	0.12083186
5	0x3de2cd2c	0.1107429
6	0xbbabe62f	-0.005245946
7	0x3d992caa	0.07479222
8	0x3d409b92	0.047023363
9	0x3e472d0e	0.19450781

rb1.bn2.running_mean f4 [10]
0	0xbf965914	-1.1745934
1	0xbe2931a1	-0.16522838
2	0x3f5c7f49	0.8613172
3	0x3e187d94	0.14891654
4	0xbf0766cf	-0.5289125
5	0xbe8b9809	-0.2726443
6	0xbecf2436	-0.40457314
7	0xbe8621b6	-0.26197594
8	0x3d08f45c	0.033436164
9	0x3fb186d3	1.386927

rb1.bn2.running_var f4 [10]
0	0x3f91685d	1.1359974
1	0x3f7b98f3	0.98280257
2	0x3f5affc5	0.85546523
3	0x3f755437	0.95831627
4	0x3f9c04cf	1.2188967
5	0x3fcb1488	1.5865641
6	0x3fdf88e2	1.7463648
7	0x3fc7e3de	1.5616415
8	0x3fbf9d28	1.4969835
9	0x3fa69ba3	1.3016247

rb1.shortcut.conv.weight f4 [10, 3, 1, 1]
0	0x3eee7acb	0.4657806
1	0xbc249179	-0.010044449
2	0x3ea671bc	0.32508647
3	0xbec4133f	-0.38295934
4	0xbf01cf9c	-0.5070741
5	0xbec6e366	-0.38845366
6	0x3ebbe75a	0.36699945
7	0xbeb0ed05	-0.34555832
8	0x3daf3216	0.08554475
9	0xbed831e4	-0.42225564
10	0xbf35deab	-0.7104289
11	0x3e87a471	0.26492646
12	0xbdad4619	-0.08460636
13	0xbe485302	-0.19562915
14	0x3f14b1ba	0.5808369
15	0x3e96ecb3	0.29477462
16	0x3d4841b0	0.04889077
17	0x3f15c72d	0.58507043
18	0xbeee7a6b	-0.46577772
19	0xbeaf6700	-0.3425827
20	0xbe74ea36	-0.2391747
21	0xbe8b7698	-0.27238917
22	0xbf242e3a	-0.64133036
23	0x3eb6c581	0.3569756
24	0xbed24be8	-0.41073537
25	0xbed1177b	-0.40838227
26	0xbdb9d250	-0.09073317
27	0xbeb7f436	-0.35928506
28	0x3d2281af	0.039674457
29	0xbf078666	-0.5293945

rb1.shortcut.conv.bias f4 [10]
0	0xb9008fd6	-0.00012260614
1	0xba17eb27	-0.00057952333
2	0xba2d80e6	-0.00066186336
3	0xb8b3ddba	-8.576685e-05
4	0xb5a78dd0	-1.2483742e-06
5	0x38630a90	5.4130855e-05
6	0x39c84458	0.00038197893
7	0x39597aa3	0.00020740418
8	0xba240aeb	-0.00062577304
9	0xb9ea1c44	-0.00044653018

rb1.shortcut.bn.weight f4 [10]
0	0x3f7f7bb4	0.9979813
1	0x3f731b7b	0.94963807
2	0x3f8a7231	1.0816098
3	0x3f68b4a8	0.9090066
4	0x3f8d25ea	1.1027195
5	0x3f771449	0.9651533
6	0x3f317a0e	0.69326866
7	0x3f46ec3e	0.77704227
8	0x3f711d51	0.9418536
9	0x3f701f25	0.9379752

rb1.shortcut.bn.bias f4 [10]
0	0x3d813b68	0.06310159
1	0xbd924978	-0.07142919
2	0x3df9c04b	0.1219488
3	0xbd8a4a1e	-0.06752418
4	0x3df776b2	0.12083186
5	0x3de2cd2c	0.1107429
6	0xbbabe62f	-0.005245946
7	0x3d992caa	0.07479222
8	0x3d409b92	0.047023363
9	0x3e472d0e	0.19450781

rb1.shortcut.bn.running_mean f4 [10]
0	0xbd78878e	-0.06067615
1	0x3dc13d80	0.09435558
2	0xbbffbc23	-0.00780441
3	0x3cedc81f	0.02902609
4	0xbd603ad2	-0.054743595
5	0xbdb27694	-0.08714023
6	0x3d90966b	0.0705994
7	0x3be60fad	0.0070209117
8	0x3d5c3b41	0.053767446
9	0x3d9ffd2c	0.078119606

rb1.shortcut.bn.running_var f4 [10]
0	0x3e10b82c	0.14132756
1	0x3ec276a8	0.37981153
2	0x3bc63b6a	0.006049563
3	0x3e39f70b	0.18160646
4	0x3d0dbaeb	0.034602087
5	0x3e52d093	0.20587377
6	0x3e817f44	0.25292408
7	0x3da5dfe5	0.08099345
8	0x3e43f09f	0.19134758
9	0x3e2e94d7	0.17048965

rb2.conv1.weight f4 [20, 10, 3, 3]
0	0x3d847019	0.064666934
1	0x3df9fb00	0.122060776
2	0x3d9ec2c6	0.07751994
3	0x3e1be597	0.152243
4	0x3e433c89	0.19066061
5	0x3e354a57	0.1770414
6	0x3d32a86f	0.043617662
7	0x3d824075	0.063599505
8	0x3cc278ae	0.023739185
9	0x3da32c31	0.07967413
10	0xbe10a152	-0.14124039
11	0xbd5a7990	-0.053338587
12	0xbd8fba46	-0.07017951
13	0xbd6541ac	-0.055970833
14	0xbd1e4212	-0.03863723
15	0x3dc8fc21	0.09813715
16	0xbe49416f	-0.19653867
17	0xbde28b6c	-0.11061749
18	0xbe34eea0	-0.17669153
19	0xbe4f025c	-0.20215744
20	0xbde47c3a	-0.11156507
21	0xbd932bf4	-0.07186118
22	0xbe156057	-0.14587532
23	0xbd1b30de	-0.0378884
24	0xbd37510a	-0.04475502
25	0x3cdbb579	0.026819931
26	0xbe1d4909	-0.15359892
27	0x3c7b9e00	0.015357494
28	0xbdbf30f9	-0.09335513
29	0x3da6d24b	0.08145579
30	0x3c138c9b	0.009005691
31	0x3d8ffc1a	0.070305064
32	0x3dca71a3	0.09884956
33	0xba22a90d	-0.0006205
34	0x3dc3ca70	0.09560096
35	0x3e4825f3	0.19545726
36	0x3d4824a0	0.048863053
37	0x3decc233	0.11560478
38	0x3bd52b6f	0.006505422
39	0xbe5087ec	-0.2036435
40	0xbdb2aa94	-0.087239414
41	0x3d91bbda	0.07115908
42	0xbc4b4388	-0.012406237
43	0xbe73b2dd	-0.237987
44	0xbe0d42ce	-0.13795015
45	0x3dfa1434	0.12210885
46	0x3d9a0ba0	0.075217485
47	0x3d7f038a	0.062259234
48	0xbddb86af	-0.10719048
49	0xbd3a83ec	-0.045535967
50	0xbce88589	-0.028383987
51	0xbd764f8c	-0.060134456
52	0xbecacf7f	-0.39611432
53	0xbd73dd9b	-0.05953751
54	0x3ddfb06f	0.10922324
55	0x3d928b06	0.07155423
56	0x3d9f9551	0.07792152
57	0x3cb23b04	0.021756656
58	0x3d224efb	0.039626103
59	0x3dcb797f	0.09935283
60	0x3d3c4d7b	0.04597233
61	0xbaeeb563	-0.0018212016
62	0xbd010a66	-0.031504057
63	0x3dd9ca5a	0.106342986
64	0xbe049ab0	-0.12949634
65	0x3d4f260a	0.050573386
66	0xbd8bdd4a	-0.06829317
67	0xbec67131	-0.38758233
68	0xbd50f34d	-0.05101328
69	0x3dde8473	0.108651064
70	0xbe1e7ad6	-0.15476546
71	0xbd2d3fef	-0.0422973
72	0x3b567d32	0.003272843
73	0xbd85ab41	-0.06526805
74	0xbdb07c86	-0.08617501
75	0xbdb335c5	-0.0875049
76	0x3d9f2363	0.07770421
77	0x3e1c7751	0.1527989
78	0xbdfca63d	-0.12336395
79	0xbc41413e	-0.01179534
80	0x3d8dac59	0.06917638
81	0xbdcd3fa3	-0.10021903
82	0xbcbadca2	-0.022810284
83	0xbd7b5130	-0.061356723
84	0x3d7b12cf	0.061297234
85	0xbd46611c	-0.048432454
86	0xbd8690dc	-0.065705985
87	0xbdd29f61	-0.10284305
88	0x3d029b3a	0.031886317
89	0x3def9fab	0.11700376
90	0xbe6819b2	-0.22666052
91	0xbdc23cf0	-0.09484279
92	0xbda09a4c	-0.0784193
93	0x3dc57db9	0.0964312
94	0xbda2949e	-0.07938503
95	0xbc59c7c7	-0.01329226
96	0x3e5bf85c	0.2148146
97	0x3e7075fc	0.23482507
98	0x3e539b04	0.20664603
99	0xbe81f224	-0.2538005
100	0xbdd511e4	-0.10403803
101	0xbdaf8233	-0.085697554
102	0xbe40f740	-0.18844318
103	0x3d8a10e1	0.06741501
104	0xbd487bb7	-0.04894611
105	0xbe06f6b9	-0.13180055
106	0xbd59cf78	-0.053176373
107	0xbd9884e3	-0.07447221
108	0xbe7024d5	-0.2345155
109	0xbe8e1f2f	-0.27758166
110	0xbe23443a	-0.15943995
111	0x3dd82ecd	0.105558015
112	0x3d7b3ae6	0.061335467
113	0xbd252ed0	-0.040327847
114	0x3e21b315	0.1579097
115	0x3e50da86	0.2039586
116	0x3e60c9e4	0.21952015
117	0xbd8b0303	-0.06787684
118	0xbd2f5058	-0.04280123
119	0xbc71815d	-0.014740315
120	0xbd9d10b5	-0.07669202
121	0x3d8b9cb9	0.06817002
122	0xbcb1cd4d	-0.02170434
123	0xbe01a69f	-0.12661217
124	0x3bad6917	0.0052920687
125	0xbda9aa1a	-0.082843974
126	0x3d704dbd	0.058667887
127	0x3dffe8d0	0.12495577
128	0x3d4dce83	0.050245773
129	0xbbf289c8	-0.0074016787
130	0xbd844a73	-0.064595126
131	0xbd200db5	-0.039075572
132	0xbde5978b	-0.11210545
133	0xbe35e2bd	-0.17762275
134	0xbe0ecd22	-0.1394544
135	0xbd211ce5	-0.039334197
136	0xbc7ef7cd	-0.01556201
137	0x3dac5054	0.08413759
138	0xbd5c08fc	-0.053719506
139	0x3d50ab93	0.050944876
140	0x3d20116f	0.039079126
141	0x3d11207a	0.035431363
142	0xbd9caeef	-0.076505534
143	0x3d6af4de	0.05736243
144	0x3dcc2bf5	0.09969322
145	0x3e0d654d	0.13808174
146	0x3c496060	0.012291044
147	0xbc686b3c	-0.014185723
148	0x3d739f76	0.059478246
149	0xbd579e5a	-0.05264125
150	0xbde4895c	-0.11159012
151	0xbc84863c	-0.01617729
152	0xbd9f0cb1	-0.077660926
153	0x3cfe0aee	0.031011071
154	0x3e8436bf	0.25823018
155	0x3e2f64be	0.17128274
156	0xbdd35399	-0.10318679
157	0x3d8104ce	0.062997445
158	0x3de2500d	0.11050425
159	0xbe390630	-0.18068767
160	0x3d6417d6	0.055686794
161	0xbd500fd6	-0.050796352
162	0xbda3fbba	-0.080069974
163	0x3d82d402	0.063880935
164	0xbe077d3a	-0.13231364
165	0xbc9866d7	-0.018603725
166	0x3d7641af	0.060121235
167	0xbe080e5d	-0.13286729
168	0x3dca67b7	0.09883063
169	0x3dabd185	0.08389572
170	0xbd997229	-0.074924774
171	0xbd1da4eb	-0.038487356
172	0x3d878b5a	0.06618376
173	0xbcd3660d	-0.025805498
174	0xbce02922	-0.027363364
175	0x3d5fe37b	0.0546603
176	0x3cb36137	0.021896942
177	0x3d3116a8	0.043234497
178	0x3dd2f509	0.10300643
179	0xbd6b9853	-0.057518315
180	0xbd366db1	-0.044538204
181	0x3bc8e5b9	0.0061309007
182	0xbdb717dc	-0.08940098
183	0xbcd99290	-0.026559144
184	0x3daecc8e	0.085351095
185	0x3b8786b9	0.0041359332
186	0xbce25403	-0.02762795
187	0xbd839a1d	-0.06425879
188	0x3d7e8667	0.062139895
189	0xbd5409d0	-0.05176717
190	0x3b65e996	0.0035081855
191	0x3e31bae7	0.17356454
192	0xbe0040e3	-0.12524752
193	0x3bebe2fc	0.0071986895
194	0x3cdafcdb	0.026731899
195	0xbd69d2ca	-0.05708579
196	0xbe00c8f4	-0.12576658
197	0xbdae7c10	-0.08519757
198	0x3df33d07	0.118768744
199	0xbe0c7129	-0.13715042
200	0xbc0fc855	-0.00877579
201	0x3e1028ae	0.14078018
202	0x3b3247b5	0.0027203385
203	0xbd84f82f	-0.0649265
204	0x3d3d3668	0.046194464
205	0x3d10104f	0.035171803
206	0x3d07ea20	0.033182263
207	0x3e7a80dd	0.2446322
208	0x3e2d49c2	0.16922668
209	0x3dcd1776	0.100142404
210	0x3d4850e4	0.04890527
211	0x3e1601a9	0.14649071
212	0x3d0b532f	0.034014877
213	0xbe504c94	-0.20341712
214	0x3d232636	0.039831363
215	0x3d30e811	0.043190066
216	0xbdcf98e0	-0.101365805
217	0x3c9812b0	0.018563598
218	0x3bbd2a6a	0.0057728784
219	0xbdc7a589	-0.0974837
220	0xbda1f158	-0.07907361
221	0x3c8a6814	0.016895331
222	0x3d69f6df	0.0571202
223	0xbc2298b9	-0.009924107
224	0x3cf64e0e	0.030066516
225	0x3d9ae6c5	0.07563547
226	0x3de2ab6f	0.110678546
227	0x3b9e9f67	0.0048407796
228	0xbe8f0ec1	-0.27940944
229	0x3d278f1c	0.040907964
230	0xbc090985	-0.008364086
231	0xbe28c920	-0.16482973
232	0x3d3d0184	0.046144024
233	0x3cee0c72	0.029058669
234	0x3e1478d6	0.1449922
235	0x3e2e83be	0.17042443
236	0xbd35d9dd	-0.044397224
237	0xbe1375cd	-0.14400406
238	0xbe08687d	-0.13321109
239	0xbe2ad193	-0.16681509
240	0xbed746ad	-0.4204611
241	0xbef83bb0	-0.48483038
242	0xbdbf71a6	-0.093478486
243	0x3da12a70	0.078694224
244	0xbd93a0bf	-0.07208394
245	0x3d2f609d	0.042816747
246	0xbbaaa257	-0.0052073407
247	0x3c7c7bcd	0.015410376
248	0x3d63084f	0.055427846
249	0xbd361196	-0.044450365
250	0xbd3beba3	-0.045879018
251	0xbdb219be	-0.08696316
252	0xbdad4239	-0.084598966
253	0xbdc4bb9c	-0.09606096
254	0xbcecb514	-0.028894939
255	0xbdf11455	-0.11771456

rb2.conv1.bias f4 [20]
0	0x38295c67	4.0378796e-05
1	0xb747a80e	-1.1900453e-05
2	0xb924c007	-0.00015711795
3	0xb8ef6402	-0.00011415036
4	0x37886d4c	1.6263359e-05
5	0x37cedf63	2.4661136e-05
6	0xb8ec34bc	-0.000112631795
7	0x39049a43	0.00012645968
8	0xb747e844	-1.1915403e-05
9	0x38224524	3.8688202e-05
10	0x38416cd2	4.6116133e-05
11	0xb8a43158	-7.8293204e-05
12	0x36af3ce0	5.222493e-06
13	0x3865529a	5.4674783e-05
14	0x37944577	1.7675322e-05
15	0x38c8a5e3	9.567642e-05
16	0xb924ac6e	-0.00015704494
17	0x3777f9d3	1.4780514e-05
18	0x376ca11c	1.4104207e-05
19	0x390f1dd8	0.0001364866

rb2.bn1.weight f4 [20]
0	0x3f59d08e	0.85083854
1	0x3f757ac5	0.95890456
2	0x3f6f7a75	0.9354623
3	0x3f8e081c	1.1096225
4	0x3f8a05dc	1.0783038
5	0x3f481a53	0.7816517
6	0x3f70943b	0.9397618
7	0x3f74c1b3	0.9560806
8	0x3f3d27d2	0.73888886
9	0x3f624c8e	0.88398063
10	0x3f651297	0.8948149
11	0x3f829cc3	1.020409
12	0x3f86ba88	1.0525675
13	0x3f75594d	0.9583939
14	0x3f7a07cb	0.9766814
15	0x3f85a63b	1.0441355
16	0x3f77ab19	0.9674545
17	0x3f6a817c	0.9160383
18	0x3f824a87	1.0178994
19	0x3f7d994e	0.9906205

rb2.bn1.bias f4 [20]
0	0x3ccf8f8a	0.025337
1	0xbd9de4cb	-0.077096544
2	0x3d65364a	0.055959977
3	0xbc9d31ec	-0.019188844
4	0xbdaf1dd6	-0.08550613
5	0xbda2e0de	-0.07953046
6	0x3cade61e	0.021227892
7	0x3d832838	0.064041555
8	0xbccfeb1b	-0.025380662
9	0x3cb9be96	0.022673886
10	0xbd13296e	-0.035928182
11	0x3d51e4ed	0.05124371
12	0xbdd92a72	-0.10603799
13	0x3ca13646	0.0196792
14	0xbd83070b	-0.06397828
15	0xbadac5e1	-0.0016691053
16	0x3d5e7037	0.054306235
17	0xbdcf9aac	-0.10136923
18	0x3d9a22c5	0.07526163
19	0xbe12b553	-0.14326982

rb2.bn1.running_mean f4 [20]
0	0xbf65d7f5	-0.8978265
1	0xbe786fc3	-0.24261384
2	0xbfe00760	-1.7502251
3	0xc0386bfe	-2.8815913
4	0xbf3c5358	-0.7356467
5	0xbea2b908	-0.31781793
6	0xbf09a475	-0.53766567
7	0xbf977413	-1.1832298
8	0x3ed337c9	0.41253498
9	0xbd98afbc	-0.07455394
10	0xbefc5245	-0.49281517
11	0xbf3e5b58	-0.7435813
12	0xc012bd80	-2.2928162
13	0xbf2637d0	-0.64928913
14	0xbeee5ec8	-0.46556687
15	0xbfbf20dd	-1.4931904
16	0xbf87c85a	-1.0608017
17	0xbeda753f	-0.42667577
18	0xbfed23d8	-1.8526564
19	0xbf033a5f	-0.5126094

rb2.bn1.running_var f4 [20]
0	0x3f9f072f	1.2424067
1	0x3f8ce4fa	1.1007378
2	0x3fcbc167	1.5918397
3	0x4025fe5f	2.5936506
4	0x3fdd0245	1.7266318
5	0x3faca545	1.3487936
6	0x3fea421c	1.8301425
7	0x3ff79b3e	1.9344251
8	0x3f877180	1.0581512
9	0x3f761ce6	0.96137846
10	0x3faf3a27	1.3689622
11	0x3fc747c3	1.5568775
12	0x400f43ac	2.2385054
13	0x3fd158a7	1.635518
14	0x3f8eefcf	1.1166934
15	0x3ffd62c0	1.9795761
16	0x3fc2dcb9	1.5223609
17	0x3fbc883c	1.4729075
18	0x3fa30b33	1.2737793
19	0x3fd9ed34	1.7025514

rb2.conv2.weight f4 [20, 20, 3, 3]
0	0xbcb58bf2	-0.022161458
1	0xbd8d6c7c	-0.069054574
2	0x3ca22be1	0.019796314
3	0x3db5d6cb	0.08878859
4	0x3d54bc8d	0.05193763
5	0xbdd8c1f6	-0.1058387
6	0x3d2c8899	0.042122457
7	0xbdaad9b4	-0.08342305
8	0xbbf87b4c	-0.0075830575
9	0xbe2f0777	-0.17092691
10	0x3dde16f4	0.10844222
11	0x3d1cee6a	0.038313307
12	0x3dd29f6c	0.102843136
13	0x3e4533d3	0.1925805
14	0x3e0cb0fe	0.13739392
15	0x3de11154	0.10989633
16	0x3dcb3943	0.09923031
17	0x3dbbbbb3	0.0916666
18	0xbcac3fb7	-0.021026475
19	0xbd920caa	-0.07131322
20	0xbdce51c8	-0.10074192
21	0x3e3042b8	0.17212951
22	0x3debbd92	0.11510767
23	0xbd611216	-0.05494889
24	0x3caab307	0.02083732
25	0x3d9c7af6	0.076406404
26	0xbdca56c3	-0.0987983
27	0xbdda8cbf	-0.106713764
28	0xbcd24bb9	-0.025670873
29	0xbe68eed5	-0.22747357
30	0xbe11dae1	-0.14243652
31	0x3cdc043d	0.02685749
32	0xbe6dcab5	-0.23221858
33	0xbe5985ce	-0.21242449
34	0xbdb3b72d	-0.087751724
35	0xbdee1d00	-0.11626625
36	0xbe30932e	-0.17243645
37	0xbe038265	-0.1284271
38	0xbdd8bca5	-0.10582856
39	0xbd5faa38	-0.054605693
40	0xbcba6ebb	-0.022757879
41	0x3bb86ccb	0.0056282035
42	0x3dbd412b	0.092409454
43	0x3dfba58d	0.12287436
44	0x3d1d790b	0.038445514
45	0xbcc29c76	-0.023756247
46	0xbd562ca9	-0.052288685
47	0xbe01f369	-0.1269051
48	0xbdd0e627	-0.10200148
49	0x3d555003	0.05207826
50	0xbdac4d3c	-0.08413169
51	0x3c2c894d	0.010530782
52	0xbdcddba1	-0.100516565
53	0xbe08826c	-0.13331002
54	0xbd0be5cb	-0.034154695
55	0x3c37622e	0.011192841
56	0x3c1ab4b1	0.009442494
57	0x3ddbb238	0.10727352
58	0x3d4062e5	0.046969313
59	0xbd388b20	-0.045054555
60	0xbde57267	-0.11203461
61	0xbdf8f527	-0.12156134
62	0x3cec91e5	0.028878162
63	0xbe125a2e	-0.14292213
64	0x3d146095	0.03622492
65	0xbd667d91	-0.056272093
66	0x3795a2ae	1.7837938e-05
67	0xbd6b3a2a	-0.057428516
68	0x3c9556c4	0.01822985
69	0xbe164a3f	-0.1467676
70	0xbda26a86	-0.07930474
71	0x3d912007	0.07086187
72	0x3deeb179	0.11654944
73	0xbe328684	-0.17434126
74	0xbdfa213a	-0.12213369
75	0x3e380cb6	0.17973599
76	0x3d7bcbcb	0.06147365
77	0xbc8f69fd	-0.017506594
78	0x3cd5c4e1	0.026094856
79	0xba198bf5	-0.0005857342
80	0x3ca68de5	0.020331332
81	0xbcd13db7	-0.025542123
82	0xbdf51e8b	-0.11968716
83	0xbe517b76	-0.20457253
84	0xbc91cf69	-0.017799096
85	0xbdb2278d	-0.0869895
86	0x3dce285c	0.10066292
87	0xbd092f88	-0.033492595
88	0x3dee1ee0	0.11626983
89	0x3e73189b	0.23739855
90	0x3d934f10	0.07192814
91	0x3da080c1	0.07837058
92	0xbcc6897f	-0.024235485
93	0x3ded111d	0.1157553
94	0x3d9b8c9f	0.07595181
95	0xbdf8b90d	-0.12144671
96	0x3d7c1057	0.06153902
97	0xbe03e2cc	-0.12879485
98	0xbe3e14db	-0.18562643
99	0x3d6c9e34	0.05776806
100	0x3d65c2f7	0.056094136
101	0x3e589ba9	0.2115313
102	0x3d26b796	0.040702425
103	0xbcee1ea7	-0.02906735
104	0x3dd0053d	0.10157249
105	0xbd446c7c	-0.04795502
106	0xbe434f30	-0.19073176
107	0xbdd07f7f	-0.10180568
108	0x3b90289e	0.004399373
109	0x3d0c6914	0.034279898
110	0xbcfc67d6	-0.030811232
111	0xbd60523b	-0.05476592
112	0xbddfe694	-0.10932651
113	0xbe2045dd	-0.1565165
114	0xbe84b383	-0.25918207
115	0xbe3243fd	-0.17408748
116	0xbe41fa2e	-0.18943092
117	0x3da5fb54	0.08104578
118	0xbdacd751	-0.08439506
119	0x3c9cbe2a	0.019133646
120	0x3e2c511c	0.16827816
121	0xbc7a2cbb	-0.015269454
122	0x3d022f30	0.031783283
123	0x3cb9cc7a	0.02268051
124	0xbcdf45fc	-0.02725505
125	0x3d0800d2	0.033203907
126	0x3dfb0422	0.12256648
127	0x3cd98619	0.0265532
128	0x3e095e1b	0.13414805
129	0x3c9fdcc3	0.019514447
130	0xbdd7ca39	-0.10536618
131	0x3d9381b8	0.07202476
132	0x3dba9a61	0.09111477
133	0x3d35141c	0.04420863
134	0x3ddf319f	0.10898136
135	0x3d6727c3	0.056434404
136	0x3d6e831e	0.05823051
137	0x3d1099e0	0.035302997
138	0xbc63e08b	-0.013908516
139	0x3d14ce52	0.036329575
140	0x3c8127df	0.015766082
141	0xbcf54fbf	-0.029945252
142	0xbdb0480f	-0.08607494
143	0xbe6141d1	-0.21997763
144	0x3d905493	0.07047381
145	0x3d8b6d96	0.06808011
146	0xbce73d08	-0.028227344
147	0x3dbd11ab	0.092318855
148	0x3d90da86	0.0707293
149	0xbcfdcee0	-0.030982435
150	0x3c25a18e	0.010109318
151	0xbd30d809	-0.043174777
152	0xbc8630b5	-0.016380647
153	0x3c8fad44	0.017538674
154	0xbcfa8035	-0.030578712
155	0x3d1e1d4a	0.03860215
156	0xbd573473	-0.052540254
157	0xbe1177bc	-0.14205831
158	0x3a770b7d	0.0009424014
159	0xbbf64de7	-0.007516611
160	0xbd83728e	-0.06418334
161	0xbe00a5f0	-0.125633
162	0xbdd6cfe8	-0.10488874
163	0x3d5a32ed	0.053271223
164	0x3d03f0a4	0.032211915
165	0xbdb86e3f	-0.09005403
166	0x3dbcf42e	0.09226261
167	0x3d993b05	0.0748196
168	0xbe3edfa3	-0.18639998
169	0xbdb811da	-0.0898778
170	0xbd3b8712	-0.04578311
171	0x3e7604ef	0.2402532
172	0x3e21bb72	0.15794161
173	0x3dd2dad6	0.10295646
174	0x3de4f8b8	0.11180252
175	0x3dd0d87c	0.10197541
176	0x3dffc293	0.12488284
177	0x3dcd6c2c	0.10030398
178	0x3da55ca8	0.080743134
179	0x3d4b6717	0.04965886
180	0x3db1eaff	0.086874
181	0x3dd8c813	0.10585036
182	0xbc4c9a53	-0.012487966
183	0xbdbf3264	-0.09335783
184	0x3d808aba	0.0627646
185	0xbd92c6f9	-0.07166857
186	0xbd9166be	-0.07099675
187	0xbd1698f8	-0.036766976
188	0xbe07af0d	-0.1325037
189	0xbddba327	-0.10724478
190	0xbe5eee31	-0.2177055
191	0xbd875f11	-0.06609929
192	0x3d38e1b4	0.045137122
193	0x3d1b5399	0.03792152
194	0xbd7e3b9e	-0.062068574
195	0x3bdc1744	0.0067166407
196	0x3e2773b5	0.16352732
197	0x3d6407e7	0.0556716
198	0xbe0a847c	-0.13527101
199	0xbd3e6935	-0.046487052
200	0xbd8e7979	-0.06956763
201	0xbde1efde	-0.11032079
202	0xbc8d25c3	-0.01722992
203	0x3c295196	0.010334393
204	0xbae0e69c	-0.0017158571
205	0x3d81b786	0.063338324
206	0x3ccc5760	0.024944007
207	0xbd2d5b61	-0.042323474
208	0x3d815563	0.06315114
209	0xbdc42a4b	-0.09578379
210	0xbe1077d8	-0.14108217
211	0x3d8d7c12	0.0690843
212	0xbd35cf24	-0.044386998
213	0xbe2534c2	-0.16133407
214	0xbe3e2f58	-0.18572748
215	0xbe70bf92	-0.23510578
216	0xbe2be390	-0.16786027
217	0xbcb6bf13	-0.022307908
218	0xbdebb90e	-0.11509906
219	0xbd3149dc	-0.04328333
220	0x3dd0adfb	0.10189434
221	0xbdddb7aa	-0.10826047
222	0x3daad9f0	0.083423495
223	0xbd40cbba	-0.04706929
224	0xbd936b2a	-0.07198174
225	0xbe00ef6d	-0.12591334
226	0xbd892156	-0.066958115
227	0x3d23d730	0.04000014
228	0xbe8dba59	-0.27681234
229	0xbdd9c1eb	-0.1063269
230	0x3c143e51	0.0090480605
231	0xbc23ba89	-0.009993204
232	0x3c898a57	0.016789598
233	0x3c2ddcae	0.010611696
234	0xbbaf5ac8	-0.005351398
235	0x3d19ae61	0.037519816
236	0x3d15bb1d	0.0365554
237	0x3c84318b	0.016136905
238	0x3d30c0a1	0.043152455
239	0xbdbe291f	-0.09285187
240	0xbd42fd5c	-0.047604904
241	0x3d4f1984	0.050561443
242	0xbd02c401	-0.031925205
243	0x3da54fe1	0.08071876
244	0x3c835f1d	0.016036564
245	0xbe197964	-0.14987713
246	0x3db7021b	0.089359485
247	0x3d46af98	0.048507303
248	0xbd234e26	-0.03986945
249	0x3c2988fc	0.010347601
250	0xbc9e33bf	-0.019311784
251	0xbe01a44b	-0.12660329
252	0xbe14cb88	-0.14530766
253	0xbd63ac69	-0.055584345
254	0xbdf7bb9c	-0.120963305
255	0xbd4239cd	-0.047418404

rb2.conv2.bias f4 [20]
0	0x38c280ee	9.274656e-05
1	0xb7aa54ba	-2.0305033e-05
2	0xb9407748	-0.00018354983
3	0x38b622d4	8.6849235e-05
4	0x38ab4528	8.166797e-05
5	0x38098fcc	3.2797267e-05
6	0xb906fc0b	-0.00012873129
7	0x388bedbe	6.6723194e-05
8	0x385ed011	5.31227e-05
9	0xb640e110	-2.8741233e-06
10	0xb79211a0	-1.7412764e-05
11	0x36f5fcf1	7.3310152e-06
12	0x38ad7d7e	8.2726576e-05
13	0x36f86362	7.4025456e-06
14	0x36c62678	5.905338e-06
15	0x37b19bfe	2.1172684e-05
16	0xb7088cfc	-8.139057e-06
17	0xb783b7de	-1.5702037e-05
18	0xb8027f6a	-3.111308e-05
19	0x3722066a	9.657446e-06

rb2.bn2.weight f4 [20]
0	0x3f63b91b	0.88954324
1	0x3f8a489a	1.0803406
2	0x3f9fe2d0	1.2491093
3	0x3f872c0b	1.0560316
4	0x3f98f0b9	1.1948463
5	0x3f755dd0	0.9584627
6	0x3f9b4f02	1.2133486
7	0x3f9abdbb	1.2089151
8	0x3f979fe2	1.1845667
9	0x3f9e6e50	1.2377415
10	0x3fa50e52	1.2894995
11	0x3f825e1e	1.0184972
12	0x3f982a06	1.1887825
13	0x3f7cd985	0.9876941
14	0x3f98e2d8	1.1944227
15	0x3fad22f2	1.352629
16	0x3fa508b1	1.2893277
17	0x3fa2d08a	1.2719891
18	0x3f904e70	1.1273937
19	0x3f73ba78	0.95206404

rb2.bn2.bias f4 [20]
0	0x3e0245d5	0.12721951
1	0x3d2a966a	0.041647352
2	0xbe4711c4	-0.19440371
3	0xbd7bd12e	-0.061478786
4	0xbe08cab8	-0.13358581
5	0xbe441d88	-0.1915189
6	0x3d672156	0.056428276
7	0xbe654ed1	-0.22393347
8	0x3e16f332	0.14741209
9	0xbdffbab0	-0.1248678
10	0x3adf9029	0.0017056513
11	0xbe34fc72	-0.17674425
12	0x3beb2fae	0.0071773147
13	0x3da12797	0.07868879
14	0xbd19175e	-0.0373758
15	0x3e05b261	0.13056327
16	0xbd1f3d46	-0.038876794
17	0xbdb8ccc7	-0.09023433
18	0x3d644e0c	0.055738494
19	0xbe735bbf	-0.23765467

rb2.bn2.running_mean f4 [20]
0	0xbee13acc	-0.4399017
1	0xc00fb845	-2.245622
2	0xbf92bb41	-1.1463395
3	0xbf61e0c6	-0.882336
4	0xbf962a9f	-1.1731757
5	0xbe80ba9a	-0.25142366
6	0xbf70d1dc	-0.9407022
7	0x3ed7c5fd	0.4214324
8	0xc0488b98	-3.1335201
9	0xbdac9072	-0.08425988
10	0xbf56f9b3	-0.8397476
11	0x3e31ad53	0.17351274
12	0xbfc679fd	-1.5505978
13	0xbfc3dfa9	-1.5302631
14	0x3f1e335e	0.6179713
15	0xbfb5bd33	-1.4198364
16	0xc02562c9	-2.5841544
17	0xbe157520	-0.14595461
18	0xc0069a7e	-2.1031795
19	0x3e5f6b8f	0.21818374

rb2.bn2.running_var f4 [20]
0	0x3f83c1d5	1.0293528
1	0x3f9065ae	1.128103
2	0x3f49420b	0.786164
3	0x3f63729e	0.88846767
4	0x3f61a005	0.88134795
5	0x3f9767a8	1.1828508
6	0x3faabfa9	1.333974
7	0x3f17f127	0.59352344
8	0x3fadbe9e	1.3573797
9	0x3f7fca5a	0.9991814
10	0x3f4ea58c	0.80721354
11	0x3f5fac42	0.8737222
12	0x3f0e7727	0.5565056
13	0x3f8a7f28	1.0820055
14	0x3fac8a0b	1.3479627
15	0x3f82a636	1.0206974
16	0x3f4532b7	0.7703051
17	0x3f83947b	1.0279688
18	0x3f8e4a81	1.1116487
19	0x3f443223	0.76639

rb2.shortcut.conv.weight f4 [20, 10, 1, 1]
0	0xbd070ba5	-0.03297009
1	0xbdfc60a4	-0.1232312
2	0xbedb7fa9	-0.42870834
3	0xbe0cb8e2	-0.13742402
4	0x3ed24778	0.4107015
5	0x3d86909a	0.06570549
6	0x3bc065ba	0.0058715018
7	0x3da77f06	0.08178525
8	0xbb6c62b6	-0.0036069578
9	0xbe6b0b9f	-0.22953652
10	0xbe31b223	-0.1735311
11	0xbb6efcac	-0.0036466522
12	0xbf1247d3	-0.57140845
13	0x3dbce028	0.09222442
14	0x3d695510	0.056965888
15	0xbe9c1d8f	-0.304913
16	0xbcb72c5a	-0.022360016
17	0xbcfdc983	-0.030979877
18	0xbd6d6325	-0.05795588
19	0xbd346f86	-0.04405167
20	0xbd5d4100	-0.054017067
21	0xbe050dc3	-0.12993531
22	0xbcfc02aa	-0.03076299
23	0xbd643440	-0.055713892
24	0x3dc8ef36	0.09811251
25	0x3ebdc632	0.37065274
26	0x3e0b5ee6	0.1361042
27	0x3d5865f3	0.0528316
28	0xbe09ff71	-0.1347635
29	0xbeb99a8c	-0.36250722
30	0xbd404886	-0.046944164
31	0x3d96378d	0.07334814
32	0x3eaf9edb	0.34300885
33	0x3dad8cc6	0.08474116
34	0x3dcc48bf	0.09974813
35	0xbd5050a6	-0.050858162
36	0x3e8ca203	0.27467355
37	0x3e74680d	0.23867817
38	0x3ecfaa02	0.40559393
39	0xbe7fa009	-0.24963392
40	0xbe55f09c	-0.20892566
41	0x3d26717b	0.040635567
42	0x3e33dbc2	0.175643
43	0x3e8c5d11	0.27414754
44	0xbc49e216	-0.0123219695
45	0xbc2be63a	-0.010491902
46	0xbd8e9a6b	-0.06963047
47	0xbc9d74a0	-0.01922065
48	0x3eb2c654	0.34916937
49	0xbe464275	-0.19361289
50	0x3e726f8e	0.23675367
51	0x3dfa76e7	0.1222971
52	0xbda838da	-0.082139686
53	0xbeac0823	-0.33599958
54	0xbd9a27d2	-0.07527126
55	0xbe3b260d	-0.18276234
56	0x3e6398c4	0.22226244
57	0xbe7cbd66	-0.24681625
58	0xbe368c4f	-0.17826961
59	0xbeba81e2	-0.36427218
60	0xbbbc0bee	-0.005738727
61	0x3df06a9b	0.117390834
62	0x3d203471	0.039112512
63	0xbe865867	-0.2623932
64	0xbd9a6955	-0.07539622
65	0xbebae840	-0.36505318
66	0xbe8a2c72	-0.26987034
67	0x3db43f10	0.08801091
68	0x3e9c39e9	0.30512932
69	0xbda274ea	-0.07932456
70	0x3e4850fc	0.19562143
71	0x3e3d3a54	0.18479282
72	0xbd72e2ea	-0.059298433
73	0xbe0df7c9	-0.13864054
74	0xbe245cda	-0.16051045
75	0xbe6e03db	-0.23243658
76	0xbeb10ec7	-0.34581587
77	0xbd0dd7c1	-0.034629587
78	0xbef29ea8	-0.4738667
79	0xbe443992	-0.19162586
80	0xbe50fa13	-0.20407896
81	0x3d885a43	0.06657841
82	0xbdd1cc40	-0.10244036
83	0xbe2259f9	-0.15854634
84	0xbf210c13	-0.6290905
85	0xbdf6a4f3	-0.1204318
86	0x3d1c42f6	0.038149796
87	0x3e5d711a	0.21625176
88	0xbe1e1d67	-0.15440904
89	0x3dec3a5f	0.11534571
90	0xbe68c6ae	-0.2273204
91	0x3ebbb5c4	0.36662114
92	0xbe6439a2	-0.2228761
93	0xbe3eb1db	-0.18622534
94	0x3e1b0756	0.15139517
95	0xbd9f363c	-0.07774016
96	0xbcb87111	-0.022514852
97	0x3e6c600c	0.23083514
98	0xbd706f95	-0.058700163
99	0xbe961ad0	-0.2931733
100	0x3d7eed76	0.06223818
101	0x3d829d0d	0.06377611
102	0xbec8bc2c	-0.39206064
103	0x3e633958	0.22189844
104	0xbeb41caf	-0.35178134
105	0xbd46a228	-0.048494488
106	0x3e8a40ca	0.27002555
107	0x3df4f06e	0.11959921
108	0x3e67b341	0.22626974
109	0x3dae2075	0.085022844
110	0xbc5dc981	-0.013536812
111	0xbda6b109	-0.081392355
112	0xbeb8959d	-0.36051646
113	0x3e300967	0.17191087
114	0x3e80ca45	0.2515432
115	0x3e8052b4	0.25063097
116	0xbddef17a	-0.10885902
117	0xbe28b9d8	-0.16477144
118	0x3e037acf	0.12839817
119	0xbdb0ff0e	-0.08642398
120	0xbda49414	-0.08036056
121	0xbed7f0cd	-0.42175904
122	0x3e5c5491	0.21516635
123	0x3ea7e621	0.32792762
124	0xbdefb781	-0.117049225
125	0x3da68e03	0.08132555
126	0x3dffaa4f	0.12483656
127	0xbe2d1b04	-0.16904837
128	0xbe8b74eb	-0.2723764
129	0x3e066964	0.13126141
130	0xbd937cd0	-0.072015405
131	0xbe36e51d	-0.17860837
132	0xbe3ee047	-0.18640243
133	0xbda19576	-0.078898355
134	0x3e2303cf	0.15919422
135	0x3e41f34e	0.1894047
136	0x3df2fd84	0.118647605
137	0x3e1976b6	0.14986691
138	0xbef28f32	-0.47374874
139	0xbde062c8	-0.10956341
140	0x3cf466b1	0.029834123
141	0xbe654c0b	-0.2239229
142	0x3d150779	0.03638408
143	0xbe1d9956	-0.15390524
144	0x3bf1e62d	0.0073821754
145	0xbe8e8b03	-0.27840433
146	0xbeeda23f	-0.46412846
147	0xbe187e31	-0.14891888
148	0xbe10450a	-0.14088836
149	0x3e2804bd	0.16408058
150	0x3ecad7f2	0.39617878
151	0xbec4db0c	-0.3844837
152	0x3e658ad5	0.22416241
153	0x3e1c694c	0.15274543
154	0xbe3e1cff	-0.18565749
155	0x3e274993	0.1633666
156	0x3da55dcf	0.08074533
157	0xbe0ffe9d	-0.14061971
158	0xbe31bad8	-0.17356431
159	0xbdd0888d	-0.10182295
160	0x3e10049d	0.1406426
161	0x3eb0f300	0.34560394
162	0xbe015dc7	-0.1263343
163	0x3b3e07d1	0.0028996358
164	0xbd79d293	-0.060991835
165	0x3e830250	0.25587702
166	0x3e12c098	0.14331281
167	0x3df70a31	0.12062491
168	0x3db4bcc7	0.08825069
169	0xbc0f0410	-0.008728996
170	0x3d414fbc	0.04719518
171	0x3d87ca60	0.06630397
172	0xbe973808	-0.29534936
173	0x3e2e7b77	0.17039286
174	0xbd1eff48	-0.038817674
175	0x3e5032ea	0.20331922
176	0x3e600ad8	0.21879137
177	0x3ec019fe	0.3751983
178	0x3e851fca	0.26000816
179	0xbdad53c0	-0.0846324
180	0x3dbca0cd	0.09210358
181	0x3e69a332	0.2281616
182	0x3ca5bb94	0.020231046
183	0xbe82a1b6	-0.25514
184	0xbdcd74da	-0.10032053
185	0x3cc1fc8e	0.023679998
186	0x3dfc0b1f	0.12306809
187	0xbe4b5525	-0.19856699
188	0xbecc978e	-0.39959377
189	0xbe6c6dd1	-0.23088767
190	0xbe925f9b	-0.28588566
191	0xbd9fd305	-0.07803921
192	0x3ebe34f5	0.37149778
193	0xbc4d5560	-0.012532562
194	0x3d59f8fc	0.053215966
195	0xbdb4c2d5	-0.08826224
196	0x3e262998	0.16226804
197	0xbdad4300	-0.08460045
198	0xbdece6bf	-0.11567449
199	0x3da734e8	0.08164388

rb2.shortcut.conv.bias f4 [20]
0	0xb7046e08	-7.893432e-06
1	0xb88df1ee	-6.768467e-05
2	0xb944ee42	-0.00018780775
3	0x38f451c0	0.00011650054
4	0x392d6f8c	0.0001654012
5	0xb7cb347e	-2.422393e-05
6	0x36bac63a	5.5663086e-06
7	0xb88d9b37	-6.752315e-05
8	0xb8957f90	-7.128634e-05
9	0xb90981b3	-0.00013113655
10	0xb89930b1	-7.304678e-05
11	0x389d2df8	7.494906e-05
12	0x3866cd9b	5.502776e-05
13	0x3864f63f	5.458877e-05
14	0xb83dffc0	-4.5299297e-05
15	0x388ecf8b	6.8097455e-05
16	0xb93e2cc1	-0.00018136484
17	0x36f742d8	7.3689553e-06
18	0x3860379c	5.3457552e-05
19	0x3821f41f	3.8612747e-05

rb2.shortcut.bn.weight f4 [20]
0	0x3f7af0a4	0.9802344
1	0x3f518942	0.81850064
2	0x3f6fe5aa	0.93709815
3	0x3f411905	0.754288
4	0x3f4483f6	0.76763856
5	0x3f574571	0.84090334
6	0x3f49a782	0.7877122
7	0x3f6b4f24	0.91917634
8	0x3f6e6fa5	0.93139106
9	0x3f760575	0.96102077
10	0x3f26af3e	0.6511115
11	0x3f4b892f	0.795062
12	0x3f326009	0.6967779
13	0x3f6ad671	0.9173346
14	0x3f83cc48	1.0296717
15	0x3f19d32a	0.60087836
16	0x3f4060c8	0.75147676
17	0x3f31a80c	0.69397044
18	0x3f0d60ad	0.5522564
19	0x3f55968e	0.83432853

rb2.shortcut.bn.bias f4 [20]
0	0x3e0245d5	0.12721951
1	0x3d2a966a	0.041647352
2	0xbe4711c4	-0.19440371
3	0xbd7bd12e	-0.061478786
4	0xbe08cab8	-0.13358581
5	0xbe441d88	-0.1915189
6	0x3d672156	0.056428276
7	0xbe654ed1	-0.22393347
8	0x3e16f332	0.14741209
9	0xbdffbab0	-0.1248678
10	0x3adf9029	0.0017056513
11	0xbe34fc72	-0.17674425
12	0x3beb2fae	0.0071773147
13	0x3da12797	0.07868879
14	0xbd19175e	-0.0373758
15	0x3e05b261	0.13056327
16	0xbd1f3d46	-0.038876794
17	0xbdb8ccc7	-0.09023433
18	0x3d644e0c	0.055738494
19	0xbe735bbf	-0.23765467

rb2.shortcut.bn.running_mean f4 [20]
0	0xbebc5de0	-0.3679037
1	0xbf66e9ec	-0.90200686
2	0xbdbad70f	-0.091230504
3	0x3f5541b0	0.83303356
4	0x3e40c0ce	0.18823549
5	0xbf4d1dc5	-0.8012355
6	0xbef0b24b	-0.47011027
7	0xbf891c42	-1.0711749
8	0xbf25ed42	-0.6481515
9	0xbed7bc34	-0.42135775
10	0x3e8e9e7d	0.27855292
11	0xbbc41af4	-0.0059846584
12	0xbd3a2e28	-0.045454174
13	0xbebb8384	-0.36623776
14	0xbf67d652	-0.905614
15	0x3e0311c3	0.12799744
16	0x3f39a447	0.7251629
17	0x3f43cdb1	0.76485735
18	0xbf1f4d45	-0.6222728
19	0xbcd55581	-0.026041748

rb2.shortcut.bn.running_var f4 [20]
0	0x3edbe168	0.4294541
1	0x3f00c3ed	0.5029896
2	0x3ebab25f	0.3646421
3	0x3ec35d44	0.38157094
4	0x3e86501b	0.2623299
5	0x3ee47dac	0.4462713
6	0x3ebe92a0	0.3722124
7	0x3f176cb7	0.5915026
8	0x3e8c2065	0.27368465
9	0x3e91e251	0.28492978
10	0x3ee59bcd	0.4484543
11	0x3e736d07	0.2377206
12	0x3e8eb93d	0.278757
13	0x3ee65df9	0.4499357
14	0x3ef82ac9	0.48470142
15	0x3eb36a3b	0.35041985
16	0x3e748b55	0.23881276
17	0x3ec6c027	0.38818476
18	0x3ebc0bae	0.3672766
19	0x3e1bc32d	0.15211172

res1_sc1.conv.weight f4 [20, 3, 1, 1]
0	0xbf07047e	-0.5274123
1	0x3e0410bf	0.12897013
2	0x3eb44d05	0.3521501
3	0xbe831a67	-0.2560608
4	0x3f111a9a	0.56681216
5	0xbe52f082	-0.20599559
6	0xbcd3499b	-0.025791934
7	0xbebee15f	-0.3728132
8	0xbee5c8dd	-0.4487981
9	0x3ec20702	0.37895972
10	0xbedc0ee1	-0.42980102
11	0xbe706a6d	-0.23478098
12	0x3ed5095b	0.416087
13	0xbe3c85f6	-0.18410477
14	0x3ea11d91	0.3146787
15	0xbf181172	-0.5940162
16	0xbe936365	-0.2878677
17	0x3ecda4b7	0.4016473
18	0xbe825c9b	-0.25461277
19	0x3efb0e50	0.49034357
20	0x3ed46c71	0.41488984
21	0x3ee79363	0.45229635
22	0xbf0ee9dd	-0.558256
23	0xbe8eba3b	-0.27876458
24	0x3e83f333	0.25771484
25	0x3f0084df	0.50202745
26	0xbe7fe7f1	-0.24990822
27	0x3e874d63	0.2642623
28	0xbe603887	-0.21896563
29	0xbee5dcb7	-0.44894955
30	0xbc59f56f	-0.013303145
31	0xbe730833	-0.23733597
32	0xbf209d85	-0.62740356
33	0x3dead3e4	0.11466196
34	0xbdfede1e	-0.12444709
35	0xbeffa659	-0.499316
36	0xbeee934e	-0.4659676
37	0xbe7f0b1e	-0.24906585
38	0xbdbb3e2c	-0.09142718
39	0x3da8bdf4	0.08239356
40	0xbe5f7607	-0.21822368
41	0xbef58498	-0.47952724
42	0xbe4dc9a5	-0.20096453
43	0x3e72d437	0.23713766
44	0x3ee044c9	0.4380248
45	0x3ee45ba2	0.4460116
46	0x3e6f12f7	0.23347078
47	0xbe681086	-0.22662553
48	0xbde6c739	-0.112684675
49	0xbf0645db	-0.5245034
50	0xbc31ada2	-0.01084462
51	0xbcdc0f7d	-0.026862854
52	0xbf0003e3	-0.5000593
53	0x3d35497f	0.044259544
54	0x3e8a72ef	0.27040812
55	0x3ec9b78e	0.39397854
56	0xbc98768b	-0.018611213
57	0xbf0580f0	-0.5214987
58	0x3dc28edf	0.09499907
59	0x3e16b7cd	0.14718552

res1_sc1.conv.bias f4 [20]
0	0x3921afc0	0.00015419628
1	0x399d9a7b	0.0003006047
2	0xb6bf4dcc	-5.7013003e-06
3	0x38823a5c	6.209753e-05
4	0xb81aa77b	-3.687244e-05
5	0xb8b51896	-8.635332e-05
6	0x38dbaf08	0.00010475336
7	0x371bae44	9.279294e-06
8	0xb877b8bc	-5.9061436e-05
9	0x36dc6c78	6.5691383e-06
10	0x38e2d533	0.00010816231
11	0x37b34437	2.1370228e-05
12	0x392f170a	0.00016697883
13	0x38e15450	0.000107445405
14	0x3925b0bb	0.00015801463
15	0x39568903	0.00020459671
16	0xb8c8ae68	-9.569229e-05
17	0xb98689d8	-0.00025661173
18	0x36f7e150	7.3874035e-06
19	0x39abf472	0.00032797788

res1_sc1.bn.weight f4 [20]
0	0x3f858ec5	1.0434195
1	0x3f7acec8	0.97971773
2	0x3f598ae9	0.84977585
3	0x3f495319	0.7864242
4	0x3f3e2906	0.74281347
5	0x3f3f3375	0.7468789
6	0x3f32c5c7	0.69833034
7	0x3f511b9d	0.8168276
8	0x3f420c6d	0.7580021
9	0x3f4472da	0.7673775
10	0x3f3d1039	0.7385288
11	0x3f462e21	0.7741414
12	0x3f3818f8	0.719131
13	0x3f512f45	0.8171275
14	0x3f51d700	0.8196869
15	0x3f1768c8	0.5914426
16	0x3f3e2d79	0.74288136
17	0x3f2ddee8	0.6791825
18	0x3f290f96	0.6603941
19	0x3f6389de	0.88882244

res1_sc1.bn.bias f4 [20]
0	0x3e0245d5	0.12721951
1	0x3d2a966a	0.041647352
2	0xbe4711c4	-0.19440371
3	0xbd7bd12e	-0.061478786
4	0xbe08cab8	-0.13358581
5	0xbe441d88	-0.1915189
6	0x3d672156	0.056428276
7	0xbe654ed1	-0.22393347
8	0x3e16f332	0.14741209
9	0xbdffbab0	-0.1248678
10	0x3adf9029	0.0017056513
11	0xbe34fc72	-0.17674425
12	0x3beb2fae	0.0071773147
13	0x3da12797	0.07868879
14	0xbd19175e	-0.0373758
15	0x3e05b261	0.13056327
16	0xbd1f3d46	-0.038876794
17	0xbdb8ccc7	-0.09023433
18	0x3d644e0c	0.055738494
19	0xbe735bbf	-0.23765467

res1_sc1.bn.running_mean f4 [20]
0	0xbccbe189	-0.024887817
1	0x3b8a14f2	0.0042139227
2	0x3d999652	0.074993744
3	0x3d0df2bb	0.034655314
4	0xbd39e72f	-0.04538649
5	0xbb8085f9	-0.003922221
6	0xbd84fb66	-0.06493263
7	0x3d3389ac	0.043832466
8	0xbc2fcd21	-0.010730059
9	0x3d5a4bff	0.05329513
10	0x3db3ab80	0.087729454
11	0x3d77ee96	0.060530268
12	0x3d3be533	0.04587288
13	0x3d852118	0.06500453
14	0xbd63fec9	-0.055662904
15	0xbbdb0ca6	-0.0066848574
16	0x3d129837	0.035789695
17	0x3cc64fe8	0.024208024
18	0xbd03effe	-0.032211296
19	0x3a64a40c	0.00087219547

res1_sc1.bn.running_var f4 [20]
0	0x3c93bf2b	0.018035492
1	0x3bdacde0	0.0066773742
2	0x3e351392	0.17683247
3	0x3d015928	0.031579167
4	0x3d90c99d	0.07069705
5	0x3d93bc9d	0.072137095
6	0x3dee4b5e	0.11635469
7	0x3d5921ca	0.05301074
8	0x3d861c39	0.06548352
9	0x3d5c7fdc	0.053832874
10	0x3e484ca3	0.19560485
11	0x3d9620bb	0.073304616
12	0x3e1b414a	0.15161625
13	0x3dcd78ab	0.10032781
14	0x3d86ac6a	0.06575854
15	0x3d60d303	0.054888736
16	0x3dcbae89	0.09945399
17	0x3d67553e	0.056477778
18	0x3dc829ed	0.09773622
19	0x3cd7e803	0.026355749
