models/dense_max/epoch_0007.pth (torch, 645162 bytes, 174 tensors)

rb1.conv1.weight f4 [10, 3, 3, 3]
0	0xbd87a667	-0.066235356
1	0x3d8bd310	0.06827366
2	0xbdb62afe	-0.08894919
3	0xbe5ec3fd	-0.21754451
4	0x3e7df9ef	0.24802373
5	0x3e5087c2	0.20364287
6	0xbe300f50	-0.17193341
7	0x3e5acd66	0.21367416
8	0xbde0cda0	-0.1097672
9	0xbe105d1f	-0.14098023
10	0x3c97ee22	0.018546168
11	0xbd0f8a80	-0.035044193
12	0xbe9d3495	-0.3070418
13	0x3e773ca4	0.24144226
14	0x3e3d1144	0.18463618
15	0xbbb01be3	-0.005374418
16	0x3e85fa8c	0.26167715
17	0xbe71fbfd	-0.23631282
18	0xbc85c13a	-0.01632749
19	0x3a801ced	0.0009774246
20	0xbd9e3ec2	-0.07726814
21	0xbe64e1e4	-0.22351795
22	0x3c797cfb	0.015227552
23	0x3d1884a8	0.037235886
24	0x3e188efa	0.14898291
25	0x3d432037	0.047638144
26	0x3e08b10c	0.13348788
27	0x3d0c752e	0.03429144
28	0x3d5169f2	0.051126428
29	0x3e1f8b65	0.15580519
30	0x3dae63f2	0.08515157
31	0x3debdef4	0.11517134
32	0xbea0f76e	-0.31438774
33	0xbd8cf91e	-0.06883453
34	0x3d7e8193	0.06213529
35	0xbde165cc	-0.11005744
36	0xbd80ac69	-0.06282885
37	0xbc1a65d4	-0.009423692
38	0xbcf14222	-0.02945048
39	0xbc9e0df8	-0.01929377
40	0x3ecaacbf	0.3958492
41	0xbe4f163e	-0.20223328
42	0xbd3b9c9e	-0.04580366
43	0x3df4edb2	0.11959399
44	0xbe22d6ca	-0.15902248
45	0xbe137aef	-0.14402364
46	0xbe1fbf56	-0.15600333
47	0x3ddc7203	0.107639335
48	0x3d2683fc	0.040653214
49	0x3ea795c2	0.32731444
50	0xbe848ccd	-0.25888672
51	0xbc8c3a97	-0.017117782
52	0x3de815fe	0.1133232
53	0x3d136343	0.035983335
54	0x3ca7d930	0.020489305
55	0x3e792d66	0.24333724
56	0x3e35ffd1	0.17773367
57	0xbe08f344	-0.13374048
58	0xbd9c7517	-0.076395206
59	0x3dcb82cf	0.09937059
60	0xbd45d215	-0.048296053
61	0xbe45a2ff	-0.1930046
62	0x3d239feb	0.03994743
63	0x3e830639	0.25590685
64	0x3e58cde9	0.21172298
65	0x3e9645d4	0.2935015
66	0x3c28e533	0.010308552
67	0xbe36cc48	-0.17851365
68	0xbe04e43a	-0.12977687
69	0xbde603fc	-0.11231229
70	0xbe829a57	-0.25508377
71	0xbe39ef75	-0.18157752
72	0x3db856fc	0.09000966
73	0x3e275e6d	0.16344614
74	0x3d454d5a	0.04816947
75	0x3c86d17c	0.016457312
76	0xbd24f8cd	-0.040276337
77	0xbdd779a1	-0.10521246
78	0x3ddfa91d	0.10920928
79	0xbe392a1f	-0.18082474
80	0xbde6c7f3	-0.11268606
81	0xbe408d39	-0.18803872
82	0x3d86ef04	0.06588557
83	0xbe294c41	-0.16532995
84	0x3dc15983	0.09440901
85	0xbe8ca0a9	-0.27466324
86	0xbe259ccf	-0.16173099
87	0x3d43bed3	0.047789406
88	0x3dae460d	0.08509455
89	0x3e0dfe96	0.13866648
90	0xbdff83f1	-0.12476338
91	0xbe03a816	-0.12857088
92	0xbe1ec2d8	-0.15504014
93	0x3e78ca5c	0.24295944
94	0xbe651f78	-0.22375286
95	0xbde90b4c	-0.11379108
96	0x3e87231b	0.2639397
97	0xbb3c3b97	-0.0028722042
98	0xbc89e27c	-0.016831629
99	0xbd8ce54c	-0.068796724
100	0x3d16558b	0.036702674
101	0xbe1dbb13	-0.15403394
102	0x3cde41eb	0.027131042
103	0xbe01a653	-0.12661104
104	0xbdf8d4c6	-0.12149958
105	0x3e3d6e24	0.18499047
106	0x3d0c2d99	0.034223173
107	0x3e70ebca	0.23527446
108	0xbe5f2fb3	-0.2179554
109	0xbe60b5ab	-0.21944301
110	0x3e46c8e7	0.19412576
111	0xbd40d868	-0.04708138
112	0xbe37e4a9	-0.1795832
113	0x3e01adef	0.12664007
114	0xbd8aad95	-0.067713894
115	0xbcb0bcfd	-0.021574492
116	0x3e574a77	0.210245
117	0x3e62cf28	0.22149336
118	0xbe69e831	-0.2284248
119	0xbdcdae69	-0.10043032
120	0xbd891317	-0.06693094
121	0xbc4c2fb4	-0.012462545
122	0x3e2a122d	0.16608496
123	0x3df0ae02	0.11751939
124	0x3ded9c9d	0.11602137
125	0x3e05be7c	0.13060945
126	0x3e807ffc	0.25097644
127	0x3da7a3f1	0.08185566
128	0xbdd00b6f	-0.10158431
129	0x3e69e535	0.22841342
130	0x3d55d108	0.0522013
131	0xbe89ddd0	-0.26927042
132	0x3e295150	0.16534925
133	0x3d614d66	0.055005454
134	0xbe0c17ed	-0.13681002
135	0xbe4910f3	-0.19635372
136	0xbe09d3f2	-0.13459757
137	0x3e2397fe	0.15975949
138	0x3b9e2f42	0.004827411
139	0xbde998ad	-0.11406074
140	0x3d49165d	0.049093593
141	0x3deadcdb	0.11467906
142	0xbdc2ebad	-0.09517608
143	0x3c75e267	0.015007592
144	0x3cf81359	0.030282663
145	0x3e45a4d8	0.19301164
146	0x3e7883e5	0.24269064
147	0xbdb29280	-0.08719349
148	0xbecc942e	-0.39956802
149	0xbd8a1fa3	-0.067443155
150	0x3e2bff27	0.16796552
151	0xbdb59154	-0.0886561
152	0xbeaa843d	-0.33304015
153	0x3ccdd927	0.02512796
154	0xbd98fd91	-0.07470239
155	0x3e820ba5	0.2539951
156	0xbdcbd0c5	-0.09951929
157	0xbe37c3ea	-0.17945829
158	0xbc8b6f45	-0.01702083
159	0xbe4fd5d6	-0.20296416
160	0xbe9d79c2	-0.30756956
161	0xbc4ed811	-0.012624756
162	0xbd27bcec	-0.040951654
163	0xbd89a3bc	-0.06720683
164	0x3e086570	0.13319945
165	0x3d8d4cda	0.06899424
166	0x3e3c2755	0.18374379
167	0xbda06420	-0.07831597
168	0xba937750	-0.0011250768
169	0xbcb1132a	-0.021615583
170	0x3d8433de	0.064552054
171	0x3d979d73	0.07403078
172	0x3bbf6c9d	0.005841805
173	0x3defcd94	0.11709133
174	0x3de8061f	0.113292925
175	0x3e77423f	0.24146365
176	0xbd2a90c0	-0.04164195
177	0x3da603f9	0.081062265
178	0x3d9ca4f0	0.07648647
179	0xbe07df5b	-0.13268797
180	0xbe7f811b	-0.24951594
181	0xbe1866d6	-0.14882979
182	0xbd7dc6b0	-0.06195706
183	0x3c19cec8	0.009387679
184	0x3ddc733f	0.10764169
185	0x3e2dfcc1	0.16990949
186	0xbd90f5ff	-0.0707817
187	0x3ec3deb9	0.3825586
188	0x3e8d6292	0.27614266
189	0x3a93311b	0.0011229845
190	0xbe02c571	-0.1277063
191	0x3e45cb9e	0.19315955
192	0xbe7599cb	-0.23984449
193	0xbcdda08b	-0.027054092
194	0x3cb3abd3	0.021932518
195	0x3e641f45	0.22277553
196	0xbdb31f61	-0.087462194
197	0x3e2a83ea	0.16651884
198	0x3dcc8ca1	0.0998776
199	0x3beac27e	0.0071642986
200	0x3e615dc0	0.22008419
201	0xbe6117da	-0.21981755
202	0xbeaf11d2	-0.34193283
203	0xb94494f4	-0.00018747506
204	0x3e205fa3	0.15661483
205	0x3e028cbf	0.12749003
206	0xbe645818	-0.2229923
207	0xbe1bcf7b	-0.15215866
208	0xbdc8a95a	-0.09797926
209	0x3d816a00	0.06319046
210	0xbd9e939f	-0.07743
211	0xbe0c312a	-0.1369063
212	0x3eb76af2	0.3582378
213	0x3e91d5a2	0.284833
214	0xbde1f13d	-0.11032341
215	0xbc838eb8	-0.016059265
216	0xbe8fd401	-0.28091434
217	0x3db9255b	0.09040328
218	0xbcd69080	-0.02619195
219	0x3a615d01	0.00085969275
220	0x3e27d87f	0.1639118
221	0x3e71e352	0.23621872
222	0xbc4895c1	-0.012242735
223	0x3e0efa26	0.13962612
224	0xbdbc97f1	-0.09208668
225	0xbdd7854e	-0.10523473
226	0xbe1a2d1e	-0.15056273
227	0xbe187766	-0.14889297
228	0x3c91aee5	0.017783592
229	0x3e03ddde	0.12877604
230	0xbd9538d4	-0.0728623
231	0x3e6b7efc	0.2299766
232	0xbe8b0ac9	-0.27156666
233	0xbe34caee	-0.17655537
234	0x3d808405	0.06275181
235	0x3dc2d660	0.09513545
236	0xbda9dc22	-0.0829394
237	0x3e035d97	0.1282867
238	0x3e537059	0.20648326
239	0x3ca16a9d	0.019704157
240	0x3c9c20b3	0.019058561
241	0x3ce86a9e	0.028371152
242	0xbe680619	-0.22658576
243	0x3e910012	0.28320366
244	0x3edfe10d	0.43726388
245	0x3e8793f8	0.2648008
246	0x3e5ebf2d	0.21752615
247	0x3e9d3018	0.30700755
248	0x3d8d48d9	0.0689866
249	0xbd6b5757	-0.05745634
250	0xbe25737e	-0.16157338
251	0xbe9754bf	-0.29556844
252	0x3e28276c	0.16421288
253	0x3e8d06e0	0.27544308
254	0x3d9b931d	0.07596419
255	0xbd6439ec	-0.0557193

rb1.conv1.bias f4 [10]
0	0x3975445e	0.0002339049
1	0x3a439e98	0.0007462292
2	0xb91da175	-0.00015032834
3	0xb9bde63a	-0.0003622042
4	0x39090239	0.00013066166
5	0x393b44a8	0.00017859286
6	0xb90b25c9	-0.00013270149
7	0x3a2736fc	0.0006378738
8	0x390a906e	0.0001321451
9	0xb8d07ec2	-9.9418234e-05

rb1.bn1.weight f4 [10]
0	0x3f41a4ea	0.75642264
1	0x3fa7d9e6	1.3113372
2	0x3f5c2819	0.85998684
3	0x3f5f0af8	0.8712611
4	0x3f237575	0.638511
5	0x3f53c9cc	0.8272979
6	0x3f2c7c18	0.6737685
7	0x3f7d27b0	0.98888683
8	0x3f560be6	0.83611906
9	0x3f2bf356	0.67168176

rb1.bn1.bias f4 [10]
0	0x3ea75131	0.32679132
1	0x3f8e0e9f	1.1098212
2	0x3ca1d2ad	0.019753778
3	0x3d460b1b	0.048350435
4	0x3d406654	0.046972588
5	0xbb85e856	-0.0040865345
6	0xbcdf9d79	-0.027296769
7	0x3f590483	0.8477251
8	0x3f04f57a	0.5193707
9	0x3dcf9b48	0.101370394

rb1.bn1.running_mean f4 [10]
0	0xbca6137a	-0.020272959
1	0xbc39fd3c	-0.01135188
2	0x3c041ced	0.008063537
3	0x3d25537c	0.04036282
4	0xbd56f2e2	-0.052477725
5	0x3e067756	0.1313146
6	0xbdf59d10	-0.11992848
7	0xbb392675	-0.0028251682
8	0xbc07223c	-0.008247908
9	0xbda16a8e	-0.07881652

rb1.bn1.running_var f4 [10]
0	0x3d8a894a	0.06764467
1	0x3d227e11	0.039671008
2	0x3e22f18b	0.15912454
3	0x3e3ad637	0.18245779
4	0x3d848d71	0.0647229
5	0x3eb68e57	0.35655472
6	0x3e9dfafa	0.30855542
7	0x3d4c0cae	0.04981678
8	0x3d1385fb	0.036016446
9	0x3ef06c40	0.46957588

rb1.conv2.weight f4 [10, 10, 3, 3]
0	0xbdcee872	-0.10102929
1	0xbe2e5617	-0.17025028
2	0xbd02fdae	-0.03198021
3	0x3cb57012	0.022148166
4	0xbe1ec508	-0.15504849
5	0xbd8449ed	-0.06459413
6	0xbd0b6992	-0.034036227
7	0x3c835e37	0.016036136
8	0x3bf55754	0.007487217
9	0x3c138628	0.009004153
10	0x3e19cc4e	0.15019342
11	0xbe920cf3	-0.28525504
12	0xbe90d842	-0.28289992
13	0xbdcb1319	-0.09915752
14	0x3e48f1fa	0.19623557
15	0x3e16afa7	0.14715444
16	0xbe5622d3	-0.20911722
17	0xbb419f59	-0.0029544441
18	0xbe3fb3ec	-0.18720978
19	0x3d9e2b93	0.07723155
20	0xbd9494f3	-0.07254972
21	0xbce02aa0	-0.027364075
22	0xbe5ac0f8	-0.21362674
23	0xbe27ec48	-0.16398728
24	0xbc22a3a7	-0.009926713
25	0x3dea164f	0.11430036
26	0x3dd3f295	0.10349003
27	0x3deab81a	0.11460896
28	0x3e224790	0.15847611
29	0x3dfe9d65	0.124323644
30	0x3cf1dc32	0.029523943
31	0x3d83cc44	0.06435445
32	0x3d529480	0.051411152
33	0xbd92b0a5	-0.071625985
34	0xbd648621	-0.055791978
35	0xbe58a4f2	-0.21156672
36	0xbdeb2a9e	-0.11482738
37	0x3db806d4	0.08985677
38	0xbcce3d08	-0.025175586
39	0xbce219ee	-0.027600255
40	0xbdd36ac7	-0.103231005
41	0x3c6ec133	0.0145724295
42	0xbdccce97	-0.100003414
43	0xbc29c71e	-0.010362415
44	0xbdd0c22c	-0.10193285
45	0x3d87b42a	0.066261604
46	0x3e62a283	0.22132306
47	0x3e2a8a83	0.166544
48	0xbd090497	-0.033451643
49	0x3c8e20f9	0.017349707
50	0xbd360a7b	-0.04444359
51	0xbd7b54d9	-0.061360214
52	0x3d84a28b	0.06476315
53	0x3e12acc8	0.14323723
54	0xbd010ef2	-0.031508394
55	0x3b6e4f71	0.0036363269
56	0xbdbd2ae0	-0.092366934
57	0xbda95921	-0.08268953
58	0xbe4322cf	-0.19056247
59	0xbd62ffc5	-0.055419702
60	0x3dbcf9d5	0.09227339
61	0x3dbbe2e9	0.09174139
62	0xbd972287	-0.073796324
63	0xbc0d3de9	-0.008620718
64	0x3dd97cbe	0.10619496
65	0x3e82fc49	0.25583103
66	0xbd094291	-0.03351075
67	0xbe8ab134	-0.2708832
68	0xbeb0d62b	-0.34538397
69	0xbcb56010	-0.022140533
70	0x3e118d7e	0.14214131
71	0x3d7ed865	0.06221809
72	0xbd0b6857	-0.034035053
73	0xbdedabd9	-0.11605043
74	0xbdd4b5e2	-0.10386254
75	0x3e1dff67	0.1542946
76	0x3d45cc9d	0.048290838
77	0x3db0e9f6	0.086383745
78	0xbe1408fe	-0.14456555
79	0xbd02a997	-0.031900015
80	0xbd28dbbc	-0.04122518
81	0xbe856e46	-0.26060694
82	0xbe8d0771	-0.2754474
83	0xbdc92af6	-0.09822647
84	0xbe1b686e	-0.15176556
85	0xbcff7c94	-0.031187333
86	0xbd65b5be	-0.056081526
87	0xbe147781	-0.14498712
88	0xbd9e1ee7	-0.07720738
89	0x3d245732	0.04012222
90	0x3ba7f350	0.0051254407
91	0xbd1c3cbc	-0.03814386
92	0x3dea8eee	0.11453043
93	0xbcc1e344	-0.023667939
94	0x3dd50b25	0.10402516
95	0x3e8b8313	0.2724844
96	0xbcfb0545	-0.030642161
97	0x3dffe022	0.12493922
98	0xbdfd4846	-0.12367301
99	0x3dbf5291	0.0934192
100	0x3ddb50ca	0.10708769
101	0xbe3eb7de	-0.18624827
102	0x3e1651c5	0.1467963
103	0xbec779fc	-0.38960254
104	0x3da0c88f	0.078507535
105	0xbea16046	-0.31518763
106	0x3dfa357a	0.12217231
107	0x3e39ecfe	0.18156812
108	0x3bee5bd9	0.0072741327
109	0x3e0bcadb	0.13651602
110	0xbdbfa9c0	-0.09358549
111	0x3d6b4e7f	0.057447907
112	0xbe23884e	-0.15969965
113	0xbe2b0d45	-0.1670428
114	0xbc957be4	-0.018247552
115	0xbd856668	-0.06513673
116	0x3aff4377	0.0019475062
117	0xbe439215	-0.19098695
118	0x3de90966	0.11378746
119	0x3c5de38a	0.013543019
120	0x3d83233e	0.06403206
121	0xbd0368a7	-0.032082226
122	0xbdf28f2d	-0.11843715
123	0xbc2c2ea7	-0.01050917
124	0xbe489eb6	-0.19591793
125	0xbcbfb4e6	-0.023401689
126	0x3e181014	0.14849883
127	0x3e1ec0b0	0.15503192
128	0x3ce33b0a	0.027738113
129	0x3d011f4c	0.031523988
130	0xbd00b54e	-0.031422906
131	0xbd298f33	-0.04139633
132	0x3bdcf758	0.006743353
133	0xbe0e002c	-0.13867253
134	0xbe286ab4	-0.16446954
135	0xbdb9e5be	-0.09077023
136	0xbda0e214	-0.07855621
137	0xbd8425da	-0.06452532
138	0xbd5b9365	-0.053607363
139	0xbd896d25	-0.06710271
140	0xbdf26609	-0.11835868
141	0xbda48fe0	-0.080352545
142	0xbe2079e6	-0.156715
143	0xbd4b64c4	-0.049656644
144	0x3df35863	0.11882093
145	0x3e175d59	0.14781703
146	0x3d8a5eb0	0.067563415
147	0x3e362ddd	0.17790933
148	0x3e290a12	0.16507748
149	0x3da32da7	0.07967692
150	0x3e0ddc1a	0.13853493
151	0x3e2fc2e3	0.17164187
152	0xbc52ecfd	-0.012873885
153	0x3d93d90a	0.07219131
154	0xbe454c31	-0.19267346
155	0xbd1b8a92	-0.037973948
156	0xbd11f810	-0.03563696
157	0xbe8e7500	-0.2782364
158	0x3e40364c	0.18770713
159	0xbd8315dd	-0.064006545
160	0x3e93ff00	0.28905487
161	0x3cc8ea3e	0.024525758
162	0x3e088806	0.13333139
163	0xbce92312	-0.028459106
164	0xbe552401	-0.20814516
165	0x3c0bba1e	0.0085282605
166	0xbdad9e51	-0.08477462
167	0x3e079673	0.13240986
168	0xbc3e8e2c	-0.011630576
169	0x3de8cce0	0.11367202
170	0x3d04e91a	0.032448865
171	0xbd384819	-0.044990633
172	0xbb904f6b	-0.0044039986
173	0x3c9d3d13	0.019194162
174	0x3dbfcaf0	0.09364879
175	0xbce4a874	-0.027912356
176	0x3cb2f0ec	0.021843396
177	0xbd83934a	-0.064245775
178	0x3de32381	0.11090756
179	0x3cfb9507	0.03071071
180	0x3d869176	0.06570713
181	0xbe8b2025	-0.27172962
182	0xbdb7d2d6	-0.08975761
183	0x3da01a7d	0.07817552
184	0xbda8f3af	-0.08249604
185	0xbd2b6b8b	-0.041850608
186	0x3dc4af8e	0.09603797
187	0x3c3cd13d	0.011524496
188	0x3c4f9c0a	0.01267148
189	0xbd83994a	-0.06425722
190	0xbded95a2	-0.11600806
191	0x3c502cf2	0.012706028
192	0x3a69d508	0.0008919989
193	0xbe1819a8	-0.14853537
194	0xbd266d1c	-0.0406314
195	0xbcf0521d	-0.02933603
196	0x3d9e7e7e	0.0773897
197	0x3db5bb2e	0.08873592
198	0x3e8db905	0.2768022
199	0x3d947226	0.072483346
200	0x3cdc17f0	0.026866883
201	0x3e8f305e	0.2796659
202	0x3d4936da	0.049124576
203	0xbe00e294	-0.12586433
204	0x3e0242b9	0.12720765
205	0xbd346e05	-0.044050235
206	0xbd4f7d24	-0.050656453
207	0x3dace6f2	0.08442487
208	0x3d8393be	0.06424664
209	0xbcae3926	-0.021267485
210	0x3d8f9bfb	0.07012173
211	0x3dbd92be	0.092565045
212	0xbba4ddde	-0.0050313314
213	0x3e914086	0.2836954
214	0x3cb6ed65	0.022329995
215	0x3d06ba31	0.03289241
216	0x3e2510a9	0.16119637
217	0x3dc19e6a	0.09454043
218	0xbb34e321	-0.00276012
219	0x3e810ac3	0.25203523
220	0x3d49fdbf	0.049314257
221	0x3d87f3df	0.066383116
222	0x3dd1c11c	0.10241911
223	0x3d945ef8	0.07244676
224	0x3ca61c2b	0.020277103
225	0x3e8be2a1	0.27321342
226	0x3e514cbb	0.20439427
227	0x3e47233d	0.19447036
228	0x3e1bff97	0.15234219
229	0x3dc4fb97	0.096182995
230	0x3d94eabb	0.07271334
231	0x3d2e5b66	0.042567633
232	0x3d1643d5	0.036685783
233	0xbd8fd0c9	-0.070222445
234	0x3cd2bddf	0.025725303
235	0xbb098be5	-0.0020987925
236	0xbdc24bef	-0.094871394
237	0xbc62b9c6	-0.013838237
238	0xbc9991ef	-0.018746344
239	0xbd9fd1b4	-0.078036696
240	0xbc86ce41	-0.016455771
241	0xbd306fb7	-0.04307529
242	0xbe15d7c4	-0.1463309
243	0x3e2c5b94	0.1683181
244	0x3da622d8	0.08112115
245	0xbc97f5c4	-0.018549807
246	0x3d74a869	0.05973092
247	0x3da96bc7	0.0827251
248	0xbd1376da	-0.036002018
249	0xbde12efc	-0.1099529
250	0x3d2e97b3	0.04262514
251	0xbd568142	-0.052369364
252	0x3e82cee6	0.25548476
253	0x3e7f903a	0.24957362
254	0xbd6f3e2c	-0.0584089
255	0x3e40391a	0.18771783

rb1.conv2.bias f4 [10]
0	0xb930ed4e	-0.00016873071
1	0x394c0f04	0.0001946055
2	0x3982d9ce	0.0002495781
3	0xb964dfef	-0.00021827196
4	0x38d3ee01	0.00010105596
5	0x373d01bc	1.1265682e-05
6	0x38524824	5.0135088e-05
7	0x36e929ce	6.948808e-06
8	0x39360696	0.00017359326
9	0xb8a39d64	-7.801762e-05

rb1.bn2.weight f4 [10]
0	0x3f852f2f	1.0405024
1	0x3f90feca	1.1327755
2	0x3f4f6670	0.8101568
3	0x3f8e5b09	1.1121532
4	0x3f418d51	0.75606257
5	0x3f89ac26	1.075566
6	0x3fa9d484	1.326798
7	0x3f884ef9	1.06491
8	0x3f8de63a	1.1085885
9	0x3f59adbb	0.85030717

rb1.bn2.bias f4 [10]
0	0x3d738aee	0.059458666
1	0xbd9a5375	-0.075354494
2	0x3e4904d0	0.19630742
3	0xbd545b97	-0.05184516
4	0x3e4eec93	0.20207433
5	0x3dc6a4a5	0.09699372
6	0xbc275e5d	-0.010215369
7	0x3dafcfc0	0.08584547
8	0x3d5da932	0.054116435
9	0x3e403c6a	0.18773046

rb1.bn2.running_mean f4 [10]
0	0xbfa4ce03	-1.287537
1	0xbe2c4015	-0.1682132
2	0x3f3ef829	0.7459741
3	0x3e91d0f7	0.2847974
4	0xbf086fe2	-0.5329572
5	0xbe9316ef	-0.28728434
6	0xbf0417d7	-0.51598877
7	0xbe068658	-0.13137186
8	0x3ea7a94a	0.32746345
9	0x3fb7772e	1.4333246

rb1.bn2.running_var f4 [10]
0	0x3fbebb66	1.490094
1	0x3f8fde7e	1.1239774
2	0x3fac108e	1.3442552
3	0x3fadf092	1.3589041
4	0x3f6d670a	0.9273535
5	0x3fe2cf5c	1.7719531
6	0x4004e8f7	2.076719
7	0x3fd348e8	1.6506624
8	0x3ff58d49	1.9183742
9	0x3fe68b50	1.8011265

rb1.shortcut.conv.weight f4 [10, 3, 1, 1]
0	0x3ee80972	0.45319706
1	0xbb4df199	-0.003142452
2	0x3eae5e3a	0.34056264
3	0xbebbc650	-0.36674738
4	0xbf07a1a5	-0.52981025
5	0xbec0ccde	-0.376563
6	0x3ebaae52	0.3646112
7	0xbeb4bfca	-0.35302573
8	0x3dd85d25	0.10564641
9	0xbee8edad	-0.45493832
10	0xbf3a4894	-0.72766995
11	0x3e4acb62	0.19804147
12	0xbdd0ae7a	-0.10189529
13	0xbe3a9d6b	-0.18224113
14	0x3f16d09e	0.58912075
15	0x3eaf8a75	0.34285322
16	0x3dcb9e68	0.09942323
17	0x3f080078	0.53125715
18	0xbedb3dfa	-0.42820722
19	0xbeb0c6d5	-0.34526697
20	0xbe8d94f2	-0.276527
21	0xbe928fe8	-0.28625417
22	0xbf2e4ee1	-0.6808911
23	0x3e9d7de9	0.30760124
24	0xbeb36e04	-0.35044873
25	0xbef97cc4	-0.48728
26	0xbd941064	-0.07229689
27	0xbe9c2916	-0.30500096
28	0x3d5a3ac3	0.053278696
29	0xbf14472c	-0.579211

rb1.shortcut.conv.bias f4 [10]
0	0x394cabfb	0.00019519024
1	0xb99bea65	-0.0002973854
2	0xb7d190d0	-2.4982175e-05
3	0x39942e4a	0.00028263248
4	0xba1379f0	-0.0005625775
5	0xb8a40e4d	-7.822793e-05
6	0xb89a17d8	-7.3477335e-05
7	0xb9360d50	-0.00017361832
8	0x38151a61	3.5548936e-05
9	0xb827826f	-3.993738e-05

rb1.shortcut.bn.weight f4 [10]
0	0x3f7c5a05	0.9857486
1	0x3f6d9bd5	0.92815906
2	0x3f865261	1.049389
3	0x3f633e90	0.8876734
4	0x3f8ee483	1.1163486
5	0x3f749734	0.9554322
6	0x3f21dd4b	0.6322829
7	0x3f3a5a44	0.72793984
8	0x3f697b72	0.9120399
9	0x3f6e2577	0.93025917

rb1.shortcut.bn.bias f4 [10]
0	0x3d738aee	0.059458666
1	0xbd9a5375	-0.075354494
2	0x3e4904d0	0.19630742
3	0xbd545b97	-0.05184516
4	0x3e4eec93	0.20207433
5	0x3dc6a4a5	0.09699372
6	0xbc275e5d	-0.010215369
7	0x3dafcfc0	0.08584547
8	0x3d5da932	0.054116435
9	0x3e403c6a	0.18773046

rb1.shortcut.bn.running_mean f4 [10]
0	0xbda4343a	-0.08017774
1	0x3dfe4a60	0.1241653
2	0xbc2fbbac	-0.010725897
3	0x3d88087e	0.06642245
4	0xbd7a08ae	-0.061043434
5	0xbddce512	-0.10785879
6	0x3dca741c	0.09885427
7	0x3d0ef5ed	0.0349025
8	0x3d9cc0d4	0.076539665
9	0x3dcb3ce0	0.0992372

rb1.shortcut.bn.running_var f4 [10]
0	0x3e14bb94	0.1452468
1	0x3ec1b679	0.37834528
2	0x3bc5ed75	0.00604027
3	0x3e6f5eaf	0.23375963
4	0x3d188e60	0.037245154
5	0x3e65886f	0.22415327
6	0x3e82fe30	0.25584555
7	0x3de1cbbd	0.11025188
8	0x3e45f74c	0.19332618
9	0x3e2a454c	0.16627997

rb2.conv1.weight f4 [20, 10, 3, 3]
0	0x3d612497	0.054966535
1	0x3e050b15	0.12992509
2	0x3d31fdb9	0.04345486
3	0x3e406daa	0.18791834
4	0x3e533a8d	0.20627804
5	0x3e05df05	0.13073356
6	0x3d0df5ab	0.034658115
7	0x3de47ce4	0.111566335
8	0x3dbd12e6	0.0923212
9	0x3e046398	0.12928617
10	0xbe0dbff1	-0.13842751
11	0xbdf3f214	-0.11911407
12	0xbde254fa	-0.11051364
13	0xbd90ff95	-0.070799984
14	0xbcabd343	-0.02097476
15	0x3deae3f9	0.114692636
16	0xbe582cee	-0.2111089
17	0xbdee8da0	-0.116481066
18	0xbe12ffc1	-0.14355375
19	0xbe867443	-0.26260576
20	0xbe102530	-0.14076686
21	0xbd0afbe0	-0.033931613
22	0xbe56e815	-0.2098697
23	0xbd9bc3e2	-0.07605721
24	0x3ca5deae	0.020247784
25	0x3d56a1c3	0.05240036
26	0xbde52c73	-0.11190119
27	0x3d046b35	0.032328803
28	0xbdea3426	-0.11435728
29	0x3dbb6ac7	0.091512255
30	0x3c2b1906	0.010442978
31	0x3d99902e	0.07498203
32	0x3dc70372	0.09717454
33	0xbb255a7b	-0.0025230933
34	0x3dbda9b7	0.09260886
35	0x3e4e0260	0.20118093
36	0x3cab145a	0.020883728
37	0x3e010428	0.12599242
38	0xbc41d0a7	-0.011829532
39	0xbe0f7deb	-0.14012878
40	0xbcd62c07	-0.02614404
41	0x3d93b165	0.0721157
42	0x3c4d1eb4	0.012519527
43	0xbe83ed09	-0.2576678
44	0xbe546102	-0.2074013
45	0x3dd71789	0.10502536
46	0x3d3ed42a	0.046589054
47	0x3d8b2dce	0.06795846
48	0xbe19e5bb	-0.15029041
49	0xbd934ede	-0.07192777
50	0xbd6ede0c	-0.05831723
51	0xbd917e1d	-0.07104132
52	0xbeed6001	-0.46362308
53	0xbd42be92	-0.047545023
54	0x3d9f9880	0.07792759
55	0x3dc5ded7	0.09661644
56	0x3df9e962	0.12202717
57	0x3ca00986	0.019535791
58	0x3d6b45c2	0.057439573
59	0x3dc65b1a	0.09685345
60	0x3dadcbdf	0.08486151
61	0xbc63d835	-0.013906528
62	0xbc8a0697	-0.016848845
63	0x3df1e094	0.11810413
64	0xbd9e1d36	-0.07720415
65	0x3d42d2eb	0.04756443
66	0xbe0740d0	-0.13208318
67	0xbec04a18	-0.3755653
68	0xbd87a484	-0.06623176
69	0x3d5d095e	0.05396401
70	0xbe2c2cff	-0.1681404
71	0xbdb6f659	-0.08933706
72	0xbd3c1ff3	-0.045928907
73	0xbd883136	-0.06650011
74	0xbe03fecb	-0.12890165
75	0xbe322b08	-0.17399228
76	0x3d9a0c96	0.07521932
77	0x3e08bc9c	0.13353199
78	0xbe2078a7	-0.15671025
79	0xbc8fa5fc	-0.017535202
80	0x3de22c6f	0.11043631
81	0xbe0ce550	-0.13759351
82	0x3cb65d02	0.022261146
83	0xbdfaeac5	-0.1225181
84	0x3d32be15	0.043638308
85	0x3d2ac07c	0.041687474
86	0xbc2e9903	-0.010656598
87	0xbe084b0c	-0.13309878
88	0x3d0ac7b5	0.03388186
89	0x3e2f2fc2	0.17108062
90	0xbe8e9821	-0.2785044
91	0xbe1f91c7	-0.15582953
92	0xbdc81846	-0.09770255
93	0x3d5b0f8b	0.05348162
94	0xbdb5bb9e	-0.08873676
95	0xbcca0d9f	-0.024664698
96	0x3e2e8750	0.17043805
97	0x3e6a1b1a	0.22861901
98	0x3e60d10b	0.21954744
99	0xbe9cbb53	-0.30611667
100	0xbe2bc7da	-0.16775456
101	0xbd96cd77	-0.07363408
102	0xbe17e0cf	-0.14831851
103	0x3da6a581	0.08137036
104	0x3b013760	0.0019716844
105	0xbdc440ee	-0.09582697
106	0xbd3ff4cf	-0.046864327
107	0xbcac431b	-0.021028092
108	0xbe8e54e2	-0.27799135
109	0xbea34bbe	-0.31893724
110	0xbe2defd2	-0.16986015
111	0x3dfd4642	0.12366916
112	0x3d9db4ff	0.07700538
113	0xbc372d64	-0.011180256
114	0x3e38a298	0.18030775
115	0x3e70b76b	0.23507468
116	0x3e84ba76	0.25923508
117	0xbdeef978	-0.11668676
118	0xbd00342b	-0.03129975
119	0xbd0668f4	-0.032814935
120	0xbe0e0892	-0.13870457
121	0x3d3e41f5	0.04644962
122	0xbd944660	-0.072399855
123	0xbdfa2253	-0.12213578
124	0xbc4203ad	-0.011841697
125	0xbdd23c47	-0.10265403
126	0x3e149905	0.14511497
127	0x3e40c98b	0.18826883
128	0x3d3ce340	0.04611516
129	0x3cb04809	0.021518724
130	0xbd21434b	-0.039370816
131	0xbdc54ce0	-0.09633803
132	0xbdfd5f6e	-0.123717174
133	0xbe567efe	-0.20946881
134	0xbe50adad	-0.20378752
135	0xbd1608db	-0.03662954
136	0xbd118700	-0.035529137
137	0x3e13d317	0.14435993
138	0xbd6b336f	-0.057422098
139	0x3d001bae	0.031276397
140	0x3d62d031	0.055374328
141	0x3d9d70bf	0.0768752
142	0xbd07baa7	-0.03313699
143	0x3d88bd50	0.066767335
144	0x3dae115c	0.08499405
145	0x3dfc23bd	0.12311504
146	0x3d2b1004	0.04176332
147	0xbd06ac66	-0.032879256
148	0x3d14a3a3	0.03628887
149	0xbdb7e414	-0.08979049
150	0xbc6ac6bc	-0.0143296085
151	0x3ccb4564	0.024813361
152	0xbd9e3687	-0.07725244
153	0x3dad73b1	0.08469332
154	0x3e904328	0.28176236
155	0x3e1a753e	0.15083787
156	0xbd53b7ca	-0.051688947
157	0x3db84586	0.089976355
158	0x3de70cd7	0.11281746
159	0xbe2f7da2	-0.17137769
160	0x3d99cb87	0.07509523
161	0xbd8d0a30	-0.06886709
162	0xbdb0eb7e	-0.086386666
163	0x3dbad74f	0.09123098
164	0xbdb6d8d7	-0.08928078
165	0xbda11f38	-0.07867283
166	0x3d7f7012	0.062362738
167	0xbe2a455f	-0.16628025
168	0x3d7c2431	0.061557952
169	0x3d80cf1d	0.06289504
170	0xbd1f0e8b	-0.03883223
171	0xbd574790	-0.05255848
172	0x3d7c0c2e	0.061535053
173	0x3cb05fa2	0.021529976
174	0x3c43dca3	0.011954459
175	0x3de2cfac	0.110747665
176	0x3d694830	0.05695361
177	0x3cd86a61	0.026417913
178	0x3df8d8e3	0.12150743
179	0xbcf9dc27	-0.030500485
180	0xbd336063	-0.043793093
181	0x3d3437ab	0.0439984
182	0xbdde70a8	-0.10861331
183	0xbc63c53e	-0.013902007
184	0x3dd5b3d3	0.104346894
185	0x3b49d724	0.00307984
186	0xbd4848a6	-0.048897408
187	0xbd83c9f2	-0.064350024
188	0x3dc7b967	0.097521596
189	0xbd80ce5f	-0.06289362
190	0x3cd091dc	0.025460176
191	0x3e3a0e6d	0.18169565
192	0xbe1a84b0	-0.15089679
193	0x3c5c7ec1	0.013457955
194	0x3da3a2b0	0.079900146
195	0xbd9080a7	-0.070557885
196	0xbe3fb94f	-0.18723033
197	0xbe13aacf	-0.14420627
198	0x3ded2581	0.11579419
199	0xbe279f41	-0.16369344
200	0x3ccd116a	0.025032718
201	0x3e27dee5	0.16393621
202	0xbbec17da	-0.0072049918
203	0xbcc6bc0c	-0.02425959
204	0x3d468721	0.048468713
205	0x3d24297a	0.040078618
206	0x3d7c523a	0.061601855
207	0x3e867305	0.26259628
208	0x3e568918	0.20950735
209	0x3e0e8583	0.13918118
210	0x3d2ccdce	0.04218846
211	0x3e3bae82	0.18328288
212	0x3d19251b	0.037388902
213	0xbe139fce	-0.1441643
214	0x3e0d8029	0.1381842
215	0x3d6ca9d1	0.057779137
216	0xbe14d4d9	-0.1453432
217	0x3cad3c2c	0.021146856
218	0xbcbcfb51	-0.023069056
219	0xbdbfbfa2	-0.09362723
220	0xbd8f9c62	-0.070122495
221	0x3ce6ac49	0.028158324
222	0x3d265e53	0.0406173
223	0xbd0a9f03	-0.03384305
224	0x3c60da44	0.013723914
225	0x3d427d3d	0.047482718
226	0x3d9ec0d7	0.07751625
227	0xbd66e0a7	-0.05636659
228	0xbead8c31	-0.3389602
229	0x3c91c31f	0.017793236
230	0x3bfca251	0.0077097793
231	0xbe6ac528	-0.22926772
232	0x3c80f7b3	0.015743112
233	0x3d93923c	0.07205626
234	0x3e626629	0.22109284
235	0x3e4aa6d0	0.19790196
236	0x3cef8f87	0.029243244
237	0xbe27d9dc	-0.163917
238	0xbe1324fc	-0.14369577
239	0xbe2ad3ba	-0.1668233
240	0xbf0786ec	-0.5294025
241	0xbee7f730	-0.45305777
242	0xbde76f05	-0.11300472
243	0x3be13b63	0.0068735345
244	0xbd1c2008	-0.038116485
245	0x3d937f25	0.07201985
246	0xbd8a8999	-0.06764526
247	0x3d1eacad	0.038738895
248	0x3da32448	0.079659045
249	0xbda390e3	-0.07986619
250	0xbd50256f	-0.05081695
251	0xbdce339e	-0.10068439
252	0xbda45087	-0.08023172
253	0xbd9e73f2	-0.077369586
254	0xbca09bcc	-0.01960554
255	0xbe0cfd24	-0.1376844

rb2.conv1.bias f4 [20]
0	0x38484a85	4.7753118e-05
1	0x3886cbd4	6.427584e-05
2	0xb92fc71b	-0.00016763473
3	0xb6225d94	-2.419435e-06
4	0x39008e08	0.00012259942
5	0x38056fa7	3.1813655e-05
6	0x38b7bbc7	8.761096e-05
7	0xb8a1b3e4	-7.7105855e-05
8	0xb877b83e	-5.9060978e-05
9	0x37f61dcf	2.9339366e-05
10	0xb74b52e4	-1.2119042e-05
11	0x38100415	3.4336077e-05
12	0x36d1bd14	6.250697e-06
13	0x3709b822	8.208708e-06
14	0x389d7411	7.5079624e-05
15	0x3820de1b	3.8353824e-05
16	0xb871c374	-5.7640907e-05
17	0x384c5b7d	4.8722595e-05
18	0x38ba95ea	8.897095e-05
19	0x38c31342	9.3019116e-05

rb2.bn1.weight f4 [20]
0	0x3f5bea61	0.8590451
1	0x3f68620b	0.907746
2	0x3f67f0a2	0.9060155
3	0x3f8d2f15	1.1029993
4	0x3f892834	1.0715394
5	0x3f45792e	0.7713803
6	0x3f77770e	0.9666604
7	0x3f6482be	0.89261997
8	0x3f38dc8d	0.72211534
9	0x3f5e168a	0.8675314
10	0x3f59b950	0.8504839
11	0x3f822409	1.0167247
12	0x3f861132	1.0473998
13	0x3f79fdd8	0.9765296
14	0x3f6fa6f6	0.9361414
15	0x3f8b0340	1.0860367
16	0x3f69cb83	0.9132616
17	0x3f6d674c	0.92735744
18	0x3f7aa53c	0.9790838
19	0x3f711c21	0.94183546

rb2.bn1.bias f4 [20]
0	0xbb43b907	-0.0029864924
1	0xbe2261d0	-0.15857625
2	0x3dc07125	0.093965806
3	0xbd1c2027	-0.0381166
4	0xbe4b79b3	-0.19870643
5	0xbde103dc	-0.10987064
6	0x3cd10c88	0.02551867
7	0x3dc95de8	0.09832364
8	0xbd02f9be	-0.031976454
9	0x3de08e91	0.109646924
10	0xbcc4bef3	-0.024016833
11	0x3d54ba0c	0.05193524
12	0xbe14c1d3	-0.14527063
13	0x3c054c29	0.008135834
14	0xbdee89ef	-0.116474025
15	0xbd2f9cb1	-0.042874042
16	0x3daf52be	0.08560704
17	0xbcc47390	-0.023980886
18	0x3dac4697	0.084119014
19	0xbe18c881	-0.14920236

rb2.bn1.running_mean f4 [20]
0	0xbf9e9b67	-1.2391175
1	0xbe0ea99a	-0.13931885
2	0xbfd4116c	-1.6567817
3	0xc02bbb09	-2.6832907
4	0xbf77b972	-0.9676734
5	0xbd5f68f3	-0.054543447
6	0xbf8feaac	-1.1243491
7	0xbfd9b45a	-1.7008164
8	0x3f71cbd5	0.9445165
9	0xbee7c918	-0.4527061
10	0xbeb09504	-0.3448869
11	0xbf8a1fdd	-1.0790974
12	0xc0101045	-2.250993
13	0xbf3495f1	-0.7054129
14	0xbea3300d	-0.31872597
15	0xbfd77da6	-1.683522
16	0xbfeacc45	-1.8343588
17	0xbf33d6c1	-0.70249563
18	0xbff49055	-1.9106547
19	0xbebc6ebc	-0.36803234

rb2.bn1.running_var f4 [20]
0	0x3fb86089	1.440446
1	0x3fa47e13	1.2850975
2	0x3fe77dd9	1.8085281
3	0x402e8fe3	2.7275321
4	0x4009aaed	2.1510575
5	0x3fade233	1.3584656
6	0x401756cb	2.3646724
7	0x40199c3f	2.4001615
8	0x3f9bff86	1.2187355
9	0x3faec37b	1.3653406
10	0x3fb4d87c	1.4128566
11	0x40101012	2.2509809
12	0x4015521b	2.3331363
13	0x400a7980	2.1636658
14	0x3fa31984	1.2742162
15	0x40170547	2.359697
16	0x400f9ee2	2.2440724
17	0x3fed63c6	1.8546073
18	0x3fcdd99c	1.6082034
19	0x4001a6a7	2.0257967

rb2.conv2.weight f4 [20, 20, 3, 3]
0	0x39d32e3a	0.00040279498
1	0x3cf6d629	0.030131416
2	0x3c5000d3	0.012695509
3	0x3db0df6f	0.086363666
4	0xbb4c7fd8	-0.003120413
5	0xbe05487b	-0.1301593
6	0x3c981600	0.018565178
7	0xbe0fa23f	-0.14026736
8	0xbd196e72	-0.037458844
9	0xbe3a4d0f	-0.18193458
10	0x3e123430	0.1427772
11	0x3dc41b54	0.09575525
12	0x3d63b941	0.055596594
13	0x3e2de45b	0.16981642
14	0x3e1491c6	0.14508733
15	0x3db62263	0.088932775
16	0x3dcaed89	0.099085875
17	0x3e1319dc	0.14365333
18	0xbd3fdcc6	-0.046841405
19	0xbcc13aed	-0.023587668
20	0xbc952b8a	-0.018209238
21	0x3e197488	0.1498586
22	0x3d836c6a	0.06417163
23	0xbd9e2323	-0.077215455
24	0xbc2492bf	-0.010044753
25	0x3d0ec236	0.034853183
26	0xbd98828e	-0.07446776
27	0xbe33da97	-0.17563854
28	0xbd207bbb	-0.0391805
29	0xbe4dfc49	-0.2011577
30	0xbe225f04	-0.15856558
31	0x3da82174	0.08209506
32	0xbe850019	-0.25976637
33	0xbe85327f	-0.26015088
34	0xbd1eac25	-0.03873839
35	0xbdd9b857	-0.10630863
36	0xbe0bf5a0	-0.13667917
37	0xbde497a4	-0.11161736
38	0xbdf9d109	-0.121980734
39	0x3a873ec3	0.0010318387
40	0x3c67efdd	0.014156309
41	0xbb95ce78	-0.004571732
42	0x3dbd4f7e	0.092436776
43	0x3e063756	0.13107046
44	0x3d514e27	0.051099923
45	0xbdb263bb	-0.08710428
46	0xbd449815	-0.0479966
47	0xbda6a85b	-0.0813758
48	0xbe2c6d7b	-0.16838638
49	0x3e096ce5	0.13420446
50	0xbc9ab799	-0.018886374
51	0x3d2dd0fd	0.042435635
52	0xbd18007b	-0.037109833
53	0xbd49b76d	-0.049247194
54	0xbd3c4bc9	-0.04597071
55	0xbc8d9d34	-0.017286874
56	0xbdb813d6	-0.089881584
57	0x3dfbf686	0.1230288
58	0x3b6da2fb	0.0036260474
59	0xbde85468	-0.11344224
60	0xbdcf2ef1	-0.10116375
61	0xbe2d8858	-0.16946542
62	0xbb642da9	-0.0034817255
63	0xbde178d3	-0.110093735
64	0xbba5ded0	-0.0050619617
65	0xbdd6b2bb	-0.10483309
66	0xbc83ee5b	-0.016104868
67	0xbe0c3516	-0.13692126
68	0xbd1f1f61	-0.038848285
69	0xbe0729b7	-0.13199507
70	0xbe2ea35a	-0.17054501
71	0x3dbee68f	0.09321319
72	0x3e1f0cbe	0.15532205
73	0xbe6e8354	-0.23292285
74	0xbe57277a	-0.21011153
75	0x3e7c0650	0.24611783
76	0x3d7e412b	0.062073868
77	0xbd8058ab	-0.06266912
78	0xba667b80	-0.00087922066
79	0xbd0da4c2	-0.034580953
80	0x3db1e202	0.08685686
81	0x3d8942bc	0.06702182
82	0xbdfce2e3	-0.12347963
83	0xbea08e9a	-0.31358796
84	0xb62cd0b2	-2.5751474e-06
85	0xbd8d8add	-0.06911252
86	0x3dabf6c3	0.083966754
87	0xbdd6dca4	-0.104913026
88	0x3dcfaf10	0.101408124
89	0x3e843098	0.25818324
90	0x3d4ebde6	0.05047407
91	0x3cebe418	0.028795287
92	0xbd0efde7	-0.03491011
93	0x3e360518	0.1777538
94	0x3dbac063	0.09118726
95	0xbddfa1c0	-0.10919523
96	0x3d800f2e	0.06252895
97	0xbdffc759	-0.124891944
98	0xbe542977	-0.20718943
99	0x3bca839b	0.0061802394
100	0x3d978dab	0.07400068
101	0x3e34a434	0.17640764
102	0xbbdf07e0	-0.0068063587
103	0xbd950228	-0.07275802
104	0x3ddca1d0	0.10773051
105	0xbd40b2e4	-0.047045603
106	0xbe13f56f	-0.14449094
107	0xbdc129a4	-0.094317704
108	0xbcc5d733	-0.024150467
109	0x3ca6af8c	0.02034738
110	0xbd07e2e1	-0.033175353
111	0xbdeda391	-0.116034634
112	0xbe289349	-0.16462435
113	0xbe136d9e	-0.14397284
114	0xbea65f9a	-0.32494813
115	0xbe4d03c4	-0.20020968
116	0xbe57773b	-0.21041577
117	0x3d85c24b	0.06531199
118	0x3c073e56	0.008254608
119	0x3a22d101	0.00062109536
120	0x3e176d72	0.14787844
121	0xbc85a174	-0.016312338
122	0x3d9ec273	0.07751932
123	0x3d84991d	0.064745165
124	0x3ca7ddb6	0.020491462
125	0x3d393cae	0.045223884
126	0x3e1b89d1	0.15189292
127	0x3c3ca57b	0.011514063
128	0x3e669fda	0.22521916
129	0xbb332797	-0.002733683
130	0xbde2f443	-0.110817455
131	0x3e02ec68	0.12785494
132	0x3d8c0764	0.06837347
133	0x3d80aad5	0.062825836
134	0x3e32f4c3	0.17476182
135	0x3dad0bab	0.08449491
136	0x3db96b70	0.09053695
137	0x3dbffbda	0.09374209
138	0xbc738a3e	-0.0148645025
139	0x3dac23a2	0.08405234
140	0x3d0254ec	0.03181927
141	0x3c88402a	0.016632158
142	0xbd2e9fdd	-0.042632926
143	0xbe52277e	-0.20522878
144	0x3d91e0c4	0.07122949
145	0x3d44d241	0.048052076
146	0x3ca7aaa3	0.020467108
147	0x3c9a7b3a	0.018857587
148	0x3dcc482d	0.09974704
149	0x3d0818d7	0.033226814
150	0xbd5f41e2	-0.05450619
151	0xbd72f7aa	-0.059318222
152	0x3cb45f20	0.022018015
153	0x3d1a2269	0.037630472
154	0xbd794824	-0.060859814
155	0x3da5b10f	0.08090412
156	0xbd9194aa	-0.071084335
157	0xbe1d17bf	-0.1534109
158	0x3d3ffe4b	0.046873372
159	0xb9d1c2cf	-0.0004000873
160	0xbd263267	-0.04057541
161	0xbd82be55	-0.06383959
162	0xbe0640e1	-0.13110687
163	0x3da9bead	0.08288322
164	0x3c39e8a0	0.011346966
165	0xbe071da9	-0.13194908
166	0x3e1a7127	0.15082227
167	0x3dc9b68f	0.098492734
168	0xbe82411d	-0.25440302
169	0xbd69b587	-0.057057884
170	0xbdd6eff1	-0.10494984
171	0x3e7690f4	0.24078733
172	0x3d7fbba9	0.062434826
173	0x3d90efc5	0.070769824
174	0x3dcd00ec	0.100099415
175	0x3dafc09d	0.0858166
176	0x3e110a1a	0.1416401
177	0x3e0e45a2	0.1389375
178	0x3ddb35c2	0.10703613
179	0x3d48ccdd	0.049023498
180	0x3dce8595	0.100840725
181	0x3e0c198f	0.13681625
182	0xbd5cdad1	-0.053919617
183	0xbdefacfb	-0.11702915
184	0x3d23f0b3	0.04002447
185	0xbdc3cb89	-0.095603056
186	0xbd32cc1b	-0.04365168
187	0xbdc0d6b4	-0.09415951
188	0xbe3d76ee	-0.185024
189	0xbdc3a0ec	-0.09552178
190	0xbe7ceb44	-0.24699122
191	0xbd94e152	-0.07269539
192	0x3dd71e83	0.105038665
193	0x3cda38a4	0.026638336
194	0x3bd99a86	0.006640735
195	0x3d354afb	0.04426096
196	0x3e09b3e5	0.1344753
197	0x3cd9d36a	0.026590068
198	0xbdd6a3b3	-0.10480442
199	0xbd710a86	-0.058847927
200	0xbda2046d	-0.079110004
201	0xbe218904	-0.15774924
202	0xbd279fc0	-0.040923834
203	0xbc862f9a	-0.01638012
204	0x3d4cb567	0.049977686
205	0x3d9319fe	0.07182692
206	0x3be57399	0.0070023057
207	0xbd9f595a	-0.07780714
208	0x3d85630a	0.06513031
209	0xbdbb0a01	-0.091327675
210	0xbe0b996e	-0.13632748
211	0x3db06efb	0.08614918
212	0xbe0411a3	-0.12897353
213	0xbe470b54	-0.19437915
214	0xbe244fad	-0.16046019
215	0xbe67f2ee	-0.22651264
216	0xbe2d1a74	-0.16904622
217	0xbdf3d2c7	-0.11905437
218	0xbe055c8d	-0.13023587
219	0xbda23a0c	-0.07921228
220	0x3c495b92	0.0122898985
221	0xbe364614	-0.1780017
222	0x3d7fb77d	0.062430847
223	0xbdab6422	-0.08368708
224	0xbda21619	-0.07914371
225	0xbdd8c128	-0.10583717
226	0xbd85004e	-0.06494199
227	0x3e24d966	0.16098556
228	0xbe99bd9d	-0.30027476
229	0xbe1ded13	-0.15422468
230	0x3d6a5db2	0.05721826
231	0x3ccc70bb	0.024956098
232	0xbcd7f892	-0.026363645
233	0x3c9c09de	0.019047674
234	0xbc891c8f	-0.01673725
235	0x3c0d39c5	0.00861973
236	0x3ce5d8b5	0.028057436
237	0xbc352baa	-0.011057774
238	0x3d4de6f1	0.05026907
239	0xbd60bb53	-0.054866146
240	0xbbc5fe55	-0.0060422816
241	0x3dd0fa9e	0.102040514
242	0xbcfc3a75	-0.030789593
243	0x3da16109	0.07879836
244	0xbca96862	-0.020679656
245	0xbe51612c	-0.20447224
246	0x3dba998c	0.09111318
247	0x3dab0488	0.08350474
248	0xbd22fef1	-0.039793912
249	0xbd408f0d	-0.047011424
250	0xbc982644	-0.018572934
251	0xbe1cd92e	-0.15317222
252	0xbe031dcf	-0.1280434
253	0xbe00f88e	-0.12594816
254	0xbe303542	-0.17207816
255	0x3d20ce5f	0.03925931

rb2.conv2.bias f4 [20]
0	0xb7ae43c6	-2.0773976e-05
1	0xb83c282f	-4.4860117e-05
2	0x3858e5e3	5.171251e-05
3	0xb805924d	-3.1845924e-05
4	0x37ed7feb	2.8312168e-05
5	0x37387eb3	1.0996754e-05
6	0xb8c2cc63	-9.288711e-05
7	0x3888235a	6.49157e-05
8	0xb8430b39	-4.6502075e-05
9	0xb8d0d42a	-9.9577315e-05
10	0x38798df1	5.949842e-05
11	0xb6c896b9	-5.978011e-06
12	0xb83d1a68	-4.5085704e-05
13	0xb8e887c1	-0.00011087908
14	0x3879e531	5.9579677e-05
15	0xb82df043	-4.1470175e-05
16	0xb869b517	-5.5720182e-05
17	0xb7d03fb8	-2.4825204e-05
18	0x374b5196	1.2118739e-05
19	0x38767616	5.8760947e-05

rb2.bn2.weight f4 [20]
0	0x3f609a12	0.8773509
1	0x3f82f90a	1.0232251
2	0x3f9d8572	1.2306349
3	0x3f8d1160	1.1020927
4	0x3f99e3a1	1.2022592
5	0x3f8500c1	1.0390855
6	0x3fa1c393	1.263781
7	0x3f9c4531	1.2208616
8	0x3f9c5188	1.2212381
9	0x3f9d26fb	1.2277521
10	0x3f9f2ed5	1.2436167
11	0x3f80d166	1.0063903
12	0x3f9d735f	1.2300833
13	0x3f7de440	0.99176407
14	0x3f93db73	1.1551346
15	0x3fabbcae	1.3416955
16	0x3faaf272	1.3355238
17	0x3fa4a32f	1.28623
18	0x3f946dcb	1.1596006
19	0x3f6d64c7	0.927319

rb2.bn2.bias f4 [20]
0	0x3e1f94b4	0.1558407
1	0x3d50b874	0.05095716
2	0xbe4e4272	-0.20142534
3	0xbd3e3dba	-0.046445586
4	0xbe0d70d8	-0.13812578
5	0xbe269b99	-0.16270293
6	0x3d9384fc	0.07203099
7	0xbe6a8041	-0.22900487
8	0x3e36eee8	0.17864573
9	0xbe1cd8c3	-0.15317063
10	0x3c296b8d	0.0103405835
11	0xbe3c4b02	-0.18387988
12	0x3c40e5a0	0.011773497
13	0x3d8c852d	0.06861339
14	0xbd2faa13	-0.042886805
15	0x3de178d8	0.11009377
16	0xbd1f0135	-0.03881951
17	0xbdf9a7c6	-0.12190203
18	0x3d99792c	0.07493815
19	0xbe868067	-0.26269838

rb2.bn2.running_mean f4 [20]
0	0xbf19ee8b	-0.6012961
1	0xc01572b4	-2.335126
2	0xbfa18e29	-1.2621509
3	0xbf6cf804	-0.9256594
4	0xbf99b80a	-1.2009289
5	0x3ac1f2a8	0.0014797049
6	0xbfb0ca2d	-1.3811699
7	0x3e7e8a73	0.24857502
8	0xc049aa66	-3.1510253
9	0xbd5ecd19	-0.054394815
10	0xbf8d4118	-1.103549
11	0x3b8d976b	0.004321029
12	0xbfdf9c95	-1.746966
13	0xbf8155b4	-1.010428
14	0x3f2f986a	0.6859194
15	0xbfa55117	-1.2915372
16	0xc02d7832	-2.7104611
17	0xbe257920	-0.16159487
18	0xc00f6390	-2.2404518
19	0x3e0dea78	0.13858974

rb2.bn2.running_var f4 [20]
0	0x3f8a7b28	1.0818834
1	0x3fa254bf	1.2682112
2	0x3f4d6baf	0.8024244
3	0x3f8661c0	1.0498581
4	0x3f6a2c29	0.91473633
5	0x3fa2c34b	1.2715849
6	0x3fbb6336	1.4639652
7	0x3f2ec4b2	0.68268883
8	0x3fb61541	1.4225236
9	0x3f62f8bd	0.88660794
10	0x3f6c51eb	0.92312497
11	0x3f526c7b	0.8219678
12	0x3f2cdee9	0.67527634
13	0x3f8c657d	1.0968472
14	0x3fbba1cd	1.4658753
15	0x3f842801	1.0324708
16	0x3f6ed142	0.9328805
17	0x3f8e6140	1.1123428
18	0x3f724876	0.94641817
19	0x3f33d5c7	0.70248073

rb2.shortcut.conv.weight f4 [20, 10, 1, 1]
0	0xbd5b0ca7	-0.053478863
1	0xbd91bcb0	-0.071160674
2	0xbece20c2	-0.40259367
3	0xbdd58172	-0.1042508
4	0x3f006d54	0.5016682
5	0x3ce6220a	0.028092403
6	0xba308fae	-0.0006735277
7	0x3ca18f46	0.019721638
8	0xbc71da05	-0.014761453
9	0xbe6b90fc	-0.23004526
10	0xbe1d39a7	-0.15354024
11	0x3d46c653	0.04852898
12	0xbf1e1ae6	-0.61759794
13	0x3d8580d9	0.06518716
14	0xbdc1b1e7	-0.0945776
15	0xbe8d7d41	-0.27634624
16	0xbc501287	-0.01269973
17	0xbd227c89	-0.039669547
18	0xbc0692be	-0.008213697
19	0xbc3f2ef4	-0.011668909
20	0xbd708c08	-0.058727294
21	0xbdf9e074	-0.12201014
22	0xbd02afcf	-0.031905945
23	0xbc8cbcd9	-0.017179893
24	0x3d850bb3	0.06496372
25	0x3ec44aa1	0.38338187
26	0x3e17f4ca	0.14839473
27	0x3d336fc2	0.043807752
28	0xbe27563f	-0.16341494
29	0xbec3298d	-0.38117638
30	0xbd43afc3	-0.04777504
31	0x3bcc1f56	0.0062293215
32	0x3ea9109c	0.33020484
33	0x3e0420e1	0.12903167
34	0x3e158930	0.14603114
35	0xbde9818c	-0.11401662
36	0x3e8aeaa9	0.27132156
37	0x3e560572	0.20900515
38	0x3ee09ae4	0.43868172
39	0xbe51cce2	-0.20488313
40	0xbe399b0f	-0.18125556
41	0x3d8c77ae	0.068587646
42	0x3dcde7dc	0.10053989
43	0x3ebdb5c9	0.37052754
44	0x3d1a14c1	0.03761745
45	0xbd7fbdcb	-0.06243686
46	0xbd3ae882	-0.045631893
47	0xbd82a4f0	-0.063791156
48	0x3eb4b4b5	0.3529412
49	0xbe3e49d9	-0.18582858
50	0x3e8a4a22	0.27009684
51	0x3e34b0f4	0.17645627
52	0xbdbc7cb5	-0.092034735
53	0xbea5228a	-0.32252914
54	0xbdbb1767	-0.09135323
55	0xbdf48852	-0.119400635
56	0x3e611001	0.21978761
57	0xbe4147ab	-0.18874995
58	0xbe321c1e	-0.17393538
59	0xbecb820e	-0.3974766
60	0xbd9e743d	-0.077370144
61	0x3e10bc0e	0.14134237
62	0x3d7c4ea1	0.061598424
63	0xbe9f0d82	-0.31064993
64	0xbd0ca2d5	-0.034334976
65	0xbec3a715	-0.3821341
66	0xbe8b2af6	-0.27181214
67	0x3d86522d	0.065586425
68	0x3e8e414d	0.27784196
69	0xbd8897b3	-0.06669559
70	0x3e283b53	0.1642888
71	0x3e63fd71	0.22264649
72	0xbd3aca7c	-0.04560326
73	0xbdb40368	-0.08789712
74	0xbe2b849e	-0.16749808
75	0xbe0e686e	-0.13907024
76	0xbeb4a36c	-0.3528093
77	0x3c04a315	0.008095522
78	0xbf0e1acd	-0.55509645
79	0xbe352e1a	-0.17693368
80	0xbe1703c5	-0.14747532
81	0x3debf6a9	0.11521656
82	0xbdef3a40	-0.11681032
83	0xbdcadc8c	-0.09905347
84	0xbf2b5db0	-0.6693983
85	0xbdb8f87f	-0.09031772
86	0x3c1eaa40	0.009684145
87	0x3e87ed0b	0.26548037
88	0xbe101a5b	-0.14072554
89	0x3d8c1c73	0.06841364
90	0xbe49f50e	-0.19722387
91	0x3ebd5e84	0.36986172
92	0xbe3b9c70	-0.18321395
93	0xbe458ece	-0.19292757
94	0x3e4d213c	0.20032209
95	0xbdd50e74	-0.10403147
96	0xbbeddafb	-0.0072587705
97	0x3e30e77a	0.17275801
98	0xbd570ad7	-0.052500572
99	0xbebe937f	-0.37221906
100	0x3d5515ff	0.05202293
101	0x3dda48c1	0.10658408
102	0xbecabd7b	-0.39597687
103	0x3e960a43	0.29304704
104	0xbe9ea7b5	-0.30987325
105	0xbd7c3f35	-0.061583716
106	0x3e77d6f6	0.24203095
107	0x3e05e8fd	0.13077159
108	0x3e3ed9ab	0.18637721
109	0x3dd1659c	0.102244586
110	0x3c6b7bc0	0.014372766
111	0xbd9bd060	-0.07608104
112	0xbeb08b4a	-0.3448127
113	0x3e631de2	0.22179368
114	0x3e7499db	0.23886816
115	0x3e801d68	0.25022435
116	0xbde0def3	-0.10980024
117	0xbe241b74	-0.16026098
118	0x3e130614	0.14357787
119	0xbdfb9158	-0.122835815
120	0xbdfaede3	-0.122524045
121	0xbed0978b	-0.40740618
122	0x3e538bc5	0.20658787
123	0x3eaee66b	0.3416017
124	0xbd5af3c6	-0.053455137
125	0x3d0c12a5	0.03419747
126	0x3dc2c62e	0.09510456
127	0xbe27ff6f	-0.16406034
128	0xbea80054	-0.3281275
129	0x3de67a6e	0.1125382
130	0xbd7d82c8	-0.0618923
131	0xbe5699e9	-0.2095715
132	0xbe36354a	-0.17793766
133	0xbdaf1aac	-0.08550009
134	0x3df04604	0.117321044
135	0x3e0e3d80	0.13890648
136	0x3dc9c619	0.09852237
137	0x3df47b5e	0.11937593
138	0xbf102485	-0.56305724
139	0xbe062a45	-0.13102062
140	0x3cdec12b	0.027191719
141	0xbe7c2cc5	-0.24626453
142	0x3c899c40	0.016798139
143	0xbe3a2726	-0.18178996
144	0x3c4b791a	0.01241901
145	0xbead4562	-0.33841997
146	0xbed29494	-0.4112898
147	0xbde9a3ab	-0.1140817
148	0xbe02eb1f	-0.12785004
149	0x3e47fda8	0.19530356
150	0x3ec1f3d3	0.37881336
151	0xbebdd76c	-0.37078416
152	0x3e7c16be	0.2461805
153	0x3e237c17	0.15965305
154	0xbe26f4ac	-0.16304272
155	0x3e0cd300	0.13752365
156	0x3dbc15e6	0.09183864
157	0xbe1671e3	-0.14691882
158	0xbe83ec0a	-0.2576602
159	0xbd2ede62	-0.04269255
160	0x3e2672d9	0.16254748
161	0x3eadeab0	0.33968115
162	0xbe090bdb	-0.13383429
163	0x3d5d85ee	0.054082803
164	0xbcb887f2	-0.022525761
165	0x3e8bc760	0.2730055
166	0x3e34ad5a	0.17644253
167	0x3de383cb	0.11109122
168	0x3d878841	0.06617785
169	0xbd2905f3	-0.04126544
170	0x3d722b4d	0.059123326
171	0x3d9060fe	0.0704975
172	0xbe9e821f	-0.3095865
173	0x3e18b27f	0.14911841
174	0xbc4e0d68	-0.0125764385
175	0x3e857563	0.2606612
176	0x3e6b5352	0.22981003
177	0x3ec85704	0.39128888
178	0x3e391157	0.18073021
179	0xbde2c43a	-0.110725835
180	0x3d8c8aae	0.068623886
181	0x3e0f4639	0.13991632
182	0xbd01d88a	-0.03170065
183	0xbe4bac5f	-0.19889973
184	0xbd19d116	-0.037552916
185	0x3c74ca0d	0.014940751
186	0x3dca2726	0.09870748
187	0xbe8c4b60	-0.27401257
188	0xbf0007ee	-0.500121
189	0xbe4fe23d	-0.20301147
190	0xbe89fbd7	-0.2694995
191	0xbe0fa680	-0.14028358
192	0x3ec273a5	0.37978855
193	0xbc3844b4	-0.011246849
194	0x3deba5e0	0.115062475
195	0xbd88f4d3	-0.066873215
196	0x3dfa1c3b	0.12212416
197	0xbddcb789	-0.10777194
198	0xbe3603cf	-0.1777489
199	0x3dcc21b7	0.09967368

rb2.shortcut.conv.bias f4 [20]
0	0xb9413353	-0.00018425034
1	0xb8f9c9fd	-0.000119108685
2	0x387bbef1	6.002089e-05
3	0xb85548b2	-5.085086e-05
4	0x382de5da	4.146048e-05
5	0xb8257d54	-3.9455786e-05
6	0xb5e23db8	-1.6856275e-06
7	0xb8558458	-5.0906412e-05
8	0x38d2fabe	0.00010060285
9	0xb95b4ba2	-0.00020913643
10	0x38887207	6.5062246e-05
11	0xb8c2950e	-9.2784045e-05
12	0x380d939c	3.375449e-05
13	0xb8ec2db6	-0.00011261871
14	0x37613642	1.3423678e-05
15	0x37c61682	2.361392e-05
16	0xb8c6478a	-9.454701e-05
17	0xb90166c9	-0.00012340689
18	0x3792f83c	1.752015e-05
19	0xb92e882a	-0.00016644658

rb2.shortcut.bn.weight f4 [20]
0	0x3f7b8dbf	0.9826316
1	0x3f40442b	0.75104016
2	0x3f6c91ab	0.9240977
3	0x3f2446d1	0.6417056
4	0x3f3938fb	0.7235257
5	0x3f50f57f	0.816246
6	0x3f36c347	0.7139172
7	0x3f5525ea	0.8326098
8	0x3f5b4818	0.8565688
9	0x3f66c57a	0.90145075
10	0x3f238f78	0.6389079
11	0x3f3ef15b	0.7458703
12	0x3f0fe8bd	0.56214505
13	0x3f6990f9	0.91236836
14	0x3f8cb6aa	1.0993245
15	0x3f0eaff1	0.55737215
16	0x3f36ddd4	0.7143223
17	0x3f1c8a8c	0.61148906
18	0x3edb4bcc	0.42831266
19	0x3f4be20d	0.796418

rb2.shortcut.bn.bias f4 [20]
0	0x3e1f94b4	0.1558407
1	0x3d50b874	0.05095716
2	0xbe4e4272	-0.20142534
3	0xbd3e3dba	-0.046445586
4	0xbe0d70d8	-0.13812578
5	0xbe269b99	-0.16270293
6	0x3d9384fc	0.07203099
7	0xbe6a8041	-0.22900487
8	0x3e36eee8	0.17864573
9	0xbe1cd8c3	-0.15317063
10	0x3c296b8d	0.0103405835
11	0xbe3c4b02	-0.18387988
12	0x3c40e5a0	0.011773497
13	0x3d8c852d	0.06861339
14	0xbd2faa13	-0.042886805
15	0x3de178d8	0.11009377
16	0xbd1f0135	-0.03881951
17	0xbdf9a7c6	-0.12190203
18	0x3d99792c	0.07493815
19	0xbe868067	-0.26269838

rb2.shortcut.bn.running_mean f4 [20]
0	0xbe8b9cee	-0.27268165
1	0xbf74e9e7	-0.95669407
2	0xbd83f266	-0.06442718
3	0x3f686149	0.90773445
4	0x3e84e850	0.2595849
5	0xbf2c532c	-0.6731441
6	0xbf127257	-0.5720572
7	0xbf7bdd41	-0.9838448
8	0xbf2bbba8	-0.67083216
9	0xbed4d592	-0.4156919
10	0x3e81b9fa	0.253372
11	0x3d8c51f4	0.06851569
12	0xbe15136b	-0.14558189
13	0xbf0dbc59	-0.5536552
14	0xbf6e599f	-0.931055
15	0x3df5e1fb	0.12005993
16	0x3f463be4	0.77435136
17	0x3f42918a	0.76003325
18	0xbf4b5244	-0.794224
19	0xbccffc07	-0.02538873

rb2.shortcut.bn.running_var f4 [20]
0	0x3edef499	0.43545988
1	0x3ee9dc4e	0.45675892
2	0x3ec1afe9	0.3782952
3	0x3ef54473	0.47903785
4	0x3eb6fcd7	0.35739776
5	0x3ed5aee8	0.41735005
6	0x3ecf5d02	0.40500647
7	0x3f10cad0	0.5655947
8	0x3eb4af62	0.35290056
9	0x3e8aa934	0.27082217
10	0x3ef6bf10	0.48192644
11	0x3e84e390	0.25954866
12	0x3e75f99d	0.24021001
13	0x3f0c9baf	0.54925054
14	0x3efed49a	0.49771577
15	0x3ea3bb64	0.31978905
16	0x3e93247f	0.28738782
17	0x3ec911a0	0.3927126
18	0x3eee21cd	0.46510163
19	0x3e14c084	0.14526564

res1_sc1.conv.weight f4 [20, 3, 1, 1]
0	0xbf0a6a07	-0.54068035
1	0x3dd82100	0.10553169
2	0x3eb08115	0.34473482
3	0xbe76078c	-0.24026316
4	0x3f0f28d5	0.5592168
5	0xbe799052	-0.2437146
6	0x3c6c6d20	0.014430314
7	0xbeaaa19a	-0.33326417
8	0xbee2ed87	-0.44321844
9	0x3ec516a4	0.38493836
10	0xbec869e6	-0.39143294
11	0xbe94c8a0	-0.29059315
12	0x3ede9807	0.43475363
13	0xbe2ad8b1	-0.16684224
14	0x3e94898a	0.29011184
15	0xbf1a0860	-0.6016903
16	0xbeaee20f	-0.34156844
17	0x3eb3e4ab	0.35135397
18	0xbe67d774	-0.22640783
19	0x3ed7c2f6	0.4214093
20	0x3f02a105	0.51026946
21	0x3eda9c72	0.42697483
22	0xbf0dc682	-0.55381024
23	0xbe9e080c	-0.30865514
24	0x3e4f68ca	0.20254818
25	0x3f10ab98	0.5651183
26	0xbe400e4f	-0.18755458
27	0x3e8adb76	0.2712056
28	0xbe755a4d	-0.23960228
29	0xbed1630a	-0.40895873
30	0xbd195b70	-0.037440717
31	0xbe6db2f9	-0.23212804
32	0xbf072ba6	-0.5280098
33	0x3e191daa	0.14952722
34	0xbdcb5a5d	-0.09929345
35	0xbedfecc5	-0.43735328
36	0xbef28c39	-0.47372606
37	0xbe3e9321	-0.18610813
38	0xbcec0712	-0.028811965
39	0x3d36126f	0.044451173
40	0xbe503a23	-0.20334677
41	0xbef9d35d	-0.4879407
42	0xbe45b196	-0.19306025
43	0x3e7544e9	0.23952068
44	0x3ee1b2cf	0.44081733
45	0x3ed11203	0.40834054
46	0x3e5a856b	0.21339957
47	0xbe770686	-0.24123582
48	0x3ca9f005	0.020744333
49	0xbed7b847	-0.4213278
50	0x3d46ea28	0.048563153
51	0x3cd9f239	0.026604759
52	0xbee387fc	-0.44439685
53	0x3d2d5853	0.04232056
54	0x3e83b8d9	0.25726965
55	0x3ebe7455	0.3719813
56	0xbd0f9928	-0.03505817
57	0xbf0a350f	-0.5398721
58	0x3dcc9e51	0.09991134
59	0x3de82489	0.113350935

res1_sc1.conv.bias f4 [20]
0	0xb7f10000	-2.8729439e-05
1	0x38f7da43	0.00011818532
2	0x38cbc66b	9.7167525e-05
3	0xb7228a5a	-9.688165e-06
4	0xb8195a0e	-3.6561913e-05
5	0x38b1292f	8.447689e-05
6	0x38cf01e6	9.870883e-05
7	0xb8128255	-3.4930494e-05
8	0x38720512	5.770202e-05
9	0xb8a97ba4	-8.081578e-05
10	0xb91ff14f	-0.00015253316
11	0xb9467765	-0.0001892723
12	0xb8ca547c	-9.647847e-05
13	0xb7ffbf03	-3.0487316e-05
14	0x391a4164	0.00014710944
15	0x390f5ca6	0.00013672057
16	0x3948e2b5	0.00019157941
17	0xb9427ada	-0.00018547048
18	0x3926c3b0	0.00015903893
19	0xb824db72	-3.930502e-05

res1_sc1.bn.weight f4 [20]
0	0x3f73fa0a	0.95303404
1	0x3f708d98	0.93966055
2	0x3f46245b	0.77399224
3	0x3f2d484e	0.67688453
4	0x3f1eff0c	0.6210792
5	0x3f2b7b3f	0.66984934
6	0x3f1e1a5e	0.61758983
7	0x3f3a8979	0.72866017
8	0x3f32009b	0.69532174
9	0x3f35b0b4	0.7097275
10	0x3f29d68a	0.66342986
11	0x3f317298	0.6931548
12	0x3f216723	0.63048
13	0x3f3df9af	0.7420911
14	0x3f3a8524	0.72859406
15	0x3ef01bbb	0.46896157
16	0x3f227f6d	0.63475686
17	0x3f17f4e2	0.59358037
18	0x3f04d266	0.5188354
19	0x3f5ca42a	0.86187994

res1_sc1.bn.bias f4 [20]
0	0x3e1f94b4	0.1558407
1	0x3d50b874	0.05095716
2	0xbe4e4272	-0.20142534
3	0xbd3e3dba	-0.046445586
4	0xbe0d70d8	-0.13812578
5	0xbe269b99	-0.16270293
6	0x3d9384fc	0.07203099
7	0xbe6a8041	-0.22900487
8	0x3e36eee8	0.17864573
9	0xbe1cd8c3	-0.15317063
10	0x3c296b8d	0.0103405835
11	0xbe3c4b02	-0.18387988
12	0x3c40e5a0	0.011773497
13	0x3d8c852d	0.06861339
14	0xbd2faa13	-0.042886805
15	0x3de178d8	0.11009377
16	0xbd1f0135	-0.03881951
17	0xbdf9a7c6	-0.12190203
18	0x3d99792c	0.07493815
19	0xbe868067	-0.26269838

res1_sc1.bn.running_mean f4 [20]
0	0xbc9549b2	-0.018223617
1	0x3b816790	0.003949113
2	0x3db4683e	0.08808945
3	0x3d3b0316	0.04565724
4	0xbd691e6e	-0.056913786
5	0x3cb717d6	0.022350233
6	0xbdb7946a	-0.089638546
7	0x3d7071a3	0.058702122
8	0xbd11561d	-0.035482515
9	0x3d6acef9	0.05732629
10	0x3dc29cb1	0.09502543
11	0x3d6dfe3e	0.058103792
12	0x3d58dae8	0.05294314
13	0x3da69559	0.081339546
14	0xbd89d390	-0.067298055
15	0xbc5ad16a	-0.013355592
16	0x3cdc080a	0.026859302
17	0x3cef75e8	0.029231027
18	0xbd356a7c	-0.044291005
19	0x3c6a91be	0.014316974

res1_sc1.bn.running_var f4 [20]
0	0x3ca2057f	0.019778011
1	0x3bb19e10	0.005420454
2	0x3e14e95a	0.14542142
3	0x3d0e844b	0.034794133
4	0x3d96bcb8	0.07360214
5	0x3dc9ebc6	0.09859423
6	0x3e0b290e	0.1358988
7	0x3d81378a	0.06309421
8	0x3daa42a1	0.0831349
9	0x3d4287f5	0.04749294
10	0x3e2378d3	0.1596406
11	0x3d3c91f8	0.046037644
12	0x3de6806d	0.11254964
13	0x3ddec279	0.108769365
14	0x3d8cfcf6	0.06884186
15	0x3d2b62b6	0.041842185
16	0x3cf983b4	0.030458309
17	0x3d0ddd7f	0.034635063
18	0x3dabbb23	0.08385303
19	0x3d074c48	0.03303173
