models/dense_max/epoch_0006.pth (torch, 645162 bytes, 174 tensors)

rb1.conv1.weight f4 [10, 3, 3, 3]
0	0xbda605e1	-0.0810659
1	0x3d4b57c4	0.049644247
2	0xbde3f1e5	-0.11130122
3	0xbe62b4c0	-0.22139263
4	0x3e6ade63	0.22936396
5	0x3e3c2f08	0.18377316
6	0xbe2a7475	-0.16645987
7	0x3e5a937f	0.21345328
8	0xbdfb046c	-0.12256703
9	0xbe0ebb9b	-0.13938753
10	0x3c668a78	0.014071099
11	0xbd2cf3ae	-0.04222458
12	0xbe9a105b	-0.30090603
13	0x3e6d6ef9	0.23186864
14	0x3e3870da	0.180118
15	0x3b8d4b96	0.004311989
16	0x3e88af1a	0.26696092
17	0xbe73d1ed	-0.23810549
18	0xbc98ea18	-0.018666312
19	0xbbb3fb99	-0.0054926393
20	0xbdaae2be	-0.08344029
21	0xbe5f5e8a	-0.21813408
22	0x3bae42ba	0.005318013
23	0x3cf93837	0.030422313
24	0x3e21d252	0.15802887
25	0x3d3e0fdd	0.046401847
26	0x3e02b45a	0.12764111
27	0x3d1729b1	0.036904994
28	0x3d6592c2	0.056048162
29	0x3e252ae8	0.16129649
30	0x3db62393	0.08893504
31	0x3debc707	0.11512571
32	0xbe9ae90b	-0.30255923
33	0xbd97a988	-0.074053824
34	0x3d87d397	0.066321544
35	0xbde6814d	-0.11255131
36	0xbd87de01	-0.06634141
37	0xbc0019ff	-0.007818698
38	0xbcbfc905	-0.023411283
39	0xbc8c9f23	-0.017165726
40	0x3ec98543	0.39359483
41	0xbe3f1cac	-0.18663281
42	0xbd38de7a	-0.045134045
43	0x3dff2087	0.12457376
44	0xbe24025f	-0.1601653
45	0xbe13260c	-0.14369982
46	0xbe1cbebd	-0.15307136
47	0x3de2ae1b	0.11068364
48	0x3d2734fb	0.04082201
49	0x3ea5fa4d	0.32417527
50	0xbe76ee35	-0.24114306
51	0xbce6ae69	-0.028159337
52	0x3ded2d38	0.115808904
53	0x3d4e09a8	0.050302178
54	0x3cf259d8	0.029583856
55	0x3e75b2ec	0.23994035
56	0x3e3758f6	0.1790503
57	0xbdfc18ba	-0.12309404
58	0xbd8ce64c	-0.06879863
59	0x3ddb75ed	0.10715852
60	0xbd192c21	-0.0373956
61	0xbe399da6	-0.18126544
62	0x3d49d5f4	0.049276307
63	0x3e85573d	0.2604312
64	0x3e4ed464	0.20198208
65	0x3e9331d7	0.28748962
66	0x3c7a062e	0.015260262
67	0xbe3564d4	-0.17714244
68	0xbe05a4ec	-0.13051194
69	0xbddfc65a	-0.109265044
70	0xbe80dfe6	-0.2517082
71	0xbe3be184	-0.18347746
72	0x3dbdd435	0.09268991
73	0x3e1bd9b6	0.15219769
74	0x3d1dd99e	0.038537614
75	0x3c960fd6	0.018318098
76	0xbd354372	-0.044253774
77	0xbde4739f	-0.111548655
78	0x3de5c474	0.11219111
79	0xbe36b34e	-0.17841837
80	0xbdec217e	-0.11529826
81	0xbe4d8b4f	-0.20072673
82	0x3d943db1	0.07238329
83	0xbe2203a6	-0.15821704
84	0x3dbbbb8f	0.09166633
85	0xbe8a9fa8	-0.27074933
86	0xbe1ee32f	-0.15516351
87	0x3d1cdabc	0.03829454
88	0x3d9b5a58	0.07585591
89	0x3e13cc17	0.14433323
90	0xbe0d9666	-0.13826904
91	0xbdfbee76	-0.12301342
92	0xbe18a141	-0.14905263
93	0x3e755f7c	0.23962206
94	0xbe60e2c0	-0.21961498
95	0xbde10d07	-0.10988813
96	0x3e812e48	0.25230622
97	0xbc819a6f	-0.01582071
98	0xbc895e42	-0.016768578
99	0xbd94ff0d	-0.072752096
100	0x3d34a884	0.04410602
101	0xbe1ad570	-0.15120482
102	0x3ce1737f	0.027520893
103	0xbdf45b62	-0.119314924
104	0xbdf44373	-0.119269274
105	0x3e375b1a	0.17905846
106	0x3d0a04d7	0.033696022
107	0x3e761927	0.24033032
108	0xbe57fe12	-0.21093014
109	0xbe6284af	-0.22120927
110	0x3e46775f	0.19381474
111	0xbd2b4eca	-0.041823186
112	0xbe3e81c5	-0.1860419
113	0x3dfe2f48	0.12411362
114	0xbd904ec7	-0.070462756
115	0xbd0196d2	-0.031637974
116	0x3e504203	0.20337681
117	0x3e67c21b	0.22632639
118	0xbe6b9ed3	-0.23009805
119	0xbdc9271f	-0.09821915
120	0xbd7d1cfe	-0.061795227
121	0xbc385247	-0.011250085
122	0x3e3157f7	0.17318712
123	0x3deb49a7	0.114886574
124	0x3dec36ca	0.11533888
125	0x3e0925c3	0.13393311
126	0x3e72b38d	0.23701306
127	0x3d85240f	0.06501018
128	0xbdefc865	-0.11708144
129	0x3e5c5637	0.21517263
130	0x3d3d68fc	0.0462427
131	0xbe8ad5ae	-0.2711615
132	0x3e175a1b	0.14780466
133	0x3d614198	0.054994196
134	0xbe080a3d	-0.13285156
135	0xbe4f175d	-0.20223756
136	0xbe118360	-0.14210272
137	0x3e20d01b	0.15704386
138	0xba852b4d	-0.0010159999
139	0xbdead384	-0.11466125
140	0x3d5c3ebf	0.053770777
141	0x3ddcb5c0	0.107768536
142	0xbdda1ced	-0.106500484
143	0x3c8afec2	0.016967181
144	0x3c81315d	0.015770609
145	0x3e34c96c	0.17654961
146	0x3e6a18aa	0.22860971
147	0xbdcab51d	-0.09897826
148	0xbed0b36f	-0.40761897
149	0xbd9a3073	-0.07528772
150	0x3e286e74	0.16448385
151	0xbdceee24	-0.101040155
152	0xbeab91d7	-0.33509704
153	0x3ccf163c	0.025279157
154	0xbdbc9190	-0.09207451
155	0x3e775b77	0.24155985
156	0xbdbbffc7	-0.09179645
157	0xbe444af5	-0.19169219
158	0xbcff660a	-0.031176586
159	0xbe363f7f	-0.1779766
160	0xbe9a4e4c	-0.3013786
161	0xbc0be92c	-0.008539479
162	0xbd17bb54	-0.037043884
163	0xbd8e8f4d	-0.06960926
164	0x3e0bf42b	0.13667361
165	0x3d8e7d8d	0.06957541
166	0x3e2f8a62	0.17142633
167	0xbd9f7e2d	-0.07787738
168	0x3c824407	0.015901579
169	0xbca395e1	-0.019968929
170	0x3d973a72	0.073841944
171	0x3dd48382	0.103766456
172	0x3ceb0c22	0.028692309
173	0x3e10c15c	0.14136261
174	0x3e0da6fb	0.13833229
175	0x3e7d04c8	0.24708855
176	0xbcb8c2a8	-0.022553757
177	0x3dffb186	0.12485032
178	0x3dd12a90	0.10213196
179	0xbdcaf7b9	-0.099105306
180	0xbe799492	-0.24373081
181	0xbe168518	-0.14699209
182	0xbd7f998f	-0.062402304
183	0x3c1658f0	0.009176478
184	0x3dbbd885	0.09172157
185	0x3e235bd2	0.15952995
186	0xbd90c9fb	-0.07069775
187	0x3ebbef0b	0.36705813
188	0x3e87f92e	0.26557297
189	0xbc7b9034	-0.015354205
190	0xbe031ab9	-0.12803163
191	0x3e3f6a02	0.18692783
192	0xbe6fe536	-0.23427281
193	0xbc8cfd2f	-0.017210571
194	0x3c3917e4	0.0112972
195	0x3e68539b	0.22688143
196	0xbda8e0ef	-0.08246028
197	0x3e29df65	0.16589125
198	0x3da88bb5	0.08229772
199	0x3aacb025	0.0013175054
200	0x3e5a3d90	0.21312547
201	0xbe69224c	-0.2276699
202	0xbead142a	-0.33804446
203	0xbbdfcf7d	-0.0068301545
204	0x3e1a20c8	0.15051568
205	0x3e09bef7	0.13451754
206	0xbe5cb7f5	-0.21554549
207	0xbe219677	-0.15780054
208	0xbdd3bf53	-0.103392266
209	0x3d72ac73	0.05924649
210	0xbd93afbd	-0.07211254
211	0xbe0f9b69	-0.14024128
212	0x3eb07804	0.34466565
213	0x3e9671e4	0.29383767
214	0xbdd54b1d	-0.10414717
215	0xbbe98a9a	-0.0071271183
216	0xbe86df53	-0.26342258
217	0x3dd53176	0.104098246
218	0xbccfcfc4	-0.025367625
219	0x3c804009	0.015655534
220	0x3e2c7d0d	0.16844578
221	0x3e76986d	0.24081583
222	0xbc2b4846	-0.010454243
223	0x3e1732b3	0.14765434
224	0xbdb62fb6	-0.08895819
225	0xbdd855f6	-0.10563271
226	0xbe12f03b	-0.14349453
227	0xbe1671a8	-0.14691794
228	0x3c904885	0.017612705
229	0x3e04e979	0.12979688
230	0xbd898341	-0.06714488
231	0x3e5f9f03	0.21838002
232	0xbe8941e2	-0.26808077
233	0xbe2f7aba	-0.1713666
234	0x3d7b69b1	0.061380092
235	0x3dc42da7	0.0957902
236	0xbda979e0	-0.08275199
237	0x3dfdba95	0.12389103
238	0x3e4e413b	0.20142071
239	0x3cc7c8d0	0.024387747
240	0xba0351e9	-0.0005009459
241	0x3cbbdf76	0.022933703
242	0xbe6a6bc2	-0.22892669
243	0x3e887c1c	0.26657188
244	0x3ed0f222	0.40809733
245	0x3e90aa35	0.28254858
246	0x3e5a5a1f	0.21323441
247	0x3e96b2b5	0.29433218
248	0x3da2b066	0.079438016
249	0xbd8152be	-0.0631461
250	0xbe28b432	-0.16474989
251	0xbe96a4ba	-0.2942255
252	0x3e25815f	0.16162632
253	0x3e89d766	0.26922148
254	0x3dbabe49	0.09118325
255	0xbd60afa6	-0.05485501

rb1.conv1.bias f4 [10]
0	0x39e81302	0.0004426465
1	0x39bdf806	0.0003623368
2	0xb93e7469	-0.00018163178
3	0xba6a4718	-0.00089369854
4	0x39afdce1	0.0003354317
5	0x38e76bde	0.0001103503
6	0xb9828f84	-0.0002490246
7	0x3961ba3e	0.00021527053
8	0x39f48f66	0.00046646147
9	0x39050bb0	0.00012688222

rb1.bn1.weight f4 [10]
0	0x3f44e4d5	0.7691167
1	0x3fa69e7d	1.3017117
2	0x3f5a6485	0.8530963
3	0x3f5fe456	0.8745779
4	0x3f2a1d51	0.66450983
5	0x3f4f68a5	0.8101905
6	0x3f2ebf6b	0.6826083
7	0x3f811ded	1.0087258
8	0x3f51e5b0	0.819911
9	0x3f2ea092	0.6821376

rb1.bn1.bias f4 [10]
0	0x3e9ddeb9	0.30833986
1	0x3f8f1bd7	1.1180371
2	0x3cc7b4b3	0.024378156
3	0x3d656bea	0.056011118
4	0x3d3c9c6e	0.04604762
5	0x3b52b79d	0.00321529
6	0xbd29c696	-0.041449152
7	0x3f58dab2	0.847087
8	0x3f0d0e84	0.55100274
9	0x3dbbb438	0.091652334

rb1.bn1.running_mean f4 [10]
0	0xbc127cc9	-0.008940884
1	0xbcce22d0	-0.025163084
2	0x3b8f256f	0.004368476
3	0x3d346fbc	0.04405187
4	0xbd5d1526	-0.053975247
5	0x3e3847b4	0.17996103
6	0xbe23bdf6	-0.15990433
7	0xba9ffd06	-0.0012206144
8	0xbcbb2066	-0.022842597
9	0xbdb36adf	-0.087606184

rb1.bn1.running_var f4 [10]
0	0x3d7996b4	0.060934737
1	0x3d2f8747	0.04285362
2	0x3e1ad239	0.15119256
3	0x3e2ee427	0.1707922
4	0x3d5b497e	0.053536884
5	0x3ed1be4b	0.40965495
6	0x3ec8e94c	0.3924049
7	0x3d58c5ae	0.052922897
8	0x3d191ca5	0.037380833
9	0x3ee29373	0.4425312

rb1.conv2.weight f4 [10, 10, 3, 3]
0	0xbdd698cc	-0.104783624
1	0xbe3f2c7c	-0.18669313
2	0xbc8fc9ba	-0.017552245
3	0x3ab5677c	0.0013840045
4	0xbe23edba	-0.16008654
5	0xbd8192e6	-0.06326847
6	0xbd639311	-0.055560175
7	0x3ad7d086	0.0016465343
8	0xbc09a1af	-0.008400365
9	0x3c48919b	0.012241746
10	0x3e150fdf	0.14556836
11	0xbe95e7ba	-0.29278356
12	0xbe871fa0	-0.26391315
13	0xbddd0ca3	-0.10793426
14	0x3e510790	0.20413041
15	0x3e1a9937	0.1509751
16	0xbe5b17de	-0.21395823
17	0xbc2ca6da	-0.010537827
18	0xbe3baefd	-0.18328471
19	0x3d8eed03	0.069788
20	0xbd7a4d65	-0.061108965
21	0xbd0c8564	-0.0343069
22	0xbe67ef89	-0.22649969
23	0xbe2c6b1b	-0.16837732
24	0xbcb89515	-0.022532025
25	0x3dde3964	0.1085079
26	0x3dc8f1df	0.09811758
27	0x3dfadded	0.1224936
28	0x3e1c700c	0.15277117
29	0x3de6abaf	0.11263215
30	0x3c772fd9	0.015087091
31	0x3d3aa5e2	0.045568354
32	0x3d25369b	0.04033528
33	0xbd78ae71	-0.060713235
34	0xbd31476a	-0.043280996
35	0xbe4de85a	-0.20108166
36	0xbe02f93b	-0.12790386
37	0x3dbba801	0.091629036
38	0xbcdcbee3	-0.02694649
39	0xbd1112d1	-0.035418335
40	0xbde569f5	-0.1120185
41	0x3b81cab4	0.0039609317
42	0xbdc7f4d2	-0.09763493
43	0xbc9bb9ef	-0.019009558
44	0xbde48f54	-0.1116015
45	0x3d7a0f7b	0.06104992
46	0x3e5ac8e5	0.21365698
47	0x3e29e1b0	0.16589999
48	0xbd1890ed	-0.037247587
49	0x3c2552ae	0.010090513
50	0xbd412984	-0.047158733
51	0xbda05294	-0.078282505
52	0x3d565510	0.052327216
53	0x3e0930f6	0.13397583
54	0xbcb768af	-0.022388784
55	0x3b0bf601	0.0021356347
56	0xbdc628f9	-0.09675784
57	0xbda2cb6f	-0.07948958
58	0xbe441e12	-0.19152096
59	0xbd6df199	-0.058091734
60	0x3db76fd1	0.08956874
61	0x3dad30a1	0.08456541
62	0xbdabd94f	-0.08391058
63	0xbb1e0f60	-0.002411805
64	0x3dda8549	0.106699534
65	0x3e893189	0.26795605
66	0xbd1da0e1	-0.038483504
67	0xbe836694	-0.25664198
68	0xbea6e1ed	-0.32594243
69	0xbc155d11	-0.009116427
70	0x3e0e502d	0.13897772
71	0x3d748f67	0.05970707
72	0xbbff3553	-0.007788339
73	0xbdcc40db	-0.09973308
74	0xbdc76685	-0.09736351
75	0x3e212e4a	0.15740314
76	0x3d388440	0.045048
77	0x3da5cc10	0.080955625
78	0xbdf7b7d5	-0.1209561
79	0xbcd46a87	-0.025929702
80	0xbd43b100	-0.047776222
81	0xbe727ce1	-0.2368045
82	0xbe84b9aa	-0.259229
83	0xbdc2dbbb	-0.095145665
84	0xbe0f6bcd	-0.14005966
85	0xbccff48b	-0.025385162
86	0xbd5e3a79	-0.054254983
87	0xbe06821e	-0.13135573
88	0xbd8e79d3	-0.0695683
89	0x3d357937	0.044305053
90	0x3cf0f223	0.029412335
91	0xbcf8cbc7	-0.030370606
92	0x3dfbbc9d	0.122918345
93	0xbcdaffe1	-0.02673334
94	0x3dbe5ed9	0.092954345
95	0x3e8f5cc1	0.28000453
96	0xbcd684c1	-0.026186349
97	0x3ded4c45	0.11586813
98	0xbde25bf2	-0.110526934
99	0x3d8d8c15	0.06911484
100	0x3dc5d6fe	0.09660147
101	0xbe4738f8	-0.19455326
102	0x3e0587bd	0.13040061
103	0xbeca8d5e	-0.3956098
104	0x3d86efc8	0.065887034
105	0xbe9d01f4	-0.30665553
106	0x3deed2fe	0.11661337
107	0x3e4e2a65	0.2013336
108	0x3c6c062c	0.014405768
109	0x3e0a2189	0.13489355
110	0xbdcafe28	-0.09911758
111	0x3d8329e4	0.064044744
112	0xbe1979a8	-0.14987814
113	0xbe1c639d	-0.15272374
114	0xbc40359e	-0.011731533
115	0xbd72d5c2	-0.059285887
116	0xbbc39847	-0.0059690806
117	0xbe3c3da1	-0.18382885
118	0x3de011ff	0.109409325
119	0x3c873edd	0.016509468
120	0x3d8fe688	0.07026392
121	0xbcdba358	-0.026811287
122	0xbdf59f52	-0.119932786
123	0xbc6d8df9	-0.014499181
124	0xbe3fab0a	-0.1871759
125	0xbc8c34a5	-0.017114947
126	0x3e170961	0.14749672
127	0x3e24767a	0.1606082
128	0x3d183a16	0.03716477
129	0x3d01b923	0.0316707
130	0xbccddd22	-0.025129858
131	0xbce2d2ba	-0.027688373
132	0x3cb8e671	0.02257082
133	0xbdfc1e43	-0.123104595
134	0xbe2758f5	-0.16342528
135	0xbdae1755	-0.08500544
136	0xbda2ba70	-0.079457164
137	0xbd77d14f	-0.060502347
138	0xbd445f54	-0.047942474
139	0xbd74aa27	-0.059732582
140	0xbdd6a675	-0.10480968
141	0xbda4a151	-0.08038581
142	0xbe221ee2	-0.15832093
143	0xbd211fad	-0.03933685
144	0x3dea3e5d	0.11437676
145	0x3e137b83	0.14402585
146	0x3d832e69	0.064053364
147	0x3e265f28	0.16247237
148	0x3e18b559	0.14912929
149	0x3d9619f9	0.07329173
150	0x3e035a04	0.12827307
151	0x3e22b2d6	0.15888533
152	0xbc804ccb	-0.015661618
153	0x3dafd4f4	0.085855395
154	0xbe3bbb15	-0.18333085
155	0xbd2d9363	-0.042376887
156	0xbcdb80aa	-0.02679475
157	0xbe88d460	-0.2672453
158	0x3e42c628	0.19020903
159	0xbd8f4186	-0.069949195
160	0x3e95a688	0.29228616
161	0x3d1e3704	0.038626686
162	0x3df86ef6	0.12130539
163	0xbd10b7fe	-0.03533172
164	0xbe56e839	-0.20987023
165	0xbc25e491	-0.010125295
166	0xbdba7475	-0.09104244
167	0x3dfc80a7	0.12329226
168	0xbc579fe9	-0.013160684
169	0x3dc594ae	0.09647499
170	0x3ce949fe	0.028477665
171	0xbd5c028c	-0.053713366
172	0xbc49142c	-0.012272876
173	0x3c5bbca6	0.0134116765
174	0x3db90763	0.09034612
175	0xbd05a523	-0.03262819
176	0x3c8b9d96	0.017042916
177	0xbd9d424f	-0.07678663
178	0x3dc8187c	0.09770295
179	0x3ce022f1	0.027360411
180	0x3d6dbc9c	0.0580412
181	0xbe7b0627	-0.24514066
182	0xbda17590	-0.078837514
183	0x3d858ce7	0.065210156
184	0xbd954f9b	-0.07290574
185	0xbccda33d	-0.025102252
186	0x3da7ba52	0.08189835
187	0x3c836c21	0.01604277
188	0x3d0ba906	0.03409674
189	0xbda57f3a	-0.08080907
190	0xbdffdd66	-0.124934
191	0x3bd8dba9	0.0066179824
192	0x37b7e6b5	2.1922731e-05
193	0xbe14cc99	-0.14531173
194	0xbd14cd40	-0.036328554
195	0xbcf31dfa	-0.02967738
196	0x3d916579	0.070994325
197	0x3d958584	0.07300857
198	0x3e83a737	0.25713512
199	0x3d6d76ed	0.057974745
200	0x3c48f6de	0.012265889
201	0x3e78a4b1	0.24281575
202	0x3d3c69a9	0.045999203
203	0xbdf809bf	-0.12111234
204	0x3de649c7	0.11244541
205	0xbd35ac0c	-0.04435353
206	0xbda43759	-0.08018369
207	0x3dc5565c	0.09635612
208	0x3d916e81	0.07101155
209	0xbcb230c9	-0.021751778
210	0x3d9629c3	0.07332184
211	0x3dbb320a	0.091404036
212	0xbc5581ec	-0.013031464
213	0x3e86d643	0.26335344
214	0x3a2de2b8	0.000663321
215	0x3d2b3e9a	0.04180775
216	0x3e2b13b3	0.16706733
217	0x3daf10a5	0.085480966
218	0x3b3c72c4	0.002875493
219	0x3e824c60	0.25448895
220	0x3d2a35c0	0.041555166
221	0x3d8c03f2	0.0683669
222	0x3dbbfbcd	0.091788866
223	0x3d6cccb2	0.0578124
224	0x3ac6da10	0.0015171189
225	0x3e898203	0.26857004
226	0x3e404c4c	0.18779105
227	0x3e293f94	0.1652816
228	0x3e09b0ad	0.13446303
229	0x3d9b5fc4	0.07586625
230	0x3d40bd54	0.047055557
231	0x3cff5681	0.031169178
232	0x3cb4728d	0.022027278
233	0xbdd590d9	-0.10428018
234	0xba3f9ca2	-0.0007309412
235	0xbc4430eb	-0.011974554
236	0xbde9c5ff	-0.11414718
237	0xbd0f2f66	-0.034957312
238	0xbceebdf2	-0.029143307
239	0xbda4d7a0	-0.0804894
240	0xbd0cfefb	-0.034422856
241	0xbd50af34	-0.050948337
242	0xbe1142e0	-0.14185667
243	0x3e3d9ed9	0.18517627
244	0x3dc69306	0.09696011
245	0xbcc1d420	-0.02366072
246	0x3d4d92ec	0.050188944
247	0x3da64326	0.08118276
248	0xbd30d3dd	-0.0431708
249	0xbe05959e	-0.13045356
250	0x3d4e77b9	0.050407145
251	0xbd9179b3	-0.071032904
252	0x3e681aa9	0.2266642
253	0x3e71cf7e	0.23614308
254	0xbd4e1836	-0.050316058
255	0x3e414680	0.1887455

rb1.conv2.bias f4 [10]
0	0xb8b40914	-8.58476e-05
1	0x391d714c	0.00015014893
2	0x388f2c8e	6.82707e-05
3	0x3776ae50	1.4703328e-05
4	0x381cd024	3.7387144e-05
5	0xb9c8381e	-0.00038188783
6	0xb81c1727	-3.721486e-05
7	0xb84ca8ee	-4.8794718e-05
8	0xb95adb8a	-0.00020871885
9	0xb88745f0	-6.4503285e-05

rb1.bn2.weight f4 [10]
0	0x3f857133	1.0425171
1	0x3f919b54	1.1375527
2	0x3f4e0d46	0.80489004
3	0x3f8ea9c9	1.1145564
4	0x3f414857	0.75501007
5	0x3f89cdcc	1.0765929
6	0x3fa94cd1	1.3226568
7	0x3f889a2e	1.0672052
8	0x3f8a65ca	1.0812314
9	0x3f5af11d	0.8552416

rb1.bn2.bias f4 [10]
0	0x3d6d58a4	0.057945862
1	0xbdc66d35	-0.09688798
2	0x3e4c248c	0.19935817
3	0xbd5bddc4	-0.05367829
4	0x3e2fe73f	0.17178057
5	0x3dcb3ac5	0.09923319
6	0x3a44955e	0.0007499064
7	0x3dbd0fc0	0.0923152
8	0x3d3d7748	0.046256334
9	0x3e56ffef	0.20996068

rb1.bn2.running_mean f4 [10]
0	0xbfa367cb	-1.276605
1	0xbe44ce7e	-0.19219396
2	0x3ef39f3b	0.4758242
3	0x3e64e744	0.22353846
4	0xbf3a7485	-0.72834045
5	0xbececdf4	-0.40391505
6	0xbf036494	-0.51325345
7	0xbe8e782c	-0.2782606
8	0x3e948cea	0.2901376
9	0x3faa2292	1.32918

rb1.bn2.running_var f4 [10]
0	0x3fb69ea3	1.4267162
1	0x3f729d6a	0.94771445
2	0x3fa9a606	1.3253791
3	0x3f8a92f0	1.0826092
4	0x3f8cfa91	1.1013967
5	0x3fc80719	1.5627166
6	0x3ff8086a	1.9377568
7	0x3fae5764	1.362042
8	0x3ff72ddb	1.9310869
9	0x3ff54105	1.9160467

rb1.shortcut.conv.weight f4 [10, 3, 1, 1]
0	0x3ee9f756	0.45696515
1	0xbc114eab	-0.008868854
2	0x3eac548d	0.33658257
3	0xbebc465e	-0.36772436
4	0xbf049c46	-0.51800954
5	0xbec5b6d8	-0.3861606
6	0x3eb92039	0.36157396
7	0xbeb51ddf	-0.35374352
8	0x3dd4d303	0.1039181
9	0xbee7439e	-0.45168775
10	0xbf3897ee	-0.72106826
11	0x3e5da3bc	0.21644491
12	0xbdbfacdd	-0.09359143
13	0xbe3c8dec	-0.18413514
14	0x3f170bc9	0.5900236
15	0x3eaf29d0	0.34211588
16	0x3dc56025	0.09637479
17	0x3f088629	0.5332971
18	0xbede0e0e	-0.43370098
19	0xbeb33ae0	-0.35005856
20	0xbe89eba3	-0.2693759
21	0xbe978006	-0.29589862
22	0xbf2ab7b8	-0.6668658
23	0x3ea400a4	0.3203174
24	0xbeb8b5c0	-0.36076164
25	0xbef0edbe	-0.47056383
26	0xbdaddc9e	-0.08489345
27	0xbe988e3a	-0.2979601
28	0x3d69e37f	0.057101723
29	0xbf166d29	-0.58760315

rb1.shortcut.conv.bias f4 [10]
0	0x3941a14e	0.00018466005
1	0x3a26340f	0.0006340155
2	0xba9dfebe	-0.0012054069
3	0xb8b3ed7c	-8.57962e-05
4	0xbaa9cb3d	-0.0012954246
5	0xba4e047c	-0.00078589446
6	0x3961aaff	0.00021521373
7	0xb8b06bee	-8.4124375e-05
8	0xb9db683e	-0.00041848602
9	0xb84e65a9	-4.9208906e-05

rb1.shortcut.bn.weight f4 [10]
0	0x3f7b36fb	0.9813077
1	0x3f6e031e	0.92973506
2	0x3f865007	1.0493172
3	0x3f6409bf	0.8907737
4	0x3f8e8bab	1.1136373
5	0x3f744d15	0.9543012
6	0x3f24ebcd	0.64422303
7	0x3f3bee0a	0.73410094
8	0x3f6dc338	0.92876005
9	0x3f706ac6	0.93912923

rb1.shortcut.bn.bias f4 [10]
0	0x3d6d58a4	0.057945862
1	0xbdc66d35	-0.09688798
2	0x3e4c248c	0.19935817
3	0xbd5bddc4	-0.05367829
4	0x3e2fe73f	0.17178057
5	0x3dcb3ac5	0.09923319
6	0x3a44955e	0.0007499064
7	0x3dbd0fc0	0.0923152
8	0x3d3d7748	0.046256334
9	0x3e56ffef	0.20996068

rb1.shortcut.bn.running_mean f4 [10]
0	0xbdd13799	-0.102156825
1	0x3e1dabc1	0.1539755
2	0xbc9266c3	-0.017871266
3	0x3d8c1598	0.06840056
4	0xbdadf064	-0.084931165
5	0xbe0e6493	-0.13905554
6	0x3df9bb5d	0.1219394
7	0x3cf69aee	0.030103173
8	0x3dbda4b2	0.09259929
9	0x3e0568ca	0.13028255

rb1.shortcut.bn.running_var f4 [10]
0	0x3e0f3e0e	0.13988516
1	0x3ebd6d91	0.36997655
2	0x3bd812a2	0.006594018
3	0x3e62f5f6	0.22164139
4	0x3d13b300	0.03605938
5	0x3e5e290f	0.2169535
6	0x3e813bb3	0.2524086
7	0x3ddc9b94	0.10771862
8	0x3e4620a8	0.19348395
9	0x3e240844	0.16018778

rb2.conv1.weight f4 [20, 10, 3, 3]
0	0x3d34e849	0.044166837
1	0x3db6a7b2	0.08918704
2	0x3ced7e5c	0.028990917
3	0x3e1f40c1	0.15552045
4	0x3e36d31a	0.17853966
5	0x3e00b804	0.12570196
6	0x3c8447fa	0.016147602
7	0x3db96a94	0.09053531
8	0x3d9a401c	0.07531759
9	0x3df307cb	0.11866721
10	0xbe1988a6	-0.14993533
11	0xbddf8a64	-0.10915068
12	0xbda956bb	-0.08268496
13	0xbda5260f	-0.080639
14	0xbd20f6aa	-0.039297737
15	0x3e191a5f	0.14951466
16	0xbe68eda5	-0.22746904
17	0xbe0ec261	-0.13941337
18	0xbe0cdeb3	-0.13756828
19	0xbe80b15d	-0.25135317
20	0xbe2e3fd0	-0.1701653
21	0xbcbf59d8	-0.02335827
22	0xbe4a5f83	-0.19762997
23	0xbd9ee1d6	-0.077579185
24	0x3c258063	0.010101411
25	0x3d0964a7	0.033543255
26	0xbe103ac7	-0.14084922
27	0x3d09ba7a	0.033625104
28	0xbdeca1de	-0.11554311
29	0x3dc9cd23	0.0985358
30	0xbb1fe09c	-0.0024395352
31	0x3d903afe	0.07042502
32	0x3dc6ada7	0.0970109
33	0x3c188153	0.009308177
34	0x3dcb7dda	0.09936114
35	0x3e58cfcd	0.2117302
36	0x3d4bc534	0.049748614
37	0x3e21f86a	0.15817419
38	0x3bf25417	0.007395278
39	0xbe0c905d	-0.13726945
40	0xbcaba39d	-0.02095204
41	0x3d9ab0ff	0.075532906
42	0x3cce5d0e	0.025190856
43	0xbe7e1e1a	-0.2481617
44	0xbe454ed1	-0.19268347
45	0x3dd55555	0.104166664
46	0x3d5609e7	0.052255537
47	0x3d79a161	0.06094492
48	0xbe06172f	-0.13094781
49	0xbdaa5278	-0.08316511
50	0xbd74dac2	-0.059778936
51	0xbd8f4fa3	-0.069976114
52	0xbef46bd2	-0.4773851
53	0xbd86d8ab	-0.06584295
54	0x3da66a86	0.081257865
55	0x3dcc260b	0.099681936
56	0x3ddc7799	0.10764999
57	0x3c0738b4	0.008253265
58	0x3d87490a	0.06605728
59	0x3dc6e191	0.09710992
60	0x3d504287	0.050844695
61	0xbcd9a954	-0.02657
62	0xbcb80781	-0.022464516
63	0x3dd3bdb6	0.10338919
64	0xbdac848c	-0.08423719
65	0x3cf5c62c	0.030001722
66	0xbdba016a	-0.09082301
67	0xbeb4ad26	-0.35288352
68	0xbd7b234f	-0.06131297
69	0x3dd899a0	0.10576177
70	0xbe2ceee1	-0.16888
71	0xbdc523a6	-0.0962594
72	0xbd03a918	-0.032143682
73	0xbd6e9e05	-0.058256168
74	0xbddca260	-0.10773158
75	0xbe10896e	-0.14114925
76	0x3db90a0a	0.09035118
77	0x3e1bcc20	0.15214586
78	0xbe1f1c47	-0.1553813
79	0xbc83fe7e	-0.016112562
80	0x3de7e132	0.113222495
81	0xbe11d57a	-0.14241591
82	0xbc30f1cc	-0.010799836
83	0xbe143f18	-0.14477193
84	0x3d792a39	0.060831282
85	0x3ce51d87	0.027968181
86	0xbd065650	-0.032797158
87	0xbdddc05e	-0.10827707
88	0x3d1a5787	0.03768113
89	0x3e12cd31	0.14336087
90	0xbe9c4ba8	-0.3052647
91	0xbe0c3c5d	-0.13694902
92	0xbdb97f27	-0.090574555
93	0x3d48bf19	0.04901037
94	0xbdb55b3d	-0.08855293
95	0xbc8a31d1	-0.016869457
96	0x3e31ed2c	0.1737563
97	0x3e6759eb	0.22592895
98	0x3e67950c	0.2261545
99	0xbe9c8817	-0.30572578
100	0xbe31dcbc	-0.1736936
101	0xbd952b2d	-0.07283626
102	0xbe142cbc	-0.1447019
103	0x3d957f84	0.07299712
104	0xbc80984c	-0.01569762
105	0xbd9c602f	-0.07635533
106	0xbd86cc87	-0.06581979
107	0xbd93d6c6	-0.07218699
108	0xbe8eb352	-0.27871186
109	0xbea7672b	-0.32695898
110	0xbe3274d6	-0.17427382
111	0x3dde4601	0.10853196
112	0x3d645884	0.055748478
113	0xbced9093	-0.028999602
114	0x3e22ebb6	0.15910229
115	0x3e4fd322	0.20295385
116	0x3e6af4cf	0.2294495
117	0xbdcabce4	-0.09899309
118	0xbd02f643	-0.031973135
119	0xbd02dcc8	-0.031948835
120	0xbe155cf9	-0.14586248
121	0x3d5238a7	0.05132356
122	0xbd724ab9	-0.059153292
123	0xbdf0c308	-0.11755949
124	0xbab97e49	-0.0014152016
125	0xbde67e15	-0.11254517
126	0x3df40b65	0.11916236
127	0x3e47eedf	0.19524716
128	0x3d7ba8dd	0.061440337
129	0x3b5f57e5	0.0034079489
130	0xbd3cb5fb	-0.046071988
131	0xbdb092d4	-0.08621755
132	0xbe0791a6	-0.13239154
133	0xbe4beced	-0.19914599
134	0xbe44516c	-0.19171685
135	0xbd280f00	-0.04102993
136	0xbc7ae63f	-0.015313684
137	0x3e0c9c7b	0.13731568
138	0xbd8bf4c2	-0.06833793
139	0x3cb864f2	0.022509072
140	0x3d601676	0.05470892
141	0x3d626d3b	0.05527995
142	0xbd56133d	-0.05226444
143	0x3d4ab4ab	0.049488705
144	0x3dbfe36d	0.0936955
145	0x3e025209	0.12726606
146	0x3d037cbe	0.032101385
147	0xbd0e5881	-0.034752373
148	0x3d36d626	0.04463782
149	0xbdc6decd	-0.097104646
150	0xbd00cdc7	-0.031446245
151	0x3c0baf26	0.008525645
152	0xbdb53cb4	-0.08849469
153	0x3db2177b	0.08695885
154	0x3e91060d	0.2832493
155	0x3e2ca882	0.16861156
156	0xbd7ed35e	-0.062213294
157	0x3dae2a0e	0.08504115
158	0x3dcd0b47	0.100119166
159	0xbe22c0fa	-0.15893927
160	0x3d6cd36d	0.05781882
161	0xbdc65ec5	-0.096860446
162	0xbdb5ba98	-0.088734806
163	0x3dc2d576	0.09513371
164	0xbdc1bb1e	-0.09459518
165	0xbd915692	-0.0709659
166	0x3d6028ee	0.054726534
167	0xbe39d7db	-0.18148749
168	0x3db209d9	0.086932845
169	0x3d9634e6	0.07334308
170	0xbd5b85d1	-0.053594414
171	0xbcf64abe	-0.030064937
172	0x3d7962a6	0.060885094
173	0x3ca8a1e2	0.020585004
174	0x3bc8405a	0.006111187
175	0x3dc50633	0.09620323
176	0x3d510363	0.05102862
177	0x3d45a6f9	0.04825494
178	0x3df2e135	0.11859361
179	0xbd2f2ae8	-0.042765528
180	0xbd4313de	-0.04762637
181	0x3d06ebb0	0.032939613
182	0xbdd16036	-0.10223429
183	0xbcf3b9e2	-0.029751722
184	0x3db1711d	0.08664153
185	0xbbdb2fbd	-0.0066890405
186	0xbd262ba8	-0.040568978
187	0xbd945171	-0.07242096
188	0x3dc76b64	0.0973728
189	0xbd9e0cbc	-0.07717273
190	0x3c988a5a	0.018620659
191	0x3e3bed34	0.18352205
192	0xbe0ce59f	-0.13759468
193	0x3c98ef47	0.018668784
194	0x3d980196	0.074221775
195	0xbd5ad272	-0.053423353
196	0xbe158746	-0.14602384
197	0xbde8233a	-0.11334844
198	0x3dfc75ab	0.12327131
199	0xbe25e82f	-0.16201852
200	0x3c9823f8	0.018571839
201	0x3e287509	0.16450895
202	0xbb010be8	-0.0019690935
203	0xbcf21abe	-0.029553767
204	0x3d4b38c4	0.049614683
205	0x3d32dcb8	0.043667525
206	0x3d869685	0.06571678
207	0x3e8f75d6	0.2801959
208	0x3e470423	0.19435172
209	0x3dee752e	0.11643444
210	0x3d5fbde1	0.054624442
211	0x3e2dfff1	0.16992165
212	0x3caa2bec	0.020772897
213	0xbe1e570f	-0.15462898
214	0x3dfcc22a	0.12341721
215	0x3d1a972e	0.037741832
216	0xbe0fcc95	-0.14042886
217	0x3c9fb399	0.019494819
218	0xbcb98d33	-0.022650337
219	0xbdd109cc	-0.10206947
220	0xbd974fbc	-0.07388255
221	0x3c847009	0.016166704
222	0x3d4e537e	0.050372593
223	0xbce27d5e	-0.02764767
224	0x3c2d3e48	0.010573931
225	0x3d58f3bc	0.05296682
226	0x3dadc3f7	0.08484643
227	0xbd8b58e1	-0.06804062
228	0xbea6a9ea	-0.3255151
229	0x3c8ffdea	0.01757713
230	0xbbfbc445	-0.0076833093
231	0xbe5f3e86	-0.21801195
232	0x3c3f4541	0.011674226
233	0x3d92ac2a	0.07161744
234	0x3e65bb68	0.22434771
235	0x3e47f552	0.19527176
236	0x3c22d1b0	0.009937689
237	0xbe1b5535	-0.15169223
238	0xbe1a72dd	-0.1508288
239	0xbe35e642	-0.17763618
240	0xbf016579	-0.5054546
241	0xbeed8204	-0.46388257
242	0xbe0e9eb1	-0.13927723
243	0x3cf26462	0.029588882
244	0xbd43c63d	-0.047796477
245	0x3d7b43b3	0.06134386
246	0xbd5fe820	-0.05466473
247	0x3d457a80	0.04821253
248	0x3db26b60	0.087118864
249	0xbd80db6c	-0.062918514
250	0xbcbc9056	-0.023018043
251	0xbdcc224e	-0.099674806
252	0xbdb4c6f3	-0.08827009
253	0xbda3b7a4	-0.07994011
254	0xbc68e788	-0.014215358
255	0xbdf39bfc	-0.11894986

rb2.conv1.bias f4 [20]
0	0xb9323126	-0.00016993712
1	0xb8b4cde7	-8.621421e-05
2	0xb865feff	-5.483534e-05
3	0x38e40069	0.000108719636
4	0x38a1ab4d	7.7089855e-05
5	0x370b95f4	8.319959e-06
6	0x374b2aee	1.2109738e-05
7	0x37c69bdf	2.3676022e-05
8	0x38c02ec8	9.163987e-05
9	0x37626f36	1.3496543e-05
10	0xb88f4ee3	-6.833465e-05
11	0xb8f86700	-0.00011844747
12	0xb9521108	-0.00020033505
13	0xb8e9a8da	-0.00011141757
14	0xb9070920	-0.00012878003
15	0x38db750a	0.00010464534
16	0x391bbd68	0.00014852511
17	0xb901e0f8	-0.00012386206
18	0xb8b75782	-8.7424196e-05
19	0x3716ca40	8.987787e-06

rb2.bn1.weight f4 [20]
0	0x3f5ccf09	0.8625341
1	0x3f6e5e5e	0.9311274
2	0x3f695003	0.91137713
3	0x3f8d5f99	1.1044799
4	0x3f88afc7	1.0678643
5	0x3f47c26b	0.78031033
6	0x3f7db6c5	0.9910701
7	0x3f65b859	0.8973442
8	0x3f3523bd	0.7075766
9	0x3f5c1b23	0.8597891
10	0x3f598789	0.84972435
11	0x3f806827	1.0031785
12	0x3f8724e1	1.055813
13	0x3f77607d	0.96631604
14	0x3f73c3e4	0.9522078
15	0x3f8a433b	1.0801767
16	0x3f688527	0.90828174
17	0x3f6a1309	0.91435295
18	0x3f816d18	1.0111418
19	0x3f730033	0.9492218

rb2.bn1.bias f4 [20]
0	0x3ba2d48f	0.0049691866
1	0xbe05f5a7	-0.1308199
2	0x3da770e1	0.08175827
3	0xbce88ef5	-0.02838848
4	0xbe3bd904	-0.18344504
5	0xbddaccfc	-0.10683629
6	0x3cd3b056	0.02584092
7	0x3dcacc75	0.09902278
8	0xbd4892e1	-0.0489682
9	0x3dad28dd	0.0845506
10	0xbcc5e63c	-0.024157636
11	0x3d57d227	0.05269065
12	0xbe04dae9	-0.12974133
13	0x3d0bbd29	0.034115944
14	0xbdead82d	-0.114670135
15	0xbd480132	-0.048829265
16	0x3d8b297c	0.06795022
17	0xbd29e84c	-0.0414813
18	0x3dd8ab4a	0.10579546
19	0xbe23c8fb	-0.15994637

rb2.bn1.running_mean f4 [20]
0	0xbfb05bc8	-1.377801
1	0xbec6ec3b	-0.38852105
2	0xbfd00afd	-1.6253353
3	0xc032f67a	-2.7962937
4	0xbf64dcb9	-0.89399296
5	0xbdc7a552	-0.09748329
6	0xbf90e639	-1.1320258
7	0xbfc65a09	-1.5496227
8	0x3f48e790	0.78478336
9	0xbef23ba7	-0.47311136
10	0xbf4d2851	-0.8013964
11	0xbf7803cd	-0.968808
12	0xc006f3e7	-2.1086366
13	0xbf52a401	-0.822815
14	0xbf088cd7	-0.53339905
15	0xbfe86877	-1.815688
16	0xbfd12e7c	-1.6342311
17	0xbed128e4	-0.4085151
18	0xbff2026c	-1.8906989
19	0xbef7aa72	-0.48372227

rb2.bn1.running_var f4 [20]
0	0x3fc71962	1.5554621
1	0x3fafa151	1.3721105
2	0x3fe8df67	1.8193177
3	0x40333730	2.8002434
4	0x4002c172	2.043057
5	0x3fae9a47	1.3640832
6	0x40199511	2.3997233
7	0x40209db5	2.5096257
8	0x3f9df442	1.2340167
9	0x3fa87f74	1.3163896
10	0x3fc9610c	1.5732741
11	0x400157f3	2.020993
12	0x40014ed1	2.0204356
13	0x4009924a	2.1495538
14	0x3fb9eb8f	1.4525012
15	0x40263350	2.5968819
16	0x3ffdf30c	1.9839797
17	0x3fde4430	1.7364559
18	0x3fdf13b4	1.7427888
19	0x400536bf	2.0814664

rb2.conv2.weight f4 [20, 20, 3, 3]
0	0xba1e9931	-0.0006050049
1	0x3cd2185a	0.025646377
2	0x3c750883	0.014955643
3	0x3db2e8d8	0.08735818
4	0x3cfbfcaf	0.030760137
5	0xbddd9533	-0.10819473
6	0x3c4c34d0	0.012463763
7	0xbdd19ba2	-0.10234763
8	0xbc9e7dfe	-0.019347187
9	0xbe2e1f32	-0.17004088
10	0x3e021800	0.12704468
11	0x3dabf64e	0.08396588
12	0x3dcedba4	0.10100487
13	0x3e2dce6c	0.16973275
14	0x3e1adb76	0.1512278
15	0x3dc1c007	0.094604544
16	0x3db84be5	0.08998851
17	0x3df20e1a	0.11819096
18	0xbd4124d7	-0.047154274
19	0xbd105602	-0.035238273
20	0xbd00709b	-0.03135739
21	0x3e3d6d5b	0.18498747
22	0x3daa83fa	0.08325954
23	0xbda4b888	-0.08043009
24	0x3b3c00ce	0.0028687003
25	0x3d153abd	0.03643297
26	0xbda78b03	-0.08180811
27	0xbe280051	-0.1640637
28	0xbd6b94fc	-0.05751513
29	0xbe576df7	-0.21038042
30	0xbe3c4cf3	-0.18388729
31	0x3d5f3cb8	0.054501265
32	0xbe7fa6a0	-0.24965906
33	0xbe6b4213	-0.22974424
34	0xbd2799cd	-0.04091816
35	0xbdbf670f	-0.09345829
36	0xbe116296	-0.14197764
37	0xbddb65b6	-0.10712759
38	0xbde3115c	-0.110872954
39	0xbd18cfc1	-0.037307505
40	0x3c31199d	0.010809329
41	0xbb5df71f	-0.003386922
42	0x3ddd683f	0.10810899
43	0x3e0f08be	0.13968179
44	0x3d6a6ab3	0.057230663
45	0xbd80776b	-0.06272777
46	0xbd41e803	-0.047340404
47	0xbdc7c456	-0.09754245
48	0xbe167ecc	-0.14696807
49	0x3de12719	0.109937854
50	0xbd09ab6f	-0.033610757
51	0x3cdd8ea5	0.027045557
52	0xbd6476ef	-0.055777486
53	0xbd8e7431	-0.069557555
54	0xbccccbda	-0.024999548
55	0xbc834103	-0.016022211
56	0xbdb57dc2	-0.08861877
57	0x3e150e75	0.14556296
58	0x3cfaee48	0.0306312
59	0xbde173f3	-0.11008444
60	0xbdaf911f	-0.085726015
61	0xbe17b6c6	-0.14815816
62	0x3c21e0c7	0.009880251
63	0xbe00a9bf	-0.12564753
64	0x3c7158fd	0.014730689
65	0xbdf0b8a6	-0.11753969
66	0x3c4cbfcc	0.0124969
67	0xbdc060b9	-0.093934484
68	0xbd3db951	-0.04631931
69	0xbe210e3a	-0.15728083
70	0xbe1e1170	-0.1543634
71	0x3d827a7b	0.063710175
72	0x3e1527e9	0.14566006
73	0xbe657e4b	-0.22411458
74	0xbe42c7c3	-0.19021516
75	0x3e8057b3	0.2506691
76	0x3d81ae94	0.06332126
77	0xbd3c1f49	-0.045928273
78	0x3bed2618	0.007237207
79	0xbd5d1040	-0.053970575
80	0x3d9f1160	0.07766986
81	0x3d80fd76	0.06298344
82	0xbe0014af	-0.1250789
83	0xbeb19401	-0.3468323
84	0x3cc275d0	0.023737818
85	0xbd81e56e	-0.06342588
86	0x3d613919	0.054986093
87	0xbd9740fd	-0.073854424
88	0x3e075812	0.1321719
89	0x3e81aed0	0.25328684
90	0x3d965a11	0.073413976
91	0x3d426b2b	0.047465485
92	0xbcc81959	-0.02442615
93	0x3e12dce2	0.14342073
94	0x3d84b3ec	0.0647963
95	0xbdd61ff4	-0.10455313
96	0x3d3e414c	0.04644899
97	0xbdf9141a	-0.12162037
98	0xbe525ae9	-0.20542492
99	0x3a273ed9	0.00063799095
100	0x3d5c95e4	0.053853884
101	0x3e335073	0.17511158
102	0xbbfe2905	-0.0077563548
103	0xbd92671b	-0.07148572
104	0x3de2e63b	0.11079069
105	0xbd1797be	-0.037009947
106	0xbe2ab395	-0.16670068
107	0xbda2712a	-0.079317406
108	0xbbd604ad	-0.006531319
109	0xbbdace17	-0.0066774
110	0xbce9abd3	-0.028524315
111	0xbdddf76f	-0.1083821
112	0xbe29e81e	-0.16592452
113	0xbe268ea5	-0.16265352
114	0xbeab432a	-0.3344968
115	0xbe51eee1	-0.20501281
116	0xbe55d352	-0.20881394
117	0x3d8edc96	0.06975667
118	0x3aa4a5a9	0.0012561578
119	0xbcd1c240	-0.02560532
120	0x3e0dc40f	0.13844322
121	0xbd108939	-0.035287116
122	0x3d486f5c	0.048934326
123	0x3d02b3ca	0.03190974
124	0x3ab81dfd	0.0014047023
125	0x3d17aaa9	0.03702799
126	0x3e1b4231	0.15161969
127	0xbbce632f	-0.0062984447
128	0x3e62cbc8	0.22148049
129	0xbcfe5f0f	-0.031051187
130	0xbde17bf3	-0.110099696
131	0x3e101599	0.14070739
132	0x3da9b2dc	0.08286068
133	0x3d9655ab	0.073405586
134	0x3e2a1c95	0.16612466
135	0x3de6819d	0.112551905
136	0x3de25e5f	0.11053156
137	0x3dba9b35	0.09111635
138	0xbcf300bc	-0.029663436
139	0x3d5ea78e	0.05435901
140	0x3c6909ad	0.014223498
141	0x3cd2e439	0.02574359
142	0xbd4f6f14	-0.05064304
143	0xbe62f83c	-0.22165006
144	0x3d57451d	0.052556146
145	0x3d50d8f5	0.050988156
146	0x3cc48f0e	0.023993995
147	0x3cba27e1	0.022724094
148	0x3d875f56	0.06609981
149	0xbc11b727	-0.008893765
150	0xbd4401e1	-0.047853354
151	0xbd8652e3	-0.06558778
152	0x3cdc1a8c	0.026868127
153	0x3d27ae19	0.040937517
154	0xbd883d48	-0.066523135
155	0x3d62d3d4	0.055377796
156	0xbd2fd746	-0.04292991
157	0xbe2eaa56	-0.17057166
158	0x3c9a7c3e	0.018858071
159	0xbb7d1a23	-0.0038620315
160	0xbd83a842	-0.06428577
161	0xbdc60137	-0.096682005
162	0xbe04999d	-0.12949224
163	0x3dc2321a	0.09482212
164	0x3b2f5707	0.0026754753
165	0xbe062225	-0.13098963
166	0x3e24e4b1	0.16102864
167	0x3da1fcf1	0.07909573
168	0xbe5c8fbf	-0.2153921
169	0xbd6fe234	-0.058565333
170	0xbdf35bcc	-0.11882743
171	0x3e663a4a	0.22483173
172	0x3d40d02d	0.047073532
173	0x3d86b5d9	0.065776534
174	0x3db67f30	0.08910978
175	0x3d591289	0.052996192
176	0x3e0fa6c1	0.14028455
177	0x3e16d760	0.14730597
178	0x3dcaddb7	0.0990557
179	0x3d8789c9	0.06618077
180	0x3d88e96b	0.06685146
181	0x3e0ab0cb	0.13544004
182	0xbd609a7e	-0.054834835
183	0xbdfde900	-0.12397957
184	0x3d342ad2	0.04398615
185	0xbdbe7cda	-0.09301157
186	0xbd7322ff	-0.059359547
187	0xbd6ce7e0	-0.05783832
188	0xbe385382	-0.18000606
189	0xbdedbcd7	-0.11608284
190	0xbe7ea3bb	-0.24867146
191	0xbda97ce5	-0.08275775
192	0x3dc6a5c1	0.09699584
193	0x3ce95150	0.028481156
194	0xbc01694f	-0.007898643
195	0x3ce1ea84	0.027577646
196	0x3e0ca354	0.1373418
197	0x3d44f5c8	0.048085958
198	0xbdf6f27d	-0.1205797
199	0xbd31e954	-0.04343541
200	0xbd204f90	-0.039138377
201	0xbe179b04	-0.14805228
202	0xbc6b43fc	-0.01435947
203	0xbb91955a	-0.004442853
204	0x3d14dc4d	0.036342908
205	0x3d9a2442	0.07526447
206	0xbabb6777	-0.0014297803
207	0xbdbdaafa	-0.09261127
208	0x3cda3596	0.02663688
209	0xbdf1d82a	-0.11808808
210	0xbe28f948	-0.16501343
211	0x3d93d94c	0.072191805
212	0xbddaa25b	-0.10675498
213	0xbe47125b	-0.19440596
214	0xbe320d9b	-0.17388003
215	0xbe694c65	-0.22783048
216	0xbe57fc58	-0.21092355
217	0xbde939bc	-0.11387965
218	0xbe0d3d99	-0.13793029
219	0xbdd5a3f2	-0.10431661
220	0x3d47f65d	0.048818935
221	0xbe071261	-0.13190605
222	0x3d351072	0.044205137
223	0xbdc677df	-0.09690832
224	0xbdcef1c5	-0.10104708
225	0xbdd9c8f5	-0.10634033
226	0xbce86bd3	-0.028371727
227	0x3e2cd0ce	0.16876528
228	0xbe97b647	-0.29631254
229	0xbe11885d	-0.14212175
230	0x3d84b4bf	0.06479787
231	0x3cb37ed4	0.021911062
232	0xbc9b5162	-0.018959705
233	0x3bbf6de3	0.005841957
234	0xbca49aca	-0.02009334
235	0x3c87bef8	0.016570553
236	0x3cd0277e	0.025409456
237	0xbab51813	-0.0013816379
238	0x3d7ad93c	0.061242327
239	0xbd600a0c	-0.05469708
240	0xbc44c97e	-0.01201093
241	0x3db36f77	0.087614946
242	0xbd3a03ca	-0.04541377
243	0x3da83ff2	0.082153216
244	0x3b615209	0.0034381172
245	0xbe4d366e	-0.20040295
246	0x3dd31715	0.10307137
247	0x3dbede9d	0.09319804
248	0xbd670db4	-0.056409553
249	0xbd264f8e	-0.040603213
250	0xbc58c405	-0.013230328
251	0xbe1119af	-0.14169954
252	0xbe0c616c	-0.13709038
253	0xbdf54e8d	-0.11977873
254	0xbe0f2e30	-0.13982463
255	0x3cb374b2	0.02190623

rb2.conv2.bias f4 [20]
0	0xb622b160	-2.4243127e-06
1	0xb91139b6	-0.00013849777
2	0xb88b8f6e	-6.654752e-05
3	0xb8a66866	-7.9349426e-05
4	0x387426f8	5.8210426e-05
5	0xb8b9ce0b	-8.859866e-05
6	0xb9185070	-0.00014525815
7	0xb8a1aaa5	-7.708863e-05
8	0x38dbf6ec	0.000104887265
9	0x38b72714	8.733399e-05
10	0x38ee06e5	0.000113500086
11	0xb90ddc6b	-0.0001352892
12	0xb6f07964	-7.166689e-06
13	0x3720be36	9.58103e-06
14	0x38c5d9d6	9.434267e-05
15	0x3593fcf0	1.1025968e-06
16	0xb8990240	-7.2960276e-05
17	0xb8b2bcae	-8.522846e-05
18	0xb888f85f	-6.531248e-05
19	0x37cb8ee2	2.426602e-05

rb2.bn2.weight f4 [20]
0	0x3f61c2f1	0.8818808
1	0x3f851d71	1.039961
2	0x3f9d627c	1.229568
3	0x3f8b508d	1.0883957
4	0x3f9a6326	1.2061508
5	0x3f8162d0	1.010828
6	0x3fa2c4f8	1.271636
7	0x3f9b1c7f	1.2118071
8	0x3f9ada0b	1.2097791
9	0x3f9d21b8	1.2275915
10	0x3fa12d91	1.2592031
11	0x3f7e2105	0.99269134
12	0x3f9c0980	1.2190399
13	0x3f808cca	1.0042965
14	0x3f96b7fa	1.1774895
15	0x3fae901e	1.3637731
16	0x3fab316a	1.3374455
17	0x3fa5d490	1.2955494
18	0x3f941937	1.1570195
19	0x3f6e5614	0.93100095

rb2.bn2.bias f4 [20]
0	0x3e0e6ce8	0.13908732
1	0x3d7532a3	0.059862744
2	0xbe550aac	-0.20804852
3	0xbd2afa3a	-0.04174254
4	0xbe12b312	-0.14326122
5	0xbe2b5ec0	-0.16735363
6	0x3d9b3327	0.07578116
7	0xbe6e89aa	-0.23294702
8	0x3e478b26	0.19486675
9	0xbe1da5b7	-0.15395246
10	0x3c29896e	0.010347707
11	0xbe44dfec	-0.19226044
12	0x3c18f81f	0.0093365
13	0x3d8e1481	0.069375046
14	0xbd0d68a3	-0.034523617
15	0x3dd35e04	0.103206664
16	0xbcffd194	-0.031227864
17	0xbdf18674	-0.11793223
18	0x3d94b35e	0.07260774
19	0xbe85101b	-0.2598885

rb2.bn2.running_mean f4 [20]
0	0xbf29a387	-0.6626515
1	0xc018ff2d	-2.3905747
2	0xbfa0f4c2	-1.2574694
3	0xbf63fa01	-0.8905335
4	0xbfa9e340	-1.3272476
5	0x3ca7ba74	0.02047465
6	0xbfc7ff9a	-1.5624878
7	0x3e77af48	0.24187958
8	0xc03c79f3	-2.9449432
9	0xbe6d84c2	-0.23195174
10	0xbf9a64ac	-1.2061973
11	0xbdc1dc3d	-0.09465835
12	0xbfd7b8b8	-1.6853247
13	0xbf65ba32	-0.89737236
14	0x3ee3e1c6	0.4450819
15	0xbfb0c837	-1.3811101
16	0xc02856f5	-2.6303074
17	0xbe14104d	-0.14459343
18	0xc0062ee7	-2.0966127
19	0x3e49ce95	0.19707711

rb2.bn2.running_var f4 [20]
0	0x3f6e6a2d	0.9313076
1	0x3f9f2ebc	1.2436137
2	0x3f71604d	0.9428757
3	0x3f7a7952	0.9784137
4	0x3f6fa42a	0.9360987
5	0x3fa8ed4e	1.319742
6	0x3fa9a5d7	1.3253735
7	0x3f2e9b7a	0.6820599
8	0x3fb8015a	1.4375412
9	0x3f86d920	1.0535011
10	0x3f624754	0.8839009
11	0x3f4ec5f8	0.80770826
12	0x3f22e308	0.6362767
13	0x3f9260cb	1.1435789
14	0x3fb0a7b6	1.3801181
15	0x3f94aa1e	1.1614416
16	0x3f6b9f05	0.9203952
17	0x3f9b7a40	1.2146683
18	0x3f867c79	1.0506736
19	0x3f41929c	0.75614333

rb2.shortcut.conv.weight f4 [20, 10, 1, 1]
0	0xbd42a566	-0.047521017
1	0xbdb04027	-0.08605986
2	0xbed8a982	-0.42316824
3	0xbde864c4	-0.113473445
4	0x3eefa1f0	0.46803236
5	0x3d0caf2c	0.034346744
6	0xbc638907	-0.01388765
7	0x3cddd7d0	0.027080446
8	0xbc1b157f	-0.009465574
9	0xbe78e952	-0.24307755
10	0xbde0ea65	-0.10982207
11	0x3d627fe2	0.05529774
12	0xbf29f4fb	-0.66389436
13	0x3d81b73d	0.06333778
14	0xbd24f535	-0.04027291
15	0xbe7bc6eb	-0.245876
16	0xbc9e5c42	-0.019331101
17	0xbd347d8e	-0.04406505
18	0xbccb1fef	-0.0247955
19	0xbd34822a	-0.044069447
20	0xbdb620d3	-0.088929795
21	0xbdeca737	-0.11555331
22	0xbc87b8d7	-0.01656763
23	0xbd0a7ef4	-0.03381248
24	0x3daeb2f2	0.08530225
25	0x3ecb4bb7	0.39706203
26	0x3e141e8a	0.14464775
27	0x3cea0998	0.028569028
28	0xbe1df14f	-0.15424083
29	0xbeb78811	-0.35845998
30	0xbd2aa497	-0.04166087
31	0x3cfd71cb	0.03093805
32	0x3ead3744	0.33831227
33	0x3dfcfac0	0.12352514
34	0x3e09e572	0.13466433
35	0xbdee7fa3	-0.116454385
36	0x3e822abc	0.2542323
37	0x3e54f953	0.20798235
38	0x3edeff92	0.4355436
39	0xbe6247ed	-0.2209775
40	0xbe41729d	-0.18891378
41	0x3d357181	0.0442977
42	0x3dc11749	0.094282694
43	0x3eb1cce2	0.34726626
44	0x3d1a12b0	0.037615478
45	0xbd8e8e64	-0.069607526
46	0xbd359385	-0.04433014
47	0xbd6eda03	-0.05831338
48	0x3ec3790a	0.38178283
49	0xbe381e12	-0.17980221
50	0x3e86905f	0.2628202
51	0x3e1a3c60	0.15062094
52	0xbdcf80ae	-0.101319656
53	0xbea9f713	-0.33196315
54	0xbdaa24b3	-0.08307781
55	0xbe042701	-0.12905504
56	0x3e4c5007	0.19952403
57	0xbe4bc29e	-0.1989846
58	0xbe379763	-0.17928843
59	0xbed434d4	-0.41446555
60	0xbd7de805	-0.06198885
61	0x3e1e0d87	0.15434848
62	0x3d7aba3b	0.06121276
63	0xbe9a7318	-0.30165935
64	0xbcef8dfb	-0.029242506
65	0xbecad0c3	-0.39612398
66	0xbe8f67af	-0.28008792
67	0x3d3f7e6f	0.046751436
68	0x3e86919c	0.26282966
69	0xbdb8d286	-0.09024529
70	0x3e379899	0.17929305
71	0x3e60cd57	0.21953331
72	0xbd4cdece	-0.05001717
73	0xbde85b6c	-0.11345562
74	0xbe38e554	-0.18056232
75	0xbe058eb3	-0.13042717
76	0xbebfd3eb	-0.37466368
77	0xbc0bcb51	-0.008532361
78	0xbf04ac96	-0.51825845
79	0xbe338988	-0.17532933
80	0xbe288ec0	-0.16460705
81	0x3e013f65	0.1262184
82	0xbdf23e4f	-0.11828291
83	0xbe051032	-0.1299446
84	0xbf253561	-0.64534575
85	0xbdb116da	-0.08646937
86	0xbd02ff8e	-0.031981997
87	0x3e86b274	0.26308024
88	0xbe13dae0	-0.14438963
89	0x3d8712fd	0.065954186
90	0xbe4ec364	-0.20191723
91	0x3ebdf652	0.3710199
92	0xbe3db700	-0.1852684
93	0xbe50b80e	-0.20382711
94	0x3e373d38	0.17894447
95	0xbde7688b	-0.11299237
96	0xbbc79d24	-0.0060917307
97	0x3e3f394d	0.18674202
98	0xbd46d0a0	-0.048538804
99	0xbeb670d1	-0.35632947
100	0x3d8f160a	0.069866255
101	0x3dad502f	0.084625594
102	0xbec6f050	-0.3885522
103	0x3e90037a	0.28127652
104	0xbe9ba0d4	-0.3039614
105	0xbd9abf61	-0.07556034
106	0x3e8a4496	0.27005452
107	0x3ddef8fc	0.10887334
108	0x3e57bc85	0.21068008
109	0x3dc5f2bf	0.09665441
110	0x3c77dcfc	0.01512837
111	0xbd972202	-0.07379533
112	0xbeb6ff55	-0.35741678
113	0x3e49a985	0.19693573
114	0x3e6dd5b7	0.23226057
115	0x3e7bd54d	0.24593087
116	0xbe02fb9a	-0.12791291
117	0xbe3cc2c2	-0.18433669
118	0x3e0b8744	0.13625818
119	0xbdff7cfb	-0.1247501
120	0xbdc9ec8e	-0.09859572
121	0xbed3b943	-0.4135228
122	0x3e5f211c	0.21789974
123	0x3ea6f8b9	0.32611635
124	0xbd4f7b3e	-0.050654642
125	0x3d92ff71	0.07177628
126	0x3dc86b95	0.09786145
127	0xbe3b28d0	-0.18277287
128	0xbea99a5b	-0.33125576
129	0x3dc36535	0.09540788
130	0xbd713a2a	-0.05889336
131	0xbe413822	-0.18869069
132	0xbe2d892e	-0.16946861
133	0xbdab9990	-0.08378899
134	0x3df8cbcb	0.121482454
135	0x3e16e02e	0.14733955
136	0x3deec3be	0.116584286
137	0x3e0fa319	0.1402706
138	0xbf0dc5e1	-0.55380064
139	0xbe053456	-0.13008246
140	0x3cad049d	0.021120364
141	0xbe777e6a	-0.24169317
142	0x3cc45328	0.023965433
143	0xbe311a32	-0.17295149
144	0x3c142c69	0.009043791
145	0xbeb00f71	-0.3438678
146	0xbecfbef3	-0.4057537
147	0xbdfa9524	-0.122354776
148	0xbdf2e941	-0.11860896
149	0x3e4b1d59	0.19835414
150	0x3eca334d	0.39492264
151	0xbec01cdd	-0.3752202
152	0x3e741d3d	0.23839279
153	0x3e27eeb1	0.16399647
154	0xbe2697fc	-0.16268915
155	0x3e1a9723	0.15096717
156	0x3dad8852	0.08473267
157	0xbe00fd2c	-0.12596577
158	0xbe6e4a31	-0.2327049
159	0xbd5d6a6e	-0.054056577
160	0x3e1aa370	0.15101409
161	0x3eb494e2	0.3526984
162	0xbe26c71d	-0.16286893
163	0x3d28bc2b	0.041195076
164	0xbd127f2b	-0.035765808
165	0x3e899349	0.26870182
166	0x3e0b25d3	0.13588648
167	0x3dfaed9d	0.122523524
168	0x3d72c485	0.059269447
169	0xbce714f9	-0.028208243
170	0x3d893b4c	0.06700763
171	0x3d8860a2	0.06659056
172	0xbe9509be	-0.29108995
173	0x3e1f00b7	0.15527616
174	0xbc6b23a9	-0.014351764
175	0x3e79a938	0.24380958
176	0x3e777cc4	0.24168688
177	0x3ed3106b	0.41223463
178	0x3e3a7918	0.18210256
179	0xbde6b376	-0.11264698
180	0x3d84fbd0	0.06493342
181	0x3e296c60	0.16545248
182	0xbce97b56	-0.028501194
183	0xbe6f30a6	-0.23358402
184	0xbd4622d6	-0.048373066
185	0x3bd2f1a2	0.0064374963
186	0x3de7981b	0.11308309
187	0xbe7cd49f	-0.24690484
188	0xbee98ac9	-0.45613697
189	0xbe792810	-0.24331689
190	0xbe883c80	-0.26608658
191	0xbdf34142	-0.11877681
192	0x3ebf48a7	0.37360117
193	0xbcc48b54	-0.023992218
194	0x3db9d862	0.09074475
195	0xbd8b29b8	-0.067950666
196	0x3e1f9c7d	0.1558704
197	0xbdcc7228	-0.09982711
198	0xbe439651	-0.1910031
199	0x3dad659d	0.08466647

rb2.shortcut.conv.bias f4 [20]
0	0xb7bd1e40	-2.2544642e-05
1	0x380c2e7e	3.34219e-05
2	0xb81ba833	-3.7111527e-05
3	0xb875720e	-5.8518774e-05
4	0xb9380500	-0.0001754947
5	0x377fb0ba	1.5240332e-05
6	0xb5dfc0d6	-1.6670917e-06
7	0xb9093d2e	-0.0001308813
8	0x38ae1c2e	8.3022154e-05
9	0x38ed1ca6	0.00011306377
10	0x38a89afe	8.039734e-05
11	0xb8d5fe62	-0.00010204014
12	0xb7339876	-1.0704729e-05
13	0x387a2e80	5.964795e-05
14	0x39638bce	0.00021700488
15	0x386fdfe6	5.7190562e-05
16	0x38240fc0	3.9115315e-05
17	0xb850774b	-4.9702165e-05
18	0xb8b04a17	-8.406134e-05
19	0x38873f04	6.449039e-05

rb2.shortcut.bn.weight f4 [20]
0	0x3f7ba8d6	0.983045
1	0x3f417d57	0.7558188
2	0x3f6d93b6	0.92803514
3	0x3f287857	0.65808624
4	0x3f3d8d4d	0.7404373
5	0x3f533c4c	0.8251388
6	0x3f358d1d	0.70918447
7	0x3f5b7ca4	0.8573706
8	0x3f6061dd	0.8764933
9	0x3f68270a	0.9068457
10	0x3f2801ba	0.65627635
11	0x3f3f72f7	0.747848
12	0x3f21665f	0.6304683
13	0x3f6824e7	0.9068131
14	0x3f8c2e21	1.0951577
15	0x3f151bb3	0.5824539
16	0x3f384216	0.7197584
17	0x3f1cf640	0.6131325
18	0x3eeca3c1	0.46218684
19	0x3f4d7ec0	0.8027153

rb2.shortcut.bn.bias f4 [20]
0	0x3e0e6ce8	0.13908732
1	0x3d7532a3	0.059862744
2	0xbe550aac	-0.20804852
3	0xbd2afa3a	-0.04174254
4	0xbe12b312	-0.14326122
5	0xbe2b5ec0	-0.16735363
6	0x3d9b3327	0.07578116
7	0xbe6e89aa	-0.23294702
8	0x3e478b26	0.19486675
9	0xbe1da5b7	-0.15395246
10	0x3c29896e	0.010347707
11	0xbe44dfec	-0.19226044
12	0x3c18f81f	0.0093365
13	0x3d8e1481	0.069375046
14	0xbd0d68a3	-0.034523617
15	0x3dd35e04	0.103206664
16	0xbcffd194	-0.031227864
17	0xbdf18674	-0.11793223
18	0x3d94b35e	0.07260774
19	0xbe85101b	-0.2598885

rb2.shortcut.bn.running_mean f4 [20]
0	0xbec609bc	-0.38679302
1	0xbf72a33c	-0.94780326
2	0xbd64cf5d	-0.05586182
3	0x3f681b63	0.9066679
4	0x3e83b168	0.25721288
5	0xbf4add94	-0.7924435
6	0xbf1d9c79	-0.61566883
7	0xbf802dc6	-1.0013969
8	0xbf2a2124	-0.6645682
9	0xbed55e9c	-0.41673744
10	0x3e977322	0.29580027
11	0xbd467b08	-0.048457175
12	0xbe02b730	-0.12765193
13	0xbefbb4af	-0.49161288
14	0xbf730745	-0.9493297
15	0x3e155672	0.14583758
16	0x3f3b42ef	0.7314901
17	0x3f52f3dd	0.82403356
18	0xbf4fcd1d	-0.81172353
19	0xbce81477	-0.02833007

rb2.shortcut.bn.running_var f4 [20]
0	0x3eea838c	0.45803487
1	0x3eecba29	0.4623578
2	0x3ecdda16	0.4020545
3	0x3f0108bf	0.5040397
4	0x3ec85e80	0.39134598
5	0x3ef1efc4	0.4725324
6	0x3ed2fb58	0.41207385
7	0x3f153150	0.5827837
8	0x3eb19f6b	0.3469194
9	0x3e8a50c4	0.27014744
10	0x3f04461c	0.5166948
11	0x3e9457da	0.28973275
12	0x3e91d398	0.28481746
13	0x3f0e6d28	0.5563531
14	0x3ef8ebc6	0.4861738
15	0x3ebc6ce6	0.36801833
16	0x3e8c489a	0.2739914
17	0x3ee1b530	0.44083548
18	0x3eff5df4	0.49876368
19	0x3e1df68e	0.15426084

res1_sc1.conv.weight f4 [20, 3, 1, 1]
0	0xbf0f4375	-0.55962306
1	0x3dae04de	0.08497022
2	0x3ea708d4	0.32623923
3	0xbe7e4df1	-0.2483442
4	0x3f11351d	0.5672167
5	0xbe61fe4e	-0.22069666
6	0x3c7e18d8	0.015508853
7	0xbeaee58e	-0.3415951
8	0xbee321a0	-0.4436159
9	0x3ec0ad36	0.3763215
10	0xbed15564	-0.4088546
11	0xbe91c4ff	-0.2847061
12	0x3ed4d15b	0.41565976
13	0xbe1bbeef	-0.15209554
14	0x3ea1fb2a	0.31636935
15	0xbf1b5954	-0.6068318
16	0xbeada398	-0.33913875
17	0x3eb55c75	0.35422102
18	0xbe6d33c7	-0.23164283
19	0x3ed7e055	0.4216334
20	0x3f06180d	0.5238045
21	0x3ee14f0b	0.44005617
22	0xbf0b1233	-0.54324645
23	0xbe9d240a	-0.30691558
24	0x3e5b68f0	0.21426749
25	0x3f102a95	0.56314975
26	0xbe43a0dc	-0.19104332
27	0x3e927154	0.28602087
28	0xbe5d6d4a	-0.21623722
29	0xbed0869a	-0.40727693
30	0xbccbf4e9	-0.024897056
31	0xbe72a4dc	-0.23695701
32	0xbf0b7363	-0.5447294
33	0x3e19a8ca	0.15005794
34	0xbdbf7661	-0.09348751
35	0xbee249fa	-0.44197065
36	0xbee8de60	-0.4548216
37	0xbe5fdf39	-0.21862496
38	0xbd68e5e0	-0.05685985
39	0x3d307405	0.043079395
40	0xbe5710fd	-0.21002574
41	0xbefa83f4	-0.48928797
42	0xbe3d098b	-0.18460672
43	0x3e80d384	0.25161374
44	0x3ee18bcc	0.4405197
45	0x3ed560a1	0.41675285
46	0x3e5c6f23	0.2152677
47	0xbe74f496	-0.23921427
48	0xbb933fd7	-0.0044936943
49	0xbee3b7e3	-0.44476232
50	0x3d3096aa	0.043112434
51	0x3cabac51	0.02095619
52	0xbee58e68	-0.4483521
53	0x3d5327fc	0.051551804
54	0x3e83860d	0.2568821
55	0x3ec33eba	0.38133794
56	0xbce3d019	-0.02780919
57	0xbf09eed1	-0.5388003
58	0x3dc2f795	0.09519879
59	0x3df73797	0.1207115

res1_sc1.conv.bias f4 [20]
0	0x377407ba	1.4545332e-05
1	0x3934b4a0	0.00017233426
2	0x3929c66f	0.00016191018
3	0xb93b020f	-0.00017834477
4	0xb7b82050	-2.1949556e-05
5	0xb8e0fc67	-0.00010728166
6	0x3937c070	0.00017523929
7	0xb982d3a3	-0.00024953214
8	0x38e9f6e6	0.00011156294
9	0x39a6b8b8	0.00031799613
10	0x398d4c8b	0.00026950645
11	0x38b2aa6d	8.519446e-05
12	0x38dfd0d8	0.00010672369
13	0xb902d760	-0.00012478
14	0x38bef994	9.1063936e-05
15	0x35e74ac0	1.7232596e-06
16	0xb90e4ea7	-0.00013571476
17	0xb8eb18c2	-0.00011210285
18	0xb8e85313	-0.00011078096
19	0xb9508926	-0.00019887518

res1_sc1.bn.weight f4 [20]
0	0x3f77fccc	0.9687011
1	0x3f76b444	0.96368814
2	0x3f4a131d	0.78935415
3	0x3f32b9f3	0.69814986
4	0x3f233bbc	0.6376302
5	0x3f2eed25	0.68330604
6	0x3f20e3da	0.62847674
7	0x3f3f135f	0.7463893
8	0x3f35bb60	0.70989037
9	0x3f3b7dc5	0.73238784
10	0x3f2e7ce7	0.68159336
11	0x3f3506ec	0.70713687
12	0x3f215191	0.63015085
13	0x3f3ecbf3	0.7452995
14	0x3f3974b5	0.72443706
15	0x3ef3f94d	0.4765114
16	0x3f2ba269	0.67044693
17	0x3f1ce252	0.6128284
18	0x3f0e8bce	0.55682075
19	0x3f5d9bff	0.86566156

res1_sc1.bn.bias f4 [20]
0	0x3e0e6ce8	0.13908732
1	0x3d7532a3	0.059862744
2	0xbe550aac	-0.20804852
3	0xbd2afa3a	-0.04174254
4	0xbe12b312	-0.14326122
5	0xbe2b5ec0	-0.16735363
6	0x3d9b3327	0.07578116
7	0xbe6e89aa	-0.23294702
8	0x3e478b26	0.19486675
9	0xbe1da5b7	-0.15395246
10	0x3c29896e	0.010347707
11	0xbe44dfec	-0.19226044
12	0x3c18f81f	0.0093365
13	0x3d8e1481	0.069375046
14	0xbd0d68a3	-0.034523617
15	0x3dd35e04	0.103206664
16	0xbcffd194	-0.031227864
17	0xbdf18674	-0.11793223
18	0x3d94b35e	0.07260774
19	0xbe85101b	-0.2598885

res1_sc1.bn.running_mean f4 [20]
0	0xbc9c15b4	-0.019053318
1	0x3c0c935d	0.008580056
2	0x3de81e12	0.113338605
3	0x3d6e24c7	0.058140542
4	0xbda5d2b5	-0.0809683
5	0x3ca3a2a5	0.019975016
6	0xbdef44f1	-0.116830714
7	0x3d8edf69	0.06976206
8	0xbd1693e3	-0.03676213
9	0x3d910774	0.070815
10	0x3e00b881	0.12570383
11	0x3d9f24d8	0.07770699
12	0x3d92613d	0.07147453
13	0x3ddac7d1	0.10682643
14	0xbdb6563f	-0.08903169
15	0xbc568b4e	-0.013094736
16	0x3d0e315d	0.034715045
17	0x3cff7cb0	0.031187385
18	0xbd5c2ae7	-0.053751852
19	0x3c83f456	0.01610772

res1_sc1.bn.running_var f4 [20]
0	0x3cbcf8d1	0.023067864
1	0x3c019726	0.007909572
2	0x3e13308c	0.14373988
3	0x3d1739fb	0.03692053
4	0x3d9f3c79	0.07775206
5	0x3dcc7ac4	0.09984353
6	0x3e0b5117	0.13605152
7	0x3d6da034	0.05801411
8	0x3dae7cad	0.08519874
9	0x3d2253f2	0.039630838
10	0x3e22413a	0.15845194
11	0x3d350912	0.044198103
12	0x3dfe4c56	0.12416904
13	0x3ddd50ac	0.108064026
14	0x3d909dfc	0.07061383
15	0x3d3775f9	0.044790242
16	0x3d269803	0.040672313
17	0x3d100ed8	0.035170406
18	0x3db388a2	0.08766295
19	0x3d080123	0.03320421
