models/dense_max/epoch_0026.pth (torch, 645162 bytes, 174 tensors)

rb1.conv1.weight f4 [10, 3, 3, 3]
000000 e7 a3 a1 bd 0d fb a6 3d a4 b6 9a bd f6 82 70 be
       -0.0789259 0.08153353 -0.07554367 -0.23487458
000010 60 50 8b 3e 71 bb 3a 3e b4 1c 53 be 3b 9c 3f 3e
       0.2720976 0.18235566 -0.20616418 0.18711941
000020 f3 fa f8 bd c9 62 35 be 24 ae 4b 3c d6 5f 29 bd
       -0.1215724 -0.17713465 0.012431655 -0.041351162
000030 12 a1 9e be 5c b9 92 3e a6 8d 2c 3e e1 ee 84 bc
       -0.30982262 0.28657043 0.1685091 -0.016227188
000040 5f 0f 8d 3e 91 f8 67 be 0f 2c b0 bc b1 0b dc 3a
       0.2755079 -0.22653414 -0.021505384 0.0016788152
000050 44 70 bc bd a7 52 67 be f6 a8 50 3d db 2d 2b 3c
       -0.092011005 -0.22590123 0.050942384 0.0104479445
000060 5b d5 03 3e 5a 7d 8a 3d ba ff 10 3e ff 57 67 3d
       0.12874357 0.0676219 0.14160052 0.056480404
000070 48 08 8e 3c 37 17 24 3e 9f 58 67 3d 93 ac 0e 3e
       0.017337933 0.16024481 0.056481 0.1393302
000080 91 ae b8 be 6c ed 5e bd d2 00 19 3d 06 9e 98 bd
       -0.36070684 -0.054425642 0.037354298 -0.074520156
000090 8f 21 18 bd f7 e1 d7 bc 5d 7f 1d bc 3b 19 24 bd
       -0.03714138 -0.026352866 -0.009612885 -0.040063124
0000a0 73 f6 da 3e 90 aa 6d be 18 ff 62 bd 2c f8 ae 3d
       0.4276615 -0.23209596 -0.055419058 0.08543429
0000b0 ec 80 03 be fe 2f 0c be c4 d2 32 be 96 6c f5 3d
       -0.12842149 -0.13690183 -0.17463213 0.11983602
0000c0 be 34 2b 3c 60 a3 b4 3e b2 d3 8a be 60 1d 0b bb
       0.010449586 0.35280895 -0.27114636 -0.0021227226
0000d0 8b ad c3 3d 6a f8 43 3d 04 03 f3 3c 33 2f 8c 3e
       0.09554585 0.047844328 0.029664524 0.2737976
0000e0 b0 05 3d 3e ca e0 08 be 85 0b 99 bd b0 de be 3d
       0.18459201 -0.13367 -0.074729 0.09319818
0000f0 67 54 7f bd 20 54 67 be 35 35 ea 39 0f dc 7a 3e
       -0.06233635 -0.22590685 0.000446716 0.24498008
000100 cc 16 79 3e b1 32 a1 3e 9e 9d 86 3b 17 2f 2f be
       0.24325103 0.31483987 0.004108145 -0.17107807
000110 20 69 e7 bd 1b 1c e2 bd ac bd 89 be fb 05 39 be
       -0.11299348 -0.11040517 -0.2690252 -0.18068688
000120 4b b6 6c 3d 33 22 2e 3e 3a 6c 6f 3d 67 8c 9c b9
       0.057791036 0.17005233 0.058452822 -0.00029859247
000130 3f 28 34 bd e1 b1 be bd 2d 3f cf 3d d5 38 53 be
       -0.043983694 -0.093112715 0.10119472 -0.20627148
000140 83 ff fe bd 3e 7e 43 be 17 9e 0f 3d 97 9c 27 be
       -0.12451079 -0.19091126 0.035062876 -0.16368328
000150 2a af 97 3d 1c 0a 9c be ac bc 2c be a8 dd 40 3d
       0.07406457 -0.30476463 -0.16868848 0.047086388
000160 21 ab d3 3d a8 a6 27 3e 99 60 d4 bd 58 ef 1b be
       0.103353746 0.16372168 -0.10369987 -0.15228021
000170 21 b1 24 be d9 cf 5c 3e e9 bb 88 be 4c cd fd bd
       -0.16083194 0.21563663 -0.26705864 -0.12392673
000180 4f ff 8b 3e 03 95 e2 3c 86 42 d1 3c ac 7f 2c bd
       0.27343222 0.027658945 0.025544416 -0.042113945
000190 fa 09 bd 3c 7b 44 0f be bf c1 4e 3c 53 7e 31 be
       0.023076046 -0.13990967 0.012619435 -0.17333345
0001a0 e7 7e 02 be a1 af 3f 3e e9 22 80 3c 2a 98 69 3e
       -0.12743722 0.18719341 0.015641646 0.22811952
0001b0 5d a8 7b be 23 f8 6a be 66 e3 44 3e 88 f4 bb bd
       -0.24575944 -0.22946219 0.1922737 -0.091775
0001c0 f6 92 2e be 76 51 14 3e 11 a7 ef bd 65 f0 11 bc
       -0.17048249 0.144842 -0.11701787 -0.008907412
0001d0 c1 0f 68 3e 55 b9 6f 3e d4 c1 5e be 01 00 b3 bd
       0.2266226 0.23410542 -0.21753627 -0.08740235
0001e0 52 d2 a1 bd c7 c7 50 bc bd 76 29 3e 9a 1b c0 3d
       -0.079014435 -0.012742943 0.16549201 0.093802646
0001f0 b4 6a f7 3d 34 35 00 3e 88 5b 86 3e 93 67 a8 3d
       0.12080899 0.12520295 0.26241708 0.0822288
000200 78 57 87 bd ac be 5e 3e e5 7f e0 3c 37 06 90 be
       -0.0660848 0.21752423 0.027404735 -0.28129742
000210 a9 1b 15 3e 34 08 8f 3c 77 70 3d be 1b d5 44 be
       0.14561333 0.017459966 -0.18499933 -0.19221918
000220 df 63 1a be 95 14 00 3e ba 04 8d 3c 41 28 18 be
       -0.1507716 0.12507851 0.017214168 -0.14859106
000230 57 e2 e4 ba 09 5c ef 3d 38 e3 b8 bd 50 e5 c7 3c
       -0.0017462474 0.11687476 -0.090277135 0.024401337
000240 2f c9 8f 3d 6f 55 3f 3e eb f2 60 3e db 2f 3e bd
       0.070207946 0.18684934 0.21967666 -0.046432357
000250 94 cc e2 be 15 25 f9 bd 53 c6 33 3e a9 ae f7 bd
       -0.44296706 -0.12165276 0.17556123 -0.12093861
000260 35 61 a4 be 73 01 70 3c ab 45 aa bd c7 e0 67 3e
       -0.32105413 0.014648783 -0.08314069 0.2264434
000270 65 95 b4 bd 82 8d 2d be 57 57 91 3b ae cb 6c be
       -0.08817557 -0.16948512 0.0044354605 -0.23124573
000280 5e be aa be 6d f5 c8 3c c1 1d bb bc b8 52 1f bd
       -0.33348364 0.02453109 -0.022841336 -0.038897246
000290 bd c5 d1 3d cf cc a7 3d c8 e2 4b 3e 5d f5 ef bd
       0.10242794 0.08193361 0.19910729 -0.11716721
0002a0 59 0a d7 bc 31 e2 16 bd 20 ac b0 3c 1d 4a 87 3d
       -0.026250051 -0.036836807 0.02156645 0.06605933
0002b0 84 70 e4 3c 74 42 92 3d b1 c8 08 3e c9 8a 97 3e
       0.027885683 0.07141581 0.13357808 0.29598072
0002c0 f5 75 73 bd 27 e9 ed 3c 2f b9 27 3d d0 d7 38 be
       -0.059438664 0.02904184 0.04094809 -0.18051076
0002d0 19 86 82 be 34 11 17 be 00 8e c4 bd 69 6b 62 bb
       -0.25492933 -0.14752656 -0.09597397 -0.0034548885
0002e0 64 c2 f1 3d b5 51 1a 3e f5 66 9d bd 8e 0e ca 3e
       0.11804655 0.15070231 -0.07685653 0.3946423
0002f0 64 5d 8c 3e da c4 92 3c 4c cc 0c be 92 c2 47 3e
       0.27415 0.017916132 -0.13749808 0.19507816
000300 d3 fe 85 be d4 94 8e bd 07 40 93 3d 97 aa 65 3e
       -0.26170978 -0.069619805 0.071899466 0.22428356
000310 2b 02 49 bd b9 77 4a 3e a0 03 03 3e 87 70 a7 bc
       -0.049074333 0.19772233 0.12794352 -0.0204394
000320 5a 6e 4b 3e c2 ee 5a be df 7b c6 be e2 67 d4 bb
       0.19866315 -0.21380141 -0.3876638 -0.0064821104
000330 33 5f 1d 3e 8e 15 08 3e b1 cb 82 be a2 50 ee bd
       0.15368347 0.13289472 -0.2554603 -0.11636473
000340 6b 75 b6 bd 01 a9 8d 3d 71 63 a4 bd 91 43 1a be
       -0.089091145 0.069170006 -0.080267794 -0.15064837
000350 19 f8 bc 3e 29 82 87 3e 76 9b ba bd 43 20 09 bd
       0.36908033 0.26466492 -0.09111683 -0.033478033
000360 6d 2f 8f be 43 72 d5 3d fe 60 8e bb d3 ca f2 bc
       -0.2796587 0.10422184 -0.0043450585 -0.02963773
000370 9d 9a 44 3e 35 13 97 3e ad 4b 4b bc 78 52 18 3e
       0.19199605 0.2950684 -0.012408179 0.1487521
000380 a3 37 69 bd c5 f7 a3 bd de 85 12 be 90 43 19 be
       -0.056937825 -0.08006243 -0.14308879 -0.1496718
000390 4a bc 68 3c fa c8 f9 3d 04 05 87 bd 5a 73 77 3e
       0.014205048 0.12196536 -0.065927535 0.24165097
0003a0 5a 42 96 be 2c 90 55 be df ae 85 3d fd cd c4 3d
       -0.29347497 -0.20855778 0.06527495 0.09609602
0003b0 8c 30 db bd 05 1f e7 3d 2d 70 4d 3e 9c ad b5 3c
       -0.10702619 0.112852134 0.20062323 0.02217751
0003c0 5e 64 17 3d 3f 50 82 3c 5e 6a 6e be 04 53 81 3e
       0.036960952 0.015907405 -0.23282763 0.25258648
0003d0 33 56 e7 3e b3 b8 52 3e 86 57 1d 3e c6 c4 99 3e
       0.45182952 0.2057827 0.15365419 0.3003294
0003e0 0d 9f 56 3d 68 b5 a6 bd 28 1d 3e be 09 7b af be
       0.052397776 -0.08140069 -0.1856581 -0.34273556
0003f0 41 a7 3b 3e 2c 53 9f 3e f9 17 30 3d b7 29 78 bd
       0.18325521 0.31118143 0.042991612 -0.060586657

rb1.conv1.bias f4 [10]
000000 17 73 c1 b8 97 d3 70 b9 c3 46 ea b8 9b e6 ba 37
       -9.224394e-05 -0.00022967007 -0.0001117117 2.2280312e-05
000010 7c 14 bd 37 84 4f be 38 ee fe 44 38 7a 79 f2 b6
       2.2540095e-05 9.074717e-05 4.6967463e-05 -7.2263038e-06
000020 52 53 a6 b9 f8 8b 88 b8
       -0.00031724066 -6.5110566e-05

rb1.bn1.weight f4 [10]
000000 27 08 4b 3f 36 ad 9e 3f 73 a0 5a 3f e6 0e 5e 3f
       0.79309314 1.239661 0.85401076 0.86741483
000010 af 5d 13 3f d3 cb 4b 3f c5 80 2c 3f 95 5b 7d 3f
       0.57564825 0.79607886 0.67383987 0.9896787
000020 9c 3a 54 3f 05 6b 2c 3f
       0.8290193 0.673508

rb1.bn1.bias f4 [10]
000000 b2 9a a5 3e ee 36 91 3f 93 93 e9 3b eb b9 28 3d
       0.32344586 1.1344888 0.007128188 0.04119293
000010 f5 36 41 3d 63 7f da bc d0 26 f2 bb c4 30 47 3f
       0.04717155 -0.02667207 -0.0073898807 0.77808785
000020 56 22 0c 3f c0 95 02 3e
       0.5473989 0.12752438

rb1.bn1.running_mean f4 [10]
000000 28 9f 8b bc e0 91 28 bc d4 72 80 3c 76 a0 83 3d
       -0.017043665 -0.010288686 0.015679754 0.0642709
000010 1e e8 27 bd 0f 0a 2f 3e de 76 ef bd d8 03 19 bb
       -0.04099285 0.17093681 -0.11692594 -0.0023348238
000020 b3 e0 54 bc b5 b4 b6 bd
       -0.012993026 -0.08921186

rb1.bn1.running_var f4 [10]
000000 5c 86 97 3d 4e 61 17 3d cb 66 46 3e 4b b5 62 3e
       0.07398674 0.03695803 0.1937515 0.2213947
000010 b7 3d 19 3d de 5c d1 3e d6 e7 4e 3e a1 d0 5e 3d
       0.03741237 0.40891165 0.20205626 0.054398183
000020 a9 04 1a 3d 46 21 cb 3e
       0.0376021 0.39673823

rb1.conv2.weight f4 [10, 10, 3, 3]
000000 dc 2d c9 bc 1d c8 40 be 73 ad fa 3a d3 4d 94 3c
       -0.024558 -0.18826337 0.0019125178 0.018103516
000010 50 50 0d be c2 12 48 bd 66 5d 58 3c 8c 4c 39 bd
       -0.13800168 -0.048846014 0.013205862 -0.045239016
000020 a7 d9 bb bc 21 11 36 3c 82 83 34 3e 53 ab 83 be
       -0.022930933 0.011112482 0.17628291 -0.25716648
000030 7f 5b 88 be 56 23 b2 bd 6d 63 18 3e 84 a6 10 3e
       -0.26632306 -0.08698146 0.14881678 0.1412602
000040 ca f8 56 be 4a 8f 8d 3c b4 42 05 be fe c8 b3 3d
       -0.20993343 0.01728024 -0.13013726 0.087785706
000050 72 8d e3 bd 73 34 1b 3c 74 7d 4d be e3 d4 2f be
       -0.11110963 0.009472954 -0.20067388 -0.17171054
000060 79 ea a0 3c de f6 de 3d 58 cf 1a 3e c8 91 18 3e
       0.019643055 0.1088693 0.15118158 0.14899361
000070 e4 a6 21 3e 75 f7 01 3e ce 68 cc 3d b7 af df 3d
       0.1578632 0.12692054 0.099809274 0.10922187
000080 df bf cd 3c 32 9d 05 be 5c 5a 95 bd c7 20 72 be
       0.025115905 -0.13048247 -0.07292625 -0.23645316
000090 25 d4 09 be 89 f4 4f 3d 2f 57 27 bd 67 b1 8c bb
       -0.13459833 0.050770316 -0.04085463 -0.004293609
0000a0 50 54 c6 bd db c4 a8 3c 14 c6 7f bd d3 df 55 bc
       -0.0968405 0.02060168 -0.06244476 -0.013053852
0000b0 1b ec 9b bd aa ce a8 3d 27 e5 6e 3e d6 3f 2c 3e
       -0.07613393 0.08242543 0.23329602 0.16821226
0000c0 5d d7 da bc e3 0f fc 3a 24 6f 1a bd 29 fb 4e bd
       -0.026714021 0.0019230809 -0.03770365 -0.050532494
0000d0 78 f4 58 3d 8a 74 1d 3e 01 bc 82 bd 22 12 21 bd
       0.05296752 0.15376487 -0.06383515 -0.039323933
0000e0 df 78 af bd 7d 1a bd bd 88 5f 6e be 82 7c a2 bd
       -0.08567976 -0.09233568 -0.2327863 -0.07933904
0000f0 38 4c c6 3d ae 55 91 3d df 7c 80 bd fc 53 1a bd
       0.09682506 0.0709642 -0.06273817 -0.03767775
000100 01 80 e2 3d e1 33 90 3e 3a c3 6b bd f7 da 83 be
       0.11059571 0.2816458 -0.05755923 -0.25752994
000110 76 5f c9 be 95 2f 6d 3c 10 66 27 3e 6d 37 ce 3d
       -0.39330643 0.0144766765 0.16347528 0.100691654
000120 f2 14 33 bd 0e 2e 2a be c2 b4 d2 bd f7 e8 f9 3d
       -0.043721147 -0.16619131 -0.10288383 0.12202638
000130 3c 38 6f 3d a2 5e d5 3d 2d dd 4d be a4 0b 8e bc
       0.05840324 0.104184404 -0.20103903 -0.017339535
000140 14 b2 45 bd 3b d4 a4 be a9 71 a3 be c9 46 f1 bd
       -0.04826553 -0.3219317 -0.31922653 -0.11781079
000150 1d ec 33 be e1 8c 46 bd 6e 25 57 bd fb 1c 0e be
       -0.17570539 -0.048474196 -0.05252593 -0.13878243
000160 7b ea a7 bd e0 f8 5d 3d d5 45 43 bc d2 4c f7 bd
       -0.081990205 0.054192424 -0.011918505 -0.12075199
000170 7f 06 fb 3d 14 fd f1 3b d0 06 85 3d 86 99 a0 3e
       0.122570984 0.0073849056 0.0649544 0.3136713
000180 6d 2e 4e bd 3e 3d 23 3e b5 03 be bd 86 18 dc 3d
       -0.050337244 0.15941331 -0.09278051 0.10746865
000190 34 35 b2 3d d8 24 2c be 24 82 22 3e 21 13 ee be
       0.08701554 -0.1681093 0.15869957 -0.4649897
0001a0 93 10 83 3d 9c 73 a2 be 6b c0 00 3e ff da 15 3e
       0.06399646 -0.31728828 0.12573402 0.14634322
0001b0 48 7b 90 3c e6 d1 08 3e e0 ba d2 bd 7a 5a 67 3b
       0.01763691 0.1336132 -0.1028955 0.003530173
0001c0 63 cb 2d be cb 7d 1b be ec 13 cd 3c b2 28 c2 bd
       -0.16972117 -0.15184705 0.025033914 -0.09480418
0001d0 36 d7 5a bd 15 21 63 be e6 91 d8 3d 86 d6 50 3d
       -0.053427897 -0.22180589 0.10574703 0.050985835
0001e0 ee 56 90 3d dc 0c 3d bd 80 a4 cd bd d7 c6 e4 3b
       0.070478305 -0.04615484 -0.100411415 0.0069817114
0001f0 a8 be 48 be 7d f5 87 bc 2d 4d 3b 3e d0 c3 5e 3e
       -0.1960398 -0.01659655 0.18291159 0.21754384
000200 b9 0f 2f 3d e9 92 94 3d 64 f3 e8 bc c6 6d b4 bd
       0.042739604 0.072545834 -0.02843637 -0.0881
000210 31 37 98 bc 3e d8 14 be 4a c6 26 be 39 d3 a6 bd
       -0.018581005 -0.14535615 -0.16286579 -0.08145756
000220 67 4f ab bd 00 a1 b4 bd 1b 9e 45 bd 77 c8 74 bd
       -0.08364754 -0.08819771 -0.048246484 -0.05976149
000230 e1 9a fe bd f9 a1 95 bd 87 97 34 be 04 5f 74 bd
       -0.124318846 -0.073062845 -0.17635928 -0.059660926
000240 a0 db ce 3d 56 f8 20 3e 2c 81 d3 3d eb e8 1c 3e
       0.10100484 0.15719733 0.10327372 0.15323226
000250 eb b4 32 3e 98 66 f6 3d 5c b5 15 3e 9b db 39 3e
       0.17451827 0.12031287 0.14619964 0.18150179
000260 37 a5 d8 3c fc 86 b8 3d dd b1 8e be e1 42 f7 bb
       0.026445968 0.09010121 -0.27870074 -0.0075458144
000270 00 58 42 bd 94 49 85 be ef 55 4d 3e e1 15 2c bd
       -0.047447205 -0.26032698 0.20052312 -0.042013053
000280 d4 58 87 3e 83 0b 13 bc 83 e6 dc 3d e7 cc 97 bb
       0.26434958 -0.008974913 0.10786154 -0.0046325806
000290 c7 6c 5a be c6 54 07 3d cc d1 d5 bd 50 dd 1c 3e
       -0.21330558 0.03303983 -0.10440406 0.15318799
0002a0 dc 6e 3e bc c6 62 12 3e ea d7 f3 bc d0 0e 03 bd
       -0.011623111 0.14295492 -0.029766042 -0.03199655
0002b0 a7 86 e7 bb db fc a7 3c 74 6b 57 3d 43 1f ef bc
       -0.0070656124 0.020506313 0.05259271 -0.029189711
0002c0 a0 b4 18 3d 3e 0b 8c bd f3 c2 16 3e 13 3c 09 3d
       0.037281632 -0.06838082 0.14722805 0.033504557
0002d0 e1 37 ee 3c 10 e6 a4 be 76 09 8f bd 15 2d 82 3c
       0.02907938 -0.32206774 -0.069842264 0.015890637
0002e0 16 74 93 bd a1 ce ab bc e5 68 a8 3d bf 74 89 3d
       -0.07199876 -0.020972552 0.08223132 0.06711721
0002f0 3b 5b 8d 3d d4 df 84 bd 25 57 09 be 14 4c 1f 3c
       0.069021665 -0.06488004 -0.13412149 0.009722728
000300 83 d0 85 bd 76 8c 1c be 83 13 07 bd d7 39 41 bc
       -0.06533911 -0.15287957 -0.032977592 -0.011793575
000310 5e 83 0e 3e 61 d9 19 3e ec f2 87 3e 41 1b 4d 3d
       0.139173 0.1502433 0.26552522 0.05007482
000320 af 94 29 3d 89 61 b9 3e 07 74 83 3d 9a 6a 23 be
       0.04140156 0.36207226 0.06418615 -0.15958634
000330 a3 08 b3 3d 33 9d e4 bd 63 b8 53 bd 3d b0 bc 3d
       0.08741882 -0.11162796 -0.051689517 0.09213302
000340 68 f6 45 3d 44 00 ab bb 2e 31 56 3b df 57 25 3d
       0.048330694 -0.0052185375 0.0032683122 0.040367004
000350 16 31 4d bb cc 50 8d 3e fc 53 7b bc c8 35 bd 3c
       -0.0031309775 0.27600706 -0.015339848 0.023096934
000360 2a 2e d8 3d 24 17 f7 3d 9b d8 e1 3c db 11 75 3e
       0.1055568 0.120649606 0.027569106 0.23932593
000370 b2 7d 9c 3d f7 38 19 3d c0 b4 bc 3d 25 8b 4a 3d
       0.07641162 0.03740784 0.09214163 0.049449105
000380 14 c0 00 3c 37 0d 58 3e 89 53 64 3e 82 cf 31 3e
       0.007858295 0.21098791 0.22297491 0.17364314
000390 bb ea 34 3e ce fb bc 3d cc c2 2e 3d d4 52 1f 3d
       0.17667668 0.092277154 0.04266624 0.03889735
0003a0 67 e4 25 3d 75 ea db bd 5d 5b 75 3c 3e 55 3d bd
       0.040501025 -0.107380785 0.014975396 -0.04622387
0003b0 a1 39 f2 bd bf a9 81 3c 60 e3 37 bd 0d 31 de bd
       -0.11827398 0.015828012 -0.044894576 -0.108491994
0003c0 9b 06 a8 3c 65 7b 29 bc f9 cf ef bd ad ff 29 3e
       0.020510962 -0.010344361 -0.117095895 0.16601439
0003d0 ff ef dd 3d d8 ac 11 bb d2 59 94 3d 4a 78 a1 3d
       0.10836791 -0.0022228267 0.07243694 0.078842714
0003e0 e7 87 93 bc 89 69 e2 bd a4 ec d6 3c 98 67 5d bd
       -0.01800914 -0.110552855 0.026235886 -0.054053873
0003f0 1c 25 91 3e 3a 06 94 3e 27 c6 8e bd 77 3e 4d 3e
       0.28348625 0.28911 -0.06971388 0.2004336

rb1.conv2.bias f4 [10]
000000 64 6a 04 b7 76 ed db 37 90 92 9e b5 db 89 b0 38
       -7.892584e-06 2.621741e-05 -1.1814573e-06 8.4180116e-05
000010 b9 5f b6 37 34 ad 59 b8 29 da c9 38 ee 8a b6 38
       2.1740665e-05 -5.189814e-05 9.6250624e-05 8.704314e-05
000020 e3 79 25 37 5f 29 89 37
       9.863145e-06 1.6350938e-05

rb1.bn2.weight f4 [10]
000000 0e 7c 85 3f 0b 33 91 3f a2 76 4e 3f 9a 83 8d 3f
       1.0428483 1.1343702 0.8064977 1.1055787
000010 55 b7 3a 3f 6c 40 89 3f 44 93 a9 3f d9 d5 88 3f
       0.7293599 1.0722785 1.3248067 1.0690261
000020 32 7d 8e 3f a2 1d 5b 3f
       1.1131957 0.8559209

rb1.bn2.bias f4 [10]
000000 17 b1 79 3d 06 56 8a bd f2 8a 91 3e 6c 1d d9 bc
       0.0609599 -0.06754689 0.2842632 -0.026503287
000010 22 e8 82 3e f4 48 c4 3d b4 7e 77 bc 20 51 d2 3d
       0.25567728 0.09584227 -0.015105892 0.102693796
000020 14 96 6f 3d 73 b0 8d 3e
       0.058492735 0.27673683

rb1.bn2.running_mean f4 [10]
000000 a6 b4 a4 bf 1f 60 8c be 1b bf 3e 3f 79 97 b2 bc
       -1.286763 -0.27417085 0.74510354 -0.021800743
000010 41 48 17 bf e6 09 2f be 3c 2d 21 bf 55 a2 8e be
       -0.59094626 -0.1709362 -0.6295965 -0.27858225
000020 a8 22 bf 3d de aa ca 3f
       0.09332782 1.5833395

rb1.bn2.running_var f4 [10]
000000 9a 37 c2 3f fa 3a a1 3f b8 0c 73 3f 32 e6 cb 3f
       1.5173218 1.2596123 0.9494128 1.5929625
000010 14 7d 56 3f 9e 5e cd 3f 32 e0 fe 3f 88 e0 c9 3f
       0.83784604 1.60445 1.9912169 1.5771646
000020 8a 07 f1 3f 84 7c d1 3f
       1.8830426 1.6366124

rb1.shortcut.conv.weight f4 [10, 3, 1, 1]
000000 57 81 e7 3e d4 d3 36 3c 4d 2b ac 3e 56 e4 a7 be
       0.45215866 0.011158902 0.33626786 -0.32791394
000010 b2 cc 0c bf 6f be bd be 56 5c bd 3e 2f fa b5 be
       -0.5499984 -0.37059352 0.3698451 -0.35542437
000020 7a aa d5 3d 06 27 f2 be 29 49 33 bf 10 d6 30 3e
       0.104329064 -0.47295398 -0.7003351 0.17269158
000030 05 fc d2 bd d8 38 49 be 98 39 14 3f 51 f1 be 3e
       -0.10301975 -0.1965059 0.5790038 0.37293485
000040 c0 f1 11 3e f6 a4 f7 3e 83 72 bc be 97 05 ae be
       0.14252377 0.48368043 -0.36806116 -0.3398864
000050 47 60 a5 be 0b 8d 91 be 4b 9d 33 bf 49 74 87 3e
       -0.32300016 -0.2842792 -0.70161885 0.26455906
000060 93 52 9b be 09 60 05 bf 45 12 88 bd 9e 82 91 be
       -0.30336437 -0.52099663 -0.0664411 -0.28419966
000070 a3 15 6b 3d 9f a3 15 bf
       0.05739368 -0.5845279

rb1.shortcut.conv.bias f4 [10]
000000 07 0d 59 39 61 47 dd b8 67 b2 1a 39 52 f8 0f 39
       0.00020699586 -0.000105513966 0.00014753045 0.00013730049
000010 a6 ba e4 b7 4b dc 04 39 cc 02 1e 39 85 8a 9a b8
       -2.7266633e-05 0.00012670567 0.00015069096 -7.3690935e-05
000020 16 af 64 39 05 c0 26 b9
       0.00021808999 -0.00015902527

rb1.shortcut.bn.weight f4 [10]
000000 d2 1d 79 3f a5 cf 6a 3f b4 f9 80 3f 35 7d 64 3f
       0.9731113 0.9172309 1.0076203 0.8925355
000010 4b c7 91 3f 59 a0 6f 3f fa 90 14 3f 72 10 2e 3f
       1.1388944 0.93604046 0.58033717 0.67993844
000020 47 12 65 3f 03 e8 67 3f
       0.89481014 0.90588397

rb1.shortcut.bn.bias f4 [10]
000000 17 b1 79 3d 06 56 8a bd f2 8a 91 3e 6c 1d d9 bc
       0.0609599 -0.06754689 0.2842632 -0.026503287
000010 22 e8 82 3e f4 48 c4 3d b4 7e 77 bc 20 51 d2 3d
       0.25567728 0.09584227 -0.015105892 0.102693796
000020 14 96 6f 3d 73 b0 8d 3e
       0.058492735 0.27673683

rb1.shortcut.bn.running_mean f4 [10]
000000 4a 33 c1 bd 7e c0 14 3e 21 35 3a bc 5c 51 aa 3d
       -0.09433611 0.14526555 -0.011365206 0.08316299
000010 9c 27 89 bd a5 c8 00 be 41 3f f4 3d 7a b9 55 3d
       -0.06697008 -0.1257654 0.11926127 0.052178837
000020 03 be b8 3d 4b 5d ea 3d
       0.09020617 0.114435755

rb1.shortcut.bn.running_var f4 [10]
000000 90 49 0e 3e 2a d1 ad 3e 80 9e da 3b ec a2 65 3e
       0.1389525 0.33948642 0.0066717267 0.22425431
000010 b7 74 02 3d 08 a6 5f 3e 92 ed 6b 3e ba 42 f6 3d
       0.03184959 0.2184068 0.23039845 0.12024446
000020 b7 d2 30 3e 47 42 18 3e
       0.17267881 0.14869033

rb2.conv1.weight f4 [20, 10, 3, 3]
000000 15 a2 a7 3d a8 75 06 3e da 17 9d 3d b2 69 28 3e
       0.081852116 0.1313082 0.07670565 0.1644657
000010 a2 a6 6c 3e 17 72 f7 3d 29 4a 4b 3d 92 bb df 3d
       0.2311044 0.12082308 0.04963127 0.10924448
000020 f9 9f 03 3e ed 1e 16 3e c2 42 e6 bd 8e 3b ea bd
       0.12853993 0.14660235 -0.11243202 -0.114371404
000030 02 24 05 be ee 3e a5 bd 17 7a f6 bc c5 b8 1d 3e
       -0.13002017 -0.080686435 -0.030087514 0.15402515
000040 bf e0 1b be 7b 08 ce bd 02 8c c8 bd 50 e7 9f be
       -0.15222453 -0.10060211 -0.09792329 -0.31231165
000050 42 25 36 be 0b 61 0f 3b 36 03 83 be 4d a7 1f be
       -0.1778765 0.002187791 -0.25588387 -0.15591164
000060 ce ac 4c 3d cf de 50 3d bd 39 c7 bd 46 d4 ac bc
       0.049969487 0.050993737 -0.097278096 -0.021097314
000070 65 3f ea bd af 6e cc 3d 72 d9 ac 3d 29 e7 87 3d
       -0.11437873 0.09982049 0.08439912 0.06635887
000080 84 48 e0 3d dc 9f 09 3d c9 d9 2f 3d be 41 5b 3e
       0.10951331 0.03359972 0.042932305 0.21411797
000090 cd 42 9c bb aa 58 04 3e 8b a3 ef bc 7a a6 89 bd
       -0.0047687055 0.12924448 -0.029252788 -0.06721206
0000a0 a8 35 03 3c e8 cd a2 3d 57 ab 91 3c f4 c3 99 be
       0.008008398 0.0794943 0.017781897 -0.30032313
0000b0 a8 1f 6f be 18 79 d3 3d ed a0 44 3d bc 2a 8f 3d
       -0.2335192 0.10325831 0.048005033 0.06990573
0000c0 36 77 0a be 72 14 86 bd 92 fe a1 bd 9c 76 37 bd
       -0.13522038 -0.065468684 -0.079098836 -0.04479085
0000d0 69 47 ee be 32 9b fd bc ca 0f ef 3d 56 e5 b6 3d
       -0.46538857 -0.030957792 0.116729334 0.08930461
0000e0 fc 01 1e 3e c9 b0 8f 3d d1 34 38 3d 88 c9 ea 3d
       0.15430444 0.07016141 0.044972245 0.1146422
0000f0 f9 71 48 3d 98 d2 f0 bc 17 04 4d bd 3b ad 9c 3d
       0.048936818 -0.029397294 -0.05005273 0.076502286
000100 96 0f c2 bd 7e 4e 87 3d 4c fb b6 bd 9d 08 b7 be
       -0.09475629 0.06606768 -0.0893465 -0.3574876
000110 e2 41 79 bd 6e 93 79 3d 27 eb 1a be 5c b9 ee bd
       -0.060853846 0.060931616 -0.15128766 -0.11656448
000120 c0 5f 87 bc a9 26 42 3c 71 d8 27 be 05 3c 30 be
       -0.01652515 0.011850038 -0.1639116 -0.17210396
000130 47 a0 95 3d ff 37 26 3e 15 4b 27 be b0 4b 0c bd
       0.07305961 0.16232298 -0.16337235 -0.03425187
000140 8f 94 bf 3d aa 43 06 be aa 9e ca 3c f2 c8 0f be
       0.09354507 -0.1311175 0.02473386 -0.14041498
000150 e5 75 1c b9 b8 af 09 3d d1 08 ae bc 0f e4 af bd
       -0.00014921238 0.033614844 -0.021244438 -0.085884206
000160 1b 60 5d 3d 1f 5d 62 3e 55 0a 80 be 9d b4 35 be
       0.05404673 0.22105835 -0.25007883 -0.1774468
000170 6c 10 a2 bd 48 ea 39 3d f1 e8 40 bd 81 63 c7 3a
       -0.079132885 0.045389444 -0.04709715 0.001521215
000180 16 de 24 3e 4e 9c 44 3e ba 06 63 3e dc 82 91 be
       0.16100344 0.1920025 0.22170535 -0.2842015
000190 b1 92 12 be b2 e6 2d bd 80 4a 12 be 79 65 ab 3d
       -0.14313771 -0.042456336 -0.14286232 0.08368964
0001a0 73 94 a9 bb 28 a9 96 bd a6 95 12 bd a7 d3 03 bc
       -0.005175167 -0.07356483 -0.035787247 -0.008046067
0001b0 b0 5c 85 be 64 dc c3 be 54 08 79 be e6 23 cf 3d
       -0.26047277 -0.38254082 -0.24319583 0.10114269
0001c0 ff 8f ce 3c 16 3c c3 bc 0c f3 49 3e 2c a9 83 3e
       0.025215147 -0.023832362 0.19721621 0.25715005
0001d0 c1 8b 9e 3e a1 d8 8e bd 26 ff 80 3c fa b4 a7 bc
       0.30966 -0.069749124 0.015746664 -0.020472039
0001e0 e3 40 27 be 74 cf 59 3d 54 21 d6 bd 10 cb b6 bd
       -0.16333346 0.05317636 -0.104555756 -0.0892545
0001f0 04 89 96 bb 1a aa a9 bd 40 a5 3d 3e dd 8f 75 3e
       -0.0045939703 -0.082843974 0.18520069 0.2398066
000200 91 25 c6 3c b8 99 16 3c f6 43 5a bc 5f 41 07 be
       0.024187835 0.009191923 -0.013321867 -0.13208531
000210 12 16 3c be d1 88 7e be ab b4 69 be ec 05 72 bb
       -0.18367794 -0.24856879 -0.22822826 -0.00369298
000220 53 46 b3 bc 8c c9 13 3e ea 5e 79 bd af ba 2f 3d
       -0.02188412 0.14432353 -0.060881533 0.042902645
000230 50 aa 47 3d 65 67 31 3d b4 3f 56 bb 37 4c ae 3d
       0.048746407 0.043311495 -0.0032691779 0.085106306
000240 97 9a bd 3d 39 44 da 3d 20 51 42 3d ba b1 88 bd
       0.09258001 0.10657544 0.047440648 -0.06674524
000250 fc 60 24 3c 46 9e d6 bd f2 f7 a0 bc 7f dc 9d 3c
       0.0100328885 -0.10479407 -0.01964948 0.01927018
000260 6e f1 32 bd 51 44 19 3e 65 19 90 3e e2 87 04 3e
       -0.043687277 0.14967467 0.28144374 0.1294246
000270 96 2a 3a bc 34 35 97 3d b0 72 d0 3d 01 e1 09 be
       -0.011362692 0.073831946 0.10178125 -0.13464738
000280 98 11 77 3c d1 2c 60 bd 97 f9 da bd 91 55 93 3d
       0.015079878 -0.05473024 -0.10692137 0.07194055
000290 87 fe 98 bd bc e5 f3 bd 3e 2f 96 3d 46 77 35 be
       -0.07470422 -0.11909053 0.073332295 -0.1772128
0002a0 1a 9c e4 3c 77 d8 03 3d 75 18 76 bd 94 2b 7a bd
       0.027906466 0.03218886 -0.060081918 -0.061076716
0002b0 7c ac 5c 3c be e8 83 3c 51 9e 92 3c 46 2e 0b 3e
       0.013468858 0.016102191 0.017897757 0.1359187
0002c0 5c 55 5f 3d e5 d7 4e bc e2 fc 9a 3d fb 85 81 bd
       0.054524764 -0.012624715 0.07567765 -0.06324383
0002d0 13 5e e5 bc 90 da a0 3d ee 4d ca bd f2 da d0 bc
       -0.02799896 0.078541875 -0.09878145 -0.025495026
0002e0 e2 e9 3f 3d 23 9c 0e bd d9 fc a7 bc 55 44 56 bd
       0.046853907 -0.034816872 -0.02050631 -0.05231126
0002f0 07 2c 7a 3d a8 d8 1c bc a7 63 bc 3c 50 62 41 3e
       0.061077144 -0.009573139 0.022996737 0.1888516
000300 32 51 1a be 19 d3 94 3d 3a b0 f1 3d 63 61 ad bd
       -0.15070036 0.07266826 0.11801191 -0.08465841
000310 5b 7f 84 be 9a 4f 3b be 4f 41 d4 3d 4e bd 41 be
       -0.25878415 -0.18292084 0.10364019 -0.1891987
000320 93 52 68 3d bd fa 44 3e e8 51 bd bc 73 0e 93 bc
       0.056719374 0.19236274 -0.023110345 -0.017951226
000330 e4 18 65 3d b6 7d 41 3d 33 c6 82 3d a5 68 7b 3e
       0.05593194 0.047239028 0.0638546 0.24551637
000340 e9 fb 6a 3e ab 99 09 3e e5 f6 0a bd c0 05 43 3e
       0.22947659 0.13437526 -0.033926863 0.19045162
000350 ad 6c 33 3d 53 c4 b0 bd 6c 92 e5 3d 5c c4 13 3d
       0.043804813 -0.08631196 0.112095684 0.036075935
000360 e1 64 1f be 56 ab 20 3c 6d cc 84 bd f6 94 9c bd
       -0.15565826 0.009806475 -0.064843036 -0.076455995
000370 d2 5a 91 bd 0a fd 84 bb a9 3c c9 3d a7 ae 40 bd
       -0.07097401 -0.004058485 0.09826023 -0.04704156
000380 24 1a e1 bb 1c 9b 03 3e 08 5f 49 3d f5 51 b5 bd
       -0.0068695713 0.12852138 0.049162894 -0.08853523
000390 d7 e7 a6 be 74 d2 30 3d aa d3 23 3d 24 55 7d be
       -0.32598755 0.043169454 0.03999678 -0.2473951
0003a0 a6 da f2 3c bf ba ac 3d 41 3e 6f 3e 61 4b 3c 3e
       0.029645275 0.084340565 0.23363592 0.1838813
0003b0 0a 1c 0e 3d 26 f0 d3 bd d4 44 9d bd 80 64 f5 bd
       0.03469471 -0.10348539 -0.076791435 -0.119820595
0003c0 ce 89 17 bf f7 66 e5 be 59 46 0f be 68 df 34 bd
       -0.5919465 -0.44805118 -0.13991679 -0.04415837
0003d0 3a 02 e6 3a 23 e2 81 3d 8c d0 d4 bd 51 24 7c 3d
       0.0017548271 0.0634196 -0.1039134 0.06155807
0003e0 f5 29 b1 3d f8 2e 69 bd d7 c2 9c bd 47 0e bc bd
       0.08650581 -0.05692956 -0.0765435 -0.09182411
0003f0 84 e7 b8 bd 62 e1 9b bd f6 80 85 bc c9 ae 2a be
       -0.09028533 -0.07611348 -0.016296845 -0.16668238

rb2.conv1.bias f4 [20]
000000 8a 8d ac b5 aa d1 a8 b7 f6 81 0a 35 fb d1 85 b8
       -1.2856192e-06 -2.0124793e-05 5.1598124e-07 -6.381046e-05
000010 c4 d4 a1 36 89 2e 1b 38 19 22 03 b8 0a 61 00 b7
       4.822943e-06 3.699822e-05 -3.126459e-05 -7.651988e-06
000020 a7 3b f9 36 ee 06 2d 38 97 d3 6d 37 eb 01 66 37
       7.4277227e-06 4.1252868e-05 1.4175565e-05 1.3709515e-05
000030 da fa 16 b8 de c9 59 b7 56 78 c8 b6 74 1f c3 b7
       -3.599641e-05 -1.2981209e-05 -5.9744734e-06 -2.3260458e-05
000040 09 2c d3 37 f6 c9 d7 37 5d 13 78 37 dd e4 f5 b7
       2.5173666e-05 2.5724043e-05 1.478646e-05 -2.9312849e-05

rb2.bn1.weight f4 [20]
000000 12 9c 54 3f 2a e4 5e 3f ec 19 65 3f e6 5f 86 3f
       0.83050644 0.870669 0.8949268 1.0498016
000010 35 98 88 3f d5 8d 3d 3f 66 b5 73 3f a6 68 57 3f
       1.067145 0.74044544 0.9519867 0.84144056
000020 ec f0 2e 3f 8f 0a 5c 3f a6 2b 48 3f a1 8e 81 3f
       0.6833637 0.8595361 0.781916 1.0121652
000030 ee ee 81 3f 88 88 75 3f 93 b2 6b 3f 3d 22 8a 3f
       1.015104 0.95911455 0.9206936 1.0791699
000040 9f af 65 3f ed 73 61 3f 8a 8a 74 3f df 80 72 3f
       0.897211 0.88067514 0.95523894 0.9472789

rb2.bn1.bias f4 [20]
000000 23 db 12 3d 9c 04 20 be 2c 03 fb 3d 64 ec 34 bb
       0.035853516 -0.15626758 0.12256464 -0.002760672
000010 07 cd 8d be 6b 9d 75 bd 36 49 19 3d 34 00 2a 3e
       -0.27695486 -0.05996458 0.037423335 0.1660164
000020 da bc eb bb de 6d c4 3d fb 21 2b 3d a0 34 78 3d
       -0.0071941437 0.09591268 0.041780453 0.060597062
000030 1f a7 b7 bd c0 24 cd 3c 05 9f d5 bd 89 aa 9e bd
       -0.08967423 0.025041938 -0.10430721 -0.07747371
000040 ec 2f 0e 3e 53 34 de 3a 58 c6 fd 3d 34 0d b1 bd
       0.13885468 0.001695285 0.12391347 -0.086450964

rb2.bn1.running_mean f4 [20]
000000 05 68 99 bf b5 ae a5 be 02 c4 d0 bf 3c 9b 39 c0
       -1.1984869 -0.32359853 -1.6309817 -2.9000998
000010 3a 8c 9b bf 85 7c 1b 3e 2c 72 a7 bf dc 52 c4 bf
       -1.2152169 0.15184219 -1.3081717 -1.5337787
000020 17 49 ac 3f 61 47 84 be 5c 7f d9 be 81 01 86 bf
       1.3459805 -0.25835708 -0.4247998 -1.0469209
000030 56 4e 20 c0 fc ca 2f bf 88 8e 58 bf 77 2e ec bf
       -2.5047812 -0.68669105 -0.84592485 -1.845168
000040 d1 3a 02 c0 d4 b8 b1 be f3 79 f3 bf 28 e9 42 be
       -2.0348399 -0.34711325 -1.9021591 -0.19034255

rb2.bn1.running_var f4 [20]
000000 be f5 c9 3f c4 88 cc 3f 0d fd ed 3f 59 5b 38 40
       1.577812 1.5979238 1.859285 2.8805754
000010 a3 8e 17 40 a6 42 ba 3f e1 c7 10 40 7a cb 21 40
       2.3680809 1.455159 2.2621996 2.5280442
000020 d4 62 9f 3f 6f 51 9f 3f 8c 07 c1 3f 7f b3 0d 40
       1.2452035 1.2446727 1.5080428 2.2140806
000030 53 27 26 40 35 5b 03 40 cd 0d c4 3f 30 ba 28 40
       2.5961502 2.0524418 1.5316712 2.636364
000040 b8 ae 16 40 fe 87 f7 3f c9 69 ea 3f c4 8b 07 40
       2.354414 1.9338377 1.8313533 2.1179056

rb2.conv2.weight f4 [20, 20, 3, 3]
000000 82 aa 8a bc fb 26 c8 3d bb 22 79 bd 97 54 0c 3c
       -0.016927008 0.0977306 -0.060824137 0.00856509
000010 ea a9 11 3c f9 ab ef bd de 03 05 bd 4b b7 0f be
       0.008890608 -0.11702723 -0.03247439 -0.14034764
000020 2b ac 93 bd 92 95 5a be fc 4f 17 3e bb 6f 01 3e
       -0.07210573 -0.21346119 0.14776605 0.12640278
000030 99 91 c7 3c 32 f5 3c 3e 93 b1 00 3e cf 20 6e 3d
       0.024361419 0.1845291 0.12567739 0.058136757
000040 e1 b0 80 3d ce 63 15 3e 42 f3 94 3c a3 51 52 bd
       0.06283737 0.14588854 0.0181824 -0.051347386
000050 66 6c 3d 3d 77 df 20 3e 77 f9 57 3d 4c 9f b7 3b
       0.046245955 0.15710245 0.052728143 0.0056037065
000060 dc 64 51 3b 0b b4 53 bc f7 df f6 bd aa d5 36 be
       0.0031950986 -0.012921344 -0.12054437 -0.17854944
000070 62 82 a5 bc b6 87 09 be fe e8 cc bd 8c 6c d8 3d
       -0.020203773 -0.13430676 -0.10005377 0.10567579
000080 71 cf 7d be 78 15 8f be a2 c3 36 bd e0 b7 00 bd
       -0.24786164 -0.27946067 -0.044620164 -0.031425357
000090 42 46 fb bd 95 30 9c bd 5e fd d0 bd 6b ff f8 3b
       -0.1226926 -0.07626454 -0.10204576 0.0075988076
0000a0 3e ec 96 3c f1 df 0e bd 85 72 b1 3d 1a f2 22 3e
       0.018423196 -0.034881536 0.08664421 0.15912667
0000b0 db f1 41 3d ad 87 19 be 73 44 a8 bc a9 a2 ac bd
       0.047349792 -0.14993162 -0.020540452 -0.084294625
0000c0 69 9b 2a be 9f 63 18 3e 05 d0 fe 3c ef 09 93 3d
       -0.16660847 0.14881752 0.03110505 0.07179629
0000d0 f4 38 97 bc e7 2a fc 3c 2c 73 b3 bc 73 3c eb bb
       -0.018459775 0.030782176 -0.021905504 -0.007178837
0000e0 d7 da c4 bd 86 06 c2 3d f9 e5 7a 3b a8 03 ac bd
       -0.09612053 0.094739005 0.0038284047 -0.08399135
0000f0 c1 c7 fe bd b7 bc 23 be 6a 7a 0f 3d 1a 33 41 be
       -0.12440444 -0.15989958 0.035028853 -0.1886715
000100 22 b1 90 bd cb eb 0e be 45 9f 0a bd 6f e1 03 be
       -0.070650354 -0.13957135 -0.033843298 -0.12878965
000110 aa 2c 1b be ef 67 dc bd fa fa 57 be 2e 67 86 3d
       -0.15153757 -0.10762011 -0.21091834 0.06562649
000120 53 87 2d 3e 08 6a 87 be ad 4f 6a be d6 22 7e 3e
       0.16946153 -0.26448083 -0.22881956 0.24817976
000130 58 e5 42 3d 29 4d e6 bd 34 09 a8 bd 6d 80 11 3d
       0.047582 -0.11245186 -0.0820488 0.035522867
000140 a7 0c 01 3e 78 4d 57 3d 7f 4a 57 be eb 5b 55 be
       0.12602483 0.052564114 -0.21024512 -0.20835845
000150 66 94 aa 3d ca 7d da bd c0 9a 0e 3e 71 d4 4a bd
       0.08329086 -0.106685236 0.1392622 -0.049519006
000160 ed 67 8c 3d e5 8b 90 3e 5a 4d 2b 3c f5 93 99 3c
       0.0685576 0.2823173 0.010455454 0.01874731
000170 a0 c3 c6 bd 3a f3 3f 3e 34 42 9b 3d 16 5f 93 bd
       -0.09705281 0.18745127 0.075809866 -0.071958706
000180 59 4e 8e 3d bd a6 1c be 90 de 89 be f2 59 cb 3b
       0.069485374 -0.1529798 -0.26927614 0.0062057907
000190 4d 59 7c 3d 4b 84 0f 3e 3a cf 32 3c c1 04 5f bd
       0.0616086 0.1401531 0.0109136645 -0.054447893
0001a0 7b 8d 05 3e 1d 1e bd bd 61 96 ea bd a2 8a aa bd
       0.13042252 -0.09234259 -0.11454464 -0.08327223
0001b0 6e b1 e5 bc b0 44 86 3d 3b 05 99 bc 80 80 07 be
       -0.028038707 0.0655607 -0.018679252 -0.13232613
0001c0 c6 55 0d be b4 f4 c9 bd fc 96 9c be 5d 25 36 be
       -0.13802251 -0.098611265 -0.30583942 -0.1778769
0001d0 6b bd 3f be 01 2b 5f 3c e9 d4 00 3d b4 7b 48 bc
       -0.18724601 0.013621093 0.031453047 -0.012236524
0001e0 e9 b0 ed 3d c2 0f 0f bd fb 4a 98 3d 85 68 e7 3d
       0.116060086 -0.034927137 0.074361764 0.112992324
0001f0 0d 5e f3 bb e8 27 2a ba a8 44 32 3e 8d d3 90 3c
       -0.007426983 -0.0006490932 0.17409003 0.017679
000200 df 4e 29 3e fb fc 30 bc 2d c7 bd bd 65 24 fc 3d
       0.16533993 -0.010802503 -0.092665054 0.12311629
000210 31 b5 3b 3d b4 d4 06 3e 5a 8b 52 3e c4 66 86 3d
       0.045827094 0.13167077 0.20560971 0.0656257
000220 7a 4e 8e 3d 4c 82 03 3e 8e 6a 04 3c a6 69 c8 3d
       0.06948562 0.12842673 0.008082045 0.09785776
000230 59 b3 b6 3d a1 6f d6 3c f7 ee c7 bc f1 ea 59 be
       0.089209266 0.026176276 -0.02440594 -0.2128103
000240 10 65 85 3d 16 7f 6b bb 53 e7 09 3d 86 4a 62 3d
       0.06513417 -0.0035933903 0.033667874 0.055246852
000250 6c c9 dd 3d 63 ce 32 3d ba a2 cd bd 83 9e 31 bd
       0.10829434 0.043653857 -0.10040803 -0.04336406
000260 db 07 52 3d 05 a5 98 3d 3e 88 d9 bd 08 10 cd 3b
       0.051277023 0.0745335 -0.10621689 0.0062580146
000270 04 2c 93 3c 75 42 27 be 95 f8 3e 3d 7a 24 a5 bb
       0.017965324 -0.16333945 0.046623785 -0.0050397487
000280 25 ee d6 bc a2 11 89 bd 5f 96 0e be e8 43 0a bc
       -0.026236603 -0.06692816 -0.1392455 -0.008439042
000290 da 5c 77 bc fb c3 01 be a6 ef f1 3d 53 f1 7d 3d
       -0.015097821 -0.12672417 0.118132874 0.061997723
0002a0 f4 68 7a be fc b2 08 bd 80 88 e0 bd 67 35 7a 3e
       -0.24454099 -0.033373818 -0.10963535 0.24434434
0002b0 35 5c 3a 3d d2 e4 ca 3d 12 ae 64 3d ec cb a2 3d
       0.04549809 0.09906925 0.05583007 0.07949051
0002c0 4c de 1b 3e 65 db 19 3e 56 c6 3d 3e e4 cb 3d 3d
       0.15221518 0.15025099 0.1853269 0.046337023
0002d0 3e fb 10 3e 5a 01 0b 3e a4 4f 40 be 51 1a 62 be
       0.14158341 0.13574734 -0.1878038 -0.22080351
0002e0 2d 21 99 3d a1 c5 d9 bd fa dd 5d 3b c0 2d 81 bd
       0.07477031 -0.10633398 0.0033854232 -0.06307554
0002f0 4e dd fe bd 9d 34 96 bd db 6f 71 be af 83 34 bd
       -0.12444554 -0.07334254 -0.23577826 -0.044070896
000300 35 92 08 3e de 95 f1 bc 6b f2 a5 3d f1 05 a2 3d
       0.13337024 -0.029490408 0.08102878 0.079112895
000310 71 42 82 3d b6 67 b8 ba 50 33 cf bd 83 61 a7 bd
       0.06360329 -0.0014068994 -0.10117209 -0.08172896
000320 72 e0 63 bd 19 14 66 be 63 93 99 bd 01 0b 0b bd
       -0.05563397 -0.22468604 -0.07498815 -0.03394604
000330 f7 40 1b bd fd 8f 0a 3d 56 4e 56 3d 35 88 0d be
       -0.037903752 0.033828724 0.0523208 -0.1382149
000340 fc 59 0f 3c bf 37 9e bc 23 87 11 be e4 22 b4 3d
       0.008749481 -0.019313691 -0.14211707 0.08795717
000350 74 cc e8 bd e7 7a 6d be 3b 08 1e be ba aa 16 be
       -0.11367121 -0.23191415 -0.15432827 -0.14713565
000360 8f 89 46 be 0e d7 0e be e7 59 f3 bd ab 61 81 bd
       -0.19388412 -0.13949224 -0.11882382 -0.06317457
000370 20 7e 9a 3b d8 5b 2b be a2 48 be 3d c2 ac 8e bd
       0.0047147423 -0.16734254 0.09291197 -0.06966545
000380 69 cc fd bd 84 5b 54 bd ad b5 93 bd 13 5d 26 3e
       -0.12392504 -0.05184509 -0.07212386 0.16246442
000390 bb 5a 6f be 15 e3 60 be b3 3a 8e 3d d3 c0 c3 3c
       -0.23374455 -0.21961625 0.0694479 0.023895657
0003a0 6a 9e a6 bc 4b 87 ad 3d 43 cb d0 bc ac ae 30 bd
       -0.02033921 0.08473071 -0.025487548 -0.04313533
0003b0 12 91 18 3e bc 80 49 bd d9 e7 d2 3b b2 1a 1d 3d
       0.1489909 -0.049195036 0.00643633 0.038355537
0003c0 ab 93 00 bc 66 d6 ef 3d f4 fd 78 bc a0 1d 00 3d
       -0.007847707 0.11710815 -0.015197266 0.031278253
0003d0 cb b0 9f 3c 0e ae 53 be 0e 91 85 3d bd 76 de 3d
       0.019493481 -0.20671865 0.065218076 0.10862491
0003e0 a9 a6 a6 bd 3f 6e f8 bc 26 eb 82 bd 8a ca eb bd
       -0.08137257 -0.030326007 -0.06392507 -0.11513241
0003f0 8c e9 06 be 45 e2 60 bd 47 4a a6 bd 82 fd cf 3d
       -0.13175029 -0.054903287 -0.08119636 0.10155775

rb2.conv2.bias f4 [20]
000000 b2 f4 90 35 c1 bd 9d 36 3d fc d2 b8 69 3f cb b7
       1.0800052e-06 4.701055e-06 -0.00010060563 -2.4229013e-05
000010 f6 83 ea b7 b1 21 12 38 f6 82 ce 37 27 75 88 b7
       -2.7956423e-05 3.484049e-05 2.4618097e-05 -1.6267017e-05
000020 d3 75 bb 38 47 c0 50 b8 95 ae 6d b7 c2 d4 cb 35
       8.938801e-05 -4.9770137e-05 -1.4166949e-05 1.5186599e-06
000030 a4 bc 00 39 7b 4f 62 b7 04 e5 f8 36 49 4a 55 38
       0.00012277305 -1.3489155e-05 7.417637e-06 5.085234e-05
000040 ae b9 1b 38 61 68 8d 35 77 ae 34 38 20 65 e1 b3
       3.7127807e-05 1.0535697e-06 4.3077827e-05 -1.04957735e-07

rb2.bn2.weight f4 [20]
000000 b7 e8 59 3f 5d 85 6c 3f 01 53 98 3f 91 ad 8e 3f
       0.8512072 0.92390996 1.1900331 1.1146718
000010 d3 7b 98 3f d8 3b 8b 3f d2 37 9f 3f 4f 80 9c 3f
       1.1912788 1.0877638 1.243891 1.2226657
000020 e9 e2 9d 3f 72 14 94 3f b7 f0 93 3f 31 cd 7f 3f
       1.2334872 1.156874 1.1557835 0.9992247
000030 d2 88 94 3f 0a 92 81 3f 7f 83 8c 3f 58 1f a3 3f
       1.1604254 1.0122693 1.097763 1.274394
000040 8c 10 ab 3f 07 65 a5 3f 25 73 8e 3f 1a 7d 5e 3f
       1.3364425 1.2921456 1.1128889 0.8690964

rb2.bn2.bias f4 [20]
000000 50 8e 51 3e a7 00 4e 3d 70 09 42 be 7f 49 d5 3a
       0.20464444 0.05029359 -0.18948913 0.0016272514
000010 ff cb a0 bd 0d b6 2a be ad e6 b4 3d 18 da 6f be
       -0.07851409 -0.1667101 0.088330604 -0.2342304
000020 5c 3e 6e 3e 46 42 26 be 9b aa 59 3d 46 61 08 be
       0.23265976 -0.16236219 0.053141218 -0.13318357
000030 1c ac 49 bc 7a 9b 3e 3d 95 af 82 bc 2e 57 33 3e
       -0.0123091005 0.046534993 -0.015952865 0.17513725
000040 fa 7a b5 bc ca f0 ff bd 0f cf ce 3d 9e 01 8b be
       -0.022153366 -0.12497099 0.10098087 -0.2714967

rb2.bn2.running_mean f4 [20]
000000 6c 53 1f bf 68 3a 05 c0 2e db 88 bf 0a e4 90 bf
       -0.62236667 -2.0816898 -1.0691888 -1.1319592
000010 c6 9e 41 bf f4 1f f2 3d 66 11 9c bf bf 1e fd 3e
       -0.75632894 0.11822501 -1.219281 0.4943752
000020 df dd 38 c0 a6 cb 6d bd 9a 7d 73 bf fb 2d 2a 3d
       -2.888542 -0.058055542 -0.9511353 0.041547757
000030 29 68 e8 bf 38 ca f5 be 0b fb 86 3e 16 5f b6 bf
       -1.8156787 -0.48005843 0.26363406 -1.4247768
000040 ce a5 30 c0 50 5b c3 bd 04 1c 16 c0 d6 bb 70 3e
       -2.76012 -0.09538901 -2.34546 0.23509154

rb2.bn2.running_var f4 [20]
000000 f7 5b 60 3f 66 5f 6c 3f 26 df 2e 3f 18 2e 90 3f
       0.8764033 0.92333066 0.6830925 1.1264067
000010 a4 e4 28 3f 9d 06 8b 3f 51 7b 95 3f 04 d1 2a 3f
       0.6597388 1.0861393 1.1678258 0.6672518
000020 67 b2 98 3f 98 7c 5b 3f 3a 75 50 3f b4 d8 30 3f
       1.1929444 0.8573699 0.81428874 0.6908066
000030 8c ce 28 3f 81 d3 7c 3f b4 fc a0 3f a9 8e 82 3f
       0.65940166 0.9876023 1.2577119 1.0199786
000040 aa fd 72 3f e0 2b 83 3f af 87 63 3f 23 f3 26 3f
       0.9491831 1.0247765 0.8887891 0.6521475

rb2.shortcut.conv.weight f4 [20, 10, 1, 1]
000000 de b8 a4 bc 20 ca 9b bd 72 76 c5 be 15 72 bd bd
       -0.020107683 -0.07606912 -0.3856693 -0.09250275
000010 1b 0b 03 3f 5b 78 af bc cc 9a ad 3a 71 69 43 bc
       0.5118882 -0.021419695 0.0013244986 -0.011926995
000020 7d c7 76 bc 30 60 75 be 5a 77 74 bd ac 81 04 3e
       -0.01506221 -0.23962474 -0.059684135 0.12940091
000030 a1 66 18 bf 7e ed 9d 3d 94 51 2e be a8 a8 5a be
       -0.595316 0.07711314 -0.17023307 -0.213534
000040 72 ea 04 bd 34 8e 57 bc 79 e3 33 3c bb 8a 2d 3c
       -0.032450147 -0.013156462 0.010979527 0.010592158
000050 ab 12 cc bd 7d ca 03 be 67 e9 13 bd 90 8a e0 bc
       -0.09964498 -0.12870212 -0.03611126 -0.027409822
000060 17 ee 57 3d 73 83 c0 3e 6e 46 1c 3e fd 44 ee 3d
       0.052717295 0.37600288 0.15261242 0.11634252
000070 00 46 16 be c3 4c c1 be e6 12 7e bd 74 33 bb bb
       -0.1467514 -0.37753877 -0.06202974 -0.005712921
000080 f4 87 a8 3e 66 62 0c 3e b0 cf 46 3e 1a 82 1a be
       0.32916224 0.13709411 0.19415164 -0.15088692
000090 41 02 7f 3e 1e 75 54 3e 88 bd da 3e db 66 08 be
       0.24903204 0.20747802 0.42722726 -0.13320486
0000a0 48 ce 01 be 1b c0 4b 3d 1f 1d 67 3d 83 d6 dd 3e
       -0.12676346 0.049743753 0.056424256 0.43327722
0000b0 f6 2c 94 3d ba f3 8b bd 95 64 bc bc 47 29 a0 bd
       0.07235138 -0.068335965 -0.02299718 -0.07820373
0000c0 fe 75 b6 3e af 83 d4 bd 8e 3b 8e 3e c7 0c 3a 3e
       0.35636896 -0.10376679 0.27779812 0.18168937
0000d0 8b 76 de bd f0 a4 bd be 38 c5 89 bd 8a 60 93 bd
       -0.10862454 -0.370399 -0.067270696 -0.07196148
0000e0 23 64 4c 3e e4 17 0b be ba 44 13 be 6a 25 ce be
       0.19960074 -0.13583332 -0.14381686 -0.4026292
0000f0 70 6b e4 bd 55 e3 24 3e 6b ec 83 3c 53 91 a5 be
       -0.111533046 0.16102345 0.016103944 -0.32337436
000100 3d ac d9 3c ab 8a c8 be f1 be 82 be 49 02 99 3d
       0.026571387 -0.39168295 -0.25536302 0.07471139
000110 32 90 81 3e 00 91 8d bd 85 36 37 3e 6e 64 40 3e
       0.25305325 -0.06912422 0.17891891 0.18788311
000120 9a 64 dc 3b c2 ab 43 bd 5d 90 26 be 36 ca 47 bd
       0.00672586 -0.047771223 -0.16266008 -0.048776828
000130 d5 e2 95 be 6e 5a 50 3d a3 ca 18 bf 8f ac 43 be
       -0.29274622 0.05086749 -0.596842 -0.19108795
000140 66 c1 cb bd af bc 0a 3e 52 6d a8 bd 6f 8c 6c bd
       -0.09948997 0.1354854 -0.08223976 -0.057751115
000150 d5 d2 34 bf ce 97 bb bd 44 43 1e bb d7 03 8b 3e
       -0.70634204 -0.09159814 -0.002414898 0.27151367
000160 97 df b2 bd fa 31 6d bb 3b 3a 86 be 35 b4 bb 3e
       -0.08734053 -0.0036193118 -0.262163 0.36660925
000170 be ef 1b be 31 3b 44 be d3 86 43 3e ad e5 f9 bd
       -0.15228173 -0.19163205 0.190944 -0.1220201
000180 f9 94 47 bc 39 3d 04 3e ab 13 05 3b 2a 4c c9 be
       -0.012181514 0.1291398 0.0020305912 -0.3931592
000190 6a c4 b2 bc 68 4a 73 3d 02 eb d6 be 45 ce 88 3e
       -0.021822173 0.05939713 -0.41976172 0.2671987
0001a0 1d a2 9f be f0 d0 08 be 87 ad 8a 3e 25 ae 67 3d
       -0.3117837 -0.13360953 0.27085516 0.05656256
0001b0 9d fe fd 3d 79 ab 4f 3d be 88 22 3c 46 90 ce bc
       0.12402079 0.05070064 0.009920297 -0.02521528
0001c0 4a 19 a3 be a5 07 80 3e 2b 28 8b 3e ea 05 73 3e
       -0.31855232 0.25005832 0.27179083 0.23732725
0001d0 a9 9e b4 bd e7 a4 93 bd c3 b4 13 3e 67 81 51 be
       -0.088193245 -0.07209187 0.14424424 -0.2045952
0001e0 a8 d9 c6 bd 5e 8f b5 be d5 69 63 3e 9e f5 a8 3e
       -0.097094834 -0.35460943 0.2220834 0.3299989
0001f0 6b 56 d3 bd f4 79 d2 bc 87 1b 68 3d f7 0d e4 bd
       -0.10319217 -0.025692917 0.056666877 -0.11135476
000200 66 9a c4 be 29 14 d9 3d 84 cc 64 bd e0 67 3b be
       -0.38399047 0.10599548 -0.055859104 -0.18301344
000210 a3 44 e4 bd c6 fd c2 bd ad fd 32 3d 2c b0 00 3e
       -0.11145904 -0.0952106 0.043698955 0.12567204
000220 66 d9 d6 3d f7 40 94 3d 0d fb 24 bf bb 12 21 be
       0.10490684 0.072389536 -0.64445573 -0.15729801
000230 7d f2 cc 3c 1c ff 85 be 13 c5 0a bc 51 fb 3a be
       0.025017971 -0.26171196 -0.008469838 -0.18259932
000240 4e f6 94 bc ac 85 bd be 1e ab cd be 85 fb b3 bd
       -0.018183853 -0.37016046 -0.40169615 -0.08788208
000250 c5 af b8 bd 31 41 43 3e f0 a5 bc 3e d1 7e ad be
       -0.090179004 0.19067837 0.3684535 -0.33885816
000260 2f 31 71 3e 0c f6 f4 3d 4b b9 0a be b6 e3 0d 3e
       0.23553918 0.11960992 -0.13547246 0.13856396
000270 8c 14 18 3e 0d 5a e7 bd bc ce 9d be 51 92 07 bd
       0.14851588 -0.11296473 -0.30821788 -0.033098523
000280 35 a7 21 3e 92 98 a1 3e 4d 69 07 be 02 11 b7 3d
       0.1578644 0.31561714 -0.13223763 0.08938791
000290 65 66 0a 3c 34 a9 8e 3e 22 92 4a 3e 13 e1 e1 3d
       0.008447264 0.27863467 0.19782308 0.110292576
0002a0 a9 a5 ce 3d e3 43 bc 3a 06 2f 68 3d d3 ba af 3d
       0.10090191 0.0014363494 0.05668547 0.08580556
0002b0 2d 6d 8e be db 27 f0 3d 25 66 4a 3d bf fa 7d 3e
       -0.2781767 0.11726352 0.04941382 0.24802683
0002c0 21 74 82 3e 59 43 d4 3e 0f 23 19 3e 07 e8 fa bd
       0.25479224 0.41457632 0.1495478 -0.12251287
0002d0 63 3a ec 3c 80 20 c3 3d ba 78 01 bd 66 9c 87 be
       0.028836435 0.09527683 -0.031609274 -0.2648651
0002e0 df 1d 71 bc e1 e4 50 3d 3d 42 3f bc 48 04 9f be
       -0.0147165945 0.050999526 -0.011673507 -0.31057954
0002f0 b2 77 f1 be bd 8d 12 bd bf ab 7c be e5 af 0f be
       -0.47161633 -0.035779703 -0.24674891 -0.14031942
000300 df 7f c2 3e db 40 f7 bb 14 74 28 3e 48 11 86 bd
       0.37988183 -0.007545573 0.1645053 -0.06546265
000310 d4 32 a4 3d b4 e6 da bd 72 13 63 be c5 23 c3 3d
       0.08017507 -0.106885344 -0.22175387 0.09528307

rb2.shortcut.conv.bias f4 [20]
000000 24 15 03 b8 68 43 0b 37 14 0a 2f b7 ee 7f f5 37
       -3.1252523e-05 8.30074e-06 -1.0433159e-05 2.9265848e-05
000010 55 5a 41 b8 00 f6 0f 38 b3 58 08 b8 a3 59 a7 37
       -4.6098914e-05 3.4322962e-05 -3.2507534e-05 1.9949692e-05
000020 12 da a1 b7 69 7e 87 b8 50 38 5f b6 fe a5 72 b7
       -1.9294243e-05 -6.460847e-05 -3.3262368e-06 -1.4462972e-05
000030 c6 0c 49 38 55 7a cd 36 7c c0 cd b6 89 f2 da b7
       4.793403e-05 6.1237174e-06 -6.131884e-06 -2.6100564e-05
000040 98 b7 a4 b7 f6 87 55 36 bd bc 3c 37 06 d9 9c 37
       -1.9635816e-05 3.1818613e-06 1.1249617e-05 1.8697709e-05

rb2.shortcut.bn.weight f4 [20]
000000 c2 76 73 3f 3c 46 33 3f 24 28 69 3f ae 98 07 3f
       0.95103085 0.70029044 0.91076875 0.52967346
000010 ce e7 2f 3f 68 d5 31 3f 5d e8 0a 3f 29 39 46 3f
       0.6871308 0.6946626 0.5426081 0.7743097
000020 19 cb 4f 3f f7 94 58 3f 14 28 10 3f ae f4 2d 3f
       0.8116928 0.846023 0.56311154 0.67951477
000030 fe ec f7 3e e5 d4 5e 3f 79 78 8a 3f 45 99 f3 3e
       0.48422998 0.870436 1.0818015 0.47577873
000040 6b 91 33 3f ae b2 07 3f b0 c9 b4 3e 6e b2 3c 3f
       0.70143765 0.5300702 0.35310125 0.7370976

rb2.shortcut.bn.bias f4 [20]
000000 50 8e 51 3e a7 00 4e 3d 70 09 42 be 7f 49 d5 3a
       0.20464444 0.05029359 -0.18948913 0.0016272514
000010 ff cb a0 bd 0d b6 2a be ad e6 b4 3d 18 da 6f be
       -0.07851409 -0.1667101 0.088330604 -0.2342304
000020 5c 3e 6e 3e 46 42 26 be 9b aa 59 3d 46 61 08 be
       0.23265976 -0.16236219 0.053141218 -0.13318357
000030 1c ac 49 bc 7a 9b 3e 3d 95 af 82 bc 2e 57 33 3e
       -0.0123091005 0.046534993 -0.015952865 0.17513725
000040 fa 7a b5 bc ca f0 ff bd 0f cf ce 3d 9e 01 8b be
       -0.022153366 -0.12497099 0.10098087 -0.2714967

rb2.shortcut.bn.running_mean f4 [20]
000000 f7 58 b4 be 09 96 5f bf f7 53 0f be 31 da 83 3f
       -0.35224125 -0.8733831 -0.13996874 1.0300962
000010 e6 32 da 3e 7b cd 33 bf b8 e6 11 bf 2c 1f 5a bf
       0.42616957 -0.70235413 -0.56992674 -0.85203815
000020 bb 95 33 bf 67 7f 0a bf 46 91 2e be dd b3 d3 3d
       -0.70150346 -0.5410065 -0.17047605 0.103370406
000030 ab 44 58 be 20 3c 42 bf a0 c0 6f bf 60 6c 14 3e
       -0.21119945 -0.75872993 -0.936533 0.14494467
000040 5f ff 64 3f 49 c9 45 3f ce a5 59 bf e0 02 56 3d
       0.89452165 0.7726026 -0.8501862 0.052248836

rb2.shortcut.bn.running_var f4 [20]
000000 a7 49 06 3f 2a 20 ca 3e 2e 26 b8 3e 8b f9 04 3f
       0.52456135 0.39477664 0.3596663 0.5194327
000010 1b 0b d9 3e ae 09 ed 3e ff 52 bb 3e 3e af 10 3f
       0.42391285 0.46296448 0.36586758 0.565174
000020 a7 35 c3 3e cb 9d 9d 3e 26 13 e3 3e 19 31 9a 3e
       0.3812687 0.3078445 0.44350547 0.30115584
000030 4f 9a 7b 3e 0b ee 2a 3f b4 7b e8 3e 15 7e c2 3e
       0.24570583 0.66769475 0.45406878 0.37986818
000040 2c e3 9c 3e 96 d0 cc 3e 08 02 07 3f f1 0a 28 3e
       0.30642068 0.40002888 0.52737474 0.16410424

res1_sc1.conv.weight f4 [20, 3, 1, 1]
000000 ed 4f 0c bf d6 65 b5 3d 6d f9 aa 3e c8 91 7b be
       -0.5480946 0.08857314 0.33393422 -0.2456733
000010 a0 8f 0f 3f 5c 28 71 be c3 3b 41 3c e9 52 9d be
       0.5607853 -0.23550552 0.011794033 -0.30727318
000020 34 87 c8 be 35 21 c5 3e 9d c8 ae be 08 ec ae be
       -0.39165652 0.38501897 -0.3413743 -0.34164453
000030 8e c1 f5 3e 83 03 ff bd 6e 46 62 3e fd 8b 0b bf
       0.47999233 -0.12451842 0.2209718 -0.5451048
000040 83 f2 bd be df 38 a7 3e 44 4c 34 be f4 07 be 3e
       -0.37099084 0.32660577 -0.17607218 0.37115443
000050 1a 91 03 3f db 62 b8 3e 1b ee 0f bf 92 14 a9 be
       0.5139328 0.3601292 -0.56222695 -0.33023506
000060 b3 26 2b 3e 56 70 09 3f 84 f6 34 be 90 d1 87 3e
       0.16713981 0.53687036 -0.17672163 0.2652707
000070 72 12 85 be ee 2a bd be fc 20 c5 bd fd 71 81 be
       -0.25990635 -0.36946815 -0.09625432 -0.2528228
000080 dd b8 c4 be 82 5d 19 3e 7e fc ac bd e8 1c d5 be
       -0.3842229 0.14977077 -0.084465966 -0.41623616
000090 44 33 b5 be 44 97 4c be 77 c2 62 bd 6a f4 5e 3b
       -0.35390675 -0.19979578 -0.055361237 0.0034020194
0000a0 51 19 1a be bc fd f5 be 19 5e 69 be 16 47 6f 3e
       -0.1504872 -0.48045146 -0.22789802 0.23366961
0000b0 ff 83 b5 3e de 48 c2 3e e5 e1 22 3e 09 97 86 be
       0.35452268 0.37946218 0.15906484 -0.26287106
0000c0 50 dc bb 3d 33 3c ac be 1a be 7b 3d 4d e1 6d 3d
       0.09172881 -0.33639678 0.06146059 0.05807619
0000d0 37 c4 b1 be ec 7c 70 3d 4f f6 79 3e da 44 9d 3e
       -0.34720013 0.058712885 0.24410366 0.30716592
0000e0 98 57 bd bd 95 7b 05 bf ab ca 16 3e 77 d4 90 3d
       -0.09245223 -0.52141696 0.14725749 0.070717745

res1_sc1.conv.bias f4 [20]
000000 ae c7 3b 38 d7 65 54 36 9f ea 96 b8 4f d5 56 38
       4.477024e-05 3.164974e-06 -7.196259e-05 5.1220235e-05
000010 62 ac a0 37 a5 a3 c3 38 42 55 a9 37 f6 39 30 38
       1.9153758e-05 9.328806e-05 2.0186071e-05 4.201565e-05
000020 bc 09 00 b6 c9 79 37 38 20 94 e9 b7 40 fa ac b8
       -1.9079152e-06 4.374402e-05 -2.784474e-05 -8.248212e-05
000030 db a8 a1 38 b4 ff bb b8 08 be be b7 17 ee 1b b8
       7.70853e-05 -8.964483e-05 -2.2738255e-05 -3.717662e-05
000040 12 79 1a 39 ae 8b 8b b6 6f 1e 35 38 6e 58 20 b9
       0.00014731687 -4.1587837e-06 4.3182106e-05 -0.00015291732

res1_sc1.bn.weight f4 [20]
000000 7c 34 51 3f 10 b7 69 3f 99 77 2e 3f b0 6a 10 3f
       0.8172071 0.91294956 0.6815124 0.5641279
000010 e0 79 04 3f 37 f6 1d 3f 8e be 0c 3f a9 b3 19 3f
       0.51748466 0.6170382 0.54978263 0.60039765
000020 97 5c 1d 3f 89 33 27 3f e3 bc 17 3f 9f 13 15 3f
       0.61469406 0.6531301 0.59272593 0.58233064
000030 d3 0d f2 3e 17 0b 19 3f 5d e3 27 3f 6c 9e c2 3e
       0.47276172 0.59782547 0.65581304 0.3801149
000040 2c ef 0b 3f f5 df f8 3e df 22 dc 3e 4d 1b 50 3f
       0.5466182 0.48608366 0.42995355 0.8129166

res1_sc1.bn.bias f4 [20]
000000 50 8e 51 3e a7 00 4e 3d 70 09 42 be 7f 49 d5 3a
       0.20464444 0.05029359 -0.18948913 0.0016272514
000010 ff cb a0 bd 0d b6 2a be ad e6 b4 3d 18 da 6f be
       -0.07851409 -0.1667101 0.088330604 -0.2342304
000020 5c 3e 6e 3e 46 42 26 be 9b aa 59 3d 46 61 08 be
       0.23265976 -0.16236219 0.053141218 -0.13318357
000030 1c ac 49 bc 7a 9b 3e 3d 95 af 82 bc 2e 57 33 3e
       -0.0123091005 0.046534993 -0.015952865 0.17513725
000040 fa 7a b5 bc ca f0 ff bd 0f cf ce 3d 9e 01 8b be
       -0.022153366 -0.12497099 0.10098087 -0.2714967
