models/dense_max/epoch_0039.pth (torch, 645162 bytes, 174 tensors)

rb1.conv1.weight f4 [10, 3, 3, 3]
0	0xbda764b6	-0.08173506
1	0x3da84cf2	0.08217801
2	0xbd967a50	-0.07347548
3	0xbe6ee723	-0.23330359
4	0x3e8bfdf2	0.27342182
5	0x3e382ca9	0.17985786
6	0xbe53e620	-0.20693254
7	0x3e3e3c80	0.18577766
8	0xbdf8918f	-0.12137138
9	0xbe3a4786	-0.18191347
10	0x3c4773f8	0.012173645
11	0xbd272bea	-0.040813364
12	0xbe9da631	-0.30790856
13	0x3e9413e8	0.28921437
14	0x3e2aa756	0.16665396
15	0xbc855573	-0.016276097
16	0x3e8dcd5c	0.2769574
17	0xbe661bf2	-0.22471598
18	0xbcb83821	-0.022487702
19	0x3b716f72	0.0036840108
20	0xbdbc4d77	-0.09194463
21	0xbe63f60f	-0.22261833
22	0x3d604510	0.054753363
23	0x3c02364c	0.007947516
24	0x3e02d293	0.1277564
25	0x3d8ed330	0.069738746
26	0x3e11a039	0.14221276
27	0x3d6c0f02	0.0576315
28	0x3c761c65	0.015021418
29	0x3e255de4	0.16149098
30	0x3d5c351f	0.053761598
31	0x3e10e91e	0.14151427
32	0xbeb7f038	-0.3592546
33	0xbd58017f	-0.0527358
34	0x3d13cf63	0.03608645
35	0xbd90c2f3	-0.070684336
36	0xbd0ee5ff	-0.03488731
37	0xbcd09a9c	-0.025464348
38	0xbbb47fb6	-0.0055083884
39	0xbd241162	-0.04005564
40	0x3edc6fe0	0.43054104
41	0xbe6add92	-0.22936085
42	0xbd629e7a	-0.055326916
43	0x3daa21bb	0.08307215
44	0xbe01e457	-0.12684761
45	0xbe0deb7a	-0.13859358
46	0xbe3272bb	-0.17426579
47	0x3dfa0bfb	0.12209316
48	0x3be8d7cf	0.0071058045
49	0x3eb5c0e9	0.3549874
50	0xbe8a4867	-0.27008364
51	0xbb0026f2	-0.0019554463
52	0x3dc3672e	0.09541164
53	0x3d363cc8	0.04449156
54	0x3d053ae9	0.032526884
55	0x3e8e103d	0.27746764
56	0x3e3e853e	0.18605515
57	0xbe05aaa3	-0.13053374
58	0xbd92e4e4	-0.07172564
59	0x3dc359bc	0.095386
60	0xbd7773a0	-0.060413003
61	0xbe65efa7	-0.22454701
62	0x397da059	0.00024187694
63	0x3e78dfd6	0.24304137
64	0x3e79f8d9	0.24411334
65	0x3ea12c50	0.3147912
66	0x3b5b1e39	0.0033434762
67	0xbe2ec274	-0.17066365
68	0xbde58482	-0.112069145
69	0xbde32863	-0.110916875
70	0xbe89f29d	-0.26942912
71	0xbe38e79c	-0.18057102
72	0x3d5e4a59	0.054270122
73	0x3e2eee00	0.17082977
74	0x3d761281	0.06007624
75	0xbad73ef1	-0.0016421956
76	0xbd2ffdd1	-0.042966668
77	0xbdba5402	-0.090980545
78	0x3dce1839	0.10063214
79	0xbe52ee2d	-0.2059867
80	0xbdfd98cc	-0.12382659
81	0xbe42c367	-0.19019853
82	0x3d0719d5	0.03298362
83	0xbe2560de	-0.16150233
84	0x3d90a272	0.07062234
85	0xbe9d0133	-0.30664977
86	0xbe29d3e3	-0.16584735
87	0x3d36b2d5	0.04460414
88	0x3dcd6116	0.10028283
89	0x3e28dc0a	0.16490188
90	0xbdd05769	-0.10172922
91	0xbe1fcc61	-0.15605308
92	0xbe275b73	-0.16343479
93	0x3e57c584	0.2107144
94	0xbe8b49a9	-0.27204636
95	0xbdff1351	-0.12454856
96	0x3e8af7f3	0.27142295
97	0x3cd372d6	0.025811594
98	0x3ce650c7	0.02811469
99	0xbd11d24f	-0.035600957
100	0x3cc89cb9	0.024488794
101	0xbe0ab3ad	-0.13545103
102	0x3c55b93e	0.013044653
103	0xbe31b4d8	-0.17354143
104	0xbdfbf925	-0.1230338
105	0x3e41e382	0.18934444
106	0x3c720079	0.0147706205
107	0x3e6bb122	0.2301679
108	0xbe79d18a	-0.24396339
109	0xbe6b16da	-0.22957936
110	0x3e43eff0	0.19134498
111	0xbdb75990	-0.089526296
112	0xbe28fb30	-0.1650207
113	0x3e19c791	0.15017535
114	0xbdf24868	-0.11830217
115	0xbbf823a2	-0.007572607
116	0x3e6a77db	0.22897284
117	0x3e715d4b	0.23570745
118	0xbe5f3690	-0.21798158
119	0xbdb4c632	-0.08826865
120	0xbd9e71f6	-0.0773658
121	0xbc15b37a	-0.009137029
122	0x3e2dabbc	0.16960043
123	0x3db9eae0	0.09078002
124	0x3df4f7ae	0.11961304
125	0x3e00d5b2	0.12581518
126	0x3e865bac	0.26241815
127	0x3da68364	0.081305295
128	0xbd7ffdc5	-0.062497873
129	0x3e600dab	0.21880214
130	0x3cf7440e	0.030183818
131	0xbe8d542a	-0.27603275
132	0x3e127a3b	0.1430444
133	0x3c437570	0.011929855
134	0xbe41f79b	-0.1894211
135	0xbe412ea8	-0.18865454
136	0xbe18e8c4	-0.14932543
137	0x3dfc6edf	0.123258345
138	0x3cd07434	0.025446035
139	0xbe148d5b	-0.14507048
140	0xbb7a9117	-0.0038233453
141	0x3dfbd709	0.12296874
142	0xbdaad17e	-0.08340739
143	0x3ce933ec	0.028467141
144	0x3d9ea479	0.077462144
145	0x3e437bb6	0.1909016
146	0x3e635aca	0.22202602
147	0xbd0e5c8f	-0.03475624
148	0xbedf4547	-0.43607542
149	0xbdf8bb22	-0.12145068
150	0x3e394e17	0.18096195
151	0xbdee2482	-0.11628057
152	0xbea2103e	-0.31653017
153	0x3c581d57	0.013190589
154	0xbdabf1dd	-0.08395741
155	0x3e65e801	0.22451784
156	0xbdadbec4	-0.08483651
157	0xbe29927a	-0.16559783
158	0x3be79ce2	0.0070682624
159	0xbe70d13e	-0.2351732
160	0xbeac09b7	-0.33601162
161	0x3cd9da4b	0.026593348
162	0xbcb12c43	-0.021627551
163	0xbd158b85	-0.03651001
164	0x3dc9de1c	0.09856817
165	0x3daea3c1	0.08527327
166	0x3e4f1d8a	0.20226112
167	0xbdf81a70	-0.121144176
168	0xbcc46b5b	-0.023976972
169	0xbd130337	-0.035891738
170	0x3c84f9dd	0.016232425
171	0x3d7d40b4	0.061829284
172	0x3cdae000	0.02671814
173	0x3d8412ca	0.06448896
174	0x3e07cee4	0.13262516
175	0x3e98f9c4	0.29878056
176	0xbd8087f8	-0.06275934
177	0x3cc78277	0.024354203
178	0x3d14cd65	0.036328692
179	0xbe40a39a	-0.18812409
180	0xbe821150	-0.25403833
181	0xbe15b691	-0.14620425
182	0xbdcadc7f	-0.099053375
183	0xbb8ac997	-0.004235457
184	0x3df48878	0.11940092
185	0x3e182ee4	0.14861637
186	0xbda1f67b	-0.079083405
187	0x3ec8c4bb	0.39212593
188	0x3e89828e	0.26857418
189	0x3c8afad1	0.016965302
190	0xbe0f8458	-0.14015329
191	0x3e4691d6	0.1939157
192	0xbe877292	-0.26454598
193	0xbd93c7d9	-0.07215852
194	0x3d9d678f	0.07685768
195	0x3e61905a	0.22027722
196	0xbd32fafd	-0.043696392
197	0x3e517249	0.20453753
198	0x3e051205	0.12995155
199	0xbcc2d170	-0.023781508
200	0x3e48e169	0.19617237
201	0xbe5bb824	-0.21456963
202	0xbec79c11	-0.38986257
203	0xbbd7d3c7	-0.006586525
204	0x3e18c773	0.14919834
205	0x3e0a9842	0.13534644
206	0xbe82ed02	-0.25571448
207	0xbde82c38	-0.11336559
208	0xbdbbc037	-0.091675214
209	0x3d84e3cb	0.064887606
210	0xbda6eaab	-0.08150228
211	0xbe1c8f08	-0.15288937
212	0x3ebc3c7f	0.36764905
213	0x3e84e4f9	0.25955942
214	0xbdb4a857	-0.08821171
215	0xbd03307f	-0.03202867
216	0xbe90b5b1	-0.2826362
217	0x3dda7afd	0.106679894
218	0xbb14ebfc	-0.0022723665
219	0xbd136291	-0.035982672
220	0x3e440b8d	0.19145031
221	0x3e98782a	0.29779178
222	0xbc8aa7c8	-0.016925707
223	0x3e18eb0d	0.14933415
224	0xbd54064c	-0.051763818
225	0xbda0e215	-0.07855622
226	0xbe0f1738	-0.13973701
227	0xbe193934	-0.14963228
228	0x3c502921	0.012705118
229	0x3df839a0	0.12120366
230	0xbd8853e6	-0.06656627
231	0x3e76a397	0.24085842
232	0xbe95a3b9	-0.29226473
233	0xbe554092	-0.20825413
234	0x3d804d65	0.06264762
235	0x3dc480f5	0.09594909
236	0xbde09bb8	-0.10967201
237	0x3de417be	0.11137341
238	0x3e4cc3dc	0.1999659
239	0x3cb3c409	0.021944063
240	0x3d1c5734	0.0381691
241	0x3c957e1b	0.018248608
242	0xbe6ba974	-0.2301386
243	0x3e7c198f	0.24619125
244	0x3ee8c319	0.45461348
245	0x3e4925c0	0.19643307
246	0x3e190e3d	0.14946838
247	0x3e9af872	0.30267674
248	0x3d4cf936	0.050042354
249	0xbda92e88	-0.08260828
250	0xbe3d42a1	-0.18482448
251	0xbeb15cf4	-0.3464123
252	0x3e32ec00	0.1747284
253	0x3e9dc86d	0.30816975
254	0x3d048888	0.03235677
255	0xbd871c90	-0.06597245

rb1.conv1.bias f4 [10]
0	0x38d307aa	0.000100626916
1	0x39055b01	0.0001271777
2	0x379161e6	1.7330934e-05
3	0x3856a9b5	5.1179628e-05
4	0x38d7150f	0.000102559214
5	0xb795668b	-1.7809934e-05
6	0xb847c7bc	-4.7631314e-05
7	0xb89cb353	-7.4720614e-05
8	0xb851822c	-4.9950715e-05
9	0x34218af0	1.5044839e-07

rb1.bn1.weight f4 [10]
0	0x3f4c05ff	0.7969665
1	0x3f9df5c7	1.234063
2	0x3f5aa455	0.85407
3	0x3f5f44a1	0.87214094
4	0x3f121d95	0.5707639
5	0x3f4d4d81	0.80196387
6	0x3f2d0f56	0.67601526
7	0x3f7b8174	0.98244405
8	0x3f51b746	0.8192028
9	0x3f2cd42e	0.6751126

rb1.bn1.bias f4 [10]
0	0x3ea599b5	0.32343832
1	0x3f901a6c	1.1258063
2	0x3c4f2a8f	0.012644424
3	0x3d1f86a3	0.03894676
4	0x3d636668	0.055517584
5	0xbca784e6	-0.020449113
6	0x3b84f752	0.004057803
7	0x3f44e381	0.76909643
8	0x3f0b4418	0.5440078
9	0x3dfec16b	0.12439235

rb1.bn1.running_mean f4 [10]
0	0xbbebf595	-0.0072009065
1	0xbbb0b8be	-0.0053931167
2	0x3c4bb7b0	0.012433931
3	0xbc969640	-0.018382192
4	0xbc80f2f2	-0.015740845
5	0x3d03a9f8	0.032144517
6	0xbc78524e	-0.015156342
7	0xbbc4a2d2	-0.006000855
8	0xbc7cf46c	-0.015439134
9	0x3d272e8e	0.040815882

rb1.bn1.running_var f4 [10]
0	0x3d9fac6b	0.07796558
1	0x3d1a9483	0.037739288
2	0x3e4070f0	0.18793082
3	0x3e64ba67	0.22336732
4	0x3d247424	0.040149823
5	0x3ecc07fa	0.39849836
6	0x3e4f8816	0.20266756
7	0x3d639cf6	0.05556961
8	0x3d1c91bb	0.038224917
9	0x3ec240ad	0.3793997

rb1.conv2.weight f4 [10, 10, 3, 3]
0	0xbc7d0bfd	-0.015444753
1	0xbe3ff4be	-0.18745705
2	0xbadccfde	-0.0016846617
3	0x3c98fbf6	0.018674832
4	0xbe105924	-0.14096504
5	0xbd49de33	-0.04928417
6	0x3c9673ed	0.018365825
7	0xbd506c48	-0.050884515
8	0xbcf17665	-0.0294754
9	0x3c9ba0eb	0.01899763
10	0x3e34ea4e	0.17667505
11	0xbe81899e	-0.25300306
12	0xbe851df4	-0.25999415
13	0xbdad74eb	-0.08469566
14	0x3e12b933	0.1432846
15	0x3e1163a0	0.1419816
16	0xbe596587	-0.21230136
17	0x3cd61318	0.026132151
18	0xbe02310c	-0.12714022
19	0x3dbe8190	0.09302056
20	0xbddd057d	-0.107920624
21	0x3bd00e0a	0.00634933
22	0xbe5094fb	-0.20369332
23	0xbe2de477	-0.16981684
24	0x3ca60904	0.02026797
25	0x3ddba0d3	0.10724034
26	0x3e236b00	0.15958786
27	0x3e1a4aa7	0.1506754
28	0x3e1ddbca	0.15415874
29	0x3e017027	0.12640439
30	0x3dd8131c	0.1055052
31	0x3de93261	0.11386562
32	0x3cdaf78f	0.026729373
33	0xbe036bae	-0.12834045
34	0xbd96b4df	-0.07358717
35	0xbe71f60f	-0.2362902
36	0xbe0ab0e9	-0.13544048
37	0x3d37c29b	0.044863325
38	0xbd41e71f	-0.047339555
39	0xbb18d8e0	-0.0023322627
40	0xbdc3980d	-0.09550486
41	0x3c8efeca	0.017455477
42	0xbd7f6ed9	-0.062361572
43	0xbc277df2	-0.010222899
44	0xbd9a20cb	-0.07525786
45	0x3dacbed5	0.08434836
46	0x3e722312	0.23646191
47	0x3e2d0054	0.16894656
48	0xbcc865d4	-0.024462618
49	0x3b5ca81e	0.0033669542
50	0xbd0ef310	-0.03489977
51	0xbd4ecdce	-0.05048924
52	0x3d4f4800	0.050605774
53	0x3e217a0b	0.15769212
54	0xbd823c86	-0.063592
55	0xbd2dcf49	-0.04243401
56	0xbda7cfd0	-0.08193934
57	0xbdb6766f	-0.08909308
58	0xbe70430a	-0.23463073
59	0xbda6d865	-0.08146743
60	0x3dc59826	0.09648161
61	0x3d8ac88f	0.06776535
62	0xbd79656c	-0.06088774
63	0xbd250117	-0.040284242
64	0x3de42946	0.11140685
65	0x3e8d88db	0.27643475
66	0xbd702fd3	-0.05863936
67	0xbe81f0bc	-0.25378978
68	0xbeca798b	-0.39545855
69	0x3cbc8833	0.023014164
70	0x3e2ad2ba	0.16681948
71	0x3dddff12	0.108396664
72	0xbd4348ab	-0.047676723
73	0xbe2d372f	-0.16915582
74	0xbdd78fd8	-0.10525483
75	0x3df1a612	0.117992535
76	0x3d691d5e	0.056912772
77	0x3dd6f07c	0.104950875
78	0xbe4c0b9d	-0.19926305
79	0xbc6f4a43	-0.014605108
80	0xbd4319f9	-0.04763219
81	0xbea48655	-0.32133737
82	0xbea19a66	-0.3156311
83	0xbde532a3	-0.11191299
84	0xbe35105a	-0.17682019
85	0xbd492c3a	-0.049114443
86	0xbd4108e5	-0.047127623
87	0xbe0835d4	-0.13301784
88	0xbda27f8a	-0.079344824
89	0x3d6df424	0.05809416
90	0xbc34ade0	-0.011027783
91	0xbdf02ab9	-0.11726899
92	0x3e01a9a4	0.12662369
93	0x3cb1de09	0.02171232
94	0x3d8608e4	0.065446645
95	0x3e9f10fe	0.31067652
96	0xbd2ce785	-0.04221298
97	0x3e27c5ff	0.16384123
98	0xbdc1727a	-0.09445663
99	0x3ddcb36f	0.10776412
100	0x3da593cb	0.0808483
101	0xbe2c9e9f	-0.16857384
102	0x3e21e2dc	0.15809196
103	0xbeee7612	-0.46574455
104	0x3d7ca26b	0.06167833
105	0xbea11be9	-0.31466606
106	0x3df21a32	0.118214026
107	0x3e1202e8	0.14258921
108	0x3ca0d9bb	0.019635072
109	0x3e0b78cd	0.136203
110	0xbdce3638	-0.10068935
111	0xbbd3f80c	-0.0064687785
112	0xbe2edb64	-0.17075878
113	0xbe1ab701	-0.15108873
114	0x3ce1de22	0.027571741
115	0xbdc32ceb	-0.09530052
116	0xbd6811a9	-0.056657467
117	0xbe68042f	-0.22657846
118	0x3dce8f30	0.100859046
119	0x3d42c475	0.047550637
120	0x3d8e0747	0.06934982
121	0xbd48635f	-0.048922893
122	0xbdc38f8b	-0.09548863
123	0x3bd26c7c	0.0064216238
124	0xbe43f733	-0.19137268
125	0xbc59cd52	-0.013293581
126	0x3e3ebae3	0.18625979
127	0x3e618a6c	0.2202546
128	0x3d3450b3	0.044022273
129	0x3d975512	0.07389273
130	0xbcfc913b	-0.03083097
131	0xbdc7d9d1	-0.09758342
132	0xbca19a2e	-0.019726839
133	0xbe166697	-0.14687572
134	0xbe2876a2	-0.16451505
135	0xbda326f8	-0.07966417
136	0xbdae8363	-0.08521154
137	0xbdbe8136	-0.09301989
138	0xbd509f4b	-0.050933164
139	0xbd7e8ec6	-0.062147878
140	0xbe02ce7e	-0.12774083
141	0xbd9e771f	-0.07737564
142	0xbe3974b8	-0.18110931
143	0xbd7a1ec2	-0.06106449
144	0x3dd430bc	0.10360858
145	0x3e23e329	0.16004623
146	0x3ddc18bb	0.107469045
147	0x3e197c55	0.14988835
148	0x3e341c42	0.17588905
149	0x3dfa4780	0.12220669
150	0x3e16f693	0.14742498
151	0x3e3d2751	0.1847203
152	0x3cf4649d	0.029833132
153	0x3dbe0377	0.092780046
154	0xbe90b440	-0.2826252
155	0xbbf2a528	-0.007404942
156	0xbd3d3123	-0.04618944
157	0xbe843a95	-0.25825945
158	0x3e4c5d1c	0.19957393
159	0xbd35d215	-0.044389803
160	0x3e82e67c	0.2556647
161	0xbbec3e09	-0.0072095436
162	0x3dd2c2be	0.102910504
163	0xbb55a769	-0.0032601005
164	0xbe577d7b	-0.21043961
165	0x3d17fdfa	0.037107445
166	0xbddc2be9	-0.10750563
167	0x3e1cb529	0.15303482
168	0xbc3261b0	-0.010887548
169	0x3e129087	0.14312945
170	0xbd08a876	-0.033363782
171	0xbcd0a00d	-0.025466943
172	0xbb631843	-0.0034651912
173	0x3ca97617	0.020686192
174	0x3d4d5976	0.050134145
175	0xbceba903	-0.028767115
176	0x3d1cba18	0.03826341
177	0xbd877b00	-0.06615257
178	0x3e1c8cb2	0.15288046
179	0x3d10f993	0.035394263
180	0x3ce9e0fa	0.02854966
181	0xbea70896	-0.32623738
182	0xbd884b71	-0.06655014
183	0x3c4fd42b	0.012684862
184	0xbda1247d	-0.07868288
185	0xbcd8ca83	-0.026463753
186	0x3daf06e2	0.08546235
187	0x3d89ca8b	0.06728085
188	0x3d9161ee	0.07098757
189	0xbd8ec8b2	-0.06971873
190	0xbe0b30f4	-0.13592893
191	0x3c0b43a7	0.008500016
192	0xbd92096e	-0.07130705
193	0xbe1a1f63	-0.15051036
194	0xbcd632fe	-0.026147362
195	0xbbf462ed	-0.007458082
196	0x3e1265be	0.14296624
197	0x3e1e1c86	0.15440568
198	0x3e87503a	0.26428396
199	0x3d4716f9	0.048605893
200	0x3d3cb9c8	0.046075612
201	0x3eb748d4	0.3579775
202	0x3d79f6fd	0.061026562
203	0xbe231be1	-0.15928604
204	0x3da4d2fb	0.08048054
205	0xbde725a9	-0.1128648
206	0xbd3481c3	-0.044069063
207	0x3dbac2f7	0.09119218
208	0x3d4cbee4	0.049986735
209	0xba50d1be	-0.00079658243
210	0xbb8a03a1	-0.0042118584
211	0x3d1da384	0.03848602
212	0x3ba70316	0.0050968034
213	0x3e92a65a	0.2864254
214	0xbc0da8bc	-0.008646186
215	0x3ce3829c	0.02777224
216	0x3dbf3368	0.09335977
217	0x3df27379	0.11838431
218	0x3d052ca4	0.032513276
219	0x3e6e0adc	0.2324633
220	0x3d9675fe	0.07346724
221	0x3d17072e	0.03687208
222	0x3db19c07	0.08672338
223	0x3d3d6009	0.046234164
224	0x3c1af7e1	0.009458513
225	0x3e5c9f16	0.21545061
226	0x3e6c4116	0.23071703
227	0x3e36265b	0.17788069
228	0x3e3b0486	0.18263444
229	0x3dc18450	0.09449065
230	0x3d2bd2e7	0.04194918
231	0x3d1f91a5	0.038957257
232	0x3d2728b8	0.040810317
233	0xbdda8d8d	-0.1067153
234	0x3c90b19e	0.01766282
235	0xbd3ffb73	-0.04687066
236	0xbded5c17	-0.1158983
237	0x3c906c9c	0.017629914
238	0xbd51d1d4	-0.0512255
239	0xbdee967f	-0.116497986
240	0x3cc88bbe	0.024480697
241	0xbc1f84a5	-0.009736215
242	0xbded51e6	-0.115878865
243	0x3e298f09	0.1655847
244	0x3dd79641	0.105267055
245	0xbaf0a13a	-0.0018358596
246	0x3d90c973	0.070696734
247	0x3d9dcc79	0.07705016
248	0xbc8b93ab	-0.017038187
249	0xbdde13f5	-0.1084365
250	0x3cec084b	0.028812548
251	0xbd43f673	-0.047842454
252	0x3e8d6f2f	0.2762389
253	0x3e92ce07	0.2867281
254	0xbd7baaa2	-0.061442025
255	0x3e4b6f2b	0.19866626

rb1.conv2.bias f4 [10]
0	0x381188d9	3.4698143e-05
1	0x38a89d93	8.040215e-05
2	0x383f6a3f	4.5636898e-05
3	0xb80471b5	-3.157715e-05
4	0x380fcbd6	3.4283694e-05
5	0xb5e6a96f	-1.7185647e-06
6	0x3762c140	1.3515644e-05
7	0xb820eae9	-3.836575e-05
8	0xb7cb461d	-2.4232135e-05
9	0xb811142c	-3.458948e-05

rb1.bn2.weight f4 [10]
0	0x3f84bb45	1.036965
1	0x3f9117a0	1.1335335
2	0x3f4e636c	0.80620456
3	0x3f8d6cb3	1.1048797
4	0x3f3a19c7	0.72695583
5	0x3f894b49	1.07261
6	0x3fa9d23a	1.3267281
7	0x3f89169e	1.0710027
8	0x3f8ea097	1.1142758
9	0x3f5b96c1	0.8577691

rb1.bn2.bias f4 [10]
0	0x3d70496e	0.058663778
1	0xbd778cf3	-0.060437154
2	0x3e961ffc	0.29321277
3	0xbca70c14	-0.020391501
4	0x3e86f3cc	0.26357877
5	0x3dc1608a	0.094422415
6	0xbc83c41a	-0.01608472
7	0x3dd1ebd0	0.10250056
8	0x3d750aec	0.05982487
9	0x3e8f54d5	0.2799441

rb1.bn2.running_mean f4 [10]
0	0xbf9c7905	-1.2224432
1	0xbe92f7ab	-0.2870458
2	0x3f497d10	0.78706455
3	0xbc6d69a0	-0.014490515
4	0xbf1442f4	-0.5791466
5	0xbe236027	-0.15954648
6	0xbf1dd465	-0.61652213
7	0xbe8aff83	-0.27148065
8	0x3da1a015	0.07891861
9	0x3fc68004	1.5507817

rb1.bn2.running_var f4 [10]
0	0x3fbeb9d3	1.4900459
1	0x3fa1e752	1.2648718
2	0x3f7d577c	0.98961616
3	0x3fbfab1f	1.4974097
4	0x3f546110	0.82960606
5	0x3fc7de5a	1.5614731
6	0x4001ffe8	2.0312443
7	0x3fcebb34	1.615088
8	0x3ff1c948	1.8889551
9	0x3fcd3dd9	1.60345

rb1.shortcut.conv.weight f4 [10, 3, 1, 1]
0	0x3ee61027	0.44934198
1	0x3c1ae3e0	0.009453744
2	0x3eaceff5	0.33776823
3	0xbea6b05e	-0.32556432
4	0xbf0dc39d	-0.5537661
5	0xbebba6e2	-0.3665076
6	0x3ebd2d45	0.369486
7	0xbeb5e856	-0.3552882
8	0x3dd66f1b	0.104704104
9	0xbef08b37	-0.46981212
10	0xbf3360ac	-0.70069385
11	0x3e2ce40e	0.16883871
12	0xbdd4eb04	-0.10396388
13	0xbe4a36a2	-0.19747403
14	0x3f13beb0	0.5771284
15	0x3ec12424	0.37722886
16	0x3e176965	0.14786299
17	0x3ef40bd9	0.4766529
18	0xbeb8b166	-0.36072844
19	0xbead6363	-0.3386489
20	0xbea7f277	-0.32802173
21	0xbe905c12	-0.28195244
22	0xbf34ea8f	-0.7067041
23	0x3e833d4e	0.2563271
24	0xbe99bb15	-0.30025545
25	0xbf05818e	-0.5215081
26	0xbd848ce9	-0.06472189
27	0xbe914a84	-0.28377163
28	0x3d628149	0.055299077
29	0xbf152fbc	-0.5827596

rb1.shortcut.conv.bias f4 [10]
0	0xb5f2e747	-1.8097716e-06
1	0x38105be0	3.441784e-05
2	0xb77233e6	-1.4436408e-05
3	0xb75e6eef	-1.325806e-05
4	0x38b1ddba	8.4813175e-05
5	0x3798fb6a	1.8236886e-05
6	0x384fd574	4.955144e-05
7	0xb6dbb628	-6.5479144e-06
8	0xb8cd912a	-9.802201e-05
9	0xb85bc33f	-5.2395506e-05

rb1.shortcut.bn.weight f4 [10]
0	0x3f79154b	0.97298115
1	0x3f6a37e6	0.91491544
2	0x3f8032a7	1.0015458
3	0x3f645770	0.8919592
4	0x3f9239b0	1.1423855
5	0x3f6f4f29	0.93480164
6	0x3f1361f1	0.5757132
7	0x3f2cc9bd	0.6749533
8	0x3f645821	0.89196974
9	0x3f677040	0.90405655

rb1.shortcut.bn.bias f4 [10]
0	0x3d70496e	0.058663778
1	0xbd778cf3	-0.060437154
2	0x3e961ffc	0.29321277
3	0xbca70c14	-0.020391501
4	0x3e86f3cc	0.26357877
5	0x3dc1608a	0.094422415
6	0xbc83c41a	-0.01608472
7	0x3dd1ebd0	0.10250056
8	0x3d750aec	0.05982487
9	0x3e8f54d5	0.2799441

rb1.shortcut.bn.running_mean f4 [10]
0	0xbc342186	-0.010994321
1	0x3bf1d938	0.007380631
2	0xbb4574ae	-0.003012936
3	0xbd1510d2	-0.036392994
4	0xbd3d975d	-0.04628693
5	0xbca6afc0	-0.020347476
6	0x3befc93c	0.00731769
7	0xbd193d9f	-0.037412282
8	0xbc4d4ff3	-0.012531268
9	0x3d09e1ee	0.03366273

rb1.shortcut.bn.running_var f4 [10]
0	0x3e1768c6	0.14786062
1	0x3eba28ec	0.36359346
2	0x3be3f549	0.0069567305
3	0x3e7437aa	0.23849359
4	0x3d101a59	0.035181377
5	0x3e723289	0.2365209
6	0x3e7bc5b4	0.24587137
7	0x3e06aba7	0.13151418
8	0x3e3b3f70	0.18285918
9	0x3e258b45	0.16166408

rb2.conv1.weight f4 [20, 10, 3, 3]
0	0x3d954c29	0.07289917
1	0x3e041da3	0.1290193
2	0x3d9baa4a	0.076008394
3	0x3e2d5486	0.16926774
4	0x3e704b29	0.23466171
5	0x3de89ac3	0.113576435
6	0x3d19e69c	0.037573442
7	0x3dd70604	0.10499194
8	0x3e01c4f2	0.12672785
9	0x3e193e1f	0.14965104
10	0xbddeb19a	-0.108737186
11	0xbdfaaa2a	-0.122394875
12	0xbdf94efb	-0.121732675
13	0xbda0e410	-0.078559995
14	0xbd036e4f	-0.03208762
15	0x3e173c7d	0.14769168
16	0xbe155b5a	-0.14585629
17	0xbdc43a36	-0.09581415
18	0xbdb06d0b	-0.08614548
19	0xbea050a8	-0.31311536
20	0xbe3635ad	-0.17793913
21	0x3ba54baf	0.0050444226
22	0xbe86e3b8	-0.2634561
23	0xbe22baf1	-0.15891625
24	0x3d48d53e	0.04903149
25	0x3d51dbc6	0.051234983
26	0xbdc48c78	-0.09597105
27	0xbcd4d1ef	-0.02597901
28	0xbdf4e0aa	-0.11956914
29	0x3dcc704b	0.09982356
30	0x3db5310f	0.08847248
31	0x3d95a654	0.07307115
32	0x3ddc962f	0.10770833
33	0x3d2bf39a	0.041980363
34	0x3d1cf24e	0.038317017
35	0x3e5392eb	0.20661514
36	0xbbc1f9d8	-0.0059196763
37	0x3dff02b6	0.12451689
38	0xbcefdfcb	-0.029281517
39	0xbd5a625b	-0.053316455
40	0x3c917c31	0.017759414
41	0x3dab24ea	0.0835665
42	0x3cb68cf2	0.022284005
43	0xbe98b067	-0.29822084
44	0xbe6f38ae	-0.23361465
45	0x3dbf516b	0.09341701
46	0x3d3734d6	0.044728123
47	0x3d9d487a	0.076798394
48	0xbe161d52	-0.14659622
49	0xbd93824d	-0.07202587
50	0xbdbaa236	-0.091129705
51	0xbd34894f	-0.04407626
52	0xbeef339e	-0.46719068
53	0xbd083499	-0.033253286
54	0x3de8d8d0	0.11369479
55	0x3daee723	0.085401796
56	0x3e249abf	0.16074656
57	0x3d91d033	0.07119789
58	0x3d0f10b6	0.034928046
59	0x3df9abe1	0.121909864
60	0x3d3ef22f	0.046617683
61	0xbd1220ef	-0.03567594
62	0xbd2f25e0	-0.04276073
63	0x3d954307	0.07288175
64	0xbdb7da70	-0.089772105
65	0x3d80143f	0.06253862
66	0xbdaa9bd4	-0.08330503
67	0xbeae798b	-0.34077105
68	0xbd707698	-0.05870685
69	0x3d6c750c	0.057728812
70	0xbe16c933	-0.14725189
71	0xbdf22584	-0.11823562
72	0xbc3d1916	-0.0115416255
73	0x3c9c1852	0.019054566
74	0xbe2a9979	-0.16660108
75	0xbe2ba2f6	-0.16761383
76	0x3d9c30ea	0.07626517
77	0x3e26e918	0.16299856
78	0xbe295e7e	-0.16539952
79	0xbd11d171	-0.03560013
80	0x3db142a1	0.086552866
81	0xbe04f1bf	-0.12982844
82	0x3c9ede07	0.01939298
83	0xbe16b3fc	-0.14717096
84	0xbaf53d8a	-0.0018710357
85	0x3d114d6e	0.035474233
86	0xbd0535c8	-0.032521993
87	0xbda3187d	-0.07963655
88	0x3d5b814b	0.0535901
89	0x3e60dd33	0.21959381
90	0xbe7d2dda	-0.24724522
91	0xbe2eabf5	-0.17057784
92	0xbd9c26ab	-0.07624563
93	0x3d27f8c1	0.041008715
94	0xbd3161be	-0.043306105
95	0x3af6485b	0.0018789874
96	0x3e1cf499	0.15327682
97	0x3e39a1f2	0.18128183
98	0x3e5f4a16	0.21805605
99	0xbe902b97	-0.28158256
100	0xbe081a94	-0.13291389
101	0xbd098d9d	-0.03358232
102	0xbe12792a	-0.14304033
103	0x3dbdd44f	0.0926901
104	0xbbe2010f	-0.006897099
105	0xbd8c1d3b	-0.06841513
106	0xbcf053d1	-0.029336842
107	0xbb021c1a	-0.0019853176
108	0xbe83c48e	-0.25735897
109	0xbec3bb60	-0.38228893
110	0xbe78aaa9	-0.24283852
111	0x3dd5108e	0.10403548
112	0x3cb6b4dc	0.022303037
113	0xbcaa3297	-0.020776076
114	0x3e4bde1a	0.19908944
115	0x3e847b71	0.25875428
116	0x3ea0d531	0.31412652
117	0xbd884a9c	-0.066548556
118	0x3ce1272f	0.027484505
119	0xbc71b9ea	-0.014753798
120	0xbe277c33	-0.16355972
121	0x3d71f6af	0.059073146
122	0xbdc82f0e	-0.097746
123	0xbdae37a9	-0.0850671
124	0xb97759ea	-0.00023589251
125	0xbda13565	-0.07871512
126	0x3e3c5774	0.18392736
127	0x3e747c40	0.23875523
128	0x3c919615	0.01777176
129	0x3bb94ff5	0.0056552836
130	0xbc833178	-0.0160148
131	0xbe09e123	-0.13464789
132	0xbe3f007e	-0.18652532
133	0xbe7cb009	-0.24676527
134	0xbe670010	-0.22558618
135	0xbac12047	-0.0014734351
136	0xbcf2460c	-0.029574417
137	0x3e0d25f6	0.13784012
138	0xbd697f02	-0.05700589
139	0x3d4af4a9	0.049549732
140	0x3d3d8a07	0.04627421
141	0x3d2ae982	0.041726597
142	0x394f980e	0.00019797703
143	0x3dab8a7e	0.08376025
144	0x3dc03be2	0.09386422
145	0x3ddecb97	0.108786754
146	0x3d3c0956	0.04590734
147	0xbd86169d	-0.06547282
148	0x3c446f66	0.01198945
149	0xbde0f619	-0.109844394
150	0xbc9253db	-0.017862251
151	0x3cadd258	0.021218464
152	0xbd273cd5	-0.0408295
153	0x3e16bf71	0.14721467
154	0x3e921fa0	0.28539753
155	0x3e06895e	0.13138339
156	0xbc4fee14	-0.01269104
157	0x3da66868	0.08125383
158	0x3dd12428	0.102119744
159	0xbe06c9b5	-0.13162883
160	0x3c77a340	0.015114605
161	0xbd5ca13d	-0.053864706
162	0xbddae15c	-0.10687515
163	0x3d987009	0.07443244
164	0xbd952545	-0.07282499
165	0xbdf3edfb	-0.119106255
166	0x3d9a98b1	0.07548655
167	0xbe360699	-0.17775954
168	0x3c7c6e49	0.015407153
169	0x3cdd7116	0.027031463
170	0xbd6c2310	-0.057650626
171	0xbd7638aa	-0.060112633
172	0x3c60b81d	0.013715771
173	0x3ca9d7a3	0.020732706
174	0x3c94c9ec	0.01816269
175	0x3e0fa741	0.14028646
176	0x3d6866dd	0.056738723
177	0xbc23cef9	-0.009998077
178	0x3da82804	0.082107574
179	0xbd7fad5f	-0.0624212
180	0xbd105399	-0.035235975
181	0x3d94be6e	0.07262884
182	0xbdd46e7d	-0.103726365
183	0xbcb5bd46	-0.02218498
184	0x3d3e324c	0.046434686
185	0xbd227e6e	-0.039671354
186	0xbcbdc784	-0.023166426
187	0xbd3c6c6b	-0.046001833
188	0x3d69a0b8	0.05703804
189	0xbc5b004b	-0.013366769
190	0x3cd10690	0.025515825
191	0x3e3ca04c	0.18420523
192	0xbe1f1d26	-0.15538463
193	0x3d969746	0.07353072
194	0x3dea3f1c	0.114378184
195	0xbdbe43eb	-0.09290298
196	0xbe862022	-0.2619639
197	0xbe38a40f	-0.18031333
198	0x3dcad94a	0.09904726
199	0xbe45308d	-0.19256802
200	0x3d6c49ac	0.057687446
201	0x3e3f0d5f	0.18657444
202	0xbced613d	-0.02897703
203	0xbc98c27a	-0.018647421
204	0x3d48ea48	0.049051553
205	0x3d339f63	0.043853175
206	0x3d767a04	0.060174957
207	0x3e76f1cc	0.24115676
208	0x3e7137b4	0.23556405
209	0x3e019d9a	0.12657776
210	0xbd2e890f	-0.042611178
211	0x3e494856	0.196565
212	0x3d3f74fa	0.046742417
213	0xbda6e1b4	-0.08148518
214	0x3ded4de0	0.11587119
215	0x3d0a36f3	0.03374381
216	0xbe243f00	-0.16039658
217	0x3c74e237	0.014946512
218	0xbd69ae23	-0.057050835
219	0xbd94ebda	-0.072715476
220	0xbd873035	-0.06600992
221	0xbacb7711	-0.0015523155
222	0x3dd75486	0.105141684
223	0xbd349f71	-0.044097368
224	0xba9b673d	-0.0011856329
225	0x3e014836	0.12625203
226	0x3d3c7e73	0.04601903
227	0xbda895e2	-0.08231713
228	0xbea55825	-0.3229381
229	0x3d45360b	0.048147243
230	0x3d287f0b	0.041136783
231	0xbe810f55	-0.2520701
232	0x3d00f848	0.03148678
233	0x3da99806	0.08280949
234	0x3e745b71	0.23863007
235	0x3e3a6641	0.1820307
236	0x3d30169a	0.042990305
237	0xbdb97dac	-0.09057173
238	0xbd8ecfb5	-0.06973211
239	0xbddf4421	-0.109016664
240	0xbf169fa7	-0.5883736
241	0xbee345e7	-0.4438927
242	0xbe09e29a	-0.13465348
243	0xbd4385f2	-0.047735162
244	0x3c543b91	0.012953655
245	0x3d79073a	0.060797907
246	0xbde5721b	-0.112034045
247	0x3d810799	0.06300277
248	0x3da57b69	0.08080179
249	0xbd7dedcb	-0.061994355
250	0xbda20b51	-0.07912315
251	0xbdc37748	-0.095442355
252	0xbdb36a97	-0.08760565
253	0xbd95bcd0	-0.07311404
254	0xbcba43dd	-0.022737438
255	0xbe2e8e63	-0.17046504

rb2.conv1.bias f4 [20]
0	0xb7a2a2f7	-1.9387791e-05
1	0x37c033db	2.291233e-05
2	0x3792a93a	1.7483359e-05
3	0x379776f5	1.8055996e-05
4	0x378725b3	1.611081e-05
5	0xb7739111	-1.4517705e-05
6	0xb76a8460	-1.3978308e-05
7	0xb81e3e6e	-3.7728278e-05
8	0x34859626	2.4882428e-07
9	0xb7b886a1	-2.19972e-05
10	0xb724bb0e	-9.818714e-06
11	0xb7774dab	-1.4740431e-05
12	0xb78a850c	-1.6512837e-05
13	0x363fb6a7	2.8567536e-06
14	0xb80f8fe0	-3.422785e-05
15	0x37e231aa	2.6964426e-05
16	0xb777a254	-1.4760142e-05
17	0xb5284be6	-6.2695324e-07
18	0xb759424e	-1.2949646e-05
19	0xb7e01e27	-2.6716922e-05

rb2.bn1.weight f4 [20]
0	0x3f56a6fb	0.8384854
1	0x3f5d5285	0.8645404
2	0x3f65eb59	0.8981224
3	0x3f85c343	1.0450214
4	0x3f885596	1.0651119
5	0x3f3d3b0b	0.7391822
6	0x3f738c12	0.95135605
7	0x3f556ae1	0.8336621
8	0x3f2ef702	0.68345654
9	0x3f5bad1b	0.85811013
10	0x3f46ea2c	0.7770107
11	0x3f819d47	1.0126122
12	0x3f80fa0b	1.0076307
13	0x3f74cebb	0.95627946
14	0x3f69d272	0.9133674
15	0x3f89527b	1.0728296
16	0x3f656716	0.8961042
17	0x3f604eb5	0.876201
18	0x3f73dff4	0.952636
19	0x3f70f264	0.9411986

rb2.bn1.bias f4 [20]
0	0x3d4fc051	0.050720517
1	0xbe23da92	-0.16001347
2	0x3e075083	0.13214307
3	0x3a36390b	0.0006951249
4	0xbe90babf	-0.28267476
5	0xbd77c04d	-0.060486127
6	0x3ccd520b	0.025063535
7	0x3e315b74	0.17320043
8	0xbb17cb14	-0.0023161815
9	0x3dbb8f04	0.091581374
10	0x3d33d8e4	0.043908015
11	0x3d89757d	0.06711862
12	0xbdb23cb5	-0.08702985
13	0x3ce46df3	0.02788446
14	0xbdd5f4bf	-0.10447072
15	0xbda03705	-0.07822994
16	0x3e0c7e29	0.13720001
17	0x3c16494e	0.009172751
18	0x3e0397ce	0.12850878
19	0xbdad3df2	-0.08459081

rb2.bn1.running_mean f4 [20]
0	0xbfa10ad6	-1.2581432
1	0xbe6b801e	-0.22998092
2	0xbfcad1b3	-1.5845245
3	0xc03939c9	-2.894152
4	0xbf99db4e	-1.2020051
5	0x3e06bb89	0.13157476
6	0xbfa71d86	-1.3055885
7	0xbfbf2f85	-1.4936377
8	0x3fab45c2	1.3380663
9	0xbe617279	-0.22016324
10	0xbeda94f6	-0.42691773
11	0xbf853e9b	-1.0409731
12	0xc01a9c65	-2.4157956
13	0xbf2f3581	-0.68441015
14	0xbf4bb362	-0.7957059
15	0xbfe70ae0	-1.8050194
16	0xbffd3325	-1.9781233
17	0xbea6bd1b	-0.3256615
18	0xbfdb9529	-1.7154895
19	0xbe237fc6	-0.1596671

rb2.bn1.running_var f4 [20]
0	0x3fc911c1	1.5708543
1	0x3fb46c0f	1.4095477
2	0x3fe79e4e	1.8095186
3	0x4032faef	2.7965658
4	0x4014c8a3	2.324746
5	0x3fbf1d36	1.493079
6	0x401112cc	2.2667723
7	0x40216802	2.5219731
8	0x3fa364a2	1.2765086
9	0x3f98c4da	1.1935074
10	0x3fbad74d	1.4596955
11	0x400e5786	2.224092
12	0x40186380	2.381073
13	0x400255b3	2.0364807
14	0x3fc38e5d	1.5277821
15	0x402e02bb	2.7189167
16	0x4017b67c	2.370513
17	0x3fed6d00	1.8548889
18	0x3fe734e4	1.8063016
19	0x4003ae97	2.057531

rb2.conv2.weight f4 [20, 20, 3, 3]
0	0xbcdc8730	-0.026919931
1	0x3dd94151	0.10608161
2	0xbd97141b	-0.07376882
3	0x3c84d6c2	0.016215686
4	0x3cb6c8bc	0.022312514
5	0xbdf57dc0	-0.119868755
6	0xbd17b607	-0.03703883
7	0xbe0b5a47	-0.13608657
8	0xbda3f33c	-0.08005378
9	0xbe5c198d	-0.21494122
10	0x3e13b836	0.1442574
11	0x3e0841be	0.13306329
12	0x3cbac660	0.02279967
13	0x3e3a31c1	0.18183042
14	0x3dfff5bc	0.12498042
15	0x3d3e31b4	0.04643412
16	0x3d7c453f	0.061589476
17	0x3e105644	0.14095408
18	0x3c86cdea	0.01645561
19	0xbd395d7f	-0.04525518
20	0x3d5bb1ed	0.05363648
21	0x3e1933ad	0.14961119
22	0x3d4056bf	0.046957728
23	0x3cb48e60	0.022040546
24	0x39ce8bf1	0.00039395646
25	0xbc746122	-0.014915736
26	0xbde9c913	-0.11415305
27	0xbe30ad32	-0.17253569
28	0xbca893fe	-0.02057838
29	0xbe083794	-0.13302451
30	0xbdd23de2	-0.102657095
31	0x3dd80bdc	0.10549137
32	0xbe83766e	-0.25676292
33	0xbe89c951	-0.26911405
34	0xbd366150	-0.0445264
35	0xbceec169	-0.02914496
36	0xbde72814	-0.11286941
37	0xbda273e8	-0.079322636
38	0xbdd9550e	-0.10611926
39	0x3b1fb98f	0.0024372076
40	0x3c672d65	0.014109944
41	0xbd11f308	-0.035632163
42	0x3d9d3544	0.07676175
43	0x3e1c68ec	0.152744
44	0x3d276b3c	0.04087375
45	0xbe1cbf35	-0.15307315
46	0xbcc8ab5b	-0.024495771
47	0xbdc5fc6e	-0.09667288
48	0xbe19f381	-0.15034296
49	0x3e19ebb3	0.15031318
50	0x3cc6190a	0.024181861
51	0x3da3f6db	0.08006068
52	0xbc8f4e22	-0.017493311
53	0x3d04d3b5	0.032428462
54	0xbca81d81	-0.020521881
55	0xbbf45720	-0.007456675
56	0xbdb9d2c2	-0.09073402
57	0x3dbd7584	0.0925093
58	0xba13be26	-0.00056359393
59	0xbda67b03	-0.081289314
60	0xbe004f68	-0.12530291
61	0xbe20b215	-0.15692933
62	0x3d36fa44	0.044672266
63	0xbe40761c	-0.18795055
64	0xbdab087c	-0.08351228
65	0xbe16e1ce	-0.14734575
66	0xbd0f8be4	-0.03504552
67	0xbe098c1e	-0.13432357
68	0xbe1c012c	-0.15234822
69	0xbde1ffa6	-0.11035089
70	0xbe5a3818	-0.2131046
71	0x3d8db543	0.069193386
72	0x3e2bc62f	0.1677482
73	0xbe88caa0	-0.2671709
74	0xbe608761	-0.21926643
75	0x3e7bea65	0.24601133
76	0x3d15fced	0.036618162
77	0xbde1c3e4	-0.11023691
78	0xbdb1a8d9	-0.08674783
79	0x3d483e35	0.04888745
80	0x3e0dd2cf	0.13849948
81	0x3d5ad2e7	0.05342379
82	0xbe62a571	-0.22133423
83	0xbe441ee2	-0.19152406
84	0x3daca47c	0.084298104
85	0xbde0d056	-0.10977237
86	0x3e11b383	0.14228635
87	0xbd82f8fc	-0.06395146
88	0x3d80abe2	0.06282784
89	0x3e8ea015	0.27856508
90	0xbad5d67a	-0.0016314529
91	0x3cb39bb1	0.021924825
92	0xbdc2dcfb	-0.09514805
93	0x3e39ab2c	0.18131703
94	0x3d8c4c36	0.068504736
95	0xbd842e47	-0.06454139
96	0x3d93823a	0.07202573
97	0xbe18be78	-0.14916408
98	0xbe89b587	-0.26896307
99	0x39bb8b3d	0.0003577116
100	0x3d8248af	0.063615195
101	0x3e068fd9	0.13140811
102	0x3c48d3d2	0.012257533
103	0xbd3c6d0c	-0.046002433
104	0x3e0ba352	0.1363652
105	0xbdc59245	-0.09647039
106	0xbdd362d8	-0.10321587
107	0xbd9d9ddc	-0.07696125
108	0xbcb2c615	-0.021822968
109	0x3d7d5c72	0.06185574
110	0xbc9ef0ff	-0.019402025
111	0xbe0307e5	-0.1279598
112	0xbe11a293	-0.14222173
113	0xbdc3d0a2	-0.09561278
114	0xbe964574	-0.29349864
115	0xbe32f1c2	-0.17475036
116	0xbe2f75b9	-0.17134751
117	0x3bffbc9f	0.007804468
118	0x3d14af91	0.036300246
119	0xbc80fd3a	-0.015745748
120	0x3df96eb7	0.1217932
121	0xbd0cce26	-0.034376286
122	0x3d9ca0a8	0.0764783
123	0x3de7b263	0.113133214
124	0xbb9c1d82	-0.00476426
125	0xbb5db8ec	-0.0033832146
126	0x3e36fab5	0.17869075
127	0x3ce65bac	0.028119884
128	0x3e15c076	0.146242
129	0xbb663d8c	-0.00351319
130	0xbdcff7dd	-0.10154698
131	0x3dda4af4	0.106588274
132	0x3d427955	0.047478992
133	0x3e0fdf1d	0.14049955
134	0x3e4f60bd	0.20251746
135	0x3da92e9d	0.08260844
136	0x3d92e616	0.07172792
137	0x3dec87aa	0.11549313
138	0x3cb583e7	0.022157623
139	0x3dd0a4fe	0.1018772
140	0x3dad3c5f	0.084587805
141	0x3d220200	0.03955269
142	0xbca504fc	-0.020143978
143	0xbe61bc98	-0.22044599
144	0x3d74c024	0.059753552
145	0xbadd8bfc	-0.001690268
146	0x3ce62c56	0.028097313
147	0x3d8001df	0.06250357
148	0x3dd851c1	0.10562468
149	0x3d21abfe	0.039470665
150	0xbdcb5633	-0.099285506
151	0xbd2b2a66	-0.04178848
152	0x3d7384a9	0.059452686
153	0x3da3dbc3	0.080009006
154	0xbdee6f66	-0.11642341
155	0xba4d8546	-0.00078399887
156	0x3d125f64	0.035735503
157	0xbe1e8c95	-0.15483315
158	0x3d6c16d9	0.057638977
159	0xbc402e6f	-0.011729821
160	0xbc933bec	-0.017972909
161	0xbd81b7b8	-0.0633387
162	0xbe0fbb8d	-0.14036389
163	0xbc8aa2d4	-0.016923346
164	0xbcabd9b9	-0.020977842
165	0xbdf8635c	-0.12128326
166	0x3dea6463	0.114449285
167	0x3d53dd10	0.051724494
168	0xbe7f9283	-0.24958234
169	0xbd1a106d	-0.03761332
170	0xbde1ac01	-0.11019135
171	0x3e79d606	0.2439805
172	0x3d4defaf	0.05027741
173	0x3dc645b0	0.096812606
174	0x3d4ac393	0.04950292
175	0x3d9eeb34	0.07759705
176	0x3e182226	0.14856777
177	0x3e19c7fc	0.15017694
178	0x3e3b66ef	0.18300985
179	0x3d17c49d	0.03705274
180	0x3e147070	0.14496017
181	0x3e03ef76	0.12884316
182	0xbe496753	-0.19668321
183	0xbe6884a0	-0.22706842
184	0x3da42aed	0.08016
185	0xbddca0c2	-0.107728496
186	0x3b7fc21a	0.0039025606
187	0xbd7f582f	-0.062339958
188	0xbe011e03	-0.12609105
189	0xbd5fcbba	-0.05463765
190	0xbe70ad54	-0.2350362
191	0xbd1e493f	-0.03864407
192	0x3e07980a	0.13241592
193	0xbd1af546	-0.037831567
194	0x3daa0f81	0.083037384
195	0x3d9dad94	0.07699123
196	0x3d7a1cf1	0.061062757
197	0x3ac63c43	0.001512416
198	0xbdbcac05	-0.092124976
199	0xbd9df743	-0.07713177
200	0xbd575602	-0.052572258
201	0xbe6051bc	-0.21906179
202	0xbd960980	-0.07326031
203	0xbd19a064	-0.037506476
204	0xbd2c4266	-0.04205551
205	0x3d10bef0	0.035338342
206	0x3d69f77a	0.057120778
207	0xbe1731a9	-0.14765038
208	0xbb1d964e	-0.0024045887
209	0xbc66f2c6	-0.014095968
210	0xbe0a254d	-0.13490792
211	0x3da7c99f	0.08192753
212	0xbdd31f05	-0.10308651
213	0xbe694b2d	-0.22782584
214	0xbe2045e0	-0.15651655
215	0xbe0adf7e	-0.13561818
216	0xbe48de04	-0.19615942
217	0xbe15d7eb	-0.14633147
218	0xbde9599c	-0.11394045
219	0xbd88d466	-0.06681137
220	0xbb771fcc	-0.0037708161
221	0xbe275562	-0.16341165
222	0x3dcca9da	0.09993334
223	0xbd69df86	-0.057097934
224	0xbdea24ea	-0.11432822
225	0xbd577eea	-0.05261127
226	0xbd921429	-0.071327515
227	0x3e2520e0	0.16125822
228	0xbe67b418	-0.22627294
229	0xbe5bed81	-0.2147732
230	0x3d833060	0.06405711
231	0x3c84f16d	0.016228402
232	0xbc4a7d24	-0.012358937
233	0x3db1549e	0.086587176
234	0xbc228910	-0.009920374
235	0xbd212d62	-0.03934992
236	0x3e20ad12	0.15691021
237	0xbd220deb	-0.039564054
238	0x3c26d1d4	0.010181863
239	0x3d08b6b1	0.033377353
240	0xbc5cd904	-0.013479475
241	0x3deafd40	0.11474085
242	0xbca52e08	-0.020163551
243	0x3ccb0008	0.024780288
244	0x3cfc30d9	0.030785011
245	0xbe4ecb34	-0.20194703
246	0x3d7a1622	0.061056264
247	0x3ddbfe0d	0.10741816
248	0xbdaeaa70	-0.08528602
249	0xbd24885f	-0.040169116
250	0xbd6fea31	-0.05857295
251	0xbdddf387	-0.10837465
252	0xbdfc245d	-0.12311623
253	0xbd3d0b66	-0.04615345
254	0xbd6b48be	-0.05744242
255	0x3ddb7357	0.10715359

rb2.conv2.bias f4 [20]
0	0x36fa4371	7.458432e-06
1	0x37f1a1db	2.8804809e-05
2	0xb7da1e88	-2.6001842e-05
3	0x38098ee0	3.2796408e-05
4	0x379ff52c	1.9068444e-05
5	0xb7945f0e	-1.7687238e-05
6	0xb5113c70	-5.410466e-07
7	0xb751cf90	-1.2505698e-05
8	0x37f25443	2.8887885e-05
9	0xb7dd4a1c	-2.6379763e-05
10	0x37ba20df	2.2188235e-05
11	0x36a60740	4.9480295e-06
12	0xb7b1b32b	-2.1183476e-05
13	0xb3d31870	-9.829898e-08
14	0xb769963f	-1.3922864e-05
15	0x381de855	3.7648093e-05
16	0xb862e7dc	-5.4098535e-05
17	0xb76f3d60	-1.42598e-05
18	0xb5e136c4	-1.6779745e-06
19	0x35924aa8	1.0899575e-06

rb2.bn2.weight f4 [20]
0	0x3f599da8	0.8500619
1	0x3f6a4726	0.91514814
2	0x3f9756c0	1.1823349
3	0x3f8e462c	1.1115165
4	0x3f982b00	1.1888123
5	0x3f8be80b	1.0930189
6	0x3f9ead5c	1.2396655
7	0x3f9c0c31	1.219122
8	0x3f9dd76d	1.2331368
9	0x3f92ce5f	1.146923
10	0x3f922021	1.1416055
11	0x3f7eaf4b	0.99486226
12	0x3f946173	1.1592239
13	0x3f81bc8a	1.0135663
14	0x3f8c1ae5	1.0945708
15	0x3fa26c5a	1.2689316
16	0x3faa4709	1.3302928
17	0x3fa51f87	1.2900246
18	0x3f8ca0c5	1.0986563
19	0x3f5d7a2a	0.8651453

rb2.bn2.bias f4 [20]
0	0x3e56579a	0.20931855
1	0x3d591844	0.053001657
2	0xbe384a40	-0.17997074
3	0x3afaa3d1	0.0019122307
4	0xbd9f070d	-0.07765017
5	0xbe2aedc6	-0.16692266
6	0x3dbcb493	0.09214129
7	0xbe72da9b	-0.23716204
8	0x3e6d678d	0.23184033
9	0xbe2406ce	-0.16018221
10	0x3d664a58	0.056223243
11	0xbe0616fd	-0.13094707
12	0xbc3bddac	-0.011466425
13	0x3d4f3414	0.050586775
14	0xbc27bf55	-0.010238488
15	0x3e419613	0.18904905
16	0xbcadc5f0	-0.021212548
17	0xbdfec3ea	-0.124397114
18	0x3dcb7c8a	0.09935863
19	0xbe8bbc45	-0.27292076

rb2.bn2.running_mean f4 [20]
0	0xbf262dbd	-0.6491354
1	0xc000db1a	-2.013373
2	0xbf8d383c	-1.1032786
3	0xbf990a33	-1.1956238
4	0xbf353766	-0.70787656
5	0x3e366952	0.17813614
6	0xbf9647c6	-1.1740654
7	0x3ef9cfd5	0.48791376
8	0xc037c96f	-2.8716695
9	0xbd8d39be	-0.06895779
10	0xbf5e8eab	-0.86936444
11	0x3d94f677	0.07273572
12	0xbfe15d42	-1.7606585
13	0xbedc00d5	-0.42969385
14	0x3e6f821d	0.23389478
15	0xbfb734c5	-1.4312979
16	0xc031d305	-2.7785046
17	0xbe3c6358	-0.18397272
18	0xc01439fc	-2.316039
19	0x3e6036b2	0.21895865

rb2.bn2.running_var f4 [20]
0	0x3f57b93f	0.8426704
1	0x3f751b18	0.95744467
2	0x3f2f6138	0.6850772
3	0x3f927cd2	1.1444342
4	0x3f265d05	0.64985687
5	0x3f880d4f	1.0629061
6	0x3f8f3234	1.1187196
7	0x3f285891	0.6576014
8	0x3fa3ce3f	1.2797316
9	0x3f5456f3	0.82945174
10	0x3f4c1f7f	0.7973556
11	0x3f2c5a16	0.6732496
12	0x3f258444	0.64654946
13	0x3f725d3f	0.9467353
14	0x3fa30498	1.2735777
15	0x3f7cb28b	0.98709935
16	0x3f782f7e	0.9694747
17	0x3f793abc	0.97355247
18	0x3f747efa	0.9550625
19	0x3f23d002	0.6398927

rb2.shortcut.conv.weight f4 [20, 10, 1, 1]
0	0xbc4f8928	-0.012666978
1	0xbd8b27bb	-0.06794687
2	0xbec282ce	-0.3799042
3	0xbdb85edd	-0.09002469
4	0x3f040296	0.51566446
5	0xbcb76815	-0.022388497
6	0x3c3ed087	0.0116463965
7	0xbcc06637	-0.02348624
8	0xbc832939	-0.016010867
9	0xbe725938	-0.23666847
10	0xbd40c572	-0.0470633
11	0x3e0647cd	0.13113327
12	0xbf18fe48	-0.59763
13	0x3d97d5e4	0.07413843
14	0xbe2984c6	-0.16554555
15	0xbe52a280	-0.20569801
16	0xbd0e4863	-0.034737002
17	0xbc1b3f26	-0.009475505
18	0x3c24b514	0.010052938
19	0x3c45136c	0.012028556
20	0xbdc7224b	-0.09723338
21	0xbe038f28	-0.12847579
22	0xbd034ff2	-0.032058664
23	0xbcc49cd2	-0.024000559
24	0x3d4f202d	0.050567795
25	0x3ebfb115	0.3743979
26	0x3e1d268d	0.15346737
27	0x3dfc45c2	0.12317993
28	0xbe1b8406	-0.15187082
29	0xbebf55c4	-0.3737012
30	0xbd82f0d7	-0.06393593
31	0xba28c2e7	-0.0006437734
32	0x3ea64fd6	0.32482785
33	0x3e0be33b	0.136609
34	0x3e4706bc	0.19436163
35	0xbe16b50b	-0.147175
36	0x3e81849b	0.25296482
37	0x3e49b898	0.19699323
38	0x3edb5f61	0.42846206
39	0xbe0ca7ae	-0.1373584
40	0xbdfd6d4d	-0.12374363
41	0x3d4bf98c	0.049798533
42	0x3d667681	0.056265358
43	0x3ee158ed	0.44013157
44	0x3d882889	0.066483565
45	0xbd8c53ef	-0.068519466
46	0xbce80dd4	-0.028326906
47	0xbda7d1da	-0.08194323
48	0x3eb1cfe6	0.34728926
49	0xbdc14a4b	-0.094379984
50	0x3e8ca0ff	0.2746658
51	0x3e309f16	0.17248186
52	0xbde834c5	-0.1133819
53	0xbebe5186	-0.37171572
54	0xbd8ee575	-0.06977359
55	0xbd86ee40	-0.06588411
56	0x3e48bed1	0.1960404
57	0xbe073931	-0.1320541
58	0xbe138f32	-0.14410093
59	0xbecfc728	-0.40581632
60	0xbde1885b	-0.11012336
61	0x3e2d715d	0.16937776
62	0x3c0f8065	0.008758639
63	0xbea47c87	-0.32126257
64	0x3d075700	0.033041954
65	0xbecb672d	-0.39727154
66	0xbe819235	-0.2530686
67	0x3da0c799	0.0785057
68	0x3e79a15a	0.24377957
69	0xbd85d1f5	-0.06534187
70	0x3e343ea1	0.17602016
71	0x3e3e0a62	0.18558648
72	0x3c64680d	0.013940823
73	0xbd305b93	-0.043056082
74	0xbe2954dd	-0.16536279
75	0xbd151830	-0.03640002
76	0xbe96b32e	-0.29433578
77	0x3d42b85a	0.047539093
78	0xbf16fe54	-0.58981824
79	0xbe434b4f	-0.19071697
80	0xbdaf423a	-0.085575536
81	0x3e0ddc62	0.138536
82	0xbd9983f6	-0.07495873
83	0xbd61932e	-0.055072002
84	0xbf3551bc	-0.7082784
85	0xbdae820e	-0.085209
86	0xb93840f5	-0.00017571806
87	0x3e8a71de	0.2704
88	0xbdb6615f	-0.08905291
89	0xbbdf63cf	-0.006817318
90	0xbe86f247	-0.26356718
91	0x3eb80565	0.35941616
92	0xbe1db2b5	-0.15400203
93	0xbe40fda5	-0.18846758
94	0x3e453363	0.19257884
95	0xbe005daf	-0.12535737
96	0xbc25a78b	-0.010110746
97	0x3df6b29e	0.12045787
98	0x3b9f79de	0.0048668226
99	0xbecd39d0	-0.4008317
100	0xbcaac72a	-0.020846922
101	0x3d8b9d04	0.06817058
102	0xbed94ac0	-0.42439842
103	0x3e831381	0.25600818
104	0xbe9fe419	-0.31228712
105	0xbe0403d6	-0.12892088
106	0x3e8abbc9	0.27096394
107	0x3d75581d	0.059898484
108	0x3debd025	0.1151431
109	0x3d5533f1	0.05205149
110	0x3b05db91	0.0020425061
111	0xbcc1cb0f	-0.023656396
112	0xbe9f72f0	-0.31142378
113	0x3e847ecc	0.25877988
114	0x3e8b9a5e	0.2726621
115	0x3e6a7489	0.22896017
116	0xbdb250ef	-0.08706843
117	0xbd82692a	-0.06367715
118	0x3e18d643	0.14925484
119	0xbe52e88f	-0.20596527
120	0xbdbcf1ed	-0.09225831
121	0xbeb66fbe	-0.35632128
122	0x3e60e1f5	0.21961196
123	0x3ea69898	0.32538295
124	0xbdcbbec5	-0.09948496
125	0xbce4c24a	-0.027924675
126	0x3d6338d7	0.05547413
127	0xbddf9e89	-0.1091891
128	0xbec69e97	-0.3879287
129	0x3dd11360	0.102087736
130	0xbd5d64bd	-0.05405115
131	0xbe491d23	-0.19640021
132	0xbdcff446	-0.10154013
133	0xbdba3f1e	-0.0909407
134	0x3d18b90c	0.03728585
135	0x3df812b3	0.121129416
136	0x3dda58da	0.10661478
137	0x3d7f192e	0.062279873
138	0xbf24fab4	-0.6444504
139	0xbe20deb8	-0.1570996
140	0x3cdedc2e	0.0272046
141	0xbe823604	-0.25431836
142	0xbc19a139	-0.009376817
143	0xbe3421a2	-0.17590955
144	0xbc8c536f	-0.017129628
145	0xbebf886a	-0.37408763
146	0xbeceb9e1	-0.4037619
147	0xbda006e0	-0.07813811
148	0xbdacc2e1	-0.08435608
149	0x3e44dcac	0.19224805
150	0x3ebd48b5	0.36969534
151	0xbea9e369	-0.33181313
152	0x3e6c29e7	0.2306286
153	0x3de6cfd7	0.11270111
154	0xbe057f0a	-0.13036743
155	0x3e12f706	0.14352044
156	0x3e22aa24	0.15885216
157	0xbdeaab66	-0.11458473
158	0xbe9c6e8b	-0.30553088
159	0xbd29495d	-0.04132973
160	0x3e213798	0.15743864
161	0x3ea0e81f	0.31427094
162	0xbe067d57	-0.13133751
163	0x3db78724	0.08961323
164	0x3c10fb86	0.00884903
165	0x3e8c103d	0.2735614
166	0x3e4f2bc3	0.20231538
167	0x3dece766	0.11567573
168	0x3dc9c643	0.098522685
169	0x3b725182	0.0036974852
170	0x3d3fd641	0.046835188
171	0x3daa09ca	0.08302648
172	0xbe8d9f7a	-0.27660733
173	0x3df66d9c	0.12032625
174	0x3d452987	0.048135307
175	0x3e814536	0.25248116
176	0x3e8257e1	0.2545767
177	0x3ece5c39	0.40304735
178	0x3e1e9571	0.15486695
179	0xbe0004af	-0.12501787
180	0x3cc24854	0.02371613
181	0x3db1f7dc	0.086898535
182	0xbcecf048	-0.028923169
183	0xbe83dd77	-0.25754902
184	0xbbdb4283	-0.0066912784
185	0x3d6e63b6	0.05820056
186	0xbca29caa	-0.019850094
187	0xbe9fc757	-0.31206772
188	0xbeeddfb8	-0.46459746
189	0xbc999709	-0.018748777
190	0xbe7f36c0	-0.24923229
191	0xbe15f015	-0.14642365
192	0x3ebf55d6	0.37370175
193	0xbc1dbe6a	-0.009627918
194	0x3e2b9425	0.16755731
195	0xbd7e4979	-0.062081788
196	0x3d9c175a	0.076216415
197	0xbdde0f7b	-0.108427964
198	0xbe678d88	-0.22612584
199	0x3db7750f	0.08957874

rb2.shortcut.conv.bias f4 [20]
0	0xb70b7ed0	-8.3145715e-06
1	0x379abe90	1.8446968e-05
2	0xb7f38aa5	-2.9032419e-05
3	0x37a39607	1.9500976e-05
4	0x372ca3e7	1.029016e-05
5	0xb6292540	-2.5204645e-06
6	0xb7209669	-9.571763e-06
7	0x358b1b4c	1.0364251e-06
8	0xb7186bc2	-9.084995e-06
9	0x3668a6a0	3.4667682e-06
10	0x37e59628	2.736885e-05
11	0x3738f6fb	1.1024759e-05
12	0xb782fa76	-1.5613838e-05
13	0xb6359d94	-2.7062824e-06
14	0xb6465525	-2.955386e-06
15	0x36c981ac	6.0053626e-06
16	0xb7356478	-1.0811833e-05
17	0xb6fcc551	-7.533156e-06
18	0x36485264	2.985028e-06
19	0x36bb6f94	5.5860237e-06

rb2.shortcut.bn.weight f4 [20]
0	0x3f72182d	0.9456814
1	0x3f32d713	0.6985943
2	0x3f6738c2	0.9032098
3	0x3f05b88f	0.5223474
4	0x3f2f4c60	0.68475914
5	0x3f2ee76f	0.6832189
6	0x3f066d89	0.5251089
7	0x3f42048a	0.75788176
8	0x3f4f7cbc	0.81049705
9	0x3f54b77a	0.83092463
10	0x3f0d2ebe	0.5514945
11	0x3f2ee67c	0.6832044
12	0x3ef0c197	0.47022697
13	0x3f5d0a90	0.8634424
14	0x3f89dab6	1.076987
15	0x3ef25222	0.47328287
16	0x3f327019	0.697023
17	0x3f06a36a	0.525931
18	0x3eb2aed6	0.34899014
19	0x3f3a00b4	0.7265732

rb2.shortcut.bn.bias f4 [20]
0	0x3e56579a	0.20931855
1	0x3d591844	0.053001657
2	0xbe384a40	-0.17997074
3	0x3afaa3d1	0.0019122307
4	0xbd9f070d	-0.07765017
5	0xbe2aedc6	-0.16692266
6	0x3dbcb493	0.09214129
7	0xbe72da9b	-0.23716204
8	0x3e6d678d	0.23184033
9	0xbe2406ce	-0.16018221
10	0x3d664a58	0.056223243
11	0xbe0616fd	-0.13094707
12	0xbc3bddac	-0.011466425
13	0x3d4f3414	0.050586775
14	0xbc27bf55	-0.010238488
15	0x3e419613	0.18904905
16	0xbcadc5f0	-0.021212548
17	0xbdfec3ea	-0.124397114
18	0x3dcb7c8a	0.09935863
19	0xbe8bbc45	-0.27292076

rb2.shortcut.bn.running_mean f4 [20]
0	0xbea624af	-0.32449862
1	0xbf5c0517	-0.85945266
2	0xbdf274c0	-0.118386745
3	0x3f819ff4	1.0126939
4	0x3ed76394	0.4206816
5	0xbf3a0dce	-0.72677314
6	0xbf1088fa	-0.5645901
7	0xbf54468b	-0.8292014
8	0xbf2f3310	-0.6843729
9	0xbf0da36f	-0.55327505
10	0xbe43ce54	-0.19121677
11	0x3debc498	0.11512107
12	0xbe4ecd14	-0.20195419
13	0xbf409061	-0.75220305
14	0xbf67053b	-0.90242356
15	0x3e15c687	0.14626513
16	0x3f60d24b	0.8782088
17	0x3f3e45e8	0.7432542
18	0xbf4f1085	-0.8088458
19	0x3d566fdd	0.052352775

rb2.shortcut.bn.running_var f4 [20]
0	0x3ef420e7	0.47681352
1	0x3ebb1a9f	0.36543748
2	0x3ebb43a7	0.36575052
3	0x3f068549	0.52547127
4	0x3ee1fa28	0.44136167
5	0x3ef4220a	0.4768222
6	0x3ec07bec	0.37594545
7	0x3f107a38	0.5643649
8	0x3ebb5a6f	0.36592433
9	0x3e9a82ea	0.30178005
10	0x3ed31adb	0.41231427
11	0x3e8c5816	0.27410954
12	0x3e7a4d84	0.24443632
13	0x3f310d9c	0.6916139
14	0x3eedd40f	0.4645085
15	0x3ebb05cb	0.36527857
16	0x3e9fb1de	0.3119039
17	0x3ecc8354	0.39943945
18	0x3f08638e	0.5327691
19	0x3e2304a0	0.15919733

res1_sc1.conv.weight f4 [20, 3, 1, 1]
0	0xbf0c9f20	-0.54930305
1	0x3db37cb2	0.08764018
2	0x3ea99e0f	0.33128402
3	0xbe799499	-0.24373092
4	0x3f0f67d0	0.5601778
5	0xbe72c4d1	-0.23707892
6	0x3c21220e	0.009834779
7	0xbe9c8b02	-0.30574805
8	0xbec4ed72	-0.38462406
9	0x3ec3542e	0.38150162
10	0xbeacf3ec	-0.33779848
11	0xbeb31055	-0.34973398
12	0x3ef67a93	0.48140392
13	0xbdeee235	-0.11664239
14	0x3e5c3f20	0.21508455
15	0xbf09f5da	-0.53890765
16	0xbebf6240	-0.37379646
17	0x3ea5a842	0.32354933
18	0xbe33edac	-0.17571133
19	0x3ebc2a41	0.36750987
20	0x3f003707	0.50083965
21	0x3eb404d4	0.35159934
22	0xbf103629	-0.5633264
23	0xbea957e6	-0.33074874
24	0x3e2bf439	0.16792382
25	0x3f07d102	0.53053296
26	0xbe344712	-0.17605236
27	0x3e8845ab	0.26615652
28	0xbe860f74	-0.26183665
29	0xbeb875b8	-0.36027312
30	0xbdced73e	-0.10099648
31	0xbe83f55f	-0.2577314
32	0xbebcee5a	-0.36900598
33	0x3e17fa5d	0.148416
34	0xbdaff54e	-0.0859171
35	0xbed32427	-0.4123852
36	0xbeb0d65f	-0.34538552
37	0xbe497d95	-0.19676812
38	0xbd68c586	-0.056828998
39	0x3b2b20bc	0.002611204
40	0xbe15c129	-0.14624466
41	0xbef2f35a	-0.47451288
42	0xbe6e3a53	-0.23264436
43	0x3e6aab75	0.22916968
44	0x3eb26c82	0.3484841
45	0x3ec25472	0.37955052
46	0x3e226688	0.15859425
47	0xbe85602e	-0.26049942
48	0x3dd5c0eb	0.10437187
49	0xbea6864c	-0.32524335
50	0x3d723e1c	0.059141263
51	0x3d68e699	0.05686054
52	0xbeb1214b	-0.34595713
53	0x3d63f1a6	0.055650376
54	0x3e733a83	0.23752789
55	0x3e9a7643	0.30168352
56	0xbdca8d6e	-0.09890257
57	0xbf036a37	-0.51333946
58	0x3e1f6727	0.15566693
59	0x3d91449d	0.07093165

res1_sc1.conv.bias f4 [20]
0	0x38105d69	3.441927e-05
1	0x37a82917	2.0046295e-05
2	0xb80f2028	-3.4123805e-05
3	0x38815af0	6.168138e-05
4	0x37afef4c	2.0973057e-05
5	0xb781a9bc	-1.5457037e-05
6	0xb7867261	-1.6027307e-05
7	0x36798175	3.7179245e-06
8	0x34a545de	3.078448e-07
9	0x3854d8c0	5.0746603e-05
10	0x37ee129f	2.8380482e-05
11	0xb799c69f	-1.8331511e-05
12	0xb631a528	-2.647119e-06
13	0x3844dd6c	4.6936257e-05
14	0xb631bbc9	-2.648436e-06
15	0xb6334e78	-2.6718753e-06
16	0x38007045	3.0622137e-05
17	0xb7d37990	-2.5209767e-05
18	0x378c7d9a	1.6747788e-05
19	0x381a67fe	3.681331e-05

res1_sc1.bn.weight f4 [20]
0	0x3f4ce7b0	0.8004103
1	0x3f6a0413	0.91412467
2	0x3f2cb763	0.67467326
3	0x3f0d67e6	0.5523666
4	0x3f01525e	0.5051631
5	0x3f1bf41d	0.6091936
6	0x3f0d46e7	0.55186313
7	0x3f16c4eb	0.5889422
8	0x3f1a9a39	0.60391575
9	0x3f25c54d	0.6475418
10	0x3f153697	0.5828642
11	0x3f127e9b	0.57224435
12	0x3ee9939c	0.4562043
13	0x3f15cee8	0.5851884
14	0x3f25ab63	0.6471464
15	0x3ebf5091	0.37366155
16	0x3f0a3ab7	0.5399584
17	0x3ef235ea	0.47306758
18	0x3ed9a5cd	0.42509308
19	0x3f4fac30	0.8112211

res1_sc1.bn.bias f4 [20]
0	0x3e56579a	0.20931855
1	0x3d591844	0.053001657
2	0xbe384a40	-0.17997074
3	0x3afaa3d1	0.0019122307
4	0xbd9f070d	-0.07765017
5	0xbe2aedc6	-0.16692266
6	0x3dbcb493	0.09214129
7	0xbe72da9b	-0.23716204
8	0x3e6d678d	0.23184033
9	0xbe2406ce	-0.16018221
10	0x3d664a58	0.056223243
11	0xbe0616fd	-0.13094707
12	0xbc3bddac	-0.011466425
13	0x3d4f3414	0.050586775
14	0xbc27bf55	-0.010238488
15	0x3e419613	0.18904905
16	0xbcadc5f0	-0.021212548
17	0xbdfec3ea	-0.124397114
18	0x3dcb7c8a	0.09935863
19	0xbe8bbc45	-0.27292076

res1_sc1.bn.running_mean f4 [20]
0	0xbd13b7be	-0.036063902
1	0x3c9ca0db	0.01911967
2	0x3ca9de9a	0.020736028
3	0x3ce78863	0.028263276
4	0xbb4b3554	-0.0031007128
5	0xbd321efc	-0.04348658
6	0xbd03967f	-0.032125946
7	0x3cb50c66	0.022100639
8	0x3cd4a762	0.02595872
9	0x3cde0d19	0.027105855
10	0x3c8f405b	0.017486742
11	0x3cf8f1d8	0.030388758
12	0xbc1868a9	-0.009302297
13	0x3cf17456	0.029474419
14	0xbcd4297e	-0.025898691
15	0x3cfda628	0.030963019
16	0xbbdf204f	-0.0068092714
17	0xbc083ce9	-0.008315303
18	0x3c98f162	0.018669788
19	0xbc85840d	-0.016298318

res1_sc1.bn.running_var f4 [20]
0	0x3cbe4197	0.023224635
1	0x3bce201c	0.006290449
2	0x3df051ff	0.117343895
3	0x3d26a25f	0.040682193
4	0x3da2f05e	0.07956003
5	0x3dc1d0b9	0.09463639
6	0x3e07f8c7	0.13278495
7	0x3db7a047	0.08966117
8	0x3d895893	0.06706347
9	0x3d34fe48	0.044187814
10	0x3e04865b	0.12941878
11	0x3d25f80d	0.040519763
12	0x3dab6917	0.08369654
13	0x3dce5463	0.10074689
14	0x3d25a0b4	0.04043646
15	0x3cd9fae3	0.02660889
16	0x3bf7abd0	0.0075583234
17	0x3c667ce7	0.014067865
18	0x3d3fc424	0.046817914
19	0x3cd8e2b2	0.026475284
