models/dense_max/epoch_0031.pth (torch, 645162 bytes, 174 tensors)

rb1.conv1.weight f4 [10, 3, 3, 3]
0	0xbda32a8f	-0.07967102
1	0x3daa479c	0.0831444
2	0xbd948e20	-0.07253671
3	0xbe6e586d	-0.2327592
4	0x3e8c7335	0.27431646
5	0x3e3b3840	0.18283176
6	0xbe527e8c	-0.20556086
7	0x3e403511	0.18770243
8	0xbdf400e0	-0.119142294
9	0xbe384355	-0.17994435
10	0x3c4f7156	0.012661299
11	0xbd25201b	-0.04031382
12	0xbe9db29b	-0.30800328
13	0x3e93fe94	0.28905165
14	0x3e2c68ba	0.16836825
15	0xbc7f2d68	-0.015574791
16	0x3e8dae88	0.2767222
17	0xbe65f018	-0.2245487
18	0xbcb63ca6	-0.022245716
19	0x3b5564ce	0.0032561305
20	0xbdbcb0a4	-0.09213379
21	0xbe64db21	-0.22349216
22	0x3d5cb6c8	0.05388525
23	0x3c124b82	0.008929135
24	0x3e0365dd	0.12831827
25	0x3d8c3340	0.06845713
26	0x3e114b64	0.14188915
27	0x3d6fab8d	0.058513213
28	0x3c907d7e	0.017637964
29	0x3e25d318	0.16193807
30	0x3d60a986	0.05484917
31	0x3e116023	0.1419683
32	0xbeb7b9ff	-0.3588409
33	0xbd5e3b98	-0.05425605
34	0x3d16b847	0.036796834
35	0xbd93bcf4	-0.07213774
36	0xbd0dd924	-0.03463091
37	0xbccc3791	-0.02492884
38	0xbbe8d6b1	-0.0071056713
39	0xbd2423bf	-0.040073153
40	0x3edc40e0	0.43018246
41	0xbe6bf05c	-0.23040909
42	0xbd68a729	-0.05680004
43	0x3dab2fa3	0.08358695
44	0xbe0323dd	-0.1280665
45	0xbe0c107f	-0.13678168
46	0xbe3307fd	-0.17483516
47	0x3df72cfc	0.12069127
48	0x3c10737f	0.008816599
49	0x3eb50763	0.35357198
50	0xbe8aa5e3	-0.27079687
51	0xbb718035	-0.00368501
52	0x3dc0fb31	0.09422911
53	0x3d3707f7	0.04468533
54	0x3d025297	0.031817045
55	0x3e8d20d7	0.27564117
56	0x3e3d879d	0.18508764
57	0xbe066697	-0.13125072
58	0xbd960e7e	-0.07326983
59	0x3dbf2e71	0.0933503
60	0xbd74cf83	-0.05976821
61	0xbe65fb8c	-0.22459239
62	0xba55e13c	-0.0008158868
63	0x3e7ace70	0.24492812
64	0x3e79b305	0.24384697
65	0x3ea12d81	0.3148003
66	0x3b905c17	0.004405509
67	0xbe2efa9a	-0.17087784
68	0xbde83c19	-0.11339588
69	0xbde08664	-0.10963133
70	0xbe899c8c	-0.26877248
71	0xbe3a1063	-0.18170314
72	0x3d67c998	0.05658874
73	0x3e2ed039	0.17071618
74	0x3d73f705	0.059561748
75	0xba141a62	-0.00056496833
76	0xbd31f7f7	-0.04344937
77	0xbdbdadbd	-0.092616536
78	0x3dd008c8	0.10157925
79	0xbe529c80	-0.20567513
80	0xbdffeffd	-0.12496946
81	0xbe43b69d	-0.1911263
82	0x3d0feb84	0.035136715
83	0xbe270a62	-0.16312554
84	0x3d918b12	0.07106604
85	0xbe9c8b3d	-0.3057498
86	0xbe2bae59	-0.16765727
87	0x3d3cd079	0.046097253
88	0x3dcffe80	0.10155964
89	0x3e282c11	0.1642306
90	0xbdd56bda	-0.10420962
91	0xbe1daf7c	-0.15398973
92	0xbe27a4e1	-0.1637149
93	0x3e58c5f0	0.21169257
94	0xbe89f179	-0.26942042
95	0xbdff1c03	-0.12456515
96	0x3e8b4d02	0.2720719
97	0x3cdac11c	0.02670341
98	0x3cdc08ac	0.026859604
99	0xbd23943b	-0.039936285
100	0x3cc9983d	0.024608726
101	0xbe0d4e9d	-0.1379952
102	0x3c438e3d	0.011935768
103	0xbe308633	-0.17238693
104	0xbe003dcc	-0.12523574
105	0x3e4167ee	0.18887302
106	0x3c83549c	0.016031556
107	0x3e6ab804	0.22921759
108	0xbe7ab715	-0.24483903
109	0xbe6b2e9a	-0.22966996
110	0x3e439b94	0.19102317
111	0xbdb56775	-0.088576235
112	0xbe2a7c94	-0.16649085
113	0x3e178e62	0.14800408
114	0xbdf11f1f	-0.11773514
115	0xbc07d38d	-0.008290184
116	0x3e69b043	0.22821145
117	0x3e70ad6f	0.2350366
118	0xbe5e6b2e	-0.21720573
119	0xbdb31b2e	-0.087454185
120	0xbd9b37e5	-0.075790204
121	0xbc0a918b	-0.008457552
122	0x3e2dcf9a	0.16973725
123	0x3dbdccb0	0.09267557
124	0x3df9a129	0.12188942
125	0x3e02c502	0.12770465
126	0x3e86bd5b	0.26316342
127	0x3da9bf1f	0.082884066
128	0xbd815d7d	-0.063166596
129	0x3e617511	0.22017314
130	0x3cfbca9d	0.030736262
131	0xbe8db8f2	-0.27680165
132	0x3e13c436	0.14430317
133	0x3c7c9ecc	0.0154187195
134	0xbe3e1d9a	-0.1856598
135	0xbe4226b7	-0.18960081
136	0xbe199d39	-0.15001382
137	0x3dfce39e	0.12348102
138	0x3cba5d7e	0.022749659
139	0xbe154989	-0.14578833
140	0xbb82f2e7	-0.0039962414
141	0x3df7bf09	0.12096984
142	0xbdaf6667	-0.085644536
143	0x3cca0518	0.024660632
144	0x3d967926	0.07347326
145	0x3e402d87	0.18767367
146	0x3e60a149	0.21936525
147	0xbd28b460	-0.041187644
148	0xbee187f1	-0.44049028
149	0xbdfec74d	-0.12440357
150	0x3e3440f4	0.17602903
151	0xbdf67f7a	-0.12036033
152	0xbea55571	-0.3229175
153	0x3c78a282	0.015175464
154	0xbda6d37d	-0.08145807
155	0x3e68ff09	0.22753538
156	0xbdae2d30	-0.085047126
157	0xbe282e8a	-0.16424003
158	0x3c003469	0.007824996
159	0xbe6f7272	-0.23383501
160	0xbeaa892d	-0.33307782
161	0x3ccfc036	0.025360208
162	0xbcb303fb	-0.021852484
163	0xbd1823b6	-0.03714343
164	0x3dcdeaf7	0.100545816
165	0x3dabc44e	0.083870515
166	0x3e4d75af	0.20064424
167	0xbdf4f9ab	-0.11961683
168	0xbcc3218f	-0.023819713
169	0xbd11df08	-0.03561309
170	0x3c99db49	0.018781321
171	0x3d849329	0.06473381
172	0x3ce4b8b4	0.027920105
173	0x3d8a7ba1	0.067618616
174	0x3e092c55	0.13395818
175	0x3e985b4d	0.29757157
176	0xbd7d3d49	-0.061826024
177	0x3cedfa13	0.029049909
178	0x3d27c6db	0.040961128
179	0xbe3c2f7f	-0.18377493
180	0xbe82e0ea	-0.2556222
181	0xbe179c9e	-0.14805838
182	0xbdcad4e3	-0.09903886
183	0xbbcf4033	-0.006324792
184	0x3dedeec7	0.11617809
185	0x3e171f15	0.1475795
186	0xbda19c0c	-0.07891092
187	0x3ec90297	0.39259788
188	0x3e8a9dab	0.27073416
189	0x3c836486	0.016039144
190	0xbe0e916c	-0.13922662
191	0x3e488bd4	0.1958459
192	0xbe870db7	-0.2637765
193	0xbd903a83	-0.0704241
194	0x3d9a87b1	0.07545412
195	0x3e6225d3	0.22084741
196	0xbd3c598e	-0.045983844
197	0x3e4ef9d7	0.20212494
198	0x3e032902	0.12808612
199	0xbcb49f2d	-0.022048557
200	0x3e4bdc2f	0.19908212
201	0xbe5af0b8	-0.2138089
202	0xbec65f44	-0.38744557
203	0xbbaa2e2a	-0.0051934915
204	0x3e1b402e	0.15161201
205	0x3e0adae6	0.13560066
206	0xbe81d9e2	-0.25361544
207	0xbdecbd13	-0.115595005
208	0xbdb7bb06	-0.08971219
209	0x3d8c35fa	0.06846233
210	0xbda428d8	-0.08015603
211	0xbe19709d	-0.14984365
212	0x3ebd9316	0.3702628
213	0x3e868b52	0.26278168
214	0xbdb370cd	-0.087617494
215	0xbcf5ce60	-0.030005634
216	0xbe90e8d1	-0.28302625
217	0x3dd6c951	0.10487617
218	0xbb8ec72f	-0.0043572406
219	0xbd0cdb92	-0.034389086
220	0x3e43542d	0.1907508
221	0x3e97addd	0.29624835
222	0xbc74e236	-0.014946511
223	0x3e16ff47	0.14745818
224	0xbd603ed2	-0.05474741
225	0xbda3abbe	-0.079917416
226	0xbe102dfa	-0.14080039
227	0xbe197305	-0.14985283
228	0x3c5992d0	0.013279632
229	0x3dfb3bba	0.12267251
230	0xbd85b417	-0.0652849
231	0x3e771ac1	0.241313
232	0xbe95e1dd	-0.29273883
233	0xbe54ada1	-0.20769359
234	0x3d816764	0.06318548
235	0x3dc62e36	0.09676783
236	0xbddcf14f	-0.107882135
237	0x3de6d949	0.112719126
238	0x3e4e2d67	0.20134507
239	0x3cbd1302	0.023080353
240	0x3d1e560c	0.03865628
241	0x3c8f3594	0.017481603
242	0xbe6c09f7	-0.23050676
243	0x3e810b7e	0.2520408
244	0x3ee8de53	0.4548212
245	0x3e4eb7ad	0.20187254
246	0x3e1b0a37	0.15140615
247	0x3e9a89a2	0.3018313
248	0x3d54542b	0.05183808
249	0xbda8f967	-0.08250695
250	0xbe3cd10a	-0.18439117
251	0xbeaffda1	-0.3437319
252	0x3e35d853	0.17758302
253	0x3e9d1c05	0.3068544
254	0x3d0f15b4	0.034932807
255	0xbd877b4c	-0.06615314

rb1.conv1.bias f4 [10]
0	0x385c3b6b	5.2507425e-05
1	0xb8988de1	-7.274352e-05
2	0x36cf0b8b	6.1704245e-06
3	0xb86f8967	-5.7110006e-05
4	0xb7507743	-1.2425534e-05
5	0xb5fcdd84	-1.8839933e-06
6	0xb85166d6	-4.9925256e-05
7	0xb970d9a6	-0.00022969264
8	0x38fd69f6	0.00012083717
9	0xb7f857e8	-2.9604838e-05

rb1.bn1.weight f4 [10]
0	0x3f4ab723	0.79185694
1	0x3f9e79cc	1.238092
2	0x3f5a7f47	0.8535046
3	0x3f5f1277	0.8713755
4	0x3f12cfdd	0.57348424
5	0x3f4cfba2	0.8007146
6	0x3f2c79e5	0.67373496
7	0x3f7d2bcc	0.98894954
8	0x3f530aa4	0.8243811
9	0x3f2c8b69	0.67400223

rb1.bn1.bias f4 [10]
0	0x3ea5237d	0.32253638
1	0x3f907b3a	1.1287606
2	0x3c0507c1	0.008119524
3	0x3d0f6d57	0.035016384
4	0x3d5de268	0.054170996
5	0xbcb2a0f0	-0.021805257
6	0x3a55efbc	0.00081610284
7	0x3f44aca1	0.7682591
8	0x3f0be604	0.5464785
9	0x3dfef6ab	0.12449392

rb1.bn1.running_mean f4 [10]
0	0xbc6469cb	-0.013941239
1	0xbc0e3a59	-0.008680903
2	0x3c7ff029	0.0156212235
3	0x3ce687d0	0.028140932
4	0xbd1a3ea2	-0.037657388
5	0x3de25d1a	0.11052914
6	0xbd96c6bb	-0.073621236
7	0xbacf22dc	-0.0015803236
8	0xbbfe2318	-0.0077556483
9	0xbcdd4d86	-0.027014505

rb1.bn1.running_var f4 [10]
0	0x3da55d07	0.08074384
1	0x3d222fb4	0.039596274
2	0x3e4c329a	0.19941178
3	0x3e768ac0	0.24076366
4	0x3d28ef5c	0.041243896
5	0x3ee0f18f	0.43934295
6	0x3e5e4d6a	0.21709219
7	0x3d7188f4	0.0589685
8	0x3d254422	0.04034818
9	0x3eca7272	0.3954044

rb1.conv2.weight f4 [10, 10, 3, 3]
0	0xbc9b2d46	-0.018942486
1	0xbe40deb7	-0.18834959
2	0xb9917b39	-0.00027748363
3	0x3c9c8ca2	0.019110028
4	0xbe10749d	-0.14106984
5	0xbd443d75	-0.047910172
6	0x3c6c3430	0.014416739
7	0xbd4a0e8b	-0.049330276
8	0xbccbb30f	-0.024865655
9	0x3c7f69ad	0.01558916
10	0x3e32be97	0.17455517
11	0xbe82d459	-0.25552633
12	0xbe858e79	-0.2608526
13	0xbdb650bf	-0.0890212
14	0x3e14b4a7	0.14522038
15	0x3e14fbfe	0.14549252
16	0xbe5a5d28	-0.21324599
17	0x3cbe897a	0.023258913
18	0xbe053943	-0.13010125
19	0x3db4d75b	0.08830138
20	0xbde53b8d	-0.11192999
21	0x3bd35ee4	0.006450521
22	0xbe4ece66	-0.20195922
23	0xbe2fb248	-0.17157853
24	0x3c947032	0.018119905
25	0x3ddf27a3	0.10896232
26	0x3e214f03	0.15752797
27	0x3e1ad1a1	0.1511903
28	0x3e20ddf7	0.15709673
29	0x3e01e48c	0.1268484
30	0x3dda2f53	0.10653558
31	0x3de92aa1	0.11385084
32	0x3cdb4dae	0.026770439
33	0xbdfef0fd	-0.124483086
34	0xbd91445c	-0.07093117
35	0xbe703d94	-0.2346099
36	0xbe09b7a8	-0.13448966
37	0x3d4ad71c	0.04952155
38	0xbd2c690c	-0.042092368
39	0xbb647f1d	-0.0034865804
40	0xbdc2761e	-0.09495185
41	0x3c95b62b	0.018275341
42	0xbd81e7b6	-0.063430235
43	0xbc350c98	-0.011050366
44	0xbd9f874b	-0.07789477
45	0x3dafa81d	0.08576987
46	0x3e7383fb	0.23780815
47	0x3e2ed6ba	0.17074099
48	0xbcbf74c3	-0.023371106
49	0x3b9807b0	0.0046395883
50	0xbd0f27a7	-0.034949925
51	0xbd520977	-0.051278558
52	0x3d5475af	0.051870044
53	0x3e206c71	0.15666367
54	0xbd805d74	-0.06267825
55	0xbd229a23	-0.039697777
56	0xbda6461d	-0.08118842
57	0xbdb615f9	-0.0889091
58	0xbe6e56c0	-0.2327528
59	0xbda1139e	-0.0786507
60	0x3dc71e9f	0.097226374
61	0x3d8c2908	0.068437636
62	0xbd7a2e29	-0.061079178
63	0xbd2080c0	-0.039185286
64	0x3de1ab64	0.11019018
65	0x3e8eb63d	0.27873412
66	0xbd62c4e7	-0.055363562
67	0xbe81e776	-0.25371903
68	0xbeca5ea4	-0.3952533
69	0x3ca241c0	0.019806743
70	0x3e2b9f3d	0.16759963
71	0x3dd9e974	0.10640231
72	0xbd386191	-0.04501492
73	0xbe2c2fca	-0.16815105
74	0xbdd69381	-0.10477353
75	0x3df84258	0.12122029
76	0x3d6dfc3c	0.058101878
77	0x3dd7ce57	0.10537403
78	0xbe4a89b3	-0.1977909
79	0xbc79996c	-0.0152343325
80	0xbd438b27	-0.047740128
81	0xbea3e5b1	-0.32011178
82	0xbea18b53	-0.31551608
83	0xbde74e50	-0.11294234
84	0xbe33848a	-0.17531028
85	0xbd3ba61f	-0.045812722
86	0xbd39d46b	-0.045368593
87	0xbe086f37	-0.13323675
88	0xbd9ecc9f	-0.07753872
89	0x3d76fbe0	0.0602988
90	0xbc33eceb	-0.010981779
91	0xbdf55618	-0.11979312
92	0x3e02f9b8	0.12790573
93	0x3c9883e1	0.018617572
94	0x3d833866	0.064072415
95	0x3ea0a152	0.31373078
96	0xbd358472	-0.044315763
97	0x3e22b7e0	0.15890455
98	0xbdbfab5b	-0.09358855
99	0x3ddc1b7f	0.10747432
100	0x3da29000	0.07937622
101	0xbe2cfd24	-0.1689344
102	0x3e23a35d	0.15980287
103	0xbeef3ad6	-0.46724576
104	0x3d789e36	0.060697757
105	0xbea00783	-0.3125573
106	0x3df9c7e9	0.12196333
107	0x3e11cc70	0.14238143
108	0x3c8fd4e7	0.017557574
109	0x3e09f139	0.13470925
110	0xbdd0f020	-0.1020205
111	0xbb92e5b3	-0.0044829487
112	0xbe2f3e76	-0.1711367
113	0xbe1c007f	-0.15234564
114	0x3cd5e31e	0.026109274
115	0xbdc36d62	-0.095423475
116	0xbd675669	-0.05647889
117	0xbe68a11c	-0.22717708
118	0x3dcea880	0.100907326
119	0x3d3c9d6f	0.046048578
120	0x3d8bce38	0.068264425
121	0xbd4ba000	-0.049713135
122	0xbdcf2bcd	-0.10115776
123	0x3bc995a1	0.0061518704
124	0xbe4828ee	-0.19546863
125	0xbc9a4e4e	-0.018836167
126	0x3e3f978c	0.18710154
127	0x3e615c36	0.22007832
128	0x3d3cf761	0.046134356
129	0x3d977ee5	0.0739725
130	0xbcfb9f4e	-0.03071561
131	0xbdc05dea	-0.09392913
132	0xbc9c3006	-0.019065868
133	0xbe153040	-0.14569187
134	0xbe27bb20	-0.16379976
135	0xbda32d9c	-0.07967684
136	0xbdabd7b8	-0.083907545
137	0xbdbbb692	-0.09165682
138	0xbd4cee47	-0.050031926
139	0xbd782bd2	-0.060588665
140	0xbe01961f	-0.12654923
141	0xbd9afda3	-0.075679086
142	0xbe36a633	-0.17836837
143	0xbd73db75	-0.059535462
144	0x3dd14d04	0.10219768
145	0x3e230b1f	0.15922211
146	0x3ddc8071	0.10766686
147	0x3e1c2df2	0.15251902
148	0x3e349003	0.17633061
149	0x3dfa14f5	0.122110285
150	0x3e18255a	0.14857998
151	0x3e3c72b7	0.18403135
152	0x3cecad9b	0.028891375
153	0x3dba35ee	0.090923175
154	0xbe8e7413	-0.27822933
155	0xbbbd5f5b	-0.0057791895
156	0xbd47a45a	-0.048740722
157	0xbe83a4fb	-0.25711808
158	0x3e4bfed1	0.19921423
159	0xbd308213	-0.0430928
160	0x3e84f520	0.25968266
161	0xbc16d029	-0.009204903
162	0x3dd5ab18	0.10433024
163	0xbbaccb82	-0.0052732835
164	0xbe59c530	-0.21266627
165	0x3d0b0d38	0.033948153
166	0xbddb06d3	-0.10694661
167	0x3e1e2afd	0.15446086
168	0xbc103f67	-0.008804179
169	0x3e110811	0.14163233
170	0xbd0e2608	-0.03470424
171	0xbcf16e8b	-0.029471656
172	0xbbc7e993	-0.0061008423
173	0x3ca16622	0.019702021
174	0x3d4ed53b	0.05049632
175	0xbcf0e28f	-0.029404907
176	0x3d1b0be5	0.03785314
177	0xbd886ee7	-0.06661778
178	0x3e19e1a2	0.15027478
179	0x3d0b87d8	0.034065098
180	0x3cfbfe0c	0.030760787
181	0xbea30c4a	-0.31845313
182	0xbd81b7fa	-0.06333919
183	0x3c59ab47	0.013285465
184	0xbd94830a	-0.07251556
185	0xbcb34a39	-0.021885978
186	0x3daab0dc	0.083345145
187	0x3d864684	0.065564185
188	0x3d8dbf38	0.06921238
189	0xbd8fa515	-0.07013909
190	0xbe0c1e75	-0.13683493
191	0x3c402258	0.011726938
192	0xbd8fff21	-0.07031084
193	0xbe1add2a	-0.1512343
194	0xbce4298a	-0.027851839
195	0xbbe1ee4e	-0.006894863
196	0x3e11f59a	0.14253846
197	0x3e2044be	0.15651223
198	0x3e87b2eb	0.2650369
199	0x3d478218	0.04870805
200	0x3d35fb53	0.044429135
201	0x3eb7c98f	0.35895965
202	0x3d7fddeb	0.062467497
203	0xbe20f3a9	-0.15717949
204	0x3da79ba5	0.08183984
205	0xbde41f4a	-0.111387804
206	0xbd38b62d	-0.04509561
207	0x3dc13bf1	0.09435261
208	0x3d53c48d	0.051701117
209	0xb98f8fcb	-0.0002738222
210	0xb981ff9d	-0.00024795244
211	0x3d1d2bf6	0.038372003
212	0x3aa12c42	0.0012296515
213	0x3e8f4863	0.27984914
214	0xbc6dc096	-0.014511248
215	0x3cc82a77	0.024434311
216	0x3dca1b4a	0.09868486
217	0x3df1af0b	0.11800965
218	0x3ce9b14e	0.028526928
219	0x3e7061be	0.23474786
220	0x3d93e0b2	0.072205916
221	0x3d127780	0.035758495
222	0x3db387d0	0.087661386
223	0x3d3ecb03	0.046580326
224	0x3c291d1c	0.010321882
225	0x3e5ce926	0.21573314
226	0x3e676bf0	0.22599769
227	0x3e33c501	0.1755562
228	0x3e3b2e72	0.18279436
229	0x3dbffcbf	0.09374379
230	0x3d302689	0.0430055
231	0x3d27ab8f	0.040935095
232	0x3d2fc389	0.042911086
233	0xbdd4d98c	-0.10393056
234	0x3c86fde2	0.016478483
235	0xbd3dcfbe	-0.046340697
236	0xbdefe9bb	-0.117145024
237	0x3ca02dc6	0.019553076
238	0xbd452b3a	-0.048136927
239	0xbdea83fc	-0.11450955
240	0x3cd8d995	0.026470939
241	0xbc1b183e	-0.009466229
242	0xbded3e33	-0.11584129
243	0x3e2d544e	0.16926691
244	0x3dda6d61	0.106653936
245	0xbaed3268	-0.0018096687
246	0x3d9cc53c	0.07654807
247	0x3da3dd69	0.08001215
248	0xbc6f93e3	-0.014622661
249	0xbde41ee1	-0.11138702
250	0x3ce22ecf	0.02761021
251	0xbd563886	-0.0523
252	0x3e8f6c8e	0.28012508
253	0x3e9423ae	0.2893347
254	0xbd7863d1	-0.060642067
255	0x3e4a77b8	0.19772232

rb1.conv2.bias f4 [10]
0	0x387bcdc6	6.0034705e-05
1	0x385f45ef	5.3232474e-05
2	0xb5e7aad0	-1.7260554e-06
3	0xb7595a7f	-1.2955278e-05
4	0xb64dee96	-3.0686256e-06
5	0x388c3b7b	6.686799e-05
6	0xb7c0f0b7	-2.3000275e-05
7	0xb737a57a	-1.0946178e-05
8	0xb82b560a	-4.0849707e-05
9	0xb7ec83ab	-2.8194705e-05

rb1.bn2.weight f4 [10]
0	0x3f84bf8e	1.0370958
1	0x3f9126bc	1.1339946
2	0x3f4e86d9	0.8067451
3	0x3f8d81c7	1.105523
4	0x3f3b17dc	0.7308328
5	0x3f894c59	1.0726424
6	0x3fa9ed1a	1.3275483
7	0x3f88b6db	1.0680803
8	0x3f8e4859	1.1115829
9	0x3f5c56cc	0.8606994

rb1.bn2.bias f4 [10]
0	0x3d8035aa	0.062602356
1	0xbd8347ec	-0.064102024
2	0x3e95cbb9	0.2925699
3	0xbcbfed51	-0.023428591
4	0x3e844e53	0.25841007
5	0x3dc69ad7	0.09697502
6	0xbc692f88	-0.014232524
7	0x3dd38a32	0.10329093
8	0x3d6c4fd9	0.057693336
9	0x3e8e9fa9	0.27856186

rb1.bn2.running_mean f4 [10]
0	0xbf9d6087	-1.2295083
1	0xbe95be94	-0.29246962
2	0x3f4f1f07	0.8090672
3	0xbc283efa	-0.010268921
4	0xbf1614c3	-0.5862543
5	0xbe1ec74b	-0.15505712
6	0xbf1fc806	-0.62414587
7	0xbe9f6aa1	-0.3113604
8	0x3d831c91	0.06401933
9	0x3fc8e4c2	1.5694811

rb1.bn2.running_var f4 [10]
0	0x3fc8fb79	1.5701743
1	0x3fa46544	1.2843404
2	0x3f71ca8c	0.94449687
3	0x3fcc3d8a	1.595628
4	0x3f56f68a	0.8396994
5	0x3fd73a58	1.681468
6	0x40044920	2.0669632
7	0x3fd1a106	1.6377265
8	0x3ff161df	1.8857993
9	0x3fd39165	1.6528746

rb1.shortcut.conv.weight f4 [10, 3, 1, 1]
0	0x3ee776e4	0.45207894
1	0x3c24d66b	0.010060887
2	0x3eabda3b	0.33564934
3	0xbea6caf2	-0.3257671
4	0xbf0cf1c8	-0.5505643
5	0xbebd7e1f	-0.37010285
6	0x3ebd4dbd	0.36973372
7	0xbeb5b8d5	-0.35492578
8	0x3dd8828c	0.10571775
9	0xbef0c93d	-0.47028533
10	0xbf3363fb	-0.70074433
11	0x3e2f7bff	0.17137145
12	0xbdd49e2e	-0.10381733
13	0xbe4a3c60	-0.19749594
14	0x3f13db52	0.5775653
15	0x3ec04a20	0.37556553
16	0x3e139ac3	0.14414506
17	0x3ef5a994	0.4798094
18	0xbebb0c50	-0.3653283
19	0xbead82f3	-0.3388897
20	0xbea6369d	-0.32463542
21	0xbe90393c	-0.28168666
22	0xbf34b8bb	-0.70594376
23	0x3e84aaf9	0.25911692
24	0xbe99373d	-0.29924956
25	0xbf05d5ec	-0.52279544
26	0xbd8c8b24	-0.068624765
27	0xbe90920a	-0.2823642
28	0x3d68643b	0.056736212
29	0xbf15d0b8	-0.58521605

rb1.shortcut.conv.bias f4 [10]
0	0x380fd566	3.42926e-05
1	0xb807dc9e	-3.2391974e-05
2	0xb9534f11	-0.00020151983
3	0x37536fbc	1.2602595e-05
4	0xb99911ca	-0.00029195688
5	0x38d96f54	0.00010368103
6	0xb78c1cfe	-1.6702801e-05
7	0x370be091	8.337332e-06
8	0x379a51ed	1.839638e-05
9	0x389fc5bf	7.618544e-05

rb1.shortcut.bn.weight f4 [10]
0	0x3f7964c6	0.97419393
1	0x3f6a7817	0.9158949
2	0x3f8066db	1.0031389
3	0x3f644b48	0.8917737
4	0x3f91e43e	1.1397779
5	0x3f6f90c9	0.935803
6	0x3f13b3ec	0.57696414
7	0x3f2da314	0.6782696
8	0x3f64df55	0.8940328
9	0x3f675693	0.90366477

rb1.shortcut.bn.bias f4 [10]
0	0x3d8035aa	0.062602356
1	0xbd8347ec	-0.064102024
2	0x3e95cbb9	0.2925699
3	0xbcbfed51	-0.023428591
4	0x3e844e53	0.25841007
5	0x3dc69ad7	0.09697502
6	0xbc692f88	-0.014232524
7	0x3dd38a32	0.10329093
8	0x3d6c4fd9	0.057693336
9	0x3e8e9fa9	0.27856186

rb1.shortcut.bn.running_mean f4 [10]
0	0xbd648785	-0.055793304
1	0x3db67544	0.089090854
2	0xbb3d76da	-0.0028909952
3	0x3d0f3bfe	0.034969322
4	0xbd6a777f	-0.057242867
5	0xbda2e1ef	-0.0795325
6	0x3d930f49	0.0718065
7	0x3c99bf38	0.018767938
8	0x3d490d1a	0.04908476
9	0x3d9fc72b	0.0780166

rb1.shortcut.bn.running_var f4 [10]
0	0x3e1faf1b	0.15594141
1	0x3ec35cff	0.38156888
2	0x3beb0ae8	0.007172931
3	0x3e7b7216	0.24555239
4	0x3d04016d	0.032227922
5	0x3e7cfe68	0.24706423
6	0x3e846e08	0.25865197
7	0x3e08851a	0.13332024
8	0x3e45b31d	0.19306608
9	0x3e2c54a0	0.16829157

rb2.conv1.weight f4 [20, 10, 3, 3]
0	0x3d9b1b72	0.07573594
1	0x3e06b1ff	0.13153838
2	0x3d97e2e3	0.07416322
3	0x3e279e8b	0.16369073
4	0x3e679587	0.22615634
5	0x3de0bd8e	0.10973655
6	0x3d2810e1	0.041031722
7	0x3dd74d6f	0.10512816
8	0x3e009a2b	0.1255881
9	0x3e1412b9	0.14460267
10	0xbdf04afa	-0.11733051
11	0xbdfceb64	-0.12349585
12	0xbe00951f	-0.12556885
13	0xbda7a452	-0.081856385
14	0xbd0008ad	-0.031258274
15	0x3e1bae2b	0.15203159
16	0xbe1a647e	-0.15077397
17	0xbdc77316	-0.09738748
18	0xbdbcf0cd	-0.092256166
19	0xbea1a862	-0.31573778
20	0xbe38a880	-0.18033028
21	0x3b06d54b	0.002057391
22	0xbe85725a	-0.26063806
23	0xbe230f17	-0.15923725
24	0x3d41b1b6	0.04728862
25	0x3d4cda5e	0.05001294
26	0xbdc61963	-0.09672811
27	0xbccc03ca	-0.02490415
28	0xbdf1122e	-0.117710456
29	0x3dc97415	0.09836594
30	0x3db824cc	0.089913934
31	0x3d91491d	0.070940234
32	0x3de1f1cf	0.110324495
33	0x3d27e777	0.040992226
34	0x3d282e70	0.04105991
35	0x3e585c42	0.21128944
36	0xbb812800	-0.003941536
37	0x3e038d9a	0.12846985
38	0xbcf89cf5	-0.03034828
39	0xbd749698	-0.05971393
40	0x3c56a351	0.013100461
41	0x3da775ec	0.08176789
42	0x3cb88d8d	0.022528434
43	0xbe97929f	-0.2960405
44	0xbe70f8a0	-0.23532343
45	0x3dc2e6f0	0.09516704
46	0x3d406c9e	0.046978585
47	0x3d942cee	0.07235132
48	0xbe128298	-0.1430763
49	0xbd8ca6b1	-0.06867731
50	0xbdbe8e16	-0.093044445
51	0xbd327f83	-0.043578636
52	0xbeee1f11	-0.46508077
53	0xbd14b404	-0.03630449
54	0x3de43bc6	0.111442134
55	0x3daf4df0	0.08559787
56	0x3e252b1f	0.1612973
57	0x3d8cdefc	0.068784684
58	0x3d0ed491	0.034870688
59	0x3dfcd15d	0.123446204
60	0x3d46d8a7	0.04854646
61	0xbd024333	-0.031802367
62	0xbd3447ea	-0.044013895
63	0x3d8f481f	0.06996178
64	0xbdc2fde4	-0.09521082
65	0x3d749f92	0.05972249
66	0xbdae9774	-0.08524981
67	0xbeb23d08	-0.34812188
68	0xbd71be95	-0.059019644
69	0x3d6bc2c7	0.0575588
70	0xbe1844a6	-0.14869937
71	0xbde9e66a	-0.11420901
72	0xbc646d10	-0.013942018
73	0x3c7b5f4a	0.015342543
74	0xbe2a0071	-0.16601731
75	0xbe2c5213	-0.16828184
76	0x3d9640f3	0.07336607
77	0x3e268d0c	0.16264743
78	0xbe293cee	-0.16527149
79	0xbd1a1209	-0.037614856
80	0x3db56608	0.088573515
81	0xbe08ee0f	-0.13372062
82	0x3c97ab27	0.018514229
83	0xbe17f200	-0.1483841
84	0xbb2af2bb	-0.002608462
85	0x3d06c511	0.03290278
86	0xbd010dfc	-0.031507477
87	0xbda96702	-0.082716
88	0x3d5b101e	0.053482167
89	0x3e60a5f2	0.21938303
90	0xbe7cd1b9	-0.24689378
91	0xbe2d1648	-0.16903031
92	0xbd965044	-0.07339528
93	0x3d36adf8	0.044599503
94	0xbd386974	-0.045022443
95	0x3b4f775b	0.0031656835
96	0x3e260908	0.16214383
97	0x3e424e7c	0.18975252
98	0x3e65c922	0.22440007
99	0xbe91300f	-0.28356978
100	0xbe0a90b1	-0.13531758
101	0xbd04a203	-0.03238107
102	0xbe10e672	-0.14150408
103	0x3dbd5628	0.092449486
104	0xbb2d3da4	-0.0026434446
105	0xbd91a50e	-0.0711156
106	0xbcf351da	-0.029702116
107	0xbbd80d35	-0.0065933713
108	0xbe8510d1	-0.25989392
109	0xbec400a8	-0.3828175
110	0xbe77af46	-0.24187955
111	0x3dd0ab64	0.1018894
112	0x3cc353a8	0.023843601
113	0xbcb8bbef	-0.022550551
114	0x3e4b2040	0.19836521
115	0x3e83cfa8	0.25744367
116	0x3e9fd9e9	0.3122094
117	0xbd8b20dd	-0.067933775
118	0x3ca1875b	0.019717863
119	0xbca91303	-0.020638948
120	0xbe256e75	-0.16155417
121	0x3d72f8e4	0.05931939
122	0xbdcc6e76	-0.09982006
123	0xbda9e100	-0.082948685
124	0xb960f4eb	-0.00021453544
125	0xbda097b3	-0.07841434
126	0x3e3db69f	0.18526696
127	0x3e734b10	0.23759103
128	0x3c98b4ea	0.018640954
129	0x3bfd33b3	0.0077271103
130	0xbc81c6c9	-0.015841858
131	0xbe093344	-0.13398463
132	0xbe3afc24	-0.18260247
133	0xbe7b551a	-0.24544182
134	0xbe68ee2d	-0.22747107
135	0xba51188b	-0.00079763745
136	0xbcd7ea5d	-0.02635687
137	0x3e112ee0	0.14178038
138	0xbd5f3552	-0.05449421
139	0x3d3c1a83	0.04592372
140	0x3d47887a	0.04871414
141	0x3d381a8f	0.044947203
142	0xbb1e67f6	-0.0024170852
143	0x3db0e43d	0.08637283
144	0x3dbaae05	0.09115223
145	0x3de98973	0.114031695
146	0x3d3ae61a	0.0456296
147	0xbd852c75	-0.0650262
148	0x3c53c60c	0.012925636
149	0xbde01bf8	-0.109428346
150	0xbc925277	-0.017861588
151	0x3ca06e5d	0.019583875
152	0xbd3b7295	-0.04576357
153	0x3e1604a4	0.14650208
154	0x3e90bdc0	0.28269768
155	0x3e056701	0.13027574
156	0xbc446a29	-0.011988201
157	0x3da24d6b	0.079249226
158	0x3dd1c4b3	0.102425955
159	0xbe074504	-0.13209921
160	0x3c7785aa	0.015107552
161	0xbd6393af	-0.055560764
162	0xbdde1e4b	-0.10845622
163	0x3d971809	0.07377631
164	0xbd9d5f5e	-0.076842055
165	0xbdea10f6	-0.11429016
166	0x3d9fea4e	0.07808362
167	0xbe3499c9	-0.1763679
168	0x3cbb33ea	0.022851903
169	0x3d00bab4	0.031428054
170	0xbd793031	-0.060836975
171	0xbd772d84	-0.06034614
172	0x3c5ee4b4	0.013604332
173	0x3cadfb8d	0.021238113
174	0x3ca113e1	0.0196628
175	0x3e0ff009	0.1405641
176	0x3d6dbd3c	0.058041796
177	0xbc501507	-0.012700326
178	0x3d9d24cc	0.07673034
179	0xbd80e479	-0.06293578
180	0xbd1195eb	-0.035543364
181	0x3d976cc2	0.07393791
182	0xbdd3867c	-0.10328385
183	0xbcca9f0b	-0.02473404
184	0x3d3ad086	0.04560902
185	0xbd164438	-0.036686152
186	0xbcc8a2f4	-0.024491765
187	0xbd4b1111	-0.049576823
188	0x3d682cb2	0.05668325
189	0xbc49d3b7	-0.012318543
190	0x3cddf6a6	0.02709515
191	0x3e4003fe	0.18751523
192	0xbe1c8844	-0.15286356
193	0x3d9550ce	0.07290803
194	0x3deddddb	0.11614581
195	0xbdba8ee5	-0.09109286
196	0xbe8654d5	-0.26236597
197	0xbe38e31d	-0.18055387
198	0x3dce715d	0.10080216
199	0xbe42d301	-0.19025804
200	0x3d69e58f	0.05710369
201	0x3e40befe	0.18822858
202	0xbcdac302	-0.026704315
203	0xbc94b2da	-0.01815169
204	0x3d4dff40	0.050292253
205	0x3d359caa	0.04433886
206	0x3d7aecfa	0.061261155
207	0x3e75df4e	0.24010965
208	0x3e6b45b7	0.22975813
209	0x3e01e2be	0.12684152
210	0xbd1c6241	-0.03817964
211	0x3e479778	0.19491374
212	0x3d30cfa3	0.043166768
213	0xbdaa7ffa	-0.08325191
214	0x3de5e7b0	0.112258315
215	0x3d0f24d3	0.034947228
216	0xbe23ea85	-0.16007431
217	0x3c487e46	0.012237137
218	0xbd7cb34f	-0.06169444
219	0xbd98c151	-0.07458747
220	0xbd897320	-0.067114115
221	0xbad03ab7	-0.0015886639
222	0x3dd5995f	0.10429644
223	0xbd331415	-0.043720324
224	0xbb330fdf	-0.0027322692
225	0x3e00b347	0.12568389
226	0x3d38e402	0.04513932
227	0xbdb3d380	-0.08780575
228	0xbea57f9c	-0.3232392
229	0x3d404eac	0.046950027
230	0x3d25a4cd	0.04044037
231	0xbe80f2fc	-0.25185382
232	0x3d02448a	0.031803645
233	0x3dad1c90	0.084527135
234	0x3e711be6	0.23545799
235	0x3e3979aa	0.18112817
236	0x3d1b9d32	0.03799171
237	0xbdc687ac	-0.09693846
238	0xbd97487a	-0.07386871
239	0xbdef098d	-0.116717435
240	0xbf17fee1	-0.5937329
241	0xbee55b5a	-0.44796258
242	0xbe0fa8d0	-0.1402924
243	0xbd4aa634	-0.04947491
244	0x3bdef635	0.0068042525
245	0x3d6e8418	0.058231443
246	0xbde339cd	-0.11095009
247	0x3d7cdbe5	0.061733145
248	0x3da342a1	0.07971693
249	0xbd7cbb5d	-0.06170212
250	0xbda0eff6	-0.07858269
251	0xbdc25e10	-0.09490597
252	0xbdb6087c	-0.08888337
253	0xbd9665e2	-0.07343651
254	0xbc99095b	-0.018681219
255	0xbe2ba1d1	-0.16760947

rb2.conv1.bias f4 [20]
0	0xb7c90d9d	-2.3967406e-05
1	0xb4390400	-1.7230923e-07
2	0xb7687e15	-1.3857633e-05
3	0x35e530c5	1.7076023e-06
4	0xb815b863	-3.569609e-05
5	0xb77b5733	-1.49810685e-05
6	0xb84616d5	-4.7228143e-05
7	0xb729b36c	-1.011496e-05
8	0xb5c230b8	-1.4468305e-06
9	0xb784293d	-1.575483e-05
10	0x38178499	3.6124697e-05
11	0x3867059b	5.5079912e-05
12	0xb734ff0b	-1.0788218e-05
13	0xb78382f2	-1.5677393e-05
14	0x37d662c0	2.5556772e-05
15	0x38241f17	3.91296e-05
16	0xb806f9b7	-3.2180655e-05
17	0xb7cca271	-2.4394338e-05
18	0xb748e23e	-1.1973605e-05
19	0x3805b41d	3.1877415e-05

rb2.bn1.weight f4 [20]
0	0x3f54ec7e	0.8317336
1	0x3f5dc421	0.86627394
2	0x3f64c0dc	0.8935678
3	0x3f85c2fa	1.0450127
4	0x3f887f73	1.0663894
5	0x3f3dbfd8	0.74120855
6	0x3f7333b1	0.9500075
7	0x3f57453b	0.8409001
8	0x3f2efac6	0.683514
9	0x3f5b58d1	0.856824
10	0x3f4774ea	0.7791277
11	0x3f821ae0	1.0164452
12	0x3f815e33	1.0106872
13	0x3f758d0d	0.9591835
14	0x3f6b4642	0.9190408
15	0x3f89f642	1.0778277
16	0x3f653263	0.8953001
17	0x3f60004c	0.87500453
18	0x3f743b39	0.95402867
19	0x3f7176a1	0.9432164

rb2.bn1.bias f4 [20]
0	0x3d1f99df	0.038965102
1	0xbe2226d4	-0.15835124
2	0x3e03b228	0.1286093
3	0xbb8a41bf	-0.0042192633
4	0xbe90d2cb	-0.28285822
5	0xbd7ab4cc	-0.061207578
6	0x3cf3ebe5	0.02977557
7	0x3e2f687f	0.17129706
8	0xbbab3f4b	-0.005226051
9	0x3dba8abb	0.09108492
10	0x3d34b9e6	0.0441226
11	0x3d891caf	0.06694924
12	0xbdb76126	-0.089540765
13	0x3ce3793d	0.027767772
14	0xbdd15d52	-0.102228776
15	0xbd9e1dae	-0.07720505
16	0x3e0b9dcb	0.13634412
17	0x3af02129	0.0018320429
18	0x3e025b90	0.12730241
19	0xbdb562b2	-0.08856715

rb2.bn1.running_mean f4 [20]
0	0xbfa60ce0	-1.2972679
1	0xbe5d05f2	-0.21584299
2	0xbfd6bbe9	-1.6776096
3	0xc03d5184	-2.9581003
4	0xbfa1e950	-1.2649326
5	0x3e0607af	0.13088869
6	0xbfa89af2	-1.3172286
7	0xbfc33d45	-1.5253073
8	0x3fa2d399	1.2720824
9	0xbe8fbdc3	-0.28074464
10	0xbecd35a2	-0.4007998
11	0xbf81eb8c	-1.0150008
12	0xc01e17cb	-2.4702022
13	0xbf2d9eb3	-0.6782028
14	0xbf548047	-0.83008236
15	0xbfe92a66	-1.8216064
16	0xc005cc1b	-2.0905826
17	0xbeab4374	-0.334499
18	0xbfe001fe	-1.7500608
19	0xbe4738f9	-0.19455327

rb2.bn1.running_var f4 [20]
0	0x3fd96284	1.698319
1	0x3fbbf0f2	1.4682906
2	0x3ff0237c	1.8760829
3	0x403763fb	2.8654773
4	0x4014e734	2.3266115
5	0x3fb185f9	1.386901
6	0x400c054c	2.1878233
7	0x4017104c	2.3603697
8	0x3fa6abe9	1.3021213
9	0x3f99690a	1.198518
10	0x3fc7e2f2	1.5616133
11	0x4010d122	2.2627645
12	0x40208f8b	2.5087612
13	0x4002f5bd	2.0462487
14	0x3fbbc480	1.4669342
15	0x4029535b	2.6457126
16	0x401b0648	2.4222584
17	0x3ff68231	1.9258481
18	0x3feca52d	1.8487908
19	0x400ff2b1	2.2491877

rb2.conv2.weight f4 [20, 20, 3, 3]
0	0xbcbf4731	-0.023349376
1	0x3dd2ce9b	0.10293313
2	0xbd8e0cf6	-0.06936066
3	0x3c5e2e63	0.013560864
4	0x3c8dd0ce	0.01731148
5	0xbdee7ef1	-0.11645306
6	0xbd13f832	-0.03612537
7	0xbe0e0803	-0.13870244
8	0xbd9b9c71	-0.07598198
9	0xbe5b776d	-0.21432276
10	0x3e15ba7b	0.14621918
11	0x3e00976b	0.12557761
12	0x3cc0bbe7	0.023527099
13	0x3e3a6a16	0.18204531
14	0x3df9b9f4	0.12193671
15	0x3d52f8da	0.051506855
16	0x3d80641d	0.06269095
17	0x3e12fedb	0.14355032
18	0x3c75e299	0.015007638
19	0xbd3e3d6c	-0.046445295
20	0x3d51f726	0.05126109
21	0x3e1bff87	0.15234195
22	0x3d53ee86	0.051741146
23	0x3c868535	0.01642094
24	0xbb7a75eb	-0.0038217257
25	0xbc5ce4b7	-0.013482264
26	0xbde9a9ff	-0.11409377
27	0xbe326d37	-0.17424475
28	0xbc9803c2	-0.01855648
29	0xbe06325d	-0.1310515
30	0xbdd517b8	-0.104049146
31	0x3dd73697	0.10508459
32	0xbe828bd7	-0.25497314
33	0xbe8b06d3	-0.27153644
34	0xbd2b4560	-0.041814208
35	0xbcdf737a	-0.027276743
36	0xbdf0b4f0	-0.11753261
37	0xbd96c82f	-0.07362401
38	0xbdd419bf	-0.10356473
39	0x3b6509bf	0.0034948436
40	0x3c9888bd	0.01861989
41	0xbd162088	-0.036652118
42	0x3da57b31	0.080801375
43	0x3e203ce8	0.15648234
44	0x3d2ddf4e	0.042449288
45	0xbe1d8632	-0.15383223
46	0xbcc77518	-0.024347827
47	0xbdb4b07a	-0.08822723
48	0xbe223366	-0.1583992
49	0x3e1a00dc	0.1503939
50	0x3ceda704	0.029010303
51	0x3d9b341e	0.075783
52	0xbc908457	-0.01764123
53	0x3d038986	0.032113574
54	0xbc943508	-0.018091694
55	0xbbf2f618	-0.0074145906
56	0xbdb6a1fe	-0.08917616
57	0x3dc44050	0.09582579
58	0x3b436500	0.002981484
59	0xbd9d194c	-0.076708406
60	0xbe038e00	-0.12847137
61	0xbe220f72	-0.15826204
62	0x3d2c1649	0.04201344
63	0xbe3fb0cd	-0.18719788
64	0xbda1548f	-0.078774564
65	0xbe12e0f2	-0.14343622
66	0xbd0d53d8	-0.034503788
67	0xbe08882f	-0.133332
68	0xbe1ca0d4	-0.15295726
69	0xbde7d307	-0.11319547
70	0xbe590286	-0.21192369
71	0x3d8ff1c3	0.07028534
72	0x3e2ed401	0.1707306
73	0xbe881f27	-0.26586267
74	0xbe65f7af	-0.22457765
75	0x3e7f3a88	0.24924672
76	0x3d2d8205	0.042360324
77	0xbde3822d	-0.111088134
78	0xbda4e7fe	-0.080520615
79	0x3d3a46a7	0.045477536
80	0x3e0bfb7e	0.13670155
81	0x3d5a02a0	0.05322516
82	0xbe6375b9	-0.22212876
83	0xbe4a853c	-0.19777387
84	0x3daec44d	0.08533535
85	0xbddad9a2	-0.106860414
86	0x3e124389	0.14283575
87	0xbd5dfd7b	-0.054196816
88	0x3d89151f	0.06693482
89	0x3e8faae4	0.28060067
90	0x3ae795d7	0.0017668557
91	0x3c93e810	0.018054992
92	0xbdc702ee	-0.09717356
93	0x3e3a331e	0.18183562
94	0x3d94a326	0.072576806
95	0xbd8a0199	-0.06738586
96	0x3d891799	0.06693954
97	0xbe1eed43	-0.15520196
98	0xbe8b4152	-0.27198273
99	0x3b0afbbc	0.0021207174
100	0x3d81525b	0.06314536
101	0x3e0a66d7	0.13515793
102	0x3c6dab54	0.01450618
103	0xbd455f0d	-0.04818635
104	0x3e098783	0.134306
105	0xbdc4cdd9	-0.09609575
106	0xbde2e49f	-0.11078762
107	0xbdaa92f2	-0.08328809
108	0xbceebdb5	-0.029143194
109	0x3d81608d	0.06317244
110	0xbc993274	-0.018700816
111	0xbe02389d	-0.12716909
112	0xbe0d61a6	-0.13806781
113	0xbdc22c87	-0.09481149
114	0xbe9970f1	-0.2996898
115	0xbe342f0b	-0.1759607
116	0xbe35aa3d	-0.17740722
117	0x3c08afb4	0.008342672
118	0x3d0bdc63	0.034145724
119	0xbc811c0f	-0.01576045
120	0x3df59556	0.11991374
121	0xbd16564c	-0.036703393
122	0x3d9666a6	0.073437974
123	0x3de4c69e	0.11170696
124	0xbbdbcbd6	-0.0067076487
125	0xbba201e2	-0.004944072
126	0x3e389385	0.18025024
127	0x3cb1e02d	0.02171334
128	0x3e1fea47	0.15616713
129	0xbb73ca3f	-0.0037199405
130	0xbdc9d0bc	-0.09854266
131	0x3dec78a6	0.11546449
132	0x3d3d0576	0.046147786
133	0x3e125a86	0.14292344
134	0x3e513c92	0.20433262
135	0x3da01a7e	0.07817553
136	0x3d952bb9	0.0728373
137	0x3df54fe1	0.11978126
138	0x3c986e94	0.018607415
139	0x3dcf9042	0.10134937
140	0x3db77cdc	0.08959362
141	0x3d1facb8	0.038983077
142	0xbc862c6e	-0.016378608
143	0xbe5afa66	-0.21384582
144	0x3d6def9a	0.05808983
145	0xbb2cf8e6	-0.0026393472
146	0x3ce7e844	0.028308995
147	0x3d7758db	0.060387474
148	0x3ddecdaa	0.10879071
149	0x3d238edc	0.039931163
150	0xbdc60e06	-0.096706435
151	0xbd187914	-0.037224844
152	0x3d707f22	0.058714993
153	0x3d9e1550	0.07718909
154	0xbdea5744	-0.11442426
155	0xb8d16b6a	-9.985904e-05
156	0x3d006543	0.03134657
157	0xbe20c34d	-0.15699501
158	0x3d5ea76a	0.054358877
159	0xbbfc7ae8	-0.0077050813
160	0xbca8499b	-0.02054291
161	0xbd829de8	-0.063777745
162	0xbe0f0c7e	-0.13969609
163	0xbc4dde6c	-0.012565237
164	0xbc9412ac	-0.01807531
165	0xbdfa713b	-0.12228628
166	0x3deb854c	0.11500034
167	0x3d5b09e6	0.053476237
168	0xbe808a81	-0.2510567
169	0xbd1afc0d	-0.03783803
170	0xbdea7093	-0.11447253
171	0x3e7a0341	0.24415304
172	0x3d4250ae	0.047440223
173	0x3dc11b00	0.09428978
174	0x3d500005	0.05078127
175	0x3d9dc838	0.07704204
176	0x3e17d4c1	0.14827253
177	0x3e172a6d	0.14762278
178	0x3e36209c	0.17785877
179	0x3d1d11e7	0.03834715
180	0x3e119931	0.14218594
181	0x3e044434	0.12916642
182	0xbe44a718	-0.19204366
183	0xbe64cbf4	-0.22343427
184	0x3da12d92	0.0787002
185	0xbddb80a3	-0.10717895
186	0x3b937e98	0.004501175
187	0xbd8155a3	-0.06315162
188	0xbe01dba5	-0.12681444
189	0xbd851b9c	-0.06499407
190	0xbe6f2740	-0.23354816
191	0xbd212e22	-0.039350636
192	0x3e0831db	0.13300268
193	0xbd03cb01	-0.03217602
194	0x3dacdceb	0.08440574
195	0x3d9b16e9	0.07572729
196	0x3d75135b	0.059832912
197	0xba2b8e21	-0.0006544311
198	0xbdc66cef	-0.09688746
199	0xbda6c089	-0.08142192
200	0xbd709bbf	-0.05874228
201	0xbe5e1c81	-0.21690561
202	0xbd960e67	-0.07326966
203	0xbd0e6e66	-0.034773253
204	0xbd23252f	-0.039830383
205	0x3cfcb40a	0.030847568
206	0x3d556776	0.05210062
207	0xbe13f9a2	-0.14450696
208	0x3b1f0188	0.0024262387
209	0xbc7ec366	-0.015549516
210	0xbe0cd737	-0.13753973
211	0x3da923d6	0.08258788
212	0xbdd3dc82	-0.10344793
213	0xbe686a7a	-0.22696868
214	0xbe1f26f7	-0.15542208
215	0xbe0e0607	-0.13869487
216	0xbe46714d	-0.19379158
217	0xbe11f4ae	-0.14253494
218	0xbde5379a	-0.11192246
219	0xbd8b410c	-0.06799516
220	0xbb4c474a	-0.0031170421
221	0xbe28bcbc	-0.16478246
222	0x3dcaab81	0.09895993
223	0xbd8593b6	-0.06522314
224	0xbdefc8c5	-0.117082156
225	0xbd5f1654	-0.054464653
226	0xbd92b54f	-0.07163488
227	0x3e2731f0	0.16327643
228	0xbe6a79b8	-0.22897995
229	0xbe60ad18	-0.2194103
230	0x3d7ce51e	0.06174194
231	0x3ca8849a	0.020571042
232	0xbc5efe8d	-0.013610494
233	0x3da3d184	0.07998946
234	0xbc946574	-0.018114783
235	0xbd317974	-0.043328717
236	0x3e1ebf64	0.15502697
237	0xbd2c2cff	-0.0420351
238	0x3c276de6	0.010219073
239	0x3d18a00f	0.03726202
240	0xbc1c75c5	-0.009549563
241	0x3dec5628	0.115398705
242	0xbc96d6a0	-0.018412888
243	0x3ce7739d	0.02825337
244	0x3cd74bbe	0.026281234
245	0xbe518c06	-0.20463571
246	0x3d8df79f	0.069319956
247	0x3de5d8aa	0.11222966
248	0xbda87ae0	-0.082265615
249	0xbd196e39	-0.037458632
250	0xbd83eb29	-0.064413376
251	0xbdeb3ffb	-0.11486813
252	0xbe047749	-0.12936129
253	0xbd47c0ae	-0.048767738
254	0xbd863787	-0.0655356
255	0x3dda8015	0.10668961

rb2.conv2.bias f4 [20]
0	0xb7c7b74b	-2.3808001e-05
1	0x3783a34c	1.5692458e-05
2	0x3624708d	2.4503418e-06
3	0xb6a5b53c	-4.9384817e-06
4	0x372a8b69	1.0165249e-05
5	0x373effb6	1.138442e-05
6	0xb3ad6d2c	-8.0757985e-08
7	0x363e4f7e	2.8358477e-06
8	0xb79a7980	-1.8414808e-05
9	0x387c9a49	6.022517e-05
10	0xb69727ec	-4.504798e-06
11	0xb7edb220	-2.8335548e-05
12	0x375cc4d0	1.3158846e-05
13	0x383f9254	4.5674227e-05
14	0x37e985cb	2.7838067e-05
15	0xb7ae20b8	-2.0757652e-05
16	0xb88a6cd8	-6.6006265e-05
17	0x3848fe62	4.792063e-05
18	0x389713e6	7.2039475e-05
19	0x34a280b9	3.026851e-07

rb2.bn2.weight f4 [20]
0	0x3f59cae7	0.8507523
1	0x3f6ae6f6	0.9175867
2	0x3f97b840	1.1853104
3	0x3f8e80ad	1.1133019
4	0x3f98737d	1.1910244
5	0x3f8ba995	1.0911127
6	0x3f9ef1aa	1.24175
7	0x3f9c4c30	1.221075
8	0x3f9ddf52	1.2333777
9	0x3f93132d	1.1490227
10	0x3f936939	1.1516486
11	0x3f7f48a3	0.9972021
12	0x3f9476b3	1.1598724
13	0x3f818e08	1.012147
14	0x3f8c0ab3	1.0940765
15	0x3fa2c51c	1.2716403
16	0x3faa493d	1.33036
17	0x3fa53a45	1.2908407
18	0x3f8d9936	1.1062381
19	0x3f5d9db1	0.86568743

rb2.bn2.bias f4 [20]
0	0x3e506ae2	0.20353273
1	0x3d4a99da	0.04946313
2	0xbe3ece63	-0.18633418
3	0x3ac589be	0.0015070958
4	0xbd9aedbd	-0.07564876
5	0xbe290623	-0.16506247
6	0x3db9bd57	0.09069317
7	0xbe723b82	-0.23655513
8	0x3e6e667a	0.23281279
9	0xbe294d76	-0.16533455
10	0x3d69889c	0.057015046
11	0xbe01a879	-0.12661923
12	0xbc5a54b1	-0.013325856
13	0x3d4b37a4	0.04961361
14	0xbc5adbcc	-0.013358068
15	0x3e4156a3	0.18880706
16	0xbcc9a336	-0.024613958
17	0xbdf867dd	-0.12129185
18	0x3dce215a	0.10064955
19	0xbe8ad1d9	-0.27113226

rb2.bn2.running_mean f4 [20]
0	0xbf1dfbe7	-0.617125
1	0xc002e2f2	-2.0451016
2	0xbf8b081a	-1.0861847
3	0xbf90ad3d	-1.1302868
4	0xbf33bc22	-0.7020894
5	0x3e31fb91	0.17381121
6	0xbf92ae9a	-1.1459534
7	0x3f07959f	0.5296268
8	0xc0389729	-2.884226
9	0xbcea3ba6	-0.028592896
10	0xbf60c331	-0.8779784
11	0x3d386dd9	0.045026634
12	0xbfe36aa3	-1.7766918
13	0xbeebe27c	-0.4607123
14	0x3e8451f9	0.2584379
15	0xbfb29ace	-1.3953493
16	0xc031a587	-2.775728
17	0xbe1e2a86	-0.15445909
18	0xc0154772	-2.3324857
19	0x3e55b265	0.20868833

rb2.bn2.running_var f4 [20]
0	0x3f4e1762	0.8050443
1	0x3f7962f0	0.9741659
2	0x3f34fa16	0.706941
3	0x3f918ee2	1.1371729
4	0x3f207bae	0.6268872
5	0x3f860c80	1.0472565
6	0x3f8cc12e	1.0996454
7	0x3f26f625	0.65219337
8	0x3f98e122	1.1943705
9	0x3f4f69f8	0.8102107
10	0x3f5137b0	0.817256
11	0x3f3953d9	0.72393566
12	0x3f251d06	0.6449741
13	0x3f7bbdba	0.98336375
14	0x3fa3e91d	1.2805516
15	0x3f810b2a	1.0081532
16	0x3f79b49a	0.975412
17	0x3f85912b	1.0434927
18	0x3f7517fa	0.9573971
19	0x3f26dc14	0.6517956

rb2.shortcut.conv.weight f4 [20, 10, 1, 1]
0	0xbc7bfa8e	-0.015379561
1	0xbd93cf7a	-0.072173074
2	0xbec387ce	-0.38189548
3	0xbdb5f9f6	-0.08885567
4	0x3f039b4f	0.5140886
5	0xbcc8d8af	-0.024517385
6	0x3c1515b7	0.0090994155
7	0xbc8ec1a7	-0.017426325
8	0xbc893d7f	-0.016752956
9	0xbe7596c7	-0.23983298
10	0xbd468104	-0.048462883
11	0x3e056789	0.13027777
12	0xbf1964ba	-0.5991932
13	0x3d99c612	0.07508482
14	0xbe2a19d7	-0.1661142
15	0xbe541d53	-0.20714311
16	0xbd0c5332	-0.03425903
17	0xbc17d1e2	-0.009266349
18	0x3c2e2fcc	0.010631513
19	0x3c4b0289	0.012390741
20	0xbdcb020b	-0.09912499
21	0xbe005c51	-0.12535216
22	0xbd158062	-0.03649939
23	0xbccfe98b	-0.025379917
24	0x3d59cb7a	0.053172566
25	0x3ec06142	0.37574202
26	0x3e197d16	0.14989123
27	0x3df7cfdb	0.12100192
28	0xbe1969b2	-0.14981726
29	0xbec09e23	-0.3762065
30	0xbd7adbfd	-0.061244953
31	0xbb1f0169	-0.0024262315
32	0x3ea6c30a	0.32570678
33	0x3e0caf9b	0.13738863
34	0x3e4807fc	0.19534296
35	0xbe16f866	-0.14743194
36	0x3e82a386	0.25515383
37	0x3e500ff2	0.20318583
38	0x3eda3ea6	0.42625922
39	0xbe0b2889	-0.13589682
40	0xbdff2d10	-0.12459767
41	0x3d4f52d8	0.050616115
42	0x3d6447e9	0.05573264
43	0x3ee02265	0.4377624
44	0x3d88b70e	0.0667554
45	0xbd8ffb10	-0.07030308
46	0xbcc2d96d	-0.023785317
47	0xbda0fc14	-0.0786058
48	0x3eb41971	0.3517566
49	0xbdc9b395	-0.09848706
50	0x3e8e4d74	0.27793467
51	0x3e344b7f	0.17606924
52	0xbde182a1	-0.110112436
53	0xbebec585	-0.3726007
54	0xbd8a16c4	-0.067426234
55	0xbd8b7b40	-0.068106174
56	0x3e48c73b	0.1960725
57	0xbe09fad8	-0.13474596
58	0xbe12d275	-0.14338095
59	0xbecf13a4	-0.40444672
60	0xbde1aedc	-0.1101968
61	0x3e296b9b	0.16544954
62	0x3c43449f	0.011918216
63	0xbea4b3cc	-0.32168424
64	0x3cf13a9c	0.029446892
65	0xbeca98d0	-0.39569712
66	0xbe82d2a1	-0.25551322
67	0x3d9bca4a	0.07606943
68	0x3e7d2ae7	0.24723397
69	0xbd8d8627	-0.06910353
70	0x3e350c5c	0.17680496
71	0x3e3d7fbe	0.18505761
72	0x3c445b91	0.011984722
73	0xbd36ba2e	-0.04461115
74	0xbe29b528	-0.16573012
75	0xbd357e65	-0.044309992
76	0xbe98cc28	-0.2984326
77	0x3d4865e4	0.048925295
78	0xbf16c1ba	-0.58889353
79	0xbe44dac7	-0.19224082
80	0xbdba5807	-0.09098821
81	0x3e0b0ba3	0.13578658
82	0xbda134c3	-0.078713916
83	0xbd696539	-0.0569813
84	0xbf354ee9	-0.7082353
85	0xbdaeda0f	-0.08537685
86	0xbaa9a80a	-0.0012943756
87	0x3e8b0337	0.2715089
88	0xbdb52a3b	-0.088459454
89	0xbbcc4bd9	-0.0062346277
90	0xbe862b52	-0.26204926
91	0x3eb96010	0.36206102
92	0xbe2091a2	-0.15680555
93	0xbe3e0edb	-0.18560354
94	0x3e48b2ab	0.19599406
95	0xbdff9455	-0.12479464
96	0xbc86ad9a	-0.016440202
97	0x3e000b5b	0.12504332
98	0x3b6b1b32	0.0035874364
99	0xbecac0e9	-0.39600304
100	0xbcb8a9af	-0.022541849
101	0x3d7f77f9	0.062370274
102	0xbed998de	-0.4249944
103	0x3e84ee77	0.25963184
104	0xbea0e0ff	-0.31421658
105	0xbe04370c	-0.12911624
106	0x3e888584	0.26664364
107	0x3d71a6fe	0.058997147
108	0x3df35368	0.11881143
109	0x3d5383cd	0.051639367
110	0x3c17f013	0.009273547
111	0xbcb0febd	-0.021605844
112	0xbea0a578	-0.31376243
113	0x3e83615b	0.25660214
114	0x3e8b330b	0.2718738
115	0x3e6e9f16	0.23302874
116	0xbdaef856	-0.0854346
117	0xbd898635	-0.06715051
118	0x3e19b4c6	0.15010366
119	0xbe4f8922	-0.20267156
120	0xbdc30158	-0.09521741
121	0xbeb4adb5	-0.35288778
122	0x3e61d2f6	0.22053131
123	0x3ea82912	0.32843834
124	0xbdcbeb73	-0.09957018
125	0xbcd891cd	-0.02643671
126	0x3d63822a	0.055544056
127	0xbde59326	-0.11209707
128	0xbec59e99	-0.38597563
129	0x3dda2de9	0.10653288
130	0xbd5679b9	-0.052362178
131	0xbe42184f	-0.18954585
132	0xbdd72ebd	-0.105069615
133	0xbdc3c8bf	-0.09559774
134	0x3d325923	0.04354204
135	0x3df88a57	0.12135761
136	0x3ddbf8ab	0.10740789
137	0x3d8702ad	0.06592307
138	0xbf25337e	-0.64531696
139	0xbe20f47e	-0.15718266
140	0x3cd43479	0.025903927
141	0xbe82ce35	-0.25547948
142	0xbc284797	-0.010270975
143	0xbe33c48c	-0.17555445
144	0xbc9a49df	-0.018834053
145	0xbebfd357	-0.37465927
146	0xbeceeeca	-0.40416557
147	0xbda28e7c	-0.07937333
148	0xbdb0e2e6	-0.086370274
149	0x3e43f87b	0.19137757
150	0x3ebd4ac4	0.36971104
151	0xbeacb689	-0.33733013
152	0x3e6d2d17	0.23161732
153	0x3dea53ec	0.11441788
154	0xbe0423ea	-0.12904325
155	0x3e139ed9	0.14416064
156	0x3e1e8a8b	0.15482537
157	0xbdece673	-0.11567392
158	0xbe9c64c2	-0.30545622
159	0xbd16db04	-0.036829963
160	0x3e23896c	0.15970391
161	0x3ea18a19	0.31550673
162	0xbe068c1b	-0.13139383
163	0x3db02fc5	0.08602861
164	0x3b979638	0.004626062
165	0x3e8cd6b8	0.27507567
166	0x3e4dee07	0.20110331
167	0x3de69a6a	0.11259921
168	0x3dce6c1a	0.100792125
169	0x3b62f62d	0.0034631595
170	0x3d46e600	0.04855919
171	0x3da8b8ec	0.08238396
172	0xbe8e2617	-0.27763435
173	0x3df804fe	0.12110327
174	0x3d4cb7bb	0.049979907
175	0x3e810d2d	0.25205365
176	0x3e827c4a	0.2548545
177	0x3ecf3f44	0.40477955
178	0x3e1f7da5	0.15575273
179	0xbdfc51c6	-0.123202845
180	0x3ce6251c	0.028093867
181	0x3db232ef	0.08701121
182	0xbcf3847e	-0.029726263
183	0xbe84ce01	-0.25938419
184	0xbc36fdfa	-0.011168951
185	0x3d5f2e8b	0.054487746
186	0xbc8dce22	-0.017310206
187	0xbe9f8d0e	-0.31162304
188	0xbef04915	-0.46930757
189	0xbcf12acd	-0.029439354
190	0xbe7f16e8	-0.24911082
191	0xbe136e18	-0.14397466
192	0x3ebfa128	0.3742764
193	0xbc1b1013	-0.009464282
194	0x3e2c2b7a	0.1681346
195	0xbd88af79	-0.06674094
196	0x3d9b79a9	0.07591564
197	0xbde00d87	-0.1094008
198	0xbe65202b	-0.22375552
199	0x3dc12b2a	0.09432061

rb2.shortcut.conv.bias f4 [20]
0	0xb70c388e	-8.357818e-06
1	0x37db3909	2.6133393e-05
2	0x3802f5a3	3.1223182e-05
3	0xb630cdb1	-2.6345772e-06
4	0x370ef90a	8.5218435e-06
5	0xb75f8b3d	-1.3324255e-05
6	0x37cb866c	2.426208e-05
7	0x37757da4	1.4632391e-05
8	0xb75fcc65	-1.3339425e-05
9	0x383271bd	4.2544434e-05
10	0xb717a06d	-9.037653e-06
11	0xb7cd5b96	-2.4480552e-05
12	0xb81a0b86	-3.6727193e-05
13	0x3748a65b	1.1959662e-05
14	0x38081e49	3.2453132e-05
15	0x3769156a	1.3892868e-05
16	0xb75fe7ea	-1.33458325e-05
17	0xb6e2078c	-6.7362034e-06
18	0xb765fe26	-1.3708637e-05
19	0x37d07399	2.4849362e-05

rb2.shortcut.bn.weight f4 [20]
0	0x3f72a745	0.94786483
1	0x3f333029	0.6999536
2	0x3f67f3b6	0.9060625
3	0x3f06883d	0.52551633
4	0x3f301240	0.6877785
5	0x3f3031c2	0.68825924
6	0x3f090a49	0.5353132
7	0x3f43b69e	0.76450527
8	0x3f4fd571	0.8118506
9	0x3f55ae13	0.8346874
10	0x3f0d30dd	0.55152684
11	0x3f301500	0.68782043
12	0x3ef20903	0.472725
13	0x3f5d809e	0.8652438
14	0x3f89fef2	1.0780928
15	0x3ef37b57	0.47555038
16	0x3f32dd31	0.6986876
17	0x3f07d675	0.5306161
18	0x3eb24c60	0.34823895
19	0x3f3b20a2	0.7309667

rb2.shortcut.bn.bias f4 [20]
0	0x3e506ae2	0.20353273
1	0x3d4a99da	0.04946313
2	0xbe3ece63	-0.18633418
3	0x3ac589be	0.0015070958
4	0xbd9aedbd	-0.07564876
5	0xbe290623	-0.16506247
6	0x3db9bd57	0.09069317
7	0xbe723b82	-0.23655513
8	0x3e6e667a	0.23281279
9	0xbe294d76	-0.16533455
10	0x3d69889c	0.057015046
11	0xbe01a879	-0.12661923
12	0xbc5a54b1	-0.013325856
13	0x3d4b37a4	0.04961361
14	0xbc5adbcc	-0.013358068
15	0x3e4156a3	0.18880706
16	0xbcc9a336	-0.024613958
17	0xbdf867dd	-0.12129185
18	0x3dce215a	0.10064955
19	0xbe8ad1d9	-0.27113226

rb2.shortcut.bn.running_mean f4 [20]
0	0xbeab42ea	-0.3344949
1	0xbf5b4595	-0.8565305
2	0xbdfce413	-0.12348189
3	0x3f83e51d	1.0304295
4	0x3ed97cec	0.4247812
5	0xbf376f5a	-0.71654284
6	0xbf157153	-0.58376044
7	0xbf5a6891	-0.85315806
8	0xbf313ea6	-0.6923622
9	0xbf0cc9ff	-0.5499572
10	0xbe393347	-0.18085967
11	0x3e04f5f4	0.12984449
12	0xbe4f0a5c	-0.20218796
13	0xbf401ddb	-0.75045556
14	0xbf6de6f2	-0.9293052
15	0x3e1ba039	0.15197839
16	0x3f649e76	0.8930429
17	0x3f45b420	0.77227974
18	0xbf56dab0	-0.8392744
19	0x3d2c5ee8	0.042082697

rb2.shortcut.bn.running_var f4 [20]
0	0x3ef8af46	0.48571223
1	0x3ed9cbcf	0.42538306
2	0x3eb83bff	0.35983273
3	0x3f038bcc	0.5138519
4	0x3ed6a960	0.41926098
5	0x3ee74dac	0.45176446
6	0x3eb7eb6f	0.3592181
7	0x3f07e454	0.53082776
8	0x3ec2d83d	0.38055602
9	0x3e98b150	0.2982278
10	0x3eeb3e9c	0.45946205
11	0x3e9b033b	0.30275902
12	0x3e771c10	0.24131799
13	0x3f263116	0.6491865
14	0x3ee6e6ac	0.45097864
15	0x3eb75258	0.3580501
16	0x3ea0067c	0.31254947
17	0x3edabb8b	0.4272121
18	0x3f031562	0.512045
19	0x3e3925ad	0.18080778

res1_sc1.conv.weight f4 [20, 3, 1, 1]
0	0xbf0c91a7	-0.5490975
1	0x3db3bd6e	0.08776365
2	0x3eaa1029	0.33215454
3	0xbe7a5c5b	-0.24449293
4	0x3f0f92a1	0.5608311
5	0xbe718466	-0.23585662
6	0x3c06d036	0.008228352
7	0xbe9dac08	-0.30795312
8	0xbec5d05c	-0.38635528
9	0x3ec455cc	0.38346708
10	0xbead6cd1	-0.33872083
11	0xbeb142f1	-0.34621385
12	0x3ef7aea8	0.4837544
13	0xbdf1d1a0	-0.11807561
14	0x3e5d57ce	0.21615526
15	0xbf0b0ca8	-0.54316187
16	0xbebf591c	-0.37372673
17	0x3ea5a03f	0.3234882
18	0xbe35af22	-0.17742589
19	0x3ebcc135	0.36866155
20	0x3f015d71	0.50533205
21	0x3eb62e65	0.3558227
22	0xbf1011d7	-0.5627722
23	0xbea8cfc3	-0.3297101
24	0x3e2b655e	0.16737887
25	0x3f087eac	0.53318286
26	0xbe34e24b	-0.17664449
27	0x3e87c2ef	0.2651591
28	0xbe85a0dd	-0.2609929
29	0xbebb3fa4	-0.3657199
30	0xbdc3dbaa	-0.09563382
31	0xbe822282	-0.25416952
32	0xbec1ae7b	-0.3782843
33	0x3e166a6e	0.14689037
34	0xbdb17c48	-0.08666283
35	0xbed544d4	-0.41654074
36	0xbeb1c631	-0.3472152
37	0xbe4d0026	-0.20019588
38	0xbd6be1e9	-0.05758849
39	0x3ae4d7ab	0.0017459294
40	0xbe197e1d	-0.14989515
41	0xbef3700c	-0.47546422
42	0xbe6cb560	-0.23116064
43	0x3e6caec6	0.23113546
44	0x3eb31fab	0.34985098
45	0x3ec33cf2	0.38132435
46	0x3e247dee	0.16063663
47	0xbe84f503	-0.2596818
48	0x3dc440a9	0.095826454
49	0xbeab421b	-0.33448872
50	0x3d65a32c	0.056063816
51	0x3d6a9fc1	0.05728126
52	0xbeb196e5	-0.34685436
53	0x3d68b196	0.056809984
54	0x3e763ea8	0.24047339
55	0x3e9b4f97	0.3033416
56	0xbdc6d039	-0.09707684
57	0xbf03c728	-0.51475763
58	0x3e1db61f	0.15401505
59	0x3d9584d0	0.073007226

res1_sc1.conv.bias f4 [20]
0	0xb7d950db	-2.5906067e-05
1	0xb8aded23	-8.293453e-05
2	0x3810ad0a	3.449343e-05
3	0xb780627f	-1.5304655e-05
4	0x38a3f208	7.8175275e-05
5	0x37886f40	1.6264268e-05
6	0xb7200242	-9.537269e-06
7	0x3739d116	1.1075541e-05
8	0x37692bdb	1.3898093e-05
9	0x37c80133	2.3842416e-05
10	0xb7813ad8	-1.54054e-05
11	0xb7cf5d6f	-2.4719831e-05
12	0xb82ae434	-4.074369e-05
13	0x38243805	3.915282e-05
14	0x3808d67a	3.2624674e-05
15	0xb830554e	-4.2041116e-05
16	0x374f28c0	1.2347649e-05
17	0x37fd38d0	3.0186406e-05
18	0xb6d524e6	-6.35219e-06
19	0x389224dc	6.968688e-05

res1_sc1.bn.weight f4 [20]
0	0x3f4e4fb5	0.80590373
1	0x3f6a95d5	0.91634876
2	0x3f2d4440	0.67682266
3	0x3f0e6af6	0.5563196
4	0x3f026207	0.5093083
5	0x3f1d247d	0.613838
6	0x3f0d4504	0.55183434
7	0x3f17da79	0.5931774
8	0x3f1beee2	0.6091138
9	0x3f2666dd	0.65000707
10	0x3f15332c	0.5828121
11	0x3f12ea64	0.573889
12	0x3eed10d9	0.46301916
13	0x3f16e8c1	0.58948904
14	0x3f26ae48	0.6510968
15	0x3ec14c49	0.37753513
16	0x3f0afc8c	0.54291606
17	0x3ef5fcc7	0.48044416
18	0x3edabb02	0.427208
19	0x3f50efff	0.81616205

res1_sc1.bn.bias f4 [20]
0	0x3e506ae2	0.20353273
1	0x3d4a99da	0.04946313
2	0xbe3ece63	-0.18633418
3	0x3ac589be	0.0015070958
4	0xbd9aedbd	-0.07564876
5	0xbe290623	-0.16506247
6	0x3db9bd57	0.09069317
7	0xbe723b82	-0.23655513
8	0x3e6e667a	0.23281279
9	0xbe294d76	-0.16533455
10	0x3d69889c	0.057015046
11	0xbe01a879	-0.12661923
12	0xbc5a54b1	-0.013325856
13	0x3d4b37a4	0.04961361
14	0xbc5adbcc	-0.013358068
15	0x3e4156a3	0.18880706
16	0xbcc9a336	-0.024613958
17	0xbdf867dd	-0.12129185
18	0x3dce215a	0.10064955
19	0xbe8ad1d9	-0.27113226

res1_sc1.bn.running_mean f4 [20]
0	0xbcf46b05	-0.029836187
1	0x3b3994f8	0.0028317552
2	0x3d84e0fc	0.06488225
3	0x3d50b34e	0.05095225
4	0xbd085874	-0.03328748
5	0xbaf4de6c	-0.001868201
6	0xbd9fd86e	-0.078049526
7	0x3d80c87a	0.06288238
8	0xbc6ddc02	-0.014517786
9	0x3d55e92b	0.05222432
10	0x3d827132	0.063692465
11	0x3d532544	0.05154921
12	0x3ceb2f9f	0.028709231
13	0x3d888720	0.06666398
14	0xbd4a8741	-0.049445394
15	0x3c3778b0	0.011198208
16	0x3c2414d9	0.010014736
17	0x3c41414f	0.011795356
18	0xbc531f1f	-0.012885838
19	0xbb47ab10	-0.0030466951

res1_sc1.bn.running_var f4 [20]
0	0x3c998b77	0.01874326
1	0x3bcce43c	0.0062527936
2	0x3dfc4b44	0.12319043
3	0x3d1a9406	0.037738822
4	0x3dac23ef	0.08405291
5	0x3dc1779b	0.09446641
6	0x3e0bd35e	0.13654849
7	0x3db5b758	0.08872861
8	0x3d8d593c	0.06901786
9	0x3d35315f	0.044236537
10	0x3e0a5dc2	0.13512328
11	0x3d275f13	0.040862154
12	0x3db63aa2	0.08897902
13	0x3dd6e686	0.104931876
14	0x3d25979b	0.040427785
15	0x3ccf1e0d	0.025282884
16	0x3c1c7200	0.009548664
17	0x3c6ce92f	0.014459892
18	0x3d4a3552	0.049367256
19	0x3cd51e9b	0.02601557
