models/dense_max/epoch_0001.pth (torch, 645162 bytes, 174 tensors)

rb1.conv1.weight f4 [10, 3, 3, 3]
00000000: a931 2fbd d61a 5d3d 5e89 0cbe 9488 2bbe
00000010: d77c 253e be15 353e cc44 fcbd 4406 463e
00000020: c7c5 d2bd 233b 9ebd f895 653d 03f6 c3bc
00000030: 78df 84be bebe 253e 5c7f 443e 77fb 0c3d
00000040: 80f1 6f3e 8c3c 50be 1bbc 05bb b2f7 ec3c
00000050: 69a5 3ebd d103 38be 2a7e 25bd 39da 283d
00000060: d3fd 483e bf48 463c 35e6 ef3d a68f bfbc
00000070: 96ae f53d e766 dc3d e9a2 033e a4ff 2f3d
00000080: 6068 4dbe 65f0 99bd 2170 b83d 9699 21be
00000090: a453 07be c482 293d ca71 aebd 7351 023c
000000a0: b605 9e3e 7415 9abd 2f74 47bd 563e 123e
000000b0: 59c1 46be 987d 25be 93b5 d2bd 76ec 0a3d
000000c0: 6113 c13d 29f6 733e 3792 33be 11b7 5ebd
000000d0: cf4f bb3d 2f9d 473a 9363 183c 4a62 253e
000000e0: 58e7 eb3d fab5 06be 9155 a5bd 7f19 d23d
000000f0: 31f8 8cba d871 0dbe 604b 9b3d 3dd3 7d3e
00000100: a1e6 0e3e b518 713e af80 b63b ca2d 32be
00000110: f7f1 03be b455 b7bd 99e2 56be ce42 35be
00000120: 0830 aa3d f21a 023e abf2 183b 9594 273c
00000130: 3c8a a9bc 46cc d8bd df13 143e d171 d9bd
00000140: e48f bebd 15aa 4abe b8df 8c3d f115 fbbd
00000150: 88f0 863d a69a 72be 282d e8bd 6aed 1ebb
00000160: 066c 613d 8fe5 de3d 7baf 0dbe ecdc d7bd
00000170: 2870 ddbd b1c0 6a3e 75cf 1bbe d18a 81bd
00000180: 1a74 543e 975b 57bd 6de1 b5bd 8ae4 6abd
00000190: 6abe 803d c98d 1ebe 49e5 ae3c 620d 8bbd
000001a0: 03e9 e6bd 57d8 263e 7fc3 033d b017 3e3e
000001b0: 749b 06be b7a1 47be 5e9b 203e b8f5 3b3d
000001c0: 2106 40be 7723 743d 6e98 123d 19c6 8cbd
000001d0: 6a28 f33d 3831 533e b81f 6abe bb50 07be
000001e0: 938a 93bd e761 06ba 9060 1c3e 5de3 203e
000001f0: d309 9f3d 4cea 9d3d 2415 393e f42b af3d
00000200: 8112 0abe 57fc 2b3e 639c d83d 50b5 6cbe
00000210: 27f3 363e c770 c03d c321 debd d5e7 23be
00000220: 1f27 04be 2f67 113e eade f8bc 699b aebd
00000230: 5c22 6a3d 5c82 883d 24de f4bd ec69 0bbb
00000240: 5707 c83c 5c96 393e 6cd9 503e c1e3 28be
00000250: bb13 b2be 37f3 39bd a084 d33d a926 16bd
00000260: c43b 96be ab89 ba3d 82cd ecbd 6624 433e
00000270: 9a7d e0bd af40 67be 583e bdbd 8439 1abe
00000280: 9070 86be 5a9f 75bb 639e 86bc 77c7 95bd
00000290: e0d8 413e 543a c83c 4f49 b23d 90bd abbd
000002a0: cec3 503d a09f e4bc b456 0f3e c60d 1e3e
000002b0: 6674 6a3d d810 693e 50e8 3c3d 47f1 0f3d
000002c0: e0c2 c4bd d089 3c3e 9baf c23d ce31 d53c
000002d0: 2699 3abe 8b61 a2bd 6f96 c73c 448d a1bc
000002e0: f634 c63c d152 0f3e 5869 dabd b0aa 913e
000002f0: 883d 773e 2e55 1dbd a5c8 aabd afbc 283e
00000300: a418 60be 6b3e 373d dd89 97bd 99a1 543e
00000310: cd08 00be fc73 013e df20 4a3d 9e20 373d
00000320: a11f 5e3e 475d 61be 4cbe 77be 0e52 ab3b
00000330: 82e5 e43d 0708 0a3e b4be 26be 7f62 1bbe
00000340: 6000 abbd 80c9 3f3d 3602 8dbd 07ef e2bd
00000350: f0ac 9d3e 19f4 7f3e 9191 17be ed8e 89bc
00000360: 5671 71be 15c5 803d 89ca 96bd 0781 803d
00000370: d7be 9a3d 7305 1e3e aa67 8abb 5f79 1d3e
00000380: be46 d6bd 0583 debd 78c2 13be aba8 00be
00000390: bd34 183d 3382 df3d d489 7fbd 2590 3f3e
000003a0: 9e41 5dbe da02 cbbd 909a 213d 1f72 8a3d
000003b0: 3582 6abd e8a3 ef3d 529b 2c3e 12ec 653d
000003c0: 32db a5bd 4640 1f3d 8f64 25be dd42 893e
000003d0: 89a1 9f3e 8c6d 8d3e 709e 843e 0db2 603e
000003e0: 73ef 5e3d 9632 3e3d ff7b 93bd c614 51be
000003f0: f5bb 213e c2c0 703e 1947 cb3d a22f 9fbd
-0.04277197 0.05398067 -0.13724276 -0.16751319 0.16160904 0.17684075 -0.123178095 0.19338328
-0.10291629 -0.07726123 0.056051224 -0.023921018 -0.25951743 0.16186044 0.19189209 0.034419503
0.23431969 -0.20335597 -0.002040631 0.028926704 -0.046544466 -0.17970206 -0.040403523 0.04122374
0.19628076 0.012102305 0.117138304 -0.023383927 0.1199619 0.107618146 0.12855114 0.042968407
-0.20059347 -0.07516555 0.09005762 -0.15781245 -0.132155 0.041384473 -0.08517797 0.007953989
0.30863732 -0.07523623 -0.048694786 0.14281592 -0.19409694 -0.16161191 -0.10288539 0.033916913
0.09427524 0.23824371 -0.17536245 -0.054373804 0.09146082 0.000761467 0.009301084 0.16150776
0.11518735 -0.13155356 -0.08072961 0.10258769 -0.0010755119 -0.13812959 0.07582736 0.24787612
0.13955165 0.23544581 0.0055695395 -0.1740028 -0.12885271 -0.089518934 -0.20984878 -0.17701265
0.083099425 0.12705591 0.0023338 0.010228296 -0.020695798 -0.10585837 0.14460705 -0.10617412
-0.09304789 -0.19791444 0.068786085 -0.12260044 0.065888464 -0.23691806 -0.11336738 -0.0024250397
0.05503466 0.108836286 -0.13836472 -0.105401844 -0.10812408 0.22925068 -0.15215857 -0.06325305
0.20747414 -0.05257758 -0.08880887 -0.057346858 0.062863186 -0.15483774 0.021349566 -0.06789662
-0.11274912 0.16293465 0.03216886 0.18563724 -0.13145238 -0.19495283 0.15684268 0.045888633
-0.18752338 0.059604134 0.0357899 -0.06873722 0.11872943 0.20624244 -0.22863662 -0.1321439
-0.07204165 -0.0005126283 0.1527121 0.15711732 0.07765546 0.07710704 0.18074471 0.08553305
-0.13483621 0.16795479 0.105767034 -0.2311604 0.17866193 0.093965106 -0.10846283 -0.16006406
-0.12905549 0.14199518 -0.030379731 -0.08525736 0.057161674 0.06665489 -0.119564325 -0.002127285
0.024417562 0.18123764 0.2039544 -0.16493131 -0.34780678 -0.045397963 0.103280306 -0.036657963
-0.29342473 0.09108289 -0.11562635 0.19056854 -0.109614566 -0.22583269 -0.09240407 -0.15061003
-0.26257753 -0.0037479014 -0.016432947 -0.073134355 0.18930387 0.024441876 0.08705389 -0.083857656
0.050967984 -0.027908146 0.13997918 0.15434942 0.057239912 0.22760332 0.046119988 0.03514221
-0.09607482 0.18411946 0.0950615 0.026024725 -0.18222484 -0.07928761 0.024363725 -0.019720681
0.024195176 0.13996436 -0.10664624 0.28450537 0.24144566 -0.03841131 -0.08339051 0.16478227
-0.218844 0.04473726 -0.07399342 0.2076477 -0.12503357 0.12641901 0.049347755 0.04470884
0.21691753 -0.22008239 -0.24193686 0.0052282875 0.11176588 0.13479625 -0.16283685 -0.15174292
-0.08349681 0.046823025 -0.06885187 -0.11080747 0.30796003 0.2499546 -0.14801623 -0.016791785
-0.2357839 0.062875904 -0.07362849 0.0627461 0.07555931 0.15431766 -0.0042237835 0.1537833
-0.10462712 -0.10864834 -0.14429653 -0.12564342 0.03715967 0.109135054 -0.062387303 0.1870733
-0.21607062 -0.09912653 0.039454043 0.06760048 -0.05725308 0.117011845 0.16856125 0.056133337
-0.08098449 0.038879655 -0.16151641 0.26808825 0.3117793 0.2762264 0.25902128 0.21942921
0.054427575 0.04643496 -0.07201385 -0.2041808 0.15794356 0.23511031 0.0992567 -0.07772757

rb1.conv1.bias f4 [10]
00000000: 5815 6e38 9573 02bb 6d9b 8239 0479 a739
00000010: cd50 8f39 f803 b0b8 1c19 9037 df5b 2b3a
00000020: 8ea5 9638 265c 86b8
5.67635e-05 -0.0019905318 0.00024911333 0.00031942886 0.00027335287 -8.393073e-05 1.717783e-05 0.0006536822
7.183394e-05 -6.406782e-05

rb1.bn1.weight f4 [10]
00000000: c5b9 483f fc09 a43f 8185 653f 949b 603f
00000010: 2f9f 4c3f 53f1 633f c008 453f 65a6 7e3f
00000020: 32d5 593f 2f7e 463f
0.7840846 1.2815547 0.89656836 0.87737393 0.79930395 0.89040107 0.76966476 0.9947265
0.85090935 0.7753629

rb1.bn1.bias f4 [10]
00000000: 2ee8 133e e0ed 663f faa0 1b3e 8552 053d
00000010: b320 573d 9d54 0fba 3503 33bd 0b53 4b3f
00000020: ea87 e23e 8f7a 2c3c
0.14444038 0.9020672 0.15198126 0.0325494 0.05252142 -0.00054676255 -0.04370423 0.7942359
0.4424432 0.010527267

rb1.bn1.running_mean f4 [10]
00000000: f622 8cbc 6456 8fbb 19eb a93b 1d70 ba3a
00000010: 0b28 12bd d4c9 9d3d 4544 4fbd 6b42 2a3b
00000020: eda7 15bc 62d0 4b3c
-0.017106514 -0.0043743122 0.0051854965 0.0014224086 -0.03568272 0.07704511 -0.050602216 0.002597953
-0.009134275 0.012439819

rb1.bn1.running_var f4 [10]
00000000: 91d0 5e3d a2d2 173d 300a b13d f4ca 013e
00000010: 116d 8f3d 55e0 d93e 862a ac3e 6749 223d
00000020: 216c de3c 7f87 db3e
0.054398123 0.03706611 0.08644521 0.12675077 0.07003225 0.42553964 0.33626193 0.039620783
0.02715117 0.42876813

rb1.conv2.weight f4 [10, 10, 3, 3]
00000000: 2b19 1fbe 198d a7bd 25d6 88bd c6cf b33c
00000010: e918 16be 92fd f4bc 0d1c 7abd db13 2d3c
00000020: e78a 9b3b 7453 30bd 3b94 9f3d b203 4fbe
00000030: e644 5fbe 86e7 c2bd d6a4 453e 4472 843d
00000040: fd96 6dbe 202a c4bd 4e5e 40be 6318 bfbc
00000050: 3ae0 2dbc cea9 7c3c 6fe6 4cbe 58ee 1fbe
00000060: 955c 53bc 0cb2 dc3d 516a ab3c 1e36 6a3d
00000070: 902b dd3d 2e1f 8f3d 2690 93bd 59f4 90bc
00000080: b01c a53d 172c 71bd 5d74 2dbd 3d12 d6bd
00000090: 06c5 b2bd d45b 9f3d 84e1 e1bc a796 d6bb
000000a0: de04 edbd df23 2c3b 20e3 d3bd aeff 8a3c
000000b0: 0d31 dbbd a9cb 293c aa4a fd3d 1eb6 373e
000000c0: c5dc 36bd 39a0 1fbc 001a 20bd 1e50 7ebd
000000d0: e747 133c 2a0c 863d 22ca a8bb 324d 4e3c
000000e0: 97e0 9fbd cc52 2fbd ed9b 19be 56c3 07bc
000000f0: 0824 8f3d 6de1 ba3d 043a 9dbd b29e e4bb
00000100: eddd 453d b46d 673e f55f 94bd a16f 25be
00000110: 9fb7 42be 83ce 0fbc 0eca 7e3d 7f1e 20bd
00000120: 0e3b fc3a 2e89 16bd 5319 04be c6a7 0e3e
00000130: 55c7 fd3c 8388 1d3d a4e2 b53c 2d71 05bd
00000140: c586 46bd a95c 07be 29df 51be c3e2 35bd
00000150: 32c4 b0bd 7fa6 18bb 8283 1ebd 3813 d3bd
00000160: 3431 3fbd 6e24 383d ca3d 603d 6830 803d
00000170: 076e 873d 778d 81bd 2554 6e3d 2f36 453e
00000180: f7a0 053b 0ddb 6f3d 06ed aabd 068c 143d
00000190: 0bbb bf3d 9a73 28be c9a4 ba3d a6f1 82be
000001a0: 1f61 523d 8158 52be 540b 2d3d 3b14 7b3e
000001b0: 89bc 01bd f1fc ed3d e93c 36bd de9b b73d
000001c0: ad2c dfbd 680a d0bd 83a5 18bd b2b8 babc
000001d0: bd16 0abc 1654 bebd 65cc b53d 74fa 48ba
000001e0: 85b6 fd3c a447 11bd 4549 f0bd b618 75bd
000001f0: 7091 cbbd 990d bb3c b70a 8a3d 0266 923d
00000200: 3c68 2e3d d4d7 30bd 093b 14bd 749c cd3c
00000210: 2c2d 983d d63e 3cbd 9624 b0bd 518a cbbd
00000220: c9f5 88bd ee74 48bd b1e6 55bd e4c2 33bd
00000230: 7fde 83bd 202e 30bd 1eda 07be 890a 8dbc
00000240: e2af fc3d c956 0b3e e016 943c b9b2 ea3d
00000250: 7354 ab3d e291 3e3c 052a c23d 4ae3 003e
00000260: b42c d5bc 93ac ae3d 2e1d f3bd 346d 5abd
00000270: b36c 65bd a16d 8dbe 4a64 0b3e 2718 89bd
00000280: 642c 573e 167f a83d 40e0 073e b8dc 28bd
00000290: 4f59 ffbd 7d2a 63bd cc87 9bbd 07c9 943d
000002a0: dbe8 b2bc 2454 133d 335c 3f3d 1078 41bd
000002b0: feca c3bc 60b2 283a 612a df3d 5a2a 5ebd
000002c0: 7de3 1abd 0722 c5bd 1254 4b3d b291 95bc
000002d0: f1f8 1f3d 5999 17be 14a4 84bc 6cd8 9a3d
000002e0: 9fdd 943c 4dc1 14bd 1470 723d bd11 1d3c
000002f0: 2508 3bbb 1728 66bc 20ce 86bd 5bcf 83bd
00000300: 5085 0b3d 9e98 03be 03eb 98bb 9b85 42bc
00000310: cae9 113c 375c 2a3d 24e0 2a3e 5d4f cb3c
00000320: f13b 703b 1fb1 1c3e 83f4 013d 0b7e acbc
00000330: 3647 053e f7cb 10bd 778e e2bc 1c84 833d
00000340: b801 723d 97eb 62bd 84b3 893d 0ca7 003e
00000350: 10f3 22bd e6f1 453e b7eb fd3c 16cb 943d
00000360: bea3 153e e38e ef3d a910 7e3d 4e96 403e
00000370: feb3 a3bb 6fb0 133e 9db5 d83d 11a9 663d
00000380: b0cf 983d eaa0 5e3e 5718 123e 283f f43d
00000390: 7f6a 1f3d 91de 263d 0763 a73d d337 3e3d
000003a0: 15c6 823c 0ac1 b2bd 2cf3 15bd 6a68 ed3c
000003b0: 9bd1 3cbd 358e b7bd 6808 91bc 6e5b 34bd
000003c0: 2f63 66bc e2fc 89bc 0a91 05be a880 023e
000003d0: 842d b53d 5429 07bc 1b93 833d cd75 083e
000003e0: a65e 1fbc 89c3 aabd 7704 3f3c ee5b 68bd
000003f0: 31db 2c3e 0012 403e e7be 913c ec16 1d3e
-0.15536945 -0.08181209 -0.0668147 0.02194966 -0.1465794 -0.029906068 -0.061061908 0.010563816
0.004746783 -0.043048337 0.077919446 -0.20216253 -0.21803626 -0.09516816 0.19301161 0.06467107
-0.23202129 -0.09578347 -0.18785974 -0.023327058 -0.010612542 0.015421344 -0.20009778 -0.15618265
-0.012900491 0.10776147 0.020924719 0.057180516 0.107993245 0.06988369 -0.072052285 -0.017694639
0.08062112 -0.058879938 -0.0423473 -0.104526974 -0.087289855 0.07781187 -0.027573355 -0.006548721
-0.11573194 0.0026266498 -0.10346055 0.01696762 -0.10702715 0.010363498 0.12367757 0.17940566
-0.044644136 -0.00974279 -0.039087296 -0.062088124 0.008989311 0.06545289 -0.0051510492 0.012591647
-0.07806509 -0.04280357 -0.15000887 -0.008286318 0.06989294 0.09125028 -0.07677081 -0.006976926
0.048307348 0.22600442 -0.07244865 -0.16155864 -0.19015358 -0.008777264 0.062204413 -0.039091583
0.0019243674 -0.03675192 -0.12900285 0.13931188 0.030978838 0.038460266 0.022202797 -0.032578636
-0.04846837 -0.13218941 -0.20495285 -0.04440571 -0.08631171 -0.0023292599 -0.038699634 -0.103064
-0.046677783 0.044956617 0.054746427 0.06259233 0.06612783 -0.063258104 0.058185715 0.1925895
0.0020390132 0.058558512 -0.0834599 0.03626635 0.093618475 -0.16450348 0.091134615 -0.25574988
0.051362153 -0.20541574 0.04224713 0.24519436 -0.03167394 0.1162051 -0.044491682 0.08965276
-0.10897193 -0.10158235 -0.03726722 -0.022793148 -0.008428273 -0.09293382 0.08876876 -0.0007666715
0.030970821 -0.035468712 -0.11732725 -0.05983802 -0.099398494 0.022833632 0.06740325 0.07148363
0.042579874 -0.04317458 -0.036189113 0.025099017 0.07430491 -0.045958363 -0.08600728 -0.09938491
-0.06687505 -0.048939638 -0.052221958 -0.043887034 -0.06438922 -0.04301274 -0.13266799 -0.017216938
0.123382345 0.13607325 0.018077314 0.1145987 0.08365717 0.011631461 0.09480671 0.12586704
-0.026022293 0.0852901 -0.118708 -0.0533268 -0.056011867 -0.27622703 0.13612476 -0.0669406
0.21013027 0.08227365 0.13269138 -0.04122612 -0.12468206 -0.05546044 -0.075942606 0.072649054
-0.02183955 0.035968915 0.046718787 -0.04723364 -0.023900505 0.00064352714 0.10896755 -0.05423961
-0.037814606 -0.09625631 0.049640723 -0.01825795 0.03905577 -0.14804591 -0.01619152 0.075608104
0.018172083 -0.03631716 0.059188917 0.009586749 -0.002853879 -0.014047644 -0.06582284 -0.06436034
0.034062684 -0.12851188 -0.0046666875 -0.011872674 0.008905837 0.04159185 0.16687065 0.024818117
0.0036656822 0.15301941 0.031727325 -0.021056196 0.13015446 -0.035350766 -0.027655823 0.06421682
0.05908367 -0.055400457 0.06723693 0.12563723 -0.039782584 0.19330558 0.030996187 0.07265298
0.14613244 0.11697175 0.062027607 0.18807337 -0.004995822 0.14422773 0.10581515 0.056313578
0.07461488 0.21741071 0.14267097 0.119261086 0.038919922 0.0407396 0.08173185 0.046439957
0.015963593 -0.087282255 -0.03660886 0.028980453 -0.046098333 -0.08962671 -0.017704204 -0.044032507
-0.014061733 -0.016844217 -0.1304361 0.12744391 0.08846572 -0.0082495995 0.064245425 0.13326187
-0.009727156 -0.083380766 0.011658779 -0.056728296 0.1688049 0.18756866 0.017791225 0.15340775

rb1.conv2.bias f4 [10]
00000000: ea9b 6b39 cd73 a3b9 227e f338 c789 9238
00000010: 1c9f 0836 dcc8 beb9 6f06 4eb9 201f 0b38
00000020: 657d 44b9 6e49 29b9
0.00022469429 -0.0003117606 0.00011610637 6.9874855e-05 2.0358193e-06 -0.00036389276 -0.00019648088 3.316917e-05
-0.0001873873 -0.0001614445

rb1.bn2.weight f4 [10]
00000000: 3c20 7f3f 6f6c 8b3f c413 513f a91f 8b3f
00000010: 379f 4b3f 4da6 8d3f 4e5d 9f3f 5c16 873f
00000020: eff4 853f 2fa3 5b3f
0.9965856 1.0892466 0.81670785 1.0869037 0.7953982 1.1066376 1.2450349 1.0553699
1.0465373 0.85795873

rb1.bn2.bias f4 [10]
00000000: 1acf 643d 90d0 32bd 12a9 893d defd 19bd
00000010: 88a4 aa3d cd07 e73d 78c1 2637 e95e 6c3d
00000020: 57c8 053d 112e 023e
0.05586157 -0.043655932 0.06721701 -0.037595622 0.08332163 0.11280785 9.9394165e-06 0.0577077
0.032661762 0.12712885

rb1.bn2.running_mean f4 [10]
00000000: f3f4 a5bf d82a 42be ec05 723f 0c89 f43c
00000010: 062b 8abf 690d abbe 00e5 4ebe eae3 afbe
00000020: efe0 b43e 5377 973f
-1.2965378 -0.18961656 0.94540286 0.029850505 -1.079438 -0.3340867 -0.20204544 -0.34353572
0.3532786 1.183329

rb1.bn2.running_var f4 [10]
00000000: 7f3f 603f e219 2f3f f1c3 833f c0af 143f
00000010: af46 793f 0e9b 953f 7d6b 9b3f 3681 853f
00000020: 1779 8d3f ee4e 563f
0.8759689 0.6839887 1.0294172 0.58080673 0.9737348 1.1687944 1.2142178 1.0430057
1.1052579 0.8371419

rb1.shortcut.conv.weight f4 [10, 3, 1, 1]
00000000: e4de ee3e 81ab 7abc 0dd9 a23e 1234 cbbe
00000010: 0dd7 01bf 6109 c3be cc7d b93e 3c87 afbe
00000020: e51c 823d 761c c1be 3d0f 2fbf 492d a43e
00000030: 72ad b8bd 69ad 47be 8ffa 113f 8b8a 803e
00000040: ce7f 1e3b bbf2 203f db62 f6be a9d1 a9be
00000050: 2e1b 67be d137 92be a362 12bf 6c06 d43e
00000060: bc12 dabe de7f bebe 89f2 e2bd e300 c8be
00000070: 76f0 023d dde2 ffbe
0.46654427 -0.015299679 0.31806222 -0.39688164 -0.50718766 -0.38093093 0.36228788 -0.34282863
0.063531674 -0.37717026 -0.68382627 0.320658 -0.09017457 -0.19499744 0.5702295 0.251057
0.0024185064 0.6287038 -0.48122296 -0.3316777 -0.22568962 -0.2855821 -0.5718176 0.4141115
-0.42592418 -0.3720693 -0.11081416 -0.39063177 0.031967603 -0.4997777

rb1.shortcut.conv.bias f4 [10]
00000000: 1002 5138 b2d9 9fb9 b431 13ba b464 5639
00000010: 6fb1 01ba 733f 8ab9 8aef 4239 5313 6339
00000020: 0623 a737 9a8d 13b8
4.9831404e-05 -0.0003048904 -0.00056150113 0.00020446145 -0.0004947399 -0.00026368684 0.00018590517 0.00021655606
1.992426e-05 -3.5179408e-05

rb1.shortcut.bn.weight f4 [10]
00000000: 145f 823f ca10 763f d095 8a3f ce7c 693f
00000010: c3f3 8d3f eb01 773f 5405 403f 264b 553f
00000020: b900 753f 0a4e 743f
1.0185266 0.9611937 1.0826969 0.9120606 1.1090015 0.964873 0.7500813 0.8331779
0.9570423 0.9543158

rb1.shortcut.bn.bias f4 [10]
00000000: 1acf 643d 90d0 32bd 12a9 893d defd 19bd
00000010: 88a4 aa3d cd07 e73d 78c1 2637 e95e 6c3d
00000020: 57c8 053d 112e 023e
0.05586157 -0.043655932 0.06721701 -0.037595622 0.08332163 0.11280785 9.9394165e-06 0.0577077
0.032661762 0.12712885

rb1.shortcut.bn.running_mean f4 [10]
00000000: f5c0 03bd 5e29 623d fd52 513b 4f02 c6bb
00000010: 64a8 43bd 429e 7cbd ebe8 0f3d efd3 99bc
00000020: c516 ce3c 9553 463d
-0.03216644 0.055215232 0.0031940334 -0.0060427557 -0.04776801 -0.061674364 0.035134237 -0.018777816
0.025157342 0.048419554

rb1.shortcut.bn.running_var f4 [10]
00000000: 5f31 103e 39f0 c93e ba15 ae3b 1d60 113e
00000010: 8629 133d 1c50 483e 58e1 823e 4eb5 7c3d
00000020: 2b6f 493e d612 373e
0.14081334 0.39441088 0.0053126486 0.1419682 0.03592827 0.1956181 0.2556255 0.061696343
0.19671313 0.17878279

rb2.conv1.weight f4 [20, 10, 3, 3]
00000000: 7901 a53c edb5 dd3d 35ad 183e 32cc 343e
00000010: 4429 3c3e a257 193e e3fc f23c ae54 083d
00000020: 42ed 7c3c 7864 103d 72a9 b6bd bf35 31bd
00000030: 5290 bbbd f89a 4dbc f69b c93d 7a3e 8b3d
00000040: b26c 22be 760c 8dbd 5fb6 cbbd 6b88 0bbe
00000050: 8f65 c6bd 6c25 00bd 7f03 c3bd c181 4dbc
00000060: b399 51bd f63d 563c bc87 44be df42 473d
00000070: 36e8 8dbd 7d1f ce3c a1c1 bd3b b18e d33d
00000080: a660 e13d fac1 2fbc c46f f33d cf2b 113e
00000090: b90d b83c c000 a83d 5da8 9f38 3181 33be
000000a0: fb72 d2bd 1046 a33d 3bf1 923c 907a 35be
000000b0: a3d5 94bd df5d b73d 83ec c93d c4e6 0d3d
000000c0: 1ce2 51bd a6ab 97bc 4842 99bd a365 ebbc
000000d0: 7ef5 b6be 1db5 c9bd e305 d73d bb88 363d
000000e0: c511 af3c 1cb2 06bc 15fa a43c 7d0c 063d
000000f0: 2b59 6c3c af4a 4d3c 32f5 e6bd 1c7e b93d
00000100: 1e35 0dbe 706d a6bc 88c2 48bd 7a69 90be
00000110: ccda af3b cace b73d b172 04be 24f1 b0bd
00000120: 896d 2c3d e828 a9bd b072 abbd efc9 a4bd
00000130: 09d1 123d 8c4a 163e 0fe3 adbd 2b93 7aba
00000140: ed5f 5a3d 6334 bebd a744 54bd 57d5 ebbc
00000150: a61b 9a3d 2d18 0abd 552d 15bd 444f c7bc
00000160: 5931 cb3d 365f dd3d 420f 22be 915a 88bd
00000170: 84f8 febc 44cf 7e3d 7b34 d4bd 8fa4 d0bc
00000180: e4c4 173e febe 6a3e bee4 313e e027 1bbe
00000190: cfeb c0bd daa4 a2bd 27c2 5ebe 1b8f 8f3d
000001a0: 289e debc 7bfb 22be c396 ccbc 210c b5bd
000001b0: 5d30 55be 964f 76be b509 09be 379e a43d
000001c0: 2e4a 103d 75ff a4bd 5dd2 d33d 5e6b 1f3e
000001d0: a6a1 393e 07c7 b0bc d603 a2bd 28d1 32bd
000001e0: 48a3 033c cf03 903d 234b babc f716 cabd
000001f0: 435e 913c 6177 81bd 3e6d 373d 1fad 023e
00000200: c91f 963d 70f3 20bd 335d a5bd a827 5bbd
00000210: c035 a7bd c9bf 2ebe c368 c2bd 3c6b 0bbd
00000220: 292f 83bd 620f 2c3d 86c4 1bbd 1e90 ab3c
00000230: a845 7d3d f429 d73c bfd2 5ebd bba0 c13d
00000240: 6825 103e 3c2c 0a3e a350 4bbc ed77 3f3d
00000250: 1491 f43d 4211 eebc 41ca e9bd 7cc1 5c3c
00000260: e90b 3abd 75b3 75bc 4a50 563e b290 bd3d
00000270: b1a7 09be 655d 363d 4d66 ab3d 7683 2ebe
00000280: d525 9f3d 78f9 49bc b236 93bd 0561 6f3d
00000290: 2889 b9bd f2f9 8f3c 6ec7 673d 670f a3bd
000002a0: 41e7 813d df71 533c 3645 6dbd eae8 92bb
000002b0: 3503 7c3d 37ac c5bc be17 1d3b 11a0 8e3c
000002c0: 888f 353d 716e a13d f27f 0a3e bc46 c9bb
000002d0: 0853 103b 4217 af3b 9b05 96bd b69d 8dbd
000002e0: b226 4f3d 481f 2b3c bdd5 4abc 1c31 1ebd
000002f0: 1673 8a3d 5154 83bd 4656 d23c 9762 063e
00000300: 3293 79bd 47a1 7cbc a80b d63b 8794 3cbd
00000310: 330e 48bd a44e 98bd 40b8 ba3d 3aa1 0cbe
00000320: 98c1 f1bc 1a7b c43d 1a8e 6ebb 4267 83bd
00000330: 1fd0 7b3c bb22 f63c aeb0 0b3d e1e5 5b3e
00000340: 3bd3 113e 0722 943d 9169 453d 84e9 043e
00000350: ce0a d83a c0cf 3fbe ea7d 1f3d c35b 593c
00000360: 6782 adbd 9f11 403d 4dab 4e3d 6cf5 e9bd
00000370: 38af c4bd 2489 5d3c dc34 3a3d 65e2 9bbc
00000380: c45b b33c 58fb 1d3d e367 da3d adc4 643d
00000390: bc91 7cbe 5549 213c 3e91 c4bc c048 15be
000003a0: 432d 8bbb d61d ddbb 1052 e33d 1b07 323e
000003b0: 4a8d d4bc e3c8 b1bd 7cab b4bd e591 1dbe
000003c0: d23c 98be 18b4 d7be 0aae 7cbd 8a63 b13d
000003d0: de53 96bd 09e4 083d 69c7 f2bb ba23 b4bc
000003e0: 79f6 593d 9ffa 89bd fb02 97bd 82d8 49bd
000003f0: ca79 5bbd 94d4 81bd 6a88 123d c35e 5abd
0.020142304 0.10825715 0.14909823 0.1765602 0.18375117 0.14974836 0.029661601 0.03328388
0.015437426 0.035252064 -0.08919038 -0.043264147 -0.09158386 -0.012549154 0.098442 0.06799026
-0.15861776 -0.06887142 -0.09946894 -0.13626258 -0.096873395 -0.03128569 -0.09522151 -0.012543143
-0.05117197 0.013076296 -0.19192404 0.048647758 -0.06929056 0.0251615 0.0057909046 0.103299506
0.11004762 -0.0107274 0.11886552 0.14176868 0.022467481 0.08203268 7.613071e-05 -0.17529751
-0.10275837 0.07972348 0.017937293 -0.17722535 -0.072673105 0.08953451 0.09859564 0.034643903
-0.051241025 -0.018514466 -0.07483345 -0.028734988 -0.3573417 -0.09848998 0.1049917 0.04456399
0.021370778 -0.0082211755 0.02013878 0.032726754 0.014425556 0.012530013 -0.11277236 0.090572566
-0.13789794 -0.020315856 -0.049013644 -0.28205472 0.005366659 0.08974989 -0.12934376 -0.08639744
0.04209665 -0.082597554 -0.08371484 -0.08046328 0.035843883 0.14676875 -0.084905736 -0.0009558673
0.05331414 -0.09287336 -0.051823284 -0.028788252 0.07524805 -0.033714462 -0.036420185 -0.024329789
0.09921522 0.10809176 -0.15826133 -0.06657899 -0.03112436 0.062209383 -0.10361572 -0.025469093
0.14821202 0.2292442 0.17372414 -0.1515193 -0.09419977 -0.07941599 -0.2175375 0.07009717
-0.027175024 -0.15916245 -0.024974233 -0.08840204 -0.2081923 -0.24053797 -0.13382609 0.080379896
0.035226993 -0.08056537 0.10342858 0.15568301 0.1812807 -0.021579279 -0.07910888 -0.0436565
0.008034535 0.070319764 -0.022740906 -0.098676614 0.017745143 -0.06321598 0.044781916 0.12761353
0.07330281 -0.03929466 -0.08074417 -0.053504616 -0.08164549 -0.17065348 -0.09492638 -0.034037814
-0.064054795 0.042006858 -0.038029216 0.020942744 0.061834008 0.026265122 -0.054400202 0.09454485
0.1407677 0.13493437 -0.012409362 0.04674523 0.11941734 -0.029060964 -0.1141553 0.013473865
-0.045421515 -0.014996399 0.20929065 0.09256114 -0.13442875 0.04452266 0.08369122 -0.17042336
0.07770888 -0.012327544 -0.07188167 0.058442134 -0.090593636 0.017575238 0.056586675 -0.07961922
0.06342936 0.012905567 -0.057927333 -0.004483332 0.061526496 -0.02412997 0.002397045 0.01741031
0.044326335 0.07882393 0.1352537 -0.0061424654 0.0022022147 0.0053433487 -0.07325288 -0.069148466
0.050574012 0.01044447 -0.012380061 -0.038621053 0.06760232 -0.064125665 0.025675904 0.13123547
-0.060931392 -0.015419311 0.0065321513 -0.046040084 -0.048841666 -0.074368745 0.09117174 -0.13733378
-0.029511258 0.09593792 -0.0036400617 -0.06416179 0.015369444 0.030045858 0.03410404 0.2147441
0.14240734 0.07233053 0.04819638 0.12979704 0.0016482712 -0.18731594 0.03893844 0.013266507
-0.08472138 0.046891805 0.050456334 -0.11423764 -0.09603733 0.013521466 0.045460567 -0.019028852
0.021894343 0.03856978 0.10664346 0.055851627 -0.24664968 0.009844144 -0.023995038 -0.14578533
-0.004247339 -0.0067479415 0.110996366 0.17385523 -0.025946278 -0.08680894 -0.088217705 -0.15387686
-0.29733902 -0.42129588 -0.061689414 0.08661564 -0.07340215 0.033420596 -0.0074090254 -0.021989692
0.05321357 -0.06737255 -0.07373615 -0.049278744 -0.053582944 -0.06339374 0.035774626 -0.053313028

rb2.conv1.bias f4 [20]
00000000: 454b 0439 b2aa 3138 1943 d538 1414 1b39
00000010: 0a57 91b9 2049 5736 21b7 83b8 ee53 2539
00000020: 4423 9038 a8e2 7237 52d2 f838 ba68 47b8
00000030: aefe a938 b252 4139 0416 a037 399d c738
00000040: 95d7 d8b8 4875 9c38 2e36 d8b8 fa46 2238
0.00012616541 4.235906e-05 0.000101691294 0.00014789432 -0.00027721404 3.208006e-06 -6.280677e-05 0.00015766892
6.873024e-05 1.4477097e-05 0.00011864737 -4.754283e-05 8.105986e-05 0.0001843672 1.9083738e-05 9.5183445e-05
-0.00010339838 7.460505e-05 -0.000103097744 3.8689912e-05

rb2.bn1.weight f4 [20]
00000000: 7334 673f 1352 783f 9803 7b3f f0ec 8b3f
00000010: 6a79 883f dbfe 543f bdb9 663f 609a 773f
00000020: cbb9 4a3f 637f 5d3f 0afd 763f 07e5 7e3f
00000030: a6b5 863f 0317 803f a253 7f3f 4bd2 7e3f
00000040: bdb7 813f 3324 713f e6b1 813f 4599 803f
0.90314406 0.97000235 0.9805236 1.0931683 1.0662053 0.8320138 0.90127164 0.9671993
0.7918975 0.865225 0.96479857 0.9956822 1.0524185 1.0007023 0.9973699 0.9953963
1.0134197 0.9419586 1.0132415 1.0046774

rb2.bn1.bias f4 [20]
00000000: 4934 943d 67a0 36bd 2f4f 053e 07e4 773b
00000010: 443c 683b 0e30 9cbd 94a3 863c a42e 863d
00000020: ff79 28bd e891 be3b cbe0 6dbd 116a 86bb
00000030: 96b3 79bd 2934 393d 89d4 8dbd d9cb 823d
00000040: dfbf 323d 49fd 8dbd 43ef 563d b0f4 eabd
0.07236535 -0.044586565 0.13018487 0.0037825124 0.0035436312 -0.07626353 0.016435422 0.06551865
-0.04113197 0.005815733 -0.058075707 -0.0041019996 -0.060962282 0.04521576 -0.069253035 0.06386537
0.043640014 -0.06933076 0.05247427 -0.11472452

rb2.bn1.running_mean f4 [20]
00000000: 6770 fcbe 3f9f e4bd c8e6 a4bf f358 23c0
00000010: 06de 18bf b3a5 293d 1270 84bf deed 57bf
00000020: 0f88 423f e6d8 f73b 2c54 39be 5ae5 52bf
00000030: 93de b7bf 92bd 0fbf ee5c 87be 8f8d 8ebf
00000040: fb33 65bf 6618 2dbf bce7 d2bf 3885 1cbf
-0.49304506 -0.11163186 -1.2882929 -2.552304 -0.5971378 0.04141779 -1.0346701 -0.8434733
0.7598886 0.007563698 -0.18098515 -0.8238121 -1.4364799 -0.56148636 -0.26438087 -1.113695
-0.8953244 -0.67615354 -1.647697 -0.61140776

rb2.bn1.running_var f4 [20]
00000000: ccaf 543f ecf6 463f 0395 8e3f aa15 ef3f
00000010: 9da2 963f dc7e 873f c47f c03f 2cc0 b43f
00000020: 4876 513f 9391 1c3f 52fe 253f 624b 9e3f
00000030: 5e90 af3f 625f 873f 16f6 6a3f b6f7 b33f
00000040: d825 893f b636 853f f1fd 6d3f b048 873f
0.83080745 0.7772052 1.1139225 1.8678486 1.1768376 1.058559 1.5038991 1.4121146
0.8182111 0.6115963 0.64841187 1.2366755 1.3715932 1.0575984 0.9178175 1.405997
1.0714674 1.0407321 0.9296561 1.0569057

rb2.conv2.weight f4 [20, 20, 3, 3]
00000000: 5ab8 66bd 633c 30bd 73cd 5f3c 29e1 b33d
00000010: d495 c73d d0b0 7dbd acce 5a3d 0738 47bd
00000020: 8f9a 0f3d 74f1 e5bd 85e6 9e3c 76a5 83bd
00000030: f1a9 003e cc81 eb3d 2a6f 613d 34ca 233e
00000040: e0ce 103e 2f5e ee3d 075e 1ebd 91a2 e6bd
00000050: 5648 e8bd 481b 183e 336c ce3d f8ff bfbd
00000060: bbf4 8d3d 4f1a eb3d 3a67 fcbd 71ec 97bd
00000070: 79cd b3bc d982 2cbe c621 87bd 2c44 573d
00000080: 8266 27be 8862 01be 9de3 f7bd 001d dfbd
00000090: 529c babd 4677 08be 04f8 aebd 1e3f 4ebc
000000a0: 252f 8dbd aee6 443a 2af9 b13d 9705 ff3d
000000b0: cf8e da3b ff7e 8dbd 932c c3bd 62b0 e8bd
000000c0: fa38 d1bd 7feb c53b e022 3ebd 90b8 fe3c
000000d0: 77a2 aabd a24e a8bd ef2d e3bc a655 80bc
000000e0: aabd abba 616f 953d f7c6 453d de4a 61bd
000000f0: c72c c6bd 46f2 a3bd 88dd 263d 97ad e3bd
00000100: 2eb3 2ebc 4925 d0bc b0bd 08bd e4a0 c43c
00000110: fb8a 463c da39 b5bd 95d0 543b 403b 323c
00000120: 1bab 573d 7b5c a1bd 90c2 dbbd d432 273e
00000130: 6109 813d 3bfc 15bd 46cf f33c 1511 8e3c
00000140: 6c70 b43c 8b6e 4e3b 0e45 e4bd 6d48 e1bd
00000150: 14f2 53bc f70c dabc c3e7 213d b8f7 8cbb
00000160: fbf3 983d 7256 ee3d 0b2e 113e ab0c e93d
00000170: faed 97bc 09cd 1b3e 8472 d43d 2ab0 e1bd
00000180: 543a 9e3d 9a52 e0bd 68f3 87bd cd1c 683d
00000190: eaed a63d 96d2 423e bb0d 293d 1a78 633c
000001a0: 34c1 a23d c7e3 cdbd c448 2abe f62e cebd
000001b0: be49 b33d d9ab cb3c 5a35 d4bd 4950 c5bc
000001c0: 7647 f3bd e8cd f5bd e224 35be 9aae 43be
000001d0: 874f 59be 4687 3a3d 7802 eebd 54b5 553d
000001e0: 7bf9 153e cdd4 79bd 3727 87bc 575b 64bb
000001f0: 0a13 363c 74da 283d cdbf 773d b2d8 afbb
00000200: 0bd9 353d a69f 8fbb 2f3e babd 5968 403b
00000210: cb08 5d3c f8e5 343c 7545 9f3c dfbe f13c
00000220: 188a a83c 0e1b 6bbc 6824 cf3b c957 623d
00000230: 1b67 4a3b 2c97 b7bd b033 acbd 87a5 25be
00000240: 7d6a ad3d 9a94 8b3d d285 9c3c 1c74 623d
00000250: 126a 6e3d 009f 8b3c c114 1a3d 0b4d 1fbd
00000260: bb4d d4bc 2e20 fbbc e367 9fbc adab 043d
00000270: cc90 89bd d479 aabd cda0 84bd b6cd 31bd
00000280: 61be 6bbd 669c 03be f725 9bbc 1b7f 3d3d
00000290: e416 0b3c d685 0fbd 2254 863d 08e3 883d
000002a0: c4d1 11be d5c8 c8bd 31cd 55bd c407 3f3e
000002b0: a2a8 103e cc79 ba3d b59e 563d 9076 b43c
000002c0: db46 1b3e fbd6 1e3d 854b 23bc 8e64 853d
000002d0: 62e2 a23d 3a76 a53d f619 1e3c abf1 a0bd
000002e0: aa83 f83c 910f e5bc 14f9 b3bd 5273 b43c
000002f0: b070 08be 4435 6fbd 5413 0bbe a1ef a0bd
00000300: 4a5b e93b 8e2b 2f3b f14c 94bd f42a c43c
00000310: 6907 ec3d 3ffc 4d3d a3b1 a2bd 12a0 febc
00000320: 18b2 a6bd d103 41bd e03b 32bb 3e4c 203d
00000330: eb7f 433d 5acc 123d a855 d53b 7896 113d
00000340: ee87 873d c7c0 eabd d4f2 09be 2be2 113d
00000350: 6c6c 78bd 48f2 10be b545 2abe e7da 23be
00000360: 6f7b 0fbe 5387 c9bc 0b8d acbd 0177 74bd
00000370: 2040 9c3d 5a18 f9bd f94e 3e3d 9476 4d3c
00000380: 66b4 e3bc 4ac7 f5bd 35bd abbd ddd3 d3bc
00000390: 197f 78be 46f4 89bd 9d1e 23bc 77c9 87bc
000003a0: 6a74 9fbc 9aed 92bd 7efa 27bd 161e f238
000003b0: d5ba 5abc 5e95 883c 9ccf 923d dd19 f7bd
000003c0: 6d52 30bc f0b4 013d 8b17 39bd aeb6 713d
000003d0: 788e 803c dc8b a5bd 0daf 953d cb90 b53d
000003e0: bd94 39bd 88ca 173d 66a5 f33c 83bc ecbd
000003f0: 4134 36be cc40 97bd 10c1 e1bd f745 babd
-0.056328155 -0.04302634 0.013659823 0.0878318 0.09745374 -0.0619362 0.053419754 -0.048637416
0.035059508 -0.11227694 0.01939703 -0.064280435 0.12564828 0.11499366 0.055037655 0.15995103
0.14141417 0.11639058 -0.03866389 -0.11261476 -0.11341922 0.14854157 0.10079231 -0.09374994
0.06931444 0.11479627 -0.123243764 -0.074181445 -0.021948563 -0.1684679 -0.06598239 0.05255525
-0.16347697 -0.12635243 -0.12103961 -0.10894203 -0.09111847 -0.13326749 -0.08543399 -0.0125882905
-0.06893758 0.00075111806 0.086901024 0.12452238 0.006669856 -0.06908988 -0.09529986 -0.11361767
-0.102159455 0.006040036 -0.04641998 0.031093866 -0.08331769 -0.08218123 -0.027731864 -0.01566584
-0.0013102789 0.072966345 0.04828545 -0.05500304 -0.09676509 -0.08005194 0.040738612 -0.11117094
-0.010662837 -0.025408404 -0.033384025 0.0240025 0.012118096 -0.08848925 0.0032472957 0.010878384
0.052653413 -0.078789674 -0.10730469 0.16327983 0.06300617 -0.0366175 0.029761922 0.01734213
0.022026263 0.0031498994 -0.11145984 -0.11000142 -0.012936134 -0.02661751 0.039527666 -0.0043019913
0.074684106 0.11637582 0.1417772 0.11379369 -0.018546093 0.15214933 0.103734046 -0.11019929
0.07725969 -0.10953255 -0.06638223 0.05666809 0.08150847 0.19025645 0.04127286 0.013883615
0.07947007 -0.10053211 -0.1662932 -0.10067551 0.087542996 0.024862217 -0.103617385 -0.024086135
-0.118788645 -0.12002164 -0.17689851 -0.19109574 -0.21221744 0.045539163 -0.116215646 0.05217488
0.1464595 -0.06099396 -0.016498191 -0.0034844482 0.011112938 0.041223958 0.06048565 -0.0053664083
0.04439644 -0.0043830452 -0.09093892 0.002935907 0.013490866 0.011041157 0.0194423 0.02950996
0.02057366 -0.014349712 0.0063214786 0.0552595 0.003088421 -0.089643806 -0.08408296 -0.16176425
0.08467577 0.06815453 0.01910678 0.05528651 0.058206625 0.01704359 0.03761745 -0.038891833
-0.025915971 -0.030654993 -0.019458717 0.032390285 -0.06717071 -0.08324018 -0.06475983 -0.043409072
-0.057554606 -0.1285263 -0.018939001 0.046263795 0.008489344 -0.035039745 0.06559016 0.06683928
-0.14240175 -0.09803931 -0.05219764 0.18655306 0.14126828 0.09105262 0.05239745 0.022029191
0.15163748 0.03877924 -0.009966736 0.0651332 0.07953335 0.080791906 0.009649744 -0.078585945
0.03033622 -0.027961524 -0.08787742 0.022027645 -0.13324237 -0.058400407 -0.13581592 -0.078582056
0.007121478 0.0026728841 -0.07241238 0.023946263 0.11524851 0.05028939 -0.07944038 -0.031082187
-0.081394374 -0.04712278 -0.0027196333 0.03913521 0.047729414 0.035839416 0.006510455 0.03554389
0.066177234 -0.114625506 -0.13471538 0.03561608 -0.060650274 -0.14154923 -0.16628154 -0.16001473
-0.1401193 -0.02460066 -0.08425339 -0.059683803 0.076294184 -0.12162848 0.046462033 0.012540478
-0.027795982 -0.12000902 -0.08385698 -0.02585786 -0.24267234 -0.067360446 -0.009956029 -0.016575558
-0.01946469 -0.07174225 -0.041010372 0.00011545063 -0.013350208 0.016672786 0.071685046 -0.1206548
-0.010761839 0.031666696 -0.045188468 0.059012108 0.015692934 -0.08083317 0.07308779 0.08865508
-0.045307864 0.037058383 0.029741954 -0.11559393 -0.17793371 -0.07385406 -0.11023152 -0.09095376

rb2.conv2.bias f4 [20]
00000000: 2ae1 10b7 fca7 b938 c494 b836 ee92 bfb6
00000010: 8a1a 8db8 1f8b 12b8 9b4d 8037 97bb 0f39
00000020: 842f 79b8 5783 8838 e4b3 4a38 48d2 b8b6
00000030: b59f 02b9 f7ef 2bb8 3ebf 89b8 2956 1a39
00000040: 601f ef37 9249 b3b8 b035 4ab9 1c55 b1b5
-8.635494e-06 8.852777e-05 5.500946e-06 -5.7093484e-06 -6.728347e-05 -3.493868e-05 1.5294927e-05 0.00013707425
-5.941048e-05 6.509449e-05 4.832809e-05 -5.5081073e-06 -0.00012457262 -4.099306e-05 -6.568291e-05 0.00014718682
2.850563e-05 -8.549089e-05 -0.00019284221 -1.3212298e-06

rb2.bn2.weight f4 [20]
00000000: 1059 673f 1a17 8b3f 8526 993f affa 803f
00000010: ba41 993f 8855 6b3f 9efa 903f c9c6 8f3f
00000020: 10d9 963f 265c 9c3f 72eb a23f 0ae1 803f
00000030: 8bf3 923f 4b73 703f b7b4 9a3f b7da aa3f
00000040: accc 9e3f b84e 9e3f a45c 923f 1535 703f
0.90370274 1.0866425 1.196488 1.0076503 1.1973183 0.91927385 1.1326482 1.123254
1.1784992 1.2215621 1.2728102 1.0068676 1.1480573 0.93925923 1.20864 1.3347996
1.2406211 1.2367773 1.1434522 0.93830997

rb2.bn2.bias f4 [20]
00000000: a249 fb3d d125 3a3d 4f65 17be 9445 c6bd
00000010: 0f46 86bd fa3d 0ebe 6b03 5e3d 176c 24be
00000020: 9f15 a03d 2ebd 07be 62ec 0f3c a9e1 3cbe
00000030: 72a9 b93d ad14 163d c4ea 29bb 16c7 223e
00000040: 57cc 803a 17b6 a2bd 004f 5d3d 4d56 3ebe
0.12269904 0.04544622 -0.1478474 -0.0968124 -0.06556331 -0.1389083 0.05420248 -0.16056858
0.07816624 -0.1325576 0.008784385 -0.18445458 0.09065522 0.03664081 -0.0025927285 0.15896258
0.0009826523 -0.07944887 0.05403042 -0.18587609

rb2.bn2.running_mean f4 [20]
00000000: 08ef d8be a616 02c0 ffa4 58bf 662d 37bf
00000010: 4f7d a7bf 8e82 12be 5725 80bf dcda 383d
00000020: 66c7 1fc0 5ab5 3a3d 80a3 07bf 360f 50be
00000030: 1fe9 c1bf a955 a8bf 2ab9 423f c1bf 8abf
00000040: 34d6 02c0 5fbf c3be f1b0 edbf 28c1 b63d
-0.42369866 -2.0326324 -0.84626764 -0.7155365 -1.3085116 -0.14307615 -1.0011395 0.045130596
-2.4965453 0.045583107 -0.52983856 -0.20318303 -1.5149268 -1.3151141 0.7606379 -1.0839769
-2.044324 -0.38231942 -1.8569623 0.089235604

rb2.bn2.running_var f4 [20]
00000000: 4144 313f 7499 5b3f 7179 403f d1c2 1d3f
00000010: 09df 2e3f 9901 593f f8c8 803f 82ac 243f
00000020: 32f4 8a3f af55 2f3f 07ff 193f e42f 2c3f
00000030: 3347 f73e 0178 313f 292f 853f 04c4 463f
00000040: c50f 053f 7073 553f a7f8 4c3f 53ce 393f
0.6924477 0.85781026 0.75185305 0.6162539 0.68309075 0.8476806 1.0061331 0.64325726
1.0855772 0.6849012 0.60154766 0.67260575 0.48296508 0.69323736 1.0405017 0.77642846
0.5197719 0.8337927 0.80066913 0.7258045

rb2.shortcut.conv.weight f4 [20, 10, 1, 1]
00000000: 027e f3bc 32f0 f0bd 0d08 dbbe 9508 3abe
00000010: cc08 a33e 0393 e13d 5be4 a2bd af15 1c3e
00000020: a771 5ebc 99b2 08be 3560 5ebe 56a4 c13c
00000030: c35d ddbe ab0a ce3d 4a46 0e3e 02a2 a0be
00000040: f6bc c8bd e380 003d d89f 0abe 5a39 7c3b
00000050: 7019 8cbc b81c f7bd 844e 89bd 9e66 70bd
00000060: f833 e13d e87d bd3e 883d f83d b968 323d
00000070: a0fd ca3a 9a22 b3be bb4f 3fbd ff0c f63d
00000080: dbcb bb3e e41b 823d daf0 1e3b f515 4dbd
00000090: d137 883e 5414 6b3e 50e3 ba3e 575d 85be
000000a0: 70be 88be 0ab4 193c f556 293e df53 663e
000000b0: faae 3cbd 42a7 a23c b594 99bd bd22 18bd
000000c0: aa51 983e 90e8 5dbe a5b6 4b3e f8c5 403d
000000d0: 4fda 13be 03ab a1be 31a9 d2bd eb3f 49be
000000e0: e625 773e 5ca4 86be a7d3 52be e1a3 9dbe
000000f0: d7de 1b3e c359 133e 25b4 6b3d 648f 73be
00000100: ceb2 bbbd 91a2 a8be 9b2f 6dbe 139d c13d
00000110: fbca 923e 82e6 e6bd e495 8b3e 49d3 663e
00000120: 3c85 c0bd c5b7 0dbe aed8 c0bd 6909 28be
00000130: 1993 c0be 3f83 15bd ab70 c2be 3f5c 56be
00000140: 08cd 40be ca13 a83d 9641 c9bd 88c9 4bbe
00000150: f982 04bf a25e 1bbe e2ea 1c3d 0bb5 553e
00000160: 9666 32be 3d2c 3b3e ca09 52be d979 993e
00000170: c4d2 81be 3998 5cbe 431e 163e fb18 d9bd
00000180: 2798 87bd 444f 8d3e e0bb 8bbd 63cc 84be
00000190: 730a 433e 49d6 933d 095d a8be 7593 373e
000001a0: 372c 9ebe 2db8 2d3d 194e 663e 06cb 113e
000001b0: 18c2 a33e 1340 423e 97a6 783c d05d 05be
000001c0: 194d a2be 55a1 063e b1c0 863e 3d99 853e
000001d0: bc3f cfbd 5c92 28be ee12 1f3e 509d 09bc
000001e0: 4720 dbbd 94ee b5be 476b 533e d95c a53e
000001f0: 344d 01be 278e 3f3e d945 363e baef 1dbe
00000200: bb04 5cbe 10ad 3a3e ba48 edbc 540f 50be
00000210: 2399 40be 378c 8fbd a256 1b3e 7f01 813e
00000220: 5ce8 ac3d 4f81 0a3e 306a cebe 0755 4dbd
00000230: 796c ee3c 84b8 76be 6563 a93d 2d32 1bbe
00000240: 455f deba 12cf 76be 4939 d7be 14b0 59be
00000250: aa33 0ebe b408 123e 9c14 c13e 7968 c3be
00000260: 2c25 473e 620d 1c3e 463f 43be 45bb 373e
00000270: a396 cc3d fb1b febd 50ac 9abd a73d 42be
00000280: 5f4c c43d 597e b53e bb36 c6bd 373a b2bd
00000290: 2cbd 5cbd 6fbc 663e 5baa b83d 40f1 dd3d
000002a0: 5761 da3d 94f8 9bbc 3100 a73b a4ae 9b3d
000002b0: b781 97be 2b65 2d3e ec4a c0bc b419 0f3e
000002c0: ae7d 273e 7742 d43e 88c8 8d3e db7e 07bd
000002d0: d97c bf3d a20a 833e c95c 813c eac2 76be
000002e0: 86b8 abbd 0b88 a13d 8f22 283e bc27 1fbe
000002f0: b1a7 abbe 3c71 65be c886 99be 21b3 3dbd
00000300: 424d a83e 6395 01bd 6604 f33c 64ca fbbd
00000310: 5808 3e3e ab19 8abd 0769 1dbd 6bb7 a23d
-0.029723171 -0.117645636 -0.4277958 -0.18167336 0.3184265 0.110143684 -0.079537116 0.15242647
-0.0135769015 -0.1334938 -0.21716388 0.023637932 -0.43235597 0.100606285 0.13894 -0.31373602
-0.098016664 0.031372916 -0.13537538 0.0038486333 -0.017101973 -0.120660245 -0.06704429 -0.058691613
0.109962404 0.3701012 0.12121111 0.043556903 0.0015486963 -0.34987336 -0.046706896 0.120141976
0.36678967 0.06352976 0.0024252445 -0.050069768 0.26605085 0.22956973 0.3650155 -0.26047775
-0.26707792 0.009381304 0.16537078 0.22492932 -0.04606531 0.019855145 -0.07499067 -0.037142504
0.29749805 -0.21670747 0.19893892 0.047063798 -0.14438747 -0.31575784 -0.10286177 -0.19653289
0.24135551 -0.2629727 -0.20588551 -0.30789092 0.15221725 0.1438971 0.057544846 -0.23785168
-0.09164964 -0.32936528 -0.23162691 0.09453788 0.28670487 -0.112744346 0.27262795 0.22541536
-0.094004124 -0.13839634 -0.09416328 -0.1640984 -0.37612227 -0.03650212 -0.37976584 -0.20933627
-0.18828213 0.082068995 -0.09826963 -0.19901097 -0.5176235 -0.15172818 0.03830994 0.20869844
-0.17421946 0.18278594 -0.20511547 0.29975775 -0.25356114 -0.21542443 0.14659981 -0.10600468
-0.06620818 0.27599537 -0.06822944 -0.25937185 0.19046955 0.07218606 -0.3288348 0.17927344
-0.30893108 0.04241197 0.2249073 0.14237604 0.3198402 0.18969755 0.015176437 -0.13024068
-0.31699446 0.13147481 0.26318887 0.26093474 -0.10119578 -0.16462082 0.15534565 -0.008399323
-0.10699516 -0.35533583 0.20646392 0.322974 -0.12627107 0.1870657 0.17800082 -0.1542348
-0.2148618 0.1823008 -0.028965343 -0.20318347 -0.18808417 -0.07009166 0.15169767 0.25196454
0.084427565 0.1352589 -0.4031539 -0.050129917 0.029104458 -0.24093825 0.08270911 -0.1515586
-0.0016965648 -0.24102429 -0.42035893 -0.21258575 -0.13886896 0.14261132 0.37711036 -0.38165644
0.19447774 0.1523948 -0.19067106 0.17942531 0.09989669 -0.124076806 -0.07552397 -0.18968831
0.09584879 0.35447958 -0.09678408 -0.0870251 -0.053891346 0.22532819 0.09016868 0.108370304
0.10663097 -0.01903943 0.0050964584 0.076016694 -0.29591152 0.16933124 -0.023473226 0.13974649
0.16356537 0.4145696 0.27692056 -0.033079963 0.09349985 0.2559405 0.015791314 -0.24097791
-0.083848044 0.07887276 0.16419433 -0.15542501 -0.33526376 -0.22406477 -0.29985642 -0.04631341
0.32871443 -0.031636607 0.029665183 -0.12294462 0.1855787 -0.06743177 -0.03843024 0.079451405

rb2.shortcut.conv.bias f4 [20]
00000000: 6d89 ca37 064e 92b8 2b2e a238 760e 9138
00000010: f4cf 6937 61c9 ddb8 31a0 6039 e6f6 7538
00000020: 9d31 28b8 a3d0 9539 122a b338 ac8e e837
00000030: 5064 3e39 1694 0239 d46b e8b8 38c6 ed34
00000040: 2cd6 3f38 1e39 1038 bce5 a938 c3c3 04b8
2.414427e-05 -6.9763555e-05 7.7333614e-05 6.916832e-05 1.39363e-05 -0.00010575611 0.0002142198 5.8642494e-05
-4.0100527e-05 0.0002857494 8.543221e-05 2.7722992e-05 0.00018157181 0.00012452932 -0.000110827066 4.4288913e-07
4.573741e-05 3.438547e-05 8.101339e-05 -3.165357e-05

rb2.shortcut.bn.weight f4 [20]
00000000: 4329 7e3f c326 6b3f a0a1 803f 35c8 573f
00000010: 50d5 503f 1c37 673f 006b 5d3f e127 743f
00000020: da96 773f e9f7 783f 7677 2c3f f8a7 503f
00000030: a48d 4e3f 887a 6f3f 1e64 843f 24e9 2d3f
00000040: d796 513f 329c 483f be28 383f f52b 673f
0.9928171 0.9185602 1.0049324 0.84289867 0.8157549 0.90318465 0.86491394 0.9537335
0.96714556 0.9725328 0.6736978 0.815063 0.80684876 0.9354634 1.0343053 0.6793387
0.8187079 0.78363335 0.7193717 0.9030145

rb2.shortcut.bn.bias f4 [20]
00000000: a249 fb3d d125 3a3d 4f65 17be 9445 c6bd
00000010: 0f46 86bd fa3d 0ebe 6b03 5e3d 176c 24be
00000020: 9f15 a03d 2ebd 07be 62ec 0f3c a9e1 3cbe
00000030: 72a9 b93d ad14 163d c4ea 29bb 16c7 223e
00000040: 57cc 803a 17b6 a2bd 004f 5d3d 4d56 3ebe
0.12269904 0.04544622 -0.1478474 -0.0968124 -0.06556331 -0.1389083 0.05420248 -0.16056858
0.07816624 -0.1325576 0.008784385 -0.18445458 0.09065522 0.03664081 -0.0025927285 0.15896258
0.0009826523 -0.07944887 0.05403042 -0.18587609

rb2.shortcut.bn.running_mean f4 [20]
00000000: 7f40 97be c114 40bf af2d ac3d 5e3d 373f
00000010: fe19 f53c 9d1e 67bf 8e8d 9abe b3a7 50bf
00000020: 6553 11bf dc11 e5be 1720 303f 2d29 273e
00000030: 6c94 4c3e ba8f 28be 0b65 69bf e431 073e
00000040: 518a 173f 8624 463f 20d2 c3be 657a 91bd
-0.29541394 -0.7503167 0.08407151 0.71578014 0.02991962 -0.9028109 -0.30186123 -0.8150589
-0.56767875 -0.44740188 0.68798965 0.16324301 0.19978493 -0.16461077 -0.91169804 0.13202626
0.5919543 0.7739948 -0.3824625 -0.07103423

rb2.shortcut.bn.running_var f4 [20]
00000000: ae5a d73e a515 b53e 76ce a23e 0d66 ba3e
00000010: f6d2 573e 3b64 f43e bf30 a23e b4ab 0a3f
00000020: 4e8e 6b3e 1617 9b3e 9a47 e93e 09e9 673e
00000030: 256b a13e d827 de3e 4dc6 e03e 807a 963e
00000040: c512 3d3e 8455 d03e 74a3 a33e 7175 193e
0.4206137 0.35368076 0.31798142 0.36405984 0.21076569 0.4773272 0.31677815 0.5416825
0.23003504 0.3029105 0.4556244 0.2264749 0.31527057 0.43389773 0.4390129 0.29390335
0.18464191 0.40690243 0.31960642 0.14986207

res1_sc1.conv.weight f4 [20, 3, 1, 1]
00000000: 2f5a 0bbf 0da9 f53d e3b8 a73e 0cd9 8abe
00000010: fc15 123f 7581 2cbe 952a 98bd 391b d8be
00000020: d0dd d8be 53c6 bb3e be2d eabe 915d 4fbe
00000030: cd09 bd3e faf7 55be de03 b43e f8d9 0fbf
00000040: 9833 86be 98fb e13e a70a 97be 2626 043f
00000050: 30e4 9f3e ee4a f23e 8b9d 0fbf 6dea 62be
00000060: 7b2a 8f3e 1e0f ee3e cc74 90be cd0d 883e
00000070: 4d81 59be 6b77 e9be ce53 29bc 2288 91be
00000080: d00d 2fbf 3063 973d 128e 57be ef2d e7be
00000090: 56c7 fcbe c2d8 8abe 6547 adbd 95d0 c03d
000000a0: 164d 5fbe a5a6 00bf 31ae 3dbe 1253 803e
000000b0: 20b9 e03e 5098 dc3e f930 883e 29da 61be
000000c0: eabc 43be ba9c 02bf 3b44 c0bc db65 c3bd
000000d0: c3b1 01bf d294 003d 538a 703e 1604 e93e
000000e0: 9d46 1e3d e8b5 fabe 2aa5 ae3d ac61 423e
-0.54434484 0.119951345 0.32758245 -0.2711872 0.57064795 -0.16846259 -0.07429997 -0.4220827
-0.4235673 0.36674747 -0.45738024 -0.20250537 0.3692154 -0.20895377 0.351592 -0.5619197
-0.26211238 0.44137263 -0.29500315 0.5162071 0.3122878 0.47322792 -0.56099766 -0.22159739
0.27962098 0.46495908 -0.2821411 0.2657303 -0.2124073 -0.4559892 -0.010334922 -0.28424174
-0.6838045 0.073919654 -0.2105029 -0.45152232 -0.4937083 -0.27118498 -0.08460883 0.09414784
-0.2180675 -0.5025428 -0.1852348 0.25063378 0.4389124 0.43084955 0.26599863 -0.22055878
-0.19115034 -0.51020396 -0.023470035 -0.09540912 -0.5066187 0.031391926 0.23490267 0.4551093
0.03864156 -0.48966908 0.08527596 0.18982571

res1_sc1.conv.bias f4 [20]
00000000: 4270 23b8 dd62 d7b9 d844 03b8 228f 7938
00000010: 55aa 9238 9a59 0b39 a8d6 81b8 a087 2339
00000020: 4879 a5b8 b67b 7039 bc13 3137 2d21 17b8
00000030: b1d2 8ab8 af0b dd38 e915 2539 9ea7 4d39
00000040: cc82 9438 3631 63b9 c63f 10b9 77d8 8a39
-3.8966777e-05 -0.00041081654 -3.129695e-05 5.949953e-05 6.993549e-05 0.00013289452 -6.191182e-05 0.00015595416
-7.8904035e-05 0.0002293427 1.0554617e-05 -3.6032103e-05 -6.619597e-05 0.000105402774 0.00015743788 0.00019612766
7.081553e-05 -0.0002166674 -0.00013756668 0.0002648269

res1_sc1.bn.weight f4 [20]
00000000: a703 893f de7e 7f3f 327b 673f 7091 5f3f
00000010: 7699 513f c218 593f 5acd 4a3f 5104 6a3f
00000020: bd80 563f 39bc 4e3f e57e 563f cc8f 5f3f
00000030: 7ccb 523f ef93 603f 9299 5f3f 3997 363f
00000040: f5c9 5b3f 9170 3b3f 42bd 463f 6f30 793f
1.070424 0.9980296 0.90422356 0.87331295 0.8187479 0.848034 0.7921959 0.91412836
0.8379019 0.80755955 0.83787376 0.8732879 0.8234174 0.8772573 0.87343705 0.713245
0.85855037 0.7321864 0.77632535 0.9733953

res1_sc1.bn.bias f4 [20]
00000000: a249 fb3d d125 3a3d 4f65 17be 9445 c6bd
00000010: 0f46 86bd fa3d 0ebe 6b03 5e3d 176c 24be
00000020: 9f15 a03d 2ebd 07be 62ec 0f3c a9e1 3cbe
00000030: 72a9 b93d ad14 163d c4ea 29bb 16c7 223e
00000040: 57cc 803a 17b6 a2bd 004f 5d3d 4d56 3ebe
0.12269904 0.04544622 -0.1478474 -0.0968124 -0.06556331 -0.1389083 0.05420248 -0.16056858
0.07816624 -0.1325576 0.008784385 -0.18445458 0.09065522 0.03664081 -0.0025927285 0.15896258
0.0009826523 -0.07944887 0.05403042 -0.18587609

res1_sc1.bn.running_mean f4 [20]
00000000: 58f3 04bd 3cc5 c8ba 4b0b 5e3d bc4b 053d
00000010: 895e e5bc 4a4f f8bc 1afa 37bd 78ef 183d
00000020: d840 233c 5f72 473d 2141 973d 6827 493d
00000030: fa61 9c3c 0685 5d3d 4c42 48bd 723c 223c
00000040: 31d7 a23c b42b 6a3c 3626 a2bc 06e1 98bc
-0.032458633 -0.001531757 0.05420999 0.03254293 -0.02799918 -0.030311245 -0.04491625 0.03733775
0.00996419 0.048693057 0.07385469 0.049109846 0.019089688 0.05408194 -0.04889135 0.009902107
0.019878002 0.014292646 -0.019793611 -0.018661987

res1_sc1.bn.running_var f4 [20]
00000000: 29da b33c ecd7 073c 7f38 583e 4232 083d
00000010: 19d7 833d 4e96 733d fc4c ab3d 9269 283d
00000020: f432 723d 9640 693d d6dd 803e 1591 c23d
00000030: 80e1 303e b53f df3d 7bf2 9c3d 54c2 803d
00000040: a8b5 013e 1037 a33d 46ba 023e add4 af3c
0.021954613 0.008291226 0.21115302 0.033251055 0.06437511 0.059469514 0.08364293 0.041116305
0.059130624 0.05694636 0.25169247 0.095003285 0.17273521 0.10900823 0.07663437 0.06287065
0.12666953 0.07969487 0.1276637 0.021463716
