models/dense_max/epoch_0032.pth (torch, 645162 bytes, 174 tensors)

rb1.conv1.weight f4 [10, 3, 3, 3]
0	0xbda51bdb	-0.08061954
1	0x3da758b0	0.08171213
2	0xbd9768b2	-0.07393016
3	0xbe6f2888	-0.23355305
4	0x3e8bca81	0.27302936
5	0x3e39916f	0.18121885
6	0xbe5336a9	-0.2062632
7	0x3e3fad1e	0.18718383
8	0xbdf52c61	-0.11971355
9	0xbe3940f7	-0.18091188
10	0x3c3ad860	0.011404127
11	0xbd2b04de	-0.04175269
12	0xbe9e1fbd	-0.3088359
13	0x3e936f82	0.2879601
14	0x3e2ab4fb	0.16670601
15	0xbc850906	-0.016239654
16	0x3e8d9ebc	0.27660167
17	0xbe667ef2	-0.22509363
18	0xbcb3f69e	-0.021968182
19	0x3b4c7527	0.0031197758
20	0xbdbd2c34	-0.09236947
21	0xbe645439	-0.22297753
22	0x3d5dd694	0.054159716
23	0x3c0e5392	0.008686917
24	0x3e0420e1	0.12903167
25	0x3d8f0a67	0.06984406
26	0x3e123054	0.14276248
27	0x3d734b69	0.05939809
28	0x3c8eb1c0	0.017418742
29	0x3e262dc8	0.16228402
30	0x3d6027ef	0.054725584
31	0x3e106b54	0.14103442
32	0xbeb8019a	-0.35938722
33	0xbd5f4351	-0.054507557
34	0x3d148624	0.03626074
35	0xbd961ccb	-0.073297106
36	0xbd0b8816	-0.03406533
37	0xbcc9a591	-0.024615081
38	0xbbced5f3	-0.006312126
39	0xbd270780	-0.040778637
40	0x3edbe5c1	0.42948726
41	0xbe6bfe72	-0.23046282
42	0xbd6c1bed	-0.05764382
43	0x3da9f100	0.0829792
44	0xbe04447f	-0.12916754
45	0xbe0b30c5	-0.13592823
46	0xbe323c12	-0.17405728
47	0x3df9b513	0.1219274
48	0x3c0b6ad4	0.0085093565
49	0x3eb53d13	0.35398158
50	0xbe8a54c0	-0.27017784
51	0xbb7171f6	-0.0036841608
52	0x3dc20566	0.09473686
53	0x3d354f02	0.0442648
54	0x3cfbb735	0.030727008
55	0x3e8cd158	0.27503467
56	0x3e3d2767	0.18472062
57	0xbe07f160	-0.13275671
58	0xbd97b4f5	-0.07407562
59	0x3dbe45cd	0.09290657
60	0xbd7bfaf0	-0.06151861
61	0xbe672216	-0.22571597
62	0xbad5995c	-0.0016296315
63	0x3e79dba7	0.24400197
64	0x3e7972d9	0.24360217
65	0x3ea14295	0.3149611
66	0x3b607c93	0.003425394
67	0xbe2f3b0b	-0.17112367
68	0xbde7b274	-0.11313334
69	0xbde24dd9	-0.110500045
70	0xbe89c71a	-0.26909715
71	0xbe39f18b	-0.18158548
72	0x3d6426f9	0.05570123
73	0x3e2ea972	0.17056826
74	0x3d751f14	0.05984409
75	0xba7881ca	-0.00094797893
76	0xbd30b916	-0.04314526
77	0xbdbc6148	-0.091982424
78	0x3dcfe3e2	0.10150887
79	0xbe524bb4	-0.20536691
80	0xbdfecfdd	-0.124419905
81	0xbe4315a6	-0.19051227
82	0x3d0fb42b	0.03508393
83	0xbe26b0ba	-0.16278353
84	0x3d93321b	0.07187291
85	0xbe9c12be	-0.3048305
86	0xbe2b339e	-0.16718909
87	0x3d40c8e5	0.047066588
88	0x3dd1d6bd	0.10246036
89	0x3e28bd37	0.1647843
90	0xbdd4c805	-0.10389713
91	0xbe1de949	-0.15421022
92	0xbe2737b1	-0.16329838
93	0x3e58f19b	0.21185915
94	0xbe89c1c0	-0.26905632
95	0xbdfe52fb	-0.12418171
96	0x3e8bacd7	0.27280304
97	0x3ce252a8	0.027627304
98	0x3ce27909	0.027645605
99	0xbd21a9cb	-0.039468568
100	0x3cc89490	0.024484903
101	0xbe0ce4a1	-0.1375909
102	0x3c493855	0.012281497
103	0xbe304c3a	-0.17216578
104	0xbdffe016	-0.12493913
105	0x3e419652	0.18904999
106	0x3c839832	0.016063783
107	0x3e6aaf96	0.22918543
108	0xbe7ab845	-0.24484356
109	0xbe6b11df	-0.22956036
110	0x3e43ebc3	0.19132905
111	0xbdb610d9	-0.08889932
112	0xbe2a1861	-0.16610862
113	0x3e183b25	0.14866312
114	0xbdf062ad	-0.11737571
115	0xbc035a26	-0.0080170985
116	0x3e6a2359	0.22865047
117	0x3e70c03b	0.2351083
118	0xbe5e5834	-0.21713334
119	0xbdb29b3f	-0.08721017
120	0xbd9bda2a	-0.07609971
121	0xbc08d3f4	-0.008351315
122	0x3e2e2f04	0.17010123
123	0x3dbdf8a8	0.09275943
124	0x3df92847	0.121658854
125	0x3e02c5ef	0.12770818
126	0x3e868cf3	0.2627941
127	0x3da91b32	0.0825714
128	0xbd81152f	-0.063028686
129	0x3e60cb35	0.21952517
130	0x3cf94413	0.030427968
131	0xbe8dafaf	-0.27673098
132	0x3e1330fc	0.14374155
133	0x3c681f43	0.01416761
134	0xbe3f15a7	-0.18660603
135	0xbe40c13a	-0.1882371
136	0xbe17a57a	-0.14809218
137	0x3e006c1b	0.12541239
138	0x3ccd2d82	0.025046114
139	0xbe12f14f	-0.14349864
140	0xba99665f	-0.0011703483
141	0x3dfd72eb	0.123754345
142	0xbda9064b	-0.082531534
143	0x3cea1d2a	0.02857836
144	0x3d99a712	0.07502569
145	0x3e42506c	0.18975991
146	0x3e62e3fc	0.22157282
147	0xbd1ef1fd	-0.038804997
148	0xbee03ea7	-0.437978
149	0xbdf86c11	-0.12129987
150	0x3e3713b7	0.17878614
151	0xbdf00023	-0.11718776
152	0xbea32146	-0.31861323
153	0x3c60f792	0.0137309
154	0xbda916ff	-0.08256339
155	0x3e6850f7	0.22687136
156	0xbdb1c18a	-0.08679493
157	0xbe2a4d66	-0.16631088
158	0x3bee2a95	0.00726826
159	0xbe713507	-0.23555385
160	0xbeabd1ab	-0.335584
161	0x3ccc7a45	0.024960646
162	0xbcadb112	-0.021202598
163	0xbd1425b3	-0.036168765
164	0x3dcf75e1	0.101299055
165	0x3dacec72	0.08443536
166	0x3e4e6112	0.20154217
167	0xbdf3551c	-0.11881468
168	0xbcb84473	-0.022493577
169	0xbd0e0c2e	-0.034679584
170	0x3ca099bb	0.019604554
171	0x3d81fce6	0.06347065
172	0x3cdeb59d	0.02718621
173	0x3d89701b	0.067108355
174	0x3e06e0d2	0.131717
175	0x3e977337	0.2958009
176	0xbd801430	-0.062538505
177	0x3ce27efd	0.027648443
178	0x3d1f155a	0.03883872
179	0xbe3d3840	-0.18478489
180	0xbe82793f	-0.25483128
181	0xbe169b41	-0.14707662
182	0xbdc8d366	-0.09805946
183	0xbbbe67ab	-0.005810698
184	0x3df026bc	0.11726138
185	0x3e186970	0.14883971
186	0xbd9eef83	-0.07760527
187	0x3ec9a558	0.3938396
188	0x3e8b2c93	0.27182445
189	0x3c725e2b	0.014792959
190	0xbe0fa3c2	-0.14027312
191	0x3e4707eb	0.19436614
192	0xbe87f48d	-0.26553765
193	0xbd92e4cb	-0.07172545
194	0x3d9861b8	0.07440513
195	0x3e614c6e	0.22001812
196	0xbd3e5234	-0.046465114
197	0x3e4ea134	0.20178682
198	0x3e0342a6	0.12818393
199	0xbcb6b841	-0.022304656
200	0x3e4b1b2d	0.19834585
201	0xbe5b3ccb	-0.2140991
202	0xbec67f32	-0.38768917
203	0xbbbaa1c2	-0.0056955526
204	0x3e1b8c9b	0.15190355
205	0x3e0b23b6	0.13587841
206	0xbe8213d0	-0.2540574
207	0xbded7228	-0.11594039
208	0xbdb988d2	-0.090592995
209	0x3d88d668	0.0668152
210	0xbda4ebd0	-0.0805279
211	0xbe1a435c	-0.15064758
212	0x3ebcbb7f	0.36861798
213	0x3e8672ba	0.26259404
214	0xbdb4aa89	-0.088215895
215	0xbd033cc0	-0.032040358
216	0xbe90be85	-0.28270355
217	0x3dd711fe	0.105014786
218	0xbb8de2df	-0.0043300237
219	0xbd097684	-0.03356029
220	0x3e44144d	0.19148369
221	0x3e978eb1	0.29601052
222	0xbc65a5a3	-0.014016542
223	0x3e1876f6	0.1488913
224	0xbd5ff684	-0.054678455
225	0xbda2e091	-0.07952989
226	0xbe104d52	-0.14091995
227	0xbe1a00ee	-0.15039417
228	0x3c66458f	0.01405467
229	0x3dfc0a62	0.12306668
230	0xbd86cfc4	-0.06582597
231	0x3e7834f1	0.24238946
232	0xbe951933	-0.29120788
233	0xbe54b4df	-0.20772122
234	0x3d7ec010	0.062194884
235	0x3dc3eec7	0.095670275
236	0xbddf8d63	-0.10915639
237	0x3de530a9	0.11190922
238	0x3e4dbf45	0.20092495
239	0x3cb50f2b	0.02210196
240	0x3d1db74c	0.038504884
241	0x3c94abd6	0.018148344
242	0xbe6c8e55	-0.2310117
243	0x3e80309e	0.25037092
244	0x3ee92018	0.45532298
245	0x3e504b13	0.20341139
246	0x3e1aa324	0.15101296
247	0x3e9ad2cf	0.3023896
248	0x3d57882b	0.052620094
249	0xbda938fb	-0.08262821
250	0xbe3ccadb	-0.18436758
251	0xbeb0222d	-0.34401074
252	0x3e33279c	0.17495579
253	0x3e9c9f44	0.3059026
254	0x3d104564	0.035222426
255	0xbd89e3e7	-0.06732922

rb1.conv1.bias f4 [10]
0	0x379da952	1.8794704e-05
1	0xb8ef3075	-0.00011405434
2	0xb7f42210	-2.9102928e-05
3	0xb9252ddc	-0.0001575271
4	0x389e4082	7.5460426e-05
5	0x3752e83c	1.2571047e-05
6	0x3800b506	3.068617e-05
7	0x38851df8	6.347516e-05
8	0xb8368dd6	-4.3524276e-05
9	0x38ac8b12	8.227503e-05

rb1.bn1.weight f4 [10]
0	0x3f4b7a2d	0.794833
1	0x3f9e1f6a	1.2353337
2	0x3f5a8051	0.85352045
3	0x3f5f1330	0.8713865
4	0x3f128291	0.5723048
5	0x3f4cf65d	0.8006342
6	0x3f2cde18	0.6752639
7	0x3f7d7a3b	0.99014634
8	0x3f52be13	0.8232128
9	0x3f2cb649	0.67465645

rb1.bn1.bias f4 [10]
0	0x3ea54cf4	0.32285273
1	0x3f905bb8	1.127799
2	0x3c1e377a	0.009656781
3	0x3d16ddff	0.036832806
4	0x3d604aa2	0.054758675
5	0xbcb454d2	-0.022013102
6	0x3a9c3d23	0.0011920076
7	0x3f445331	0.7668944
8	0x3f0b9d12	0.54536545
9	0x3dfae396	0.1225044

rb1.bn1.running_mean f4 [10]
0	0xbc6321ed	-0.013863069
1	0xbc15b9a6	-0.0091385
2	0x3c5d3858	0.013502203
3	0x3cf89920	0.030346453
4	0xbd0e58f0	-0.034752786
5	0x3de7d54f	0.11319982
6	0xbd9a22b7	-0.075261526
7	0xbb50b7b5	-0.003184778
8	0xbc5c4e46	-0.013446396
9	0xbd00b95b	-0.03142677

rb1.bn1.running_var f4 [10]
0	0x3d957798	0.07298201
1	0x3d15299a	0.036416627
2	0x3e3602ac	0.17774457
3	0x3e5e33b2	0.21699408
4	0x3d31ee15	0.043439943
5	0x3ec99b94	0.3937651
6	0x3e513357	0.20429741
7	0x3d5c2ffa	0.05375669
8	0x3d1a5a4d	0.037683774
9	0x3ebe5d81	0.37180713

rb1.conv2.weight f4 [10, 10, 3, 3]
0	0xbc9d6908	-0.019215122
1	0xbe40484b	-0.18777578
2	0xba8219a9	-0.000992586
3	0x3c8c4330	0.017121881
4	0xbe110410	-0.14161706
5	0xbd43b8c0	-0.047783613
6	0x3c57d903	0.013174298
7	0xbd4b42b0	-0.049624145
8	0xbcce6116	-0.025192779
9	0x3c837ffe	0.016052242
10	0x3e326804	0.17422491
11	0xbe82a71a	-0.25518113
12	0xbe852e09	-0.26011685
13	0xbdb5ab86	-0.08870606
14	0x3e13e5d1	0.14443137
15	0x3e12174b	0.14266698
16	0xbe5aa21b	-0.21350901
17	0x3cb6b88f	0.022304801
18	0xbe0574dd	-0.13032861
19	0x3db398de	0.087693915
20	0xbde8a734	-0.113600165
21	0x3bb519b5	0.005526746
22	0xbe517df1	-0.20458199
23	0xbe321e5e	-0.17394397
24	0x3c8e7804	0.017391212
25	0x3ddbd8a5	0.10734681
26	0x3e1fe2d8	0.15613878
27	0x3e1a7544	0.15083796
28	0x3e2016ae	0.15633652
29	0x3e024c94	0.12724525
30	0x3dd80cdb	0.10549327
31	0x3de67165	0.11252097
32	0x3cd8aad7	0.02644865
33	0xbe0194f7	-0.12654482
34	0xbd9632e0	-0.073339224
35	0xbe712e03	-0.23552708
36	0xbe09666c	-0.13417977
37	0x3d4773c4	0.048694387
38	0xbd2ec71a	-0.042670347
39	0xbb0186e9	-0.001976425
40	0xbdc1d527	-0.09464484
41	0x3c9c9de7	0.019118262
42	0xbd7d4e4c	-0.061842248
43	0xbc24381a	-0.010023141
44	0xbd9c85cb	-0.076427065
45	0x3db0433a	0.086065724
46	0x3e730a67	0.23734437
47	0x3e2dd9e5	0.16977651
48	0xbcbee3b9	-0.023301946
49	0x3b902658	0.004399102
50	0xbd10290c	-0.035195395
51	0xbd4f6ef1	-0.05064291
52	0x3d52d59d	0.05147325
53	0x3e1fe60f	0.15615104
54	0xbd813450	-0.06308806
55	0xbd24f8d3	-0.04027636
56	0xbda6f580	-0.08152294
57	0xbdb6ca5c	-0.08925316
58	0xbe6ef585	-0.23335846
59	0xbda1ae6e	-0.07894598
60	0x3dc61fd5	0.0967404
61	0x3d8c7f09	0.068601675
62	0xbd780797	-0.060554113
63	0xbd1c4192	-0.03814847
64	0x3de01365	0.10941199
65	0x3e8d7d9e	0.276349
66	0xbd6ce993	-0.05783994
67	0xbe827121	-0.25476936
68	0xbecafaf0	-0.39644575
69	0x3ca34f31	0.019935222
70	0x3e2b5c22	0.16734365
71	0x3dda1e51	0.10650314
72	0xbd37f065	-0.044906992
73	0xbe2cb916	-0.1686748
74	0xbdd741a9	-0.105105706
75	0x3df6b811	0.12046827
76	0x3d676482	0.056492336
77	0x3dd597a1	0.104293115
78	0xbe4c80ac	-0.1997096
79	0xbc8b2172	-0.016983721
80	0xbd44a31e	-0.048007123
81	0xbea47260	-0.3211851
82	0xbea22722	-0.3167048
83	0xbde8f8dc	-0.11375591
84	0xbe340d69	-0.1758324
85	0xbd40e7cb	-0.047096055
86	0xbd3f9ca3	-0.04678024
87	0xbe08dd1f	-0.13365601
88	0xbda065bc	-0.07831904
89	0x3d743bf2	0.05962748
90	0xbc21faa6	-0.009886419
91	0xbdf6bf31	-0.120481856
92	0x3e02a427	0.12757932
93	0x3ca4eae5	0.020131538
94	0x3d8396ca	0.06425245
95	0x3ea07208	0.31337
96	0xbd2f3229	-0.042772446
97	0x3e2441cc	0.16040725
98	0xbdbe9480	-0.09305668
99	0x3ddcec67	0.10787278
100	0x3da4ac6f	0.080407016
101	0xbe2c18b0	-0.16806293
102	0x3e242fe0	0.16033888
103	0xbeeec973	-0.4663807
104	0x3d7e00b6	0.062012397
105	0xbe9fb22e	-0.31190628
106	0x3df8777c	0.12132165
107	0x3e131fc3	0.14367585
108	0x3c98a8b2	0.018635128
109	0x3e0aa294	0.13538581
110	0xbdcf73fc	-0.10129544
111	0xbb848c94	-0.0040450785
112	0xbe2ec2cd	-0.17066498
113	0xbe1aef3f	-0.15130328
114	0x3cd064de	0.025438722
115	0xbdc3013a	-0.09521718
116	0xbd65734d	-0.056018163
117	0xbe682608	-0.22670758
118	0x3dd01a4d	0.101612665
119	0x3d419ef2	0.047270723
120	0x3d8ceba7	0.068808846
121	0xbd48cf07	-0.04902556
122	0xbdcb0227	-0.0991252
123	0x3be48ab0	0.0069745407
124	0xbe4654d3	-0.19368295
125	0xbc875ae2	-0.016522828
126	0x3e3e6908	0.18594754
127	0x3e611de6	0.21984062
128	0x3d389cb0	0.045071304
129	0x3d943a43	0.07237675
130	0xbcfff689	-0.031245487
131	0xbdc19f8f	-0.094542615
132	0xbc9e3d22	-0.01931626
133	0xbe1531ca	-0.14569774
134	0xbe274b99	-0.16337432
135	0xbda42415	-0.080146946
136	0xbdac4e98	-0.08413428
137	0xbdba7770	-0.09104812
138	0xbd4d4e45	-0.05012347
139	0xbd794eb4	-0.060866073
140	0xbe011a52	-0.12607697
141	0xbd9b42f6	-0.07581131
142	0xbe36bceb	-0.17845504
143	0xbd711e31	-0.058866683
144	0x3dd3099b	0.103045665
145	0x3e23adc1	0.1598425
146	0x3dde31c2	0.10849334
147	0x3e1c6bad	0.1527545
148	0x3e34e301	0.1766472
149	0x3dfb9b24	0.1228545
150	0x3e1904ac	0.14943188
151	0x3e3db08b	0.18524377
152	0x3cf9128a	0.030404348
153	0x3db87c9b	0.090081416
154	0xbe8f0803	-0.279358
155	0xbbba8079	-0.0056915847
156	0xbd477929	-0.04869953
157	0xbe83c724	-0.2573787
158	0x3e4d308b	0.20038049
159	0xbd313d92	-0.04327161
160	0x3e855107	0.2603838
161	0xbc00ce5c	-0.0078617
162	0x3dd6aeec	0.104825824
163	0xbb8b4a53	-0.0042508035
164	0xbe580f44	-0.21099573
165	0x3d0e7707	0.034781482
166	0xbdda172e	-0.106489524
167	0x3e1e1993	0.15439443
168	0xbc127e3a	-0.008941228
169	0x3e11991e	0.14218566
170	0xbd0a9563	-0.033833873
171	0xbce0991e	-0.027416762
172	0xbba12e97	-0.004918884
173	0x3ca8109e	0.020515736
174	0x3d4e4add	0.050364364
175	0xbcef96d2	-0.029246721
176	0x3d1c8046	0.03820827
177	0xbd89d097	-0.067292385
178	0x3e19bd4e	0.1501362
179	0x3d0bb6cb	0.03410987
180	0x3d015cec	0.031582758
181	0xbea41d2d	-0.3205351
182	0xbd8465fc	-0.064647645
183	0x3c6a9edb	0.014320101
184	0xbd989bf1	-0.074516185
185	0xbcc0e0a8	-0.023544624
186	0x3daced9f	0.0844376
187	0x3d8371ce	0.06418191
188	0x3d8c1381	0.068396576
189	0xbd8be10e	-0.06830035
190	0xbe0c2079	-0.13684262
191	0x3c2afae8	0.010435797
192	0xbd8b748f	-0.06809341
193	0xbe1a1508	-0.15047085
194	0xbcef1a74	-0.029187419
195	0xbb938174	-0.004501516
196	0x3e121869	0.14267124
197	0x3e1e1263	0.15436701
198	0x3e86d14c	0.26331556
199	0x3d436a9e	0.0477091
200	0x3d323f20	0.043517232
201	0x3eb62b81	0.35580066
202	0x3d750c14	0.05982597
203	0xbe23443f	-0.15944003
204	0x3da53bb4	0.08068028
205	0xbde5ba4a	-0.112171724
206	0xbd3b6a48	-0.045755655
207	0x3dc479cf	0.09593546
208	0x3d58835f	0.05285966
209	0x3aa0f737	0.0012280707
210	0x39dfb82b	0.0004267109
211	0x3d252627	0.040319588
212	0x3b748f22	0.003731676
213	0x3e8f3300	0.27968597
214	0xbc6c6bed	-0.014430028
215	0x3cc6cc30	0.024267286
216	0x3dc8b71e	0.09800552
217	0x3df1cf3b	0.11807104
218	0x3ce1bf99	0.027557181
219	0x3e6fcf9e	0.23419043
220	0x3d966845	0.073441066
221	0x3d12bae5	0.035822768
222	0x3db3c1a4	0.087771684
223	0x3d43ed72	0.047833867
224	0x3c2c66af	0.010522529
225	0x3e5d8116	0.21631274
226	0x3e698dbf	0.22807978
227	0x3e337574	0.17525274
228	0x3e394d14	0.18095809
229	0x3dbe5859	0.09294195
230	0x3d29b536	0.04143258
231	0x3d2037f0	0.039115846
232	0x3d2abe05	0.041685123
233	0xbdd811e1	-0.10550285
234	0x3c8cab41	0.017171504
235	0xbd426bcc	-0.047466084
236	0xbdf41b74	-0.11919299
237	0x3ca74fac	0.020423733
238	0xbd46b0d0	-0.048508465
239	0xbdecb055	-0.1155707
240	0x3cde321d	0.027123505
241	0xbc198277	-0.009369484
242	0xbdee891b	-0.116472445
243	0x3e2d0943	0.16898064
244	0x3ddbd0d6	0.10733192
245	0xbaea66f4	-0.0017883466
246	0x3d950367	0.072760396
247	0x3da20bbb	0.07912394
248	0xbc84a5ab	-0.016192278
249	0xbde7ce77	-0.11318677
250	0x3cd40d6d	0.025885308
251	0xbd5796bf	-0.052633997
252	0x3e8ea502	0.27860266
253	0x3e93fe30	0.28904867
254	0xbd7cdf2f	-0.061736282
255	0x3e4c01ec	0.19922608

rb1.conv2.bias f4 [10]
0	0xb7c2da46	-2.3228244e-05
1	0xb8c74dff	-9.503587e-05
2	0x389a2faa	7.35217e-05
3	0xb7cb2b5f	-2.4219682e-05
4	0x3811c4d4	3.4754004e-05
5	0xb7af17e5	-2.0872752e-05
6	0x38913526	6.9240385e-05
7	0x37352fc1	1.0799559e-05
8	0x38ba8647	8.894182e-05
9	0x37c0cfba	2.2984914e-05

rb1.bn2.weight f4 [10]
0	0x3f84b284	1.0366979
1	0x3f914093	1.1347831
2	0x3f4ea19b	0.8071534
3	0x3f8d77bc	1.1052165
4	0x3f3ac16f	0.72951406
5	0x3f89500a	1.0727551
6	0x3fa9e33f	1.3272475
7	0x3f88ca4a	1.0686734
8	0x3f8e5128	1.1118517
9	0x3f5c22e9	0.8599077

rb1.bn2.bias f4 [10]
0	0x3d71b0a5	0.059006352
1	0xbd7fd5b6	-0.06245967
2	0x3e96dcbf	0.2946529
3	0xbcb3e622	-0.021960322
4	0x3e84c36d	0.25930348
5	0x3dc36fed	0.095428325
6	0xbc657d97	-0.014006994
7	0x3dd10f3b	0.10207983
8	0x3d6705b5	0.056401927
9	0x3e8eda23	0.279008

rb1.bn2.running_mean f4 [10]
0	0xbf9ff275	-1.2495867
1	0xbe8b0842	-0.27154738
2	0x3f4ad7bd	0.7923544
3	0xbc827d11	-0.015928777
4	0xbf160998	-0.5860839
5	0xbe2024b1	-0.15638997
6	0xbf1c3dfd	-0.61032087
7	0xbe8fff0e	-0.2812428
8	0x3da0e413	0.07856002
9	0x3fc790d7	1.5591077

rb1.bn2.running_var f4 [10]
0	0x3fc19c9e	1.5125921
1	0x3fa4477b	1.2834314
2	0x3f787f6c	0.9706943
3	0x3fc7fa72	1.5623305
4	0x3f5f13e8	0.8713975
5	0x3fccd7d3	1.6003364
6	0x3fffa7e6	1.9973114
7	0x3fca95df	1.5826987
8	0x3fe7a154	1.8096108
9	0x3fcbd0dc	1.5923114

rb1.shortcut.conv.weight f4 [10, 3, 1, 1]
0	0x3ee7332c	0.4515623
1	0x3c2f3acb	0.01069517
2	0x3eac0d9f	0.33604142
3	0xbea70853	-0.32623538
4	0xbf0d735a	-0.5525414
5	0xbebc72cc	-0.36806333
6	0x3ebd896c	0.37018907
7	0xbeb58a17	-0.35456917
8	0x3dd88bdf	0.10573553
9	0xbef0b3a1	-0.47012046
10	0xbf338cb3	-0.70136565
11	0x3e2dfee2	0.16991761
12	0xbdd5aadd	-0.1043298
13	0xbe4b5788	-0.1985761
14	0x3f139d7b	0.5766217
15	0x3ec0a014	0.3762213
16	0x3e13def4	0.14440519
17	0x3ef54165	0.47901455
18	0xbeba2a9f	-0.36360642
19	0xbead9194	-0.3390013
20	0xbea6f496	-0.3260848
21	0xbe8fe63a	-0.28105336
22	0xbf34c651	-0.70615107
23	0x3e8490c7	0.25891706
24	0xbe99990e	-0.29999584
25	0xbf05e49f	-0.52301973
26	0xbd85be02	-0.06530382
27	0xbe9116a2	-0.2833758
28	0x3d628c9f	0.055309888
29	0xbf1589a0	-0.58413124

rb1.shortcut.conv.bias f4 [10]
0	0xb808fcf5	-3.266051e-05
1	0xb887c36a	-6.4737e-05
2	0x39443641	0.00018712228
3	0x38cd8038	9.799044e-05
4	0x368ef2b4	4.260184e-06
5	0xb9059234	-0.00012738333
6	0xb8a8e0d3	-8.052741e-05
7	0xb7ca2206	-2.409612e-05
8	0x380dc7b0	3.3802993e-05
9	0x38d41a54	0.00010113852

rb1.shortcut.bn.weight f4 [10]
0	0x3f795138	0.97389555
1	0x3f6a5da3	0.9154913
2	0x3f8050ce	1.002466
3	0x3f6445d2	0.8916904
4	0x3f91f42f	1.1402644
5	0x3f6f4c0d	0.9347542
6	0x3f13cae2	0.5773145
7	0x3f2d8c33	0.6779205
8	0x3f650743	0.89464206
9	0x3f677742	0.9041635

rb1.shortcut.bn.bias f4 [10]
0	0x3d71b0a5	0.059006352
1	0xbd7fd5b6	-0.06245967
2	0x3e96dcbf	0.2946529
3	0xbcb3e622	-0.021960322
4	0x3e84c36d	0.25930348
5	0x3dc36fed	0.095428325
6	0xbc657d97	-0.014006994
7	0x3dd10f3b	0.10207983
8	0x3d6705b5	0.056401927
9	0x3e8eda23	0.279008

rb1.shortcut.bn.running_mean f4 [10]
0	0xbd79e483	-0.06100894
1	0x3dba10eb	0.09085258
2	0xbbeccb48	-0.0072263815
3	0x3d08fe35	0.033445556
4	0xbd7ad81e	-0.06124126
5	0xbdad81a8	-0.084719956
6	0x3d99034c	0.07471332
7	0x3c781016	0.015140554
8	0x3d46398a	0.048394717
9	0x3dac469e	0.08411907

rb1.shortcut.bn.running_var f4 [10]
0	0x3e14768c	0.14498347
1	0x3eb5013b	0.353525
2	0x3bf22bd6	0.0073904796
3	0x3e6e0318	0.23243368
4	0x3d13ace4	0.036053553
5	0x3e6b273a	0.22964182
6	0x3e7546e1	0.2395282
7	0x3e020a51	0.12699248
8	0x3e366de7	0.17815362
9	0x3e22a26f	0.15882276

rb2.conv1.weight f4 [20, 10, 3, 3]
0	0x3da062af	0.078313224
1	0x3e0684bc	0.13136572
2	0x3d990898	0.07472342
3	0x3e2999d6	0.1656259
4	0x3e69874f	0.22805522
5	0x3de23555	0.110453285
6	0x3d21be52	0.039488144
7	0x3dd45ec0	0.10369635
8	0x3e01dc34	0.12681657
9	0x3e15935e	0.14606997
10	0xbdf08f87	-0.11746126
11	0xbdffdd7a	-0.12493415
12	0xbe00c101	-0.12573625
13	0xbdaa1c08	-0.08306128
14	0xbd013eb9	-0.031553958
15	0x3e1bccec	0.1521489
16	0xbe199623	-0.14998679
17	0xbdc303f6	-0.0952224
18	0xbdb8b020	-0.09017968
19	0xbea1026e	-0.31447166
20	0xbe375fb3	-0.179076
21	0x3b4bfb9a	0.0031125308
22	0xbe863e80	-0.2621956
23	0xbe233f1c	-0.15942043
24	0x3d3fc561	0.046819095
25	0x3d49862d	0.049200226
26	0xbdc6191e	-0.096727595
27	0xbcc623ab	-0.02418693
28	0xbdf1024f	-0.117680185
29	0x3dc67a21	0.09691263
30	0x3db5b8ad	0.08873115
31	0x3d9395e9	0.072063275
32	0x3de2027f	0.11035632
33	0x3d27509b	0.040848356
34	0x3d2693fa	0.040668465
35	0x3e583665	0.211145
36	0xbb823e0f	-0.003974683
37	0x3e03b145	0.12860592
38	0xbcfb4daa	-0.030676682
39	0xbd757554	-0.059926346
40	0x3c592f8f	0.013255968
41	0x3da51714	0.080610424
42	0x3cb675ae	0.02227291
43	0xbe973456	-0.29532117
44	0xbe6f7513	-0.23384504
45	0x3dc3aa00	0.09553909
46	0x3d3f1471	0.046650354
47	0x3d952010	0.07281506
48	0xbe1349c3	-0.14383607
49	0xbd914dec	-0.070949405
50	0xbdbe791a	-0.09300442
51	0xbd309716	-0.043112837
52	0xbeef31da	-0.4671772
53	0xbd0fbe67	-0.03509369
54	0x3de7a1ca	0.11310156
55	0x3daa9fc9	0.08331258
56	0x3e23b219	0.15985908
57	0x3d8dfc79	0.06932921
58	0x3d0b31a0	0.033982873
59	0x3dfac78d	0.122450925
60	0x3d478e41	0.04871965
61	0xbd02f20f	-0.031969126
62	0xbd3426f6	-0.04398247
63	0x3d8e5774	0.06950274
64	0xbdc1aaf9	-0.094564386
65	0x3d6e5982	0.05819083
66	0xbdb07d32	-0.08617629
67	0xbeb0f0fb	-0.34558854
68	0xbd6e8fea	-0.058242716
69	0x3d697902	0.057000168
70	0xbe1723ba	-0.14759722
71	0xbde7c53b	-0.113169156
72	0xbc561356	-0.0130661335
73	0x3c7c0ea0	0.015384346
74	0xbe2a114a	-0.16608158
75	0xbe2a0228	-0.16602385
76	0x3d994da1	0.0748551
77	0x3e2785ed	0.16359682
78	0xbe284b46	-0.16434965
79	0xbd13cc65	-0.036083598
80	0x3db70188	0.08935839
81	0xbe086067	-0.13318025
82	0x3c8d0100	0.01721239
83	0xbe1b0085	-0.15136917
84	0xbb1780ef	-0.0023117622
85	0x3d0e31d8	0.034715503
86	0xbcfd2cf4	-0.030905224
87	0xbda835d8	-0.08213395
88	0x3d5bfc14	0.053707197
89	0x3e6024d5	0.2188905
90	0xbe7c5481	-0.2464161
91	0xbe2dfe86	-0.16991624
92	0xbd9a6492	-0.075387135
93	0x3d348ae2	0.04407776
94	0xbd31d690	-0.043417513
95	0x3b2323a2	0.0024893065
96	0x3e248ee0	0.16070127
97	0x3e410b7c	0.18852037
98	0x3e64243a	0.22279444
99	0xbe91833c	-0.28420436
100	0xbe0a578e	-0.13509962
101	0xbd047b2f	-0.03234404
102	0xbe12d0da	-0.14337483
103	0x3dbd9a75	0.09257976
104	0xbba417ac	-0.0050077047
105	0xbd92f298	-0.07175177
106	0xbd03f0a7	-0.032211926
107	0xbc0bbec4	-0.008529369
108	0xbe8479a5	-0.25874057
109	0xbec399b2	-0.38203198
110	0xbe77413d	-0.2414598
111	0x3dd1e7cc	0.1024929
112	0x3cbf1479	0.023325192
113	0xbcb5bdd3	-0.022185242
114	0x3e4a8f73	0.19781284
115	0x3e838045	0.256838
116	0x3e9ff377	0.31240436
117	0xbd8c5ca7	-0.068536095
118	0x3cb4b129	0.022057133
119	0xbc9dbd73	-0.019255375
120	0xbe24b016	-0.16082796
121	0x3d799432	0.060932346
122	0xbdcd488b	-0.10023602
123	0xbdaf3343	-0.08554699
124	0x3a577c86	0.00082201546
125	0xbda07cb9	-0.07836289
126	0x3e3d9a0c	0.18515795
127	0x3e741f8a	0.23840156
128	0x3c9d4c8d	0.019201541
129	0x3bfb52e2	0.0076697925
130	0xbc79d47a	-0.015248412
131	0xbe09b1b4	-0.13446695
132	0xbe3c18ea	-0.18368879
133	0xbe7b7f46	-0.2456027
134	0xbe69987d	-0.22812076
135	0xb945c3a6	-0.00018860269
136	0xbcec3396	-0.028833192
137	0x3e116d23	0.14201789
138	0xbd5df296	-0.054186426
139	0x3d3933f6	0.04521557
140	0x3d49469a	0.049139597
141	0x3d3949bf	0.045236345
142	0xbb345958	-0.0027519073
143	0x3dad6410	0.08466351
144	0x3db9881e	0.090591654
145	0x3de544b0	0.11194742
146	0x3d354dce	0.044263653
147	0xbd84e4f5	-0.064889826
148	0x3c5dd4b0	0.013539478
149	0xbde4c88a	-0.11171062
150	0xbc9aa277	-0.018876297
151	0x3ca7c554	0.020479836
152	0xbd3fb914	-0.046807364
153	0x3e138c6c	0.14409035
154	0x3e9148c7	0.28375837
155	0x3e04eefe	0.12981793
156	0xbc52aa43	-0.012857976
157	0x3da65d14	0.08123222
158	0x3dcebd56	0.10094707
159	0xbe08e339	-0.13367929
160	0x3c702057	0.014656148
161	0xbd6b89ff	-0.05750465
162	0xbddc507c	-0.10757539
163	0x3d9a867e	0.075451836
164	0xbd9890f0	-0.0744952
165	0xbde734bd	-0.11289356
166	0x3da4b9c2	0.08043243
167	0xbe336435	-0.17518695
168	0x3cb32ee7	0.02187295
169	0x3d006607	0.0313473
170	0xbd6ea1c4	-0.05825974
171	0xbd78bf4f	-0.06072932
172	0x3c632f24	0.01386622
173	0x3ca23cb6	0.01980434
174	0x3ca8f7c2	0.020625953
175	0x3e116703	0.14199452
176	0x3d6afd6a	0.05737058
177	0xbc57f0e0	-0.013179988
178	0x3d9f8c11	0.077903874
179	0xbd822464	-0.06354597
180	0xbd118dcf	-0.03553563
181	0x3d9603ce	0.073249444
182	0xbdd58603	-0.10425951
183	0xbcbd461d	-0.023104722
184	0x3d400ccb	0.0468872
185	0xbd17b897	-0.037041273
186	0xbcb34c50	-0.021886975
187	0xbd407fa9	-0.046996746
188	0x3d727d43	0.05920149
189	0xbc6c5260	-0.014423937
190	0x3cd98ea5	0.026557276
191	0x3e3eebc9	0.18644632
192	0xbe1cfcf1	-0.15330864
193	0x3d95abb7	0.07308143
194	0x3de98545	0.11402372
195	0xbdbc98cd	-0.09208832
196	0xbe8774fb	-0.26456437
197	0xbe390be7	-0.18070947
198	0x3dca426b	0.098759495
199	0xbe457c0e	-0.19285604
200	0x3d633650	0.05547172
201	0x3e3fa1ec	0.18714112
202	0xbce56303	-0.028001314
203	0xbc9b4176	-0.018952113
204	0x3d4a2641	0.049352888
205	0x3d33d477	0.043903794
206	0x3d77ffd5	0.060546715
207	0x3e7704df	0.24122952
208	0x3e6bd7b5	0.23031504
209	0x3e029bd0	0.1275475
210	0xbd21537f	-0.03938627
211	0x3e47797f	0.19479941
212	0x3d3414c1	0.043965105
213	0xbdacc3e1	-0.084357984
214	0x3de51d6f	0.11187255
215	0x3d0a84f0	0.033818185
216	0xbe21c78c	-0.15798777
217	0x3c72d59d	0.014821437
218	0xbd7306a6	-0.059332512
219	0xbd945af3	-0.0724391
220	0xbd8620ab	-0.065492
221	0xb9c72d3f	-0.0003798995
222	0x3dd7c095	0.10534779
223	0xbd304e16	-0.04304322
224	0xbacf1aae	-0.0015800798
225	0x3e0249d0	0.1272347
226	0x3d4073fe	0.04698562
227	0xbdb1b247	-0.08676582
228	0xbea56083	-0.32300195
229	0x3d46c735	0.048529822
230	0x3d2102fb	0.039309483
231	0xbe80fadb	-0.25191388
232	0x3d011d58	0.031522125
233	0x3da788b8	0.08180374
234	0x3e72325e	0.23652026
235	0x3e3a2f66	0.18182144
236	0x3d1e9ccb	0.03872375
237	0xbdc43b13	-0.0958158
238	0xbd987c3b	-0.0744557
239	0xbded00d5	-0.11572424
240	0xbf18188e	-0.5941247
241	0xbee58160	-0.44825268
242	0xbe0f8cd1	-0.14018561
243	0xbd4eff6a	-0.05053655
244	0x3bf01fbc	0.007328002
245	0x3d6ad2c8	0.057329923
246	0xbde610ee	-0.11233698
247	0x3d7d1361	0.06178606
248	0x3da1ae5b	0.07894584
249	0xbd83506c	-0.06411824
250	0xbda33314	-0.07968727
251	0xbdc3b38f	-0.095557325
252	0xbdb43a6f	-0.08800208
253	0xbd94bedf	-0.07262968
254	0xbca162bf	-0.019700406
255	0xbe2acd39	-0.16679849

rb2.conv1.bias f4 [20]
0	0x35313882	6.601987e-07
1	0x37692176	1.3895673e-05
2	0x36dd6083	6.5975487e-06
3	0x38294a51	4.0361952e-05
4	0x37257637	9.86229e-06
5	0x37193203	9.131155e-06
6	0x3712958f	8.7371e-06
7	0xb8228fd2	-3.8757753e-05
8	0x37e5059f	2.7301545e-05
9	0xb721199d	-9.602311e-06
10	0xb78178f0	-1.5434314e-05
11	0x37b339a7	2.136531e-05
12	0xb6ac0ac9	-5.127255e-06
13	0x36eb6bb3	7.0160836e-06
14	0xb69cf551	-4.677721e-06
15	0xb8234e99	-3.8935428e-05
16	0x37f9bc80	2.977089e-05
17	0x373d4163	1.1280502e-05
18	0x361bf8fa	2.3241723e-06
19	0x383dd403	4.5258563e-05

rb2.bn1.weight f4 [20]
0	0x3f5554d4	0.8333256
1	0x3f5e1773	0.8675453
2	0x3f64e959	0.8941856
3	0x3f85ea4b	1.0462126
4	0x3f88689a	1.0656922
5	0x3f3d3f21	0.7392445
6	0x3f72d86f	0.948615
7	0x3f56fe86	0.8398212
8	0x3f2ee442	0.68317044
9	0x3f5bfc69	0.8593202
10	0x3f47536a	0.77861655
11	0x3f821fd4	1.0165963
12	0x3f812bc1	1.0091478
13	0x3f74daed	0.95646554
14	0x3f6a98fa	0.91639674
15	0x3f89db33	1.0770019
16	0x3f658b4d	0.8966568
17	0x3f6010c4	0.8752558
18	0x3f748fa3	0.9553167
19	0x3f7140c1	0.9423943

rb2.bn1.bias f4 [20]
0	0x3d30b475	0.043140847
1	0xbe213600	-0.15743256
2	0x3e04e2e0	0.12977171
3	0xbb85caf1	-0.0040830304
4	0xbe913962	-0.28364092
5	0xbd834d34	-0.0641121
6	0x3ce38a28	0.027775839
7	0x3e311113	0.1729167
8	0xbb745826	-0.0037283986
9	0x3dbafe40	0.091305256
10	0x3d2d4034	0.042297557
11	0x3d8c4273	0.06848612
12	0xbdb4d74e	-0.088301286
13	0x3cd80629	0.026370125
14	0xbdd73a14	-0.105091244
15	0xbd9f2405	-0.07770542
16	0x3e0bf13a	0.1366624
17	0x3ba3176c	0.0049771573
18	0x3e04acd9	0.12956561
19	0xbdb18280	-0.08667469

rb2.bn1.running_mean f4 [20]
0	0xbfa731e3	-1.3062099
1	0xbe5e90bf	-0.21734904
2	0xbfd2a403	-1.6456302
3	0xc03a13a2	-2.9074483
4	0xbf9aa9df	-1.208309
5	0x3e14b113	0.14520673
6	0xbfaee988	-1.3665018
7	0xbfb9bc60	-1.4510612
8	0x3fa4f238	1.2886419
9	0xbe4d7088	-0.20062459
10	0xbed5018a	-0.41602737
11	0xbf8322ec	-1.0245032
12	0xc01f18fa	-2.4858994
13	0xbf314913	-0.6925213
14	0xbf50802c	-0.81445575
15	0xbfe1ce7b	-1.7641138
16	0xbfffdb7f	-1.998886
17	0xbeab6ca7	-0.33481333
18	0xbfdf41b7	-1.744193
19	0xbe59a9ca	-0.21256176

rb2.bn1.running_var f4 [20]
0	0x3fd26fb2	1.6440337
1	0x3fbfb234	1.4976258
2	0x3fed21c8	1.8525934
3	0x40346ed7	2.8192651
4	0x4014c953	2.3247879
5	0x3fb69baa	1.4266255
6	0x4013e0d6	2.310598
7	0x401a8d08	2.4148579
8	0x3fae0cdd	1.3597676
9	0x3f97cf60	1.1860161
10	0x3fc09975	1.5046831
11	0x400c5d4e	2.1931949
12	0x401c6283	2.4435127
13	0x4005da26	2.0914397
14	0x3fbd57ea	1.4792454
15	0x40281bdf	2.626701
16	0x401342e2	2.3009572
17	0x3feff7c6	1.874749
18	0x3fdb7e76	1.7147968
19	0x40092589	2.142916

rb2.conv2.weight f4 [20, 20, 3, 3]
0	0xbcce909b	-0.025215438
1	0x3dcfb13d	0.101412274
2	0xbd9437bf	-0.07237195
3	0x3c573e47	0.013137407
4	0x3c7aad7a	0.015300149
5	0xbdf7dd9f	-0.12102818
6	0xbd15119c	-0.036393747
7	0xbe0e3461	-0.13887168
8	0xbd9ff43d	-0.07810257
9	0xbe59b31f	-0.21259736
10	0x3e17e69e	0.14834067
11	0x3e042f27	0.12908612
12	0x3cbe99af	0.023266641
13	0x3e3c6d0f	0.18400978
14	0x3dfea9e4	0.12434748
15	0x3d474331	0.048648063
16	0x3d80c049	0.062866755
17	0x3e134de2	0.14385179
18	0x3c86ff62	0.016479198
19	0xbd41228d	-0.04715209
20	0x3d4ccb19	0.049998377
21	0x3e1b5d5f	0.15172337
22	0x3d51bd1b	0.051205736
23	0x3c911cdf	0.017713962
24	0xb906ff6f	-0.00012874392
25	0xbc40a3f9	-0.011757844
26	0xbde4b246	-0.111668155
27	0xbe30fc16	-0.17283663
28	0xbc976d00	-0.018484592
29	0xbe05c533	-0.13063507
30	0xbdd5990a	-0.104295805
31	0x3dd53e99	0.1041233
32	0xbe82654b	-0.25467905
33	0xbe8ae62b	-0.2712873
34	0xbd2beaa5	-0.04197182
35	0xbcd6499f	-0.026158152
36	0xbdebd151	-0.11514533
37	0xbd9d5693	-0.07682528
38	0xbdda2bb1	-0.10652865
39	0x3ac2fded	0.0014876701
40	0x3c839426	0.016061854
41	0xbd1afb0a	-0.037837066
42	0x3da50cea	0.08059104
43	0x3e1fccc1	0.15605451
44	0x3d33da41	0.043909315
45	0xbe1c39c2	-0.15256408
46	0xbcbf1170	-0.023323745
47	0xbdb9274d	-0.09040699
48	0xbe1f0d65	-0.15532453
49	0x3e1b35ab	0.15157191
50	0x3ce53116	0.027977508
51	0x3d9ecb26	0.07753591
52	0xbc9137fc	-0.01772689
53	0x3d04846c	0.03235285
54	0xbc9fa9a7	-0.019490076
55	0xbbf35d3a	-0.007426885
56	0xbdb25120	-0.087068796
57	0x3dc13d32	0.094355
58	0x3ab333ab	0.0013672014
59	0xbd9c116f	-0.07620513
60	0xbe01b388	-0.12666142
61	0xbe2199f2	-0.15781382
62	0x3d3678b0	0.04454869
63	0xbe40995c	-0.18808502
64	0xbda71230	-0.08157766
65	0xbe13e986	-0.14444551
66	0xbd0f4d11	-0.034985606
67	0xbe08de4c	-0.1336605
68	0xbe1bda7b	-0.15220062
69	0xbde2afad	-0.11068664
70	0xbe58af53	-0.21160631
71	0x3d930e48	0.07180458
72	0x3e2c1141	0.16803457
73	0xbe87d08d	-0.265263
74	0xbe64cfb1	-0.22344853
75	0x3e7d4913	0.24734907
76	0x3d282222	0.041048177
77	0xbde2af20	-0.11068559
78	0xbda61546	-0.08109526
79	0x3d42fec0	0.04760623
80	0x3e0c7d06	0.13719568
81	0x3d57eb3b	0.052714568
82	0xbe6232ce	-0.22089693
83	0xbe48a6f6	-0.1959494
84	0x3daec02b	0.08532747
85	0xbddc7ccd	-0.10765991
86	0x3e12d993	0.1434081
87	0xbd6411f4	-0.055681184
88	0x3d8a81af	0.067630164
89	0x3e90cbaf	0.28280398
90	0xba5eee7f	-0.00085041666
91	0x3ca5e6a8	0.020251587
92	0xbdc60610	-0.09669125
93	0x3e3858e5	0.1800266
94	0x3d91c6b8	0.07117981
95	0xbd89a368	-0.067206204
96	0x3d8c8c74	0.06862727
97	0xbe1db1aa	-0.15399805
98	0xbe8af893	-0.27142772
99	0x39edceb2	0.00045358163
100	0x3d80e821	0.06294275
101	0x3e0a0915	0.13480027
102	0x3c6f7652	0.014615612
103	0xbd3e6ea9	-0.046492252
104	0x3e0b8b3a	0.1362733
105	0xbdc28603	-0.09498217
106	0xbddbfe79	-0.10741896
107	0xbda5ad1c	-0.080896586
108	0xbcea4e4b	-0.028601786
109	0x3d80fb97	0.06297987
110	0xbc81e0ac	-0.015854202
111	0xbe039d6d	-0.12853022
112	0xbe10b34c	-0.14130896
113	0xbdc2a8fa	-0.09504886
114	0xbe98b639	-0.29826525
115	0xbe356808	-0.17715466
116	0xbe3456c9	-0.17611231
117	0x3c0b797a	0.008512849
118	0x3d121637	0.035665717
119	0xbc8c65ac	-0.017138325
120	0x3df79fe5	0.12091044
121	0xbd113c12	-0.03545768
122	0x3d949f10	0.07256901
123	0x3de75889	0.112961836
124	0xbbbfea00	-0.0058567524
125	0xbbab3a6c	-0.0052254703
126	0x3e3a1c08	0.18174756
127	0x3cad71b8	0.02117239
128	0x3e1b6833	0.15176468
129	0xbb842207	-0.0040323767
130	0xbdccaea2	-0.09994246
131	0x3de97069	0.11398394
132	0x3d3f0b71	0.04664177
133	0x3e13e7e3	0.14443927
134	0x3e51c612	0.20485714
135	0x3da1d146	0.07901244
136	0x3d93671f	0.07197403
137	0x3df6396b	0.1202267
138	0x3c93ba7b	0.018033257
139	0x3dca71df	0.098850004
140	0x3dafed8c	0.0859023
141	0x3d23bf67	0.039977457
142	0xbc96892c	-0.018375956
143	0xbe5ec7e5	-0.21755941
144	0x3d6fc795	0.058539946
145	0xbab78617	-0.0014001754
146	0x3d00d860	0.03145635
147	0x3d7b2050	0.061310112
148	0x3de027d3	0.10945096
149	0x3d31aade	0.043375842
150	0xbdc5a67f	-0.09650897
151	0xbd1bb1b8	-0.038011283
152	0x3d73a755	0.059485752
153	0x3da05232	0.078281775
154	0xbde724ad	-0.11286292
155	0x3a892240	0.0010462478
156	0x3d06fe06	0.0329571
157	0xbe1c73ef	-0.152786
158	0x3d6fe440	0.058567286
159	0xbc1b194c	-0.00946648
160	0xbca659f9	-0.020306574
161	0xbd7fdd44	-0.062466875
162	0xbe0dc62a	-0.13845125
163	0xbc454c84	-0.0120421685
164	0xbc940a9b	-0.018071463
165	0xbdf7b550	-0.120951295
166	0x3dee6aa0	0.11641431
167	0x3d5944d9	0.053044174
168	0xbe7e4d77	-0.24834238
169	0xbd144991	-0.03620297
170	0xbde7c0fb	-0.11316105
171	0x3e7a7fec	0.24462861
172	0x3d3b493a	0.04572413
173	0x3dbe7ad6	0.09300773
174	0x3d5490af	0.051895794
175	0x3d9ecd73	0.0775403
176	0x3e175da3	0.14781813
177	0x3e1905d3	0.14943628
178	0x3e3821a0	0.17981577
179	0x3d2094fc	0.039204583
180	0x3e108d4f	0.14116405
181	0x3e03b266	0.12861022
182	0xbe45736b	-0.1928231
183	0xbe675cdf	-0.22594021
184	0x3da17b5b	0.07884856
185	0xbddba78a	-0.10725315
186	0x3b739d61	0.0037172663
187	0xbd7dc59e	-0.06195604
188	0xbe001d7c	-0.12511247
189	0xbd80852c	-0.062754005
190	0xbe713325	-0.23554666
191	0xbd24146d	-0.040058542
192	0x3e0807c4	0.13284212
193	0xbd0763cc	-0.033054158
194	0x3dacae3b	0.08431669
195	0x3d98166b	0.07426151
196	0x3d7421c4	0.059602514
197	0xba60fa2a	-0.0008582199
198	0xbdc62f3e	-0.096769795
199	0xbda13632	-0.07871665
200	0xbd6938cd	-0.056938935
201	0xbe5e9a21	-0.21738483
202	0xbd936b9c	-0.07198259
203	0xbd0c953d	-0.034322012
204	0xbd261a01	-0.040552143
205	0x3cfe349a	0.031030942
206	0x3d500b9d	0.050792325
207	0xbe1554f3	-0.14583187
208	0xba34dbe2	-0.000689922
209	0xbc82ab63	-0.015950864
210	0xbe0d8536	-0.13820347
211	0x3da5a22e	0.08087574
212	0xbdd00068	-0.101563275
213	0xbe681597	-0.22664486
214	0xbe1e601a	-0.15466347
215	0xbe09d0fd	-0.13458629
216	0xbe47bc07	-0.1950532
217	0xbe122075	-0.14270194
218	0xbde8d08f	-0.113679044
219	0xbd8d8528	-0.06910163
220	0xbb0b832b	-0.00212879
221	0xbe27acca	-0.16374508
222	0x3dc6cde8	0.09707242
223	0xbd8378ad	-0.064195015
224	0xbdec1d35	-0.11529008
225	0xbd679acc	-0.05654411
226	0xbd91d704	-0.07121089
227	0x3e276834	0.16348344
228	0xbe6aa88b	-0.22915857
229	0xbe608573	-0.21925907
230	0x3d81f042	0.06344654
231	0x3c956166	0.01823492
232	0xbc614db2	-0.013751434
233	0x3da7971b	0.08183118
234	0xbc8d2729	-0.017230587
235	0xbd31b4b3	-0.04338522
236	0x3e1dadde	0.15398356
237	0xbd25405f	-0.040344592
238	0x3c380194	0.011230845
239	0x3d18b903	0.037285816
240	0xbc27c209	-0.010239133
241	0x3deb6450	0.114937425
242	0xbca3a511	-0.01997617
243	0x3ccee668	0.02525635
244	0x3cec1d47	0.028822554
245	0xbe4e5db2	-0.2015293
246	0x3d89cc38	0.06728405
247	0x3de6e7e1	0.11274696
248	0xbda719c2	-0.0815921
249	0xbd27aec6	-0.04093816
250	0xbd84c993	-0.0648376
251	0xbde9704c	-0.11398372
252	0xbe04ee0e	-0.12981436
253	0xbd52610c	-0.051362082
254	0xbd820d8d	-0.06350241
255	0x3ddcc5a7	0.10779887

rb2.conv2.bias f4 [20]
0	0x3721329f	9.608134e-06
1	0x382efeab	4.172201e-05
2	0xb792c2a0	-1.7495186e-05
3	0x375a09c8	1.299609e-05
4	0x37aa9a7a	2.0337513e-05
5	0x37840b4d	1.5740889e-05
6	0x361875c4	2.2718314e-06
7	0xb765483c	-1.3666282e-05
8	0xb7c4c774	-2.3457898e-05
9	0xb81f2513	-3.7943082e-05
10	0x36448c9f	2.9288128e-06
11	0x3806b5a6	3.2117263e-05
12	0x378e5538	1.6967402e-05
13	0x381b32ae	3.700208e-05
14	0xb674ab4e	-3.6458546e-06
15	0xb72dcb8c	-1.03589955e-05
16	0x3698fc46	4.5593215e-06
17	0xb6fe2f5c	-7.5753032e-06
18	0x37e2ba96	2.7028185e-05
19	0x377abcb1	1.4945094e-05

rb2.bn2.weight f4 [20]
0	0x3f598466	0.8496765
1	0x3f6acd03	0.91719073
2	0x3f97899a	1.1838868
3	0x3f8e6361	1.1124078
4	0x3f988e53	1.1918434
5	0x3f8bd912	1.092562
6	0x3f9ed37c	1.240829
7	0x3f9c03d4	1.2188668
8	0x3f9e0253	1.2344459
9	0x3f933362	1.1500056
10	0x3f931451	1.1490575
11	0x3f7e8302	0.9941865
12	0x3f94a6ac	1.1613364
13	0x3f8182bb	1.0118021
14	0x3f8c08b4	1.0940156
15	0x3fa28b7d	1.2698818
16	0x3faa3bc9	1.3299495
17	0x3fa55b3d	1.2918469
18	0x3f8d3192	1.1030753
19	0x3f5dba1c	0.86612105

rb2.bn2.bias f4 [20]
0	0x3e4e6480	0.20155525
1	0x3d5196d0	0.051169217
2	0xbe3d9bf9	-0.1851653
3	0x3a836d42	0.0010027068
4	0xbd9c4ce0	-0.0763185
5	0xbe283a8c	-0.16428584
6	0x3dbc3505	0.091898
7	0xbe7366c2	-0.23769668
8	0x3e6f86c8	0.23391259
9	0xbe27c696	-0.16384348
10	0x3d6aea6f	0.05735248
11	0xbe03c7ee	-0.12869236
12	0xbc3a323b	-0.011364515
13	0x3d4a2bae	0.049358062
14	0xbc578fc2	-0.013156833
15	0x3e419460	0.18904257
16	0xbcc875f5	-0.024470309
17	0xbdf49435	-0.11942331
18	0x3dcae2b2	0.0990652
19	0xbe8b95b0	-0.2726264

rb2.bn2.running_mean f4 [20]
0	0xbf1dae1b	-0.6159379
1	0xc0027d50	-2.0388985
2	0xbf8db881	-1.1071931
3	0xbf959267	-1.1685303
4	0xbf341156	-0.7033895
5	0x3e0d677b	0.13809006
6	0xbf967b32	-1.1756346
7	0x3f038bb4	0.51385045
8	0xc03818df	-2.876518
9	0xbcded45a	-0.027200866
10	0xbf63dd32	-0.8900939
11	0x3d7a14ca	0.061054982
12	0xbfdf7a8b	-1.7459272
13	0xbee0dcb9	-0.43918398
14	0x3e8105d7	0.25199768
15	0xbfb24def	-1.3930033
16	0xc032175d	-2.782676
17	0xbe216adf	-0.15763424
18	0xc014a097	-2.3223016
19	0x3e6f7c19	0.23387183

rb2.bn2.running_var f4 [20]
0	0x3f5bb65c	0.85825133
1	0x3f6b561b	0.9192826
2	0x3f330514	0.69929624
3	0x3f8e13f6	1.1099842
4	0x3f1ee3f9	0.6206661
5	0x3f87ead5	1.061854
6	0x3f8af41c	1.0855746
7	0x3f243232	0.6413909
8	0x3f9e33a1	1.2359506
9	0x3f50ffc5	0.81640273
10	0x3f4f9f14	0.8110211
11	0x3f336cee	0.7008809
12	0x3f279854	0.6546681
13	0x3f761d16	0.9613813
14	0x3f9d47f2	1.2287581
15	0x3f820f13	1.016085
16	0x3f789561	0.97102934
17	0x3f7df9d6	0.99209344
18	0x3f6598bb	0.89686173
19	0x3f257a88	0.6464009

rb2.shortcut.conv.weight f4 [20, 10, 1, 1]
0	0xbc839e29	-0.016066628
1	0xbd92f449	-0.071755
2	0xbec3a87e	-0.38214487
3	0xbdb6f639	-0.08933682
4	0x3f037504	0.51350427
5	0xbcc4bcac	-0.024015747
6	0x3c29af99	0.010356807
7	0xbc8dd3da	-0.017312933
8	0xbc8fbdae	-0.017546501
9	0xbe75741b	-0.23970072
10	0xbd3d23c7	-0.046176698
11	0x3e0721d4	0.13196498
12	0xbf19c72c	-0.6006954
13	0x3d947280	0.07248402
14	0xbe29b5f6	-0.16573319
15	0xbe51925f	-0.20465992
16	0xbd0f798f	-0.035028037
17	0xbc120908	-0.008913286
18	0x3c03bb79	0.008040302
19	0x3c350eda	0.011050904
20	0xbdc84016	-0.097778484
21	0xbe01f593	-0.12691335
22	0xbd160cf0	-0.036633432
23	0xbccd7159	-0.025078462
24	0x3d559802	0.05214692
25	0x3ebffa24	0.3749553
26	0x3e1a4d53	0.1506856
27	0x3df782e6	0.12085514
28	0xbe1a1409	-0.15046705
29	0xbec0ab5e	-0.37630743
30	0xbd80c49b	-0.062874995
31	0xba7a531e	-0.00095491286
32	0x3ea67bb9	0.32516268
33	0x3e0ef739	0.13961495
34	0x3e44e11d	0.19226499
35	0xbe18afec	-0.14910859
36	0x3e81a4f6	0.25321168
37	0x3e5030bc	0.2033109
38	0x3edb2645	0.42802635
39	0xbe09432f	-0.13404535
40	0xbe00e093	-0.12585668
41	0x3d449b72	0.047999807
42	0x3d680c7e	0.05665254
43	0x3ee0bbd1	0.43893293
44	0x3d8731dc	0.06601307
45	0xbd8fb56e	-0.07017027
46	0xbccdee46	-0.025138032
47	0xbda19d19	-0.07891292
48	0x3eb31bd3	0.34982166
49	0xbdc77d61	-0.09740711
50	0x3e8e2fc9	0.27770832
51	0x3e341cd9	0.1758913
52	0xbde5156c	-0.111857265
53	0xbebdba91	-0.370564
54	0xbd8d1a7f	-0.06889819
55	0xbd8b555b	-0.0680339
56	0x3e49665c	0.19667953
57	0xbe09c78a	-0.13455024
58	0xbe12c334	-0.14332277
59	0xbecedca4	-0.4040271
60	0xbde45c69	-0.11150438
61	0x3e2be31a	0.16785851
62	0x3c2b8a5e	0.010470001
63	0xbea511c4	-0.32240117
64	0x3d0174e9	0.031605635
65	0xbeca524d	-0.39515916
66	0xbe819fb4	-0.25317156
67	0x3da2601c	0.07928488
68	0x3e7bb5b9	0.2458104
69	0xbd8c27d2	-0.068435326
70	0x3e35b061	0.17743064
71	0x3e3d4132	0.18481901
72	0x3c44c3b5	0.012009551
73	0xbd3fd8e1	-0.04683769
74	0xbe29f5e6	-0.16597709
75	0xbd33b304	-0.043871894
76	0xbe98a84f	-0.2981591
77	0x3d48ed99	0.049054716
78	0xbf16d272	-0.58914864
79	0xbe427995	-0.18991692
80	0xbdb6f266	-0.089329526
81	0x3e0c5cd9	0.13707294
82	0xbd9e56e8	-0.0773142
83	0xbd6edb06	-0.058314346
84	0xbf3570c1	-0.70875174
85	0xbdac6f3e	-0.08419655
86	0x39d4738c	0.0004052188
87	0x3e8a5306	0.27016467
88	0xbdb92df3	-0.09041967
89	0xbbd74e1a	-0.0065705897
90	0xbe864ebc	-0.26231945
91	0x3eb96aea	0.3621438
92	0xbe2068df	-0.15665005
93	0xbe3e254b	-0.18568914
94	0x3e4881dc	0.19580787
95	0xbdfbc1e6	-0.122928426
96	0xbc7626dd	-0.015023914
97	0x3e006a39	0.1254052
98	0x3b810aee	0.0039380705
99	0xbecadb78	-0.39620566
100	0xbcba41f6	-0.02273653
101	0x3d84b05d	0.06478951
102	0xbed93788	-0.4242518
103	0x3e849866	0.2589752
104	0xbe9fc64e	-0.31205982
105	0xbe05b549	-0.13057436
106	0x3e8a27c0	0.26983452
107	0x3d75c10a	0.05999855
108	0x3deff0ab	0.11715826
109	0x3d5a4c8e	0.053295664
110	0x3c13bc64	0.009017084
111	0xbcc2ff27	-0.023803307
112	0xbe9ffc64	-0.31247246
113	0x3e83f787	0.25774786
114	0x3e8b7d74	0.2724415
115	0x3e6cbb44	0.23118311
116	0xbdb6434f	-0.08899557
117	0xbd893a69	-0.06700594
118	0x3e1937fd	0.14962764
119	0xbe5012b3	-0.20319633
120	0xbdbf3d69	-0.09337885
121	0xbeb4e826	-0.35333365
122	0x3e62aaee	0.22135517
123	0x3ea7d2b1	0.32777932
124	0xbdcdce22	-0.10049082
125	0xbccb99e5	-0.024853656
126	0x3d5aea17	0.0534459
127	0xbde88a1b	-0.113544665
128	0xbec58735	-0.38579717
129	0x3dd8f398	0.10593337
130	0xbd5c16bc	-0.05373262
131	0xbe423875	-0.18966849
132	0xbdd62d6e	-0.10457884
133	0xbdc16aeb	-0.09444221
134	0x3d2888d7	0.041146126
135	0x3df84227	0.121219926
136	0x3dda6e88	0.106656134
137	0x3d82a8ee	0.06379877
138	0xbf258072	-0.64649117
139	0xbe213d45	-0.15746029
140	0x3ce6323d	0.028100127
141	0xbe82fa8b	-0.25581774
142	0xbc31a315	-0.010842104
143	0xbe32c342	-0.17457297
144	0xbc84cd04	-0.01621104
145	0xbebed2db	-0.37270245
146	0xbecfdb51	-0.40597013
147	0xbda4e059	-0.080506034
148	0xbdad5567	-0.08463555
149	0x3e44dc10	0.19224572
150	0x3ebcd723	0.36882886
151	0xbeab3e84	-0.33446133
152	0x3e6e32db	0.23261587
153	0x3de4c3b1	0.11170138
154	0xbe08b1ca	-0.13349071
155	0x3e124676	0.14284691
156	0x3e1fbc11	0.15599085
157	0xbde790a1	-0.11306883
158	0xbe9d5e21	-0.30735877
159	0xbd168a01	-0.036752705
160	0x3e2126d0	0.15737462
161	0x3ea0a979	0.31379297
162	0xbe056c1a	-0.13029519
163	0x3db819ea	0.08989318
164	0x3c072127	0.00824765
165	0x3e8cba92	0.27486092
166	0x3e4ed978	0.20200145
167	0x3dea7b7b	0.11449333
168	0x3dd09d35	0.10186235
169	0x3ab8fb99	0.0014113068
170	0x3d480078	0.048828572
171	0x3dab7726	0.08372335
172	0xbe8d98cc	-0.27655637
173	0x3df64b8a	0.12026127
174	0x3d474633	0.04865093
175	0x3e81226e	0.2522158
176	0x3e827ebf	0.25487325
177	0x3ecf62ac	0.40504968
178	0x3e20169a	0.15633622
179	0xbdfd32a8	-0.123631775
180	0x3cdae16a	0.026718814
181	0x3db01648	0.08598
182	0xbcf563c1	-0.029954793
183	0xbe86524d	-0.26234666
184	0xbc24d6b8	-0.010060959
185	0x3d6867ba	0.056739546
186	0xbc9517b6	-0.018199783
187	0xbe9f0a3f	-0.31062505
188	0xbeef4a27	-0.4673626
189	0xbce30b56	-0.027715366
190	0xbe80773e	-0.25090975
191	0xbe159080	-0.14605904
192	0x3ebf0c22	0.37313944
193	0xbc260ebe	-0.010135351
194	0x3e2aea92	0.16691044
195	0xbd8706e1	-0.06593109
196	0x3d99574a	0.07487352
197	0xbde24a44	-0.11049321
198	0xbe6658ff	-0.22494887
199	0x3dbc1f2f	0.09185635

rb2.shortcut.conv.bias f4 [20]
0	0x37b8aab8	2.2014006e-05
1	0xb7d6b954	-2.5597088e-05
2	0x37c29eb5	2.3200506e-05
3	0xb7246b5a	-9.8001565e-06
4	0x3764a060	1.3627199e-05
5	0x36b2dc2a	5.330444e-06
6	0xb7e98314	-2.7836802e-05
7	0xb6c287fe	-5.797482e-06
8	0xb81e5d07	-3.7756774e-05
9	0x36541fc6	3.1608956e-06
10	0x36dfe914	6.6730518e-06
11	0xb7476361	-1.1884463e-05
12	0x366ca1b9	3.5260875e-06
13	0x388198bf	6.1796505e-05
14	0x3736ef29	1.0903729e-05
15	0x37062b69	7.99713e-06
16	0xb78e0124	-1.692825e-05
17	0x36a2b52a	4.8490665e-06
18	0xb725e262	-9.887475e-06
19	0x37c55b57	2.3526763e-05

rb2.shortcut.bn.weight f4 [20]
0	0x3f71d3d4	0.9446385
1	0x3f335d62	0.70064366
2	0x3f67ac72	0.90497506
3	0x3f064ac2	0.5245782
4	0x3f30216a	0.68800986
5	0x3f30558e	0.68880546
6	0x3f08eb12	0.5348369
7	0x3f42c9e8	0.76089334
8	0x3f4fd1ae	0.8117932
9	0x3f559ad3	0.8343937
10	0x3f0db3b3	0.55352324
11	0x3f301a9d	0.6879061
12	0x3ef315f0	0.47477674
13	0x3f5d9c2b	0.8656642
14	0x3f89c723	1.0763897
15	0x3ef2ac3b	0.47397026
16	0x3f32ba87	0.6981587
17	0x3f0771a6	0.5290779
18	0x3eb1ee75	0.3475224
19	0x3f3a5fbb	0.72802323

rb2.shortcut.bn.bias f4 [20]
0	0x3e4e6480	0.20155525
1	0x3d5196d0	0.051169217
2	0xbe3d9bf9	-0.1851653
3	0x3a836d42	0.0010027068
4	0xbd9c4ce0	-0.0763185
5	0xbe283a8c	-0.16428584
6	0x3dbc3505	0.091898
7	0xbe7366c2	-0.23769668
8	0x3e6f86c8	0.23391259
9	0xbe27c696	-0.16384348
10	0x3d6aea6f	0.05735248
11	0xbe03c7ee	-0.12869236
12	0xbc3a323b	-0.011364515
13	0x3d4a2bae	0.049358062
14	0xbc578fc2	-0.013156833
15	0x3e419460	0.18904257
16	0xbcc875f5	-0.024470309
17	0xbdf49435	-0.11942331
18	0x3dcae2b2	0.0990652
19	0xbe8b95b0	-0.2726264

rb2.shortcut.bn.running_mean f4 [20]
0	0xbeb052c9	-0.3443816
1	0xbf5e8248	-0.86917543
2	0xbe009787	-0.12557803
3	0x3f83a23c	1.0283885
4	0x3ed6000b	0.41796908
5	0xbf36cd2e	-0.7140683
6	0xbf122d2f	-0.57100195
7	0xbf577478	-0.8416209
8	0xbf2f4c03	-0.6847536
9	0xbf0b685c	-0.54456115
10	0xbe3fd06e	-0.18731853
11	0x3de2f58e	0.11081992
12	0xbe4424c1	-0.19154646
13	0xbf3fecc1	-0.7497063
14	0xbf69b6e7	-0.9129471
15	0x3e1ca7dd	0.1529841
16	0x3f61d3fd	0.88214093
17	0x3f40dbd3	0.75335425
18	0xbf53bdc5	-0.8271144
19	0x3d442e6c	0.047895834

rb2.shortcut.bn.running_var f4 [20]
0	0x3efebea4	0.49754822
1	0x3ed040b7	0.40674374
2	0x3eb14a97	0.3462722
3	0x3f0b18a5	0.5433448
4	0x3edf74f9	0.4364393
5	0x3eea4188	0.4575312
6	0x3eb95a09	0.36201504
7	0x3f0f3f1f	0.5595569
8	0x3ebeee72	0.37291294
9	0x3e9c0d42	0.30478865
10	0x3ee697cc	0.45037687
11	0x3e94f1d5	0.29090753
12	0x3e7eed0d	0.24895115
13	0x3f2b0f90	0.6682062
14	0x3eed2af8	0.46321845
15	0x3ebb7e37	0.36619732
16	0x3ea31a45	0.3185598
17	0x3ed9609f	0.4245653
18	0x3f084fd3	0.532468
19	0x3e341bba	0.17588702

res1_sc1.conv.weight f4 [20, 3, 1, 1]
0	0xbf0cb415	-0.54962283
1	0x3db22b83	0.086997055
2	0x3ea9c3e2	0.3315726
3	0xbe7b8138	-0.24561012
4	0x3f0f1874	0.5589669
5	0xbe73cd17	-0.23808704
6	0x3c071542	0.008244814
7	0xbe9d270a	-0.30693847
8	0xbec60008	-0.386719
9	0x3ec36f30	0.38170767
10	0xbeae0ef6	-0.3399579
11	0xbeb237f5	-0.34808317
12	0x3ef7a9c8	0.4837172
13	0xbdf3a1fa	-0.11896129
14	0x3e5c609e	0.21521232
15	0xbf0b422b	-0.5439784
16	0xbebf5759	-0.37371328
17	0x3ea53c4b	0.32272562
18	0xbe36f53e	-0.1786699
19	0x3ebb4751	0.36577848
20	0x3f01ceeb	0.50706357
21	0x3eb54240	0.35402107
22	0xbf106b97	-0.5641417
23	0xbea8dee5	-0.32982555
24	0x3e2c5d54	0.16832477
25	0x3f083234	0.53201604
26	0xbe3520f8	-0.17688358
27	0x3e87b0fe	0.26502222
28	0xbe85dea1	-0.26146415
29	0xbebadba6	-0.36495703
30	0xbdcbc17f	-0.09949016
31	0xbe82fd34	-0.25583804
32	0xbebfc223	-0.37452802
33	0x3e16f964	0.14743572
34	0xbdaf7a76	-0.085682794
35	0xbed4f1cc	-0.41590726
36	0xbeb0fd03	-0.34568033
37	0xbe4d232e	-0.20032951
38	0xbd72154a	-0.059102334
39	0x3b05ac1a	0.002039677
40	0xbe19e847	-0.15030013
41	0xbef2ceae	-0.4742331
42	0xbe6cbc6c	-0.23118752
43	0x3e6c7df3	0.23094921
44	0x3eb32112	0.34986168
45	0x3ec18469	0.37796333
46	0x3e222980	0.15836143
47	0xbe866900	-0.26251984
48	0x3dc9a176	0.09845249
49	0xbea8c83b	-0.32965264
50	0x3d7d2a53	0.06180794
51	0x3d6c4cda	0.05769048
52	0xbeb1c14d	-0.3471779
53	0x3d62fbb6	0.05541583
54	0x3e74f625	0.23922022
55	0x3e9b2b63	0.3030654
56	0xbdc8aa96	-0.09798162
57	0xbf03a917	-0.51429886
58	0x3e1e7d7a	0.15477553
59	0x3d943dae	0.07238327

res1_sc1.conv.bias f4 [20]
0	0x37d583e7	2.5453e-05
1	0x386c78fe	5.6379467e-05
2	0x37e71788	2.7548303e-05
3	0xb8aa44b5	-8.1190294e-05
4	0xb849d684	-4.8121918e-05
5	0xb8395dc4	-4.4194763e-05
6	0x3788ebbf	1.6322241e-05
7	0x380eeb3e	3.4074525e-05
8	0xb8375a8c	-4.371493e-05
9	0xb840d22c	-4.5972105e-05
10	0xb7f5ddd0	-2.9309565e-05
11	0x38868411	6.414217e-05
12	0x369425e8	4.4151566e-06
13	0x38a138bf	7.687648e-05
14	0xb84463df	-4.6823054e-05
15	0xb72e1442	-1.0375925e-05
16	0xb7a75b0f	-1.9950354e-05
17	0x37f1bd40	2.8817565e-05
18	0x3812506b	3.4884008e-05
19	0xb80183d7	-3.0878782e-05

res1_sc1.bn.weight f4 [20]
0	0x3f4e060f	0.80477995
1	0x3f6afdfb	0.91793793
2	0x3f2d6c89	0.67743737
3	0x3f0ed0ef	0.5578756
4	0x3f024c57	0.50897735
5	0x3f1c908e	0.6115807
6	0x3f0d7981	0.55263525
7	0x3f17e838	0.5933871
8	0x3f1bd72a	0.6087519
9	0x3f2634ac	0.6492412
10	0x3f157690	0.58384037
11	0x3f12d884	0.57361627
12	0x3eec1024	0.46106064
13	0x3f16de22	0.589327
14	0x3f26eeb5	0.6520799
15	0x3ec11c9a	0.37717134
16	0x3f0b0090	0.54297733
17	0x3ef4b828	0.4779675
18	0x3edb7839	0.4286516
19	0x3f50de72	0.81589425

res1_sc1.bn.bias f4 [20]
0	0x3e4e6480	0.20155525
1	0x3d5196d0	0.051169217
2	0xbe3d9bf9	-0.1851653
3	0x3a836d42	0.0010027068
4	0xbd9c4ce0	-0.0763185
5	0xbe283a8c	-0.16428584
6	0x3dbc3505	0.091898
7	0xbe7366c2	-0.23769668
8	0x3e6f86c8	0.23391259
9	0xbe27c696	-0.16384348
10	0x3d6aea6f	0.05735248
11	0xbe03c7ee	-0.12869236
12	0xbc3a323b	-0.011364515
13	0x3d4a2bae	0.049358062
14	0xbc578fc2	-0.013156833
15	0x3e419460	0.18904257
16	0xbcc875f5	-0.024470309
17	0xbdf49435	-0.11942331
18	0x3dcae2b2	0.0990652
19	0xbe8b95b0	-0.2726264

res1_sc1.bn.running_mean f4 [20]
0	0xbce6a99b	-0.028157046
1	0x3c15ed96	0.009150883
2	0x3d88dffd	0.066833474
3	0x3d4d60f1	0.05014128
4	0xbd1f3dd8	-0.03887734
5	0xbb02f106	-0.0019980087
6	0xbda2e661	-0.079540975
7	0x3d7a557c	0.06111668
8	0xbc48f9bb	-0.012266572
9	0x3d55ebe5	0.05222692
10	0x3d87bfa2	0.06628348
11	0x3d5b4ff0	0.05354303
12	0x3cfeb7bc	0.03109347
13	0x3d8f1fa4	0.06988457
14	0xbd4c3720	-0.04985726
15	0x3c424b95	0.0118588405
16	0x3bd52848	0.006505046
17	0x3c203089	0.009777197
18	0xbc4ba3ae	-0.012429161
19	0x3a15e584	0.00057180994

res1_sc1.bn.running_var f4 [20]
0	0x3cd020db	0.025406292
1	0x3bca2324	0.00616874
2	0x3dec905f	0.11550974
3	0x3d28725f	0.041124698
4	0x3d9f6243	0.07782414
5	0x3dc3c918	0.0955984
6	0x3e06097d	0.13089557
7	0x3db2d208	0.087314665
8	0x3d857a6e	0.06517492
9	0x3d38d6e8	0.045126826
10	0x3e015b71	0.12632538
11	0x3d293802	0.04131318
12	0x3da99a95	0.08281437
13	0x3dcc34f3	0.09971037
14	0x3d282a4e	0.04105597
15	0x3cdb8e70	0.026801318
16	0x3c002ccd	0.007823181
17	0x3c5e42e9	0.013565757
18	0x3d3daa42	0.04630495
19	0x3cde3837	0.027126415
