models/dense_max/epoch_0022.pth (torch, 645162 bytes, 174 tensors)

rb1.conv1.weight f4 [10, 3, 3, 3]
-0.076789446 0.08360113 -0.0748549 -0.23259959 0.2732555 0.1843459 -0.2037636 0.1901075
-0.12159305 -0.17545606 0.01310115 -0.04150097 -0.31109473 0.28415242 0.1674198 -0.016823964
0.27509984 -0.23022375 -0.020393105 0.0038257476 -0.08854263 -0.22733599 0.04867243 0.011535075
0.12906392 0.06723605 0.13976899 0.053631786 0.021703986 0.16172013 0.059652243 0.14021212
-0.3589917 -0.054521926 0.037494555 -0.08011987 -0.03986812 -0.022423156 -0.008616861 -0.039652664
0.42701828 -0.2330975 -0.05495793 0.085855976 -0.13571256 -0.13792814 -0.17230819 0.120693766
0.009258993 0.34972247 -0.2710949 -0.007382571 0.09184671 0.043437447 0.03348156 0.27738002
0.18967862 -0.12928964 -0.07120461 0.097581245 -0.059413213 -0.22060145 0.007857424 0.24630268
0.2427293 0.3148293 0.0057016215 -0.1715072 -0.113961205 -0.11043935 -0.26784164 -0.17942479
0.06094171 0.17215554 0.060603186 0.0030618063 -0.04175967 -0.09173359 0.10297258 -0.20273599
-0.12102343 -0.19246705 0.029930202 -0.1641459 0.07567038 -0.30805814 -0.1673859 0.046551008
0.10118237 0.16396171 -0.10394547 -0.15279305 -0.155767 0.21949226 -0.26540574 -0.11892681
0.27374464 0.026210714 0.025966974 -0.043929588 0.024351314 -0.13609521 0.016483111 -0.16775881
-0.12115634 0.1893809 0.01975326 0.2334133 -0.24085781 -0.22726141 0.19749483 -0.087664574
-0.17170027 0.14496315 -0.11259014 -0.009462704 0.22876555 0.23531513 -0.21860683 -0.08627487
-0.07893745 -0.01684033 0.16266549 0.09472695 0.11720209 0.1255133 0.26564223 0.08331988
-0.06678666 0.2179969 0.025335373 -0.28379992 0.1476824 0.018712377 -0.18067269 -0.18850645
-0.144946 0.13154946 0.016556326 -0.14512531 0.0062086806 0.11519595 -0.092521824 0.024264935
0.06905673 0.18981433 0.22272329 -0.051999908 -0.44225776 -0.11601261 0.16986446 -0.12721448
-0.32625553 0.015937593 -0.08187044 0.2275179 -0.09060585 -0.17053553 0.004434971 -0.23159416
-0.3351939 0.021068832 -0.025223337 -0.04092338 0.10621547 0.078910686 0.19850834 -0.11125719
-0.02590138 -0.034518935 0.02751807 0.06636898 0.029203841 0.07879852 0.13253623 0.29981655
-0.049360927 0.03633339 0.05522693 -0.16742662 -0.25664413 -0.14929003 -0.095243685 -0.0053984006
0.11608743 0.15053868 -0.076433025 0.39578032 0.27492335 0.014413407 -0.13642558 0.19748163
-0.26408228 -0.06550721 0.07450287 0.22246955 -0.0479516 0.2009468 0.123235874 -0.019532792
0.20241027 -0.2188034 -0.38321158 0.00046666007 0.15063387 0.13410254 -0.24924663 -0.12072291
-0.09087707 0.06912131 -0.08343635 -0.14913543 0.37153322 0.26336578 -0.090382814 -0.03160569
-0.2827902 0.103424504 -0.005235131 -0.026243286 0.19196178 0.29369897 -0.01130062 0.14930955
-0.0558813 -0.08697684 -0.14502782 -0.15080506 0.012357417 0.12236333 -0.06749436 0.24031222
-0.29151216 -0.20486194 0.06309623 0.097265966 -0.104443 0.114032306 0.20368566 0.023155952
0.036261566 0.019559262 -0.22963803 0.25064567 0.4553289 0.2134997 0.15283278 0.29745185
0.05271511 -0.08453753 -0.18841736 -0.34121522 0.18247259 0.31256795 0.047459923 -0.060755048
00000000: c943 9dbd 1237 ab3d 874d 99bd 962e 6ebe
00000010: 25e8 8b3e 2cc5 3c3e 68a7 50be 8aab 423e
00000020: c705 f9bd c1aa 33be 35a6 563c ecfc 29bd
00000030: cf47 9fbe 6d7c 913e 1970 2b3e 69d2 89bc
00000040: e3d9 8c3e c6bf 6bbe 710f a7bc 65b9 7a3b
00000050: d755 b5bd c4ca 68be be5c 473d 9cfd 3c3c
00000060: 5529 043e 0eb3 893d 9a1f 0f3e 01ad 5b3d
00000070: 8fcc b13c f699 253e e955 743d c493 0f3e
00000080: c3cd b7be 6252 5fbd e493 193d e315 a4bd
00000090: c14c 23bd c4b0 b7bc bc2d 0dbc d56a 22bd
000000a0: 24a2 da3e 1cb1 6ebe 911b 61bd 42d5 af3d
000000b0: 3cf8 0abe 093d 0dbe 8f71 30be 4b2e f73d
000000c0: 08b3 173c d30e b33e f3cc 8abe 7fe9 f1bb
000000d0: 211a bc3d 77eb 313d f623 093d c104 8e3e
000000e0: 1d3b 423e 8164 04be b9d3 91bd add8 c73d
000000f0: 455b 73bd 59e5 61be 6dbc 003c c536 7c3e
00000100: 088e 783e 4e31 a13e abd4 ba3b 959f 2fbe
00000110: 7e64 e9bd 072e e2bd 8a22 89be 22bb 37be
00000120: 049e 793d 8b49 303e 0c3b 783d 96a8 483b
00000130: 300c 2bbd d2de bbbd 4ae3 d23d 069a 4fbe
00000140: 22db f7bd 1516 45be 2f30 f53c dd15 28be
00000150: 12f9 9a3d ccb9 9dbe 3667 2bbe 45ac 3e3d
00000160: b438 cf3d 94e5 273e 5de1 d4bd c875 1cbe
00000170: 6281 1fbe 94c2 603e 43e3 87be e68f f3bd
00000180: 4228 8c3e dab7 d63c b1b8 d43c 83ef 33bd
00000190: 687c c73c 8b5c 0bbe 9707 873c f7c8 2bbe
000001a0: d120 f8bd 11ed 413e 97d1 a13c e503 6f3e
000001b0: 6ea3 76be 37b7 68be 163c 4a3e 7c89 b3bd
000001c0: 32d2 2fbe 3871 143e a995 e6bd 7509 1bbc
000001d0: 8441 6a3e 73f6 703e 78da 5fbe e1b0 b0bd
000001e0: f5a9 a1bd bbf4 89bc c891 263e 3400 c23d
000001f0: a607 f03d 8f86 003e 4202 883e 9da3 aa3d
00000200: 72c7 88bd 943a 5f3e 218c cf3c 394e 91be
00000210: 0e3a 173e b34a 993c 4302 39be d607 41be
00000220: b96c 14be e7b4 063e 22a1 873c bb9b 14be
00000230: 3072 cb3b dbeb eb3d 157c bdbd 42c7 c63c
00000240: 9d6d 8d3d b05e 423e 9311 643e dbfd 54bd
00000250: 9c6f e2be 0598 edbd f3f0 2d3e 8344 02be
00000260: f70a a7be 8e8f 823c b0ab a7bd 74fa 683e
00000270: 8f8f b9bd dea0 2ebe 3c53 913b 0527 6dbe
00000280: 899e abbe 8b98 ac3c 2ca1 cebc 469f 27bd
00000290: 7f87 d93d ed9b a13d c545 4b3e cfda e3bd
000002a0: 222f d4bc ba63 0dbd 936d e13c 76ec 873d
000002b0: e53c ef3c 1e61 a13d 94b7 073e 8e81 993e
000002c0: af2e 4abd 52d2 143d a235 623d e271 2bbe
000002d0: dc66 83be 7cdf 18be 1f0f c3bd 11e5 b0bb
000002e0: 3fbf ed3d d026 1a3e eb88 9cbd b8a3 ca3e
000002f0: c1c2 8c3e 3626 6c3c 26b3 0bbe a038 4a3e
00000300: cb35 87be a528 86bd f694 983d 0fcf 633e
00000310: e668 44bd ffc4 4d3e 1763 fc3d 3c03 a0bc
00000320: a344 4f3e 000e 60be 4f34 c4be 0eaa f439
00000330: c43f 1a3e 2d52 093e 823a 7fbe 933d f7bd
00000340: c21d babd 798f 8d3d ade0 aabd f5b6 18be
00000350: 9a39 be3e e1d7 863e a01a b9bd f874 01bd
00000360: e1c9 90be 3ad0 d33d 768b abbb 29fc d6bc
00000370: a191 443e b65f 963e 3c26 39bc 9ae4 183e
00000380: cae3 64bd ea20 b2bd 2c82 14be a46c 1abe
00000390: c376 4a3c a099 fa3d 7c3a 8abd 6814 763e
000003a0: 1541 95be 54c7 51be 9938 813d 6133 c73d
000003b0: 36e6 d5bd c589 e93d f992 503e 8db1 bd3c
000003c0: 0287 143d bf3a a03c 3b26 6bbe a154 803e
000003d0: df20 e93e aa9f 5a3e 3280 1c3e 9c4b 983e
000003e0: cdeb 573d 0322 adbd 7bf0 40be c3b3 aebe
000003f0: 18da 3a3e e808 a03e 5665 423d 49da 78bd

rb1.conv1.bias f4 [10]
-7.944268e-05 -0.00028433008 9.89283e-05 -0.00022909793 1.31687375e-05 -2.0063224e-05 0.00017921913 0.00041206705
-0.0003374377 -0.000101527934
00000000: 779a a6b8 2312 95b9 ba77 cf38 023a 70b9
00000010: 4cef 5c37 724d a8b7 c5ec 3b39 b40a d839
00000020: 1fea b0b9 65eb d4b8

rb1.bn1.weight f4 [10]
0.79187113 1.245868 0.855165 0.864953 0.57767934 0.7996515 0.6700575 0.9832539
0.82237345 0.67146164
00000000: 11b8 4a3f 9a78 9f3f 18ec 5a3f 8f6d 5d3f
00000010: cbe2 133f f6b5 4c3f e388 2b3f 87b6 7b3f
00000020: 1187 523f e9e4 2b3f

rb1.bn1.bias f4 [10]
0.32237875 1.1474893 0.004889703 0.047795773 0.0454013 -0.021786027 -0.004940264 0.78660923
0.5546542 0.1326983
00000000: d40e a53e eee0 923f cd39 a03b 80c5 433d
00000010: b7f6 393d 9c78 b2bc f0e1 a1bb 395f 493f
00000020: d1fd 0d3f 10e2 073e

rb1.bn1.running_mean f4 [10]
-0.016458094 -0.00768739 0.012017268 0.051516168 -0.051464386 0.17601582 -0.12509014 -0.0017131836
-0.010083113 -0.07791065
00000000: 20d3 86bc 80e6 fbbb 13e4 443c 9e02 533d
00000010: 52cc 52bd 7e3d 343e a117 00be e78c e0ba
00000020: a433 25bc 9e8f 9fbd

rb1.bn1.running_var f4 [10]
0.072080016 0.036027618 0.17778918 0.20629379 0.03664673 0.40822512 0.22355379 0.053849977
0.036487855 0.38948345
00000000: b09e 933d b291 133d 5e0e 363e ae3e 533e
00000010: e21a 163d e202 d13e 49eb 643e cb91 5c3d
00000020: 4a74 153d 606a c73e

rb1.conv2.weight f4 [10, 10, 3, 3]
-0.024897132 -0.19210291 0.004821367 0.014221813 -0.14567232 -0.045808636 0.0013059758 -0.04449672
-0.014118694 0.013845589 0.17728785 -0.2544882 -0.26466784 -0.092241794 0.14873947 0.14351705
-0.20975159 0.0103557985 -0.13471566 0.082925946 -0.114371106 0.00740396 -0.20269676 -0.17425016
0.018136537 0.11062199 0.14564395 0.14854895 0.159624 0.13343562 0.095740736 0.107034005
0.029903013 -0.12516274 -0.07237825 -0.23420386 -0.1385824 0.052870467 -0.036285404 -0.0084642945
-0.09872728 0.023871854 -0.06282281 -0.01317304 -0.07853028 0.08297137 0.23288617 0.16444086
-0.023993585 0.004975291 -0.040851165 -0.046046354 0.058427125 0.15121692 -0.06344955 -0.03804359
-0.08800659 -0.09395095 -0.23424397 -0.07928071 0.096869156 0.06903876 -0.06536122 -0.031116653
0.114703454 0.2754243 -0.057284888 -0.25483394 -0.3999532 0.010756885 0.1649846 0.085478455
-0.041208442 -0.16518973 -0.10338213 0.12178694 0.05287982 0.09836188 -0.19156413 -0.014030535
-0.044005807 -0.32401735 -0.32724687 -0.12843011 -0.17830567 -0.052063897 -0.059060406 -0.14263202
-0.08472882 0.050918076 -0.0112471245 -0.121955775 0.11496051 0.006539176 0.0706048 0.3096419
-0.049968123 0.16252965 -0.09975776 0.109179184 0.09155507 -0.1716074 0.15555601 -0.46258226
0.06802938 -0.3121439 0.1293734 0.15283833 0.018657748 0.13033755 -0.10493901 0.008395219
-0.17057994 -0.15221581 0.017565275 -0.098651536 -0.055435866 -0.22423644 0.10694399 0.050444398
0.067354135 -0.04465723 -0.10194352 0.0023597905 -0.19759767 -0.018269755 0.1814177 0.21310358
0.045572225 0.071578674 -0.032336555 -0.085184574 -0.015462162 -0.1485705 -0.16507082 -0.0809449
-0.08073288 -0.08062075 -0.048324227 -0.061752792 -0.11741963 -0.07156824 -0.17610696 -0.05497216
0.10244926 0.16098122 0.1061849 0.1525907 0.17314973 0.12173377 0.14376475 0.18041927
0.02489511 0.09102 -0.27663273 -0.0014554111 -0.039645188 -0.2632328 0.19861773 -0.033978637
0.2679806 -0.010652931 0.104963265 -0.0077271955 -0.21565829 0.026392424 -0.106256865 0.15403974
-0.007807046 0.14776787 -0.023122005 -0.03049328 -0.004062187 0.02409035 0.056160927 -0.025930155
0.03970831 -0.072993845 0.14241003 0.034447785 0.02402169 -0.324655 -0.075041264 0.011851171
-0.07472101 -0.022766164 0.0736927 0.06603936 0.06383044 -0.056953173 -0.13267685 0.008535865
-0.06262922 -0.15577647 -0.02386237 -0.012866611 0.13787484 0.15183543 0.26945227 0.055541642
0.03775492 0.3562898 0.061184343 -0.16497543 0.093825705 -0.107040055 -0.054844823 0.09459484
0.05115249 -0.005112837 0.012628766 0.04393386 0.0008835078 0.28658387 -0.011450038 0.030316988
0.110306054 0.12412006 0.03290082 0.24293837 0.07837618 0.040821426 0.09944378 0.05577461
0.012583884 0.22456023 0.22585087 0.17913763 0.18140335 0.09593987 0.042124618 0.042802464
0.04238967 -0.11012028 0.023117853 -0.03749917 -0.11698191 0.020132797 -0.037704334 -0.10666227
0.02028905 -0.008719208 -0.121478446 0.16849934 0.099256456 -0.0039664814 0.07204844 0.07828762
-0.022523835 -0.110659555 0.0248183 -0.05737529 0.28118894 0.28562203 -0.07240318 0.19780348
00000000: 12f5 cbbc a0b6 44be 8ffc 9d3b 9b02 693c
00000010: 202b 15be d6a1 3bbd 472d ab3a 3142 36bd
00000020: 1852 67bc 9cd8 623c f28a 353e 474c 82be
00000030: 8b82 87be 44e9 bcbd 294f 183e 22f6 123e
00000040: 1fc9 56be 5eab 293c e7f2 09be 14d5 a93d
00000050: 663b eabd eb9c f23b bd8f 4fbe a26e 32be
00000060: 1393 943c c88d e23d b023 153e 371d 183e
00000070: 7974 233e 59a3 083e b813 c43d a534 db3d
00000080: 2af7 f43c a92a 00be 0c3b 94bd 23d3 6fbe
00000090: 8be8 0dbe b48e 583d 01a0 14bd d3ad 0abc
000000a0: 8731 cabd e88e c33c 3fa9 80bd bcd3 57bc
000000b0: 7cd4 a0bd e5ec a93d b679 6e3e 2f63 283e
000000c0: 328e c4bc c407 a33b 8d53 27bd 1a9b 3cbd
000000d0: 4851 6f3d 9cd8 1a3e d6f1 81bd 98d3 1bbd
000000e0: cd3c b4bd 5b69 c0bd a7dd 6fbe ed5d a2bd
000000f0: 5663 c63d 3264 8d3d 1adc 85bd 5ae8 febc
00000100: a5e9 ea3d 6a04 8d3e 8fa3 6abd 9879 82be
00000110: aac6 ccbe a53d 303c b9f1 283e 540f af3d
00000120: 2fca 28bd 7f27 29be 03ba d3bd 6e6b f93d
00000130: 8398 583d f471 c93d 6329 44be 54e0 65bc
00000140: 6f3f 34bd 9ae5 a5be e78c a7be 2f83 03be
00000150: c395 36be f440 55bd 53e9 71bd 210e 12be
00000160: 4e86 adbd 798f 503d dc45 38bc f3c3 f9bd
00000170: 6a70 eb3d 9646 d63b 4099 903d 6289 9e3e
00000180: 60ab 4cbd 2c6e 263e cc4d ccbd 5699 df3d
00000190: 3981 bb3d dab9 2fbe 134a 1f3e 95d7 ecbe
000001a0: fd52 8b3d 53d1 9fbe 767a 043e a781 1c3e
000001b0: 22d8 983c 3577 053e 44ea d6bd 1a8c 093c
000001c0: 82ac 2ebe 76de 1bbe 0de5 8f3c d109 cabd
000001d0: b810 63bd 3d9e 65be 7305 db3d c99e 4e3d
000001e0: f7f0 893d 80ea 36bd c4c7 d0bd b7a6 1a3b
000001f0: 0b57 4abe 74aa 95bc 90c5 393e d337 5a3e
00000200: f1a9 3a3d d797 923d 5673 04bd 4075 aebd
00000210: 0255 7dbc dd22 18be 5308 29be 71c6 a5bd
00000220: 4857 a5bd 7e1c a5bd a0ef 45bd 7ff0 7cbd
00000230: b479 f0bd 5f92 92bd 6255 34be 7d2a 61bd
00000240: ebd0 d13d 43d8 243e 7877 d93d bd40 1c3e
00000250: 2a4e 313e 8e4f f93d 1137 133e d4bf 383e
00000260: d4f0 cb3c b268 ba3d cea2 8dbe 7ec3 beba
00000270: fe62 22bd 73c6 86be 7262 4b3e 2f2d 0bbd
00000280: c134 893e a289 2ebc fbf6 d63d 6a34 fdbb
00000290: 87d5 5cbe ed34 d83c 339d d9bd 98bc 1d3e
000002a0: 40d2 ffbb 7650 173e 5c6a bdbc 0bcd f9bc
000002b0: 181c 85bb 2059 c53c 0009 663d 7a6b d4bc
000002c0: 2ea5 223d cc7d 95bd efd3 113e 1f19 0d3d
000002d0: 23c9 c43c 2e39 a6be 3caf 99bd 6a2b 423c
000002e0: 5407 99bd 1b80 babc 33ec 963d a53f 873d
000002f0: 89b9 823d bb47 69bd 71dc 07be 03da 0b3c
00000300: c043 80bd de83 1fbe 047b c3bc 7ace 52bc
00000310: 102f 0d3e bf7a 1b3e a6f5 893e a27f 633d
00000320: e7a4 1a3d 9e6b b63e 6f9c 7a3d 52ef 28be
00000330: b127 c03d d137 dbbd f7a4 60bd f1ba c13d
00000340: 4685 513d 9689 a7bb e2e8 4e3c fef3 333d
00000350: 349b 673a 1fbb 923e f198 3bbc 555b f83c
00000360: 24e8 e13d a832 fe3d 03c3 063d d6c4 783e
00000370: b183 a03d 5e34 273d 2ea9 cb3d eb73 643d
00000380: a32c 4e3c 1ef3 653e 7345 673e db6f 373e
00000390: cdc1 393e 1f7c c43d dd8a 2c3d a351 2f3d
000003a0: caa0 2d3d be86 e1bd a761 bd3c bb98 19bd
000003b0: 3694 efbd 89ed a43c dc6f 1abd c071 dabd
000003c0: 3935 a63c 02db 0ebc b1c9 f8bd 178b 2c3e
000003d0: f846 cb3d 42f9 81bb 228e 933d 4255 a03d
000003e0: e883 b8bc 7aa1 e2bd bf4f cb3c 5a02 6bbd
000003f0: fff7 8f3e 0d3d 923e 1e48 94bd ff8c 4a3e

rb1.conv2.bias f4 [10]
6.8627574e-05 -1.2676122e-05 -2.5539433e-05 -5.1125568e-05 -1.9584486e-05 -8.928201e-05 2.388635e-05 0.00014149299
-0.00023267136 -6.294547e-05
00000000: 26ec 8f38 88ab 54b7 843d d6b7 a96f 56b8
00000010: 5d49 a4b7 ea3c bbb8 8c5f c837 bc5d 1439
00000020: 3ef9 73b9 9801 84b8

rb1.bn2.weight f4 [10]
1.037717 1.1368154 0.80649847 1.1065377 0.73209363 1.0720551 1.3257507 1.0634968
1.1167015 0.8589849
00000000: e9d3 843f 2b83 913f af76 4e3f 07a3 8d3f
00000010: 7d6a 3b3f 1a39 893f 33b2 a93f aa20 883f
00000020: 13f0 8e3f 6fe6 5b3f

rb1.bn2.bias f4 [10]
0.06085724 -0.06714503 0.2920486 -0.032023687 0.2500056 0.08817403 -0.016724525 0.10092242
0.060768448 0.27112195
00000000: 7145 793d 5583 89bd 6587 953e 452b 03bd
00000010: bc00 803e 9694 b43d df01 89bc 6ab0 ce3d
00000020: 56e8 783d 7fd0 8a3e

rb1.bn2.running_mean f4 [10]
-1.3257673 -0.23825759 0.787526 -0.0004474303 -0.6147393 -0.12730208 -0.71745783 -0.2859425
0.09603077 1.5868382
00000000: beb2 a9bf ccf9 73be 4e9b 493f 1495 eab9
00000010: 8e5f 1dbf 7a5b 02be 51ab 37bf 0e67 92be
00000020: c8ab c43d 841d cb3f

rb1.bn2.running_var f4 [10]
1.5765964 1.2797812 0.9230088 1.6037874 0.88276017 1.744097 2.102615 1.6980048
1.869061 1.5721434
00000000: e9cd c93f dfcf a33f 4e4a 6c3f e848 cd3f
00000010: 92fc 613f 923e df3f 3f91 0640 3958 d93f
00000020: 643d ef3f ff3b c93f

rb1.shortcut.conv.weight f4 [10, 3, 1, 1]
0.45042166 0.009664478 0.3388714 -0.33126596 -0.5480445 -0.37178275 0.36758476 -0.35681447
0.10536196 -0.4735584 -0.7018967 0.17458417 -0.09978925 -0.19266042 0.58321595 0.37163028
0.14255778 0.48613474 -0.37034512 -0.33326736 -0.3259344 -0.28492817 -0.70241976 0.2660045
-0.30916142 -0.51765084 -0.06524276 -0.2853203 0.05812485 -0.58489674
00000000: ab9d e63e c257 1e3c 8d80 ad3e b19b a9be
00000010: a54c 0cbf 4f5a bebe 1234 bc3e 63b0 b6be
00000020: 03c8 d73d 3f76 f2be 81af 33bf 31c6 323e
00000030: 4e5e ccbd c648 45be a44d 153f 5346 be3e
00000040: abfa 113e a7e6 f83e e09d bdbe 05a2 aabe
00000050: e0e0 a6be 1be2 91be c8d1 33bf be31 883e
00000060: 684a 9ebe c484 04bf ff9d 85bd 8115 92be
00000070: 5314 6e3d cbbb 15bf

rb1.shortcut.conv.bias f4 [10]
-0.00013300047 0.00013544469 -0.00022845856 7.1826165e-05 9.272662e-08 -0.0003562712 -1.3819463e-05 0.00014316857
-0.00028655634 1.819129e-05
00000000: 0b76 0bb9 2806 0e39 618e 6fb9 61a1 9638
00000010: 0021 c733 e9c9 bab9 24da 67b7 851f 1639
00000020: f13c 96b9 7f99 9837

rb1.shortcut.bn.weight f4 [10]
0.974864 0.9155253 1.0142124 0.8910788 1.1378921 0.93776876 0.5835378 0.6839157
0.89788395 0.9063512
00000000: b090 793f de5f 6a3f b6d1 813f be1d 643f
00000010: 73a6 913f 9d11 703f bc62 153f 1915 2f3f
00000020: b9db 653f a206 683f

rb1.shortcut.bn.bias f4 [10]
0.06085724 -0.06714503 0.2920486 -0.032023687 0.2500056 0.08817403 -0.016724525 0.10092242
0.060768448 0.27112195
00000000: 7145 793d 5583 89bd 6587 953e 452b 03bd
00000010: bc00 803e 9694 b43d df01 89bc 6ab0 ce3d
00000020: 56e8 783d 7fd0 8a3e

rb1.shortcut.bn.running_mean f4 [10]
-0.09210652 0.14620052 -0.006335295 0.073817976 -0.07773618 -0.12724127 0.118084334 0.04485089
0.08625439 0.117965996
00000000: 58a2 bcbd 97b5 153e 4e98 cfbb e12d 973d
00000010: 2534 9fbd 894b 02be 33d6 f13d 91b5 373d
00000020: 24a6 b03d 2898 f13d

rb1.shortcut.bn.running_var f4 [10]
0.13805293 0.3405424 0.0062680463 0.22371045 0.031025363 0.21798772 0.22933091 0.12012583
0.17323278 0.14757809
00000000: bf5d 0d3e 935b ae3e 2f64 cd3b 5a14 653e
00000010: e728 fe3c 2c38 5f3e b9d5 6a3e 8804 f63d
00000020: ef63 313e b61e 173e

rb2.conv1.weight f4 [20, 10, 3, 3]
0.07498254 0.12398781 0.06989591 0.16720916 0.2245148 0.13159035 0.05384587 0.1065134
0.12823728 0.14339109 -0.12214857 -0.11823658 -0.12906201 -0.07923411 -0.03496587 0.16584043
-0.15723152 -0.108833134 -0.10864763 -0.3208276 -0.18419956 -0.0048664073 -0.26058763 -0.16110021
0.039931525 0.042971704 -0.10435976 -0.016007427 -0.10904678 0.09789293 0.08116073 0.0620414
0.10895025 0.035609186 0.04736519 0.20894626 -0.009035243 0.12484565 -0.03502343 -0.06763344
0.009297142 0.07871812 0.014512052 -0.29943582 -0.2372735 0.09662717 0.039747495 0.06323613
-0.14040834 -0.070833415 -0.08031867 -0.047723025 -0.47134376 -0.030131755 0.11763357 0.07782462
0.15553385 0.07682425 0.043021243 0.10547058 0.0534167 -0.02662083 -0.050662704 0.073109046
-0.090467595 0.065662704 -0.08994523 -0.35102326 -0.06709352 0.0693881 -0.14708176 -0.121343955
-0.018478151 0.007907817 -0.16013293 -0.17260143 0.07262297 0.15948562 -0.16959769 -0.040959343
0.09134374 -0.13712749 0.017725796 -0.14492926 0.0056000445 0.031274218 -0.024248688 -0.0829209
0.05026646 0.20873025 -0.24650766 -0.16740988 -0.072271034 0.042316787 -0.05203898 6.489245e-05
0.15518913 0.19637969 0.22062348 -0.2822692 -0.14975797 -0.046563167 -0.14256084 0.08467746
-0.0055903657 -0.07091632 -0.03177755 -0.014910636 -0.26033187 -0.3730606 -0.23644586 0.104565226
0.032617852 -0.018446242 0.1997801 0.25808737 0.31056413 -0.06281042 0.02617827 -0.009276512
-0.16365208 0.0607749 -0.10364936 -0.08782024 0.0015453441 -0.08197151 0.18430693 0.23609471
0.027634006 0.012217701 -0.016837038 -0.13644743 -0.18111369 -0.25041237 -0.23656279 -0.003902842
-0.012291689 0.14461161 -0.05659714 0.037288014 0.049074076 0.051133774 -0.009205507 0.08516143
0.097627096 0.1164928 0.05221676 -0.060452167 0.018503014 -0.100113906 -0.017870765 0.025928788
-0.04593141 0.15764442 0.2821142 0.1345092 -0.008007797 0.07360871 0.10340426 -0.13485783
0.020413728 -0.059573684 -0.10873399 0.07534774 -0.077426 -0.122889675 0.07578337 -0.18187602
0.029399034 0.038460594 -0.05775293 -0.05564364 0.0174442 0.010111406 0.017493794 0.13848989
0.05516576 -0.0038227637 0.08373785 -0.06201641 -0.037414897 0.070301995 -0.10201015 -0.015286753
0.05027216 -0.028553009 -0.01683999 -0.054594822 0.064032316 -0.010698249 0.027606564 0.18949085
-0.14406796 0.070814766 0.11348748 -0.08309555 -0.25967968 -0.19052336 0.105415046 -0.18656746
0.056572884 0.18892828 -0.024857963 -0.018773915 0.052742325 0.044141103 0.06447825 0.2540808
0.23208493 0.13478112 -0.021578368 0.19452848 0.051880173 -0.09048238 0.114244305 0.040691353
-0.15175624 0.012775617 -0.061161082 -0.07053643 -0.0645678 0.003083294 0.09664193 -0.044630505
-0.0057738707 0.124426775 0.055305835 -0.07879365 -0.33585462 0.04170813 0.04491033 -0.25428748
0.024637077 0.085810564 0.23670055 0.19494806 0.048705675 -0.11170012 -0.07506485 -0.117759116
-0.5854756 -0.43894467 -0.14599118 -0.03878113 -0.003426291 0.06636117 -0.10234646 0.059111502
0.08697539 -0.057102196 -0.07073992 -0.09471018 -0.084829286 -0.073387526 -0.015500242 -0.16083662
00000000: 7290 993d 52ed fd3d 9625 8f3d e138 2b3e
00000010: 35e7 653e 9fbf 063e 7d8d 5c3d b323 da3d
00000020: a250 033e 1dd5 123e 0829 fabd 0526 f2bd
00000030: d528 04be 7e45 a2bd 5f38 0fbd 13d2 293e
00000040: 4d01 21be e8e3 debd a682 debd 8443 a4be
00000050: cf9e 3cbe 6276 9fbb be6b 85be 74f7 24be
00000060: 3d8f 233d 1903 303d 92ba d5bd 0222 83bc
00000070: eb53 dfbd 177c c83d 9937 a63d 1f1f 7e3d
00000080: 4f21 df3d f0da 113d 0002 423d 02f6 553e
00000090: 8e08 14bc 13af ff3d ba74 0fbd 6783 8abd
000000a0: 0a53 183c f736 a13d f5c3 6d3c a74f 99be
000000b0: d3f7 72be 77e4 c53d 45ce 223d f281 813d
000000c0: 34c7 0fbe 1c11 91bd 1d7e a4bd 3879 43bd
000000d0: f853 f1be dfd6 f6bc dfe9 f03d 8462 9f3d
000000e0: 4444 1f3e 0856 9d3d 0b37 303d f600 d83d
000000f0: 78cb 5a3d ed13 dabc b283 4fbd 32ba 953d
00000100: 1347 b9bd 2b7a 863d 3435 b8bd 52b9 b3be
00000110: 5468 89bd 591b 8e3d 9a9c 16be 2e83 f8bd
00000120: 7e5f 97bc ca8f 013c e3f9 23be 6ebe 30be
00000130: 5abb 943d 3350 233e 04ab 2dbe fcc4 27bd
00000140: 6d12 bb3d 266b 0cbe b035 913c 5668 14be
00000150: 9480 b73b 6519 003d 2fa5 c6bc 6fd2 a9bd
00000160: 34e4 4d3d 62bd 553e 816c 7cbe 7f6d 2bbe
00000170: d602 94bd 5e54 2d3d d326 55bd de16 8838
00000180: e6e9 1e3e c217 493e 1feb 613e 9785 90be
00000190: 275a 19be 05b9 3ebd 78fb 11be 606b ad3d
000001a0: 632f b7bb 933c 91bd 2d29 02bd bd4b 74bc
000001b0: 384a 85be cd01 bfbe dd1e 72be 4b26 d63d
000001c0: 4c9a 053d 931c 97bc 2893 4c3e 0724 843e
000001d0: 4302 9f3e c0a2 80bd d073 d63c 83fc 17bc
000001e0: 6994 27be 1aef 783d 1e46 d4bd 19db b3bd
000001f0: 258d ca3a aee0 a7bd f5ba 3c3e d0c2 713e
00000200: b660 e23c c12c 483c d4ed 89bc e0b8 0bbe
00000210: de75 39be 0d36 80be 843d 72be d3c6 7fbb
00000220: 1563 49bc 1115 143e 67d2 67bd 51bb 183d
00000230: e601 493d a671 513d b2d2 16bc 1e69 ae3d
00000240: b7f0 c73d c793 ee3d 3ee1 553d b19c 77bd
00000250: a293 973c 8508 cdbd b665 92bc 9c68 d43c
00000260: 9322 3cbd 8a6d 213e 4671 903e c8bc 093e
00000270: 2333 03bc 2ac0 963d 9dc5 d33d 2c18 0abe
00000280: b13a a73c 8903 74bd edaf debd ea4f 9a3d
00000290: 8691 9ebd 95ad fbbd 5034 9b3d b53d 3abe
000002a0: 3ed6 f03c db88 1d3d 568e 6cbd 96ea 63bd
000002b0: 24e7 8e3c 50aa 253c 254f 8f3c 4bd0 0d3e
000002c0: 7ef5 613d 5587 7abb c07e ab3d eb04 7ebd
000002d0: 5d40 19bd 7efa 8f3d b3ea d0bd 4a75 7abc
000002e0: 2eea 4d3d 00e8 e9bc 05f4 89bc d29e 5fbd
000002f0: 6023 833d b547 2fbc 2927 e23c e409 423e
00000300: 8d86 13be 5507 913d 206c e83d 002e aabd
00000310: bcf4 84be 8e18 43be d8e3 d73d 8a0b 3fbe
00000320: f8b8 673d 6a76 413e eda2 cbbc c1cb 99bc
00000330: 5608 583d 4dcd 343d 2c0d 843d e116 823e
00000340: aca7 6d3e 1004 0a3e 1ec5 b0bc 7932 473e
00000350: 4e80 543d d34e b9bd ebf8 e93d faab 263d
00000360: fd65 1bbe d250 513c 0b84 7abd 6775 90bd
00000370: 1f3c 84bd 1711 4a3b 34ec c53d 7ace 36bd
00000380: bd32 bdbb 77d3 fe3d 5f88 623d 915e a1bd
00000390: 23f5 abbe 25d6 2a3d e5f3 373d f831 82be
000003a0: b2d3 c93c 73bd af3d a161 723e 77a0 473e
000003b0: 9a7f 473d 08c3 e4bd 9abb 99bd b12b f1bd
000003c0: bbe1 15bf 5bbd e0be b67e 15be f6d8 1ebd
000003d0: a08b 60bb 5de8 873d 059b d1bd e71e 723d
000003e0: 2720 b23d fee3 69bd 17e0 90bd 69f7 c1bd
000003f0: faba adbd 334c 96bd baf4 7dbc 5bb2 24be

rb2.conv1.bias f4 [20]
-2.9190736e-05 -3.6712177e-06 5.8705424e-05 5.085912e-05 -3.9049883e-05 9.0761205e-06 -3.6438983e-06 2.0614396e-05
1.9456496e-05 -7.747615e-05 1.09576295e-05 -1.5664371e-05 -1.3808068e-05 -7.639393e-06 -1.17926065e-05 -2.6070999e-05
-1.865518e-05 0.0001019846 5.10009e-05 -4.103593e-05
00000000: a1de f4b7 0a5f 76b6 783a 7638 9051 5538
00000010: 7ec9 23b8 a445 1837 b289 74b6 14ed ac37
00000020: 8236 a337 b17a a2b8 a9d6 3737 fb66 83b7
00000030: 33a9 67b7 f12a 00b7 dcd8 45b7 0bb3 dab7
00000040: b27d 9cb7 91e0 d538 cde9 5538 ff1d 2cb8

rb2.bn1.weight f4 [20]
0.8259606 0.8725206 0.8965023 1.0593705 1.0666267 0.73703295 0.9540802 0.84476966
0.68026614 0.8575867 0.7919677 1.0123273 1.0176953 0.9567059 0.92225426 1.0827179
0.90306187 0.88217336 0.9627347 0.9480537
00000000: 2772 533f 835d 5f3f 2d81 653f 7499 873f
00000010: 3987 883f 31ae 3c3f 9a3e 743f d342 583f
00000020: ec25 2e3f cd8a 5b3f 65be 4a3f f193 813f
00000030: d743 823f aeea 743f db18 6c3f 8096 8a3f
00000040: 102f 673f 1dd6 613f c875 763f a6b3 723f

rb2.bn1.bias f4 [20]
0.027042095 -0.15576859 0.11819214 -0.006777593 -0.27573636 -0.075617716 0.031939 0.15775676
-0.008277807 0.09376521 0.042061143 0.07102053 -0.08786518 0.031573616 -0.105332404 -0.07958092
0.13697368 0.0017600295 0.12257318 -0.092780456
00000000: 6287 dd3c cd81 1fbe b80e f23d 9216 debb
00000010: 512d 8dbe 76dd 9abd 78d2 023d fd8a 213e
00000020: a49f 07bc f907 c03d 4e48 2c3d 3673 913d
00000030: a9f2 b3bd 5653 013d 84b8 d7bd 52fb a2bd
00000040: d442 0c3e cab0 e63a a607 fb3d ae03 bebd

rb2.bn1.running_mean f4 [20]
-1.4388864 -0.17225266 -1.595677 -2.9422243 -1.1407262 0.052935243 -1.3195219 -1.4927143
1.2382197 -0.06288574 -0.3281315 -1.0613561 -2.593998 -0.55902356 -0.7528378 -1.8483999
-2.0502381 -0.42169678 -1.7996703 -0.14540458
00000000: 6e2d b8bf 0063 30be 253f ccbf 674d 3cc0
00000010: 5103 92bf a0d2 583d 18e6 a8bf 4311 bfbf
00000020: fc7d 9e3f 3dca 80bd da00 a8be 84da 87bf
00000030: 1004 26c0 2b1c 0fbf fab9 40bf 5e98 ecbf
00000040: 1a37 03c0 a4e8 d7be 995b e6bf f0e4 14be

rb2.bn1.running_var f4 [20]
1.8072023 1.5709836 1.8717713 2.8153899 2.2858632 1.4521676 2.2583358 2.418367
1.3453021 1.1681213 1.610285 2.2749264 2.5985596 2.0466444 1.5313104 2.63378
2.3149502 1.9506745 1.8599567 2.3130949
00000000: 6852 e73f fe15 c93f 3496 ef3f 592f 3440
00000010: 954b 1240 a1e0 b93f 9388 1040 86c6 1a40
00000020: dc32 ac3f 0085 953f d21d ce3f 6598 1140
00000030: cd4e 2640 39fc 0240 fb01 c43f da8f 2840
00000040: 2528 1440 b4af f93f 1013 ee3f bf09 1440

rb2.conv2.weight f4 [20, 20, 3, 3]
-0.0070934547 0.10180808 -0.055223968 0.01906377 0.018269649 -0.11731452 -0.029624293 -0.1378718
-0.06285749 -0.20743562 0.15821432 0.13861586 0.01893578 0.18224908 0.12571317 0.054840177
0.06662479 0.14607102 0.018175561 -0.0503036 0.0363284 0.1496501 0.053939708 -0.0036407423
0.003828163 -0.0047305557 -0.115739174 -0.18439405 -0.020136276 -0.14192961 -0.10475121 0.099105366
-0.2553835 -0.29106274 -0.048731703 -0.03925444 -0.1266884 -0.07475316 -0.10368367 0.009600631
0.012564449 -0.035732858 0.08174044 0.15975508 0.05651554 -0.15044898 -0.015802082 -0.07468408
-0.17268637 0.1497655 0.030773742 0.06853575 -0.023396919 0.02487153 -0.025576955 -0.016906299
-0.10904397 0.0935359 -0.0065211677 -0.09336746 -0.12356048 -0.15928108 0.029835999 -0.18852866
-0.075840995 -0.14234115 -0.040697966 -0.14000185 -0.15421171 -0.10631759 -0.21116994 0.07230194
0.17251118 -0.26024845 -0.22990254 0.2492786 0.046810888 -0.10743617 -0.0803198 0.029120976
0.11891843 0.050908774 -0.21384293 -0.22029309 0.0864201 -0.10491791 0.13511746 -0.0527788
0.07165799 0.28381893 0.014832354 0.019091323 -0.086066045 0.17898165 0.08071016 -0.072366826
0.078560166 -0.14987352 -0.27511236 0.0024644022 0.055218223 0.14487624 0.013112711 -0.05511842
0.12162122 -0.07996314 -0.10266383 -0.085049994 -0.03176188 0.05853158 -0.026955962 -0.1436234
-0.1486072 -0.11428565 -0.3090393 -0.17532094 -0.18825349 0.017683437 0.04921293 -0.004159575
0.123269975 -0.03091073 0.06968932 0.111284465 -0.006907649 -0.00452955 0.17790313 0.010436257
0.16299213 0.0018406188 -0.09964759 0.12600827 0.052419793 0.112297095 0.20027699 0.06565857
0.067588225 0.12917773 0.0018186559 0.0935327 0.08159281 0.024416417 -0.035218146 -0.21336143
0.06408829 0.002660294 0.04045726 0.061942175 0.11022432 0.04039948 -0.099150725 -0.04205584
0.0456186 0.061536897 -0.102657735 0.013188281 0.009768859 -0.15954785 0.043556668 -0.011384882
-0.03149982 -0.060728434 -0.13335818 -0.006970318 -0.013921772 -0.11652685 0.11973144 0.06263814
-0.24543108 -0.037523497 -0.11700652 0.23036626 0.05455194 0.09896955 0.059400886 0.087671906
0.156246 0.14498284 0.19353521 0.047771633 0.13030611 0.13024044 -0.1884304 -0.21625006
0.06980659 -0.11374168 -0.0007572524 -0.06809668 -0.12507205 -0.073890164 -0.23334917 -0.04839184
0.13169456 -0.032718267 0.06150725 0.07292721 0.062303305 0.0028835726 -0.08845617 -0.08305905
-0.06027915 -0.21721008 -0.08108293 -0.04393059 -0.03247323 0.045546915 0.0511317 -0.14839524
0.0072002527 -0.018926412 -0.14214398 0.08494629 -0.1175318 -0.22291945 -0.16238996 -0.16433443
-0.19320747 -0.13290015 -0.12242447 -0.0652597 0.008000514 -0.16369703 0.09654743 -0.069740795
-0.1208363 -0.061687365 -0.077200726 0.15909734 -0.22745551 -0.2177934 0.06411784 0.032051068
-0.022108344 0.08852872 -0.030339738 -0.03606758 0.15814881 -0.047654774 0.014084646 0.045929935
-0.01121585 0.11831478 -0.014219821 0.03919512 0.018241264 -0.21576777 0.063488625 0.1077488
-0.0835913 -0.028196372 -0.057052426 -0.12173673 -0.13466221 -0.05857859 -0.084569894 0.1021212
00000000: 3670 e8bb c180 d03d 8732 62bd a02b 9c3c
00000010: 3baa 953c 9842 f0bd a5ae f2bc 442e 0dbe
00000020: 6dbb 80bd 016a 54be ef02 223e 51f1 0d3e
00000030: 351f 9b3c 819f 3a3e f4ba 003e 18a0 603d
00000040: 9472 883d a493 153e eae4 943c 260b 4ebd
00000050: 17cd 143d e03d 193e e2ef 5c3d 8599 6ebb
00000060: ebe1 7a3b c702 9bbb a908 edbd cbd1 3cbe
00000070: d5f4 a4bc ff55 11be cd87 d6bd c1f7 ca3d
00000080: a0c1 82be 2d06 95be e59a 47bd 44c9 20bd
00000090: 9bba 01be 2f18 99bd 1b58 d4bd f74b 1d3c
000000a0: 1edb 4d3c 9e5c 12bd 8867 a73d d696 233e
000000b0: d77c 673d 4c0f 1abe 5e73 81bc f8f3 98bd
000000c0: b2d4 30be 215c 193e 3719 fc3c 795c 8c3d
000000d0: e5aa bfbc 61bf cb3c c386 d1bc 147f 8abc
000000e0: 7252 dfbd c08f bf3d 85af d5bb 7037 bfbd
000000f0: 470d fdbd 941a 23be a06a f43c a80d 41be
00000100: 8652 9bbd e1c1 11be e9b2 26bd a55c 0fbe
00000110: ade9 1dbe 09bd d9bd ef3c 58be 0a13 943d
00000120: c5a6 303e 493f 85be 926b 6bbe e442 7f3e
00000130: c6bc 3f3d 7f07 dcbd b57e a4bd 1d8f ee3c
00000140: 818b f33d b885 503d a4f9 5abe 8394 61be
00000150: 05fd b03d 34df d6bd 3b5c 0a3e 952e 58bd
00000160: 6dc1 923d b750 913e 6703 733c 6865 9c3c
00000170: 6543 b0bd f746 373e 5e4b a53d 0f35 94bd
00000180: 27e4 a03d 7278 19be 87db 8cbe cf81 213b
00000190: 812c 623d 705a 143e b2d6 563c dac3 61bd
000001a0: 8c14 f93d b7c3 a3bd 6a41 d2bd b12e aebd
000001b0: bf18 02bd cfbe 6f3d c0d2 dcbc 0312 13be
000001c0: 7c2c 18be 980e eabd 663a 9ebe 5587 33be
000001d0: 86c5 40be dbdc 903c 7f93 493d 0b4d 88bb
000001e0: f874 fc3d 8038 fdbc 46b9 8e3d 1ce9 e33d
000001f0: 8f59 e2bb 9f6c 94bb 3d2c 363e d6fc 2a3c
00000200: 69e7 263e eb40 f13a 0914 ccbd 5008 013e
00000210: 23b6 563d 05fc e53d 6915 4d3e 0078 863d
00000220: b26b 8a3d 2b47 043e f75f ee3a 128e bf3d
00000230: 221a a73d f004 c83c e740 10bd 6b7b 5abe
00000240: b940 833d 5458 2e3b 83b6 253d 14b7 7d3d
00000250: 4abd e13d ed79 253d 890f cbbd bf42 2cbd
00000260: 92da 3a3d 1d0e 7c3d 383e d2bd a913 583c
00000270: 900d 203c 8360 23be 7a68 323d a887 3abc
00000280: f505 01bd 61be 78bd 0c8f 08be 4467 e4bb
00000290: 2518 64bc a1a5 eebd c235 f53d 6d48 803d
000002a0: 4952 7bbe 3db2 19bd 1da1 efbd 22e5 6b3e
000002b0: db71 5f3d 8cb0 ca3d 584e 733d 548d b33d
000002c0: f4fe 1f3e 6276 143e 182e 463e 30ac 433d
000002d0: f76e 053e c05d 053e e6f3 40be a870 5dbe
000002e0: c2f6 8e3d 66f1 e8bd 5982 46ba 4676 8bbd
000002f0: e312 00be ba53 97bd 16f3 6ebe 8636 46bd
00000300: f0da 063e 9703 06bd 07ef 7b3d dc5a 953d
00000310: c031 7f3d 52fa 3c3b 8228 b5bd dd1a aabd
00000320: 45e7 76bd 526c 5ebe cf0e a6bd 90f0 33bd
00000330: a602 05bd 678f 3a3d 796f 513d ecf4 17be
00000340: 19f0 eb3b 900b 9bbc 318e 11be 52f8 ad3d
00000350: 83b4 f0bd ff44 64be 8e49 26be 4947 28be
00000360: 2ed8 45be fa16 08be aeb9 fabd e1a6 85bd
00000370: 9614 033c 32a0 27be a9ba c53d 43d4 8ebd
00000380: 0679 f7bd e4ab 7cbd 6a1b 9ebd 6aea 223e
00000390: 19ea 68be 3c05 5fbe 3750 833d fb47 033d
000003a0: 8f1c b5bc 8c4e b53d 0b8b f8bc 99bb 13bd
000003b0: c3f1 213e a731 43bd 49c3 663c 0721 3c3d
000003c0: afc2 37bc 054f f23d 41fa 68bc 108b 203d
000003d0: b46e 953c 3af2 5cbe 5306 823d 67ab dc3d
000003e0: ea31 abbd 14fc e6bc ceaf 69bd 1b51 f9bd
000003f0: e4e4 09be 1bf0 6fbd fb32 adbd eb24 d13d

rb2.conv2.bias f4 [20]
-2.2598448e-05 -8.8430206e-05 6.203865e-05 3.841733e-05 -1.3830372e-05 4.0471237e-05 -2.5662506e-05 0.00015032344
8.2973485e-05 4.3378983e-05 1.5874939e-06 3.81784e-05 -2.4634013e-05 -1.0627264e-05 -2.8549684e-06 2.5076137e-05
1.2072676e-05 -7.584433e-05 1.9903371e-05 4.037803e-05
00000000: cc91 bdb7 9b73 b9b8 bf1a 8238 4b22 2138
00000010: ff08 68b7 a9bf 2938 d045 d7b7 24a0 1d39
00000020: 0d02 ae38 d4f1 3538 e011 d535 bf21 2038
00000030: 24a5 ceb7 c04b 32b7 fc97 3fb6 985a d237
00000040: c08b 4a37 9d0e 9fb8 2af6 a637 945b 2938

rb2.bn2.weight f4 [20]
0.8535937 0.9280611 1.1968801 1.1169127 1.1952989 1.0873791 1.2468033 1.2222117
1.2400377 1.160167 1.1704376 1.0009733 1.1662816 1.0061117 1.103413 1.279265
1.3397685 1.2969033 1.1079574 0.8698669
00000000: 1e85 5a3f 6a95 6d3f 5e33 993f fff6 8e3f
00000010: 8eff 983f 3d2f 8b3f 4097 9f3f 6f71 9c3f
00000020: 8eb9 9e3f 5a80 943f e6d0 953f e51f 803f
00000030: b748 953f 45c8 803f a33c 8d3f f5be a33f
00000040: 897d ab3f ed00 a63f 8cd1 8d3f 99af 5e3f

rb2.bn2.bias f4 [20]
0.19386412 0.05333518 -0.18645877 -1.8399707e-05 -0.077548444 -0.16557965 0.09367509 -0.24230821
0.22016501 -0.1606265 0.050023004 -0.13516133 -0.009757641 0.05805246 -0.013472585 0.17283477
-0.027732532 -0.11924044 0.08834184 -0.2742732
00000000: 5184 463e fd75 5a3d 0cef 3ebe 1259 9ab7
00000010: b8d1 9ebd b68d 29be bad8 bf3d a51f 78be
00000020: f072 613e 467b 24be ece4 4c3d bb67 0abe
00000030: 83de 1fbc 6bc8 6d3d 1ebc 5cbc 99fb 303e
00000040: 562f e3bc 5534 f4bd 91ec b43d 896d 8cbe

rb2.bn2.running_mean f4 [20]
-0.65376854 -2.1166759 -1.11132 -1.1509471 -0.8222995 0.122200154 -1.2146376 0.424239
-2.9275453 -0.10500172 -0.93796587 0.02309171 -1.8437169 -0.5372874 0.24398431 -1.4372872
-2.7871335 -0.18979585 -2.445606 0.17475304
00000000: 605d 27bf 9e77 07c0 bc3f 8ebf 3c52 93bf
00000010: 3882 52bf 1344 fa3d 3f79 9bbf db35 d93e
00000020: e75c 3bc0 240b d7bd 881e 70bf d32a bd3c
00000030: eafe ebbf ab8b 09bf 06d7 793e 07f9 b7bf
00000040: 6560 32c0 d859 42be cf84 1cc0 76f2 323e

rb2.bn2.running_var f4 [20]
0.9539414 0.9744733 0.7364525 1.15172 0.70475113 1.1436636 1.1870966 0.6905866
1.2104912 0.91403186 0.84799165 0.76083136 0.6790646 1.1270529 1.3880706 1.0528957
0.95176315 1.1145854 0.96844923 0.6668576
00000000: 8135 743f 1577 793f 2788 3c3f 906b 933f
00000010: 926a 343f 9263 923f c8f2 973f 49ca 303f
00000020: 60f1 9a3f fefd 693f fb15 593f d8c5 423f
00000030: 2dd7 2d3f 4543 903f 4cac b13f 49c5 863f
00000040: c0a6 733f bcaa 8e3f 4aec 773f 2eb7 2a3f

rb2.shortcut.conv.weight f4 [20, 10, 1, 1]
-0.018336102 -0.077458434 -0.38411242 -0.09581728 0.5139662 -0.011600209 0.0028815623 -0.017192073
-0.013857952 -0.24092163 -0.061388418 0.11913937 -0.61139894 0.07002008 -0.16737352 -0.20594406
-0.023286154 -0.018327544 0.009807543 0.00033147406 -0.098647535 -0.11944072 -0.04025783 -0.021450758
0.055615295 0.38313913 0.15407975 0.11870804 -0.14595614 -0.3712911 -0.065582916 -0.0022407135
0.33022085 0.13309069 0.19182323 -0.14432003 0.25587597 0.21021605 0.42699635 -0.1395819
-0.120130695 0.04198501 0.060747676 0.43407428 0.06760024 -0.07546567 -0.029489636 -0.07827402
0.3587585 -0.105312504 0.27495396 0.18849082 -0.110338494 -0.36947346 -0.067929216 -0.07171465
0.1999123 -0.13769367 -0.13773932 -0.40552622 -0.11211983 0.15699439 0.01637815 -0.32866126
0.028873298 -0.37438312 -0.2664833 0.0690913 0.25847012 -0.07587925 0.1795759 0.18974748
0.005996118 -0.04495791 -0.15755741 -0.050987456 -0.29568556 0.05046598 -0.60250604 -0.19319382
-0.08968657 0.13399118 -0.08706343 -0.06482689 -0.7039303 -0.08671273 -0.0007019976 0.27721518
-0.09519826 0.00923841 -0.26180106 0.36481518 -0.15326136 -0.19857576 0.19058765 -0.120587245
-0.012988254 0.12894623 -0.0048550884 -0.3935579 -0.022465616 0.054503016 -0.42280403 0.26746505
-0.30809355 -0.1328881 0.26926202 0.0615036 0.13025498 0.058305483 0.006824846 -0.021843025
-0.32352498 0.25107542 0.26629984 0.23881616 -0.090508476 -0.0763765 0.14327072 -0.1994645
-0.09666601 -0.3551164 0.2241506 0.33342397 -0.09753532 -0.009133507 0.052012354 -0.1134185
-0.38471484 0.10193347 -0.05744041 -0.18930818 -0.117398866 -0.088105835 0.05125191 0.12106407
0.10424308 0.07979535 -0.6453111 -0.15113819 0.030947397 -0.25820848 -0.005693303 -0.1923289
-0.018941596 -0.3715311 -0.39920247 -0.08693634 -0.08948759 0.19002408 0.36848837 -0.34000036
0.23893756 0.11589088 -0.14366202 0.14118469 0.14559002 -0.12529323 -0.3027446 -0.0313099
0.15803604 0.3135955 -0.1358299 0.081563696 0.0034686127 0.27657986 0.20642725 0.11270039
0.09923829 -0.0004849804 0.056809098 0.078185625 -0.2786779 0.12713377 0.046106305 0.24919915
0.25188267 0.41555598 0.15434536 -0.1210905 0.034878097 0.09808601 -0.031001426 -0.26103902
-0.01576774 0.04540082 -0.0012890925 -0.3022458 -0.48712268 -0.047852583 -0.250275 -0.13384275
0.38037091 -0.0075133517 0.16677873 -0.072088815 0.0781573 -0.108445674 -0.21762542 0.097926214
00000000: 9835 96bc 87a2 9ebd 62aa c4be da3b c4bd
00000010: 4a93 033f ce0e 3ebc 98d8 3c3b 64d6 8cbc
00000020: 770c 63bc 29b4 76be 6c72 7bbd 58ff f33d
00000030: a484 1cbf b066 8f3d f763 2bbe 00e3 52be
00000040: 9bc2 bebc a523 96bc d1af 203c b2c9 ad39
00000050: b807 cabd 569d f4bd 65e5 24bd 80b9 afbc
00000060: ddcc 633d d02a c43e 15c7 1d3e 331d f33d
00000070: 8775 15be de19 bebe 5650 86bd efd8 12bb
00000080: b512 a93e ed48 083e 4f6d 443e a1c8 13be
00000090: 2d02 833e e042 573e 449f da3e 8fee 0ebe
000000a0: 1507 f6bd 79f8 2b3d 8ed2 783d fc3e de3e
000000b0: ff71 8a3d bf8d 9abd 4094 f1bc 214e a0bd
000000c0: 32af b73e 15ae d7bd c4c6 8c3e bd03 413e
000000d0: 26f9 e1bd a02b bdbe 791e 8bbd 21df 92bd
000000e0: cfb5 4c3e 92ff 0cbe 890b 0dbe 22a1 cfbe
000000f0: 159f e5bd 23c3 203e 782b 863c 4a46 a8be
00000100: b287 ec3c 25af bfbe 8070 88be bd7f 8d3d
00000110: 3256 843e 9566 9bbd bfe2 373e 2a4d 423e
00000120: 157b c43b c925 38bd bb56 21be 39d8 50bd
00000130: 1964 97be 6ab5 4e3d d63d 1abf 9ad4 45be
00000140: 98ad b7bd fc34 093e 504e b2bd f6c3 84bd
00000150: c734 34bf 7296 b1bd 4306 38ba 26ef 8d3e
00000160: 4ef7 c2bd b35c 173c ca0a 86be 0ec9 ba3e
00000170: 8cf0 1cbe 7257 4bbe 6929 433e 72f6 f6bd
00000180: b0cc 54bc 7b0a 043e 6f17 9fbb 6c80 c9be
00000190: d009 b8bc 8e3e 5f3d c579 d8be 2ef1 883e
000001a0: 70be 9dbe d113 08be b6dc 893e 33eb 7b3d
000001b0: 9061 053e bbd1 6e3d f5a2 df3b 25f0 b2bc
000001c0: 11a5 a5be f58c 803e 7458 883e 398c 743e
000001d0: 825c b9bd 486b 9cbd 8fb5 123e 6c40 4cbe
000001e0: d4f8 c5bd d1d1 b5be bc87 653e 8cb6 aa3e
000001f0: 99c0 c7bd b4a4 15bc e80a 553d f547 e8bd
00000200: 58f9 c4be 7fc2 d03d a346 6bbd 01da 41be
00000210: d16e f0bd d570 b4bd 86ed 513d 70f0 f73d
00000220: 657d d53d bf6b a33d 1c33 25bf f8c3 1abe
00000230: 6585 fd3c e733 84be e38e babb def1 44be
00000240: 682b 9bbc 5339 bebe 4464 ccbe ae0b b2bd
00000250: 4545 b7bd ac95 423e 82aa bc3e 8714 aebe
00000260: 0cac 743e 3358 ed3d 231c 13be b892 103e
00000270: 8d15 153e de4c 00be 5701 9bbe cf3e 00bd
00000280: 33d4 213e 978f a03e fe16 0bbe de0a a73d
00000290: aa51 633b e09b 8d3e aa61 533e 76cf e63d
000002a0: 723d cb3d f844 feb9 a8b0 683d c91f a03d
000002b0: dfae 8ebe 5b2f 023e f7d9 3c3d 102e 7f3e
000002c0: c4f6 803e c1c3 d43e b60c 1e3e 4cfe f7bd
000002d0: 56dc 0e3d 51e1 c83d b4f6 fdbc e8a6 85be
000002e0: 592b 81bc 36f6 393d c4f6 a8ba f6bf 9abe
000002f0: 2568 f9be 1201 44bd 0b24 80be 130e 09be
00000300: fabf c23e 9032 f6bb 0bc8 2a3e 4da3 93bd
00000310: ef10 a03d c418 debd 33d9 5ebe 8a8d c83d

rb2.shortcut.conv.bias f4 [20]
-3.8764312e-05 1.654417e-05 2.8721313e-05 -7.3975214e-05 -7.721845e-06 1.3109828e-05 1.0952151e-06 7.0173824e-05
1.7540176e-05 -1.6959517e-05 1.3250705e-05 7.77614e-05 1.1036769e-05 2.8934614e-05 -2.4203171e-05 1.7983817e-06
2.239365e-06 -6.0534694e-06 -1.0385131e-05 2.4527339e-05
00000000: dd96 22b8 56c8 8a37 8dee f037 2423 9bb8
00000010: 128d 01b7 48f2 5b37 4eff 9235 492a 9338
00000020: 3e23 9337 4944 8eb7 584f 5e37 d513 a338
00000030: 902a 3937 9cb8 f237 ea07 cbb7 ed5f f135
00000040: ff47 1636 e81e cbb6 cc3b 2eb7 0fc0 cd37

rb2.shortcut.bn.weight f4 [20]
0.95087093 0.69839734 0.91897374 0.5393355 0.68577546 0.6969368 0.55702984 0.7744754
0.8109882 0.8527579 0.5662394 0.6849652 0.49109676 0.8743912 1.0866761 0.4874452
0.6974364 0.5395072 0.3549052 0.73786986
00000000: 476c 733f 2bca 323f dd41 6b3f e411 0a3f
00000010: fb8e 2f3f 736a 323f 8299 0e3f 0544 463f
00000020: ec9c 4f3f 574e 5a3f 11f5 103f e159 2f3f
00000030: 0971 fb3e 1ad8 5f3f 3418 8b3f 6b92 f93e
00000040: 318b 323f 251d 0a3f 22b6 b53e 0ae5 3c3f

rb2.shortcut.bn.bias f4 [20]
0.19386412 0.05333518 -0.18645877 -1.8399707e-05 -0.077548444 -0.16557965 0.09367509 -0.24230821
0.22016501 -0.1606265 0.050023004 -0.13516133 -0.009757641 0.05805246 -0.013472585 0.17283477
-0.027732532 -0.11924044 0.08834184 -0.2742732
00000000: 5184 463e fd75 5a3d 0cef 3ebe 1259 9ab7
00000010: b8d1 9ebd b68d 29be bad8 bf3d a51f 78be
00000020: f072 613e 467b 24be ece4 4c3d bb67 0abe
00000030: 83de 1fbc 6bc8 6d3d 1ebc 5cbc 99fb 303e
00000040: 562f e3bc 5534 f4bd 91ec b43d 896d 8cbe

rb2.shortcut.bn.running_mean f4 [20]
-0.353985 -0.9191168 -0.10673267 1.0456038 0.41586858 -0.7074715 -0.56892365 -0.8662774
-0.6804793 -0.5494572 -0.16649769 0.08176458 -0.19451897 -0.75161314 -0.9347589 0.12616342
0.8742412 0.7709545 -0.8592456 0.06978245
00000000: 863d b5be 3d4b 6bbf a896 dabd 58d6 853f
00000010: baec d43e da1c 35bf fba4 11bf 5bc4 5dbf
00000020: e433 2ebf 3aa9 0cbf 5f7e 2abe 3074 a73d
00000030: fb2f 47be b869 40bf 5c4c 6fbf fc30 013e
00000040: 45ce 5f3f 465d 453f 85f7 5bbf 1aea 8e3d

rb2.shortcut.bn.running_var f4 [20]
0.5067285 0.46221486 0.34715194 0.5303041 0.41940984 0.4495339 0.35023004 0.5659312
0.3985207 0.30457917 0.48335016 0.3145915 0.247851 0.64190584 0.44805884 0.36755627
0.30343947 0.43238723 0.5294952 0.181231
00000000: f5b8 013f 6da7 ec3e e6bd b13e 02c2 073f
00000010: e3bc d63e 4f29 e63e 5a51 b33e dee0 103f
00000020: e80a cc3e cdf1 9b3e ac79 f73e 2312 a13e
00000030: a7cc 7d3e f153 243f f867 e53e 5630 bc3e
00000040: 6b5c 9b3e dc61 dd3e ff8c 073f 9f94 393e

res1_sc1.conv.weight f4 [20, 3, 1, 1]
-0.5501157 0.08714529 0.33272165 -0.24601334 0.5611556 -0.23521286 0.011748806 -0.30445784
-0.40096107 0.38925278 -0.34194532 -0.33432245 0.47577336 -0.13152853 0.22685821 -0.54869574
-0.3719836 0.32719707 -0.1832952 0.37269253 0.513675 0.36635792 -0.56347674 -0.32366392
0.16579433 0.5435112 -0.17509484 0.26897177 -0.25582024 -0.37015882 -0.09839316 -0.25306624
-0.38992324 0.14701681 -0.08729739 -0.4221846 -0.3598056 -0.20498447 -0.04881511 0.0043048915
-0.15472563 -0.48320374 -0.22226249 0.23469305 0.36652938 0.384611 0.16219872 -0.26007506
0.09442833 -0.33897233 0.055288453 0.057788014 -0.35476393 0.05274677 0.24782492 0.31233132
-0.08646666 -0.51993626 0.14841653 0.077138096
00000000: 62d4 0cbf 3b79 b23d 7e5a aa3e ecea 7bbe
00000010: e5a7 0f3f a4db 70be 107e 403c e6e1 9bbe
00000020: c54a cdbe 244c c73e 7513 afbe 502c abbe
00000030: 9198 f33e 6aaf 06be 854d 683e 5377 0cbf
00000040: a274 bebe 6086 a73e bdb1 3bbe 8ed1 be3e
00000050: 3480 033f 4493 bb3e 0340 10bf 47b7 a5be
00000060: fdc5 293e 8d23 0b3f 104c 33be abb6 893e
00000070: dffa 82be 7585 bdbe 5a82 c9bd e691 81be
00000080: 05a4 c7be 938b 163e f9c8 b2bd 9428 d8be
00000090: 7138 b8be 73e7 51be 5af2 47bd 0c10 8d3b
000000a0: 6570 1ebe 7b66 f7be c798 63be 6053 703e
000000b0: bda9 bb3e bceb c43e 6c17 263e 8f28 85be
000000c0: a463 c13d c88d adbe 2576 623d 20b3 6c3d
000000d0: 9ea3 b5be ff0c 583d d1c5 7d3e e4e9 9f3e
000000e0: 6f15 b1bd 8b1a 05bf 81fa 173e 94fa 9d3d

res1_sc1.conv.bias f4 [20]
4.889066e-05 -9.705412e-06 -2.3827284e-05 -5.9456823e-05 -5.8990613e-06 4.3906246e-05 7.665246e-05 4.019539e-05
-1.323865e-05 -1.8876548e-05 2.7168699e-05 -6.18846e-05 1.6771924e-05 8.606156e-05 5.1438787e-05 -9.773596e-05
0.00017029875 2.9135808e-05 1.8917712e-05 -0.00011831185
00000000: f20f 4d38 6dd4 22b7 b4e0 c7b7 4761 79b8
00000010: 8df0 c5b6 f927 3838 7ac0 a038 7997 2838
00000020: 921b 5eb7 1459 9eb7 56e8 e337 0bc8 81b8
00000030: 6fb1 8c37 f37b b438 fabf 5738 98f7 ccb8
00000040: 3992 3239 ac68 f437 7ab1 9e37 311e f8b8

res1_sc1.bn.weight f4 [20]
0.8274425 0.9214979 0.6833922 0.57339597 0.5271263 0.623535 0.55826825 0.60987127
0.62675834 0.65623677 0.59641707 0.5918026 0.49299517 0.61253464 0.65727466 0.38857985
0.5573244 0.4918663 0.43567812 0.81893736
00000000: 46d3 533f 49e7 6b3f cbf2 2e3f 14ca 123f
00000010: c0f1 063f fd9f 1f3f abea 0e3f 8620 1c3f
00000020: 3c73 203f 22ff 273f caae 183f 6080 173f
00000030: dd69 fc3e 12cf 1c3f 2743 283f f0f3 c63e
00000040: d0ac 0e3f e6d5 fb3e 3411 df3e e1a5 513f

res1_sc1.bn.bias f4 [20]
0.19386412 0.05333518 -0.18645877 -1.8399707e-05 -0.077548444 -0.16557965 0.09367509 -0.24230821
0.22016501 -0.1606265 0.050023004 -0.13516133 -0.009757641 0.05805246 -0.013472585 0.17283477
-0.027732532 -0.11924044 0.08834184 -0.2742732
00000000: 5184 463e fd75 5a3d 0cef 3ebe 1259 9ab7
00000010: b8d1 9ebd b68d 29be bad8 bf3d a51f 78be
00000020: f072 613e 467b 24be ece4 4c3d bb67 0abe
00000030: 83de 1fbc 6bc8 6d3d 1ebc 5cbc 99fb 303e
00000040: 562f e3bc 5534 f4bd 91ec b43d 896d 8cbe

res1_sc1.bn.running_mean f4 [20]
-0.031455237 9.8840566e-05 0.101832904 0.068805605 -0.05832364 0.016880564 -0.1175073 0.09141865
-0.036128893 0.074323796 0.10196418 0.074154675 0.053772613 0.10157728 -0.07460245 0.0038071321
0.01910177 0.023550566 -0.033381946 0.0054936577
00000000: 35d7 00bd a048 cf38 c58d d03d f4e9 8c3d
00000010: c5e4 6ebd 1c49 8a3c aba7 f0bd b339 bb3d
00000020: e4fb 13bd 1337 983d 99d2 d03d 68de 973d
00000030: ac40 5c3d c007 d03d 2bc9 98bd 1481 793b
00000040: 517b 9c3c 1eed c03c 82bb 08bd 2404 b43b

res1_sc1.bn.running_var f4 [20]
0.019899238 0.005679142 0.111430325 0.032328587 0.072107926 0.089930825 0.123312905 0.075562716
0.06580716 0.039169624 0.12363667 0.037471075 0.08256048 0.09532632 0.041107684 0.0254462
0.00920704 0.014335645 0.050541047 0.025788212
00000000: ba03 a33c 1918 ba3b 9535 e43d fb6a 043d
00000010: 52ad 933d a72d b83d 7a8b fc3d a0c0 9a3d
00000020: e8c5 863d 5470 203d 3935 fd3d 457b 193d
00000030: 7815 a93d 723a c33d 8860 283d 8d74 d03c
00000040: 20d9 163c 0ee0 6a3c 2104 4f3d cd41 d33c
