models/dense_max/epoch_0029.pth (torch, 645162 bytes, 174 tensors)

rb1.conv1.weight f4 [10, 3, 3, 3]
0	0xbda5058e	-0.080577
1	0x3da60eb0	0.0810827
2	0xbd9a1791	-0.07524026
3	0xbe6fb452	-0.2340863
4	0x3e8bd81d	0.2731332
5	0x3e394960	0.18094397
6	0xbe54223c	-0.20716184
7	0x3e3edbf1	0.18638588
8	0xbdf97ce4	-0.12182024
9	0xbe37fac8	-0.17966759
10	0x3c381595	0.011235614
11	0xbd2df140	-0.042466402
12	0xbe9dfec7	-0.30858442
13	0x3e937c67	0.2880585
14	0x3e2ae59e	0.16689155
15	0xbc85fae7	-0.016354991
16	0x3e8d3c02	0.27584845
17	0xbe67ca79	-0.22635831
18	0xbcb8aa79	-0.022542225
19	0x3ad6e1de	0.0016394218
20	0xbdc03668	-0.09385377
21	0xbe655031	-0.22393872
22	0x3d58c5a0	0.052922845
23	0x3bfd0e6d	0.007722667
24	0x3e038a35	0.1284569
25	0x3d8b7acc	0.06810531
26	0x3e0feb2e	0.14054558
27	0x3d75530a	0.059893645
28	0x3ca04849	0.019565718
29	0x3e251dc7	0.1612464
30	0x3d6a6f17	0.05723485
31	0x3e11439d	0.14185949
32	0xbeb84cf0	-0.359962
33	0xbd5b1ce8	-0.053494364
34	0x3d156647	0.036474492
35	0xbd9699a0	-0.073535204
36	0xbd0d6c6d	-0.03452723
37	0xbccb113f	-0.024788497
38	0xbbff7f0f	-0.007797129
39	0xbd22156a	-0.039571203
40	0x3edb90a8	0.428838
41	0xbe6cca84	-0.23124129
42	0xbd6997d6	-0.057029568
43	0x3da8c67d	0.08240984
44	0xbe03f4ca	-0.12886348
45	0xbe0ab63d	-0.13546081
46	0xbe311841	-0.17294408
47	0x3dfa0bfa	0.122093156
48	0x3c2ce014	0.010551471
49	0x3eb5747a	0.35440427
50	0xbe8a1238	-0.26967025
51	0xbb39de8b	-0.0028361406
52	0x3dc143ee	0.09436785
53	0x3d3f63cc	0.046726033
54	0x3cfeeec1	0.031119706
55	0x3e8cf1f3	0.27528343
56	0x3e3e3619	0.18575324
57	0xbe063887	-0.13107501
58	0xbd952d08	-0.0728398
59	0x3dc0230f	0.09381687
60	0xbd7540b8	-0.059876174
61	0xbe65b760	-0.22433233
62	0xba530a92	-0.00080505863
63	0x3e7a2b0c	0.24430484
64	0x3e791742	0.24325278
65	0x3ea15979	0.31513575
66	0x3b8eab96	0.0043539507
67	0xbe2efc90	-0.17088532
68	0xbde873ca	-0.1135021
69	0xbde138fb	-0.10997196
70	0xbe89a41b	-0.26883015
71	0xbe3a9b7e	-0.18223378
72	0x3d6727b3	0.056434345
73	0x3e2e16b6	0.17000851
74	0x3d72b21c	0.05925189
75	0xba45c50c	-0.0007544316
76	0xbd3422f7	-0.043978658
77	0xbdbf0c02	-0.09328462
78	0x3dcf2fef	0.101165645
79	0xbe532a92	-0.20621708
80	0xbe00fa13	-0.12595396
81	0xbe441ae3	-0.19150881
82	0x3d0e20d8	0.03469929
83	0xbe27a259	-0.16370524
84	0x3d935907	0.07194715
85	0xbe9bbe5e	-0.30418676
86	0xbe2a398b	-0.16623513
87	0x3d40d720	0.04708016
88	0x3dd42503	0.10358622
89	0x3e297f72	0.16552523
90	0xbdd6afbd	-0.10482738
91	0xbe1e44a8	-0.15455878
92	0xbe27ef3b	-0.16399853
93	0x3e59d7fe	0.212738
94	0xbe892458	-0.2678554
95	0xbdfc3c62	-0.123162046
96	0x3e8b64e1	0.27225402
97	0x3ce13312	0.027490173
98	0x3ce0a2bd	0.02742135
99	0xbd2c427f	-0.042055603
100	0x3cb3ee45	0.021964202
101	0xbe10102c	-0.14068669
102	0x3c32ba96	0.010908743
103	0xbe319733	-0.17342834
104	0xbe01179e	-0.12606665
105	0x3e3f620e	0.18689749
106	0x3c7b5cad	0.01534192
107	0x3e6a8e1c	0.22905773
108	0xbe7b1a0d	-0.24521656
109	0xbe6aead4	-0.22941142
110	0x3e44d246	0.19220838
111	0xbdb93265	-0.09042815
112	0xbe2b4429	-0.1672522
113	0x3e177082	0.14789012
114	0xbdefe1f2	-0.117130175
115	0xbbea8ffa	-0.0071582766
116	0x3e6a603f	0.22888277
117	0x3e6fca9a	0.2341713
118	0xbe5ea168	-0.21741259
119	0xbdb229b7	-0.08699363
120	0xbda0ca28	-0.07851058
121	0xbc1d90dd	-0.009617058
122	0x3e2cdcac	0.16881055
123	0x3dbdc2e0	0.09265685
124	0x3dfa442c	0.12220034
125	0x3e027907	0.12741481
126	0x3e86e571	0.26346925
127	0x3dac3fae	0.084105834
128	0xbd7f3e44	-0.06231524
129	0x3e601161	0.2188163
130	0x3d005839	0.031334136
131	0xbe8d917e	-0.27650064
132	0x3e14ded8	0.14538133
133	0x3c95f7a5	0.018306563
134	0xbe3c0d2f	-0.18364404
135	0xbe41c506	-0.18922815
136	0xbe191d13	-0.14952497
137	0x3e00ec34	0.12590104
138	0x3cb0d4a6	0.021585774
139	0xbe15abe4	-0.14616352
140	0xba5afb6a	-0.00083535037
141	0x3df6ff2b	0.12060388
142	0xbdb041d7	-0.08606308
143	0x3cd890a3	0.026436156
144	0x3d95d40c	0.07315835
145	0x3e3fa4ae	0.18715164
146	0x3e619b44	0.22031885
147	0xbd2c4953	-0.042062115
148	0xbee23e45	-0.44188133
149	0xbdfa999f	-0.12236332
150	0x3e35756f	0.17720579
151	0xbdf52121	-0.119692095
152	0xbea4a92a	-0.32160312
153	0x3c82977c	0.015941374
154	0xbda8f94a	-0.08250673
155	0x3e68c9dd	0.22733255
156	0xbdade7a2	-0.08491446
157	0xbe2ac995	-0.1667846
158	0x3be9381c	0.0071172845
159	0xbe6dc11d	-0.23218198
160	0xbeaa8a78	-0.33308768
161	0x3ccc6367	0.024949742
162	0xbcb55396	-0.022134583
163	0xbd18e283	-0.037325393
164	0x3dd12a27	0.10213118
165	0x3daad87a	0.08342071
166	0x3e4d5cbd	0.20054908
167	0xbdf1e26a	-0.11810763
168	0xbcc564df	-0.02409595
169	0xbd0e4f1d	-0.034743417
170	0x3cac7d66	0.021055888
171	0x3d82236a	0.06354411
172	0x3cdea30f	0.027177362
173	0x3d8cf90d	0.0688344
174	0x3e06ce56	0.13164648
175	0x3e971ced	0.29514256
176	0xbd7e10ab	-0.062027615
177	0x3ce53055	0.027977148
178	0x3d2a1d4b	0.041531842
179	0xbe3a5da0	-0.18199778
180	0xbe829910	-0.25507402
181	0xbe16e466	-0.14735565
182	0xbdc789fc	-0.09743115
183	0xbba8befb	-0.00514972
184	0x3defb390	0.11704171
185	0x3e18600c	0.14880389
186	0xbd9f21fe	-0.07770155
187	0x3eca3afe	0.39498132
188	0x3e8be198	0.27320552
189	0x3c763dc2	0.015029373
190	0xbe0e5259	-0.138986
191	0x3e491161	0.19635536
192	0xbe8688ee	-0.26276344
193	0xbd90eee8	-0.07076818
194	0x3d9829f8	0.0742988
195	0x3e6303ae	0.22169372
196	0xbd427bcd	-0.047481347
197	0x3e4e6c4b	0.20158498
198	0x3e01ecbf	0.12687968
199	0xbcb04f2b	-0.021522125
200	0x3e4c3f86	0.19946107
201	0xbe597ed6	-0.2123979
202	0xbec65984	-0.3874017
203	0xbbb8a96a	-0.00563543
204	0x3e1d5466	0.15364227
205	0x3e0ad2fe	0.1355705
206	0xbe816a16	-0.2527625
207	0xbdf01673	-0.11723032
208	0xbdb92067	-0.090393834
209	0x3d8ab0c7	0.06771999
210	0xbda239d4	-0.07921186
211	0xbe1a4ee8	-0.15069163
212	0x3ebce3c8	0.36892533
213	0x3e87ac95	0.26498857
214	0xbdb392cd	-0.087682344
215	0xbcf7b32c	-0.030236803
216	0xbe90ac7b	-0.28256592
217	0x3dd5adc3	0.10433533
218	0xbbb41054	-0.0054951105
219	0xbd096d72	-0.03355164
220	0x3e4463be	0.19178674
221	0x3e97195b	0.29511532
222	0xbc5b4fed	-0.013385755
223	0x3e1a0f54	0.1504491
224	0xbd616ba0	-0.05503428
225	0xbda40538	-0.08008808
226	0xbe10e1f0	-0.14148688
227	0xbe19a8d1	-0.15005805
228	0x3c621bb2	0.013800548
229	0x3dfd1d15	0.123590626
230	0xbd864b20	-0.06557298
231	0x3e78a747	0.24282561
232	0xbe949ed3	-0.29027423
233	0xbe5469cf	-0.20743488
234	0x3d822962	0.063555494
235	0x3dc6222e	0.09674488
236	0xbddbf784	-0.10740569
237	0x3de6a741	0.1126237
238	0x3e4e9872	0.20175341
239	0x3cbbc713	0.022922074
240	0x3d1bffcf	0.038085755
241	0x3c95e631	0.01829824
242	0xbe6c4580	-0.23073387
243	0x3e816ddc	0.2527913
244	0x3eeabf32	0.45848995
245	0x3e544e07	0.2073289
246	0x3e1ce095	0.15320046
247	0x3e9b7f2e	0.30370468
248	0x3d60eb48	0.05491188
249	0xbda6093f	-0.08107232
250	0xbe3b48f0	-0.18289542
251	0xbeae8a67	-0.34089968
252	0x3e33ecca	0.17570797
253	0x3e9c93f8	0.3058164
254	0x3d14930c	0.036273047
255	0xbd887b7f	-0.0666418

rb1.conv1.bias f4 [10]
0	0x38db1f79	0.00010448596
1	0x3888644d	6.503668e-05
2	0xb88c264c	-6.6828536e-05
3	0xb9001f09	-0.00012218593
4	0xb8605d84	-5.3492855e-05
5	0x38289100	4.0189363e-05
6	0xb809e694	-3.2878088e-05
7	0x3a16007b	0.00057221175
8	0x390ea3d5	0.00013603207
9	0xb68d5133	-4.2115803e-06

rb1.bn1.weight f4 [10]
0	0x3f4b8766	0.79503477
1	0x3f9e9c42	1.2391436
2	0x3f59d365	0.8508819
3	0x3f5ec675	0.8702157
4	0x3f133bc2	0.5751306
5	0x3f4cbfc1	0.79980093
6	0x3f2c9d7f	0.6742782
7	0x3f7d6831	0.9898711
8	0x3f53b041	0.8269082
9	0x3f2cc98f	0.67495054

rb1.bn1.bias f4 [10]
0	0x3ea479bb	0.32124123
1	0x3f9074a5	1.1285597
2	0x3bd7ce05	0.0065858387
3	0x3d16074e	0.03662806
4	0x3d4a3fb5	0.049377162
5	0xbca9ab93	-0.020711696
6	0xb91107f9	-0.00013831248
7	0x3f45836b	0.7715365
8	0x3f0af54f	0.5428056
9	0x3e014719	0.12624778

rb1.bn1.running_mean f4 [10]
0	0xbc27c82f	-0.010240599
1	0xbc0dd956	-0.008657774
2	0x3c688013	0.0141906915
3	0x3cc05e18	0.023482367
4	0xbd09384d	-0.03350096
5	0x3dd08dc7	0.10183292
6	0xbd888750	-0.06666434
7	0xbbda8d4e	-0.006669677
8	0xbc616908	-0.013757952
9	0xbca56dc6	-0.020193946

rb1.bn1.running_var f4 [10]
0	0x3d940d15	0.07229058
1	0x3d16b7a6	0.036796235
2	0x3e46b566	0.19405136
3	0x3e705e92	0.23473576
4	0x3d2851ad	0.041093517
5	0x3ed1e9d1	0.409987
6	0x3e579be0	0.21055555
7	0x3d5d52ce	0.054034047
8	0x3d1c588c	0.038170382
9	0x3ed19aa8	0.40938306

rb1.conv2.weight f4 [10, 10, 3, 3]
0	0xbca75f33	-0.020431137
1	0xbe42c450	-0.190202
2	0xbb55ff88	-0.003265353
3	0x3c915c07	0.017744077
4	0xbe11a4fb	-0.14223091
5	0xbd5bb159	-0.05363593
6	0x3c71fc28	0.014769591
7	0xbd4bbac8	-0.049738675
8	0xbce0a5fe	-0.027422901
9	0x3c7ab37d	0.015301582
10	0x3e34082c	0.17581242
11	0xbe84a8d5	-0.2591006
12	0xbe85b1d0	-0.26112223
13	0xbdb56672	-0.088574305
14	0x3e12b461	0.14326622
15	0x3e14dc43	0.14537148
16	0xbe573e8b	-0.21019952
17	0x3ca4d41b	0.020120671
18	0xbe060fcb	-0.13091962
19	0x3db523f9	0.08844752
20	0xbde3f969	-0.111315556
21	0x3bc6266a	0.00604706
22	0xbe4d2aca	-0.20035854
23	0xbe2d6d45	-0.16936214
24	0x3c89684c	0.016773365
25	0x3ddc5990	0.1075927
26	0x3e212533	0.15736847
27	0x3e1856e6	0.14876899
28	0x3e212bca	0.1573936
29	0x3e0166fb	0.1263694
30	0x3dd5c922	0.10438754
31	0x3de923ac	0.11383757
32	0x3cde13db	0.027109077
33	0xbe026f43	-0.12737755
34	0xbd9322b0	-0.071843505
35	0xbe70dea6	-0.23522434
36	0xbe0aef50	-0.13567853
37	0x3d484043	0.04888941
38	0xbd28c208	-0.041200668
39	0xbbc37ee8	-0.005966056
40	0xbdc5fa94	-0.096669346
41	0x3c9a357e	0.018824335
42	0xbd846404	-0.06464389
43	0xbc4d21ca	-0.012520263
44	0xbda1b401	-0.07895661
45	0x3daca8af	0.08430611
46	0x3e729254	0.23688632
47	0x3e2f0cd2	0.17094734
48	0xbccf8938	-0.025333986
49	0x3b845efc	0.0040396433
50	0xbd0dfac3	-0.034662973
51	0xbd56c812	-0.052436896
52	0x3d546bea	0.051860727
53	0x3e216e29	0.15764679
54	0xbd827132	-0.063692465
55	0xbd238124	-0.03991808
56	0xbdaa2aeb	-0.08308967
57	0xbdbb79af	-0.09154069
58	0xbe6fd2b4	-0.2342022
59	0xbda4de78	-0.08050245
60	0x3dc6738d	0.09690008
61	0x3d8d0183	0.06885054
62	0xbd805fa4	-0.06268242
63	0xbd2114cc	-0.039326474
64	0x3ddeaad2	0.10872425
65	0x3e8e9979	0.27851465
66	0xbd649d09	-0.055813823
67	0xbe827f29	-0.2548764
68	0xbec9108b	-0.39270434
69	0x3c763150	0.015026405
70	0x3e28a5ac	0.16469449
71	0x3dd6d4a4	0.10489777
72	0xbd32f386	-0.043689273
73	0xbe2a7dc2	-0.16649535
74	0xbdd5d508	-0.10441023
75	0x3df949e7	0.12172299
76	0x3d71c0ff	0.059021946
77	0x3dd94cad	0.10610328
78	0xbe4a69fd	-0.19766994
79	0xbc511381	-0.012760998
80	0xbd360dba	-0.044446684
81	0xbea4a46c	-0.32156694
82	0xbea1ef77	-0.3162801
83	0xbdeb9613	-0.11503234
84	0xbe34ce3a	-0.17656794
85	0xbd415dc4	-0.047208562
86	0xbd42c46b	-0.0475506
87	0xbe0bae41	-0.13640691
88	0xbda54950	-0.08070624
89	0x3d6a9cb3	0.057278346
90	0xbc4f96a4	-0.012670193
91	0xbdf0bba6	-0.11754541
92	0x3e0286ec	0.12746781
93	0x3c453409	0.012036332
94	0x3d8b3445	0.06797079
95	0x3e9fc37d	0.31203833
96	0xbd3fe2d5	-0.046847183
97	0x3e24c93c	0.1609239
98	0xbdbf13d7	-0.09329956
99	0x3ddd85c4	0.108165294
100	0x3daa2afc	0.0830898
101	0xbe2b85cb	-0.16750257
102	0x3e21cda8	0.15801108
103	0xbeee5a2b	-0.46553168
104	0x3d8054c1	0.062661655
105	0xbea03752	-0.31292206
106	0x3e025ec1	0.12731458
107	0x3e144e87	0.14483081
108	0x3c964caa	0.018347103
109	0x3e095491	0.13411166
110	0xbdd13d9b	-0.102168284
111	0xba756902	-0.00093616557
112	0xbe2d8a99	-0.16947402
113	0xbe1a79b0	-0.15085483
114	0x3ce48810	0.02789691
115	0xbdc12a7d	-0.09431932
116	0xbd5e898a	-0.054330386
117	0xbe667987	-0.22507297
118	0x3dd35944	0.103197604
119	0x3d4ae42b	0.049534004
120	0x3d88df0a	0.06683166
121	0xbd509ce3	-0.05093087
122	0xbdcf0b8e	-0.10109626
123	0x3bbcaa9a	0.005757642
124	0xbe47911a	-0.19488946
125	0xbc735f08	-0.0148542
126	0x3e3f7c64	0.18699795
127	0x3e6248f5	0.22098143
128	0x3d3fc7b2	0.046821304
129	0x3d984e0b	0.074367605
130	0xbcf2624b	-0.029587885
131	0xbdbb7eac	-0.0915502
132	0xbc93d145	-0.018044123
133	0xbe14f1ae	-0.14545318
134	0xbe261acc	-0.1622116
135	0xbda58124	-0.08081272
136	0xbdadae71	-0.08480538
137	0xbdb9abd7	-0.09065979
138	0xbd490853	-0.049080204
139	0xbd76e3b6	-0.060275756
140	0xbe00a08d	-0.12561245
141	0xbd988b14	-0.07448402
142	0xbe363d94	-0.17796928
143	0xbd74380b	-0.05962376
144	0x3dd3eaf8	0.10347551
145	0x3e23d313	0.15998487
146	0x3ddc1c85	0.10747627
147	0x3e1ca05d	0.15295549
148	0x3e357ee2	0.17724183
149	0x3dfb8525	0.12281255
150	0x3e17f803	0.14840703
151	0x3e3d1f55	0.18468983
152	0x3cf32b3b	0.0296837
153	0x3db5eb1e	0.08882736
154	0xbe8fad54	-0.28061926
155	0xbbd1ee2c	-0.006406566
156	0xbd48765d	-0.048941005
157	0xbe85a15a	-0.26099664
158	0x3e494b2d	0.19657584
159	0xbd2f4a50	-0.04279548
160	0x3e8437df	0.25823876
161	0xbc21a37f	-0.009865641
162	0x3dd9658f	0.10615074
163	0xbbc0316a	-0.0058652656
164	0xbe59810f	-0.21240638
165	0x3d07fbbb	0.033199053
166	0xbdd99a0e	-0.10625087
167	0x3e1f0a8c	0.15531367
168	0xbc29198b	-0.010321031
169	0x3e0f2ecb	0.13982694
170	0xbd0fe9ca	-0.035135068
171	0xbcede7d6	-0.029041212
172	0xbbba5670	-0.0056865737
173	0x3ca7b5b7	0.02047239
174	0x3d567cff	0.0523653
175	0xbcebc8cb	-0.028782269
176	0x3d1bcbfa	0.038036324
177	0xbd85d872	-0.06535424
178	0x3e1a4282	0.15064433
179	0x3d11e12f	0.035615142
180	0x3cec83aa	0.028871376
181	0xbea25b82	-0.3171044
182	0xbd81214f	-0.06305181
183	0x3c5d15ef	0.013493999
184	0xbd95396d	-0.07286344
185	0xbcb329cf	-0.021870522
186	0x3daaf02d	0.08346591
187	0x3d82808c	0.063721746
188	0x3d88da51	0.066822655
189	0xbd889655	-0.066692986
190	0xbe0e1616	-0.13875613
191	0x3c3e30f7	0.011608354
192	0xbd877c73	-0.06615534
193	0xbe1a8861	-0.15091087
194	0xbcfff55a	-0.031244922
195	0xbbbb57a2	-0.0057172338
196	0x3e12cc29	0.14335693
197	0x3e1ca7cd	0.15298386
198	0x3e85ec87	0.2615702
199	0x3d41b1c2	0.047288664
200	0x3d3195f9	0.043355916
201	0x3eb5753c	0.35441005
202	0x3d760c1f	0.060070153
203	0xbe245e40	-0.16051579
204	0x3dab60eb	0.08368095
205	0xbde4e036	-0.11175577
206	0xbd460920	-0.048348546
207	0x3dc71042	0.09719898
208	0x3d6345ac	0.055486366
209	0x3a888f08	0.0010418603
210	0x3b83ffed	0.0040283115
211	0x3d2e9f7f	0.042632576
212	0x3b0d95fb	0.0021604288
213	0x3e8ec4b7	0.27884457
214	0xbc666878	-0.014062993
215	0x3cc5ce9d	0.024146372
216	0x3dd4de30	0.103939414
217	0x3df21f9f	0.118224375
218	0x3ce1fd1c	0.027586512
219	0x3e746dca	0.23870006
220	0x3d990995	0.07472531
221	0x3d128c45	0.035778303
222	0x3db1e769	0.08686716
223	0x3d3d5d7b	0.046231728
224	0x3c05ee8b	0.008174549
225	0x3e5b4d4c	0.21416205
226	0x3e670999	0.22562255
227	0x3e3407e4	0.17581135
228	0x3e372b8c	0.17887706
229	0x3dbc8262	0.09204556
230	0x3d2e1867	0.04250374
231	0x3d17976d	0.037009645
232	0x3d1eee37	0.038801398
233	0xbddbebba	-0.10738321
234	0x3c8c0e18	0.017096564
235	0xbd40875e	-0.047004096
236	0xbdef22fe	-0.11676596
237	0x3caee01c	0.021347098
238	0xbd3a0ec5	-0.04542424
239	0xbde4f4fd	-0.1117954
240	0x3cd5b3d7	0.02608673
241	0xbc1c1a50	-0.009527758
242	0xbdef4878	-0.11683744
243	0x3e2d9bb7	0.16953932
244	0x3de08912	0.10963644
245	0xba4dcf97	-0.00078510627
246	0x3d968621	0.07349802
247	0x3da83cf9	0.082147546
248	0xbc57a5c9	-0.013162085
249	0xbde989e2	-0.11403252
250	0x3cc35c88	0.023847833
251	0xbd62c7aa	-0.055366196
252	0x3e8fe50d	0.2810444
253	0x3e9503ad	0.29104367
254	0xbd81bb2d	-0.06334529
255	0x3e4a7cf4	0.19774228

rb1.conv2.bias f4 [10]
0	0x35b1fb47	1.3260659e-06
1	0x382cdc06	4.121291e-05
2	0xb6d6d5af	-6.402573e-06
3	0x38a83c64	8.022113e-05
4	0xb8a984ba	-8.08327e-05
5	0xb80daaab	-3.3775967e-05
6	0xb837e3fa	-4.384292e-05
7	0x37735bc6	1.4505296e-05
8	0x376545c9	1.3665712e-05
9	0x37bd058f	2.2533144e-05

rb1.bn2.weight f4 [10]
0	0x3f84decb	1.0380491
1	0x3f915d13	1.1356529
2	0x3f4e950b	0.8069617
3	0x3f8d8353	1.1055702
4	0x3f3b199a	0.7308594
5	0x3f89819f	1.0742682
6	0x3fa9de2d	1.3270928
7	0x3f88b400	1.0679932
8	0x3f8e6d34	1.1127076
9	0x3f5c42cd	0.8603943

rb1.bn2.bias f4 [10]
0	0x3d7ce5ef	0.06174272
1	0xbd82177e	-0.06352137
2	0x3e92bab8	0.2865808
3	0xbcb7e631	-0.022448631
4	0x3e84577b	0.25847992
5	0x3dc4652b	0.09589609
6	0xbc86566b	-0.01639863
7	0x3dcefd9e	0.101069674
8	0x3d70ebe4	0.058818713
9	0x3e908871	0.28229097

rb1.bn2.running_mean f4 [10]
0	0xbf9ffc82	-1.2498934
1	0xbe8ecb72	-0.2788959
2	0x3f4b952b	0.7952449
3	0xbd0230c5	-0.03178479
4	0xbf1cdbf5	-0.6127313
5	0xbe32daad	-0.1746623
6	0xbf19932d	-0.599902
7	0xbe90e893	-0.2830244
8	0x3db518ed	0.08842645
9	0x3fca5d2b	1.5809683

rb1.bn2.running_var f4 [10]
0	0x3fc28041	1.519539
1	0x3fa20b15	1.2659632
2	0x3f79864a	0.97470534
3	0x3fc6d354	1.5533242
4	0x3f60f3ee	0.8787221
5	0x3fd0d59f	1.6315192
6	0x4002dc9a	2.0447145
7	0x3fcbf502	1.5934145
8	0x3ff3f886	1.9060218
9	0x3fd67b47	1.6756371

rb1.shortcut.conv.weight f4 [10, 3, 1, 1]
0	0x3ee751cc	0.45179594
1	0x3c27da72	0.0102449525
2	0x3eac1ee3	0.33617315
3	0xbea6fe38	-0.3261583
4	0xbf0c9867	-0.5492005
5	0xbebe0727	-0.37114832
6	0x3ebdb819	0.37054518
7	0xbeb5b4db	-0.35489544
8	0x3dd53697	0.10410803
9	0xbef0f5d6	-0.47062558
10	0xbf33cc37	-0.7023348
11	0x3e2d9c03	0.16954045
12	0xbdd78b9f	-0.105246775
13	0xbe4b4b39	-0.19852914
14	0x3f13966f	0.5765142
15	0x3ec01021	0.37512305
16	0x3e12e60a	0.14345565
17	0x3ef628a4	0.4807788
18	0xbebb3d8a	-0.36570388
19	0xbeae9248	-0.3409598
20	0xbea5b27e	-0.3236274
21	0xbe916bc7	-0.2840254
22	0xbf33cfe8	-0.70239115
23	0x3e8685ba	0.262739
24	0xbe99ce9d	-0.30040446
25	0xbf05c667	-0.5225586
26	0xbd8a95a3	-0.06766822
27	0xbe9111c1	-0.28333858
28	0x3d670cf8	0.056408852
29	0xbf15adce	-0.5846833

rb1.shortcut.conv.bias f4 [10]
0	0x388a754e	6.6022025e-05
1	0x384d1e2d	4.8903912e-05
2	0xba23bdfb	-0.0006246266
3	0x38c6225a	9.447774e-05
4	0xb2957780	-1.7400225e-08
5	0x380c3c8c	3.343499e-05
6	0x37cb249c	2.4216533e-05
7	0xb8a0cb43	-7.667255e-05
8	0x38b06658	8.411397e-05
9	0x38a0313f	7.638567e-05

rb1.shortcut.bn.weight f4 [10]
0	0x3f79472a	0.9737421
1	0x3f6a1d9f	0.9145145
2	0x3f806100	1.0029602
3	0x3f647228	0.8923669
4	0x3f91a69b	1.1378969
5	0x3f6f80d1	0.93555933
6	0x3f14150d	0.5784462
7	0x3f2deaa1	0.6793614
8	0x3f64a82d	0.89319116
9	0x3f67761b	0.9041459

rb1.shortcut.bn.bias f4 [10]
0	0x3d7ce5ef	0.06174272
1	0xbd82177e	-0.06352137
2	0x3e92bab8	0.2865808
3	0xbcb7e631	-0.022448631
4	0x3e84577b	0.25847992
5	0x3dc4652b	0.09589609
6	0xbc86566b	-0.01639863
7	0x3dcefd9e	0.101069674
8	0x3d70ebe4	0.058818713
9	0x3e908871	0.28229097

rb1.shortcut.bn.running_mean f4 [10]
0	0xbd5cd1b6	-0.053910933
1	0x3da04b65	0.0782688
2	0xbc061ffc	-0.008186337
3	0x3cc00d4f	0.023443846
4	0xbd6ed9e2	-0.058313258
5	0xbd99de44	-0.07513097
6	0x3d8415dc	0.06449482
7	0x3bdc793f	0.006728321
8	0x3d21fd02	0.039547928
9	0x3d9ca5a0	0.07648778

rb1.shortcut.bn.running_var f4 [10]
0	0x3e16fbe4	0.14744526
1	0x3eb973d4	0.36221182
2	0x3be88feb	0.0070972345
3	0x3e804a93	0.25056896
4	0x3d0308c6	0.03199079
5	0x3e6ce44b	0.23133962
6	0x3e7c2715	0.24624284
7	0x3e0c4493	0.13698034
8	0x3e409680	0.18807411
9	0x3e1fa462	0.15590051

rb2.conv1.weight f4 [20, 10, 3, 3]
0	0x3d9ce4c5	0.07660822
1	0x3e04f5ef	0.12984441
2	0x3d9976bb	0.07493349
3	0x3e271559	0.16316737
4	0x3e69ef20	0.22845125
5	0x3dddd119	0.10830898
6	0x3d3a287e	0.045448773
7	0x3dd60dd9	0.1045186
8	0x3e01e02d	0.12683173
9	0x3e141d67	0.14464341
10	0xbdf9dc01	-0.122001655
11	0xbe0150b6	-0.12628445
12	0xbe04e62e	-0.12978432
13	0xbda66a41	-0.08125735
14	0xbd00a843	-0.031410467
15	0x3e19c53a	0.15016642
16	0xbe1b4bc6	-0.15165624
17	0xbdccead3	-0.10005727
18	0xbdc01fef	-0.09381091
19	0xbea0a7d0	-0.3137803
20	0xbe3622d1	-0.17786719
21	0x3b846c05	0.0040411972
22	0xbe82fec9	-0.2558501
23	0xbe212d82	-0.15740016
24	0x3d458b69	0.048228655
25	0x3d58afe9	0.052902136
26	0xbdc51591	-0.09623254
27	0xbcbc597d	-0.02299189
28	0xbdeec373	-0.11658373
29	0x3dca0dbd	0.098659016
30	0x3db7e315	0.08978859
31	0x3d8b2aa0	0.067952394
32	0x3de362ae	0.11102806
33	0x3d2d3e2c	0.04229562
34	0x3d2da20e	0.042390876
35	0x3e5bbd0f	0.21458839
36	0xba84b5d3	-0.0010124989
37	0x3e081c2d	0.13291998
38	0xbcdb5b05	-0.0267768
39	0xbd819fbc	-0.06329295
40	0x3c548c72	0.012972938
41	0x3da93c2b	0.08263429
42	0x3cbb16cd	0.02283802
43	0xbe97cf48	-0.2965033
44	0xbe6cae1b	-0.23113291
45	0x3dc9b8e8	0.09849721
46	0x3d3b2e74	0.045698598
47	0x3d963496	0.07334249
48	0xbe10640f	-0.1410067
49	0xbd90f44f	-0.07077848
50	0xbdb7ba43	-0.089710735
51	0xbd346b11	-0.04404742
52	0xbeef6a3e	-0.46760744
53	0xbd19801b	-0.037475687
54	0x3de57409	0.112037726
55	0x3dae584a	0.085129336
56	0x3e21673b	0.15762036
57	0x3d8a8ba5	0.06764916
58	0x3d06b0ca	0.032883443
59	0x3dfb3791	0.12266458
60	0x3d52b529	0.0514423
61	0xbd17ae0f	-0.03703123
62	0xbd2f2cbf	-0.042767283
63	0x3d99fbf6	0.07518761
64	0xbdc088b8	-0.09401077
65	0x3d76e4c3	0.060276758
66	0xbdadd475	-0.084877886
67	0xbeb25c41	-0.3483601
68	0xbd73555c	-0.059407577
69	0x3d6eea22	0.058328755
70	0xbe1921e3	-0.14954333
71	0xbde8301d	-0.11337302
72	0xbc5f36e0	-0.013623923
73	0x3c6e4fc0	0.014545381
74	0xbe2a8276	-0.1665133
75	0xbe2e2890	-0.17007661
76	0x3d9585d0	0.07300913
77	0x3e2765f6	0.16347489
78	0xbe26cf2b	-0.16289966
79	0xbd0fb97d	-0.035089005
80	0x3dbbd31f	0.091711275
81	0xbe092bea	-0.13395658
82	0x3c9473a5	0.01812155
83	0xbe1787a1	-0.14797832
84	0xbad3ba13	-0.0016153477
85	0x3d050aee	0.032481126
86	0xbceb8477	-0.028749688
87	0xbda843a3	-0.08216026
88	0x3d5ed1b7	0.05439922
89	0x3e5fd092	0.21856907
90	0xbe7d560d	-0.24739857
91	0xbe2ce761	-0.16885139
92	0xbd8f678c	-0.07002172
93	0x3d37b0bf	0.044846293
94	0xbd36152c	-0.044453785
95	0x3b9931f4	0.0046751443
96	0x3e27345a	0.16328564
97	0x3e44fb9c	0.19236606
98	0x3e64b436	0.2233437
99	0xbe90d73d	-0.28289214
100	0xbe0b769a	-0.13619462
101	0xbd11f593	-0.03563459
102	0xbe0ef977	-0.13962351
103	0x3dbcd5cd	0.09220467
104	0xbb6fb66e	-0.0036577242
105	0xbd9145bd	-0.0709338
106	0xbceccbfd	-0.028905863
107	0xbbf70206	-0.007538083
108	0xbe8686c1	-0.26274684
109	0xbec4d369	-0.38442543
110	0xbe79e5b8	-0.24404037
111	0x3dcb5ed4	0.099301964
112	0x3cbd7b2a	0.023130018
113	0xbcd0d1dd	-0.025490696
114	0x3e4949ca	0.19657055
115	0x3e836951	0.25666288
116	0x3e9ee807	0.31036398
117	0xbd8c7abf	-0.068593495
118	0x3caf77b4	0.021419384
119	0xbcaaf59e	-0.020869073
120	0xbe22ffa3	-0.1591783
121	0x3d815a12	0.06316008
122	0xbdcf9581	-0.101359375
123	0xbda91feb	-0.08258041
124	0x3b1da5f0	0.0024055205
125	0xbd9ea6b3	-0.07746639
126	0x3e3cc60d	0.18434925
127	0x3e758e1a	0.23979989
128	0x3cafd2d4	0.021462835
129	0x3c058272	0.008148776
130	0xbc56e621	-0.01311639
131	0xbe06e845	-0.13174541
132	0xbe39c976	-0.18143257
133	0xbe7b5353	-0.24543504
134	0xbe67fedf	-0.2265582
135	0xbb430d1c	-0.0029762452
136	0xbcc7999b	-0.024365237
137	0x3e1123ca	0.14173809
138	0xbd6ee20c	-0.058321044
139	0x3d396165	0.0452589
140	0x3d467af2	0.048457094
141	0x3d32470a	0.04352478
142	0xbb1a2fa6	-0.0023526936
143	0x3dafacfa	0.085779145
144	0x3dbcbaca	0.09215315
145	0x3de6c8a5	0.11268739
146	0x3d39a885	0.04532673
147	0xbd841d8f	-0.0645095
148	0x3c721c82	0.014777305
149	0xbde4675c	-0.11152527
150	0xbc940a13	-0.01807121
151	0x3cb4d2c8	0.022073165
152	0xbd444eec	-0.04792683
153	0x3e176312	0.14783886
154	0x3e91eb7c	0.28499973
155	0x3e02aec5	0.12761982
156	0xbc425185	-0.011860256
157	0x3da121a8	0.078677475
158	0x3dcd9454	0.10038057
159	0xbe094dcc	-0.13408583
160	0x3c853097	0.016258521
161	0xbd637fe2	-0.05554188
162	0xbddea0d4	-0.10870519
163	0x3d97e0ff	0.074159615
164	0xbd978fdf	-0.07400488
165	0xbdebab2c	-0.11507258
166	0x3da3e05b	0.08001777
167	0xbe335776	-0.17513832
168	0x3cd5630f	0.026048211
169	0x3d0bd186	0.034135364
170	0xbd756194	-0.05990751
171	0xbd8025cb	-0.062572084
172	0x3c65875a	0.014009321
173	0x3ca73905	0.020412931
174	0x3c947b3d	0.01812517
175	0x3e0f4ea0	0.13994837
176	0x3d5ee732	0.054419704
177	0xbc594ea1	-0.0132633755
178	0x3d9fdc32	0.07805671
179	0xbd80ef96	-0.062956974
180	0xbd076b0a	-0.033061065
181	0x3d972a2b	0.0738109
182	0xbdd53deb	-0.104122005
183	0xbcd2229d	-0.02565127
184	0x3d3a1cf8	0.045437783
185	0xbd16ed03	-0.036847126
186	0xbcca88db	-0.02472346
187	0xbd574c25	-0.05256285
188	0x3d619cd9	0.055081222
189	0xbc689ca5	-0.014197503
190	0x3cb54876	0.022129279
191	0x3e3bf7bf	0.18356226
192	0xbe1cf12a	-0.15326372
193	0x3d92addb	0.071620665
194	0x3de73c97	0.112908535
195	0xbdb70ded	-0.08938203
196	0xbe860c77	-0.26181385
197	0xbe3d26db	-0.18471853
198	0x3dd46f01	0.10372735
199	0xbe404d91	-0.18779589
200	0x3d6c70b5	0.057724673
201	0x3e41ff69	0.18945087
202	0xbccd57fc	-0.025066368
203	0xbc9349b2	-0.017979477
204	0x3d51584b	0.051109593
205	0x3d379eae	0.044829063
206	0x3d7d7089	0.0618749
207	0x3e781b6f	0.24229215
208	0x3e6c99cf	0.23105548
209	0x3e02c2c8	0.12769616
210	0xbd1da11a	-0.038483717
211	0x3e4571a7	0.19281636
212	0x3d2acb75	0.041697938
213	0xbdae7e01	-0.08520127
214	0x3de0152a	0.10941537
215	0x3d0ccec7	0.034376886
216	0xbe23142d	-0.15925665
217	0x3c28e2ed	0.01030801
218	0xbd83357b	-0.06406685
219	0xbd9bdb7c	-0.07610223
220	0xbd8e7513	-0.06955924
221	0xbb54a716	-0.0032448224
222	0x3dcee0d7	0.101014785
223	0xbd400aca	-0.04688529
224	0xbbbf749f	-0.0058427597
225	0x3dff4c4a	0.12465723
226	0x3d353532	0.044240184
227	0xbdb3d13c	-0.08780143
228	0xbea665ff	-0.32499692
229	0x3d368f01	0.044569973
230	0x3d248e6f	0.040174898
231	0xbe812ac1	-0.2522793
232	0x3cf94e36	0.030432802
233	0x3da9c98a	0.08290394
234	0x3e6e04fb	0.23244087
235	0x3e3702f2	0.17872217
236	0x3d1b6088	0.037933856
237	0xbdcf80d7	-0.10131996
238	0xbd9b02e7	-0.07568913
239	0xbdeffcc5	-0.11718134
240	0xbf18e332	-0.5972167
241	0xbee645e3	-0.44975194
242	0xbe100645	-0.14064892
243	0xbd4465c3	-0.04794861
244	0x3b61de11	0.0034464637
245	0x3d701090	0.058609545
246	0xbddc9863	-0.10771253
247	0x3d781680	0.060568333
248	0x3da37421	0.07981134
249	0xbd757ea2	-0.05993522
250	0xbda566a1	-0.080762155
251	0xbdc2a56c	-0.09504208
252	0xbdb5d31b	-0.08878156
253	0xbd989b33	-0.07451477
254	0xbc93cd50	-0.018042237
255	0xbe2bf35a	-0.1679205

rb2.conv1.bias f4 [20]
0	0x37763633	1.4675362e-05
1	0xb62a7795	-2.540158e-06
2	0xb790eb12	-1.72756e-05
3	0x36d2a995	6.2782296e-06
4	0x380d2991	3.365573e-05
5	0x3700a1d1	7.66707e-06
6	0x36ec8bd7	7.0496276e-06
7	0x372a9e3c	1.0169631e-05
8	0x378bb7bb	1.6655647e-05
9	0x37c149dd	2.3041788e-05
10	0x36a39cf9	4.8760526e-06
11	0x37ea8fa3	2.796186e-05
12	0xb800e183	-3.0727602e-05
13	0xb7663e5e	-1.3723589e-05
14	0x374be3cc	1.2152781e-05
15	0xb7745ac4	-1.4564666e-05
16	0x36b27125	5.317985e-06
17	0x388b3b84	6.639122e-05
18	0x382b0427	4.0773444e-05
19	0xb7e5c961	-2.7392702e-05

rb2.bn1.weight f4 [20]
0	0x3f545ea3	0.82956904
1	0x3f5e56ba	0.86851084
2	0x3f64b5db	0.8933999
3	0x3f85cde5	1.0453459
4	0x3f889bac	1.0672507
5	0x3f3d49b1	0.7394057
6	0x3f7389ba	0.9513203
7	0x3f58025f	0.8437862
8	0x3f2ee16c	0.68312716
9	0x3f5b9c27	0.85785145
10	0x3f47e43b	0.7808263
11	0x3f81e452	1.0147803
12	0x3f818324	1.0118146
13	0x3f75ec15	0.9606336
14	0x3f6b23ec	0.9185169
15	0x3f8a11e2	1.0786707
16	0x3f64bb2a	0.8934809
17	0x3f618d30	0.8810606
18	0x3f73ff12	0.9531108
19	0x3f719e32	0.9438201

rb2.bn1.bias f4 [20]
0	0x3d170721	0.036872033
1	0xbe203f4b	-0.15649144
2	0x3e0142b5	0.12623103
3	0xbb8f2c68	-0.0043693073
4	0xbe8ffd7f	-0.2812309
5	0xbd7e1920	-0.06203568
6	0x3d02cc5f	0.031933185
7	0x3e2e0cfa	0.16997138
8	0xbbbc7e40	-0.005752355
9	0x3dba0091	0.09082139
10	0x3d2f86a0	0.042852998
11	0x3d84c8d7	0.0648362
12	0xbdbcc893	-0.09217944
13	0x3d007755	0.031363804
14	0xbdd27988	-0.102770865
15	0xbd9a98a1	-0.07548643
16	0x3e0b519a	0.13605347
17	0x3bfe92f8	0.007768985
18	0x3e019897	0.12655865
19	0xbdb4d74f	-0.08830129

rb2.bn1.running_mean f4 [20]
0	0xbfa72eff	-1.3061217
1	0xbe654849	-0.22390856
2	0xbfdb3f78	-1.7128744
3	0xc04018a8	-3.001505
4	0xbf9bf3ef	-1.2183818
5	0x3e0c0d25	0.13676889
6	0xbfabfc8a	-1.3436444
7	0xbfbddcf2	-1.4833052
8	0x3fa0ea4e	1.2571504
9	0xbe73ca31	-0.23807599
10	0xbeb21a19	-0.34785536
11	0xbf8caccd	-1.0990235
12	0xc01cf80b	-2.4526393
13	0xbf2e8680	-0.6817398
14	0xbf546180	-0.82961273
15	0xbfe56ada	-1.7923234
16	0xc0038375	-2.0548985
17	0xbea48bfb	-0.32138047
18	0xbfe19157	-1.7622479
19	0xbe1a4477	-0.1506518

rb2.bn1.running_var f4 [20]
0	0x3fd65c41	1.6746904
1	0x3fc88a6a	1.5667241
2	0x3ff074ee	1.8785684
3	0x40325996	2.786718
4	0x401417a0	2.313942
5	0x3fb39666	1.4030273
6	0x400fbbd3	2.2458389
7	0x4017b484	2.3703928
8	0x3fb4c5b2	1.4122832
9	0x3f9a9378	1.2076254
10	0x3fc1d8aa	1.5144246
11	0x4011a78e	2.2758517
12	0x401bfb2d	2.4372056
13	0x4007034f	2.109577
14	0x3fc218e1	1.5163842
15	0x40261d81	2.5955508
16	0x40186234	2.3809938
17	0x3febf075	1.8432757
18	0x3ff107e6	1.8830535
19	0x400749dd	2.1138833

rb2.conv2.weight f4 [20, 20, 3, 3]
0	0xbcbcde1b	-0.023055127
1	0x3dd3845d	0.10327981
2	0xbd8821e5	-0.0664709
3	0x3c34d6de	0.011037556
4	0x3c8ec244	0.017426617
5	0xbdec304a	-0.11532648
6	0xbd075daf	-0.033048328
7	0xbe0e8591	-0.13918139
8	0xbd9b4089	-0.075806685
9	0xbe5e3233	-0.21698837
10	0x3e124870	0.14285445
11	0x3e018d65	0.12651594
12	0x3cac4efb	0.021033755
13	0x3e392231	0.18079449
14	0x3e010f2c	0.12603444
15	0x3d5b79b4	0.053582862
16	0x3d7cd41e	0.06172573
17	0x3e13ce35	0.1443413
18	0x3c6bd2f0	0.014393553
19	0xbd492385	-0.04910614
20	0x3d493c53	0.049129795
21	0x3e1ba8b1	0.1520107
22	0x3d5275a3	0.05138172
23	0x3c73c988	0.014879592
24	0xba978e23	-0.0011562746
25	0xbc4c63a9	-0.012474933
26	0xbdea3c62	-0.11437298
27	0xbe33fe14	-0.17577392
28	0xbc9d0ae9	-0.019170241
29	0xbe05b424	-0.13057
30	0xbdd600fd	-0.10449407
31	0x3dd64deb	0.104640804
32	0xbe810c3c	-0.25204647
33	0xbe8aafa2	-0.27087122
34	0xbd2b22a4	-0.041781083
35	0xbcde5c35	-0.027143577
36	0xbdf2d169	-0.11856348
37	0xbd98c352	-0.074591294
38	0xbdd5b274	-0.10434428
39	0x3bd87e3e	0.006606846
40	0x3ca11aed	0.01966616
41	0xbd121da2	-0.03567279
42	0x3da7ce64	0.08193663
43	0x3e24f3b8	0.16108596
44	0x3d3b0bfb	0.045665722
45	0xbe1a5d9f	-0.15074776
46	0xbcb96eb6	-0.022635799
47	0xbdadd3f9	-0.08487696
48	0xbe21ad0c	-0.15788668
49	0x3e1a9297	0.15094982
50	0x3cdf0bea	0.02722736
51	0x3d9b0690	0.07569611
52	0xbc8ea9d4	-0.017414965
53	0x3ce97b6f	0.02850124
54	0xbc8aaa71	-0.016926976
55	0xbc0d0108	-0.008606203
56	0xbdbb3c1e	-0.09142326
57	0x3dc3d7d8	0.09562653
58	0x3b14aed5	0.0022687216
59	0xbda4bd79	-0.080439515
60	0xbe01c077	-0.12671076
61	0xbe208862	-0.15677026
62	0x3d27a219	0.040926073
63	0xbe3c8535	-0.1841019
64	0xbd9e1af1	-0.077199824
65	0xbe13fd5d	-0.14452119
66	0xbd11437c	-0.03546475
67	0xbe06195e	-0.13095614
68	0xbe1f9239	-0.15583123
69	0xbddf49b6	-0.10902731
70	0xbe561d88	-0.20909703
71	0x3d909e37	0.07061427
72	0x3e2fd3b9	0.1717061
73	0xbe8772d2	-0.26454788
74	0xbe636a8c	-0.22208613
75	0x3e800132	0.25000912
76	0x3d435364	0.04768695
77	0xbde0430f	-0.109502904
78	0xbd9f41ce	-0.07776223
79	0x3d42cf09	0.047560725
80	0x3e093f8d	0.13403149
81	0x3d5ce690	0.05393082
82	0xbe60c877	-0.21951471
83	0xbe4baef2	-0.19890955
84	0x3dab93d3	0.083778046
85	0xbdda6d95	-0.10665432
86	0x3e121fda	0.14269963
87	0xbd4c7c8e	-0.049923472
88	0x3d8e8884	0.06959632
89	0x3e90707c	0.2821082
90	0x3afc224e	0.0019236298
91	0x3c8afcaf	0.016966192
92	0xbdc2869c	-0.09498331
93	0x3e3f28b6	0.18667874
94	0x3d9c42e1	0.07629944
95	0xbd868ae5	-0.06569461
96	0x3d8a622e	0.067570075
97	0xbe1ea192	-0.15491322
98	0xbe8b44b4	-0.27200854
99	0xb938be53	-0.00017618509
100	0x3d8171c4	0.06320527
101	0x3e09d901	0.13461687
102	0x3c173042	0.009227814
103	0xbd4d8ad2	-0.050181217
104	0x3e09ba83	0.13450055
105	0xbdccc4d3	-0.09998479
106	0xbdead794	-0.114668995
107	0xbda502f2	-0.080572024
108	0xbcea0f50	-0.028571755
109	0x3d87868e	0.06617461
110	0xbc8f623d	-0.017502898
111	0xbe011dea	-0.12609068
112	0xbe0d4a28	-0.1379782
113	0xbdc2ae1c	-0.09505865
114	0xbe98df34	-0.2985779
115	0xbe3536f7	-0.17696749
116	0xbe3822ad	-0.17981978
117	0x3bf9840d	0.0076146186
118	0x3d108a8f	0.03528839
119	0xbc765fe6	-0.015037512
120	0x3deeb210	0.116550565
121	0xbd10df0b	-0.03536896
122	0x3d95188e	0.07280074
123	0x3ddd77f7	0.10813897
124	0xbbe7242a	-0.0070538716
125	0xbb88c6e3	-0.0041741
126	0x3e36d833	0.17855911
127	0x3cb674f6	0.022272568
128	0x3e22ae3e	0.1588678
129	0xbaefdf97	-0.0018300888
130	0xbdc63bd5	-0.09679381
131	0x3df3df2b	0.119078
132	0x3d366ddb	0.04453836
133	0x3e0df2f5	0.13862212
134	0x3e51e7ba	0.20498553
135	0x3d990a8c	0.07472715
136	0x3d90dc4b	0.070732675
137	0x3df3b60e	0.118999586
138	0x3c884061	0.01663226
139	0x3dcc9467	0.09989243
140	0x3db37001	0.087615974
141	0x3d190748	0.03736046
142	0xbca40b2a	-0.020024855
143	0xbe5d8070	-0.21631026
144	0x3d6d651c	0.057957754
145	0xbba23448	-0.00495008
146	0x3cfa7fa0	0.030578434
147	0x3d68e55e	0.056859367
148	0x3ddbb313	0.10727515
149	0x3d219dc8	0.039457113
150	0xbdc6db88	-0.09709841
151	0xbd1ef49b	-0.038807493
152	0x3d6bfb76	0.05761286
153	0x3d9467ef	0.07246386
154	0xbdf15f32	-0.11785735
155	0x3a69f234	0.00089243357
156	0x3cad123e	0.021126863
157	0xbe272bc5	-0.1632529
158	0x3d5c3f2b	0.05377118
159	0xbc2a4823	-0.010393175
160	0xbcc4f2da	-0.024041582
161	0xbd83cf77	-0.06436055
162	0xbe1053e0	-0.14094496
163	0xbc650590	-0.013978377
164	0xbcb110d3	-0.021614468
165	0xbdff2724	-0.12458637
166	0x3de923e5	0.113837995
167	0x3d5e19e0	0.054223895
168	0xbe7f225c	-0.24915451
169	0xbd11e6dc	-0.035620555
170	0xbde85c3a	-0.11345716
171	0x3e7bb761	0.24581672
172	0x3d488d5d	0.04896294
173	0x3dc8eb79	0.09810538
174	0x3d5d3eec	0.054015085
175	0x3da51ae3	0.08061769
176	0x3e1ae5d9	0.15126742
177	0x3e19b4f1	0.1501043
178	0x3e3e5e09	0.18590559
179	0x3d3a7d75	0.0455298
180	0x3e12b83b	0.14328091
181	0x3e05452d	0.1301467
182	0xbe430f8f	-0.19048904
183	0xbe64b7c1	-0.22335722
184	0x3d988e65	0.074490346
185	0xbdde9c8f	-0.10869705
186	0x39f8e313	0.0004747143
187	0xbd86d382	-0.06583311
188	0xbe020510	-0.12697244
189	0xbd9096c4	-0.07060006
190	0xbe739f51	-0.23791243
191	0xbd2d09f1	-0.04224581
192	0x3e09c44e	0.1345379
193	0xbd072dbd	-0.033002604
194	0x3da4980a	0.08036812
195	0x3d9faea3	0.07796981
196	0x3d7862e9	0.060641203
197	0x399d7bad	0.0003003752
198	0xbdcd1ab8	-0.10014862
199	0xbda976b6	-0.082745954
200	0xbd79a365	-0.06094684
201	0xbe615005	-0.22003181
202	0xbd9b2044	-0.075745136
203	0xbd19ce0d	-0.03755002
204	0xbd22182e	-0.03957384
205	0x3d0099d6	0.03139671
206	0x3d4f7a12	0.050653525
207	0xbe11d18b	-0.1424009
208	0x3bcb6297	0.006206821
209	0xbc86f745	-0.01647533
210	0xbe0cccc5	-0.13749988
211	0x3daad37a	0.08341117
212	0xbddb7034	-0.107147604
213	0xbe688386	-0.22706422
214	0xbe20725d	-0.15668626
215	0xbe13dcda	-0.14439717
216	0xbe44099c	-0.1914429
217	0xbe122c6e	-0.14274761
218	0xbde9f5a4	-0.11423805
219	0xbd88d796	-0.06681745
220	0xbb56c5b9	-0.003277166
221	0xbe2c793b	-0.16843121
222	0x3dc535d8	0.096294105
223	0xbd8a7b0e	-0.06761752
224	0xbe007c0e	-0.12547323
225	0xbd56c24f	-0.0524314
226	0xbd8d6d07	-0.06905561
227	0x3e299aef	0.16563009
228	0xbe692103	-0.22766499
229	0xbe5eff67	-0.21777116
230	0x3d86007e	0.065430626
231	0x3cd0b025	0.025474617
232	0xbc454900	-0.01204133
233	0x3dab2833	0.08357277
234	0xbc96ad0b	-0.01839306
235	0xbd2ee9e3	-0.04270352
236	0x3e1ce86d	0.15323038
237	0xbd316e1e	-0.043317907
238	0x3c21a76b	0.009866576
239	0x3d1f79c7	0.038934495
240	0xbc0edb80	-0.008719325
241	0x3dedb4be	0.116067395
242	0xbc89fb2d	-0.016843403
243	0x3ce671dc	0.028130464
244	0x3ccc368f	0.02492836
245	0xbe553187	-0.20819674
246	0x3d8e8c31	0.06960333
247	0x3de2a167	0.11065941
248	0xbdaa9ca1	-0.08330656
249	0xbd0344e2	-0.032048114
250	0xbd82dbbf	-0.063895695
251	0xbded85b6	-0.11597769
252	0xbe063951	-0.13107802
253	0xbd536643	-0.051611196
254	0xbd8e11c7	-0.069369845
255	0x3dd6c35d	0.10486481

rb2.conv2.bias f4 [20]
0	0x38120563	3.481413e-05
1	0xb7e64e28	-2.7454531e-05
2	0xb870db58	-5.742474e-05
3	0x37c6fd37	2.3721352e-05
4	0x3810c9e1	3.452029e-05
5	0x37d83960	2.5775924e-05
6	0x37c05410	2.2927328e-05
7	0x374a74d1	1.2067337e-05
8	0x381ce098	3.7402468e-05
9	0x372fed76	1.0486101e-05
10	0xb7972bd2	-1.8021008e-05
11	0x3721ad40	9.636686e-06
12	0xb7894514	-1.636384e-05
13	0xb7e81134	-2.7664566e-05
14	0xb783bf63	-1.5705538e-05
15	0x3458a120	2.0175185e-07
16	0xb71f4d15	-9.495086e-06
17	0xb856981d	-5.1163242e-05
18	0x38576aed	5.1359577e-05
19	0xb7b26a1a	-2.1268661e-05

rb2.bn2.weight f4 [20]
0	0x3f5ab761	0.85436064
1	0x3f6b74eb	0.9197528
2	0x3f97a4e5	1.1847197
3	0x3f8e82b3	1.1133636
4	0x3f98a5f5	1.1925646
5	0x3f8b9e99	1.0907775
6	0x3f9f0a9a	1.242511
7	0x3f9c0806	1.2189949
8	0x3f9da042	1.2314532
9	0x3f938c1a	1.1527131
10	0x3f933acf	1.1502322
11	0x3f7f65d7	0.9976477
12	0x3f948c67	1.1605347
13	0x3f814ab1	1.0100919
14	0x3f8c0505	1.0939032
15	0x3fa2c356	1.2715862
16	0x3faa5eb2	1.3310149
17	0x3fa58fc0	1.2934494
18	0x3f8df6f0	1.1090984
19	0x3f5dd242	0.8664895

rb2.bn2.bias f4 [20]
0	0x3e4f5945	0.20248897
1	0x3d4b0208	0.049562484
2	0xbe410cdf	-0.18852566
3	0x3b200dd8	0.0024422314
4	0xbd96deb4	-0.07366696
5	0xbe275fcb	-0.16345136
6	0x3dba5e09	0.09099967
7	0xbe71989c	-0.23593372
8	0x3e6fb33d	0.23408218
9	0xbe2796cf	-0.16366123
10	0x3d54fc58	0.051998466
11	0xbe055ba7	-0.13023244
12	0xbc3084a0	-0.010773808
13	0x3d3fd226	0.046831273
14	0xbc7a1cc6	-0.015265649
15	0x3e3c2e3b	0.1837701
16	0xbcd72065	-0.026260564
17	0xbdf6a01b	-0.120422564
18	0x3dcc8f37	0.099882536
19	0xbe8bdbb7	-0.27316067

rb2.bn2.running_mean f4 [20]
0	0xbf1e634e	-0.61870277
1	0xc003235e	-2.0490336
2	0xbf90bdd2	-1.1307929
3	0xbf956ee1	-1.1674463
4	0xbf4393ca	-0.76397383
5	0x3e1053cb	0.14094464
6	0xbf96106a	-1.1723759
7	0x3ef73cfe	0.4828872
8	0xc0398853	-2.8989456
9	0xbd90fc47	-0.07079368
10	0xbf60acac	-0.87763476
11	0x3bb88f2d	0.0056323023
12	0xbfe44e55	-1.7836405
13	0xbeea6de7	-0.45786974
14	0x3e8bec3e	0.27328676
15	0xbfb59b70	-1.4188061
16	0xc0311395	-2.7668202
17	0xbe16fc8b	-0.14744775
18	0xc015fd56	-2.3435874
19	0x3e657bc0	0.22410488

rb2.bn2.running_var f4 [20]
0	0x3f5ab4b6	0.85431993
1	0x3f7488ca	0.95521224
2	0x3f370ff8	0.7150874
3	0x3f8b578d	1.0886093
4	0x3f2ede25	0.68307716
5	0x3f8cd9e0	1.100399
6	0x3f93e463	1.1554073
7	0x3f28cc7a	0.65937006
8	0x3f9b36d6	1.212611
9	0x3f5b1ec6	0.8559383
10	0x3f5e8399	0.8691955
11	0x3f3428ec	0.7037494
12	0x3f3005a6	0.6875862
13	0x3f822d5d	1.0170094
14	0x3faacbdb	1.3343462
15	0x3f86d66e	1.0534189
16	0x3f7be31e	0.9839343
17	0x3f87c4ab	1.0606893
18	0x3f6b9857	0.9202933
19	0x3f2a5eff	0.665512

rb2.shortcut.conv.weight f4 [20, 10, 1, 1]
0	0xbc8b9108	-0.01703693
1	0xbd960331	-0.073248275
2	0xbec2e9af	-0.3806891
3	0xbdbde0f6	-0.092714235
4	0x3f043903	0.5164949
5	0xbcac21a6	-0.021012139
6	0x3c1f4ffa	0.009723658
7	0xbc9be41c	-0.01902967
8	0xbc67ead7	-0.014155111
9	0xbe719ea0	-0.23595667
10	0xbd51097a	-0.05103443
11	0x3e04d1d0	0.12970662
12	0xbf1a12fa	-0.60185206
13	0x3da00038	0.07812542
14	0xbe2a14c7	-0.16609488
15	0xbe4fa403	-0.2027741
16	0xbd097f87	-0.033568885
17	0xbbbc89a7	-0.005753714
18	0x3c3a1dd4	0.011359651
19	0x3c4a5e47	0.012351579
20	0xbdc8fb11	-0.09813512
21	0xbdfa2679	-0.12214369
22	0xbd15e57d	-0.03659581
23	0xbcc97d82	-0.02459598
24	0x3d57535c	0.052569732
25	0x3ec0bf13	0.37645778
26	0x3e1c4cd5	0.15263684
27	0x3df9baf3	0.12193861
28	0xbe1713f8	-0.14753711
29	0xbec0b95d	-0.3764142
30	0xbd7c3b35	-0.0615799
31	0x39bf8ec1	0.0003653672
32	0x3ea68f94	0.32531416
33	0x3e0bc654	0.13649875
34	0x3e48628d	0.19568844
35	0xbe1a8dc9	-0.15093149
36	0x3e81be76	0.25340623
37	0x3e569f1c	0.20959133
38	0x3ed9ce92	0.42540413
39	0xbe09ea02	-0.13468173
40	0xbe03afe0	-0.1286006
41	0x3d4806ba	0.04883454
42	0x3d5f12a7	0.054461148
43	0x3ee0654b	0.4382728
44	0x3d890447	0.06690269
45	0xbd8c8c67	-0.06862717
46	0xbca7e301	-0.020493986
47	0xbd9e0081	-0.0771494
48	0x3eb44898	0.35211635
49	0xbdcac3d0	-0.099006295
50	0x3e8d5da3	0.27610502
51	0x3e34f276	0.17670617
52	0xbde01bc2	-0.109427944
53	0xbebfa218	-0.37428355
54	0xbd8b08ba	-0.06788774
55	0xbd8c7822	-0.06858851
56	0x3e4a41dc	0.19751686
57	0xbe0cf846	-0.13766584
58	0xbe12914d	-0.1431324
59	0xbeceb55d	-0.40372744
60	0xbdddf089	-0.10836894
61	0x3e27fcbe	0.16405007
62	0x3c434f3b	0.0119207455
63	0xbea554af	-0.3229117
64	0x3cfd2988	0.030903593
65	0xbec9a47d	-0.39383307
66	0xbe8208e3	-0.25397405
67	0x3d9bc2ab	0.07605489
68	0x3e8016e0	0.25017452
69	0xbd8f6586	-0.07001786
70	0x3e39dd04	0.18150717
71	0x3e415096	0.18878397
72	0x3c5ce9b6	0.013483455
73	0xbd2dc6de	-0.042425983
74	0xbe27c28b	-0.16382806
75	0xbd3360ab	-0.04379336
76	0xbe96c5ba	-0.29447728
77	0x3d4fa880	0.050697803
78	0xbf176a15	-0.59146243
79	0xbe417a65	-0.18894346
80	0xbdb74a74	-0.08949748
81	0x3e0beea8	0.13665259
82	0xbda191b3	-0.07889118
83	0xbd789ccd	-0.060696412
84	0xbf34c8e7	-0.7061905
85	0xbdb40817	-0.087906055
86	0xbb28beec	-0.0025748564
87	0x3e8b6263	0.272235
88	0xbdbc0f2c	-0.09182581
89	0xbbd3ca0a	-0.006463294
90	0xbe85bd42	-0.26120955
91	0x3eb9d83f	0.36297795
92	0xbe208f1f	-0.15679596
93	0xbe408fb1	-0.18804814
94	0x3e47f7d8	0.19528139
95	0xbdfee358	-0.12445706
96	0xbc6565df	-0.014001339
97	0x3e001b4d	0.12510414
98	0x3b11f122	0.002226897
99	0xbeca5220	-0.3951578
100	0xbcb08a07	-0.021550192
101	0x3d811e28	0.0630458
102	0xbed8aacf	-0.42317817
103	0x3e857c5e	0.26071447
104	0xbea1cf6c	-0.31603563
105	0xbe09492a	-0.13406816
106	0x3e87d9cf	0.26533362
107	0x3d6a4658	0.05719599
108	0x3df7b6f1	0.1209544
109	0x3d511533	0.051045608
110	0x3c6236df	0.013807028
111	0xbccaa5e4	-0.024737306
112	0xbe9fde54	-0.3122431
113	0x3e82b0a5	0.25525394
114	0x3e8b0a19	0.2715614
115	0x3e714154	0.23560077
116	0xbdb26b24	-0.08711842
117	0xbd8d74f0	-0.0690707
118	0x3e19ac09	0.15007032
119	0xbe50c12c	-0.20386189
120	0xbdbb4832	-0.091446295
121	0xbeb6310f	-0.35584304
122	0x3e626662	0.22109368
123	0x3ea8df6f	0.32982966
124	0xbdcabb61	-0.09899021
125	0xbcc19443	-0.023630267
126	0x3d620db4	0.05518885
127	0xbdec2c2a	-0.11531861
128	0xbec40006	-0.38281268
129	0x3ddcd3e0	0.107825994
130	0xbd694d1c	-0.056958303
131	0xbe434622	-0.19069722
132	0xbdd85e1c	-0.10564825
133	0xbdc0aab3	-0.09407558
134	0x3d2cf30b	0.04222397
135	0x3df5f987	0.12010484
136	0x3ddba775	0.10725299
137	0x3d8c9f00	0.06866264
138	0xbf2558eb	-0.64588803
139	0xbe20867e	-0.15676305
140	0x3cdf6687	0.027270569
141	0xbe82fd84	-0.25584042
142	0xbc197f4f	-0.009368732
143	0xbe344699	-0.17605056
144	0xbc9b4ded	-0.018958056
145	0xbebfe5c0	-0.37479973
146	0xbece1106	-0.40247363
147	0xbda58496	-0.080819294
148	0xbdb33fc4	-0.08752397
149	0x3e4541e8	0.19263422
150	0x3ebcb74d	0.36858597
151	0xbeac24bf	-0.33621785
152	0x3e6f2110	0.23352456
153	0x3dea996f	0.114550464
154	0xbe079be9	-0.13243069
155	0x3e1223b3	0.1427143
156	0x3e1ce724	0.15322548
157	0xbdeabb8d	-0.11461554
158	0xbe9dad35	-0.3079621
159	0xbd0cc98a	-0.03437189
160	0x3e2358a6	0.15951785
161	0x3ea01d37	0.3127229
162	0xbe08dd22	-0.13365605
163	0x3db58949	0.08864076
164	0x3c106194	0.008812327
165	0x3e8e2534	0.2776276
166	0x3e4e11b7	0.20123945
167	0x3de43789	0.11143405
168	0x3dc80ae7	0.097677045
169	0xb9efec60	-0.00045761745
170	0x3d57c49f	0.052677747
171	0x3dad1970	0.084521174
172	0xbe8dc31e	-0.27687925
173	0x3df8da52	0.12151016
174	0x3d54fd5d	0.05199944
175	0x3e80c047	0.25146696
176	0x3e811b04	0.25215924
177	0x3ed15b93	0.40890178
178	0x3e1d3856	0.15353522
179	0xbdfd73e2	-0.123756185
180	0x3ce1a938	0.02754651
181	0x3db22325	0.086981095
182	0xbce71471	-0.02820799
183	0xbe847dd1	-0.2587724
184	0xbc4ab75b	-0.012372817
185	0x3d5b3cbd	0.05352472
186	0xbc8e81fa	-0.017395962
187	0xbe9f8c3c	-0.31161678
188	0xbef1d23f	-0.47230718
189	0xbd04911d	-0.032364953
190	0xbe7e50fd	-0.24835582
191	0xbe132070	-0.14367843
192	0x3ec0045a	0.3750332
193	0xbc3699a9	-0.011145034
194	0x3e2c2aca	0.16813198
195	0xbd8956d6	-0.06706016
196	0x3d9e94cb	0.07743224
197	0xbddfe629	-0.109325714
198	0xbe64c2fc	-0.22340006
199	0x3dc00a79	0.093769975

rb2.shortcut.conv.bias f4 [20]
0	0x3815a927	3.5681904e-05
1	0xb7d9ecc9	-2.5978678e-05
2	0x36a244ef	4.836001e-06
3	0x380dea5e	3.383529e-05
4	0x37a73741	1.9933681e-05
5	0x3829b721	4.0463292e-05
6	0xb819e51f	-3.669143e-05
7	0x3711a8d6	8.681984e-06
8	0x37f4359e	2.9112034e-05
9	0x38080d6f	3.2437438e-05
10	0xb791f5ae	-1.739975e-05
11	0xb7619217	-1.3445059e-05
12	0x364eee11	3.0834965e-06
13	0x380d8cd6	3.3748183e-05
14	0xb7edd62a	-2.835233e-05
15	0x37a40f00	1.9557308e-05
16	0x37a772ab	1.9961348e-05
17	0x37072821	8.05597e-06
18	0x3794d544	1.7742284e-05
19	0xb7f7939c	-2.951343e-05

rb2.shortcut.bn.weight f4 [20]
0	0x3f72bbf4	0.94818044
1	0x3f33422c	0.70022845
2	0x3f678d95	0.9045041
3	0x3f06bd03	0.5263216
4	0x3f304358	0.6885276
5	0x3f312015	0.6918958
6	0x3f0a4acf	0.540204
7	0x3f44aa4d	0.7682236
8	0x3f4ff3f6	0.8123163
9	0x3f55d874	0.83533406
10	0x3f0d4d67	0.5519623
11	0x3f2fa137	0.6860537
12	0x3ef4f413	0.47842464
13	0x3f5e1c76	0.8676218
14	0x3f8a378a	1.0798199
15	0x3ef4b9b4	0.4779793
16	0x3f3265e6	0.69686735
17	0x3f074a9a	0.5284821
18	0x3eb2be11	0.34910634
19	0x3f3b4324	0.73149323

rb2.shortcut.bn.bias f4 [20]
0	0x3e4f5945	0.20248897
1	0x3d4b0208	0.049562484
2	0xbe410cdf	-0.18852566
3	0x3b200dd8	0.0024422314
4	0xbd96deb4	-0.07366696
5	0xbe275fcb	-0.16345136
6	0x3dba5e09	0.09099967
7	0xbe71989c	-0.23593372
8	0x3e6fb33d	0.23408218
9	0xbe2796cf	-0.16366123
10	0x3d54fc58	0.051998466
11	0xbe055ba7	-0.13023244
12	0xbc3084a0	-0.010773808
13	0x3d3fd226	0.046831273
14	0xbc7a1cc6	-0.015265649
15	0x3e3c2e3b	0.1837701
16	0xbcd72065	-0.026260564
17	0xbdf6a01b	-0.120422564
18	0x3dcc8f37	0.099882536
19	0xbe8bdbb7	-0.27316067

rb2.shortcut.bn.running_mean f4 [20]
0	0xbea6d6f3	-0.32585868
1	0xbf5e169f	-0.8675327
2	0xbde64ed5	-0.11245505
3	0x3f84c928	1.0373888
4	0x3ed91fb7	0.4240701
5	0xbf3a612d	-0.7280453
6	0xbf144a90	-0.57926273
7	0xbf55cffe	-0.83520496
8	0xbf36151e	-0.7112597
9	0xbf0cad65	-0.5495208
10	0xbe5006bf	-0.20315073
11	0x3e021e2c	0.12706822
12	0xbe3ea6e9	-0.18618359
13	0xbf3fa64a	-0.7486311
14	0xbf6ca7b5	-0.924434
15	0x3e1b34d1	0.15156867
16	0x3f61a8d6	0.8814825
17	0x3f450476	0.7695993
18	0xbf575fca	-0.8413054
19	0x3d76aaad	0.060221363

rb2.shortcut.bn.running_var f4 [20]
0	0x3ef4a4d8	0.47782016
1	0x3ed8952e	0.42301315
2	0x3eb0b9ca	0.34516746
3	0x3f04b0e1	0.51832396
4	0x3ed6d98f	0.4196286
5	0x3ee8c689	0.4546397
6	0x3eb5fd21	0.35544685
7	0x3f05e98c	0.5230949
8	0x3ecc33e9	0.39883354
9	0x3e97af2e	0.2962584
10	0x3ee5cae8	0.44881368
11	0x3e999233	0.29994354
12	0x3e789da8	0.24278891
13	0x3f1fa758	0.6236472
14	0x3ee480a2	0.4462939
15	0x3eb9edc4	0.36314213
16	0x3e9a0790	0.30083895
17	0x3ed35009	0.41272
18	0x3f00954a	0.502278
19	0x3e347222	0.17621663

res1_sc1.conv.weight f4 [20, 3, 1, 1]
0	0xbf0c763d	-0.5486792
1	0x3db2e852	0.08735718
2	0x3eaa81a2	0.33302027
3	0xbe7ab8eb	-0.24484603
4	0x3f0fc13d	0.56154233
5	0xbe701f97	-0.2344955
6	0x3c1d4ea4	0.009601269
7	0xbe9d884d	-0.30768052
8	0xbec6c16e	-0.3881945
9	0x3ec37896	0.38177937
10	0xbeaf3343	-0.34218797
11	0xbeb13be4	-0.34616005
12	0x3ef784d6	0.48343533
13	0xbdf64580	-0.12024975
14	0x3e5e3c0f	0.21702598
15	0xbf0af4a7	-0.5427956
16	0xbebeb5b5	-0.37248006
17	0x3ea68684	0.32524502
18	0xbe360d95	-0.17778619
19	0x3ebd982b	0.37030157
20	0x3f0154cc	0.50520015
21	0x3eb75b49	0.35811833
22	0xbf0ffe72	-0.5624763
23	0xbea7a9f5	-0.32746854
24	0x3e2c2f51	0.16814925
25	0x3f086953	0.5328571
26	0xbe362d1d	-0.17790647
27	0x3e87cede	0.26525015
28	0xbe852fdd	-0.2601308
29	0xbebc3cde	-0.36765188
30	0xbdbf01f1	-0.09326542
31	0xbe805be3	-0.25070104
32	0xbec454f7	-0.38346073
33	0x3e1956d2	0.14974526
34	0xbdac1e37	-0.084042005
35	0xbed457f6	-0.4147336
36	0xbeb28fc9	-0.34875324
37	0xbe4d128e	-0.2002661
38	0xbd6ea8da	-0.0582665
39	0x3b768963	0.003761851
40	0xbe184a4b	-0.1487209
41	0xbef4ffbb	-0.47851357
42	0xbe6cc95c	-0.23123688
43	0x3e6cbd67	0.23119126
44	0x3eb35b32	0.35030514
45	0x3ec20bdb	0.3789967
46	0x3e217ecd	0.15771027
47	0xbe869179	-0.26282862
48	0x3dbde5be	0.092723355
49	0xbeac93d8	-0.33706546
50	0x3d682ebe	0.0566852
51	0x3d6dffb7	0.058105197
52	0xbeb0aef0	-0.34508467
53	0x3d73899f	0.059457418
54	0x3e793f89	0.24340643
55	0x3e9b3d4b	0.303202
56	0xbdc4c618	-0.09608096
57	0xbf037785	-0.5135425
58	0x3e1f388a	0.15548912
59	0x3d996571	0.074900515

res1_sc1.conv.bias f4 [20]
0	0xb789c06f	-1.6421282e-05
1	0xb911a2da	-0.00013888945
2	0x386bda32	5.6231576e-05
3	0xb8c05448	-9.170972e-05
4	0xb7ab1e16	-2.0398798e-05
5	0x38ca5a1f	9.648897e-05
6	0x383cee9f	4.5044926e-05
7	0xb7d644ef	-2.5542888e-05
8	0x37be1109	2.2657698e-05
9	0x37b3849f	2.140022e-05
10	0xb842a272	-4.6404493e-05
11	0x37983e41	1.8148801e-05
12	0x3747b530	1.190351e-05
13	0x36bf1127	5.6942404e-06
14	0xb7c394bc	-2.3315071e-05
15	0x3832ab76	4.2598193e-05
16	0xb8487718	-4.779463e-05
17	0xb893abc6	-7.0415015e-05
18	0x37cfdaa5	2.4778137e-05
19	0xb8987036	-7.268826e-05

res1_sc1.bn.weight f4 [20]
0	0x3f4f704a	0.81030715
1	0x3f6ac252	0.9170276
2	0x3f2e2eea	0.68040335
3	0x3f0ef282	0.5583879
4	0x3f02c048	0.5107465
5	0x3f1d6f4a	0.6149794
6	0x3f0db963	0.55361
7	0x3f18e8ca	0.5973021
8	0x3f1cc996	0.61245096
9	0x3f266ce0	0.6500988
10	0x3f163121	0.58668715
11	0x3f1383c2	0.5762292
12	0x3eeeab37	0.46615002
13	0x3f180409	0.5938116
14	0x3f26e31a	0.6519028
15	0x3ec15360	0.37758923
16	0x3f0acb0c	0.54216075
17	0x3ef671db	0.4813374
18	0x3eda7dd2	0.42674118
19	0x3f50e827	0.81604236

res1_sc1.bn.bias f4 [20]
0	0x3e4f5945	0.20248897
1	0x3d4b0208	0.049562484
2	0xbe410cdf	-0.18852566
3	0x3b200dd8	0.0024422314
4	0xbd96deb4	-0.07366696
5	0xbe275fcb	-0.16345136
6	0x3dba5e09	0.09099967
7	0xbe71989c	-0.23593372
8	0x3e6fb33d	0.23408218
9	0xbe2796cf	-0.16366123
10	0x3d54fc58	0.051998466
11	0xbe055ba7	-0.13023244
12	0xbc3084a0	-0.010773808
13	0x3d3fd226	0.046831273
14	0xbc7a1cc6	-0.015265649
15	0x3e3c2e3b	0.1837701
16	0xbcd72065	-0.026260564
17	0xbdf6a01b	-0.120422564
18	0x3dcc8f37	0.099882536
19	0xbe8bdbb7	-0.27316067

res1_sc1.bn.running_mean f4 [20]
0	0xbce7d458	-0.028299496
1	0x3c31f1be	0.0108608585
2	0x3d732b22	0.059367307
3	0x3d3992b5	0.045305926
4	0xbd0ce4d7	-0.034397926
5	0xbc0088fd	-0.007845161
6	0xbd920022	-0.071289316
7	0x3d59ca02	0.053171165
8	0xbbc5d896	-0.006037782
9	0x3d439045	0.047745008
10	0x3d7265a6	0.05917897
11	0x3d492356	0.049105965
12	0x3cceb89c	0.025234513
13	0x3d82321f	0.06357216
14	0xbd39d617	-0.045370188
15	0x3c692178	0.014229171
16	0x3b9faf47	0.0048731896
17	0x3bc027fc	0.0058641415
18	0xbc067e5f	-0.00820884
19	0xbab174a5	-0.0013538791

res1_sc1.bn.running_var f4 [20]
0	0x3cc73a58	0.024319813
1	0x3be9978e	0.0071286624
2	0x3debf4b8	0.11521286
3	0x3d19125a	0.037371017
4	0x3da48a4b	0.0803419
5	0x3dd39b7f	0.10332393
6	0x3e02d54e	0.12776682
7	0x3da8bcdd	0.08239148
8	0x3d92632d	0.071478225
9	0x3d2d19f0	0.042261064
10	0x3e0173b2	0.1264179
11	0x3d19833a	0.037478663
12	0x3db4c3e6	0.08826427
13	0x3dc7e3b5	0.097602285
14	0x3d1d1810	0.038353026
15	0x3cecac35	0.028890708
16	0x3c23cf9f	0.009998231
17	0x3c640f11	0.013919608
18	0x3d538416	0.05163964
19	0x3ce275a8	0.027643993
