models/dense_max/epoch_0030.pth (torch, 645162 bytes, 174 tensors)

rb1.conv1.weight f4 [10, 3, 3, 3]
00000000: 1080 a3bd 34fd a83d ba3d 96bd 2740 6fbe
00000010: 970b 8c3e 0c40 3a3e dbeb 52be 2014 403e
00000020: b9c7 f5bd 531c 38be 5f15 473c 9ecb 28bd
00000030: 4612 9ebe 2385 933e d54f 2b3e e75f 83bc
00000040: 4774 8d3e 91c2 66be 3fa8 b3bc 3354 413b
00000050: fb9a bdbd a3fb 64be 597f 5b3d 815f 0e3c
00000060: c3c8 033e 66e2 8c3d a667 113e 4dd3 733d
00000070: 97af 983c 6e68 243e 33f5 663d 3d92 123e
00000080: c9a4 b7be e255 5dbd 62c5 133d 2e55 95bd
00000090: bba6 0dbd 3ec0 ccbc 050e 0bbc dcb1 21bd
000000a0: b770 dc3e 9d9b 6bbe abd5 6abd 0657 a93d
000000b0: 065f 03be 2bf7 0bbe 39b4 32be 5802 f73d
000000c0: cc5e 1a3c 7e5f b53e d339 8abe ae28 86bb
000000d0: 806c bf3d 60cf 383d b798 033d 9564 8d3e
000000e0: cbeb 3e3e 9d6e 05be 97d9 93bd 28d4 c13d
000000f0: 346c 72bd be55 65be ea28 56b9 dd95 7a3e
00000100: a2a0 793e e8ab a13e b010 9c3b 227c 2ebe
00000110: 178d e6bd bd0b e0bd c272 89be 19e0 39be
00000120: 5b52 693d b70d 2f3e db6f 773d 87f6 1d38
00000130: 338b 2fbd c108 bcbd 7ffd d03d cd26 52be
00000140: 5b4b ffbd 76f8 43be 8908 0e3d 482b 28be
00000150: b7ee 913d 3f78 9cbe a5a9 2bbe 2354 3b3d
00000160: 98c5 cf3d c0f1 273e 181b d8bd 7c0b 1fbe
00000170: f96a 29be 147d 583e c305 8abe 3f6a ffbd
00000180: 8be0 8a3e 3dac d53c e00d d83c 2e05 2ebd
00000190: a543 b43c 9112 10be 95d6 243c c34c 32be
000001a0: 9a91 01be 75c7 3e3e 122c 683c 238f 693e
000001b0: 728f 7bbe f855 6bbe 9a93 433e 71f3 b7bd
000001c0: cfea 2abe 6bf4 163e 7874 f2bd 1949 0fbc
000001d0: 0534 693e 62e4 6f3e 0f64 5ebe 56f4 b3bd
000001e0: 43de 9dbd 1e6a 0cbc 1c16 2d3e 16f6 bc3d
000001f0: 56e7 f83d ee3e 023e 4d5f 863e 1da9 a93d
00000200: 30fb 83bd 69e2 5f3e 5fad f73c af89 8ebe
00000210: c1c9 123e a696 723c f319 3fbe b237 41be
00000220: 252f 18be e6e8 003e 392b be3c d550 14be
00000230: 4e65 b2ba 94ff f63d 439d afbd 0db8 d63c
00000240: 6d19 983d 75b0 413e 8512 633e 4a96 24bd
00000250: 59bc e0be dc72 f8bd 2a9c 343e 57a9 f4bd
00000260: 8f47 a4be 718e 7a3c cdce a5bd ea78 6a3e
00000270: b9cc aebd 2e93 28be 9d93 133c 5868 70be
00000280: 0ede aabe 371f d43c 9d67 c1bc e630 1dbd
00000290: caba cc3d a277 a73d ade2 4b3e 944e f7bd
000002a0: b231 cfbc f820 15bd 34a6 973c 18c5 803d
000002b0: 50a5 df3c cf1b 8b3d 156f 063e 4288 973e
000002c0: 6a56 80bd d3b1 e13c aabf 263d 18f1 3bbe
000002d0: 0e2c 83be 8837 17be 9eec c8bd 03aa d7bb
000002e0: 6a3e ef3d 31fb 173e d963 a1bd 84b1 c93e
000002f0: 9771 8b3e 0a8a 803c a122 0ebe 788f 493e
00000300: 9675 86be d434 90bd 9d01 9a3d 39e8 623e
00000310: 1eec 3dbd 0b28 4e3e 9b4b 023e 9ddd b0bc
00000320: 8da3 4c3e 10ac 59be 7e3b c6be d095 9ebb
00000330: 3e61 1c3e e4fc 0a3e 8dd7 81be bcb2 efbd
00000340: 2497 b8bd d0ac 8b3d cc07 a3bd cbb2 19be
00000350: aa75 bd3e 62e0 863e fcd4 b3bd bc98 fcbc
00000360: 5cee 90be 07e8 d63d d564 bbbb e14d 0cbd
00000370: c458 443e 413c 973e aa2b 6dbc 7451 183e
00000380: 6e1a 61bd 124f a4bd 983d 10be 69b0 1abe
00000390: 02ee 543c 319f fc3d e6d3 86bd 297c 773e
000003a0: 0a55 95be 8c68 54be e299 803d e1b9 c53d
000003b0: 3b08 dfbd 7c89 e43d 3e05 4e3e 251d b83c
000003c0: 91de 1a3d 3c89 8f3c 3cf8 6bbe a429 813e
000003d0: 3fe0 e93e 3c80 513e c473 1b3e 81db 9a3e
000003e0: e74f 583d dbf6 a7bd 3de2 3bbe 7469 afbe
000003f0: 097e 353e e15a 9d3e 880c 153d 564e 87bd
-0.0798341 0.0825142 -0.07335992 -0.23364316 0.27352592 0.18188494 -0.20597784 0.18757677
-0.12000985 -0.17979555 0.012151091 -0.04120981 -0.30873317 0.28812513 0.16729672 -0.01603694
0.27627775 -0.22535159 -0.021930812 0.002949965 -0.09258076 -0.22361617 0.053588245 0.008689762
0.12869553 0.068791196 0.14199695 0.059527684 0.018638415 0.16055462 0.056386184 0.14313598
-0.3586791 -0.054036982 0.03607691 -0.07291637 -0.034582835 -0.024994012 -0.008487229 -0.03947626
0.43054745 -0.2300858 -0.057332676 0.082685515 -0.12829217 -0.13668506 -0.17451562 0.12060994
0.009422015 0.35424417 -0.2699724 -0.004094205 0.093468666 0.045119643 0.032128062 0.276158
0.18644635 -0.13030477 -0.07219236 0.09464294 -0.05918522 -0.2239599 -0.00020423872 0.24471231
0.24377683 0.31576467 0.0047627315 -0.1703954 -0.112573795 -0.10939739 -0.26845366 -0.18151893
0.056963306 0.17095076 0.060409408 3.7661313e-05 -0.04285736 -0.09181357 0.102046005 -0.20522614
-0.12465545 -0.19137749 0.03467611 -0.1642276 0.07125609 -0.3056049 -0.16763933 0.045734536
0.1014511 0.16400814 -0.10552043 -0.15531725 -0.16544713 0.21141464 -0.2695752 -0.12471437
0.27124438 0.026083106 0.026373804 -0.04248541 0.022004912 -0.14069583 0.010060926 -0.17412095
-0.12653199 0.18630774 0.014170663 0.22808509 -0.24566439 -0.22982013 0.19099274 -0.0898198
-0.16691135 0.14741676 -0.11838621 -0.008745455 0.2277375 0.23426965 -0.21717857 -0.08786838
-0.07708409 -0.008570222 0.16902965 0.09226625 0.12153499 0.12719318 0.26244584 0.08284209
-0.064443946 0.21863712 0.030234037 -0.2783942 0.14334776 0.014806425 -0.18662243 -0.18868902
-0.14861734 0.12588844 0.02321397 -0.1448396 -0.0013610513 0.120604664 -0.08574917 0.02621081
0.074267246 0.1891497 0.22175033 -0.04018239 -0.43893698 -0.12131283 0.17637697 -0.119463615
-0.32085845 0.01529275 -0.08096085 0.22897688 -0.085351415 -0.16462395 0.009007362 -0.23477304
-0.3337254 0.02589379 -0.023608977 -0.03837671 0.09996565 0.08177115 0.19910689 -0.120755345
-0.025292251 -0.036408395 0.018511869 0.06287593 0.027300507 0.067924134 0.13128312 0.29596144
-0.06266482 0.027550614 0.04071013 -0.18353689 -0.2561955 -0.14767277 -0.09810756 -0.0065815463
0.116818264 0.14841916 -0.078803726 0.39393246 0.272351 0.015690822 -0.13880397 0.19683635
-0.26261586 -0.07041326 0.07519839 0.22158898 -0.046367757 0.20132463 0.12724154 -0.021590048
0.19984265 -0.21257043 -0.38717264 -0.0048396364 0.1527147 0.13573033 -0.25359765 -0.11704013
-0.09013203 0.06820071 -0.079604715 -0.1500961 0.37003833 0.26343066 -0.08780858 -0.030834548
-0.28306854 0.104934745 -0.005718807 -0.03425396 0.19174486 0.29538158 -0.014475742 0.14874822
-0.054956846 -0.08022894 -0.14085996 -0.15106358 0.012996199 0.12335051 -0.06583385 0.24168457
-0.29166442 -0.20743006 0.06279351 0.09654594 -0.10890242 0.111590356 0.20119187 0.022474835
0.037809912 0.017521493 -0.23043913 0.25227082 0.456789 0.20459074 0.1518088 0.30245593
0.052810576 -0.08201381 -0.18348022 -0.34260142 0.1772386 0.30733398 0.036388904 -0.06606738

rb1.conv1.bias f4 [10]
00000000: 350e 2739 bbaa 4db6 7a5d f1b8 c220 a3b7
00000010: d334 3ab8 9aad 2338 a0f8 25b8 db0f d6b8
00000020: c3e1 ecb8 863f 36b6
0.00015931654 -3.0646759e-06 -0.00011509187 -1.9446368e-05 -4.4395052e-05 3.9023907e-05 -3.9570616e-05 -0.000102072685
-0.00011295408 -2.715709e-06

rb1.bn1.weight f4 [10]
00000000: b32c 4b3f ba23 9e3f 4231 5a3f 6d29 5f3f
00000010: 9cce 123f 5a2c 4d3f 77bb 2c3f d0e3 7d3f
00000020: b9a3 533f 50c5 2c3f
0.7936508 1.2354653 0.8523141 0.87172586 0.5734651 0.801458 0.6747355 0.9917574
0.82671696 0.67488575

rb1.bn1.bias f4 [10]
00000000: 5bd4 a33e 4389 903f ae52 003c 2592 153d
00000010: b7e1 543d 2429 aabc 02df 0c3a a95f 443f
00000020: 0b1a 0b3f c7bc 003e
0.31997952 1.1291889 0.007832212 0.036516327 0.05197307 -0.02077157 0.0005373807 0.76708466
0.54336613 0.12572013

rb1.bn1.running_mean f4 [10]
00000000: dc5d a2bc 8818 44bc 8f90 8b3c 2a6a 8f3d
00000010: b35c 36bd 4d30 323e 8c0e f4bd f3cd 3abb
00000020: d448 64bc 9eeb b4bd
-0.019820146 -0.011968739 0.017036704 0.07002671 -0.044522 0.17401238 -0.11916837 -0.0028504103
-0.013933379 -0.08834003

rb1.bn1.running_var f4 [10]
00000000: fc66 9b3d a7a1 163d 872c 463e f9d3 7e3e
00000010: 191a 233d a791 df3e 1f22 603e b5a6 5b3d
00000020: 7048 1b3d b1c3 d73e
0.07588002 0.036775257 0.19352923 0.24885549 0.03981981 0.4366581 0.21888016 0.05362578
0.03791088 0.42141488

rb1.conv2.weight f4 [10, 10, 3, 3]
00000000: feb1 a7bc 3c8f 42be 880d 3fba a2f8 923c
00000010: 86b3 10be ccb6 48bd 48c2 6a3c dcbd 47bd
00000020: ba74 cebc 3498 8d3c 96ac 313e 641c 84be
00000030: 1c9c 85be 0aa1 b9bd fa70 153e 7360 143e
00000040: 95fa 56be 737a c23c 2f64 06be e848 b43d
00000050: 8d42 e7bd 5bf0 b73b 87e8 4ebe ecee 2fbe
00000060: e00a 8d3c d527 dd3d 9530 213e 6a9d 1a3e
00000070: df9c 223e b29f 023e e05b db3d 5fc2 eb3d
00000080: 9b9f e63c e04f febd 9cdc 90bd 5cf6 6fbe
00000090: d15c 0bbe 22a6 453d 2fe1 2ebd 5858 adbb
000000a0: a0c5 c3bd d087 933c bcea 83bd 28fc 43bc
000000b0: a39d a1bd dd3e af3d 754a 743e 5a61 303e
000000c0: c4ba c3bc 583d 9f3b f535 0bbd 8cd1 53bd
000000d0: 7d89 543d 4e85 213e b529 81bd caea 20bd
000000e0: 322e a6bd 4992 b6bd dfda 6dbe f66c a0bd
000000f0: 94e1 c83d 927a 8f3d 45bb 78bd 50f8 26bd
00000100: 244e de3d 2b0c 8e3e 0ed4 66bd 3aaa 81be
00000110: dade c9be 48cd 923c 8082 2a3e 2fc2 d63d
00000120: 2f37 31bd 6677 2bbe b188 d4bd eaaf f73d
00000130: 05b0 6b3d dfd6 da3d 3113 4abe 2357 57bc
00000140: 7cb3 34bd 5689 a4be 6cca a1be 723c e9bd
00000150: f0cb 34be a126 40bd 8ace 3dbd eb88 09be
00000160: ebd8 a0bd b83d 733d ca53 2cbc 22c7 efbd
00000170: ac19 013e d681 833c de53 8a3d e0c0 9f3e
00000180: 10ba 34bd 9aa6 253e d247 bfbd 7b0f db3d
00000190: 40d2 a73d 617d 2bbe 8e4b 213e 15db edbe
000001a0: a7f2 7f3d 13c1 a0be 792e 003e 80e7 153e
000001b0: a37f 7b3c fe8c 063e 9a22 d6bd 4154 92bb
000001c0: 7118 31be e246 1ebe e3a6 df3c 8940 c3bd
000001d0: 10e6 6dbd 8c2e 67be 787b d13d d5eb 453d
000001e0: 2a24 8b3d 1f23 4cbd e326 cdbd 954a db3b
000001f0: c753 47be 7887 7cbc 1b65 403e e4d0 613e
00000200: 41a3 3d3d c159 983d fbdc fabc 1a16 c0bd
00000210: 26c8 90bc f767 15be e430 27be 395c a4bd
00000220: 6d1a adbd a45f babd e404 4cbd 8fd9 79bd
00000230: 6928 01be 8e6f 99bd db2f 37be 5098 76bd
00000240: d777 d13d 664f 233e 153b da3d e7a2 1b3e
00000250: f940 343e b339 f93d 388d 173e d15f 3c3e
00000260: fa94 ef3c 2244 b63d b00a 90be 2909 0ebc
00000270: 3a11 43bd c93c 85be 01a0 493e 8386 2abd
00000280: a073 843e eac2 33bc 88af d73d 65db 9cbb
00000290: fda0 58be 6b0e 083d 573b dbbd 3e5c 1f3e
000002a0: 2472 17bc d8e7 103e bdbf 0ebd 4569 04bd
000002b0: 9b03 12bc 69eb 8b3c 558d 4b3d d8cb fbbc
000002c0: 15c3 113d 6b12 8abd 2c93 183e 5745 053d
000002d0: c3dd fc3c 90ce a2be 0e33 85bd 593b 763c
000002e0: ed2f 96bd dd00 b4bc 7392 ab3d dfdb 833d
000002f0: 17ac 8e3d d5f4 8cbd 3ca3 09be 154e 1a3c
00000300: 7d9f 88bd 50ff 18be 58c8 f7bc 496a c6bb
00000310: a9a4 123e b09e 1d3e ddd9 863e 85dc 473d
00000320: a369 363d b2da b63e abd4 783d 58f6 23be
00000330: 8ed6 a63d a39b e7bd bebe 46bd 8bed c23d
00000340: 3346 5a3d 7fe4 033b 5abe 513b 6f9b 2d3d
00000350: d44d 6d3b cdfd 8f3e 99e9 52bc 5094 d53c
00000360: 10fc ce3d 6a41 f03d a052 ec3c fd70 713e
00000370: 39c0 953d 1937 1a3d abdf af3d bf49 413d
00000380: ac9e 363c 47f0 5d3e 625a 683e f102 353e
00000390: 17f7 393e 99ea bd3d ebe6 303d 5f04 1e3d
000003a0: 5a6b 233d 22ea dabd 965b 963c d7d8 37bd
000003b0: 7aec efbd 8962 b13c 83d7 3bbd 6542 e7bd
000003c0: 5fc2 e03c 650f 0bbc 5699 ebbd 929c 2c3e
000003d0: 06b5 d93d e10c 3bbb c989 9a3d 4561 a13d
000003e0: c442 57bc d4a0 e8bd bdec d33c c873 58bd
000003f0: 067d 8f3e 752d 953e 4900 84bd 2c38 493e
-0.020470615 -0.18999952 -0.0007288088 0.017940823 -0.14130983 -0.049002454 0.014328547 -0.04876505
-0.025202144 0.01728449 0.17350993 -0.2580291 -0.26095665 -0.09063919 0.14593878 0.14489917
-0.20994027 0.023740029 -0.13124155 0.08802968 -0.112919904 0.0056133694 -0.2020589 -0.17180985
0.0172171 0.10798613 0.15741189 0.15099111 0.15880154 0.12756231 0.10710883 0.11511683
0.028152278 -0.12417579 -0.07073328 -0.23433822 -0.13609625 0.04825414 -0.04269522 -0.0052900724
-0.09559178 0.018009096 -0.064412564 -0.011961974 -0.07891395 0.08556912 0.23856528 0.17224637
-0.023892768 0.0048596077 -0.033987004 -0.05171351 0.05188893 0.15773508 -0.06306783 -0.039286412
-0.0811428 -0.089146204 -0.23228024 -0.07833283 0.098086506 0.070058 -0.06072547 -0.040764153
0.10854748 0.27743658 -0.056354575 -0.25325185 -0.39427835 0.017920151 0.16651344 0.10486256
-0.043265518 -0.16744766 -0.10377634 0.120941 0.057540912 0.10685515 -0.19733883 -0.013143334
-0.044116482 -0.3213603 -0.31599748 -0.11388482 -0.17655921 -0.04691184 -0.04633955 -0.13431136
-0.07853874 0.05938503 -0.010518024 -0.117079034 0.1260745 0.016053122 0.06754278 0.3120184
-0.044122756 0.16176835 -0.093398705 0.10696312 0.08194399 -0.16747047 0.15751478 -0.4645621
0.06248727 -0.31397304 0.12517728 0.14639091 0.015350255 0.13139722 -0.104558185 -0.0044656103
-0.1729448 -0.15456727 0.027301257 -0.095337935 -0.058080733 -0.2257635 0.10228628 0.04832061
0.06794007 -0.04983818 -0.10017183 0.0066922405 -0.19465552 -0.015413158 0.18788569 0.22052342
0.04629827 0.07438994 -0.03062295 -0.093792155 -0.017673563 -0.1459044 -0.16327244 -0.080254026
-0.08452306 -0.09100273 -0.04980935 -0.060998496 -0.12613072 -0.074919805 -0.17889349 -0.06020385
0.10227936 0.15948257 0.106558 0.15198861 0.1760291 0.121692084 0.14799964 0.18395926
0.029245842 0.08899714 -0.28133154 -0.008669176 -0.04762385 -0.26022938 0.19689943 -0.041632187
0.25869465 -0.010971764 0.10531527 -0.004786896 -0.21155162 0.033216875 -0.107046776 0.15562531
-0.009243522 0.14150941 -0.034850825 -0.032326955 -0.008911992 0.017080026 0.04969533 -0.030736849
0.035586435 -0.06741794 0.14899892 0.03253683 0.030867463 -0.3179822 -0.065038785 0.015028798
-0.0733336 -0.021973068 0.08377542 0.064384215 0.06966417 -0.068826355 -0.13441175 0.00941803
-0.06671045 -0.14941144 -0.030246899 -0.0060551506 0.14320625 0.15392566 0.26338091 0.04879429
0.044534337 0.35713726 0.06074969 -0.16011941 0.08146392 -0.11308982 -0.04852175 0.09517964
0.053289603 0.0020125208 0.0032004328 0.04238456 0.003620972 0.28123322 -0.012873077 0.026071697
0.10106671 0.11731227 0.028847992 0.23578258 0.07312054 0.0376502 0.08587583 0.04718947
0.011146229 0.2167369 0.22690728 0.17676903 0.18160664 0.092732616 0.04318897 0.038578387
0.0398973 -0.106891885 0.018354218 -0.04488453 -0.11715026 0.02165343 -0.045859825 -0.112919606
0.027436433 -0.008487557 -0.11503856 0.16856602 0.106302306 -0.0028541612 0.07545812 0.07879881
-0.013138477 -0.113588005 0.025869722 -0.052844793 0.28025073 0.29136243 -0.06445367 0.19650334

rb1.conv2.bias f4 [10]
00000000: 1890 30b8 aced 3138 3aa8 5b36 7030 c738
00000010: 880c ec36 490d 68b8 11d4 a638 7aaa 1a38
00000020: 551b abb7 2324 9eb8
-4.2095868e-05 4.2421438e-05 3.2731464e-06 9.4980816e-05 7.034807e-06 -5.5325483e-05 7.954997e-05 3.687523e-05
-2.0397516e-05 -7.540758e-05

rb1.bn2.weight f4 [10]
00000000: cfd2 843f c550 913f 94ad 4e3f 979b 8d3f
00000010: b9e9 3a3f 028c 893f d9e2 a93f 78cd 883f
00000020: 4626 8e3f 5bf2 5b3f
1.0376834 1.1352774 0.8073361 1.1063107 0.7301288 1.0745852 1.3272353 1.0687704
1.110543 0.8591668

rb1.bn2.bias f4 [10]
00000000: 9276 7c3d 4c65 7fbd fecd 943e f6b9 bdbc
00000010: a93a 853e b222 c83d df71 6cbc 35ca cd3d
00000020: 1c8e 6c3d 1387 8e3e
0.061636515 -0.062352464 0.2906341 -0.023159962 0.26021317 0.097722426 -0.014431446 0.100483336
0.057752714 0.27837428

rb1.bn2.running_mean f4 [10]
00000000: 8619 9fbf 78f1 93be fae4 4a3f 952e 47bc
00000010: 9ebb 16bf 6691 38be 0a43 20bf fa10 80be
00000020: aac5 b03d 705d ca3f
-1.2429664 -0.28895164 0.7925564 -0.012157102 -0.5888003 -0.18024215 -0.62602293 -0.25012952
0.086314514 1.5809765

rb1.bn2.running_var f4 [10]
00000000: 4651 c83f 19d4 a03f 2ebe 773f cbd9 c23f
00000010: d844 593f d02a da3f 6faa 0140 6e63 d43f
00000020: f7c8 ee3f f1aa cc3f
1.5649803 1.2564727 0.96774566 1.5222715 0.8487067 1.7044315 2.0260274 1.6592844
1.865508 1.5989667

rb1.shortcut.conv.weight f4 [10, 3, 1, 1]
00000000: 712c e73e c64e 143c 8536 ac3e a0a0 a7be
00000010: a4bc 0cbf 232c bdbe e6cf bd3e d355 b5be
00000020: bae7 d83d a7f3 f0be 1990 33bf 5f8c 2e3e
00000030: 493d d6bd a42e 4abe 30cd 133f 30e7 bf3e
00000040: 8a8f 143e f902 f63e 7bce babe 5847 adbe
00000050: 00b1 a6be 2289 90be ff4e 34bf b19d 853e
00000060: f8c3 99be d5d7 05bf 7a1a 88bd 2e45 91be
00000070: 76f2 623d 5c8c 15bf
0.45151094 0.009051984 0.33635345 -0.32739735 -0.5497534 -0.36947736 0.37072676 -0.3541704
0.10591073 -0.47060892 -0.7014175 0.17045735 -0.10460908 -0.19744354 0.57734966 0.3748107
0.14507881 0.48049143 -0.36485657 -0.33843493 -0.32556915 -0.28229624 -0.7043304 0.26096871
-0.30032325 -0.5228246 -0.06645675 -0.28373092 0.05540701 -0.58417296

rb1.shortcut.conv.bias f4 [10]
00000000: 7cd4 b838 9507 0e38 d882 6339 ada9 8f38
00000010: 8868 4bb9 e192 ceb7 5994 3038 8103 b3b7
00000020: 73de 81b8 e720 43b9
8.813382e-05 3.38625e-05 0.0002169715 6.850376e-05 -0.0001939853 -2.462551e-05 4.209983e-05 -2.1340094e-05
-6.192634e-05 -0.00018608906

rb1.shortcut.bn.weight f4 [10]
00000000: bb44 793f da53 6a3f ab3b 803f de52 643f
00000010: b4e6 913f 294f 6f3f a5eb 133f 8391 2d3f
00000020: 09de 643f 82a3 673f
0.973705 0.915342 1.0018209 0.89188945 1.139853 0.93480164 0.5778144 0.6780016
0.894013 0.9048387

rb1.shortcut.bn.bias f4 [10]
00000000: 9276 7c3d 4c65 7fbd fecd 943e f6b9 bdbc
00000010: a93a 853e b222 c83d df71 6cbc 35ca cd3d
00000020: 1c8e 6c3d 1387 8e3e
0.061636515 -0.062352464 0.2906341 -0.023159962 0.26021317 0.097722426 -0.014431446 0.100483336
0.057752714 0.27837428

rb1.shortcut.bn.running_mean f4 [10]
00000000: 2f11 ccbd d943 1d3e 8a46 4ebc 1858 b93d
00000010: 8baa 8bbd daa1 07be d83a 013e 72fe 6d3d
00000020: 50c9 c43d a65a f53d
-0.09964215 0.15357913 -0.01259006 0.09050006 -0.06819638 -0.13245335 0.12620103 0.058103986
0.0960871 0.119801804

rb1.shortcut.bn.running_var f4 [10]
00000000: c3b5 243e 12de c93e f8a2 013c 355f 853e
00000010: d8ff 043d ec48 823e 56e6 883e ba2e 103e
00000020: aebb 4d3e 7d80 303e
0.16084962 0.3942724 0.00791239 0.260492 0.032470554 0.2544626 0.26738232 0.14080325
0.20091125 0.17236514

rb2.conv1.weight f4 [20, 10, 3, 3]
00000000: e8f7 993d 98aa 053e 00b0 9a3d e4bf 2b3e
00000010: 7084 693e 0cf3 df3d 84b1 3e3d ea05 d73d
00000020: b7e7 003e 3299 153e 80b0 f0bd dad4 00be
00000030: f606 01be c4ad a3bd 9915 03bd 8f7b 173e
00000040: 0427 1cbe 5b7d cabd fcf3 bbbd e29b a0be
00000050: 7fb3 36be 793b 963b e3b8 82be 8e69 21be
00000060: fde9 493d 6d89 593d 3db7 c5bd 7801 abbc
00000070: c4c2 e9bd e8b4 cb3d 2e2f b83d 1d35 933d
00000080: eac6 e53d b058 1d3d 4446 253d e84c 5a3e
00000090: def9 40bb b4e0 063e 794b e8bc 46c9 76bd
000000a0: 62ce 653c 55c6 a83d 3cb1 aa3c 6399 98be
000000b0: d79f 70be 5875 c83d 61c4 3a3d 2a4e 953d
000000c0: 0e3b 0ebe dbc7 8dbd c5bd bfbd 2c01 2cbd
000000d0: 1a46 f0be 360f 24bd cc0c e33d 4367 af3d
000000e0: bce8 213e 9cac 8d3d 3ab2 073d f014 f73d
000000f0: d25a 443d c94c 09bd 89f6 3abd 1eb2 983d
00000100: 5547 b9bd 9d41 773d df3e acbd 96d1 b0be
00000110: 7d53 73bd c97b 623d f875 19be bb3c e8bd
00000120: c07b 59bc 3fe3 783c 64fc 29be 523d 2ebe
00000130: 456a 963d 8189 273e efa5 29be aa57 17bd
00000140: 23e9 b83d ac53 07be 200f a53c a5c8 18be
00000150: 0950 eeb9 d45a 093d c7ac 04bd 9ac3 abbd
00000160: 5278 593d 9745 5e3e f532 7dbe 97b1 2cbe
00000170: b723 93bd 7744 3b3d 167f 38bd be6c 773b
00000180: 8631 283e 6747 443e 874d 653e 3f47 91be
00000190: 19fc 0bbe bf83 0cbd 9029 10be 8bb0 c03d
000001a0: d900 5cba 1520 93bd 60f8 efbc c0c5 f5bb
000001b0: eaf1 85be d2d7 c4be cdbf 7abe 1ccd ce3d
000001c0: aebe bd3c fa95 d2bc 3555 493e 98ae 823e
000001d0: 60bc 9d3e 0f91 8cbd dd91 b03c b2ed adbc
000001e0: 8ed7 23be edf1 803d 8280 cfbd e1f8 a7bd
000001f0: bf57 153b 6ede 9dbd c93b 3d3e 69c5 733e
00000200: 01a7 a43c 2616 fd3b 18bb 80bc 97bb 07be
00000210: b479 3abe 8c27 7cbe 1b25 67be 8fac a5ba
00000220: 017e d7bc 8237 103e 6094 62bd 9507 373d
00000230: 3f4c 473d d4ab 353d c206 53bb 5a22 b33d
00000240: 02a1 bc3d d334 e73d a3fa 3a3d 284c 81bd
00000250: 3119 633c ad17 e4bd 7a63 94bc 2e87 aa3c
00000260: c930 44bd b9c0 153e 07be 913e dabe 033e
00000270: 44e0 39bc 5c5b a73d 9a65 d43d cdbb 08be
00000280: cf69 8e3c 1d05 61bd d2ee dfbd 21c7 973d
00000290: 2e65 9abd 6999 e6bd 5a94 a53d 31c6 33be
000002a0: ce1b ce3c 5f2b 033d dcbe 77bd 0b15 80bd
000002b0: ec83 4c3c 0aea 9b3c 3b9f a03c 9c90 103e
000002c0: 3581 663d 5536 5fbc a103 9f3d 40c2 83bd
000002d0: 8892 0bbd 56c8 983d 6f48 d1bd 63b4 bdbc
000002e0: 863b 3e3d 644e 0abd 0c31 cebc 4ad8 50bd
000002f0: f6bb 643d 8a0a 0ebc 3964 e63c a68d 403e
00000300: c3d2 19be 630d 993d d5e1 ef3d 188b b5bd
00000310: c930 85be f38e 38be a8eb d53d d333 40be
00000320: 5e2c 733d 3355 423e bc20 cebc e6ac 8abc
00000330: 705c 4c3d 2839 333d 89df 793d 8425 7a3e
00000340: c246 6e3e be99 053e c1a3 11bd 3d9a 483e
00000350: b4a7 3a3d d4a3 a9bd 0e8e e53d 320c 183d
00000360: ca66 22be fcd5 473c 7c6e 80bd c7da 96bd
00000370: daee 87bd 3635 37ba 6642 d43d 2a0d 34bd
00000380: 79f1 41bb a995 023e 03dd 403d 2e82 b1bd
00000390: 7ab5 a4be 8fa7 443d d286 283d dff5 80be
000003a0: 7bbc 023d f03d ad3d fe3c 713e 4acb 393e
000003b0: 9a3d 223d 72fc c4bd 1b60 96bd e2bc e8bd
000003c0: 76f1 17bf bf7b e5be 0ec5 0dbe b653 39bd
000003d0: e70c 0e3c 72ad 7a3d 2ad9 dabd 44ff 833d
000003e0: 3058 a83d 77aa 78bd 159d 9dbd 86f8 bfbd
000003f0: a5eb b5bd 8310 97bd 8ff4 92bc 6ae5 2bbe
0.075179875 0.13053358 0.075531006 0.16772419 0.22804427 0.109350294 0.04655601 0.10499175
0.12588392 0.1460922 -0.11752415 -0.12581196 -0.12600312 -0.079921275 -0.03200302 0.14793228
-0.15249258 -0.09887191 -0.09177396 -0.3136893 -0.1784191 0.0045847264 -0.25531682 -0.15762922
0.049295414 0.053109575 -0.096540906 -0.020874724 -0.11414102 0.099466145 0.08993374 0.07187865
0.112195805 0.038414657 0.040350214 0.213184 -0.0029445807 0.13171655 -0.0283563 -0.060250543
0.014026256 0.08240954 0.020836465 -0.29804525 -0.23498474 0.097880065 0.045597438 0.07290299
-0.13889715 -0.06922885 -0.093623675 -0.041993305 -0.46928483 -0.04005357 0.11086425 0.085646175
0.15811437 0.06917688 0.033128954 0.120645404 0.047938175 -0.033520494 -0.04564527 0.07455848
-0.09046809 0.060365308 -0.08410429 -0.345349 -0.059405793 0.055293832 -0.14986408 -0.113397084
-0.013274133 0.015190898 -0.16600186 -0.1701558 0.07344488 0.16361047 -0.16567205 -0.036948837
0.09028842 -0.13215512 0.020148814 -0.1492029 -0.00045454528 0.033533886 -0.032391336 -0.083869174
0.053093262 0.21706234 -0.2472647 -0.1686462 -0.071845464 0.04571959 -0.045043074 0.0037754024
0.16425142 0.19167863 0.22392856 -0.2837467 -0.13670386 -0.03430533 -0.14078355 0.09408673
-0.00083924603 -0.071838535 -0.02929324 -0.0075003803 -0.26161128 -0.38445908 -0.24487229 0.10097715
0.023162212 -0.02570628 0.1966141 0.2552383 0.3080778 -0.06863605 0.021553928 -0.021231506
-0.16000196 0.06296144 -0.10131933 -0.08201767 0.0022787896 -0.07708441 0.18479837 0.23805775
0.020099165 0.0077235876 -0.015714213 -0.13255154 -0.18210489 -0.24624461 -0.22572748 -0.0012639927
-0.0263052 0.14083675 -0.055317283 0.044684965 0.0486567 0.04435332 -0.0032200073 0.087467864
0.09210397 0.11289372 0.045649182 -0.06313354 0.013860987 -0.11137328 -0.01811384 0.020816412
-0.047898088 0.14624299 0.28465292 0.12865773 -0.011344973 0.08171722 0.103709415 -0.1335289
0.017384438 -0.054936517 -0.10934223 0.07411028 -0.0753883 -0.112597294 0.080849364 -0.17556073
0.025159743 0.032023784 -0.060484752 -0.06254014 0.0124826245 0.019032497 0.019607177 0.14117664
0.056275565 -0.013623794 0.07764364 -0.064335346 -0.03407529 0.07460086 -0.10218894 -0.023157304
0.046443485 -0.033766165 -0.025169872 -0.05098752 0.055843316 -0.008669505 0.028123962 0.18804035
-0.15021805 0.074732564 0.11712996 -0.08864421 -0.26013783 -0.18023281 0.104453385 -0.1876977
0.059368484 0.18977813 -0.025162093 -0.016928148 0.049892843 0.04375568 0.061004195 0.24428374
0.2326918 0.13046929 -0.03555656 0.19590087 0.04557009 -0.08283201 0.112087354 0.037121005
-0.15859523 0.012197014 -0.06271073 -0.07365947 -0.06637354 -0.0006988825 0.10364227 -0.043957867
-0.0029593392 0.12752403 0.047085773 -0.08667408 -0.32169706 0.04801136 0.0411442 -0.25187585
0.03191803 0.08459079 0.23558423 0.18143955 0.03960953 -0.096184626 -0.073425494 -0.113641515
-0.59352815 -0.44820973 -0.13844702 -0.04524585 0.008670068 0.061200567 -0.10685952 0.064451724
0.082199454 -0.060709443 -0.07695977 -0.09373574 -0.08882836 -0.07376196 -0.01793888 -0.16786733

rb2.conv1.bias f4 [20]
00000000: 0c0f 10b8 f006 c8b7 71ae 36b7 7912 13b8
00000010: b344 a1b7 5073 3bb6 4673 fe36 d782 3737
00000020: 2ced be35 ae98 31b8 e892 90b7 4c3b 54b7
00000030: 35a6 93b8 9160 9e38 8098 0e35 9264 3b37
00000040: bb69 7537 4c40 3538 c186 03b8 eed5 3eb7
-3.434629e-05 -2.3845088e-05 -1.0888661e-05 -3.5064735e-05 -1.9224686e-05 -2.7932292e-06 7.5832095e-06 1.09381135e-05
1.4225129e-06 -4.2342283e-05 -1.7234546e-05 -1.2649991e-05 -7.040465e-05 7.552014e-05 5.312104e-07 1.1169484e-05
1.4627755e-05 4.3213644e-05 -3.1358333e-05 -1.1374692e-05

rb2.bn1.weight f4 [20]
00000000: ffa9 543f 4880 5d3f e01d 653f 6407 863f
00000010: fe41 883f cc76 3d3f 8551 733f 3efc 563f
00000020: 4fe5 2e3f a8ce 5b3f bc3d 473f b212 823f
00000030: 7278 813f 3856 753f ee54 6b3f 6f5f 8a3f
00000040: 82f8 643f 16f3 603f 636b 743f be6e 713f
0.83071893 0.86523867 0.8949871 1.0471005 1.0645139 0.74009395 0.95046264 0.8397864
0.6831865 0.8586221 0.77828574 1.0161955 1.0114882 0.95834684 0.9192647 1.0810374
0.8944169 0.8787092 0.9547636 0.94309604

rb2.bn1.bias f4 [20]
00000000: 68f2 193d 1143 22be 63f5 003e 2a62 eaba
00000010: 2eb5 91be dd08 7abd 36fc ee3c 438e 2b3e
00000020: 3d83 aabb 8b74 bc3d 2dd2 2c3d 8f7f 893d
00000030: cf5f babd 8044 e83c 8e56 d1bd 9631 99bd
00000040: 9301 0c3e 5b50 c63b c59c 023e 9662 b3bd
0.037584692 -0.15845896 0.12593608 -0.0017882038 -0.28458542 -0.06104361 0.029172998 0.16753487
-0.005203633 0.09201916 0.042192627 0.06713783 -0.09100305 0.028352976 -0.10221587 -0.07480161
0.13672476 0.0060520596 0.12755115 -0.08759038

rb2.bn1.running_mean f4 [20]
00000000: d03f a2bf b666 4cbe 334f c5bf a4b8 36c0
00000010: 5548 97bf 53f9 f83d ec9d 9cbf ef93 b9bf
00000020: b92a a63f 695e 4cbe b487 b4be 9863 84bf
00000030: ebf1 17c0 ce2c 24bf 0835 50bf baeb dfbf
00000040: 510e 00c0 cc46 bcbe ccfb d4bf 100d 0ebe
-1.2675724 -0.19961056 -1.5414795 -2.8550196 -1.1818949 0.1215693 -1.2235694 -1.4498271
1.2981788 -0.1995789 -0.35259783 -1.0342894 -2.3741405 -0.64130867 -0.8133092 -1.7493813
-2.0008738 -0.36772764 -1.6639342 -0.1387217

rb2.bn1.running_var f4 [20]
00000000: 70bd c83f ca34 b63f f6de e03f caec 2840
00000010: 0a4c 1140 f630 ac3f 51d0 0a40 897c 1640
00000020: 2bac a13f 0df6 903f a50f b63f e929 0d40
00000030: 616a 1640 0183 fc3f 0529 b13f 4601 1840
00000040: d82a 1640 c9da e53f ad23 d43f 6284 0540
1.5682812 1.423486 1.7568042 2.6394525 2.270266 1.3452442 2.1689646 2.351351
1.2630666 1.1325089 1.4223524 2.205683 2.3502429 1.9727479 1.3840643 2.3750777
2.346365 1.7957393 1.6573387 2.086205

rb2.conv2.weight f4 [20, 20, 3, 3]
00000000: 6bcb babc d1c8 d23d 68c8 88bd 217f 5b3c
00000010: c9b9 9a3c 137d ecbd f0b4 15bd 2cfe 0cbe
00000020: e24b 96bd 37e4 5cbe 2155 143e 88f6 ff3d
00000030: ef40 ba3c 23bf 393e df66 ff3d 1c91 533d
00000040: 261e 7a3d d033 133e 6ffd 353c eba4 41bd
00000050: 13e4 433d cbb1 1a3e 1bcd 553d 5e16 813c
00000060: adf4 3abb e4df 4ebc 7783 e6bd 0c80 35be
00000070: 2b3e 9ebc 1508 08be ed3c dabd 625d d43d
00000080: 86a5 82be 6fc7 8abe fb20 30bd 559f e4bc
00000090: 5c28 f5bd 0bdf 9abd 51af d8bd 5678 243b
000000a0: 831d 893c 5b8c 23bd be8f a33d 59b5 223e
000000b0: 1364 313d bd67 1dbe 2c9e bcbc c0de b4bd
000000c0: 67b0 22be c6a7 1b3e 8080 e13c e990 943d
000000d0: 03aa 8abc 8ed6 f83c 221d 9cbc f1ec 1cbc
000000e0: ba69 b7bd fbb9 c33d 994e 183a b892 9cbd
000000f0: a3a2 02be 79dc 21be 7ee2 2f3d c437 40be
00000100: eee2 a1bd 6bf7 12be c88f 0cbd 067c 07be
00000110: e802 1dbe c31b e3bd 3e6a 56be a7c7 913d
00000120: 575d 2e3e 8edc 88be 7f42 66be e8d9 7e3e
00000130: 4c2c 303d 61a9 e0bd b2d7 a3bd 6e6f 343d
00000140: 4713 0a3e 9d53 573d 695c 62be f5ec 4cbe
00000150: c2b2 a73d 0f6c dcbd bdb2 0e3e b20e 5cbd
00000160: 9ceb 863d 39e6 8e3e f30a 4f3b 61bd 893c
00000170: 8590 c2bd 6b88 3c3e e38f 953d 9b81 87bd
00000180: 2f83 8c3d ddae 1ebe 2eea 8abe c9dc 813a
00000190: 7413 803d 2818 0a3e e396 5d3c 5298 4dbd
000001a0: e6c0 083e 129a c9bd 1511 e8bd 7d85 a9bd
000001b0: a2e0 e6bc 0936 803d b750 a2bc 9a36 01be
000001c0: 5b2b 0dbe 3f30 c7bd dffb 97be 5f4a 32be
000001d0: 621e 36be a331 dc3b 9799 073d b78e 92bc
000001e0: 0d31 f13d c4b1 1abd 57be 8f3d a0eb e03d
000001f0: 7be4 0abc b823 d5bb 963e 393e dc05 b93c
00000200: ed22 223e b43c 37bb 9fd3 cbbd 70dd ef3d
00000210: 60df 393d bb34 113e afe9 503e cbd0 a33d
00000220: 5c36 983d 8bca f93d b69d 953c ebbd ce3d
00000230: 564d b83d 9a7a 1c3d 2690 92bc 78a3 5abe
00000240: f216 743d 54eb 11bb 2d82 f23c 6d3e 7a3d
00000250: a718 e33d d25d 253d 451a c7bd 7de9 1dbd
00000260: d56a 723d d15b 9c3d e758 ebbd b4c1 d63a
00000270: 4678 dc3c b6cd 21be 7b20 653d 8a11 07bc
00000280: 53ba b9bc d04f 81bd c408 0fbe a2b0 69bc
00000290: 7f94 a5bc f96e ffbd 6d6d e73d aebe 573d
000002a0: a658 80be cef1 18bd 2bde eabd fe84 7b3e
000002b0: a413 453d d3f0 c53d c9ab 583d 1600 a03d
000002c0: 4df9 183e 7695 183e 509a 393e 3d39 293d
000002d0: f4d5 103e 742c 043e cdc8 43be acd9 66be
000002e0: d46a 9d3d 1ae9 debd 8263 ae3a fc75 86bd
000002f0: 879a 04be bf3d 8bbd c796 72be 2a6d 21bd
00000300: eefa 083e f1dc 06bd e75d aa3d 0017 9c3d
00000310: 8f24 743d bd0f 8739 b1a5 c8bd 9a52 a3bd
00000320: 4888 6ebd e850 5fbe 2c9b 99bd 9548 12bd
00000330: 0b59 26bd 5a71 013d b929 543d 4a4f 14be
00000340: 003e 363b 54de 89bc 2ec5 0dbe a7c0 a93d
00000350: a535 d5bd c77b 66be 583e 1ebe 7179 10be
00000360: e0b6 45be 910f 11be 5acf e3bd f994 8cbd
00000370: b599 35bb 4e46 28be 5c42 c73d a7fb 85bd
00000380: f3bd f7bd 71f9 56bd e4e7 8bbd ef60 2a3e
00000390: 48b4 6abe fd2d 62be 37b4 813d 44e1 b13c
000003a0: 7794 56bc 5b00 a93d 8cde a0bc 4c7f 39bd
000003b0: 5302 1c3e f695 2dbd d12b 263c 6be3 113d
000003c0: fd46 1cbc c6dc ed3d b203 a4bc 9982 dd3c
000003d0: 0a7a de3c 93f5 53be db4b 8e3d 5516 e53d
000003e0: 0259 a9bd b601 14bd 316f 83bd 84a6 ebbd
000003f0: 3456 06be 5a57 50bd fe1a 8bbd 7a88 d73d
-0.022802075 0.10292209 -0.066788495 0.013397009 0.018887417 -0.115472935 -0.03654951 -0.13768834
-0.07338692 -0.21571432 0.14485599 0.12498194 0.02273604 0.18139319 0.12470793 0.05165206
0.061063908 0.14375234 0.011107787 -0.04727642 0.04782493 0.15106885 0.052197557 0.015757736
-0.0028527186 -0.012626622 -0.11255544 -0.17724627 -0.019316753 -0.13284333 -0.10656152 0.10369374
-0.2551691 -0.2710528 -0.043000203 -0.027908007 -0.119705886 -0.07562073 -0.10580314 0.002509614
0.016737705 -0.039928775 0.07986401 0.15889491 0.04330833 -0.15371604 -0.023024641 -0.08831549
-0.15887605 0.15200719 0.027527094 0.07254202 -0.016926771 0.030375745 -0.01905686 -0.009577976
-0.089557126 0.09556957 0.0005810052 -0.07645172 -0.12757353 -0.1580676 0.04294061 -0.18771273
-0.079046115 -0.14352195 -0.034316808 -0.13230905 -0.1533314 -0.110892795 -0.20938966 0.07118159
0.17027794 -0.2673077 -0.22486304 0.24887812 0.043010995 -0.109698065 -0.08000125 0.04405158
0.13483916 0.052569974 -0.22105564 -0.20012267 0.08188392 -0.10762798 0.1393537 -0.053724952
0.06587908 0.2791002 0.003159222 0.016813936 -0.09500221 0.18411414 0.07302835 -0.06616517
0.06860959 -0.15496393 -0.2713179 0.0009907718 0.062537104 0.13485777 0.013524744 -0.050194092
0.13354835 -0.0984384 -0.11331383 -0.08277414 -0.028183285 0.062603064 -0.019813878 -0.12618485
-0.1378607 -0.09725999 -0.2968435 -0.17411183 -0.17785028 0.0067197843 0.03310546 -0.017890317
0.11776934 -0.037767187 0.07018726 0.10982442 -0.008477326 -0.006504502 0.18090281 0.022585802
0.15833636 -0.0027959766 -0.09952473 0.11712158 0.045379043 0.14180271 0.20401643 0.079988085
0.07432243 0.12196835 0.018263679 0.10094818 0.08999126 0.03820286 -0.017891001 -0.21351421
0.059592195 -0.002226551 0.029603088 0.06109469 0.110886864 0.040372677 -0.097218074 -0.03855275
0.059183914 0.076347 -0.11491566 0.0016384632 0.02691282 -0.15801129 0.05593918 -0.008243928
-0.022671854 -0.06314051 -0.13968188 -0.014263304 -0.02021241 -0.12472338 0.11300168 0.05267208
-0.25067633 -0.037339978 -0.114681564 0.24562451 0.048114434 0.09665074 0.052898202 0.078125164
0.1493885 0.14900765 0.18125272 0.041314352 0.14144117 0.12907583 -0.19119568 -0.22543973
0.076863915 -0.10884304 0.0013304802 -0.065654725 -0.12949573 -0.067988865 -0.2369033 -0.039410748
0.13376972 -0.03292555 0.08318692 0.076215744 0.059605177 0.00025760932 -0.09797228 -0.079747394
-0.058235437 -0.21808207 -0.075003 -0.03571375 -0.04061226 0.03160224 0.051797602 -0.14483371
0.002780795 -0.016829647 -0.1384475 0.08288699 -0.104106225 -0.22508155 -0.1545347 -0.14108826
-0.19308043 -0.14166094 -0.111235335 -0.06864352 -0.0027710025 -0.16433069 0.09729454 -0.065421395
-0.12096777 -0.05248398 -0.06831339 0.1663854 -0.22920334 -0.22087856 0.063332014 0.02171386
-0.01309692 0.08252021 -0.019637369 -0.045287415 0.15235262 -0.042379342 0.010142283 0.035617273
-0.009538409 0.11614375 -0.020021293 0.027039813 0.027157802 -0.20699148 0.06948062 0.111859
-0.0826893 -0.036134444 -0.064176925 -0.1150637 -0.13118821 -0.050864555 -0.06792258 0.10524078

rb2.conv2.bias f4 [20]
00000000: 22ed 4cb8 3cb7 4fb5 790c 5ab7 1121 8037
00000010: 7837 c436 a1c9 3037 e5ba df37 7a84 ae37
00000020: 8157 0638 44f7 e037 8024 1fb8 48c5 a836
00000030: 68ac e237 ce1b 33b7 8b36 6637 1b46 2ab8
00000040: 9f89 45b7 59c3 f6b7 72bf 4537 8314 6537
-4.8858237e-05 -7.738015e-07 -1.2996717e-05 1.5274187e-05 5.8477126e-06 1.0537363e-05 2.6670701e-05 2.0804106e-05
3.2029584e-05 2.6818023e-05 -3.7942547e-05 5.0297567e-06 2.7021582e-05 -1.0675705e-05 1.3721768e-05 -4.059645e-05
-1.1774157e-05 -2.9416451e-05 1.1786689e-05 1.3654239e-05

rb2.bn2.weight f4 [20]
00000000: b804 5a3f b31b 6b3f b996 973f 156a 8e3f
00000010: b1ab 983f cc7b 8b3f 460d 9f3f 2323 9c3f
00000020: 0edf 9d3f 9a6a 933f 3a64 933f 3b8d 7f3f
00000030: 8c80 943f 4155 813f 0d18 8c3f 69b4 a23f
00000040: 0b48 aa3f cc2f a53f 50b1 8d3f f9db 5d3f
0.8516345 0.9183914 1.1842872 1.1126124 1.1927396 1.0897155 1.2425926 1.2198223
1.2333696 1.1516907 1.1514962 0.99824876 1.1601729 1.0104142 1.094484 1.2711307
1.3303236 1.2905211 1.1069736 0.86663777

rb2.bn2.bias f4 [20]
00000000: 6e51 503e aea1 4e3d 0f29 41be 5516 a43a
00000010: dfdb 97bd a202 2abe dd45 ba3d 6da8 74be
00000020: 0735 6f3e 4905 27be 4e10 6b3d 5f4f 03be
00000030: 6d54 4bbc f8bb 433d 3c87 83bc 2640 3d3e
00000040: 4ee0 c5bc 3281 fbbd 54ab cf3d d51b 8bbe
0.20343563 0.05044716 -0.18863319 0.0012518862 -0.07414984 -0.16602567 0.090953566 -0.23892374
0.23360072 -0.1631061 0.057388596 -0.12823246 -0.012410265 0.047786683 -0.016055696 0.18481502
-0.024154808 -0.122805014 0.101401 -0.27169672

rb2.bn2.running_mean f4 [20]
00000000: 4243 21bf cfde 02c0 47de 8fbf 1db9 92bf
00000010: 0242 30bf 7ff7 1f3e b35e 99bf c5e4 013f
00000020: afcd 36c0 585e 23bd c12c 5fbf 4ccc de3c
00000030: 1aa8 e1bf 6983 e2be 1328 783e c563 b3bf
00000040: 80e4 30c0 64d9 05be e8f6 15c0 b376 5a3e
-0.6299325 -2.0448492 -1.1239709 -1.1462742 -0.6885072 0.15621756 -1.1982025 0.507397
-2.856304 -0.039884895 -0.87177664 0.027197026 -1.7629426 -0.44240883 0.24234037 -1.4014822
-2.7639465 -0.13071209 -2.343195 0.21334343

rb2.bn2.running_var f4 [20]
00000000: f623 553f f288 6b3f 612f 3b3f 574d 903f
00000010: e208 233f 0a71 813f b649 8e3f b988 2b3f
00000020: 4b9b 983f 12d0 453f 4327 513f 0819 2d3f
00000030: 4e1d 223f ea47 7c3f 1c0a a33f f500 6c3f
00000040: d984 6f3f 9d7d 843f 0c45 6d3f 5aeb 243f
0.83258 0.92005837 0.7311917 1.1273602 0.6368543 1.0112622 1.1116245 0.670055
1.1922392 0.77270615 0.81700534 0.6761632 0.63325965 0.9854723 1.273746 0.9218896
0.93562084 1.0350834 0.9268348 0.6442162

rb2.shortcut.conv.weight f4 [20, 10, 1, 1]
00000000: 3a49 76bc 561e 90bd b5d9 c3be 4ead b7bd
00000010: 10b9 033f 7f5c b8bc 5a00 043c 28a9 94bc
00000020: 4ec9 7fbc 43b0 74be b8ea 4fbd 09ce 043e
00000030: 1d5d 1abf 6aae 983d ec42 28be 8aed 4fbe
00000040: c110 11bd a70d e4bb 644a 1f3c 2fe7 403c
00000050: 559a c6bd 997b fcbd d959 12bd a4d5 bebc
00000060: 070f 563d fc40 c13e 6225 1c3e 5c2f f83d
00000070: 3eb7 16be 3546 c0be a360 85bd 65c2 52ba
00000080: 2832 a63e ddfa 0c3e 2784 473e 1f9d 18be
00000090: 788d 813e f976 543e 5aaa da3e 528d 09be
000000a0: e635 02be 6294 423d e35d 5e3d c544 df3e
000000b0: 010e 8c3d 20a1 8fbd 6312 c0bc 1265 a4bd
000000c0: 30a7 b43e 8d6f ccbd fd2e 8e3e 2ef1 343e
000000d0: c475 e0bd d48f bfbe 2169 8cbd 5dea 88bd
000000e0: bc83 473e 29f3 0bbe 9422 12be d1fc cebe
000000f0: 4928 e1bd 9078 293e 2938 3e3c eda9 a4be
00000100: 66e7 fc3c c9cc c9be 2020 83be df53 9b3d
00000110: a63f 7e3e 5d76 8fbd dddf 373e dd07 423e
00000120: bf2f 453c b068 31bd 1e56 27be 5bf1 32bd
00000130: e326 96be ffe2 5a3d 3923 17bf b821 43be
00000140: ed03 bebd aaf4 093e 3fc6 9fbd a9c1 72bd
00000150: 675d 35bf 00e1 b1bd 37e6 15bb 88d5 8a3e
00000160: 0627 b5bd 7115 a5bb e17c 85be 8520 ba3e
00000170: 66e5 1fbe 6314 40be 1520 483e ceff febd
00000180: 9301 6fbc e594 fe3d 9a0d 12b6 5349 cabe
00000190: 0def b8bc 9777 803d 3dab d8be 0fa3 853e
000001a0: 3f8b a1be 48ee 06be 130e 883e b02f 6e3d
000001b0: cefc f53d 00c7 553d ca05 4a3c 39ec aebc
000001c0: 765a 9fbe 8953 833e 0b3a 8c3e afc7 6f3e
000001d0: 273f b2bd 84ee 89bd d733 193e 7e79 50be
000001e0: 6c67 c2bd 5a5e b5be 9f47 633e 8271 a83e
000001f0: bfb4 cdbd 533f d9bc 5728 5e3d 1333 eebd
00000200: 0e3c c4be df7b d73d 2180 64bd db19 41be
00000210: c7cf d8bd aa4b c3bd c386 2d3d d75a f83d
00000220: 2d83 da3d f5fd 863d eb38 25bf 914b 22be
00000230: 3991 ea3c 7211 83be 0a16 f9bb 8100 33be
00000240: f103 94bc 48b4 bfbe 5e3b cfbe 3cba a2bd
00000250: af42 aebd 4bb7 443e e51b bd3e 72aa acbe
00000260: 376d 6c3e e080 e63d 8aec 06be 990c 143e
00000270: f61c 1d3e cda1 f0bd b630 9dbe ce3c 17bd
00000280: c9f3 213e c10c a13e f95d 07be fc96 af3d
00000290: ea11 da3b 7592 8d3e 4235 4f3e a6b9 e53d
000002a0: f811 cb3d e833 053b fb3c 4d3d 6af4 a63d
000002b0: 2009 8ebe 5591 f83d f150 523d 0df0 803e
000002c0: f914 823e 72a0 cf3e 95ac 1f3e 5d4b febd
000002d0: 9ebf e43c eae2 af3d 8fba e9bc 4fec 85be
000002e0: 6d9c 45bc b810 633d 19eb 8ebc f30b a1be
000002f0: 60f2 eebe 113f 02bd e51a 7fbe 771e 14be
00000300: ead6 bf3e 3306 2abc dc2a 2b3e c423 8bbd
00000310: 9342 a43d be54 debd 609d 63be 622d c03d
-0.015032107 -0.07037036 -0.38252035 -0.08968602 0.5145426 -0.022505043 0.008056724 -0.018147066
-0.01561196 -0.23895364 -0.050760955 0.12969221 -0.6029833 0.07455142 -0.16431779 -0.20305458
-0.03541637 -0.0069596353 0.009722326 0.011773868 -0.09697405 -0.12328262 -0.035730217 -0.023295231
0.052260425 0.37744892 0.15248635 0.12118408 -0.14718339 -0.37553564 -0.065125726 -0.00080398313
0.3246014 0.13767572 0.19484006 -0.14903687 0.25303245 0.2074851 0.42708093 -0.13432816
-0.12715873 0.04750479 0.054288756 0.43607154 0.068386085 -0.07013154 -0.023446267 -0.0802709
0.35283804 -0.09982214 0.27770224 0.17670128 -0.10959962 -0.3741442 -0.06855989 -0.06685326
0.19483846 -0.13666977 -0.14271003 -0.4042726 -0.10994012 0.16549897 0.011610069 -0.32160893
0.030872058 -0.3941405 -0.25610447 0.075843565 0.24828967 -0.07004998 0.17956491 0.18948312
0.012035309 -0.04331273 -0.16341445 -0.043687206 -0.29326543 0.053439137 -0.5903812 -0.19055831
-0.092780925 0.13472238 -0.07801484 -0.05926672 -0.70845646 -0.086854935 -0.0022872814 0.27116036
-0.08845334 -0.0050379564 -0.26071838 0.36352935 -0.15614852 -0.18757777 0.19543488 -0.124511346
-0.014587778 0.12430743 -2.1763612e-06 -0.39509067 -0.022574926 0.0627281 -0.42318144 0.26100966
-0.3155155 -0.13176835 0.26573238 0.058150947 0.12011109 0.052191734 0.012330482 -0.021352874
-0.31123704 0.2564967 0.27388033 0.23416017 -0.087034516 -0.06734946 0.14961182 -0.20358846
-0.094923824 -0.35423547 0.2219529 0.328991 -0.1004424 -0.026519453 0.05423769 -0.116308354
-0.38327068 0.105216734 -0.055786256 -0.1885752 -0.105865054 -0.09535916 0.042364847 0.12126701
0.10669551 0.06591407 -0.64539975 -0.15849139 0.0286337 -0.25599247 -0.007601504 -0.17480661
-0.018068286 -0.3744223 -0.4047498 -0.07945678 -0.08508813 0.19210546 0.36935344 -0.3372379
0.23088537 0.1125505 -0.1317617 0.1445793 0.15343079 -0.11749611 -0.30701226 -0.036923222
0.15815653 0.31455043 -0.13219441 0.0857372 0.0066549676 0.276508 0.2023516 0.1121705
0.09915537 0.0020325128 0.050106984 0.08152087 -0.27741337 0.12137095 0.051346723 0.25183144
0.25406626 0.40552098 0.15593179 -0.12416718 0.027923401 0.08588202 -0.02853134 -0.26156852
-0.012061221 0.055435866 -0.017446088 -0.3145443 -0.46669292 -0.031798426 -0.24912603 -0.14464746
0.37468654 -0.010377455 0.16715568 -0.06793931 0.080205105 -0.10856007 -0.22228003 0.09383656

rb2.shortcut.conv.bias f4 [20]
00000000: c339 d837 f60e 2f35 684a 0b38 00d2 7c37
00000010: 1731 db37 6222 d237 de55 c1b6 da96 ed37
00000020: 92f2 8837 6480 1338 152e c535 0eb6 34b7
00000030: 561d e436 0ab1 2cb8 3f4d a5b7 fd45 72b6
00000040: a69b 67b7 ea13 24b7 80f0 5e37 2210 5c36
2.5776104e-05 6.521435e-07 3.320948e-05 1.5069265e-05 2.6129694e-05 2.5049962e-05 -5.7618445e-06 2.8322847e-05
1.6325419e-05 3.5167104e-05 1.4691055e-06 -1.0771224e-05 6.7983447e-06 -4.1172876e-05 -1.9705503e-05 -3.6101549e-06
-1.3804913e-05 -9.779798e-06 1.3288227e-05 3.2791945e-06

rb2.shortcut.bn.weight f4 [20]
00000000: cfab 723f 114b 333f 2dfd 673f dd67 063f
00000010: 69d9 2f3f 4ba5 303f e77b 093f 472b 443f
00000020: d161 4f3f 59ee 553f 0052 0d3f e2ed 2f3f
00000030: 1861 f33e 1366 5d3f bee6 893f 7a42 f33e
00000040: 697b 323f c78c 073f 61f9 b13e d46e 3b3f
0.9479341 0.7003642 0.9062069 0.5250223 0.68691117 0.6900222 0.53704685 0.76628536
0.8100863 0.83566815 0.5520325 0.68722355 0.47535014 0.8648388 1.0773542 0.47511655
0.6971956 0.52949184 0.34760574 0.73215985

rb2.shortcut.bn.bias f4 [20]
00000000: 6e51 503e aea1 4e3d 0f29 41be 5516 a43a
00000010: dfdb 97bd a202 2abe dd45 ba3d 6da8 74be
00000020: 0735 6f3e 4905 27be 4e10 6b3d 5f4f 03be
00000030: 6d54 4bbc f8bb 433d 3c87 83bc 2640 3d3e
00000040: 4ee0 c5bc 3281 fbbd 54ab cf3d d51b 8bbe
0.20343563 0.05044716 -0.18863319 0.0012518862 -0.07414984 -0.16602567 0.090953566 -0.23892374
0.23360072 -0.1631061 0.057388596 -0.12823246 -0.012410265 0.047786683 -0.016055696 0.18481502
-0.024154808 -0.122805014 0.101401 -0.27169672

rb2.shortcut.bn.running_mean f4 [20]
00000000: c58c a4be 50bd 58bf 7420 debd ce11 803f
00000010: db61 cb3e 27e3 33bf 2cc4 0ebf a545 50bf
00000020: c823 2fbf cd9f 08bf edaa 46be c19c f33d
00000030: 4858 42be b1c5 39bf a8ba 61bf afdf 0d3e
00000040: ced3 583f e1cd 3b3f 5976 4fbf 1936 853d
-0.3213865 -0.8466387 -0.10846034 1.0005434 0.39723095 -0.7026848 -0.55768085 -0.8135627
-0.6841397 -0.53368837 -0.1940114 0.11895133 -0.18978989 -0.7256728 -0.8817544 0.1385486
0.8469819 0.7336102 -0.8103996 0.06504459

rb2.shortcut.bn.running_var f4 [20]
00000000: d6ec ea3e 1fd5 c93e 2559 aa3e 8e4c 043f
00000010: cf16 ce3e 4430 dc3e 887b b63e ebd6 073f
00000020: ebf6 bd3e 679f 903e f1ac dd3e 3e34 923e
00000030: f6bf 6a3e be59 1e3f 0ac9 e73e 02a6 ae3e
00000040: 7866 973e fdda cd3e de8c ff3e 160a 253e
0.45883816 0.3942041 0.33271137 0.51679313 0.40251777 0.43005574 0.35641122 0.53062314
0.37102446 0.28246614 0.43296006 0.28555483 0.2292479 0.61855686 0.45270568 0.3411103
0.29570365 0.40206137 0.4991216 0.16117129

res1_sc1.conv.weight f4 [20, 3, 1, 1]
00000000: 1863 0cbf a02a b53d 6a7d aa3e 0297 79be
00000010: a9fd 0f3f 2962 6fbe de33 063c 1afe 9dbe
00000020: 88e0 c5be eaf5 c33e a245 aebe 2828 b1be
00000030: 26f9 f73e cd0d f1bd 77b1 5d3e 7568 0bbf
00000040: 10e7 bebe 72bf a53e 8078 36be 54a3 bc3e
00000050: d395 013f dbb5 b63e df0d 10bf 7741 a8be
00000060: f887 2d3e c6ad 083f 5ec9 33be f6e8 873e
00000070: 471c 85be 38db bbbe 85d5 c0bd ae7f 81be
00000080: f8e4 c2be 62fc 173e 5b6b b0bd 0a77 d4be
00000090: cadd b0be 04a9 4fbe b5a2 74bd 4030 003b
000000a0: 3aa5 19be dbd0 f3be c3e3 6bbe 5e38 6c3e
000000b0: 1375 b43e 854a c23e 97c5 233e fece 85be
000000c0: 29e0 c23d 0737 abbe 7454 6d3d 1183 723d
000000d0: c0a0 b0be e5cb 6d3d 83c3 773e eef5 9a3e
000000e0: ad58 c7bd f61f 04bf 364f 1c3e 2f1b 943d
-0.54838705 0.08846021 0.33298808 -0.24374011 0.5624643 -0.23377289 0.008191077 -0.30857927
-0.38647866 0.38273555 -0.340375 -0.3460095 0.48432273 -0.117702104 0.21649729 -0.54456264
-0.37285662 0.32372624 -0.17819405 0.3684336 0.5061924 0.3568562 -0.56271166 -0.32862446
0.16946399 0.5339016 -0.17557284 0.26544923 -0.25998136 -0.36690688 -0.094157256 -0.25292724
-0.38065314 0.1484237 -0.086142264 -0.4149707 -0.34544212 -0.20279318 -0.059725482 0.001956001
-0.15004435 -0.47620282 -0.23036103 0.23068377 0.3524557 0.3794748 0.15993343 -0.26134485
0.095154114 -0.3344042 0.05794187 0.059207026 -0.34497643 0.058055777 0.24195676 0.30265754
-0.097337104 -0.5161127 0.15264592 0.07231747

res1_sc1.conv.bias f4 [20]
00000000: c35c cfb8 5b54 e938 2bb7 4b38 fc6c 0038
00000010: ad36 cf36 1e93 8938 7f31 21b5 76c4 fc37
00000020: 96ca 55b8 22a1 7738 3b5e 0fb8 abe6 8236
00000030: 3ba2 aa37 721e b5b7 9971 1038 2c47 2bb5
00000040: 4792 4137 242f aeb8 1cf3 6f38 dada f2b7
-9.8878074e-05 0.00011126018 4.856956e-05 3.0619078e-05 6.175446e-06 6.560072e-05 -6.00492e-07 3.0132225e-05
-5.097183e-05 5.9039456e-05 -3.4181616e-05 3.901155e-06 2.0341124e-05 -2.1591059e-05 3.443807e-05 -6.380603e-07
1.1537754e-05 -8.305747e-05 5.7208454e-05 -2.8950559e-05

res1_sc1.bn.weight f4 [20]
00000000: 68e7 4e3f 79cb 6a3f 0193 2d3f f6e2 0e3f
00000010: 41b3 023f dbc7 1c3f 086a 0d3f 850f 183f
00000020: e31c 1c3f c690 263f b902 163f 3021 133f
00000030: abff ed3e 71e8 173f 34b5 263f 8eb2 c13e
00000040: 5867 0b3f 13c7 f53e d2fd db3e 7e81 503f
0.8082185 0.91716725 0.67802435 0.55815065 0.5105477 0.61242455 0.55239916 0.5939868
0.6098158 0.65064657 0.58597904 0.57472515 0.46484122 0.5933905 0.65120244 0.3783154
0.54454565 0.48003444 0.42967087 0.8144759

res1_sc1.bn.bias f4 [20]
00000000: 6e51 503e aea1 4e3d 0f29 41be 5516 a43a
00000010: dfdb 97bd a202 2abe dd45 ba3d 6da8 74be
00000020: 0735 6f3e 4905 27be 4e10 6b3d 5f4f 03be
00000030: 6d54 4bbc f8bb 433d 3c87 83bc 2640 3d3e
00000040: 4ee0 c5bc 3281 fbbd 54ab cf3d d51b 8bbe
0.20343563 0.05044716 -0.18863319 0.0012518862 -0.07414984 -0.16602567 0.090953566 -0.23892374
0.23360072 -0.1631061 0.057388596 -0.12823246 -0.012410265 0.047786683 -0.016055696 0.18481502
-0.024154808 -0.122805014 0.101401 -0.27169672

res1_sc1.bn.running_mean f4 [20]
00000000: 1151 8bbc 4873 413a c991 c73d 632a 793d
00000010: 4faa 88bd c2a7 0a3d da06 dfbd d60f ac3d
00000020: 2f22 2fbd c277 873d 49d3 cb3d 18fd 863d
00000030: 6fbb 7f3d bbc0 c43d 1650 82bd 3d0f debb
00000040: ea04 913c a72d b33c 0482 19bd 77fa 8c3c
-0.017006429 0.0007379544 0.09744603 0.06083144 -0.06673109 0.033851393 -0.10889979 0.08401458
-0.04275721 0.06614639 0.09952409 0.065912426 0.06243461 0.09607073 -0.063629314 -0.006776719
0.017702539 0.021872355 -0.03747751 0.017209275

res1_sc1.bn.running_var f4 [20]
00000000: 36cd ab3c 51a7 ea3b a081 013e 7c6b 1f3d
00000010: f89e b43d 7536 d23d fc7f 0e3e 91a6 b83d
00000020: 3dba 983d 830a 383d 5b08 0e3e ac76 263d
00000030: 854a c13d 707e db3d e0c6 2a3d 1e18 e03c
00000040: 7e6a 233c cd0f 703c b4cd 573d 15e0 ec3c
0.020971876 0.007161059 0.12647104 0.038920864 0.088193834 0.10264293 0.1391601 0.09016145
0.07457397 0.0449319 0.13870375 0.040640518 0.094380416 0.107174754 0.04169357 0.02735525
0.00997412 0.014652205 0.05268641 0.028915444
