models/dense_max/epoch_0019.pth (torch, 645162 bytes, 174 tensors)

rb1.conv1.weight f4 [10, 3, 3, 3]
0	0xbd9d2291	-0.07672609
1	0x3da9744d	0.08274136
2	0xbda15bdc	-0.07878849
3	0xbe6e7d6b	-0.2329003
4	0x3e8b4941	0.27204326
5	0x3e3c7914	0.18405563
6	0xbe4e9144	-0.20172602
7	0x3e4401da	0.19141331
8	0xbdf60239	-0.12012143
9	0xbe2fcafd	-0.17167278
10	0x3c70b1fe	0.014690874
11	0xbd2a6ceb	-0.04160778
12	0xbe9f2f15	-0.31090608
13	0x3e914373	0.28371772
14	0x3e2e2c4c	0.17009085
15	0xbc676a9f	-0.014124542
16	0x3e8dac52	0.27670532
17	0xbe69332c	-0.22773427
18	0xbcaf2f80	-0.021384954
19	0x3a3933cc	0.0007064908
20	0xbdbdf5ab	-0.09275373
21	0xbe6bb37f	-0.23017691
22	0x3d35896d	0.044320513
23	0x3c3c09fc	0.01147699
24	0x3e02d9b7	0.12778364
25	0x3d81f001	0.06344605
26	0x3e0eba93	0.1393836
27	0x3d69740d	0.05699544
28	0x3cab6433	0.020921802
29	0x3e24c775	0.16091712
30	0x3d829b90	0.063773274
31	0x3e0fda44	0.14048105
32	0xbeb43a87	-0.35200903
33	0xbd6ad5e4	-0.05733289
34	0x3d31f50b	0.04344658
35	0xbda24a65	-0.07924346
36	0xbd2c1fe3	-0.042022597
37	0xbccb26f5	-0.02479885
38	0xbc5dab71	-0.013529644
39	0xbd20f4ec	-0.039296076
40	0x3eda1edb	0.42601666
41	0xbe6b87ea	-0.23001066
42	0xbd654964	-0.055978194
43	0x3dbdb73a	0.09263463
44	0xbe093131	-0.13397671
45	0xbe0e3045	-0.13885601
46	0xbe313707	-0.17306148
47	0x3def06b5	0.11671201
48	0x3c3a45b7	0.01136916
49	0x3eb43b97	0.35201713
50	0xbe897d21	-0.26853278
51	0xbbb80d11	-0.005616792
52	0x3dcfe76e	0.101515636
53	0x3d44091d	0.047860254
54	0x3cf13660	0.029444873
55	0x3e8bfb92	0.2734037
56	0x3e4197b9	0.18905534
57	0xbe07e298	-0.13270032
58	0xbd979865	-0.07402114
59	0x3dc79d98	0.097468555
60	0xbd7885c1	-0.060674433
61	0xbe61d732	-0.22054747
62	0x3c3f11ae	0.01166193
63	0x3e79e55f	0.24403904
64	0x3e750549	0.23927797
65	0x3ea0bd34	0.3139435
66	0x3b167a59	0.0022961108
67	0xbe335dbb	-0.17516224
68	0xbdec8b43	-0.115499996
69	0xbde77fff	-0.1130371
70	0xbe8a0cf0	-0.26962996
71	0xbe36ee84	-0.17864424
72	0x3d7bda9c	0.06148778
73	0x3e2eb3eb	0.17060821
74	0x3d74a2a0	0.059725404
75	0x3ac6a590	0.0015155543
76	0xbd353fa1	-0.044250134
77	0xbdbfd316	-0.09366433
78	0x3dd0aeac	0.10189566
79	0xbe50caa1	-0.20389797
80	0xbdf73a0c	-0.120716184
81	0xbe41570e	-0.18880865
82	0x3d17ec52	0.037090607
83	0xbe1fbaa6	-0.15598544
84	0x3d9edd4e	0.07757054
85	0xbe9c6707	-0.30547354
86	0xbe285064	-0.16436917
87	0x3d4a8c9b	0.049450498
88	0x3dced02c	0.100982994
89	0x3e25e37a	0.16200057
90	0xbdda0c1e	-0.106468424
91	0xbe1efcc6	-0.15526113
92	0xbe230809	-0.15921034
93	0x3e621f72	0.22082308
94	0xbe882282	-0.26588827
95	0xbdfb292e	-0.12263714
96	0x3e8d053b	0.27543053
97	0x3cc2d6f2	0.023784135
98	0x3ca2f5a4	0.019892521
99	0xbd4550ae	-0.048172645
100	0x3ca9fe4e	0.020751145
101	0xbe128b5e	-0.14310977
102	0x3c85b07b	0.016319504
103	0xbe2bba90	-0.16770387
104	0xbe01bfb0	-0.12670779
105	0x3e43cc8b	0.19120996
106	0x3ca434f5	0.020044783
107	0x3e69b723	0.22823767
108	0xbe7798ae	-0.24179336
109	0xbe6b0aa0	-0.22953272
110	0x3e4879a7	0.19577657
111	0xbda8f945	-0.082506694
112	0xbe2f7511	-0.17134501
113	0x3e16e6ba	0.14736453
114	0xbde781d1	-0.113040574
115	0xbc46997c	-0.012121554
116	0x3e66d4a2	0.2254205
117	0x3e6ec1f8	0.2331618
118	0xbe627357	-0.22114311
119	0xbdb77907	-0.08958631
120	0xbd981105	-0.07425121
121	0xbc783069	-0.015148261
122	0x3e2991fa	0.16559592
123	0x3dbf54c9	0.09342343
124	0x3deab356	0.11459987
125	0x3dfa02ac	0.12207541
126	0x3e8794db	0.26480755
127	0x3da9d10f	0.08291828
128	0xbd924ea9	-0.071439095
129	0x3e650bf2	0.22367838
130	0x3cf74f32	0.03018913
131	0xbe8fa877	-0.28058216
132	0x3e1577f0	0.14596534
133	0x3ca711b6	0.020394187
134	0xbe3944e8	-0.18092692
135	0xbe3cef84	-0.18450743
136	0xbe1431ba	-0.14472094
137	0x3e0a7ae7	0.13523446
138	0x3cac6136	0.021042448
139	0xbe14276a	-0.1446816
140	0x3c345d64	0.011008594
141	0x3dee3d48	0.11632782
142	0xbdc6381c	-0.09678671
143	0x3cbaf1d2	0.022820387
144	0x3d8e967e	0.06962298
145	0x3e408893	0.18802099
146	0x3e653e0c	0.2238695
147	0xbd49ab87	-0.049235847
148	0xbee3e063	-0.4450713
149	0xbde96759	-0.11396665
150	0x3e2c44a7	0.16823064
151	0xbe0a07db	-0.13479559
152	0xbea9b881	-0.33148578
153	0x3ca71513	0.020395791
154	0xbdaafbd1	-0.083488114
155	0x3e69f403	0.2284699
156	0xbdac7cb0	-0.0842222
157	0xbe33e5c4	-0.17568117
158	0x3a8dfbe7	0.0010832519
159	0xbe6369aa	-0.22208276
160	0xbeaac909	-0.33356503
161	0x3ca6fabd	0.020383233
162	0xbcd0b42a	-0.025476534
163	0xbd28f214	-0.04124649
164	0x3dda412f	0.10656964
165	0x3da78499	0.08179588
166	0x3e4c044f	0.19923519
167	0xbde0eb71	-0.10982407
168	0xbcb8ee8f	-0.022574691
169	0xbd11d029	-0.035598908
170	0x3cc7a853	0.024372255
171	0x3d8b06a0	0.06788373
172	0x3cf2cbe5	0.02963824
173	0x3da28a8d	0.07936583
174	0x3e0c4431	0.13697888
175	0x3e994cf7	0.29941532
176	0xbd4fb978	-0.050713986
177	0x3d2bb58c	0.041921183
178	0x3d5bcba6	0.05366101
179	0xbe33305c	-0.17498916
180	0xbe84586f	-0.2584872
181	0xbe1a5638	-0.15071952
182	0xbdc2fbcd	-0.095206834
183	0xbb9a6f88	-0.0047130026
184	0x3de79089	0.11306865
185	0x3e19ad1f	0.15007447
186	0xbd9ba65d	-0.07600091
187	0x3ec90b34	0.3926636
188	0x3e8b249c	0.27176368
189	0x3c52a8d7	0.012857637
190	0xbe0a0ee3	-0.13482241
191	0x3e450fd9	0.19244327
192	0xbe8697ec	-0.26287782
193	0xbd7ea143	-0.06216551
194	0x3d8ac4d3	0.067758225
195	0x3e65e74d	0.22451515
196	0xbd4f7894	-0.0506521
197	0x3e49bc5d	0.19700761
198	0x3df719ad	0.12065444
199	0xbca14d8b	-0.019690296
200	0x3e4b6392	0.19862202
201	0xbe635012	-0.22198513
202	0xbec41d2b	-0.38303503
203	0xbba12567	-0.004917789
204	0x3e1b7f58	0.15185297
205	0x3e0721d9	0.13196506
206	0xbe815f71	-0.2526813
207	0xbdf70206	-0.12060933
208	0xbdb954d8	-0.09049386
209	0x3d912fe6	0.07089214
210	0xbdaea753	-0.08528008
211	0xbe19d9e7	-0.1502453
212	0x3ebda51f	0.3704004
213	0x3e88ce40	0.26719856
214	0xbdbc494a	-0.09193666
215	0xbd0683fa	-0.032840706
216	0xbe8deb26	-0.27718467
217	0x3dd66cd0	0.10469973
218	0xbb8c179d	-0.004275276
219	0xbcaead6f	-0.021322934
220	0x3e464285	0.19361313
221	0x3e9664c0	0.2937374
222	0xbc45b219	-0.012066388
223	0x3e19311c	0.1496014
224	0xbd728860	-0.05921209
225	0xbdadd301	-0.084875114
226	0xbe123433	-0.14277725
227	0xbe166871	-0.14688279
228	0x3c65b234	0.014019538
229	0x3e0247b0	0.12722659
230	0xbd7e54f2	-0.06209273
231	0x3e73dfda	0.23815861
232	0xbe9461c0	-0.28980827
233	0xbe4f687f	-0.20254706
234	0x3d87a262	0.06622769
235	0x3dc9ede9	0.09859831
236	0xbdd7a357	-0.105292015
237	0x3def2025	0.11676053
238	0x3e53ac50	0.20671201
239	0x3cb38ab2	0.021916721
240	0x3d0cb090	0.03434807
241	0x3c9d5bf0	0.019208878
242	0xbe710a83	-0.23539166
243	0x3e80cdc3	0.25156984
244	0x3ee7e5e4	0.4529258
245	0x3e5ec79d	0.21755834
246	0x3e1bed05	0.15227135
247	0x3e956c13	0.29184017
248	0x3d5840dc	0.05279623
249	0xbdb10f24	-0.08645466
250	0xbe459134	-0.19293672
251	0xbeae806a	-0.34082347
252	0x3e3a4c74	0.18193227
253	0x3e9e7928	0.3095181
254	0x3d49626f	0.04916614
255	0xbd7e00e9	-0.062012587

rb1.conv1.bias f4 [10]
0	0x380aa409	3.3054534e-05
1	0x3906a327	0.00012840015
2	0x383e4f42	4.5373345e-05
3	0xb94f0062	-0.00019741201
4	0x37b375f4	2.1393389e-05
5	0xb920f8cc	-0.00015351473
6	0xb91e7d80	-0.00015114807
7	0x384db3d4	4.9043287e-05
8	0xb7a344aa	-1.9463088e-05
9	0xb57798a0	-9.223677e-07

rb1.bn1.weight f4 [10]
0	0x3f48ad6e	0.7838963
1	0x3f9f76d0	1.2458134
2	0x3f5ae951	0.8551226
3	0x3f5dc569	0.8662935
4	0x3f14a0f2	0.58058083
5	0x3f4b5c18	0.794374
6	0x3f2bcd24	0.67109895
7	0x3f7ba381	0.9829636
8	0x3f5555dc	0.83334136
9	0x3f2bbc51	0.67084223

rb1.bn1.bias f4 [10]
0	0x3ea6b210	0.32557726
1	0x3f940de6	1.1566741
2	0x3a8c5c67	0.001070869
3	0x3d4413b4	0.047870353
4	0x3d6ab4cf	0.05730134
5	0xbcaf7703	-0.021419054
6	0xbbaf0aa4	-0.0053418446
7	0x3f4de5d2	0.804288
8	0x3f0cda62	0.55020726
9	0x3e04fd4b	0.12987249

rb1.bn1.running_mean f4 [10]
0	0xbc5fd294	-0.013661046
1	0xbc3394f0	-0.010960802
2	0x3c35f5a6	0.01110593
3	0x3d54cee3	0.051955115
4	0xbd127b5c	-0.035762176
5	0x3e14e669	0.1454102
6	0xbdd1df3e	-0.10247658
7	0xbaf02fb8	-0.0018324768
8	0xbcaa1346	-0.020761143
9	0xbd8f2a2c	-0.069904655

rb1.bn1.running_var f4 [10]
0	0x3d9ef08d	0.07760725
1	0x3d2448d8	0.04010853
2	0x3e44a479	0.19203366
3	0x3e6a2f75	0.22869666
4	0x3d217326	0.039416455
5	0x3ee400ef	0.44531962
6	0x3e7a06c3	0.24416642
7	0x3d6cb84d	0.05779295
8	0x3d2ac7ba	0.04169438
9	0x3ed3cd1d	0.41367427

rb1.conv2.weight f4 [10, 10, 3, 3]
0	0xbd1d1611	-0.038351122
1	0xbe486c2b	-0.19572513
2	0x3b958203	0.0045626177
3	0x3c10d60f	0.008840098
4	0xbe1f01fc	-0.155281
5	0xbd5b188e	-0.053490214
6	0xbc21710e	-0.0098536145
7	0xbd339081	-0.04383898
8	0xbc8c951a	-0.01716094
9	0x3c914c00	0.017736435
10	0x3e31ab60	0.1735053
11	0xbe88f203	-0.2674714
12	0xbe8884cb	-0.26663813
13	0xbdaebb99	-0.08531875
14	0x3e18180b	0.14852922
15	0x3e11560e	0.14192984
16	0xbe5153ad	-0.20442076
17	0xbb36cb53	-0.0027892187
18	0xbe143912	-0.14474896
19	0x3d9d98b9	0.07695145
20	0xbde9f309	-0.114233084
21	0x3b7da59c	0.0038703447
22	0xbe559453	-0.20857362
23	0xbe381985	-0.17978485
24	0x3be3af6c	0.006948402
25	0x3dd7b6e9	0.10532934
26	0x3e09557e	0.13411519
27	0x3e11217f	0.14172934
28	0x3e248981	0.16068079
29	0x3e02f4be	0.12788674
30	0x3db56fce	0.08859216
31	0x3dd6920e	0.104770765
32	0x3cecc2e2	0.028901521
33	0xbdff24b4	-0.124581724
34	0xbd84919e	-0.06473087
35	0xbe6e021e	-0.23242995
36	0xbe088c2e	-0.13334724
37	0x3d66c087	0.056335952
38	0xbd14ae0a	-0.03629879
39	0xbc5eb661	-0.013593287
40	0xbdd0641a	-0.10175343
41	0x3ca4ae6a	0.020102698
42	0xbd82b297	-0.063817196
43	0xbc6deabc	-0.014521297
44	0xbda50e57	-0.08059376
45	0x3d9b2370	0.075751185
46	0x3e6da828	0.23208678
47	0x3e290ac5	0.16508015
48	0xbd0080a4	-0.03137268
49	0x3ba8d962	0.005152867
50	0xbd202371	-0.0390963
51	0xbd4bfdbc	-0.049802527
52	0x3d74a05b	0.05972324
53	0x3e1b8746	0.15188321
54	0xbd6ce6f1	-0.05783743
55	0xbd06a983	-0.032876503
56	0xbdb67bae	-0.08910309
57	0xbdbef589	-0.09324176
58	0xbe6b07c1	-0.22952177
59	0xbd9ab9a6	-0.07554941
60	0x3dc9c0c0	0.09851217
61	0x3d929653	0.07157578
62	0xbd868b0a	-0.06569488
63	0xbd02bf30	-0.03192061
64	0x3dfe0e84	0.124051124
65	0x3e94e6e7	0.29082415
66	0xbd82c73b	-0.063856564
67	0xbe842ef5	-0.25817075
68	0xbec4db28	-0.38448453
69	0x3bd6167d	0.0065334425
70	0x3e2e2e6b	0.17009895
71	0x3dc62efd	0.09676931
72	0xbd2142e7	-0.039370444
73	0xbe244bd2	-0.16044548
74	0xbdce37f2	-0.100692645
75	0x3e01d8cf	0.12680362
76	0x3d66495c	0.056222305
77	0x3dc1311e	0.094331965
78	0xbe474a26	-0.19461879
79	0xbc78c378	-0.015183322
80	0xbd3f3020	-0.046676755
81	0xbea14bea	-0.3150323
82	0xbea46f2d	-0.3211607
83	0xbdf8e16f	-0.12152373
84	0xbe2e20b4	-0.17004663
85	0xbd3a1f91	-0.04544026
86	0xbd687a3c	-0.056757197
87	0xbe168299	-0.14698257
88	0xbdb4a4e6	-0.088205144
89	0x3d3ad2c0	0.045611143
90	0xbc48c8ab	-0.012254874
91	0xbde6f187	-0.112765364
92	0x3df12dad	0.1177629
93	0x3c345726	0.011007106
94	0x3da05f96	0.078307316
95	0x3e9ee76e	0.31035942
96	0xbd2b9680	-0.041891575
97	0x3e24becc	0.16088408
98	0xbdd45a6b	-0.10368808
99	0x3dde5e01	0.108577736
100	0x3dad136c	0.0845097
101	0xbe349994	-0.1763671
102	0x3e22b1d3	0.15888147
103	0xbeeac2b8	-0.45851684
104	0x3d8d3410	0.06894696
105	0xbe9eb678	-0.30998588
106	0x3e04e0cc	0.12976378
107	0x3e20a6c9	0.15688623
108	0x3cb33ffd	0.021881098
109	0x3e06d82a	0.13168398
110	0xbddb213e	-0.106997
111	0x3c1f62db	0.009728159
112	0xbe2bc453	-0.1677411
113	0xbe1a5992	-0.15073231
114	0x3c9b44de	0.018953737
115	0xbdb29921	-0.08720613
116	0xbd363f92	-0.04449422
117	0xbe61b4e9	-0.22041668
118	0x3ddca075	0.10772792
119	0x3d3e7f8d	0.04650836
120	0x3d8674ff	0.06565284
121	0xbd2db395	-0.04240759
122	0xbdde3526	-0.10849981
123	0x3bb9a6b0	0.0056656227
124	0xbe4abcc3	-0.1979857
125	0xbcc18bd0	-0.023626238
126	0x3e34154b	0.17586248
127	0x3e53fe20	0.2070241
128	0x3d277983	0.040887367
129	0x3d84c8bf	0.06483602
130	0xbceec04d	-0.02914443
131	0xbdb56a6d	-0.0885819
132	0xbc8f611f	-0.017502366
133	0xbe14219e	-0.14465949
134	0xbe311b24	-0.1729551
135	0xbda2807f	-0.07934665
136	0xbd9f7a05	-0.07786945
137	0xbda00062	-0.07812573
138	0xbd415439	-0.04719946
139	0xbd7225c1	-0.059118036
140	0xbdf0f4b4	-0.117654234
141	0xbd97082a	-0.07374604
142	0xbe331c9b	-0.17491381
143	0xbd685caa	-0.056728996
144	0x3de051a8	0.10953075
145	0x3e26a267	0.16272889
146	0x3dd9bb0a	0.10631378
147	0x3e2779bc	0.16355032
148	0x3e3790d7	0.17926346
149	0x3df6a414	0.12043014
150	0x3e181226	0.14850673
151	0x3e391241	0.1807337
152	0x3c960044	0.018310674
153	0x3db5fa9f	0.08885693
154	0xbe88562d	-0.26628247
155	0xbb430cbd	-0.0029762231
156	0xbd1dfe32	-0.038572498
157	0xbe875939	-0.2643526
158	0x3e4a96e7	0.19784127
159	0xbcbf6e02	-0.023367886
160	0x3e8d7bb5	0.27633443
161	0xbc0666b3	-0.008203196
162	0x3dda47f3	0.106582545
163	0xbc3779f4	-0.0111985095
164	0xbe606034	-0.21911699
165	0x3cc1c2b2	0.023652408
166	0xbddb5e8f	-0.10711395
167	0x3e18b65a	0.14913312
168	0xbc067466	-0.0082064625
169	0x3e133f1a	0.1437954
170	0xbcd48251	-0.025941046
171	0xbd07156c	-0.032979414
172	0xbb1c4c41	-0.0023849162
173	0x3cdaf02a	0.026725847
174	0x3d70cd4c	0.058789536
175	0xbcd45810	-0.025920898
176	0x3d27cc18	0.040966123
177	0xbd8d643b	-0.06903883
178	0x3e120d8b	0.14262979
179	0x3d16dc8c	0.036831424
180	0x3c95b560	0.018274963
181	0xbea0188c	-0.31268728
182	0xbd8f10a3	-0.06985595
183	0x3ca84063	0.020538514
184	0xbd82a06c	-0.06378254
185	0xbc9cd219	-0.019143151
186	0x3d9f26d1	0.077710755
187	0x3d8c1310	0.068395734
188	0x3d82cc60	0.06386638
189	0xbd645648	-0.055746347
190	0xbe0aacc0	-0.13542461
191	0x3bd17716	0.00639237
192	0xbd806426	-0.06269102
193	0xbe1d7fa1	-0.15380718
194	0xbcf18f0b	-0.029487154
195	0xbc84938d	-0.016183639
196	0x3e07e9e5	0.13272817
197	0x3e170463	0.14747767
198	0x3e8bfe8c	0.2734264
199	0x3d70d4ba	0.05879662
200	0x3d1f022a	0.038820423
201	0x3eb48b95	0.35262743
202	0x3d664a4f	0.05622321
203	0xbe2bb0f3	-0.1676672
204	0x3dc5fb23	0.09667041
205	0xbdd12b77	-0.102133684
206	0xbd567ca2	-0.052364953
207	0x3dd1bff3	0.102416895
208	0x3d5698e4	0.0523919
209	0xbc43397a	-0.011915559
210	0x3c9ef8d1	0.019405754
211	0x3d3669d4	0.04453452
212	0xbba15083	-0.004922928
213	0x3e949a6c	0.29024065
214	0xbc1520b8	-0.009102039
215	0x3ce97ce4	0.028501935
216	0x3dec5019	0.11538715
217	0x3ded50f7	0.115877084
218	0x3cb73efa	0.022368897
219	0x3e7854d4	0.2425111
220	0x3d9ad08c	0.075593084
221	0x3d169a07	0.036767986
222	0x3dc3fbcd	0.095695116
223	0x3d50b4e7	0.050953772
224	0x3b224ceb	0.0024765085
225	0x3e6da4dd	0.23207422
226	0x3e6983be	0.22804162
227	0x3e383693	0.17989568
228	0x3e38165f	0.17977284
229	0x3dc75a71	0.09734047
230	0x3d30005d	0.042969096
231	0x3d20d9b7	0.03927013
232	0x3d27d161	0.040971164
233	0xbdd98851	-0.106217034
234	0x3c8ab740	0.016933084
235	0xbd1d239b	-0.038364034
236	0xbdf86d12	-0.121301785
237	0x3c3eab78	0.011637561
238	0xbd0f37a6	-0.03496518
239	0xbdd9fcb1	-0.106439
240	0x3bf16eec	0.0073679592
241	0xbcaabdca	-0.020842452
242	0xbe088087	-0.1333028
243	0x3e2c7ec6	0.16845235
244	0x3dd1e57d	0.102488495
245	0xbbd3334d	-0.0064453245
246	0x3d900896	0.07032888
247	0x3d9dd0ea	0.07705863
248	0xbd0e9dc1	-0.034818415
249	0xbde6c298	-0.112675846
250	0x3cc48246	0.0239879
251	0xbd946be9	-0.07247145
252	0x3e8df00b	0.277222
253	0x3e8ec365	0.2788345
254	0xbda64ac4	-0.08119729
255	0x3e464b23	0.193646

rb1.conv2.bias f4 [10]
0	0xb8ce4042	-9.8348144e-05
1	0xb90ce3dd	-0.00013436326
2	0xb83e2ce0	-4.5341323e-05
3	0x38cb51be	9.69502e-05
4	0x38bbc622	8.95376e-05
5	0x388f3175	6.8279835e-05
6	0x381ae41c	3.6928905e-05
7	0x37b277d4	2.1275053e-05
8	0xb854ae00	-5.070679e-05
9	0x37b77772	2.1870921e-05

rb1.bn2.weight f4 [10]
0	0x3f83fe38	1.0311956
1	0x3f91702e	1.136236
2	0x3f4e0367	0.8047394
3	0x3f8d6f0c	1.1049514
4	0x3f3e94cd	0.744458
5	0x3f89b2ac	1.0757651
6	0x3fa9f87a	1.3278954
7	0x3f877bbe	1.0584638
8	0x3f8ed9a8	1.1160173
9	0x3f5cf2ed	0.86308175

rb1.bn2.bias f4 [10]
0	0x3d66b9c3	0.0563295
1	0xbd827188	-0.063693106
2	0x3e8cc5a0	0.27494526
3	0xbd080662	-0.033209212
4	0x3e8387c5	0.2568952
5	0x3daf307d	0.0855417
6	0xbc201a28	-0.009771861
7	0x3dceb67a	0.100933984
8	0x3d4b1bc8	0.04958704
9	0x3e8a21b9	0.26978853

rb1.bn2.running_mean f4 [10]
0	0xbfac50c6	-1.346215
1	0xbe4e356e	-0.2013757
2	0x3f328651	0.697362
3	0xbd3deba8	-0.046367317
4	0xbf1919d3	-0.5980503
5	0xbe1f52d2	-0.15558937
6	0xbf2e967c	-0.6819837
7	0xbe95ec2b	-0.29281744
8	0x3c78898a	0.015169511
9	0x3fd76f45	1.6830832

rb1.bn2.running_var f4 [10]
0	0x3fd1072d	1.6330315
1	0x3fa1d9f3	1.2644638
2	0x3f757808	0.9588628
3	0x3fc16ea6	1.5111892
4	0x3f730c34	0.94940495
5	0x3fd0e145	1.6318747
6	0x40048787	2.070772
7	0x3fd25a40	1.6433792
8	0x3ff531ee	1.9155862
9	0x3fe7f792	1.8122427

rb1.shortcut.conv.weight f4 [10, 3, 1, 1]
0	0x3ee63cf2	0.44968373
1	0x3b025421	0.001988657
2	0x3eae58c3	0.34052095
3	0xbea976ef	-0.33098552
4	0xbf0b3b09	-0.54386955
5	0xbec12e49	-0.37730625
6	0x3ebd29b0	0.36945868
7	0xbeb5b8f2	-0.35492665
8	0x3ddb6737	0.10713046
9	0xbef3ae5a	-0.47593957
10	0xbf329891	-0.6976405
11	0x3e3bdb9e	0.18345496
12	0xbdcd150b	-0.10013779
13	0xbe496bc4	-0.19670016
14	0x3f14c8c3	0.5811884
15	0x3eba69e1	0.36408904
16	0x3e0fd525	0.14046152
17	0x3efd5f11	0.49486592
18	0xbec1e70b	-0.37871584
19	0xbeac2336	-0.33620614
20	0xbea2bdf6	-0.31785554
21	0xbe938b87	-0.28817388
22	0xbf338c66	-0.70136106
23	0x3e8966b3	0.26836166
24	0xbea0820c	-0.31349218
25	0xbf03a939	-0.5143009
26	0xbd8a4a5c	-0.06752464
27	0xbe92e5a0	-0.28690815
28	0x3d630c69	0.055431757
29	0xbf15e173	-0.58547133

rb1.shortcut.conv.bias f4 [10]
0	0xb7b6aa05	-2.1775262e-05
1	0xb900b4fb	-0.00012274452
2	0xb93f7793	-0.00018259724
3	0x3934d9e0	0.00017247302
4	0x39739c44	0.000232325
5	0x388e6426	6.789742e-05
6	0xb69484b0	-4.4261906e-06
7	0xb8a49aa9	-7.848937e-05
8	0xb906cc7e	-0.00012855415
9	0xb7b70a58	-2.1820117e-05

rb1.shortcut.bn.weight f4 [10]
0	0x3f7b1582	0.98079693
1	0x3f6a9221	0.91629225
2	0x3f827115	1.019076
3	0x3f64bf3a	0.8935429
4	0x3f90cc14	1.131228
5	0x3f6fe183	0.9370348
6	0x3f167a56	0.5878042
7	0x3f31135f	0.6917018
8	0x3f667eb6	0.90037096
9	0x3f67c86d	0.905402

rb1.shortcut.bn.bias f4 [10]
0	0x3d66b9c3	0.0563295
1	0xbd827188	-0.063693106
2	0x3e8cc5a0	0.27494526
3	0xbd080662	-0.033209212
4	0x3e8387c5	0.2568952
5	0x3daf307d	0.0855417
6	0xbc201a28	-0.009771861
7	0x3dceb67a	0.100933984
8	0x3d4b1bc8	0.04958704
9	0x3e8a21b9	0.26978853

rb1.shortcut.bn.running_mean f4 [10]
0	0xbda9558b	-0.08268269
1	0x3dfddf15	0.12396065
2	0xbc5b0992	-0.013368981
3	0x3d837c8c	0.0642024
4	0xbd7ff288	-0.062487155
5	0xbde2871b	-0.110609256
6	0x3dd00b8c	0.101584524
7	0x3d1d8f0b	0.038466495
8	0x3d98c388	0.074591696
9	0x3dd18bec	0.10231766

rb1.shortcut.bn.running_var f4 [10]
0	0x3e1afdfa	0.15135947
1	0x3ec218dc	0.3790959
2	0x3be9a178	0.0071298443
3	0x3e7bb830	0.2458198
4	0x3d0773c9	0.033069406
5	0x3e77e3c0	0.24207973
6	0x3e836d5f	0.2566938
7	0x3e0a3e06	0.13500223
8	0x3e473d72	0.19457033
9	0x3e29cbdf	0.16581677

rb2.conv1.weight f4 [20, 10, 3, 3]
0	0x3da68819	0.08131427
1	0x3e04cfce	0.12969896
2	0x3d8aad0b	0.067712866
3	0x3e2fc411	0.17164637
4	0x3e6714fe	0.22566602
5	0x3e0a4d7d	0.13506122
6	0x3d3ebea7	0.04656854
7	0x3dd0258d	0.10163412
8	0x3dfc6d8c	0.12325582
9	0x3e20138d	0.15632458
10	0xbdf5b60a	-0.11997612
11	0xbde79132	-0.11306991
12	0xbdf0c544	-0.117563754
13	0xbd8f8627	-0.070080094
14	0xbcfac084	-0.030609377
15	0x3e215185	0.15753753
16	0xbe1e8e7e	-0.15484044
17	0xbdde3dfb	-0.108516656
18	0xbde59487	-0.1120997
19	0xbea76b56	-0.32699078
20	0xbe3b8053	-0.1831067
21	0x3c43ef3d	0.011958894
22	0xbe7a8b56	-0.24467215
23	0xbe0fd70e	-0.1404688
24	0x3d577367	0.05260029
25	0x3d76d137	0.060258117
26	0xbdaf0fd5	-0.085479416
27	0xbbef5193	-0.0073034256
28	0xbde4ff22	-0.11181475
29	0x3dd8e33b	0.10590216
30	0x3d99f23c	0.07516906
31	0x3d7a7710	0.061148703
32	0x3de63f40	0.11242533
33	0x3d410d70	0.047131956
34	0x3d37a41f	0.044834252
35	0x3e5d572c	0.21615285
36	0xbb9b1bcd	-0.0047335387
37	0x3e0498ab	0.12948863
38	0xbcfc593b	-0.030804267
39	0xbda72b83	-0.08162596
40	0x3c4ae074	0.012382615
41	0x3da56735	0.08076326
42	0x3bacde5c	0.0052755307
43	0xbe97e59f	-0.29667374
44	0xbe789532	-0.24275663
45	0x3db04a0a	0.08607872
46	0x3d385d3f	0.0450108
47	0x3d860c2e	0.06545292
48	0xbe14a7f0	-0.14517188
49	0xbd8e14b5	-0.06937543
50	0xbd9c413e	-0.076296315
51	0xbd60e3b5	-0.05490466
52	0xbeebf43f	-0.46084782
53	0xbcf044c0	-0.029329658
54	0x3de53c14	0.111930996
55	0x3d9eb9e4	0.077502996
56	0x3e209453	0.15681581
57	0x3d8b81b1	0.06811846
58	0x3d1a40be	0.0376594
59	0x3dea5f23	0.11443927
60	0x3d67b84d	0.056572247
61	0xbcef4428	-0.029207304
62	0xbd33b3aa	-0.043872513
63	0x3d92e9b9	0.07173485
64	0xbdae4177	-0.0850858
65	0x3d6f23c7	0.05838373
66	0xbdcd765a	-0.100323394
67	0xbeba200e	-0.3635258
68	0xbd97df6d	-0.07415662
69	0x3d92d8cf	0.07170259
70	0xbe217020	-0.15765429
71	0xbdef2937	-0.11677783
72	0xbcb54541	-0.02212775
73	0xba6d1c4f	-0.0009045051
74	0xbe1ef310	-0.15522408
75	0xbe303b5d	-0.17210145
76	0x3d978157	0.073977165
77	0x3e1f0ec2	0.15532973
78	0xbe25a5d3	-0.16176538
79	0xbcda6065	-0.026657293
80	0x3dd510f1	0.10403622
81	0xbe0735f7	-0.1320418
82	0x3c7afe43	0.01531941
83	0xbe1868ed	-0.14883776
84	0x3c2043a2	0.00978175
85	0x3d2cbea8	0.04217401
86	0xbc8cca60	-0.017186344
87	0xbdb29a66	-0.087208554
88	0x3d6ed568	0.05830899
89	0x3e64703d	0.2230844
90	0xbe817736	-0.25286263
91	0xbe2a6aeb	-0.16642348
92	0xbda283bb	-0.07935282
93	0x3d0ed12e	0.034867458
94	0xbd8b6dd1	-0.06808055
95	0xbc86ed00	-0.016470432
96	0x3e2145ce	0.15749285
97	0x3e418b5c	0.18900818
98	0x3e587ecf	0.21142124
99	0xbe9003fa	-0.28128034
100	0xbe14a31d	-0.14515348
101	0xbd204da6	-0.03913655
102	0xbe09758c	-0.13423747
103	0x3daf80a8	0.08569461
104	0xbb9bf29d	-0.0047591464
105	0xbd97fb78	-0.07421011
106	0xbd12793e	-0.035760157
107	0xbc83782f	-0.016048519
108	0xbe881d1d	-0.26584712
109	0xbec098cd	-0.37616578
110	0xbe7350a7	-0.23761235
111	0x3dd42ef9	0.10360522
112	0x3cfbe0a6	0.03074677
113	0xbcc1b9e5	-0.023648212
114	0x3e492d6a	0.1964623
115	0x3e802681	0.25029376
116	0x3e99ca1d	0.30037013
117	0xbd8e5cc6	-0.06951289
118	0x3c8079d5	0.015683094
119	0xbcb99680	-0.022654772
120	0xbe2c5231	-0.16828229
121	0x3d7268c9	0.059181962
122	0xbddb106d	-0.10696492
123	0xbdd03dab	-0.10168012
124	0xbbdeb4cc	-0.006796455
125	0xbdaff9c4	-0.08592561
126	0x3e31cc3d	0.17363067
127	0x3e6de800	0.23233032
128	0x3ceac7bf	0.0286597
129	0x3b43d192	0.0029879552
130	0xbcb245bc	-0.021761768
131	0xbe0c90c6	-0.13727102
132	0xbe3a2060	-0.18176413
133	0xbe7f3fd6	-0.24926695
134	0xbe733121	-0.2374921
135	0xbb145df1	-0.0022639001
136	0xbc7b193d	-0.0153258415
137	0x3e0e8371	0.13917328
138	0xbd75d87b	-0.060020905
139	0x3cd1edbe	0.02562606
140	0x3d4bb204	0.049730316
141	0x3d5deaf4	0.054179147
142	0xbc9f7d82	-0.019469026
143	0x3db4e014	0.08831802
144	0x3dc8a54a	0.097971514
145	0x3dfa62cf	0.122258775
146	0x3d398989	0.04529718
147	0xbd56b8f8	-0.052422494
148	0x3ccc1ab6	0.02491508
149	0xbdbfe886	-0.09370522
150	0xbc6e3509	-0.014539012
151	0x3d16430c	0.036685035
152	0xbd306972	-0.04306931
153	0x3e239ba6	0.15977344
154	0x3e944551	0.28959134
155	0x3e0fc5ff	0.14040373
156	0xbba887a4	-0.0051431227
157	0x3da89427	0.08231383
158	0x3dea6170	0.11444366
159	0xbe1714e7	-0.14754067
160	0x3cceec56	0.025259178
161	0xbd68f4e0	-0.056874156
162	0xbde0fa41	-0.10985232
163	0x3da46f69	0.08029062
164	0xbda2337b	-0.07919975
165	0xbde9e715	-0.114210285
166	0x3db62700	0.088941574
167	0xbe33fccf	-0.17576908
168	0x3cfc4d32	0.030798528
169	0x3d25464e	0.04035025
170	0xbd635676	-0.055502377
171	0xbd2cd354	-0.042193726
172	0x3ce93a04	0.028470047
173	0x3c50567d	0.012715933
174	0x3cfe7472	0.031061385
175	0x3e196aa3	0.14982085
176	0x3d7395f8	0.059469193
177	0x3ae42b42	0.0017407911
178	0x3db56da6	0.088588044
179	0xbd7d507b	-0.06184433
180	0xbd4609d9	-0.048349235
181	0x3d8eae2c	0.069668144
182	0xbdcbe734	-0.09956208
183	0xbcc044f3	-0.023470378
184	0x3d3e4dd1	0.04646093
185	0xbd05aa58	-0.032633156
186	0xbc7bd306	-0.015370136
187	0xbd595dd1	-0.053067986
188	0x3d94ad4b	0.072596155
189	0xbc987ff1	-0.018615695
190	0x3c9f7f3a	0.019469846
191	0x3e477afa	0.19480506
192	0xbe27ced4	-0.16387492
193	0x3d68bf28	0.056822926
194	0x3df11908	0.117723525
195	0xbdbb7b8a	-0.091544226
196	0xbe7dea11	-0.2479632
197	0xbe318112	-0.17334393
198	0x3dd66de6	0.1047018
199	0xbe3cb037	-0.18426596
200	0x3d7495c1	0.05971313
201	0x3e3a55b9	0.18196763
202	0xbcfccd83	-0.030859714
203	0xbcabfd60	-0.020994842
204	0x3d4a8402	0.0494423
205	0x3d279a93	0.040918898
206	0x3d8fbe6b	0.07018741
207	0x3e801483	0.2501565
208	0x3e650613	0.22365598
209	0x3e103c47	0.14085494
210	0xbc782aaa	-0.015146891
211	0x3e453721	0.19259311
212	0x3d4a0f23	0.04933084
213	0xbdce3383	-0.10068419
214	0x3ddc9d44	0.107721835
215	0x3d24e7cc	0.04026012
216	0xbe1bb40b	-0.152054
217	0x3c4a5f48	0.012351818
218	0xbd856377	-0.06513112
219	0xbd93abe1	-0.07210518
220	0xbd812627	-0.06306105
221	0x3a569e97	0.0008187084
222	0x3dc1d9f2	0.09465398
223	0xbd365de9	-0.044523153
224	0xbc29c805	-0.01036263
225	0x3dfd6e1e	0.12374519
226	0x3d668687	0.05628064
227	0xbda5785f	-0.080795996
228	0xbeab2213	-0.33424434
229	0x3d27e971	0.04099411
230	0x3d301521	0.0429889
231	0xbe7d8cec	-0.24760789
232	0x3ce1e575	0.027575234
233	0x3db8166f	0.08988654
234	0x3e6627ef	0.22476171
235	0x3e49bc2a	0.19700685
236	0x3d586b04	0.052836433
237	0xbe016aa3	-0.12638335
238	0xbdabb255	-0.083836235
239	0xbdeddba7	-0.11614161
240	0xbf17f62e	-0.59360015
241	0xbee2b4c6	-0.44278544
242	0xbe1ac454	-0.15113956
243	0xbcf34901	-0.029697897
244	0xbc089481	-0.008336187
245	0x3d846fdb	0.06466647
246	0xbdcca70a	-0.09992798
247	0x3d612883	0.054970276
248	0x3db47de6	0.08813076
249	0xbd82d3ca	-0.06388052
250	0xbd973f71	-0.07385147
251	0xbdb92b9b	-0.0904152
252	0xbdb68dd3	-0.089137696
253	0xbda25311	-0.07926
254	0xbca2c5b4	-0.019869663
255	0xbe2a6501	-0.16640092

rb2.conv1.bias f4 [20]
0	0xb7dd964e	-2.6415244e-05
1	0x38969c79	7.181703e-05
2	0x38888d72	6.5113316e-05
3	0xb80ea472	-3.400859e-05
4	0x3851c72c	5.0014976e-05
5	0x3756e1ee	1.2807997e-05
6	0xb83ba83a	-4.4740947e-05
7	0xb88d0964	-6.725153e-05
8	0xb82285b4	-3.874833e-05
9	0xb67d0b58	-3.770654e-06
10	0x36eddd7d	7.088935e-06
11	0xb85d142f	-5.2709303e-05
12	0x381f9a74	3.80524e-05
13	0xb8b5aa46	-8.6624685e-05
14	0x37da944e	2.6056685e-05
15	0x38da4c5a	0.000104092716
16	0x37b2841a	2.1280768e-05
17	0x381d90f0	3.75667e-05
18	0xb814aed9	-3.544879e-05
19	0xb72bd4d2	-1.0241945e-05

rb2.bn1.weight f4 [20]
0	0x3f53f7c1	0.8279992
1	0x3f5faf3e	0.87376773
2	0x3f65ba73	0.89737624
3	0x3f877475	1.0582415
4	0x3f88ce7c	1.0688014
5	0x3f3cc9a0	0.73745155
6	0x3f74f2f8	0.9568324
7	0x3f58e4f1	0.84724337
8	0x3f30eadf	0.69108385
9	0x3f5b00ad	0.85547906
10	0x3f4b17ee	0.7933339
11	0x3f81831e	1.0118139
12	0x3f832d81	1.0248262
13	0x3f753fdf	0.95800585
14	0x3f6c3cf4	0.9228051
15	0x3f8b5b0a	1.0887158
16	0x3f66c346	0.90141714
17	0x3f63b986	0.8895496
18	0x3f78a25f	0.9712276
19	0x3f717a2e	0.94327056

rb2.bn1.bias f4 [20]
0	0x3c8f78a3	0.017513579
1	0xbe21d581	-0.15804102
2	0x3dee1579	0.11625189
3	0xbce1b02c	-0.027549826
4	0xbe89d759	-0.2692211
5	0xbdb0dce8	-0.086358845
6	0x3d323902	0.043511398
7	0x3e1622e5	0.14661749
8	0xbc3c72ec	-0.011502009
9	0x3dcf62a6	0.101262376
10	0x3d4a1ab4	0.049341872
11	0x3d87c59f	0.0662949
12	0xbdbd1ed7	-0.09234398
13	0x3d11871e	0.03552925
14	0xbde9c238	-0.114139974
15	0xbd9972cf	-0.07492601
16	0x3dfc52e3	0.12320497
17	0x3be15b6b	0.006877353
18	0x3df10c82	0.11769964
19	0xbdcdf47e	-0.10056399

rb2.bn1.running_mean f4 [20]
0	0xbf9fd375	-1.2486407
1	0xbe481254	-0.19538242
2	0xbfd6b437	-1.6773747
3	0xc0358309	-2.8361228
4	0xbf8b7ee9	-1.0898105
5	0x3cd2faac	0.025754295
6	0xbfaac1cd	-1.3340393
7	0xbfc5ec5d	-1.5462757
8	0x3f9d1b60	1.2273979
9	0xbe247203	-0.16059117
10	0xbe771820	-0.24130297
11	0xbf8b2864	-1.0871701
12	0xc0204b8c	-2.504611
13	0xbf29f9b3	-0.66396636
14	0xbf333a7f	-0.7001113
15	0xbfe7073e	-1.8049085
16	0xbff7db1b	-1.9363741
17	0xbe73630c	-0.23768252
18	0xbfe7f54e	-1.8121736
19	0xbe671058	-0.22564828

rb2.bn1.running_var f4 [20]
0	0x3fd25adc	1.6433978
1	0x3fbfb78d	1.497789
2	0x3ff73735	1.9313723
3	0x402d6fcb	2.7099483
4	0x40130082	2.296906
5	0x3fbf8fbc	1.4965739
6	0x4018655e	2.381187
7	0x4022fd6d	2.546718
8	0x3fa5b76b	1.29466
9	0x3f97602c	1.1826224
10	0x3fc548b0	1.5412807
11	0x4014819d	2.320411
12	0x401f2567	2.4866579
13	0x40053af5	2.0817235
14	0x3fb82a26	1.4387863
15	0x402332ae	2.5499682
16	0x40174882	2.3638005
17	0x3fee12e6	1.8599517
18	0x3fe7566f	1.8073252
19	0x400ed8b8	2.2319775

rb2.conv2.weight f4 [20, 20, 3, 3]
0	0xbc3f6e16	-0.011683961
1	0x3dbd35f4	0.09238806
2	0xbd419368	-0.04725972
3	0x3c5a681d	0.013330487
4	0x3c2f4f7a	0.010700101
5	0xbdf78fcd	-0.12087975
6	0xbd151c9d	-0.03640424
7	0xbe18b771	-0.14913727
8	0xbd8b75e7	-0.068095975
9	0xbe5613fe	-0.20906064
10	0x3e239936	0.15976414
11	0x3e0aea10	0.1356585
12	0x3c2a1c50	0.010382727
13	0x3e32a2e1	0.17444946
14	0x3df50ed6	0.1196572
15	0x3d68864a	0.056768693
16	0x3d9e6252	0.07733597
17	0x3e15f82c	0.14645451
18	0x3bb98d61	0.0056626056
19	0xbd44042f	-0.047855552
20	0x3d2e9b30	0.042628467
21	0x3e0f3896	0.1398643
22	0x3d6c2d45	0.05766036
23	0xbba00fd3	-0.004884699
24	0xbab6dbce	-0.0013951005
25	0xbc26b89b	-0.010175849
26	0xbe07056c	-0.13185662
27	0xbe36698e	-0.17813703
28	0xbc763202	-0.015026571
29	0xbe1d41f6	-0.15357193
30	0xbde00e99	-0.10940284
31	0x3de068e9	0.1095751
32	0xbe78f95f	-0.24313878
33	0xbe9ba9b1	-0.30402902
34	0xbd5c1cb6	-0.05373832
35	0xbd3b8a2b	-0.045786064
36	0xbe001813	-0.12509184
37	0xbd9ec79a	-0.07752915
38	0xbdcb70bc	-0.09933612
39	0xbbf2ffaa	-0.0074157314
40	0x3c3ee8da	0.011652196
41	0xbd1aa211	-0.037752215
42	0x3da12e00	0.07870102
43	0x3e250a49	0.16117205
44	0x3d302c6e	0.04301112
45	0xbe1fc8a6	-0.15603885
46	0xbcc4fd95	-0.024046699
47	0xbd87e9cd	-0.06636391
48	0xbe33987d	-0.17538638
49	0x3e1ce8b1	0.1532314
50	0x3d014889	0.031563316
51	0x3d70e28a	0.058809794
52	0xbcbc2038	-0.022964582
53	0x3c8d6d9b	0.017264178
54	0xbc9f1618	-0.019419715
55	0xbc024a32	-0.00795226
56	0xbdd69067	-0.10476761
57	0x3dd2e879	0.10298247
58	0x3b9f6eb0	0.00486549
59	0xbda806eb	-0.082044445
60	0xbdfa21b2	-0.12213458
61	0xbe256ba3	-0.16154341
62	0x3ce51df1	0.027968379
63	0xbe365c9a	-0.17808762
64	0xbd975e33	-0.07391014
65	0xbe090e18	-0.13384283
66	0xbd1a7ee6	-0.037718676
67	0xbe0fa6f4	-0.14028531
68	0xbe149408	-0.14509594
69	0xbdde1318	-0.108434856
70	0xbe5beb5e	-0.21476504
71	0x3d83c5dd	0.06434224
72	0x3e3591dc	0.17731422
73	0xbe84f390	-0.25967073
74	0xbe7b0474	-0.24513417
75	0x3e843f28	0.25829434
76	0x3d6480c9	0.05578688
77	0xbde7195f	-0.11284136
78	0xbd8e19e8	-0.06938535
79	0x3cd11233	0.025521373
80	0x3ddab4b2	0.10678996
81	0x3d67423d	0.056459654
82	0xbe5bb223	-0.21454673
83	0xbe69de40	-0.22838688
84	0x3daab0cb	0.08334502
85	0xbdd1bf89	-0.102416106
86	0x3e05af86	0.13055238
87	0xbd586fd0	-0.052841008
88	0x3da3ad2b	0.079920135
89	0x3e8d6574	0.27616465
90	0x3c8b0481	0.016969921
91	0x3c9ee707	0.019397272
92	0xbdbb8b64	-0.09157446
93	0x3e304d85	0.17217071
94	0x3d9b3d15	0.0758001
95	0xbda7469f	-0.08167767
96	0x3d7512e4	0.05983247
97	0xbe2004e9	-0.15626873
98	0xbe966997	-0.29377434
99	0xbb926da3	-0.004468636
100	0x3d584440	0.052799463
101	0x3e1d4eca	0.15362087
102	0x3b8c2d9c	0.004277898
103	0xbd748efb	-0.05970667
104	0x3de9ae91	0.11410249
105	0xbda35085	-0.07974342
106	0xbdda0c5b	-0.10646888
107	0xbdbfc1fa	-0.0936317
108	0xbd1a03eb	-0.037601393
109	0x3d6eb966	0.05828228
110	0xbd00c0d2	-0.031433888
111	0xbe0aa30d	-0.13538761
112	0xbe12f2ec	-0.1435048
113	0xbde8306a	-0.11337359
114	0xbea4c601	-0.32182315
115	0xbe3af123	-0.18256049
116	0xbe5360e2	-0.20642427
117	0x3b42e69f	0.0029739512
118	0x3d3bf296	0.045885645
119	0xba303649	-0.00067219563
120	0x3de576cb	0.112042986
121	0xbce9a202	-0.028519634
122	0x3d894021	0.06701685
123	0x3dd6138d	0.10452948
124	0xbc4027f5	-0.0117282765
125	0xbbbe69d5	-0.005810956
126	0x3e4331fb	0.19062035
127	0x3c6d33f1	0.014477716
128	0x3e1c4896	0.15262064
129	0x3c0b871b	0.008516098
130	0xbddde311	-0.10834325
131	0x3e045f33	0.1292694
132	0x3d59db0b	0.05318741
133	0x3dd4ae8c	0.10384855
134	0x3e52e316	0.20594439
135	0x3da22dd4	0.07918897
136	0x3d9bbb6e	0.07604109
137	0x3e013a74	0.12619954
138	0x3ac5070a	0.0015032005
139	0x3de03331	0.10947264
140	0x3daa9e93	0.08331027
141	0x3cc21a95	0.023694316
142	0xbcbe62cb	-0.023240468
143	0xbe4b45a7	-0.19850789
144	0x3d79f100	0.06102085
145	0xbac195e6	-0.0014769405
146	0x3d1bdcc2	0.038052328
147	0x3d64b9ae	0.05584114
148	0x3de717ed	0.1128386
149	0x3d3a72ad	0.04551952
150	0xbdab910a	-0.083772734
151	0xbd1c0e57	-0.038099613
152	0x3d26edfa	0.040754296
153	0x3d63e94c	0.05564241
154	0xbdc244e3	-0.09485795
155	0x3ccbf48c	0.024896882
156	0x3a97a112	0.0011568388
157	0xbe25f6a8	-0.16207373
158	0x3d33a9c6	0.04386308
159	0x39366da9	0.00017397724
160	0xbcd260c8	-0.025680915
161	0xbd4b425b	-0.04962383
162	0xbe0ca780	-0.13735771
163	0x3a3ec951	0.0007277923
164	0xbbca0ec7	-0.0061663124
165	0xbdf4b088	-0.11947733
166	0x3de52abb	0.11189791
167	0x3d8e70fa	0.06955142
168	0xbe84feda	-0.25975686
169	0xbd2f7690	-0.04283768
170	0xbdfecadb	-0.12441035
171	0x3e6583ef	0.2241361
172	0x3d6c6be5	0.057720084
173	0x3dc1b45b	0.09458228
174	0x3d74514e	0.05964785
175	0x3dafd41e	0.0858538
176	0x3e1d9da2	0.15392163
177	0x3e1202de	0.14258906
178	0x3e3262a6	0.17420444
179	0x3d4d253d	0.05008434
180	0x3e02c9d7	0.12772308
181	0x3e0667a5	0.13125475
182	0xbe3d20ce	-0.18469545
183	0xbe51fabb	-0.20505802
184	0x3d8bca75	0.06825725
185	0xbddb659d	-0.107127406
186	0xbb317f51	-0.0027083943
187	0xbd9d5140	-0.07681513
188	0xbdf2fc24	-0.11864498
189	0xbd9cf3fb	-0.07663723
190	0xbe766eed	-0.24065752
191	0xbd79123d	-0.06080841
192	0x3e0a6f62	0.13519052
193	0xbcacaadc	-0.021077566
194	0x3d7488c3	0.05970074
195	0x3d9cbb47	0.07652908
196	0x3d90301c	0.07040426
197	0x3b679f88	0.003534289
198	0xbdc3f854	-0.09568849
199	0xbdb5bc51	-0.08873809
200	0xbd6ff3a7	-0.058581974
201	0xbe5e882d	-0.21731634
202	0xbda4851b	-0.080332
203	0xbd1e35e2	-0.038625605
204	0xbcd678a4	-0.026180573
205	0x3d506cca	0.050885
206	0x3d200823	0.03907026
207	0xbe0a8128	-0.13525832
208	0x3c315385	0.010823135
209	0xbcb2cd9c	-0.021826558
210	0xbe1e9f9f	-0.15490578
211	0x3d9dad30	0.076990485
212	0xbdec9820	-0.11552453
213	0xbe6d65c3	-0.2318335
214	0xbe2f2caf	-0.17106889
215	0xbe2ada62	-0.16684869
216	0xbe4dea91	-0.20109011
217	0xbe03a8b1	-0.1285732
218	0xbdf08069	-0.11743242
219	0xbd96229e	-0.073308215
220	0x3c8e3489	0.017359035
221	0xbe282ff6	-0.16424546
222	0x3dbab7b1	0.091170676
223	0xbd883ca9	-0.06652195
224	0xbdf1b22c	-0.11801562
225	0xbd94ed82	-0.072718635
226	0xbda0ee5c	-0.078579634
227	0x3e2350cb	0.15948789
228	0xbe74cdd7	-0.23906647
229	0xbe54f6c4	-0.20797259
230	0x3d8ce995	0.0688049
231	0x3d0673dc	0.032825336
232	0xbb4ca618	-0.003122693
233	0x3dca0e15	0.09865967
234	0xbcedcdb4	-0.029028751
235	0xbd04dfab	-0.03243987
236	0x3e2187eb	0.15774505
237	0xbd32c16b	-0.04364149
238	0x3cbd8e24	0.023139067
239	0x3d3921ea	0.04519836
240	0xbb4b31e1	-0.0031005072
241	0x3dfcbd7c	0.12340829
242	0xbc842111	-0.016129049
243	0x3d20250c	0.03909783
244	0x3cc7bfc5	0.024383435
245	0xbe559ce5	-0.20860632
246	0x3d8358d9	0.06413431
247	0x3dee06c9	0.11622388
248	0xbd997e1a	-0.07494755
249	0xbd083d49	-0.03326157
250	0xbd60d8b5	-0.054894168
251	0xbe062dab	-0.13103358
252	0xbe0989e0	-0.13431501
253	0xbd7f72ec	-0.062365457
254	0xbdc2f895	-0.095200695
255	0x3dd589de	0.10426687

rb2.conv2.bias f4 [20]
0	0x37910920	1.7289596e-05
1	0x381b2043	3.6984926e-05
2	0xb83c6d0c	-4.492425e-05
3	0x38c6f677	9.4872834e-05
4	0xb68ab346	-4.1335907e-06
5	0xb7831e1d	-1.563044e-05
6	0x381cfb08	3.742709e-05
7	0x36202ac4	2.386675e-06
8	0xb65ca8e8	-3.288087e-06
9	0xb80b93cf	-3.327784e-05
10	0xb80a3130	-3.2947573e-05
11	0x38893671	6.5428096e-05
12	0x3811030b	3.4573528e-05
13	0x384325e5	4.6526915e-05
14	0x366adec4	3.4998384e-06
15	0x37a3a120	1.9506144e-05
16	0x36632800	3.384892e-06
17	0x3728e280	1.00663165e-05
18	0xb5c70c78	-1.4830284e-06
19	0x37e13cb0	2.685035e-05

rb2.bn2.weight f4 [20]
0	0x3f5cfdc8	0.8632474
1	0x3f6dc48f	0.9287805
2	0x3f9964ba	1.1983864
3	0x3f901844	1.1257405
4	0x3f995902	1.1980288
5	0x3f8a825e	1.0821035
6	0x3fa00792	1.250231
7	0x3f9ca45d	1.223766
8	0x3f9f3c2c	1.2440238
9	0x3f9510df	1.1645774
10	0x3f9848fa	1.1897271
11	0x3f807f07	1.0038766
12	0x3f95d9b5	1.1707064
13	0x3f8139eb	1.00958
14	0x3f8cad95	1.0990473
15	0x3fa4eea1	1.2885324
16	0x3fac3b8f	1.3455676
17	0x3fa592d6	1.2935436
18	0x3f8fc7a3	1.1232799
19	0x3f5cc2c1	0.8623467

rb2.bn2.bias f4 [20]
0	0x3e4734dc	0.19453758
1	0x3d4d0cfe	0.05006122
2	0xbe488cd4	-0.19584972
3	0xbb575aea	-0.0032860585
4	0xbdb59fe0	-0.08868384
5	0xbe32f4c4	-0.17476183
6	0x3dc9b30c	0.098486036
7	0xbe76bf69	-0.24096455
8	0x3e5ef805	0.217743
9	0xbe203c2d	-0.15647955
10	0x3d33dfaf	0.043914493
11	0xbe0bce92	-0.13653019
12	0xbcac86b5	-0.021060327
13	0x3d71a6b5	0.058996875
14	0xbcc94d78	-0.024573073
15	0x3e29bb49	0.1657535
16	0xbcd2d071	-0.025734158
17	0xbe02f00a	-0.1278688
18	0x3dbb516a	0.09146388
19	0xbe8f2fbb	-0.27966103

rb2.bn2.running_mean f4 [20]
0	0xbf381e2f	-0.71921057
1	0xc0076628	-2.1156101
2	0xbf9ff08e	-1.2495286
3	0xbf89850d	-1.0743729
4	0xbf45d6b1	-0.7728072
5	0x3e496125	0.19665964
6	0xbfac8747	-1.3478783
7	0x3ec98baf	0.39364383
8	0xc038e7db	-2.8891513
9	0xbe45c79e	-0.19314429
10	0xbf7a50f9	-0.97779804
11	0x3d71e4d0	0.059056103
12	0xbfecda8a	-1.8504193
13	0xbf09da18	-0.5384841
14	0x3e81b60c	0.25334203
15	0xbfb4673c	-1.4094005
16	0xc02d5abe	-2.7086635
17	0xbe4ff063	-0.20306544
18	0xc0193de2	-2.394402
19	0x3e360521	0.17775394

rb2.bn2.running_var f4 [20]
0	0x3f789ef7	0.9711756
1	0x3f7ddb1a	0.9916245
2	0x3f37f463	0.7185728
3	0x3f90d4b6	1.1314914
4	0x3f2f6ae8	0.685225
5	0x3f90afc0	1.1303635
6	0x3f9b7d62	1.2147639
7	0x3f2dad48	0.6784253
8	0x3fa1424c	1.2598357
9	0x3f630fce	0.8869599
10	0x3f5989cf	0.84975904
11	0x3f408692	0.7520534
12	0x3f34450e	0.7041787
13	0x3f87a371	1.0596753
14	0x3fabe2ca	1.3428586
15	0x3f81ba1c	1.0134921
16	0x3f73917a	0.95143855
17	0x3f8afc75	1.0858294
18	0x3f82c53a	1.0216439
19	0x3f35c19d	0.70998555

rb2.shortcut.conv.weight f4 [20, 10, 1, 1]
0	0xbccbd206	-0.02488042
1	0xbdae38e6	-0.08506946
2	0xbec3f52f	-0.38272998
3	0xbdc1750c	-0.09446153
4	0x3f04b4fe	0.5183867
5	0xbc0229f5	-0.007944574
6	0x3c8bd3e9	0.01706882
7	0xbb475e5a	-0.0030421228
8	0xbc3db17e	-0.011577962
9	0xbe70d3c2	-0.23518279
10	0xbd8433e1	-0.064552076
11	0x3df44046	0.11926322
12	0xbf1c017e	-0.60939777
13	0x3d9b8d33	0.07595291
14	0xbe28718c	-0.16449565
15	0xbe5d48ba	-0.21609774
16	0xbca4b333	-0.02010498
17	0xbc2515d3	-0.010076004
18	0x3b562db8	0.003268106
19	0x3aec8724	0.0018045646
20	0xbdcb3182	-0.09921552
21	0xbe002220	-0.12513018
22	0xbd1fff39	-0.03906176
23	0xbccde148	-0.025131837
24	0x3d5a4ced	0.05329602
25	0x3ec5a484	0.38602078
26	0x3e1912ed	0.14948626
27	0x3de4fb3c	0.11180732
28	0xbe1dcfcc	-0.154113
29	0xbebcf83c	-0.36908138
30	0xbd71d234	-0.059038356
31	0xbc1bb41f	-0.009503393
32	0x3eaa8dcf	0.33311316
33	0x3e067a4f	0.13132595
34	0x3e4724a5	0.19447573
35	0xbe15c87e	-0.14627263
36	0x3e829870	0.25506926
37	0x3e549421	0.20759632
38	0x3edb4092	0.428227
39	0xbe110a17	-0.14164005
40	0xbdf51748	-0.11967331
41	0x3d1e65d8	0.038671345
42	0x3d824bb6	0.06362097
43	0x3eda36b1	0.4261985
44	0x3d7c2fb1	0.06156892
45	0xbd8f6cdf	-0.070031874
46	0xbcdefd85	-0.027220497
47	0xbd9c9095	-0.07644764
48	0x3ebfdbac	0.37472284
49	0xbdd9d48a	-0.10636242
50	0x3e85e4df	0.26151177
51	0x3e37ae4c	0.17937583
52	0xbdec463d	-0.115368344
53	0xbeba2fdc	-0.3636464
54	0xbd83851e	-0.064218745
55	0xbd99084c	-0.07472286
56	0x3e4ec496	0.20192179
57	0xbe170ff0	-0.14752173
58	0xbe1b313f	-0.15155505
59	0xbed5aa20	-0.41731358
60	0xbde57f34	-0.11205903
61	0x3e27adce	0.16374895
62	0x3cae2d18	0.021261737
63	0xbea28265	-0.31740108
64	0x3ca7495a	0.020420719
65	0xbec5eb87	-0.38656256
66	0xbe87f33a	-0.26552755
67	0x3d780edb	0.060561042
68	0x3e84d8ec	0.25946748
69	0xbda31e91	-0.079648145
70	0x3e3b1132	0.18268278
71	0x3e4302d5	0.19044049
72	0xb9a75a27	-0.0003191989
73	0xbd496161	-0.049165133
74	0xbe274fcd	-0.16339035
75	0xbd879162	-0.066195264
76	0xbe977059	-0.29577902
77	0x3d31d5cb	0.04341678
78	0xbf1a41f0	-0.6025686
79	0xbe4442fc	-0.19166178
80	0xbdc9282c	-0.09822115
81	0x3e08ef26	0.13372478
82	0xbdb3d863	-0.08781507
83	0xbd85de0c	-0.06536493
84	0xbf35a6e0	-0.70957756
85	0xbdda8326	-0.10669546
86	0x3a250be4	0.00062960223
87	0x3e87b35f	0.26504037
88	0xbdbfc366	-0.09363441
89	0x3bf04ec2	0.0073336074
90	0xbe85a2af	-0.2610068
91	0x3eb962a6	0.36208075
92	0xbe214832	-0.15750197
93	0xbe46b712	-0.19405773
94	0x3e425153	0.18976335
95	0xbe09ca65	-0.13456114
96	0xbc6edd67	-0.014579154
97	0x3e03fb85	0.12888916
98	0xbba29542	-0.0049616406
99	0xbeca0400	-0.39456177
100	0xbbb82919	-0.0056201336
101	0x3d92302e	0.07138096
102	0xbed751cc	-0.42054594
103	0x3e88e059	0.26733664
104	0xbe9f85f8	-0.31156898
105	0xbe0e2229	-0.13880219
106	0x3e88f9c8	0.26753068
107	0x3d82880d	0.06373606
108	0x3e0454be	0.12922952
109	0x3d8b1513	0.06791129
110	0x3c6b2b01	0.014353515
111	0xbcbad590	-0.022806913
112	0xbea673e2	-0.32510287
113	0x3e7fe4ea	0.24989668
114	0x3e8986f0	0.26860762
115	0x3e74f132	0.23920134
116	0xbdc3f72a	-0.09568627
117	0xbda009a9	-0.078143425
118	0x3e0ffed7	0.14062057
119	0xbe48ed12	-0.19621685
120	0xbdcb4507	-0.09925275
121	0xbeb9c2d1	-0.36281446
122	0x3e63d5ed	0.22249575
123	0x3eabc40b	0.33548006
124	0xbdc2f3df	-0.09519171
125	0x3a0f3f93	0.00054644904
126	0x3d715676	0.058920346
127	0xbde544a6	-0.11194734
128	0xbec27259	-0.37977865
129	0x3dd66236	0.10467951
130	0xbd33acec	-0.043866083
131	0xbe425813	-0.1897891
132	0xbdf50f44	-0.11965802
133	0xbdb4aa2c	-0.0882152
134	0x3d657284	0.056017414
135	0x3e00cb65	0.12577589
136	0x3de61dd5	0.11236159
137	0x3da731b3	0.08163776
138	0xbf23c014	-0.6396496
139	0xbe1d1dda	-0.15343419
140	0x3ce812c3	0.028329259
141	0xbe82ff8c	-0.25585592
142	0xbbdb5be2	-0.006694303
143	0xbe4693af	-0.19392274
144	0xbc6ce0a5	-0.014457856
145	0xbebeb7d1	-0.37249616
146	0xbece2a76	-0.4026677
147	0xbda13a6f	-0.078724734
148	0xbdb435e0	-0.08799338
149	0x3e43b2cb	0.19111173
150	0x3ebf05db	0.37309155
151	0xbeb59566	-0.35465544
152	0x3e6fc479	0.23414792
153	0x3e001afb	0.12510292
154	0xbe11444e	-0.14186212
155	0x3e0a5b0f	0.13511299
156	0x3e0f2252	0.13977936
157	0xbe014400	-0.12623596
158	0xbe9779e7	-0.29585192
159	0xbd23dccd	-0.040005494
160	0x3e22325e	0.15839526
161	0x3ea2a06f	0.31763026
162	0xbe0750a3	-0.13214354
163	0x3da769fe	0.08174513
164	0xbc520440	-0.012818396
165	0x3e8f9c54	0.28048956
166	0x3e4a0d2a	0.19731584
167	0x3de8640f	0.1134721
168	0x3dd0f340	0.10202646
169	0x3bb97f69	0.0056609404
170	0x3d73d4e6	0.059529208
171	0x3da2f9ec	0.07957825
172	0xbe8ba0e5	-0.2727119
173	0x3e0254c5	0.1272765
174	0x3d38f9fd	0.045160282
175	0x3e7cfe82	0.24706462
176	0x3e891756	0.26775616
177	0x3ed01114	0.4063803
178	0x3e25ca30	0.1619041
179	0xbe06bf81	-0.1315899
180	0x3cf8d6fe	0.030375954
181	0x3dbb7805	0.09153751
182	0xbcf83268	-0.030297473
183	0xbe8a1b4e	-0.26973957
184	0xbc9d32fd	-0.019189352
185	0x3d3d17c0	0.046165228
186	0xbad2ac5b	-0.0016073094
187	0xbe997c1f	-0.2997751
188	0xbefb3589	-0.49064282
189	0xbd9124bf	-0.07087087
190	0xbe807753	-0.25091037
191	0xbe11baa2	-0.14231351
192	0x3ec1c67d	0.37846747
193	0xbc576b16	-0.01314809
194	0x3e29082e	0.16507027
195	0xbd845c3e	-0.06462906
196	0x3daf8c31	0.08571661
197	0xbde6b63b	-0.112652265
198	0xbe624afc	-0.22098917
199	0x3db425da	0.08796282

rb2.shortcut.conv.bias f4 [20]
0	0xb79944e0	-1.8271094e-05
1	0xb7ab31d0	-2.0407984e-05
2	0x370e2d84	8.474457e-06
3	0x37590a15	1.2936555e-05
4	0x37788b35	1.4814364e-05
5	0x38ad163b	8.2534236e-05
6	0x37579cf6	1.2851544e-05
7	0xb7604c73	-1.336924e-05
8	0x38b5bd09	8.665963e-05
9	0xb878c155	-5.9307862e-05
10	0x3700ccf4	7.677114e-06
11	0x38f19913	0.00011520288
12	0x3716098a	8.942918e-06
13	0x381f78b5	3.802097e-05
14	0x38594f04	5.181042e-05
15	0x361faeec	2.3794664e-06
16	0x36cb2454	6.0541006e-06
17	0xb81ef23d	-3.7895737e-05
18	0x35b30a4b	1.3339535e-06
19	0x38c0f4b5	9.200854e-05

rb2.shortcut.bn.weight f4 [20]
0	0x3f74b2cf	0.9558534
1	0x3f350e54	0.7072499
2	0x3f6aeb2f	0.9176511
3	0x3f09dd12	0.5385295
4	0x3f2fc0d4	0.6865361
5	0x3f351bc9	0.7074552
6	0x3f1104f9	0.5664821
7	0x3f49017b	0.78517884
8	0x3f4e833b	0.8066899
9	0x3f5af1aa	0.85525
10	0x3f1147d7	0.56750244
11	0x3f330d2e	0.69941986
12	0x3efb4f19	0.49083784
13	0x3f608da0	0.877161
14	0x3f8b7d07	1.089753
15	0x3eff6fda	0.49890023
16	0x3f3304c0	0.6992912
17	0x3f0b6cae	0.5446271
18	0x3eb4f6ef	0.35344645
19	0x3f3ebece	0.74509895

rb2.shortcut.bn.bias f4 [20]
0	0x3e4734dc	0.19453758
1	0x3d4d0cfe	0.05006122
2	0xbe488cd4	-0.19584972
3	0xbb575aea	-0.0032860585
4	0xbdb59fe0	-0.08868384
5	0xbe32f4c4	-0.17476183
6	0x3dc9b30c	0.098486036
7	0xbe76bf69	-0.24096455
8	0x3e5ef805	0.217743
9	0xbe203c2d	-0.15647955
10	0x3d33dfaf	0.043914493
11	0xbe0bce92	-0.13653019
12	0xbcac86b5	-0.021060327
13	0x3d71a6b5	0.058996875
14	0xbcc94d78	-0.024573073
15	0x3e29bb49	0.1657535
16	0xbcd2d071	-0.025734158
17	0xbe02f00a	-0.1278688
18	0x3dbb516a	0.09146388
19	0xbe8f2fbb	-0.27966103

rb2.shortcut.bn.running_mean f4 [20]
0	0xbe98399e	-0.29731458
1	0xbf6246cb	-0.8838927
2	0xbdddfee8	-0.10839635
3	0x3f838c6f	1.0277232
4	0x3eda9fdc	0.42700088
5	0xbf3d81b8	-0.7402606
6	0xbf150e0b	-0.5822455
7	0xbf62bb5b	-0.8856713
8	0xbf36c50d	-0.71394426
9	0xbf0b088f	-0.54309934
10	0xbdf2da46	-0.118580386
11	0x3dcdb42b	0.1004413
12	0xbe2d86b7	-0.16945921
13	0xbf3288a1	-0.6973973
14	0xbf6dd4b9	-0.92902714
15	0x3dd06f09	0.10177428
16	0x3f5d6610	0.8648386
17	0x3f487f3f	0.7831916
18	0xbf63774d	-0.88853914
19	0x3d37b618	0.044851393

rb2.shortcut.bn.running_var f4 [20]
0	0x3ef3147c	0.47476566
1	0x3edd56d7	0.43230316
2	0x3eb55aa4	0.35420716
3	0x3f0a8be3	0.541197
4	0x3ee981e9	0.45606926
5	0x3eee04c8	0.46488023
6	0x3ec0966e	0.3761477
7	0x3f132adb	0.5748727
8	0x3ecab912	0.39594322
9	0x3e94d691	0.2906995
10	0x3ef0f194	0.4705931
11	0x3e972364	0.29519188
12	0x3e771e20	0.24132586
13	0x3f2937b4	0.6610062
14	0x3ef5e380	0.4802513
15	0x3eb6ad83	0.35679254
16	0x3ea1a679	0.3157232
17	0x3edbecc6	0.4295408
18	0x3f16852e	0.58796966
19	0x3e2a87ba	0.16653338

res1_sc1.conv.weight f4 [20, 3, 1, 1]
0	0xbf0bf948	-0.5467725
1	0x3db6a197	0.089175396
2	0x3eaca986	0.33723086
3	0xbe79fdbc	-0.24413198
4	0x3f0f9d6c	0.5609958
5	0xbe739631	-0.23787762
6	0x3c378066	0.011200046
7	0xbe9de01d	-0.30835047
8	0xbecea578	-0.40360618
9	0x3ec827a3	0.3909274
10	0xbeb14bea	-0.3462823
11	0xbea796e6	-0.32732314
12	0x3ef4f0e6	0.4784004
13	0xbe093b31	-0.13401486
14	0x3e6a1194	0.22858268
15	0xbf0c2d6e	-0.5475682
16	0xbebc5757	-0.36785385
17	0x3eaaba07	0.33345053
18	0xbe38c8db	-0.1804537
19	0x3ec4da68	0.3844788
20	0x3f031434	0.512027
21	0x3ebaa101	0.3645096
22	0xbf122237	-0.5708346
23	0xbea77493	-0.32706127
24	0x3e2be362	0.16785958
25	0x3f0ca9e9	0.5494676
26	0xbe316709	-0.17324461
27	0x3e88f138	0.26746535
28	0xbe81ddc8	-0.25364518
29	0xbec227cb	-0.37920985
30	0xbdb8aeff	-0.09017753
31	0xbe795c5d	-0.2435164
32	0xbed0d169	-0.40784767
33	0x3e15a4bc	0.14613622
34	0xbdb66006	-0.08905034
35	0xbeda7d43	-0.42673692
36	0xbebe3bae	-0.37154907
37	0xbe4e10b4	-0.20123559
38	0xbd373450	-0.044727623
39	0x3bd8a417	0.006611358
40	0xbe1fce71	-0.15606095
41	0xbefaa74a	-0.48955756
42	0xbe60f090	-0.21966767
43	0x3e71a017	0.23596226
44	0x3ebed0f3	0.3726879
45	0x3ecc53e6	0.3990776
46	0x3e335291	0.17511965
47	0xbe7dcadd	-0.24784417
48	0x3db68391	0.08911813
49	0xbeb0de5f	-0.34544656
50	0x3d608c16	0.054821096
51	0x3d6f97ea	0.058494486
52	0xbeb5ff4c	-0.3554634
53	0x3d61860d	0.05505948
54	0x3e808e72	0.25108677
55	0x3ea23a6c	0.31685197
56	0xbda769fb	-0.08174511
57	0xbf06dba4	-0.52678895
58	0x3e106809	0.14102186
59	0x3d9bef37	0.07613986

res1_sc1.conv.bias f4 [20]
0	0xb95b1b34	-0.00020895601
1	0x3985a4da	0.0002549056
2	0xb89b188d	-7.395549e-05
3	0x38a53cf9	7.87917e-05
4	0xb85b23e8	-5.224711e-05
5	0x36b37db2	5.3492486e-06
6	0x36c07c00	5.7364814e-06
7	0xb7deb496	-2.6548554e-05
8	0x3869a3a9	5.570395e-05
9	0x366031c8	3.3407578e-06
10	0x3856087e	5.1029485e-05
11	0x38694d54	5.5623546e-05
12	0x386f2482	5.701604e-05
13	0x39160c07	0.00014309595
14	0xb8b4ffba	-8.6307016e-05
15	0xb5611c4c	-8.386021e-07
16	0xb92a610b	-0.00016248615
17	0x38ae1743	8.3012994e-05
18	0x38635928	5.420405e-05
19	0xb8856276	-6.360274e-05

res1_sc1.bn.weight f4 [20]
0	0x3f543c08	0.829041
1	0x3f6c8939	0.92396885
2	0x3f31680e	0.692994
3	0x3f1524a9	0.58259064
4	0x3f095fe8	0.53661966
5	0x3f20fe78	0.6288829
6	0x3f1071d5	0.56423694
7	0x3f1e291d	0.61781484
8	0x3f22f17a	0.63649714
9	0x3f291545	0.6604808
10	0x3f19be9a	0.6005646
11	0x3f17b93c	0.5926702
12	0x3f007406	0.5017704
13	0x3f1ed374	0.620414
14	0x3f2a70a2	0.66578114
15	0x3eca3a79	0.39497736
16	0x3f1157ab	0.56774396
17	0x3f01832c	0.5059078
18	0x3ee3ca54	0.44490302
19	0x3f521f73	0.8207924

res1_sc1.bn.bias f4 [20]
0	0x3e4734dc	0.19453758
1	0x3d4d0cfe	0.05006122
2	0xbe488cd4	-0.19584972
3	0xbb575aea	-0.0032860585
4	0xbdb59fe0	-0.08868384
5	0xbe32f4c4	-0.17476183
6	0x3dc9b30c	0.098486036
7	0xbe76bf69	-0.24096455
8	0x3e5ef805	0.217743
9	0xbe203c2d	-0.15647955
10	0x3d33dfaf	0.043914493
11	0xbe0bce92	-0.13653019
12	0xbcac86b5	-0.021060327
13	0x3d71a6b5	0.058996875
14	0xbcc94d78	-0.024573073
15	0x3e29bb49	0.1657535
16	0xbcd2d071	-0.025734158
17	0xbe02f00a	-0.1278688
18	0x3dbb516a	0.09146388
19	0xbe8f2fbb	-0.27966103

res1_sc1.bn.running_mean f4 [20]
0	0xbc8d81f6	-0.017273884
1	0x3bdccdc1	0.006738395
2	0x3dab5bae	0.08367096
3	0x3d4509ed	0.04810517
4	0xbd6a1bd0	-0.05715543
5	0x3caad5ae	0.020853844
6	0xbdbf8f5f	-0.09353518
7	0x3d8c10ec	0.06839165
8	0xbd02508a	-0.03181509
9	0x3d6a498c	0.057199046
10	0x3db0ea93	0.086384915
11	0x3d72e1cb	0.059297364
12	0x3d4caebe	0.049971335
13	0x3dac4dd0	0.08413279
14	0xbd6df5ad	-0.058095623
15	0xbbe0ce5c	-0.0068605375
16	0x3c627d80	0.013823867
17	0x3c8a84ff	0.01690912
18	0xbd03d16a	-0.032182135
19	0x3c7a8b82	0.01529205

res1_sc1.bn.running_var f4 [20]
0	0x3ca7274c	0.02040448
1	0x3bd3ac2a	0.0064597325
2	0x3e0035f0	0.12520576
3	0x3d086ee1	0.033308867
4	0x3da5a78b	0.08088597
5	0x3dc74495	0.09729878
6	0x3e0e737e	0.13911244
7	0x3dadd747	0.084883265
8	0x3d9c6542	0.07636501
9	0x3d336d73	0.04380555
10	0x3e0c963d	0.13729186
11	0x3d2c7776	0.042106114
12	0x3dbf42c6	0.09338908
13	0x3ddae4f5	0.10688201
14	0x3d3e572f	0.046469864
15	0x3d0b8b5b	0.034068447
16	0x3c3a2f3c	0.011363801
17	0x3c80a818	0.015705153
18	0x3d737056	0.059433304
19	0x3cf92db3	0.030417299
