models/dense_max/epoch_0004.pth (torch, 645162 bytes, 174 tensors)

rb1.conv1.weight f4 [10, 3, 3, 3]
00000000: 9603 8dbd 02ad 643d 9fa9 d9bd 3d1b 55be
00000010: 4a08 633e cd63 423e 07d9 1fbe b20a 653e
00000020: e3af e5bd 71f2 e8bd ce03 fe3c dd43 a8bc
00000030: ed8d 93be a661 5c3e f548 3c3e 47fb 213c
00000040: bccf 873e 3df8 67be a94e 37ba 02ed 613c
00000050: 3cab 54bd 2d84 4cbe 9d13 a0b8 8df4 2a3d
00000060: b1f8 2c3e 4ee9 393d fafd 073e 6b4e ab3c
00000070: 6ed3 a13d 15b2 183e 1dc2 df3d 926b cc3d
00000080: 8531 8cbe cae8 a3bd 8c4b 923d 7de7 ffbd
00000090: d664 b5bd 7f48 1f3c f19e 39bd cbb3 53bc
000000a0: 6b57 c13e c929 22be 9e4a 7cbd 3846 043e
000000b0: bc5b 30be 0b67 15be 75ea 06be 7f31 a43d
000000c0: 76df 623d fca0 9d3e 8ee7 65be 4c60 1dbd
000000d0: 561c ef3d c624 2f3d 14d3 403c 05bc 5b3e
000000e0: a3a7 273e 2347 09be f5ef a5bd 7562 dd3d
000000f0: f3da 07bd 9916 2cbe e2ac 853d db50 803e
00000100: 78b9 3a3e 02a1 8a3e 7cf0 033c 4901 3fbe
00000110: b878 0cbe c3c2 dabd 4b38 75be 6b1e 3cbe
00000120: 9fc2 bb3d 6eb3 163e 5d6b e23c 20a0 783c
00000130: b9e6 34bd e74e efbd 0f95 f83d 44db 1ebe
00000140: 32b4 e5bd e1c2 40be b964 ab3d 76f5 f5bd
00000150: 7dda 993d 2e1f 8cbe d92b 10be a7f4 bb3c
00000160: 3a1f 8d3d e4a5 0f3e 1d59 07be 06df f6bd
00000170: c779 01be 9246 6f3e c662 58be 1ac2 c3bd
00000180: c6c2 763e 7428 d1bc 76de 0bbd 37dd 92bd
00000190: d3b5 153d 9ebc 29be 05f3 a53c 4c31 e3bd
000001a0: 243d 00be 50c4 373e 283d 313d f224 6c3e
000001b0: 9394 4cbe 7854 62be 35ef 393e 5b78 00bd
000001c0: c7e2 4fbe 3433 c93d 0261 6fbd e2b4 7fbd
000001d0: 5a7e 1f3e 0221 673e e568 66be 5728 dabd
000001e0: 2737 52bd 2864 9cbb 6830 2f3e 5d02 133e
000001f0: f1e6 e03d 86c5 d43d 51a3 563e 7bb7 743d
00000200: ba01 10be c275 4b3e 0204 6f3d 8982 86be
00000210: b905 2d3e ac05 963d 0e6f 08be c749 36be
00000220: 1d90 01be b90c 263e 59fc 523b a163 cbbd
00000230: 2bdb 863d 603e e13d 3298 d6bd 12e9 f93a
00000240: 31aa 983c b454 3a3e 1d0b 663e a3bd efbd
00000250: d340 cabe 50c9 80bd 1277 1c3e 36b9 adbd
00000260: 6df7 b0be 5df6 6a3d f9b1 adbd 8401 733e
00000270: 2704 b8bd ec39 4bbe d1fa 3dbd a187 1fbe
00000280: 498b 8fbe beff bfbc abe0 35bd 7268 a2bd
00000290: 8a64 0e3e 9874 743d fa30 1d3e e0fb a7bd
000002a0: b7cb 133d e841 5ebc ff5e af3d 08ed eb3d
000002b0: 821c 063d ff8a 283e 8d00 053e 76f4 473e
000002c0: 8c7d 32bd 08ce 343e 06e3 023e 9456 90bd
000002d0: 1f7a 79be b00b 0fbe faf5 2bbd 77e7 07bc
000002e0: dc90 813d 0c63 1a3e 7038 a1bd a4af af3e
000002f0: 0c74 813e 0501 dfbc 644e dcbd b100 443e
00000300: a423 76be c3c7 b63b a13f 95bc 9868 5c3e
00000310: 35c8 ccbd e9d1 1f3e 8ee4 4c3d 1837 ce3b
00000320: f2dc 5e3e fee9 76be 01d3 9ebe 8e0f 95bb
00000330: acc7 0a3e 9ef5 083e 80ed 36be ba40 2ebe
00000340: 8886 c4bd a0c6 923d ba12 9cbd cc63 01be
00000350: eaff ac3e 28b2 903e b956 e4bd a936 933c
00000360: 381a 8bbe 51ea 9a3d a702 23bd a0ed d43c
00000370: 900a 0b3e e946 5b3e 4b5b 163c e745 183e
00000380: 5a4e b0bd 1715 f3bd 1a5c 1cbe a93f 0dbe
00000390: 4c6a a53c f084 023e db67 8abd 9a56 6c3e
000003a0: ed90 7bbe 5589 12be 7645 303d 0366 ad3d
000003b0: db2c 9cbd 7444 ed3d 3783 473e 7e88 e53c
000003c0: 1902 fcbb 652d e23c 0126 5bbe 5a32 8c3e
000003d0: 2cfa ce3e 0a81 903e 5359 7e3e 17ad 933e
000003e0: beb0 783d dc54 1dbd 6822 0fbe 5e5e 94be
000003f0: 78dd 1e3e 5d52 833e 55dc ad3d 3eb4 49bd
-0.068854496 0.055829056 -0.10628056 -0.20811172 0.22171131 0.18983383 -0.15610133 0.22367361
-0.11215188 -0.11374367 0.031007674 -0.020540172 -0.28819218 0.21521625 0.18387206 0.009886569
0.26525676 -0.22653289 -0.0006992617 0.013789417 -0.051921114 -0.19972296 -7.633048e-05 0.041737128
0.16891743 0.045388512 0.13280478 0.020911416 0.07901655 0.14911683 0.10925696 0.09981455
-0.2738153 -0.08003385 0.07143316 -0.12495325 -0.088571236 0.009721874 -0.045317594 -0.012921284
0.37762007 -0.15836252 -0.061594598 0.12917411 -0.17222494 -0.14590089 -0.13175376 0.08017253
0.05538889 0.30786884 -0.22451612 -0.038421914 0.116753265 0.04275968 0.011769075 0.21458443
0.16372542 -0.13406043 -0.08102409 0.10809795 -0.03316779 -0.16805495 0.065271154 0.25061688
0.18234813 0.27075964 0.008052941 -0.18652834 -0.13717926 -0.10681679 -0.23947255 -0.18370979
0.091679804 0.14716884 0.027639085 0.0151748955 -0.044165347 -0.11684971 0.12137806 -0.1551333
-0.1121601 -0.1882434 0.08368821 -0.120097086 0.075123765 -0.27367538 -0.14079227 0.022943808
0.068907216 0.14028126 -0.13217588 -0.12054257 -0.1264411 0.23366764 -0.21131429 -0.09558506
0.24097738 -0.025531985 -0.034147702 -0.071711 0.036550354 -0.16575858 0.020257482 -0.11093387
-0.12523323 0.17945981 0.043271214 0.23060969 -0.19978552 -0.22102535 0.18157656 -0.03136478
-0.20301352 0.09824219 -0.058442123 -0.062428363 0.15575543 0.22571185 -0.22500952 -0.106522255
-0.05132213 -0.0047726817 0.1710831 0.1435637 0.109815486 0.10389237 0.20960738 0.059745293
-0.14063159 0.1986914 0.05835343 -0.26271465 0.16896714 0.073253006 -0.13323614 -0.17801581
-0.12652631 0.16215791 0.0032193868 -0.09931112 0.06584772 0.10998225 -0.10478248 0.0019066653
0.018635841 0.18196374 0.22465177 -0.11706092 -0.39502582 -0.06288397 0.15279797 -0.08482592
-0.3456377 0.057363857 -0.08481211 0.23731047 -0.08985167 -0.19846314 -0.046381775 -0.15579082
-0.28035954 -0.023437377 -0.044403713 -0.079300776 0.1390554 0.059681505 0.15350714 -0.08202338
0.03608295 -0.013565518 0.08563041 0.115198195 0.03274203 0.16459273 0.12988491 0.19526848
-0.043576762 0.1765672 0.12781915 -0.070477635 -0.24362992 -0.13969302 -0.04198263 -0.008294932
0.06326458 0.15076846 -0.07872093 0.3431369 0.2528385 -0.027222166 -0.10757139 0.19140889
-0.24037033 0.0055780127 -0.018218817 0.21524274 -0.09999124 0.15607418 0.050022654 0.006293189
0.21763971 -0.24112698 -0.31020358 -0.0045489734 0.13552731 0.13374946 -0.17864037 -0.17016879
-0.09595972 0.07166791 -0.07620759 -0.12635726 0.33788997 0.28260922 -0.111493535 0.0179704
-0.2716844 0.075642236 -0.03979745 0.025992215 0.13578248 0.21413769 0.009177039 0.14870416
-0.086086944 -0.11869257 -0.15269509 -0.13793816 0.020192288 0.12746024 -0.0675809 0.23079911
-0.24567004 -0.143102 0.043034993 0.08466723 -0.07625743 0.11585322 0.19483648 0.028019186
-0.0076906797 0.027609536 -0.21401216 0.27382165 0.4042524 0.2822345 0.24838762 0.28842995
0.06071543 -0.038411006 -0.13977969 -0.28978246 0.15514171 0.25648776 0.084892906 -0.049244158

rb1.conv1.bias f4 [10]
00000000: 8cf3 5fb9 1254 bbb9 aa16 9039 d45f f3b8
00000010: 86f4 2638 8307 1c38 89c6 ae39 a629 cab8
00000020: 7104 f1b9 1210 d4b8
-0.00021357666 -0.00035730057 0.00027482706 -0.00011604992 3.9805214e-05 3.7200294e-05 0.00033335786 -9.639868e-05
-0.0004597041 -0.00010111941

rb1.bn1.weight f4 [10]
00000000: f255 423f 9fde a83f b645 5f3f 8903 613f
00000010: 8f90 2f3f 12aa 563f 9d9a 343f 3505 7d3f
00000020: 5ec9 4e3f 4bdb 343f
0.7591239 1.3192939 0.87215745 0.8789602 0.68579954 0.83853257 0.7054842 0.9883607
0.8077601 0.70647115

rb1.bn1.bias f4 [10]
00000000: eb92 8e3e c316 883f 757a b83d 6a43 b43d
00000010: cef4 3c3d 8ba7 ea3b 9702 04bd 4eac 5a3f
00000020: efac 023f 22bd 243d
0.27846465 1.0631946 0.09007732 0.08801921 0.0461319 0.007161086 -0.032229032 0.85419166
0.51045126 0.040219434

rb1.bn1.running_mean f4 [10]
00000000: 8d91 d8bc de08 5cbc 6f36 733c 19b5 673c
00000010: f7ae 1ebd c17b ce3d e353 acbd 61aa 29bb
00000020: f79b 08bc 164f 0abc
-0.026436592 -0.0134298485 0.014844521 0.014142298 -0.03874108 0.10082198 -0.084144376 -0.0025888907
-0.008337966 -0.008441707

rb1.bn1.running_var f4 [10]
00000000: f841 8f3d e830 2a3d b18b 0f3e ac09 203e
00000010: 2dee 4c3d 4207 b53e 9f91 bd3e fdbc 603d
00000020: d3f0 0e3d d6b5 e13e
0.069950044 0.041550547 0.14018132 0.1562869 0.05003183 0.353571 0.37025163 0.054867733
0.034897637 0.44084042

rb1.conv2.weight f4 [10, 10, 3, 3]
00000000: d202 edbd 05d0 09be 420d 0abc 9456 3b3d
00000010: 016c 0bbe d89e 46bd cb80 d5bc c298 933c
00000020: 0827 c33b 520c d2bc a3fe e33d 9940 80be
00000030: f302 85be 72b9 b6bd e37f 703e fb1d 283e
00000040: 0b19 58be 5791 3fbc 4920 52be 32ee b1ba
00000050: bf4d a5bd be71 05bd 3d11 60be 7957 1fbe
00000060: d370 5cbc e516 063e 358e c03d 4a71 013e
00000070: 0d29 303e 9cb9 df3d f443 b5bb 4432 0f3d
00000080: ff56 603d 71b0 a8bd 722d 1dbd 7d0f 34be
00000090: 87c1 c7bd ebb1 a73d 9b53 89bc 62b3 87bc
000000a0: 090d 00be 1720 05bb 6dfa d0bd 78cc 8cbc
000000b0: 1444 e7bd 4623 0f3d 973b 3e3e 1124 343e
000000c0: aa8c 42bd ed5d 0fbb efde 26bd a201 91bd
000000d0: 0bbc 453d 4d37 f03d 3abf a8bc b1c3 3e3c
000000e0: c150 b1bd c5f6 88bd 6e68 35be 5bcc 2bbd
000000f0: 253d d93d c3b0 d73d 3115 95bd cec2 c2bc
00000100: f7ad b73d b0fc 883e 2dcb 14bd ff0a 72be
00000110: 5205 94be 8e41 e7bc 70e4 e93d a77a 013d
00000120: 2069 54bc 788a 97bd eebb 96bd 2df9 203e
00000130: 06f7 8a3d 5125 c43d d10e b2bd ac00 fbbc
00000140: 22af 09bd cc9b 4dbe 7b8f 70be adff a0bd
00000150: f0bc fbbd 87ed d7bb 1c5c 24bd 022b f4bd
00000160: fb3a 67bd 2a6b 593d 4b68 803d 8fbc 5fbb
00000170: 3a27 cb3d 5e7c 91bd 91e7 b83d a391 733e
00000180: 0d21 d1bc 785a d63d 3b33 00be 23c8 b03d
00000190: a931 ce3d 9cf9 2bbe 219b 093e cfb3 abbe
000001a0: 3e78 913d 1e43 97be 707b e53d e9a0 6f3e
000001b0: 925c 10bc 06ee 003e ae45 9abd ae01 883d
000001c0: bb68 15be a04e 0ebe 4ca7 b7bc cc0e 56bd
000001d0: 2f4a cb3b 39a5 22be 0823 cc3d 97ef cf3b
000001e0: b2c8 443d d444 4dbd 59bd ffbd 1073 d0bc
000001f0: 2def 36be d2d2 4aba 279a e13d 037b ff3d
00000200: 7b5c 053d 82b7 f1bb 5156 15bd 63a2 35bc
00000210: 75a7 103d def0 dbbd 13e6 08be 8ee0 bdbd
00000220: 2e68 a6bd fed9 8abd 62dc 1ebd 35d8 75bd
00000230: 6c24 dbbd c0fc 52bd a8e1 0fbe 7e85 0cbd
00000240: 14ee 063e 3056 183e 93f5 6a3d 0a50 203e
00000250: 6f4a 0b3e e26c 6f3d 36ed fe3d 2224 223e
00000260: 690d 62bc c8a2 a83d 9990 1fbe 4d6a 45bd
00000270: d1f5 41bd e77e 8fbe 1e2f 2f3e 52eb 4cbd
00000280: 3740 8f3e d821 163d 9699 023e 91cc f2bc
00000290: 4d86 48be 8221 84bc 65f8 d6bd f3e0 e93d
000002a0: f226 073c 4b9d 9f3d 42dc 133d 7ee5 7cbd
000002b0: 598b b5bc 1cda 2d3c a809 ba3d 757c 27bd
000002c0: a043 b13b dacf aabd 3b01 a83d df67 773c
000002d0: 85cf 6f3d f830 79be cd57 acbd f865 8c3d
000002e0: d289 63bd f4b4 ecbc fbaa a33d 3b86 07bc
000002f0: 6582 9d3c 14b4 8fbd 25cf fabd 94c7 8a3b
00000300: e09c cb3c 6db6 1ebe 10ae 6a3c 74f4 4cbd
00000310: c3d6 893d 6174 923d e6e5 843e ef67 933d
00000320: da8f c73c c1a6 673e a5c4 353d 0978 d1bd
00000330: 0a1e f13d e018 32bd d828 a6bd 64fa 6a3d
00000340: a42e 453d 9e45 66bd 05e8 8c3d 44f9 d03d
00000350: c8bd e9bb 24d3 693e 6c8d ea3b 568c ae3d
00000360: 98be 183e 20dc c13d ab30 0e3d 0bf6 773e
00000370: 9708 613d 9618 fb3d be13 db3d e1de 863d
00000380: d7f5 5f3d 68c7 883e 2ecb 2f3e 1320 393e
00000390: 6344 d93d 2b7e 3c3d c2d6 7f3d 6fe0 333d
000003a0: f567 3fbb f7d0 ebbd 609f e2bb f2d3 21bb
000003b0: fd00 babd 55fb 39bd b7fb 96bc 6448 49bd
000003c0: 2ad2 01bd 4359 45bd a385 10be ea4f 333e
000003d0: ac7d 8f3d d60b 83bc 15b3 ee3c 3d96 a83d
000003e0: aece d2bc 7edc e0bd a411 043c 6a66 abbd
000003f0: 4dfb 4c3e 2f1b 653e 9476 9dba b4c2 253e
-0.115728036 -0.1345826 -0.0084260125 0.045736864 -0.13615419 -0.04849133 -0.02606239 0.018017177
0.0059555806 -0.02564064 0.111325525 -0.25049284 -0.25978813 -0.0892209 0.23486285 0.16417687
-0.21103303 -0.011692367 -0.20520128 -0.0013575016 -0.080714695 -0.032579176 -0.21881576 -0.15560712
-0.013454634 0.13094671 0.09402124 0.12640873 0.1720316 0.10924074 -0.0055317823 0.034960046
0.054770466 -0.082367785 -0.03837342 -0.17584033 -0.09753709 0.08188232 -0.016763499 -0.016565029
-0.12504973 -0.0020313316 -0.10204015 -0.017187342 -0.11292282 0.03494575 0.18577419 0.17591883
-0.04749743 -0.0021876052 -0.04073995 -0.070803896 0.048275035 0.11729298 -0.020598996 0.011643336
-0.08657981 -0.066876926 -0.17715618 -0.041942935 0.106073655 0.105317615 -0.072794326 -0.02377453
0.08968728 0.26755285 -0.036326576 -0.23637007 -0.2891031 -0.028229501 0.11420524 0.03161111
-0.012964517 -0.07399458 -0.073600635 0.15720053 0.06785397 0.0957743 -0.08694232 -0.030639969
-0.033614285 -0.20078963 -0.23492233 -0.07861266 -0.12291896 -0.0065895948 -0.040126905 -0.119222656
-0.056452733 0.053080715 0.06269892 -0.003413949 0.09919591 -0.07103799 0.09028543 0.23786025
-0.025528455 0.10466474 -0.12519543 0.08631923 0.10068066 -0.16794437 0.13438083 -0.3353562
0.071030125 -0.29543394 0.112051845 0.23401226 -0.008811133 0.12590799 -0.075328216 0.066409454
-0.14590733 -0.1389718 -0.02241864 -0.052260205 0.0062039117 -0.1588334 0.09967619 0.0063457
0.04804296 -0.050114468 -0.12487287 -0.025445491 -0.17864676 -0.0007737103 0.1101573 0.124746345
0.0325589 -0.007376612 -0.03645927 -0.011086079 0.03531595 -0.10739301 -0.13369016 -0.09271346
-0.081253394 -0.0677986 -0.038784392 -0.060020644 -0.10700306 -0.051510572 -0.14050925 -0.034306996
0.13176757 0.14876628 0.057363104 0.15655532 0.13602613 0.058453448 0.12447588 0.15834096
-0.013797143 0.08234173 -0.15582503 -0.04819708 -0.04735357 -0.28026506 0.17107818 -0.050029106
0.2797868 0.03665337 0.12753901 -0.02963856 -0.19582482 -0.016129259 -0.10496596 0.11419859
0.008249031 0.07793673 0.036098726 -0.0617423 -0.022161173 0.010611083 0.09083873 -0.040890176
0.005409673 -0.08340426 0.0820336 0.015100448 0.058547515 -0.24335086 -0.08415184 0.068553865
-0.055551358 -0.028894879 0.07991596 -0.008271749 0.019227216 -0.07016769 -0.12246541 0.0042352173
0.024855077 -0.15499277 0.014323726 -0.050037816 0.06730416 0.07151104 0.2595665 0.07197558
0.024360586 0.22622205 0.044376988 -0.10227973 0.117733076 -0.043480754 -0.08113259 0.057367697
0.048140183 -0.056218736 0.06880192 0.10203794 -0.0071332194 0.2283445 0.007157972 0.08522861
0.14916456 0.09465814 0.034714382 0.24214952 0.054939833 0.12260549 0.10697125 0.065854795
0.05467781 0.26714635 0.1716735 0.18078642 0.10608747 0.04601876 0.06246067 0.04391521
-0.002920625 -0.11514466 -0.0069159716 -0.002469298 -0.0908222 -0.045405705 -0.018430574 -0.049141303
-0.03169457 -0.04818083 -0.14113478 0.17510954 0.07006392 -0.015996855 0.029138127 0.08231781
-0.025733318 -0.109795555 0.0080608465 -0.08369143 0.20017739 0.22373651 -0.0012013488 0.16187555

rb1.conv2.bias f4 [10]
00000000: e4ad 4db9 f03b c4b6 8e7e 9638 790c 8238
00000010: e9cc 4bb9 aa15 c438 4385 6239 858f 9538
00000020: 1271 5a39 3ed1 c9b8
-0.00019615103 -5.848233e-06 7.17613e-05 6.201206e-05 -0.00019435924 9.3500435e-05 0.00021602683 7.131606e-05
0.00020832222 -9.623401e-05

rb1.bn2.weight f4 [10]
00000000: de54 833f ea96 903f a1d0 4d3f 234e 8d3f
00000010: 8cd8 433f 105c 8a3f a022 a83f 9495 873f
00000020: fad4 8a3f 49c1 5a3f
1.0260274 1.1296055 0.8039647 1.103947 0.765023 1.0809345 1.3135567 1.0592523
1.0846245 0.8545118

rb1.bn2.bias f4 [10]
00000000: f14d 0c3d 55bc 73bd 283c 1e3e 9681 46bd
00000010: b41b f83d 433a d93d 8475 443b 8c0c 9a3d
00000020: 51c7 843d f80d 5a3e
0.03425402 -0.05950578 0.15452635 -0.048463427 0.12114659 0.10606816 0.0029977271 0.075219244
0.06483329 0.21294391

rb1.bn2.running_mean f4 [10]
00000000: d0a0 85bf dec5 08be 8975 1a3f 2fa0 113e
00000010: 081d 0abf da2e ccbe 3286 03bf 70ce a7be
00000020: 4e97 4d3e 1813 ac3f
-1.0439701 -0.1335673 0.60335594 0.14221261 -0.5395055 -0.39879495 -0.5137664 -0.32774687
0.2007725 1.3443327

rb1.bn2.running_var f4 [10]
00000000: 0221 9a3f 6b8c 823f b834 b13f 0731 873f
00000010: 9b65 623f 61f3 bc3f 5513 d23f cb3b c43f
00000020: b366 e43f 09c3 f23f
1.2041323 1.0199102 1.3844213 1.0561837 0.8843629 1.4761773 1.641215 1.5330747
1.7843841 1.896577

rb1.shortcut.conv.weight f4 [10, 3, 1, 1]
00000000: 9bf4 ec3e b263 6ebc 3e87 a83e 256b c5be
00000010: a6b6 04bf 0a9b c0be 168d b83e 2c53 b5be
00000020: bbf3 b03d e45d dabe 188d 39bf cd7f 753e
00000030: 30c0 b4bd 12ce 41be b40a 163f 69dc 9c3e
00000040: ffc4 8d3d 5159 123f a11c eabe 81f7 acbe
00000050: 5f07 81be d2fc 8ebe 7953 28bf 4f30 ad3e
00000060: 7633 ccbe 784a dbbe 3f59 a6bd d6ad abbe
00000070: 4614 5c3d a340 0dbf
0.4628037 -0.014550136 0.32915682 -0.38558307 -0.518412 -0.37618285 0.3604514 -0.35415018
0.08640238 -0.42649758 -0.72480917 0.23974533 -0.08825719 -0.18926266 0.5861008 0.3063691
0.0692234 0.57167536 -0.45724967 -0.3378258 -0.25200936 -0.27927262 -0.6575237 0.3382592
-0.39883012 -0.42830253 -0.08122491 -0.33531064 0.05373027 -0.5517675

rb1.shortcut.conv.bias f4 [10]
00000000: c629 b239 5846 7eb9 83a5 c1b9 234a a638
00000010: 8ee8 3dba b0f4 af38 2f71 1339 21a8 23b9
00000020: a982 3339 0616 9938
0.0003398193 -0.00024249533 -0.00036935144 7.929306e-05 -0.0007244431 8.390227e-05 0.00014061177 -0.00015607524
0.00017119445 7.299711e-05

rb1.shortcut.bn.weight f4 [10]
00000000: 5074 7f3f 43de 6f3f 7fcc 883f 191c 643f
00000010: 7f06 8e3f b36c 753f 6b19 2b3f 587e 433f
00000020: 108c 6f3f ab5f 703f
0.99786854 0.9369852 1.0687407 0.89105374 1.1095732 0.95868987 0.6683566 0.7636466
0.93573093 0.9389598

rb1.shortcut.bn.bias f4 [10]
00000000: f14d 0c3d 55bc 73bd 283c 1e3e 9681 46bd
00000010: b41b f83d 433a d93d 8475 443b 8c0c 9a3d
00000020: 51c7 843d f80d 5a3e
0.03425402 -0.05950578 0.15452635 -0.048463427 0.12114659 0.10606816 0.0029977271 0.075219244
0.06483329 0.21294391

rb1.shortcut.bn.running_mean f4 [10]
00000000: fcf9 49bd bb81 aa3d 3067 e53a 6a51 863c
00000010: cbac 81bd 8a16 a9bd 0efd 703d e693 1bbb
00000020: bef0 273d b279 973d
-0.04931067 0.083255254 0.0017502066 0.016396243 -0.06331786 -0.08256252 0.05883508 -0.0023739277
0.041001074 0.073962584

rb1.shortcut.bn.running_var f4 [10]
00000000: 16f1 0d3e f4d2 bf3e 1168 c23b 8e9c 4b3e
00000010: f485 133d fcac 563e 69e2 7f3e dffa bb3d
00000020: 32a7 413e d89b 263e
0.13861498 0.37465632 0.005932816 0.1988394 0.03601642 0.20964426 0.24988712 0.09178709
0.18911436 0.16270387

rb2.conv1.weight f4 [20, 10, 3, 3]
00000000: 3d5b 1c3d 3c19 e03d da33 523d e44f 303e
00000010: 77d6 363e 52d6 293e 0854 4c3d e9a3 a43d
00000020: ee90 9a3d b628 f43d d1d2 2dbe f487 9abd
00000030: cf4d a0bd 2269 86bd f161 0ebd 4270 b83d
00000040: 3877 54be c6e1 12be 9cb5 30be 5e9b 6bbe
00000050: e9e8 0dbe ddec 6dbd a554 20be 47f3 7dbd
00000060: b23d 09bc 2d70 d13c 8251 1cbe dabb 0d3d
00000070: 800b fabd eefe 963d 7401 413b 2ec3 743d
00000080: 63ee b73d 199d 22bc 9129 b83d 0702 4e3e
00000090: 3d97 1a3d 0a85 fd3d 46da db3a 6569 26be
000000a0: fbbc 68bd 3285 953d 21eb a63c e185 68be
000000b0: 55f0 0ebe 5ec9 ea3d 6d8b 5e3d 50eb 693d
000000c0: 5367 dabd f3e7 94bd 9472 35bd 1e46 5ebd
000000d0: 4f47 e8be 7e2c 74bd 20bb 6e3d ba13 ba3d
000000e0: ba73 d63d 5ee6 5b3b 6745 9f3d 716b ea3d
000000f0: 4e39 bc3c cd49 a6bb c1fa 58bc 735f d33d
00000100: 828d f2bd a364 093d 37c9 b8bd 563d bebe
00000110: 1a7a 25bd 2d58 b23d 29d9 37be e140 8dbd
00000120: bb89 0d3c 1b71 1cbd 495d 84bd f97c 02be
00000130: 7f8b 853d 0ab9 143e b252 1abe c6fb 56bc
00000140: 832e be3d 83ee 04be 507d a9bc 3875 bfbd
00000150: ac73 ae3d c102 a5bb f4f0 0dbd 2fdb d3bd
00000160: f865 1d3d 014a 013e a5bc 86be 62a5 a9bd
00000170: cdeb d1bd 7247 cd3d 0427 adbd 19dc 0fbc
00000180: d257 463e b17f 5d3e 4fed 5f3e 33d0 99be
00000190: 2b94 fdbd 24e8 b5bd 74b7 34be d671 813d
000001a0: 6505 8fbc c721 06be a211 94bd 4ffb cebd
000001b0: 3b5a 74be 5491 95be 75d3 16be 4968 e13d
000001c0: bd88 783d f193 a5bc bd29 2a3e bf3d 4e3e
000001d0: 02a4 6e3e 5f19 85bd 4b06 45bd a823 d3bc
000001e0: 5443 bfbd bce7 863d f702 c9bc 0611 09be
000001f0: 6ee4 79ba 5834 a8bd 4bdf bd3d d516 1d3e
00000200: 7c51 803d 7dba a43c 35fb 55bd 4f8a 5fbd
00000210: 0513 10be cd5d 52be dc3e 33be d53c 79bd
00000220: c860 52bc decb dc3d 80a4 8ebd d5b6 4f3d
00000230: 4f60 403d 5d07 f33c b5dd 84bd 3a5d 8a3d
00000240: fbe4 e03d 63e7 113e e96e 803d 73b7 193c
00000250: 1d31 6f3d a847 66bd 5962 8abd 1d86 20bc
00000260: cafe 88bd e65a 753d 6dd1 813e cf21 373e
00000270: 28b5 a4bd 2238 7b3d a1e5 f53d 3a60 2bbe
00000280: 2a15 123d df62 8abd 6709 adbd a854 813d
00000290: 51f4 10be 1ca0 3abd f423 653d 8a69 16be
000002a0: 270e 8c3d 79c5 393d c6bb c6bd df05 8fbc
000002b0: 5261 9d3d c854 083b 9e12 9138 bfac 803d
000002c0: 6948 163d 6961 763d 57c1 c43d 4a7e 0dbd
000002d0: 3940 67bd fc34 7e3c c0b7 bebd 0e98 b2bc
000002e0: e924 ae3d f9f6 b43c cc40 f5bc 2a3a 83bd
000002f0: e3cd af3d 3260 9abd 5025 ed3b e039 273e
00000300: 2730 04be 10ae 833c 3dd6 383d c69a a7bd
00000310: 74b4 12be e0e2 d2bd 69cc f33d bce6 0dbe
00000320: 065e 363c 0c49 1e3e 95ea a43c 5ba7 e1bc
00000330: 9f95 4d3d eb64 5b3d d379 973d addc 7a3e
00000340: 72d8 383e 5025 d03d d498 023d 21bf 223e
00000350: 88c9 873c fc39 4bbe acaa 8c3d a3af 1e3d
00000360: c66a 07be 0250 833c 1eb0 36bb 0466 c7bd
00000370: 20f9 9bbd aef4 083d 9d7c 263d 15be 17bd
00000380: 171d 2b3c f85e 9d3d c02e cd3d af6c 48bc
00000390: 762e 8dbe 9c76 093d 4fb7 093c c8cd 2dbe
000003a0: dc69 313d c696 9b3d 5cf2 3c3e 5d8a 433e
000003b0: 9d5b 71bc b958 1bbe e446 05be b0e7 28be
000003c0: 5758 fbbe cd35 eabe 15c1 cebd 392d 2e3d
000003d0: c7e0 81bd 9062 103d 14cf 3fbd 9242 a33c
000003e0: 1c97 673d 2f2b 88bd 584c 21bd 2b1a d7bd
000003f0: 475a c9bd 0e0e cfbd 68cc 03bd 725b cebd
0.03817295 0.10942313 0.05131898 0.17217976 0.1785525 0.16585663 0.049884826 0.08039076
0.075471744 0.119218275 -0.16974951 -0.07545462 -0.07827341 -0.06563021 -0.034761373 0.090057865
-0.20748603 -0.14343938 -0.17256778 -0.23008487 -0.1385838 -0.05808722 -0.1565729 -0.061999585
-0.008376526 0.025566185 -0.15265468 0.034602977 -0.12209225 0.07372843 0.002945033 0.05975645
0.089810155 -0.00992515 0.08992303 0.20117961 0.03774189 0.12378891 0.0016773425 -0.16251142
-0.05682085 0.073007956 0.02037579 -0.22707321 -0.13958867 0.11464189 0.054332186 0.057109177
-0.10664239 -0.07270803 -0.044298723 -0.054266088 -0.45366904 -0.059612744 0.058283925 0.09085794
0.10471292 0.0033554058 0.07776909 0.11446274 0.022976544 -0.0050747157 -0.013243378 0.1032094
-0.11843397 0.03354324 -0.09022754 -0.3715617 -0.04039965 0.087082244 -0.17953934 -0.0689714
0.0086387945 -0.038193803 -0.06463105 -0.12742986 0.065207474 0.14523712 -0.15070608 -0.013121551
0.09286215 -0.1298161 -0.020689636 -0.093485296 0.085181564 -0.0050357287 -0.03465362 -0.1034454
0.038427323 0.12625886 -0.263158 -0.082834974 -0.102500536 0.10023393 -0.08454707 -0.008780503
0.19369438 0.21630742 0.2186787 -0.30041656 -0.123817764 -0.08882168 -0.17648107 0.063205406
-0.017458627 -0.13098823 -0.07229926 -0.10106527 -0.23862545 -0.2921244 -0.14729102 0.11006219
0.06067728 -0.020212146 0.16617484 0.20140742 0.23304752 -0.0649898 -0.048101705 -0.025773838
-0.09339014 0.065871686 -0.024537547 -0.133854 -0.0009532635 -0.08213109 0.092711054 0.15340741
0.06265542 0.020108456 -0.052241523 -0.05457526 -0.14069755 -0.20543595 -0.17504448 -0.06084903
-0.012840457 0.10781072 -0.0696497 0.05071147 0.046966847 0.029666597 -0.064876 0.06756063
0.109811746 0.14248423 0.062711544 0.009382117 0.058396447 -0.05622068 -0.067570396 -0.0097976
-0.06689222 0.05990114 0.25355092 0.1788399 -0.08042365 0.06133283 0.12006689 -0.16735926
0.035664715 -0.067571394 -0.08449059 0.06314975 -0.141557 -0.04556285 0.05594249 -0.14688697
0.06838637 0.04535434 -0.09703784 -0.017458854 0.07684578 0.0020802487 6.9176065e-05 0.06282949
0.03669015 0.06015149 0.09607189 -0.034544267 -0.056457732 0.015515562 -0.09312391 -0.021801021
0.08503134 0.022090422 -0.029938124 -0.06407578 0.08584192 -0.07537879 0.007237114 0.16330671
-0.12908994 0.01607421 0.04512619 -0.081838176 -0.1432665 -0.10297179 0.119042225 -0.1385755
0.011130815 0.15457553 0.020131389 -0.027545622 0.050191518 0.05356304 0.07396283 0.24498244
0.18051317 0.10163367 0.03188403 0.15893222 0.01657559 -0.19846338 0.068684906 0.03874172
-0.13224325 0.016029362 -0.002787597 -0.09736255 -0.07615876 0.03343647 0.040646184 -0.03704651
0.010443947 0.076841295 0.100186825 -0.012232943 -0.2757451 0.03356038 0.008405521 -0.1697303
0.043313846 0.07597117 0.18451828 0.1909575 -0.014731315 -0.15170564 -0.13015324 -0.16494632
-0.49090835 -0.45744172 -0.10095421 0.042523596 -0.06341701 0.035250247 -0.046828344 0.019929204
0.056540594 -0.066488616 -0.039379448 -0.10503038 -0.09831672 -0.101101026 -0.03217736 -0.100760356

rb2.conv1.bias f4 [20]
00000000: 28a5 a9b8 4ecb 8c38 b8e8 8538 5a10 23b9
00000010: 2aa8 86b8 5026 15b8 5829 9736 0d50 8638
00000020: 189c 5fb8 5a9a af38 f376 5eb8 8c36 9737
00000030: 806e 80b6 8f30 ea38 189c 2137 51f6 9bb6
00000040: c8f5 2137 b402 4b37 b854 7c39 8456 9f38
-8.089311e-05 6.713589e-05 6.3852814e-05 -0.00015550983 -6.420941e-05 -3.556005e-05 4.5049637e-06 6.4045285e-05
-5.3312717e-05 8.3734005e-05 -5.3039705e-05 1.8026003e-05 -3.827561e-06 0.00011167034 9.632691e-06 -4.648035e-06
9.653573e-06 1.2100372e-05 0.00024064153 7.5978256e-05

rb2.bn1.weight f4 [20]
00000000: e53a 5b3f 1c76 703f 0e38 6b3f 4749 893f
00000010: 7e73 8c3f b7c4 493f e256 743f fb0b 6e3f
00000020: 984a 3b3f 0895 603f 3798 603f 0a4e 813f
00000030: d36b 863f 7ac3 783f 50e8 763f 9ed2 883f
00000040: 2254 703f 9bd5 6c3f 9add 833f 3aee 793f
0.8563674 0.9393022 0.9188241 1.0725487 1.0972745 0.7881579 0.9544507 0.9298703
0.73160696 0.87727404 0.8773226 1.0101941 1.0501655 0.97173274 0.9644823 1.0689275
0.93878376 0.92513436 1.0302002 0.9762913

rb2.bn1.bias f4 [20]
00000000: 8639 983c bbbc b4bd 4752 663d e997 13bd
00000010: 0d86 01be 9e3e c7bd cb7b 553c d9a3 9a3d
00000020: 1108 acbc 2ff5 213d 5954 09bd 06bd 853d
00000030: 609d e4bd 3702 2b3d 9421 9cbd 02db ddbc
00000040: 2c16 943d 379e 75bd 1199 d13d ceb1 0fbe
0.018582117 -0.0882506 0.05623081 -0.036033545 -0.12648793 -0.0972874 0.013030003 0.07550783
-0.02099994 0.039540466 -0.033527706 0.06530194 -0.111628294 0.04175016 -0.07623592 -0.02708197
0.072307914 -0.05996534 0.10234273 -0.14032671

rb2.bn1.running_mean f4 [20]
00000000: dad4 88bf dce9 88be a195 d9bf 86a1 38c0
00000010: c97e 3dbf 207a 3dbe 0ac6 57bf be8b b0bf
00000020: 1710 0b3f 2f1d 69be e117 0dbf 1e5d 6abf
00000030: b5de 14c0 5b47 21bf 341f 29bf 714c e0bf
00000040: f42e c4bf 5805 36bf 2a18 03c0 a8af f0be
-1.0689957 -0.2674092 -1.6998788 -2.8848586 -0.74021584 -0.18503618 -0.8428656 -1.3792646
0.54321426 -0.22765039 -0.5511456 -0.91548336 -2.326093 -0.62999505 -0.6606324 -1.7523328
-1.5326829 -0.71101904 -2.0483499 -0.47009015

rb2.bn1.running_var f4 [20]
00000000: 2868 ad3f 8033 983f 4ea7 e13f 4f6c 2540
00000010: 35ee ee3f c2fc c53f 4013 0640 7ccf 0640
00000020: d1e6 8b3f 7ec4 8c3f c17c cb3f 38e4 e33f
00000030: 7904 0840 673f e03f c0ef b23f 973e 0940
00000040: fca7 f43f 05ae c43f c0e1 d53f 9d36 e33f
1.3547411 1.1890717 1.7629182 2.5847356 1.8666445 1.546776 2.094925 2.1064138
1.0929815 1.0997465 1.5897447 1.7804022 2.125273 1.7519349 1.3979416 2.1444452
1.9113765 1.5365607 1.6709518 1.7751042

rb2.conv2.weight f4 [20, 20, 3, 3]
00000000: bc9b 99bc d347 67bd 57c3 1f3d 42c8 8f3d
00000010: 42d9 f03c afb8 b7bd 3fd6 b5bb 0643 f1bd
00000020: 4547 98bc 9c24 1cbe 8bbb 073e ae18 af3d
00000030: 4c5e cf3d 9fcd 513e 0078 163e 0673 ba3d
00000040: 05e8 0a3e 13ac f83d b036 ccbc 1cbf 84bd
00000050: a78e 70bd 83d0 333e 93d0 e83d 02fc 61bd
00000060: d8c2 983c c82e 903d c4da b5bd 503a dfbd
00000070: 96f6 0dbd 0c23 4fbe 45e6 efbd c73a 6b3d
00000080: 1554 70be e12a 4cbe a7a4 4cbd 1152 c7bd
00000090: 47b6 eebd 1c23 d3bd 55ca 02be b6b1 b0bc
000000a0: d7ab a5bc 65de d4ba 4bfd 9e3d 2c8c ca3d
000000b0: 84c1 6b3d 03b6 c0bc bdc4 60bd e61e a6bd
000000c0: a210 e7bd 7f20 253d 1997 29bd e4ad 67bb
000000d0: 90b4 c8bd 8691 cabd 4515 d2bb dacd d63c
000000e0: 7755 fabc aa9a 203e c505 4d3d fa67 84bd
000000f0: 3571 00be 2f3d 09be 7412 df3c f325 e7bd
00000100: e160 4e3d 9dd1 7cbd 3ead 0e3c b060 a2bd
00000110: 644e da3b 4dbf 05be 5056 aabd 369e c53d
00000120: 77c0 033e a140 3dbe 5df0 42be 6f96 583e
00000130: 0e65 b43d 0756 ccbc f8a6 e5b9 a6f1 b8bc
00000140: ec2b 403d d750 0b3d 0a2f e8bd 6c4f 91be
00000150: 152b bd3b 5b03 9fbd c7aa ac3d 7521 93bd
00000160: 523e e73d 535d 763e 3cdc 8d3d 8ff7 283d
00000170: 9456 fbbc 77bd 033e b456 b83d 08fa b6bd
00000180: e8f3 933d 0266 1cbe a7a2 78be 5a57 6b3d
00000190: eadb 9f3d 02cd 5a3e 38c4 153d 999d 38bd
000001a0: 992c d43d 54c6 04bd b71c 4dbe 40c5 b1bd
000001b0: 0d56 56bc fa40 bb3b a42f 5bbd d0ef 20bd
000001c0: 88ea fcbd d195 4bbe 134b 9bbe 0115 47be
000001d0: 0778 54be 3851 2d3d 8e74 1dbd a81f 5e3d
000001e0: dcfa 103e cd0f 85bc 2618 ba3d b640 163d
000001f0: 9f85 c7bc 7635 843d 46b1 023e fa53 b53b
00000200: 206e 333e b0d2 bfbb 542a a3bd f5a4 e43d
00000210: 7727 c43d 149a 933d 0588 0e3e d92d c63d
00000220: d7cf e83d 1586 893d 24d1 d0bc 64fd ed3c
00000230: 9ab2 873a 6326 ce3a dd9f 7fbd be13 5abe
00000240: ac76 b23d b65b 943d 3060 1a3c b88d 873d
00000250: 8e9b 943d 6441 03bd 4e32 c7b9 abbc 3ebd
00000260: 7e7e bf3c 7a20 883d 6df2 1fbc 29f2 723d
00000270: 6188 43bd ed13 18be 7bec eebb 6d94 793c
00000280: 0b16 64bd 3df7 d8bd 4b75 02be 7f1f 553d
00000290: ca15 133d 6e5d e3bd 6f39 c73d 155e cc3d
000002a0: 2a59 4dbe 078c b9bd 1066 62bd 30b9 6b3e
000002b0: 6229 033e 2faf 863d e622 d93d 81bb c53d
000002c0: 39eb 183e 08d3 0d3e e931 783d 2d02 553d
000002d0: 5bd2 2a3d f22e ef3d b193 4bbd ede7 0bbe
000002e0: 46f9 153d 9fe4 b0bd cfb4 a0bd f612 3dbd
000002f0: 6315 1cbe 6d26 e7bd da47 88be c39b a1bd
00000300: a177 203d b2a6 0c3c daf1 94bd 5598 b03c
00000310: 7db5 2c3e c7b5 043d ee03 1cbe 8a06 42bd
00000320: b6d5 92bd 3ae3 1abe a6bc babc f657 d3bb
00000330: b3fa 553d c844 a03d b789 233d 79f6 2fbd
00000340: 14e9 2b3d 7001 ccbd 0523 2bbe baca 873d
00000350: 23c8 97bd 1b2e 3cbe 9725 3dbe 1f46 78be
00000360: b3b5 5cbe 204a 9dbd fd50 f4bd 769d a1bd
00000370: 6678 b53d 171c f8bd a44d a83d 6be1 16bd
00000380: fb5f c0bd 0d1c 10be 7fdd a6bc 3f0e 453d
00000390: cdc0 93be 6bb4 ccbd a862 203c e262 e0bc
000003a0: f7b4 433d 45f7 e33c 1d01 11bd e184 0d3d
000003b0: 54ba 023d 2ea6 26b9 6104 443d 7ab0 4ebd
000003c0: 74f5 79bc 987a 773d 2869 2cbd 3427 873d
000003d0: c77f 023d d6a9 18be a6fe 6d3d 1065 933d
000003e0: 4baf c7bc 00a8 063b 98d2 633a 82b1 ecbd
000003f0: 04a4 2bbe 54e3 d2bd f121 f6bd f24f 0ebc
-0.018751018 -0.05646498 0.03900465 0.07020618 0.029400472 -0.089707725 -0.0055492218 -0.11780362
-0.018588671 -0.1524834 0.13255136 0.08549629 0.101254076 0.20488594 0.14694214 0.0910397
0.13565071 0.121421956 -0.02492842 -0.06481764 -0.058729794 0.1756001 0.113679074 -0.055171974
0.018647596 0.07040173 -0.08879617 -0.10899794 -0.03465899 -0.20228213 -0.11713842 0.0574291
-0.23469575 -0.19938232 -0.049961712 -0.0973245 -0.116558604 -0.10309431 -0.12772496 -0.021569114
-0.020223541 -0.0016240595 0.077631555 0.09890017 0.057557598 -0.02352429 -0.054875124 -0.08111362
-0.11282469 0.040314194 -0.041403864 -0.003535145 -0.098000646 -0.09891038 -0.006411227 0.026221205
-0.030558331 0.15684 0.05005433 -0.064651445 -0.12543185 -0.13402246 0.027230479 -0.11286535
0.05038536 -0.06172334 0.008708296 -0.07928598 0.006662177 -0.13061257 -0.08317244 0.09649317
0.12866388 -0.18481685 -0.19037004 0.21151136 0.08808337 -0.024943365 -0.00043802685 -0.022576164
0.046916887 0.03401264 -0.11337097 -0.28380907 0.005772958 -0.07764312 0.08431011 -0.07184116
0.112911835 0.24059038 0.06926772 0.041251715 -0.030680932 0.12865244 0.09000912 -0.089344084
0.07224256 -0.15273288 -0.24280797 0.05745635 0.07805617 0.21367267 0.036564082 -0.04507217
0.10360069 -0.032415703 -0.20030485 -0.086802006 -0.01308204 0.005714533 -0.05351223 -0.039291203
-0.12349421 -0.19881369 -0.30330715 -0.19441606 -0.20748912 0.042313784 -0.038441233 0.05422941
0.14158195 -0.016242886 0.09086637 0.036682807 -0.024355708 0.06455509 0.12762937 0.0055336924
0.17522478 -0.0058539733 -0.07967058 0.111642756 0.0957784 0.072071224 0.13919075 0.096767135
0.11367767 0.06715027 -0.025490351 0.02905149 0.001035291 0.0015727993 -0.062408317 -0.21296594
0.08714041 0.07244055 0.009422347 0.066188276 0.07256232 -0.032044783 -0.00037993718 -0.046566647
0.023375746 0.066468194 -0.009762389 0.059312973 -0.047737483 -0.14851351 -0.0072913743 0.015233141
-0.055685084 -0.10594032 -0.12740056 0.05203199 0.03590945 -0.11101805 0.097277515 0.09978882
-0.20053545 -0.09059911 -0.055273116 0.23019862 0.12808755 0.06576382 0.106023595 0.09654904
0.1493348 0.13850033 0.060594473 0.052004028 0.041704517 0.11678876 -0.049701396 -0.13662691
0.03661468 -0.08637356 -0.078469865 -0.04616066 -0.15242533 -0.11286626 -0.26617318 -0.07891037
0.039176587 0.008584665 -0.07272692 0.021557013 0.16866107 0.03239992 -0.15235874 -0.047369517
-0.071696684 -0.15125743 -0.022795033 -0.0064496947 0.05224104 0.07825619 0.039926257 -0.042959664
0.041970327 -0.09961212 -0.16712578 0.06630464 -0.0741122 -0.18376963 -0.1847137 -0.24245499
-0.21553688 -0.07680154 -0.1192951 -0.078913614 0.08860855 -0.12114733 0.08217934 -0.03683607
-0.09393307 -0.140732 -0.02036929 0.04810929 -0.28858033 -0.099953495 0.0097891465 -0.027390901
0.047780003 0.027827868 -0.035401452 0.03455055 0.031915978 -0.000158929 0.04785574 -0.05046127
-0.0152562745 0.06041965 -0.042092472 0.06599274 0.03186014 -0.14908537 0.05810418 0.071970105
-0.024375578 0.0020546913 0.00086907437 -0.115572944 -0.16761786 -0.10297266 -0.120181926 -0.008686053

rb2.conv2.bias f4 [20]
00000000: 10a0 08b8 b635 b337 fc9c 3a37 be58 1db8
00000010: e467 4037 16f2 7937 ad0f 14b8 5265 99b8
00000020: a236 03b8 ee18 6bb8 e251 0138 bebc a037
00000030: cc70 a5b8 7ca6 8cb7 b044 5236 a4dd 9bb8
00000040: cf73 04b9 bdc6 4138 14ef 0c38 429c c9b7
-3.2573997e-05 2.1363474e-05 1.1123015e-05 -3.7514365e-05 1.1468281e-05 1.4897922e-05 -3.530055e-05 -7.314481e-05
-3.1283715e-05 -5.6051584e-05 3.0832256e-05 1.9161376e-05 -7.888823e-05 -1.6766826e-05 3.133242e-06 -7.43226e-05
-0.00012631643 4.6199875e-05 3.360126e-05 -2.403383e-05

rb2.bn2.weight f4 [20]
00000000: bae5 653f d45f 873f 8748 9e3f be5e 893f
00000010: 0e70 983f df40 7b3f 0f31 a03f 42ab 993f
00000020: 9c50 973f d1ac 9e3f efe5 a13f 3218 813f
00000030: a0ef 983f b908 803f 6a16 993f 92b7 ad3f
00000040: 6b92 a63f c1ae a13f 9ed2 933f a62b 763f
0.8980366 1.057612 1.2365884 1.0732038 1.1909196 0.9814586 1.2514971 1.2005389
1.1821475 1.2396489 1.2648295 1.0085509 1.1948128 1.0002662 1.1959965 1.3571646
1.3013433 1.2631456 1.154865 0.9616035

rb2.bn2.bias f4 [20]
00000000: 610c 0d3e e6bd 2d3d 64a9 4bbe bd23 70bd
00000010: b464 1dbe e9ce 35be 1eae 843d 891a 80be
00000020: 4306 1b3e 2231 00be 2ceb 9f3a c68c 31be
00000030: b56f d23c 40c2 a33d 3cbc d5bc e752 fc3d
00000040: c035 bcbc d8e9 eebd 71f0 9d3d adcb 84be
0.13774253 0.04241743 -0.19888836 -0.058627833 -0.15370446 -0.17754711 0.06478523 -0.25020245
0.15139107 -0.12518743 0.0012200824 -0.17338857 0.025688032 0.079960346 -0.026090734 0.123205
-0.022974849 -0.11665696 0.07711876 -0.25936642

rb2.bn2.running_mean f4 [20]
00000000: 6bfe 70be 0bfe 17c0 f8a3 9cbf 3bf5 4dbf
00000010: b3f3 b1bf fa0c 5abe f166 95bf ebf0 923e
00000020: 04e5 52c0 bd26 4cbe 80b8 90bf 96db d1bc
00000030: 0558 ebbf 7748 8cbf 89c3 163f d9a1 a6bf
00000040: 991e 2bc0 271a 69be 3c08 0bc0 3837 483e
-0.23534553 -2.3748806 -1.2237539 -0.80452317 -1.3902496 -0.21294013 -1.167204 0.2869943
-3.295228 -0.19936652 -1.1306305 -0.025617402 -1.8386236 -1.0959615 0.5889211 -1.3018142
-2.6737425 -0.22763883 -2.1723776 0.19552314

rb2.bn2.running_var f4 [20]
00000000: 56c6 763f 0637 a73f 1954 513f 68a1 663f
00000010: cf7f 6c3f 3f47 a53f 3e34 bc3f 32ff 423f
00000020: 0706 c03f dce0 773f 929e 513f 603f 4b3f
00000030: 7c3e 2f3f b9d6 9f3f af78 cc3f e7fe 833f
00000040: 19c6 683f 9758 9d3f 8c87 a73f 7441 4a3f
0.96396387 1.3063667 0.8176895 0.90090036 0.9238252 1.2912368 1.4703443 0.7617065
1.5001839 0.96827483 0.81882584 0.7939358 0.6845472 1.2487403 1.597433 1.0312165
0.90927273 1.229266 1.3088241 0.79006124

rb2.shortcut.conv.weight f4 [20, 10, 1, 1]
00000000: 289f 38bd 3613 aebd 1f1d d6be 20c1 0abe
00000010: dad8 e33e 3ba2 793d 0855 4bbb 9ac0 4d3d
00000020: 28da 88bb 2e8f 76be f966 07be 4465 453d
00000030: 6809 13bf 6ff7 b93d 7d93 c83b 5e69 a8be
00000040: 3f2c 01bd ab08 40bd 4bbb 36bd 6705 1ebd
00000050: ddad 92bd 2e8f 1ebe a125 c7bc 5860 f9bc
00000060: 174e aa3d e141 bf3e e5b3 273e d456 233d
00000070: 3953 18be 47ac b3be 6d68 90bd 532e 313d
00000080: 0038 b13e f56f d03d e91e cb3d 33fe a4bd
00000090: 2baf 823e 8b98 623e 9e0e dd3e adfb 5fbe
000000a0: 40df 50be 82ca 133d 4105 0b3e 563e a33e
000000b0: bf98 0b3d 6512 51bd 29cd 7bbd 55ad c5bc
000000c0: 7657 b83e a806 3bbe 81ba 7a3e 3bb2 053e
000000d0: 814b d1bd 9f77 adbe 3cd1 94bd dc40 13be
000000e0: bc8a 543e a06a 80be 4783 33be 2416 c7be
000000f0: ec05 88bc 573a f63d 6478 643d 7849 90be
00000100: e9dd 66bd cd2f c2be 0a88 88be 805f 9a3d
00000110: 8889 983e 38a1 94bd 74c2 453e 5e06 493e
00000120: 3204 8ebd 26ef 26be c028 1ebe a421 48be
00000130: d042 b7be 769c 8339 fee7 f6be 0b00 38be
00000140: c38d 53be d88b c03d 4a6e ecbd 8846 05be
00000150: e417 23bf 3368 05be 69f1 de3c 1656 6d3e
00000160: cc3c 10be 5375 bd3d ba43 60be b941 be3e
00000170: 9dc1 54be f1d0 40be 3a59 1b3e bb57 c0bd
00000180: 60bc bbbc ba27 5d3e dea3 3fbd f82e a5be
00000190: 4a95 973d 3928 973d f269 c9be c2de 803e
000001a0: 0fc4 a0be 2ef3 e9bc aa67 863e a62d ef3d
000001b0: 5909 723e 5e91 bd3d 4856 513b a4e4 bfbd
000001c0: deea b7be 3f64 353e eaba 803e f81b 7b3e
000001d0: 93db d5bd f0f4 39be 6b52 ff3d 821d e7bd
000001e0: 6e2f c9bd f226 d3be 2337 5d3e e22b b03e
000001f0: 845b 9cbd e18d a43d bd1a bf3d b8b0 1bbe
00000200: ea02 99be 5d10 f03d a73b 8cbd d86d 40be
00000210: b3a0 3fbe 7c48 a7bd 501e 1d3e afdb 343e
00000220: 30f6 d83d eade f03d c9b3 02bf 243f e3bd
00000230: ce75 133d 8429 75be a686 c83c c876 21be
00000240: c995 9f3c 449a aebe 2715 d5be 741d 18be
00000250: 8364 f9bd ba50 203e 3574 d03e 412e c5be
00000260: 3ffb 683e fa35 2b3e 9b1b 2bbe db3d 103e
00000270: c887 c63d 6106 10be dfe4 40be d990 9ebd
00000280: 5d0e 143e 1ae1 b23e 8c03 efbd e2a8 b53c
00000290: 716d aebd 8486 843e f526 243e 39dd f23d
000002a0: 9db8 893d 2777 10bb 260e 953d 4455 7d3d
000002b0: c46a 97be 135e 313e 1b6b b6bc 4529 493e
000002c0: 292d 793e 4679 cc3e de6a 603e 4fbd d4bd
000002d0: db79 b83d 198c 553e ec6f 71bb e692 80be
000002e0: 2f86 a1bd 5eff 813b 264c 0a3e 7bc7 56be
000002f0: 81cf d4be 7f32 78be c504 8dbe 56ea d9bd
00000300: 66b4 b63e 9c28 b7bc 7e43 993d f236 abbd
00000310: f922 173e a5af c4bd 796a 4fbe c6a0 8f3d
-0.04507366 -0.08499758 -0.41819093 -0.13550234 0.44501382 0.06094573 -0.0031026024 0.050232507
-0.004176397 -0.24078056 -0.13222875 0.048192278 -0.5743623 0.09080397 0.0061210976 -0.3289289
-0.031536337 -0.046883266 -0.04461221 -0.03857937 -0.07162068 -0.15484306 -0.024309935 -0.030441448
0.08315676 0.3735495 0.16377218 0.039877728 -0.14875497 -0.35092375 -0.07051168 0.04325707
0.34613037 0.10177604 0.09918005 -0.08056297 0.25524268 0.22128503 0.43175215 -0.2187335
-0.20397663 0.0360818 0.13576223 0.31883496 0.034081217 -0.051042933 -0.061474953 -0.024130503
0.36004227 -0.18264258 0.24485208 0.13056271 -0.10219479 -0.33880326 -0.07266471 -0.1438021
0.20756048 -0.25081348 -0.17530547 -0.3888408 -0.016604386 0.12022846 0.055778876 -0.28181052
-0.056363974 -0.37927094 -0.2666629 0.075377464 0.29792428 -0.072573125 0.19312459 0.19631335
-0.06934394 -0.16302165 -0.15445232 -0.19544083 -0.3579316 0.0002510284 -0.4822387 -0.17968766
-0.20659547 0.09401673 -0.115444735 -0.13015187 -0.6370833 -0.1302803 0.027214723 0.2317737
-0.14085692 0.092508934 -0.21900836 0.37159517 -0.20776983 -0.18829705 0.15170756 -0.09391733
-0.022916973 0.21597186 -0.046787135 -0.32262397 0.074015215 0.07380719 -0.39338642 0.2516995
-0.3139958 -0.02855834 0.26250964 0.116786286 0.23636378 0.09256242 0.0031942297 -0.093697816
-0.35921377 0.17714022 0.25142604 0.24522388 -0.10442271 -0.18159842 0.12466892 -0.11284925
-0.098234996 -0.4124065 0.21603064 0.3440848 -0.07634643 0.08034874 0.09331272 -0.15204132
-0.29885036 0.11721871 -0.06847315 -0.18791902 -0.18713646 -0.08168122 0.15343595 0.17661928
0.105938315 0.117612675 -0.5105558 -0.110960275 0.03600102 -0.23941618 0.024478268 -0.15767968
0.019480603 -0.3410207 -0.416177 -0.14854985 -0.12177374 0.15655795 0.4071366 -0.3851185
0.22752093 0.16719809 -0.1670975 0.14086096 0.09693867 -0.14064933 -0.18837307 -0.07742471
0.14458604 0.34937364 -0.116705984 0.022175256 -0.08516968 0.25883877 0.16030486 0.11858601
0.06724665 -0.0022043677 0.07278089 0.061848894 -0.29573643 0.17321043 -0.022267869 0.1964465
0.24333633 0.39936274 0.21915767 -0.1038767 0.09007617 0.20854224 -0.0036840392 -0.25112075
-0.078869216 0.0039672097 0.13505611 -0.20974533 -0.41564563 -0.24238013 -0.275427 -0.10640399
0.35684508 -0.022358231 0.07483576 -0.08360089 0.14759435 -0.09603814 -0.2025546 0.07013087

rb2.shortcut.conv.bias f4 [20]
00000000: d07b 7c36 b3c3 4b37 20cd 98b8 12c5 dbb8
00000010: d9ed c238 a5ea 1038 4b10 7d36 6264 e2b8
00000020: 5cc7 7ab7 85cf ec38 7870 3438 4496 50b8
00000030: f597 e0b8 2de9 cc38 39ec ec38 e6b3 ee38
00000040: b436 c238 4f5e 3238 5986 7738 fc57 f737
3.7622995e-06 1.2145308e-05 -7.286132e-05 -0.00010479441 9.2949434e-05 3.4550805e-05 3.7709422e-06 -0.000107952175
-1.4947578e-05 0.000112920105 4.302009e-05 -4.973101e-05 -0.000107094565 9.7709104e-05 0.00011297357 0.00011382233
9.26083e-05 4.252634e-05 5.901451e-05 2.9485665e-05

rb2.shortcut.bn.weight f4 [20]
00000000: e05e 793f b2d9 4a3f d13f 6f3f 1b87 3a3f
00000010: e301 423f 598b 553f 0051 433f 746c 643f
00000020: 1a64 643f d62c 703f 5baf 2b3f ee66 483f
00000030: 04f9 313f f060 693f f22a 883f 2b4f 143f
00000040: 929a 373f 32d7 283f 48fc 043f be87 4e3f
0.9741039 0.79238427 0.9345675 0.72862405 0.7578413 0.8341575 0.7629547 0.89227986
0.8921524 0.93818414 0.67064446 0.7828206 0.6952059 0.9116354 1.0638106 0.579333
0.7172023 0.6595336 0.5194745 0.80675876

rb2.shortcut.bn.bias f4 [20]
00000000: 610c 0d3e e6bd 2d3d 64a9 4bbe bd23 70bd
00000010: b464 1dbe e9ce 35be 1eae 843d 891a 80be
00000020: 4306 1b3e 2231 00be 2ceb 9f3a c68c 31be
00000030: b56f d23c 40c2 a33d 3cbc d5bc e752 fc3d
00000040: c035 bcbc d8e9 eebd 71f0 9d3d adcb 84be
0.13774253 0.04241743 -0.19888836 -0.058627833 -0.15370446 -0.17754711 0.06478523 -0.25020245
0.15139107 -0.12518743 0.0012200824 -0.17338857 0.025688032 0.079960346 -0.026090734 0.123205
-0.022974849 -0.11665696 0.07711876 -0.25936642

rb2.shortcut.bn.running_mean f4 [20]
00000000: 05ad aebe 5137 68bf 2bec 72bd 7dd2 5f3f
00000010: 7efc 823e df0a 4cbf 080c 01bf 21b6 89bf
00000020: 2708 32bf 6437 d7be b0c8 be3e 5d06 7dbb
00000030: c971 a4bd 3dda edbe e947 7dbf 602a 1e3e
00000040: b941 433f 6749 523f 8f0a 30bf 02e5 0cbe
-0.34116378 -0.90709406 -0.05930726 0.87430555 0.2558326 -0.7970409 -0.50408983 -1.0758706
-0.6954369 -0.42034447 0.37262487 -0.003860853 -0.08029515 -0.46455565 -0.9893785 0.15445852
0.7627216 0.82143253 -0.6876611 -0.13759235

rb2.shortcut.bn.running_var f4 [20]
00000000: e6ea f33e 7caf ed3e f1f4 bf3e 6fe5 f23e
00000010: 8bca bb3e 6179 e23e 10ea ce3e f545 1e3f
00000020: 3a32 a43e 9597 8e3e 5212 f33e 2808 993e
00000030: daa7 863e 422f 0c3f 11ea 033f 459d b83e
00000040: 35c1 8d3e 1eff df3e 572a d33e c327 283e
0.4764015 0.46422946 0.37491563 0.4744067 0.36677966 0.4423323 0.4041295 0.61825496
0.3206957 0.27850023 0.47474915 0.29889035 0.26299936 0.5475961 0.5152903 0.36057487
0.27686468 0.43749326 0.4124324 0.16421418

res1_sc1.conv.weight f4 [20, 3, 1, 1]
00000000: 3fa6 0abf f3d9 e33d 6b22 ae3e e894 7bbe
00000010: bd88 113f 48d5 5dbe 7f26 8b3b 7150 afbe
00000020: d4f0 edbe dfeb c03e bec1 d7be 123e 85be
00000030: 541c d03e 3e23 3ebe 89e7 a23e 4247 18bf
00000040: f85e 9abe ba01 c83e a378 81be 12ec ec3e
00000050: a444 e63e a82d e43e d6b6 0ebf 260d 92be
00000060: 4f2b 7c3e 2ffb 063f 098b 66be 5e48 8e3e
00000070: 176e 51be 4274 e0be e703 08bd 1677 71be
00000080: 5892 17bf 469e fa3d d11c d5bd 0b8f febe
00000090: 2177 eebe 3da7 6fbe 50a3 a0bd c0d5 843d
000000a0: d628 58be 1fc2 fdbe 3de4 38be 18e1 7f3e
000000b0: e988 e93e 0b20 dd3e 9e25 813e 8e53 5fbe
000000c0: 27f6 75bd a61a 07bf 18d7 2dbc 2f5a 70bc
000000d0: c81c fbbe 6918 0f3d e6dc 873e 5a23 c83e
000000e0: ecec 9abc e99a 03bf f8b0 df3d cfbe 1b3e
-0.5415992 0.11125555 0.34010634 -0.24568522 0.5684927 -0.21663392 0.0042465325 -0.3424106
-0.464728 0.37679955 -0.4214 -0.26023918 0.40646613 -0.18568131 0.31817272 -0.5948373
-0.3015058 0.39063817 -0.2528735 0.46273857 0.44974244 0.44566083 -0.55747736 -0.28525656
0.24625896 0.52727026 -0.22513975 0.27789587 -0.20452152 -0.43838698 -0.033206847 -0.23580584
-0.5920768 0.122372195 -0.10405887 -0.49718508 -0.46575263 -0.2340364 -0.078436494 0.06486082
-0.21109328 -0.49562165 -0.18055816 0.2498821 0.45612267 0.4318851 0.25224012 -0.21809217
-0.060049202 -0.5277504 -0.010610364 -0.014669939 -0.49045396 0.03493539 0.2653572 0.3908947
-0.018911801 -0.5140825 0.10922426 0.15209506

res1_sc1.conv.bias f4 [20]
00000000: 22b9 76b9 8612 ef38 0f68 f2b8 b4a3 2238
00000010: dd94 6039 3969 66b9 90c0 4a39 a2a4 7ab9
00000020: feb1 76b8 2da8 4e39 34c2 8eb7 dd35 a3b8
00000030: b6ca 9037 c696 bf38 9a39 d5b7 f0e0 8e37
00000040: f093 aa38 58a5 16b9 a13a 7a38 fae1 9bb8
-0.00023529356 0.00011399858 -0.00011558842 3.877627e-05 0.0002141776 -0.00021973708 0.00019335956 -0.00023903188
-5.881674e-05 0.00019708341 -1.7018152e-05 -7.7824785e-05 1.7260532e-05 9.1356735e-05 -2.5418401e-05 1.7032464e-05
8.133787e-05 -0.0001436671 5.9659247e-05 -7.4330674e-05

res1_sc1.bn.weight f4 [20]
00000000: 21d5 823f cd10 783f 9245 533f 18bc 433f
00000010: 8513 323f 5e31 353f c305 2c3f 7756 493f
00000020: eab9 3f3f 3049 3e3f 8bd9 353f a0ca 3c3f
00000030: 4888 333f e660 4a3f 7a69 493f af0b 103f
00000040: c6f3 383f 1ed8 263f b39d 1b3f bfb6 613f
1.0221292 0.96900636 0.8252803 0.76458883 0.69561034 0.70778453 0.6719629 0.7864756
0.7489306 0.74330425 0.7103507 0.7374668 0.70129824 0.79054105 0.7867657 0.5626783
0.7224697 0.6517352 0.60787505 0.88169473

res1_sc1.bn.bias f4 [20]
00000000: 610c 0d3e e6bd 2d3d 64a9 4bbe bd23 70bd
00000010: b464 1dbe e9ce 35be 1eae 843d 891a 80be
00000020: 4306 1b3e 2231 00be 2ceb 9f3a c68c 31be
00000030: b56f d23c 40c2 a33d 3cbc d5bc e752 fc3d
00000040: c035 bcbc d8e9 eebd 71f0 9d3d adcb 84be
0.13774253 0.04241743 -0.19888836 -0.058627833 -0.15370446 -0.17754711 0.06478523 -0.25020245
0.15139107 -0.12518743 0.0012200824 -0.17338857 0.025688032 0.079960346 -0.026090734 0.123205
-0.022974849 -0.11665696 0.07711876 -0.25936642

res1_sc1.bn.running_mean f4 [20]
00000000: f4eb 1ebd 9a7e c13a 3385 9d3d 5996 463d
00000010: 8429 1abd 2f24 b6bc f39c 9dbd 4d06 6d3d
00000020: c8f5 8bbb 774a 7b3d 1c35 b43d f583 873d
00000030: dcde fd3c 4bed 943d 7ba9 8abd 1837 ca3b
00000040: ad2f fc3c 9742 b53c b3e9 bebc 7f58 81bc
-0.03879924 0.0014762462 0.07691421 0.048483226 -0.03763725 -0.02223405 -0.07695951 0.057867337
-0.004271243 0.061350312 0.08799192 0.06616966 0.030990057 0.072718225 -0.06770607 0.0061711185
0.030784452 0.02212648 -0.023304796 -0.015789269

res1_sc1.bn.running_var f4 [20]
00000000: e230 b73c 0115 da3b 533b 213e 8b56 123d
00000010: f4cb 8b3d 7446 a53d 00da f23d 514e 683d
00000020: 8a5d 983d 593a 403d fa85 3b3e 6e46 863d
00000030: c430 103e 55ad d93d 13d1 9e3d f20a 703d
00000040: 7d53 ac3d 8d0d 573d 3503 c13d 86cf d03c
0.022362176 0.006655336 0.15745287 0.035727065 0.0682601 0.080700785 0.118579865 0.056715313
0.07439716 0.046930645 0.18312827 0.06556402 0.14081103 0.106287636 0.077547215 0.05860419
0.084143616 0.052503157 0.0942444 0.02548958
