models/dense_max/epoch_0034.pth (torch, 645162 bytes, 174 tensors)

rb1.conv1.weight f4 [10, 3, 3, 3]
0	0xbda6471e	-0.08119033
1	0x3da77d7c	0.08178231
2	0xbd97a4ec	-0.07404503
3	0xbe6e8477	-0.23292719
4	0x3e8c18ff	0.2736282
5	0x3e3983eb	0.18116729
6	0xbe52d967	-0.20590745
7	0x3e3f734c	0.18696326
8	0xbdf602b7	-0.120122366
9	0xbe395962	-0.18100503
10	0x3c42fa51	0.0119005
11	0xbd2ab1ea	-0.04167358
12	0xbe9d7991	-0.3075681
13	0x3e9416e8	0.28923726
14	0x3e2b28ae	0.16714737
15	0xbc7e4d97	-0.015521429
16	0x3e8defcb	0.2772201
17	0xbe6622ba	-0.22474185
18	0xbcb97301	-0.022637846
19	0x3b349aec	0.002755816
20	0xbdbeac7f	-0.09310245
21	0xbe641495	-0.22273476
22	0x3d5e047e	0.054203503
23	0x3bffa971	0.0078021814
24	0x3e03c53b	0.12868206
25	0x3d8e9e50	0.069637895
26	0x3e1156fa	0.14193335
27	0x3d73dfa2	0.059539445
28	0x3c7710d6	0.015079698
29	0x3e25d404	0.16194159
30	0x3d630b74	0.055430844
31	0x3e108d48	0.14116395
32	0xbeb8174d	-0.35955277
33	0xbd5eae2e	-0.05436533
34	0x3d14858b	0.03626017
35	0xbd930a7d	-0.07179735
36	0xbd0be766	-0.034156226
37	0xbcda5557	-0.026652021
38	0xbbc22725	-0.0059250765
39	0xbd220171	-0.039552156
40	0x3edc045e	0.42972082
41	0xbe6b4438	-0.22975242
42	0xbd685c1b	-0.056728464
43	0x3daab072	0.083344355
44	0xbe026d54	-0.12737018
45	0xbe0be77d	-0.13662525
46	0xbe333d37	-0.1750382
47	0x3dfa5770	0.12223709
48	0x3c1204a0	0.0089122355
49	0x3eb56a03	0.35432443
50	0xbe8a189d	-0.26971903
51	0xbb37996d	-0.0028015033
52	0x3dc33697	0.095318966
53	0x3d390439	0.045170043
54	0x3d020847	0.031746175
55	0x3e8d4baa	0.2759679
56	0x3e3e09da	0.18558446
57	0xbe0701b9	-0.13184251
58	0xbd960a93	-0.073262356
59	0x3dc083ae	0.09400116
60	0xbd79bc6b	-0.060970705
61	0xbe665c88	-0.22496235
62	0xba307235	-0.00067308854
63	0x3e797e9e	0.24364707
64	0x3e7954b8	0.24348724
65	0x3ea13b87	0.31490728
66	0x3b52c33b	0.0032159823
67	0xbe2f7469	-0.1713425
68	0xbde72d31	-0.112879165
69	0xbde2bb20	-0.110708475
70	0xbe89d3d0	-0.26919413
71	0xbe399969	-0.18124928
72	0x3d61ef10	0.05515963
73	0x3e2e7a3e	0.17038819
74	0x3d751a04	0.059839264
75	0xbab5a532	-0.0013858436
76	0xbd31ee85	-0.04344036
77	0xbdbc1202	-0.09183122
78	0x3dcf0230	0.10107839
79	0xbe528d79	-0.2056178
80	0xbdfe9df7	-0.12432473
81	0xbe426a0d	-0.18985768
82	0x3d149702	0.036276825
83	0xbe2457fd	-0.1604919
84	0x3d94500a	0.07241829
85	0xbe9b8dcc	-0.3038162
86	0xbe2948e8	-0.16531718
87	0x3d43fb01	0.047846798
88	0x3dd25667	0.10270386
89	0x3e29c55d	0.16579194
90	0xbdd5ad66	-0.10433464
91	0xbe1f4e45	-0.15557201
92	0xbe27d7f5	-0.16390975
93	0x3e57c08c	0.21069545
94	0xbe8a9840	-0.27069283
95	0xbdffc789	-0.1248923
96	0x3e8b8388	0.27248788
97	0x3cd8bcf1	0.026457282
98	0x3ce154b1	0.027506204
99	0xbd1ac19b	-0.037782293
100	0x3cce7c09	0.025205629
101	0xbe0b677c	-0.13613695
102	0x3c543197	0.012951276
103	0xbe300c12	-0.17192104
104	0xbdfd270a	-0.12360962
105	0x3e42a406	0.19007882
106	0x3c82cb95	0.015966216
107	0x3e6ba27c	0.23011202
108	0xbe7c45c5	-0.2463599
109	0xbe6ccd9e	-0.23125312
110	0x3e42db6c	0.19029015
111	0xbdb9fad9	-0.090810485
112	0xbe2b51d1	-0.16730429
113	0x3e17bab1	0.14817311
114	0xbdf2bcdd	-0.11852429
115	0xbc05265d	-0.008126822
116	0x3e695c21	0.2278905
117	0x3e6f620e	0.23377249
118	0xbe5ffd1d	-0.21873899
119	0xbdb44288	-0.08801752
120	0xbd9f46ab	-0.07777151
121	0xbc2006e2	-0.009767266
122	0x3e2d88b1	0.16946675
123	0x3dbb0fa3	0.09133842
124	0x3df78832	0.12086524
125	0x3e017ee5	0.12646063
126	0x3e858a62	0.2608214
127	0x3da5161b	0.08060857
128	0xbd8207ec	-0.06349167
129	0x3e5ee5a1	0.21767284
130	0x3ceda630	0.029009908
131	0xbe8dd990	-0.2770505
132	0x3e11faf3	0.14255886
133	0x3c5675af	0.013089581
134	0xbe40efbf	-0.18841456
135	0xbe404c6f	-0.18779157
136	0xbe17e410	-0.14833093
137	0x3dffbf28	0.12487632
138	0x3ccfec72	0.0253813
139	0xbe12f82c	-0.14352483
140	0xbad086bc	-0.0015909295
141	0x3dfe2dc2	0.12411071
142	0xbda70ea5	-0.0815709
143	0x3cf03fe5	0.029327342
144	0x3d9aa640	0.07551241
145	0x3e4204fe	0.18947217
146	0x3e62be82	0.22142985
147	0xbd20b3bd	-0.03923391
148	0xbee0b94c	-0.4389137
149	0xbdf9e876	-0.122025415
150	0x3e367fb8	0.17822158
151	0xbdf12921	-0.11775423
152	0xbea31070	-0.31848478
153	0x3c5d5639	0.013509327
154	0xbdaad242	-0.08340885
155	0x3e677bee	0.22605869
156	0xbdb1d261	-0.08682705
157	0xbe2a39a6	-0.16623554
158	0x3bfd61ed	0.007732621
159	0xbe7103c9	-0.235366
160	0xbeab3e5c	-0.33446014
161	0x3cdb1d71	0.026747437
162	0xbcaff784	-0.02148033
163	0xbd152633	-0.036413383
164	0x3dcea1f1	0.100894816
165	0x3daedc3a	0.08538099
166	0x3e4f2cf4	0.20231992
167	0xbdf33096	-0.118745014
168	0xbcb20fea	-0.021736104
169	0xbd0987c0	-0.033576727
170	0x3ca609c4	0.020268328
171	0x3d80b022	0.06283595
172	0x3cdc4852	0.026889954
173	0x3d88a1b1	0.06671465
174	0x3e07d80b	0.13266008
175	0x3e97ecfe	0.29672998
176	0xbd801710	-0.06254399
177	0x3ce0bf5a	0.027434994
178	0x3d1e01ea	0.038576044
179	0xbe3da593	-0.18520193
180	0xbe826779	-0.25469568
181	0xbe169e52	-0.14708832
182	0xbdc921fc	-0.09820935
183	0xbba6696e	-0.005078486
184	0x3df0977b	0.117476426
185	0x3e17ef94	0.14837486
186	0xbd9ecb08	-0.07753569
187	0x3ec9492a	0.39313632
188	0x3e8a9d10	0.27072954
189	0x3c7610c6	0.015018648
190	0xbe0ec052	-0.13940552
191	0x3e47f544	0.19527155
192	0xbe87a444	-0.26492512
193	0xbd918e23	-0.071071886
194	0x3d9cbeec	0.07653603
195	0x3e61f365	0.22065504
196	0xbd354307	-0.044253375
197	0x3e50e2df	0.20399044
198	0x3e03f4d3	0.12886362
199	0xbcade711	-0.021228345
200	0x3e4b9964	0.19882733
201	0xbe5b0a1a	-0.21390572
202	0xbec65256	-0.38734692
203	0xbba7e55d	-0.005123778
204	0x3e1ad872	0.1512163
205	0x3e0bcc57	0.13652168
206	0xbe8218b4	-0.25409472
207	0xbdea92ac	-0.11453757
208	0xbdb73ad4	-0.089467674
209	0x3d8a4aef	0.06752574
210	0xbda4c909	-0.08046157
211	0xbe19fbff	-0.15037535
212	0x3ebd1c74	0.3693577
213	0x3e85d408	0.2613833
214	0xbdb38b7f	-0.08766841
215	0xbcfd1e20	-0.030898154
216	0xbe904665	-0.28178707
217	0x3dda397c	0.106554955
218	0xbb32816b	-0.0027237784
219	0xbd0de023	-0.03463758
220	0x3e43fa5b	0.19138472
221	0x3e97b620	0.29631138
222	0xbc77c810	-0.015123382
223	0x3e18c7a4	0.14919907
224	0xbd5ee9f9	-0.054422352
225	0xbda10e6c	-0.07864079
226	0xbe0f5d16	-0.14000353
227	0xbe18f6dd	-0.14937921
228	0x3c572c02	0.013133051
229	0x3df9836b	0.12183269
230	0xbd887bfb	-0.066642724
231	0x3e77e4e3	0.24208407
232	0xbe954bb6	-0.29159325
233	0xbe55bc35	-0.20872577
234	0x3d81a47a	0.063301995
235	0x3dc4ea21	0.09614969
236	0xbddf97e2	-0.10917641
237	0x3de524a6	0.11188631
238	0x3e4cedbe	0.20012566
239	0x3cac6b15	0.021047154
240	0x3d1e1fdf	0.038604613
241	0x3c93cd8d	0.01804235
242	0xbe6d4670	-0.23171401
243	0x3e7d0fec	0.24713105
244	0x3ee85de0	0.4538412
245	0x3e4c8af2	0.19974878
246	0x3e191e24	0.14952904
247	0x3e9a4d5f	0.30137154
248	0x3d4effc2	0.05053688
249	0xbdaa7e40	-0.083248615
250	0xbe3d8f35	-0.1851166
251	0xbeb0f769	-0.3456376
252	0x3e3418cd	0.17587586
253	0x3e9e0c4f	0.30868766
254	0x3d121c72	0.03567166
255	0xbd876469	-0.066109486

rb1.conv1.bias f4 [10]
0	0x38c4afe4	9.3787705e-05
1	0xb8c8e56c	-9.579476e-05
2	0xb88559dd	-6.3586725e-05
3	0xb7de3026	-2.6486883e-05
4	0x37d0aaa4	2.4874993e-05
5	0xb702472c	-7.765175e-06
6	0x3844c6ba	4.691512e-05
7	0xb84aa135	-4.831069e-05
8	0xb83064d0	-4.205556e-05
9	0xb870d960	-5.7422905e-05

rb1.bn1.weight f4 [10]
0	0x3f4b9beb	0.79534787
1	0x3f9e733b	1.2378916
2	0x3f5a9092	0.85376847
3	0x3f5f0e60	0.8713131
4	0x3f11faef	0.5702352
5	0x3f4d0ffe	0.8010253
6	0x3f2cced3	0.6750309
7	0x3f7c47d3	0.98547095
8	0x3f52d54a	0.82356703
9	0x3f2caf27	0.6745476

rb1.bn1.bias f4 [10]
0	0x3ea50368	0.3222916
1	0x3f8ff747	1.1247338
2	0x3c35dd55	0.011100133
3	0x3d143329	0.036181603
4	0x3d6528a4	0.05594696
5	0xbcb36a8d	-0.021901393
6	0x3b0c84b3	0.00214414
7	0x3f451dd5	0.76998645
8	0x3f0abfca	0.54198897
9	0x3dfae560	0.12250781

rb1.bn1.running_mean f4 [10]
0	0xbc865a72	-0.01640055
1	0xbc3d8e74	-0.011569608
2	0x3c93f3f4	0.018060662
3	0x3d0a30f7	0.033738103
4	0xbd15169c	-0.036398515
5	0x3e0a9209	0.1353227
6	0xbdb5f2b3	-0.08884182
7	0xbbe08b32	-0.006852531
8	0xbca9bdfc	-0.020720474
9	0xbd1b58d4	-0.03792651

rb1.bn1.running_var f4 [10]
0	0x3da7af22	0.08187701
1	0x3d243bea	0.0400962
2	0x3e43e66b	0.19130866
3	0x3e6db8e8	0.23215067
4	0x3d242c5c	0.040081367
5	0x3ed8adc5	0.42320076
6	0x3e63a23a	0.22229853
7	0x3d704b4b	0.058665555
8	0x3d27be0c	0.040952727
9	0x3ece3da8	0.40281415

rb1.conv2.weight f4 [10, 10, 3, 3]
0	0xbc89159b	-0.016733935
1	0xbe40a79c	-0.18813938
2	0xbaee964d	-0.0018202752
3	0x3c951e2f	0.01820287
4	0xbe10a03c	-0.14123625
5	0xbd4c2a17	-0.049844828
6	0x3c7437bc	0.014905866
7	0xbd51d6e9	-0.051230345
8	0xbce4e000	-0.027938843
9	0x3c817b21	0.015805783
10	0x3e346296	0.17615733
11	0xbe817489	-0.25284222
12	0xbe8592db	-0.26088604
13	0xbdb3d783	-0.0878134
14	0x3e163387	0.14668094
15	0x3e12900d	0.14312764
16	0xbe592850	-0.21206784
17	0x3cd11307	0.025521768
18	0xbe055c19	-0.13023414
19	0x3db3845c	0.0876548
20	0xbde86963	-0.11348226
21	0x3b923842	0.004462273
22	0xbe516ba8	-0.20451224
23	0xbe3140eb	-0.1730992
24	0x3c94d1f3	0.018166518
25	0x3ddb8417	0.107185535
26	0x3e20e798	0.15713346
27	0x3e1a0720	0.1504178
28	0x3e1ec18a	0.15503517
29	0x3e0225d0	0.12709737
30	0x3dd87052	0.105682984
31	0x3de6db6b	0.112723194
32	0x3cdc5166	0.026894283
33	0xbe02df36	-0.1278046
34	0xbd96e784	-0.07368377
35	0xbe7105b8	-0.23537338
36	0xbe09b799	-0.13448943
37	0x3d3e5af5	0.046473462
38	0xbd3bcfa0	-0.045852304
39	0xbb2bd932	-0.0026221988
40	0xbdc4b281	-0.096043594
41	0x3c8a0e3e	0.016852494
42	0xbd8004e2	-0.06250931
43	0xbc386684	-0.01125491
44	0xbd9f3e34	-0.07775536
45	0x3dac3815	0.08409134
46	0x3e71d6b9	0.23617066
47	0x3e2d2de0	0.16912031
48	0xbccec50f	-0.02524045
49	0x3b261918	0.0025344547
50	0xbd12b6db	-0.035818916
51	0xbd5430ce	-0.051804356
52	0x3d4e78d8	0.050408214
53	0x3e1fc3d8	0.15602052
54	0xbd8284fe	-0.063730225
55	0xbd290e83	-0.041273605
56	0xbda76752	-0.08174004
57	0xbdb80829	-0.089859314
58	0xbe709a99	-0.23496474
59	0xbda54daf	-0.080714576
60	0x3dc54795	0.09632794
61	0x3d8add9e	0.067805514
62	0xbd7cc1f3	-0.061708402
63	0xbd15fb38	-0.036616534
64	0x3de23cfd	0.11046789
65	0x3e8d53f1	0.27603105
66	0xbd66b671	-0.056326333
67	0xbe81f56f	-0.25382563
68	0xbecb73e1	-0.39736846
69	0x3ca93944	0.02065719
70	0x3e2958e8	0.16537821
71	0x3dd6ce46	0.10488562
72	0xbd3aecd5	-0.045636017
73	0xbe2c3b7f	-0.16819571
74	0xbdd4d90d	-0.10392962
75	0x3df6f6e8	0.120588124
76	0x3d6cb89a	0.057793237
77	0x3dd91550	0.10599768
78	0xbe4b0ba1	-0.19828655
79	0xbc82b788	-0.015956655
80	0xbd401df1	-0.046903554
81	0xbea451ac	-0.3209356
82	0xbea1eea9	-0.31627396
83	0xbde84081	-0.11340428
84	0xbe34227b	-0.17591278
85	0xbd40673a	-0.046973445
86	0xbd3c9a9e	-0.046045892
87	0xbe0845d7	-0.13307892
88	0xbda0f84c	-0.07859859
89	0x3d72c36a	0.059268393
90	0xbc0a788b	-0.008451591
91	0xbdf21ef9	-0.11822314
92	0x3e03da45	0.12876232
93	0x3caab0e4	0.020836301
94	0x3d860edb	0.06545802
95	0x3ea06a02	0.31330878
96	0xbd30a377	-0.043124642
97	0x3e2617e6	0.16220054
98	0xbdbe07a9	-0.09278805
99	0x3ddc3e57	0.10754078
100	0x3da3822f	0.07983815
101	0xbe2dd7d1	-0.16976859
102	0x3e24222f	0.16028665
103	0xbeee9965	-0.46601406
104	0x3d794f74	0.060866788
105	0xbea02b14	-0.31282866
106	0x3df635e4	0.120219976
107	0x3e12ec67	0.14347993
108	0x3c9c0d15	0.019049207
109	0x3e0b188a	0.1358358
110	0xbdcf517d	-0.101229645
111	0xbbb9dcb5	-0.0056720623
112	0xbe2e7893	-0.17038183
113	0xbe19902d	-0.14996405
114	0x3cd12171	0.025528641
115	0xbdc502a2	-0.09619643
116	0xbd670f80	-0.056411266
117	0xbe6869f4	-0.22696668
118	0x3dcdd2e9	0.100499935
119	0x3d3d61b7	0.046235766
120	0x3d8e31ee	0.06943117
121	0xbd49cc86	-0.049267314
122	0xbdca33de	-0.09873174
123	0x3bccd696	0.0062511666
124	0xbe461332	-0.1934326
125	0xbc7c20de	-0.0153886955
126	0x3e3d8942	0.18509391
127	0x3e60bfa0	0.21948099
128	0x3d38510c	0.044999167
129	0x3d950f03	0.07278254
130	0xbcf89bfe	-0.03034782
131	0xbdc293a0	-0.095008135
132	0xbc9cb060	-0.01912707
133	0xbe13ea6a	-0.1444489
134	0xbe270829	-0.16311707
135	0xbda48568	-0.08033258
136	0xbdae38f8	-0.0850696
137	0xbdbcc6cf	-0.09217607
138	0xbd528355	-0.05139478
139	0xbd7cdea5	-0.061735768
140	0xbe0194d4	-0.1265443
141	0xbd9e0b09	-0.077169485
142	0xbe384c77	-0.17997919
143	0xbd774ad6	-0.060374103
144	0x3dd3b01f	0.10336327
145	0x3e2349e9	0.15946163
146	0x3ddbd14d	0.1073328
147	0x3e1b49f0	0.15164924
148	0x3e343386	0.1759778
149	0x3dfa6c1e	0.12227653
150	0x3e1841be	0.14868829
151	0x3e3de2fa	0.18543616
152	0x3cf8b223	0.03035838
153	0x3dbdc0c0	0.0926528
154	0xbe8f2531	-0.27958062
155	0xbba16c86	-0.004926267
156	0xbd413fb1	-0.04717988
157	0xbe836bac	-0.25668085
158	0x3e4efa94	0.20212775
159	0xbd319aa1	-0.043360356
160	0x3e841819	0.25799635
161	0xbbf126e0	-0.0073593706
162	0x3dd6aa81	0.1048174
163	0xbb8a140b	-0.004213815
164	0xbe579fd9	-0.21057071
165	0x3d140e19	0.036146257
166	0xbddbeb9b	-0.107382976
167	0x3e1d55ad	0.15364714
168	0xbc0db554	-0.008649189
169	0x3e117ce3	0.14207797
170	0xbd06fe57	-0.0329574
171	0xbce4acb9	-0.027914392
172	0xbbb4c687	-0.0055168304
173	0x3ca1899a	0.019718934
174	0x3d4b5b99	0.0496479
175	0xbcf433c1	-0.029809834
176	0x3d1a5364	0.037677184
177	0xbd8b6665	-0.068066396
178	0x3e192044	0.14953715
179	0x3d090b74	0.03345819
180	0x3ced004b	0.028930804
181	0xbea5627a	-0.32301694
182	0xbd86955e	-0.06571458
183	0x3c6e4d04	0.014544729
184	0xbd980f7a	-0.07424827
185	0xbcc007a2	-0.02344114
186	0x3db182f3	0.08667555
187	0x3d8944da	0.067025855
188	0x3d8f893d	0.07008598
189	0xbd8d9a78	-0.06914228
190	0xbe0c686c	-0.13711709
191	0x3c1a06b7	0.009401015
192	0xbd8ff573	-0.070292376
193	0xbe198ea1	-0.14995815
194	0xbcedfcad	-0.02905115
195	0xbb8eeabe	-0.0043614795
196	0x3e12eb2f	0.14347528
197	0x3e1e45dd	0.15456338
198	0x3e87bf30	0.26513052
199	0x3d4666e4	0.048437968
200	0x3d39a2d3	0.045321297
201	0x3eb6a335	0.35671392
202	0x3d787ff6	0.060668908
203	0xbe21a4f3	-0.1578558
204	0x3da251ff	0.07925796
205	0xbde84128	-0.113405526
206	0xbd3852ea	-0.045000948
207	0x3dbd16e3	0.09232881
208	0x3d501540	0.050801516
209	0xb925d468	-0.00015814754
210	0xba84ba9e	-0.0010126417
211	0x3d1fd682	0.03902293
212	0x3b8b92ba	0.0042594345
213	0x3e917378	0.28408408
214	0xbc222828	-0.009897269
215	0x3cd773fc	0.026300423
216	0x3dc14334	0.09436646
217	0x3decff81	0.11572171
218	0x3cdff300	0.027337551
219	0x3e7024b0	0.23451495
220	0x3d970702	0.073743835
221	0x3d18cd83	0.037305366
222	0x3db68db6	0.08913748
223	0x3d43f220	0.04783833
224	0x3c34a9f7	0.011026851
225	0x3e5d57ba	0.21615496
226	0x3e697410	0.2279818
227	0x3e34dbe5	0.17662008
228	0x3e3a32cc	0.1818344
229	0x3dc00f38	0.09377903
230	0x3d2e844c	0.042606637
231	0x3d1976c9	0.037466798
232	0x3d24abbc	0.04020284
233	0xbdd83568	-0.105570614
234	0x3c896eaf	0.01677641
235	0xbd47fcea	-0.048825182
236	0xbdf327ad	-0.11872802
237	0x3c9ff50a	0.019526023
238	0xbd47b6cb	-0.04875831
239	0xbdeb32c1	-0.1148429
240	0x3cde1d50	0.027113587
241	0xbc0f67a0	-0.0087527335
242	0xbdec71b2	-0.11545123
243	0x3e2b07f8	0.16702259
244	0x3dd738d8	0.10508889
245	0xbb2dae47	-0.0026501582
246	0x3d961750	0.07328665
247	0x3da18f18	0.07888621
248	0xbc83f307	-0.016107095
249	0xbde0d3c0	-0.10977888
250	0x3ce74095	0.028229037
251	0xbd4b56ff	-0.049643513
252	0x3e8da565	0.2766525
253	0x3e938431	0.28811792
254	0xbd81040d	-0.06299601
255	0x3e4b793a	0.19870463

rb1.conv2.bias f4 [10]
0	0x37d224d2	2.5051097e-05
1	0xb7cccbf7	-2.4413674e-05
2	0xb7aa189a	-2.0277035e-05
3	0x38175099	3.6076268e-05
4	0x37a65914	1.9830222e-05
5	0x361d98a8	2.348368e-06
6	0x37a732be	1.993158e-05
7	0x376fc154	1.4290523e-05
8	0x37b9e696	2.2161094e-05
9	0xb8b2ed0c	-8.531855e-05

rb1.bn2.weight f4 [10]
0	0x3f849218	1.0357084
1	0x3f912e49	1.134225
2	0x3f4e40dc	0.8056772
3	0x3f8d9281	1.1060334
4	0x3f39f8b6	0.7264513
5	0x3f8942af	1.0723475
6	0x3fa9df4c	1.327127
7	0x3f88ddd8	1.0692701
8	0x3f8e73eb	1.1129125
9	0x3f5be925	0.85902625

rb1.bn2.bias f4 [10]
0	0x3d70ab2f	0.058757003
1	0xbd7cb3b5	-0.06169482
2	0x3e950c99	0.29111174
3	0xbca28f37	-0.01984368
4	0x3e84e729	0.2595761
5	0x3dbf310f	0.09335529
6	0xbc803027	-0.01564796
7	0x3dd26d0c	0.10274705
8	0x3d715f5f	0.058928844
9	0x3e8ec79d	0.27886668

rb1.bn2.running_mean f4 [10]
0	0xbf9f1a68	-1.2429934
1	0xbe8b7456	-0.27237195
2	0x3f4c1795	0.79723483
3	0xbd10d9e3	-0.035364043
4	0xbf11b5de	-0.5691813
5	0xbe1754c5	-0.14778431
6	0xbf1e0074	-0.6171944
7	0xbe88951b	-0.26676258
8	0x3d7df3a6	0.06199994
9	0x3fc6b4f7	1.5523976

rb1.bn2.running_var f4 [10]
0	0x3fc685f9	1.5509635
1	0x3fa08cab	1.2542928
2	0x3f7e24ea	0.99275076
3	0x3fc3d200	1.5298462
4	0x3f50cd2e	0.8156308
5	0x3fd0de0b	1.6317762
6	0x40020506	2.0315566
7	0x3fcf8a21	1.6214029
8	0x3fef2334	1.8682618
9	0x3fcc1057	1.5942487

rb1.shortcut.conv.weight f4 [10, 3, 1, 1]
0	0x3ee6e0ee	0.45093483
1	0x3c1c60f0	0.009544596
2	0x3eac49b1	0.33649972
3	0xbea706ce	-0.3262238
4	0xbf0d547e	-0.5520705
5	0xbebc60d0	-0.36792612
6	0x3ebd70b0	0.37000036
7	0xbeb5dfc5	-0.35522285
8	0x3dd510f1	0.10403622
9	0xbef13c8e	-0.47116512
10	0xbf32e398	-0.6987853
11	0x3e30402d	0.17211981
12	0xbdd4f379	-0.10398001
13	0xbe4a709b	-0.19769518
14	0x3f13c2c8	0.5771909
15	0x3ec0a067	0.37622377
16	0x3e150ca4	0.14555603
17	0x3ef50203	0.47853097
18	0xbeb9cd82	-0.36289603
19	0xbead3044	-0.33825886
20	0xbea74f69	-0.32677773
21	0xbe9098b1	-0.28241494
22	0xbf35575f	-0.7083644
23	0x3e82a4d7	0.25516388
24	0xbe99a933	-0.300119
25	0xbf058471	-0.52155215
26	0xbd896f91	-0.06710733
27	0xbe9172b8	-0.28407836
28	0x3d5f35c3	0.05449463
29	0xbf154949	-0.5831495

rb1.shortcut.conv.bias f4 [10]
0	0xb8095705	-3.274439e-05
1	0xb84ae3e0	-4.8372778e-05
2	0xb94a7e11	-0.00019311185
3	0x3877da24	5.909255e-05
4	0xb864936e	-5.449674e-05
5	0xb8d61f38	-0.0001021013
6	0x38be1bcb	9.065083e-05
7	0x38a7fa61	8.009817e-05
8	0xb7b3848f	-2.140019e-05
9	0xb9080a1f	-0.00012973741

rb1.shortcut.bn.weight f4 [10]
0	0x3f797631	0.9744597
1	0x3f6a500e	0.91528404
2	0x3f8087c1	1.0041429
3	0x3f643db6	0.89156663
4	0x3f9245c2	1.1427538
5	0x3f6f6506	0.93513525
6	0x3f13946c	0.5764835
7	0x3f2d1034	0.6760285
8	0x3f64e591	0.8941279
9	0x3f674c54	0.9035084

rb1.shortcut.bn.bias f4 [10]
0	0x3d70ab2f	0.058757003
1	0xbd7cb3b5	-0.06169482
2	0x3e950c99	0.29111174
3	0xbca28f37	-0.01984368
4	0x3e84e729	0.2595761
5	0x3dbf310f	0.09335529
6	0xbc803027	-0.01564796
7	0x3dd26d0c	0.10274705
8	0x3d715f5f	0.058928844
9	0x3e8ec79d	0.27886668

rb1.shortcut.bn.running_mean f4 [10]
0	0xbd996f81	-0.07491971
1	0x3ddc2b80	0.107504845
2	0xbc486dae	-0.012233181
3	0x3d23f570	0.04002899
4	0xbd93e2c9	-0.0722099
5	0xbdd09e09	-0.10186393
6	0x3db7b1ef	0.08969485
7	0x3c979291	0.018502505
8	0x3d6c2ca9	0.05765978
9	0x3dcea345	0.10089735

rb1.shortcut.bn.running_var f4 [10]
0	0x3e20a9b0	0.1568973
1	0x3ec5f320	0.38662052
2	0x3bf8b427	0.007589835
3	0x3e834fc3	0.2564679
4	0x3d0f80b2	0.035034843
5	0x3e7f058d	0.24904461
6	0x3e85d022	0.26135355
7	0x3e1492e1	0.14509155
8	0x3e4a132f	0.1973388
9	0x3e2defb1	0.16985966

rb2.conv1.weight f4 [20, 10, 3, 3]
0	0x3d997772	0.074934855
1	0x3e0446af	0.12917589
2	0x3d9a6d53	0.07540383
3	0x3e287fb1	0.1645496
4	0x3e6a2504	0.22865683
5	0x3de1be2d	0.11022601
6	0x3d1d47bc	0.03839849
7	0x3dd28c70	0.102806926
8	0x3e01841a	0.12648049
9	0x3e19469c	0.14968342
10	0xbde76edd	-0.11300442
11	0xbdfff489	-0.12497813
12	0xbe00c22c	-0.1257407
13	0xbda7709a	-0.08175774
14	0xbd06cc27	-0.03290954
15	0x3e1de518	0.15419424
16	0xbe1756f2	-0.14779261
17	0xbdc76d28	-0.09737617
18	0xbdb9c214	-0.090702206
19	0xbea173c1	-0.31533626
20	0xbe37d708	-0.17953122
21	0x3b5196b5	0.0031980698
22	0xbe872524	-0.26395524
23	0xbe23691c	-0.15958065
24	0x3d3d637a	0.046237446
25	0x3d482348	0.04886177
26	0xbdc62c69	-0.09676439
27	0xbcc99912	-0.024609122
28	0xbdf24d72	-0.11831178
29	0x3dca77fe	0.09886168
30	0x3db3b140	0.08774042
31	0x3d9201a9	0.07129223
32	0x3ddfea39	0.10933346
33	0x3d242abf	0.04007983
34	0x3d2257c9	0.0396345
35	0x3e57903b	0.21051113
36	0xbbbdfe47	-0.0057981345
37	0x3e00bdaa	0.12572351
38	0xbcfc805a	-0.030822922
39	0xbd6b4ab2	-0.057444282
40	0x3c81f0f8	0.015861973
41	0x3da7c628	0.08192092
42	0x3cb64ec5	0.022254357
43	0xbe97c5d3	-0.29643115
44	0xbe6df989	-0.23239721
45	0x3dc0804e	0.09399472
46	0x3d3b67ef	0.045753416
47	0x3d9a3d7c	0.075312585
48	0xbe166f94	-0.14691001
49	0xbd91dbd2	-0.071220055
50	0xbdbc82c1	-0.09204627
51	0xbd357fa5	-0.044311184
52	0xbeee97d3	-0.46600208
53	0xbd0f46ad	-0.03497951
54	0x3de39ee3	0.111142896
55	0x3da7bfa7	0.08190852
56	0x3e23f122	0.16009954
57	0x3d8bf58c	0.06833944
58	0x3d06ede0	0.0329417
59	0x3dfa0c33	0.12209358
60	0x3d3f7cfd	0.046750057
61	0xbd0a62c3	-0.033785593
62	0xbd2cf969	-0.042230044
63	0x3d924a10	0.071430326
64	0xbdbed369	-0.09317667
65	0x3d7302ea	0.05932895
66	0xbdaae360	-0.083441496
67	0xbeb0fb85	-0.34566894
68	0xbd6f12e8	-0.05836764
69	0x3d76c076	0.06024214
70	0xbe18b0e9	-0.14911236
71	0xbdec469a	-0.11536904
72	0xbc44145a	-0.011967743
73	0x3c7ddf64	0.015495155
74	0xbe2ac068	-0.1667496
75	0xbe2c889a	-0.16848984
76	0x3d96e5f1	0.073680766
77	0x3e2670e6	0.16254005
78	0xbe27cf5a	-0.16387692
79	0xbd108e02	-0.03529168
80	0x3db65f01	0.08904839
81	0xbe060d5f	-0.13091038
82	0x3c9d0949	0.019169467
83	0xbe181853	-0.14853029
84	0xbae23422	-0.0017257968
85	0x3d0c12d0	0.03419763
86	0xbd00d15b	-0.031449657
87	0xbda389cf	-0.07985269
88	0x3d5fdb63	0.054652583
89	0x3e6138b6	0.2199429
90	0xbe7b0c43	-0.24516396
91	0xbe2df5cf	-0.169883
92	0xbd97c5b0	-0.07410753
93	0x3d289c50	0.041164696
94	0xbd33196a	-0.04372541
95	0x3b372214	0.0027943896
96	0x3e2311f5	0.15924819
97	0x3e3e9ed9	0.18615283
98	0x3e62ab25	0.22135599
99	0xbe9089c6	-0.28230113
100	0xbe091002	-0.13385013
101	0xbd0ea117	-0.034821596
102	0xbe139da5	-0.14415605
103	0x3dbb3b82	0.091422096
104	0xbbd6de13	-0.006557235
105	0xbd8e8571	-0.06959046
106	0xbcffa5a6	-0.031206917
107	0xbbaaaf17	-0.0052088606
108	0xbe8332c3	-0.25624666
109	0xbec333fd	-0.381256
110	0xbe771f2e	-0.24132988
111	0x3dd4257d	0.10358713
112	0x3cb73e2a	0.02236851
113	0xbcaf254c	-0.02138009
114	0x3e4bd56d	0.19905634
115	0x3e842f73	0.2581745
116	0x3ea121d0	0.3147111
117	0xbd8f3498	-0.06992453
118	0x3cc5fd2b	0.024168571
119	0xbc893ef8	-0.016753659
120	0xbe27b132	-0.16376188
121	0x3d6f1059	0.0583652
122	0xbdcbe8dd	-0.099565245
123	0xbdb08c0d	-0.086204626
124	0xb8d1b36e	-9.999318e-05
125	0xbda3bb02	-0.07994653
126	0x3e3b3fed	0.18286105
127	0x3e7284e1	0.23683502
128	0x3c99d6fe	0.018779274
129	0x3bab9d60	0.0052372664
130	0xbc81feb1	-0.015868517
131	0xbe09a54c	-0.13441962
132	0xbe3eb295	-0.18622811
133	0xbe7c15e6	-0.24617729
134	0xbe684998	-0.22684324
135	0x395355a6	0.00020154435
136	0xbcea8075	-0.028625706
137	0x3e0fb1eb	0.14032714
138	0xbd63d8a9	-0.055626545
139	0x3d47f627	0.048818734
140	0x3d45d83f	0.04830193
141	0x3d33bcbb	0.04388116
142	0xb896ae62	-7.185039e-05
143	0x3dae7e44	0.08520177
144	0x3dbac0b1	0.09118784
145	0x3de2fe1e	0.11083625
146	0x3d34d5dd	0.04414927
147	0xbd85e4f3	-0.06537809
148	0x3c4e6e72	0.012599574
149	0xbde2c56e	-0.11072813
150	0xbc9a0b08	-0.018804088
151	0x3ca77b1c	0.020444445
152	0xbd37d600	-0.04488182
153	0x3e1445f6	0.14479813
154	0x3e922748	0.28545594
155	0x3e05fd1d	0.13084836
156	0xbc6bbf85	-0.0143889235
157	0x3da6aa93	0.08138003
158	0x3dd1616b	0.10223659
159	0xbe077e49	-0.13231768
160	0x3c7ffe7d	0.01562464
161	0xbd67abe9	-0.05656043
162	0xbddca550	-0.10773718
163	0x3d98bd76	0.07458012
164	0xbd99aa13	-0.07503142
165	0xbdee7d29	-0.11644966
166	0x3d9eb1ff	0.07748794
167	0xbe341578	-0.17586315
168	0x3ca6d374	0.0203645
169	0x3cf0622e	0.02934369
170	0xbd7362f8	-0.059420556
171	0xbd7d7135	-0.06187554
172	0x3c690df4	0.014224518
173	0x3ca2e08a	0.01988246
174	0x3c943533	0.018091774
175	0x3e0f29b7	0.13980757
176	0x3d64b272	0.05583424
177	0xbc3a3318	-0.011364721
178	0x3da52c2c	0.08065066
179	0xbd806c09	-0.06270606
180	0xbd16f2a7	-0.036852505
181	0x3d94060e	0.07227717
182	0xbdd2a6f3	-0.10285749
183	0xbcb72bc5	-0.022359738
184	0x3d431f01	0.04763699
185	0xbd156e65	-0.036482234
186	0xbcc07a6b	-0.023495873
187	0xbd40d415	-0.047077257
188	0x3d6fe607	0.05856898
189	0xbc7a75e1	-0.015286894
190	0x3cca6019	0.024704026
191	0x3e3ccd9f	0.18437813
192	0xbe1f196d	-0.15537043
193	0x3d9702da	0.07373591
194	0x3de970a7	0.1139844
195	0xbdba5a05	-0.09099201
196	0xbe86f798	-0.26360774
197	0xbe3a258c	-0.18178385
198	0x3dcc6570	0.09980285
199	0xbe4441e3	-0.19165759
200	0x3d6b8f27	0.057509568
201	0x3e405816	0.18783602
202	0xbce2cb34	-0.027684785
203	0xbc98cb10	-0.018651515
204	0x3d4f13ed	0.050556112
205	0x3d38306b	0.04496805
206	0x3d7845f5	0.06061359
207	0x3e7749af	0.24149202
208	0x3e6fcdef	0.23418401
209	0x3e031f4f	0.12804912
210	0xbd238051	-0.039917294
211	0x3e4879d4	0.19577724
212	0x3d3f1249	0.046648297
213	0xbda883a1	-0.08228231
214	0x3de89c5d	0.11357949
215	0x3d0e395a	0.034722663
216	0xbe2294df	-0.15877102
217	0x3c6105dd	0.013734308
218	0xbd7457e6	-0.05965414
219	0xbd9495aa	-0.07255109
220	0xbd87d596	-0.06632535
221	0xbad49894	-0.0016219788
222	0x3dd6d3c2	0.10489608
223	0xbd33b607	-0.043874767
224	0xbafcc812	-0.00192857
225	0x3e0177ab	0.12643306
226	0x3d379fb3	0.044830035
227	0xbdb2795f	-0.08714556
228	0xbea4db7a	-0.32198697
229	0x3d479922	0.048730023
230	0x3d1df62c	0.038564846
231	0xbe805471	-0.25064424
232	0x3d035047	0.03205898
233	0x3da6fd9e	0.081538424
234	0x3e737e77	0.23778711
235	0x3e3a09eb	0.18167846
236	0x3d24444a	0.040104188
237	0xbdbd0294	-0.09229007
238	0xbd94857e	-0.07252024
239	0xbde5c2c4	-0.11218789
240	0xbf172f8f	-0.59056944
241	0xbee4ad86	-0.44663638
242	0xbe0c46f5	-0.13698943
243	0xbd4e5b0e	-0.050379805
244	0x3c104276	0.008804908
245	0x3d6a4004	0.057189956
246	0xbde571e7	-0.11203366
247	0x3d7f2168	0.062287718
248	0x3da03db4	0.07824269
249	0xbd80de02	-0.06292345
250	0xbda20fc8	-0.07913166
251	0xbdc6c4c4	-0.09705499
252	0xbdb6d789	-0.08927829
253	0xbd9566d7	-0.07295006
254	0xbcaa348c	-0.02077701
255	0xbe2d8d1c	-0.1694836

rb2.conv1.bias f4 [20]
0	0x36a0c0eb	4.79083e-06
1	0x37828972	1.556121e-05
2	0xb78cb851	-1.677513e-05
3	0x37096531	8.189397e-06
4	0x3856b428	5.118936e-05
5	0x36db85e6	6.5422964e-06
6	0xb7dd31a2	-2.6368365e-05
7	0x36d1d2a2	6.2532063e-06
8	0xb76b46e2	-1.4023595e-05
9	0xb6e7a822	-6.9039097e-06
10	0x376895b8	1.3863137e-05
11	0x364dc16f	3.0659974e-06
12	0xb77bd405	-1.50101305e-05
13	0xb683856e	-3.9196375e-06
14	0x37eab93f	2.7981236e-05
15	0xb7f4d5e6	-2.918667e-05
16	0xb81a5003	-3.6790978e-05
17	0x380cbe82	3.3556025e-05
18	0x3754d4a3	1.2685693e-05
19	0xb763f5d2	-1.3587489e-05

rb2.bn1.weight f4 [20]
0	0x3f55c46e	0.8350285
1	0x3f5e2b71	0.86785036
2	0x3f6549fe	0.8956603
3	0x3f85cd15	1.0453211
4	0x3f887b28	1.0662584
5	0x3f3d64d9	0.73982006
6	0x3f737e8d	0.95114976
7	0x3f5634f3	0.83674544
8	0x3f2f26f4	0.6841881
9	0x3f5bc377	0.8584513
10	0x3f4734b0	0.7781477
11	0x3f81c331	1.0137693
12	0x3f810d89	1.0082256
13	0x3f74631b	0.9546372
14	0x3f6a1257	0.91434234
15	0x3f89daf1	1.0769941
16	0x3f6595da	0.8968178
17	0x3f6057a8	0.8763375
18	0x3f748f8c	0.95531535
19	0x3f70d4fb	0.9407498

rb2.bn1.bias f4 [20]
0	0x3d394129	0.045228157
1	0xbe213bca	-0.15745464
2	0x3e03a367	0.12855302
3	0xbafb0c59	-0.001915346
4	0xbe902e88	-0.281605
5	0xbd802e51	-0.06258834
6	0x3cdacfb1	0.026710363
7	0x3e314508	0.1731149
8	0xbb41bfa7	-0.0029563697
9	0x3dbb66d3	0.091504715
10	0x3d2c44da	0.04205785
11	0x3d8a725b	0.06760093
12	0xbdb4e1cf	-0.08832132
13	0x3cd24db3	0.025671815
14	0xbdd8c7d9	-0.10584993
15	0xbd9ecd46	-0.077539966
16	0x3e0cbaad	0.13743086
17	0x3bc76420	0.006084934
18	0x3e047584	0.12935454
19	0xbdb269e6	-0.08711605

rb2.bn1.running_mean f4 [20]
0	0xbfaa1f70	-1.3290844
1	0xbe70c406	-0.23512277
2	0xbfcee31e	-1.6163061
3	0xc0396adb	-2.897147
4	0xbf98b058	-1.1928816
5	0x3e19a9bc	0.15006155
6	0xbfa75fb2	-1.3076079
7	0xbfbfc744	-1.4982686
8	0x3fa7e498	1.3116636
9	0xbe51ccab	-0.20488231
10	0xbee22199	-0.44166258
11	0xbf834617	-1.0255765
12	0xc01a0696	-2.406652
13	0xbf323261	-0.6960812
14	0xbf5227f9	-0.82092243
15	0xbfe283e2	-1.7696497
16	0xbffff065	-1.9995238
17	0xbeb56430	-0.35428
18	0xbfd6f3a8	-1.6793108
19	0xbe39c042	-0.18139747

rb2.bn1.running_var f4 [20]
0	0x3fd80970	1.687788
1	0x3fbf3d22	1.4940531
2	0x3fe75300	1.8072205
3	0x4028e003	2.6386726
4	0x4014b39a	2.323462
5	0x3fb6ea7f	1.4290313
6	0x400de4d3	2.2170913
7	0x401bebe0	2.4362717
8	0x3fa5a22f	1.294012
9	0x3f937049	1.1518642
10	0x3fc4715a	1.5347092
11	0x400d10cf	2.204151
12	0x40153130	2.3311272
13	0x400580b1	2.0859797
14	0x3fbcf508	1.4762278
15	0x40220fb7	2.5322092
16	0x4019d198	2.4034176
17	0x3fef3c51	1.8690282
18	0x3fe0d5c9	1.7565242
19	0x400c632c	2.193553

rb2.conv2.weight f4 [20, 20, 3, 3]
0	0xbccb9c61	-0.02485484
1	0x3dd77a71	0.10521401
2	0xbd95a6fd	-0.07307241
3	0x3c824257	0.015900774
4	0x3ca8ad8b	0.020590564
5	0xbdf8ad0b	-0.1214238
6	0xbd0fc96c	-0.0351042
7	0xbe0bc43d	-0.13649078
8	0xbda7ae96	-0.081875965
9	0xbe5a9a6e	-0.21347973
10	0x3e1713ff	0.14753722
11	0x3e069f0b	0.13146608
12	0x3cc145a5	0.02359278
13	0x3e3c842f	0.18409799
14	0x3e013922	0.1261945
15	0x3d3b09f6	0.045663796
16	0x3d8070ea	0.06271537
17	0x3e13c55a	0.14430752
18	0x3c7d4cf0	0.015460238
19	0xbd3eac93	-0.0465513
20	0x3d50fb94	0.051021174
21	0x3e192252	0.14954498
22	0x3d4631af	0.048387226
23	0x3c9e063e	0.019290086
24	0x39b65de6	0.00034783705
25	0xbc62becc	-0.013839435
26	0xbde875e1	-0.113506086
27	0xbe311504	-0.17293173
28	0xbca89232	-0.020577524
29	0xbe05eff3	-0.13079815
30	0xbdd726ee	-0.10505472
31	0x3dd5dea8	0.10442859
32	0xbe82647d	-0.2546729
33	0xbe8b68da	-0.27228433
34	0xbd31120a	-0.043230094
35	0xbce63d1e	-0.028105315
36	0xbde9e95c	-0.11421463
37	0xbd9b17f1	-0.07572926
38	0xbdd8539c	-0.10562822
39	0x3ab72bd6	0.0013974856
40	0x3c82955c	0.01594036
41	0xbd101709	-0.035178218
42	0x3da688c4	0.08131555
43	0x3e1f04ca	0.1552917
44	0x3d298f59	0.041396473
45	0xbe1a3a2e	-0.15061256
46	0xbcaef4c0	-0.02135694
47	0xbdbc2c0d	-0.091880895
48	0xbe1b4cd4	-0.15166026
49	0x3e1c8142	0.15283683
50	0x3cd2760f	0.02569106
51	0x3da22eb7	0.079190664
52	0xbc8e673d	-0.017383212
53	0x3d01f5ca	0.031728543
54	0xbca304a1	-0.019899668
55	0xbc198584	-0.0093702115
56	0xbdb8265b	-0.08991691
57	0x3dbe0972	0.09279145
58	0x39db058d	0.0004177507
59	0xbda1aa68	-0.078938305
60	0xbe00ae04	-0.12566382
61	0xbe21e4a6	-0.15809879
62	0x3d38c3f5	0.045108754
63	0xbe4359e0	-0.19077253
64	0xbdacc76e	-0.08436476
65	0xbe175c4b	-0.147813
66	0xbd164088	-0.036682636
67	0xbe0a3980	-0.13498497
68	0xbe1b9d9d	-0.15196843
69	0xbde31559	-0.11088056
70	0xbe5951ea	-0.21222654
71	0x3d8fe0ec	0.07025322
72	0x3e2de9be	0.16983697
73	0xbe8738d8	-0.26410556
74	0xbe60253f	-0.21889208
75	0x3e7e09e5	0.24808462
76	0x3d2a09a8	0.041513115
77	0xbddff954	-0.109362274
78	0xbda9e13f	-0.082949154
79	0x3d4cd7bd	0.05001043
80	0x3e0e8bb8	0.13920486
81	0x3d5baab6	0.0536296
82	0xbe620cf4	-0.22075254
83	0xbe47101d	-0.1943974
84	0x3dadf611	0.08494199
85	0xbdde23f6	-0.10846703
86	0x3e11b2d9	0.14228381
87	0xbd75be7a	-0.059996106
88	0x3d868201	0.06567765
89	0x3e8efbb1	0.279264
90	0xbb44c607	-0.003002526
91	0x3cae7b05	0.021298895
92	0xbdc6c0df	-0.09704756
93	0x3e38149e	0.17976615
94	0x3d914c67	0.07094651
95	0xbd8757cd	-0.066085435
96	0x3d8f7f5e	0.07006715
97	0xbe1a7779	-0.15084638
98	0xbe8b0ca6	-0.27158087
99	0x3a85c8ff	0.0010206996
100	0x3d7f812c	0.062379047
101	0x3e05a630	0.13051677
102	0x3c5cb9d4	0.013472039
103	0xbd3f9664	-0.046774283
104	0x3e0a409b	0.13501208
105	0xbdc4b088	-0.09603983
106	0xbdd648b0	-0.10463083
107	0xbda1298a	-0.07869251
108	0xbcd3f4e8	-0.025873616
109	0x3d81ddf4	0.06341162
110	0xbc8c342f	-0.017114727
111	0xbe0460af	-0.12927507
112	0xbe1124c5	-0.14174183
113	0xbdc3b80d	-0.09556589
114	0xbe98508a	-0.29748946
115	0xbe34143f	-0.17585848
116	0xbe32745e	-0.17427203
117	0x3c1ba366	0.009499406
118	0x3d0d3684	0.03447582
119	0xbca31bce	-0.01991072
120	0x3df5bd5c	0.11999008
121	0xbd1fb7a4	-0.038993493
122	0x3d95e8e1	0.07319809
123	0x3de2c9a6	0.11073618
124	0xbbe556c2	-0.0069988677
125	0xbb93f8b4	-0.0045157317
126	0x3e3725ee	0.17885563
127	0x3cd19273	0.025582528
128	0x3e19e12c	0.15027303
129	0xbb5295f5	-0.0032132838
130	0xbdcbdc6f	-0.09954154
131	0x3de20a00	0.110370636
132	0x3d47ec97	0.048809614
133	0x3e118c28	0.14213622
134	0x3e4f8a60	0.2026763
135	0x3da5cd9e	0.08095859
136	0x3d92c583	0.071665786
137	0x3df3ea7a	0.11909957
138	0x3ca26d5d	0.01982754
139	0x3dcfc2a2	0.10144545
140	0x3db16b91	0.08663095
141	0x3d1d2473	0.03836484
142	0xbc9de463	-0.019273942
143	0xbe5ff262	-0.21869805
144	0x3d6f8fab	0.05848662
145	0xbb15caa9	-0.002285639
146	0x3cf21923	0.029553002
147	0x3d7d1aaf	0.061793026
148	0x3dd9fdf6	0.10644142
149	0x3d237ea5	0.0399157
150	0xbdca23ac	-0.09870085
151	0xbd276623	-0.04086889
152	0x3d786b03	0.06064893
153	0x3da5586c	0.08073506
154	0xbde54552	-0.111948624
155	0x3a81dfd8	0.000990863
156	0x3d0eca34	0.034860805
157	0xbe1c06a2	-0.15236905
158	0x3d6e4b0c	0.05817704
159	0xbc13d33a	-0.009022528
160	0xbc86adef	-0.01644036
161	0xbd7b755a	-0.061391212
162	0xbe0e822b	-0.13916843
163	0xbc651fc5	-0.013984625
164	0xbc9f66a9	-0.019458132
165	0xbdf9a8df	-0.12190413
166	0x3dea17cc	0.1143032
167	0x3d531a26	0.05153861
168	0xbe7deae1	-0.2479663
169	0xbd19386c	-0.037407324
170	0xbde9b2a9	-0.1141103
171	0x3e7baf8e	0.24578688
172	0x3d3f88fb	0.046761494
173	0x3dc149d8	0.09437913
174	0x3d5a836c	0.05334799
175	0x3d9db4fa	0.07700534
176	0x3e186c5b	0.14885084
177	0x3e1ba25f	0.15198658
178	0x3e39a5db	0.18129675
179	0x3d16baf1	0.036799375
180	0x3e11960f	0.14217399
181	0x3e0248bd	0.1272306
182	0xbe478627	-0.19484769
183	0xbe683bd8	-0.22679079
184	0x3da038d3	0.07823338
185	0xbddc016d	-0.107424594
186	0x3baf3a5f	0.0053475345
187	0xbd7d9db1	-0.061917964
188	0xbe01858b	-0.12648599
189	0xbd706a8c	-0.05869536
190	0xbe72a967	-0.23697434
191	0xbd26e5d5	-0.04074653
192	0x3e07eb3e	0.13273332
193	0xbd14c151	-0.036317173
194	0x3da940d5	0.08264319
195	0x3d9be788	0.076125205
196	0x3d79be30	0.060972393
197	0xb8f2205b	-0.00011545486
198	0xbdbefcae	-0.093255386
199	0xbda44fe5	-0.08023051
200	0xbd61baed	-0.055109907
201	0xbe5e4987	-0.21707736
202	0xbd970ca7	-0.0737546
203	0xbd16571e	-0.036704175
204	0xbd21d1e4	-0.039506808
205	0x3d069f7b	0.032866936
206	0x3d5b13a4	0.053485528
207	0xbe16f99b	-0.14743654
208	0xbb47ea6c	-0.0030504717
209	0xbc89de91	-0.01682976
210	0xbe0aec1a	-0.13566628
211	0x3da68261	0.081303366
212	0xbdd4add4	-0.103847176
213	0xbe6a10e7	-0.2285801
214	0xbe1fad87	-0.15593539
215	0xbe0b6d88	-0.13616002
216	0xbe4757d0	-0.19467092
217	0xbe1302bf	-0.14356516
218	0xbde7ede3	-0.1132467
219	0xbd8c3ab1	-0.06847132
220	0xbb88dc97	-0.004176687
221	0xbe27771a	-0.16354027
222	0x3dcc54ce	0.09977113
223	0xbd7e01f3	-0.062013578
224	0xbded6fb0	-0.11593568
225	0xbd5ec6d0	-0.05438882
226	0xbd930967	-0.07179528
227	0x3e25345a	0.16133252
228	0xbe69d042	-0.2283335
229	0xbe5f3b0f	-0.21799873
230	0x3d7f687d	0.062355507
231	0x3c984a76	0.018590193
232	0xbc5d2fee	-0.013500197
233	0x3daa2f36	0.08309786
234	0xbc6a737f	-0.014309763
235	0xbd28c365	-0.041201968
236	0x3e1dd7d3	0.15414362
237	0xbd2984aa	-0.041386284
238	0x3c3937ad	0.011304778
239	0x3d10a114	0.035309866
240	0xbc57b849	-0.013166496
241	0x3de83bf8	0.11339563
242	0xbca66c7c	-0.020315401
243	0x3cdc802f	0.026916591
244	0x3ce900cf	0.028442768
245	0xbe50045d	-0.20314164
246	0x3d8622a0	0.06549573
247	0x3ddff933	0.10936203
248	0xbda9ca29	-0.08290512
249	0xbd2383e7	-0.039920714
250	0xbd8148a0	-0.0631268
251	0xbde13368	-0.10996133
252	0xbe0253dd	-0.12727304
253	0xbd423e0b	-0.04742245
254	0xbd71f6e1	-0.059073333
255	0x3dd9a20a	0.106266096

rb2.conv2.bias f4 [20]
0	0xb6e08ea0	-6.692324e-06
1	0xb790a598	-1.7243248e-05
2	0xb4a1f190	-3.0164347e-07
3	0xb799565b	-1.8279234e-05
4	0x373bea2b	1.120059e-05
5	0xb7d0e4b0	-2.4902023e-05
6	0xb7c86fb1	-2.3893868e-05
7	0x37b8e25e	2.203992e-05
8	0x36fc4b81	7.518975e-06
9	0x358598fa	9.953794e-07
10	0x371821d3	9.067781e-06
11	0xb716d5f3	-8.990511e-06
12	0x36f16f42	7.195312e-06
13	0x37e4450b	2.7211869e-05
14	0xb67e686e	-3.7909736e-06
15	0x38243f41	3.9159557e-05
16	0xb75de910	-1.3226891e-05
17	0x359dddff	1.1762021e-06
18	0x346b8880	2.1935739e-07
19	0x36a5e4d3	4.944022e-06

rb2.bn2.weight f4 [20]
0	0x3f59b4f5	0.85041744
1	0x3f6abeab	0.91697186
2	0x3f97586d	1.182386
3	0x3f8e6471	1.1124402
4	0x3f988163	1.1914486
5	0x3f8bdd13	1.0926841
6	0x3f9ebf85	1.2402197
7	0x3f9beee2	1.2182276
8	0x3f9dedac	1.2338157
9	0x3f931596	1.1490963
10	0x3f92ad28	1.1459093
11	0x3f7ed8b1	0.99549395
12	0x3f94ab84	1.1614842
13	0x3f81b0ca	1.0132077
14	0x3f8be4d8	1.0929213
15	0x3fa28c16	1.2699001
16	0x3faa8cc4	1.3324208
17	0x3fa509a9	1.2893573
18	0x3f8caa92	1.0989554
19	0x3f5d86cc	0.8653381

rb2.bn2.bias f4 [20]
0	0x3e534c5c	0.20634598
1	0x3d545de0	0.05184734
2	0xbe3c7580	-0.18404198
3	0x3ae5fa0a	0.0017545831
4	0xbd9e1779	-0.07719321
5	0xbe2944a5	-0.16530092
6	0x3db9b164	0.09067038
7	0xbe7321eb	-0.23743407
8	0x3e6f946c	0.23396462
9	0xbe25470d	-0.16140385
10	0x3d68fcf3	0.056881856
11	0xbe044e15	-0.12920411
12	0xbc36ac85	-0.01114953
13	0x3d5350e8	0.05159083
14	0xbc641412	-0.013920801
15	0x3e411225	0.18854578
16	0xbca599f4	-0.020215012
17	0xbdfd16f7	-0.12357896
18	0x3dc9f94d	0.098620035
19	0xbe8c208d	-0.27368584

rb2.bn2.running_mean f4 [20]
0	0xbf221548	-0.6331372
1	0xc001b6d1	-2.0267832
2	0xbf8e4d47	-1.1117333
3	0xbf94392d	-1.1579949
4	0xbf380950	-0.7188921
5	0x3e20527e	0.15656468
6	0xbf972572	-1.1808302
7	0x3eff334c	0.49843824
8	0xc0367dba	-2.8514237
9	0xbd0d1701	-0.034445766
10	0xbf657ef5	-0.89646846
11	0x3dad7dac	0.08471236
12	0xbfdf2267	-1.7432374
13	0xbee304b7	-0.44339535
14	0x3e67c6ff	0.22634505
15	0xbfb38557	-1.4025067
16	0xc03253c5	-2.786363
17	0xbe220e4f	-0.15825771
18	0xc0143d7f	-2.3162534
19	0x3e4f1996	0.20224604

rb2.bn2.running_var f4 [20]
0	0x3f5766d8	0.841413
1	0x3f6baf4b	0.9206435
2	0x3f39042a	0.7227198
3	0x3f8b040c	1.086061
4	0x3f210980	0.6290512
5	0x3f82f863	1.0232052
6	0x3f8dfe8e	1.1093309
7	0x3f23c9cf	0.6397981
8	0x3f9426d0	1.1574345
9	0x3f4b6c38	0.79462004
10	0x3f4ed330	0.80790997
11	0x3f2ddfad	0.6791943
12	0x3f238d87	0.6388783
13	0x3f792f17	0.9733748
14	0x3fa1b541	1.2633439
15	0x3f7921a6	0.9731697
16	0x3f70bc74	0.94037557
17	0x3f849654	1.0358377
18	0x3f706e8e	0.93918693
19	0x3f248591	0.64266306

rb2.shortcut.conv.weight f4 [20, 10, 1, 1]
0	0xbc493c46	-0.012282437
1	0xbd92ff14	-0.071775585
2	0xbec21090	-0.3790326
3	0xbdb33089	-0.08749492
4	0x3f047d55	0.5175374
5	0xbcb32e14	-0.021872558
6	0x3c4b48cd	0.012407494
7	0xbc974c37	-0.01846896
8	0xbc777525	-0.015103613
9	0xbe728b7d	-0.23686023
10	0xbd41aa43	-0.047281515
11	0x3e06c6a1	0.13161708
12	0xbf19c6c8	-0.6006894
13	0x3d98f9eb	0.07469543
14	0xbe28cbf9	-0.1648406
15	0xbe5063b4	-0.20350534
16	0xbd04f2c2	-0.032458074
17	0xbbf0ac59	-0.007344764
18	0x3c2cdd92	0.010550873
19	0x3c1d3537	0.009595207
20	0xbdc535f2	-0.0962943
21	0xbe02adde	-0.12761638
22	0xbd0ae24f	-0.03390723
23	0xbcd098e6	-0.025463533
24	0x3d4daef7	0.050215688
25	0x3ec02f2b	0.37535986
26	0x3e1d9ec2	0.15392593
27	0x3df5c0af	0.11999642
28	0xbe19bca2	-0.15013364
29	0xbec00442	-0.37503248
30	0xbd823a1f	-0.06358742
31	0xbb1352fa	-0.0022479878
32	0x3ea6c0fd	0.32569113
33	0x3e0cea74	0.13761312
34	0x3e45bc13	0.19310026
35	0xbe17453c	-0.14772505
36	0x3e812069	0.2522004
37	0x3e4b9f69	0.19885029
38	0x3edbd6af	0.42937228
39	0xbe0a75da	-0.1352152
40	0xbdfff76d	-0.124983646
41	0x3d4322d3	0.047640633
42	0x3d5f5fca	0.05453471
43	0x3ee0cac4	0.43904698
44	0x3d87be5b	0.06628104
45	0xbd8ef05b	-0.06979438
46	0xbce080d4	-0.02740518
47	0xbda6896b	-0.08131679
48	0x3eb30edb	0.3497227
49	0xbdc43f83	-0.095824264
50	0x3e8db72c	0.27678812
51	0x3e3286da	0.17434254
52	0xbde371d6	-0.11105697
53	0xbebe7b49	-0.37203434
54	0xbd8e90b0	-0.06961191
55	0xbd845cda	-0.064630225
56	0x3e492111	0.1964152
57	0xbe08d294	-0.13361579
58	0xbe1494d6	-0.14509901
59	0xbecf3418	-0.40469432
60	0xbde29959	-0.11064405
61	0x3e2c6e2e	0.16838905
62	0x3c21d4b8	0.009877376
63	0xbea42d35	-0.3206574
64	0x3d030f50	0.031997025
65	0xbecaa761	-0.39580825
66	0xbe81e977	-0.25373432
67	0x3d9feff6	0.07809441
68	0x3e7c3e2e	0.24633095
69	0xbd887098	-0.066621006
70	0x3e368d64	0.17827374
71	0x3e3d808f	0.18506072
72	0x3c59a036	0.013282826
73	0xbd3ae050	-0.045624077
74	0xbe2ab401	-0.16670229
75	0xbd2594d0	-0.04042512
76	0xbe96bee2	-0.29442507
77	0x3d48e104	0.049042717
78	0xbf16f3a2	-0.58965504
79	0xbe429cce	-0.19005129
80	0xbdb54615	-0.08851258
81	0x3e0d593f	0.13803576
82	0xbd9dec0f	-0.0771104
83	0xbd671c9d	-0.056423772
84	0xbf3539c6	-0.7079128
85	0xbdb01d40	-0.08599329
86	0xbaa26e1d	-0.0012392435
87	0x3e8a6728	0.27031827
88	0xbdb77d4c	-0.08959445
89	0xbbf7c3cd	-0.007561183
90	0xbe866c5c	-0.26254547
91	0x3eb932dc	0.36171615
92	0xbe1f26ba	-0.15542117
93	0xbe3d5ff9	-0.18493642
94	0x3e4882bd	0.19581123
95	0xbe017607	-0.1264268
96	0xbc6579ee	-0.014006121
97	0x3dffcac6	0.12489848
98	0x3b95bedf	0.0045698727
99	0xbecaf1da	-0.39637643
100	0xbcbd0335	-0.023072818
101	0x3d88dc0b	0.06682595
102	0xbeda150b	-0.4259418
103	0x3e835cc8	0.25656724
104	0xbe9ee263	-0.31032094
105	0xbe0693c7	-0.1314231
106	0x3e89e035	0.2692887
107	0x3d6cbe5c	0.05779873
108	0x3df2a61e	0.118480906
109	0x3d54f369	0.051989947
110	0x3bf53fe5	0.0074844235
111	0xbcc56482	-0.024095777
112	0xbe9efd44	-0.310526
113	0x3e84c0fe	0.2592849
114	0x3e8b4f82	0.27209097
115	0x3e6c9efd	0.23107524
116	0xbdb43fc1	-0.088012226
117	0xbd88e991	-0.06685174
118	0x3e1ab238	0.15107048
119	0xbe4fb41a	-0.20283547
120	0xbdba0ecc	-0.090848535
121	0xbeb5b389	-0.35488537
122	0x3e61f04a	0.22064319
123	0x3ea7779e	0.32708448
124	0xbdc84042	-0.09777881
125	0xbcc1dedb	-0.023665836
126	0x3d612e3c	0.054975733
127	0xbde30cbe	-0.11086415
128	0xbec65977	-0.3874013
129	0x3dd5d34e	0.10440694
130	0xbd605401	-0.054767612
131	0xbe45a229	-0.1930014
132	0xbdd2d6e9	-0.10294897
133	0xbdbefc22	-0.09325434
134	0x3d25b823	0.04045881
135	0x3df70332	0.12061156
136	0x3dd886ed	0.1057261
137	0x3d7e1a18	0.062036604
138	0xbf257482	-0.646309
139	0xbe21301b	-0.15741007
140	0x3ce22737	0.02760659
141	0xbe827b19	-0.2548454
142	0xbc22149a	-0.009892607
143	0xbe332e73	-0.17498188
144	0xbc964c74	-0.018347003
145	0xbebf3710	-0.37346697
146	0xbecf28b3	-0.4046074
147	0xbd9d549c	-0.076821536
148	0xbdad7fd5	-0.08471648
149	0x3e45d856	0.19320807
150	0x3ebe0616	0.37114018
151	0xbeaa8dbd	-0.33311263
152	0x3e6ce6d6	0.23134932
153	0x3de82a31	0.11336172
154	0xbe060a20	-0.130898
155	0x3e12e82e	0.14346382
156	0x3e1ff4f0	0.1562078
157	0xbde5811a	-0.11206265
158	0xbe9cadb7	-0.30601284
159	0xbd21ce44	-0.03950335
160	0x3e201e0e	0.15636465
161	0x3ea21fc2	0.31664854
162	0xbe057bfe	-0.1303558
163	0x3dbcef3b	0.09225317
164	0x3be208c4	0.0068980176
165	0x3e8a3b54	0.2699839
166	0x3e4f177c	0.20223802
167	0x3df1df6c	0.118101925
168	0x3dd0e614	0.10200134
169	0x3b97ccc2	0.0046325633
170	0x3d45d084	0.04829456
171	0x3da7f289	0.08200557
172	0xbe8d280c	-0.27569616
173	0x3dfcd831	0.12345923
174	0x3d47f55e	0.048817985
175	0x3e8126bb	0.25224862
176	0x3e824dde	0.25450033
177	0x3ecea37a	0.40359098
178	0x3e221140	0.15826893
179	0xbdfb672f	-0.1227554
180	0x3cd50dfc	0.026007645
181	0x3dac9346	0.08426528
182	0xbcf0188f	-0.029308585
183	0xbe8640d3	-0.26221332
184	0xbbf043a9	-0.0073322845
185	0x3d6b4849	0.057441983
186	0xbc98f8b5	-0.01867328
187	0xbe9f8fff	-0.31164548
188	0xbeee7d10	-0.4657979
189	0xbcbeb8f5	-0.023281554
190	0xbe7f6794	-0.24941856
191	0xbe1506a8	-0.1455332
192	0x3ec001c3	0.37501344
193	0xbc09fea4	-0.008422527
194	0x3e2aa40d	0.16664143
195	0xbd83b1ec	-0.0643042
196	0x3d9c2ab4	0.076253325
197	0xbdde05b2	-0.1084093
198	0xbe65e4a7	-0.22450505
199	0x3db9d888	0.09074503

rb2.shortcut.conv.bias f4 [20]
0	0xb80933ac	-3.271147e-05
1	0xb7449227	-1.1716539e-05
2	0xb7456d93	-1.1767627e-05
3	0xb57e286e	-9.4681207e-07
4	0x3820469c	3.8212733e-05
5	0x37f73ec4	2.9473922e-05
6	0xb7099415	-8.200314e-06
7	0xb7de5150	-2.6502326e-05
8	0x3675e9da	3.6643964e-06
9	0x37b529b3	2.15963e-05
10	0x379addae	1.8461458e-05
11	0xb7783798	-1.4794896e-05
12	0xb7a71433	-1.9917357e-05
13	0xb7747770	-1.4571342e-05
14	0x3781234a	1.5394431e-05
15	0x381316e6	3.5068857e-05
16	0x36901dba	4.294995e-06
17	0xb6964e6b	-4.4794774e-06
18	0x3729e4e2	1.0126476e-05
19	0x3753b47c	1.2618602e-05

rb2.shortcut.bn.weight f4 [20]
0	0x3f721143	0.9455759
1	0x3f32ee7a	0.69895136
2	0x3f674185	0.9033435
3	0x3f06677c	0.52501655
4	0x3f2f8a53	0.6857044
5	0x3f2fdf76	0.6870035
6	0x3f07975f	0.5296535
7	0x3f42e812	0.7613536
8	0x3f5020f5	0.8130029
9	0x3f557ae7	0.8339066
10	0x3f0d12d9	0.55106884
11	0x3f2fc682	0.68662274
12	0x3ef13237	0.47108623
13	0x3f5d9586	0.8655628
14	0x3f89c478	1.0763083
15	0x3ef2eba8	0.47445416
16	0x3f32adf3	0.69796675
17	0x3f071d8f	0.5277948
18	0x3eb27e74	0.348621
19	0x3f3a4b8d	0.7277153

rb2.shortcut.bn.bias f4 [20]
0	0x3e534c5c	0.20634598
1	0x3d545de0	0.05184734
2	0xbe3c7580	-0.18404198
3	0x3ae5fa0a	0.0017545831
4	0xbd9e1779	-0.07719321
5	0xbe2944a5	-0.16530092
6	0x3db9b164	0.09067038
7	0xbe7321eb	-0.23743407
8	0x3e6f946c	0.23396462
9	0xbe25470d	-0.16140385
10	0x3d68fcf3	0.056881856
11	0xbe044e15	-0.12920411
12	0xbc36ac85	-0.01114953
13	0x3d5350e8	0.05159083
14	0xbc641412	-0.013920801
15	0x3e411225	0.18854578
16	0xbca599f4	-0.020215012
17	0xbdfd16f7	-0.12357896
18	0x3dc9f94d	0.098620035
19	0xbe8c208d	-0.27368584

rb2.shortcut.bn.running_mean f4 [20]
0	0xbea02572	-0.31278569
1	0xbf5d6c8d	-0.8649376
2	0xbdf5a137	-0.1199364
3	0x3f83443f	1.0255202
4	0x3ed570b7	0.41687557
5	0xbf3897a6	-0.721064
6	0xbf102c84	-0.56317925
7	0xbf56318c	-0.8366935
8	0xbf32f4e7	-0.6990494
9	0xbf09c016	-0.53808725
10	0xbe4d4388	-0.20045292
11	0x3df67eb8	0.120358884
12	0xbe3fd10d	-0.1873209
13	0xbf404527	-0.7510552
14	0xbf6747ee	-0.9034413
15	0x3e19ac3f	0.15007113
16	0x3f61511a	0.88014376
17	0x3f40b41d	0.7527483
18	0xbf51d6fb	-0.8196866
19	0x3d820c0a	0.063499525

rb2.shortcut.bn.running_var f4 [20]
0	0x3ef40e73	0.47667274
1	0x3ed715c0	0.4200878
2	0x3eb1ab95	0.3470122
3	0x3f09c05e	0.53809154
4	0x3eda20b4	0.42603076
5	0x3ee4ab6a	0.4466203
6	0x3eb9a945	0.36261955
7	0x3f0a4023	0.54004115
8	0x3ec1fbee	0.3788752
9	0x3e9546ce	0.29155582
10	0x3ee61ebe	0.4494533
11	0x3e986c62	0.2977019
12	0x3e773528	0.24141371
13	0x3f25f1fb	0.6482236
14	0x3ee871d9	0.4539936
15	0x3eb68f31	0.3565612
16	0x3e9d59e1	0.30732635
17	0x3ed53fa6	0.41650122
18	0x3f040118	0.5156417
19	0x3e311505	0.17293175

res1_sc1.conv.weight f4 [20, 3, 1, 1]
0	0xbf0c021f	-0.54690737
1	0x3db82567	0.08991509
2	0x3eab0573	0.33402595
3	0xbe79940a	-0.24372879
4	0x3f0f63f2	0.5601188
5	0xbe733f8d	-0.23754711
6	0x3c236daf	0.009974881
7	0xbe9c5363	-0.3053237
8	0xbec634f5	-0.38712278
9	0x3ec48db7	0.3838937
10	0xbeac60dc	-0.33667648
11	0xbeb1aaa2	-0.34700495
12	0x3ef74d9d	0.48301402
13	0xbdef3be4	-0.11681345
14	0x3e5cb133	0.21551971
15	0xbf0aa256	-0.54153955
16	0xbebfe99f	-0.37482926
17	0x3ea52b52	0.32259613
18	0xbe34d705	-0.17660148
19	0x3ebc2fb2	0.3675514
20	0x3f011389	0.50420433
21	0x3eb58c85	0.3545877
22	0xbf0feaa3	-0.562174
23	0xbea8eba1	-0.3299227
24	0x3e2b3a2a	0.16721407
25	0x3f07e514	0.5308392
26	0xbe35ec17	-0.17765842
27	0x3e87905b	0.26477322
28	0xbe864ee7	-0.26232073
29	0xbeba2cf3	-0.3636242
30	0xbdcba086	-0.09942727
31	0xbe840185	-0.2578241
32	0xbebe72e5	-0.37197033
33	0x3e1826cd	0.14858551
34	0xbdae54da	-0.08512278
35	0xbed3de66	-0.41380614
36	0xbeb1ab4e	-0.34701008
37	0xbe4afd94	-0.19823295
38	0xbd66335f	-0.056201335
39	0x3ac7471a	0.0015203685
40	0xbe1978b0	-0.14987445
41	0xbef253ba	-0.47329503
42	0xbe6ca92c	-0.23111409
43	0x3e6bf6cc	0.23043364
44	0x3eb36b1b	0.35042652
45	0x3ec2bdb1	0.38035348
46	0x3e235915	0.15951951
47	0xbe853ab6	-0.26021355
48	0x3dcbade1	0.09945274
49	0xbea86ec7	-0.32897016
50	0x3d7936bc	0.060843214
51	0x3d68420d	0.056703616
52	0xbeb22ba0	-0.34798908
53	0x3d5f17c0	0.05446601
54	0x3e743b05	0.23850639
55	0x3e9b1070	0.30285978
56	0xbdc89ef7	-0.09795945
57	0xbf03ddda	-0.51510394
58	0x3e1dbf63	0.1540504
59	0x3d909eea	0.070615605

res1_sc1.conv.bias f4 [20]
0	0x3888b234	6.518178e-05
1	0x387b8308	5.9965096e-05
2	0x370a9717	8.260619e-06
3	0x3713110c	8.765852e-06
4	0x380b8e12	3.3272496e-05
5	0xb6c1d4a6	-5.7766038e-06
6	0xb7bcd60e	-2.2511023e-05
7	0x380006d8	3.0523952e-05
8	0xb7106ff8	-8.609139e-06
9	0xb6a3ceae	-4.8818392e-06
10	0x38a305f7	7.773557e-05
11	0xb862a9ef	-5.4040862e-05
12	0xb82e648a	-4.1578467e-05
13	0x373f900c	1.1418026e-05
14	0xb6e09a5f	-6.6936914e-06
15	0x384f036e	4.935584e-05
16	0x3896200c	7.1585266e-05
17	0xb7f83357	-2.958781e-05
18	0x3731371d	1.0562854e-05
19	0xb77cc23f	-1.5065597e-05

res1_sc1.bn.weight f4 [20]
0	0x3f4dbd35	0.8036683
1	0x3f6ad988	0.91738176
2	0x3f2d41fd	0.67678815
3	0x3f0e9c0c	0.5570686
4	0x3f01a44e	0.50641334
5	0x3f1c0b20	0.60954475
6	0x3f0d5118	0.55201864
7	0x3f17919e	0.5920657
8	0x3f1b40d2	0.6064578
9	0x3f261285	0.6487201
10	0x3f155bf3	0.5834343
11	0x3f12d06f	0.57349294
12	0x3eeaf136	0.45887154
13	0x3f167791	0.58776194
14	0x3f25f65f	0.6482906
15	0x3ec051fd	0.37562552
16	0x3f0b760f	0.5447702
17	0x3ef41476	0.4767186
18	0x3edbd090	0.42932558
19	0x3f502e9e	0.8132113

res1_sc1.bn.bias f4 [20]
0	0x3e534c5c	0.20634598
1	0x3d545de0	0.05184734
2	0xbe3c7580	-0.18404198
3	0x3ae5fa0a	0.0017545831
4	0xbd9e1779	-0.07719321
5	0xbe2944a5	-0.16530092
6	0x3db9b164	0.09067038
7	0xbe7321eb	-0.23743407
8	0x3e6f946c	0.23396462
9	0xbe25470d	-0.16140385
10	0x3d68fcf3	0.056881856
11	0xbe044e15	-0.12920411
12	0xbc36ac85	-0.01114953
13	0x3d5350e8	0.05159083
14	0xbc641412	-0.013920801
15	0x3e411225	0.18854578
16	0xbca599f4	-0.020215012
17	0xbdfd16f7	-0.12357896
18	0x3dc9f94d	0.098620035
19	0xbe8c208d	-0.27368584

res1_sc1.bn.running_mean f4 [20]
0	0xbcf6d933	-0.030132866
1	0x3c64ae8b	0.01395763
2	0x3d9ea5ca	0.077464655
3	0x3d620431	0.05517978
4	0xbd4973f8	-0.049182862
5	0xb9ac6494	-0.00032881333
6	0xbdbabd40	-0.09118128
7	0x3d8ad5a4	0.0677903
8	0xbc5ac30f	-0.01335217
9	0x3d7176da	0.058951236
10	0x3d9ef09c	0.07760736
11	0x3d7b42a0	0.061342835
12	0x3d195f81	0.037444595
13	0x3da71a7d	0.08159349
14	0xbd67c6b6	-0.05658599
15	0x3c408901	0.011751414
16	0x3bc6a1a5	0.00606175
17	0x3c271f49	0.01020033
18	0xbc762698	-0.01502385
19	0x3b9844e0	0.0046468824

res1_sc1.bn.running_var f4 [20]
0	0x3cb45354	0.02201239
1	0x3c039cc7	0.008032984
2	0x3dfd6275	0.12372295
3	0x3d206efc	0.039168343
4	0x3daf0a03	0.085468315
5	0x3dd40a73	0.103535555
6	0x3e0d92ca	0.13825527
7	0x3dbaa40f	0.09113323
8	0x3d95e17f	0.073184006
9	0x3d3a0864	0.04541816
10	0x3e0c676c	0.13711327
11	0x3d27c779	0.040961716
12	0x3db9b029	0.09066803
13	0x3dd86808	0.105667174
14	0x3d2a54d7	0.041584816
15	0x3ce91f98	0.028457448
16	0x3c14267c	0.0090423785
17	0x3c82c34a	0.015962262
18	0x3d532593	0.051549505
19	0x3ce6d91e	0.028179701
