models/dense_max/epoch_0024.pth (torch, 645162 bytes, 174 tensors)

rb1.conv1.weight f4 [10, 3, 3, 3]
00000000: f832 9abd 5335 aa3d d704 9bbd 4367 6ebe
00000010: 5459 8c3e f9c5 3b3e 96c8 50be c780 423e
00000020: a498 f5bd b32d 33be 9988 4e3c 406b 2fbd
00000030: 2d9a 9ebe c78c 923e cd27 2b3e ffc9 75bc
00000040: a38c 8d3e 7da4 68be beef afbc 8dd1 6a3a
00000050: 9e6c bfbd 2974 68be bdb2 4b3d 4ab5 153c
00000060: aa32 043e 722e 8a3d c812 103e ebc0 623d
00000070: 8bb9 b13c e497 263e 25ce 6f3d ed60 123e
00000080: ff94 b6be e5c6 54bd 8ffe 1f3d fc21 9ebd
00000090: cf0e 1cbd 2270 b5bc c71a febb 8768 21bd
000000a0: 7e45 dc3e 0c6b 6bbe c5e6 59bd 13fa b23d
000000b0: e5f9 06be 4c89 0bbe 6b93 2fbe 3b4b f93d
000000c0: 1771 3e3c 4b19 b53e e3b5 89be 2b89 c1ba
000000d0: 6e81 c33d 6f0b 3b3d 51cf 033d 6dd7 8d3e
000000e0: b1d5 3f3e 2547 05be 2d98 91bd 9432 c53d
000000f0: 80fc 71bd 5e31 63be 2744 b43b 7390 7c3e
00000100: 35b0 7a3e e596 a13e d029 bf3b aab6 2dbe
00000110: a687 e6bd abd1 dfbd cbdf 88be 35fc 36be
00000120: 4313 703d 0efe 2e3e cc0d 6f3d 72b6 8539
00000130: 98bf 32bd 54c1 bfbd ec24 ce3d 3c3b 53be
00000140: df24 febd 1dc8 44be 4021 003d d026 28be
00000150: 02ca 973d bd5b 9dbe ddf8 2bbe 85c0 3c3d
00000160: 1c34 d03d d70a 293e 3612 d7bd 76fb 1dbe
00000170: cd99 22be d770 5c3e 9a1a 89be 6f60 f9bd
00000180: b374 8b3e fde3 d93c e1fe dc3c f224 39bd
00000190: 2128 b43c dc9e 0cbe 725b 2f3c 2c51 31be
000001a0: a860 ffbd 26ab 3d3e 576a 803c a4ac 6c3e
000001b0: d91f 79be 3711 6bbe a274 463e 1141 babd
000001c0: 6370 32be 3ac3 103e 186b efbd e9ab 35bc
000001d0: 3b8d 653e 0d24 723e b89d 5ebe a5f9 b0bd
000001e0: 01d5 a0bd c562 85bc 988b 253e f373 c03d
000001f0: 42b1 f23d 5bc7 fa3d b2a9 873e bb18 a93d
00000200: 6953 88bd 7d1d 5f3e 695b cb3c 14a8 91be
00000210: 9dce 153e 2864 953c 111e 3cbe 1aca 41be
00000220: f13c 16be e768 033e 6910 923c 31cd 14be
00000230: 0d28 063b 1102 ef3d 33dd b9bd 3f14 ca3c
00000240: 8f9f 923d a05b 423e c06d 623e bb93 47bd
00000250: d6b9 e1be 5655 f5bd a099 303e 0cf1 fcbd
00000260: 7aa0 a5be 8f2e 793c 14c7 a7bd 2347 683e
00000270: 9b44 bbbd f629 2ebe 664f 663b 7c18 6fbe
00000280: 1600 acbe 793d b23c 5501 c3bc 9b4a 1dbd
00000290: a534 d33d 0b24 a93d 6e29 4f3e dd15 e8bd
000002a0: 713d cbbc 0094 07bd d297 ce3c bed8 813d
000002b0: 9e55 d93c 9995 8e3d e20b 083e a5c3 983e
000002c0: 262f 6ebd 3a9c 003d a8b6 413d 155e 35be
000002d0: ac48 84be d4b1 19be 3ebf cbbd eb7c d0bb
000002e0: 501b ed3d 54f3 163e c56f a2bd a138 c93e
000002f0: 02e1 8a3e bb39 9e3c 4e89 0ebe a5e1 473e
00000300: a3c3 85be ba31 8dbd 862a 913d 2a5f 653e
00000310: 3316 4abd 851e 4a3e 55b1 043e 99f5 b0bc
00000320: 25ac 4c3e b435 5bbe af1d c6be 0777 a3bb
00000330: 9e67 1d3e 4486 083e a380 81be 2ca0 f0bd
00000340: 01ce bcbd 9b79 8a3d 3bb8 a9bd 1b56 1cbe
00000350: a827 bc3e defd 863e 9aa1 bdbd a50b 0ebd
00000360: be33 92be 4153 cc3d a0a2 17bc f2a7 fdbc
00000370: 3b7b 413e 4931 953e 49c9 56bc 27b0 183e
00000380: 9c50 6cbd 73a9 aebd 7455 14be ff6b 1bbe
00000390: 04ce 4a3c 6ca4 f93d 95c3 88bd 20db 743e
000003a0: 66e1 95be f8b9 55be 787b 813d 167f c63d
000003b0: 5a7e d9bd cde0 e53d da92 4e3e 4900 bc3c
000003c0: ba2f 0a3d 5d66 893c 84b9 6dbe f39a 7f3e
000003d0: 7750 e73e e598 563e dbe9 1b3e 56ea 983e
000003e0: 1371 543d 5a6a aabd 410e 41be 669c b0be
000003f0: b899 393e 9599 9e3e 41f8 363d 9165 74bd
-0.07529253 0.08310952 -0.075692825 -0.23281579 0.27411902 0.1833724 -0.20389017 0.18994437
-0.119920045 -0.17497902 0.01260581 -0.04282689 -0.30977002 0.2862303 0.16714402 -0.015001773
0.2764636 -0.22718997 -0.021476623 0.0008957617 -0.09346889 -0.22700562 0.049731005 0.009137461
0.12909952 0.0674714 0.14069664 0.055359762 0.02169492 0.16268879 0.058546204 0.14294787
-0.3566055 -0.051947493 0.039061125 -0.07721326 -0.03810006 -0.022148196 -0.007754657 -0.039406326
0.43021768 -0.22990054 -0.053198595 0.08739104 -0.13181265 -0.13626593 -0.17146079 0.12172552
0.011623642 0.3537086 -0.2689658 -0.0014765611 0.09546171 0.0456652 0.032180134 0.2770342
0.1873386 -0.1301542 -0.07109103 0.09628788 -0.059078693 -0.22186801 0.0055012885 0.24664478
0.2448128 0.31560436 0.005833842 -0.16964212 -0.11256342 -0.10928663 -0.2673324 -0.17869647
0.05861212 0.17089102 0.058362767 0.0002550367 -0.04363975 -0.09363046 0.10065636 -0.20628065
-0.12409376 -0.19216962 0.03128171 -0.16421056 0.07411577 -0.30734053 -0.16794153 0.04608204
0.10166189 0.16508041 -0.1050152 -0.15427956 -0.15878983 0.2152742 -0.26778108 -0.121765964
0.27237472 0.026597971 0.026977004 -0.04520125 0.021991791 -0.13732475 0.010702955 -0.17316121
-0.124696076 0.18522319 0.015675707 0.23112732 -0.24328555 -0.22955786 0.1938043 -0.09094442
-0.17425685 0.14136973 -0.116903484 -0.01108835 0.22417156 0.23646565 -0.21739852 -0.08641366
-0.07853127 -0.016282449 0.16166532 0.093971156 0.118502155 0.12245055 0.26496655 0.0825667
-0.06656534 0.21788593 0.024823861 -0.28448546 0.14629598 0.018236235 -0.18370844 -0.18924752
-0.14671685 0.12832986 0.01783009 -0.145314 0.002047065 0.11670316 -0.090753935 0.024667857
0.0715934 0.18980265 0.22112179 -0.04872487 -0.44087094 -0.11979167 0.17246103 -0.123506635
-0.32348996 0.015208854 -0.08192268 0.22683387 -0.09143945 -0.17008194 0.003514254 -0.23349184
-0.33593816 0.021757828 -0.023804346 -0.038401227 0.103127755 0.08258828 0.20230648 -0.11332295
-0.024809571 -0.03310013 0.025218878 0.063401684 0.026530083 0.06962127 0.13285783 0.29836765
-0.058150433 0.03139899 0.047293335 -0.1771167 -0.25836694 -0.15009242 -0.09948586 -0.0063625476
0.11577475 0.1474126 -0.079314746 0.39301017 0.27124792 0.019314637 -0.13919565 0.1951967
-0.2612582 -0.0689425 0.07088189 0.22399583 -0.049337577 0.19738205 0.12958272 -0.021601485
0.19987543 -0.21407205 -0.38694522 -0.0049885544 0.15371558 0.13332468 -0.25293455 -0.117493
-0.092189796 0.06761476 -0.08287092 -0.15267222 0.36749005 0.2636556 -0.09259339 -0.034679074
-0.285551 0.09976817 -0.009255081 -0.030963872 0.18894665 0.29139164 -0.013109514 0.14910947
-0.057694063 -0.085284136 -0.14485723 -0.15177916 0.0123782195 0.12189564 -0.06677929 0.23911715
-0.29273528 -0.20871723 0.06322378 0.096922085 -0.10619803 0.11224518 0.20173207 0.022949355
0.03373692 0.016772443 -0.232153 0.24961452 0.45178577 0.20956762 0.15225928 0.29866284
0.05186565 -0.08321066 -0.18853094 -0.34494323 0.18125045 0.3097655 0.044670347 -0.059667174

rb1.conv1.bias f4 [10]
00000000: 10ed 9938 4ff3 f939 9830 aeb5 de55 a8b8
00000010: c5b0 b438 bafb d838 7ae0 9038 bef6 38b6
00000020: 93cf 5f39 1b83 0638
7.339765e-05 0.0004767426 -1.2978153e-06 -8.026858e-05 8.615995e-05 0.0001034657 6.908267e-05 -2.756176e-06
0.00021344265 3.207019e-05

rb1.bn1.weight f4 [10]
00000000: f0fd 4b3f b2b8 9e3f 8deb 5a3f 08ff 5d3f
00000010: 6bc1 123f 26e4 4c3f 3197 2b3f 62ed 7b3f
00000020: 65e8 533f 9701 2c3f
0.7968435 1.2400115 0.8551567 0.8671727 0.5732638 0.80035627 0.67027575 0.9840909
0.8277648 0.67189926

rb1.bn1.bias f4 [10]
00000000: 8e59 a73e 261e 923f c51c 043c 8671 323d
00000010: 8ff1 3d3d 6dd9 a7bc c020 40bb d428 493f
00000020: f96b 0b3f 7dfd 033e
0.32685512 1.141545 0.0080635 0.043565296 0.046372946 -0.020489419 -0.0029316396 0.78577924
0.5446163 0.12889667

rb1.bn1.running_mean f4 [10]
00000000: f163 63bc bc35 2dbc 62c6 513c 6465 023d
00000010: 62ae cbbc 3b79 e63d 5b96 91bd 130c 8fbb
00000020: 04ea 99bc d51b 17bd
-0.013878808 -0.010571893 0.012803646 0.031834975 -0.024863426 0.112535916 -0.07108756 -0.004365453
-0.018788345 -0.036891777

rb1.bn1.running_var f4 [10]
00000000: ae96 a23d 42c2 2a3d d426 4d3e 19f0 763e
00000010: f199 123d af17 e13e 6ba0 603e 4c13 6f3d
00000020: f7d7 1d3d 1c7a db3e
0.07938896 0.041689165 0.20034343 0.24115027 0.03579134 0.43963382 0.21936195 0.058368012
0.03853604 0.428666

rb1.conv2.weight f4 [10, 10, 3, 3]
00000000: cec4 b7bc c119 41be 1fde 253b 5d54 a23c
00000010: 25ba 10be b7c8 45bd 92c3 503c 51e0 42bd
00000020: b47e b1bc c9b8 003c e8de 333e bd2e 84be
00000030: 1052 88be fdb7 babd 7557 143e 88c3 113e
00000040: fa73 58be b168 403c 92fc 05be 3621 b13d
00000050: a9ad e8bd f01b c93b d130 4fbe eb15 32be
00000060: 8ab4 ac3c ba24 e93d a7c7 1c3e e5b6 183e
00000070: 9a07 253e 773f 083e 72a9 c83d 9cfa e53d
00000080: 3653 f93c 1176 02be 7ff4 8cbd c492 6fbe
00000090: 7615 0abe b73d 5a3d b003 1bbd 2934 a7bb
000000a0: 32f9 c7bd e907 ba3c 18f8 7ebd 86c5 5fbc
000000b0: 9061 a0bd c485 aa3d af4c 703e 7cc7 2c3e
000000c0: bdc2 d8bc 628b a73b 3853 17bd d2a1 49bd
000000d0: accb 6b3d e596 1f3e 6030 7cbd aec7 14bd
000000e0: d725 aabd 4742 babd 9b7a 6cbe 3db9 9dbd
000000f0: 2141 c93d 9984 903d cc92 81bd 769c 00bd
00000100: 371f ec3d 60a0 8f3e c18b 61bd 6682 82be
00000110: 71ca cabe 62f8 683c 3b4a 283e 7f1b c13d
00000120: 4f32 3fbd e4cd 29be 02bc d4bd be88 fc3d
00000130: 24c9 793d 14c9 d73d 2de7 45be 54ef 65bc
00000140: b7ef 36bd db3a a3be a345 a3be 2bfd f3bd
00000150: 2a08 33be 7774 43bd 1079 51bd fda9 0bbe
00000160: 1f48 a0bd a973 6f3d 8afc 08bc 8b87 fbbd
00000170: 855f ec3d 921c 033c b756 853d 6530 a03e
00000180: b7cd 3bbd 2c25 223e 1049 c0bd 39cd e13d
00000190: c78d b93d c034 30be 4e3d 273e 7024 eebe
000001a0: 12bb 803d 8f35 9fbe f53f 003e bdf9 153e
000001b0: b74a 9b3c 47f6 063e 33ea d9bd 56e2 e83b
000001c0: ace3 2cbe e433 1dbe ec95 a83c d419 c9bd
000001d0: 5e25 69bd 8e1e 65be 3be0 d53d e7d1 4a3d
000001e0: ef54 8e3d b5bd 31bd b46f cbbd d492 a13b
000001f0: 1305 48be fe55 84bc 3062 3a3e 236a 583e
00000200: 4fba 2e3d 787f 953d 1f19 fabc eb23 b0bd
00000210: 30ba 80bc 1377 13be 9bf2 26be 3a16 acbd
00000220: d936 afbd 8b18 b4bd eac7 4fbd 1365 81bd
00000230: 2529 ffbd d464 9cbd 4c2d 38be f116 7fbd
00000240: 00e2 c83d 419b 1e3e dc16 ce3d 2151 1a3e
00000250: 9255 2e3e 1afa f33d 8acc 133e e7ed 373e
00000260: f47c cc3c 5bce b93d a31b 90be 5f54 1fbc
00000270: 870e 31bd e5b0 84be e2cc 4c3e c6e0 27bd
00000280: 38ca 893e 0e6f 28bc 9df8 dc3d 2fc7 b2bb
00000290: fb9a 5ebe f5af 043d 7fc6 d9bd 350d 1a3e
000002a0: 1c3b d5bb c409 163e 053e d5bc 714b febc
000002b0: c64c c5bb 32bc a33c 32d6 583d 2505 f4bc
000002c0: cb66 133d 9e7e 93bd 70ba 103e 95a1 013d
000002d0: caa3 b43c 645e a8be de2c 94bd c07d 473c
000002e0: 436c 96bd b2fc a4bc c3e9 a63d 6877 913d
000002f0: a594 853d a7a7 75bd 3237 0cbe 54e7 fd3b
00000300: 2d76 89bd 9ccf 1fbe 18f8 c8bc 719d 47bc
00000310: df88 0b3e 28f5 203e e0ee 893e 5963 633d
00000320: 63e1 2a3d 2347 b93e 79ed 7d3d d10b 29be
00000330: dd76 b23d faf6 e9bd ca19 60bd 40de b93d
00000340: 07b8 423d 3ac0 24bc 7ba6 d73b ac18 253d
00000350: 0b08 1fbb 056c 8f3e 6ede 68bc c05c cb3c
00000360: 1791 d63d 5bac fd3d 0262 ec3c 3301 753e
00000370: c7ed a23d 6d55 123d 16d8 bf3d 7258 553d
00000380: 43fa c73b 0451 5d3e d3de 663e e068 363e
00000390: 3455 373e f878 c03d cb08 333d 012d 2a3d
000003a0: cdae 2d3d 4900 dcbd aab0 653c d0be 3cbd
000003b0: 3be8 f5bd 7f1f 7d3c f46f 30bd d995 dcbd
000003c0: 828b b63c 8723 f9bb 6329 f2bd f842 273e
000003d0: a16b d63d d507 17bb 1a82 933d 3961 a53d
000003e0: d9f8 a7bc 9d0f dcbd fb04 fd3c f9ae 66bd
000003f0: 8fb2 8f3e cfd5 8f3e 8eb2 98bd 6bb3 493e
-0.022432711 -0.1885748 0.0025309396 0.019815618 -0.14133509 -0.04828712 0.01274194 -0.047577206
-0.021666862 0.007856556 0.175655 -0.25816908 -0.2662511 -0.09117124 0.14486487 0.14234746
-0.21137992 0.01174371 -0.13084629 0.086489126 -0.11361248 0.0061373636 -0.20233466 -0.17391174
0.021082181 0.11383958 0.15310536 0.14913519 0.16116181 0.1330546 0.09797944 0.112294406
0.030435186 -0.12740351 -0.068825714 -0.2339583 -0.13484749 0.053281512 -0.037845314 -0.0051026535
-0.09764327 0.02270885 -0.06224832 -0.013657933 -0.078311086 0.08326295 0.23466752 0.16872972
-0.026460046 0.0051130513 -0.036944598 -0.04922659 0.057567284 0.15584905 -0.06156957 -0.036323242
-0.083079986 -0.09094673 -0.23093645 -0.07701347 0.098268755 0.07056541 -0.063268274 -0.031399213
0.11529391 0.28052044 -0.05506492 -0.2549011 -0.39607576 0.014219375 0.16434567 0.094290726
-0.046678837 -0.16582447 -0.10387422 0.12330769 0.06098284 0.105363995 -0.19326468 -0.014034111
-0.044662204 -0.3188084 -0.31889066 -0.11913522 -0.17483583 -0.04771849 -0.051140845 -0.13639064
-0.07826256 0.05845991 -0.008360991 -0.12281712 0.115416564 0.008002417 0.0651068 0.31286922
-0.04585048 0.15834492 -0.093889356 0.11025471 0.09060245 -0.17207623 0.1633198 -0.46512175
0.06285681 -0.3109555 0.12524398 0.14646049 0.018956525 0.13179885 -0.10640373 0.0071070595
-0.16883725 -0.15351826 0.0205793 -0.098193794 -0.0569204 -0.22374937 0.10443159 0.049516585
0.069497935 -0.04339381 -0.09933415 0.0049308334 -0.19533186 -0.016154286 0.18201518 0.21134238
0.042658146 0.07299703 -0.030529557 -0.08600601 -0.015713781 -0.14400892 -0.16303484 -0.08402677
-0.08555383 -0.08793744 -0.050727762 -0.063181065 -0.124590196 -0.07636419 -0.1798603 -0.062277738
0.09808731 0.15488912 0.10062954 0.1507001 0.1702483 0.119129375 0.14433494 0.17961846
0.024961926 0.09072562 -0.28146085 -0.0097247055 -0.043226745 -0.2591621 0.20000032 -0.040985845
0.26912093 -0.010280384 0.10789607 -0.0054558734 -0.21738808 0.03239437 -0.10633563 0.150441
-0.0065072905 0.14652163 -0.02603055 -0.031041833 -0.006021115 0.0199872 0.052938648 -0.02978761
0.035986703 -0.07201885 0.1413362 0.031648237 0.022050757 -0.32884514 -0.0723512 0.012175977
-0.07344868 -0.020140026 0.08150055 0.07102853 0.06522492 -0.05997434 -0.1369293 0.0077485237
-0.06711993 -0.1560654 -0.024532363 -0.012183533 0.13626431 0.1571852 0.2694006 0.055514667
0.04171885 0.36187086 0.06199405 -0.16508414 0.087140776 -0.1142406 -0.054712094 0.09075594
0.047538783 -0.010055596 0.0065811253 0.040306732 -0.0024266269 0.280121 -0.014213188 0.0248245
0.104768924 0.1238639 0.028855328 0.23926239 0.07955509 0.035726 0.09367387 0.0520863
0.0061028316 0.21612936 0.22545938 0.17813444 0.17903596 0.09398073 0.043709558 0.041546825
0.04240303 -0.10742242 0.014019171 -0.04608041 -0.12007185 0.015449404 -0.043075517 -0.10770769
0.02228332 -0.007603112 -0.118243 0.1633414 0.10469747 -0.002304544 0.07202549 0.080751844
-0.020504402 -0.107451655 0.030886164 -0.05631921 0.28065917 0.2809281 -0.074559316 0.19697349

rb1.conv2.bias f4 [10]
00000000: 7618 68b7 0d9e f7b8 8b9e 8137 3184 86b7
00000010: a91e 3638 1fbe 0438 53b4 fd36 9915 14b8
00000020: 4339 9b37 cc4c b8b7
-1.3833973e-05 -0.00011807317 1.5451826e-05 -1.6035601e-05 4.3420736e-05 3.1648317e-05 7.56098e-06 -3.5306064e-05
1.8504104e-05 -2.197027e-05

rb1.bn2.weight f4 [10]
00000000: 789c 843f 7171 913f f31f 4e3f 3187 8d3f
00000010: 7ea6 3b3f b874 893f 0e03 aa3f 7fa6 883f
00000020: ba3a 8e3f 98af 5b3f
1.036025 1.1362745 0.805175 1.1056882 0.7330092 1.0738745 1.3282182 1.067581
1.1111672 0.8581481

rb1.bn2.bias f4 [10]
00000000: 7326 653d 84fc 90bd ef2f 953e 1ae7 debc
00000010: ad35 813e f7cd c33d cbfc a1bc d2cf ca3d
00000020: d59e 763d 3195 8b3e
0.05594487 -0.070794135 0.29138133 -0.027209807 0.25236264 0.09560769 -0.019773861 0.0990292
0.060210068 0.27262262

rb1.bn2.running_mean f4 [10]
00000000: 7bdb a2bf c475 8ebe 4f8d 3e3f ffce bb3c
00000010: 6e53 13bf 4b4e 10be 22d9 20bf 2049 86be
00000020: 9e70 913d 2c48 ce3f
-1.272323 -0.27824223 0.7443437 0.022925852 -0.5754918 -0.14092366 -0.6283132 -0.26227665
0.07101558 1.6115775

rb1.bn2.running_var f4 [10]
00000000: 0203 c73f 42d5 9d3f 0b27 8d3f 4d32 c73f
00000010: 6b2b 4a3f 464b d33f 4c0c 0540 19c4 cd3f
00000020: 90b3 ff3f 504f d93f
1.5547793 1.2330706 1.102754 1.5562226 0.789725 1.6507347 2.0788755 1.6075469
1.9976673 1.6977329

rb1.shortcut.conv.weight f4 [10, 3, 1, 1]
00000000: 9a02 e83e 541d 2d3c d3dc ab3e 622f a9be
00000010: a947 0cbf bcef bdbe 9879 bd3e a5e8 b5be
00000020: 499e d53d fa50 f3be f101 33bf 7a72 323e
00000030: 1aba d6bd 3edd 48be 9026 143f 06c3 be3e
00000040: 084d 0e3e da7d f83e 047b bcbe 8a93 aebe
00000050: 6586 a5be d84f 91be 3ce2 33bf 4f88 873e
00000060: 15bb 9abe 32f5 05bf 80fb 89bd 6941 92be
00000070: dc4a 693d a872 15bf
0.45314485 0.010566074 0.33566913 -0.33043963 -0.54796845 -0.37096965 0.3700683 -0.35529056
0.10430581 -0.47522718 -0.6992484 0.17426482 -0.10484715 -0.19615647 0.5787134 0.37258166
0.13896573 0.48533517 -0.36812603 -0.34096938 -0.32329097 -0.28381228 -0.7026708 0.26471183
-0.30220857 -0.52327263 -0.06737423 -0.2856553 0.056956157 -0.58378077

rb1.shortcut.conv.bias f4 [10]
00000000: 37db 4db8 116e 6938 7808 5938 d0b0 8f35
00000010: 9964 46b9 1d46 6039 395a 82b8 b897 6538
00000020: f262 03b9 72a2 cf38
-4.907997e-05 5.5654036e-05 5.174472e-05 1.070579e-06 -0.00018920227 0.00021388424 -6.215688e-05 5.4739154e-05
-0.00012529994 9.900787e-05

rb1.shortcut.bn.weight f4 [10]
00000000: 8afa 793f 72b7 6a3f b531 813f 654f 643f
00000010: d1ae 913f 8581 6f3f 5997 143f ff70 2e3f
00000020: d0b8 653f 1dfa 673f
0.9764792 0.91686165 1.0093294 0.89183646 1.1381475 0.93557006 0.5804344 0.6814117
0.89735126 0.9061602

rb1.shortcut.bn.bias f4 [10]
00000000: 7326 653d 84fc 90bd ef2f 953e 1ae7 debc
00000010: ad35 813e f7cd c33d cbfc a1bc d2cf ca3d
00000020: d59e 763d 3195 8b3e
0.05594487 -0.070794135 0.29138133 -0.027209807 0.25236264 0.09560769 -0.019773861 0.0990292
0.060210068 0.27262262

rb1.shortcut.bn.running_mean f4 [10]
00000000: 82e0 80bd 4d06 b23d 4478 53bc 9072 053d
00000010: a498 6fbd 3e5f abbd 3f38 953d 7228 523c
00000020: 0643 3e3d ce45 aa3d
-0.062928215 0.08692608 -0.0129070915 0.03257996 -0.05849518 -0.083677754 0.07286119 0.012827026
0.046450637 0.083140954

rb1.shortcut.bn.running_var f4 [10]
00000000: 5226 1b3e 9732 bd3e e6ea e33b 7d4c 7f3e
00000010: 230b 053d 7e69 713e 30e1 803e b164 0a3e
00000020: dc4c 433e 9075 243e
0.15151337 0.3695266 0.0069554923 0.24931522 0.032481324 0.23575398 0.25171804 0.13514973
0.19072288 0.16060472

rb2.conv1.weight f4 [20, 10, 3, 3]
00000000: bd49 9d3d 7835 033e 0ade 923d 23f0 1f3e
00000010: 102d 643e 3136 fd3d cee7 4c3d 4cb7 da3d
00000020: 2e50 013e de86 113e 7c4e f1bd 80dc f0bd
00000030: 6720 0cbe 8cff aebd 2254 2abd 37ab 1e3e
00000040: 3bc3 25be 5a9f dabd 0a97 cdbd a680 a0be
00000050: f779 30be 5c08 18bb b419 85be 53e1 1ebe
00000060: 9af8 363d 6999 493d 3de3 c3bd aac1 88bc
00000070: b8fa ebbd 57fe cd3d cd4a a73d 020f 863d
00000080: 7605 dd3d 1919 fc3c ac1c 3e3d 1a12 5a3e
00000090: 9f45 0cbc 7509 023e 8361 03bd 4efa 8fbd
000000a0: 3cd6 0c3c f721 a23d fd61 753c 5df9 99be
000000b0: 6bd2 73be 9b12 d53d ac77 343d e071 923d
000000c0: 1948 0cbe 3f73 8dbd 3604 a4bd 7609 38bd
000000d0: 4880 f0be 98d7 05bd 493f e83d 9603 ab3d
000000e0: 380a 1d3e 177e 943d 45a7 293d 76a8 dc3d
000000f0: 6b90 5e3d 5921 e1bc 23a5 5cbd bc51 9c3d
00000100: a534 c0bd 0309 813d cd2f b4bd de2b b7be
00000110: 348b 8bbd a7ca 853d 7ab1 1cbe 0826 fbbd
00000120: 3f81 9abc 330f 093c 4f93 26be 2a54 34be
00000130: 19db 8f3d 4a7d 223e e031 2dbe 5bfb 12bd
00000140: eb66 c63d a82d 09be aa8a 9b3c 59b3 10be
00000150: 8756 7ebb 8a02 c83c 726e d2bc 97a3 b0bd
00000160: 7853 4c3d 8c71 5a3e 7a54 7dbe 8629 2fbe
00000170: e5e1 97bd 4a52 363d 89df 4cbd f294 ee3a
00000180: 50ed 223e 3e8e 453e b2f2 5e3e bbe8 8ebe
00000190: c2cd 12be 1e59 2abd 3104 11be 7395 b93d
000001a0: 9368 d4ba cb61 8ebd 2a2c f7bc 6b1a cbbb
000001b0: 5ffe 86be aa2d c3be 349e 78be dd34 cf3d
000001c0: e5cb d83c 7747 bebc 0edf 473e 8a07 833e
000001d0: d1a1 9e3e fd9e 83bd 010b c43c 7de9 a2bc
000001e0: b435 1fbe 2c25 803d c5c1 cfbd 8b27 bbbd
000001f0: 4bd9 393b 6756 9cbd e474 3e3e eb5d 743e
00000200: 1890 e53c 7006 393c cc56 6cbc 4dbd 05be
00000210: 7c45 3bbe db03 80be ae71 6ebe b74f 7cbb
00000220: da66 92bc 580e 153e 7d81 67bd a4c1 323d
00000230: b7c0 413d e591 423d d9ba 0bbb f840 ac3d
00000240: 0a2f c23d f388 e73d c546 393d 4278 79bd
00000250: bf63 823c f153 dcbd 4fbe 82bc 32c4 cf3c
00000260: f1d2 43bd 98d5 1e3e 70ff 913e fe73 063e
00000270: 9d32 fcbb d5b2 9c3d b65c d23d e579 0abe
00000280: 12df a43c 55fb 50bd c8d4 dfbd ba06 933d
00000290: 46b2 9dbd 0e2b fdbd b003 9b3d 2582 35be
000002a0: be90 e23c f1fc 1a3d cf7f 66bd 737a 66bd
000002b0: 77a6 943c b56e 6f3c eb5c a03c 45c4 0d3e
000002c0: 9006 663d 6b96 24bc ed30 a83d 6088 73bd
000002d0: fa25 f1bc 06de 9e3d ef10 cabd 1cdb d1bc
000002e0: a943 333d 662a 08bd 208a b9bc 8ebb 60bd
000002f0: 0c10 843d c908 85bc 76f4 a83c 61e7 403e
00000300: 3926 1abe 053a 8f3d c586 eb3d bcf3 afbd
00000310: cd4c 84be fe58 3ebe cb40 d63d 9d10 40be
00000320: b6dd 6b3d cafc 423e ad6f cbbc 96c5 95bc
00000330: f03c 633d c950 3d3d fb7e 843d 485d 803e
00000340: 7fe5 6b3e f7b3 0a3e fcd9 06bd b140 423e
00000350: 6d79 473d 5ec2 b3bd 0816 e13d 0882 273d
00000360: 8f66 1dbe c145 313c b625 81bd cfd4 9bbd
00000370: 1794 8ebd e78b 47ba a684 c93d 711e 37bd
00000380: 7bf1 a6bb 2842 023e 50b2 4a3d 7593 aebd
00000390: 4310 aabe 83d0 263d 36b5 283d 906f 82be
000003a0: 4b95 e43c 07ce ad3d 6323 703e ef55 443e
000003b0: f346 103d c86a e3bd 6920 94bd 4d52 f9bd
000003c0: 0c5f 16bf 5945 e3be ecbf 11be d5de 39bd
000003d0: 1072 c2bb a65a 7b3d add4 d7bd c28f 673d
000003e0: 45c7 ad3d 3406 69bd 7a49 a2bd acc2 c3bd
000003f0: 0e2f b1bd 6b11 99bd c311 68bc 9126 29be
0.0768008 0.12813365 0.07171257 0.15618949 0.22282815 0.12363852 0.050025754 0.10679492
0.12628242 0.14211604 -0.11782548 -0.11760807 -0.13684236 -0.085448354 -0.04158414 0.15495001
-0.16187756 -0.10674925 -0.10038574 -0.3134815 -0.17234026 -0.0023198342 -0.25996172 -0.15515642
0.04467068 0.04921857 -0.09564827 -0.016693909 -0.1152243 0.10058277 0.08168564 0.06545831
0.10792057 0.030773686 0.046414062 0.21295968 -0.008561521 0.1269892 -0.032075416 -0.07030164
0.008595999 0.079166345 0.0149769755 -0.30073062 -0.23810737 0.10403939 0.04405944 0.07150626
-0.13699378 -0.06906747 -0.08008616 -0.044930898 -0.4697287 -0.03267631 0.11340196 0.08350293
0.1533593 0.07250612 0.041419286 0.10774319 0.054336946 -0.027481722 -0.053868424 0.07632777
-0.09385041 0.06300547 -0.0879818 -0.35775656 -0.0681366 0.065327935 -0.15302077 -0.12263113
-0.018860457 0.00836544 -0.16267131 -0.17610231 0.070242114 0.15868106 -0.16913557 -0.035884243
0.09687599 -0.13396323 0.018987019 -0.14130916 -0.0038808899 0.024415273 -0.02568743 -0.08624952
0.04988429 0.21332377 -0.24739257 -0.17105684 -0.07416133 0.04451207 -0.050017867 0.0018202348
0.1591084 0.19292542 0.21772268 -0.27911934 -0.14336303 -0.041588895 -0.14161755 0.09061708
-0.0016205482 -0.06952246 -0.030172426 -0.0061982176 -0.26365945 -0.38120776 -0.242791 0.10117505
0.026464412 -0.023227436 0.19518682 0.2559169 0.3098283 -0.06426809 0.023931028 -0.019886727
-0.1554783 0.0625709 -0.101443805 -0.091384016 0.0028358276 -0.076336674 0.18599278 0.23863952
0.02802281 0.011293039 -0.014424991 -0.13060494 -0.18288225 -0.2500294 -0.23285553 -0.0038499662
-0.01787131 0.14556253 -0.056519974 0.0436417 0.047302928 0.047502417 -0.0021321087 0.08410829
0.09481628 0.11305418 0.045233507 -0.060905702 0.015916703 -0.10758198 -0.015959887 0.025362108
-0.04780859 0.15511167 0.28515196 0.13130185 -0.0076964633 0.07651297 0.102715895 -0.13523062
0.0201259 -0.05102094 -0.10929257 0.07179017 -0.077000186 -0.12361728 0.07569063 -0.17725427
0.02765691 0.03783888 -0.05627423 -0.05626912 0.018145783 0.014613797 0.019575557 0.13844402
0.056158602 -0.010045628 0.08212457 -0.05945623 -0.029437054 0.07757191 -0.09866511 -0.025617175
0.043765698 -0.03324356 -0.022648871 -0.054866366 0.06448373 -0.01623954 0.02062438 0.18838264
-0.15053643 0.06993488 0.115003146 -0.085914105 -0.25839844 -0.18588635 0.10461577 -0.18756337
0.057584487 0.19041744 -0.024833525 -0.018282693 0.055478036 0.04621962 0.06469532 0.25071168
0.23036765 0.13545214 -0.03292273 0.1896999 0.048699785 -0.08777307 0.1099053 0.04089549
-0.15371154 0.010819853 -0.06306021 -0.076089494 -0.0696184 -0.00076120946 0.09839754 -0.044706766
-0.0050947047 0.12720549 0.04948646 -0.08524219 -0.33215532 0.040726196 0.04118844 -0.2547574
0.02790322 0.08486562 0.23450999 0.19173406 0.035223912 -0.11104351 -0.07232744 -0.12173901
-0.5873878 -0.44388846 -0.14233369 -0.045378525 -0.0059340075 0.061365746 -0.105386116 0.056533583
0.08485273 -0.05689068 -0.07924171 -0.09558615 -0.08651553 -0.07474025 -0.014164391 -0.16518618

rb2.conv1.bias f4 [20]
00000000: b2d4 d9b7 8b3a 9037 6f4d 1538 880e 0038
00000010: f5fc 0ab6 f007 eeb4 f752 1c37 0813 aeb7
00000020: 6290 5fb8 04f1 46b8 0e21 ceb6 d7fd 5e37
00000030: 0222 0db8 8b1a ccb7 b0c1 a537 6632 f537
00000040: e196 5638 53fc 2238 d7d6 9c36 4a2d d237
-2.596746e-05 1.7193399e-05 3.5596484e-05 3.053111e-05 -2.0710843e-06 -4.433673e-07 9.317641e-06 -2.0751278e-05
-5.330181e-05 -4.7431342e-05 -6.1431265e-06 1.3291333e-05 -3.3648692e-05 -2.4331055e-05 1.9759726e-05 2.9229745e-05
5.1162093e-05 3.8858805e-05 4.674173e-06 2.505504e-05

rb2.bn1.weight f4 [20]
00000000: 06a0 543f 4f35 5e3f 781a 653f 6ab2 863f
00000010: 599e 883f 671f 3d3f 9ee8 733f 8ee6 583f
00000020: ffec 2f3f 332a 5a3f acf0 473f 0793 813f
00000030: 713c 823f 4f87 753f 903d 6b3f a470 8a3f
00000040: 57d4 663f 029f 623f 6dfe 753f 6328 723f
0.83056676 0.8680009 0.89493513 1.0523198 1.0673324 0.7387604 0.9527682 0.847268
0.68721 0.8522064 0.7810161 1.0122994 1.0174695 0.9590959 0.9189081 1.0815625
0.90167755 0.88523877 0.9609135 0.94592875

rb2.bn1.bias f4 [20]
00000000: a9d3 fa3c d7fa 23be ad55 f83d 4e02 cdbb
00000010: 30b2 8bbe 1a82 8ebd 4ead 0e3d c633 2d3e
00000020: a973 bdbb c977 b53d bab1 233d f839 823d
00000030: b9da b0bd a2f9 c73c 19d1 d8bd f158 a0bd
00000040: 46ff 113e 2b67 8e3b f509 ff3d 0cae bfbd
0.030618506 -0.16013657 0.12125716 -0.0062563783 -0.27284384 -0.06958409 0.034833245 0.16914281
-0.00578161 0.08860738 0.039964415 0.06358713 -0.08635468 0.024411026 -0.10586757 -0.07829464
0.14257535 0.0043457947 0.12453071 -0.09359369

rb2.bn1.running_mean f4 [20]
00000000: 2598 b4bf afcb 3fbe 4799 d0bf cdde 38c0
00000010: 2daf 9fbf 6fe4 293e 9107 b0bf 3eb6 b8bf
00000020: 3c9a ad3f 5f61 64be ad3e ccbe 9e5a 8bbf
00000030: 8817 1fc0 00d9 17bf c110 4bbf 8901 e9bf
00000040: a25f 03c0 e691 c1be d905 e1bf bb74 4ebe
-1.4108931 -0.18730043 -1.6296777 -2.8885987 -1.2475334 0.16591047 -1.3752309 -1.4430616
1.3562694 -0.22302769 -0.39891568 -1.0887029 -2.4858112 -0.5931549 -0.7932244 -1.8203593
-2.052712 -0.37806624 -1.757991 -0.20161717

rb2.bn1.running_var f4 [20]
00000000: 3e03 cc3f 34c0 bc3f 14eb f33f 3fb6 3e40
00000010: c78f 1f40 523a c03f a46c 1f40 5499 2140
00000020: c70b aa3f a726 a13f b30a b83f f89a 1840
00000030: 2f14 2a40 e997 0a40 511d ba3f cf35 3540
00000040: 0d3f 2040 8aec fb3f 3142 ec3f 352f 0b40
1.593849 1.4746156 1.9056115 2.9798734 2.4931505 1.5017798 2.491006 2.5249834
1.3284844 1.2589921 1.4378265 2.3844585 2.657482 2.1655219 1.4540197 2.8314092
2.5038483 1.9681561 1.84577 2.1747563

rb2.conv2.weight f4 [20, 20, 3, 3]
00000000: b4ed 5cbc c647 cb3d 42af 7bbd 0756 7c3c
00000010: abb2 a73c effc f2bd 2e5f f6bc 2a21 0cbe
00000020: 8808 91bd b093 55be 4204 193e c2c6 073e
00000030: dee2 a43c b7e0 383e f4cb fc3d 81b1 773d
00000040: 7737 843d 2b85 163e 5469 8d3c 8229 53bd
00000050: 17b7 3a3d c18e 1e3e c273 533d 487d 4739
00000060: 8b52 553b 8714 02bc b193 f5bd 2c08 39be
00000070: e261 b8bc 8f8b 0abe 524e cdbd df57 c93d
00000080: 8ce5 7ebe ebe1 93be 76e1 5ebd 0629 22bd
00000090: 44c9 01be e43c 9fbd f558 cebd 7281 1e3c
000000a0: 76e6 823c 85af 1bbd 725d aa3d 2188 193e
000000b0: 08c5 3a3d eff8 16be eafa 85bc 3237 a7bd
000000c0: 980f 2abe a97e 1c3e dd94 f23c f1c4 9c3d
000000d0: 0a6e 99bc e25c cd3c d6c0 b9bc a85d 34bc
000000e0: 4bbc cbbd 6157 bd3d a8db 10bb 77ec b1bd
000000f0: 92b0 05be 2e35 28be 643b 0d3d 53f6 43be
00000100: 6693 91bd a4ba 0bbe cfe2 26bd 4631 0bbe
00000110: 79aa 21be f241 debd aa78 58be d79c 883d
00000120: 290d 313e 4ede 87be 6d97 69be 6d13 7e3e
00000130: 8098 3c3d da33 e5bd 3701 adbd c1bb f83c
00000140: a068 fa3d a47a 543d d029 5abe 499f 62be
00000150: e584 b13d 6f59 dabd 7409 093e 8b92 44bd
00000160: 9246 823d 2fa0 8d3e f2d9 5c3c 5c2e 8f3c
00000170: ab0e c1bd fbc1 3a3e bc69 9c3d 9a2e 8ebd
00000180: a3c1 8e3d a0c5 1abe 1cdf 89be 457a cf3b
00000190: 06a9 803d e2f4 153e 0fce 1c3c d3b5 59bd
000001a0: eac6 023e ca3c aebd 0aa0 ddbd 578f a7bd
000001b0: b30c f7bc 34a3 6e3d 4544 adbc 025b 0dbe
000001c0: 4801 12be 4019 d2bd 1cce a0be 803c 3dbe
000001d0: 5357 41be 55c6 6f3c 10ea 203d f56c 39bc
000001e0: 0fa0 f13d f929 07bd d449 8c3d dff3 e63d
000001f0: c053 7dbb d9c0 fdbb 85e4 323e 6764 6b3c
00000200: 71e8 253e f9b1 44bc 9e65 c6bd 0a8d f13d
00000210: c115 1b3d 09b3 f33d da9a 4a3e e71b 833d
00000220: d136 833d 2b37 fc3d b26e 963b ed78 c73d
00000230: b6b8 b43d ec44 b33c 8f47 dcbc 8672 58be
00000240: a8f5 773d 4b60 a4bb ccd8 183d eac9 563d
00000250: bea2 db3d 47ea 2a3d 982b d1bd 1087 3cbd
00000260: 79c8 393d 8731 953d d6ca d3bd 866a 073c
00000270: 2c9b 883c 25b5 23be 3b76 353d 2864 8439
00000280: 63b0 e4bc 1b2f 73bd 92d2 0cbe 722f bcbb
00000290: ef86 82bc df24 fabd 1c88 ef3d 67af 703d
000002a0: 9926 80be cf9d 35bd 23dd f1bd 3581 7d3e
000002b0: 115e 4a3d ae77 d43d e878 843d 86ee a53d
000002c0: d61c 223e 1a01 173e c017 3a3e ab21 323d
000002d0: 4d4f 0a3e 5d01 083e b40b 3fbe 3f94 61be
000002e0: 398b 8f3d a73c e3bd cd5a 943b a8c6 7abd
000002f0: f38f fabd bb1f 92bd 76e4 6ebe 298b 4dbd
00000300: 7933 0e3e e80c 01bd 2f50 933d 6726 983d
00000310: 1b47 823d 58ce a1ba 9d2d c8bd 4cf6 adbd
00000320: 1fc7 75bd 23fe 63be 5abc acbd e70f 2fbd
00000330: d9fa 03bd d141 103d 4d49 413d f769 10be
00000340: e5c1 0a3c d940 82bc 37e5 12be 2305 ac3d
00000350: fed0 eebd 7bbb 67be 18db 1dbe 589f 1abe
00000360: 97ea 45be 6ab7 08be f33a f2bd 3318 8cbd
00000370: f18b 9c3b 7a53 2abe f531 cc3d 38a4 8dbd
00000380: 6430 f8bd b2a0 72bd c0ba 98bd eb64 213e
00000390: d2d5 6abe 0851 5dbe 8840 803d cb99 093d
000003a0: ffa6 acbc a7c9 a53d 1b5d ccbc 205b 10bd
000003b0: 9be5 1a3e 8235 21bd d79a a33c 5887 2c3d
000003c0: c4e9 14bb d738 003e aaa4 43bc 0543 1c3d
000003d0: 47a7 cc3c c6bd 55be 2b44 843d 6763 e23d
000003e0: 1004 a5bd 6f24 01bd 196b 7fbd 6abb ecbd
000003f0: 4f49 02be 0fef 5cbd 6aa9 aabd fd66 e23d
-0.013484407 0.09925799 -0.061446436 0.01540137 0.020470938 -0.118646495 -0.030074682 -0.13684526
-0.07081705 -0.2085712 0.1494303 0.13259414 0.02012771 0.18054472 0.123435885 0.060472015
0.064558916 0.14699237 0.017262138 -0.051553257 0.045584764 0.15484144 0.051624067 0.0001902479
0.003255042 -0.007939464 -0.119910605 -0.18069524 -0.022507612 -0.135298 -0.10024704 0.09831213
-0.24892253 -0.288833 -0.054414235 -0.039589904 -0.12674433 -0.07775286 -0.10075561 0.009674417
0.015979033 -0.038009185 0.083186045 0.14993335 0.04559806 -0.14743398 -0.016354997 -0.081648245
-0.16607511 0.15282692 0.029612 0.07654751 -0.018729229 0.025068704 -0.02267496 -0.0110086575
-0.099480234 0.09245182 -0.0022103582 -0.0868768 -0.13055637 -0.16426536 0.034480467 -0.19136934
-0.07108192 -0.13645416 -0.040743645 -0.13593015 -0.15787686 -0.10852422 -0.2113978 0.0667054
0.17290176 -0.26536793 -0.2281167 0.24812098 0.046043873 -0.111915305 -0.08447497 0.030362966
0.12226987 0.05187477 -0.21305013 -0.22131075 0.08667926 -0.10661589 0.13382512 -0.047991317
0.063611165 0.27661273 0.013479697 0.01747816 -0.09426626 0.1823806 0.07637355 -0.06942482
0.06970527 -0.1511445 -0.2692803 0.0063317143 0.06282239 0.14644197 0.009570613 -0.053151917
0.12771192 -0.08507688 -0.10821541 -0.08181637 -0.030157423 0.05826111 -0.021150718 -0.13804248
-0.14258301 -0.10258722 -0.3140725 -0.1848011 -0.18880968 0.014634688 0.03928572 -0.011317481
0.11798107 -0.032999013 0.06850019 0.112769835 -0.0038654655 -0.0077439365 0.17469986 0.0143671995
0.1620195 -0.012005323 -0.09687351 0.11794479 0.037862543 0.118993826 0.19785634 0.06401806
0.0640694 0.1231521 0.0045908326 0.09739862 0.08824293 0.02188345 -0.02688959 -0.21137437
0.06053701 -0.005016362 0.03731613 0.052438654 0.107244 0.04172733 -0.10213393 -0.046027243
0.0453572 0.07284837 -0.10341422 0.008265143 0.016675554 -0.1598707 0.044302206 0.00025251624
-0.027916139 -0.059371095 -0.13752201 -0.0057429606 -0.015933482 -0.12214064 0.11695883 0.058761027
-0.25029448 -0.04433995 -0.118097566 0.2475632 0.049406115 0.103743896 0.064683735 0.08102135
0.15831313 0.14746514 0.18173122 0.04348914 0.13506813 0.1328177 -0.18656808 -0.22029208
0.070089765 -0.11095553 0.004527426 -0.06122461 -0.122344874 -0.07134958 -0.23329338 -0.05018154
0.13886823 -0.03150645 0.07193028 0.074292 0.063612185 -0.001234482 -0.09774325 -0.08494243
-0.06000435 -0.22264914 -0.08434363 -0.042739775 -0.03222165 0.035219017 0.047189046 -0.14102922
0.00846908 -0.015900062 -0.14345251 0.08399417 -0.11660956 -0.22630112 -0.15415609 -0.15099847
-0.1932777 -0.13351217 -0.1182765 -0.06840553 0.0047774245 -0.16633406 0.09970466 -0.06916088
-0.12118605 -0.059235282 -0.07457495 0.15761153 -0.22933128 -0.21612942 0.06262308 0.033593934
-0.021075724 0.08095103 -0.02494674 -0.035243154 0.1512665 -0.03935767 0.019971294 0.04212126
-0.0022722343 0.12521683 -0.011941114 0.038149852 0.024982108 -0.20873174 0.064583145 0.11054116
-0.080574155 -0.031528886 -0.062357996 -0.11559184 -0.12723278 -0.05393892 -0.083330944 0.110548

rb2.conv2.bias f4 [20]
00000000: 53ee 5038 66f6 a5b7 4414 7bb7 8bbd f8b7
00000010: 58a4 5c37 1ee5 5ab8 bcfa 41b8 0682 34b7
00000020: b2ee b637 6ebe 5338 804f 68b7 41a9 5538
00000030: 43b4 b6b6 3d18 f237 a4c5 8237 c2a9 4038
00000040: a486 7736 7f68 6bb8 c64d a536 48fa 43b8
4.981302e-05 -1.9784271e-05 -1.4965484e-05 -2.9652167e-05 1.3151286e-05 -5.2188632e-05 -4.62483e-05 -1.07591095e-05
2.1807242e-05 5.048367e-05 -1.3846788e-05 5.0940787e-05 -5.445008e-06 2.8859935e-05 1.5589241e-05 4.5934466e-05
3.688424e-06 -5.6125686e-05 4.926437e-06 -4.6724716e-05

rb2.bn2.weight f4 [20]
00000000: abee 593f abfe 6b3f 7e59 983f 64d3 8e3f
00000010: baf9 983f e700 8b3f 93c1 9f3f 77aa 9c3f
00000020: 80df 9d3f 58c1 933f 82b4 943f 0c6a 803f
00000030: 0c07 953f a190 813f a86f 8d3f 0f0b a33f
00000040: 0505 ab3f 3b41 a53f ab11 8e3f 058d 5d3f
0.85129803 0.9218547 1.1902311 1.1158261 1.195121 1.085965 1.2480949 1.2239522
1.2333832 1.1543379 1.1617587 1.0032363 1.1642776 1.0122262 1.10497 1.273775
1.3360907 1.2910532 1.1099142 0.86543304

rb2.bn2.bias f4 [20]
00000000: 015c 4f3e 7755 453d e933 42be 489f ceb9
00000010: 334f a0bd 0426 2fbe dae0 bb3d 1a09 75be
00000020: f1e3 653e b449 27be 6599 5c3d 505e 07be
00000030: e383 74bc 9efc 563d 332b 6bbc f742 343e
00000040: f480 f4bc 5ea2 f9bd 0a0b c93d 0098 8dbe
0.2024994 0.04817721 -0.18965115 -0.00039410056 -0.07827606 -0.17104346 0.091737464 -0.23929253
0.22450234 -0.1633671 0.053857226 -0.13219571 -0.014924022 0.05248701 -0.014353561 0.1760367
-0.029846646 -0.12189172 0.09816559 -0.2765503

rb2.bn2.running_mean f4 [20]
00000000: fc02 35bf 6c36 03c0 bdfe 90bf bf55 95bf
00000010: e8fa 4dbf 22c0 1a3e 75a2 9cbf 77b5 023f
00000020: 4c8e 37c0 30bc febd 2037 75bf 90e8 5a3d
00000030: 8712 ebbf ab0a 06bf b0e1 7f3e 44b8 b4bf
00000040: ec06 32c0 e079 25be 0faf 19c0 4339 4f3e
-0.7070768 -2.0501966 -1.132774 -1.1666793 -0.8046098 0.15112355 -1.2237078 0.51058143
-2.86806 -0.12438238 -0.9578724 0.053444445 -1.8365029 -0.5236003 0.24988437 -1.4118733
-2.7816725 -0.16159773 -2.4013097 0.20236687

rb2.bn2.running_var f4 [20]
00000000: 052b 6a3f 5cfb 773f cc79 393f c658 8f3f
00000010: 9c16 283f f3b0 913f d8f1 953f da12 263f
00000020: 9d5f 9a3f 96bb 623f 6ee9 4f3f 9d0f 393f
00000030: 8865 313f 99cf 853f 952b aa3f af93 7b3f
00000040: a25e 763f 6e3e 823f 3fd5 743f 8488 243f
0.9147189 0.9686792 0.7245147 1.1198967 0.656595 1.1382126 1.171443 0.64872515
1.2060429 0.88567483 0.8121556 0.7228945 0.6929555 1.0453979 1.329455 0.9827222
0.9623815 1.0175302 0.9563789 0.64270806

rb2.shortcut.conv.weight f4 [20, 10, 1, 1]
00000000: e07d aabc e40d 99bd 220b c6be 8f82 b9bd
00000010: 1752 033f 6fe2 65bc 89b2 d83b cce7 93bc
00000020: c13d 5abc 0d33 75be 8733 7ebd 2d20 fb3d
00000030: 8d3d 1bbf 4118 953d 7456 29be 70c7 55be
00000040: 640c f2bc 2b9d 34bc 7225 f93b 2b49 143c
00000050: 6912 cdbd 4046 f6bd f349 28bd 4749 c6bc
00000060: c9d3 533d 11bc c13e e761 263e 87f2 f53d
00000070: 6ad5 16be 26f1 bdbe a855 83bd 00b2 3fbb
00000080: 93e6 a83e a60a 073e f90b 483e 6f86 12be
00000090: 4df1 813e 43d4 553e ee1f db3e 881c 0abe
000000a0: 1e40 febd 4027 4e3d 29be 6a3d d607 db3e
000000b0: 1e10 983d 4da1 90bd f803 f1bc 97f0 a8bd
000000c0: 9e81 b93e 8671 d3bd 3379 8c3e 4dd8 3a3e
000000d0: 2c2b e3bd fc64 bebe 0966 8cbd 6348 91bd
000000e0: b4dc 473e 6ad3 0ebe 4070 10be 3f80 d0be
000000f0: d3f5 dfbd 2f65 233e 6ffa 963c 7e95 a6be
00000100: 2e0c d33c dbf8 c4be 67d3 83be 9adf 893d
00000110: e738 843e f711 93bd 2f87 393e 6a2f 443e
00000120: 64f9 0a3b 0701 4dbd 2340 21be 301f 51bd
00000130: 7933 96be 9a44 4e3d ce15 18bf e5c5 48be
00000140: e704 bcbd 3058 083e 5972 a6bd 6eb0 74bd
00000150: a45e 36bf 2354 b2bd c1df 8fba 732d 8a3e
00000160: e422 b9bd 5dda 353a 71c7 87be 20d3 b93e
00000170: f016 1dbe 82ba 49be 1d08 433e 2dba 00be
00000180: 5ebe 75bc 0a59 023e 1d9c 153a 0470 c9be
00000190: d746 96bc 9591 5d3d e353 d7be c291 883e
000001a0: aa1d a0be 5625 09be f94c 8a3e d961 583d
000001b0: 0015 053e 850e 523d e406 993b 5c7d b8bc
000001c0: 736d a3be e1b5 803e b4da 8a3e c58b 753e
000001d0: 7910 b7bd 7eba 9dbd 4615 113e 47c9 4cbe
000001e0: cd7b cabd 812e b5be c7ad 653e 1ddb a93e
000001f0: 547c cebd 2eb6 6ebc daa7 723d 0029 e1bd
00000200: 7839 c4be bb65 d83d 1a2f 61bd fc84 3fbe
00000210: 9c93 e1bd 9589 babd 3469 3a3d 0053 043e
00000220: ce82 d23d 6609 9a3d fddb 24bf b8ae 20be
00000230: 578b f43c b1f7 85be dcce 07bc f92b 3cbe
00000240: c95e 93bc 6c39 bfbe ce3e ccbe c1fb b9bd
00000250: c738 afbd c47c 433e 8360 bc3e d110 afbe
00000260: 5184 713e 93da ed3d 36bc 0fbe 4431 123e
00000270: f538 193e 8e15 fbbd e6e9 99be ca72 18bd
00000280: 17f3 263e 2d30 9f3e d042 06be 0f02 ae3d
00000290: 0105 1d3c aa2b 8e3e db8b 503e 5694 e13d
000002a0: fe8a d53d c7d6 1cb9 2f3d 7c3d 62e2 9e3d
000002b0: 8586 8ebe a243 023e ae68 403d f8cf 7d3e
000002c0: 558f 823e 1968 d33e f9a4 1a3e 4f1c fcbd
000002d0: a840 ec3c 7379 c23d 0d2c 0dbd 1946 86be
000002e0: 2dce 40bc ca0c 563d c491 89bb 6a97 9fbe
000002f0: 2780 f2be 88a8 3ebd 982f 79be 37a5 0cbe
00000300: 12ea c33e 9235 eabb 69e2 283e 2a52 86bd
00000310: 0266 9b3d 46d8 dfbd b8bc 61be 1ae0 c93d
-0.020811975 -0.074733526 -0.3868037 -0.09058105 0.51297134 -0.014031037 0.00661308 -0.018054865
-0.013320387 -0.23945256 -0.06206086 0.122619964 -0.60640794 0.07280017 -0.16536885 -0.2087686
-0.029546924 -0.0110238 0.007603341 0.009050648 -0.10013277 -0.12025118 -0.04108615 -0.024204863
0.051715646 0.37838796 0.16248284 0.12009149 -0.14729849 -0.37098044 -0.06412822 -0.0029250383
0.32988414 0.13187656 0.19535817 -0.14309095 0.2537941 0.20881753 0.42797798 -0.13487446
-0.12414573 0.0503304 0.057310257 0.42779416 0.07424949 -0.07062016 -0.029420838 -0.08249014
0.36231703 -0.10324387 0.27436218 0.18246575 -0.11092219 -0.3718642 -0.06855399 -0.07093885
0.19517785 -0.13947836 -0.1410532 -0.40722844 -0.10935559 0.15956567 0.018429963 -0.32535928
0.025762644 -0.38471112 -0.25747225 0.06732102 0.25824663 -0.07181161 0.18117975 0.19158712
0.0021205777 -0.050049808 -0.15747122 -0.051055133 -0.29336146 0.050358392 -0.5940827 -0.19606741
-0.091806225 0.13314891 -0.08127279 -0.05973857 -0.7123816 -0.08707454 -0.0010976718 0.269878
-0.09039858 0.0006937141 -0.2651935 0.36293888 -0.15340781 -0.19700053 0.19046064 -0.1257102
-0.014999 0.12729278 0.00057071616 -0.39343274 -0.018344326 0.054093916 -0.42056188 0.26673704
-0.31272632 -0.13393149 0.2701185 0.05282769 0.12996292 0.05128338 0.004670011 -0.022520714
-0.3191944 0.25138763 0.27119982 0.23979099 -0.08938689 -0.07701586 0.14168271 -0.19998656
-0.098868944 -0.35387042 0.22429572 0.33174983 -0.100823075 -0.014569802 0.059242107 -0.10994148
-0.38325095 0.105662785 -0.05497656 -0.18703073 -0.110144824 -0.09108273 0.045510486 0.12922287
0.10278855 0.07521324 -0.64398175 -0.1569165 0.029851599 -0.26165536 -0.008289065 -0.18376149
-0.017989533 -0.37348497 -0.39891666 -0.09081221 -0.08555751 0.19090563 0.36792383 -0.34192517
0.23585631 0.11613955 -0.1403664 0.14276606 0.14963134 -0.122599706 -0.30061263 -0.037218846
0.16303669 0.31091443 -0.13111424 0.084964864 0.009583713 0.27767688 0.2036585 0.11014621
0.10426901 -0.0001495733 0.061581787 0.07758023 -0.27837005 0.12721112 0.04697483 0.24786365
0.2549998 0.41290358 0.15101995 -0.12310087 0.028839424 0.09495821 -0.03446584 -0.26225355
-0.011767906 0.05225829 -0.004198285 -0.31170207 -0.47363397 -0.046547443 -0.24334562 -0.137349
0.3826452 -0.0071474994 0.16492619 -0.0655864 0.07587816 -0.10929923 -0.22044647 0.09857197

rb2.shortcut.conv.bias f4 [20]
00000000: 849a 8e36 2e54 ceb7 0f76 0138 0bf7 c0b7
00000010: 97db bdb7 faf0 49b8 0835 7038 34dc b5b7
00000020: 625b 2a38 2ebb 96b7 60e7 57b8 7b54 cfb7
00000030: bca4 39b8 7579 3d37 baec ee37 501e 7838
00000040: e893 0236 d3a6 01b8 6084 24b7 5f07 57b6
4.2499178e-06 -2.4596313e-05 3.0865947e-05 -2.3003222e-05 -2.263281e-05 -4.814656e-05 5.726985e-05 -2.1679421e-05
4.0616265e-05 -1.7968556e-05 -5.147548e-05 -2.4715662e-05 -4.4260858e-05 1.1293557e-05 2.8482045e-05 5.915604e-05
1.9457602e-06 -3.0911364e-05 -9.805983e-06 -3.2041787e-06

rb2.shortcut.bn.weight f4 [20]
00000000: 8d06 743f e1c1 323f b5c9 693f 8712 093f
00000010: d1e8 2f3f 1535 323f 6437 0c3f 2ac6 463f
00000020: 8ad4 4e3f ea2f 593f 52fa 103f 244a 2e3f
00000030: 80cc f83e 0d2c 5f3f 5dcc 8a3f 41e4 f63e
00000040: 6456 323f 14f4 083f 05a3 b53e 5fe4 3b3f
0.95322496 0.69827086 0.91323406 0.53543895 0.68714625 0.69612247 0.5477202 0.77646124
0.8079306 0.84838736 0.5663196 0.6808188 0.4859352 0.8717659 1.0843617 0.4822102
0.6966307 0.53497434 0.35475937 0.7339534

rb2.shortcut.bn.bias f4 [20]
00000000: 015c 4f3e 7755 453d e933 42be 489f ceb9
00000010: 334f a0bd 0426 2fbe dae0 bb3d 1a09 75be
00000020: f1e3 653e b449 27be 6599 5c3d 505e 07be
00000030: e383 74bc 9efc 563d 332b 6bbc f742 343e
00000040: f480 f4bc 5ea2 f9bd 0a0b c93d 0098 8dbe
0.2024994 0.04817721 -0.18965115 -0.00039410056 -0.07827606 -0.17104346 0.091737464 -0.23929253
0.22450234 -0.1633671 0.053857226 -0.13219571 -0.014924022 0.05248701 -0.014353561 0.1760367
-0.029846646 -0.12189172 0.09816559 -0.2765503

rb2.shortcut.bn.running_mean f4 [20]
00000000: e700 a8be a776 62bf c21b d4bd a031 833f
00000010: 8abd d43e 7be0 37bf 81fb 10bf 4946 58bf
00000020: 3d02 34bf f83a 0bbf 8117 3dbe 72d4 db3d
00000030: a614 3dbe eb52 3abf 7cd1 6cbf 670f 003e
00000040: 0862 623f 2993 433f aab9 56bf 1d9c 963d
-0.32813188 -0.884623 -0.10356857 1.0249519 0.41550857 -0.71826905 -0.56633765 -0.84482247
-0.70315915 -0.54386854 -0.18465997 0.1073388 -0.18464908 -0.7278277 -0.9250715 0.12505876
0.88430834 0.76396424 -0.8387705 0.07353995

rb2.shortcut.bn.running_var f4 [20]
00000000: 8ef6 fe3e e7fe c43e 8091 bb3e d081 073f
00000010: 86a5 db3e bb15 f43e 2b38 c23e 4804 0d3f
00000020: 7ebf ce3e 0fe1 9a3e d3ef de3e eadd 923e
00000030: 3cc4 7e3e c0a4 2b3f 1633 f93e af8d b93e
00000040: 59cf a63e 0937 d13e d0f0 093f 2105 1b3e
0.4979748 0.38475725 0.36634445 0.52932453 0.42899722 0.4767283 0.37933478 0.5508466
0.40380472 0.3024983 0.43542346 0.28684932 0.24879545 0.67048264 0.48671788 0.36240909
0.3258007 0.408623 0.53883076 0.15138675

res1_sc1.conv.weight f4 [20, 3, 1, 1]
00000000: a31d 0cbf 2119 b83d ae83 ab3e 0e7d 7abe
00000010: e4cb 0f3f 81d0 70be e7a4 413c ea2a 9cbe
00000020: 842b cbbe c63b c63e d71d afbe a1b0 acbe
00000030: 7360 f43e 3bb3 01be 7911 663e 230d 0cbf
00000040: 4a2c bebe 4e44 a73e 9528 34be 4a15 c03e
00000050: 0667 033f f8f3 b83e e630 10bf 7a8b a9be
00000060: 63f9 2d3e d58a 093f f266 35be aa6b 893e
00000070: 2991 82be f5e5 bdbe d08d c7bd 957c 81be
00000080: f2f9 c5be 9583 193e 4ddc abbd 0feb d5be
00000090: 3d99 b6be 57e5 4dbe 2cbf 5dbd 8445 883b
000000a0: e94b 1ebe 2e76 f5be bc6e 6abe 29cd 6d3e
000000b0: edf3 b53e 509e c33e 54d0 253e 4a87 85be
000000c0: 9b64 bf3d 79b2 acbe 94c2 6e3d b44a 723d
000000d0: 85a7 b2be b874 6a3d 25f9 783e fe05 a03e
000000e0: b1ad b3bd 699a 05bf 7416 173e 21b7 913d
-0.5473272 0.08989168 0.334989 -0.24461767 0.5617049 -0.23517038 0.011819101 -0.3050149
-0.39681637 0.3871748 -0.34202453 -0.33728507 0.47729835 -0.12666027 0.22467603 -0.54707545
-0.37143165 0.326693 -0.17593606 0.37516242 0.51329076 0.36123633 -0.56324613 -0.33114225
0.16989665 0.53727466 -0.17715052 0.26839954 -0.25501373 -0.37089506 -0.097438455 -0.2529036
-0.38667256 0.14991601 -0.083916284 -0.41780898 -0.35663787 -0.20107017 -0.054137394 0.0041586775
-0.15458645 -0.47941726 -0.22893804 0.23222794 0.35537663 0.3820672 0.16192752 -0.2607978
0.09345361 -0.33729914 0.058291033 0.059153274 -0.34893432 0.057240218 0.24313791 0.31254572
-0.087733634 -0.52188736 0.14754659 0.07115007

res1_sc1.conv.bias f4 [20]
00000000: 4b86 cb38 0fdb abb8 428d a236 6424 5538
00000010: 7a22 9637 96be 4bb7 c0a0 4736 bb02 9738
00000020: 8014 d638 e63a c537 f3ab e7b8 9e19 67b6
00000030: 583c ae37 0c31 b9b8 af32 d537 9a16 1eb8
00000040: 7b2d 7738 df4a d3b8 bb0b afb8 3a60 04b9
9.704808e-05 -8.194718e-05 4.844421e-06 5.081705e-05 1.7897448e-05 -1.2144117e-05 2.974688e-06 7.20075e-05
0.000102081336 2.3511657e-05 -0.000110469664 -3.4436594e-06 2.0770516e-05 -8.830623e-05 2.541518e-05 -3.7691185e-05
5.8931746e-05 -0.0001007521 -8.346835e-05 -0.00012624348

res1_sc1.bn.weight f4 [20]
00000000: eb33 523f b54e 6b3f 1a02 2f3f 19df 113f
00000010: d319 063f 2e5e 1e3f e034 0d3f 5f2c 193f
00000020: 845e 1f3f f651 273f 25b3 173f c0ef 153f
00000030: 2c6f f43e 0690 1a3f 3cdf 273f 916d c63e
00000040: 1bff 0c3f eac0 fb3e 60a7 df3e ac59 503f
0.8211047 0.9191697 0.6836258 0.56981045 0.52383155 0.61862457 0.55158806 0.5983333
0.62253594 0.6535944 0.5925773 0.58568954 0.47741067 0.6037601 0.65575004 0.38755468
0.5507676 0.4917062 0.43682384 0.8138683

res1_sc1.bn.bias f4 [20]
00000000: 015c 4f3e 7755 453d e933 42be 489f ceb9
00000010: 334f a0bd 0426 2fbe dae0 bb3d 1a09 75be
00000020: f1e3 653e b449 27be 6599 5c3d 505e 07be
00000030: e383 74bc 9efc 563d 332b 6bbc f742 343e
00000040: f480 f4bc 5ea2 f9bd 0a0b c93d 0098 8dbe
0.2024994 0.04817721 -0.18965115 -0.00039410056 -0.07827606 -0.17104346 0.091737464 -0.23929253
0.22450234 -0.1633671 0.053857226 -0.13219571 -0.014924022 0.05248701 -0.014353561 0.1760367
-0.029846646 -0.12189172 0.09816559 -0.2765503

res1_sc1.bn.running_mean f4 [20]
00000000: c726 acbc 0d67 673c c5d2 7b3d 0a41 223d
00000010: 6222 2ebd 24ed 183a 32ca 92bd bc25 4c3d
00000020: 5875 20bc c23e 383d 7c4b 803d ed52 453d
00000030: eb10 ff3c ea60 853d 8107 33bd e42c 013c
00000040: 5404 823b 6736 c63b 1731 64bc b3d0 f33b
-0.021014584 0.01412369 0.061480302 0.039612807 -0.04251326 0.00058336766 -0.07167472 0.049840674
-0.009793602 0.044981726 0.062643975 0.048174787 0.031135997 0.065126255 -0.04370833 0.007884238
0.003967801 0.0060489657 -0.01392772 0.0074406504

res1_sc1.bn.running_var f4 [20]
00000000: a9a3 b53c abb1 d33b 7223 f33d ef41 0c3d
00000010: e4f9 a53d fdcb d13d 9f98 093e f2ba a83d
00000020: 99e9 943d 94f8 283d 5e94 073e 8006 1d3d
00000030: e462 ba3d 2c0c d03d ffb9 223d d4ba ee3c
00000040: 84a5 1c3c 7ce0 693c 2988 623d bdda f63c
0.022172766 0.0064603887 0.11871995 0.034242567 0.081043035 0.10243986 0.13437127 0.08238782
0.07271118 0.041252688 0.13240191 0.038336277 0.09100893 0.101585716 0.03972816 0.029141821
0.009560946 0.014274713 0.055305634 0.0301336
