models/dense_max/epoch_0021.pth (torch, 645162 bytes, 174 tensors)

rb1.conv1.weight f4 [10, 3, 3, 3]
-0.07709383 0.08398771 -0.07668185 -0.23206815 0.27279353 0.18370304 -0.20287606 0.18984428
-0.122389905 -0.17562148 0.013351461 -0.04264125 -0.31166056 0.282938 0.16759694 -0.017308353
0.27392656 -0.2306108 -0.02100173 0.0033418029 -0.09002406 -0.22784635 0.047684718 0.012176346
0.12948714 0.06692516 0.14076683 0.05701256 0.022009313 0.16221574 0.061025836 0.1394366
-0.3582834 -0.05525489 0.03964407 -0.0784679 -0.035772692 -0.02275185 -0.010081347 -0.03662367
0.42718774 -0.2331279 -0.05364366 0.090059035 -0.13344885 -0.13503824 -0.17273161 0.11868569
0.011559041 0.34997037 -0.2710155 -0.007269855 0.095120385 0.04589246 0.029718084 0.2739854
0.18813252 -0.1326691 -0.0742942 0.095608555 -0.06116344 -0.22234851 0.0072272266 0.24451458
0.24076296 0.3136385 0.0035552913 -0.17376083 -0.11621859 -0.11128675 -0.26912394 -0.18068203
0.05955285 0.17065325 0.059389398 0.0013686791 -0.043478757 -0.0938611 0.10245889 -0.20385264
-0.12257522 -0.19301564 0.0325639 -0.15856533 0.073472016 -0.30905083 -0.16585934 0.046359424
0.09953789 0.16321836 -0.108377896 -0.15664145 -0.15798633 0.21534263 -0.26988223 -0.12332228
0.27217597 0.022310797 0.021262946 -0.048471604 0.0209314 -0.13905816 0.012807082 -0.1707997
-0.12559839 0.1883969 0.017882617 0.22950296 -0.24134867 -0.22693928 0.19678862 -0.08811022
-0.17346744 0.1441047 -0.11351745 -0.011400983 0.22719769 0.23447286 -0.21865939 -0.088654205
-0.07938654 -0.018598352 0.16048983 0.09477235 0.11562613 0.12287422 0.26499575 0.083774574
-0.0693506 0.21732256 0.024740374 -0.28560624 0.1488196 0.019720111 -0.18143882 -0.18536797
-0.14287059 0.13233872 0.019592265 -0.14359875 0.007452659 0.118487604 -0.09178929 0.023362458
0.0702688 0.18964499 0.22158287 -0.050336573 -0.4444922 -0.11752765 0.1723053 -0.1297432
-0.33066347 0.018790897 -0.081221074 0.22702685 -0.08821008 -0.1729703 0.0020320504 -0.22721544
-0.3356087 0.018236294 -0.026072435 -0.04027529 0.10754875 0.07868035 0.19936493 -0.11052584
-0.026360942 -0.034560684 0.026581798 0.06389184 0.027390435 0.07711523 0.12996306 0.29575866
-0.054121766 0.03406368 0.05159548 -0.17289451 -0.25720188 -0.14940973 -0.09522447 -0.0046944795
0.11604217 0.15003048 -0.0752249 0.39705005 0.2752575 0.012548228 -0.13608748 0.19529368
-0.26619536 -0.06472449 0.07014575 0.2217939 -0.048548054 0.1986806 0.12046142 -0.019571198
0.20120354 -0.2237345 -0.38491043 -0.0041028545 0.1487306 0.13223739 -0.25244075 -0.12350398
-0.09182589 0.06795001 -0.08831945 -0.15189902 0.36699364 0.2613226 -0.093140334 -0.035462715
-0.28114605 0.1018048 -0.005377329 -0.023664102 0.18965577 0.2928148 -0.00879497 0.14681536
-0.05714359 -0.086719155 -0.14778101 -0.15219271 0.014661735 0.12198531 -0.06604262 0.24229915
-0.29290652 -0.20366922 0.063222416 0.09457415 -0.10615566 0.11554569 0.20374171 0.023530299
0.03694309 0.01760033 -0.23079024 0.25259158 0.45936996 0.21921773 0.15547125 0.30047432
0.057104714 -0.08401595 -0.18693797 -0.33778116 0.17567694 0.3059071 0.04402723 -0.06449996
00000000: 5fe3 9dbd c001 ac3d 600b 9dbd 46a3 6dbe
00000010: 98ab 8b3e a61c 3c3e bebe 4fbe 8a66 423e
00000020: 8fa7 fabd 1ed6 33be 16c0 5a3c 97a8 2ebd
00000030: f991 9fbe 40dd 903e 889e 2b3e 3fca 8dbc
00000040: 1a40 8c3e 3d25 6cbe d20b acbc 2602 5b3b
00000050: 895e b8bd 8e50 69be 0d51 433d 4c7f 473c
00000060: 4798 043e 0f10 893d 2e25 103e 0186 693d
00000070: e04c b43c e21b 263e 3af6 793d 78c8 0e3e
00000080: ec70 b7be f452 62bd d261 223d c7b3 a0bd
00000090: 6386 12bd 1662 babc 3c2c 25bc b402 16bd
000000a0: 5ab8 da3e 15b9 6ebe 74b9 5bbd df70 b83d
000000b0: d1a6 08be 7747 0abe 8ee0 30be 7c11 f33d
000000c0: 2262 3d3c 512f b33e 8bc2 8abe f737 eebb
000000d0: 7ace c23d bbf9 3b3d 5773 f33c d047 8c3e
000000e0: d0a5 403e 69da 07be 8f27 98bd 6bce c33d
000000f0: 8486 7abd 54af 63be 5fd2 ec3b 0862 7a3e
00000100: 918a 763e 3a95 a03e e4ff 683b 5cee 31be
00000110: 0304 eebd 4fea e3bd 9dca 89be b604 39be
00000120: b0ed 733d babf 2e3e 4c42 733d 4065 b33a
00000130: c816 32bd 403a c0bd f7d5 d13d bfbe 50be
00000140: b808 fbbd e4a5 45be b961 053d f35e 22be
00000150: 7f78 963d e93b 9ebe 08d7 29be 61e3 3d3d
00000160: 85da cb3d b722 273e 3bf5 ddbd 9e66 20be
00000170: 2bc7 21be c782 5c3e 012e 8abe 6490 fcbd
00000180: a65a 8b3e 22c5 b63c a12f ae3c 298a 46bd
00000190: 5478 ab3c 4365 0ebe ccd4 513c 1ee6 2ebe
000001a0: dd9c 00be 1eeb 403e 917e 923c d302 6b3e
000001b0: 1b24 77be c562 68be f582 493e 2273 b4bd
000001c0: 73a1 31be 2f90 133e d67b e8bd 30cb 3abc
000001d0: 83a6 683e a719 703e 3fe8 5fbe 5690 b5bd
000001e0: 6995 a2bd 925b 98bc 7257 243e 0118 c23d
000001f0: 64cd ec3d 7ba5 fb3d 86ad 873e 0192 ab3d
00000200: b007 8ebd ce89 5e3e 53ac ca3c fb3a 92be
00000210: 2a64 183e 128c a13c 19cb 39be 1ad1 3dbe
00000220: ab4c 12be cd83 073e f57f a03c 8d0b 13be
00000230: 6f35 f43b a1a9 f23d 06fc bbbd a062 bf3c
00000240: 17e9 8f3d 4c32 423e 9fe6 623e b92d 4ebd
00000250: 7b94 e3be 56b2 f0bd cd70 303e 67db 04be
00000260: b94c a9be 5eef 993c 3c57 a6bd ba79 683e
00000270: 7da7 b4bd 201f 31be 262c 053b 2aab 68be
00000280: e7d4 abbe 4864 953c dc95 d5bc b4f7 24bd
00000290: 8542 dc3d 2a23 a13d 5226 4c3e 5f5b e2bd
000002a0: e7f2 d7bc 818f 0dbd 12c2 d93c bad9 823d
000002b0: e861 e03c 97ee 9d3d 0915 053e ae6d 973e
000002c0: c9ae 5dbd 5b86 0b3d c855 533d 420b 31be
000002d0: f7af 83be ddfe 18be 0c05 c3bd 26d4 99bb
000002e0: 84a7 ed3d 97a1 193e 830f 9abd 254a cb3e
000002f0: 8dee 8c3e 1597 4d3c 845a 0bbe 11fb 473e
00000300: c24a 88be 468e 84bd 93a8 8f3d f11d 633e
00000310: 53da 46bd ed72 4b3e 7ab4 f63d c753 a0bc
00000320: 4d08 4e3e a81a 65be fb12 c5be 3d71 86bb
00000330: d64c 183e 3d69 073e ea3f 81be a8ef fcbd
00000340: 360f bcbd 6029 8b3d d4e0 b4bd 6b8b 1bbe
00000350: 97e6 bb3e 13cc 853e 5cc0 bebd 5a41 11bd
00000360: 60f2 8fbe 097f d03d 4e34 b0bb 38db c1bc
00000370: 1f35 423e d2eb 953e c718 10bc c456 163e
00000380: 660f 6abd d099 b1bd e853 17be 68d8 1bbe
00000390: c637 703c 6fd3 f93d 5a41 87bd 451d 783e
000003a0: d8f7 95be aa8e 50be c17a 813d 18b0 c13d
000003b0: 2368 d9bd 38a3 ec3d aba1 503e 9dc2 c03c
000003c0: a351 173d 912e 903c 4754 6cbe af53 813e
000003d0: 8a32 eb3e 9d7a 603e db33 1f3e c5d7 993e
000003e0: a2e6 693d 8e10 acbd ab6c 3fbe a7f1 acbe
000003f0: a8e4 333e db9f 9c3e e655 343d 8e18 84bd

rb1.conv1.bias f4 [10]
0.00015590659 -0.00026019374 0.00020338049 -0.00019153899 1.36612325e-05 0.00015376268 9.561762e-05 -0.00022453633
-0.00010115445 1.1408829e-06
00000000: db7a 2339 9d6a 88b9 8942 5539 dbd7 48b9
00000010: 8c32 6537 5b3b 2139 5286 c838 8371 6bb9
00000020: e222 d4b8 7020 9935

rb1.bn1.weight f4 [10]
0.7889099 1.2446946 0.85738945 0.8697043 0.5796983 0.7994956 0.66836226 0.9838503
0.8243482 0.6683763
00000000: 00f6 493f 2752 9f3f e07d 5b3f f1a4 5e3f
00000010: 1c67 143f beab 4c3f ca19 2b3f 9ddd 7b3f
00000020: 7c08 533f b61a 2b3f

rb1.bn1.bias f4 [10]
0.33304474 1.1477414 0.006886513 0.04853063 0.049032763 -0.021615377 -0.008258331 0.78696245
0.5540977 0.13288444
00000000: d784 aa3e 31e9 923f 42a8 e13b 0ec8 463d
00000010: 94d6 483d bb12 b1bc f34d 07bc 5f76 493f
00000020: 59d9 0d3f dc12 083e

rb1.bn1.running_mean f4 [10]
-0.015346824 -0.010778119 0.016332518 0.046496697 -0.035178844 0.1412993 -0.09706025 0.0032914458
-0.016354127 -0.05314382
00000000: 3f71 7bbc b596 30bc c6cb 853c 5273 3e3d
00000010: b117 10bd c4b0 103e 86c7 c6bd 4cb5 573b
00000020: 17f9 85bc 56ad 59bd

rb1.bn1.running_var f4 [10]
0.075624935 0.039208774 0.193209 0.23872833 0.037232675 0.43945488 0.23127493 0.05955935
0.04021559 0.40005213
00000000: 3fe1 9a3d 6199 203d 95d8 453e 3375 743e
00000010: 4a81 183d 3b00 e13e 56d3 6c3e 81f4 733d
00000020: 1ab9 243d a2d3 cc3e

rb1.conv2.weight f4 [10, 10, 3, 3]
-0.02716962 -0.19201507 0.004073137 0.014887975 -0.1467182 -0.050885864 -0.00018956712 -0.042638037
-0.0144488895 0.014973344 0.17599964 -0.25723067 -0.2658268 -0.08953589 0.15312286 0.14701146
-0.20862967 0.008180638 -0.13255878 0.086565584 -0.110367656 0.010247297 -0.19873308 -0.17322864
0.019907178 0.11464926 0.14703892 0.14781599 0.16117002 0.13270141 0.09483395 0.10772599
0.030418657 -0.12495555 -0.06889469 -0.23343623 -0.13526857 0.055833288 -0.03653505 -0.009821431
-0.09929205 0.022094281 -0.062745005 -0.012982076 -0.079686075 0.08254058 0.23500659 0.1664032
-0.025546102 0.0071240854 -0.03907957 -0.04608619 0.061508473 0.1540813 -0.060323834 -0.03446711
-0.0882668 -0.09394575 -0.23241083 -0.07851023 0.096900105 0.069640756 -0.065814 -0.02929963
0.11859352 0.28134972 -0.054026656 -0.25406924 -0.39796737 0.012959725 0.16618687 0.08501336
-0.04231307 -0.16430685 -0.103733465 0.12489004 0.055706095 0.096626736 -0.18893573 -0.012237029
-0.043174796 -0.3181685 -0.32196233 -0.122976676 -0.17353345 -0.046941712 -0.05616324 -0.14262202
-0.08383316 0.05081038 -0.014289932 -0.11878571 0.11717143 0.007838071 0.076248415 0.3127205
-0.052686043 0.1606555 -0.10002239 0.10939575 0.089572884 -0.17518651 0.15738072 -0.4621613
0.06595272 -0.31042105 0.13015778 0.15412816 0.02160407 0.13158503 -0.10518879 0.010512839
-0.17047375 -0.1539294 0.022420706 -0.09282628 -0.052889787 -0.22176512 0.10597688 0.048587777
0.06927534 -0.043670684 -0.10451198 0.0023116209 -0.1992573 -0.019932153 0.17861815 0.21328866
0.048523303 0.07016737 -0.029631874 -0.081373334 -0.015389101 -0.14492467 -0.16372089 -0.08116067
-0.08030202 -0.08081137 -0.049370248 -0.061884966 -0.116572134 -0.07050565 -0.17532147 -0.054166034
0.10151443 0.15892935 0.10472467 0.15399987 0.17490827 0.123335786 0.1442264 0.18060608
0.024013398 0.09002343 -0.27322468 -0.0031309717 -0.037650935 -0.2627295 0.1997687 -0.034056198
0.26760706 -0.009128537 0.104305595 -0.01306746 -0.21810901 0.026305351 -0.10664355 0.15538743
-0.0059106937 0.1460217 -0.02328747 -0.03186624 -0.0058937217 0.021559138 0.05631749 -0.027618255
0.03794757 -0.07348974 0.14192006 0.036007322 0.025763787 -0.32241642 -0.06719029 0.0127377
-0.07234581 -0.015431458 0.07068322 0.06765938 0.06655242 -0.053010307 -0.13550648 0.006777255
-0.0596672 -0.16128922 -0.02791957 -0.01494534 0.1314459 0.15171787 0.26672682 0.05351366
0.03601838 0.35428065 0.060748357 -0.16666806 0.092051886 -0.107887216 -0.057628028 0.10335963
0.061462656 0.0026852407 0.01420179 0.04541985 -0.0001423528 0.2852919 -0.013724275 0.026270786
0.10894539 0.12436217 0.03073639 0.23816667 0.0787973 0.043635864 0.09660643 0.05578893
0.013947385 0.22455992 0.22773452 0.17903662 0.1790743 0.09568743 0.041609727 0.03800385
0.039838508 -0.10975769 0.023002159 -0.03626947 -0.11581336 0.019054841 -0.035922468 -0.102831565
0.017285202 -0.01030813 -0.11994441 0.1652269 0.101764515 0.00015208083 0.06990078 0.075588435
-0.019837987 -0.11130261 0.02578018 -0.05919637 0.28713873 0.2855129 -0.07389731 0.20134719
00000000: d392 debc 999f 44be f377 853b b1ec 733c
00000010: 4c3d 16be b26d 50bd 89c6 46b9 39a5 2ebd
00000020: 09bb 6cbc c252 753c 4039 343e bdb3 83be
00000030: 731a 88be 985e b7bd 3dcc 1c3e 2c8a 163e
00000040: 04a3 55be 1508 063c 7dbd 07be 4c49 b13d
00000050: 7008 e2bd 47e4 273c af80 4bbe d962 31be
00000060: 6114 a33c 3bcd ea3d 5f91 163e 135d 173e
00000070: c109 253e e1e2 073e 4d38 c23d 729f dc3d
00000080: 8c30 f93c b2e8 ffbd a918 8dbd e809 6fbe
00000090: d883 0abe 72b1 643d c7a5 15bd 11ea 20bc
000000a0: a159 cbbd 11ff b43c 7480 80bd c6b2 54bc
000000b0: 7432 a3bd 090b a93d 91a5 703e 9a65 2a3e
000000c0: 0f46 d1bc 2971 e93b e611 20bd dfc4 3cbd
000000d0: 4ff0 7b3d 7dc7 1d3e 2016 77bd 622d 0dbd
000000e0: 39c5 b4bd a166 c0bd 1bfd 6dbe f9c9 a0bd
000000f0: 9073 c63d d09f 8e3d 7ec9 86bd c705 f0bc
00000100: 29e1 f23d 120d 903e 0e4b 5dbd 5d15 82be
00000110: 61c2 cbbe 0755 543c e42c 2a3e 7c1b ae3d
00000120: 7850 2dbd 0e40 28be 3672 d4bd 59c6 ff3d
00000130: 132c 643d 3de4 c53d 5e78 41be d27d 48bc
00000140: 0ed8 30bd fbe6 a2be 3fd8 a4be 32db fbbd
00000150: c1b2 31be f445 40bd 6d0b 66bd 820b 12be
00000160: b8b0 abbd 8c1e 503d 5220 6abc ec45 f3bd
00000170: 93f7 ef3d 416b 003c 2128 9c3d e71c a03e
00000180: 52cd 57bd e082 243e 8ad8 ccbd e10a e03d
00000190: fd71 b73d 1864 33be 6928 213e 68a0 ecbe
000001a0: 3812 873d 82ef 9ebe 1548 053e c6d3 1d3e
000001b0: 05fb b03c 3abe 063e 386d d7bd 0b3e 2c3c
000001c0: ac90 2ebe ab9f 1dbe a1ab b73c b41b bebd
000001d0: f6a2 58bd 6516 63be 680a d93d fa03 473d
000001e0: 3be0 8d3d 08e0 32bd 610a d6bd 907e 173b
000001f0: 1b0a 4cbe c148 a3bc ade7 363e 5868 5a3e
00000200: 5fc0 463d e9b3 8f3d 8bbe f2bc 10a7 a6bd
00000210: 9122 7cbc 2267 14be 73a6 27be 9137 a6bd
00000220: 6375 a4bd 6e80 a5bd 7538 4abd 177b 7dbd
00000230: 5fbd eebd 4465 90bd 7987 33be 34dd 5dbd
00000240: cce6 cf3d 60be 223e e379 d63d 24b2 1d3e
00000250: 271b 333e 7997 fc3d 16b0 133e cdf0 383e
00000260: bfb7 c43c 345e b83d 1be4 8bbe fd30 4dbb
00000270: de37 1abd 7b84 86be 2b90 4c3e 837e 0bbd
00000280: cb03 893e dc8f 15bc 2c9e d53d e618 56bc
00000290: f857 5fbe 527e d73c ef67 dabd e21d 1f3e
000002a0: 7eae c1bb b686 153e 5dc5 bebc 2d86 02bd
000002b0: 1f20 c1bb ca9c b03c 2bad 663d ae3f e2bc
000002c0: e96e 1b3d ca81 96bd 7e53 113e 6a7c 133d
000002d0: 940e d33c c413 a5be 109b 89bd c9b1 503c
000002e0: 0a2a 94bd 3ad4 7cbc 5dc2 903d 0091 8a3d
000002f0: a34c 883d 5621 59bd 36c2 0abe bc13 de3b
00000300: 9865 74bd 0029 25be 95b7 e4bc 4ddd 74bc
00000310: c199 063e ee5b 1b3e 6b90 883e 2431 5b3d
00000320: 0288 133d 4664 b53e 45d3 783d 08ab 2abe
00000330: b385 bc3d f9f3 dcbd 5e0b 6cbd 37ae d33d
00000340: 44c0 7b3d ddfa 2f3b a0ae 683c 2a0a 3a3d
00000350: 8a44 15b9 c811 923e c8db 60bc d535 d73c
00000360: c31e df3d 98b1 fe3d e2ca fb3c f7e1 733e
00000370: 7b60 a13d 85bb 323d 98d9 c53d ef82 643d
00000380: 9383 643c 09f3 653e 3d33 693e 6055 373e
00000390: 415f 373e c5f7 c33d f66e 2a3d eda9 1b3d
000003a0: b42d 233d a4c8 e0bd 066f bc3c 4c8f 14bd
000003b0: 8e2f edbd e618 9c3c 7023 13bd 5b99 d2bd
000003c0: b299 8d3c 6ee3 28bc 6aa5 f5bd 3e31 293e
000003d0: ea69 d03d e377 1f39 2428 8f3d 1cce 9a3d
000003e0: 4683 a2bc 9ff2 e3bd f530 d33c e577 72bd
000003f0: d903 933e bf2e 923e 7957 97bd f52d 4e3e

rb1.conv2.bias f4 [10]
-0.00012586507 6.853838e-05 -6.455745e-05 -0.00015396377 -1.0216172e-05 5.003109e-05 -0.00011625039 -4.095489e-05
3.534187e-05 -0.00014847408
00000000: a6fa 03b9 43bc 8f38 0463 87b8 5671 21b9
00000010: 2066 2bb7 79d8 5138 74cb f3b8 fac6 2bb8
00000020: 0b3c 1438 b5af 1bb9

rb1.bn2.weight f4 [10]
1.0376531 1.1346248 0.80535126 1.1110281 0.73556155 1.0717133 1.3217479 1.0645177
1.1145116 0.8571988
00000000: d1d1 843f 633b 913f 802b 4e3f 2b36 8e3f
00000010: c34d 3c3f e72d 893f 092f a93f 1e42 883f
00000020: 51a8 8e3f 6171 5b3f

rb1.bn2.bias f4 [10]
0.05757122 -0.06540084 0.2855049 -0.025332168 0.2538337 0.08550415 -0.022356378 0.10232635
0.058258 0.26870328
00000000: cdcf 6b3d e0f0 85bd b32d 923e 6885 cfbc
00000010: 7ef6 813e cd1c af3d b924 b7bc 7a90 d13d
00000020: f19f 6e3d 7a93 893e

rb1.bn2.running_mean f4 [10]
-1.2846268 -0.2349594 0.77795696 0.0138929095 -0.6571045 -0.15331139 -0.7069079 -0.2789271
0.034182463 1.6363803
00000000: a76e a4bf 3299 70be 3028 473f 169f 633c
00000010: 0038 28bf a9fd 1cbe ebf7 34bf 88cf 8ebe
00000020: e902 0c3d e974 d13f

rb1.bn2.running_var f4 [10]
1.5473063 1.2707009 1.0401242 1.5571283 0.9019903 1.595619 1.986688 1.5975051
1.9762542 1.6519281
00000000: 220e c63f 54a6 a23f ca22 853f fb4f c73f
00000010: d6e8 663f 3e3d cc3f cb4b fe3f 0c7b cc3f
00000020: e6f5 fc3f 6172 d33f

rb1.shortcut.conv.weight f4 [10, 3, 1, 1]
0.4500946 0.008587778 0.3394762 -0.3319857 -0.54928684 -0.37115192 0.36820287 -0.35661265
0.10464018 -0.47488037 -0.70082486 0.17630357 -0.102554426 -0.19583957 0.58037657 0.3690616
0.1419649 0.48901176 -0.37270936 -0.33370602 -0.32381573 -0.28353113 -0.7038882 0.26585978
-0.3071946 -0.51864195 -0.070029244 -0.28534603 0.058319397 -0.585457
00000000: cd72 e63e c0b3 0c3c d3cf ad3e 08fa a9be
00000010: 109e 0cbf a007 bebe 1685 bc3e ef95 b6be
00000020: 974d d63d 8523 f3be 4269 33bf ec88 343e
00000030: 0e08 d2bd 2b8a 48be 8f93 143f a4f5 bc3e
00000040: 3f5f 113e c05f fa3e c3d3 bebe 84db aabe
00000050: 2dcb a5be fe2a 91be 0432 34bf c61e 883e
00000060: 9c48 9dbe b8c5 04bf 7e6b 8fbd e018 92be
00000070: 52e0 6e3d 83e0 15bf

rb1.shortcut.conv.bias f4 [10]
2.7695687e-05 -0.000114184375 -0.00044071334 -8.9717156e-05 -0.00019796862 0.00019909123 -0.00023226767 6.701485e-05
-0.000117587755 4.8178736e-05
00000000: 0954 e837 4576 efb8 8b0f e7b9 8826 bcb8
00000010: cc95 4fb9 25c3 5039 e18c 73b9 538a 8c38
00000020: 7299 f6b8 8613 4a38

rb1.shortcut.bn.weight f4 [10]
0.9759124 0.9165141 1.017583 0.8912065 1.1374263 0.9368178 0.5850481 0.6846548
0.8987134 0.9105898
00000000: 65d5 793f aba0 6a3f 2940 823f 1c26 643f
00000010: 2f97 913f 4bd3 6f3f b6c5 153f 8945 2f3f
00000020: 1512 663f 6a1c 693f

rb1.shortcut.bn.bias f4 [10]
0.05757122 -0.06540084 0.2855049 -0.025332168 0.2538337 0.08550415 -0.022356378 0.10232635
0.058258 0.26870328
00000000: cdcf 6b3d e0f0 85bd b32d 923e 6885 cfbc
00000010: 7ef6 813e cd1c af3d b924 b7bc 7a90 d13d
00000020: f19f 6e3d 7a93 893e

rb1.shortcut.bn.running_mean f4 [10]
-0.07662379 0.11573292 -0.00996034 0.05545561 -0.06417028 -0.10400571 0.094556265 0.031495146
0.06788929 0.098032646
00000000: efec 9cbd 6205 ed3d b230 23bc 6c25 633d
00000010: b56b 83bd f200 d5bd b7a6 c13d 0e01 013d
00000020: 8a09 8b3d 57c5 c83d

rb1.shortcut.bn.running_var f4 [10]
0.1487649 0.36791262 0.007009951 0.23895481 0.032744154 0.23549129 0.24747032 0.12883553
0.18782896 0.16031627
00000000: d355 183e 0b5f bc3e bbb3 e53b 92b0 743e
00000010: bc1e 063d a124 713e dc68 7d3e 76ed 033e
00000020: 3c56 403e f329 243e

rb2.conv1.weight f4 [20, 10, 3, 3]
0.078161724 0.12744191 0.07597347 0.17295764 0.2270376 0.1313485 0.048643157 0.108218186
0.12807995 0.14324322 -0.12389982 -0.11874596 -0.12565987 -0.07270757 -0.034436498 0.16234939
-0.14915332 -0.1078946 -0.11357666 -0.32618836 -0.18702126 -0.0009551183 -0.25574285 -0.15287445
0.043112416 0.04856321 -0.1011132 -0.0124687515 -0.1096524 0.10125504 0.08118582 0.06135087
0.1158544 0.04983145 0.0524172 0.209805 -0.00048172407 0.13490237 -0.02531541 -0.06975303
0.011020575 0.078628 0.0147441765 -0.29613554 -0.23640062 0.09948881 0.04303177 0.06734518
-0.13751136 -0.06753014 -0.074836716 -0.050642133 -0.46565244 -0.023624418 0.10624671 0.07907367
0.15683644 0.06836077 0.047793727 0.104554564 0.050358232 -0.024575494 -0.04975311 0.07168977
-0.088298604 0.06515186 -0.09465922 -0.35474196 -0.0699712 0.06847404 -0.15127406 -0.12029285
-0.021909248 0.0057211476 -0.1586408 -0.17358917 0.07230252 0.15619129 -0.16076724 -0.031630892
0.098016195 -0.141548 0.010182033 -0.15137678 0.006028975 0.037416164 -0.02070695 -0.087347984
0.050054193 0.21129169 -0.24780189 -0.16710737 -0.0735452 0.040048268 -0.05607145 -0.0062701553
0.15747522 0.19988687 0.21725652 -0.28202558 -0.14872965 -0.042543884 -0.1437074 0.085378505
-0.004797328 -0.068021335 -0.033354662 -0.015141526 -0.26582113 -0.37727597 -0.24001975 0.102087155
0.027720347 -0.02164078 0.1969117 0.25408968 0.308458 -0.065798506 0.023709038 -0.015394933
-0.16528904 0.062258784 -0.103707634 -0.090425424 -0.00671449 -0.08551668 0.18028358 0.23097186
0.029421601 0.0059702178 -0.021782616 -0.13634978 -0.18433517 -0.25302267 -0.23828354 -0.0041812533
-0.017117979 0.1404797 -0.058449112 0.02989599 0.047351897 0.045138497 -0.013595196 0.08516238
0.09593701 0.11379183 0.042649336 -0.058952916 0.018277278 -0.10328887 -0.019672815 0.02388842
-0.04678945 0.15637492 0.282284 0.13473967 -0.009174408 0.073984206 0.10419901 -0.1369399
0.019181665 -0.062228326 -0.10857817 0.07676392 -0.081362434 -0.11893432 0.08114693 -0.17747992
0.028776573 0.03591424 -0.05766986 -0.051986434 0.018132903 0.007266118 0.019363184 0.14135297
0.05529189 -0.0028067082 0.08498449 -0.06232531 -0.04394402 0.068699926 -0.10078737 -0.013852942
0.053556718 -0.027143952 -0.016867403 -0.05247343 0.068230875 -0.011495836 0.026447268 0.19622287
-0.15026361 0.065049924 0.114992544 -0.090580985 -0.25881714 -0.18357642 0.102513514 -0.1874476
0.054670397 0.18717624 -0.02532785 -0.019306289 0.05204484 0.044491928 0.06529843 0.25090137
0.22845082 0.13365354 -0.024618767 0.19121824 0.054115236 -0.09571911 0.110030904 0.040075127
-0.15124078 0.013747973 -0.061140258 -0.070587955 -0.063731015 0.0025184522 0.094039075 -0.045799185
-0.008159329 0.12107827 0.055676166 -0.08541988 -0.33775738 0.04248238 0.039729096 -0.25409362
0.025402272 0.08581567 0.2322016 0.1927948 0.04744087 -0.11863502 -0.07710257 -0.11852185
-0.5866994 -0.43934116 -0.14551643 -0.033872634 -0.005255563 0.066865854 -0.100990705 0.056675754
0.085964255 -0.0625165 -0.0710542 -0.093423046 -0.0862649 -0.073483065 -0.017691214 -0.16877626
00000000: 4113 a03d 2280 023e fb97 9b3d cf1b 313e
00000010: 8b7c 683e 3980 063e 0c3e 473d 7fa1 dd3d
00000020: 6427 033e 5aae 123e 30bf fdbd 1531 f3bd
00000030: fbac 00be b5e7 94bd 490d 0dbd eb3e 263e
00000040: a6bb 18be d8f7 dcbd e19a e8bd 2902 a7be
00000050: 8082 3fbe e760 7aba baf0 82be 1f8b 1cbe
00000060: a596 303d 37ea 463d 7014 cfbd bc49 4cbc
00000070: 7091 e0bd cd5e cf3d c044 a63d 0d4b 7b3d
00000080: 1245 ed3d 101c 4c3d 6bb3 563d 1fd7 563e
00000090: e98f fcb9 d923 0a3e 4362 cfbc adda 8ebd
000000a0: a48f 343c b807 a13d 8f91 713c 149f 97be
000000b0: 0113 72be cac0 cb3d 1542 303d 45ec 893d
000000c0: c7cf 0cbe 3e4d 8abd fe43 99bd 206e 4fbd
000000d0: ff69 eebe ff87 c1bc e097 d93d 60f1 a13d
000000e0: bb99 203e bb00 8c3d 5bc3 433d b420 d63d
000000f0: 6f44 4e3d 8c52 c9bc ebc9 4bbd 16d2 923d
00000100: e6d5 b4bd 576e 853d b1dc c1bd bda0 b5be
00000110: 0f4d 8fbd 1e3c 8c3d 96e7 1abe 195c f6bd
00000120: 067b b3bc 7778 bb3b bc72 22be 5cc1 31be
00000130: 5813 943d 9cf0 1f3e 2ba0 24be 658f 01bd
00000140: b7bc c83d f5f1 10be 8bd2 263c 8402 1bbe
00000150: b58e c53b b141 193d 9fa1 a9bc 80e3 b2bd
00000160: a005 4d3d d95c 583e c7bf 7dbe 321e 2bbe
00000170: de9e 96bd a709 243d 2dab 65bd e075 cdbb
00000180: 2f41 213e 25af 4c3e 7e78 5e3e a865 90be
00000190: 964c 18be 7f42 2ebd 0828 13be edda ae3d
000001a0: e732 9dbb c54e 8bbd e69e 08bd 2a14 78bc
000001b0: b519 88be 512a c1be bdc7 75be 1213 d13d
000001c0: c815 e33c 0148 b1bc 38a3 493e 0b18 823e
000001d0: 35ee 9d3e 5ec1 86bd 7539 c23c 073b 7cbc
000001e0: 8841 29be 1103 7f3d ab64 d4bd f730 b9bd
000001f0: 3905 dcbb 5e23 afbd 429c 383e e383 6c3e
00000200: 9205 f13c d1a1 c33b 7571 b2bc 479f 0bbe
00000210: 5cc2 3cbe 308c 81be 9a00 74be e502 89bb
00000220: 013b 8cbc e9d9 0f3e 5668 6fbd 6fe8 f43c
00000230: 10f4 413d 25e3 383d 63be 5ebc 9d69 ae3d
00000240: a07a c43d b10b e93d 12b1 2e3d 9d78 71bd
00000250: 3bba 953c 1d89 d3bd e228 a1bc a6b1 c33c
00000260: 4ba6 3fbd bf20 203e 8787 903e 32f9 093e
00000270: 4250 16bc 0885 973d 4a66 d53d f939 0cbe
00000280: de22 9d3c 21e3 7ebd 3b5e debd 6736 9d3d
00000290: 59a1 a6bd d693 f3bd 5d30 a63d 4cbd 35be
000002a0: d9bc eb3c cf1a 133d 3b37 6cbd baef 54bd
000002b0: 748b 943c 9e18 ee3b 8a9f 9e3c d5be 103e
000002c0: c079 623d c0f0 37bb 590c ae3d d348 7fbd
000002d0: a5fe 33bd 8cb2 8c3d 9c69 cebd 73f7 62bc
000002e0: 4a5e 5b3d fe5c debc 822d 8abc 61ee 56bd
000002f0: a1bc 8b3d 0859 3cbc f1a7 d83c a6ee 483e
00000300: b4de 19be e538 853d 3681 eb3d 8682 b9bd
00000310: ae83 84be 75fb 3bbe 9bf2 d13d 43f2 3fbe
00000320: 11ee 5f3d 21ab 3f3e 5a7c cfbc 3928 9ebc
00000330: f82c 553d 2b3d 363d 2fbb 853d 2576 803e
00000340: 03ef 693e 79dc 083e 4cad c9bc b7ce 433e
00000350: f0a7 5d3d 6108 c4bd e257 e13d d125 243d
00000360: ddde 1abe 2e3f 613c 356e 7abd 6b90 90bd
00000370: 6885 82bd 9e0c 253b 8f97 c03d ed97 3bbd
00000380: b5ae 05bc e2f7 f73d b10c 643d 9ef0 aebd
00000390: 89ee acbe 0102 2e3d faba 223d 8f18 82be
000003a0: 6d18 d03c 20c0 af3d 42c6 6d3e 006c 453e
000003b0: 5c51 423d ebf6 f2bd f4e7 9dbd 95bb f2bd
000003c0: ef31 16bf 53f1 e0be 4202 15be 08be 0abd
000003d0: dc36 acbb f7f0 883d 37d4 cebd d624 683d
000003e0: 070e b03d a708 80bd dd84 91bd 9554 bfbd
000003f0: a7ab b0bd 4a7e 96bd 2aed 90bc afd3 2cbe

rb2.conv1.bias f4 [20]
-1.2241885e-05 -5.939319e-07 1.0946478e-05 8.75048e-05 -3.34155e-05 5.9704587e-05 3.5129524e-05 3.1071704e-07
-3.0172581e-05 -8.696367e-05 -1.3429088e-05 2.3697837e-06 -2.0939647e-06 3.633915e-05 -4.7439004e-05 -4.7572124e-05
-8.302377e-06 -5.001599e-05 -3.893434e-05 -6.9277e-05
00000000: 7f62 4db7 b06e 1fb5 c4a6 3737 c882 b738
00000010: 9f27 0cb8 506b 7a38 0a58 1338 a0d0 a634
00000020: 201b fdb7 4460 b6b8 7e4d 61b7 9308 1f36
00000030: 0a86 0cb6 dd6a 1838 3ef9 46b8 2e88 47b8
00000040: 704a 0bb7 43c8 51b8 6e4d 23b8 ce48 91b8

rb2.bn1.weight f4 [20]
0.8291518 0.87330014 0.89760673 1.057822 1.0677637 0.741585 0.9557876 0.8510196
0.6860256 0.85948044 0.790296 1.0144302 1.0137454 0.96084446 0.92112505 1.0832509
0.9062238 0.87558895 0.9629941 0.94471973
00000000: 4b43 543f 9990 5f3f 8ec9 653f b666 873f
00000010: 7bac 883f 84d8 3d3f 7fae 743f 6cdc 593f
00000020: 609f 2f3f e906 5c3f d750 4a3f d9d8 813f
00000030: 69c2 813f e7f9 753f dace 6b3f f7a7 8a3f
00000040: 48fe 673f 9926 603f c886 763f 27d9 713f

rb2.bn1.bias f4 [20]
0.025665732 -0.1557992 0.116523266 -0.015813388 -0.27039984 -0.07516739 0.034838524 0.1528881
-0.0022648254 0.09872188 0.039420735 0.07069025 -0.0935554 0.039202232 -0.107938714 -0.07745935
0.12936287 -0.0037475193 0.120890774 -0.09524685
00000000: f140 d23c d389 1fbe c0a3 ee3d 148b 81bc
00000010: d971 8abe 5cf1 99bd d7b2 0e3d b38e 1c3e
00000020: 776d 14bb b22e ca3d a377 213d 0dc6 903d
00000030: f999 bfbd 8592 203d f90e ddbd 02a3 9ebd
00000040: b377 043e f198 75bb 9595 f73d c810 c3bd

rb2.bn1.running_mean f4 [20]
-1.3071635 -0.30406135 -1.6144032 -2.9088225 -1.2492236 0.052132186 -1.3018899 -1.5765805
1.1740611 -0.13939534 -0.41085312 -0.96791035 -2.5898228 -0.7486047 -0.77705693 -1.778825
-1.9532297 -0.34672087 -1.930265 -0.24896269
00000000: 2251 a7bf eead 9bbe c4a4 cebf 262a 3ac0
00000010: 8fe6 9fbf 8f88 553d 54a4 a6bf 64cd c9bf
00000020: a247 963f a7bd 0ebe 575b d2be f9c8 77bf
00000030: a8bf 25c0 8fa4 3fbf 34ed 46bf 8ab0 e3bf
00000040: 6e03 fabf 6685 b1be ec12 f7bf 13f0 7ebe

rb2.bn1.running_var f4 [20]
1.7130206 1.5679603 1.886796 2.7606711 2.3551388 1.4986725 2.256631 2.536244
1.3043659 1.2261153 1.5387294 2.2700076 2.6083472 2.1052847 1.5538014 2.5915987
2.3790064 1.9465697 1.833934 2.2591405
00000000: 4244 db3f ecb2 c83f 8882 f13f d6ae 3040
00000010: 98ba 1640 80d4 bf3f a46c 1040 d251 2240
00000020: 76f5 a63f 59f1 9c3f 16f5 c43f ce47 1140
00000030: 29ef 2640 fcbc 0640 f7e2 c63f c1dc 2540
00000040: a441 1840 3229 f93f 59be ea3f c295 1040

rb2.conv2.weight f4 [20, 20, 3, 3]
-0.011396651 0.09785382 -0.052127432 0.018904205 0.021008251 -0.11510192 -0.02893837 -0.13795732
-0.05988028 -0.2092505 0.15664145 0.13223957 0.013234304 0.18120284 0.12045502 0.05284579
0.06860775 0.14494541 0.014683782 -0.046605974 0.042624507 0.14533626 0.05003926 -0.008250489
-0.0018718299 -0.008373449 -0.12628628 -0.18417533 -0.017391728 -0.14354445 -0.11314197 0.100576594
-0.25372657 -0.29491115 -0.051248893 -0.04028626 -0.13310553 -0.07594254 -0.09869587 0.000718894
0.011367917 -0.035535883 0.08499606 0.1581625 0.055730842 -0.15700932 -0.024086894 -0.07343414
-0.17700629 0.14459327 0.033106312 0.06558845 -0.034533024 0.024665356 -0.022410082 -0.011023162
-0.10890265 0.09293941 -0.0036995425 -0.09248429 -0.1250018 -0.15818568 0.028716682 -0.18547808
-0.0715622 -0.13138768 -0.042530023 -0.1395126 -0.14908835 -0.1075151 -0.21064343 0.068283126
0.17734298 -0.25789282 -0.24103804 0.25104433 0.05229218 -0.11716978 -0.081615575 0.026415529
0.10620512 0.050464667 -0.21374469 -0.22027184 0.0834902 -0.10189931 0.13407415 -0.05493465
0.07393116 0.28277147 0.020453077 0.026079357 -0.08837953 0.18145068 0.0860106 -0.07880273
0.07408503 -0.14389755 -0.28097737 0.0015606247 0.054726485 0.14720808 0.010630161 -0.055761628
0.119906455 -0.08369686 -0.09907586 -0.08248904 -0.043432537 0.056017816 -0.031882316 -0.14885086
-0.14973101 -0.11782589 -0.31768194 -0.17570803 -0.1923007 0.008873127 0.048635587 0.00018319524
0.11545634 -0.032682814 0.067984365 0.108495936 -0.011107935 -0.004792916 0.18911614 0.015787354
0.1583383 0.0013330096 -0.1028738 0.12604949 0.048107605 0.105260424 0.2014331 0.06693484
0.070257396 0.12813121 -0.0014661698 0.09883651 0.08017455 0.020477908 -0.03165974 -0.21000284
0.059007496 -0.0009458447 0.04142409 0.062236875 0.111013405 0.041714434 -0.09486918 -0.04151282
0.045146115 0.058133304 -0.10227573 0.008643031 0.009093553 -0.15637141 0.044988483 -0.0074761733
-0.02935617 -0.058326945 -0.13570909 -0.0037711044 -0.017625956 -0.12568678 0.112244114 0.06140083
-0.25943696 -0.044442996 -0.119805284 0.22630186 0.054403335 0.09470301 0.06133155 0.086256
0.15177776 0.14467105 0.18242714 0.044085402 0.13430749 0.13464864 -0.18582934 -0.21461147
0.06672576 -0.115241185 0.0015424787 -0.06744122 -0.12526412 -0.07180962 -0.24329376 -0.058665276
0.1308344 -0.03137764 0.06108162 0.07506919 0.06470013 0.0025620216 -0.091864645 -0.08657563
-0.06209639 -0.2179157 -0.07824472 -0.03956539 -0.032837868 0.04740968 0.044612557 -0.14668703
0.0045688986 -0.016564695 -0.14284404 0.08517474 -0.11418489 -0.22682372 -0.16822475 -0.16771622
-0.19586621 -0.13711314 -0.123289265 -0.062352266 0.010671581 -0.1610594 0.09640739 -0.07238246
-0.121358775 -0.06341808 -0.07398093 0.16232966 -0.23397996 -0.21155392 0.06635285 0.03098113
-0.015825225 0.08876262 -0.028718406 -0.030311365 0.15927076 -0.044157118 0.01740234 0.046212718
-0.01128255 0.114221014 -0.018098988 0.04358641 0.016128188 -0.21569076 0.06441277 0.111266
-0.07658684 -0.027147718 -0.060836084 -0.12714191 -0.13859773 -0.0601306 -0.08729934 0.1017984
00000000: 05b9 3abc 9567 c83d 9383 55bd fedc 9a3c
00000010: 7f19 ac3c 8eba ebbd 2910 edbc af44 0dbe
00000020: 0645 75bd c345 56be 9e66 203e cf69 073e
00000030: b2d4 583c 3d8d 393e 1fb1 f63d d474 583d
00000040: 3882 8c3d 926c 143e 3f94 703c e8e5 3ebd
00000050: 0997 2e3d 07d3 143e f8f5 4c3d 0f2d 07bc
00000060: 3058 f5ba ca30 09bc 3151 01be 7598 3cbe
00000070: 1979 8ebc 51fd 12be fab6 e7bd 1afb cd3d
00000080: 73e8 81be 98fe 96be 5cea 51bd 3503 25bd
00000090: d14c 08be c387 9bbd 0f21 cabd 2974 3c3a
000000a0: 8040 3a3c 138e 11bd 6a12 ae3d 5af5 213e
000000b0: 0646 643d 0dc7 20be e151 c5bc a364 96bd
000000c0: 2341 35be 4210 143e 7c9a 073d 3d53 863d
000000d0: 8072 0dbd 000f ca3c 5995 b7bc 7e9a 34bc
000000e0: 5a08 dfbd 0457 be3d 0674 72bb 6768 bdbd
000000f0: 7900 00be 6dfb 21be 3f3f eb3c f7ed 3dbe
00000100: 348f 92bd 7e8a 06be f633 2ebd 64dc 0ebe
00000110: 9eaa 18be e030 dcbd e9b2 57be 06d8 8b3d
00000120: 6699 353e 870a 84be add2 76be e288 803e
00000130: 5330 563d b6f6 efbd 1126 a7bd 6165 d83c
00000140: 1282 d93d 0ab4 4e3d e3df 5abe f18e 61be
00000150: e9fc aa3d 96b0 d0bd bc4a 093e 2803 61bd
00000160: 3869 973d 6cc7 903e 368d a73c 60a4 d53c
00000170: 5400 b5bd 35ce 393e 5326 b03d 5363 a1bd
00000180: e4b9 973d e159 13be 44dc 8fbe e08d cc3a
00000190: e128 603d b7bd 163e 202a 2e3c 4e66 64bd
000001a0: 8491 f53d 4269 abbd 49e8 cabd 04f0 a8bd
000001b0: 51e6 31bd f072 653d 0897 02bd 5c6c 18be
000001c0: 1653 19be b34e f1bd 35a7 a2be ceec 33be
000001d0: 7aea 44be 9860 113c 1c36 473d 1918 4039
000001e0: 6074 ec3d 6ade 05bd 633b 8b3d 1e33 de3d
000001f0: 0efe 35bc e50d 9dbb a9a7 413e 7b54 813c
00000200: 6f23 223e 61b8 ae3a 80af d2bd 1e13 013e
00000210: 7b0c 453d c792 d73d 7b44 4e3e 2215 893d
00000220: 1ce3 8f3d d434 033e 7f2c c0ba cc6a ca3d
00000230: 8e32 a43d 49c1 a73c a5ad 01bd fc0a 57be
00000240: d8b1 713d 90f2 77ba 4eac 293d 18ec 7e3d
00000250: ff5a e33d c1dc 2a3d c64a c2bd 5909 2abd
00000260: 22eb 383d 301d 6e3d f075 d1bd 809b 0d3c
00000270: 20fd 143c d41f 20be d845 383d b0fa f4bb
00000280: 5a7c f0bc 3ce8 6ebd 53f7 0abe a224 77bb
00000290: 4f64 90bc 09b4 00be 3ee0 e53d 707f 7b3d
000002a0: ecd4 84be dc09 36bd 795c f5bd adbb 673e
000002b0: 08d6 5e3d a7f3 c13d cb36 7b3d fca6 b03d
000002c0: a16b 1b3e a624 143e 2ece 3a3e e592 343d
000002d0: e787 093e 55e1 093e 0c4a 3ebe 1cc3 5bbe
000002e0: 84a7 883d 9203 ecbd ff2c ca3a 9f1e 8abd
000002f0: 3d45 00be ec10 93bd 0022 79be 004b 70bd
00000300: 74f9 053e d785 00bd b930 7a3d e0bd 993d
00000310: 8081 843d 97e7 273b 8823 bcbd 904e b1bd
00000320: c958 7ebd 4b25 5fbe c53e a0bd 520f 22bd
00000330: 0081 06bd a730 423d a8bb 363d 2035 16be
00000340: b3b6 953b afb2 87bc b545 12be 1870 ae3d
00000350: c5d9 e9bd 7a44 68be 1c43 2cbe cdbd 2bbe
00000360: 2791 48be 6367 0cbe 157f fcbd 1765 7fbd
00000370: dbd7 2e3c c1ec 24be 3d71 c53d 413d 94bd
00000380: f38a f8bd 57e1 81bd 5083 97bd bf39 263e
00000390: 7198 6fbe 97a1 58be 01e4 873d 24cc fd3c
000003a0: e7a3 81bc 2dc9 b53d dd42 ebbc 8a4f f8bc
000003b0: e017 233e 18de 34bd 5a8f 8e3c 8c49 3d3d
000003c0: 72da 38bc b5ec e93d 5444 94bc aa87 323d
000003d0: 431f 843c 0ade 5cbe d8ea 833d 6edf e33d
000003e0: 90d9 9cbd e464 debc 422f 79bd 7d31 02be
000003f0: 90ec 0dbe 814b 76bd ffc9 b2bd ae7b d03d

rb2.conv2.bias f4 [20]
-2.6484104e-05 1.3563245e-05 2.0634849e-05 7.82407e-05 9.444455e-06 -3.2866097e-05 -0.00011424366 1.1709491e-05
-3.151689e-05 -6.0614097e-06 7.592065e-05 -7.249307e-05 2.9518642e-06 -7.111476e-05 -6.765272e-05 1.0374088e-06
-5.3828142e-05 -4.56472e-06 -1.35875125e-05 3.9823408e-05
00000000: 2e2a deb7 b28d 6337 0019 ad37 2815 a438
00000010: a073 1e37 b4d9 09b8 1996 efb8 e273 4437
00000020: 0131 04b8 1d63 cbb6 9737 9f38 6c07 98b8
00000030: a418 4636 7223 95b8 c7e0 8db8 183d 8b35
00000040: 87c5 61b8 a52a 99b6 ecf5 63b7 0f08 2738

rb2.bn2.weight f4 [20]
0.85616076 0.92976826 1.1982608 1.1180122 1.1888493 1.088692 1.2549387 1.222713
1.2436076 1.1635268 1.1717834 0.9966766 1.1707382 1.0051974 1.1041099 1.2816842
1.3398849 1.2944493 1.1125735 0.87292767
00000000: 5a2d 5b3f 4b05 6e3f 9c60 993f 061b 8f3f
00000010: 372c 983f 425a 8b3f d5a1 a03f dc81 9c3f
00000020: 892e 9f3f 72ee 943f 00fd 953f 3326 7f3f
00000030: c0da 953f 4faa 803f 7953 8d3f 3a0e a43f
00000040: 5981 ab3f 84b0 a53f cf68 8e3f 3078 5f3f

rb2.bn2.bias f4 [20]
0.19634034 0.054565266 -0.18838474 0.0005307547 -0.085423216 -0.16713588 0.09807825 -0.23994221
0.22118077 -0.15856528 0.047287624 -0.14335908 -0.01597041 0.05694669 -0.010385434 0.15754585
-0.029376555 -0.12699105 0.08701134 -0.27111763
00000000: 710d 493e d47f 5f3d eee7 40be 5822 0b3a
00000010: 5ef2 aebd ab25 2bbe 40dd c83d 69b3 75be
00000020: 367d 623e f05e 22be abb0 413d b9cc 12be
00000030: 61d4 82bc ef40 693d ab27 2abc b353 213e
00000040: 1aa7 f0bc f109 02be 0033 b23d eecf 8abe

rb2.bn2.running_mean f4 [20]
-0.7189348 -2.1213198 -1.1674677 -1.0968524 -0.8138782 0.17451452 -1.26111 0.43375236
-2.9069483 -0.122475296 -1.0035758 0.028601693 -1.8885121 -0.5559617 0.2332243 -1.4321824
-2.7321212 -0.2511706 -2.4231412 0.19070171
00000000: 1c0c 38bf b4c3 07c0 956f 95bf a965 8cbf
00000010: 525a 50bf efb3 323e 0d6c a1bf ca14 de3e
00000020: 710b 3ac0 54d4 fabd 2c75 80bf 194e ea3c
00000030: c4ba f1bf 8253 0ebf 5ad2 6e3e c151 b7bf
00000040: 13db 2ec0 6f99 80be bf14 1bc0 4f47 433e

rb2.bn2.running_var f4 [20]
0.9506691 1.0681797 0.75637096 1.1786064 0.6735378 1.201694 1.2545633 0.6924272
1.307618 0.89369243 0.88097334 0.7405137 0.6895258 1.0283325 1.3158916 1.123923
0.9919814 1.0393298 1.027303 0.69440657
00000000: 0d5f 733f 1dba 883f 87a1 413f 93dc 963f
00000010: f96c 2c3f 1cd1 993f 8895 a03f e942 313f
00000020: 0760 a73f 07c9 643f 7887 613f 4e92 3d3f
00000030: c384 303f 66a0 833f 236f a83f b5dc 8f3f
00000040: 7ef2 7d3f c208 853f aa7e 833f a1c4 313f

rb2.shortcut.conv.weight f4 [20, 10, 1, 1]
-0.02274146 -0.082018696 -0.38674966 -0.09271431 0.514534 -0.015577499 0.0061962074 -0.011589735
-0.00827503 -0.23684418 -0.062479526 0.11774709 -0.61130214 0.067493 -0.16746837 -0.2103055
-0.020029599 -0.018740913 0.005566722 0.00048564462 -0.09893218 -0.11910425 -0.039207134 -0.023214417
0.055598844 0.38181248 0.15893866 0.11725548 -0.14554136 -0.37169862 -0.06766173 -0.0050907363
0.3312239 0.12632503 0.19268414 -0.14662255 0.2503577 0.20743145 0.4291891 -0.14771584
-0.11854262 0.04686545 0.06695574 0.43130386 0.06660843 -0.07335485 -0.026099835 -0.07548854
0.3618514 -0.10851366 0.26994756 0.18447529 -0.11531096 -0.36951578 -0.061623823 -0.06626124
0.19550131 -0.14153332 -0.14324774 -0.41382504 -0.11340252 0.15398502 0.021969158 -0.32651818
0.023087755 -0.38156852 -0.2648631 0.060380228 0.25937444 -0.07373855 0.18030494 0.18772113
0.0051839235 -0.048838306 -0.16113913 -0.056449186 -0.29874286 0.047438797 -0.6027861 -0.1900354
-0.096709445 0.1316082 -0.0901241 -0.0681824 -0.70380145 -0.093172215 0.002318876 0.27355587
-0.095379904 0.0060303346 -0.26621762 0.36102095 -0.15319532 -0.19618593 0.19361214 -0.12487397
-0.013141568 0.12776251 -0.0021506615 -0.3953379 -0.017949872 0.06378927 -0.41767934 0.26750284
-0.31324315 -0.13419764 0.27120513 0.05980997 0.1311481 0.06497008 0.007293366 -0.021440199
-0.32498878 0.24699582 0.26946187 0.23548283 -0.09211852 -0.08192402 0.14484051 -0.20166235
-0.09306364 -0.35419804 0.2296786 0.33194724 -0.100322574 -0.00093984185 0.05796817 -0.11794011
-0.38172016 0.10380859 -0.05119271 -0.19052811 -0.117964275 -0.09053436 0.053955667 0.12532032
0.104034245 0.079358615 -0.6423728 -0.15197179 0.031414866 -0.2582614 -0.0044723274 -0.193764
-0.019991448 -0.37392694 -0.39810604 -0.0898253 -0.08614722 0.18890251 0.37414488 -0.34222475
0.23590939 0.12693122 -0.14023478 0.13926739 0.14694315 -0.12557514 -0.294868 -0.034856394
0.15636237 0.31751788 -0.13255958 0.0769584 -0.0029009518 0.27853325 0.2051826 0.10919231
0.10189639 -0.0006296518 0.06274153 0.078654505 -0.27979884 0.12560189 0.048349395 0.24909765
0.25420198 0.4118733 0.15548779 -0.123368636 0.031505387 0.09846729 -0.030773068 -0.26590523
-0.019346584 0.041641448 -0.0033262623 -0.302125 -0.48586428 -0.05905629 -0.2563248 -0.13649714
0.3763384 -0.010165687 0.16298589 -0.076119415 0.07984632 -0.11190806 -0.21906085 0.095048666
00000000: 4c4c babc 6bf9 a7bd 0d04 c6be 00e1 bdbd
00000010: 80b8 033f c438 7fbc 8e09 cb3b dfe2 3dbc
00000020: fe93 07bc 4887 72be 88ea 7fbd 6325 f13d
00000030: 4c7e 1cbf c539 8a3d d47c 2bbe 535a 57be
00000040: 1d15 a4bc 8b86 99bc 0c69 b63b 1e9e fe39
00000050: f49c cabd eeec f3bd a997 20bd 292c bebc
00000060: 9dbb 633d ed7c c33e d1c0 223e a423 f03d
00000070: cb08 15be 484f bebe 3c92 8abd 31d0 a6bb
00000080: 2e96 a93e 595b 013e fe4e 453e 3924 16be
00000090: e22e 803e e968 543e acbe db3e d242 17be
000000a0: 79c6 f2bd fcf5 3f3d 1720 893d dcd3 dc3e
000000b0: 006a 883d 113b 96bd 52cf d5bc bc99 9abd
000000c0: 9644 b93e 693c debd 9136 8a3e 17e7 3c3e
000000d0: 2728 ecbd 2c31 bdbe 4369 7cbd f9b3 87bd
000000e0: 7f31 483e 1cee 10be 89af 12be e0e0 d3be
000000f0: 953f e8bd 40ae 1d3e aaf8 b33c 642d a7be
00000100: 8822 bd3c f35c c3be 239c 87be 4251 773d
00000110: bacc 843e 3d04 97bd dca1 383e f839 403e
00000120: e7dd a93b ad0a 48bd a801 25be 4337 67bd
00000130: d3f4 98be 2f4f 423d 3150 1abf a498 42be
00000140: 9a0f c6bd 4dc4 063e fc92 b8bd 37a3 8bbd
00000150: 552c 34bf 13d1 bebd 49f8 173b 840f 8c3e
00000160: 8a56 c3bd 1d9a c53b ad4d 88be bdd7 b83e
00000170: 3cdf 1cbe f7e4 48be 4342 463e edbd ffbd
00000180: bb4f 57bc 2dd4 023e 1df2 0cbb bb69 cabe
00000190: 9c0b 93bc f3a3 823d 11da d5be 22f6 883e
000001a0: 6861 a0be 1b6b 09be 66db 8a3e 4dfb 743d
000001b0: b04b 063e 090f 853d 30fd ee3b 5ba3 afbc
000001c0: ee64 a6be 79ec 7c3e e8f6 893e 6922 713e
000001d0: a2a8 bcbd c8c7 a7bd 1251 143e 9380 4ebe
000001e0: 2698 bebd 7259 b5be de30 6b3e fdf4 a93e
000001f0: ec75 cdbd b85f 76ba 0870 6d3d 968a f1bd
00000200: d370 c3be 9999 d43d 72af 51bd cd19 43be
00000210: 4197 f1bd 146a b9bd 9e00 5d3d f853 003e
00000220: e80f d53d c586 a23d 8b72 24bf 7e9e 1bbe
00000230: e0ac 003d d73a 84be 9a8c 92bb 126a 46be
00000240: 1bc5 a3bc 5a73 bfbe 8ed4 cbbe 54f6 b7bd
00000250: f46d b0bd a96f 413e eb8f bf3e 1538 afbe
00000260: 3b92 713e 42fa 013e b599 0fbe 1c9c 0e3e
00000270: 4478 163e c596 00be f0f8 96be 94c5 0ebd
00000280: 751d 203e b491 a23e b3bd 07be 5e9c 9d3d
00000290: e51d 3ebb e99b 8e3e 631b 523e 38a0 df3d
000002a0: 0eaf d03d 380f 25ba a27e 803d 9d15 a13d
000002b0: cb41 8fbe c89d 003e 040a 463d 7413 7f3e
000002c0: c326 823e 0fe1 d23e 3138 1f3e b2a8 fcbd
000002d0: cb0b 013d 38a9 c93d cd17 fcbc bb24 88be
000002e0: ba7c 9ebc 3990 2a3d 6cfd 59bb 21b0 9abe
000002f0: 34c3 f8be 02e5 71bd 013d 83be e8c5 0bbe
00000300: 6daf c03e fb8d 26bc c6e5 263e 7fe4 9bbd
00000310: 7886 a33d 0e30 e5bd 7d51 60be e0a8 c23d

rb2.shortcut.conv.bias f4 [20]
-5.8120648e-05 -1.1911719e-05 -2.6976766e-05 1.8151835e-05 -4.090998e-05 8.615376e-06 -2.8581875e-05 -4.5791603e-07
-6.0577364e-05 3.967397e-05 2.486961e-05 -4.757477e-05 2.4667854e-05 2.8071943e-05 1.7109556e-05 -1.0521433e-05
-2.9921313e-05 -4.0131185e-05 -1.4863406e-05 6.670575e-08
00000000: 92c6 73b8 72d8 47b7 2a4c e2b7 c544 9837
00000010: c296 2bb8 c28a 1037 1cc3 efb7 80d7 f5b4
00000020: 7314 7eb8 9a67 2638 159f d037 058b 47b8
00000030: d0ed ce37 0a7c eb37 7e86 8f37 3685 30b7
00000040: 88ff fab7 8852 28b8 d85d 79b7 e03f 8f33

rb2.shortcut.bn.weight f4 [20]
0.95030326 0.7017603 0.9226824 0.5391776 0.687663 0.70084566 0.56024814 0.77758807
0.8091116 0.85241824 0.5672785 0.68738335 0.4878849 0.87386245 1.090673 0.48998857
0.6998644 0.5448412 0.35317114 0.7402279
00000000: 1347 733f 90a6 333f ea34 6c3f 8b07 0a3f
00000010: af0a 303f 9f6a 333f 6c6c 0f3f 0310 473f
00000020: f021 4f3f 1538 5a3f 2a39 113f 5bf8 2f3f
00000030: 0dcc f93e 73b5 5f3f 2c9b 8b3f c8df fa3e
00000040: 502a 333f b67a 0b3f d9d2 b43e 937f 3d3f

rb2.shortcut.bn.bias f4 [20]
0.19634034 0.054565266 -0.18838474 0.0005307547 -0.085423216 -0.16713588 0.09807825 -0.23994221
0.22118077 -0.15856528 0.047287624 -0.14335908 -0.01597041 0.05694669 -0.010385434 0.15754585
-0.029376555 -0.12699105 0.08701134 -0.27111763
00000000: 710d 493e d47f 5f3d eee7 40be 5822 0b3a
00000010: 5ef2 aebd ab25 2bbe 40dd c83d 69b3 75be
00000020: 367d 623e f05e 22be abb0 413d b9cc 12be
00000030: 61d4 82bc ef40 693d ab27 2abc b353 213e
00000040: 1aa7 f0bc f109 02be 0033 b23d eecf 8abe

rb2.shortcut.bn.running_mean f4 [20]
-0.343957 -0.9139534 -0.102112785 1.015227 0.4464609 -0.73338324 -0.5911406 -0.87270635
-0.7019857 -0.559016 -0.13521181 0.09149938 -0.16979611 -0.7436367 -0.9444264 0.1451797
0.8751574 0.78138775 -0.89097905 0.028884234
00000000: 221b b0be daf8 69bf 8220 d1bd f5f2 813f
00000010: 8696 e43e 01bf 3bbf fe54 17bf af69 5fbf
00000020: 56b5 33bf ac1b 0fbf f774 0abe 0764 bb3d
00000030: 08df 2dbe fa5e 3ebf eec5 71bf fda9 143e
00000040: 510a 603f 0709 483f 3417 64bf a19e ec3c

rb2.shortcut.bn.running_var f4 [20]
0.5130572 0.4263557 0.36571375 0.5248493 0.44157797 0.48531604 0.37725633 0.56570816
0.39622554 0.30905983 0.46946803 0.30502734 0.25094765 0.6640598 0.45546204 0.36881334
0.29805747 0.40247685 0.5554827 0.16464354
00000000: b757 033f 4b4b da3e d53e bb3e 865c 063f
00000010: 8216 e23e 587b f83e be27 c13e 40d2 103f
00000020: 13de ca3e 173d 9e3e 1d5e f03e 8b2c 9c3e
00000030: 367c 803e d3ff 293f 5232 e93e 1ad5 bc3e
00000040: fd9a 983e 7211 ce3e 1d34 0e3f 5198 283e

res1_sc1.conv.weight f4 [20, 3, 1, 1]
-0.55292714 0.08458635 0.33014706 -0.24602796 0.55996525 -0.23744124 0.0127250375 -0.30799797
-0.3991491 0.3892653 -0.34466705 -0.3314327 0.47872108 -0.1347831 0.22462393 -0.544846
-0.364816 0.33443308 -0.18357788 0.37306184 0.5171696 0.36623168 -0.56516844 -0.3248406
0.16887113 0.54387814 -0.17495121 0.27009425 -0.2544509 -0.37064788 -0.09679088 -0.2523882
-0.39355168 0.14505078 -0.08813295 -0.42597064 -0.36001068 -0.2059993 -0.052157912 0.0027820398
-0.15739135 -0.48278305 -0.21950297 0.23850144 0.36714008 0.39184412 0.16777983 -0.2538958
0.09508411 -0.33852434 0.05644291 0.05714898 -0.3548308 0.05448989 0.250323 0.3117885
-0.08639075 -0.5216569 0.14710955 0.07626522
00000000: a28c 0dbf 9c3b ad3d 0909 a93e c1ee 7bbe
00000010: e259 0f3f cc23 73be ad7c 503c e9b1 9dbe
00000020: 455d ccbe c84d c73e 3378 b0be 8cb1 a9be
00000030: ee1a f53e 9504 0abe d103 663e 077b 0bbf
00000040: 2ac9 babe d03a ab3e d7fb 3bbe f601 bf3e
00000050: 3a65 043f b882 bb3e e1ae 10bf 8251 a6be
00000060: 8eec 2c3e 993b 0b3f 6926 33be cb49 8a3e
00000070: 6347 82be 8fc5 bdbe 4c3a c6bd 0739 81be
00000080: 9b7f c9be 3188 143e 0c7f b4bd d318 dabe
00000090: 5253 b8be 7bf1 52be 89a3 55bd e252 363b
000000a0: 332b 21be 572f f7be 63c5 60be b939 743e
000000b0: c9f9 bb3e cb9f c83e 7ace 2b3e a1fe 81be
000000c0: 75bb c23d 1053 adbe ae30 673d 0d15 6a3d
000000d0: 62ac b5be ca30 5f3d 562a 803e bea2 9f3e
000000e0: a2ed b0bd 4e8b 05bf e3a3 163e f130 9c3d

res1_sc1.conv.bias f4 [20]
0.00018814117 -0.00010632074 -4.0205854e-05 9.31367e-05 2.8226214e-06 1.5485233e-05 6.405797e-05 6.1283485e-05
-0.000103523314 -0.00010159352 2.5979443e-05 1.8330928e-05 1.566539e-05 1.2583441e-05 -0.00012404218 -2.4978488e-05
-9.796114e-05 0.00014982751 0.00011008529 0.00014122232
00000000: c347 4539 83f8 deb8 b5a2 28b8 6352 c338
00000010: 446c 3d36 49e6 8137 dc56 8638 5285 8038
00000020: a81a d9b8 9b0e d5b8 6eee d937 5ec5 9937
00000030: 2b69 8337 781d 5337 5211 02b9 e588 d1b7
00000040: 7d70 cdb8 041b 1d39 97dd e638 1415 1439

res1_sc1.bn.weight f4 [20]
0.82755524 0.9178175 0.6853491 0.57620573 0.5324443 0.62675786 0.5552286 0.6107359
0.6287974 0.65398914 0.6034516 0.5912527 0.4935674 0.6156536 0.65855545 0.39134684
0.5584204 0.49818552 0.4416401 0.81881773
00000000: a9da 533f 16f6 6a3f 0a73 2f3f 3882 133f
00000010: 454e 083f 3473 203f 7623 0e3f 3059 1c3f
00000020: def8 203f d56b 273f ce7b 1a3f 565c 173f
00000030: deb4 fc3e 799b 1d3f 1797 283f 9d5e c83e
00000040: a4f4 0e3f 2c12 ff3e a71e e23e 0a9e 513f

res1_sc1.bn.bias f4 [20]
0.19634034 0.054565266 -0.18838474 0.0005307547 -0.085423216 -0.16713588 0.09807825 -0.23994221
0.22118077 -0.15856528 0.047287624 -0.14335908 -0.01597041 0.05694669 -0.010385434 0.15754585
-0.029376555 -0.12699105 0.08701134 -0.27111763
00000000: 710d 493e d47f 5f3d eee7 40be 5822 0b3a
00000010: 5ef2 aebd ab25 2bbe 40dd c83d 69b3 75be
00000020: 367d 623e f05e 22be abb0 413d b9cc 12be
00000030: 61d4 82bc ef40 693d ab27 2abc b353 213e
00000040: 1aa7 f0bc f109 02be 0033 b23d eecf 8abe

res1_sc1.bn.running_mean f4 [20]
-0.022204187 0.0064728335 0.07959536 0.051014524 -0.049662426 0.010125469 -0.09162792 0.06793116
-0.024890764 0.056784894 0.08091708 0.05961157 0.043395367 0.08097127 -0.05805293 0.001690507
0.011571219 0.015324517 -0.02496749 0.007935517
00000000: 8ee5 b5bc 101a d43b e402 a33d 9bf4 503d
00000010: d46a 4bbd 4ce5 253c 6ba7 bbbd 7e1f 8b3d
00000020: b7e7 cbbc 4797 683d dbb7 a53d 432b 743d
00000030: 57bf 313d 44d4 a53d e9c8 6dbd 0194 dd3a
00000040: 3695 3d3c af13 7b3c 9f88 ccbc f803 023c

res1_sc1.bn.running_var f4 [20]
0.020908792 0.0067069433 0.120961316 0.034928866 0.07697387 0.09007793 0.1352496 0.08317585
0.07136161 0.042180512 0.13430528 0.04203282 0.08957277 0.10459554 0.04595462 0.029184325
0.009853181 0.015447609 0.054389827 0.027659584
00000000: ea48 ab3c ebc5 db3b 91ba f73d 9211 0f3d
00000010: 7aa4 9d3d c77a b83d df7e 0a3e 1a58 aa3d
00000020: 0926 923d 79c5 2c3d 5387 093e 9b2a 2c3d
00000030: ee71 b73d 3036 d63d e93a 3c3d f713 ef3c
00000040: 3d6f 213c f817 7d3c dec7 5e3d 5a96 e23c
