models/dense_max/epoch_0015.pth (torch, 645162 bytes, 174 tensors)

rb1.conv1.weight f4 [10, 3, 3, 3]
00000000: 71d6 a0bd dbad a13d c387 aabd 4da1 6cbe
00000010: a739 893e 0c69 3d3e c773 47be 43e8 483e
00000020: cb59 ecbd 43b9 2ebe b4c6 623c ec94 36bd
00000030: 3229 9fbe 95f0 8e3e 9e96 2d3e 9c30 3abc
00000040: 20b3 8d3e c3f5 68be b792 b4bc 479d 4f3a
00000050: 0c65 bdbd 1ad4 6abe 10ec 2d3d 00fb 793c
00000060: f295 083e cb73 853d ad4d 123e b13e 613d
00000070: edb3 f33c 25ba 273e 78f0 873d 4dc8 0b3e
00000080: 820b b2be 250a 85bd c61c 313d 256b b0bd
00000090: 2bdd 40bd 750c 9abc 4bd0 53bc 622b 0cbd
000000a0: c497 d83e db36 65be cdef 54bd cf70 ca3d
000000b0: 78a1 0abe 44a7 14be aa17 2ebe 15f5 e73d
000000c0: 2d67 923c 09e6 b23e 8b82 88be f5c4 abbb
000000d0: 9bc8 d33d 61df 383d 6a37 d43c c64a 8a3e
000000e0: f279 453e c200 0abe 86de 94bd f573 d03d
000000f0: 2040 6dbd 8ac5 5abe 628e a23c 0785 793e
00000100: 53b7 6e3e b852 a03e 663c 0a3b cbfd 34be
00000110: fb88 f0bd 4a2a e7bd 1244 89be 18dc 37be
00000120: 6dc3 833d a623 2a3e a925 623d 9b19 253b
00000130: 2a9c 40bd 27bd cbbd 412e d03d bd5c 50be
00000140: b6f2 fcbd e3aa 44be 719a 033d 0152 2dbe
00000150: 56c2 a73d ee70 9abe fc51 25be 27f2 353d
00000160: a7e2 c93d e293 233e 81f8 edbd 89d1 24be
00000170: 5e94 2fbe e199 623e b6a3 85be bd43 eebd
00000180: ffa4 883e 0857 a03c 0a17 903c 9535 68bd
00000190: e04d 9a3c 3e04 1ebe 6145 733c 3748 25be
000001a0: 3a85 fabd 8220 3d3e 397f c43c c39b 6f3e
000001b0: 40c8 74be de61 6abe f7a6 443e c735 9dbd
000001c0: 8c73 30be 61fc 0d3e 1e1a d4bd b889 28bc
000001d0: 745d 5f3e de3e 6c3e a8e4 65be e598 c2bd
000001e0: af54 9abd 85fb 82bc 0de2 233e cfbe c93d
000001f0: 8ef4 f33d 7c08 f73d 3712 883e 6f08 a33d
00000200: 4c53 acbd b45d 633e ddca f53c 126c 94be
00000210: 42b0 173e 9924 d83c 3fff 39be f84a 45be
00000220: aef1 15be 0382 0a3e b83f f93b fdaa 1abe
00000230: f4e5 9e3b 4849 e03d 7a66 d2bd 3c3a 493c
00000240: 41f9 673d d3f4 3f3e 4643 643e 77cb 84bd
00000250: 47aa e4be e005 f1bd b46e 293e f3af 00be
00000260: aa22 adbe 12fc a23c 7cd1 9ebd 3541 6e3e
00000270: 346f b5bd b786 34be eac2 f2bb 592d 5dbe
00000280: c9f7 a5be 11bf 7b3c 1aaf d0bc 524e 33bd
00000290: 58a6 e83d 7321 a83d 74e4 483e acd8 ddbd
000002a0: 76bd 99bc ac02 0bbd 6a53 fa3c eeb7 8b3d
000002b0: fd22 dc3c 7beb b83d 2648 083e 4b8a 933e
000002c0: 9fd8 63bd 9638 3c3d 099e 593d 9498 2fbe
000002d0: aaca 81be 04f1 17be f230 adbd b17a 753b
000002e0: fc55 eb3d 1c00 1d3e e765 87bd 41ab cb3e
000002f0: 4184 8f3e 5dac 9a3b e514 0abe 6f34 493e
00000300: 14c4 85be e8b3 6dbd 5002 693d 4257 673e
00000310: fd92 6cbd 3d6d 3f3e 6868 ea3d a09e 6ebc
00000320: 7a66 503e 5b08 67be bc0e c1be c967 2cbc
00000330: c899 1c3e 4e26 053e 954c 80be 6631 06be
00000340: 0aae bcbd 705e 923d c417 babd 2489 19be
00000350: dabb ba3e b90b 893e 9f19 cbbd 0e48 03bd
00000360: 1924 90be 5d47 cd3d 8810 a8bb 791b 95bc
00000370: dc0d 443e 02ef 923e 31c7 3ebc 3d64 163e
00000380: d62f 76bd be1f bfbd b614 15be 8742 14be
00000390: 66b3 123c b2cb 033e 41c1 7bbd 3fb2 713e
000003a0: 40af 93be bb8c 46be 4def 823d fd7a ce3d
000003b0: 3ba3 c6bd 337c f83d 2f9c 5d3e 1b3b e03c
000003c0: 8c43 1a3d 5827 ce3c fbc6 6abe 07ba 8e3e
000003d0: 69b0 ec3e a99e 6d3e 6fbb 343e a491 9b3e
000003e0: 5a8e 673d 71e2 91bd cbb9 34be 35ad a7be
000003f0: 03e3 383e 1496 9a3e 2a25 5f3d 3c2d 6dbd
-0.078534015 0.078944884 -0.08326676 -0.23108406 0.26801798 0.18497103 -0.1947776 0.19619851
-0.11540564 -0.17062859 0.01384132 -0.044575617 -0.31086117 0.27917925 0.16951987 -0.011364128
0.27675724 -0.2275 -0.022042615 0.00079198595 -0.09247789 -0.22932473 0.042461455 0.015257597
0.1333845 0.065162264 0.14287443 0.054991428 0.029748881 0.16379602 0.06637663 0.13650627
-0.34774405 -0.064960755 0.04324033 -0.08614186 -0.047085922 -0.018804768 -0.012928079 -0.03422106
0.42303288 -0.22384207 -0.051986504 0.09884798 -0.13538158 -0.14516932 -0.17001215 0.113260426
0.017871464 0.34941128 -0.26662096 -0.005241985 0.10340997 0.045134906 0.02590533 0.27010173
0.192848 -0.13476852 -0.072690055 0.10178367 -0.057922482 -0.21364418 0.019843284 0.24367152
0.2331212 0.3131311 0.002109313 -0.1767494 -0.11744877 -0.11287363 -0.26809746 -0.17955053
0.06433759 0.16615161 0.055211697 0.0025192264 -0.04702393 -0.09948187 0.10165072 -0.20347877
-0.12350981 -0.19205813 0.03212971 -0.16925813 0.081913635 -0.30164284 -0.16144556 0.044420388
0.09857684 0.15974382 -0.11619664 -0.16095556 -0.17146441 0.22129013 -0.26101464 -0.11634014
0.26688382 0.01957275 0.01758911 -0.056691725 0.018835962 -0.15431306 0.014848084 -0.16140829
-0.12232442 0.18469432 0.023986446 0.23399262 -0.23904514 -0.22888896 0.19204317 -0.07676273
-0.17231578 0.13865806 -0.10356544 -0.010286741 0.21812993 0.23070857 -0.22450507 -0.095018186
-0.07535683 -0.015989074 0.160042 0.09850847 0.119118795 0.12062165 0.26576397 0.07960593
-0.08414325 0.22203714 0.03000396 -0.289887 0.14813331 0.026384639 -0.18163775 -0.1926688
-0.14642975 0.13526158 0.007606473 -0.1510429 0.00484919 0.10951477 -0.10273452 0.012281951
0.05663419 0.18745737 0.22291288 -0.0648412 -0.4466116 -0.11768699 0.16546136 -0.1256712
-0.3381551 0.019895587 -0.077548 0.23267062 -0.08859101 -0.17629515 -0.0074084895 -0.2159933
-0.32415608 0.015365378 -0.02547412 -0.043775864 0.113598526 0.08209505 0.19618398 -0.108323425
-0.0187671 -0.033938095 0.030557353 0.06822191 0.026872152 0.09029289 0.13308772 0.28816447
-0.055626508 0.045952402 0.05312923 -0.17148048 -0.25349933 -0.14838034 -0.08456601 0.0037457163
0.114910096 0.15332073 -0.06611233 0.39779094 0.2803059 0.0047202543 -0.13484533 0.19648908
-0.26126158 -0.0580329 0.05688697 0.2259188 -0.057757366 0.18694015 0.11445695 -0.014564186
0.20351592 -0.22561781 -0.37706554 -0.010522791 0.15293038 0.13002893 -0.25058427 -0.13104782
-0.09212883 0.07146919 -0.09086564 -0.14993721 0.36471444 0.26766756 -0.09916996 -0.03205114
-0.2815254 0.10023377 -0.005128924 -0.018201577 0.19145912 0.28697973 -0.011644171 0.14686675
-0.060104214 -0.09332226 -0.14558682 -0.14478503 0.008953905 0.12870672 -0.0614636 0.23603152
-0.28844643 -0.19389622 0.06393299 0.10082052 -0.096991025 0.12133064 0.2164161 0.027371934
0.037662074 0.025165245 -0.22927468 0.27876303 0.4622834 0.23205055 0.17649625 0.30384552
0.05653224 -0.071232684 -0.17649 -0.32749334 0.18055348 0.30192626 0.0544788 -0.057904467

rb1.conv1.bias f4 [10]
00000000: 8763 3539 daa2 eab8 650b b439 5c35 05b8
00000010: a281 8fb9 45d3 03b9 a9be 9838 9877 1a39
00000020: 3001 ca39 fa90 5fb9
0.00017298582 -0.00011188323 0.00034340765 -3.1759366e-05 -0.0002737167 -0.00012571838 7.283438e-05 0.00014731137
0.00038529327 -0.00021320945

rb1.bn1.weight f4 [10]
00000000: 47ee 483f a262 a13f c448 593f 3259 5d3f
00000010: efee 143f b001 4c3f 7be0 2b3f c718 7e3f
00000020: 1919 553f ec51 2c3f
0.7848858 1.2608225 0.84876657 0.86464226 0.58177084 0.79690075 0.67139405 0.9925656
0.8324142 0.673125

rb1.bn1.bias f4 [10]
00000000: 46f4 9e3e a44d 933f b2e5 813c ff6e 823d
00000010: f801 893d 2059 2bbc 35a4 a2bb c7dd 503f
00000020: 29f7 0c3f cba1 103e
0.3104574 1.1508069 0.015856598 0.06368827 0.06689829 -0.010458261 -0.0049634227 0.81588405
0.55064636 0.14124219

rb1.bn1.running_mean f4 [10]
00000000: 3f9e 48bc 5811 1dbc 0cc0 963c f906 aa3c
00000010: 0fb6 e8bc 6d54 cc3d ee68 92bd 327a 1f3b
00000020: e9e1 8bbc ae2f adbc
-0.01224476 -0.009586655 0.018402122 0.020755278 -0.028407125 0.099770404 -0.0714892 0.0024334309
-0.017075496 -0.0211409

rb1.bn1.running_var f4 [10]
00000000: 602a 943d 346d 1f3d e73d 303e 5e0f 673e
00000010: bc97 203d d507 ea3e 971c 803e 0b52 643d
00000020: fab3 213d 4f11 da3e
0.07234645 0.038922504 0.17211114 0.22564456 0.039207205 0.457091 0.25021812 0.055742305
0.03947828 0.4259133

rb1.conv2.weight f4 [10, 10, 3, 3]
00000000: e57e 30bd 148a 46be dc1a 4ab7 41a4 aa3c
00000010: 46ca 14be 8023 68bd 8f64 84bc 85a3 08bd
00000020: 5aff 8cbc 1166 4ebb 9901 223e 7871 84be
00000030: e34b 88be c251 cbbd 598d 303e 4226 183e
00000040: 48ac 51be 13d3 3f3c 7c4c 14be 4fb3 9e3d
00000050: 13f1 e2bd 65d0 653a 98e6 54be e6eb 32be
00000060: 6c1d 2c3c 2fcb f03d afda 073e 612e 0e3e
00000070: 9cf0 313e e5f1 0b3e 589e b83d a0eb dd3d
00000080: 1b3d 083d 4f25 e8bd 69db 50bd a323 6ebe
00000090: 323b 04be aebc 803d 9ee8 0fbd 97e6 4abc
000000a0: 263e d9bd 9179 763b 4b7e 85bd 1369 e8bc
000000b0: e143 dcbd e109 973d e5e7 6e3e 4e1c 273e
000000c0: bd72 10bd f741 a23b cf0f 39bd c3f1 5abd
000000d0: 1e36 7a3d cff3 123e 9ef0 66bd 2d00 debc
000000e0: 5a18 b5bd 81a6 c4bd 9d49 68be a6f4 97bd
000000f0: 2284 c63d c163 8b3d e503 9ebd 7a2a fdbb
00000100: c27f 013e 764e 903e d99d 3cbd 75df 87be
00000110: f3e6 c7be 08db 683c 26c4 2d3e ac76 a73d
00000120: 2b27 3dbd ddd2 24be ad0e d3bd f98b 053e
00000130: e106 793d fedd cf3d fdff 37be 1066 39bc
00000140: 7d1c 55bd 0991 9bbe 3979 9ebe 84c8 eabd
00000150: ab67 29be 0b3b 19bd 68b4 48bd c0d4 17be
00000160: 4a0c a7bd 566d 4f3d db72 4ebc e950 e5bd
00000170: 0d43 df3d d88a 7f3a 9b95 b53d a263 993e
00000180: b7c6 4ebd 8393 1c3e 54e8 e6bd b516 e23d
00000190: 15fb a73d 6da5 35be 9fb8 1a3e aff5 e7be
000001a0: 752b 9e3d c8f8 9abe df60 083e b6ef 223e
000001b0: 4125 ba3c 0e7d 003e 158a ddbd cb2c ac3c
000001c0: 68d7 2abe ad9c 1ebe 8a3c c43b e444 afbd
000001d0: dd58 0dbd 2ca7 61be 0b99 e13d 1f4b 263d
000001e0: d89b 8d3d abc7 21bd 5016 e6bd c142 feb7
000001f0: bb29 45be 8fcd dfbc 82d9 383e 0113 4e3e
00000200: 727e 1e3d 35f4 8e3d 562c f3bc 2045 aabd
00000210: 7efe 04bc 10ca 12be 1893 32be 0eb7 b5bd
00000220: c7ab a3bd d8f4 94bd 1511 56bd de69 79bd
00000230: 4df5 ecbd 0f05 a6bd 0e22 34be 8eaa 66bd
00000240: c341 da3d a9ba 223e a742 c73d 7771 2d3e
00000250: 21ad 383e 953e ec3d 8fcf 173e a2b6 343e
00000260: 5289 263c 04b8 aa3d fcc4 88be 37e2 17bc
00000270: accc 0ebd 25d6 84be 9e22 523e 0798 febc
00000280: b261 903e 19c2 80ba 87da 043e 9bef 03bc
00000290: 8a01 5ebe 327b cb3c 4495 d3bd ec29 113e
000002a0: 30fd f1ba e4b4 103e 43a4 e7bc 73d8 1cbd
000002b0: a1b8 a1bb 4e4a be3c dc19 7f3d 951c e6bc
000002c0: 5678 0d3d 20fc 88bd a65f 0b3e f3ab 0c3d
000002d0: 584c 7b3c ea3a 9ebe 8fbd 8ebd 15f2 e33c
000002e0: f572 87bd b7e3 7bbc fa96 b63d e374 803d
000002f0: 249e 713d 3148 3abd b0ee 17be b8b7 833b
00000300: fc82 58bd 2c9b 1ebe 25d7 2dbd 9507 4abc
00000310: 99ea 063e d9c0 113e a77c 8b3e bde1 953d
00000320: 4e06 3e3d 98d7 b03e b295 7b3d bd5a 2abe
00000330: 35f8 d13d b1f2 cabd ac63 7fbd a0dd cc3d
00000340: 89e3 633d f1e2 04bc 1c96 083d 32b5 813d
00000350: 3dc3 053c 0c5c 8f3e a337 083b d1f8 343d
00000360: 3133 fb3d 8bdb f33d c13f 773c 8fa2 803e
00000370: e95a 9c3d 93a8 fd3c a167 c13d 3d25 683d
00000380: f3ae 1c3a 79c2 703e 763a 663e 828f 3d3e
00000390: a2ba 2a3e 0274 c13d 6ea4 733d 50cf 213d
000003a0: 82ca 093d 3185 ccbd 0014 0a3c c358 2fbd
000003b0: 13d4 f5bd 85b7 41bb d3bd 18bd 8c2d c9bd
000003c0: 37fc 243c 8069 9abc f036 00be fbc6 2e3e
000003d0: b054 d33d 08de efba 6c45 533d 0cc9 973d
000003e0: 1bf1 83bc e068 fbbd 32b2 bf3c 82a4 85bd
000003f0: acad 8e3e a317 8e3e 3a2e 8cbd cb5e 3d3e
-0.043089766 -0.1938861 -1.2046392e-05 0.020830275 -0.14530286 -0.05667448 -0.016161231 -0.03335907
-0.017211605 -0.0031493942 0.15820922 -0.2586782 -0.26620397 -0.099277034 0.1724142 0.14858344
-0.20475876 0.011708039 -0.14482301 0.07749044 -0.110811375 0.000876671 -0.2079109 -0.174728
0.010505062 0.11757504 0.13267015 0.1388488 0.17376941 0.13666494 0.09014577 0.108359575
0.0332614 -0.11335241 -0.050990496 -0.23255782 -0.12913206 0.06285988 -0.03513395 -0.012384078
-0.10607557 0.003760908 -0.06518229 -0.028370416 -0.107551344 0.07374931 0.23330648 0.16319391
-0.035265673 0.0049517113 -0.045181092 -0.05345322 0.061086766 0.14350818 -0.056381814 -0.027099693
-0.08842535 -0.096020706 -0.22684331 -0.0741971 0.09693171 0.06806136 -0.077155866 -0.007726011
0.12646392 0.2818486 -0.046048973 -0.26537672 -0.39043388 0.014212377 0.16969356 0.08176932
-0.04617993 -0.16096063 -0.103055336 0.13041677 0.060797576 0.101497635 -0.17968746 -0.0113158375
-0.05202912 -0.3038409 -0.3095186 -0.114640266 -0.16543452 -0.037409823 -0.049000174 -0.14827251
-0.08156641 0.05064138 -0.012600626 -0.11197073 0.10901461 0.00097481674 0.088664256 0.29958826
-0.050482478 0.15290646 -0.11274782 0.11039487 0.08202187 -0.17738886 0.1510949 -0.4530463
0.077231325 -0.3026793 0.13318203 0.15911755 0.022722842 0.12547705 -0.10817353 0.021017453
-0.16683733 -0.15489455 0.005988662 -0.08558062 -0.034508575 -0.22036427 0.11015519 0.040598985
0.069144905 -0.03949706 -0.112347245 -3.0310244e-05 -0.192542 -0.027319698 0.18051723 0.20124437
0.038694806 0.069801725 -0.029684227 -0.08313966 -0.008117316 -0.14334893 -0.17438924 -0.088728055
-0.07991748 -0.07273263 -0.052262384 -0.06089198 -0.11570225 -0.081064336 -0.17591116 -0.056314997
0.10657074 0.15891518 0.0972951 0.16937815 0.18034793 0.11535374 0.14825271 0.17647794
0.010164576 0.083358794 -0.26712787 -0.009270242 -0.03486316 -0.2594463 0.20521018 -0.031078352
0.28199536 -0.0009823471 0.12973987 -0.008052732 -0.21680275 0.024839018 -0.103312045 0.14176148
-0.0018462297 0.14131504 -0.028276568 -0.03829236 -0.0049353396 0.02322879 0.06228052 -0.0280898
0.03453859 -0.06688714 0.13610706 0.03434367 0.015338026 -0.30904323 -0.06969749 0.027825395
-0.06613723 -0.015374116 0.08915515 0.06272294 0.058988705 -0.045479003 -0.14837146 0.0040197037
-0.05285929 -0.15488881 -0.042441506 -0.012330909 0.1317543 0.14233722 0.2724354 0.07318447
0.04639273 0.34539485 0.061422057 -0.16636176 0.1025242 -0.09909571 -0.062350914 0.10003209
0.055636916 -0.008110748 0.03334628 0.063333884 0.008164224 0.27999914 0.0020785115 0.044182602
0.12265623 0.11907109 0.015090884 0.25124022 0.07634527 0.030964172 0.09443594 0.05667614
0.0005976997 0.23511685 0.22483239 0.18511775 0.16672757 0.09445955 0.059482984 0.03950435
0.033640392 -0.09986342 0.00842762 -0.04280926 -0.120033406 -0.002955885 -0.037290405 -0.098231405
0.010069898 -0.018849134 -0.12520957 0.17068093 0.10318887 -0.0018300423 0.051579878 0.074113935
-0.016106179 -0.12275863 0.0234004 -0.06525518 0.27866876 0.27752408 -0.068447545 0.18493192

rb1.conv2.bias f4 [10]
00000000: 0a66 4bb8 26df 8139 dbf4 6d38 6c37 95b9
00000010: c6c3 32b9 5b65 a3b9 02da f338 8a04 c838
00000020: e0ca 45b8 ceae 15b9
-4.8494003e-05 0.00024771056 5.6733243e-05 -0.00028460787 -0.00017048334 -0.00031165298 0.0001162775 9.5375886e-05
-4.7157402e-05 -0.00014274867

rb1.bn2.weight f4 [10]
00000000: 907c 843f 1ba2 903f dcbd 4b3f e59e 8e3f
00000010: 624c 3d3f 274b 893f ecf2 a93f 33b0 873f
00000020: bf41 8f3f 8005 5b3f
1.0350513 1.1299471 0.7958658 1.1142241 0.73944676 1.072606 1.3277259 1.0600647
1.1191939 0.8555527

rb1.bn2.bias f4 [10]
00000000: 74fe 263d e290 8ebd b023 8a3e b42a 29bd
00000010: c265 733e cd06 d93d ca78 ffbb c71b cd3d
00000020: 17c6 403d d3c4 863e
0.04077001 -0.06961228 0.26980352 -0.04130049 0.23769286 0.10597 -0.0077963816 0.10015064
0.047063913 0.2632204

rb1.bn2.running_mean f4 [10]
00000000: 3bd2 a4bf 0426 53be 0b70 383f 7a00 d93d
00000010: 5faa 0cbf e4aa 73be 5cf4 25bf 74cd 9cbe
00000020: 08d3 283e fa06 d53f
-1.2876657 -0.2061997 0.72045964 0.10595794 -0.54947466 -0.23795658 -0.6482599 -0.30625498
0.16486752 1.6642754

rb1.bn2.running_var f4 [10]
00000000: 1e60 d33f 46c4 a03f 3106 913f dfd8 c13f
00000010: a2c4 7f3f bf1b cf3f 5573 0c40 01c7 d73f
00000020: 9214 0340 ae61 e93f
1.6513708 1.2559898 1.1330014 1.5144309 0.9990941 1.6180342 2.1945393 1.6857606
2.0481305 1.8232934

rb1.shortcut.conv.weight f4 [10, 3, 1, 1]
00000000: 02da e53e 74ef 65b8 b868 af3e 3c8e acbe
00000010: 5861 09bf 553b c3be 9d03 bc3e 0a28 b6be
00000020: b546 dd3d 2e8d f2be e467 33bf 44f4 413e
00000030: 7d59 cabd 8acf 3bbe 6f3b 173f aed3 bc3e
00000040: 3c14 053e 2656 fd3e 2b82 c6be 9115 aebe
00000050: 0318 9fbe 99fa 8fbe 4ba4 33bf 71ff 8c3e
00000060: d78f a2be aec5 03bf 9af2 87bd afef 93be
00000070: dc72 793d 8ae5 15bf
0.4489289 -5.4820863e-05 0.34259582 -0.33702266 -0.5366416 -0.38131204 0.36721507 -0.35577422
0.10804502 -0.47373337 -0.700804 0.18940836 -0.0988035 -0.18340889 0.59075063 0.3688025
0.12996 0.4947979 -0.38771185 -0.3400083 -0.31073007 -0.28120878 -0.70172566 0.27538636
-0.31750366 -0.5147351 -0.066380695 -0.28893802 0.060900554 -0.58553374

rb1.shortcut.conv.bias f4 [10]
00000000: 7aef 8839 a821 d738 d69f 383a 040c 7537
00000010: 3f34 8239 5ca5 2fb8 feef 18b9 b755 9a37
00000020: dbf8 b037 3839 ed38
0.00026118365 0.00010258268 0.00070428604 1.4605936e-05 0.0002483446 -4.1877254e-05 -0.00014585254 1.8398145e-05
2.1096717e-05 0.000113116985

rb1.shortcut.bn.weight f4 [10]
00000000: b30a 7b3f 18ee 6b3f 337e 843f 74b2 633f
00000010: 7bbe 903f 4fb6 703f a5c4 183f dea3 323f
00000020: efda 663f ecbf 693f
0.980632 0.9216018 1.0351013 0.8894417 1.130813 0.9402818 0.59675056 0.6978129
0.90177816 0.91308475

rb1.shortcut.bn.bias f4 [10]
00000000: 74fe 263d e290 8ebd b023 8a3e b42a 29bd
00000010: c265 733e cd06 d93d ca78 ffbb c71b cd3d
00000020: 17c6 403d d3c4 863e
0.04077001 -0.06961228 0.26980352 -0.04130049 0.23769286 0.10597 -0.0077963816 0.10015064
0.047063913 0.2632204

rb1.shortcut.bn.running_mean f4 [10]
00000000: f1c4 48bd b217 9a3d 7856 9abb 8a28 bc3c
00000010: dc60 5ebd c49e 8fbd 202a 743d 120d 0e3c
00000020: 3e01 1f3d 1232 8e3d
-0.049015943 0.07524051 -0.004710015 0.02296855 -0.05429159 -0.07012704 0.059610486 0.008670108
0.038819544 0.06943144

rb1.shortcut.bn.running_var f4 [10]
00000000: 025e 0d3e 73de b33e de53 cd3b 820a 603e
00000010: 46c6 1a3d 3bbc 623e 1acf 733e f4f9 ee3d
00000020: b098 363e ae8d 1d3e
0.13805392 0.35130653 0.0062661013 0.21879008 0.037786745 0.22142117 0.23809472 0.116687685
0.17831683 0.15386078

rb2.conv1.weight f4 [20, 10, 3, 3]
00000000: a86d 903d 4927 073e 3aa9 883d 7696 363e
00000010: 1e47 5e3e 9cdb 043e 0737 233d 86cf e43d
00000020: d3a8 f83d 2dcf 2b3e 1288 05be 5f77 d1bd
00000030: 8eb9 d0bd 5d71 6fbd 8238 d5bc d8d5 263e
00000040: 79d2 21be f639 01be 79b7 ecbd 847c a6be
00000050: 87e3 39be f9ca 2ebc d933 87be 3e87 11be
00000060: 82e8 1d3d 0cb7 0d3d 7829 d6bd 5e6f 0c3b
00000070: c462 f3bd 14e3 da3d 4122 7e3d 286d 803d
00000080: 8f3f f83d 8c52 293d ca5a 363d 49fa 5a3e
00000090: af70 b5bb 259e 0e3e 8258 d4bc e3b9 adbd
000000a0: 6d75 853c 9e92 b63d 13b0 ac3a e1c7 95be
000000b0: f98b 7cbe bd0a be3d 155c f83c 0312 893d
000000c0: f187 06be 3bdf 9abd c9af a2bd b2b4 87bd
000000d0: 7577 ebbe 9f5c 8cbd 99e8 d73d 8c9f b23d
000000e0: 75cf 1c3e aa9b b23d cf1d 813d df1d d43d
000000f0: 07f9 673d 6d03 88bc 4c2b 64bd c50b 9f3d
00000100: 9cfa a5bd a727 5e3d f79e a7bd 6866 b6be
00000110: 6196 9fbd 8fb0 bf3d e1a9 1bbe f60d bcbd
00000120: 1c0a 61bc c819 6bbb 4642 12be 8f5f 2bbe
00000130: 41a7 a03d 15c7 1f3e 5752 27be c1b3 e1bc
00000140: 846c c73d 42c7 f8bd b851 c93b 067b 18be
00000150: 1dad d23c c861 473d 3aab 1b39 95c2 8dbd
00000160: 62b0 683d eb9b 5d3e eb22 83be 00d8 2bbe
00000170: 0443 96bd dc26 3b3d a0b4 4abd 57cf 0abc
00000180: df7c 293e d058 553e 39e7 563e 02ff 94be
00000190: b40c 12be ecc7 08bd 7e7e 08be cdb6 ba3d
000001a0: defb b6ba 70f8 afbd ef08 60bd 88f0 dabc
000001b0: 92ba 8abe 598b b7be 14bc 5cbe e7fd df3d
000001c0: dd8d 423d 8622 4abc a5f5 483e e776 833e
000001d0: 7b22 993e 043a 92bd f6b5 d33b 0f6b 1dbd
000001e0: 0723 1fbe eae7 3e3d a6de cabd 3e27 b9bd
000001f0: 384a 6abc 5ee7 cbbd 05b6 303e 55e6 6d3e
00000200: 3c6d 013d 19bf 0b3c 1d10 b3bc 21f8 05be
00000210: 1073 2fbe 3124 73be 12b4 72be 1113 613b
00000220: a88f e33b 693f 123e 8df3 6ebd 39bc 2b3d
00000230: 3c68 5a3d f48b 4a3d 0f61 09bc 1e2e c73d
00000240: 96e3 cb3d 9165 003e 0ac1 bb3c 5245 24bd
00000250: 9000 cd3c 7f33 e1bd 046a 36bc 743b bc3c
00000260: b626 75bd e960 253e 6a70 953e 0184 153e
00000270: 5367 703b da60 9e3d e998 e83d 6792 18be
00000280: 0c5e 9f3c b94b 96bd 6dca f0bd 6048 9c3d
00000290: b13e b7bd a3d2 e5bd 84ac 903d 42ee 41be
000002a0: ff94 a63c 1879 373d f25c 45bd bf44 1dbd
000002b0: 6cc2 163d 44ce a03c d068 f33c 15b1 133e
000002c0: 724a 953d 585a f1ba 2909 943d e36c 79bd
000002d0: 3681 3bbd c29d 933d cc02 a6bd 29b4 71bc
000002e0: bf56 523d f7af 22bd 3d76 5abc a615 48bd
000002f0: 6fb4 ae3d 8180 03bd 1835 753c 4e01 3d3e
00000300: bba9 18be 1c8f 373d abc9 d73d eda9 9fbd
00000310: e3fa 69be 3f6c 30be 9c43 db3d 1f0f 35be
00000320: 2b87 583d df43 353e ba29 c7bc 0519 a1bc
00000330: 8030 4f3d 60c6 483d f015 9e3d 82d2 893e
00000340: a52a 6d3e 7fe5 043e 5200 303c 70ec 4a3e
00000350: fb71 463d de68 fdbd 5cbe da3d 10f3 133d
00000360: ee6b 15be 36c5 7c3c 2583 5cbd 40f9 9bbd
00000370: 3f95 89bd 3945 0b3b 282e b63d acaf 0cbd
00000380: c8d7 1ebb 851a e63d 47c1 863d 8799 9ebd
00000390: a5f6 aabe ab77 1c3d fb0b f53c efd0 6ebe
000003a0: 703e d93c 4aed 9d3d be2d 743e 8337 4e3e
000003b0: 2ef8 373d ab4b 0abe cc92 cdbd 6ae2 07be
000003c0: 3bd4 19bf c337 e6be b4f0 16be 6aaa 8fbc
000003d0: 99dd 3bbb a717 7d3d adb7 a7bd e9db 803d
000003e0: 3896 a73d 672e 98bd d704 82bd 052a d3bd
000003f0: 936c b1bd 7acb b2bd 233e 0abd cb28 1bbe
0.07052165 0.1319858 0.066729024 0.17830834 0.21706817 0.129744 0.0398474 0.111723945
0.12141576 0.1677825 -0.13040188 -0.10227846 -0.10191642 -0.05845772 -0.026027922 0.16292512
-0.15802945 -0.12619767 -0.11558432 -0.32516873 -0.18153201 -0.01066851 -0.26406744 -0.14211747
0.038551815 0.034598395 -0.10457128 0.0021428685 -0.118840724 0.10687843 0.062044386 0.0627082
0.12121498 0.04133849 0.044520177 0.21384539 -0.0055371146 0.13927515 -0.02592111 -0.08482721
0.016291345 0.08914684 0.0013175033 -0.29254058 -0.2466277 0.09279392 0.030317346 0.066928886
-0.13137795 -0.07562109 -0.079436846 -0.06626262 -0.45989576 -0.068536036 0.10542411 0.087218374
0.15313514 0.08721097 0.06304514 0.1035726 0.056633975 -0.016603196 -0.055705354 0.07765917
-0.081044406 0.054237034 -0.08184617 -0.35625005 -0.077923544 0.09359848 -0.15201522 -0.0918235
-0.01373532 -0.003587352 -0.14283094 -0.16735671 0.07844401 0.15603288 -0.16340004 -0.027551534
0.097374946 -0.121473804 0.006143775 -0.1489068 0.025717312 0.048677236 0.00014845739 -0.06921879
0.056808837 0.21641509 -0.25612578 -0.16781616 -0.07337001 0.045691356 -0.049488664 -0.008472285
0.16551541 0.2083466 0.20986642 -0.29100806 -0.14262658 -0.033393785 -0.13329503 0.09116898
-0.001396056 -0.085923076 -0.05469602 -0.026726022 -0.27095467 -0.358485 -0.21556121 0.109371
0.047498573 -0.012337333 0.19624956 0.25676653 0.2990912 -0.07139972 0.0064609004 -0.038432177
-0.15540706 0.04660789 -0.09905748 -0.09040688 -0.014299922 -0.09956239 0.17256935 0.23232396
0.031598315 0.008529448 -0.02185827 -0.13082935 -0.17133737 -0.23744275 -0.23701504 0.003434364
0.0069446154 0.14282002 -0.058337737 0.04192755 0.053322062 0.049449876 -0.008384957 0.09725593
0.09955518 0.12538745 0.022919197 -0.04010517 0.025024682 -0.1099615 -0.0111336745 0.022977568
-0.05985137 0.1615025 0.29187328 0.14601137 0.003668268 0.07733317 0.1135729 -0.14899598
0.019454025 -0.07338662 -0.1175736 0.07630992 -0.08947504 -0.112218164 0.07064155 -0.18938544
0.020334719 0.04479322 -0.048184343 -0.03839564 0.03680651 0.019629605 0.029713064 0.1442302
0.0728959 -0.0018413765 0.0722831 -0.060894858 -0.045777522 0.07207824 -0.08106002 -0.014752426
0.05135226 -0.039718594 -0.013333854 -0.04884877 0.08530509 -0.032104973 0.014966272 0.18457529
-0.14908497 0.044814214 0.10536512 -0.07796083 -0.22849612 -0.17228793 0.10706255 -0.1768155
0.05286328 0.17701672 -0.024311889 -0.01966525 0.050583363 0.04901731 0.07719028 0.26918417
0.23160799 0.12978171 0.010742264 0.19816756 0.048448544 -0.123735175 0.106808394 0.036120474
-0.14591953 0.015427878 -0.053836007 -0.076159 -0.067179196 0.0021250977 0.08895522 -0.03434722
-0.0024237502 0.11235527 0.065798335 -0.07744127 -0.333913 0.03820006 0.02991294 -0.2332189
0.02651903 0.07711275 0.23845574 0.20138364 0.044914417 -0.13505428 -0.10037765 -0.13269964
-0.60089463 -0.44964418 -0.14740258 -0.017537314 -0.0028666018 0.061790135 -0.0818933 0.062919445
0.08182949 -0.074307255 -0.063485794 -0.10310749 -0.08663287 -0.08730216 -0.033750664 -0.1515228

rb2.conv1.bias f4 [20]
00000000: b0fd 2d37 264a 3bb8 d65d 68b8 60c5 0635
00000010: e488 77b7 6e4c 9738 e191 5837 e2a4 6537
00000020: 0d44 1037 9e14 e3b7 9207 bfb7 62c1 9ab7
00000030: 3e38 a437 aa1d 9ab8 54e6 ae38 c2a7 b8b7
00000040: 4a02 2fb8 9c3d 2736 1e8b 6d39 3499 c9b7
1.037067e-05 -4.465333e-05 -5.5400502e-05 5.020611e-07 -1.475422e-05 7.214477e-05 1.2908568e-05 1.3687853e-05
8.598913e-06 -2.707011e-05 -2.27725e-05 -1.8448281e-05 1.9576513e-05 -7.3488176e-05 8.3398685e-05 -2.2012628e-05
-4.1725383e-05 2.49208e-06 0.00022653906 -2.4032408e-05

rb2.bn1.weight f4 [20]
00000000: c5ef 523f 21d9 603f 39e4 663f c2fb 873f
00000010: 031c 893f 3778 3e3f 2b61 763f f894 5a3f
00000020: c1b2 333f 71ac 5d3f 003a 4a3f d0bb 813f
00000030: 94aa 843f b53b 783f 9ba6 6e3f ab25 8a3f
00000040: df24 683f 3d8e 623f 6e2a 783f 22dd 723f
0.8239711 0.8783131 0.9019199 1.0623705 1.0711673 0.74402183 0.96242017 0.8538356
0.7019463 0.8659125 0.7899475 1.0135441 1.0364556 0.96966106 0.9322297 1.0792745
0.9068126 0.8849829 0.9693974 0.9486867

rb2.bn1.bias f4 [20]
00000000: 0c99 0a3c 07eb 21be ad29 f43d 32a5 07bd
00000010: c937 89be 5731 aabd f1c3 1d3d 9bb1 0b3e
00000020: 41ba 5fbc a607 de3d d0a7 953c fe6b 543d
00000030: 1172 dabd 0b93 2f3d cc42 d8bd 9f8d a3bd
00000040: da49 e73d 226f a9ba c24c cf3d 7615 e9bd
0.008459341 -0.15812312 0.119220115 -0.033116527 -0.26800373 -0.08310192 0.038516942 0.1364197
-0.013655246 0.108413026 0.018268496 0.051860802 -0.10666288 0.04286484 -0.105596155 -0.079859965
0.11293383 -0.0012926797 0.10122062 -0.113810465

rb2.bn1.running_mean f4 [20]
00000000: d369 99bf 9024 96bd 23c8 d1bf 4ada 34c0
00000010: 25b9 86bf 4679 e23d a6d1 b6bf 5dac c5bf
00000020: ba1c 973f 2cd4 bdbc da92 d4be ac4e 90bf
00000030: d8cb 1ec0 5a0b 56bf 0aeb 18bf 6cec eabf
00000040: 0bf1 f7bf 9dbb 83be 3c67 d8bf ab08 3ebe
-1.198542 -0.073311925 -1.6389202 -2.8258233 -1.0525252 0.11058287 -1.428273 -1.5443226
1.1805642 -0.02317246 -0.4151829 -1.1274009 -2.4811916 -0.8361107 -0.5973364 -1.83534
-1.9370435 -0.25729075 -1.6906505 -0.18557994

rb2.bn1.running_var f4 [20]
00000000: f67a cc3f 39b0 ba3f 8716 f63f 08e6 3440
00000010: 8dfe 1240 ce8e bf3f 4757 1c40 c15e 2040
00000020: b894 9d3f 1990 993f bdfc c23f 507e 0c40
00000030: 77e6 1e40 25da 0a40 6bf8 ae3f bc3c 2640
00000040: ca89 1540 3a55 f43f b6cd dc3f c40e 0540
1.5975025 1.4585029 1.9225625 2.82654 2.2967865 1.4965456 2.442827 2.5057833
1.231101 1.19971 1.523338 2.1952095 2.4828165 2.1695645 1.3669561 2.597457
2.336535 1.9088509 1.7250278 2.0790262

rb2.conv2.weight f4 [20, 20, 3, 3]
00000000: dd83 39bb 02f8 b93d 410e ecbc 71a7 123d
00000010: 4245 a13c 36b2 f1bd 88f1 bbba 4730 ecbd
00000020: efca 29bd 6508 55be dcac 343e e4df d93d
00000030: 3379 bc3c 0de5 363e ab40 fd3d bd8a a13d
00000040: 3755 993d d64c 233e 2955 17bb 84d2 16bd
00000050: 4882 1a3d 97c6 113e 1dea 8d3d 3cdc e6bb
00000060: 3f8a f0ba aa32 f33a c8bf ecbd cd54 38be
00000070: 3489 02bd 7115 3abe c3fb cabd ef7f d23d
00000080: bafd 79be 1a72 9abe c103 debc 3826 38bd
00000090: 4af4 ffbd 8ef0 b7bd 4450 ffbd 34f2 dbbb
000000a0: 30b1 dd3b f109 efbc 0dbc ea3d 0e73 2e3e
000000b0: aaf0 5f3d 5cec 17be 154b dcbc c89b 83bd
000000c0: 9c05 2ebe 6ab2 1a3e 8d4a d93c 06a4 4b3d
000000d0: 8087 59bd 1553 d13b c7e4 12bd 2031 3bbc
000000e0: 1ed5 c2bd b70a d83d b77e 933b 83d5 a0bd
000000f0: aa9b febd 276d 18be 402e 1d3d 8f71 37be
00000100: 2110 9abd 127e 05be be33 5bbc bfe6 01be
00000110: 0e4c 06be 6003 d6bd bef9 59be 5daf 843d
00000120: 0591 303e 4e6c 84be 0687 71be 2576 853e
00000130: 1d10 813d 8034 c7bd 2a44 57bd 5edd 543c
00000140: 0618 c93d 2086 9c3d 3378 4ebe 6ad4 88be
00000150: 6b3d 943d 3777 cfbd 16b7 f83d b410 4fbd
00000160: c84c 923d e4cd 923e 27f2 ea3c 0d05 6a3c
00000170: 20e2 b4bd 820c 383e 5447 8b3d 96fc bdbd
00000180: 3640 5f3d 3499 16be 15f5 99be 8f07 04ba
00000190: 02e2 6a3d 7e3a 373e c6ec 543c 375b 84bd
000001a0: ba50 e23d 2ba3 abbd a99e 03be f49d b8bd
000001b0: 9d55 37bd 3aa0 353d ff72 ecbc 8269 ffbd
000001c0: 64bb 0abe b532 c4bd a8fc adbe a55f 4bbe
000001d0: 1f99 59be 8ef6 813c c432 e23c 91a6 233a
000001e0: 5b85 013e ee7d 49bd f729 9a3d 8f41 d03d
000001f0: b305 ecbc c8c7 a53c 0639 3c3e 7bc3 8b3a
00000200: 8cb7 253e e215 5f3c afce e7bd 19a7 0b3e
00000210: 17a1 4b3d b400 c33d d0a3 4e3e f19b a63d
00000220: 37d7 813d e611 043e 6154 463c ce63 d83d
00000230: 55b6 893d 57e8 8c3c c397 1ebc e4f6 4cbe
00000240: 512d 2f3d c3f5 7ebc ef60 2d3d 7d84 623d
00000250: 862f da3d e081 303d c0bd a7bd 2bcf 5abd
00000260: 822c 0c3d 3951 763d 5886 b8bd 0ee3 983c
00000270: 425e 82bc 1a7e 25be 431d 1b3d b8fd 60bc
00000280: c769 44bd 986e 37bd 9740 04be 9e62 313c
00000290: 785a 3ebb 2d77 ffbd 7522 003e 2741 ac3d
000002a0: 4b94 82be e238 18bd 458c f8bd 9f85 723e
000002b0: 5292 5e3d 9a80 8e3d b4da a63d fd76 9e3d
000002c0: ba70 0b3e b786 0c3e af69 293e 69b3 5b3d
000002d0: c6c1 e93d 9856 153e a931 1fbe e322 42be
000002e0: b79c 933d 021d d0bd 7398 3a3b e16d 9cbd
000002f0: cf34 f8bd 5e50 bebd fd8d 7abe 941b 82bd
00000300: bd91 103e 4742 23bc e76a 893d 4578 a13d
00000310: b2fb a33d fc0b 9f3c 3b20 debd e630 afbd
00000320: 61c6 7cbd 3622 7bbe 9d07 b6bd c598 f0bc
00000330: 9742 1bbd 3a60 493d 6be0 e43c 0829 04be
00000340: c817 fa3c 569f edbc 1b8c 27be fecd 9d3d
00000350: c873 02be ca2a 6fbe c3d9 2fbe 0587 3cbe
00000360: a6e7 57be 44b1 07be 06bd 0dbe 39eb b6bd
00000370: f1f0 dfba 21f6 2abe dc61 ca3d 5ba2 aabd
00000380: 3354 e7bd 1d38 8dbd 4b44 83bd 7e4d 153e
00000390: 9ee1 7bbe 1ca2 45be d849 7d3d cc1e 093d
000003a0: 6b91 463c 58b0 b13d b36f 48bd 76ac 33bd
000003b0: 1978 083e ac9a 55bd 9b19 a63c 0f42 0d3d
000003c0: f598 e2bb 6559 073e 3dc3 2abc 47f4 303d
000003d0: 4676 4b3c 566c 64be e038 793d 614a e13d
000003e0: 0c98 9ebd a7ca 15bd 2c24 62bd d14e 0ebe
000003f0: be13 0fbe ae0c 88bd dca1 d6bd 365d c93d
-0.0028307356 0.09080507 -0.02881539 0.035804216 0.019686345 -0.11801569 -0.001433895 -0.11532646
-0.0414533 -0.20803984 0.17644066 0.10638407 0.023007011 0.17860813 0.1236585 0.0788779
0.074869566 0.1594728 -0.002309153 -0.036821857 0.037721902 0.14235912 0.06929419 -0.007045297
-0.0018351747 0.0018554528 -0.11560017 -0.18001099 -0.03186913 -0.18172242 -0.09911301 0.10278308
-0.24413195 -0.30165178 -0.0271014 -0.044958323 -0.12497766 -0.08981429 -0.12466481 -0.0067122225
0.006765507 -0.029179545 0.11461649 0.17036077 0.054672875 -0.14836258 -0.02689127 -0.06426197
-0.16994327 0.15107122 0.026524806 0.04971697 -0.05310774 0.006388078 -0.03586271 -0.0114252865
-0.09513305 0.10548919 0.0045011896 -0.07853224 -0.12432034 -0.14885388 0.038374186 -0.17914413
-0.075226076 -0.13036373 -0.0133790355 -0.12685679 -0.1311495 -0.104498625 -0.21286675 0.064787604
0.1724282 -0.2586388 -0.23586664 0.260667 0.063019015 -0.097268105 -0.05255524 0.012992231
0.09819035 0.0764277 -0.2016304 -0.2672456 0.07238277 -0.1013016 0.12144296 -0.05055304
0.07143551 0.28672707 0.02867992 0.014283431 -0.088321924 0.17973521 0.06800714 -0.092766926
0.054504596 -0.1470688 -0.30069795 -0.00050365267 0.057344444 0.17893407 0.012995904 -0.0646271
0.110505536 -0.08380731 -0.12853493 -0.09014502 -0.04475938 0.044342257 -0.028863428 -0.12471296
-0.13548046 -0.09579984 -0.33981824 -0.19860704 -0.21249817 0.015864637 0.027612098 0.0006242777
0.12648527 -0.04919236 0.075275354 0.10168754 -0.028811311 0.020236865 0.18381128 0.0010663116
0.16183299 0.013616057 -0.11318719 0.13637961 0.049714174 0.095216185 0.20179677 0.08135212
0.06339877 0.12897453 0.012105078 0.10565911 0.0672423 0.017200632 -0.0096797375 -0.20016056
0.042767826 -0.015561524 0.04232877 0.055302132 0.106535956 0.04309261 -0.08190489 -0.053420227
0.034222133 0.060136054 -0.09009999 0.018662956 -0.015914086 -0.16161385 0.037869703 -0.013732366
-0.04795244 -0.044783205 -0.12915264 0.010826735 -0.0029045623 -0.12473903 0.12513144 0.08410864
-0.25503764 -0.037163623 -0.12136129 0.23683785 0.05433876 0.069581226 0.08147183 0.07737539
0.1361722 0.13723265 0.16544221 0.053637896 0.114139125 0.14583814 -0.15546288 -0.1895862
0.07207625 -0.10161783 0.0028472214 -0.07638145 -0.121194474 -0.092926726 -0.24468227 -0.06352916
0.14118095 -0.009964532 0.06709843 0.07884268 0.080069914 0.019414894 -0.10845991 -0.085542485
-0.061712626 -0.24524769 -0.08888171 -0.029369721 -0.037905302 0.049164034 0.027939042 -0.12906277
0.030528918 -0.029006641 -0.1636204 0.077053055 -0.1273948 -0.23356166 -0.17172913 -0.18410881
-0.2108446 -0.13251215 -0.13841638 -0.08931584 -0.0017085356 -0.16695453 0.098819464 -0.08331748
-0.112953566 -0.068954684 -0.0640951 0.14580342 -0.24597785 -0.19300121 0.061838 0.033476636
0.012119631 0.08676213 -0.04893465 -0.043865643 0.13327064 -0.05214946 0.020275882 0.034486827
-0.0069152066 0.13217695 -0.010422525 0.04320171 0.012418335 -0.22306952 0.060845256 0.11000515
-0.077438444 -0.036570217 -0.055210277 -0.13897254 -0.13972375 -0.066430435 -0.10480091 0.09832232

rb2.conv2.bias f4 [20]
00000000: 67c5 1eb8 f486 55b7 8d96 b1b8 2f3f e6b7
00000010: 85e0 0eb8 ca66 1a36 e06f 9338 3015 61b8
00000020: b26a 3b36 4fef 18b7 2773 09b7 8fe2 a6b6
00000030: ee3c 1f38 3274 0638 50d7 5535 1c66 b1b7
00000040: 5156 e9b6 a400 e537 ed86 0fb7 36cf a737
-3.785398e-05 -1.2727211e-05 -8.46806e-05 -2.7447559e-05 -3.406454e-05 2.300762e-06 7.0303446e-05 -5.3663913e-05
2.7927276e-06 -9.115624e-06 -8.192647e-06 -4.9735604e-06 3.79653e-05 3.2056305e-05 7.9662004e-07 -2.1147593e-05
-6.9539897e-06 2.7299226e-05 -8.554879e-06 2.0004441e-05

rb2.bn2.weight f4 [20]
00000000: f91c 5f3f 9acd 743f f04c 9a3f f4d4 8f3f
00000010: a1c7 993f cc6a 8a3f 2bf0 a03f 93f9 9d3f
00000020: 50f3 9f3f 86dd 963f 2bc4 993f 2738 803f
00000030: 1f4d 973f e648 803f 9d68 8e3f db60 a73f
00000040: 92b2 ab3f 847b a63f 8b5a 903f 3329 5f3f
0.87153584 0.95626223 1.205473 1.1236863 1.2014047 1.0813842 1.2573293 1.2341789
1.2496128 1.1786354 1.2012991 1.0017136 1.182041 1.0022247 1.1125675 1.3076433
1.341387 1.3006444 1.1277632 0.8717224

rb2.bn2.bias f4 [20]
00000000: e1e4 373e 2339 3f3d a059 54be f95a 48bc
00000010: 4187 d4bd 6614 32be 534f bb3d 7e46 6cbe
00000020: b27b 583e 69e6 1abe 28e6 0f3d 8f28 16be
00000030: 8f52 c4bc 8985 613d a114 d5bc 44c3 113e
00000040: 7bc4 dcbc 927e fbbd 545d a63d ab8c 8dbe
0.17958404 0.04668535 -0.20737314 -0.012228721 -0.1037736 -0.17390594 0.09145989 -0.23073766
0.21140936 -0.15126957 0.035131603 -0.1466391 -0.023965148 0.05505899 -0.026010813 0.14234644
-0.026949158 -0.12280001 0.0812327 -0.27646384

rb2.bn2.running_mean f4 [20]
00000000: ea44 24bf 1963 0bc0 1316 96bf d887 87bf
00000010: c6a7 68bf 97ad 763e 7920 a8bf 0a27 ec3e
00000020: 5791 3dc0 f281 4abc 4a20 75bf 3b83 353e
00000030: f1ae e9bf d3e5 02bf 31fa a53e f687 bbbf
00000040: 20f8 2fc0 ad63 5fbe 703b 1bc0 d52b 493e
-0.64167655 -2.1779234 -1.1725487 -1.0588331 -0.90881 0.24089657 -1.313491 0.46123534
-2.9619958 -0.012360083 -0.95752394 0.17725842 -1.8256513 -0.51131934 0.32417443 -1.4650867
-2.7495193 -0.21815367 -2.4255028 0.19645627

rb2.bn2.running_var f4 [20]
00000000: 5322 703f cd49 853f 34ca 3d3f dfb5 8b3f
00000010: 25f0 363f c5d7 933f a136 a33f d4ad 2d3f
00000020: 60f4 a23f 682f 673f 3530 6b3f 12b4 483f
00000030: ef23 343f 9126 903f 98e6 b43f f85f 843f
00000040: ef09 733f 2caf 8b3f 0fd8 853f ffac 373f
0.93802375 1.0413147 0.7413666 1.0914878 0.7146018 1.1550223 1.2751046 0.67843366
1.2730827 0.9030671 0.91870433 0.78399765 0.7036733 1.126177 1.4132872 1.0341787
0.9493703 1.0912833 1.0456561 0.71748346

rb2.shortcut.conv.weight f4 [20, 10, 1, 1]
00000000: 9030 d4bc 5ba6 9ebd 2f3d ccbe 39d2 c6bd
00000010: 31b9 013f 9aa6 3ebc 65d7 593c 10c9 8d3a
00000020: 2007 83bc 0420 77be e749 b0bd e0a5 d63d
00000030: 682d 1fbf 0e3b 8a3d 9ab7 0fbe 929c 6cbe
00000040: c092 cabc c24d 53bc c7ed 43bc dcd2 e4bb
00000050: 6a07 c7bd b307 00be 71fa 08bd 3ef9 73bc
00000060: cfd6 613d 3124 cb3e b01a 143e 4193 cd3d
00000070: 8df4 19be 0b1f bbbe b286 02bd 1501 d23b
00000080: f741 ae3e 26b0 f53d 38d7 3b3e 885b 12be
00000090: 69df 863e b846 5e3e 6d46 da3e 2321 16be
000000a0: 54eb 06be 2056 613d 285f 8f3d d2c7 d23e
000000b0: 32f8 813d c0f1 87bd f4d6 f3bc bcbe 82bd
000000c0: a879 c53e 45b7 edbd cb83 8b3e be9a 413e
000000d0: 4522 cfbd 2bd2 b6be e5a1 72bd 0ec3 96bd
000000e0: da8e 5f3e 1f5c 1dbe 4991 23be ccb2 cebe
000000f0: cc4f eebd d0ba 1a3e 04be 2f3d b3c2 9abe
00000100: bc56 303c 277b cdbe be07 88be 3f5e 433d
00000110: 8fbb 893e aabb 8bbd 81cb 293e 8bd0 473e
00000120: 8089 a8bb fed5 69bd 64e4 32be 50ec b0bd
00000130: d767 9ebe 715b 2f3d 9791 19bf 993c 40be
00000140: 45e8 d0bd 1cca 0d3e ad33 c4bd 9422 adbd
00000150: fa3e 32bf e8d7 c5bd 0a61 8c3c 15c7 8c3e
00000160: 8c07 cbbd 9a20 b23c 3dcd 82be 1cdf bd3e
00000170: 7b2e 27be 3bc2 49be f2b4 443e 4679 eebd
00000180: f3a4 b5bc d3e6 043e a057 89bb 7899 c5be
00000190: 12c9 b83c 4e89 ae3d 1694 d9be 557f 863e
000001a0: 7fd9 9dbe 285e 11be da2a 8a3e b601 8c3d
000001b0: 98d2 023e ce62 933d 70ba 393c c402 15bd
000001c0: b629 a6be 01a5 7e3e b06f 863e b381 7b3e
000001d0: ce65 c4bd 0554 d2bd 6f15 143e 931a 3cbe
000001e0: 8adc d1bd 53e3 bdbe d148 603e e402 ab3e
000001f0: 6f7b b8bd 3708 3e3b fc09 633d f54a fabd
00000200: f451 c2be 09b4 e23d 2993 64bd 87e1 42be
00000210: 9148 07be 6ea6 aabd 9f87 853d 8aa7 023e
00000220: 9150 cb3d 151f b83d c41d 23bf 7117 1bbe
00000230: 3670 c83c 83a7 81be 3628 eabb eff0 43be
00000240: d5ff f4bb fcb6 bdbe fee6 cfbe 8b32 d1bd
00000250: 12a9 b8bd a5d1 403e c2f8 c73e a1ec b8be
00000260: 54c7 693e b208 073e b3f2 1abe c28b 0a3e
00000270: 49a4 153e 182a 06be 0136 89be 84dd 1bbd
00000280: f995 303e a560 a93e 511c efbd c5e6 9a3d
00000290: 7aab 66bc 2703 893e 004b 503e 26a9 e53d
000002a0: 72eb cd3d c61f bcbb 286e 813d ec15 9e3d
000002b0: a5dd 92be 7a15 0f3e d510 313d bd23 793e
000002c0: de5f 813e 82c2 d23e 0bae 213e 572e fdbd
000002d0: 7180 093d 6cc5 c63d f44d cabc d0ef 8dbe
000002e0: 1be6 dcbc 5785 233d e216 743c b1ad 9cbe
000002f0: 3f62 fbbe 4018 b8bd 742f 76be 6599 0fbe
00000300: 70fd c43e 31e2 49bc 4f57 1d3e eae4 88bd
00000310: f378 a73d 4505 eabd cb82 68be 49f7 bc3d
-0.025902063 -0.077465735 -0.3989043 -0.097080655 0.50673205 -0.011636401 0.013295983 0.0010817368
-0.015994608 -0.24133307 -0.08607846 0.10480857 -0.6217866 0.06749545 -0.14034882 -0.23106602
-0.024728179 -0.012896957 -0.011958546 -0.006983144 -0.09718211 -0.12502937 -0.033441965 -0.014890967
0.055136498 0.3967605 0.14463305 0.10037852 -0.15034695 -0.3654712 -0.031866737 0.0064088204
0.34034702 0.11996488 0.18343818 -0.14292729 0.26342323 0.21706665 0.42631856 -0.14661078
-0.13175708 0.055013776 0.070005715 0.41168076 0.063461676 -0.06637907 -0.029765584 -0.06384036
0.3856938 -0.116072215 0.27248988 0.18906686 -0.10113958 -0.3570722 -0.059236426 -0.073614225
0.21831837 -0.15367173 -0.1597339 -0.40370786 -0.11636314 0.15110326 0.042905822 -0.3022667
0.010762867 -0.4013302 -0.26568407 0.047697302 0.26900908 -0.068229035 0.16581537 0.19513147
-0.0051433444 -0.057088844 -0.17469937 -0.08638823 -0.309386 0.042811815 -0.5998778 -0.18773116
-0.10200552 0.1384663 -0.09580169 -0.08453861 -0.69627345 -0.096603215 0.017136116 0.27495638
-0.09913549 0.021744061 -0.2554721 0.3708428 -0.16326325 -0.19703 0.1920965 -0.11644225
-0.02217338 0.12978677 -0.004191354 -0.3859365 0.022556815 0.085222825 -0.42495793 0.26269022
-0.3083 -0.14196074 0.26985818 0.06836264 0.12775648 0.0719658 0.011335954 -0.03637959
-0.32453698 0.24867631 0.26257086 0.24561195 -0.0958973 -0.10269932 0.14461301 -0.18369512
-0.102471426 -0.37087497 0.21902777 0.33400643 -0.09007918 0.0028996596 0.055429444 -0.12221328
-0.3795315 0.11069495 -0.055804405 -0.19031344 -0.13211276 -0.08332525 0.06520008 0.12759224
0.09927476 0.089903034 -0.63717294 -0.15145661 0.024467569 -0.25323114 -0.007145907 -0.19134878
-0.0074767866 -0.37053668 -0.4060592 -0.102147184 -0.090166226 0.18829973 0.39056975 -0.36118034
0.22829944 0.13186911 -0.15131645 0.13529876 0.14613451 -0.13101995 -0.26799014 -0.03805305
0.1724471 0.33081546 -0.11675323 0.07563547 -0.014078969 0.26760218 0.2034111 0.11213903
0.10054673 -0.0057410924 0.06319839 0.07719025 -0.28684726 0.13973036 0.043228943 0.2433004
0.25268453 0.41164023 0.15789048 -0.12362354 0.033569757 0.09705624 -0.024695374 -0.27722025
-0.026965192 0.039922085 0.014898034 -0.30601266 -0.49098393 -0.08989 -0.2404154 -0.14023359
0.38474607 -0.012321995 0.15365337 -0.06684287 0.08177366 -0.11426786 -0.22706144 0.092268534

rb2.shortcut.conv.bias f4 [20]
00000000: fe45 b836 c6c7 b638 14b8 21b8 c939 83b7
00000010: 0920 25b8 b861 d4b7 aecc 1638 e0e7 7d38
00000020: 5a97 6737 fa44 8cb7 d1b1 9e38 704a 1fb8
00000030: 3c1f b4b8 c905 0b38 a661 8938 412e 4bb8
00000040: a46e 9238 8c57 4738 7ac9 e7b6 9a99 74b7
5.4917755e-06 8.715647e-05 -3.8556827e-05 -1.5643325e-05 -3.93689e-05 -2.5317873e-05 3.595341e-05 6.053585e-05
1.3803912e-05 -1.672142e-05 7.567148e-05 -3.797788e-05 -8.588887e-05 3.314557e-05 6.5508575e-05 -4.844205e-05
6.982431e-05 4.752683e-05 -6.9077914e-06 -1.45792965e-05

rb2.shortcut.bn.weight f4 [20]
00000000: b6a8 743f 2ebc 363f 14f1 6b3f 4894 103f
00000010: 71b9 333f 35a9 3c3f e6bd 183f 6142 4c3f
00000020: bb99 4f3f 9810 5d3f 5dcc 163f 2aa3 353f
00000030: a954 003f f249 613f 6ec4 8b3f faee 013f
00000040: ea6c 343f ff36 113f 38c4 b93e ed18 413f
0.9556993 0.7138089 0.9216473 0.5647626 0.70204836 0.7369569 0.5966476 0.79788786
0.8109395 0.86353445 0.58905584 0.70952094 0.5012918 0.88003457 1.091932 0.50755274
0.7047869 0.5672454 0.36282516 0.7542866

rb2.shortcut.bn.bias f4 [20]
00000000: e1e4 373e 2339 3f3d a059 54be f95a 48bc
00000010: 4187 d4bd 6614 32be 534f bb3d 7e46 6cbe
00000020: b27b 583e 69e6 1abe 28e6 0f3d 8f28 16be
00000030: 8f52 c4bc 8985 613d a114 d5bc 44c3 113e
00000040: 7bc4 dcbc 927e fbbd 545d a63d ab8c 8dbe
0.17958404 0.04668535 -0.20737314 -0.012228721 -0.1037736 -0.17390594 0.09145989 -0.23073766
0.21140936 -0.15126957 0.035131603 -0.1466391 -0.023965148 0.05505899 -0.026010813 0.14234644
-0.026949158 -0.12280001 0.0812327 -0.27646384

rb2.shortcut.bn.running_mean f4 [20]
00000000: b679 acbe 07eb 6fbf f3dd 7abd d3fc 823f
00000010: e766 d63e 9c5d 2ebf a229 19bf e356 6ebf
00000020: d99b 28bf 6d48 06bf bfb7 a2bd b7a9 c13d
00000030: 3682 34be 2154 2ebf 29ef 75bf 83ea 0c3e
00000040: f61a 613f 8c71 483f 72fa 63bf 4ac6 033d
-0.33686608 -0.93718 -0.061246824 1.0233406 0.41875383 -0.68111587 -0.5982915 -0.9310133
-0.65862805 -0.5245426 -0.07945203 0.09456199 -0.17627797 -0.6809712 -0.96068054 0.13761334
0.87931764 0.7829826 -0.89054024 0.032171525

rb2.shortcut.bn.running_var f4 [20]
00000000: 2bfc fb3e 2052 d13e 59db b73e d913 063f
00000010: ba9f df3e 4203 e13e 7af5 c93e b8bc 143f
00000020: ef9a bf3e 80ab 953e 4527 ea3e d54a 993e
00000030: 4658 793e d959 273f f839 f73e f6cc ab3e
00000040: 1da5 9d3e bdb0 da3e 6466 153f 2c83 1e3e
0.49215826 0.4088297 0.35909536 0.52374035 0.4367655 0.43947798 0.39445096 0.5810046
0.37422892 0.29232407 0.45733085 0.29939905 0.2435008 0.6537147 0.48286414 0.3355481
0.30790034 0.42712966 0.5835936 0.15479726

res1_sc1.conv.weight f4 [20, 3, 1, 1]
00000000: c3f8 0cbf 2312 b63d 7905 ab3e 21ae 7dbe
00000010: 5c8b 0e3f 01a3 78be 070e 9f3c a795 9ebe
00000020: 8d47 d4be 6f17 cb3e 9424 b2be 2836 a2be
00000030: 0cb6 f03e 839b 11be 561e 783e b112 0fbf
00000040: b51c bebe 2c02 aa3e 9b5e 3dbe 5b13 ca3e
00000050: 9c5a 043f 9688 c03e 78f4 11bf a79c a5be
00000060: 1e0d 353e d533 0f3f 63f6 2cbe 9c8d 863e
00000070: 70aa 81be 6734 cabe e20d b0bd aaeb 80be
00000080: 8a9f d6be 228b 173e aef1 b8bd 3bda dbbe
00000090: 0791 c6be f962 4ebe fe40 30bd 390e a03c
000000a0: bf43 25be 908d febe 981a 58be d8e4 713e
000000b0: 92e5 c93e f673 c83e 3687 343e 4ff2 82be
000000c0: 9645 b43d 7fb8 b2be facc 5f3d c338 563d
000000d0: 2f52 bbbe 5c9f 603d 515b 873e 8d44 a43e
000000e0: d9a6 94bd d231 05bf 6691 133e 23f3 c03d
-0.5506708 0.08890178 0.33402613 -0.24773456 0.55681396 -0.24280931 0.019415868 -0.3097355
-0.4146084 0.39666316 -0.34793532 -0.31681943 0.4701389 -0.1421948 0.24230322 -0.55887896
-0.37131277 0.33204782 -0.1849312 0.39467892 0.5170076 0.37604207 -0.57013655 -0.3234608
0.17680785 0.55938464 -0.16890864 0.26279914 -0.25325346 -0.39493105 -0.08596398 -0.25179797
-0.41918594 0.14799169 -0.09030472 -0.42939934 -0.38782522 -0.20154943 -0.04303073 0.019538032
-0.16139124 -0.4971738 -0.21103895 0.23622453 0.3943296 0.3915097 0.17629704 -0.25575492
0.08802335 -0.34906384 0.05463884 0.052300226 -0.3658614 0.054839477 0.26436856 0.3208355
-0.07258386 -0.52029145 0.14410934 0.09421375

res1_sc1.conv.bias f4 [20]
00000000: 8ff2 deb7 5329 c7b8 a93f 9eb7 a7d6 12b8
00000010: 7cb4 8338 595c d5b8 01a1 2a39 1f41 3d38
00000020: f786 0e38 560f 4cb7 f62b 4838 1c1b 1f39
00000030: a9cf 6038 3398 0e39 e0e1 1439 0d1f c1b8
00000040: d10a ff38 3a19 f0b8 8eb1 0c37 3607 5038
-2.6577412e-05 -9.496757e-05 -1.8864712e-05 -3.5009023e-05 6.2801846e-05 -0.000101738326 0.00016272442 4.512176e-05
3.3981134e-05 -1.2162918e-05 4.7724658e-05 0.0001517352 5.359916e-05 0.00013598874 0.00014198525 -9.208741e-05
0.00012161362 -0.000114487906 8.38599e-06 4.959778e-05

res1_sc1.bn.weight f4 [20]
00000000: 28f0 593f 2d80 6c3f e916 363f 8413 1d3f
00000010: 6489 0d3f 0b14 243f 85ca 123f 710a 243f
00000020: d4af 263f f3bb 2d3f 927b 1d3f afab 1a3f
00000030: 9b91 073f 83de 253f 77c5 2c3f 4f05 d13e
00000040: 094a 133f d23e 053f 1e83 e93e d5f0 553f
0.85132074 0.9238308 0.7112871 0.61357903 0.55287766 0.64093083 0.5734027 0.6407843
0.6511204 0.6786491 0.6151668 0.6041822 0.5295655 0.6479265 0.6748881 0.40824363
0.57534844 0.5204898 0.45607847 0.83570606

res1_sc1.bn.bias f4 [20]
00000000: e1e4 373e 2339 3f3d a059 54be f95a 48bc
00000010: 4187 d4bd 6614 32be 534f bb3d 7e46 6cbe
00000020: b27b 583e 69e6 1abe 28e6 0f3d 8f28 16be
00000030: 8f52 c4bc 8985 613d a114 d5bc 44c3 113e
00000040: 7bc4 dcbc 927e fbbd 545d a63d ab8c 8dbe
0.17958404 0.04668535 -0.20737314 -0.012228721 -0.1037736 -0.17390594 0.09145989 -0.23073766
0.21140936 -0.15126957 0.035131603 -0.1466391 -0.023965148 0.05505899 -0.026010813 0.14234644
-0.026949158 -0.12280001 0.0812327 -0.27646384

res1_sc1.bn.running_mean f4 [20]
00000000: 64a7 dcbc 4287 fe3b c622 6d3d b996 233d
00000010: 18c9 ffbc 62f1 d3bb 39b5 8cbd 351e 503d
00000020: f3a3 29bc c968 423d 9ef8 6e3d a97e 403d
00000030: 6019 ba3c c377 773d 9df9 43bd 78bf 2b3c
00000040: aa5a ec3b d488 0d3c d525 4cbc 2971 83bb
-0.026935287 0.007767589 0.05789449 0.039938662 -0.031223819 -0.006467984 -0.06870503 0.050810058
-0.01035403 0.047463212 0.05834257 0.046995793 0.022717178 0.060416948 -0.04784547 0.010482661
0.0072129564 0.008638579 -0.012460192 -0.0040112925

res1_sc1.bn.running_var f4 [20]
00000000: 5643 b53c 680d a53b 7e56 f93d 497a 0a3d
00000010: a087 943d 3abd bc3d f603 103e aed7 a73d
00000020: 3c63 983d 271c 4a3d 97d2 0a3e 1c12 323d
00000030: 929e b53d 3c07 d53d 1bca 5b3d 875b f13c
00000040: 878c 333c ea8e 853c 1ccd 723d b07d cc3c
0.022126835 0.0050369985 0.121747 0.033808026 0.07252431 0.092157796 0.14064011 0.081954345
0.074408025 0.049343254 0.13556896 0.0434743 0.088681355 0.104017705 0.05365954 0.029462589
0.010958797 0.016303498 0.05927764 0.024962276
