models/dense_max/epoch_0009.pth (torch, 645162 bytes, 174 tensors)

rb1.conv1.weight f4 [10, 3, 3, 3]
000000 2a 45 86 bd 9d 55 97 3d 13 76 bc bd 54 d7 65 be
       -0.06556161 0.07389376 -0.09202208 -0.22445422
000010 c6 c3 85 3e ba a2 49 3e db 12 41 be bf 77 51 3e
       0.26125926 0.19690982 -0.18854849 0.20455836
000020 ac b4 eb bd 9e 9d 15 be 37 64 92 3c ba b4 3a bd
       -0.1150907 -0.14610907 0.017870052 -0.04558251
000030 d1 dd 9c be 9d 67 85 3e 91 4b 36 3e b3 d2 3b bc
       -0.30637982 0.26055613 0.17802264 -0.011463809
000040 40 ab 86 3e d6 fe 74 be 92 f5 4a bc 9b 54 c9 3a
       0.26302528 -0.23925337 -0.01238765 0.0015360297
000050 4e 3e ac bd 9d 77 66 be ec e0 f3 3c af f2 00 3d
       -0.08410321 -0.22506566 0.029770337 0.03148144
000060 51 0e 0e 3e cd 30 51 3d 23 ca 08 3e 35 7d 38 3d
       0.13872649 0.05107193 0.13358359 0.04504128
000070 d8 f3 40 3d c9 22 2a 3e 99 01 9a 3d c5 6a fd 3d
       0.047107548 0.16614832 0.07519836 0.1237388
000080 83 70 a6 be 07 f2 90 bd 81 e3 4a 3d cb 51 da bd
       -0.32507715 -0.07077413 0.04953337 -0.10660132
000090 d5 c0 68 bd b9 d1 b6 bc 1c 80 ca bc 7b 7e da bc
       -0.056824524 -0.0223168 -0.02471929 -0.026671639
0000a0 ca 1a cc 3e 77 c7 5c be 50 db 4b bd f2 18 e0 3d
       0.39864188 -0.21560465 -0.0497697 0.10942258
0000b0 a9 a5 1d be bf 29 14 be 67 37 30 be 48 82 e2 3d
       -0.15395226 -0.1446905 -0.17208634 0.110600054
0000c0 9b 1f 14 3d 79 83 aa 3e bc fe 86 be 60 b2 0d bc
       0.036162954 0.3330343 -0.26366222 -0.008648485
0000d0 21 29 eb 3d 1f 66 28 3d 54 64 a4 3c 68 f4 80 3e
       0.11482454 0.041113015 0.020067371 0.25186467
0000e0 b4 80 39 3e 68 e0 0d be 0f 71 9c bd 6c 71 c1 3d
       0.18115503 -0.13855135 -0.07638752 0.09445462
0000f0 3c 64 82 bd 7e f6 51 be d1 cc d3 3c 86 f3 7d 3e
       -0.063667744 -0.20504186 0.0258545 0.24799928
000100 df 3f 5e 3e 72 71 9b 3e ee 53 56 3b b2 86 39 be
       0.21704052 0.3035999 0.0032703835 -0.18117788
000110 dc 0b 01 be 80 48 f2 bd 15 41 86 be 5c af 3a be
       -0.1260218 -0.118302345 -0.2622153 -0.18230957
000120 62 b2 aa 3d 99 07 2a 3e c1 b0 63 3d 51 ce 3c 3c
       0.08334805 0.16604461 0.055588488 0.011523799
000130 e3 06 32 bd 5f f3 d0 bd 58 9d d3 3d b3 e5 41 be
       -0.0434636 -0.10202669 0.10332745 -0.1893528
000140 a8 13 ed bd ec dc 42 be 47 d6 66 3d 2a 01 2d be
       -0.11576015 -0.19029588 0.056356695 -0.16894975
000150 6e a2 b4 3d 0b 42 92 be da 18 29 be 3e 60 54 3d
       0.088200435 -0.28566012 -0.16513386 0.051849596
000160 fb a3 c3 3d 0e a1 16 3e 04 b3 fc bd 5e 25 0a be
       0.09552761 0.14709875 -0.12338832 -0.13490817
000170 9f 7a 1e be 6e dd 6d 3e 37 87 71 be 5e 1e ea bd
       -0.15476464 0.23229 -0.23586737 -0.11431573
000180 56 a3 89 3e 0a b4 2b 3c ba 59 8a bb 5b 1a 91 bd
       0.26882428 0.010479936 -0.004222122 -0.07085105
000190 aa d9 d9 3c 8b 73 21 be 74 67 89 3c e8 a4 12 be
       0.026593048 -0.15766732 0.016772963 -0.14320719
0001a0 8c e6 00 be 85 e4 3e 3e 68 82 06 3d bc 46 70 3e
       -0.12587947 0.18641861 0.03283921 0.23464483
0001b0 36 31 68 be a3 ab 5f be 81 4a 48 3e 2a c0 8e bd
       -0.22675022 -0.21842818 0.19559671 -0.06970246
0001c0 9b ca 3d be 0f bd 00 3e 41 99 b0 bd 31 04 8d bc
       -0.18534319 0.1257212 -0.08622981 -0.017213913
0001d0 6c c8 61 3e 1e 09 6b 3e e2 ec 5f be 13 67 bb bd
       0.22049111 0.22952697 -0.21867707 -0.09150519
0001e0 fd c1 9d bd 42 7c 9e bc 44 f5 23 3e a2 b5 de 3d
       -0.07703016 -0.01934636 0.1601153 0.108744875
0001f0 c2 ac f5 3d 57 5d 08 3e cb 79 84 3e 97 78 b0 3d
       0.119958416 0.13316856 0.2587417 0.08616751
000200 49 24 c0 bd db bd 56 3e a8 93 f0 3c 1e 14 95 be
       -0.09381921 0.20970862 0.029367283 -0.2911691
000210 62 63 0d 3e a3 d7 ff 3c 29 a8 26 be 17 f1 46 be
       0.13807443 0.031230753 -0.16275086 -0.19427906
000220 f6 27 10 be 82 57 18 3e 25 93 0b 3c 7d 60 03 be
       -0.14077744 0.14877132 0.008518969 -0.12829776
000230 79 fe f0 3c 4c 92 d3 3d ab 3b de bd 5b 2d 0c bc
       0.029418217 0.10330638 -0.108512245 -0.008555735
000240 17 66 19 3d f1 7c 3e 3e 91 9c 6c 3e 83 57 a3 bd
       0.037450876 0.18602349 0.231066 -0.07975676
000250 0f 5a d4 be c7 5b ae bd 19 78 1b 3e 34 e9 ea bd
       -0.4147496 -0.08513599 0.15182532 -0.11470261
000260 ff ce b9 be 58 01 8f 3c 64 eb b6 bd 17 01 71 3e
       -0.36290738 0.017456695 -0.08931616 0.23535572
000270 55 aa ca bd e0 84 3e be 09 85 83 bc 99 06 5c be
       -0.098957695 -0.18605375 -0.016054647 -0.21486892
000280 9a e0 a1 be ec 33 65 bc 5c 18 a1 bc f0 bb 44 bd
       -0.3161667 -0.01398943 -0.019664936 -0.048030794
000290 9d 6f 0b 3e d1 a2 a5 3d 1f 49 48 3e b1 32 b1 bd
       0.13616796 0.080876954 0.19559143 -0.08652247
0002a0 24 6c 02 bc 43 d4 c8 bc e5 a9 50 3d e4 b1 b8 3d
       -0.007960353 -0.024515277 0.050943274 0.09018305
0002b0 cc f6 cb 3c 3c c8 f7 3d dd 1b 0e 3e c1 ba 8e 3e
       0.024897955 0.120987386 0.13877816 0.27876857
0002c0 be 5a 14 bd 86 8e a1 3d 0d ee a7 3d d0 4a 14 be
       -0.03621935 0.07888512 0.081997015 -0.14481664
0002d0 e0 2f 80 be b5 b5 1f be da 0e 97 bd f2 d5 44 3b
       -0.25036526 -0.1559666 -0.073758796 0.0030034748
0002e0 eb 54 cd 3d 01 48 1b 3e 2d 01 95 bd 18 9e c3 3e
       0.100259624 0.15164186 -0.07275615 0.38206553
0002f0 c1 f6 87 3e 9e b1 5d 3b 92 73 10 be fa 48 43 3e
       0.26555446 0.0033827792 -0.14106587 0.19070807
000300 8d e7 7b be 2f 06 21 bd 82 19 fe 3c e4 18 67 3e
       -0.24600048 -0.039312538 0.031018022 0.22568089
000310 0e 20 92 bd f4 fd 2d 3e 76 1e c4 3d ad 56 01 bc
       -0.0713502 0.16991407 0.095761225 -0.0078942
000320 38 f0 56 3e 58 c1 66 be 39 ac b7 be 85 5f c5 bb
       0.20990074 -0.22534692 -0.35873583 -0.0060233497
000330 71 fd 1e 3e d5 0b 09 3e f3 3e 71 be df 25 19 be
       0.15526368 0.1338342 -0.2355917 -0.14955853
000340 8d 92 c6 bd ef 19 82 3d 81 13 a0 bd 6e 47 0b be
       -0.09695921 0.06352603 -0.0781622 -0.13601467
000350 ef 44 ba 3e 43 96 92 3e ce 8c bd bd 4a 83 91 bc
       0.36380717 0.28630266 -0.09255372 -0.017762799
000360 f0 9f 8d be 93 bd c3 3d 97 6f 16 bc 31 46 a5 3b
       -0.27661085 0.09557643 -0.0091818785 0.005043768
000370 2b 53 3b 3e fb 20 8b 3e 17 15 9d ba 88 e1 11 3e
       0.18293445 0.271736 -0.0011984435 0.1424619
000380 25 77 8b bd e1 bb d0 bd 4e 4e 1a be 8d 97 11 be
       -0.068098344 -0.10192085 -0.15068933 -0.14217968
000390 5b 75 91 3c 55 98 06 3e ca 64 5f bd c2 23 6e 3e
       0.017756155 0.13144048 -0.05453948 0.23255828
0003a0 e0 dc 91 be 61 83 35 be f8 29 80 3d 97 fc b9 3d
       -0.28488827 -0.17725898 0.06258005 0.09081381
0003b0 5c 61 c0 bd 7c 4c f5 3d f9 91 4e 3e d0 a4 97 3c
       -0.0939357 0.11977479 0.20172872 0.018511206
0003c0 60 c6 71 3c f5 ca 23 3c 80 ae 72 be 1b 12 95 3e
       0.014756769 0.009997119 -0.23699379 0.29115376
0003d0 97 fe e8 3e 91 b2 89 3e a1 1a 47 3e 40 6c 96 3e
       0.45506737 0.26894048 0.19443752 0.29379463
0003e0 e3 d6 73 3d 9a 25 8a bd a7 a9 30 be f4 a0 9c be
       0.059531104 -0.06745453 -0.17252217 -0.30591547
0003f0 db b2 31 3e fc 39 95 3e 49 85 ac 3d 40 30 64 bd
       0.17353384 0.291458 0.084238596 -0.055710077

rb1.conv1.bias f4 [10]
000000 94 db 3b b9 79 5c 8d ba 50 b4 b2 38 1f 82 30 b9
       -0.00017915509 -0.0010785005 8.521287e-05 -0.00016833142
000010 9b e7 b7 39 9d 7a f4 b8 f1 d2 8f b8 6a 05 04 ba
       0.0003507704 -0.00011657665 -6.858062e-05 -0.0005036207
000020 c0 d2 33 ba ab 2c 35 38
       -0.00068597123 4.3195363e-05

rb1.bn1.weight f4 [10]
000000 32 eb 41 3f fb e2 a3 3f 10 b3 5a 3f 73 15 5f 3f
       0.75749505 1.2803644 0.8542948 0.87142104
000010 80 1d 1f 3f e4 27 4f 3f 71 b5 2c 3f 32 5c 81 3f
       0.6215439 0.80920243 0.6746436 1.0106261
000020 17 48 54 3f c1 3b 2d 3f
       0.829225 0.676693

rb1.bn1.bias f4 [10]
000000 a4 93 a5 3e 97 f8 90 3f 82 58 0f 3d 61 86 be 3d
       0.32339203 1.1325864 0.034996517 0.093029745
000010 e9 83 79 3d 02 e7 1f 3c 92 12 5f bc d1 e7 55 3f
       0.060916815 0.009759666 -0.013615267 0.8355685
000020 ae e6 0a 3f fd 1e fe 3d
       0.5425824 0.12408254

rb1.bn1.running_mean f4 [10]
000000 eb 10 48 bc 6b d6 21 bc 37 00 52 3c bf c3 55 3c
       -0.012211065 -0.009877781 0.012817434 0.013047158
000010 84 2a b6 bc b9 ea be 3d ca aa 7c bd e2 ad ba bb
       -0.02223707 0.093221135 -0.061686315 -0.005696998
000020 13 e0 93 bc 11 cb 85 bc
       -0.018051183 -0.016332181

rb1.bn1.running_var f4 [10]
000000 25 f2 88 3d a4 75 1d 3d 34 99 32 3e 9a 15 51 3e
       0.066868104 0.03844227 0.17441255 0.20418397
000010 2a 43 25 3d 5c 41 02 3f 26 73 b3 3e 89 29 5c 3d
       0.040347256 0.5088098 0.3504879 0.05375055
000020 c2 c7 17 3d 1a f0 04 3f
       0.03705574 0.51928866

rb1.conv2.weight f4 [10, 10, 3, 3]
000000 ea 00 96 bd 4a 42 2f be e0 a4 8c bc 11 9f b1 3c
       -0.07324393 -0.17115131 -0.017168462 0.021682294
000010 a7 04 2a be 7f 86 a0 bd 61 95 e7 bc 9b f2 d1 3b
       -0.16603337 -0.07838153 -0.028269472 0.0064070947
000020 2c 0f cc bb ee d5 11 bc 03 e2 26 3e c6 d4 93 be
       -0.0062273946 -0.0089011025 0.16297154 -0.2887327
000030 7a e6 8d be 4c 20 88 bd bb 07 2a 3e e2 37 13 3e
       -0.27714902 -0.06646785 0.16604511 0.14376786
000040 b5 d3 4d be 34 e5 a0 3b f4 d0 2f be ed 42 9c 3d
       -0.20100291 0.0049101356 -0.17169553 0.076299526
000050 74 2c b2 bd 83 ae b4 bc f5 87 5a be 72 1d 2a be
       -0.08699885 -0.02205587 -0.21340926 -0.16612795
000060 43 ca 35 3c 87 de f6 3d 42 18 f6 3d 4c 87 02 3e
       0.011095586 0.120541625 0.120163456 0.12746924
000070 29 01 29 3e 30 fb 02 3e bb ac 2f 3d d5 9b b2 3d
       0.16504349 0.12791133 0.042889338 0.08721129
000080 62 53 44 3d 02 fa ca bd 46 8b 49 bd fa 9d 60 be
       0.047931083 -0.099109665 -0.049205087 -0.21935263
000090 59 60 df bd d6 61 b7 3d ed 85 2b bd 9a fe d8 bc
       -0.10907049 0.089542076 -0.04187577 -0.026488591
0000a0 15 36 d0 bd 1a 4e b0 3b 34 2d c5 bd 75 0d a1 bc
       -0.10166565 0.005380404 -0.096277624 -0.019659737
0000b0 65 db e7 bd f4 7b 89 3d 7f 61 64 3e eb db 25 3e
       -0.11321143 0.06713095 0.22302817 0.16197173
0000c0 1e b0 14 bd 74 b4 6e 3c 8c fb 2a bd 26 d9 59 bd
       -0.03630077 0.014569391 -0.0417438 -0.053185605
0000d0 d7 ee 8f 3d d9 d2 1e 3e ad 35 13 bd ce 8f 50 bc
       0.07027977 0.1551012 -0.03593986 -0.012729598
0000e0 03 b4 d2 bd e4 70 b2 bd 44 2b 59 be a9 43 97 bd
       -0.10288241 -0.087129384 -0.21207911 -0.07385952
0000f0 49 44 c6 3d 1d d8 a0 3d 6e c4 9f bd ae 3b 95 bb
       0.09680993 0.0785372 -0.07801138 -0.0045542335
000100 f0 a7 03 3e 8b c5 90 3e ca 95 11 bd e0 d8 91 be
       0.12857032 0.28275713 -0.03554324 -0.28485775
000110 70 22 b7 be 26 73 90 bc ec 74 0c 3e 5a ab 5a 3d
       -0.3576846 -0.017633032 0.13716477 0.05338607
000120 3b 49 48 bd 1d 35 fb bd 8e 8b c1 bd 22 bc 09 3e
       -0.048897963 -0.1226599 -0.09450446 0.13450673
000130 24 92 4e 3d 2c 84 99 3d e5 93 24 be 91 db 8e bc
       0.05043234 0.07495913 -0.16072042 -0.017438682
000140 ca 1a 32 bd fe e5 93 be 3e 99 9a be 7d 81 ed bd
       -0.04348258 -0.28886408 -0.3019504 -0.115969636
000150 ad 7f 1f be 0c 89 18 bd 0e 41 7f bd 16 7c 09 be
       -0.15576048 -0.037240073 -0.0623179 -0.13426241
000160 f5 35 99 bd 53 98 26 3d 4a 61 74 bd 65 cd 8a bd
       -0.074809946 0.04067261 -0.059663095 -0.06777457
000170 d6 d0 d5 3d 66 7f e0 bc ba 3e f3 3d e8 95 95 3e
       0.10440223 -0.027404498 0.118771985 0.29215932
000180 ff d7 eb bc 14 01 0c 3e 32 af f8 bd e8 2b c5 3d
       -0.028789518 0.13672286 -0.12142791 0.09627515
000190 da be bd 3d d8 8a 43 be 82 88 10 3e e1 ef d9 be
       0.09264918 -0.19095933 0.14114574 -0.42565826
0001a0 b8 97 a6 3d 8d 34 9b be a2 42 00 3e 9a 70 34 3e
       0.08134407 -0.3031353 0.12525418 0.17621079
0001b0 7b 6a d6 3c ff a4 02 3e 35 7b d0 bd 6a 3e 80 3d
       0.02617382 0.12758254 -0.1017975 0.062619045
0001c0 1a 40 20 be 8e 31 23 be d1 54 9e bb bc a2 93 bd
       -0.15649453 -0.15936872 -0.0048318882 -0.072087735
0001d0 24 59 0c bc 6b 43 46 be 16 1f e8 3d 9f 07 1d 3d
       -0.008566175 -0.19361655 0.11334054 0.038337346
0001e0 8a b6 9e 3d 26 e2 d0 bc 76 6b e0 bd 25 51 75 bc
       0.0774966 -0.025498461 -0.109579965 -0.01497296
0001f0 27 45 4e be 30 70 f4 bc 5f e4 1e 3e cd 86 2a 3e
       -0.20143567 -0.029838651 0.15516804 0.16652985
000200 5f a1 fd 3c a2 7e 7c 3d cb 2c 99 bc 85 0b 5b bd
       0.030960737 0.061644204 -0.018698117 -0.053477783
000210 6e 52 44 3c 38 61 04 be 32 d7 22 be d4 c7 bc bd
       0.011982543 -0.12927711 -0.15902403 -0.09217802
000220 25 49 ad bd 23 33 8e bd 0a f2 56 bd 31 fa 90 bd
       -0.08461217 -0.06943347 -0.05247692 -0.0707897
000230 ee a4 fb bd 8a e7 ad bd cc 12 29 be 22 5d 6b bd
       -0.12287317 -0.08491428 -0.16511077 -0.057461865
000240 9a f6 cf 3d 07 de 0b 3e 63 35 98 3d 27 44 2a 3e
       0.101544574 0.13658915 0.07432058 0.1662756
000250 7f ce 26 3e d0 3b bc 3d 61 86 10 3e e7 26 37 3e
       0.1628971 0.09191096 0.14113761 0.17885934
000260 90 44 5e 3b f1 bb a5 3d 04 37 60 be a9 28 d1 bc
       0.0033915378 0.080924876 -0.21895987 -0.025532084
000270 94 db f6 bc 5d 56 8b be ed 3b 40 3e e8 a9 7c bd
       -0.030134 -0.27214327 0.1877286 -0.061685473
000280 43 53 98 3e da 5f d2 39 40 cf 00 3e 18 9e 17 bd
       0.29751024 0.00040125736 0.1257906 -0.037016004
000290 59 2d 6f be cc 50 7d 3c 3a e8 a4 bd 58 54 14 3e
       -0.23357143 0.015461158 -0.08052106 0.144853
0002a0 3e b9 fc bb 90 ec ff 3d 29 3c 15 bc b7 0f 1e bd
       -0.0077125123 0.124962926 -0.009108582 -0.038589206
0002b0 1e c0 2f bb a3 cc bf 3c 55 dd a2 3d 9e 70 09 bd
       -0.0026817392 0.023413008 0.07952372 -0.033554666
0002c0 b3 2e b6 3c 06 05 84 bd 70 32 e7 3d d0 89 e2 3c
       0.022239065 -0.06446271 0.11288917 0.027653605
0002d0 03 ef 73 3d af c2 8b be ad 5c ac bd 3b d3 96 3d
       0.05955411 -0.2729697 -0.08416114 0.07364508
0002e0 99 9a 89 bd 83 9d f2 bc 44 9e c7 3d 93 fc e0 3c
       -0.0671894 -0.029616123 0.09746984 0.027464187
0002f0 92 14 18 3d 5e 22 b4 bd 17 31 07 be 96 de d8 3c
       0.037128992 -0.087956175 -0.1320232 0.026473325
000300 33 7a 8e bc e9 f2 1b be af e0 dd bc 65 51 ea bc
       -0.017392254 -0.15229382 -0.027084677 -0.028603265
000310 6e 35 ef 3d bb f2 e9 3d 95 61 8a 3e 1a 2d 88 3d
       0.11680113 0.1142325 0.27027574 0.066492274
000320 b5 32 bc 3c 87 6d a4 3e 84 c5 7d 3d bc 33 06 be
       0.022973398 0.32114813 0.061955944 -0.13105673
000330 0e 9b 02 3e df 14 77 bd a8 10 5f bd 7d e9 c1 3d
       0.12754461 -0.06032264 -0.054459244 0.094683625
000340 00 92 73 3d 2f aa 27 3a 1f 89 45 3d 8d 7f 96 3d
       0.05946541 0.0006395904 0.048226472 0.07348547
000350 5a 9c de bb 90 fc 8a 3e 37 83 8a 3b 68 b7 0d 3d
       -0.006793541 0.27145815 0.004227068 0.034598738
000360 d5 35 22 3e f1 7a ed 3d 60 67 ee 3b 25 6b 7c 3e
       0.15840848 0.11595715 0.007275507 0.24650247
000370 f2 b7 4f 3d e0 56 65 3d 64 85 b0 3d bb 18 8c 3d
       0.050712533 0.055991054 0.08619192 0.068406545
000380 01 10 dc 3c 53 c3 85 3e 2c f6 53 3e 51 72 38 3e
       0.0268631 0.26125583 0.20699376 0.18012358
000390 dc af 1d 3e 2b 67 b7 3d 14 96 55 3d 1c 1d 35 3d
       0.15399116 0.089552246 0.05214508 0.044217214
0003a0 b1 f8 33 3d a8 d1 97 bd 23 cf 25 3b 70 83 ea bc
       0.043938342 -0.07413036 0.0025300465 -0.028627127
0003b0 86 19 e1 bd 2a 23 ab bc 7c b7 0c bd cc e9 c2 bd
       -0.10991196 -0.020890791 -0.03435467 -0.095172495
0003c0 e3 e3 a3 bb e2 32 ef bc 30 a7 07 be 84 42 2b 3e
       -0.0050015314 -0.029199068 -0.1324737 0.16724592
0003d0 fe 95 b3 3d 31 ea 62 bc 47 29 5c 3d ae 52 a1 3d
       0.08768843 -0.013849781 0.053750303 0.07877098
0003e0 e0 e3 17 bd da 99 e7 bd a2 96 17 3d 32 f6 86 bd
       -0.037082553 -0.11308642 0.03700889 -0.06589927
0003f0 4b 40 82 3e 10 54 85 3e 67 c6 34 bd 98 1f 3c 3e
       0.25439677 0.26040697 -0.044134524 0.18371427

rb1.conv2.bias f4 [10]
000000 ad 61 37 39 c2 d5 83 37 8e ee a7 b8 37 ff 2a b9
       0.00017488627 1.5715956e-05 -8.007615e-05 -0.00016307538
000010 e5 cc 4c 39 a5 07 25 39 4b f5 5a 39 8d 97 be b7
       0.00019531285 0.00015738474 0.00020881479 -2.2720336e-05
000020 bf c6 fb 38 34 2b c9 b8
       0.00012005632 -9.592474e-05

rb1.bn2.weight f4 [10]
000000 5c 7d 85 3f 6b b7 91 3f f3 35 4d 3f 8a ee 8e 3f
       1.0428882 1.13841 0.80160445 1.1166546
000010 89 33 40 3f 8a 6c 8a 3f a3 7a a9 3f 33 c1 87 3f
       0.75078636 1.0814373 1.3240551 1.0605835
000020 62 ee 8e 3f 68 91 59 3f
       1.1166499 0.849875

rb1.bn2.bias f4 [10]
000000 93 ba 4f 3d c9 ae 90 bd 39 5d 5c 3e 83 8d 34 bd
       0.05071504 -0.070645876 0.21519937 -0.04408027
000010 d5 9e 53 3e 36 d9 d8 3d 37 4e 25 3c db 97 c5 3d
       0.20666058 0.10588305 0.010089449 0.09648105
000020 00 55 1e 3d 9c 2d 5d 3e
       0.03865528 0.2159943

rb1.bn2.running_mean f4 [10]
000000 d9 53 ac bf 76 98 81 be bc a0 38 3f 6b 89 b6 3d
       -1.3463088 -0.2531163 0.7212026 0.08912929
000010 82 2c 4f bf 81 81 9c be 9e 78 f5 be 9d 5f 84 be
       -0.8092729 -0.30567554 -0.47943586 -0.25854197
000020 34 18 28 3e b3 f7 d1 3f
       0.16415483 1.6403717

rb1.bn2.running_var f4 [10]
000000 15 c2 c9 3f 8b f3 9f 3f 83 c2 9a 3f 01 53 c1 3f
       1.5762354 1.2496198 1.209061 1.5103456
000010 61 83 87 3f cf c8 d7 3f 50 de 09 40 a0 06 ee 3f
       1.0586969 1.6858157 2.1541939 1.8595772
000020 91 7e 01 40 99 68 f0 3f
       2.02335 1.8781921

rb1.shortcut.conv.weight f4 [10, 3, 1, 1]
000000 36 d1 e9 3e 75 a1 af 3b 85 9a ac 3e 65 3f b5 be
       0.45667428 0.0053598233 0.3371164 -0.3539993
000010 54 38 04 bf cc 22 c8 be 01 e2 bb 3e ab 11 b4 be
       -0.5164845 -0.39089048 0.36695865 -0.3516973
000020 e9 2d e5 3d 71 85 eb be 78 b6 37 bf 2a 4e 4a 3e
       0.11190397 -0.46000245 -0.717628 0.1975638
000030 73 da d9 bd 5a 01 46 be 72 dd 14 3f e7 0e b3 3e
       -0.10637369 -0.19336453 0.581504 0.34972307
000040 db 1d f5 3d c6 ef 04 3f a5 44 cf be e7 23 b4 be
       0.11968585 0.51928365 -0.4048206 -0.3518364
000050 d8 2b 97 be 0a ba 99 be 98 8f 2e bf 4e 39 98 3e
       -0.29525638 -0.3002475 -0.68187857 0.2973122
000060 a6 74 ad be 28 34 ff be 25 76 8c bd 6e 64 92 be
       -0.33878058 -0.4984448 -0.06858472 -0.28592247
000070 b7 ee 82 3d e1 5f 18 bf
       0.063931875 -0.595213

rb1.shortcut.conv.bias f4 [10]
000000 68 d5 3b 39 ba f7 4d b9 32 98 37 b8 4c e9 f7 b9
       0.0001791321 -0.00019642609 -4.3772343e-05 -0.0004728533
000010 c8 31 59 b9 fd 2b 07 b9 80 c8 7c 39 70 08 f6 38
       -0.00020713278 -0.0001289099 0.00024107285 0.00011731766
000020 83 87 76 38 8c 06 3b 39
       5.8777176e-05 0.00017836149

rb1.shortcut.bn.weight f4 [10]
000000 a8 9d 7a 3f df c4 6c 3f ba 33 86 3f fe 84 62 3f
       0.97896814 0.924879 1.0484536 0.8848418
000010 6b ae 8f 3f fc db 70 3f ac e7 1d 3f d0 63 38 3f
       1.1225103 0.9408567 0.6168163 0.720273
000020 f4 b5 68 3f 36 05 6e 3f
       0.9090264 0.929767

rb1.shortcut.bn.bias f4 [10]
000000 93 ba 4f 3d c9 ae 90 bd 39 5d 5c 3e 83 8d 34 bd
       0.05071504 -0.070645876 0.21519937 -0.04408027
000010 d5 9e 53 3e 36 d9 d8 3d 37 4e 25 3c db 97 c5 3d
       0.20666058 0.10588305 0.010089449 0.09648105
000020 00 55 1e 3d 9c 2d 5d 3e
       0.03865528 0.2159943

rb1.shortcut.bn.running_mean f4 [10]
000000 51 64 42 bd 76 2a 86 3d bf a9 2d bc 63 36 28 3c
       -0.04745895 0.065510675 -0.010599553 0.010266873
000010 04 96 5f bd 50 a1 8a bd 7a 51 53 3d 2c 94 a1 bb
       -0.054586425 -0.06769049 0.051591374 -0.0049309935
000020 12 8d f4 3c 70 40 8d 3d
       0.029852424 0.06897056

rb1.shortcut.bn.running_var f4 [10]
000000 8c 59 20 3e 50 fa c4 3e 73 ec ed 3b 01 3d 6e 3e
       0.1565916 0.38472223 0.007260853 0.23265459
000010 5e 86 16 3d be c2 78 3e 0c 50 88 3e 78 27 f1 3d
       0.036749236 0.24293038 0.2662357 0.11775106
000020 0b 6e 48 3e 2d 06 31 3e
       0.19573228 0.17287512

rb2.conv1.weight f4 [20, 10, 3, 3]
000000 87 8f 61 3d f7 db ea 3d 5c 7a 12 3d a5 79 29 3e
       0.05506852 0.11467736 0.035761222 0.1655031
000010 80 75 33 3e 9f ab 09 3e 29 44 25 3d 42 34 d2 3d
       0.17525291 0.13444375 0.040348206 0.10263874
000020 63 d4 ce 3d 8b 52 1d 3e b7 ef 03 be 3e a4 f5 bd
       0.10099103 0.15363519 -0.12884413 -0.11994217
000030 be c8 c2 bd 03 e6 8a bd 0b 5a 73 bc 6c 14 12 3e
       -0.09510945 -0.067821525 -0.014853011 0.14265603
000040 36 f2 47 be c1 bc fd bd 74 66 0b be 4f 89 90 be
       -0.1952599 -0.123895176 -0.13613302 -0.28229758
000050 12 26 2e be 4a 0b d4 bc 4f 21 70 be d9 2e 0a be
       -0.1700671 -0.02588429 -0.23450206 -0.13494433
000060 2e 7a 28 3d 41 37 64 3d 74 e4 fb bd e5 9a 50 3c
       0.041132145 0.055716757 -0.12299433 0.012732242
000070 5e e8 08 be 63 df 88 3d 3f 40 2b 3c dd 3e 61 3d
       -0.13369891 0.06683233 0.010452329 0.05499159
000080 8b 20 dc 3d 5b 1c 15 3d ed e7 9c 3d 9d 74 57 3e
       0.107483946 0.036403995 0.07661424 0.21040578
000090 52 bf a8 3b 8a c9 07 3e 49 93 db bc 95 ab fd bd
       0.0051497603 0.13260475 -0.02680363 -0.12386242
0000a0 2c 1e dd bc a2 08 b8 3d 84 0a d3 3b 19 bc 92 be
       -0.026991926 0.089860216 0.0064404625 -0.28659132
0000b0 10 6f 66 be ea a6 d2 3d cc f1 7e 3d 57 c5 48 3d
       -0.22503304 0.102857426 0.062242314 0.049016323
0000c0 5b 66 14 be 9d da 89 bd 7e 56 9f bd c2 52 7f bd
       -0.1449217 -0.0673115 -0.07780169 -0.062334783
0000d0 53 ba ec be 2f ca 62 bd 8c 3f ce 3d 34 71 c7 3d
       -0.46235904 -0.0553686 0.10070714 0.09738389
0000e0 ed 81 ef 3d 7e 48 81 3d 11 cf a1 3d c4 15 8c 3d
       0.11694703 0.06312655 0.07900823 0.06840089
0000f0 6f 74 92 3d a6 00 c7 3a f8 6d 38 bd 4e 92 e6 3d
       0.07151114 0.0015182688 -0.04502675 0.11258374
000100 a9 b4 90 bd 94 90 4b 3d 12 5c c2 bd 1e 72 c3 be
       -0.07065708 0.049698427 -0.09490217 -0.38173002
000110 a3 ac b0 bd 67 f2 cf 3d dc 1a 07 be ff ec 89 bd
       -0.08626678 0.101536565 -0.1319384 -0.067346565
000120 94 5c 04 bd dc 87 79 bd ea 9b 0d be 43 f9 41 be
       -0.032314852 -0.06092058 -0.13829008 -0.18942742
000130 55 af a2 3d 87 39 0f 3e 35 2b 2c be 1c 09 9f bc
       0.07943598 0.13986789 -0.16813357 -0.019413523
000140 39 c5 d4 3d 9b bd 0a be ca 39 9d 3c a0 d3 1b be
       0.1038918 -0.13548891 0.019192595 -0.15217447
000150 b2 46 05 3d 03 d5 23 3d a8 52 c2 bc 26 bf f8 bd
       0.032538123 0.039998066 -0.023721054 -0.12145834
000160 85 16 50 3d 7b e4 38 3e ab f8 8c be e6 56 33 be
       0.050802726 0.18055908 -0.2753347 -0.17513618
000170 2b b7 99 bd 25 14 30 3d 78 2d 96 bd 1e 19 1a bd
       -0.0750564 0.04298796 -0.07332891 -0.03762161
000180 45 30 2a 3e b1 34 63 3e 86 d0 72 3e 8d d8 92 be
       0.16619976 0.22188069 0.23712358 -0.2868084
000190 9b 6a 2f be 0d 8c 87 bd 72 9d 0e be 2c 95 a1 3d
       -0.1713051 -0.066185094 -0.13927248 0.078897804
0001a0 59 ae aa bc cd a2 bc bd 26 92 3a bd a6 e2 10 bd
       -0.020835089 -0.09210739 -0.045549534 -0.0353724
0001b0 63 7c 94 be 0f 5e b0 be 01 89 4f be 66 d5 db 3d
       -0.2900115 -0.3444676 -0.20267107 0.10734062
0001c0 d0 ef 59 3d 6b 84 d9 bc fe 7c 42 3e 1e be 72 3e
       0.05320722 -0.0265524 0.18992993 0.23705336
0001d0 a4 40 8b 3e 13 85 a9 bd 15 61 86 bc 20 f4 b5 bc
       0.27197754 -0.08277335 -0.016403714 -0.022211134
0001e0 67 46 0b be 25 5f 58 3d 03 d8 97 bd bc af e5 bd
       -0.13601075 0.052825112 -0.07414248 -0.11215159
0001f0 23 72 f7 3b 69 f9 a0 bd 87 6a 26 3e c3 26 5e 3e
       0.007551448 -0.07860071 0.16251574 0.21694474
000200 da da 54 3d 34 2a fe 3b 85 97 e1 bc fb a8 d2 bd
       0.051966526 0.007756496 -0.02753807 -0.10286137
000210 d0 bc 21 be e2 40 65 be 6a 0a 5c be 74 05 04 bd
       -0.15794683 -0.22388032 -0.21488348 -0.032231763
000220 e3 1a d9 bc 9d 8f 0c 3e 3f b3 9d bd 1c 63 bf 3c
       -0.026502078 0.13726659 -0.07700204 0.023362689
000230 83 9d 41 3d 1b 33 48 3d 51 19 e5 bc 86 e8 b5 3d
       0.047269356 0.048876863 -0.027966173 0.08882241
000240 ef aa 9a 3d ad 22 de 3d 20 c2 ee 3c 9c a7 20 bd
       0.07552134 0.10846458 0.0291453 -0.039222345
000250 74 ad f7 3c fa 4c a8 bd d5 0f b8 bc a8 78 c4 3c
       0.030234076 -0.08217807 -0.022468487 0.023983315
000260 85 ec 15 bd 00 c9 ee 3d 9a 96 8e 3e 11 f8 2f 3e
       -0.036602516 0.116594315 0.27849275 0.17184474
000270 43 b8 46 bc 23 be a3 3d ee 8e 0a 3e 52 99 20 be
       -0.012128892 0.0799525 0.13531086 -0.15683487
000280 74 cf 87 3d fe fd 55 bd 7a 4f af bd d5 58 c5 3d
       0.066313654 -0.05224418 -0.08560081 0.09636084
000290 e9 38 ae bd f8 22 b5 bd 41 27 9e 3d 75 e2 3b be
       -0.085069485 -0.088445604 0.07722331 -0.18348105
0002a0 81 4e 8b 3d 60 14 b4 3d 27 7c ac bc f4 1d 88 bd
       0.06802083 0.08792949 -0.021055294 -0.06646338
0002b0 31 1f 4d 3d 77 ef 91 3c af 29 a3 3c 2e 5a f6 3d
       0.050078575 0.017814381 0.019917337 0.12028919
0002c0 99 03 7f 3d 09 8b 6c 3c 7a 76 d8 3d 3a f2 25 bd
       0.06225929 0.014437445 0.105694726 -0.04051421
0002d0 64 1c 06 bd b3 d6 53 3d 3b a0 bb bd 90 95 7e bc
       -0.03274192 0.051718425 -0.09161421 -0.015538588
0002e0 ad 87 9b 3d b6 af b8 bc 1b 67 c9 bc 02 db 42 bd
       0.075942375 -0.022544723 -0.024585297 -0.047572143
0002f0 5a d6 de 3d 31 8d 42 bd ce 93 fe 3c 24 89 45 3e
       0.10880728 -0.047497932 0.031076338 0.19290596
000300 9f 48 23 be 16 d9 b7 3c 4c a9 ab 3d ae af 55 bd
       -0.15945671 0.022442382 0.083819 -0.052169494
000310 cc 2d 50 be c4 c4 1e be 3f 92 f0 3d 05 ce 24 be
       -0.2032997 -0.15504748 0.11746644 -0.16094215
000320 82 62 fb 3c ef df 26 3e 8a 30 b0 bc 87 da 32 bd
       0.03068662 0.16296361 -0.02150752 -0.043665435
000330 aa f4 3c 3d dd 6e 1d 3d e3 3c 80 3d 7c b3 8a 3e
       0.046131767 0.038435806 0.06261613 0.2709006
000340 90 40 60 3e 27 c1 0f 3e b4 51 09 3d 14 9f 41 3e
       0.21899629 0.14038526 0.033525184 0.1890834
000350 d3 a2 55 3d 92 df f4 bd 30 ed 0b 3e 75 c8 91 3d
       0.052157234 -0.11956705 0.13664699 0.07118312
000360 28 d7 0b be 52 e4 62 3c 64 5a 1c bd d4 f3 b7 bd
       -0.13656294 0.013848381 -0.03817214 -0.089820534
000370 a5 7e a0 bd 0b 41 77 3c 02 4d 8d 3d 4d 08 c9 bc
       -0.078366555 0.015091191 0.06899454 -0.024540091
000380 7d 68 3f 3c 37 87 b4 3d d7 7c 9b 3d e2 83 67 bd
       0.011682627 0.08814853 0.07592171 -0.056522258
000390 8d 92 a9 be 79 18 bc 3c 55 73 0e 3c 27 89 64 be
       -0.33119622 0.022960888 0.0086944895 -0.22317944
0003a0 11 17 dd 3c 61 fa a5 3d 1b 51 6e 3e 87 5f 4c 3e
       0.026988538 0.081043966 0.23273127 0.19958316
0003b0 be af 1f 3d 41 3c 22 be 45 0d 03 be 71 4c 31 be
       0.03898596 -0.15843298 -0.1279803 -0.17314316
0003c0 d5 a5 10 bf 04 c1 e4 be 77 18 0f be c1 14 ba 3b
       -0.5650304 -0.4467851 -0.13974176 0.0056787436
0003d0 8c 7f ac bb 7a 18 a0 3d 2d 40 84 bd 31 04 73 3d
       -0.005264228 0.078171685 -0.06457553 0.05933017
0003e0 fe 58 c7 3d dd c9 80 bd 10 bd 86 bd bc 27 e1 bd
       0.09733771 -0.06288502 -0.065790296 -0.10993907
0003f0 e0 30 9d bd 67 aa 90 bd f6 34 42 bc 31 08 13 be
       -0.07675338 -0.07063752 -0.011853447 -0.14358594

rb2.conv1.bias f4 [20]
000000 18 26 8d b5 32 af 5c b8 83 e8 80 b7 84 5b 4f b8
       -1.0516405e-06 -5.261525e-05 -1.536706e-05 -4.9437876e-05
000010 cf 7b b0 38 8b 32 7f 38 7c ab e8 b7 ea 26 98 37
       8.415395e-05 6.084381e-05 -2.7736409e-05 1.8137933e-05
000020 17 45 cf b8 cc 20 b1 b7 60 ad aa b8 28 dd 2e 38
       -9.883398e-05 -2.1115316e-05 -8.138525e-05 4.16908e-05
000030 9c ed 86 38 7b 43 95 b8 4e 0e 55 38 60 40 db b6
       6.433876e-05 -7.117443e-05 5.079648e-05 -6.534203e-06
000040 1b c8 93 38 54 c1 98 37 22 7c e3 38 40 eb e1 37
       7.046779e-05 1.8209837e-05 0.00010847325 2.6931637e-05

rb2.bn1.weight f4 [20]
000000 9b 22 5a 3f a8 3d 68 3f 3c 18 68 3f 68 01 8c 3f
       0.85209054 0.9071908 0.9066198 1.0937929
000010 1b 3d 8a 3f ce 5c 42 3f 5d 9a 75 3f 8e 81 5f 3f
       1.0799898 0.7592286 0.95938665 0.8730706
000020 4e 87 35 3f 4b db 5a 3f f0 29 56 3f 31 de 82 3f
       0.70909584 0.85490865 0.8365774 1.0224057
000030 e4 e4 84 3f 8c 1a 77 3f 04 86 70 3f 87 ee 88 3f
       1.0382352 0.9652488 0.9395449 1.0697793
000040 8a 2e 66 3f f9 4a 67 3f ba 2a 7e 3f fd 13 75 3f
       0.8991476 0.90348774 0.99283946 0.95733625

rb2.bn1.bias f4 [20]
000000 87 16 ac 3c 30 87 2a be 9a 15 db 3d 96 63 12 bd
       0.021006836 -0.16653132 0.106974795 -0.035739504
000010 f9 ca 5c be 87 78 c9 bd 24 30 3a 3d 6b a3 b6 3d
       -0.21561803 -0.09837442 0.045456067 0.08917888
000020 f2 08 e3 bb 2d 1b c4 3d 28 7a 5a 3c 91 af 35 3d
       -0.0069285566 0.09575496 0.013334788 0.044356886
000030 a1 71 fd bd 78 d9 d3 3c 7f 58 c8 bd 68 a4 92 bd
       -0.123751886 0.025860533 -0.09782504 -0.07160264
000040 3e c1 dc 3d 1f 56 65 bc 60 8e e1 3d 95 8e 01 be
       0.107790455 -0.013997584 0.11013484 -0.12652047

rb2.bn1.running_mean f4 [20]
000000 6c aa a9 bf 62 58 c5 bd 79 23 cc bf fb 03 22 c0
       -1.3255134 -0.09635998 -1.5948325 -2.531493
000010 5d ac 75 bf 34 f9 a1 be d4 f7 b3 bf aa e5 cf bf
       -0.9596613 -0.3163544 -1.4060006 -1.6241963
000020 40 27 79 3f 18 aa 42 be 65 71 c1 be 1c 1a 85 bf
       0.97325516 -0.19010198 -0.37781826 -1.0398593
000030 f7 7d 19 c0 8a 4b 18 bf 54 ea 39 bf 93 27 ec bf
       -2.3983133 -0.59490263 -0.7262318 -1.8449577
000040 48 bd e0 bf e5 64 0f bf b0 b5 f1 bf 08 e1 9c be
       -1.7557764 -0.5601333 -1.8883572 -0.30640435

rb2.bn1.running_var f4 [20]
000000 d6 88 ab 3f e0 d0 b3 3f 94 52 eb 3f 4f cf 2b 40
       1.3401134 1.4048119 1.8384576 2.684528
000010 74 b7 0d 40 49 bc bc 3f 0d 22 24 40 f7 0c 23 40
       2.214322 1.474496 2.5645783 2.5476663
000020 e4 b9 9e 3f d5 df 9d 3f 06 33 b9 3f a9 a1 07 40
       1.2400479 1.2333933 1.4468696 2.119242
000030 d8 66 24 40 73 ae 01 40 60 f9 ab 3f a9 88 22 40
       2.568777 2.0262725 1.3435478 2.539591
000040 94 ad 08 40 fe 97 f3 3f 21 bb e5 3f c9 ca f2 3f
       2.1355944 1.9030759 1.7947732 1.8968135

rb2.conv2.weight f4 [20, 20, 3, 3]
000000 0c 54 2d 3b 8e 3f 71 3d 49 1b 9a 3c c5 e1 4e 3d
       0.00264478 0.0588985 0.018811839 0.05050828
000010 cb 48 8e bb cf c8 15 be 89 17 88 3c 5a 2d f9 bd
       -0.0043421737 -0.14627384 0.016612785 -0.12166853
000020 22 c0 41 bd 4e 19 5c be 16 ea 21 3e 85 25 05 3e
       -0.047302373 -0.21494028 0.15811953 0.13002594
000030 c4 9d 0f 3d 7c d6 1b 3e 45 58 0d 3e 50 d7 a1 3d
       0.035062566 0.15218538 0.13803203 0.07902396
000040 06 a3 af 3d da ed 23 3e 8d c1 1e bd ff ee 62 bd
       0.08576016 0.16008702 -0.038758803 -0.055403706
000050 9f 0a 22 3c 7a 06 13 3e 97 c8 9c 3d a0 cb 1c bd
       0.009890228 0.1435794 0.07655447 -0.03828013
000060 96 0c b5 bc ed 1a 07 3d d2 e0 b6 bd 69 b7 33 be
       -0.022100728 0.032984663 -0.089296 -0.17550434
000070 91 d7 30 bd d8 f7 56 be 72 4e d3 bd 49 f6 d7 3d
       -0.04317433 -0.20992982 -0.10317697 0.10545022
000080 f0 40 86 be e1 08 85 be b4 2e 75 bc 19 df c7 bd
       -0.26221418 -0.25983337 -0.014964748 -0.097593494
000090 fb 51 0f be bb 5b f9 bd 7a 35 0d be 84 05 15 ba
       -0.13996117 -0.12175699 -0.13789931 -0.0005684721
0000a0 00 03 eb ba d8 27 48 bc c7 70 c3 3d b3 5f 1c 3e
       -0.0017929971 -0.012216531 0.09542995 0.15270881
0000b0 9d 90 55 3d 2f 99 0e be 1b 4f 39 bd cf 78 a6 bd
       0.052139867 -0.13925622 -0.045241456 -0.08128511
0000c0 77 f0 4e be 9b 46 0c 3e 6e d7 d1 bc 81 f8 9c 3b
       -0.20208918 0.13698809 -0.02561542 0.004790366
0000d0 ee 05 11 bd 08 69 ef bc b6 7a 15 bc 40 74 04 bb
       -0.035406046 -0.029224887 -0.009123495 -0.0020210892
0000e0 2b 45 84 bd 6e 0b f3 3d 06 d7 a5 ba 0d 1a b9 bd
       -0.06458505 0.118674144 -0.0012652583 -0.09038172
0000f0 d9 b9 05 be 25 17 2c be 6f 83 1e 3c cf 5a 19 be
       -0.13059177 -0.16805704 0.009674891 -0.14976047
000100 bb 75 f2 bc 8e e2 cd bd 52 cd d7 3a ef 37 08 be
       -0.029597154 -0.100529775 0.0016464388 -0.13302587
000110 26 94 80 bd 73 0d 1c be c9 3a 48 be 02 ed 72 3d
       -0.06278257 -0.15239505 -0.19553675 0.05930806
000120 0e 7f 16 3e a2 fc 84 be 93 83 58 be aa 66 86 3e
       0.14696905 -0.25973994 -0.21143942 0.262502
000130 52 d3 8c 3d 22 92 36 bd a8 b7 d6 ba 8a ea b1 bc
       0.06876244 -0.044572957 -0.0016381638 -0.021718282
000140 23 d2 b6 3d 52 d7 ab 3d 2b c6 20 be 1c 17 9f be
       0.08926799 0.083906785 -0.15700595 -0.3107232
000150 ad 6c 09 3c 9d 69 c1 bd 7f ac b3 3d 22 e5 b7 bd
       0.008387727 -0.09443972 0.087731354 -0.089792505
000160 89 71 d7 3d cb dd 85 3e e9 e7 26 3d 38 a8 ba 3c
       0.10519702 0.26145777 0.04074851 0.022785291
000170 99 b8 94 bd 1d db 20 3e 03 a5 b6 3d d7 fc a5 bd
       -0.07261772 0.15708585 0.08918192 -0.08104866
000180 d5 62 7e 3d 34 39 0b be e1 ed 8d be ba 9d 97 3c
       0.062105972 -0.1359604 -0.2772055 0.018507827
000190 99 91 9b 3d 32 bd 5f 3e 74 68 9f 3c dc 93 96 bd
       0.0759613 0.21849516 0.019458987 -0.07352421
0001a0 47 6d c9 3d 8b 63 32 bd 51 ae 1c be 22 e3 ad bd
       0.09835296 -0.043551963 -0.15300871 -0.08490588
0001b0 d9 14 83 bc 05 ad 47 3d 2a 0c a4 bc 63 80 c9 bd
       -0.016001152 0.04874899 -0.020025332 -0.09838941
0001c0 f7 7c f8 bd 18 3e e0 bd cb 10 ad be 29 de 50 be
       -0.1213321 -0.109493434 -0.33801875 -0.20397247
0001d0 56 59 6c be 63 e3 7b 3d 16 9b 25 3d fb 2a 23 bb
       -0.23080954 0.06149615 0.040431105 -0.0024897445
0001e0 48 26 14 3e 31 d8 6a bc 0e 39 8d 3d 52 3c 89 3d
       0.14467728 -0.014333771 0.06895648 0.06700958
0001f0 fc 5a 96 3c d4 40 79 bb 75 80 20 3e 57 25 fd 3c
       0.018353932 -0.0038033025 0.15674002 0.030901594
000200 38 0a 5a 3e eb 5e 43 3c 47 7d c6 bd 64 78 08 3e
       0.2129296 0.011924486 -0.096918635 0.13327175
000210 aa bd 36 3d 4c 53 7c 3d 06 44 34 3e 2d 8b 92 3d
       0.04461447 0.061602876 0.17604074 0.07155452
000220 05 49 54 3d 36 a8 bb 3d 12 00 9d bc 45 99 bb 3d
       0.05182745 0.09162943 -0.019165073 0.09160093
000230 35 52 08 3d dd a1 43 3c e4 1b 94 bc 86 85 4e be
       0.033281524 0.011940447 -0.018079706 -0.20168123
000240 2b 39 b9 3d e9 52 6c 3d 06 7c 04 3d d7 d2 1e 3d
       0.09044107 0.057696257 0.03234484 0.03877529
000250 54 fa ef 3d 89 d4 34 3d 9c 38 93 bd 16 dc 3b bd
       0.11717668 0.044148 -0.07188532 -0.045864187
000260 bb 63 ac 3c 19 86 f4 3c 85 c5 8f bd af d7 65 3d
       0.021043649 0.029849099 -0.07020096 0.056113895
000270 6a fc 82 bd 48 d2 34 be e3 77 a4 3c f4 c5 20 3c
       -0.063958004 -0.17658341 0.020076698 0.009812821
000280 95 7a 6a bd af 65 4a bd 5c 4a 17 be 2e 56 4c 3d
       -0.05724581 -0.04941338 -0.1477446 0.049886875
000290 99 eb e0 bc 79 5b 0a be 61 d5 17 3e 05 6b b5 3d
       -0.027456092 -0.13511457 0.14827491 0.08858303
0002a0 33 e7 6c be 32 89 2c bd 9c f3 df bd c7 1f 6a 3e
       -0.2313507 -0.042123027 -0.10935137 0.22863685
0002b0 af c0 a7 3d 51 5c 8a 3d 0d 08 c7 3d 2c 0c d1 3d
       0.08191048 0.06755889 0.097183324 0.102074
0002c0 1b 6e 0a 3e fa d2 01 3e 7f 79 0e 3e 2c 34 e5 3c
       0.13518564 0.12678137 0.13913535 0.027978979
0002d0 3f 64 ce 3d 25 3b 0a 3e d6 5a a2 bd be eb 0a be
       0.10077714 0.13499124 -0.07927482 -0.13566491
0002e0 71 99 72 3d ab 47 c9 bd 29 8f 26 bc 6a b9 9f bd
       0.059228364 -0.09828123 -0.010165968 -0.07799037
0002f0 9e e7 24 be 2b de b0 bd e8 1c 7e be 45 c2 24 bd
       -0.1610398 -0.08636125 -0.24815714 -0.040224332
000300 49 46 dd 3d e6 66 83 bb ba f8 d4 3c b7 d1 3f 3d
       0.108044215 -0.004010069 0.025997508 0.04683086
000310 b8 7d ed 3d c5 a0 64 3c 9b 39 d8 bd dd 95 94 bd
       0.115962446 0.013954346 -0.10557862 -0.07255147
000320 94 79 8b bd 2e b5 4f be 7c 89 af bd 95 7a e1 bc
       -0.068102986 -0.20283958 -0.08571145 -0.027524272
000330 9e 62 e2 3c 53 8a 60 3d 35 90 52 3c ce 36 02 be
       0.027634915 0.054819416 0.012851764 -0.12716219
000340 a4 52 f5 3c c3 7a 9a bd a9 7d 1f be 08 c5 dc 3d
       0.029946633 -0.07542946 -0.1557528 0.10779768
000350 53 c4 dd bd 5d 48 5c be 53 94 10 be bf 73 54 be
       -0.108284615 -0.2151198 -0.14119081 -0.20747279
000360 36 f6 59 be e4 9b 1b be 42 00 17 be c2 7d 8f bd
       -0.21285328 -0.15196186 -0.14746192 -0.07006408
000370 bf dd 96 3c 24 90 2a be a6 b2 02 3e 7a d6 9b bd
       0.018416284 -0.16656548 0.12763461 -0.076092675
000380 42 bd c0 bd fe 52 8d bd ef a0 7c bd b0 1f 18 3e
       -0.09411098 -0.06900595 -0.061676916 0.14855838
000390 1c 2c 90 be 27 d6 40 be 8e 2c de 3c 4e e9 d2 3c
       -0.28158653 -0.18831693 0.027120855 0.025746014
0003a0 ec 37 12 bd a6 cc 69 3d 7a b5 b4 bc 3b d4 a1 bc
       -0.035697863 0.057079934 -0.022059191 -0.01975452
0003b0 82 b2 75 3d e2 58 92 bc 7e f8 09 3d a8 be 14 bd
       0.05998469 -0.017864648 0.033684246 -0.036314636
0003c0 29 b8 b3 3c 18 bd 02 3e f1 e8 cb bc f7 17 85 3d
       0.0219384 0.12767446 -0.024891349 0.064987116
0003d0 5d 00 c9 3b 62 0f 78 be c7 ef ab 3d cc 5f b7 3d
       0.0061340765 -0.24224618 0.08395343 0.08953819
0003e0 4f 92 b9 bd db 7e e9 bc 27 c2 65 bd db 94 1c be
       -0.09061109 -0.028502872 -0.05609336 -0.15291159
0003f0 02 73 e6 bd 73 f7 c8 bd de 5f 11 be ec 36 99 3d
       -0.11252405 -0.09812822 -0.14196727 0.07481179

rb2.conv2.bias f4 [20]
000000 26 b6 95 b8 cd a4 60 b7 50 b6 45 38 e0 e8 43 b8
       -7.1388014e-05 -1.3389811e-05 4.7138252e-05 -4.6708505e-05
000010 4c bb 1a b9 32 a9 58 37 a0 06 a0 37 23 3f 72 38
       -0.00014756358 1.2913997e-05 1.9076571e-05 5.7756097e-05
000020 70 dd 75 38 28 03 3d 36 4c 03 ce 38 07 c7 1b 38
       5.861878e-05 2.8165032e-06 9.8234595e-05 3.714024e-05
000030 da 9f fa b7 64 30 61 38 ee 98 61 b8 3b f2 8b b7
       -2.9876759e-05 5.3689248e-05 -5.3786607e-05 -1.6682889e-05
000040 77 70 72 37 c8 bf 49 b8 27 6d 09 b9 0a de 55 38
       1.4450509e-05 -4.8100745e-05 -0.00013106 5.0989947e-05

rb2.bn2.weight f4 [20]
000000 c7 18 62 3f 7a b5 81 3f b4 0a 9c 3f d7 63 8e 3f
       0.8831906 1.0133507 1.2190766 1.1124219
000010 ab 5a 99 3f a9 7a 87 3f 81 75 a0 3f ac 24 9e 3f
       1.1980795 1.0584308 1.2535859 1.2354941
000020 7b 15 9f 3f 78 62 9c 3f ce 42 9c 3f 07 98 7e 3f
       1.242843 1.221755 1.2207887 0.99450725
000030 1e 3f 9a 3f f2 b0 81 3f 49 c7 91 3f 91 3b ab 3f
       1.2050512 1.0132124 1.1388942 1.3377553
000040 3a 9c aa 3f b0 6f a6 3f 33 c2 92 3f 98 ad 64 3f
       1.3328927 1.3002834 1.1465515 0.89327383

rb2.bn2.bias f4 [20]
000000 8a d1 25 3e 49 9b 45 3d 17 d2 65 be 58 20 0f bd
       0.16193214 0.048243795 -0.22443424 -0.034942955
000010 64 35 e5 bd 3b 3e 27 be da ab 9f 3d 0e 12 75 be
       -0.11191824 -0.16332333 0.0779645 -0.23932669
000020 b9 f8 44 3e 91 1f 18 be 59 51 ce 3c 2e a2 31 be
       0.19235505 -0.14855792 0.025185274 -0.17347023
000030 d7 2f 8f 3c 28 17 88 3d 3f 45 cc bc e6 c6 f3 3d
       0.017478867 0.06645042 -0.024935363 0.11903171
000040 6a f1 8c bc d1 1f 09 be 1b 1f 93 3d ab ac 8f be
       -0.017204959 -0.13391043 0.07183667 -0.28061423

rb2.bn2.running_mean f4 [20]
000000 5a e2 1f bf 29 9f 1a c0 00 94 9d bf d3 59 84 bf
       -0.6245476 -2.4159644 -1.2310791 -1.0339912
000010 d6 68 8f bf 96 55 80 3e c5 ba be bf ca 02 bb 3e
       -1.1203868 0.25065297 -1.4900748 0.36525565
000020 ae e1 45 c0 87 2f d0 bc 14 a7 89 bf bc 6d 0a 3e
       -3.0918994 -0.025413288 -1.0754113 0.13518423
000030 3c 3c e5 bf 38 06 35 bf 7a 36 d2 3e 60 d4 b9 bf
       -1.7909007 -0.70712614 0.41057187 -1.4517937
000040 69 c6 33 c0 8c c8 8c bd 1a 80 0f c0 1d d1 8c 3e
       -2.808985 -0.06874189 -2.2421937 0.2750329

rb2.bn2.running_var f4 [20]
000000 ac 9d 75 3f b8 8c a6 3f f9 b4 3e 3f 67 e6 91 3f
       0.95943713 1.3011694 0.7449489 1.1398438
000010 b7 eb 61 3f 59 63 a2 3f 0a e9 a8 3f 21 d1 43 3f
       0.882503 1.2686568 1.3196118 0.7649098
000020 d4 ac bc 3f fd d5 6e 3f 5a 74 68 3f 18 34 6c 3f
       1.4740243 0.9329527 0.9080254 0.9226699
000030 35 36 31 3f a7 df 8c 3f ac 2a bd 3f 7b 43 92 3f
       0.6922334 1.1005753 1.4778647 1.1426843
000040 a3 e8 88 3f c9 5d 97 3f bb bf 8e 3f 86 75 2a 3f
       1.0695995 1.1825496 1.1152261 0.66585577

rb2.shortcut.conv.weight f4 [20, 10, 1, 1]
000000 f6 ac 78 bd c4 3e 79 bd 83 2e cc be c0 53 dd bd
       -0.060711823 -0.060850874 -0.39879236 -0.1080699
000010 db 46 00 3f df af f4 3b 64 e0 2a bb a9 4e d0 3c
       0.50108117 0.0074672545 -0.0026073689 0.025428133
000020 0e 94 20 bc f1 f7 7d be d5 bc e5 bd 85 45 a1 3d
       -0.009800924 -0.24801613 -0.112176575 0.07874588
000030 24 46 1f bf 2c e3 81 3d a5 4c ec bd 89 4a 88 be
       -0.622164 0.06342158 -0.11538056 -0.26619366
000040 45 37 a8 bc 0c 9c 2e bd de 21 9d 3c 35 89 07 bc
       -0.020534167 -0.042629287 0.019181188 -0.008272459
000050 2b 8f 9a bd 87 f4 f0 bd 9a c4 ea bc 9f 5e bd bc
       -0.075468384 -0.1176539 -0.0286582 -0.023116408
000060 e4 20 78 3d f1 d3 cf 3e 12 4c 23 3e 4e 4b a7 3d
       0.060578242 0.40591386 0.15946987 0.0816866
000070 5c 2e 1c be 65 be b3 be 09 7b 00 bd f4 4b 84 3c
       -0.1525206 -0.35106197 -0.031367335 0.016149499
000080 61 f8 aa 3e 4d 86 f9 3d 2c b3 22 3e d6 3d 02 be
       0.33392623 0.12183819 0.15888661 -0.12718901
000090 a5 2c 84 3e 3a da 5d 3e db dc e5 3e 7b 55 2d be
       0.2581531 0.21665278 0.44895062 -0.1692714
0000a0 23 f3 2a be be 96 76 3d 70 e2 a6 3d 81 9c bf 3e
       -0.16694312 0.060202353 0.08148658 0.3742409
0000b0 0a e1 5d 3d a2 00 a6 bd 8c 5d 74 bd 00 71 29 bd
       0.054169692 -0.081055894 -0.059659526 -0.04136753
0000c0 c4 5c c2 3e 27 bc 27 be 17 68 7d 3e d8 34 37 3e
       0.379614 -0.16380368 0.24746738 0.17891252
0000d0 bf 2b c4 bd 7c 02 b7 be b8 20 9e bd b7 7c ee bd
       -0.095786564 -0.35744083 -0.07721084 -0.11644881
0000e0 c4 d2 4e 3e d9 2c 25 be ce 1a 44 be 5e ef d4 be
       0.20197588 -0.1613039 -0.1915085 -0.41588873
0000f0 76 ab c3 bd 26 b8 16 3e d8 67 57 3d 70 c4 a1 be
       -0.09554188 0.14718685 0.052589267 -0.31595182
000100 9e 74 ff bc a3 85 be be 3c f4 95 be 84 cb 34 3d
       -0.031183537 -0.37211332 -0.292879 0.0441394
000110 ee 48 88 3e 6a 3d aa bd e3 8f 3b 3e 50 c3 5b 3e
       0.2661814 -0.08312495 0.18316607 0.21461225
000120 ae b1 1a bd 72 c9 bf bd ef 8e 27 be 2c 6f cb bd
       -0.037767105 -0.093645945 -0.16363119 -0.09933314
000130 e6 4e a9 be bd 51 64 3c 64 6d 13 bf c5 e5 3a be
       -0.33068007 0.013935504 -0.5758879 -0.18251713
000140 f9 50 04 be 67 0f 0b 3e 5d 1c f8 bd 70 82 ed bd
       -0.12921514 0.13580094 -0.12114785 -0.115971446
000150 bd 9f 2a bf e5 17 92 bd fe f9 a9 3b 3b 7f 92 3e
       -0.6664999 -0.07133464 0.005187272 0.28612694
000160 8b cf da bd ee bf 2e 3d aa 46 77 be b3 f2 ba 3e
       -0.10684117 0.042663507 -0.2414805 0.3651329
000170 86 c9 33 be e8 c1 4f be 30 f7 48 3e 5e 5b dd bd
       -0.17557344 -0.20288813 0.19625545 -0.108084425
000180 d6 9f ac bb 05 c5 24 3e ec f9 04 bd 6f 4e bf be
       -0.0052680774 0.16090782 -0.032464907 -0.37364528
000190 22 94 90 3d e8 5c f0 3d 7c 1e d4 be 1d e2 8b 3e
       0.07059504 0.117364705 -0.41429508 0.27320948
0001a0 62 c9 9a be ba ae b5 bd 35 67 82 3e da cf e6 3d
       -0.30231768 -0.08871217 0.25469366 0.11270113
0001b0 1e 21 23 3e b0 75 cc 3d 76 8c f2 3b 8a d7 95 bd
       0.15930602 0.099833846 0.007401998 -0.073165014
0001c0 ca 84 ab be 60 8a 63 3e 1e b4 73 3e be 64 80 3e
       -0.33499748 0.22220755 0.23799178 0.2507686
0001d0 b3 8a f1 bd f8 86 20 be aa 88 14 3e bc 22 2a be
       -0.11794033 -0.15676486 0.14505258 -0.16614813
0001e0 3f 6c e8 bd bf 5a cc be c8 91 47 3e 44 01 af 3e
       -0.11348771 -0.39912984 0.19489205 0.34180653
0001f0 f8 c8 51 bd 2f 32 5d 3d 11 b4 99 3d f0 2d 1b be
       -0.05121705 0.054002937 0.07505048 -0.15154243
000200 14 c1 b7 be c8 d4 ce 3d 28 14 34 bd 47 73 51 be
       -0.35889494 0.100991786 -0.043964535 -0.20454131
000210 bf 95 12 be cc 75 bf bd a7 83 cb 3d d5 07 09 3e
       -0.14314936 -0.0934864 0.0993722 0.13381894
000220 63 80 0c 3e be a5 fc 3d df 51 15 bf 60 f2 0c be
       0.1372085 0.123363 -0.5832805 -0.13764334
000230 c0 28 c6 3c 9e 6c 8c be 9b 0d f1 3a fd cf 2c be
       0.024189353 -0.27426618 0.0018390896 -0.16876216
000240 f7 ff fa 3b df a9 ba be 26 5c cc be e1 4a e9 bd
       0.007659908 -0.36457726 -0.39914054 -0.11391235
000250 83 36 de bd e1 fd 3e 3e ab 14 d4 3e 2d 07 b5 be
       -0.10850241 0.18651535 0.41422018 -0.35357037
000260 b2 18 6f 3e f3 95 1d 3e d4 f9 0d be fb 60 10 3e
       0.23349264 0.15389232 -0.13864833 0.14099495
000270 65 02 03 3e 35 e6 f8 bd bc 9f 82 be eb f2 e1 bc
       0.12793882 -0.121532835 -0.25512493 -0.027581653
000280 33 b6 37 3e 2a c0 af 3e f1 27 04 be 91 ea 97 3d
       0.17940597 0.34326297 -0.12905861 0.07417787
000290 71 4a 4e bc cf 7e 89 3e 59 91 28 3e ce e2 01 3e
       -0.01259099 0.2685456 0.16461696 0.12684175
0002a0 37 e4 92 3d 36 54 d4 bc 7b af 77 3d f1 bc a8 3d
       0.07172435 -0.025919061 0.060470086 0.08239163
0002b0 0f b5 97 be 3d 2d 19 3e e1 5b 5d bb c3 72 84 3e
       -0.29630324 0.14958663 -0.0033776688 0.25868806
0002c0 90 41 7d 3e 72 00 cc 3e 0b 5d 26 3e c5 77 f5 bd
       0.24732041 0.3984409 0.1624643 -0.11985735
0002d0 43 19 6a 3d 9c 91 04 3e ea 29 de bc cb 62 71 be
       0.057152998 0.1294617 -0.027119596 -0.23572843
0002e0 9b 93 f3 bc 54 4d 5d 3c 04 7e 81 3d 68 a7 83 be
       -0.02973347 0.013507206 0.06322864 -0.25713658
0002f0 2a 8d 06 bf e0 4d 30 be d5 cd 80 be e7 65 13 be
       -0.5255915 -0.17217207 -0.25157037 -0.14394341
000300 af 11 c8 3e 3c f5 a7 bc 9f 6b 0f 3e b9 48 6b bd
       0.39075992 -0.020502679 0.14005898 -0.0574424
000310 44 c0 dd 3d 41 1c cb bd e6 95 42 be 99 28 c6 3d
       0.108276874 -0.099174984 -0.19002494 0.09675712

rb2.shortcut.conv.bias f4 [20]
000000 14 26 a0 b8 88 99 70 37 10 25 96 b8 80 59 f8 37
       -7.636487e-05 1.43408615e-05 -7.159461e-05 2.960558e-05
000010 b4 c4 92 b8 f0 26 de b7 02 f3 44 38 f2 2c 16 38
       -6.998461e-05 -2.6482594e-05 4.695636e-05 3.5804645e-05
000020 de 77 e2 b8 4d d4 a7 b8 56 5c 05 38 fd b7 10 39
       -0.00010798847 -8.002725e-05 3.1795666e-05 0.00013801451
000030 50 23 ea b8 4b c9 e0 b7 7d c6 44 b8 4f 9d 5b b7
       -0.00011164567 -2.6796615e-05 -4.6914898e-05 -1.30900435e-05
000040 27 6f 77 b8 7d 3f 49 38 72 fe 1f 36 0a b2 87 b8
       -5.8992908e-05 4.7981262e-05 2.3840953e-06 -6.470464e-05

rb2.shortcut.bn.weight f4 [20]
000000 ba c9 79 3f 11 18 3b 3f ff 4d 70 3f bb 81 1c 3f
       0.97573435 0.730836 0.9386901 0.61135453
000010 1c 90 39 3f d3 a2 47 3f be 82 27 3f 3f 16 4f 3f
       0.7248552 0.77982825 0.6543387 0.8089332
000020 b5 3d 56 3f c5 df 62 3f 82 1b 1c 3f 7a ad 3b 3f
       0.8368791 0.88622695 0.60979474 0.7331158
000030 e5 02 0f 3f fa e8 68 3f ac 39 8d 3f 37 c4 07 3f
       0.5586379 0.90980494 1.1033225 0.53033775
000040 ac fc 36 3f 53 e1 15 3f 62 cd ca 3e 9d 3b 4a 3f
       0.71479297 0.5854694 0.3960982 0.7899721

rb2.shortcut.bn.bias f4 [20]
000000 8a d1 25 3e 49 9b 45 3d 17 d2 65 be 58 20 0f bd
       0.16193214 0.048243795 -0.22443424 -0.034942955
000010 64 35 e5 bd 3b 3e 27 be da ab 9f 3d 0e 12 75 be
       -0.11191824 -0.16332333 0.0779645 -0.23932669
000020 b9 f8 44 3e 91 1f 18 be 59 51 ce 3c 2e a2 31 be
       0.19235505 -0.14855792 0.025185274 -0.17347023
000030 d7 2f 8f 3c 28 17 88 3d 3f 45 cc bc e6 c6 f3 3d
       0.017478867 0.06645042 -0.024935363 0.11903171
000040 6a f1 8c bc d1 1f 09 be 1b 1f 93 3d ab ac 8f be
       -0.017204959 -0.13391043 0.07183667 -0.28061423

rb2.shortcut.bn.running_mean f4 [20]
000000 98 20 a5 be e9 22 68 bf c8 b0 e0 ba 2c ae 78 3f
       -0.3225143 -0.9067827 -0.0017142529 0.97140765
000010 50 9e 97 3e 64 df 3d bf 6d ff 23 bf 6e 71 72 bf
       0.2961297 -0.7416899 -0.64061624 -0.9470433
000020 36 10 1d bf 9c eb ec be 55 7a 53 3e 57 70 df 3b
       -0.6135286 -0.46273506 0.20652135 0.006818812
000030 cd 36 28 be a2 75 08 bf 59 ad 77 bf ed f7 62 3e
       -0.16427155 -0.53304493 -0.9674888 0.22164889
000040 6f 83 57 3f cf 9a 47 3f da 45 59 bf 36 be 97 3c
       0.84184927 0.77970594 -0.8487221 0.018523317

rb2.shortcut.bn.running_var f4 [20]
000000 28 d6 dc 3e 38 c2 c2 3e ea ad c3 3e fd 7d 00 3f
       0.43132138 0.38038802 0.38218623 0.5019224
000010 33 a0 d4 3e 1d 5e f0 3e ec 02 cf 3e e6 5a 19 3f
       0.41528472 0.46946803 0.40431917 0.59904325
000020 83 24 a6 3e 8f 3d 95 3e 6c b3 f6 3e 90 63 81 3e
       0.3244973 0.29148528 0.48183763 0.25271273
000030 9d 3b 71 3e 37 12 1a 3f 19 cb fb 3e 0e 56 b5 3e
       0.23557897 0.60184044 0.4917839 0.35417217
000040 ad 3c 96 3e 4c 82 ce 3e d7 48 0f 3f 95 66 02 3e
       0.29343167 0.40333784 0.5597052 0.12734444

res1_sc1.conv.weight f4 [20, 3, 1, 1]
000000 eb dc 0b bf de 9e c0 3d bf 2f ae 3e 5a 58 81 be
       -0.5463397 0.094053015 0.34020802 -0.2526272
000010 79 d3 0c 3f 24 5a 80 be 6e 89 c5 3c 2a fd a0 be
       0.5501018 -0.25068772 0.024113383 -0.3144315
000020 2d 6c e3 be b1 bc ca 3e 5d 16 be be 65 ef 95 be
       -0.4441847 0.39597085 -0.37126437 -0.29284206
000030 0b 40 e7 3e 8b c3 23 be fe 63 8a 3e e9 0b 16 bf
       0.45166048 -0.15992562 0.27029413 -0.58611923
000040 0f 92 b5 be d8 50 b0 3e d7 50 4e be fa ba db 3e
       -0.35462996 0.3443668 -0.20148025 0.4291609
000050 ac b5 00 3f 3c 22 cb 3e c5 a6 12 bf 4f c7 a7 be
       0.5027721 0.39674556 -0.5728572 -0.32769248
000060 31 65 34 3e a9 69 12 3f 2f 0b 39 be d8 ae 88 3e
       0.17616726 0.57192475 -0.18070672 0.26695895
000070 11 2d 7a be 8d e3 d0 be 99 1d 70 bd 09 93 67 be
       -0.24431254 -0.40798607 -0.058621977 -0.22614683
000080 b5 ea fd be 3c c5 23 3e f9 b6 b4 bd 0d 1c d9 be
       -0.4959313 0.15993208 -0.08823962 -0.42404214
000090 4b 4b e6 be 77 18 3f be 48 11 bd bc d9 19 45 3d
       -0.4497932 -0.18661676 -0.02307953 0.048120353
0000a0 25 d6 37 be 31 34 00 bf 43 95 39 be f7 b4 7b 3e
       -0.17952783 -0.5007964 -0.18123345 0.24580751
0000b0 cf b8 e4 3e 56 85 cd 3e 18 fd 47 3e 53 20 80 be
       0.44672248 0.4014079 0.19530141 -0.2502466
0000c0 d2 67 38 3d c7 15 c7 be 2d 7d 76 3d 17 da f8 3c
       0.045020886 -0.38883802 0.06017797 0.03037743
0000d0 2b 3a da be 82 e7 10 3d fe 05 85 3e be b6 b5 3e
       -0.42622504 0.035377033 0.25981134 0.35490984
0000e0 78 ca 45 bd 69 65 06 bf 44 8a fa 3d 9e dc f1 3d
       -0.048288792 -0.5249849 0.12233403 0.118096575

res1_sc1.conv.bias f4 [20]
000000 dc e6 71 b8 3e 5d cb 38 4d f7 66 37 6e 6c f5 37
       -5.7673882e-05 9.697162e-05 1.37666475e-05 2.9256767e-05
000010 5a 3a 11 b9 34 3f 01 b9 4b d9 b1 b8 69 7d dc 38
       -0.00013850015 -0.00012325944 -8.480492e-05 0.00010513777
000020 d1 14 87 b8 15 8c b4 38 e4 c7 72 b7 ee 6d e2 b8
       -6.441179e-05 8.609161e-05 -1.4470865e-05 -0.00010796996
000030 c0 44 ab 38 78 35 43 b8 6b b5 07 39 41 ce 34 38
       8.166721e-05 -4.654142e-05 0.00012942187 4.3107433e-05
000040 91 63 55 39 bd 07 8c 38 0c fa 63 b8 48 9b 5f 39
       0.00020350354 6.6771616e-05 -5.435389e-05 0.00021324784

res1_sc1.bn.weight f4 [20]
000000 2f 84 67 3f 94 a3 70 3f 8f 81 3d 3f 31 4c 29 3f
       0.9043607 0.939996 0.74025816 0.66131884
000010 08 b4 1b 3f 6d 59 28 3f 9c 3e 1c 3f c3 33 2e 3f
       0.6082158 0.6576145 0.61033034 0.6804773
000020 41 e3 2e 3f 3e 02 31 3f c8 ff 21 3f 6a 0e 2b 3f
       0.6831551 0.69144046 0.63280916 0.6681887
000030 b1 38 17 3f 2b d7 32 3f 36 28 34 3f 87 42 e3 3e
       0.5907088 0.6985957 0.7037386 0.44386694
000040 3e 1b 1d 3f 85 50 15 3f 6b 82 ff 3e 56 b8 5a 3f
       0.61369693 0.5832599 0.4990419 0.85437524

res1_sc1.bn.bias f4 [20]
000000 8a d1 25 3e 49 9b 45 3d 17 d2 65 be 58 20 0f bd
       0.16193214 0.048243795 -0.22443424 -0.034942955
000010 64 35 e5 bd 3b 3e 27 be da ab 9f 3d 0e 12 75 be
       -0.11191824 -0.16332333 0.0779645 -0.23932669
000020 b9 f8 44 3e 91 1f 18 be 59 51 ce 3c 2e a2 31 be
       0.19235505 -0.14855792 0.025185274 -0.17347023
000030 d7 2f 8f 3c 28 17 88 3d 3f 45 cc bc e6 c6 f3 3d
       0.017478867 0.06645042 -0.024935363 0.11903171
000040 6a f1 8c bc d1 1f 09 be 1b 1f 93 3d ab ac 8f be
       -0.017204959 -0.13391043 0.07183667 -0.28061423
