models/dense_max/epoch_0023.pth (torch, 645162 bytes, 174 tensors)

rb1.conv1.weight f4 [10, 3, 3, 3]
0	0xbd9dd3bb	-0.077064
1	0x3daa843b	0.08326002
2	0xbd9bfe73	-0.07616892
3	0xbe6e892f	-0.23294519
4	0x3e8bd964	0.27314293
5	0x3e3c011b	0.18359797
6	0xbe50f0bc	-0.20404333
7	0x3e416f40	0.18890095
8	0xbdf84409	-0.12122352
9	0xbe33896a	-0.17532888
10	0x3c6232f1	0.013806091
11	0xbd2be156	-0.041962944
12	0xbe9e935b	-0.30971798
13	0x3e92691b	0.28595814
14	0x3e2be315	0.16785844
15	0xbc71cb26	-0.014757907
16	0x3e8d7041	0.27624705
17	0xbe69b3e5	-0.2282253
18	0xbca51738	-0.020152673
19	0x3b833cd8	0.004005056
20	0xbdb918e9	-0.09037954
21	0xbe66e646	-0.2254878
22	0x3d514c06	0.051097892
23	0x3c3c330d	0.011486781
24	0x3e05c437	0.13063131
25	0x3d8ca970	0.06868255
26	0x3e101a85	0.14072616
27	0x3d5e1fb3	0.05422945
28	0x3cad7590	0.021174222
29	0x3e241acb	0.16025846
30	0x3d71c09d	0.05902158
31	0x3e13e49c	0.14442676
32	0xbeb600d2	-0.355475
33	0xbd62ba11	-0.055353228
34	0x3d220e31	0.039564315
35	0xbd9a4660	-0.07532954
36	0xbd1dfbab	-0.038570087
37	0xbcb2ee9d	-0.021842295
38	0xbc2e5654	-0.010640699
39	0xbd1fd16e	-0.039018087
40	0x3edcf3d2	0.4315477
41	0xbe6bd6ca	-0.23031154
42	0xbd667538	-0.056264132
43	0x3db16ee2	0.08663727
44	0xbe077697	-0.13228832
45	0xbe0b195d	-0.13583894
46	0xbe2f1c27	-0.17100583
47	0x3df557d0	0.119796395
48	0x3c40669d	0.011743215
49	0x3eb5734c	0.35439527
50	0xbe899580	-0.26871872
51	0xbbb032f8	-0.0053771697
52	0x3dbfd6ef	0.09367167
53	0x3d395955	0.04525121
54	0x3cfe63a7	0.031053377
55	0x3e8d0386	0.2754175
56	0x3e3f5d8a	0.18688026
57	0xbe0779c7	-0.13230048
58	0xbd96799b	-0.07347413
59	0x3dc2335a	0.09482451
60	0xbd7945fa	-0.06085775
61	0xbe647eb5	-0.2231396
62	0x3b92f585	0.0044848346
63	0x3e7a1662	0.24422601
64	0x3e77594e	0.24155161
65	0x3ea0935a	0.3136242
66	0x3b27e171	0.0025616551
67	0xbe31562f	-0.17318033
68	0xbdebaf2d	-0.115080215
69	0xbde57786	-0.11204438
70	0xbe8a0bd3	-0.26962146
71	0xbe393a01	-0.18088533
72	0x3d72c0a2	0.05926574
73	0x3e2ec264	0.17066342
74	0x3d722a07	0.05912211
75	0x398ce1ce	0.00026871118
76	0xbd336550	-0.04379779
77	0xbdbeacb2	-0.09310283
78	0x3dcfe014	0.101501614
79	0xbe51aadc	-0.20475334
80	0xbdfb1852	-0.12260498
81	0xbe45e34c	-0.19324988
82	0x3cf3d47f	0.029764412
83	0xbe299041	-0.16558935
84	0x3d98dd60	0.07464099
85	0xbe9d7870	-0.3075595
86	0xbe2b0cf5	-0.16704161
87	0x3d39d1cd	0.045366097
88	0x3dcecfb0	0.10098207
89	0x3e27b9ad	0.16379423
90	0xbdd9a4b8	-0.10627121
91	0xbe1fa48d	-0.15590115
92	0xbe248789	-0.16067328
93	0x3e5d3a80	0.21604347
94	0xbe893bde	-0.26803488
95	0xbdf865d5	-0.12128798
96	0x3e8ad5c6	0.2711622
97	0x3ccca707	0.024981989
98	0x3ccc1ea3	0.024916952
99	0xbd3cea8c	-0.04612212
100	0x3cb21196	0.021736901
101	0xbe0d8f46	-0.13824186
102	0x3c4c1cb2	0.012458013
103	0xbe2fbb66	-0.1716133
104	0xbdfbf4bb	-0.12302538
105	0x3e3e5a3e	0.18589112
106	0x3c88cf5a	0.016700435
107	0x3e6d258f	0.23158859
108	0xbe7562ba	-0.23963442
109	0xbe67ec12	-0.22648647
110	0x3e49c5a2	0.19704297
111	0xbdb031fd	-0.086032845
112	0xbe2d9f26	-0.16955242
113	0x3e15d9e6	0.14633903
114	0xbde4bbb8	-0.11168617
115	0xbbd0a6d9	-0.006367546
116	0x3e6b50be	0.2298002
117	0x3e730a3a	0.2373437
118	0xbe5e9959	-0.21738185
119	0xbdb14485	-0.08655647
120	0xbd9c0ca8	-0.076196015
121	0xbc6de8c0	-0.014520824
122	0x3e278e54	0.16362888
123	0x3dc40a77	0.095723085
124	0x3df475fa	0.11936565
125	0x3dff351c	0.12461302
126	0x3e888d85	0.2667047
127	0x3daa39fe	0.083118424
128	0xbd887006	-0.06661992
129	0x3e61cad8	0.22050035
130	0x3cd9e3f2	0.02659795
131	0xbe90911e	-0.28235716
132	0x3e16ef27	0.14739667
133	0x3c99a9b2	0.018757675
134	0xbe3a20d8	-0.18176591
135	0xbe3eea83	-0.18644147
136	0xbe13265f	-0.14370106
137	0x3e07c27c	0.13257784
138	0x3c9bc837	0.019016368
139	0xbe126d8d	-0.14299603
140	0x3bea759a	0.0071551325
141	0x3df11653	0.11771836
142	0xbdb72ccd	-0.08944092
143	0x3cdfefe6	0.027336072
144	0x3d960093	0.07324328
145	0x3e44359b	0.19161074
146	0x3e65444a	0.22389331
147	0xbd471fbd	-0.048614252
148	0xbee17e26	-0.44041556
149	0xbdecc113	-0.115602635
150	0x3e30789a	0.17233506
151	0xbdfe19dd	-0.12407277
152	0xbea4ff48	-0.32226014
153	0x3c87c13b	0.016571632
154	0xbda87e08	-0.082271636
155	0x3e68c91f	0.22732972
156	0xbdbbfeb3	-0.091794394
157	0xbe309645	-0.17244823
158	0x3b6e2dd4	0.0036343234
159	0xbe6eccd0	-0.23320317
160	0xbeac6564	-0.33671105
161	0x3cba5e76	0.02275012
162	0xbcc51dee	-0.024062123
163	0xbd222184	-0.039582744
164	0x3dd5a2c1	0.104314335
165	0x3da7a5f9	0.08185954
166	0x3e4d3206	0.20038614
167	0xbde604b8	-0.11231369
168	0xbcca11be	-0.024666663
169	0xbd06c393	-0.032901358
170	0x3ce6dc48	0.02818121
171	0x3d84c81f	0.064834826
172	0x3cdb7aae	0.026791897
173	0x3d948abe	0.072530255
174	0x3e0840fd	0.13306041
175	0x3e97b05c	0.2962674
176	0xbd65041b	-0.05591212
177	0x3d0854c6	0.03328397
178	0x3d4cb30f	0.04997545
179	0xbe2f64a7	-0.1712824
180	0xbe8389e1	-0.2569113
181	0xbe186ec1	-0.14886
182	0xbdc5d371	-0.0965947
183	0xbba9a9a3	-0.005177693
184	0x3ded8139	0.11596913
185	0x3e1954d2	0.14973763
186	0xbd9effb8	-0.07763618
187	0x3eca56c5	0.39519325
188	0x3e8d0dbd	0.27549544
189	0x3c9fbb7b	0.019498577
190	0xbe0be2e5	-0.13660772
191	0x3e481299	0.19538344
192	0xbe85659a	-0.26054078
193	0xbd8bd679	-0.06828017
194	0x3d90d952	0.070727006
195	0x3e6769af	0.22598909
196	0xbd476ccb	-0.048687737
197	0x3e49c0b3	0.19702415
198	0x3e0293ac	0.12751645
199	0xbca7b1af	-0.020470468
200	0x3e4c45af	0.19948457
201	0xbe5c838f	-0.2153456
202	0xbec6151c	-0.3868798
203	0xbb99b2bd	-0.0046904967
204	0x3e1d8090	0.15381074
205	0x3e07e03d	0.13269134
206	0xbe81b54d	-0.25333634
207	0xbdee267e	-0.116284356
208	0xbdb7af2a	-0.08968957
209	0x3d8b2f24	0.06796101
210	0xbda598df	-0.080857985
211	0xbe1a2416	-0.15052828
212	0x3ebd007c	0.36914432
213	0x3e887b11	0.26656392
214	0xbdb87d81	-0.09008313
215	0xbd05e86a	-0.03269235
216	0xbe92ca49	-0.28669956
217	0x3dcd0ca2	0.10012175
218	0xbc39c2a2	-0.011337908
219	0xbcfb1c44	-0.030653127
220	0x3e41db7c	0.18931383
221	0x3e94c2e5	0.29054943
222	0xbc71d0f8	-0.014759295
223	0x3e189528	0.14900649
224	0xbd6c812f	-0.057740387
225	0xbdb231b3	-0.087008856
226	0xbe142c2e	-0.14469978
227	0xbe1d4041	-0.15356542
228	0x3c45ea7f	0.012079834
229	0x3dfaddb0	0.12249315
230	0xbd8ad562	-0.06778981
231	0x3e73c3f7	0.23805223
232	0xbe955ade	-0.2917089
233	0xbe5418ac	-0.20712537
234	0x3d7f8530	0.062382877
235	0x3dc79167	0.0974453
236	0xbddace7c	-0.10683915
237	0x3de70d8d	0.112818815
238	0x3e4fa4b3	0.20277672
239	0x3cbb0b97	0.022832675
240	0x3d0754a9	0.033039723
241	0x3c95159e	0.018198784
242	0xbe6ca171	-0.2310846
243	0x3e805761	0.25066665
244	0x3ee8ec58	0.45492816
245	0x3e5906f3	0.21194057
246	0x3e1b41d3	0.15161829
247	0x3e9886a5	0.29790226
248	0x3d587fd2	0.052856274
249	0xbdac8444	-0.08423665
250	0xbe41df9d	-0.18932958
251	0xbeafa5d9	-0.3430622
252	0x3e379829	0.17929138
253	0x3e9e8041	0.30957225
254	0x3d373c59	0.044735286
255	0xbd80dc73	-0.06292047

rb1.conv1.bias f4 [10]
0	0x3901b070	0.00012368127
1	0x374cdd97	1.221094e-05
2	0x36f61b90	7.33458e-06
3	0x38b1bfe1	8.475758e-05
4	0x399522ae	0.00028445333
5	0x3730a476	1.0528709e-05
6	0xb7ea6002	-2.793968e-05
7	0x388cd96f	6.7162204e-05
8	0x3969abfe	0.00022284684
9	0xb723d2bc	-9.7646225e-06

rb1.bn1.weight f4 [10]
0	0x3f4b5aa7	0.794352
1	0x3f9f25fe	1.2433469
2	0x3f5b59dd	0.85683995
3	0x3f5dd993	0.86660117
4	0x3f124f4e	0.5715226
5	0x3f4d1a11	0.801179
6	0x3f2abb4f	0.6669206
7	0x3f7b8e42	0.98263943
8	0x3f536a55	0.82584125
9	0x3f2ac793	0.66710776

rb1.bn1.bias f4 [10]
0	0x3ea71ce6	0.32639235
1	0x3f92899f	1.1448249
2	0x3bb5ece0	0.0055519193
3	0x3d3cad40	0.04606366
4	0x3d422b13	0.04740436
5	0xbcb7f4cb	-0.022455594
6	0xbbab75ee	-0.005232564
7	0x3f4aafd1	0.79174525
8	0x3f0dd41b	0.5540177
9	0x3e031c6d	0.12803812

rb1.bn1.running_mean f4 [10]
0	0xbc45a928	-0.012064256
1	0xbc182dbb	-0.009288247
2	0x3c833eb5	0.016021112
3	0x3cc499f0	0.023999184
4	0xbd2e6432	-0.042576022
5	0x3dea66a6	0.1144536
6	0xbd9ecff4	-0.07754508
7	0xbb004445	-0.0019571942
8	0xbb61ce4c	-0.0034455238
9	0xbcb771c5	-0.022393117

rb1.bn1.running_var f4 [10]
0	0x3d95bba3	0.073111795
1	0x3d15ecd8	0.036602825
2	0x3e3a97b8	0.18221939
3	0x3e7149bb	0.23563282
4	0x3d2bf0d7	0.04197773
5	0x3ee11b4d	0.4396614
6	0x3e785a45	0.24253185
7	0x3d5284af	0.05139607
8	0x3d139a03	0.03603555
9	0x3ed89675	0.4230229

rb1.conv2.weight f4 [10, 10, 3, 3]
0	0xbccd4b63	-0.025060361
1	0xbe40f4fe	-0.18843457
2	0x3b15571f	0.0022787524
3	0x3c784527	0.015153206
4	0xbe129240	-0.14313602
5	0xbd485290	-0.048906863
6	0x3bc7ea12	0.0061009014
7	0xbd436827	-0.04770675
8	0xbc8b0f6f	-0.016975133
9	0x3bb7466a	0.005593111
10	0x3e32fb60	0.17478704
11	0xbe845111	-0.258431
12	0xbe88dfbb	-0.26733193
13	0xbdbe5782	-0.092940345
14	0x3e14bbe5	0.14524801
15	0x3e13a7b0	0.14419436
16	0xbe598dc4	-0.21245486
17	0x3bb5afff	0.005544662
18	0xbe06f8d9	-0.13180865
19	0x3da98956	0.08278148
20	0xbdee7639	-0.11643643
21	0x3c26811c	0.010162618
22	0xbe4b6394	-0.19862205
23	0xbe307230	-0.17231059
24	0x3cb711ca	0.02234735
25	0x3decd50c	0.11564073
26	0x3e1af9ec	0.151344
27	0x3e16cb6c	0.14726037
28	0x3e206275	0.15662558
29	0x3e0613c4	0.13093477
30	0x3dc9150b	0.09818467
31	0x3dde862a	0.108654335
32	0x3cde506f	0.027137963
33	0xbe0108f7	-0.12601076
34	0xbd8ef419	-0.06980152
35	0xbe708229	-0.23487152
36	0xbe0c96e5	-0.13729437
37	0x3d511583	0.051045906
38	0xbd1d3b87	-0.038386848
39	0xbc075c55	-0.00826176
40	0xbdce8d2b	-0.100855194
41	0x3ca9270c	0.020648502
42	0xbd847365	-0.06467322
43	0xbc82e770	-0.015979499
44	0xbda57d51	-0.08080543
45	0x3dadd3ad	0.084876396
46	0x3e7008b2	0.23440817
47	0x3e2abbfc	0.16673273
48	0xbcbebb0f	-0.023282556
49	0x3bc5edfd	0.0060403333
50	0xbd1b0541	-0.037846807
51	0xbd379465	-0.044819254
52	0x3d7cd9d8	0.06173119
53	0x3e1fd896	0.15609965
54	0xbd83762e	-0.06419025
55	0xbd1a6b4a	-0.037699975
56	0xbdae8a99	-0.08522529
57	0xbdc3e96a	-0.095660046
58	0xbe706e41	-0.23479559
59	0xbda2236f	-0.07916915
60	0x3dc06057	0.09393375
61	0x3d8941b4	0.06701985
62	0xbd856140	-0.065126896
63	0xbcfa6ec8	-0.030570403
64	0x3de659ab	0.112475716
65	0x3e8dbc82	0.27682883
66	0xbd58b06a	-0.052902617
67	0xbe821b6b	-0.25411543
68	0xbecbc687	-0.39799902
69	0x3c58fde7	0.013244129
70	0x3e2a963a	0.1665887
71	0x3dbd5c21	0.09246088
72	0xbd382858	-0.04496035
73	0xbe2a65e2	-0.16640428
74	0xbdd4cd20	-0.10390687
75	0x3dfd1bd1	0.12358821
76	0x3d71355b	0.058888774
77	0x3dcce60d	0.10004816
78	0xbe430bda	-0.1904749
79	0xbc6b4c83	-0.0143615035
80	0xbd46f27d	-0.0485711
81	0xbea3d34a	-0.31997138
82	0xbea537a6	-0.3226902
83	0xbdfcbacb	-0.123403154
84	0xbe32efad	-0.17474242
85	0xbd40e294	-0.04709108
86	0xbd5922bb	-0.053011637
87	0xbe0e5494	-0.13899451
88	0xbda42612	-0.08015074
89	0x3d65766a	0.05602113
90	0xbc359802	-0.011083605
91	0xbdfa3609	-0.12217338
92	0x3deab741	0.11460734
93	0x3baaa0d0	0.0052071586
94	0x3d8a4438	0.06751293
95	0x3e9e46e3	0.30913457
96	0xbd476728	-0.04868236
97	0x3e255cc2	0.16148666
98	0xbdc955d5	-0.09830824
99	0x3de254e5	0.110513486
100	0x3db839ae	0.089953765
101	0xbe33e26e	-0.17566845
102	0x3e23d845	0.16000469
103	0xbeebe8a9	-0.46075943
104	0x3d7d1fd0	0.061797917
105	0xbea09333	-0.31362304
106	0x3e031c77	0.12803827
107	0x3e188d60	0.1489768
108	0x3c95c6f9	0.018283354
109	0x3e055e3e	0.13024232
110	0xbdd6b14d	-0.10483036
111	0x3c16e748	0.009210415
112	0xbe2c9f23	-0.16857581
113	0xbe1a1dc6	-0.1505042
114	0x3c9f04d9	0.019411491
115	0xbdc81ff6	-0.09771721
116	0xbd5d0f3a	-0.0539696
117	0xbe64202f	-0.22277902
118	0x3dd8d512	0.10587515
119	0x3d4d53ee	0.05012887
120	0x3d8e6151	0.069521554
121	0xbd33f424	-0.043934003
122	0xbdcc7957	-0.09984081
123	0x3b889d45	0.0041691386
124	0xbe48be53	-0.19603853
125	0xbc808324	-0.015687533
126	0x3e3766ed	0.17910357
127	0x3e55a0ab	0.20862071
128	0x3d2a553f	0.041585203
129	0x3d8d7703	0.06907465
130	0xbd105f58	-0.035247177
131	0xbdb77f72	-0.08959855
132	0xbc8e3f91	-0.017364295
133	0xbe183c21	-0.14866687
134	0xbe297e59	-0.16552104
135	0xbdabfe69	-0.08398134
136	0xbdac14d3	-0.084024094
137	0xbdae9862	-0.085251585
138	0xbd528e1d	-0.05140506
139	0xbd84173c	-0.06449744
140	0xbdf98fa9	-0.12185604
141	0xbd9a9ee5	-0.07549838
142	0xbe38eb64	-0.18058544
143	0xbd78206a	-0.060577787
144	0x3dcf154a	0.101114824
145	0x3e22584d	0.15853997
146	0x3dd3a6f4	0.10334578
147	0x3e1ad7c9	0.15121378
148	0x3e302f5a	0.17205563
149	0x3df5cf90	0.1200248
150	0x3e12d32d	0.1433837
151	0x3e388955	0.18021138
152	0x3cca71ec	0.024712525
153	0x3dbb5ada	0.09148188
154	0xbe8f3663	-0.2797118
155	0xbb9f025e	-0.004852577
156	0xbd36011a	-0.044434644
157	0xbe8809f6	-0.265701
158	0x3e4c5a2c	0.19956273
159	0xbd150416	-0.03638085
160	0x3e888c95	0.26669756
161	0xbc3c2afc	-0.011484858
162	0x3dd83e77	0.10558789
163	0xbbd629d3	-0.0065357476
164	0xbe5fba9e	-0.21848533
165	0x3cebb76e	0.02877399
166	0xbdde183b	-0.10844465
167	0x3e18888d	0.1489584
168	0xbc5680bb	-0.013092215
169	0x3e1246a3	0.14284758
170	0xbcfb23d4	-0.030656733
171	0xbcf25896	-0.029583257
172	0xbb80b537	-0.0039278525
173	0x3cc1ed35	0.02367268
174	0x3d6bcde4	0.0575694
175	0xbcd01b17	-0.025403542
176	0x3d23ca46	0.039987825
177	0xbd927d21	-0.07152773
178	0x3e1256c2	0.14290908
179	0x3d0ac07f	0.033874985
180	0x3cd691fb	0.026192656
181	0xbea9ad11	-0.33139852
182	0xbd99fa4c	-0.075184435
183	0x3c6b1f1b	0.014350678
184	0xbd9a38cc	-0.075303644
185	0xbcc06a49	-0.02348818
186	0x3da352ae	0.07974754
187	0x3d8b5174	0.06802645
188	0x3d759d15	0.05996426
189	0xbd663764	-0.05620517
190	0xbe08f412	-0.13374355
191	0x3bda4f60	0.0066622943
192	0xbd7fef03	-0.0624838
193	0xbe1f41d7	-0.1555246
194	0xbcbf0cef	-0.023321597
195	0xbc37e0f2	-0.011223065
196	0x3e0d24a7	0.13783513
197	0x3e1e4873	0.15457325
198	0x3e8ad41b	0.2711495
199	0x3d68ef3c	0.056868777
200	0x3d27011d	0.040772546
201	0x3eb6b034	0.35681307
202	0x3d710b99	0.05884895
203	0xbe2b1bda	-0.16709843
204	0x3db9d088	0.09072977
205	0xbde46c66	-0.11153488
206	0xbd65964a	-0.05605153
207	0x3dc1c54c	0.094614595
208	0x3d56c704	0.05243589
209	0xbb5ae3c2	-0.0033399914
210	0x3c240f9a	0.010013485
211	0x3d322682	0.043493755
212	0x39880a57	0.00025947645
213	0x3e8e4e72	0.27794224
214	0xbc970fde	-0.018440183
215	0x3cc2583b	0.023723712
216	0x3dd93307	0.10605436
217	0x3dfb2419	0.122627445
218	0x3cfa3ffa	0.030548085
219	0x3e74fcaa	0.23924509
220	0x3d9b31b1	0.07577837
221	0x3d114c1c	0.035472974
222	0x3dbf4279	0.093388505
223	0x3d4951d7	0.049150314
224	0x3bc37f8a	0.0059661316
225	0x3e5d8afa	0.21635047
226	0x3e65859d	0.2241425
227	0x3e348f85	0.17632873
228	0x3e33c54b	0.1755573
229	0x3dbacc4d	0.091209985
230	0x3d2493dd	0.040180076
231	0x3d22a9ba	0.039712645
232	0x3d2153d0	0.03938657
233	0xbde20f7a	-0.11038108
234	0x3c7cab06	0.015421635
235	0xbd3bc6d9	-0.045843933
236	0xbdfb0e03	-0.12258532
237	0x3c6ae6df	0.0143372705
238	0xbd38a84f	-0.045082387
239	0xbde44835	-0.11146585
240	0x3c90f865	0.017696569
241	0xbc43c26d	-0.01194821
242	0xbdfd847a	-0.123787835
243	0x3e2a20e4	0.1661411
244	0x3dd789b5	0.105243124
245	0xbaa7905e	-0.0012784114
246	0x3d8e86e6	0.069593236
247	0x3da3074c	0.07960376
248	0xbcbb9834	-0.022899725
249	0xbde1ef47	-0.11031967
250	0x3cd41e0e	0.025893237
251	0xbd77a67c	-0.060461506
252	0x3e8effbd	0.27929488
253	0x3e90c4cf	0.28275153
254	0xbd9a246c	-0.07526478
255	0x3e4afa9d	0.19822164

rb1.conv2.bias f4 [10]
0	0xb90bf672	-0.00013347881
1	0x381b12a9	3.697226e-05
2	0x38b83ae2	8.7847715e-05
3	0x3866258d	5.4871245e-05
4	0xb808edd9	-3.264644e-05
5	0xb6f76219	-7.3725937e-06
6	0xb94260f7	-0.00018537404
7	0xb7186154	-9.082567e-06
8	0xb899a774	-7.326799e-05
9	0xb7564b8a	-1.2772982e-05

rb1.bn2.weight f4 [10]
0	0x3f84c103	1.0371403
1	0x3f917080	1.1362457
2	0x3f4da036	0.8032259
3	0x3f8d65cf	1.1046695
4	0x3f3b6c9c	0.732126
5	0x3f897389	1.0738384
6	0x3fa99278	1.3247824
7	0x3f87d00e	1.0610368
8	0x3f8e68f0	1.1125774
9	0x3f5bca63	0.8585569

rb1.bn2.bias f4 [10]
0	0x3d803c95	0.06261555
1	0xbd9911d9	-0.07474107
2	0x3e963e77	0.29344532
3	0xbcec4e62	-0.02884597
4	0x3e806499	0.2507675
5	0x3dbb2161	0.09137226
6	0xbca002b1	-0.019532533
7	0x3dcc4ac9	0.09975202
8	0x3d833aa8	0.06407672
9	0x3e8bd4cc	0.2731079

rb1.bn2.running_mean f4 [10]
0	0xbfa83789	-1.3141948
1	0xbe98bb23	-0.29830274
2	0x3f3fa4fc	0.7486112
3	0xba9f3414	-0.0012146258
4	0xbf1b1875	-0.60584193
5	0xbdf5d569	-0.120035954
6	0xbf333c89	-0.70014244
7	0xbea055df	-0.31315514
8	0x3d5a203d	0.0532534
9	0x3fc85e0b	1.56537

rb1.bn2.running_var f4 [10]
0	0x3fc9a5c6	1.5753715
1	0x3f9cd25d	1.2251698
2	0x3f8b4ce6	1.0882843
3	0x3fbe455d	1.4864918
4	0x3f5807ac	0.84386706
5	0x3fd75cc3	1.6825184
6	0x400234f5	2.0344822
7	0x3fd61192	1.6724112
8	0x3ff5ec25	1.921269
9	0x3fce2dd7	1.6107739

rb1.shortcut.conv.weight f4 [10, 3, 1, 1]
0	0x3ee8ea64	0.45491326
1	0x3c26f646	0.010190552
2	0x3eab1348	0.33413148
3	0xbea991c7	-0.33119032
4	0xbf0b934c	-0.5452163
5	0xbebef004	-0.37292492
6	0x3ebcbb14	0.3686148
7	0xbeb6429c	-0.35597694
8	0x3dd8168c	0.105511755
9	0xbef275a8	-0.4735539
10	0xbf33c07f	-0.702156
11	0x3e30bb62	0.17258981
12	0xbdd58ba7	-0.10427027
13	0xbe48ff36	-0.19628605
14	0x3f143a50	0.5790148
15	0x3ebe3b66	0.37154692
16	0x3e1402ce	0.14454195
17	0x3ef88dd7	0.48545715
18	0xbebca81a	-0.36847
19	0xbead16e9	-0.33806542
20	0xbea6487b	-0.32477173
21	0xbe917463	-0.2840911
22	0xbf339180	-0.7014389
23	0x3e88854d	0.266642
24	0xbe9d006d	-0.30664387
25	0xbf0511ae	-0.519801
26	0xbd859b1a	-0.06523724
27	0xbe921247	-0.2852957
28	0x3d66935b	0.056292873
29	0xbf15af96	-0.5847105

rb1.shortcut.conv.bias f4 [10]
0	0x3608dec4	2.0395246e-06
1	0x376f05d0	1.4246863e-05
2	0xba3c2d51	-0.00071783835
3	0x38a28ceb	7.75101e-05
4	0x38bec9c4	9.097488e-05
5	0xb953dbaf	-0.00020204367
6	0xb8b1b8ed	-8.474463e-05
7	0xb8d6787e	-0.000102267586
8	0xb9015a84	-0.00012336118
9	0xb8579870	-5.1401963e-05

rb1.shortcut.bn.weight f4 [10]
0	0x3f79bebd	0.9755667
1	0x3f6a40d4	0.9150517
2	0x3f81c086	1.0136878
3	0x3f64a354	0.8931172
4	0x3f91d7d7	1.1393994
5	0x3f6fa2a1	0.93607527
6	0x3f155d32	0.5834533
7	0x3f2f949c	0.68586135
8	0x3f664762	0.8995267
9	0x3f6840c1	0.90723807

rb1.shortcut.bn.bias f4 [10]
0	0x3d803c95	0.06261555
1	0xbd9911d9	-0.07474107
2	0x3e963e77	0.29344532
3	0xbcec4e62	-0.02884597
4	0x3e806499	0.2507675
5	0x3dbb2161	0.09137226
6	0xbca002b1	-0.019532533
7	0x3dcc4ac9	0.09975202
8	0x3d833aa8	0.06407672
9	0x3e8bd4cc	0.2731079

rb1.shortcut.bn.running_mean f4 [10]
0	0xbd5b1315	-0.053484995
1	0x3db47cf0	0.088128924
2	0xb9e995f8	-0.0004455296
3	0x3ce861d5	0.028366962
4	0xbd7ffbe4	-0.06249608
5	0xbda3e446	-0.08002524
6	0x3d8f8924	0.070085794
7	0x3c476ed6	0.012172421
8	0x3d3a2ce4	0.045452967
9	0x3da20a7a	0.079121545

rb1.shortcut.bn.running_var f4 [10]
0	0x3e204eb0	0.15655017
1	0x3ec59fac	0.38598382
2	0x3bd5ed43	0.006528528
3	0x3e8387fc	0.25689685
4	0x3d08bd71	0.03338379
5	0x3e7dce9d	0.24785848
6	0x3e85e8f9	0.26154307
7	0x3e0c0ec5	0.13677509
8	0x3e4a04d5	0.19728406
9	0x3e2bab1f	0.16764496

rb2.conv1.weight f4 [20, 10, 3, 3]
0	0x3d9e7aad	0.07738242
1	0x3e05e5c2	0.13075927
2	0x3d94b5bc	0.072612256
3	0x3e2650b6	0.16241726
4	0x3e688087	0.2270528
5	0x3e02fea2	0.12792447
6	0x3d45a1f4	0.048250154
7	0x3dd8f02c	0.10592684
8	0x3e006eb9	0.12542237
9	0x3e188c70	0.14897323
10	0xbdea6dad	-0.114467
11	0xbe01727b	-0.12641327
12	0xbe05399b	-0.13010256
13	0xbda5007c	-0.08056733
14	0xbd2b70c5	-0.041855592
15	0x3e24ad00	0.1608162
16	0xbe228b0c	-0.15873355
17	0xbdd90ce7	-0.10598164
18	0xbdd3c1a1	-0.10339666
19	0xbea29379	-0.31753138
20	0xbe33f1e5	-0.17572744
21	0xbb9b89dc	-0.0047466587
22	0xbe852306	-0.26003283
23	0xbe1ea605	-0.15493019
24	0x3d287cc8	0.041134626
25	0x3d3cf05a	0.046127655
26	0xbdc615b2	-0.09672107
27	0xbc8d3abb	-0.017239919
28	0xbddf4b9b	-0.109030925
29	0x3dc77cd9	0.0974061
30	0x3da9c75f	0.0828998
31	0x3d8c2901	0.068437584
32	0x3de05fa4	0.10955742
33	0x3d0ab419	0.03386316
34	0x3d597259	0.053087566
35	0x3e568e34	0.20952684
36	0xbb852c5c	-0.004064126
37	0x3e06152e	0.13094017
38	0xbcecadb2	-0.028891418
39	0xbd8b47f2	-0.06800832
40	0x3c18e837	0.009332708
41	0x3da1cad7	0.07900017
42	0x3c76af8c	0.015056502
43	0xbe98774a	-0.2977851
44	0xbe74d122	-0.23907903
45	0x3dc69682	0.09696676
46	0x3d1c754d	0.038197804
47	0x3d941e3d	0.0723233
48	0xbe103189	-0.14081396
49	0xbd8ad28d	-0.067784406
50	0xbd9e6690	-0.07734406
51	0xbd41f265	-0.047350306
52	0xbeefd807	-0.46844503
53	0xbcee91e8	-0.029122308
54	0x3df8bfa9	0.12145931
55	0x3d9553da	0.07291384
56	0x3e1c79fc	0.15280908
57	0x3da0586c	0.07829365
58	0x3d152cbe	0.036419623
59	0x3dda6b6d	0.10665021
60	0x3d625063	0.055252444
61	0xbcce1472	-0.025156233
62	0xbd5d42be	-0.05401873
63	0x3d986d85	0.07442764
64	0xbdbaa585	-0.091136016
65	0x3d6fa003	0.05850221
66	0xbdb5bd40	-0.08873987
67	0xbeb4f7c6	-0.35345286
68	0xbd910341	-0.07080699
69	0x3d94b160	0.07260394
70	0xbe151365	-0.1455818
71	0xbdf5d38f	-0.12003242
72	0xbc542fe7	-0.012950874
73	0x3c3cde26	0.011527574
74	0xbe239187	-0.15973483
75	0xbe327586	-0.17427644
76	0x3d945c04	0.07244113
77	0x3e275025	0.16339166
78	0xbe2c4249	-0.16822161
79	0xbd0b6082	-0.034027584
80	0x3dcb9440	0.09940386
81	0xbe0a4dfe	-0.13506314
82	0x3c8fa630	0.017535299
83	0xbe143386	-0.1447278
84	0xbba4498b	-0.00501365
85	0x3cbf5118	0.023354098
86	0xbcdb8469	-0.026796537
87	0xbdad57fa	-0.08464046
88	0x3d50f0fc	0.05101107
89	0x3e5a4a0a	0.21317306
90	0xbe7e9ecc	-0.24865264
91	0xbe2df6bc	-0.16988653
92	0xbd9c8954	-0.07643381
93	0x3d249a49	0.0401862
94	0xbd5a26d7	-0.053259697
95	0x390642d0	0.00012804125
96	0x3e21a57f	0.15785788
97	0x3e4464a4	0.19179016
98	0x3e5e389c	0.21701282
99	0xbe8fcb41	-0.28084758
100	0xbe15c83c	-0.14627165
101	0xbd36c893	-0.044624876
102	0xbe107dcb	-0.14110486
103	0x3db9834d	0.09058247
104	0xba24f8b4	-0.0006293163
105	0xbd88eb53	-0.066855095
106	0xbcda229c	-0.026627831
107	0xbbfe7e75	-0.0077665397
108	0xbe86f268	-0.26356816
109	0xbec1902d	-0.3780531
110	0xbe742492	-0.23842075
111	0x3dd2b30a	0.10288055
112	0x3ced41f6	0.028962117
113	0xbca789f8	-0.02045153
114	0x3e49518a	0.19660011
115	0x3e83604c	0.25659406
116	0x3e9ec577	0.3101003
117	0xbd86a224	-0.065738946
118	0x3ca87dc2	0.020567778
119	0xbc8d0871	-0.01721594
120	0xbe21198d	-0.15732403
121	0x3d72db31	0.05929107
122	0xbdd40bb0	-0.10353792
123	0xbdbe89eb	-0.093036495
124	0x3a59e273	0.00083116366
125	0xbd9faf0c	-0.077970594
126	0x3e3e68dc	0.18594688
127	0x3e750c2b	0.23930423
128	0x3cfae5d9	0.030627178
129	0x3c52e33a	0.012871558
130	0xbc67f456	-0.014157375
131	0xbe076290	-0.13221192
132	0xbe3b3428	-0.18281615
133	0xbe800e50	-0.2501092
134	0xbe708efb	-0.23492043
135	0xbc1e4099	-0.009658956
136	0xbc77bcc9	-0.0151206935
137	0x3e13af6c	0.14422387
138	0xbd7fe14b	-0.062470715
139	0x3d2a5187	0.041581657
140	0x3d3fc920	0.046822667
141	0x3d4167a0	0.047217965
142	0xbb44f9f3	-0.0030056208
143	0x3dabd7e9	0.08390791
144	0x3dc3e4ca	0.095651224
145	0x3de46c67	0.111534886
146	0x3d52fb0f	0.05150896
147	0xbd7548be	-0.059883825
148	0x3c635a2c	0.013876479
149	0xbdd10023	-0.10205104
150	0xbc813725	-0.015773365
151	0x3cbf9bba	0.023389686
152	0xbd3c6517	-0.045994844
153	0x3e2132f8	0.157421
154	0x3e9133bf	0.28359792
155	0x3e08cbc4	0.1335898
156	0xbc057cd6	-0.008147439
157	0x3d97ed94	0.07418361
158	0x3dd89d51	0.10576881
159	0xbe0b17ed	-0.13583346
160	0x3ca0b247	0.01961626
161	0xbd618065	-0.055054087
162	0xbde1ac64	-0.11019209
163	0x3d960c5e	0.073265776
164	0xbd98abb2	-0.07454623
165	0xbdf5cd5f	-0.12002062
166	0x3da4ff1b	0.0805647
167	0xbe365a83	-0.17807965
168	0x3cd83eb3	0.026397085
169	0x3d26c10c	0.040711448
170	0xbd5525fc	-0.052038178
171	0xbd6617cb	-0.056175034
172	0x3c9e9bdb	0.019361427
173	0x3c6972ce	0.014248563
174	0x3c8e8278	0.017396197
175	0x3e0f6ec4	0.14007097
176	0x3d728b1c	0.059214696
177	0xbc01c077	-0.007919422
178	0x3daf3b82	0.08556272
179	0xbd683cd0	-0.05669862
180	0xbd138f48	-0.036025316
181	0x3d970c6b	0.073754154
182	0xbdd1cf7c	-0.10244653
183	0xbcb69f9c	-0.022292905
184	0x3d36db1e	0.04464256
185	0xbd0b74e0	-0.034047008
186	0xbcbf6158	-0.023361847
187	0xbd654fc1	-0.055984262
188	0x3d806cb4	0.062707335
189	0xbc95d521	-0.018290104
190	0x3cb20181	0.021729233
191	0x3e3daad3	0.18522196
192	0xbe19bac8	-0.15012658
193	0x3d8f8a1f	0.070087664
194	0x3de4608a	0.11151226
195	0xbdb06853	-0.08613648
196	0xbe85583a	-0.26043874
197	0xbe45ff0a	-0.19335571
198	0x3dd0f5f8	0.10203165
199	0xbe4134c9	-0.18867792
200	0x3d604947	0.054757383
201	0x3e3f9438	0.18708885
202	0xbcd7462e	-0.026278581
203	0xbca0869f	-0.019595442
204	0x3d4c1fbc	0.04983495
205	0x3d2c6186	0.042085193
206	0x3d7d8458	0.06189379
207	0x3e7f4cdd	0.24931665
208	0x3e6b322a	0.22968355
209	0x3e08117a	0.13287917
210	0xbcf5073e	-0.02991068
211	0x3e42898e	0.18997785
212	0x3d3ff06d	0.046860147
213	0xbdbc4540	-0.09192896
214	0x3ddc47af	0.1075586
215	0x3d194cae	0.037426643
216	0xbe1b2255	-0.15149815
217	0x3c474163	0.0121615855
218	0xbd7df3f0	-0.062000215
219	0xbd9201a9	-0.07129223
220	0xbd873494	-0.06601825
221	0x3a756157	0.0009360513
222	0x3dcf3463	0.10117414
223	0xbd2bb9fc	-0.041925415
224	0xbbafc5f6	-0.005364175
225	0x3dfd8df6	0.123805925
226	0x3d552dd4	0.05204566
227	0xbda44fad	-0.080230094
228	0xbeab6ee5	-0.33483043
229	0x3d3387b0	0.043830574
230	0x3d3beda7	0.04588094
231	0xbe843e46	-0.2582876
232	0x3cebbbc9	0.028776066
233	0x3dae2965	0.08503989
234	0x3e6c0ab9	0.23050965
235	0x3e442c03	0.19157414
236	0x3d243af4	0.040095285
237	0xbde62c95	-0.11238972
238	0xbd9d7097	-0.076874904
239	0xbdf9c452	-0.12195648
240	0xbf170664	-0.58994126
241	0xbee43d06	-0.44577807
242	0xbe11660a	-0.14199081
243	0xbd424d51	-0.047437016
244	0xbc0612dc	-0.008183207
245	0x3d75c958	0.06000647
246	0xbdd57603	-0.104228996
247	0x3d6adc91	0.057339255
248	0x3daa93de	0.08328985
249	0xbd7272a7	-0.059191372
250	0xbd9e654c	-0.077341646
251	0xbdc95d3b	-0.098322354
252	0xbdacf21f	-0.084446184
253	0xbd949312	-0.07254614
254	0xbc5dbafd	-0.013533351
255	0xbe274dea	-0.16338316

rb2.conv1.bias f4 [20]
0	0xb88a52c1	-6.595767e-05
1	0x37cd463f	2.4470615e-05
2	0xb8ce74b2	-9.844582e-05
3	0xb7ae5ed8	-2.0786581e-05
4	0xb7058029	-7.957257e-06
5	0x37ea1703	2.790569e-05
6	0x381c44b7	3.7257294e-05
7	0xb7ad45ee	-2.065577e-05
8	0x37ae7759	2.0797992e-05
9	0xb8adaef7	-8.2818726e-05
10	0x38a1cbea	7.71506e-05
11	0x36ff5ee3	7.6106385e-06
12	0x37a1fc8a	1.9310293e-05
13	0xb61e1dc0	-2.3561151e-06
14	0xb559d1d0	-8.1144117e-07
15	0x3782127c	1.5505815e-05
16	0x373bd4ec	1.1195643e-05
17	0x36f2e03c	7.2382663e-06
18	0x351cf800	5.8475416e-07
19	0x376dced8	1.417446e-05

rb2.bn1.weight f4 [20]
0	0x3f541d44	0.82857156
1	0x3f5f012b	0.8711116
2	0x3f64431d	0.89164907
3	0x3f87cbfc	1.0609126
4	0x3f88821c	1.0664706
5	0x3f3cb233	0.7370941
6	0x3f7479ec	0.9549854
7	0x3f59af45	0.85033065
8	0x3f2edeed	0.6830891
9	0x3f5b9342	0.8577157
10	0x3f47fe48	0.7812238
11	0x3f815b59	1.0106002
12	0x3f81e17c	1.0146937
13	0x3f757559	0.95882183
14	0x3f6b66b3	0.9195358
15	0x3f8a5d54	1.0809731
16	0x3f66e73c	0.90196586
17	0x3f6299c5	0.88515884
18	0x3f75e761	0.9605618
19	0x3f732ef5	0.94993526

rb2.bn1.bias f4 [20]
0	0x3cd456f0	0.025920361
1	0xbe201932	-0.15634611
2	0x3df1ece2	0.1181276
3	0xbb024951	-0.0019880126
4	0xbe8b5e61	-0.27220443
5	0xbd8dc4cb	-0.06922301
6	0x3d0adc6a	0.03390161
7	0x3e26192b	0.16220538
8	0xbb989af3	-0.0046571433
9	0x3dbaa338	0.09113163
10	0x3d1e9dd0	0.03872472
11	0x3d85b0df	0.06527876
12	0xbdb23643	-0.08701756
13	0x3ce68f9c	0.02814465
14	0xbdd91d04	-0.106012374
15	0xbda04cf4	-0.07827178
16	0x3e10d0c1	0.14142133
17	0x3acd6c24	0.0015672487
18	0x3e0033c2	0.12519744
19	0xbdbad3e7	-0.091224484

rb2.bn1.running_mean f4 [20]
0	0xbfa93766	-1.3220031
1	0xbe28e5b7	-0.1649388
2	0xbfd4cbb3	-1.6624664
3	0xc0344c4e	-2.8171573
4	0xbf8f764a	-1.1207974
5	0x3cc7e6ba	0.024402011
6	0xbfa3748a	-1.276994
7	0xbfb6c755	-1.4279581
8	0x3fa4b5c7	1.2867974
9	0xbdaf950d	-0.08573351
10	0xbea14c13	-0.31503353
11	0xbf6d7be3	-0.9276716
12	0xc01eb46e	-2.4797626
13	0xbf27bba9	-0.6552072
14	0xbf39eed7	-0.72630066
15	0xbfdd8c2d	-1.7308403
16	0xc0037cc5	-2.0544903
17	0xbef4097a	-0.4766348
18	0xbfe4fd57	-1.7889813
19	0xbe2cc522	-0.16872075

rb2.bn1.running_var f4 [20]
0	0x3fd4de64	1.6630368
1	0x3fba85f1	1.4572126
2	0x3ffae7ee	1.9602029
3	0x403927af	2.893047
4	0x40158e92	2.3368268
5	0x3fbdaef0	1.4819012
6	0x40148945	2.3208783
7	0x401c4443	2.4416664
8	0x3fa7edfc	1.3119502
9	0x3f99f913	1.2029136
10	0x3fc1b613	1.513369
11	0x400ed4b4	2.2317324
12	0x402282ff	2.5392454
13	0x40015f70	2.02145
14	0x3fbafe91	1.4608938
15	0x40249c9c	2.5720587
16	0x40190dc3	2.391465
17	0x3fed31a5	1.8530775
18	0x3fec67ec	1.8469214
19	0x4009164b	2.1419857

rb2.conv2.weight f4 [20, 20, 3, 3]
0	0xbc4ddb02	-0.012564423
1	0x3dcb064f	0.09913313
2	0xbd6b9871	-0.057518426
3	0x3c5bd87d	0.013418314
4	0x3ca74f25	0.020423481
5	0xbdf40142	-0.119143024
6	0xbd095d41	-0.0335362
7	0xbe0e9f74	-0.13928014
8	0xbd85ec21	-0.06539179
9	0xbe57fb8a	-0.21092048
10	0x3e1c4cfa	0.15263739
11	0x3e0b9a64	0.13633114
12	0x3c893570	0.016749114
13	0x3e383c63	0.17991786
14	0x3df95c50	0.1217581
15	0x3d6f5950	0.058434784
16	0x3d86dbe4	0.065849096
17	0x3e1640db	0.14673178
18	0x3c80e92e	0.015736189
19	0xbd52d19d	-0.051469434
20	0x3d2d043c	0.042240366
21	0x3e1b2bc0	0.15153408
22	0x3d4c4790	0.049872935
23	0xbba16519	-0.004925382
24	0xb9e30eed	-0.00043307935
25	0xbbdff27d	-0.006834327
26	0xbdeeaf46	-0.116545245
27	0xbe3ccd22	-0.18437627
28	0xbcdaec3c	-0.026723973
29	0xbe110053	-0.1416028
30	0xbdd00e96	-0.10159032
31	0x3dcac87d	0.09901521
32	0xbe80ad62	-0.2513228
33	0xbe94ce65	-0.29063717
34	0xbd55953d	-0.052144278
35	0xbd248799	-0.04016838
36	0xbe0284e9	-0.12746014
37	0xbd917bdf	-0.07103705
38	0xbdcc2e65	-0.099697866
39	0x3c6a60b4	0.014305282
40	0x3c6426ca	0.013925264
41	0xbd024dad	-0.03181236
42	0x3dac0703	0.08399775
43	0x3e1fde93	0.15612249
44	0x3d5239cb	0.051324647
45	0xbe180a16	-0.14847597
46	0xbc8c8f1c	-0.017158084
47	0xbda2e7de	-0.079543814
48	0xbe2eb322	-0.17060521
49	0x3e1dc259	0.15406169
50	0x3cf96bf6	0.030446988
51	0x3d9505c8	0.07276493
52	0xbc9879d0	-0.018612772
53	0x3cde8be4	0.027166314
54	0xbca95b33	-0.02067337
55	0xbc515e33	-0.0127788065
56	0xbdcccb6c	-0.09999737
57	0x3dc17331	0.09445799
58	0xbb8867c9	-0.004162763
59	0xbdb1ef0a	-0.08688171
60	0xbe03aa5c	-0.12857956
61	0xbe2806fe	-0.16408917
62	0x3d0e27b6	0.03470584
63	0xbe413be8	-0.18870509
64	0xbd91c1c9	-0.0711704
65	0xbe0b492c	-0.13602132
66	0xbd1ee40f	-0.038791712
67	0xbe0da8af	-0.13833879
68	0xbe214f2a	-0.15752855
69	0xbddc9aa1	-0.107716806
70	0xbe58602c	-0.21130437
71	0x3d911382	0.07083799
72	0x3e3048e7	0.1721531
73	0xbe851bd4	-0.25997794
74	0xbe6a4b37	-0.22880255
75	0x3e7de9c1	0.24796201
76	0x3d44614e	0.04794436
77	0xbde23aeb	-0.11046394
78	0xbda94e39	-0.08266873
79	0x3cfe04bf	0.031008122
80	0x3df0bfe4	0.1175535
81	0x3d519187	0.051164176
82	0xbe5b10fb	-0.21393196
83	0xbe5edf8d	-0.21764965
84	0x3da8fd56	0.08251445
85	0xbdd475ed	-0.10374055
86	0x3e0ba341	0.13636495
87	0xbd433eeb	-0.047667425
88	0x3d8b1741	0.06791545
89	0x3e8ec1ac	0.27882135
90	0x3c7407d2	0.014894443
91	0x3c863c7f	0.016386269
92	0xbdba397c	-0.090929955
93	0x3e37e72f	0.17959283
94	0x3d9d99b2	0.07695331
95	0xbd8fd033	-0.07022133
96	0x3d96ebd1	0.07369197
97	0xbe19d51d	-0.15022703
98	0xbe89b549	-0.26896122
99	0x3c0145c1	0.007890166
100	0x3d719203	0.05897714
101	0x3e14b0a9	0.14520516
102	0x3c54b3c8	0.012982316
103	0xbd5be8bb	-0.053688746
104	0x3dfadc88	0.12249094
105	0xbda7fff6	-0.082031175
106	0xbdd795c5	-0.10526613
107	0xbda8f285	-0.08249382
108	0xbce2cc23	-0.02768523
109	0x3d7b9b79	0.061427567
110	0xbcd892bc	-0.026437156
111	0xbe10155d	-0.1407065
112	0xbe127894	-0.1430381
113	0xbddced34	-0.107874304
114	0xbea10dd7	-0.3145587
115	0xbe38b3e7	-0.18037377
116	0xbe3d270f	-0.18471931
117	0x3c448c89	0.011996397
118	0x3d21694b	0.039407056
119	0xbc23bb8d	-0.009993446
120	0x3ded231c	0.11578962
121	0xbd14ba44	-0.03631045
122	0x3d8e77c4	0.06956437
123	0x3de396a6	0.11112718
124	0xbc10c5ea	-0.008836249
125	0xbbd7fcfe	-0.0065914383
126	0x3e365747	0.17806731
127	0x3c7ae75c	0.015313949
128	0x3e273de3	0.16332202
129	0xbb00fdae	-0.0019682455
130	0xbdc7a8e9	-0.09749014
131	0x3e005ff0	0.12536597
132	0x3d3b84b6	0.04578086
133	0x3dfcee22	0.12350108
134	0x3e4b2ebb	0.19842045
135	0x3d8383f1	0.0642165
136	0x3d8318ae	0.06401192
137	0x3e00e68f	0.12587951
138	0x3b83c594	0.004021356
139	0x3dca88f2	0.098894015
140	0x3db4b8d9	0.088243194
141	0x3cc4520d	0.023964906
142	0xbcf0e8a9	-0.029407816
143	0xbe55d481	-0.20881845
144	0x3d8dc799	0.06922836
145	0xbad3366e	-0.0016114244
146	0x3d1877b1	0.03722352
147	0x3d76475a	0.06012664
148	0x3de15bea	0.11003859
149	0x3d243953	0.04009373
150	0xbdd0ff87	-0.10204988
151	0xbd36e139	-0.044648383
152	0x3d33a50d	0.043858577
153	0x3d89be03	0.06725695
154	0xbdd19a3b	-0.10234495
155	0x3c39ea8a	0.011347422
156	0x3c13fd49	0.009032556
157	0xbe26a7b4	-0.16274911
158	0x3d287a18	0.041132063
159	0x394cf5ba	0.00019546496
160	0xbcda27ec	-0.026630364
161	0xbd6fe828	-0.05857101
162	0xbe0801dd	-0.13281961
163	0xbb87e6f2	-0.004147404
164	0xbc86092f	-0.016361801
165	0xbdf4b3cd	-0.11948357
166	0x3df0e980	0.117632866
167	0x3d7769f8	0.060403794
168	0xbe7f50e0	-0.24933195
169	0xbd3933ad	-0.045215297
170	0xbdf20084	-0.118165046
171	0x3e755e84	0.23961836
172	0x3d61694e	0.055032067
173	0x3ddcf1de	0.1078832
174	0x3d7c3cc0	0.061581373
175	0x3db10507	0.08643537
176	0x3e236c41	0.15959264
177	0x3e17bf83	0.1481915
178	0x3e4145b6	0.18874249
179	0x3d33dfd5	0.043914635
180	0x3e0b61a1	0.13611461
181	0x3e0aa8da	0.13540974
182	0xbe3efecf	-0.1865189
183	0xbe5dd926	-0.21664867
184	0x3d9111d2	0.07083477
185	0xbde28d36	-0.1106209
186	0x3b1293bc	0.0022365889
187	0xbd872f27	-0.066007905
188	0xbe000f90	-0.12505937
189	0xbd8b940f	-0.06815349
190	0xbe6e20d0	-0.23254704
191	0xbd638f74	-0.05555673
192	0x3e1059ce	0.14096758
193	0xbce6dabe	-0.028180476
194	0x3d8d71cf	0.06906473
195	0x3d9ecb88	0.07753664
196	0x3d7f6910	0.062356055
197	0x3b36c38d	0.0027887553
198	0xbdc42fca	-0.095794275
199	0xbdb445c9	-0.08802373
200	0xbd872a75	-0.06599895
201	0xbe5dfe47	-0.2167903
202	0xbdaa3af5	-0.083120264
203	0xbd341911	-0.043969218
204	0xbd0780d0	-0.03308183
205	0x3d15286d	0.036415506
206	0x3d32be3c	0.043638453
207	0xbe12031f	-0.14259003
208	0x3c11c3f8	0.00889682
209	0xbc772f39	-0.015086942
210	0xbe18bf95	-0.14916833
211	0x3d9f862a	0.07789262
212	0xbdfddadb	-0.12395259
213	0xbe6bb4d1	-0.23018195
214	0xbe2558fb	-0.16147225
215	0xbe25da33	-0.16196518
216	0xbe464629	-0.19362701
217	0xbe08c9df	-0.13358258
218	0xbdf57c00	-0.11986542
219	0xbd8b697e	-0.068072304
220	0x3bf192a8	0.007372219
221	0xbe2ecf38	-0.17071235
222	0x3dc53c33	0.09630623
223	0xbd97295f	-0.07380938
224	0xbe0307ed	-0.12795992
225	0xbd814725	-0.06312398
226	0xbd96b6bd	-0.07359073
227	0x3e210d9c	0.15727848
228	0xbe6de50c	-0.23231906
229	0xbe5e73f5	-0.21723922
230	0x3d826ee5	0.06368808
231	0x3d018a0c	0.031625792
232	0xbcb307c6	-0.021854293
233	0x3db020eb	0.086000286
234	0xbcf8363b	-0.030299297
235	0xbd10422b	-0.035219353
236	0x3e1c03f7	0.15235887
237	0xbd365f13	-0.044524264
238	0x3c542930	0.012949273
239	0x3d2367c8	0.039893895
240	0xbb67f2e6	-0.0035392581
241	0x3df86b93	0.12129893
242	0xbc8eb092	-0.01741818
243	0x3d1bea56	0.038065277
244	0x3c89cbe4	0.016820855
245	0xbe60312d	-0.21893759
246	0x3d863be9	0.06554396
247	0x3de11e29	0.10992081
248	0xbda4f089	-0.08053691
249	0xbcf79ea7	-0.030227019
250	0xbd7e45c2	-0.062078245
251	0xbdfb5769	-0.122725315
252	0xbe061a5f	-0.13095997
253	0xbd7bc954	-0.0614713
254	0xbdaeb997	-0.08531492
255	0x3dd85e7e	0.10564898

rb2.conv2.bias f4 [20]
0	0xb797b39d	-1.8084242e-05
1	0x37a01509	1.9083282e-05
2	0xb83d49f0	-4.512997e-05
3	0xb7da3bee	-2.6015532e-05
4	0xb68aa83c	-4.1323055e-06
5	0x377496f3	1.4578679e-05
6	0xb8ba6b1a	-8.88912e-05
7	0xb7bf3d97	-2.2797654e-05
8	0x37a2c8fe	1.94055e-05
9	0xb81f4fad	-3.7982758e-05
10	0xb753867a	-1.260789e-05
11	0xb728fedd	-1.007292e-05
12	0x3877ae36	5.9051636e-05
13	0xb71a4b97	-9.196715e-06
14	0x379d2de5	1.873723e-05
15	0x3759b0e8	1.2975397e-05
16	0x38019565	3.089513e-05
17	0xb7215559	-9.616219e-06
18	0xb8a44ac5	-7.834056e-05
19	0xb720d9eb	-9.587481e-06

rb2.bn2.weight f4 [20]
0	0x3f59c782	0.8507005
1	0x3f6c3118	0.9226241
2	0x3f98cfef	1.1938456
3	0x3f8eedc2	1.1166308
4	0x3f992d99	1.196704
5	0x3f8add64	1.0848813
6	0x3f9fd9c0	1.2488327
7	0x3f9c4e86	1.2211463
8	0x3f9ebd10	1.2401447
9	0x3f940432	1.156378
10	0x3f94f778	1.1638021
11	0x3f802439	1.0011054
12	0x3f953338	1.1656256
13	0x3f812db5	1.0092074
14	0x3f8d291b	1.1028169
15	0x3fa341d6	1.2754467
16	0x3fab2ad6	1.3372447
17	0x3fa5981f	1.2937049
18	0x3f8de631	1.1085874
19	0x3f5eda0f	0.8705148

rb2.bn2.bias f4 [20]
0	0x3e4a84e5	0.19777258
1	0x3d49f057	0.04930147
2	0xbe3e94c9	-0.18611445
3	0x3aebb1a1	0.0017982015
4	0xbd9a38ab	-0.0753034
5	0xbe2ee770	-0.17080474
6	0x3dbc72f0	0.0920161
7	0xbe77a6fa	-0.2418479
8	0x3e6261a5	0.22107561
9	0xbe2598cd	-0.1617157
10	0x3d6a5d74	0.05721803
11	0xbe059b24	-0.13047463
12	0xbc462e17	-0.01209595
13	0x3d6164c6	0.055027746
14	0xbc825913	-0.015911615
15	0x3e3258a2	0.17416623
16	0xbce45ab9	-0.027875291
17	0xbdf33149	-0.11874635
18	0x3dbd5d76	0.09246342
19	0xbe8bcc8d	-0.27304497

rb2.bn2.running_mean f4 [20]
0	0xbf326e3e	-0.69699466
1	0xc0080d92	-2.1258283
2	0xbf8b91a4	-1.0903821
3	0xbf91d1b7	-1.1392125
4	0xbf4c40c7	-0.7978634
5	0x3daef71e	0.085432276
6	0xbf995c62	-1.1981318
7	0x3eec4933	0.46149597
8	0xc0380c7f	-2.8757627
9	0xbddf5c85	-0.109063186
10	0xbf7748da	-0.9659554
11	0x3d053168	0.03251782
12	0xbfe9e32d	-1.8272454
13	0xbf06085a	-0.52356493
14	0x3e7291f2	0.23688486
15	0xbfb69970	-1.4265575
16	0xc0343746	-2.8158736
17	0xbe37c912	-0.17947796
18	0xc019f8f7	-2.4058206
19	0x3e70de89	0.2352239

rb2.bn2.running_var f4 [20]
0	0x3f74a100	0.95558167
1	0x3f8177da	1.0114701
2	0x3f322009	0.6958013
3	0x3f99a17d	1.2002407
4	0x3f240649	0.6407209
5	0x3f8cb5c8	1.0992975
6	0x3f97d182	1.1860812
7	0x3f2b839c	0.66997695
8	0x3fa15593	1.260424
9	0x3f597806	0.84948766
10	0x3f51c0b0	0.8193464
11	0x3f3e1db7	0.7426409
12	0x3f2d7f8f	0.67772764
13	0x3f84e9ea	1.0383885
14	0x3faa48fe	1.3303525
15	0x3f761494	0.9612515
16	0x3f773817	0.9656996
17	0x3f7a87f3	0.9786369
18	0x3f863184	1.0483861
19	0x3f2cbff1	0.6748038

rb2.shortcut.conv.weight f4 [20, 10, 1, 1]
0	0xbcc29edf	-0.023757396
1	0xbd9b7f62	-0.07592656
2	0xbec528b9	-0.3850763
3	0xbdbaec80	-0.0912714
4	0x3f0355b4	0.5130265
5	0xbc737fe8	-0.014862038
6	0x3b4aa740	0.0030922443
7	0xbc818e3c	-0.015814893
8	0xbc716d72	-0.014735566
9	0xbe783a17	-0.2424091
10	0xbd80da20	-0.06291604
11	0x3df859e3	0.121265195
12	0xbf1bd218	-0.6086745
13	0x3d95746f	0.072975986
14	0xbe2b163b	-0.16707699
15	0xbe52a273	-0.20569782
16	0xbcd19373	-0.025583005
17	0xbc42f6bf	-0.011899649
18	0x3c3fbea5	0.011703168
19	0x3c267598	0.0101598725
20	0xbdd1dedf	-0.102475874
21	0xbdf306a8	-0.11866504
22	0xbd305ebe	-0.043059103
23	0xbcb4cd99	-0.022070693
24	0x3d58f0ee	0.052964143
25	0x3ec2c517	0.38040993
26	0x3e2118bf	0.15732096
27	0x3df56047	0.11981254
28	0xbe147612	-0.14498165
29	0xbebe7728	-0.37200284
30	0xbd89300d	-0.06698618
31	0xbbea74c5	-0.0071550333
32	0x3eaa3f42	0.33251387
33	0x3e059dbb	0.1304845
34	0x3e43a12b	0.1910445
35	0xbe10ed50	-0.14153028
36	0x3e826d11	0.25473836
37	0x3e5557a3	0.20834212
38	0x3edb067b	0.42778382
39	0xbe0a43d2	-0.13502434
40	0xbdfbca9d	-0.12294505
41	0x3d30066f	0.042974886
42	0x3d67778d	0.056510497
43	0x3edf096d	0.4356188
44	0x3d8be6b9	0.06831116
45	0xbd96408f	-0.07336532
46	0xbce6d4ed	-0.028177703
47	0xbda69a47	-0.08134895
48	0x3eb69874	0.35663188
49	0xbdd39ca7	-0.103326134
50	0x3e8cd4b3	0.27506027
51	0x3e3b0474	0.18263417
52	0xbde56d15	-0.11202446
53	0xbebe43de	-0.37161154
54	0xbd8aaa26	-0.067707345
55	0xbd90033e	-0.070318684
56	0x3e493ca3	0.19652037
57	0xbe0e6942	-0.1390734
58	0xbe0e6962	-0.13907388
59	0xbed0ca5b	-0.40779385
60	0xbde32fef	-0.11093127
61	0x3e20de5a	0.1570982
62	0x3c83c60e	0.01608565
63	0xbea6e426	-0.32595938
64	0x3ce18e35	0.02753363
65	0xbec2642b	-0.37967047
66	0xbe870c8b	-0.26376757
67	0x3d91225d	0.070866324
68	0x3e84a70c	0.25908697
69	0xbd8f28ca	-0.06990202
70	0x3e37979e	0.17928931
71	0x3e452095	0.1925071
72	0x3b8e24a7	0.0043378654
73	0xbd49b983	-0.049249183
74	0xbe2322c6	-0.15931234
75	0xbd55842c	-0.052128002
76	0xbe9665ba	-0.29374486
77	0x3d482cbf	0.0488708
78	0xbf19749b	-0.5994355
79	0xbe43988e	-0.19101164
80	0xbdb848a9	-0.08998234
81	0x3e09ecc0	0.13469219
82	0xbdafc3c7	-0.085822634
83	0xbd83d428	-0.0643695
84	0xbf3510b8	-0.70728636
85	0xbdae19a4	-0.08500984
86	0xba274f06	-0.000638232
87	0x3e8b8626	0.27250785
88	0xbdc6024e	-0.09668408
89	0x3ad9c95c	0.0016615796
90	0xbe880ed6	-0.2657382
91	0x3eba2ef0	0.36363935
92	0xbe1fa765	-0.155912
93	0xbe441d34	-0.19151765
94	0x3e41f587	0.18941317
95	0xbdffcf70	-0.124907374
96	0xbc6845a8	-0.014176764
97	0x3e04a35c	0.12952942
98	0x3a88316d	0.0010390707
99	0xbec9cbb0	-0.39413214
100	0xbcb8f094	-0.022575654
101	0x3d6206dd	0.055182327
102	0xbed8c6e9	-0.42339256
103	0x3e87649f	0.26443955
104	0xbe9fff10	-0.31249285
105	0xbe075628	-0.1321646
106	0x3e895335	0.26821294
107	0x3d6ed971	0.058312837
108	0x3e04104c	0.12896842
109	0x3d6194b3	0.05507345
110	0x3b28eed2	0.0025777114
111	0xbca42760	-0.020038307
112	0xbea5dbc1	-0.3239422
113	0x3e819f19	0.25316694
114	0x3e89572e	0.26824325
115	0x3e73f335	0.23823245
116	0xbdafe1d0	-0.08587992
117	0xbd99a110	-0.07501423
118	0x3e1167e8	0.14199793
119	0xbe48fc1c	-0.19627422
120	0xbdc92f53	-0.098234795
121	0xbeb59bfa	-0.35470563
122	0x3e6655cc	0.22493666
123	0x3ea9d793	0.33172283
124	0xbdc726c7	-0.09724193
125	0xbc1dd135	-0.009632398
126	0x3d75fcec	0.06005566
127	0xbde6b306	-0.11264615
128	0xbec3ec8c	-0.38266408
129	0x3ddc8825	0.10768155
130	0xbd5e51ea	-0.054277338
131	0xbe3ddc03	-0.18540959
132	0xbde4cbaf	-0.11171662
133	0xbdc05773	-0.093916796
134	0x3d4356ed	0.04769032
135	0x3e020ce2	0.12700227
136	0x3dd103c8	0.10205799
137	0x3d96f5d3	0.07371106
138	0xbf25e013	-0.64795035
139	0xbe1c278e	-0.15249464
140	0x3d0669e5	0.032815833
141	0xbe852f95	-0.26012865
142	0xbc096753	-0.008386451
143	0xbe42876d	-0.18996973
144	0xbc7a4f44	-0.015277687
145	0xbebcec3d	-0.36898986
146	0xbecc7ff0	-0.3994136
147	0xbdba158b	-0.0908614
148	0xbdb4813f	-0.08813714
149	0x3e44cfbc	0.1921987
150	0x3ebb9a92	0.36641365
151	0xbeb0a745	-0.34502617
152	0x3e734c4b	0.23759572
153	0x3df04cfa	0.11733432
154	0xbe13311e	-0.14374205
155	0x3e0fde81	0.14049722
156	0x3e159160	0.14606237
157	0xbdfd7bd1	-0.12377132
158	0xbe99a3b3	-0.30007705
159	0xbd0b67db	-0.03403459
160	0x3e26c15b	0.16284697
161	0x3e9f71d5	0.31141534
162	0xbe08e87c	-0.13369936
163	0x3dab5b53	0.08367028
164	0x3babfb53	0.005248466
165	0x3e8e32c8	0.27773118
166	0x3e50dfa1	0.20397808
167	0x3de6bff9	0.11267085
168	0x3dcbc6fa	0.09950061
169	0xb9142deb	-0.00014131486
170	0x3d7a5c4f	0.06112319
171	0x3da0b60f	0.07847225
172	0xbe8dcab8	-0.27693725
173	0x3e012376	0.12611184
174	0x3d4fafc1	0.05070472
175	0x3e80b557	0.2513835
176	0x3e826f4b	0.25475535
177	0x3ed2c257	0.41163895
178	0x3e1b7ad8	0.1518358
179	0xbdfd2471	-0.12360466
180	0x3d0065c9	0.03134707
181	0x3dcc7a89	0.09984309
182	0xbcf63654	-0.030055203
183	0xbe87312c	-0.26404703
184	0xbc5d65d6	-0.013513049
185	0x3d4dcd13	0.050244402
186	0xbab4a114	-0.0013780915
187	0xbe9e82f5	-0.30959287
188	0xbef3cbb4	-0.4761635
189	0xbd3af616	-0.045644842
190	0xbe7c1f58	-0.24621332
191	0xbe0b3ae0	-0.13596678
192	0x3ec2dd91	0.38059667
193	0xbbfa39ce	-0.0076362854
194	0x3e274157	0.16333519
195	0xbd901d74	-0.07036868
196	0x3d9896d5	0.07450644
197	0xbde29757	-0.11064022
198	0xbe649e61	-0.22326042
199	0x3dc892f5	0.09793655

rb2.shortcut.conv.bias f4 [20]
0	0x35bbccb6	1.3992164e-06
1	0x349d3566	2.928238e-07
2	0xb7b747c8	-2.1848726e-05
3	0xb75d7718	-1.3200355e-05
4	0x36626244	3.3733822e-06
5	0xb6b80b6e	-5.484958e-06
6	0xb82aa70c	-4.0686733e-05
7	0x37a4abcf	1.9630328e-05
8	0x38b6ad5c	8.710727e-05
9	0xb7ea5617	-2.7935062e-05
10	0xb716eb3b	-8.995466e-06
11	0xb748f9bf	-1.19790775e-05
12	0x35f98b10	1.8592418e-06
13	0x372e0621	1.0372635e-05
14	0x38589d27	5.1644773e-05
15	0x38928c5d	6.987967e-05
16	0x385a2131	5.2006162e-05
17	0xb86564ce	-5.4691736e-05
18	0x36a050b9	4.777769e-06
19	0xb6b92922	-5.518218e-06

rb2.shortcut.bn.weight f4 [20]
0	0x3f74398e	0.9540032
1	0x3f335889	0.7005697
2	0x3f6ad729	0.9173456
3	0x3f09eb3e	0.53874576
4	0x3f2fcc75	0.6867135
5	0x3f31fe1f	0.69528383
6	0x3f0d90f9	0.55299336
7	0x3f4639a7	0.7743172
8	0x3f4eb8f4	0.80750966
9	0x3f598be6	0.84979093
10	0x3f11e388	0.5698781
11	0x3f2fa418	0.6860976
12	0x3efa0130	0.4882903
13	0x3f5ea7fc	0.86975074
14	0x3f8aeac4	1.0852895
15	0x3ef7c21d	0.48390284
16	0x3f31595a	0.69276965
17	0x3f09536f	0.53642935
18	0x3eb4b7c0	0.3529644
19	0x3f3c7bc6	0.73626363

rb2.shortcut.bn.bias f4 [20]
0	0x3e4a84e5	0.19777258
1	0x3d49f057	0.04930147
2	0xbe3e94c9	-0.18611445
3	0x3aebb1a1	0.0017982015
4	0xbd9a38ab	-0.0753034
5	0xbe2ee770	-0.17080474
6	0x3dbc72f0	0.0920161
7	0xbe77a6fa	-0.2418479
8	0x3e6261a5	0.22107561
9	0xbe2598cd	-0.1617157
10	0x3d6a5d74	0.05721803
11	0xbe059b24	-0.13047463
12	0xbc462e17	-0.01209595
13	0x3d6164c6	0.055027746
14	0xbc825913	-0.015911615
15	0x3e3258a2	0.17416623
16	0xbce45ab9	-0.027875291
17	0xbdf33149	-0.11874635
18	0x3dbd5d76	0.09246342
19	0xbe8bcc8d	-0.27304497

rb2.shortcut.bn.running_mean f4 [20]
0	0xbeab31fe	-0.3343658
1	0xbf5d268b	-0.86386937
2	0xbde7e37e	-0.113226876
3	0x3f81004d	1.0078217
4	0x3ecb512e	0.39710373
5	0xbf3406a1	-0.70322615
6	0xbf0b18d0	-0.54334736
7	0xbf58f0d2	-0.8474246
8	0xbf2f8bd1	-0.6857272
9	0xbf0a3658	-0.5398917
10	0xbe353e49	-0.17699541
11	0x3dbd0a45	0.092304744
12	0xbe2cb86b	-0.16867225
13	0xbf398158	-0.7246299
14	0xbf6312b8	-0.8870044
15	0x3df3c8f6	0.11903565
16	0x3f57c6b6	0.84287584
17	0x3f3f1b81	0.7465134
18	0xbf52af5d	-0.82298833
19	0x3d7e372d	0.06206434

rb2.shortcut.bn.running_var f4 [20]
0	0x3ef5db15	0.4801871
1	0x3ed38072	0.41308933
2	0x3eb2bc6c	0.3490938
3	0x3f03dfa9	0.51513153
4	0x3ed4e0d3	0.41577777
5	0x3ee587b5	0.448301
6	0x3ebd600b	0.36987337
7	0x3f0e3b61	0.55559355
8	0x3ec14442	0.3774739
9	0x3e9271f2	0.28602558
10	0x3ee5b9d2	0.44868332
11	0x3e981cdc	0.29709518
12	0x3e7ff59e	0.2499604
13	0x3f27ee73	0.6559822
14	0x3ef52bd6	0.47885007
15	0x3eb71264	0.35756218
16	0x3ea48e35	0.32139745
17	0x3eda15d8	0.4259479
18	0x3f056fdb	0.521238
19	0x3e302211	0.17200495

res1_sc1.conv.weight f4 [20, 3, 1, 1]
0	0xbf0c7da8	-0.54879236
1	0x3db4660d	0.08808527
2	0x3eaaee9f	0.33385178
3	0xbe7f373f	-0.24923418
4	0x3f0ef1bc	0.5583761
5	0xbe72a595	-0.23695977
6	0x3c415eb6	0.011802366
7	0xbe9a931f	-0.3019037
8	0xbecdbc0b	-0.40182528
9	0x3ec77b17	0.38961098
10	0xbeaead20	-0.3411646
11	0xbeaae2c3	-0.3337613
12	0x3ef468b4	0.47736132
13	0xbe026484	-0.12733656
14	0x3e6722f4	0.22571927
15	0xbf0c2ca9	-0.54755646
16	0xbebeb32a	-0.37246066
17	0x3ea7395f	0.32660958
18	0xbe39f379	-0.18159284
19	0x3ebe42ed	0.37160435
20	0x3f03b797	0.5145201
21	0x3eb98a1c	0.36238182
22	0xbf1063b5	-0.5640214
23	0xbea8e1b9	-0.32984713
24	0x3e2b57b6	0.16732678
25	0x3f0a9d83	0.54146594
26	0xbe337d9c	-0.17528385
27	0x3e8a0929	0.26960114
28	0xbe81d8b2	-0.25360638
29	0xbebdee20	-0.37095737
30	0xbdc699ea	-0.096973255
31	0xbe807378	-0.25088096
32	0xbec7b555	-0.39005533
33	0x3e154f85	0.14581116
34	0xbdb50a5a	-0.08839865
35	0xbed836ee	-0.42229408
36	0xbeb7c092	-0.35889107
37	0xbe4ea025	-0.20178278
38	0xbd54270d	-0.051795054
39	0x3b7762ab	0.003774802
40	0xbe205441	-0.1565714
41	0xbef564ff	-0.47928616
42	0xbe66e7e7	-0.22549401
43	0x3e6ea63a	0.23305598
44	0x3eb93830	0.3617568
45	0x3ec2a2bc	0.3801478
46	0x3e22b9e9	0.15891232
47	0xbe870789	-0.26372936
48	0x3dc33ab3	0.0953268
49	0xbead501b	-0.33850178
50	0x3d5b556c	0.05354826
51	0x3d6c2e45	0.057661314
52	0xbeb2848c	-0.3486675
53	0x3d7517d7	0.05983719
54	0x3e7c8443	0.24659829
55	0x3e9f0935	0.31061712
56	0xbdb57839	-0.08860821
57	0xbf05c184	-0.52248406
58	0x3e15e3e0	0.14637709
59	0x3d94dfa5	0.07269219

res1_sc1.conv.bias f4 [20]
0	0x3882ca4a	6.236562e-05
1	0xb5abf002	-1.2810344e-06
2	0x37418d47	1.153659e-05
3	0x382779b8	3.9929262e-05
4	0x38a5dba6	7.908726e-05
5	0xb7daf458	-2.6101407e-05
6	0xb8fd1df2	-0.00012069558
7	0x38f7f2ad	0.0001182308
8	0x3866f8f6	5.5068136e-05
9	0xb820911a	-3.828211e-05
10	0xb8b1b936	-8.474516e-05
11	0xb8cb1f8f	-9.6856726e-05
12	0x381f801c	3.8027865e-05
13	0x383a62ca	4.443786e-05
14	0x383401eb	4.291713e-05
15	0x38cfc20e	9.906675e-05
16	0xb800537c	-3.059533e-05
17	0xb80d5242	-3.369363e-05
18	0xb7e9ef2e	-2.7887141e-05
19	0x38e55601	0.000109355904

res1_sc1.bn.weight f4 [20]
0	0x3f53a32d	0.8267086
1	0x3f6bbc6b	0.9208438
2	0x3f2e6fe8	0.68139505
3	0x3f134a2b	0.57535046
4	0x3f05fc08	0.52337694
5	0x3f1ec9ca	0.62026656
6	0x3f0d9dd0	0.5531893
7	0x3f1b47ba	0.6065632
8	0x3f1ffd5c	0.6249597
9	0x3f27f5c0	0.6560936
10	0x3f191787	0.59801525
11	0x3f175d89	0.591271
12	0x3ef8f4e6	0.48624343
13	0x3f1b69f9	0.60708576
14	0x3f28abc2	0.6588708
15	0x3ec5fda2	0.3867007
16	0x3f0d8fee	0.55297744
17	0x3efbdb87	0.49190924
18	0x3ede4570	0.43412352
19	0x3f50acd0	0.8151369

res1_sc1.bn.bias f4 [20]
0	0x3e4a84e5	0.19777258
1	0x3d49f057	0.04930147
2	0xbe3e94c9	-0.18611445
3	0x3aebb1a1	0.0017982015
4	0xbd9a38ab	-0.0753034
5	0xbe2ee770	-0.17080474
6	0x3dbc72f0	0.0920161
7	0xbe77a6fa	-0.2418479
8	0x3e6261a5	0.22107561
9	0xbe2598cd	-0.1617157
10	0x3d6a5d74	0.05721803
11	0xbe059b24	-0.13047463
12	0xbc462e17	-0.01209595
13	0x3d6164c6	0.055027746
14	0xbc825913	-0.015911615
15	0x3e3258a2	0.17416623
16	0xbce45ab9	-0.027875291
17	0xbdf33149	-0.11874635
18	0x3dbd5d76	0.09246342
19	0xbe8bcc8d	-0.27304497

res1_sc1.bn.running_mean f4 [20]
0	0xbd1cab71	-0.038249437
1	0x3b2e95f0	0.0026639663
2	0x3d8e9c28	0.06963378
3	0x3d65be6d	0.056089807
4	0xbcfb272e	-0.03065833
5	0xbc2ae3de	-0.010430304
6	0xbdae9455	-0.08524386
7	0x3d8d9e41	0.0691495
8	0xbc440ee3	-0.01196644
9	0x3d6d86fc	0.05799006
10	0x3d8953f5	0.06705467
11	0x3d6a6113	0.057221483
12	0x3cce4f7c	0.025184385
13	0x3d9205f9	0.071300454
14	0xbd66cb0e	-0.05634599
15	0x3c92d699	0.017924594
16	0x3c36309e	0.01111999
17	0x3c3efb4b	0.011656593
18	0xbc39950e	-0.011327041
19	0xbc0621d5	-0.008186777

res1_sc1.bn.running_var f4 [20]
0	0x3cb560d4	0.022140898
1	0x3bb3718c	0.0054761823
2	0x3e0078c9	0.12546076
3	0x3d12e223	0.035860192
4	0x3da89d9e	0.08233188
5	0x3dd1fb10	0.102529645
6	0x3e0f2ae8	0.13981211
7	0x3db38370	0.08765304
8	0x3d990b9a	0.07472916
9	0x3d332fc8	0.04374674
10	0x3e0e10b8	0.13873565
11	0x3d2f70c2	0.042832144
12	0x3dbf0023	0.09326198
13	0x3ddbbfe5	0.1072996
14	0x3d365a17	0.04451951
15	0x3ce261b8	0.027634487
16	0x3c2951a9	0.010334411
17	0x3c6f6da2	0.014613541
18	0x3d673be2	0.056453593
19	0x3cf57f04	0.029967792
