models/dense_max/epoch_0013.pth (torch, 645162 bytes, 174 tensors)

rb1.conv1.weight f4 [10, 3, 3, 3]
0	0xbd9ed6be	-0.077558026
1	0x3da21196	0.079135105
2	0xbda94cf3	-0.0826663
3	0xbe6da608	-0.23207867
4	0x3e86e07d	0.26343146
5	0x3e41b1ae	0.18915436
6	0xbe4679bf	-0.1938238
7	0x3e48f618	0.19625127
8	0xbdefe27e	-0.11713122
9	0xbe2adb4a	-0.16685215
10	0x3c929dd4	0.017897524
11	0xbd2b49e2	-0.041818507
12	0xbea00c85	-0.31259552
13	0x3e8bd796	0.27312917
14	0x3e337c46	0.17527875
15	0xbc58dff5	-0.013236989
16	0x3e8b0022	0.2714854
17	0xbe6b3f92	-0.22973469
18	0xbcbbc930	-0.022923082
19	0x3a6e1282	0.00090817374
20	0xbdb82439	-0.08991284
21	0xbe6c777b	-0.23092453
22	0x3d135a14	0.035974577
23	0x3ca85eb1	0.020552965
24	0x3e09514c	0.13409919
25	0x3d731355	0.05934461
26	0x3e0fa672	0.14028338
27	0x3d43483f	0.04767632
28	0x3cf3e988	0.029774442
29	0x3e2e0d8c	0.16997355
30	0x3d8c14ae	0.06839882
31	0x3e0912f9	0.13386144
32	0xbeadab22	-0.33919626
33	0xbd851b37	-0.064993314
34	0x3d3cfa9c	0.046137437
35	0xbdbf72e5	-0.09348086
36	0xbd47de7a	-0.048796155
37	0xbcc9e5bb	-0.024645677
38	0xbc586388	-0.013207324
39	0xbcff7082	-0.031181578
40	0x3ed46761	0.41485122
41	0xbe684af8	-0.22684848
42	0xbd4502e8	-0.048098475
43	0x3dd49f0e	0.103819
44	0xbe16033d	-0.14649673
45	0xbe1410e2	-0.14459565
46	0xbe2ffe01	-0.17186739
47	0x3de99833	0.11405983
48	0x3ca5cbb0	0.020238727
49	0x3eae1266	0.33998412
50	0xbe8c1626	-0.27360648
51	0xbba6154c	-0.0050684568
52	0x3dd8e941	0.10591365
53	0x3d09e45a	0.03366504
54	0x3cc88cda	0.024481226
55	0x3e85f42b	0.26162848
56	0x3e3dfdc0	0.18553829
57	0xbe0adc2b	-0.1356055
58	0xbd99840e	-0.074958906
59	0x3dd07409	0.10178382
60	0xbd798578	-0.0609183
61	0xbe5cc22d	-0.21558447
62	0x3ca93478	0.020654902
63	0x3e7fff46	0.24999723
64	0x3e6b2ac7	0.22965537
65	0x3e9df62d	0.3085188
66	0x3bc23cfc	0.00592768
67	0xbe348e4c	-0.17632407
68	0xbdf00f2d	-0.117216446
69	0xbde6b4ab	-0.112649284
70	0xbe8969f5	-0.2683865
71	0xbe395011	-0.18096949
72	0x3d93b252	0.07211746
73	0x3e279d51	0.16368605
74	0x3d52528f	0.051348265
75	0x3bb63868	0.0055609234
76	0xbd45ed1a	-0.04832182
77	0xbdcd4c57	-0.10024326
78	0x3dccef71	0.10006607
79	0xbe52dde5	-0.20592459
80	0xbdff351a	-0.124613
81	0xbe4e5d2f	-0.20152734
82	0x3ce1e671	0.027575703
83	0xbe34aa39	-0.1764306
84	0x3daeb13f	0.08529901
85	0xbe9814d7	-0.297034
86	0xbe22cf9d	-0.1589951
87	0x3d346a3e	0.044046633
88	0x3dbb45e4	0.0914419
89	0x3e1c74d8	0.15278947
90	0xbe040e6d	-0.12896128
91	0xbe27c6be	-0.16384408
92	0xbe304763	-0.17214732
93	0x3e671144	0.2256518
94	0xbe81a375	-0.2532002
95	0xbde5941b	-0.112098895
96	0x3e885809	0.26629665
97	0x3c35f2a2	0.011105211
98	0x3bff998a	0.0078002857
99	0xbd8ee0b1	-0.0697645
100	0x3c68f2cb	0.014218043
101	0xbe202614	-0.15639526
102	0x3c802689	0.015643375
103	0xbe1e5210	-0.15460992
104	0xbdeed1fd	-0.11661146
105	0x3e3d6b11	0.18497874
106	0x3cb3d44f	0.021951823
107	0x3e6f476c	0.23367089
108	0xbe797c23	-0.2436376
109	0xbe68c87a	-0.22732726
110	0x3e4b4b67	0.19852982
111	0xbdac3528	-0.08408576
112	0xbe383a7a	-0.17991057
113	0x3e0c7769	0.13717426
114	0xbddb591b	-0.10710355
115	0xbc71ec93	-0.014765876
116	0x3e648f16	0.22320208
117	0x3e673010	0.22576928
118	0xbe6434b2	-0.22285727
119	0xbdb2d649	-0.08732278
120	0xbda101cc	-0.07861671
121	0xbc8e28f1	-0.017353507
122	0x3e2769dd	0.16348977
123	0x3dc69adc	0.09697506
124	0x3def5014	0.116851956
125	0x3e032f5f	0.1281104
126	0x3e82f949	0.25580814
127	0x3d9d53bc	0.07681987
128	0xbdac7716	-0.08421151
129	0x3e5abbf7	0.21360765
130	0x3cd4446d	0.025911534
131	0xbe94c8b8	-0.29059386
132	0x3e0d09c1	0.13773252
133	0x3cb4e3d0	0.022081286
134	0xbe339419	-0.17536964
135	0xbe3c56b9	-0.18392457
136	0xbe18250f	-0.14857887
137	0x3e0e2dff	0.13884734
138	0x3c95675d	0.018237764
139	0xbe161dae	-0.1465976
140	0x3c9ad63f	0.018900989
141	0x3df1428b	0.1178027
142	0xbdcd9b52	-0.100393906
143	0x3c900d47	0.017584456
144	0x3d82611d	0.06366179
145	0x3e3af4d8	0.18257463
146	0x3e6735c4	0.22579104
147	0xbd53e185	-0.051728744
148	0xbee25d54	-0.4421183
149	0xbdd0159b	-0.10160371
150	0x3e3357b8	0.17513931
151	0xbdfa4dd5	-0.122218765
152	0xbeac00db	-0.33594403
153	0x3cd23d24	0.02566392
154	0xbdb47de3	-0.088130735
155	0x3e6a4f87	0.228819
156	0xbda9c22a	-0.08288987
157	0xbe402601	-0.18764497
158	0xbc30ebec	-0.010798436
159	0xbe5ab4fe	-0.21358106
160	0xbea97dfd	-0.33103934
161	0x3bf4a2ba	0.0074656876
162	0xbcb7619a	-0.022385407
163	0xbd330c06	-0.04371264
164	0x3df9ba68	0.12193757
165	0x3dab7426	0.08371763
166	0x3e497614	0.1967395
167	0xbdcda974	-0.10042086
168	0xbc0cb164	-0.008587215
169	0xbcd2b2e6	-0.025720071
170	0x3d2181dc	0.039430484
171	0x3d9c1812	0.076217785
172	0x3ce6be78	0.028166994
173	0x3dcd172b	0.100141846
174	0x3e0cd5e4	0.13753468
175	0x3e91819d	0.284192
176	0xbd4f64f0	-0.05063337
177	0x3d88e2e3	0.066839
178	0x3d8f7711	0.07005132
179	0xbe247193	-0.1605895
180	0xbe806c0a	-0.25082427
181	0xbe163669	-0.14669193
182	0xbd9e4815	-0.07728592
183	0x3bb46d60	0.0055062026
184	0x3de6bdaf	0.11266648
185	0x3e1f6b1e	0.15568206
186	0xbd8084be	-0.062753186
187	0x3ecbbe74	0.39793742
188	0x3e8ebeec	0.27880037
189	0x3c0ecdac	0.008716028
190	0xbe0bb5c4	-0.13643557
191	0x3e488fa9	0.19586052
192	0xbe8142da	-0.25246316
193	0xbd3c1df1	-0.04592699
194	0x3d641ffb	0.05569456
195	0x3e6ec196	0.23316035
196	0xbd61126d	-0.054949213
197	0x3e40a2e6	0.18812141
198	0x3de44c83	0.11147406
199	0xbc59ca8b	-0.013292919
200	0x3e531c63	0.20616297
201	0xbe656a18	-0.22403753
202	0xbebb530f	-0.36586806
203	0xbae1a93d	-0.0017216575
204	0x3e217823	0.15768485
205	0x3e097fde	0.13427684
206	0xbe75c436	-0.2400063
207	0xbe0bb755	-0.13644154
208	0xbdc7b89a	-0.09752007
209	0x3d8c6c6e	0.06856619
210	0xbdb6d514	-0.0892736
211	0xbe15370d	-0.14571781
212	0x3ebda7f6	0.37042207
213	0x3e8b32ee	0.27187294
214	0xbdce7f90	-0.10082924
215	0xbcd21831	-0.025646301
216	0xbe8f3b5b	-0.27974972
217	0x3dbc0937	0.09181445
218	0xbbb60554	-0.0055548344
219	0xbc131631	-0.008977459
220	0x3e3f52cb	0.18683927
221	0x3e908b18	0.2823112
222	0xbba98859	-0.0051737246
223	0x3e14cefc	0.14532083
224	0xbd8c37db	-0.06846591
225	0xbdc5b9b7	-0.09654563
226	0xbe1e1d07	-0.1544076
227	0xbe149846	-0.14511213
228	0x3c238565	0.009980534
229	0x3dfd748b	0.123757444
230	0xbd883fa9	-0.06652767
231	0x3e6f8257	0.23389564
232	0xbe94fac2	-0.29097563
233	0xbe4b03bf	-0.19825648
234	0x3d7ecdeb	0.062208097
235	0x3db9f2b3	0.09079494
236	0xbdc866bf	-0.09785222
237	0x3df85e1e	0.121273264
238	0x3e56be5f	0.20971058
239	0x3caf4709	0.021396177
240	0x3d17afa7	0.03703275
241	0x3cd0e6d2	0.025500689
242	0xbe6d0bef	-0.23149084
243	0x3e8b9369	0.27260903
244	0x3ee5e30c	0.44899786
245	0x3e7a67cc	0.24453658
246	0x3e34451d	0.1760449
247	0x3e98c955	0.29841104
248	0x3d7b2db1	0.06132287
249	0xbd99f7e5	-0.07517985
250	0xbe3c1196	-0.18366084
251	0xbea6394d	-0.32465592
252	0x3e369946	0.17831907
253	0x3e982f25	0.29723468
254	0x3d83a812	0.06428541
255	0xbd6f3797	-0.058402624

rb1.conv1.bias f4 [10]
0	0x3810aa66	3.449097e-05
1	0x38ed7e77	0.000113245966
2	0xb93d566f	-0.00018056644
3	0xb82a9073	-4.0665687e-05
4	0x391e692e	0.00015107237
5	0x39321a14	0.00016985118
6	0xb8b63d64	-8.689871e-05
7	0x3a82c866	0.0009977936
8	0xb8809367	-6.1309715e-05
9	0x3647fe4c	2.980133e-06

rb1.bn1.weight f4 [10]
0	0x3f4929fa	0.78579676
1	0x3fa22c72	1.2669814
2	0x3f584552	0.84480774
3	0x3f5ec895	0.87024814
4	0x3f15b868	0.58484507
5	0x3f4c44bc	0.7979238
6	0x3f2a94ff	0.666336
7	0x3f80c734	1.0060792
8	0x3f53c9cf	0.8272981
9	0x3f2c2ba3	0.67254084

rb1.bn1.bias f4 [10]
0	0x3ea11d59	0.31467703
1	0x3f93c679	1.1544944
2	0x3ce59955	0.028027216
3	0x3d7f5163	0.062333476
4	0x3d584a66	0.052805327
5	0xbc2e9d65	-0.010657643
6	0xbbd6312b	-0.006536623
7	0x3f5253bb	0.8215901
8	0x3f0b959c	0.5452516
9	0x3e0df4eb	0.1386296

rb1.bn1.running_mean f4 [10]
0	0xbc707121	-0.0146754095
1	0xbbf2cc65	-0.0074096196
2	0x3c9aae3d	0.018881911
3	0x3d8535a2	0.0650437
4	0xbcf2a112	-0.02961782
5	0x3e20b703	0.15694813
6	0xbe059c3e	-0.13047883
7	0xb8e8d824	-0.000111028814
8	0xbc641727	-0.013921536
9	0xbda6c9a7	-0.08143931

rb1.bn1.running_var f4 [10]
0	0x3d98e86f	0.07466208
1	0x3d23da3f	0.040003058
2	0x3e3dec3a	0.18547145
3	0x3e81650a	0.252724
4	0x3d04affd	0.032394398
5	0x3edc700a	0.4305423
6	0x3e9ffc2b	0.31247076
7	0x3d68a38f	0.056796607
8	0x3d24524c	0.040117547
9	0x3edb8e9f	0.4288225

rb1.conv2.weight f4 [10, 10, 3, 3]
0	0xbd391529	-0.045186196
1	0xbe4e8a08	-0.20169842
2	0xbc76c37d	-0.0150612565
3	0x3ca048e1	0.019566001
4	0xbe28b32d	-0.164746
5	0xbd8346e1	-0.064100035
6	0xbc84f8f8	-0.016231999
7	0xbc8fec7f	-0.017568825
8	0xbb215c5c	-0.00246217
9	0x3be38342	0.0069431374
10	0x3e2b8809	0.16751112
11	0xbe865e34	-0.26243746
12	0xbe88dc80	-0.26730728
13	0xbdcb0a1d	-0.09914038
14	0x3e21c4a9	0.15797676
15	0x3e12ec3b	0.14347927
16	0xbe683b81	-0.22678949
17	0x3b652a9f	0.003496803
18	0xbe1b910c	-0.1519205
19	0x3da30979	0.07960791
20	0xbdc93a21	-0.0982554
21	0xbb350ed2	-0.0027627242
22	0xbe59741d	-0.212357
23	0xbe38e176	-0.18054757
24	0x3c42206b	0.011848549
25	0x3df3a551	0.11896766
26	0x3df6818a	0.12036426
27	0x3e060c7d	0.13090701
28	0x3e32669a	0.17421952
29	0x3e0c146f	0.1367967
30	0x3d9d1147	0.07669311
31	0x3dccd6e3	0.10001924
32	0x3d0b8ddf	0.034070846
33	0xbde5a805	-0.11213688
34	0xbd47f04b	-0.048813146
35	0xbe679458	-0.22615182
36	0xbdfe2b6e	-0.12410627
37	0x3d97919d	0.074008204
38	0xbcf930dc	-0.030418806
39	0xbc4802b6	-0.012207678
40	0xbdc66c59	-0.096886344
41	0x3c80c0e0	0.01571697
42	0xbd6bfdcd	-0.05761509
43	0xbc2eff6b	-0.010681014
44	0xbdbf3b75	-0.093375124
45	0x3d944cd3	0.072412156
46	0x3e6abe90	0.22924256
47	0x3e1c7545	0.1527911
48	0xbd173202	-0.036912926
49	0x3be6b231	0.007040285
50	0xbd4db6d1	-0.050223175
51	0xbd5c3663	-0.053762805
52	0x3d7e1fff	0.062042233
53	0x3e0d5b71	0.13804413
54	0xbd3df781	-0.046378616
55	0xbcce01e3	-0.025147384
56	0xbdcf9a7d	-0.10136888
57	0xbdb7aa92	-0.089680806
58	0xbe63f09e	-0.22259757
59	0xbd957dde	-0.07299398
60	0x3ddd5d42	0.10808803
61	0x3d9edd1b	0.07757016
62	0xbd8972e0	-0.06711364
63	0xbc4abf56	-0.01237472
64	0x3e036317	0.12830769
65	0x3e8caf75	0.27477613
66	0xbd3f4248	-0.04669407
67	0xbe8a9bad	-0.27071896
68	0xbec81bd7	-0.3908374
69	0x3c4b53b1	0.01241009
70	0x3e36fe45	0.17870434
71	0x3d954f17	0.07290476
72	0xbd33320e	-0.043748908
73	0xbe183112	-0.14862469
74	0xbdd4beef	-0.1038798
75	0x3e08b507	0.13350306
76	0x3d56deec	0.05245869
77	0x3db6ac8f	0.08919632
78	0xbe347ff8	-0.17626941
79	0xbc874eab	-0.016517004
80	0xbd40476d	-0.046943117
81	0xbe971473	-0.2950779
82	0xbe9f76ab	-0.31145224
83	0xbdf9eee9	-0.122037716
84	0xbe2141c4	-0.15747744
85	0xbd2a368d	-0.04155593
86	0xbd8a4721	-0.06751848
87	0xbe0e0426	-0.1386877
88	0xbd9d5276	-0.07681744
89	0x3d3a3e05	0.045469303
90	0xbcf2ecc6	-0.029653918
91	0xbde80aff	-0.11330222
92	0x3dce01b8	0.100589216
93	0xbc2ddcd5	-0.0106117325
94	0x3dba8024	0.09106472
95	0x3e99cd79	0.30039576
96	0xbd293e29	-0.041319046
97	0x3e190308	0.14942563
98	0xbdfac4bf	-0.122445576
99	0x3dd14518	0.10218257
100	0x3dba9b62	0.09111668
101	0xbe31ef1f	-0.17376374
102	0x3e29996b	0.1656243
103	0xbee39ccd	-0.44455567
104	0x3d6d6642	0.05795885
105	0xbe9f860a	-0.3115695
106	0x3e13dd84	0.1443997
107	0x3e1eceea	0.15508619
108	0x3cf48d25	0.02985246
109	0x3e03a881	0.12857248
110	0xbde142e0	-0.109990835
111	0x3ce79daa	0.028273422
112	0xbe28c475	-0.16481192
113	0xbe18cd22	-0.14922002
114	0xbb7af50a	-0.0038293027
115	0xbdb3bfc8	-0.08776814
116	0xbcb0a94c	-0.021565102
117	0xbe5b0dbd	-0.2139196
118	0x3dee1fc7	0.11627155
119	0x3d43de6c	0.04781954
120	0x3d8d7687	0.06907373
121	0xbd0976b0	-0.033560455
122	0xbde449b8	-0.11146873
123	0xbc58d519	-0.0132344
124	0xbe4de077	-0.20105158
125	0xbcdb97ec	-0.02680584
126	0x3e31cdd8	0.1736368
127	0x3e3c917b	0.18414871
128	0x3d3b3898	0.04570827
129	0x3d7d98ee	0.061913423
130	0xbd13aa45	-0.036051054
131	0xbd936596	-0.0719711
132	0xbc6044fc	-0.013688322
133	0xbe17bcaf	-0.14818071
134	0xbe2d459a	-0.16921082
135	0xbdbb1a45	-0.0913587
136	0xbdac87b8	-0.08424324
137	0xbda24df9	-0.07925028
138	0xbd654cf0	-0.055981576
139	0xbd87bb06	-0.06627469
140	0xbdf475f6	-0.11936562
141	0xbda4243c	-0.08014724
142	0xbe3486ed	-0.17629595
143	0xbd65668a	-0.056005992
144	0x3dd05086	0.101716086
145	0x3e197804	0.14987189
146	0x3db87162	0.09006001
147	0x3e2c6ac9	0.1683761
148	0x3e319f9f	0.17346047
149	0x3ddf1111	0.10891927
150	0x3e16f5fe	0.14742276
151	0x3e37a16a	0.17932668
152	0x3bc1b210	0.0059111193
153	0x3db83ba4	0.089957505
154	0xbe7c9c58	-0.24669015
155	0xbc93a98f	-0.018025188
156	0xbd35418d	-0.044251967
157	0xbe88114a	-0.2657569
158	0x3e4f43f5	0.20240767
159	0xbd18e2e9	-0.037325773
160	0x3e8efd7f	0.27927777
161	0x3be2f48d	0.0069261254
162	0x3df36de1	0.11886192
163	0xbc4fe5ea	-0.012689093
164	0xbe632b7c	-0.22184557
165	0x3c8ce930	0.017201036
166	0xbdca501b	-0.0987856
167	0x3e1a10d6	0.15045485
168	0xbc54417e	-0.012955068
169	0x3e0ae543	0.13564019
170	0xbcab8e9d	-0.020942027
171	0xbd25a339	-0.040438864
172	0xbb743b70	-0.0037266873
173	0x3cc11562	0.023569766
174	0x3d7d79b4	0.061883643
175	0xbd00a984	-0.031411663
176	0x3cf68b50	0.030095726
177	0xbd9415b4	-0.07230702
178	0x3dffa58d	0.12482748
179	0x3d0a2c22	0.033733495
180	0x3c58111a	0.013187671
181	0xbe962365	-0.2932388
182	0xbd8ac557	-0.06775921
183	0x3cd37a4d	0.025815153
184	0xbd82a240	-0.06378603
185	0xbca23545	-0.019800792
186	0x3db573f7	0.08860009
187	0x3d79e1de	0.06100642
188	0x3d3dd560	0.04634607
189	0xbd66951f	-0.056294557
190	0xbe16d99d	-0.1473145
191	0x3b26ff00	0.0025481582
192	0xbd41414f	-0.047181424
193	0xbe22c2da	-0.15894642
194	0xbd40bb31	-0.04705352
195	0xbc30ccab	-0.010790984
196	0x3e03515d	0.12824006
197	0x3df5daec	0.12004647
198	0x3e8252c6	0.25453776
199	0x3d517de4	0.05114545
200	0x3c992256	0.01869313
201	0x3ea78e54	0.32725775
202	0x3d6efa62	0.058344252
203	0xbe221e8a	-0.15831962
204	0x3dbe3859	0.09288091
205	0xbdd0e0a7	-0.10199099
206	0xbd8caea0	-0.068692446
207	0x3de783c6	0.11304431
208	0x3d83ba58	0.064320266
209	0xbb5d6eb2	-0.0033787903
210	0x3d4656a2	0.048422463
211	0x3d858d02	0.06521036
212	0xbc1e158e	-0.009648694
213	0x3e8f2d14	0.2796408
214	0x3a3d5bd5	0.0007223462
215	0x3d035da8	0.03207174
216	0x3e104678	0.14089382
217	0x3dfb7629	0.12278397
218	0x3c17e3a8	0.009270586
219	0x3e870949	0.26374272
220	0x3d8d60f9	0.06903262
221	0x3d07f50d	0.033192683
222	0x3dd3e0eb	0.10345634
223	0x3d763075	0.060104806
224	0x3bf1ce8f	0.00737936
225	0x3e74c917	0.23904835
226	0x3e61749a	0.22017136
227	0x3e3067f8	0.17227161
228	0x3e23edce	0.16008684
229	0x3dc202e6	0.09473209
230	0x3d4a898c	0.04944758
231	0x3cf5bd66	0.029997539
232	0x3cfcf6e7	0.030879451
233	0xbdd6ee74	-0.104947
234	0x3bada814	0.0052995775
235	0xbd1ad1b5	-0.03779765
236	0xbdf70e9b	-0.12063333
237	0xbbb1aca0	-0.00542219
238	0xbd02278d	-0.031776
239	0xbdd3fdbe	-0.10351132
240	0x3c143a92	0.009047167
241	0xbc8cb8a9	-0.017177897
242	0xbe0cc78f	-0.13748
243	0x3e32a77c	0.17446703
244	0x3ddd620e	0.10809718
245	0x3b82f77d	0.003996788
246	0x3d6afad3	0.05736811
247	0x3db56a25	0.08858136
248	0xbc93f5d7	-0.018061562
249	0xbe0b29ee	-0.13590214
250	0x3ccb3aa3	0.024808234
251	0xbd9cd80d	-0.07658396
252	0x3e8f0a6c	0.2793764
253	0x3e85ebe5	0.26156536
254	0xbd81d010	-0.06338513
255	0x3e3ec355	0.18629201

rb1.conv2.bias f4 [10]
0	0x3817428c	3.6063182e-05
1	0xb97ebc2c	-0.00024293427
2	0x37138d00	8.794712e-06
3	0xb931d747	-0.00016960232
4	0x3821cfc3	3.8578884e-05
5	0xb892ec04	-7.005784e-05
6	0xb7c89a7a	-2.3913792e-05
7	0x3876b243	5.881699e-05
8	0x38626802	5.3979464e-05
9	0xb79aaa24	-1.8437458e-05

rb1.bn2.weight f4 [10]
0	0x3f8563bb	1.042106
1	0x3f9164f7	1.1358937
2	0x3f4d24c4	0.80134225
3	0x3f8e985f	1.114025
4	0x3f3c5f78	0.73583174
5	0x3f899848	1.0749598
6	0x3fa9a749	1.3254176
7	0x3f87d534	1.061194
8	0x3f8e834b	1.1133817
9	0x3f5a78aa	0.8534037

rb1.bn2.bias f4 [10]
0	0x3d2ccfc9	0.042190347
1	0xbd7ecbce	-0.062206082
2	0x3e830f50	0.2559762
3	0xbd410bf7	-0.04713055
4	0x3e66c4a4	0.2253595
5	0x3dbfd43a	0.09366651
6	0xbba183e0	-0.004929051
7	0x3de013f8	0.10941309
8	0x3d16d752	0.03682644
9	0x3e85f314	0.26162016

rb1.bn2.running_mean f4 [10]
0	0xbfad162f	-1.3522395
1	0xbe88db9d	-0.26730052
2	0x3f1b784b	0.6073043
3	0xbcd503cc	-0.026002787
4	0xbf31c19f	-0.6943607
5	0xbe415dad	-0.1888339
6	0xbf2b0675	-0.6680673
7	0xbe5957d6	-0.21224913
8	0x3dd251a3	0.10269477
9	0x3fcd18f0	1.6023235

rb1.bn2.running_var f4 [10]
0	0x3fc83e62	1.5644038
1	0x3fa2a358	1.2706099
2	0x3f9abb50	1.2088413
3	0x3fccda2e	1.6004083
4	0x3f63fc9f	0.89057344
5	0x3fd7bd59	1.6854659
6	0x400b35b1	2.175152
7	0x3fe07e85	1.7538611
8	0x4002495d	2.0357277
9	0x3fd4e0cb	1.6631101

rb1.shortcut.conv.weight f4 [10, 3, 1, 1]
0	0x3ee41191	0.44544652
1	0x3b14b3ce	0.002269018
2	0x3eb19b1a	0.34688646
3	0xbeaee7df	-0.3416128
4	0xbf097016	-0.53686655
5	0xbec29fbb	-0.3801249
6	0x3eb9969a	0.36247712
7	0xbeb8b364	-0.36074364
8	0x3dd02fcb	0.10165366
9	0xbef227fb	-0.47296128
10	0xbf354681	-0.70810705
11	0x3e3d233b	0.1847047
12	0xbdd179cd	-0.1022831
13	0xbe3f42e9	-0.18677868
14	0x3f1669a1	0.58754927
15	0x3eb9c56e	0.3628344
16	0x3e04ab1b	0.12955897
17	0x3f00831d	0.50200063
18	0xbec8a878	-0.3919103
19	0xbeaea05a	-0.34106714
20	0xbe9de7a8	-0.30840802
21	0xbe916078	-0.28393912
22	0xbf32007c	-0.6953199
23	0x3e914d67	0.28379366
24	0xbea89afc	-0.32930744
25	0xbf01532f	-0.50517553
26	0xbd7e29d3	-0.062051605
27	0xbe96ac79	-0.2942846
28	0x3d880f5a	0.06643553
29	0xbf14c8f1	-0.5811911

rb1.shortcut.conv.bias f4 [10]
0	0xb7cc20e8	-2.4334018e-05
1	0xb67e5316	-3.7897312e-06
2	0xb9eefe61	-0.00045584425
3	0x3972092c	0.00023082335
4	0xb9333645	-0.00017090987
5	0x3701f310	7.745592e-06
6	0x38f7384c	0.00011788364
7	0xb877a2aa	-5.904088e-05
8	0xb9c679fe	-0.00037856394
9	0xb9de92f4	-0.00042452628

rb1.shortcut.bn.weight f4 [10]
0	0x3f7a8414	0.97857785
1	0x3f6b91d7	0.9201941
2	0x3f843232	1.0327818
3	0x3f62bacb	0.88566273
4	0x3f911ad5	1.1336313
5	0x3f716312	0.94291794
6	0x3f19f417	0.60138077
7	0x3f3429d2	0.7037631
8	0x3f67aef3	0.90501326
9	0x3f6b7f64	0.9199126

rb1.shortcut.bn.bias f4 [10]
0	0x3d2ccfc9	0.042190347
1	0xbd7ecbce	-0.062206082
2	0x3e830f50	0.2559762
3	0xbd410bf7	-0.04713055
4	0x3e66c4a4	0.2253595
5	0x3dbfd43a	0.09366651
6	0xbba183e0	-0.004929051
7	0x3de013f8	0.10941309
8	0x3d16d752	0.03682644
9	0x3e85f314	0.26162016

rb1.shortcut.bn.running_mean f4 [10]
0	0xbdb171cb	-0.086642824
1	0x3e095afd	0.13413616
2	0xbc1a2d73	-0.00941025
3	0x3d9b69e2	0.07588555
4	0xbd7f7e93	-0.06237657
5	0xbdec1642	-0.11527683
6	0x3ddea3fb	0.108711205
7	0x3d381d6c	0.044949934
8	0x3da88a71	0.082295306
9	0x3dd38d80	0.10329723

rb1.shortcut.bn.running_var f4 [10]
0	0x3e14c683	0.14528851
1	0x3eba3f40	0.3637638
2	0x3bb201c8	0.0054323412
3	0x3e70d3cc	0.23518294
4	0x3d15eb71	0.036601488
5	0x3e6b09ac	0.22952908
6	0x3e7dc273	0.24781208
7	0x3df4e9c4	0.1195865
8	0x3e3ced11	0.18449809
9	0x3e20b0f9	0.1569251

rb2.conv1.weight f4 [20, 10, 3, 3]
0	0x3da63a8a	0.08116634
1	0x3e13b434	0.14424211
2	0x3d817981	0.06322003
3	0x3e386759	0.18008174
4	0x3e591b10	0.2120173
5	0x3e098864	0.13430935
6	0x3d03336c	0.03203146
7	0x3de9f16f	0.11423003
8	0x3dfd9403	0.123817466
9	0x3e2bb0f6	0.16766724
10	0xbdfbccdf	-0.122949354
11	0xbde9c8e0	-0.11415267
12	0xbdbba1d3	-0.09161725
13	0xbd6805f1	-0.05664629
14	0xbc8a8163	-0.0169074
15	0x3e16bec7	0.14721213
16	0xbe2ad2e1	-0.16682006
17	0xbe0ea5d9	-0.13930453
18	0xbde6ad59	-0.11263532
19	0xbe9cd27e	-0.30629343
20	0xbe2e6985	-0.1703244
21	0xbc64d13a	-0.013965899
22	0xbe80b71b	-0.25139698
23	0xbe074727	-0.13210736
24	0x3cdd7c2b	0.027036747
25	0x3d16dcd8	0.036831707
26	0xbde63ff9	-0.112426706
27	0x3c24d8a9	0.010061421
28	0xbdefaeda	-0.11703272
29	0x3da8e0ae	0.08245979
30	0x3d732dd8	0.059369892
31	0x3d7000fa	0.05859468
32	0x3de80b82	0.1133032
33	0x3d432697	0.047644224
34	0x3d73e822	0.05954755
35	0x3e629e48	0.22130692
36	0xbc5b262a	-0.013375798
37	0x3e0d30ed	0.13788195
38	0xbc9fe5ff	-0.01951885
39	0xbdc31542	-0.09525539
40	0x3c22e88d	0.00994314
41	0x3db98762	0.09059025
42	0xba9b3001	-0.0011839868
43	0xbe9625a2	-0.29325587
44	0xbe6d7f15	-0.23193009
45	0x3de5daf1	0.112234004
46	0x3d6aa28b	0.05728392
47	0x3d9ab85d	0.07554696
48	0xbe09dcf1	-0.13463189
49	0xbd912654	-0.07087389
50	0xbd84b07b	-0.064789735
51	0xbd856374	-0.0651311
52	0xbeeb8059	-0.4599636
53	0xbd72e486	-0.05929997
54	0x3dec7fa8	0.11547786
55	0x3db61270	0.088902354
56	0x3e1db79c	0.15402073
57	0x3dbaac25	0.09114865
58	0x3d830a4c	0.06398448
59	0x3dc3a438	0.095528066
60	0x3d486d31	0.048932258
61	0xbcd2fb08	-0.025754467
62	0xbd53c999	-0.05170593
63	0x3dcdac0b	0.1004258
64	0xbd932f60	-0.071867704
65	0x3d660474	0.05615659
66	0xbdaf252d	-0.085520126
67	0xbebcc994	-0.36872542
68	0xbdb56213	-0.08856597
69	0x3db745f4	0.089488894
70	0xbe26e000	-0.16296387
71	0xbdbef8a4	-0.09324768
72	0xbc6cdd5c	-0.014457073
73	0xbad1f6ff	-0.0016019045
74	0xbe005be6	-0.12535056
75	0xbe2a8e36	-0.16655812
76	0x3da36081	0.07977391
77	0x3e1d3d5e	0.15355441
78	0xbe309010	-0.17242455
79	0xbce75ce4	-0.028242536
80	0x3dc416be	0.0957465
81	0xbdfeb92a	-0.12437661
82	0x3c66613c	0.014061268
83	0xbe13cd53	-0.14433794
84	0x3c912030	0.017715544
85	0x3d4a4a5c	0.04938732
86	0x3c181fa3	0.0092848865
87	0xbddf43a1	-0.10901571
88	0x3d34a615	0.0441037
89	0x3e4fec48	0.20304978
90	0xbe818303	-0.25295267
91	0xbe1d6429	-0.1537024
92	0xbd8d34c5	-0.068948306
93	0x3d1757c5	0.036948938
94	0xbd8f80dc	-0.07007
95	0xbca976ce	-0.020686533
96	0x3e3d8b73	0.18510227
97	0x3e5c078b	0.21487252
98	0x3e5d43c3	0.2160788
99	0xbe94c9ca	-0.29060203
100	0xbe1271d4	-0.14301234
101	0xbd463e5c	-0.048399314
102	0xbe0ad82a	-0.13559023
103	0x3da60782	0.08106901
104	0xbb928b1e	-0.0044721505
105	0xbdbc306d	-0.09188924
106	0xbd6f693b	-0.058449965
107	0xbcae2b31	-0.02126083
108	0xbe94b7a2	-0.2904635
109	0xbeb61323	-0.35561475
110	0xbe50acc2	-0.20378402
111	0x3dc839a9	0.09776623
112	0x3d294067	0.041321184
113	0xbc490ffb	-0.012271876
114	0x3e44aef1	0.1920736
115	0x3e7fac36	0.24968037
116	0x3e990cfb	0.29892716
117	0xbd98baa0	-0.07457471
118	0x3aac78d4	0.0013158568
119	0xbd1a99d9	-0.037744377
120	0xbe212fa3	-0.15740828
121	0x3d567b4f	0.05236369
122	0xbdb802ec	-0.08984932
123	0xbdc4a209	-0.09601218
124	0xbc3594f3	-0.011082876
125	0xbdc9fc54	-0.09862581
126	0x3e2e416f	0.17017148
127	0x3e637397	0.22212063
128	0x3d1103a5	0.035403866
129	0x3946b604	0.00018950558
130	0xbd087fee	-0.03332513
131	0xbe069579	-0.13142957
132	0xbe35f555	-0.17769368
133	0xbe769c4b	-0.24083059
134	0xbe6e7195	-0.23285516
135	0xbc2ddee3	-0.010612222
136	0xb959b315	-0.00020761446
137	0x3e1762b2	0.14783743
138	0xbd953f05	-0.07287411
139	0x3d20250c	0.03909783
140	0x3d4c0ce3	0.049816977
141	0x3d47cf59	0.048781727
142	0xbc53e37e	-0.012932656
143	0x3dd20d61	0.10256458
144	0x3dc8e51b	0.098093234
145	0x3decd3cc	0.115638345
146	0x3cda7f3c	0.026671998
147	0xbd4d9336	-0.05018922
148	0x3ce471f0	0.02788636
149	0xbdc6b5ae	-0.097026214
150	0xbc99e51e	-0.01878601
151	0x3d1d1023	0.038345467
152	0xbd4a3349	-0.049365316
153	0x3e175413	0.14778166
154	0x3e941fbd	0.28930464
155	0x3e1409d7	0.14456879
156	0xbc2b89f6	-0.010469904
157	0x3d98c244	0.07458928
158	0x3deff384	0.11716369
159	0xbe28a9b8	-0.16470993
160	0x3d15d84b	0.036583226
161	0xbd6ce391	-0.05783421
162	0xbdd601b2	-0.10449542
163	0x3d9c29f7	0.07625192
164	0xbdb63ec7	-0.088986926
165	0xbdbef8bc	-0.09324786
166	0x3d9d8507	0.076913886
167	0xbe2d40a3	-0.16919188
168	0x3d0baa5f	0.034098025
169	0x3d7c7fe5	0.061645407
170	0xbd19aded	-0.037519384
171	0xbd2eea9a	-0.042704202
172	0x3d3286b7	0.043585505
173	0x3c9c7a35	0.019101242
174	0x3ce8b007	0.028404249
175	0x3e140890	0.14456391
176	0x3d8474e6	0.06467609
177	0x3bcfd8f1	0.006343
178	0x3db34bd0	0.087546945
179	0xbd6b00c2	-0.05737377
180	0xbd40bd2f	-0.04705542
181	0x3d8ff755	0.07029597
182	0xbdb252eb	-0.087072216
183	0xbb027e96	-0.0019911877
184	0x3d5c1593	0.053731512
185	0xbd180b7a	-0.03712032
186	0xbcbc405e	-0.022979911
187	0xbd51fbdd	-0.051265586
188	0x3d9dc646	0.07703833
189	0xbd379ffb	-0.044830304
190	0x3bc47821	0.005995766
191	0x3e2ca170	0.16858459
192	0xbe13c064	-0.1442886
193	0x3d48bb5c	0.049006805
194	0x3da68153	0.081301354
195	0xbdb56270	-0.08856666
196	0xbe6bda9e	-0.23032615
197	0xbe360144	-0.1777392
198	0x3dcbd493	0.09952655
199	0xbe3f0a9b	-0.1865639
200	0x3d16c562	0.036809333
201	0x3e315faa	0.17321649
202	0xbccb75e9	-0.024836497
203	0xbce4f1c4	-0.027947314
204	0x3d4ac739	0.0495064
205	0x3d33862d	0.043829132
206	0x3d89beee	0.0672587
207	0x3e8af7c9	0.2714217
208	0x3e774323	0.24146704
209	0x3e141ce8	0.14464152
210	0x3c6bd2ad	0.014393491
211	0x3e5218c3	0.20517258
212	0x3d43d81e	0.047813527
213	0xbdf0cab3	-0.11757412
214	0x3ddd483b	0.108047925
215	0x3d27667e	0.04086923
216	0xbe1083d9	-0.14112796
217	0x3caa68ba	0.02080189
218	0xbd4b669e	-0.04965841
219	0xbda11ad3	-0.078664444
220	0xbd8dee24	-0.06930187
221	0x3b733eb3	0.003711623
222	0x3da79c43	0.081841014
223	0xbcf8fef9	-0.030395018
224	0x3b951151	0.0045491834
225	0x3dd8c044	0.10583547
226	0x3d877c98	0.06615561
227	0xbd9e5725	-0.07731465
228	0xbeabaf69	-0.33532265
229	0x3d00c65a	0.031439163
230	0x3cf37d6d	0.029722894
231	0xbe711ce7	-0.23546182
232	0x3cade6fb	0.021228304
233	0x3d98908f	0.07449447
234	0x3e7ef6f6	0.24898896
235	0x3e433832	0.19064406
236	0x3d3c08b7	0.04590675
237	0xbe054c51	-0.13017394
238	0xbddec0ec	-0.10876641
239	0xbe04bb80	-0.1296215
240	0xbf1993ac	-0.59990954
241	0xbee7c759	-0.45269278
242	0xbe0b2efb	-0.1359214
243	0xbc42c173	-0.011886942
244	0x3bf244cb	0.0073934547
245	0x3d679f5e	0.05654847
246	0xbd9a6593	-0.07538905
247	0x3da2e02f	0.07952916
248	0x3d9e98a5	0.077439584
249	0xbd99eea8	-0.07516223
250	0xbd815273	-0.06314554
251	0xbdf51d94	-0.11968532
252	0xbda84f5a	-0.0821826
253	0xbd96ed0c	-0.07369432
254	0xbcba990c	-0.022778057
255	0xbe12fcf0	-0.143543

rb2.conv1.bias f4 [20]
0	0x388a0c63	6.58266e-05
1	0xb8ccf48d	-9.773029e-05
2	0xb8cc6e82	-9.748062e-05
3	0xb75ff04a	-1.3347782e-05
4	0x37777b18	1.4751007e-05
5	0xb7bd8b7d	-2.259551e-05
6	0x38dd6350	0.000105565996
7	0xb885da51	-6.382599e-05
8	0xb7b6617c	-2.1741485e-05
9	0x38fd841d	0.00012088588
10	0x3804f631	3.1700536e-05
11	0x37bdc095	2.2620234e-05
12	0xb778ee16	-1.4837386e-05
13	0xb7fec3c6	-3.0370324e-05
14	0xb8b30f9e	-8.538294e-05
15	0xb7823bbb	-1.5525022e-05
16	0xb7fbd8e9	-3.0022538e-05
17	0x37edfca5	2.8370248e-05
18	0xb849c5e2	-4.8106427e-05
19	0x38028228	3.1115633e-05

rb2.bn1.weight f4 [20]
0	0x3f571cfd	0.8402861
1	0x3f638a41	0.88882834
2	0x3f6714f8	0.9026637
3	0x3f8a6017	1.0810574
4	0x3f893d38	1.0721807
5	0x3f3fe9e0	0.7496624
6	0x3f7502e0	0.9570751
7	0x3f5e8351	0.8691912
8	0x3f33e281	0.7026749
9	0x3f5d5c1c	0.8646867
10	0x3f4c8c5c	0.7990167
11	0x3f8226af	1.0168055
12	0x3f83e1db	1.0303301
13	0x3f75a9cf	0.9596223
14	0x3f6de275	0.9292367
15	0x3f8aa9b5	1.083304
16	0x3f6a3ba4	0.91497254
17	0x3f628aea	0.88493216
18	0x3f78b1a9	0.9714609
19	0x3f732c26	0.9498924

rb2.bn1.bias f4 [20]
0	0x3c2a2389	0.010384449
1	0xbe1a7a62	-0.15085748
2	0x3decb011	0.115570195
3	0xbca7f0ba	-0.02050053
4	0xbe81dc36	-0.2536332
5	0xbd98ce96	-0.07461278
6	0x3ce68704	0.028140552
7	0x3defff43	0.11718609
8	0xbc33753e	-0.010953246
9	0x3dc371ee	0.09543215
10	0x3c7b0264	0.015320394
11	0x3d7c82ed	0.061648298
12	0xbdece497	-0.115670376
13	0x3d0f1bb1	0.034938518
14	0xbdf01076	-0.1172189
15	0xbd9e239e	-0.07721637
16	0x3dedb897	0.11607473
17	0xbba7459d	-0.005104734
18	0x3dd112e7	0.102086835
19	0xbddc372e	-0.10752712

rb2.bn1.running_mean f4 [20]
0	0xbf8e0c28	-1.109746
1	0xbdd203d8	-0.102546394
2	0xbfdbd6e9	-1.717496
3	0xc0357d8a	-2.8357873
4	0xbfa8ee21	-1.3197671
5	0x3cc441d5	0.023957172
6	0xbfca5355	-1.5806681
7	0xbfbeee85	-1.491654
8	0x3f8013f5	1.000609
9	0xbe2b1df2	-0.16710642
10	0xbec5bffa	-0.3862303
11	0xbf8ae800	-1.0852051
12	0xc020ed12	-2.5144696
13	0xbf271405	-0.6526492
14	0xbef1b34c	-0.47207105
15	0xbffd930a	-1.9810498
16	0xbfe8d89d	-1.8191105
17	0xbe401d91	-0.18761279
18	0xbff11ff0	-1.8837872
19	0xbee8bdbb	-0.45457253

rb2.bn1.running_var f4 [20]
0	0x3fca7f3d	1.582008
1	0x3fb7f19d	1.437061
2	0x4000ffc8	2.0156116
3	0x40390233	2.8907592
4	0x401c6e8f	2.444248
5	0x3fbde615	1.483584
6	0x402b6470	2.6780052
7	0x4025fe6a	2.5936532
8	0x3fb1b226	1.3882492
9	0x3f9c5361	1.2212945
10	0x3fdb51e2	1.7134364
11	0x40158fd6	2.336904
12	0x4028988a	2.6343102
13	0x400c5cd1	2.193165
14	0x3fb3a68d	1.4035202
15	0x402d883d	2.7114403
16	0x4016ddd9	2.3572905
17	0x3ffa0d4f	1.9535311
18	0x3fed7398	1.8550901
19	0x400d786d	2.2104752

rb2.conv2.weight f4 [20, 20, 3, 3]
0	0xbb92f9ee	-0.0044853603
1	0x3d900c18	0.07033557
2	0xbcdff883	-0.02734018
3	0x3d0b0ac4	0.033945814
4	0x3c09ab76	0.008402696
5	0xbe00c205	-0.12574013
6	0xbc79bd01	-0.015242816
7	0xbe0ff7f4	-0.1405943
8	0xbd5bcc72	-0.05366177
9	0xbe5201d1	-0.20508505
10	0x3e37e54d	0.17958565
11	0x3dda74c0	0.106667995
12	0x3cebba4d	0.028775359
13	0x3e2dae4f	0.16961025
14	0x3de633c7	0.112403445
15	0x3db4ddef	0.08831393
16	0x3db23c3b	0.08702894
17	0x3e16a3ca	0.14710918
18	0xbca2630d	-0.019822622
19	0xbd41342d	-0.0471689
20	0x3d0ec4bc	0.03485559
21	0x3e1bc612	0.15212277
22	0x3d8e26b7	0.06940978
23	0xbcc8119a	-0.024422456
24	0x3bb175a5	0.0054156356
25	0x3c2731ff	0.010204791
26	0xbddd8baf	-0.10817658
27	0xbe2625d0	-0.16225362
28	0xbcc9b2bc	-0.02462136
29	0xbe2670e6	-0.16254005
30	0xbdec9ac3	-0.11552956
31	0x3dd56cc5	0.10421137
32	0xbe70abd3	-0.23503046
33	0xbe9a7f38	-0.30175185
34	0xbcbc2630	-0.022967428
35	0xbd746568	-0.05966702
36	0xbdf8200d	-0.12115488
37	0xbdcae6b3	-0.09907284
38	0xbe0917d3	-0.13387994
39	0xbc402aee	-0.011728985
40	0xbc858902	-0.016300682
41	0xbcdf0349	-0.027223246
42	0x3d9f2bc2	0.07772018
43	0x3e1b1ec5	0.15148456
44	0x3d3372d2	0.043810673
45	0xbe0b3030	-0.13592601
46	0xbc9db15e	-0.019249614
47	0xbd706469	-0.05868951
48	0xbe3514c0	-0.17683697
49	0x3e207067	0.15667878
50	0x3c136bbf	0.008997857
51	0x3d4c5f52	0.049895592
52	0xbd4cb4b1	-0.04997701
53	0xbc88bb36	-0.016690832
54	0xbca6bd38	-0.020353898
55	0xbb6d66a7	-0.0036224516
56	0xbdad9c07	-0.084770255
57	0x3e02b292	0.12763432
58	0x3bce1780	0.0062894225
59	0xbdc03bc3	-0.09386399
60	0xbdfceed5	-0.12350241
61	0xbe1f81e4	-0.15576893
62	0x3cc37ff9	0.023864733
63	0xbe320b0a	-0.17387024
64	0xbd89f671	-0.06736458
65	0xbe0e0537	-0.13869177
66	0xbc88cf06	-0.016700279
67	0xbe021579	-0.12703504
68	0xbdf71b6a	-0.12065776
69	0xbddfd44e	-0.10929166
70	0xbe554149	-0.20825686
71	0x3d9a7820	0.07542443
72	0x3e25a729	0.16177048
73	0xbe89a46b	-0.26883253
74	0xbe75a12d	-0.23987265
75	0x3e85e684	0.26152432
76	0x3d6c6550	0.057713807
77	0xbdc4dca8	-0.09612399
78	0xbcef1d6e	-0.029188838
79	0x3c2f48cd	0.010698509
80	0x3d9da9f4	0.076984316
81	0x3da8d9fb	0.082447015
82	0xbe474bd7	-0.19462524
83	0xbe89b5bd	-0.26896468
84	0x3d5303f5	0.051517446
85	0xbde98572	-0.11402406
86	0x3e005deb	0.12535827
87	0xbd9658b4	-0.073411375
88	0x3d93f03e	0.07223557
89	0x3e94f155	0.29090372
90	0x3cdb613f	0.026779769
91	0x3cdc7256	0.026909988
92	0xbdb154cc	-0.08658752
93	0x3e3848dd	0.17996545
94	0x3d9aedd3	0.075648926
95	0xbd936f6c	-0.071989864
96	0x3d2fbe6e	0.042906217
97	0xbe0fe0d3	-0.14050607
98	0xbe9173b9	-0.28408602
99	0xba088e74	-0.00052092155
100	0x3d6b5df2	0.05746264
101	0x3e377330	0.17915034
102	0x3cc3d2c1	0.023904206
103	0xbd6987ab	-0.05701415
104	0x3dea6485	0.11444954
105	0xbd830156	-0.06396739
106	0xbe12dfdb	-0.14343207
107	0xbdaf54d2	-0.085611
108	0xbd0334e0	-0.032032847
109	0x3d274a73	0.040842485
110	0xbd017f15	-0.031615335
111	0xbdfc1f16	-0.12310617
112	0xbdfe8297	-0.12427252
113	0xbdeb6dcb	-0.11495551
114	0xbead9112	-0.33899742
115	0xbe468b5b	-0.19389097
116	0xbe626050	-0.22107053
117	0x3cef829d	0.029237086
118	0x3cfe43a6	0.031038117
119	0x3b192c72	0.0023372439
120	0x3df8c267	0.12146454
121	0xbce28e57	-0.027655764
122	0x3d9a904f	0.07547056
123	0x3dc9754e	0.09836827
124	0xbc7407d6	-0.014894446
125	0x3aa37320	0.0012470223
126	0x3e2e000e	0.16992208
127	0x3a0310b1	0.00049997406
128	0x3e2f9e8e	0.17150328
129	0x3b6783ad	0.0035326288
130	0xbddd3776	-0.10801594
131	0x3e0eaea4	0.13933808
132	0x3d51166e	0.05104678
133	0x3dddad69	0.10824091
134	0x3e4a2108	0.19739163
135	0x3dc6d83f	0.097092144
136	0x3d788d33	0.060681533
137	0x3dfb27f6	0.12263481
138	0x3c8863d5	0.016649166
139	0x3decd8a6	0.1156476
140	0x3d816634	0.06318322
141	0x3ca5ab9b	0.02022343
142	0xbc38dd47	-0.011283225
143	0xbe52dd62	-0.20592263
144	0x3d67edff	0.056623455
145	0xbc0354d8	-0.008015834
146	0x3d1cc65a	0.0382751
147	0x3d964b06	0.07338528
148	0x3df73326	0.12070303
149	0x3d2f2b00	0.042765617
150	0xbd88a1d9	-0.06671495
151	0xbd67f0df	-0.056626197
152	0x3cd057ab	0.025432428
153	0x3d5a6fce	0.05332928
154	0xbdadc56a	-0.08484919
155	0x3c98670d	0.018603826
156	0xbbd46da9	-0.006482799
157	0xbe12a5d4	-0.14321071
158	0x3d33fde7	0.043943312
159	0xbbcbdfbf	-0.006221741
160	0xbcda50be	-0.026649829
161	0xbd0d2cbf	-0.0344665
162	0xbe1f8367	-0.1557747
163	0x3d0cff2f	0.03442305
164	0xbbd1ab22	-0.0063985744
165	0xbe0c1d45	-0.1368304
166	0x3e010664	0.12600094
167	0x3db63d0d	0.08898363
168	0xbe8509d3	-0.25984058
169	0xbd802758	-0.06257504
170	0xbe05f32f	-0.13081048
171	0x3e7447d2	0.23855522
172	0x3d55bca9	0.052181873
173	0x3d913fe4	0.07092264
174	0x3dc794a9	0.097451515
175	0x3da5f6b6	0.08103697
176	0x3e0baffe	0.13641354
177	0x3e0fe6b2	0.14052847
178	0x3e2b686a	0.1673905
179	0x3d39dcf1	0.04537672
180	0x3dcf8bbd	0.10134075
181	0x3e188661	0.14895011
182	0xbe08a99f	-0.13345955
183	0xbe3ccf04	-0.18438345
184	0x3d8abbc0	0.06774092
185	0xbdccc896	-0.09999196
186	0xbbad1586	-0.005282107
187	0xbd9de8a8	-0.07710391
188	0xbe00f096	-0.12591776
189	0xbde3f4dc	-0.111306876
190	0xbe82948b	-0.25503954
191	0xbd03f124	-0.03221239
192	0x3e0757ec	0.13217133
193	0xbc9e9cdf	-0.019361911
194	0x3d8eb7e9	0.06968672
195	0x3d63311e	0.055466764
196	0x3d81db85	0.06340698
197	0x3c2f11a0	0.0106853545
198	0xbdcbaa7d	-0.099446274
199	0xbd8e4d56	-0.069483444
200	0xbd794142	-0.06085325
201	0xbe6e90d6	-0.23297438
202	0xbda7741c	-0.08176443
203	0xbd01015f	-0.03149545
204	0xbcadb81a	-0.02120595
205	0x3d8dc468	0.06922227
206	0x3d0864e9	0.03329936
207	0xbdfe7ca0	-0.12426114
208	0x3d1f9cf1	0.03896803
209	0xbd27220b	-0.04080395
210	0xbe2c351d	-0.16817136
211	0x3da21d39	0.0791573
212	0xbe111596	-0.1416839
213	0xbe5b023a	-0.21387568
214	0xbe1b1074	-0.15142995
215	0xbe3bd676	-0.18343529
216	0xbe4cabf0	-0.19987464
217	0xbe0d8b25	-0.1382261
218	0xbe09c637	-0.13454519
219	0xbdada5de	-0.08478902
220	0x3c03102a	0.007999459
221	0xbe31b3d5	-0.17353757
222	0x3de36273	0.11102762
223	0xbd95979a	-0.07304306
224	0xbdcc778e	-0.09983741
225	0xbd940e5c	-0.07229301
226	0xbd36d33d	-0.044635046
227	0x3e2ab7f6	0.16671738
228	0xbe818c9a	-0.25302583
229	0xbe3b95fd	-0.18318935
230	0x3d9da12f	0.07696759
231	0x3cb56d72	0.022146914
232	0x3c323f9d	0.010879424
233	0x3df76be1	0.12081123
234	0xbc9be3b6	-0.01902948
235	0xbd0e7598	-0.034780115
236	0x3df6f663	0.12058713
237	0xbd2ef1fd	-0.042711247
238	0x3c32281c	0.010873821
239	0x3cd39ca9	0.025831537
240	0x3ab2da72	0.0013645424
241	0x3df8a1d9	0.12140245
242	0xbc8fc0ce	-0.017547991
243	0x3d3ac110	0.045594275
244	0x3b901a71	0.0043976833
245	0xbe6b2ee3	-0.22967105
246	0x3d6f8307	0.058474567
247	0x3ddb79cb	0.107165895
248	0xbd8bf20a	-0.06833275
249	0xbcfb53cf	-0.030679611
250	0xbd4c3f0a	-0.049864806
251	0xbe0df3e8	-0.13862574
252	0xbe0764e3	-0.13222079
253	0xbda8b758	-0.08238095
254	0xbdf943d1	-0.12171138
255	0x3da9c036	0.082886145

rb2.conv2.bias f4 [20]
0	0xb7394803	-1.1043626e-05
1	0x38054f60	3.1783595e-05
2	0xb845a6fc	-4.7123976e-05
3	0xb7c88004	-2.390147e-05
4	0xb71b9fca	-9.275924e-06
5	0xb89b8d38	-7.41728e-05
6	0x36acdaf0	5.151487e-06
7	0xb746fb15	-1.1860179e-05
8	0xb90c84bb	-0.00013400886
9	0xb7ee06c0	-2.8374954e-05
10	0x38900f5b	6.869315e-05
11	0x38a20559	7.725758e-05
12	0x37f1a9ee	2.8808568e-05
13	0xb8f57e1c	-0.00011706
14	0xb8c98304	-9.6088304e-05
15	0x38a2a944	7.75629e-05
16	0xb8e08c43	-0.00010707278
17	0x37abb2a7	2.046798e-05
18	0xb8f4b6e8	-0.000116688956
19	0x3821938d	3.852281e-05

rb2.bn2.weight f4 [20]
0	0x3f5e0c2f	0.8673734
1	0x3f745265	0.95438224
2	0x3f9b045e	1.2110708
3	0x3f904081	1.1269685
4	0x3f9a40f1	1.2051069
5	0x3f8a4829	1.0803272
6	0x3f9f679c	1.2453494
7	0x3f9d8f29	1.2309314
8	0x3f9fd154	1.2485757
9	0x3f98095f	1.187786
10	0x3f9c1742	1.2194598
11	0x3f810b86	1.0081642
12	0x3f979d49	1.1844875
13	0x3f80537f	1.0025481
14	0x3f8ea60a	1.1144421
15	0x3fa7a69f	1.3097724
16	0x3fadbb78	1.3572836
17	0x3fa84acc	1.3147826
18	0x3f9012fd	1.1255795
19	0x3f61a252	0.88138306

rb2.bn2.bias f4 [20]
0	0x3e2d62b9	0.16932191
1	0x3d069002	0.03285218
2	0xbe583804	-0.21115118
3	0xbca2c4e7	-0.019869281
4	0xbdc334a8	-0.09531528
5	0xbe2f810f	-0.17139076
6	0x3db6542d	0.08902774
7	0xbe6f7868	-0.23385775
8	0x3e5a56b0	0.21322131
9	0xbe0d9055	-0.1382459
10	0x3cb3d6be	0.021952983
11	0xbe14233c	-0.14466566
12	0xbc3ac36b	-0.01139913
13	0x3d5f76c2	0.054556616
14	0xbca794ec	-0.020456754
15	0x3e12214c	0.14270514
16	0xbc7e25bb	-0.015511925
17	0xbdfb16e2	-0.12260224
18	0x3d984f64	0.074370176
19	0xbe8c269d	-0.2737321

rb2.bn2.running_mean f4 [20]
0	0xbf222a98	-0.6334624
1	0xc008d8e1	-2.1382372
2	0xbf9a96f8	-1.2077322
3	0xbf93b881	-1.1540681
4	0xbf58a3a7	-0.84624714
5	0x3e0ceace	0.13761446
6	0xbfb0cca6	-1.3812454
7	0x3eb17492	0.3465925
8	0xc043e8cb	-3.0610836
9	0xbe06b5c1	-0.13155271
10	0xbf85156d	-1.0397164
11	0x3e328253	0.17432527
12	0xbfec2776	-1.8449543
13	0xbf22f783	-0.6365892
14	0x3e99d2c0	0.30043602
15	0xbfba4251	-1.4551488
16	0xc0375d50	-2.8650703
17	0xbe291e1f	-0.16515397
18	0xc01c9d0b	-2.4470851
19	0x3e60c600	0.21950531

rb2.bn2.running_var f4 [20]
0	0x3f744896	0.9542326
1	0x3f859dc7	1.0438775
2	0x3f4c5619	0.79818875
3	0x3f876280	1.0576935
4	0x3f48828b	0.7832419
5	0x3f94dc35	1.1629702
6	0x3fa56a12	1.2922995
7	0x3f393fc3	0.7236292
8	0x3fb13ae2	1.3846095
9	0x3f87f289	1.0620891
10	0x3f5735ec	0.84066653
11	0x3f5d51a0	0.86452675
12	0x3f30eafb	0.6910855
13	0x3f9a02d7	1.2032117
14	0x3faf5083	1.3696445
15	0x3f834994	1.0256829
16	0x3f75a9a3	0.9596197
17	0x3f86c018	1.0527372
18	0x3f8094ba	1.0045388
19	0x3f405aec	0.75138736

rb2.shortcut.conv.weight f4 [20, 10, 1, 1]
0	0xbd2a625b	-0.041597705
1	0xbdcb7ca5	-0.099358834
2	0xbece8118	-0.40332866
3	0xbdb5b1ac	-0.08871779
4	0x3efd6b7d	0.4949607
5	0xbc2c23a2	-0.010506542
6	0x3bb64ebe	0.005563586
7	0x3b68f835	0.0035548334
8	0xbc6da2cd	-0.014504147
9	0xbe81b8f5	-0.25336424
10	0xbdb91801	-0.090377815
11	0x3dda2a1c	0.10652563
12	0xbf1eb42d	-0.61993676
13	0x3d887f01	0.06664849
14	0xbe0c14e0	-0.13679838
15	0xbe72b0ec	-0.23700303
16	0xbd3e489c	-0.046455964
17	0xbc2c5681	-0.010518671
18	0xbb0628b3	-0.0020471036
19	0xbbbb5417	-0.0057168114
20	0xbdb4d6fd	-0.08830068
21	0xbdfd4c3b	-0.123680554
22	0xbce748e7	-0.028233005
23	0xbcb4fce3	-0.022093242
24	0x3d5e3e3d	0.054258574
25	0x3eca3d6b	0.39499983
26	0x3e17d18e	0.14826033
27	0x3dc32b1e	0.09529708
28	0xbe246127	-0.16052686
29	0xbebb4ac2	-0.36580473
30	0xbd247605	-0.040151615
31	0x3c81c555	0.015841166
32	0x3eaba773	0.3352619
33	0x3e079c28	0.13243163
34	0x3e4084e1	0.1880069
35	0xbe079886	-0.13241777
36	0x3e8a751b	0.2704247
37	0x3e5e75ae	0.21724579
38	0x3ed92dac	0.42417657
39	0xbe20c324	-0.1569944
40	0xbe1bbd69	-0.15208973
41	0x3d6480c5	0.055786867
42	0x3da4dc4a	0.08049829
43	0x3ecca225	0.39967456
44	0x3d42a586	0.047521137
45	0xbd8b6627	-0.068065934
46	0xbd3b50ee	-0.045731477
47	0xbd83432c	-0.064092964
48	0x3ec39d84	0.38206112
49	0xbe03d060	-0.12872458
50	0x3e878bc4	0.2647382
51	0x3e3b5fa0	0.18298197
52	0xbdeadc8a	-0.11467846
53	0xbeb67280	-0.35634232
54	0xbd814800	-0.06312561
55	0xbda98119	-0.082765765
56	0x3e55deca	0.20885769
57	0xbe1f2b5d	-0.15543886
58	0xbe2b411f	-0.1672406
59	0xbed1fd00	-0.41013336
60	0xbdeaff3d	-0.11474464
61	0x3e149bc7	0.1451255
62	0x3d34d18f	0.044145163
63	0xbe9926ef	-0.29912516
64	0x3bc8d519	0.006128919
65	0xbecfc161	-0.40577224
66	0xbe8dfc5e	-0.27731603
67	0x3d73058e	0.05933147
68	0x3e85f48a	0.2616313
69	0xbda4df32	-0.080503836
70	0x3e29bec4	0.16576678
71	0x3e4d9bd0	0.20078969
72	0xbbee7d37	-0.0072781104
73	0xbd865361	-0.06558872
74	0xbe379c30	-0.17930675
75	0xbdc0378c	-0.09385595
76	0xbe999dc1	-0.3000317
77	0x3d311525	0.043233056
78	0xbf19fb22	-0.60148823
79	0xbe40060c	-0.18752307
80	0xbdf234fa	-0.11826511
81	0x3ded2eac	0.115811676
82	0xbdbf187e	-0.093308434
83	0xbdc7c694	-0.09754673
84	0xbf34268c	-0.7037132
85	0xbdbeebd5	-0.09322325
86	0x3b231d3c	0.0024889251
87	0x3e88cbfc	0.26718128
88	0xbded08a0	-0.11573911
89	0x3c9a10f5	0.018806914
90	0xbe830eb1	-0.25597146
91	0x3eba770a	0.36418945
92	0xbe2b3452	-0.16719177
93	0xbe4b9795	-0.19882043
94	0x3e42f70c	0.19039553
95	0xbde915ca	-0.11381109
96	0xbcb46634	-0.02202139
97	0x3dfb2d85	0.122645415
98	0xbb63e422	-0.003477343
99	0xbecae24d	-0.3962578
100	0x3cea60f4	0.028610684
101	0x3dc79881	0.09745885
102	0xbed9d10d	-0.42542306
103	0x3e882b15	0.2659537
104	0xbe9606a8	-0.29301953
105	0xbdfd89b2	-0.12379779
106	0x3e905931	0.28193048
107	0x3da642f5	0.0811824
108	0x3e0af508	0.13570035
109	0x3d99c6cb	0.0750862
110	0x3c9ae64d	0.018908644
111	0xbd2f5d14	-0.042813376
112	0xbea495c2	-0.32145506
113	0x3e7e066a	0.24807134
114	0x3e82ca61	0.25545028
115	0x3e80094c	0.25007093
116	0xbdd7fa42	-0.1054578
117	0xbdf2c7fd	-0.11854551
118	0x3e17c31b	0.1482052
119	0xbe311d50	-0.17296338
120	0xbdbd4341	-0.09241343
121	0xbebbe1dc	-0.36695755
122	0x3e661695	0.22469552
123	0x3ead5adf	0.33858392
124	0xbd951b68	-0.07280618
125	0x3c3eaf7e	0.01163852
126	0x3d7c8092	0.06164605
127	0xbdf83813	-0.1212007
128	0xbec23973	-0.37934455
129	0x3de4f59a	0.11179657
130	0xbd594c13	-0.053051066
131	0xbe411c53	-0.18858461
132	0xbe05fa40	-0.13083744
133	0xbdcc990c	-0.09990129
134	0x3d89762e	0.06711994
135	0x3e084c96	0.13310465
136	0x3de834dc	0.11338207
137	0x3dce13e0	0.100623846
138	0xbf206394	-0.62651944
139	0xbe13648a	-0.14393821
140	0x3cafa950	0.02144304
141	0xbe81ec8a	-0.25375777
142	0xbc1999ab	-0.009375016
143	0xbe449c18	-0.1920017
144	0xbae11a10	-0.0017173905
145	0xbeb9486e	-0.36188072
146	0xbecca9ec	-0.3997339
147	0xbde80d20	-0.113306284
148	0xbdc911d1	-0.09817851
149	0x3e4b5512	0.1985667
150	0x3ebf98c6	0.37421244
151	0xbec295d0	-0.38004923
152	0x3e6c2010	0.23059106
153	0x3e0bbf6e	0.13647243
154	0xbe145746	-0.14486417
155	0x3e164dce	0.14678118
156	0x3e093a3e	0.13401124
157	0xbe108b76	-0.141157
158	0xbe893bfd	-0.2680358
159	0xbd20dd1a	-0.03927336
160	0x3e32035a	0.17384091
161	0x3ea770bc	0.32703197
162	0xbdf6c0bc	-0.1204848
163	0x3d987e03	0.0744591
164	0xbc9e133a	-0.019296277
165	0x3e8ada06	0.27119464
166	0x3e48a2a2	0.1959329
167	0x3de66072	0.11248864
168	0x3dd80d0d	0.10549364
169	0xbcabcadf	-0.02097076
170	0x3d940401	0.07227326
171	0x3da835cc	0.08213386
172	0xbe8f5025	-0.27990833
173	0x3e1a56e4	0.15072209
174	0x3d2784dc	0.04089819
175	0x3e6ffd9d	0.2343659
176	0x3e80c421	0.25149634
177	0x3ed8f44f	0.42373893
178	0x3e284e99	0.16436233
179	0xbde97890	-0.113999486
180	0x3d2e20cc	0.042511746
181	0x3dda6e95	0.10665623
182	0xbcaa6246	-0.020798814
183	0xbe81b531	-0.2533355
184	0xbce72b63	-0.02821893
185	0x3d0cf086	0.03440907
186	0x3d01a9f9	0.03165624
187	0xbe9c6ed4	-0.30553305
188	0xbf004f83	-0.50121325
189	0xbdeb6a6d	-0.114949085
190	0xbe74f624	-0.2392202
191	0xbe11ab2f	-0.14225458
192	0x3ec5b272	0.38612705
193	0xbcafa283	-0.021439796
194	0x3e160d93	0.14653616
195	0xbdadd17f	-0.08487224
196	0x3dc15639	0.09440274
197	0xbded2424	-0.11579159
198	0xbe5f3c3a	-0.21800318
199	0x3dae743a	0.08518262

rb2.shortcut.conv.bias f4 [20]
0	0x36a35db8	4.868689e-06
1	0x386380ea	5.4241078e-05
2	0x364dd4c8	3.0671235e-06
3	0x37c0f337	2.300144e-05
4	0x38419262	4.6151115e-05
5	0xb907d9f8	-0.00012955803
6	0xb83516d8	-4.3175038e-05
7	0x36356fd8	2.7036203e-06
8	0x38222d4c	3.8665996e-05
9	0xb863f599	-5.4349748e-05
10	0x374ebf5b	1.232311e-05
11	0xb83b9a0e	-4.472775e-05
12	0x38185a49	3.632371e-05
13	0xb943b105	-0.00018662594
14	0x391fd1df	0.00015241605
15	0xb83587d6	-4.328027e-05
16	0xb7f1c348	-2.8820374e-05
17	0xb81fdf6b	-3.811663e-05
18	0xb80b7340	-3.3247517e-05
19	0x391073ac	0.00013776001

rb2.shortcut.bn.weight f4 [20]
0	0x3f76a362	0.9634305
1	0x3f36e5e1	0.7144452
2	0x3f6bb57e	0.9207381
3	0x3f12029f	0.5703525
4	0x3f35548f	0.7083215
5	0x3f3fe920	0.74965096
6	0x3f1cf01c	0.6130388
7	0x3f49390e	0.78602684
8	0x3f534451	0.8252612
9	0x3f608eb6	0.8771776
10	0x3f17efe1	0.593504
11	0x3f37a4cb	0.7173583
12	0x3f071ef8	0.5278163
13	0x3f658c4c	0.896672
14	0x3f8ca8af	1.0988978
15	0x3f023ece	0.5087708
16	0x3f33beac	0.7021282
17	0x3f103f77	0.5634684
18	0x3ec2c146	0.3803808
19	0x3f439d4a	0.7641188

rb2.shortcut.bn.bias f4 [20]
0	0x3e2d62b9	0.16932191
1	0x3d069002	0.03285218
2	0xbe583804	-0.21115118
3	0xbca2c4e7	-0.019869281
4	0xbdc334a8	-0.09531528
5	0xbe2f810f	-0.17139076
6	0x3db6542d	0.08902774
7	0xbe6f7868	-0.23385775
8	0x3e5a56b0	0.21322131
9	0xbe0d9055	-0.1382459
10	0x3cb3d6be	0.021952983
11	0xbe14233c	-0.14466566
12	0xbc3ac36b	-0.01139913
13	0x3d5f76c2	0.054556616
14	0xbca794ec	-0.020456754
15	0x3e12214c	0.14270514
16	0xbc7e25bb	-0.015511925
17	0xbdfb16e2	-0.12260224
18	0x3d984f64	0.074370176
19	0xbe8c269d	-0.2737321

rb2.shortcut.bn.running_mean f4 [20]
0	0xbeca0ff9	-0.3946531
1	0xbf6bf417	-0.92169327
2	0xbdc37875	-0.0954446
3	0x3f821f18	1.0165739
4	0x3eaf6bfb	0.3426207
5	0xbf37f1af	-0.71853155
6	0xbf1b7faf	-0.60741705
7	0xbf6bc497	-0.9209685
8	0xbf35fc31	-0.7108794
9	0xbf0ce830	-0.5504179
10	0x3ca7fca1	0.020506205
11	0x3d96babd	0.07359836
12	0xbe153615	-0.14571412
13	0xbf271258	-0.65262365
14	0xbf704e39	-0.9386936
15	0x3dd45978	0.10368627
16	0x3f5c9428	0.8616357
17	0x3f51bbfb	0.8192746
18	0xbf5f8b31	-0.87321764
19	0xbbfe6a92	-0.007764169

rb2.shortcut.bn.running_var f4 [20]
0	0x3f017bbd	0.50579435
1	0x3ede4dcd	0.43418732
2	0x3ec3de34	0.38255465
3	0x3f08e389	0.5347219
4	0x3ed1e2cc	0.40993345
5	0x3ee87898	0.45404506
6	0x3ed64803	0.41851816
7	0x3f12f96a	0.57411826
8	0x3ece2de4	0.40269387
9	0x3e9b17e1	0.30291656
10	0x3ef0496d	0.4693102
11	0x3e991a34	0.29902804
12	0x3e8145aa	0.25248462
13	0x3f233a38	0.6376071
14	0x3f019c07	0.50628704
15	0x3eb990d5	0.3624331
16	0x3ea518a9	0.32245377
17	0x3eec62b1	0.46169046
18	0x3f0cb99f	0.54970735
19	0x3e2b7465	0.1674362

res1_sc1.conv.weight f4 [20, 3, 1, 1]
0	0xbf0c5acf	-0.5482606
1	0x3db9f44c	0.09079799
2	0x3eacb76f	0.337337
3	0xbe7ef825	-0.24899347
4	0x3f0eb696	0.55747354
5	0xbe76773d	-0.24068923
6	0x3ca3a23e	0.019974824
7	0xbe9e7bd1	-0.3095384
8	0xbed91af1	-0.42403367
9	0x3ec9a23d	0.3938159
10	0xbeb75f86	-0.35815066
11	0xbe9f5bf4	-0.31124842
12	0x3eef01e1	0.4668112
13	0xbe1eba80	-0.15500832
14	0x3e7b8eaa	0.24566141
15	0xbf10ac18	-0.56512594
16	0xbeb7e453	-0.35916385
17	0x3eae8c0a	0.34091216
18	0xbe42b695	-0.19014962
19	0x3ecdb781	0.40179065
20	0x3f0449b5	0.5167497
21	0x3ebffcb5	0.37497488
22	0xbf14006b	-0.5781314
23	0xbea7a996	-0.3274657
24	0x3e2ee5e9	0.17079891
25	0x3f0dac00	0.55340576
26	0xbe3d60db	-0.18493979
27	0x3e8b56a2	0.27214533
28	0xbe7896bd	-0.24276252
29	0xbec8f54e	-0.39249653
30	0xbda5b848	-0.080917895
31	0xbe7cad9d	-0.24675603
32	0xbedf5ba4	-0.43624604
33	0x3e1e0bcf	0.15434192
34	0xbdb235d6	-0.08701675
35	0xbeda1a63	-0.42598256
36	0xbec8f088	-0.3924601
37	0xbe546c7a	-0.20744506
38	0xbd4f2c38	-0.05057928
39	0x3ceb1041	0.028694274
40	0xbe2c93b7	-0.16853224
41	0xbefe4f4b	-0.4966987
42	0xbe57afae	-0.2106311
43	0x3e6db4fa	0.23213568
44	0x3ece96c4	0.403494
45	0x3ecd2ce7	0.4007332
46	0x3e40f2be	0.18842599
47	0xbe7d2683	-0.24721722
48	0x3da676a2	0.08128096
49	0xbeb5cb1b	-0.3550652
50	0x3d6a6891	0.05722863
51	0x3d591203	0.052995693
52	0xbebcb5ce	-0.36857456
53	0x3d65949e	0.056049936
54	0x3e883b8c	0.2660793
55	0x3ea993d2	0.3312059
56	0xbd782ed8	-0.06059155
57	0xbf068202	-0.52542126
58	0x3e0c0ee8	0.13677561
59	0x3dc3b354	0.095556885

res1_sc1.conv.bias f4 [20]
0	0x39a5f30a	0.0003165233
1	0x3a21db00	0.0006174296
2	0xb9125c02	-0.0001395792
3	0x394263aa	0.0001853841
4	0x3690119e	4.2935853e-06
5	0xb864db7c	-5.4563847e-05
6	0x38066f1a	3.205156e-05
7	0xb8cbc00a	-9.7155644e-05
8	0x392f80e8	0.00016737322
9	0xb96dcecf	-0.00022679124
10	0x387b6155	5.993371e-05
11	0x38d5f712	0.00010202652
12	0x390587b7	0.00012734426
13	0xb77fe6e7	-1.5252946e-05
14	0x394c55d0	0.00019486924
15	0x3898c955	7.285426e-05
16	0xb70e181a	-8.469471e-06
17	0xb94a296d	-0.00019279653
18	0xb7cc2f65	-2.4340765e-05
19	0x38708484	5.7343874e-05

res1_sc1.bn.weight f4 [20]
0	0x3f5de7c3	0.86681765
1	0x3f6cc809	0.9249273
2	0x3f389677	0.7210459
3	0x3f1ba723	0.60801905
4	0x3f0f46ba	0.55967295
5	0x3f24b873	0.6434395
6	0x3f168a46	0.5880474
7	0x3f270345	0.65239364
8	0x3f297ddb	0.66207665
9	0x3f2eda03	0.6830141
10	0x3f1c7bad	0.61126214
11	0x3f1f36aa	0.62192786
12	0x3f0a6d71	0.54073244
13	0x3f282185	0.65676147
14	0x3f2da4ad	0.678294
15	0x3ed83fdd	0.42236224
16	0x3f1762f6	0.5913538
17	0x3f0c56f9	0.5482021
18	0x3ef07780	0.4696617
19	0x3f574e53	0.8410389

res1_sc1.bn.bias f4 [20]
0	0x3e2d62b9	0.16932191
1	0x3d069002	0.03285218
2	0xbe583804	-0.21115118
3	0xbca2c4e7	-0.019869281
4	0xbdc334a8	-0.09531528
5	0xbe2f810f	-0.17139076
6	0x3db6542d	0.08902774
7	0xbe6f7868	-0.23385775
8	0x3e5a56b0	0.21322131
9	0xbe0d9055	-0.1382459
10	0x3cb3d6be	0.021952983
11	0xbe14233c	-0.14466566
12	0xbc3ac36b	-0.01139913
13	0x3d5f76c2	0.054556616
14	0xbca794ec	-0.020456754
15	0x3e12214c	0.14270514
16	0xbc7e25bb	-0.015511925
17	0xbdfb16e2	-0.12260224
18	0x3d984f64	0.074370176
19	0xbe8c269d	-0.2737321

res1_sc1.bn.running_mean f4 [20]
0	0xbc861abe	-0.016370174
1	0x3b528048	0.0032119919
2	0x3db85fe5	0.090026654
3	0x3d4a37d7	0.04936966
4	0xbd6b62cc	-0.057467267
5	0x3cd5cd16	0.02609877
6	0xbdcb51c3	-0.09927704
7	0x3d96da1d	0.073658206
8	0xbd182767	-0.037146952
9	0x3d759412	0.059955664
10	0x3dbfd02b	0.09365877
11	0x3d72e6a6	0.059301995
12	0x3d6804ca	0.056645192
13	0x3db22c7e	0.086998925
14	0xbd859fb4	-0.065246016
15	0xbc3ac15a	-0.011398638
16	0x3c95f046	0.018303048
17	0x3cb23602	0.021754269
18	0xbd2c7df3	-0.042112302
19	0x3c575766	0.013143396

res1_sc1.bn.running_var f4 [20]
0	0x3ca695c8	0.020335093
1	0x3bb0aba5	0.0053915554
2	0x3e00372f	0.12521051
3	0x3cfd9fb2	0.030959938
4	0x3d951056	0.072785065
5	0x3dc1296e	0.0943173
6	0x3e0e5d69	0.1390282
7	0x3da5763d	0.08079193
8	0x3d91cfaa	0.07119687
9	0x3d3029ae	0.0430085
10	0x3e0fcc50	0.14042783
11	0x3d23a138	0.039948672
12	0x3dc8b699	0.09800453
13	0x3dd45a57	0.103687935
14	0x3d599fcc	0.05313091
15	0x3d0f44b7	0.03497764
16	0x3c44e457	0.012017331
17	0x3c87f259	0.016595053
18	0x3d8ad95e	0.06779741
19	0x3cdbf405	0.026849756
