models/dense_max/epoch_0016.pth (torch, 645162 bytes, 174 tensors)

rb1.conv1.weight f4 [10, 3, 3, 3]
00000000: c309 9fbd ddb1 a83d eaf8 a2bd 9faa 6fbe
00000010: a30e 893e f1db 3a3e 3863 4cbe b0a1 443e
00000020: 59b2 f6bd 1b82 2ebe a167 883c 7c8e 2abd
00000030: 2bd2 9fbe 32a6 8f3e 7592 2c3e 935b 64bc
00000040: 3bc1 8c3e f9cc 6cbe 5882 98bc 10ff b13b
00000050: 9b64 b4bd 50d9 68be 0436 3c3d 28d6 873c
00000060: a92c 083e dc76 883d becc 113e 8f0f 613d
00000070: b1ee c23c 6496 283e c17c 823d 0d80 0c3e
00000080: 1c6d b2be 4e43 84bd 9b9d 2a3d f6c7 adbd
00000090: d511 30bd 73b4 acbc 4d01 32bc 1d15 11bd
000000a0: ec33 da3e cec5 65be eb18 5fbd 12be c53d
000000b0: 3a9a 0bbe 6252 12be a661 31be 51a0 eb3d
000000c0: aa3a 733c c1e2 b23e a5e5 88be 5137 f9bb
000000d0: ee68 cb3d 45a2 2c3d 801e e53c 01c1 8a3e
000000e0: 2e33 433e 9e82 09be 73a7 96bd ecc1 cd3d
000000f0: 6726 79bd 0dd7 5dbe 8c3a 953c af0a 7c3e
00000100: 68d9 713e 20c0 a03e 2594 6e3b 2a84 33be
00000110: e767 edbd 1047 e8bd 216e 89be 6e73 36be
00000120: c147 863d 0539 2c3e 157a 6b3d 2b15 9f3b
00000130: 82d0 34bd afaa c3bd 64f8 d43d 061e 4ebe
00000140: 3ef3 f4bd 1b02 45be d4c7 003d 92f0 2fbe
00000150: 1ae7 a03d 5211 9bbe ad86 26be 9ee7 333d
00000160: 2642 cc3d 74ac 273e 257e edbd 5303 26be
00000170: 7458 32be 1028 5f3e 5dfe 86be 8781 f3bd
00000180: 54bb 873e f00d a03c 5f9a a93c 7769 64bd
00000190: 1614 983c 546d 1bbe dae6 443c 0413 29be
000001a0: 56a6 fcbd 8171 393e b525 a13c 5560 6e3e
000001b0: 940c 7cbe 306e 6cbe bd85 483e 0db7 a8bd
000001c0: 22e2 30be 1b2b 153e 6e45 dfbd b615 1bbc
000001d0: 628d 663e cfbc 643e a7db 67be b930 b9bd
000001e0: 0f50 a1bd 3073 85bc 8475 2b3e 657e c53d
000001f0: 313e f73d 9157 023e d044 823e ff72 973d
00000200: 5d76 a8bd 0b51 5e3e 3493 e23c 1dd4 91be
00000210: a9a0 173e 110a dd3c 3c40 36be c064 41be
00000220: 1cac 14be b212 0d3e 99a9 8b3c ac77 13be
00000230: 8fa5 563c 954a e83d 1e8f c6bd 1f3a cc3c
00000240: 6428 6b3d d186 3c3e c68e 653e 1343 75bd
00000250: 6edb e4be bc1e e5bd 9925 263e 3547 07be
00000260: ec66 a8be 8dd0 823c cfb6 afbd 7860 693e
00000270: 2e3a b9bd 0eac 3bbe 1832 00bc d78f 64be
00000280: 9c0d acbe 7ba6 7f3c 838d ddbc f84f 37bd
00000290: a3d4 e73d ed6d a13d ffce 443e 4080 e3bd
000002a0: 4933 b6bc 6fcf 14bd 76aa f03c 476e 803d
000002b0: 5ee6 ae3c 25b9 ae3d 1873 023e 2f1e 8f3e
000002c0: a945 78bd 0cbd 253d ecae 423d 823a 32be
000002d0: a648 85be 4e26 1ebe 1769 b6bd 7f65 cdba
000002e0: 9b82 e13d 4058 1b3e ec11 8ebd 9a64 cb3e
000002f0: 6332 903e 232e 1d3c cbcc 0cbe a58a 453e
00000300: 8a70 85be 9eb6 79bd c77b 6e3d 28ab 673e
00000310: 97de 64bd 5cde 3e3e 6714 f53d 2d1e 91bc
00000320: ab98 4f3e fc2e 63be 94f3 c1be b78c ebbb
00000330: 61cc 1e3e c6be 053e 0bd1 81be 5b58 f6bd
00000340: 8ea7 babd 6be8 933d d4de a9bd 7b6c 15be
00000350: 9889 bd3e 8f58 8b3e 11fc bcbd 7519 fdbc
00000360: 97b6 90be 82d6 c93d e214 82bb 1454 abbc
00000370: cba3 473e 2037 983e fdce a5bc 067a 153e
00000380: 6897 72bd a374 c1bd 0037 18be 814a 13be
00000390: 9528 013c b779 053e 4812 58bd f37d 693e
000003a0: cdb2 94be 31c8 47be 5f51 7f3d 5576 c43d
000003b0: d9c1 c9bd 3703 ee3d a9e5 593e 823e 003d
000003c0: abc1 db3c ef80 a13c 5d3a 6dbe fbf6 873e
000003d0: be1a ed3e 7a4d 6f3e b5ab 2a3e ffb0 993e
000003e0: b407 633d 2448 a5bd c021 3dbe 9d8e aabe
000003f0: fb59 303e 92bf 983e 8f2e 4d3d bba3 81bd
-0.07765534 0.0823705 -0.07957633 -0.2340493 0.2676898 0.18247963 -0.19959724 0.19202304
-0.12045736 -0.17041819 0.016650977 -0.04163979 -0.31215033 0.28056484 0.16852744 -0.013937849
0.27491173 -0.23125066 -0.01861684 0.005432017 -0.088082515 -0.22739148 0.04594995 0.01658161
0.13298286 0.066632956 0.14238259 0.05494648 0.023795458 0.1646362 0.06371451 0.13720722
-0.3484887 -0.0645815 0.04165421 -0.08485405 -0.042985756 -0.021082139 -0.010864568 -0.035420526
0.42617738 -0.22438738 -0.054467123 0.09655394 -0.13633052 -0.14289239 -0.17322406 0.11505187
0.01484553 0.34938625 -0.26737705 -0.007605471 0.09932123 0.04214694 0.027968645 0.27100375
0.19062492 -0.13428733 -0.07356157 0.10046753 -0.06082764 -0.21664067 0.018216394 0.2461345
0.2361809 0.3139658 0.003640422 -0.17530885 -0.115920834 -0.11341679 -0.26841834 -0.1781747
0.06556655 0.16818626 0.057489473 0.0048548183 -0.04414416 -0.0955404 0.10398939 -0.2012864
-0.11960457 -0.19239084 0.03144057 -0.17181614 0.07856579 -0.30286652 -0.16262312 0.04392206
0.09973554 0.1637438 -0.11596326 -0.16212206 -0.17416555 0.21792626 -0.2636594 -0.1188994
0.26510108 0.019537896 0.020703493 -0.05576464 0.018564265 -0.15178424 0.01201793 -0.1651116
-0.123364136 0.18109705 0.0196713 0.23278935 -0.24614173 -0.23088908 0.19582267 -0.08238039
-0.17273763 0.14567225 -0.109019145 -0.0094656255 0.22514871 0.2233765 -0.22642384 -0.09042496
-0.07876598 -0.016290277 0.16744047 0.096432485 0.12072409 0.12728716 0.25443125 0.07394981
-0.08225701 0.21710603 0.027658083 -0.28482142 0.1480738 0.02698234 -0.17797941 -0.1888609
-0.1451878 0.13776663 0.017048644 -0.1440112 0.013100996 0.113423504 -0.09695266 0.024930058
0.057411566 0.18410803 0.22417745 -0.05987842 -0.44698662 -0.11187503 0.1622528 -0.13210757
-0.32891023 0.015968585 -0.0857979 0.22790706 -0.090443 -0.18327352 -0.007824443 -0.22320496
-0.33604133 0.015603657 -0.027045017 -0.044754 0.11319854 0.07882295 0.19219588 -0.11108446
-0.022241252 -0.036330637 0.029378157 0.06271034 0.021350082 0.08531407 0.12739217 0.27952716
-0.060613308 0.040463492 0.0475301 -0.17405131 -0.2603199 -0.154443 -0.08906763 -0.0015670507
0.11011239 0.15170383 -0.06937012 0.3972519 0.28163442 0.009593519 -0.13749997 0.1929117
-0.26062423 -0.060965173 0.058223512 0.22623885 -0.05587634 0.18639511 0.11966782 -0.017714584
0.20273082 -0.22185892 -0.37881148 -0.0071884054 0.15507652 0.13061056 -0.253548 -0.12028571
-0.0911399 0.072220646 -0.08294454 -0.14592163 0.37019038 0.27216002 -0.09227765 -0.030895928
-0.28264305 0.09855367 -0.0039697746 -0.020914115 0.19496076 0.29729557 -0.020240301 0.1459733
-0.059226424 -0.09446075 -0.14864731 -0.1438389 0.007883211 0.13034712 -0.05275181 0.22801952
-0.29042664 -0.1950996 0.06233346 0.095928825 -0.09851427 0.11621707 0.21279015 0.031309612
0.026825747 0.0197148 -0.23166795 0.2655562 0.46309465 0.23369399 0.16667064 0.3001785
0.05542727 -0.080704 -0.18469906 -0.3331193 0.17221825 0.29833657 0.05009323 -0.06330057

rb1.conv1.bias f4 [10]
00000000: dbcd 2e39 048d 7d38 8c19 c4b7 ba89 e138
00000010: 81f2 c7b8 cf23 18b9 ce24 ae37 59a6 15b9
00000020: e4e2 e7b9 5dd8 d538
0.0001667062 6.045123e-05 -2.3376917e-05 0.000107544896 -9.534229e-05 -0.0001450919 2.0759555e-05 -0.00014271717
-0.000442288 0.00010196932

rb1.bn1.weight f4 [10]
00000000: 7c85 493f e12e a13f 0bce 593f 8eb8 5d3f
00000010: 4d49 153f 5e5e 4b3f 1e14 2c3f b34a 7e3f
00000020: 2859 543f 0997 2a3f
0.78719306 1.2592431 0.8508002 0.86609733 0.58314973 0.7944087 0.67218196 0.9933273
0.8294854 0.6663671

rb1.bn1.bias f4 [10]
00000000: 827b 9d3e d11d 943f 7647 2f3c c8de 633d
00000010: 7067 7f3d 27d0 68bc 90e5 8bbb 45c1 4e3f
00000020: 5adf 0b3f 797d 0c3e
0.3075829 1.1571599 0.01069819 0.055632383 0.062354505 -0.014209784 -0.0042693093 0.80763656
0.5463768 0.13719739

rb1.bn1.running_mean f4 [10]
00000000: 017a 5dbc e467 12bc fa45 5a3c af7c 033d
00000010: af9c 10bd cd7c 013e b0a2 a5bd 5c2e 8dbb
00000020: 6b59 5ebc 5e4f d4bc
-0.0135178575 -0.008935902 0.013322348 0.03210133 -0.035305675 0.12645264 -0.08087671 -0.004308505
-0.013571124 -0.025916751

rb1.bn1.running_var f4 [10]
00000000: 1a91 993d 1a32 1a3d ef57 3c3e d9d9 803e
00000010: e94d 1d3d ecf5 f63e 3631 6a3e e81c 5b3d
00000020: c1d3 1e3d 7709 dc3e
0.07498379 0.037645437 0.18392919 0.25166205 0.03840438 0.48234499 0.22870335 0.053494364
0.038776163 0.4297597

rb1.conv2.weight f4 [10, 10, 3, 3]
00000000: 66b4 34bd 40a9 46be ccba 4a3b 1bb6 823c
00000010: 464c 19be 2e04 62bd ab9e 8dbc d3e1 16bd
00000020: 8010 97bc 92de 98bb d56a 2b3e 1d51 86be
00000030: 0b9d 8abe 1ff7 babd d511 233e cd28 1c3e
00000040: 7c2c 51be aa16 e73b c5de 1fbe a924 913d
00000050: 0f33 e5bd 2afa d3ba ebcc 57be 30f7 31be
00000060: d222 bb3b f2c7 e03d cf44 063e 22a6 0e3e
00000070: 868c 2c3e 1cdf 0e3e 2940 ba3d 528a e03d
00000080: 7a9a 183d 499e e9bd e8bf 46bd d958 6abe
00000090: 5889 04be 11de 853d 8cac 0fbd c0a6 42bc
000000a0: 26fd cebd e5e6 303c 61b5 82bd 939a 9ebc
000000b0: 53c8 c3bd abed 9e3d d533 753e 2c3e 2e3e
000000c0: 3cd1 f6bc 83ed 353c f93c 11bd a703 4bbd
000000d0: b01c 833d 449b 1b3e 6b3f 54bd 902b b2bc
000000e0: d52c a7bd efaf b9bd a3bb 63be c4ae 8fbd
000000f0: a6ef d53d 43de 9b3d f600 8cbd aa6e b6bc
00000100: c3de 013e dcc2 8e3e d395 5dbd fac0 86be
00000110: 544a c9be ef52 0a3b 2d90 2a3e 7753 b03d
00000120: be46 43bd 1015 26be 9735 d1bd f5fd fe3d
00000130: 0a3d 653d f1b0 be3d 6c46 46be 10d5 66bc
00000140: 9a91 52bd 7a2d 9ebe 2aaa a0be c3bb eebd
00000150: 9696 27be 5e73 10bd 509d 3fbd 3925 15be
00000160: 6c12 a7bd 3ad2 503d 5390 2ebc 1506 e2bd
00000170: e9e5 df3d 616d c1ba 7b1d a63d 5ed2 9a3e
00000180: 02b5 36bd b6f7 1e3e 8ed9 d6bd 9973 d33d
00000190: 5078 b83d 12d8 30be c5bf 213e c0ac e9be
000001a0: 88b2 943d 5ab8 9cbe 135b 023e a22b 283e
000001b0: 31a4 ab3c 0004 fb3d a8a0 ebbd da46 983c
000001c0: f719 2abe 943e 20be a660 ff3b 3194 b8bd
000001d0: 10a2 20bd 90a1 65be b2a7 db3d 497d 213d
000001e0: 3ce3 843d 2fb3 22bd 32e9 e4bd c09b 2f39
000001f0: 7be5 46be 6943 e0bc e057 2f3e c9ad 4b3e
00000200: a857 113d d395 7e3d aeda f6bc 46c1 b1bd
00000210: a7fc 7abc 6873 10be 032d 33be 47f5 b3bd
00000220: 338c adbd 3097 a1bd a234 48bd 03d7 79bd
00000230: e9a0 f0bd 885b 9fbd dbb0 30be 8ec0 5dbd
00000240: deb8 e33d 381f 293e a92d d43d 4694 2e3e
00000250: 10aa 393e cff5 f03d b864 1b3e 5de7 393e
00000260: 9d76 843c 8d7e bd3d 9a54 89be b5c0 5ebc
00000270: 90fa dcbc d6c1 84be 05b8 4d3e 2214 d7bc
00000280: 5aa1 8f3e a57b dcbb 4ae8 ed3d d247 acbb
00000290: e2eb 60be 8a7c 8d3c 81d6 e1bd 3771 0d3e
000002a0: 7325 bebb 6e89 103e 2049 d4bc 1dfc 17bd
000002b0: ba30 34bb 6354 d03c 8515 863d 582a b0bc
000002c0: f319 2b3d 8c45 8abd 4f1c 0d3e 4dcc 183d
000002d0: 9b26 c63c 5ae9 9abe 4cc7 68bd 11d2 003d
000002e0: 5190 70bd d612 d3bb 77c4 b73d ae3d 823d
000002f0: 2169 7e3d 3b8c 43bd 1862 22be 8bae 2ebb
00000300: 2715 65bd 28c2 2abe 0f9a 41bd 7d83 bbbc
00000310: 9d9c 033e 2aab 0f3e 1afb 893e d79d 7b3d
00000320: 68dc fc3c db9f af3e 83fa 573d 0fe7 34be
00000330: e1a0 b73d 65f3 ddbd 7e41 80bd 8119 e93d
00000340: 9dd1 7f3d 7f1e b0b9 71b1 063d aeea 633d
00000350: 6943 223b a398 8d3e 1821 3abc ee46 0b3d
00000360: 963e 033e 1e60 f93d 3625 a03c 12cd 823e
00000370: f815 a53d 27b7 013d f8fe c33d f412 703d
00000380: efef 4abb 9cbd 683e d678 603e 828e 333e
00000390: 430b 293e f281 b33d 0c6e 303d b52f 0a3d
000003a0: 494d e53c 50ff ebbd 2129 ab3b 57ba 2ebd
000003b0: 8296 e7bd 85a0 7cb8 b54d 16bd a8c3 c9bd
000003c0: 1e18 123c fd60 96bc 2c5e 03be 2dea 273e
000003d0: 4d8c de3d 91d3 20bc e187 633d 1beb ae3d
000003e0: 1f4c b7bc d0f3 f2bd 721f d23c d68f 92bd
000003f0: f997 913e 66f5 8c3e 4bde 94bd 10f9 3b3e
-0.044117354 -0.19400501 0.0030934094 0.015955975 -0.14970502 -0.055179767 -0.017287573 -0.036836457
-0.018440485 -0.0046652043 0.16739972 -0.2623376 -0.2707294 -0.09129166 0.15924771 0.1524994
-0.20427126 0.0070522623 -0.15612324 0.070870705 -0.11191379 -0.0016172577 -0.21074264 -0.17379451
0.005710938 0.109756365 0.13112186 0.13930562 0.1685048 0.13952297 0.09094269 0.109638825
0.037256695 -0.114071436 -0.04852286 -0.22885455 -0.12943017 0.065364964 -0.035076663 -0.011880577
-0.10106878 0.010797237 -0.063822515 -0.019360816 -0.09559693 0.07760175 0.23945554 0.17015904
-0.030129068 0.0111039905 -0.03545854 -0.04956403 0.06401956 0.15195948 -0.051818293 -0.021749288
-0.08162848 -0.0906676 -0.22239546 -0.07015756 0.104461 0.076107524 -0.06836121 -0.022269566
0.12682633 0.2788304 -0.05409796 -0.26319104 -0.3931452 0.0021106561 0.16656561 0.0860967
-0.047674887 -0.16218972 -0.102152996 0.12450782 0.055966415 0.09311093 -0.19362801 -0.014088884
-0.051408388 -0.3089407 -0.31379825 -0.116569065 -0.16366038 -0.035266273 -0.046780884 -0.1456498
-0.081578106 0.050981738 -0.010654527 -0.11036316 0.10932524 -0.0014757329 0.08111092 0.30238622
-0.044606216 0.15524182 -0.10490714 0.10324783 0.09007323 -0.17269924 0.1579581 -0.4563961
0.07260615 -0.306094 0.12730055 0.16422895 0.020952316 0.12256622 -0.11505252 0.018588472
-0.16611467 -0.15648872 0.007793504 -0.0901264 -0.039217055 -0.22424912 0.10725345 0.03942612
0.06488654 -0.039721664 -0.11177291 0.00016747322 -0.19423477 -0.027375894 0.17123365 0.19890513
0.035483986 0.062154602 -0.030133571 -0.08679442 -0.015319026 -0.14106524 -0.1749764 -0.08787017
-0.084740065 -0.07890165 -0.04887832 -0.060996067 -0.11749441 -0.0778113 -0.17254965 -0.054138713
0.11119245 0.16515815 0.103602715 0.1704875 0.1813128 0.11765634 0.1517514 0.18154664
0.01616984 0.09252653 -0.26822358 -0.01359575 -0.026974946 -0.25929135 0.20089729 -0.026254717
0.2805279 -0.0067286068 0.11616571 -0.005257585 -0.21964982 0.017271299 -0.110272415 0.1381272
-0.005802804 0.14114925 -0.025913775 -0.03710567 -0.0027494864 0.025430864 0.06547073 -0.021504566
0.041772794 -0.06751546 0.1378033 0.03730421 0.02418833 -0.30256158 -0.05683069 0.031450335
-0.05873138 -0.0064414544 0.089730196 0.06359421 0.062111977 -0.047741156 -0.15857732 -0.0026654329
-0.055928376 -0.16675627 -0.047266062 -0.022889847 0.12852712 0.14030138 0.26949388 0.061429825
0.030866817 0.34301648 0.05272914 -0.17666267 0.08966232 -0.108374394 -0.06262492 0.113818176
0.062455762 -0.00033592057 0.032884065 0.05564373 0.0024759418 0.27655515 -0.011360429 0.03400319
0.12816843 0.12176536 0.019548994 0.2554708 0.08060831 0.03166881 0.09570116 0.058611825
-0.0030965765 0.2272858 0.21921095 0.17534831 0.16508202 0.087650195 0.0430737 0.033736903
0.027990954 -0.11523306 0.005223409 -0.042658176 -0.11308004 -6.0230977e-05 -0.0366952 -0.098517716
0.008916883 -0.018356794 -0.12828892 0.16397925 0.10866604 -0.009816066 0.055549506 0.085409366
-0.022375165 -0.1186291 0.02564976 -0.07156341 0.28436258 0.27530974 -0.072689615 0.18356729

rb1.conv2.bias f4 [10]
00000000: ef86 94b8 92ad 5238 3ab5 1739 75ac 2138
00000010: ea8b c1b7 f006 4ab8 2483 9136 99ce 4a37
00000020: 6f0c 0738 5ca1 1eb6
-7.082323e-05 5.022955e-05 0.00014467994 3.8546004e-05 -2.3072545e-05 -4.8167014e-05 4.3366035e-06 1.20882405e-05
3.2198088e-05 -2.3637758e-06

rb1.bn2.weight f4 [10]
00000000: f3f5 843f 53a9 903f f28b 4b3f 2431 8e3f
00000010: e6cd 3d3f a0d4 893f 2eae a93f 8298 873f
00000020: cfb0 8e3f 46a8 5a3f
1.0387558 1.1301674 0.79510415 1.1108747 0.741423 1.0768013 1.325628 1.0593417
1.1147708 0.85413015

rb1.bn2.bias f4 [10]
00000000: 3c13 553d 032b 8fbd ef09 8a3e e4a5 28bd
00000010: 0aae 753e 5e2a c63d 95a4 6abc 4c63 d83d
00000020: ef74 463d eae6 863e
0.052020296 -0.06990626 0.26960704 -0.04117383 0.23992172 0.0967605 -0.014321466 0.105658144
0.04845136 0.26348048

rb1.bn2.running_mean f4 [10]
00000000: 8c49 a7bf 5e20 61be bcc7 1c3f 25fe a43d
00000010: 903f 39bf 13b5 3ebe e929 14bf cbe5 68be
00000020: 10ed 573d 7864 d43f
-1.306932 -0.21985003 0.6124227 0.08056287 -0.72362614 -0.18623762 -0.5787645 -0.22743909
0.052716315 1.6593161

rb1.bn2.running_var f4 [10]
00000000: bdae d03f 0c51 a93f 8a61 873f b6ca c73f
00000010: 37c8 873f 46d1 d23f 18e5 0740 1c0c dc3f
00000020: e05e 0040 40dd da3f
1.6303326 1.3227859 1.0576642 1.5608737 1.0607976 1.6470115 2.1233578 1.7191195
2.0057907 1.709877

rb1.shortcut.conv.weight f4 [10, 3, 1, 1]
00000000: 3628 e63e 2654 ae3b 15e9 ae3e dd72 acbe
00000010: fc36 09bf c2df c2be 17c3 bd3e c237 b5be
00000020: e1dc da3d a0df f0be a62d 34bf 2de4 3d3e
00000030: d706 c9bd 3d90 41be 745c 163f 15c3 bc3e
00000040: 782c 093e 56ab fc3e 8338 c6be b8ca adbe
00000050: d3d3 9ebe 0ab3 90be 71f6 31bf cda6 8f3e
00000060: 0f83 a4be b5ac 02bf eb9b 80bd 57f2 94be
00000070: cffa 653d af53 15bf
0.44952554 0.00532009 0.34162202 -0.33681384 -0.53599524 -0.3806134 0.37062904 -0.35394102
0.106866606 -0.47045612 -0.70382154 0.18544073 -0.09815758 -0.18902679 0.5873482 0.36867586
0.1339587 0.4934947 -0.3871499 -0.33943725 -0.31020984 -0.28261596 -0.69516665 0.28056946
-0.3213124 -0.5104478 -0.06279739 -0.2909114 0.056147393 -0.58330816

rb1.shortcut.conv.bias f4 [10]
00000000: 948f 1736 3fcb a638 ea90 75b8 c6d0 30b9
00000010: 8697 74b9 f0b2 1839 ccc0 8636 174e 89b7
00000020: 282f 4eb8 5cfc 61b8
2.2584327e-06 7.953354e-05 -5.8547514e-05 -0.00016862442 -0.000233261 0.00014562509 4.0159557e-06 -1.6368036e-05
-4.9158145e-05 -5.387921e-05

rb1.shortcut.bn.weight f4 [10]
00000000: 65a1 7a3f 3faf 6b3f 7102 843f eb6b 643f
00000010: 4048 903f edd7 6f3f 56b6 183f c8c9 323f
00000020: b593 673f fee9 693f
0.9790252 0.9206428 1.0313245 0.8922717 1.1272049 0.9368885 0.5965322 0.69839144
0.9045976 0.9137267

rb1.shortcut.bn.bias f4 [10]
00000000: 3c13 553d 032b 8fbd ef09 8a3e e4a5 28bd
00000010: 0aae 753e 5e2a c63d 95a4 6abc 4c63 d83d
00000020: ef74 463d eae6 863e
0.052020296 -0.06990626 0.26960704 -0.04117383 0.23992172 0.0967605 -0.014321466 0.105658144
0.04845136 0.26348048

rb1.shortcut.bn.running_mean f4 [10]
00000000: 4060 76bd 47fa be3d caa2 97bb c29b e63c
00000010: 18ec 8abd b8ab b0bd f16c 963d a309 1a3c
00000020: 0c6f 413d e132 af3d
-0.060150385 0.0932508 -0.0046275603 0.028150443 -0.067833126 -0.08626503 0.07344998 0.009401712
0.047225043 0.08554626

rb1.shortcut.bn.running_var f4 [10]
00000000: b7db 1a3e a14b c13e 6a14 003c f7d8 783e
00000010: 21b3 133d 25ef 733e 1162 833e 81ec 003e
00000020: 298b 453e 257a 283e
0.15122877 0.37753013 0.007817367 0.24301516 0.036059503 0.23821695 0.25660756 0.12590219
0.19291367 0.16452844

rb2.conv1.weight f4 [20, 10, 3, 3]
00000000: 3b0d a73d 7f9d 073e 045f 8b3d 5388 2d3e
00000010: ae35 583e ecc6 073e 15d3 2c3d f38f d93d
00000020: c7b7 f33d e36a 293e b22e fabd d8db cfbd
00000030: 8a99 cdbd 26d5 86bd da90 e9bc e0db 213e
00000040: 78f7 2bbe 36f4 01be 940f efbd 0d4a a7be
00000050: eae4 38be 3f7c 28bc e09f 89be c403 17be
00000060: 266a 393d 2394 203d ae4e cbbd 8789 02bb
00000070: 481e f5bd 9289 e43d b839 813d bf86 763d
00000080: 4431 f33d 8197 303d 1e72 573d ea77 643e
00000090: 1921 88ba dba4 053e 3de2 04bd 9e5e abbd
000000a0: ca53 6c3c bbbd c13d 3744 0d3c e235 94be
000000b0: a929 70be b48d e03d 28d1 203d a20d 833d
000000c0: 9810 fabd 1d9e 96bd 7019 a0bd cd38 58bd
000000d0: 0030 edbe 6d7c 53bd c7a2 ec3d 25d2 b33d
000000e0: 9537 173e cb0c ae3d 48f0 493d 9fc4 e63d
000000f0: 93d3 573d f6eb a7bc 729e 61bd 5e4b a93d
00000100: 00bf a2bd bad8 6b3d ec94 acbd a250 b9be
00000110: a6d0 8fbd 38ce a63d d384 1ebe 8636 c8bd
00000120: 244b a1bc 2784 85ba 1d99 18be 136e 35be
00000130: b720 8b3d 89eb 163e 3bdf 20be ea9c e6bc
00000140: e56a d63d 6acc f1bd ac78 9d3c c076 10be
00000150: 8d5a 773c b273 1e3d 41f4 25bc 9ef4 9bbd
00000160: 6e0e 7c3d 32bc 603e 4f99 80be 49f3 2cbe
00000170: cb41 9abd c0bf 453d 6651 56bd 1318 063a
00000180: ef43 273e 5b30 4e3e 6d6a 613e c0f5 92be
00000190: cad0 0bbe f223 18bd 3529 08be f0a9 b83d
000001a0: ce5f a2b9 8531 98bd fdb8 4bbd 751b 94bc
000001b0: 1581 89be 2b88 b8be 9270 64be 0020 e83d
000001c0: c448 3f3d e1be 86bc 4c20 4c3e 8343 853e
000001d0: bda6 993e 1af5 97bd 5e9e 263c 9e20 e0bc
000001e0: 64ef 12be 350c 4c3d 79fb c2bd 66ef d9bd
000001f0: af38 3fbc a881 bfbd ed06 363e 666e 723e
00000200: f4b3 233d 35a7 6b3c e666 55bc a328 00be
00000210: 68ee 2fbe 0aa1 71be d13a 6abe e82a c53a
00000220: 5d92 c03b b532 133e 2171 6cbd 9364 423d
00000230: a687 623d d399 533d 723c 12bb 41e9 d53d
00000240: f3de c73d 0673 f53d 4015 003d 13f8 2fbd
00000250: eaea 293c 0793 c8bd b087 55bc 882f 2c3c
00000260: bee5 3ebd 7fa3 243e 24fc 993e 98da 173e
00000270: f4d4 2d3b 565a ae3d 068c f03d fcf9 12be
00000280: e6bf db3c 7f6a 8ebd 18bb e9bd 5e8c 983d
00000290: 61b8 a1bd 6667 dcbd c2fd a23d 08da 35be
000002a0: 0cda 723c 1a5e 283d 8e61 31bd 3aca 0dbd
000002b0: d29a 353d 7337 9b3c 70eb 113d 4462 1b3e
000002c0: 99d9 9c3d e204 e63a cddb a23d 368e 6dbd
000002d0: 7da7 4ebd 5087 803d bedf c4bd b603 bebc
000002e0: b9ff 413d 3c9e 17bd 24be 6dbc b8d5 49bd
000002f0: 7c0c a33d bbbd ebbc 4ee1 753c e13c 3b3e
00000300: 2a36 1ebe 7f06 4f3d 67a8 ec3d c75a b1bd
00000310: eeeb 71be 327d 37be f12f d23d 6800 3bbe
00000320: 039b 593d e38b 363e 0345 c9bc cc0b 98bc
00000330: 31a4 583d 8488 483d d2a8 9c3d 4bd8 863e
00000340: 056b 6a3e 6b1d 0c3e 8b97 5f3b 333c 463e
00000350: 711c 513d add4 f9bd f95b d83d 58bd 293d
00000360: 4d3a 18be eba7 4d3c a6fc 72bd c126 a1bd
00000370: 5719 90bd 6b77 e2ba 6005 ab3d 051b 42bd
00000380: de00 36bc d727 ed3d 66fe 953d f90a 9fbd
00000390: c900 adbe 52ad 3b3d 5a59 163d e5bc 72be
000003a0: 16d8 063d 166b a63d fe8e 633e 24cc 4b3e
000003b0: 670e 4b3d f8d2 0ebe a571 c3bd fbef fcbd
000003c0: 04bf 18bf f0f2 e7be ef34 11be d93f b8bc
000003d0: 6a63 adbb d34c 823d 0ece a8bd f820 823d
000003e0: dd63 b03d b804 98bd f9c6 89bd bfb5 cdbd
000003f0: 3459 a1bd 0c12 98bd cef1 7dbc 3635 1bbe
0.081568204 0.13243674 0.06805232 0.16946535 0.21114227 0.13259476 0.04219349 0.10623159
0.11900287 0.1654468 -0.12215938 -0.10149354 -0.10039051 -0.065836236 -0.028511453 0.15806532
-0.1679362 -0.12690815 -0.11672893 -0.32673684 -0.18056074 -0.010283529 -0.26879787 -0.1474753
0.045267247 0.039203774 -0.09927116 -0.0019918398 -0.11968666 0.11159052 0.06309837 0.060187098
0.11874631 0.043113235 0.052599065 0.22311369 -0.001038584 0.13051169 -0.03244232 -0.08367656
0.014424274 0.09460016 0.008622221 -0.2894736 -0.23453392 0.10964528 0.039261967 0.06399085
-0.12210196 -0.073543765 -0.07817352 -0.052788544 -0.46325684 -0.051632334 0.11554485 0.08780316
0.14767297 0.08498534 0.049301416 0.11267971 0.052692007 -0.020498257 -0.055082746 0.08266328
-0.079465866 0.057579733 -0.08426842 -0.3619433 -0.070222184 0.08144802 -0.15480356 -0.097760245
-0.01968915 -0.0010186479 -0.14902158 -0.17717771 0.06793349 0.14738287 -0.15710156 -0.028150994
0.10469607 -0.11806567 0.01922258 -0.141078 0.015097273 0.038684554 -0.010129035 -0.076150164
0.0615372 0.21946791 -0.25116965 -0.16889681 -0.0753208 0.04827857 -0.05232372 0.00051152817
0.16334508 0.20135634 0.22013254 -0.28703117 -0.13653865 -0.037143655 -0.13296969 0.09016788
-0.00030970428 -0.0743132 -0.049736965 -0.018079499 -0.26856294 -0.36041388 -0.22308567 0.113342285
0.046700254 -0.01644844 0.19934195 0.2602807 0.30010024 -0.07419796 0.010169594 -0.027359303
-0.14349133 0.04981633 -0.09520621 -0.10641365 -0.011671229 -0.09350902 0.1777608 0.23674926
0.03996654 0.014383127 -0.013025021 -0.12515502 -0.17180789 -0.23596588 -0.22873999 0.0015042694
0.005876823 0.14374812 -0.057725076 0.047459196 0.055305146 0.05166037 -0.002231386 0.1044488
0.09759321 0.119848296 0.031270266 -0.04296119 0.010370949 -0.09793668 -0.013032839 0.010509379
-0.046605818 0.16077994 0.3007518 0.1482948 0.0026524635 0.08513324 0.11745457 -0.14353174
0.026824903 -0.06953906 -0.114126384 0.07448648 -0.078964956 -0.10761909 0.07958557 -0.17758954
0.014822494 0.041105367 -0.043305926 -0.034616686 0.0443371 0.018947339 0.03562492 0.15174204
0.07658691 0.0017549063 0.0795208 -0.05799695 -0.050452698 0.06275809 -0.09612988 -0.023195129
0.047363017 -0.03701614 -0.014510665 -0.049276084 0.079613656 -0.028776994 0.01500733 0.18284942
-0.1545035 0.050543305 0.11555558 -0.086598925 -0.23625156 -0.17918852 0.1026305 -0.18261874
0.053126346 0.178268 -0.02456904 -0.018560313 0.05289096 0.048958316 0.076493874 0.26336893
0.22892387 0.13683097 0.0034117426 0.19358902 0.051052514 -0.12198768 0.105644174 0.041440338
-0.1486599 0.012552242 -0.059322976 -0.0786872 -0.07036083 -0.0017278021 0.083506346 -0.04738905
-0.011108605 0.115798645 0.07323913 -0.07765765 -0.33789662 0.045819588 0.036706306 -0.2370487
0.03292092 0.08125894 0.22222516 0.19902092 0.049574282 -0.13947666 -0.0954316 -0.1235046
-0.59666467 -0.45302534 -0.14180349 -0.022491382 -0.005291392 0.06362309 -0.08242427 0.063539445
0.086127974 -0.07422775 -0.06727404 -0.10044431 -0.07878342 -0.07425317 -0.015499545 -0.15157017

rb2.conv1.bias f4 [20]
00000000: 46d5 2db8 9d74 d837 203a acb6 3236 d9b8
00000010: d68e 20b8 10fc 63b8 14ad 2f37 57a4 8238
00000020: f35f 3538 b765 3bb8 f4bf 6938 f00e 1a36
00000030: de4b 6eb8 2994 2e38 410c b937 36d0 dcb7
00000040: b854 53b8 b827 6ab7 88ac 3f38 4568 b338
-4.144504e-05 2.5803509e-05 -5.132766e-06 -0.00010357461 -3.828e-05 -5.435577e-05 1.0471111e-05 6.229494e-05
4.3243122e-05 -4.4679004e-05 5.57303e-05 2.2956483e-06 -5.681428e-05 4.1622818e-05 2.2059425e-05 -2.6323e-05
-5.038522e-05 -1.3956735e-05 4.569863e-05 8.554807e-05

rb2.bn1.weight f4 [20]
00000000: bc16 543f 4611 603f 928f 653f 4c7e 883f
00000010: c5c2 873f 8114 3d3f 2482 753f 7845 5b3f
00000020: ad48 323f 21be 5b3f 4b68 4c3f 451c 813f
00000030: 356d 843f 7c90 783f bff0 6d3f 16b3 8a3f
00000040: a5c5 683f 57f2 613f f4f4 783f cfc7 713f
0.8284719 0.8752636 0.89672196 1.0663543 1.0606314 0.7385941 0.95901704 0.85652876
0.69642144 0.8583699 0.7984664 1.0086752 1.0345827 0.97095466 0.92945474 1.0835903
0.9092658 0.88260406 0.9724877 0.9444551

rb2.bn1.bias f4 [20]
00000000: 3f29 663c 20e0 2abe 7885 e53d ac67 d2bc
00000010: 167c 8dbe 6fbb b2bd c81c 133d 0aaa 163e
00000020: 6eae 6abc dd42 e03d 5fb3 fe3c 993d 603d
00000030: 6807 dbbd 98c0 213d fa1e e6bd d5fc a1bd
00000040: f741 f93d ab52 b8bb 509b de3d 6398 e4bd
0.01404792 -0.1668706 0.11207098 -0.0256842 -0.27633733 -0.08727156 0.03591612 0.14713302
-0.014323814 0.10950253 0.03109139 0.054746244 -0.10694772 0.039490312 -0.11236377 -0.07909552
0.12170785 -0.005625089 0.10869467 -0.11161878

rb2.bn1.running_mean f4 [20]
00000000: ec5d 90bf f80a f03d 52b7 d4bf 9feb 3bc0
00000010: dad3 88bf 9cfb 4d3e dd9e aebf 6dca c4bf
00000020: 1b1f 9e3f be34 e0bd 5f8d 91be 9c05 94bf
00000030: 26ef 20c0 fd5a 43bf 131f 39bf 4721 d3bf
00000040: b28e 01c0 2bb9 adbe ef52 eabf 4bba c6be
-1.1278663 0.11720842 -1.6618445 -2.9362562 -1.0689652 0.20115513 -1.3642231 -1.5374275
1.2353243 -0.1094756 -0.2842817 -1.1564212 -2.5145965 -0.7631071 -0.7231304 -1.649453
-2.0243344 -0.33930334 -1.8306559 -0.38814005

rb2.bn1.running_var f4 [20]
00000000: df3d d23f e502 b63f 76e2 ff3f 58c2 2b40
00000010: 1b75 0d40 1439 c03f bc3a 1340 6f4a 1d40
00000020: e79b a63f 28e6 9d3f fe54 c83f 48d0 1240
00000030: c0f8 1d40 dadc 0440 3ed5 bd3f 52ac 1a40
00000040: 8a8f 1840 7163 ef3f f2e3 ed3f b3ee 0940
1.6425132 1.4219633 1.9990985 2.6837368 2.2102726 1.5017419 2.3004599 2.457668
1.3016328 1.2335863 1.5650938 2.2939625 2.4683075 2.0759797 1.4830701 2.4167676
2.383761 1.8702222 1.8585188 2.155194

rb2.conv2.weight f4 [20, 20, 3, 3]
00000000: 966c 0cbc 17b1 c03d ee35 fcbc a516 c13c
00000010: 3d1b 803c 0cb7 f1bd 1db0 d0bc a0a2 04be
00000020: 8d5a 66bd 8161 54be 3f26 2e3e 6e1c fd3d
00000030: 9ebe ca3c 78c1 323e beff 013e b6a0 963d
00000040: 2994 963d aa87 213e 9f8a 9f3b e58e 2fbd
00000050: c830 293d 1d5a 113e 0ccf 8b3d 25ae f6ba
00000060: 2d5c 1dbc 3d68 81bc 2be2 0dbe f1f4 33be
00000070: 00a7 dfbc 2bb0 30be 1885 ccbd 6c96 c53d
00000080: 03a5 73be c69a 9cbe d49d 41bd f6ca 35bd
00000090: cfe0 fabd f6d6 9ebd fe1a d1bd 43c9 7ebc
000000a0: ef28 83b9 de10 cabc 1c62 bd3d 8c41 213e
000000b0: 1dbf 233d ddc2 1cbe d3aa c8bc 0ab8 8ebd
000000c0: 8a64 2bbe 8980 1c3e cdef d43c ce2d 433d
000000d0: 074a 3ebd 65f4 103c 73e3 cebc 2441 46bc
000000e0: 4f80 b5bd 71b5 d53d 60f5 0d3c bd0f 92bd
000000f0: 9eb7 05be e87f 19be d90a 213d 370b 39be
00000100: eec8 97bd 0131 febd 5265 d5bc 1013 05be
00000110: 3c2f 06be bf8e d8bd ee51 5fbe 6f36 753d
00000120: 28b9 2a3e 6c5b 84be 6294 73be a43d 843e
00000130: cf4d 763d f639 cebd cd88 77bd c9db 733c
00000140: 122f c93d 8fe6 943d c624 54be fa46 80be
00000150: 0496 983d 64b1 d8bd 8dd7 003e c8e5 67bd
00000160: 34e9 9e3d 4cd2 903e fecb 803c c152 793c
00000170: d77d b1bd 1e58 363e 0add 813d 2b76 b1bd
00000180: 395b 533d e4b7 15be cc1f 98be 74c3 ee39
00000190: bcdc 643d 7a94 2f3e dde3 3a3c ae5c 65bd
000001a0: 2377 ed3d 6f4d bcbd b1ff fdbd 1e35 b7bd
000001b0: c866 2fbd e0ca 3f3d 066b 04bd 6202 03be
000001c0: 11ce 09be 09fe d9bd 52fe abbe 0b41 54be
000001d0: 6bab 66be 8d20 f93b 68d0 df3c 169b 00bb
000001e0: 3eca 013e 6ade 35bd c233 a43d 0e07 d93d
000001f0: f5b8 a2bc e84f a43c 725d 3c3e 5700 8d3c
00000200: 715a 1f3e 21f4 f23b 5e3b e0bd c0eb 093e
00000210: 4e45 283d 99c6 c33d 64b7 4d3e 742f ba3d
00000220: b1f0 903d 6127 f93d cb8b d13b f8ef d93d
00000230: 630b 803d 47f5 353c 3ddb 7cbc 9ff4 4ebe
00000240: 9fee 4f3d 5d7e 12bc 9c49 383d a0b1 673d
00000250: a080 dc3d 4c3a 553d d37d 9fbd 3482 68bd
00000260: 7a6e f53c 29e0 583d c791 d1bd fcf1 f23c
00000270: cb02 1fbc 3d55 2cbe 56a4 183d df42 8dbc
00000280: 9777 3ebd d0fd 1ebd 8260 0bbe 5f8f 6d3b
00000290: c16c 56ba f73d f2bd 6bba ee3d 5cd7 a03d
000002a0: bf66 82be 4880 32bd fc34 fabd 98d3 6b3e
000002b0: a38e 663d d1dd b23d 7ceb a93d c81e ae3d
000002c0: bea6 183e 851f 153e 2bb0 2f3e 5ca0 643d
000002d0: 326c ff3d 218c 1b3e 7a7a 26be f69e 41be
000002e0: 291b 9c3d 50f1 d5bd 3739 9ebb 03cf afbd
000002f0: 9d95 02be 778a acbd 3d08 82be a99b 8fbd
00000300: 9d1e 183e b8d6 aebc b314 773d 22b9 8f3d
00000310: 5fd6 8e3d 73fd cd3b 33aa c0bd a19a 90bd
00000320: 5d7f 42bd 574e 63be f37c 8bbd c656 84bc
00000330: 7d5e d6bc 54a1 823d 8852 333d f469 08be
00000340: 858a f93c 7c9f efbc 07c9 23be 0c8d b13d
00000350: 1b88 fabd 2f6f 6abe cc27 2fbe 5050 37be
00000360: b8a8 4bbe c096 fbbd 582a 04be 8b12 99bd
00000370: 65fc 8dbb f6f9 33be ca6d e33d 1c50 7fbd
00000380: 8769 efbd de2f 81bd 8659 86bd b1e4 1e3e
00000390: a13f 78be 0546 4cbe b2ad 813d 1e78 d83c
000003a0: 7767 75bb 735d ac3d 440c 1ebd 3d57 20bd
000003b0: 1ff9 0a3e e215 35bd 1720 bd3c fb4e 043d
000003c0: 886a a4bb 23fa 013e 22f3 4dbc 2400 433d
000003d0: 74d4 ae3b 3ae6 66be 1e14 813d c802 e23d
000003e0: 4b0b 8fbd dc37 01bd 9f6f 1dbd 9032 02be
000003f0: 448f 16be 9cba a3bd 4bce f8bd f523 d33d
-0.008570811 0.09408777 -0.030787434 0.023570368 0.015637988 -0.118024915 -0.025474602 -0.12952662
-0.0562387 -0.2074032 0.17006777 0.12358938 0.024749096 0.17456615 0.12695214 0.07354872
0.07352478 0.15774408 0.00486882 -0.042860884 0.041306287 0.14194532 0.068266004 -0.001882021
-0.009604496 -0.015796775 -0.13855807 -0.17573906 -0.027301311 -0.17254703 -0.09986323 0.09647831
-0.23793416 -0.30586833 -0.047269657 -0.04438301 -0.1224991 -0.07755844 -0.102102265 -0.015550914
-0.00025016765 -0.024666246 0.092472285 0.1574766 0.03997718 -0.1530871 -0.024495518 -0.069686964
-0.16737571 0.15283407 0.025993252 0.047651105 -0.046457317 0.008847331 -0.02525494 -0.012100492
-0.088623635 0.10434998 0.008664459 -0.07131908 -0.13058326 -0.14990199 0.039316986 -0.18070684
-0.07411371 -0.124116905 -0.02604929 -0.12995553 -0.13103956 -0.10574102 -0.21808597 0.059866365
0.16672194 -0.25851 -0.23787072 0.25828278 0.060132798 -0.10069649 -0.060433198 0.014883944
0.09823431 0.07270538 -0.20717153 -0.2505415 0.07450488 -0.105807096 0.12582226 -0.05661562
0.07759324 0.28285444 0.015722271 0.015217484 -0.0866658 0.17807052 0.06340988 -0.08665117
0.05160067 -0.1462093 -0.2971176 0.0004554052 0.05587457 0.17146483 0.011406866 -0.05599659
0.11594989 -0.09194457 -0.12402285 -0.08945678 -0.04282263 0.046824336 -0.032328628 -0.12793878
-0.13457514 -0.106441565 -0.33592469 -0.20727937 -0.22526328 0.0076027573 0.027321056 -0.0019623688
0.12674806 -0.044401564 0.080176845 0.10597049 -0.019863585 0.020057634 0.18395022 0.017212076
0.15561844 0.0074143563 -0.109488234 0.13468838 0.04108172 0.09559364 0.20089489 0.09091082
0.07077158 0.12165714 0.0063948384 0.106414735 0.06252172 0.011105842 -0.01543313 -0.20210503
0.050764676 -0.00894126 0.044992074 0.05656588 0.10766721 0.05205755 -0.07787671 -0.056764796
0.029959906 0.05294815 -0.10232883 0.029656403 -0.009705256 -0.16829391 0.037266098 -0.0172438
-0.04650077 -0.038816273 -0.13611034 0.0036248786 -0.0008179658 -0.11828225 0.1165665 0.078535765
-0.25469014 -0.04357937 -0.12217137 0.23029935 0.056288373 0.08733714 0.08296868 0.08501965
0.14907357 0.14562805 0.17157046 0.055816993 0.124718085 0.15190174 -0.16257659 -0.18908295
0.07622368 -0.10446417 -0.004828598 -0.08584406 -0.12752385 -0.084248476 -0.2539691 -0.07012112
0.14855428 -0.02134262 0.060322475 0.07017733 0.06974482 0.006286317 -0.09407463 -0.07060743
-0.047484744 -0.22197853 -0.068109415 -0.016154658 -0.026168102 0.06378427 0.04377988 -0.13321668
0.03046156 -0.029250853 -0.15994655 0.08669481 -0.12232991 -0.22893976 -0.17105025 -0.1790173
-0.1988858 -0.12284613 -0.12906778 -0.0747424 -0.0043330663 -0.17575821 0.11104925 -0.062332258
-0.116900496 -0.06307958 -0.06560044 0.15516926 -0.24243023 -0.19948585 0.06331958 0.026424464
-0.0037445703 0.084162615 -0.038585916 -0.039145697 0.13571595 -0.044210322 0.02308659 0.032301884
-0.0050175823 0.12693076 -0.012570174 0.047607556 0.005335385 -0.22548762 0.06302665 0.11035687
-0.06984576 -0.031547412 -0.03843653 -0.127146 -0.14703089 -0.07994577 -0.12148722 0.10309593

rb2.conv2.bias f4 [20]
00000000: b49c 4c38 1eef f336 35a5 8ab7 0484 0bb7
00000010: a463 d3b8 1a96 6237 0a24 1136 51ca 8838
00000020: 164c db38 3465 23b8 1d2e 6936 87ae bbb6
00000030: 6557 28b8 d58d 17b8 36d3 5637 69b0 4137
00000040: 1e47 63b8 024d 5a38 cc7e 94b8 2755 acb8
4.878333e-05 7.2698012e-06 -1.6527812e-05 -8.315783e-06 -0.000100798236 1.3505598e-05 2.1627661e-06 6.52267e-05
0.00010456906 -3.895648e-05 3.4746547e-06 -5.593352e-06 -4.0135714e-05 -3.6133297e-05 1.280457e-05 1.154477e-05
-5.418725e-05 5.204697e-05 -7.080808e-05 -8.21746e-05

rb2.bn2.weight f4 [20]
00000000: 477e 5f3f 3b5d 6e3f dbc4 993f 9760 8f3f
00000010: 6317 993f 3885 8a3f efcd 9f3f aacc 9c3f
00000020: 0966 9e3f 2dbf 963f 52cc 983f cf53 803f
00000030: 540c 963f 5571 803f 5122 8e3f e6b2 a73f
00000040: e324 ac3f 2c37 a63f fff6 8f3f a7b8 5d3f
0.8730206 0.9311101 1.20132 1.1201352 1.1960262 1.0821905 1.2484721 1.2249959
1.2374889 1.1777092 1.1937354 1.0025576 1.1722512 1.0034586 1.1104223 1.310147
1.3448757 1.2985587 1.1247252 0.8660988

rb2.bn2.bias f4 [20]
00000000: a89e 3e3e 39cf 3b3d d213 55be 5732 07bb
00000010: 06dd bebd 6956 36be 7525 b43d 421f 79be
00000020: e44e 573e 24db 15be 1a45 323d 5f46 16be
00000030: 0a24 d7bc 0369 663d 2bbf bcbc 7970 1e3e
00000040: 358b c2bc cbd5 febd db66 a83d 5990 8dbe
0.1861521 0.04585192 -0.20808342 -0.002062937 -0.093195006 -0.178064 0.08796207 -0.2432833
0.21026188 -0.14634377 0.04352293 -0.14675282 -0.026262302 0.05625249 -0.023040375 0.15472592
-0.02374802 -0.124431215 0.08222743 -0.2764919

rb2.bn2.running_mean f4 [20]
00000000: 51c1 35bf f77c 08c0 916c 8ebf d8b5 91bf
00000010: 17f1 59bf 36f4 463e 0414 aebf aed7 fc3e
00000020: 4031 42c0 cb15 0dbe 90df 7bbf 798f 3a3e
00000030: 77c7 f1bf 5113 02bf d7b0 763e 301d babf
00000040: b5fe 33c0 bac2 ffbd db40 1ac0 9074 553e
-0.709981 -2.1326272 -1.1126882 -1.1383619 -0.851335 0.19429097 -1.3599858 0.493833
-3.034256 -0.13777845 -0.98388004 0.18218793 -1.8888997 -0.50810724 0.24090897 -1.4540157
-2.812421 -0.12488313 -2.4102085 0.20845246

rb2.bn2.running_var f4 [20]
00000000: 5000 723f 11a0 8b3f fb71 453f a11a 9a3f
00000010: b287 3f3f 8a80 933f dfd8 a63f 6223 433f
00000020: ab52 b03f 746a 5f3f f067 673f 5c7f 4e3f
00000030: d2c0 4b3f 3952 8e3f 1e68 bc3f 543a 8c3f
00000040: f793 873f 269a 913f 83ba 8e3f 36e9 363f
0.94531727 1.0908223 0.77127045 1.2039376 0.7481643 1.1523602 1.3034934 0.76225865
1.3775228 0.8727181 0.9039297 0.80663085 0.79591095 1.1118842 1.4719274 1.09553
1.059203 1.1375167 1.1150669 0.714496

rb2.shortcut.conv.weight f4 [20, 10, 1, 1]
00000000: 3145 04bd a901 a2bd 3d20 cabe b7d2 d7bd
00000010: c009 023f d095 89ba 632c c53b e700 a7bb
00000020: d172 b5bc e712 73be 60f1 a8bd f97b c43d
00000030: c54a 1ebf 5862 953d bef8 20be 6935 64be
00000040: 4869 e5bc 367f c1bc 20a6 eab9 06dd d5bb
00000050: 0ffe cbbd 592b 02be 7f79 0bbd 73d3 b4bc
00000060: 99d6 603d acc3 c93e c05f 183e 0ad9 d93d
00000070: d5b2 1cbe 2899 b9be 5b3c 1cbd 5084 0b3b
00000080: ff4c ad3e 15c1 013e 573e 433e 1bdd 16be
00000090: 8628 883e b2f2 5d3e 972d d63e c04b 19be
000000a0: d5b3 07be 2060 393d 1063 8f3d 2ccd d33e
000000b0: 8b44 833d e6f1 94bd a676 fcbc e675 8ebd
000000c0: 4f90 c33e 8c11 e6bd 03cd 8a3e 76ed 3d3e
000000d0: 345c d8bd fcee babe 0e64 80bd 2a2b 87bd
000000e0: dba7 583e 6021 1bbe 28f5 1dbe 65bf d0be
000000f0: 6815 f4bd 572e 1d3e 80d5 123d 7111 9fbe
00000100: ea0d 283c 7451 c8be 2e54 89be 271c 503d
00000110: e6cb 883e 4941 87bd 0c36 333e cb0e 443e
00000120: ca57 2fbc ac0b 80bd e3bc 31be 62c4 a2bd
00000130: 1921 98be 7512 233d ab79 19bf 4b75 47be
00000140: c0b7 d9bd edb3 0a3e 13fc c1bd 1f00 b3bd
00000150: dcb1 33bf 9f7d dabd 7834 673c 61d6 873e
00000160: 16cc bfbd cc29 7c3c 3c6d 82be b451 bd3e
00000170: 6e10 27be 5825 4abe 8f2c 433e ffc9 f7bd
00000180: 2707 b6bc afde 003e fcf9 06bb dad6 c6be
00000190: 04eb 813c e89d 9e3d 0870 d7be cc15 893e
000001a0: 5fc3 9bbe 37b9 0fbe 1e6f 8a3e d1dd 8b3d
000001b0: 0ed9 0c3e 6ba3 953d 9367 4c3c 238b 1abd
000001c0: a809 a5be 8bbe 7b3e ea09 843e bac1 7d3e
000001d0: 02af cabd 2eaa dbbd 8872 193e 7b7d 3ebe
000001e0: 2da2 ccbd e215 bbbe 5354 613e 1b6a aa3e
000001f0: 1c36 c0bd 47cc 083c 9fed 803d ff14 f5bd
00000200: be8b c3be c88e e33d b68f 67bd 6221 47be
00000210: 4bcc fabd 9d62 a4bd a2e8 733d 9ed0 023e
00000220: e37e ce3d e336 b33d 3623 24bf 12e9 1cbe
00000230: 3eb3 d23c a8d7 84be 5029 d1bb dff8 46be
00000240: 2687 2dbc f5ba bbbe e17b cdbe 1860 d9bd
00000250: acf9 bbbd 8480 423e 6dc1 c53e f941 b2be
00000260: 0220 6b3e 5d9d 023e 52e3 16be 5e8d 173e
00000270: f649 143e 4c67 f9bd e073 91be 24ef 16bd
00000280: d323 2c3e 6a94 a53e a70d 00be 51c5 9b3d
00000290: 4a62 0bbc b87f 893e 8c23 583e e60f d63d
000002a0: 3949 d33d a536 21bc fb1f 853d 25f6 973d
000002b0: 2387 94be 31b9 0a3e 515f 393d cdf5 793e
000002c0: 75e1 833e 35ef ce3e 7d34 1c3e 88d4 06be
000002d0: 23b4 153d 44ba c13d b3a7 e4bc 407e 87be
000002e0: ce59 b6bc 596b 433d 3ac7 023c d6ba a0be
000002f0: c0c4 f8be 2c51 b6bd 9375 73be f98e 10be
00000300: 3e04 c53e ea95 8bbc d2cc 203e 3eab 83bd
00000310: 725b a13d d4da edbd 00ef 66be 44dd c13d
-0.03229255 -0.07910473 -0.3947772 -0.105382375 0.5079613 -0.0010496918 0.006017254 -0.005096543
-0.022149475 -0.2373768 -0.08249164 0.095939584 -0.6183284 0.07294148 -0.15719888 -0.22286
-0.028004304 -0.02362023 -0.0004475573 -0.006526592 -0.09960567 -0.12711848 -0.034051415 -0.022073483
0.054892156 0.39407098 0.14880276 0.106371 -0.15302594 -0.3624966 -0.038143497 0.0021288581
0.33847806 0.12671311 0.1906675 -0.14732783 0.26593417 0.21674612 0.41831657 -0.14970303
-0.13252194 0.045257688 0.070013165 0.4136747 0.06409558 -0.07272701 -0.030818295 -0.06956081
0.38196036 -0.112338156 0.27109537 0.18547615 -0.10564461 -0.36510456 -0.06269084 -0.0660003
0.21157782 -0.1514945 -0.15425551 -0.40771022 -0.119181454 0.15349708 0.03584814 -0.31067994
0.010257224 -0.39124644 -0.26822037 0.0508081 0.26718062 -0.06604249 0.17501086 0.19146268
-0.010702083 -0.06252226 -0.17357211 -0.07947613 -0.29712752 0.039812524 -0.59951276 -0.19478337
-0.10630751 0.13545199 -0.094719075 -0.087402575 -0.70193267 -0.106684916 0.014111631 0.26530746
-0.09365098 0.0153908245 -0.25473964 0.36976397 -0.16314861 -0.19740808 0.19059967 -0.120990746
-0.022220207 0.12584947 -0.002059578 -0.38835794 0.015859134 0.07744962 -0.4207766 0.26774442
-0.30422494 -0.14035498 0.270379 0.068294175 0.13754675 0.0730656 0.012475866 -0.037730347
-0.3223393 0.24584405 0.25788814 0.24780932 -0.09896661 -0.107258186 0.14985096 -0.18602555
-0.0999187 -0.36540133 0.22004823 0.33284077 -0.093853205 0.008349485 0.062953226 -0.11966895
-0.38192552 0.11111218 -0.056533538 -0.19446328 -0.12245997 -0.080266215 0.059548028 0.12774894
0.100827955 0.08750703 -0.6411623 -0.15323284 0.025720235 -0.25945783 -0.0063830987 -0.19430874
-0.010591304 -0.36666074 -0.40133575 -0.106140316 -0.091784805 0.18994337 0.38624135 -0.34815958
0.22961429 0.12755342 -0.14735153 0.14800021 0.14481339 -0.121779054 -0.28408718 -0.036849156
0.16810541 0.32339793 -0.12505208 0.076059945 -0.008507321 0.26855254 0.2110731 0.10452251
0.103167005 -0.009839688 0.065002404 0.07419995 -0.2900935 0.13547207 0.045256916 0.24410172
0.25757948 0.40416875 0.15254398 -0.13167012 0.036548745 0.094593555 -0.027911996 -0.2646351
-0.02225962 0.047709797 0.00798207 -0.31392545 -0.48587608 -0.08902201 -0.2377532 -0.1411704
0.384798 -0.017039258 0.15703133 -0.06429146 0.0787877 -0.11614004 -0.22552109 0.09466031

rb2.shortcut.conv.bias f4 [20]
00000000: 8e93 4538 2cc2 0337 3d0f adb7 ac7e 22b8
00000010: 24c4 0837 1fe7 e137 cb10 c5b8 b08d 70b8
00000020: 7447 5db8 da8d a438 5b8d c937 02d6 d3b5
00000030: b759 5638 04e5 8237 5b68 8036 2ff9 23b8
00000040: 2694 4d36 a0f2 b136 7b0e 39b8 52a7 48b8
4.710588e-05 7.853418e-06 -2.0630303e-05 -3.8741782e-05 8.151899e-06 2.6929714e-05 -9.39682e-05 -5.7352416e-05
-5.2757052e-05 7.846551e-05 2.4026891e-05 -1.578301e-06 5.110513e-05 1.5603851e-05 3.826846e-06 -3.90943e-05
3.0633614e-06 5.3032563e-06 -4.4120923e-05 -4.7839545e-05

rb2.shortcut.bn.weight f4 [20]
00000000: 213a 753f 3628 373f 7862 6b3f dc6c 103f
00000010: cbef 323f 0c81 3a3f e915 153f 5e9a 4a3f
00000020: 4921 513f fc0d 5f3f 111c 173f 6896 333f
00000030: 7315 003f bda2 5e3f ff56 8c3f a00a 033f
00000040: 7693 343f 7809 103f 050d b73e 9847 423f
0.9579182 0.7154573 0.91947126 0.56416106 0.69897145 0.7285316 0.5823656 0.79141796
0.81691414 0.87130713 0.590272 0.70151377 0.5003273 0.8696707 1.0964049 0.5118809
0.7053751 0.5626445 0.3575212 0.75890493

rb2.shortcut.bn.bias f4 [20]
00000000: a89e 3e3e 39cf 3b3d d213 55be 5732 07bb
00000010: 06dd bebd 6956 36be 7525 b43d 421f 79be
00000020: e44e 573e 24db 15be 1a45 323d 5f46 16be
00000030: 0a24 d7bc 0369 663d 2bbf bcbc 7970 1e3e
00000040: 358b c2bc cbd5 febd db66 a83d 5990 8dbe
0.1861521 0.04585192 -0.20808342 -0.002062937 -0.093195006 -0.178064 0.08796207 -0.2432833
0.21026188 -0.14634377 0.04352293 -0.14675282 -0.026262302 0.05625249 -0.023040375 0.15472592
-0.02374802 -0.124431215 0.08222743 -0.2764919

rb2.shortcut.bn.running_mean f4 [20]
00000000: 4831 b3be 0c08 6ebf 4756 9abd c87b 833f
00000010: ab61 d03e f5bd 30bf 348a 1abf 97e9 6fbf
00000020: 3305 2fbf 35a1 0abf 7c88 26bd 3b87 a43d
00000030: 9cfb 28be f449 31bf ae4b 78bf 7736 1e3e
00000040: e341 603f bd42 473f c203 65bf 4c1a c43c
-0.34998536 -0.9298103 -0.07535987 1.027215 0.40699515 -0.6903985 -0.6036713 -0.93715805
-0.6836731 -0.5415223 -0.040657505 0.08033606 -0.16502231 -0.6925347 -0.9699048 0.15450464
0.87600535 0.7783621 -0.8945886 0.02393832

rb2.shortcut.bn.running_var f4 [20]
00000000: 23cf fa3e 530a d63e 77db b93e 5e0a fa3e
00000010: 0f31 db3e 71aa e53e 50c1 c63e 61bc 123f
00000020: 8cc1 b93e 69fa 963e 7f77 f73e fb43 9b3e
00000030: 3fc3 863e 9809 223f 9d4b f13e 5f39 bb3e
00000040: 8430 993e 4ced d73e eca4 0d3f b6eb 333e
0.48986158 0.41804752 0.3630025 0.48836035 0.42810866 0.448566 0.3881936 0.57318693
0.36280477 0.29487923 0.48333356 0.30325302 0.26320836 0.6329589 0.47128 0.36567208
0.29919827 0.4217323 0.55329776 0.17570385

res1_sc1.conv.weight f4 [20, 3, 1, 1]
00000000: f3ae 0cbf 32a3 b53d 0c95 ab3e 2df5 77be
00000010: 357a 0f3f c607 77be 84e1 8f3c fe85 9ebe
00000020: 5489 d2be fc6c cb3e 6eb3 b0be 1fde a2be
00000030: 85c5 f33e 0a50 0dbe 63de 713e ca15 0fbf
00000040: 6881 bcbe 940e aa3e e826 43be 1c64 c53e
00000050: de00 043f 968e bd3e 86c1 11bf 1b4f abbe
00000060: bd7f 2d3e 9892 0e3f d12c 30be be00 863e
00000070: 818f 82be 9451 c9be 3b1d bdbd da56 82be
00000080: 7fc2 d1be 9562 1d3e 6afe acbd be50 d8be
00000090: 8a12 c5be c7fc 4abe 3d82 39bd cb37 b13c
000000a0: 203d 1fbe 596c ffbe 0700 5dbe cbdb 703e
000000b0: b42c c53e 4063 ca3e abdf 363e 91b1 80be
000000c0: 7d4e ab3d 2272 b2be 7e8b 7b3d 45fb 3b3d
000000d0: a5e7 bcbe c002 5d3d 55e0 823e d334 a63e
000000e0: 96d5 94bd f373 06bf d2ee 0e3e 62d0 b23d
-0.5495445 0.08869018 0.3351215 -0.24214621 0.5604585 -0.24124059 0.017563589 -0.30961603
-0.41120398 0.39731586 -0.34511894 -0.3181009 0.47611633 -0.13800064 0.2361999 -0.5589262
-0.3681748 0.33214247 -0.1905781 0.3855294 0.51563823 0.37022847 -0.5693592 -0.3345879
0.1694326 0.55692434 -0.17204596 0.2617244 -0.2550011 -0.39320052 -0.09234091 -0.25456887
-0.409687 0.15369637 -0.08446963 -0.422491 -0.38490707 -0.1982299 -0.04529022 0.02163305
-0.15550661 -0.4988735 -0.21582042 0.23521344 0.38510668 0.39528847 0.1785876 -0.25135472
0.0836458 -0.348527 0.061412327 0.045893926 -0.3689548 0.0539577 0.25561777 0.32462177
-0.07267301 -0.52520674 0.1395829 0.08731152

res1_sc1.conv.bias f4 [20]
00000000: d5c0 0139 36dd 31b9 bd56 dcb8 c2dd 1b37
00000010: 78df d4b8 deba 5eb7 12ac b9b7 f81a a737
00000020: f94d 92b8 4930 bbb7 b847 8838 beb2 8e38
00000030: 1d11 4b37 6e39 09b7 47b7 f4b8 aa4b 8f37
00000040: a8f8 73b8 fae5 c337 c775 36b8 50b4 3db8
0.00012374234 -0.00016962443 -0.00010506574 9.290352e-06 -0.00010150572 -1.327574e-05 -2.2133845e-05 1.992051e-05
-6.976346e-05 -2.2314622e-05 6.498344e-05 6.804381e-05 1.2103727e-05 -8.179208e-06 -0.00011668965 1.7082162e-05
-5.8167294e-05 2.3352903e-05 -4.350187e-05 -4.522904e-05

res1_sc1.bn.weight f4 [20]
00000000: 3333 583f b2c0 6d3f e57d 343f 6861 1b3f
00000010: c78e 0b3f ca32 213f 075c 123f 563a 213f
00000020: b634 263f 13f0 2b3f aafa 1c3f 634e 1a3f
00000030: a7e2 053f 5366 243f 5de7 2c3f acb6 d03e
00000040: 2f15 133f c0bf 013f 077b e73e 4b9a 543f
0.84453124 0.92872155 0.705046 0.60695505 0.54514736 0.6296812 0.5717167 0.6297964
0.6492418 0.671632 0.61319983 0.6027586 0.5229897 0.64218634 0.6754053 0.40764368
0.574542 0.5068321 0.4521105 0.8304793

res1_sc1.bn.bias f4 [20]
00000000: a89e 3e3e 39cf 3b3d d213 55be 5732 07bb
00000010: 06dd bebd 6956 36be 7525 b43d 421f 79be
00000020: e44e 573e 24db 15be 1a45 323d 5f46 16be
00000030: 0a24 d7bc 0369 663d 2bbf bcbc 7970 1e3e
00000040: 358b c2bc cbd5 febd db66 a83d 5990 8dbe
0.1861521 0.04585192 -0.20808342 -0.002062937 -0.093195006 -0.178064 0.08796207 -0.2432833
0.21026188 -0.14634377 0.04352293 -0.14675282 -0.026262302 0.05625249 -0.023040375 0.15472592
-0.02374802 -0.124431215 0.08222743 -0.2764919

res1_sc1.bn.running_mean f4 [20]
00000000: c21b 11bd 6bff f73b c3ae 953d 957f 543d
00000010: 1014 1abd 7a48 12bc f7f6 b1bd 74a4 8a3d
00000020: 7a38 53bc 0920 793d d23a 953d a128 6e3d
00000030: 7a57 e63c 5612 9c3d 8f4d 75bd fbbc 573c
00000040: 2ba9 133c afca 493c 8ae3 7fbc 307c acbb
-0.035426863 0.00756829 0.07308724 0.051879484 -0.03761679 -0.008928413 -0.08689683 0.06769648
-0.012891883 0.060821567 0.0728661 0.058144215 0.028117884 0.07620685 -0.05988842 0.013167615
0.009012501 0.01231639 -0.015618214 -0.0052638277

res1_sc1.bn.running_var f4 [20]
00000000: 4621 c13c e79f d83b 20c3 023e 1bd6 0b3d
00000010: 0660 a53d 705d d03d 198f 103e b635 b83d
00000020: 7048 a13d 2cd6 4e3d 3ab2 123e ae82 263d
00000030: 8656 c53d 9079 da3d a033 543d 6801 0c3d
00000040: 4067 403c 6802 9e3c b07b 833d fcd3 f83c
0.023575436 0.0066108587 0.12769747 0.034139734 0.08074956 0.10174072 0.14117087 0.089946195
0.078751445 0.05049722 0.143258 0.04065197 0.09635644 0.106677175 0.051807046 0.03418103
0.011743367 0.019288257 0.06420076 0.03037452
