models/dense_max/epoch_0020.pth (torch, 645162 bytes, 174 tensors)

rb1.conv1.weight f4 [10, 3, 3, 3]
-0.07928039 0.08062016 -0.07880225 -0.23549631 0.26932773 0.1832882 -0.2024787 0.18949758
-0.120465495 -0.17544991 0.011361432 -0.04329995 -0.31392038 0.2804052 0.16799904 -0.015205506
0.27473214 -0.22817716 -0.022250889 0.00018233871 -0.09169687 -0.2309658 0.043580092 0.0117708035
0.12931217 0.06462248 0.1415602 0.054363154 0.02294986 0.16361487 0.05981824 0.1399476
-0.35497633 -0.057421226 0.04189545 -0.07864111 -0.04005202 -0.022103421 -0.009360544 -0.040260334
0.42722934 -0.23022555 -0.056266386 0.09205557 -0.13272715 -0.13840309 -0.17182715 0.117747724
0.008874574 0.35016587 -0.27182323 -0.008979564 0.09659263 0.04307768 0.030558364 0.27511206
0.19072498 -0.13148618 -0.072919816 0.098364666 -0.05969997 -0.22043766 0.010198968 0.24445851
0.24050878 0.31478193 0.0033190427 -0.17402951 -0.11506809 -0.11076972 -0.26828474 -0.17882794
0.058601912 0.16938901 0.0589623 -0.0004754388 -0.045387767 -0.09458511 0.102004655 -0.20415851
-0.121963605 -0.18871006 0.037641324 -0.15541123 0.07654676 -0.3075676 -0.16415809 0.049399696
0.10184568 0.16557083 -0.105158806 -0.15236314 -0.15527552 0.2192174 -0.26790056 -0.12129375
0.27460212 0.023756359 0.023244506 -0.04642141 0.022701588 -0.13976072 0.014751384 -0.17013799
-0.12593517 0.18973505 0.018929577 0.23023887 -0.23909685 -0.22697061 0.19694258 -0.084219016
-0.17175479 0.14596792 -0.11161186 -0.00946149 0.22704962 0.23683429 -0.2187156 -0.089306206
-0.074960396 -0.016632957 0.16205113 0.095098615 0.115539014 0.12094159 0.2654599 0.08237362
-0.07188951 0.22036314 0.026068486 -0.28487647 0.1469909 0.01910989 -0.18378198 -0.18377995
-0.14265208 0.13550258 0.020215405 -0.14419864 0.010226967 0.11965446 -0.0919168 0.025612716
0.07256444 0.19141006 0.22620033 -0.04832688 -0.44283497 -0.11240622 0.17428368 -0.12735984
-0.3266998 0.02023078 -0.082161 0.22900657 -0.08739383 -0.17590961 0.0017712871 -0.22358783
-0.33394355 0.019775167 -0.021821905 -0.038311906 0.10990488 0.08187227 0.19964378 -0.10950031
-0.02275967 -0.033070426 0.026493508 0.069533706 0.030167475 0.08083767 0.13484015 0.2967063
-0.051646434 0.03984752 0.055899296 -0.1721313 -0.25454876 -0.1477438 -0.09216063 -0.0030797492
0.115329415 0.15191501 -0.074396 0.39681676 0.27529147 0.016582102 -0.13374966 0.19560535
-0.2622294 -0.06442584 0.06889088 0.22328025 -0.053122785 0.19566739 0.12441196 -0.018659633
0.20113422 -0.22039042 -0.38524413 -0.0061350046 0.1513221 0.1292673 -0.25455913 -0.12008406
-0.0909795 0.0691682 -0.085675016 -0.15299939 0.36712864 0.26461142 -0.09538323 -0.034685325
-0.28007782 0.10367872 -0.004872914 -0.023609826 0.19057341 0.29244053 -0.011435354 0.14661925
-0.058746696 -0.084805146 -0.14435327 -0.14978991 0.014722158 0.12378752 -0.065556295 0.24084838
-0.2927301 -0.20429781 0.063951746 0.09581265 -0.106957495 0.11555931 0.2027825 0.020421078
0.03561585 0.016196428 -0.23496605 0.2530354 0.4577097 0.22449373 0.15613225 0.29683304
0.058219634 -0.08322458 -0.18832818 -0.33614567 0.18032996 0.30876705 0.051445343 -0.0602905
00000000: c25d a2bd 2f1c a53d 1363 a1bd f225 71be
00000010: 53e5 893e e7af 3b3e 9456 4fbe a70b 423e
00000020: 9db6 f6bd 24a9 33be 4d25 3a3c 4a5b 31bd
00000030: 2cba a0be 4591 8f3e f107 2c3e 8420 79bc
00000040: b1a9 8c3e 46a7 69be 7f47 b6bc 2d32 3f39
00000050: 92cb bbbd 4c82 6cbe 0a81 323d 54da 403c
00000060: 696a 043e ca58 843d 28f5 103e e6ab 5e3d
00000070: 5801 bc3c a88a 273e f903 753d 6c4e 0f3e
00000080: 75bf b5be 8532 6bbd 909a 2b3d 970e a1bd
00000090: 960d 24bd 3c12 b5bc f85c 19bc 05e8 24bd
000000a0: cebd da3e 3fc0 6bbe 9577 66bd a187 bc3d
000000b0: a0e9 07be 8ab9 0dbe 75f3 2fbe b825 f13d
000000c0: a966 113c f148 b33e 6a2c 8bbe 051f 13bc
000000d0: 5bd2 c53d 3972 303d 8955 fa3c 7ddb 8c3e
000000e0: 694d 433e 50a4 06be fc56 95bd 6a73 c93d
000000f0: f587 74bd 69ba 61be 9319 273c 5553 7a3e
00000100: ef47 763e 192b a13e 4c84 593b cb34 32be
00000110: d2a8 ebbd 3cdb e2bd 9e5c 89be ac1e 37be
00000120: 8f08 703d 5074 2d3e 7482 713d 5144 f9b9
00000130: 86e8 39bd d7b5 c1bd d1e7 d03d ee0e 51be
00000140: 0ec8 f9bd 363d 41be ca2d 1a3d 1f24 1fbe
00000150: 8cc4 9c3d 8079 9dbe 0f19 28be 5657 4a3d
00000160: 7894 d03d 668b 293e 805d d7bd 1505 1cbe
00000170: 8c00 1fbe 877a 603e 432a 89be dc68 f8bd
00000180: a698 8c3e b29c c23c 436b be3c 6024 3ebd
00000190: aef8 b93c 6f1d 0fbe caaf 713c a738 2ebe
000001a0: 26f5 00be e849 423e 3312 9b3c bdc3 6b3e
000001b0: ced5 74be fc6a 68be 51ab 493e 057b acbd
000001c0: 7de0 2fbe 9d78 153e c294 e4bd 5e04 1bbc
000001d0: b27f 683e b084 723e fbf6 5fbe 2ce6 b6bd
000001e0: d684 99bd d741 88bc bbf0 253e 10c3 c23d
000001f0: b89f ec3d 39b0 f73d 5cea 873e 80b3 a83d
00000200: cf3a 93bd e0a6 613e 948d d53c 54db 91be
00000210: c884 163e 588c 9c3c 5831 3cbe d030 3cbe
00000220: 6313 12be 30c1 0a3e c79a a53c cfa8 13be
00000230: 028f 273c 660d f53d e03e bcbd c2d1 d13c
00000240: aa9c 943d 0001 443e 0fa1 673e 68f2 45bd
00000250: 44bb e2be 3b35 e6bd 6c77 323e 9e6a 02be
00000260: 3245 a7be 05bb a53c 0744 a8bd b380 6a3e
00000270: 89fb b2bd a621 34be 882a e83a 35f4 64be
00000280: a6fa aabe 88ff a13c dac3 b2bc f2ec 1cbd
00000290: cf15 e13d a6ac a73d 6b6f 4c3e b341 e0bd
000002a0: 7d72 babc db74 07bd ea08 d93c b067 8e3d
000002b0: c821 f73c 388e a53d 8913 0a3e e3e9 973e
000002c0: 368b 53bd 2737 233d a9f6 643d 3043 30be
000002d0: 3754 82be 274a 17be b6be bcbd 9ed5 49bb
000002e0: d431 ec3d 9c8f 1b3e ee5c 98bd 912b cb3e
000002f0: 01f3 8c3e 30d7 873c acf5 08be c54c 483e
00000300: ef42 86be b2f1 83bd a916 8d3d 94a3 643e
00000310: 4797 59bd 085d 483e b3cb fe3d 16dc 98bc
00000320: 21f6 4d3e 07ae 61be b83e c5be 2608 c9bb
00000330: 2ef4 1a3e a65e 043e 9355 82be a2ee f5bd
00000340: 7653 babd 0fa8 8d3d 6276 afbd dfab 1cbe
00000350: 49f8 bb3e 267b 873e 4858 c3bd 3312 0ebd
00000360: 5c66 8fbe 8255 d43d f7ac 9fbb 6569 c1bc
00000370: ad25 433e c4ba 953e 5a5b 3bbc 5b23 163e
00000380: 60a0 70bd 52ae adbd 58d1 13be 8762 19be
00000390: 3535 713c 5084 fd3d 6142 86bd f5a0 763e
000003a0: b8e0 95be 7233 51be 22f9 823d 6c39 c43d
000003b0: 880c dbbd 5caa ec3d 37a6 4f3e 1b4a a73c
000003c0: ede1 113d 5fae 843c f19a 70be db8d 813e
000003d0: ed58 ea3e afe1 653e 22e1 1f3e 80fa 973e
000003e0: b677 6e3d a671 aabd 1ad9 40be 491b acbe
000003f0: 6ba8 383e b716 9e3e 5ab8 523d 2cf3 76bd

rb1.conv1.bias f4 [10]
-1.8660983e-05 8.759819e-05 0.00013846891 5.827084e-05 0.0001424485 0.00015886908 -6.383763e-05 -0.00031445193
-0.00042607475 8.1067155e-06
00000000: 288a 9cb7 ecb4 b738 f731 1139 d767 7438
00000010: 3a5e 1539 1896 2639 91e0 85b8 06dd a4b9
00000020: c962 dfb9 1402 0837

rb1.bn1.weight f4 [10]
0.7797162 1.2470933 0.85852593 0.86916375 0.5780231 0.79897726 0.6681478 0.9867549
0.82908005 0.66690224
00000000: 7b9b 473f c1a0 9f3f 5bc8 5b3f 8481 5e3f
00000010: 52f9 133f c689 4c3f bc0b 2b3f f89b 7c3f
00000020: 973e 543f 1bba 2a3f

rb1.bn1.bias f4 [10]
0.32968217 1.15099 0.0037133812 0.047868192 0.053285792 -0.023427088 -0.0057596965 0.79083145
0.5551124 0.13170709
00000000: 1acc a83e a453 933f 335c 733b 7011 443d
00000010: 3442 5a3d 2aea bfbc d6bb bcbb ee73 4a3f
00000020: d91b 0e3f 39de 063e

rb1.bn1.running_mean f4 [10]
-0.011247273 -0.0067057176 0.016095791 0.028138047 -0.031532075 0.11454935 -0.08272182 -0.0022405568
-0.015384777 -0.03670221
00000000: 7b46 38bc a3bb dbbb 52db 833c c381 e63c
00000010: c727 01bd da98 ea3d 0f6a a9bd 4ed6 12bb
00000020: 6f10 7cbc 0e55 16bd

rb1.bn1.running_var f4 [10]
0.0738893 0.037915733 0.18895496 0.2192982 0.037260097 0.4220532 0.25873876 0.055743348
0.038485337 0.44006127
00000000: 4653 973d 874d 1b3d 697d 413e b58f 603e
00000010: 0b9e 183d 5b17 d83e 6879 843e 2353 643d
00000020: cda2 1d3d b64f e13e

rb1.conv2.weight f4 [10, 10, 3, 3]
-0.032321613 -0.19111192 0.004698002 0.013801033 -0.14548753 -0.048429366 -0.0028486475 -0.04053668
-0.011826918 0.013524639 0.17687133 -0.26451182 -0.26940128 -0.08668839 0.14926998 0.1431085
-0.20681918 0.005281848 -0.13906033 0.08075984 -0.11106621 0.007520087 -0.20370765 -0.17710617
0.013831651 0.11057455 0.14338604 0.14685889 0.16269408 0.13203037 0.09396116 0.10858888
0.031227587 -0.1281124 -0.06809948 -0.23302284 -0.13801876 0.05195952 -0.037955105 -0.013562156
-0.10565473 0.018936919 -0.065117195 -0.019216912 -0.08424807 0.07784469 0.23151118 0.16500556
-0.030159382 0.00360273 -0.039595615 -0.05065824 0.05818389 0.15150878 -0.06097965 -0.034006674
-0.089341864 -0.093177706 -0.23014808 -0.07560541 0.09797677 0.07059483 -0.06513578 -0.02589857
0.11802594 0.28887603 -0.055304535 -0.25772932 -0.38757586 0.010423272 0.16924514 0.09029528
-0.043263733 -0.16451293 -0.10554564 0.1268593 0.055968802 0.097804524 -0.19204067 -0.011393937
-0.044731963 -0.31314033 -0.31849045 -0.12005788 -0.1690081 -0.043201644 -0.054487024 -0.14137916
-0.08278068 0.05230616 -0.010569545 -0.117051855 0.114438936 0.013087669 0.07843451 0.30921435
-0.04252623 0.16053607 -0.10423932 0.11273797 0.09248672 -0.17172517 0.15784223 -0.45827267
0.06651034 -0.311103 0.13098608 0.15264018 0.016862592 0.12635145 -0.11059963 0.008825634
-0.17249337 -0.15553246 0.02030019 -0.09509833 -0.052793365 -0.22087497 0.10819284 0.0507867
0.06676063 -0.042666193 -0.10459573 0.00036230887 -0.20176937 -0.022801908 0.17476651 0.20882055
0.043618996 0.06569032 -0.030662812 -0.08320248 -0.016534893 -0.14561757 -0.1651066 -0.082569696
-0.08193292 -0.080895275 -0.049837712 -0.064034805 -0.11980969 -0.072170585 -0.17745973 -0.057013202
0.10449154 0.1603151 0.10585723 0.15719312 0.1764351 0.12176812 0.14526023 0.18033798
0.021829316 0.08618546 -0.2747795 -0.0045272135 -0.03965452 -0.26719907 0.19800693 -0.030220112
0.2681023 -0.009986208 0.10544802 -0.011598835 -0.21793854 0.021165505 -0.10813324 0.15372503
-0.012668225 0.14272964 -0.025377922 -0.032578442 -0.00541129 0.02216118 0.057436626 -0.028066164
0.037347525 -0.07424599 0.13941424 0.03359737 0.029609403 -0.31459036 -0.06648483 0.019171508
-0.06727225 -0.015793322 0.07870144 0.070437245 0.06797128 -0.05651757 -0.13033004 0.012917811
-0.0613761 -0.1536683 -0.02456011 -0.011471582 0.13783845 0.15273497 0.27088428 0.058234386
0.040113244 0.3554517 0.06119676 -0.16312496 0.09808521 -0.100898765 -0.050309863 0.10308108
0.05469219 -0.0019824703 0.019927872 0.04542767 2.0078589e-05 0.2854075 -0.01440589 0.025816625
0.11498902 0.12160654 0.029903052 0.24343595 0.07628828 0.03967232 0.10017787 0.04965483
0.0045376457 0.23253109 0.23046945 0.17935614 0.1808378 0.09487833 0.041526727 0.040797036
0.040002316 -0.107788794 0.027146999 -0.029842934 -0.11331013 0.0190966 -0.034850553 -0.103593096
0.015705902 -0.014125109 -0.12574066 0.16997662 0.10394215 -0.0075556817 0.07321023 0.07884763
-0.027388548 -0.11444111 0.025152644 -0.06736536 0.28075856 0.28328282 -0.07512755 0.19742438
00000000: ab63 04bd d8b2 43be b2f1 993b ba1d 623c
00000010: affa 14be df5d 46bd 60b0 3abb ca09 26bd
00000020: b1c5 41bc 7396 5d3c c21d 353e 186e 87be
00000030: f7ee 89be af89 b1bd 3bda 183e 098b 123e
00000040: 68c8 53be 5a13 ad3b d565 0ebe 6a65 a53d
00000050: ae76 e3bd 106b f63b bd98 50be 525b 35be
00000060: 269e 623c e974 e23d cad3 123e 2d62 163e
00000070: 4799 263e f832 073e b56e c03d d963 de3d
00000080: ffd0 ff3c e62f 03be bd77 8bbd 8a9d 6ebe
00000090: ca54 0dbe 81d3 543d d076 1bbd ce33 5ebc
000000a0: 8261 d8bd 9921 9b3c 2a5c 85bd c96c 9dbc
000000b0: 418a acbd 096d 9f3d 4411 6d3e 38f7 283e
000000c0: cf10 f7bc c81b 6c3b 032f 22bd 047f 4fbd
000000d0: 3b52 6e3d 1e25 1b3e ccc5 79bd 954a 0bbd
000000e0: def8 b6bd f4d3 bebd f0ab 6bbe 02d7 9abd
000000f0: 0ba8 c83d 0694 903d e865 85bd 3d29 d4bc
00000100: 96b7 f13d 8fe7 933e 0287 62bd 19f5 83be
00000110: 5870 c6be 5fc6 2a3c 994e 2d3e bbec b83d
00000120: 5035 31bd 1476 28be 5028 d8bd 68e7 013e
00000130: 8b3f 653d bd4d c83d 4fa6 44be a3ad 3abc
00000140: dd38 37bd ee53 a0be 2e11 a3be e8e0 f5bd
00000150: 7610 2dbe 35f4 30bd c92d 5fbd b3c5 10be
00000160: eb88 a9bd fc3e 563d e32b 2dbc e2b8 efbd
00000170: f65e ea3d aa6d 563c 46a2 a03d 5851 9e3e
00000180: fc2f 2ebd 9163 243e 6d7b d5bd 2ae3 e63d
00000190: ad69 bd3d b9d8 2fbe 65a1 213e b7a2 eabe
000001a0: 9336 883d e448 9fbe 3721 063e b54d 1c3e
000001b0: 6b23 8a3c 4662 013e 0f82 e2bd 6499 103c
000001c0: 1aa2 30be e743 1fbe 964c a63c eac2 c2bd
000001d0: db3d 58bd 0c2d 62be 3594 dd3d b705 503d
000001e0: ccb9 883d bfc2 2ebd 4936 d6bd 46f4 bd39
000001f0: a19c 4ebe 11cb babc fef5 323e 0ed5 553e
00000200: d5a9 323d a688 863d 9430 fbbc 1066 aabd
00000210: 2f74 87bc c61c 15be b411 29be 4d1a a9bd
00000220: 72cc a7bd 6cac a5bd a122 4cbd ae24 83bd
00000230: c85e f5bd 2cce 93bd 01b8 35be ad86 69bd
00000240: a9ff d53d a429 243e adcb d83d 3cf7 203e
00000250: 67ab 343e 9061 f93d 19bf 143e 85aa 383e
00000260: 65d3 b23c 0182 b03d e6af 8cbe 0559 94bb
00000270: c76c 22bd 51ce 88be 54c2 4a3e 2b90 f7bc
00000280: b444 893e 319d 23bc 22f5 d73d 0a09 3ebc
00000290: 482b 5fbe 4863 ad3c f674 ddbd 186a 1d3e
000002a0: 638e 4fbc b827 123e 5ce5 cfbc f970 05bd
000002b0: 3151 b1bb 5d8b b53c ab42 6b3d 03eb e5bc
000002c0: b8f9 183d 480e 98bd 9bc2 0e3e 659d 093d
000002d0: 6b8f f23c fd11 a1be 3329 88bd 910d 9d3c
000002e0: 09c6 89bd ff60 81bc 382e a13d 6741 903d
000002f0: 8734 8b3d f87e 67bd 3d75 05be 3aa5 533c
00000300: 8165 7bbd 395b 1dbe 4932 c9bc 4df3 3bbc
00000310: 8625 0d3e 8e66 1c3e 58b1 8a3e 2e87 6e3d
00000320: c94d 243d c4fd b53e 74a9 7a3d 3b0a 27be
00000330: e6e0 c83d 03a4 cebd b711 4ebd 2c1c d33d
00000340: eb04 603d 55ec 01bb c73f a33c 5d12 3a3d
00000350: 716e a837 ef20 923e af06 6cbc 637d d33c
00000360: 5d7f eb3d da0c f93d 3ff7 f43c 4647 793e
00000370: 083d 9c3d 717f 223d 0e2a cd3d dd62 4b3d
00000380: 88b0 943b a11c 6e3e 2f00 6c3e 23a9 373e
00000390: 8b2d 393e 924f c23d ee17 2a3d cb1a 273d
000003a0: 78d9 233d 5fc0 dcbd 6263 de3c 2b79 f4bc
000003b0: 240f e8bd 7970 9c3c 74bf 0ebd 9e28 d4bd
000003c0: aaa9 803c 006d 67bc 29c2 00be 5a0e 2e3e
000003d0: 9fdf d43d a795 f7bb 3fef 953d de7a a13d
000003e0: f35d e0bc 1a60 eabd eb0c ce3c daf6 89bd
000003f0: 96bf 8f3e 720a 913e 79dc 99bd 9e29 4a3e

rb1.conv2.bias f4 [10]
7.234481e-05 -6.552249e-06 5.0014176e-05 9.2052636e-05 -3.2724038e-05 8.474043e-05 0.00011562786 7.666708e-05
2.7680986e-05 6.6695895e-05
00000000: d3b7 9738 64db dbb6 50c6 5138 620c c138
00000010: 2b41 09b8 acb6 b138 3c7d f238 53c8 a038
00000020: 7734 e837 16df 8b38

rb1.bn2.weight f4 [10]
1.0331794 1.133515 0.80728686 1.1112202 0.73598427 1.0710288 1.323479 1.0586798
1.1195133 0.8602606
00000000: 393f 843f 0517 913f 5aaa 4e3f 773c 8e3f
00000010: 7769 3c3f 7917 893f c367 a93f d282 873f
00000020: 364c 8f3f 0a3a 5c3f

rb1.bn2.bias f4 [10]
0.05449299 -0.061926473 0.28333494 -0.025664413 0.2579928 0.08686967 -0.0181089 0.097432874
0.054609608 0.26639616
00000000: 0b34 5f3d 9da6 7dbd 4711 913e 2d3e d2bc
00000010: a217 843e bae8 b13d 1e59 94bc e38a c73d
00000020: 53ae 5f3d 1465 883e

rb1.bn2.running_mean f4 [10]
-1.3013878 -0.25230148 0.8324455 -0.07682749 -0.65662336 -0.17239614 -0.64547694 -0.25103977
0.049938537 1.5903654
00000000: e093 a6bf a92d 81be 261b 553f bb57 9dbd
00000010: 7818 28bf 9d88 30be fa3d 25bf 4988 80be
00000020: 5a8c 4c3d 1891 cb3f

rb1.bn2.running_var f4 [10]
1.5596763 1.2637887 0.95574474 1.5586085 0.8753739 1.7214388 2.1939836 1.6477689
2.0143123 1.595134
00000000: 79a3 c73f d4c3 a13f b0ab 743f 7c80 c73f
00000010: 8118 603f 1b58 dc3f 3a6a 0c40 17ea d23f
00000020: 7eea 0040 5a2d cc3f

rb1.shortcut.conv.weight f4 [10, 3, 1, 1]
0.45141098 0.004844105 0.33847618 -0.33321995 -0.5460085 -0.37299815 0.3710901 -0.35382333
0.106933594 -0.47780776 -0.6965648 0.18147145 -0.099734046 -0.19150566 0.5843595 0.3649952
0.1403798 0.49356598 -0.3748055 -0.33706027 -0.32055402 -0.28176674 -0.7034739 0.2678987
-0.307628 -0.51806325 -0.07221052 -0.28558242 0.057140935 -0.58599013
00000000: 571f e73e 4cbb 9e3b c04c ad3e ce9b aabe
00000010: 37c7 0bbf 9df9 bebe 86ff bd3e 5528 b5be
00000020: 0000 db3d 38a3 f4be 1252 32bf a7d3 393e
00000030: 5d41 ccbd 0f1a 44be 9698 153f a7e0 ba3e
00000040: b9bf 0f3e aeb4 fc3e 82e6 bfbe 2a93 acbe
00000050: a81f a4be bb43 90be de16 34bf 052a 893e
00000060: 6b81 9dbe cb9f 04bf 1ce3 93bd dc37 92be
00000070: 9d0c 6a3d 7303 16bf

rb1.shortcut.conv.bias f4 [10]
-1.9247253e-05 -2.626245e-05 1.7418157e-05 -1.5735279e-05 8.554115e-05 -0.00011297775 4.9565908e-05 0.00013991653
0.000112413945 -6.0651096e-06
00000000: 2975 a1b7 2f4e dcb7 351d 9237 41ff 83b7
00000010: 8e64 b338 78ee ecb8 fde4 4f38 8fb6 1239
00000020: c7bf eb38 e582 cbb6

rb1.shortcut.bn.weight f4 [10]
0.9802439 0.9165188 1.0187318 0.89007884 1.1369922 0.9390939 0.58587915 0.6883699
0.8966925 0.90875345
00000000: 44f1 7a3f faa0 6a3f ce65 823f 35dc 633f
00000010: f688 913f 7568 703f 2dfc 153f 0339 303f
00000020: a48d 653f 11a4 683f

rb1.shortcut.bn.bias f4 [10]
0.05449299 -0.061926473 0.28333494 -0.025664413 0.2579928 0.08686967 -0.0181089 0.097432874
0.054609608 0.26639616
00000000: 0b34 5f3d 9da6 7dbd 4711 913e 2d3e d2bc
00000010: a217 843e bae8 b13d 1e59 94bc e38a c73d
00000020: 53ae 5f3d 1465 883e

rb1.shortcut.bn.running_mean f4 [10]
-0.062234312 0.0913335 -0.009515028 0.03327182 -0.061296508 -0.08620995 0.07480828 0.0146566
0.049797308 0.08426543
00000000: 68e9 7ebd 0f0d bb3d ece4 1bbc 0848 083d
00000010: 0c12 7bbd d88e b0bd 1535 993d 3c22 703c
00000020: 43f8 4b3d 5b93 ac3d

rb1.shortcut.bn.running_var f4 [10]
0.15103629 0.37757245 0.006706191 0.24353415 0.033797175 0.24075468 0.25520664 0.13149777
0.1942643 0.1640822
00000000: 42a9 1a3e 2d51 c13e 9cbf db3b 0461 793e
00000010: e86e 0a3d 6588 763e 72aa 823e 5aa7 063e
00000020: 38ed 463e 2a05 283e

rb2.conv1.weight f4 [20, 10, 3, 3]
0.08226594 0.13654652 0.07127318 0.17019483 0.22877917 0.13776574 0.051926456 0.102610536
0.122744925 0.14863826 -0.11827741 -0.119285874 -0.123312205 -0.071895204 -0.034013037 0.1620689
-0.15128541 -0.106923506 -0.104851805 -0.32006127 -0.18217027 0.011454411 -0.24227057 -0.144732
0.050636563 0.06319071 -0.08668206 -0.0033078054 -0.111945465 0.102367215 0.08052783 0.065854065
0.11441373 0.047196247 0.051217046 0.21574414 0.0018442144 0.1363416 -0.023268873 -0.07241983
0.016468378 0.083433315 0.01131032 -0.299557 -0.2421254 0.09396202 0.044710614 0.06506044
-0.14066522 -0.065424845 -0.07430506 -0.047380015 -0.46325263 -0.023839874 0.11350308 0.075886644
0.15846872 0.07428649 0.04382945 0.11350435 0.05671719 -0.028273134 -0.046202336 0.07720558
-0.07979564 0.062439617 -0.09334948 -0.35234407 -0.0719759 0.069180995 -0.15179981 -0.11931891
-0.020163773 0.007529785 -0.1546397 -0.17582355 0.07296749 0.15482134 -0.16384685 -0.031067673
0.10195323 -0.1361789 0.01176743 -0.15368019 0.011161366 0.040307973 -0.022956058 -0.08227302
0.05997115 0.21933207 -0.25497276 -0.17521803 -0.08141166 0.034877077 -0.06329829 -0.010093948
0.15043351 0.190255 0.2121911 -0.28634638 -0.15521044 -0.04297364 -0.1446641 0.08437608
-0.0064082164 -0.068166025 -0.030693071 -0.015330296 -0.26920548 -0.37951878 -0.24173595 0.1019223
0.029452851 -0.023335395 0.19670755 0.25233352 0.3029679 -0.07268548 0.015311087 -0.019468237
-0.17101365 0.059057537 -0.104797125 -0.09536808 -0.0067697647 -0.08299788 0.17955147 0.23091039
0.02595341 0.008774177 -0.020093072 -0.13580045 -0.18206047 -0.24880141 -0.23290864 0.0005477302
-0.01563801 0.1348174 -0.057030253 0.02979919 0.04604282 0.04999839 -0.016675118 0.08300938
0.093181826 0.116164245 0.044032816 -0.060875714 0.020014044 -0.10210891 -0.021882428 0.025584871
-0.046895158 0.15238202 0.27848902 0.13548218 -0.010920568 0.073616266 0.11019245 -0.14380817
0.021099465 -0.062028006 -0.109787196 0.081273355 -0.07875154 -0.12000451 0.08446013 -0.17935804
0.033109855 0.037301533 -0.061881896 -0.05577299 0.018942157 0.008386492 0.020790558 0.14458765
0.05783036 -0.0059216325 0.086839594 -0.0645952 -0.040843673 0.06961194 -0.10097749 -0.017635917
0.053240374 -0.030276587 -0.017242525 -0.057517655 0.06209056 -0.014839444 0.023302045 0.19404499
-0.1568118 0.06092031 0.113992445 -0.093708366 -0.2560963 -0.18315159 0.1057881 -0.18602996
0.058524154 0.18571122 -0.02952106 -0.022935893 0.052580655 0.042913895 0.064179264 0.2531438
0.22779742 0.13235839 -0.017473208 0.19236177 0.04751447 -0.09998495 0.110057995 0.040596515
-0.14592542 0.018130472 -0.05920927 -0.06784585 -0.059762962 0.004378909 0.09587726 -0.04546598
-0.007902258 0.12792097 0.057774648 -0.083490394 -0.33442444 0.041029815 0.03773032 -0.25367108
0.023055004 0.08384949 0.23074466 0.19407761 0.043291677 -0.12046491 -0.07902006 -0.12577865
-0.5845225 -0.43746233 -0.15642998 -0.028661333 -0.006850131 0.064094186 -0.101417854 0.056078903
0.0874982 -0.06706751 -0.075186916 -0.09191079 -0.090191506 -0.077402644 -0.021318728 -0.16850612
00000000: 0c7b a83d dad2 0b3e acf7 913d 8e47 2e3e
00000010: 1645 6a3e 7612 0d3e d6b0 543d 7925 d23d
00000020: b161 fb3d a134 183e 6d3b f2bd 274c f4bd
00000030: 1c8b fcbd cb3d 93bd 4151 0bbd 64f5 253e
00000040: 90ea 1abe b6fa dabd 8bbc d6bd 12df a3be
00000050: d88a 3abe 48ab 3b3c c715 78be a034 14be
00000060: 4968 4f3d 226a 813d 5d86 b1bd c4c7 58bb
00000070: aa43 e5bd e7a5 d13d c6eb a43d 7fde 863d
00000080: bf51 ea3d da50 413d f7c8 513d 08ec 5c3e
00000090: 91b9 f13a 229d 0b3e 5d9e bebc d950 94bd
000000a0: b1e8 863c 16df aa3d ec4e 393c 895f 99be
000000b0: b9ef 77be 296f c03d 7a22 373d 683e 853d
000000c0: 8b0a 10be 76fd 85bd 402d 98bd 8c11 42bd
000000d0: 732f edbe d74b c3bc 4e74 e83d 756a 9b3d
000000e0: a045 223e 8423 983d 8286 333d f874 e83d
000000f0: 4950 683d 0f9d e7bc a93e 3dbd f61d 9e3d
00000100: e66b a3bd afc0 7f3d 032e bfbd 7166 b4be
00000110: 1a68 93bd c4ae 8d3d 6971 1bbe 795d f4bd
00000120: 7f2e a5bc 6abc f63b df59 1ebe 170b 34be
00000130: fb6f 953d 7c89 1e3e 78c7 27be a281 febc
00000140: dbcc d03d 7b72 0bbe 2ecc 403c 575e 1dbe
00000150: 29de 363c f919 253d 580e bcbc c27e a8bd
00000160: 4fa4 753d 9698 603e ca8b 82be 5b6c 33be
00000170: 28bb a6bd 44db 0e3d 89a2 81bd 1661 25bc
00000180: 3e0b 1a3e 35d2 423e a048 593e fe9b 92be
00000190: 7cef 1ebe 2105 30bd d322 14be 5ecd ac3d
000001a0: 04fc d1bb a19a 8bbd 0970 fbbc ec2b 7bbc
000001b0: 4dd5 89be 4950 c2be a189 77be a4bc d03d
000001c0: 1b47 f13c df29 bfbc b46d 493e dc31 813e
000001d0: 9c1e 9b3e 20dc 94bd 5adb 7a3c da7b 9fbc
000001e0: 341e 2fbe 51e6 713d e09f d6bd 5750 c3bd
000001f0: e7d4 ddbb cbfa a9bd 57dc 373e c673 6c3e
00000200: 3f9c d43c 91c1 0f3c 3a9a a4bc 460f 0bbe
00000210: 0f6e 3abe ccc5 7ebe 9a7f 6ebe 8d95 0f3a
00000220: 491b 80bc 930d 0a3e 8e98 69bd 6e1d f43c
00000230: 6597 3c3d 1dcb 4c3d 429a 88bc d200 aa3d
00000240: 1dd6 be3d 85e7 ed3d c15b 343d d058 79bd
00000250: 7ef4 a33c 7a1e d1bd c742 b3bc 5d97 d13c
00000260: 2315 40bd 080a 1c3e 1d96 8e3e d7bb 0a3e
00000270: 2fec 32bc 20c4 963d 94ac e13d 7342 13be
00000280: c9d8 ac3c 1411 7ebd 1cd8 e0bd a572 a63d
00000290: 7d48 a1bd edc4 f5bd 6ff9 ac3d a2a9 37be
000002a0: 339e 073d 7ec9 183d df77 7dbd 3872 64bd
000002b0: 952c 9b3c 7f67 093c f650 aa3c c90e 143e
000002c0: 87df 6c3d 410a c2bb f5d8 b13d 7d4a 84bd
000002d0: b24b 27bd b490 8e3d 49cd cebd 3379 90bc
000002e0: 9412 5a3d 9b06 f8bc 3240 8dbc a297 6bbd
000002f0: ac52 7e3d 2421 73bc eee3 be3c bbb3 463e
00000300: 4693 20be 9387 793d df74 e93d 2cea bfbd
00000310: 0e1f 83be 178c 3bbe 6ea7 d83d a37e 3ebe
00000320: 06b7 6f3d 152b 3e3e 26d6 f1bc 0ee4 bbbc
00000330: d05e 573d 7bc6 2f3d 6b70 833d 109c 813e
00000340: ba43 693e f588 073e f923 8fbc 7cfa 443e
00000350: 889e 423d e9c4 ccbd 1666 e13d 8848 263d
00000360: 796d 15be 5b86 943c 6b85 72bd c4f2 8abd
00000370: 02ca 74bd f37c 8f3b 4c5b c43d 893a 3abd
00000380: 7978 01bc b7fd 023e 1ca5 6c3d 03fd aabd
00000390: ae39 abbe e10e 283d 1c8b 1a3d 2de1 81be
000003a0: d9dd bc3c 48b9 ab3d 5448 6c3e 48bc 463e
000003b0: 9d52 313d 4fb6 f6bd 45d5 a1bd 1ecc 00be
000003c0: 44a3 15bf 10fb dfbe 2e2f 20be 2ccb eabc
000003d0: 1077 e0bb d043 833d 2ab4 cfbd feb2 653d
000003e0: 4232 b33d b15a 89bd 99fb 99bd b93b bcbd
000003f0: 53b6 b8bd 4785 9ebd 9da4 aebc de8c 2cbe

rb2.conv1.bias f4 [20]
5.6573073e-05 0.000102223246 2.8024364e-05 -7.126867e-05 -7.992443e-06 -1.0966815e-05 -9.224206e-06 4.3868742e-05
-1.4553533e-05 -4.6808756e-05 -1.8206234e-05 -2.3495162e-05 -2.21784e-05 2.9767354e-05 -2.3322862e-05 3.7328977e-05
4.7472142e-05 -3.4347586e-06 -3.0867945e-05 4.8930553e-05
00000000: e048 6d38 b060 d638 dd15 eb37 1376 95b8
00000010: 4817 06b7 1dfe 37b7 aac1 1ab7 b4ff 3738
00000020: f32a 74b7 8554 44b8 97b9 98b7 7a17 c5b7
00000030: c00b bab7 e8b4 f937 77a5 c3b7 af91 1c38
00000040: d31c 4738 b480 66b6 3478 01b8 c83a 4d38

rb2.bn1.weight f4 [20]
0.8263921 0.8717817 0.8932376 1.0594141 1.0663437 0.7453937 0.95406204 0.8516199
0.6869399 0.85775834 0.78728634 1.0147722 1.0192173 0.95964235 0.9211437 1.0884674
0.90654683 0.87804854 0.9694097 0.94712865
00000000: 6f8e 533f 162d 5f3f 38ab 643f e29a 873f
00000010: f37d 883f 1fd2 3e3f 693d 743f c303 5a3f
00000020: 4bdb 2f3f 0d96 5b3f 998b 493f 0ee4 813f
00000030: b675 823f 1fab 753f 13d0 6b3f e652 8b3f
00000040: 7413 683f cac7 603f 3c2b 783f 0677 723f

rb2.bn1.bias f4 [20]
0.017519725 -0.15624276 0.11724838 -0.019632082 -0.27354285 -0.07598912 0.040574256 0.15213124
-0.004150962 0.09618597 0.03844679 0.066934444 -0.09413281 0.03884707 -0.114172846 -0.07471044
0.12652165 0.00040180652 0.12308201 -0.0905557
00000000: 8785 8f3c 1afe 1fbe eb1f f03d 76d3 a0bc
00000010: cf0d 8cbe 2fa0 9bbd 3131 263d 4bc8 1b3e
00000020: cb04 88bb 26fd c43d 627a 1d3d ed14 893d
00000030: b4c8 c0bd 1b1e 1f3d 74d3 e9bd ca01 99bd
00000040: e48e 013e 8fa9 d239 6c12 fc3d 4475 b9bd

rb2.bn1.running_mean f4 [20]
-1.1194322 -0.37068927 -1.6723169 -2.9193678 -1.1308672 0.16631807 -1.2134849 -1.5578282
1.2219993 -0.026187286 -0.40995935 -0.9417306 -2.5616024 -0.65776736 -0.6582146 -1.7655367
-1.8546301 -0.41903517 -1.901649 -0.24333967
00000000: 8e49 8fbf fcca bdbe 7b0e d6bf ecd6 3ac0
00000010: 42c0 90bf 494f 2a3e 7953 9bbf ea66 c7bf
00000020: 796a 9c3f b886 d6bc 31e6 d1be 4215 71bf
00000030: 4bf1 23c0 7163 28bf c180 28bf 1bfd e1bf
00000040: 8564 edbf c78b d6be 3c69 f3bf 092e 79be

rb2.bn1.running_var f4 [20]
1.5489511 1.5168788 1.8880104 2.817748 2.4184668 1.4557304 2.2546427 2.568461
1.2778847 1.1716596 1.5635211 2.290787 2.5897427 2.0166922 1.4332978 2.5650659
2.3139255 1.9636295 1.8965356 2.1823323
00000000: 0844 c63f 1629 c23f 53aa f13f fc55 3440
00000010: 29c8 1a40 6055 ba3f 114c 1040 aa61 2440
00000020: ba91 a33f f1f8 953f 7621 c83f 419c 1240
00000030: 58be 2540 7c11 0140 4d76 b73f 0a2a 2440
00000040: 5b17 1440 3658 fb3f aec1 f23f 55ab 0b40

rb2.conv2.weight f4 [20, 20, 3, 3]
-0.015448626 0.09465786 -0.045534693 0.013705185 0.013705179 -0.11864616 -0.031094978 -0.1420206
-0.06270404 -0.21013062 0.15649961 0.13439701 0.013245632 0.17371564 0.118806124 0.056002397
0.072670996 0.1451883 0.00655635 -0.052693326 0.04235115 0.14394456 0.05488793 -0.008328585
-0.008224692 -0.011193141 -0.12607801 -0.17581938 -0.0148764085 -0.14253137 -0.11063185 0.1111164
-0.24169835 -0.2975999 -0.046714272 -0.040236194 -0.1330634 -0.07437029 -0.09711114 -0.005991119
0.014048601 -0.032333065 0.08373321 0.16361406 0.053266156 -0.15913995 -0.019813452 -0.071874104
-0.17829473 0.15284106 0.03139564 0.059387643 -0.02731498 0.019212417 -0.01845663 -0.010181708
-0.10550723 0.09694717 -5.65601e-05 -0.083524935 -0.12421109 -0.16489325 0.02574638 -0.18649279
-0.0725697 -0.13021609 -0.040700763 -0.13253744 -0.13681 -0.11217367 -0.2124078 0.06834837
0.1799092 -0.26305288 -0.24642147 0.2570491 0.051916484 -0.1142718 -0.074963585 0.018355977
0.10071 0.05210911 -0.2078385 -0.22435054 0.080234006 -0.097218476 0.13555875 -0.05212008
0.08082688 0.28012374 0.021551825 0.021873781 -0.08474788 0.17886525 0.08246248 -0.07127391
0.06694406 -0.15114985 -0.28381824 -0.0005855375 0.057307918 0.15082903 0.006380933 -0.062115166
0.1129827 -0.0819629 -0.1096998 -0.092794076 -0.042304087 0.0582491 -0.028804552 -0.14337358
-0.14883204 -0.11584861 -0.31899217 -0.17692982 -0.2015234 0.004935947 0.051928155 0.0018330935
0.10827692 -0.032108616 0.06989289 0.10168997 -0.011629504 -0.0021372251 0.19277821 0.0139031075
0.15817246 0.0035613244 -0.1030577 0.124114096 0.04561649 0.11007467 0.20859048 0.07309405
0.07845533 0.13458875 -0.0010455211 0.10406217 0.08604044 0.029699339 -0.022857035 -0.19780326
0.06278739 0.0047296947 0.04610642 0.058694374 0.10895582 0.044224143 -0.0842993 -0.03949467
0.039696217 0.056544505 -0.10057418 0.01558208 0.0015323507 -0.16527799 0.04467752 -0.0022701246
-0.032915775 -0.054762546 -0.135812 0.0045473194 -0.0038636113 -0.12640369 0.118137516 0.070707664
-0.26093155 -0.035745118 -0.11753828 0.22879715 0.05358316 0.09738225 0.06357576 0.08589596
0.15399766 0.13953842 0.17283672 0.046249785 0.13278042 0.13676056 -0.18469419 -0.21208566
0.06977278 -0.10938742 -0.0002771707 -0.06544112 -0.11482566 -0.071934804 -0.24286896 -0.056028936
0.13131134 -0.031307254 0.05661397 0.07412924 0.06515578 0.0036988955 -0.09080352 -0.08782253
-0.055828214 -0.21450444 -0.081113845 -0.044523537 -0.025463501 0.04775534 0.041867588 -0.13767666
0.011348498 -0.017382406 -0.14635961 0.08455996 -0.113146566 -0.22958952 -0.17109343 -0.16477376
-0.19827424 -0.12901351 -0.1159818 -0.06440899 0.014827637 -0.16251072 0.09616603 -0.06935956
-0.11674466 -0.06747268 -0.079900496 0.1588611 -0.23699468 -0.21300866 0.066520974 0.035052598
-0.009062102 0.0885448 -0.024473047 -0.030866373 0.15468758 -0.039144054 0.020941764 0.04220659
-0.002935103 0.11966778 -0.018644901 0.042869486 0.022469964 -0.21086375 0.06706985 0.11476687
-0.07816115 -0.03030278 -0.05703631 -0.12438849 -0.14159957 -0.066771165 -0.097910136 0.102969535
00000000: 3c1c 7dbc fbdb c13d 9682 3abd b68b 603c
00000010: b08b 603c c2fc f2bd e5ba febc d96d 11be
00000020: fa6a 80bd 7b2c 57be 6f41 203e 5f9f 093e
00000030: 3504 593c 83e2 313e a050 f33d c562 653d
00000040: 88d4 943d 3eac 143e a6d6 d63b f5d4 57bd
00000050: 6678 2d3d 3466 133e 2bd2 603d 9e74 08bc
00000060: dcc0 06bc 7063 37bc 981a 01be ff09 34be
00000070: 2ebc 73bc bef3 11be f492 e2bd ff90 e33d
00000080: c67f 77be 045f 98be 7757 3fbd b5ce 24bd
00000090: c641 08be 734f 98bd 35e2 c6bd 2651 c4bb
000000a0: 1a2c 663c ad6f 04bd 517c ab3d 728a 273e
000000b0: 9d2d 5a3d 95f5 22be d24f a2bc bb32 93bd
000000c0: e592 36be 5e82 1c3e b798 003d 7540 733d
000000d0: aac3 dfbc 5c63 9d3c 5c32 97bc 2ed1 26bc
000000e0: 2d14 d8bd 3d8c c63d f23a 6db8 1f0f abbd
000000f0: 6262 febd c7d9 28be 13ea d23c f7f7 3ebe
00000100: 6c9f 94bd 5e57 05be d8b5 26bd e5b7 07be
00000110: ec17 0cbe 4fbb e5bd 6e81 59be 3bfa 8b3d
00000120: 1e3a 383e deae 86be e955 7cbe f19b 833e
00000130: 61a6 543d 5507 eabd 8286 99bd 465f 963c
00000140: 0b41 ce3d 5d70 553d 9ed3 54be 26bc 65be
00000150: ba51 a43d 7b1a c7bd eacf 0a3e dd7b 55bd
00000160: 9088 a53d 616c 8f3e 748d b03c a530 b33c
00000170: 4c90 adbd 7428 373e 17e2 a83d 0ef8 91bd
00000180: f819 893d 07c7 1abe a050 91be c27e 19ba
00000190: b5bb 6a3d ed72 1a3e 2517 d13b 796c 7ebd
000001a0: 7963 e73d 2adc a7bd 4aaa e0bd d20a bebd
000001b0: 0d47 2dbd 9c96 6e3d 86f7 ebbc 86d0 12be
000001c0: 6d67 18be 0942 edbd f152 a3be 172d 35be
000001d0: 265c 4ebe b9bd a13b 9eb2 543d 6944 f03a
000001e0: 4ac0 dd3d 5384 03bd 0124 8f3d d542 d03d
000001f0: ad89 3ebc b010 0cbb a767 453e dcc9 633c
00000200: f6f7 213e 1c65 693b ea0f d3bd 882f fe3d
00000210: 5bd8 3a3d d46e e13d be98 553e 55b2 953d
00000220: 30ad a03d a2d1 093e de09 89ba 8c1e d53d
00000230: f835 b03d 074c f33c ad3e bbbc f08c 4abe
00000240: ad96 803d 8efb 9a3b 16da 3c3d 8369 703d
00000250: 3b24 df3d 6024 353d 1da5 acbd 2ac5 21bd
00000260: 8098 223d 369b 673d d6f9 cdbd fb4b 7f3c
00000270: 28d9 c83a a23e 29be c6ff 363d 5fc6 14bb
00000280: b1d2 06bd b14e 60bd 4d12 0bbe ae01 953b
00000290: a434 7dbb f86f 01be 15f2 f13d 2ecf 903d
000002a0: d298 85be 7969 12bd e9b7 f0bd cd49 6a3e
000002b0: 047a 5b3d 5870 c73d 0234 823d 39ea af3d
000002c0: 90b1 1d3e 29e3 0e3e 1cfc 303e 6a70 3d3d
000002d0: 97f7 073e f60a 0c3e 7920 3dbe fc2c 59be
000002e0: 08e5 8e3d 8306 e0bd 3951 91b9 fe05 86bd
000002f0: b729 ebbd 8e52 93bd a4b2 78be 997e 65bd
00000300: 7b76 063e 093c 00bd 0de4 673d 12d1 973d
00000310: 6570 853d 2b69 723b 32f7 b9bd 4cdc b3bd
00000320: 20ac 64bd 0da7 5bbe 041f a6bd 505e 36bd
00000330: d598 d0bc 1a9b 433d 597d 2b3d 1cfb 0cbe
00000340: 0def 393c 8c65 8ebc 4bdf 15be c62d ad3d
00000350: 63b9 e7bd 8419 6bbe 1e33 2fbe 74ba 28be
00000360: 6708 4bbe 1e1c 04be de87 edbd dce8 83bd
00000370: 9eef 723c 3669 26be b2f2 c43d 630c 8ebd
00000380: d317 efbd 1e2f 8abd dfa2 a3bd 7cac 223e
00000390: bcae 72be f11e 5abe 263c 883d 5093 0f3d
000003a0: 3679 14bc fa56 b53d b37b c8bc 7adb fcbc
000003b0: 6c66 1e3e 8455 20bd 108e ab3c d1e0 2c3d
000003c0: db5a 40bb 6214 f53d 31bd 98bc ea97 2f3d
000003d0: ee12 b83c abec 57be eb5b 893d e50a eb3d
000003e0: f412 a0bd 893d f8bc e89e 69bd 65bf febd
000003f0: 7aff 10be 52bf 88bd 1c85 c8bd b1e1 d23d

rb2.conv2.bias f4 [20]
-2.803306e-05 1.8295472e-05 -1.799012e-05 -2.4102217e-05 -5.5859196e-05 1.4266019e-05 5.041191e-06 0.00010393753
-4.067997e-05 4.9192262e-05 -7.6495335e-06 7.3151286e-06 -1.4465931e-05 -1.7103857e-05 -3.6737947e-05 9.54446e-06
-1.53145e-05 -2.4910156e-05 1.9487994e-05 7.244131e-05
00000000: 8a28 ebb7 3a79 9937 7de9 96b7 1e2f cab7
00000010: 5b4a 6ab8 1658 6f37 8027 a936 09f9 d938
00000020: c99f 2ab8 ca53 4e38 7f56 00b7 7a74 f536
00000030: b3b2 72b7 417a 8fb7 1217 1ab8 2521 2037
00000040: a377 80b7 27f6 d0b7 267a a337 a2eb 9738

rb2.bn2.weight f4 [20]
0.8612244 0.9292619 1.2027545 1.1165978 1.1884421 1.0899321 1.247685 1.2241907
1.2434939 1.1642396 1.1842164 1.0002465 1.1754522 1.0060409 1.1004591 1.283554
1.3370247 1.2964268 1.1163917 0.86842597
00000000: 3479 5c3f 1ce4 6d3f dcf3 993f adec 8e3f
00000010: df1e 983f e582 8b3f 24b4 9f3f 48b2 9c3f
00000020: cf2a 9f3f ce05 953f 6794 973f 1408 803f
00000030: 3875 963f f3c5 803f d8db 8c3f 7f4b a43f
00000040: a023 ab3f 50f1 a53f ece5 8e3f 2a51 5e3f

rb2.bn2.bias f4 [20]
0.2026031 0.050171934 -0.18934691 -0.0042649256 -0.086671926 -0.16740264 0.09495179 -0.24106471
0.22417589 -0.1558425 0.04592987 -0.14335999 -0.010846471 0.056684624 -0.015842559 0.1611457
-0.030389545 -0.12585862 0.089031786 -0.27208364
00000000: 3077 4f3e 1681 4d3d 28e4 41be cac0 8bbb
00000010: 0d81 b1bd 996b 2bbe 1676 c23d abd9 76be
00000020: 5d8e 653e 2d95 1fbe f620 3c3d f6cc 12be
00000030: 66b5 31bc 232e 683d 41c8 81bc 6103 253e
00000040: 7ff3 f8bc 15e1 00be 4c56 b63d 8c4e 8bbe

rb2.bn2.running_mean f4 [20]
-0.687631 -2.1529703 -1.2313985 -1.0976233 -0.7932507 0.17173521 -1.2978576 0.4724777
-2.9423072 -0.10941409 -0.93560725 0.047228128 -1.8018006 -0.57836944 0.20751654 -1.4482075
-2.7470543 -0.21836221 -2.4455085 0.26389712
00000000: 9608 30bf 44ca 09c0 779e 9dbf ec7e 8cbf
00000010: 7a12 4bbf 5bdb 2f3e 3320 a6bf 99e8 f13e
00000020: c34e 3cc0 7f14 e0bd f583 6fbf 4872 413d
00000030: 67a1 e6bf 0510 14bf 377f 543e dd5e b9bf
00000040: bdcf 2fc0 589a 5fbe 3683 1cc0 861d 873e

rb2.bn2.running_var f4 [20]
0.94791144 1.0061767 0.7087705 1.1709721 0.7022636 1.1562613 1.2569617 0.65834457
1.2679116 0.8351151 0.8452119 0.7665168 0.67014146 1.0831279 1.3754843 1.0278797
0.889776 1.0409508 0.9720076 0.6983997
00000000: 53aa 723f 66ca 803f fc71 353f 6ae2 953f
00000010: 8cc7 333f 5f00 943f 1fe4 a03f 4589 283f
00000020: ed4a a23f 1aca 553f cf5f 583f 723a 443f
00000030: 648e 2b3f efa3 8a3f df0f b03f 9091 833f
00000040: 5cc8 633f e03d 853f 7dd5 783f 53ca 323f

rb2.shortcut.conv.weight f4 [20, 10, 1, 1]
-0.02192168 -0.07592738 -0.38698587 -0.09379525 0.51519763 -0.008305656 0.0077662785 -0.004332713
-0.010787618 -0.23859745 -0.063561946 0.11807623 -0.60897505 0.067146085 -0.16813447 -0.21491744
-0.026039539 -0.018345077 0.004880687 0.0012116424 -0.10157827 -0.12360566 -0.036821924 -0.023260891
0.052687615 0.38752496 0.15645906 0.11057675 -0.1431396 -0.36841705 -0.064938486 -0.0045332625
0.33569306 0.1312049 0.18924305 -0.14482059 0.25244087 0.21192154 0.42437938 -0.1434184
-0.11836573 0.04851187 0.0647609 0.42636597 0.06158155 -0.07504757 -0.03401603 -0.0778427
0.36783075 -0.11081657 0.27008334 0.1826094 -0.11497662 -0.3666767 -0.06252896 -0.06864602
0.19867267 -0.1444003 -0.14828557 -0.41223025 -0.11445084 0.15585472 0.018375577 -0.32062438
0.020803148 -0.38520572 -0.26662925 0.06430457 0.2603935 -0.07242732 0.18510532 0.1937044
0.00468391 -0.048116393 -0.16128065 -0.062324446 -0.29736632 0.046848226 -0.5990642 -0.18758644
-0.09247391 0.13132484 -0.08913712 -0.06605042 -0.7065543 -0.10224849 0.0016107244 0.27143055
-0.09179871 0.012731032 -0.2614314 0.35992563 -0.15739052 -0.2005397 0.19085357 -0.130084
-0.015694646 0.12536883 -0.0041496367 -0.3953134 -0.011088669 0.07101677 -0.41895536 0.2712629
-0.31144676 -0.13508922 0.26625678 0.05877234 0.12930988 0.06794088 0.008710384 -0.019877024
-0.32265034 0.2469697 0.26735094 0.23887134 -0.094741344 -0.08256687 0.1420654 -0.20558766
-0.09806587 -0.35667378 0.22589348 0.33446166 -0.104810014 -0.0044905776 0.052818406 -0.113159366
-0.3812394 0.10203917 -0.04618278 -0.19082877 -0.117021576 -0.088264555 0.054939114 0.123181336
0.103796944 0.08298801 -0.6441699 -0.15459594 0.031163886 -0.25556776 -0.0009442737 -0.19138624
-0.019095488 -0.37525457 -0.40110382 -0.0822622 -0.08585887 0.18985641 0.37003908 -0.35068908
0.23488104 0.12508035 -0.14346157 0.13690785 0.13754506 -0.12735361 -0.2992237 -0.039384846
0.15628324 0.3181681 -0.13748513 0.080856234 -0.005514453 0.27782723 0.20179589 0.11162724
0.09796935 0.00053722475 0.058332805 0.0813397 -0.27177763 0.12898636 0.048398692 0.2516074
0.25918156 0.4120642 0.15572745 -0.12807287 0.027435277 0.08884631 -0.030050041 -0.2712368
-0.020956602 0.046234068 0.0012334624 -0.30347958 -0.48525468 -0.066583455 -0.25412133 -0.14070013
0.37942007 -0.011504447 0.16078845 -0.068098284 0.0809811 -0.11853276 -0.21755515 0.087623976
00000000: 1895 b3bc d07f 9bbd 0323 c6be b917 c0bd
00000010: fee3 033f 7214 08bc 447c fe3b 6ef9 8dbb
00000020: 8dbe 30bc e452 74be c42c 82bd f3d1 f13d
00000030: cae5 1bbf e383 893d 712b 2cbe 5113 5cbe
00000040: df50 d5bc 6a48 96bc 2cee 9f3b f9cf 9e3a
00000050: 4508 d0bd f724 fdbd 96d2 16bd a08d bebc
00000060: f8ce 573d ac69 c63e ce36 203e 1076 e23d
00000070: 3093 12be 29a1 bcbe 78fe 84bd c38b 94bb
00000080: f6df ab3e 945a 063e eec8 413e d94b 14be
00000090: ee3f 813e f601 593e 4148 d93e 46dc 12be
000000a0: bb69 f2bd 62b4 463d 5da1 843d a44c da3e
000000b0: ef3c 7c3d 8ab2 99bd 6554 0bbd fe6b 9fbd
000000c0: 5054 bc3e ccf3 e2bd 5d48 8a3e f5fd 3a3e
000000d0: dd78 ebbd 0cbd bbbe 2f0f 80bd 4996 8cbd
000000e0: d970 4b3e acdd 13be 2cd8 17be d80f d3be
000000f0: 3465 eabd 6198 1f3e 6188 963c e128 a4be
00000100: 5d6b aa3c af39 c5be a183 88be 1db2 833d
00000110: 4c52 853e c654 94bd 408c 3d3e 725a 463e
00000120: 7c7b 993b b215 45bd c126 25be eb47 7fbd
00000130: 6640 98be ede3 3f3d 455c 19bf a916 40be
00000140: f662 bdbd 057a 063e 868d b6bd 7145 87bd
00000150: bee0 34bf a867 d1bd f11e d33a f2f8 8a3e
00000160: f600 bcbd d295 503c 56da 85be 2c48 b83e
00000170: fb2a 21be 475a 4dbe 1e6f 433e bd34 05be
00000180: 0f92 80bc b060 003e adf9 87bb 8566 cabe
00000190: 40ad 35bc 3e71 913d 5181 d6be f9e2 8a3e
000001a0: f375 9fbe d454 0abe cf52 883e 44bb 703d
000001b0: cf69 043e 9724 8b3d 00b6 0e3c 24d5 a2bc
000001c0: 6d32 a5be a0e5 7c3e 39e2 883e b09a 743e
000001d0: c007 c2bd d218 a9bd 9879 113e 9285 52be
000001e0: c2d6 c8bd f29d b6be 9f50 673e 8f3e ab3e
000001f0: a2a6 d6bd b225 93bb 1d58 583d 19c0 e7bd
00000200: d031 c3be eaf9 d03d 282a 3dbd 9e68 43be
00000210: 02a9 efbd 0cc4 b4bd d607 613d 7f46 fc3d
00000220: 7e93 d43d 9ef5 a93d 52e8 24bf 664e 1ebe
00000230: 684b ff3c c7d9 82be 2389 77ba c1fa 43be
00000240: 246e 9cbc 5e21 c0be 7b5d cdbe 1679 a8bd
00000250: c6d6 afbd b869 423e c375 bd3e 858d b3be
00000260: a884 703e 1015 003e 97e7 12be 9231 0c3e
00000270: 9dd8 0c3e fc68 02be d933 99be 0152 21bd
00000280: b708 203e eee6 a23e e7c8 0cbe f497 a53d
00000290: 96b2 b4bb 5f3f 8e3e 95a3 4e3e d39c e43d
000002a0: 28a4 c83d 8bd4 0c3a 61ee 6e3d 6e95 a63d
000002b0: 7026 8bbe 0015 043e b53d 463d afd2 803e
000002c0: 72b3 843e 14fa d23e 0477 1f3e 8925 03be
000002d0: f2bf e03c 0ef5 b53d 812b f6bc 8ddf 8abe
000002e0: 2ead abbc ef5f 3d3d 21ac a13a ad61 9bbe
000002f0: 4d73 f8be e85c 88bd 311c 82be b213 10be
00000300: 5943 c23e 267d 3cbc baa5 243e 1d77 8bbd
00000310: 6bd9 a53d 4ec1 f2bd c7c6 5ebe 3374 b33d

rb2.shortcut.conv.bias f4 [20]
-9.235378e-05 -2.5636633e-05 -2.5571748e-05 3.5932364e-05 7.984489e-06 1.05471945e-05 -4.3988162e-05 3.3151944e-05
-4.392124e-05 7.761861e-05 -2.4178986e-05 -7.421819e-06 3.3686734e-05 -4.475842e-05 6.648401e-05 4.223623e-05
5.1948216e-05 -1.0657459e-08 -5.494611e-06 7.432751e-06
00000000: 0fae c1b8 400e d7b7 e982 d6b7 15b6 1638
00000010: 1ef5 0537 dbf3 3037 ee7f 38b8 a10c 0b38
00000020: 1338 38b8 2dc7 a238 fad3 cab7 f108 f9b6
00000030: db4a 0d38 fdba 3bb8 556d 8b38 ce26 3138
00000040: f9e2 5938 0018 37b2 595e b8b6 d866 f936

rb2.shortcut.bn.weight f4 [20]
0.9529012 0.705642 0.9211578 0.5367085 0.68923277 0.7057718 0.56623507 0.7812915
0.80911815 0.85377467 0.5708782 0.6943941 0.48899373 0.8770901 1.0909138 0.49212977
0.70019394 0.5456756 0.3528434 0.74652433
00000000: 55f1 733f f4a4 343f ffd0 6b3f ba65 093f
00000010: 8f71 303f 76ad 343f c8f4 103f b802 483f
00000020: 5e22 4f3f fa90 5a3f 1325 123f d0c3 313f
00000030: 635d fa3e fa88 603f 10a3 8b3f 6ff8 fb3e
00000040: e93f 333f 65b1 0b3f e4a7 b43e 381c 3f3f

rb2.shortcut.bn.bias f4 [20]
0.2026031 0.050171934 -0.18934691 -0.0042649256 -0.086671926 -0.16740264 0.09495179 -0.24106471
0.22417589 -0.1558425 0.04592987 -0.14335999 -0.010846471 0.056684624 -0.015842559 0.1611457
-0.030389545 -0.12585862 0.089031786 -0.27208364
00000000: 3077 4f3e 1681 4d3d 28e4 41be cac0 8bbb
00000010: 0d81 b1bd 996b 2bbe 1676 c23d abd9 76be
00000020: 5d8e 653e 2d95 1fbe f620 3c3d f6cc 12be
00000030: 66b5 31bc 232e 683d 41c8 81bc 6103 253e
00000040: 7ff3 f8bc 15e1 00be 4c56 b63d 8c4e 8bbe

rb2.shortcut.bn.running_mean f4 [20]
-0.31424713 -0.9102329 -0.1107022 1.0125186 0.4114208 -0.73149776 -0.5803263 -0.85578877
-0.7034223 -0.56909525 -0.13169637 0.082149684 -0.18212005 -0.720867 -0.9077678 0.105342306
0.8492072 0.77433866 -0.8883078 0.032910187
00000000: 00e5 a0be 0605 69bf d6b7 e2bd 369a 813f
00000010: bfa5 d23e 7043 3bbf 4490 14bf f914 5bbf
00000020: 7c13 34bf 3ab0 11bf 6adb 06be 183e a83d
00000030: ae7d 3abe bd8a 38bf 7863 68bf b5bd d73d
00000040: a565 593f 0f3b 463f 2468 63bf d5cc 063d

rb2.shortcut.bn.running_var f4 [20]
0.47981387 0.42348635 0.36717778 0.517494 0.42110813 0.47823533 0.37879372 0.5529269
0.39930445 0.29960784 0.47084042 0.28754312 0.23859252 0.6546104 0.47150078 0.35544533
0.3057135 0.42024237 0.5630564 0.15809944
00000000: 2aaa f53e 34d3 d83e bafe bb3e 7d7a 043f
00000010: 7c9b d73e 43db f43e 40f1 c13e 9e8c 0d3f
00000020: a271 cc3e 3366 993e ff11 f13e da38 933e
00000030: 9951 743e 8c94 273f 8d68 f13e eefc b53e
00000040: 7b86 9c3e 022a d73e 7724 103f d2e4 213e

res1_sc1.conv.weight f4 [20, 3, 1, 1]
-0.54697627 0.090019874 0.33648434 -0.2432048 0.5609012 -0.23861857 0.0118775945 -0.3057308
-0.4038973 0.39141724 -0.3452409 -0.32675683 0.47704956 -0.13541158 0.2272591 -0.54813695
-0.368829 0.33133292 -0.18038318 0.38076788 0.5133012 0.36420596 -0.56882226 -0.32724762
0.16729487 0.5451641 -0.17604753 0.27008358 -0.25147527 -0.37540546 -0.09612132 -0.24933855
-0.3983708 0.14680225 -0.08736871 -0.4252273 -0.36139286 -0.20545806 -0.055781033 0.005415424
-0.15769751 -0.48488605 -0.21800725 0.23840454 0.37135163 0.39114633 0.16793637 -0.25498638
0.09096381 -0.34246615 0.05666465 0.059083965 -0.35461313 0.054126773 0.25260344 0.31173754
-0.08602166 -0.51978135 0.14838713 0.08044997
00000000: a306 0cbf 575c b83d ad47 ac3e ae0a 79be
00000010: 3997 0f3f 6d58 74be 3e9a 423c bf88 9cbe
00000020: a0cb cebe d767 c83e 6ac3 b0be ac4c a7be
00000030: d73f f43e 55a9 0abe 9cb6 683e b452 0cbf
00000040: 28d7 bcbe 78a4 a93e 5eb6 38be 02f4 c23e
00000050: b567 033f 3479 ba3e 569e 11bf 008d a7be
00000060: 594f 2b3e e08f 0b3f ce45 34be 6548 8a3e
00000070: 5ec1 80be 2535 c0be 41db c4bd 9b52 7fbe
00000080: 42f7 cbbe 5453 163e 5eee b2bd 65b7 d9be
00000090: 7c08 b9be 9963 52be a77a 64bd de73 b13b
000000a0: 757b 21be fc42 f8be 4b3d 5fbe 5220 743e
000000b0: cd21 be3e 5544 c83e 83f7 2b3e 938d 82be
000000c0: 3c4b ba3d b957 afbe 3119 683d 0702 723d
000000d0: da8f b5be 09b4 5d3d 3d55 813e 109c 9f3e
000000e0: 202c b0bd 6410 05bf ccf2 173e f4c2 a43d

res1_sc1.conv.bias f4 [20]
3.264646e-05 3.412919e-05 6.1243896e-05 0.00010756652 -7.58268e-05 2.587817e-05 2.919289e-05 0.0001413212
2.9186009e-05 9.126337e-05 -4.920244e-05 3.1602816e-05 -2.4270763e-05 -5.6944027e-05 5.2274678e-05 3.634125e-05
-1.7615366e-05 2.8444047e-05 1.934257e-05 -5.88459e-05
00000000: dfed 0838 f025 0f38 1170 8038 5695 e138
00000010: 3405 9fb8 f214 d937 41e3 f437 9f2f 1439
00000020: 7ad4 f437 a664 bf38 b85e 4eb8 448d 0438
00000030: 1199 cbb7 2fd7 6eb8 8241 5b38 1f6d 1838
00000040: b6c4 93b7 209b ee37 da41 a237 4ed1 76b8

res1_sc1.bn.weight f4 [20]
0.83117944 0.92051643 0.6890162 0.57990444 0.53355765 0.62549925 0.5575179 0.6162104
0.63132524 0.65729916 0.60397446 0.58925164 0.49590862 0.61677516 0.661448 0.39640594
0.56000936 0.5015113 0.44578972 0.8216228
00000000: 2dc8 543f f7a6 6b3f 5e63 303f 9e74 143f
00000010: 3c97 083f b820 203f 7eb9 0e3f f7bf 1d3f
00000020: 889e 213f c244 283f 129e 1a3f 32d9 163f
00000030: bce7 fd3e fae4 1d3f a854 293f b8f5 ca3e
00000040: c65c 0f3f 0b63 003f 8d3e e43e df55 523f

res1_sc1.bn.bias f4 [20]
0.2026031 0.050171934 -0.18934691 -0.0042649256 -0.086671926 -0.16740264 0.09495179 -0.24106471
0.22417589 -0.1558425 0.04592987 -0.14335999 -0.010846471 0.056684624 -0.015842559 0.1611457
-0.030389545 -0.12585862 0.089031786 -0.27208364
00000000: 3077 4f3e 1681 4d3d 28e4 41be cac0 8bbb
00000010: 0d81 b1bd 996b 2bbe 1676 c23d abd9 76be
00000020: 5d8e 653e 2d95 1fbe f620 3c3d f6cc 12be
00000030: 66b5 31bc 232e 683d 41c8 81bc 6103 253e
00000040: 7ff3 f8bc 15e1 00be 4c56 b63d 8c4e 8bbe

res1_sc1.bn.running_mean f4 [20]
-0.026449682 0.010430615 0.0668004 0.044595998 -0.040103603 -0.0019076392 -0.07822116 0.05738818
-0.012470759 0.050619364 0.06731254 0.052957743 0.031578258 0.06961975 -0.05121527 0.008622598
0.0071841604 0.00938609 -0.014961817 0.0018347962
00000000: 01ad d8bc 2ce5 2a3c a6ce 883d 4baa 363d
00000010: ad43 24bd c009 faba 6a32 a0bd de0f 6b3d
00000020: 2852 4cbc 4056 4f3d 28db 893d 38ea 583d
00000030: 3458 013d cd94 8e3d 1ac7 51bd cc45 0d3c
00000040: 1b69 eb3b 1dc8 193c 6922 75bc 8b7d f03a

res1_sc1.bn.running_var f4 [20]
0.018971367 0.0058759507 0.124544285 0.032679055 0.07878538 0.09561495 0.13887966 0.08460645
0.0734104 0.042175103 0.13802488 0.04148401 0.09388668 0.10639461 0.046959296 0.029688118
0.010586295 0.015542675 0.05692573 0.02656237
00000000: d769 9b3c 0c8b c03b 1311 ff3d 79da 053d
00000010: 3b5a a13d c5d1 c33d 7836 0e3e 2546 ad3d
00000020: 3158 963d cdbf 2c3d 6556 0d3e 23eb 293d
00000030: a947 c03d 6be5 d93d 6458 403d 7f34 f33c
00000040: 2472 2d3c b4a6 7e3c f42a 693d 5499 d93c
