models/dense_max/epoch_0037.pth (torch, 645162 bytes, 174 tensors)

rb1.conv1.weight f4 [10, 3, 3, 3]
-0.08141224 0.08217554 -0.07344836 -0.23372051 0.2730189 0.18020552 -0.20728762 0.18549894
-0.12124252 -0.18183132 0.0119055305 -0.040967308 -0.30854288 0.28857952 0.16666764 -0.016859304
0.27621275 -0.2251339 -0.022556946 0.0035364714 -0.091703385 -0.22291924 0.05452 0.008428203
0.1278752 0.06971391 0.14245968 0.05825212 0.015306607 0.1618778 0.054137442 0.14118704
-0.35961437 -0.054216042 0.035386812 -0.07209049 -0.034573145 -0.025685277 -0.005856004 -0.040147636
0.429604 -0.23037775 -0.056865636 0.081991695 -0.12839526 -0.13740177 -0.17399795 0.12234797
0.0076699057 0.35431835 -0.27066013 -0.0030609206 0.09434865 0.0434072 0.032461166 0.27711916
0.18596575 -0.13086084 -0.072160974 0.09505747 -0.060802847 -0.22498284 -0.00028439958 0.24350072
0.24421653 0.31504336 0.0035171602 -0.17056036 -0.11191039 -0.110770814 -0.26925045 -0.1805184
0.05415654 0.17020553 0.059469614 -0.0019366196 -0.043378096 -0.09129308 0.10056014 -0.20598583
-0.12374566 -0.18934259 0.034243688 -0.1611859 0.07179709 -0.30557066 -0.16560133 0.045723844
0.10077385 0.16493648 -0.1021459 -0.15601778 -0.16411512 0.2112159 -0.27140698 -0.12437842
0.27199495 0.025906213 0.027902056 -0.0362097 0.024286728 -0.13635615 0.013239939 -0.17306003
-0.12314318 0.18974535 0.0150073 0.23010758 -0.24425882 -0.22996509 0.19145527 -0.08899376
-0.16525027 0.14999953 -0.11740333 -0.007504006 0.22845976 0.23544732 -0.21804397 -0.08776577
-0.07661906 -0.008866414 0.16982326 0.091739185 0.11994254 0.12529963 0.26248676 0.08138439
-0.0621642 0.21959367 0.03037945 -0.27571648 0.14405616 0.0125240525 -0.18934 -0.18796304
-0.14841303 0.12446325 0.026085822 -0.14364654 -0.0021137653 0.123994626 -0.08206325 0.0296328
0.07673927 0.19038299 0.2216619 -0.036023658 -0.4366525 -0.12151541 0.18033975 -0.11673984
-0.31718957 0.012839396 -0.08443266 0.22420333 -0.08603127 -0.1665481 0.0065106438 -0.23585837
-0.33674592 0.025569895 -0.02100192 -0.03576838 0.1001879 0.08599697 0.20335273 -0.11927874
-0.022831528 -0.034524888 0.018142046 0.061797246 0.026660342 0.06553515 0.13207343 0.29802933
-0.06244998 0.02444204 0.035969004 -0.18802668 -0.25474766 -0.14670229 -0.098728806 -0.005258766
0.11852805 0.14856468 -0.079592325 0.3916701 0.26865026 0.01612703 -0.14009774 0.19422795
-0.2647747 -0.071666315 0.07691328 0.22061779 -0.043919567 0.20359814 0.12983574 -0.022795614
0.19716191 -0.2139899 -0.38851786 -0.0055638477 0.1503598 0.13597259 -0.25554982 -0.113822855
-0.09115932 0.06543022 -0.08105704 -0.15184072 0.36848643 0.26025638 -0.08794748 -0.032066453
-0.28312883 0.10579978 -0.0030924452 -0.035993163 0.19087158 0.29670984 -0.015973935 0.14968692
-0.05246874 -0.079488836 -0.14073408 -0.15040152 0.012210241 0.120847456 -0.067342505 0.24114919
-0.2920187 -0.20845225 0.06233622 0.0949399 -0.11059573 0.11096107 0.1990319 0.02049387
0.03802893 0.017753074 -0.23120975 0.24647869 0.454439 0.19835605 0.14896524 0.30175006
0.050350066 -0.08335434 -0.1854684 -0.34615168 0.17385757 0.30725285 0.033326436 -0.067323446
00000000: 76bb a6bd a64b a83d 186c 96bd 6e54 6fbe
00000010: 22c9 8b3e cc87 383e 3543 54be 6ff3 3d3e
00000020: 004e f8bd fd31 3abe 6a0f 433c 56cd 27bd
00000030: 55f9 9dbe b2c0 933e ecaa 2a3e 861c 8abc
00000040: c26b 8d3e 8089 66be 58c9 b8bc 25c4 673b
00000050: fcce bbbd f144 64be 5d50 5f3d 7216 0a3c
00000060: b7f1 023e 2bc6 8e3d f3e0 113e c699 6e3d
00000070: 90c8 7a3c 4bc3 253e 39bf 5d3d 5693 103e
00000080: 601f b8be a411 5ebd c3f1 103d 2ea4 93bd
00000090: 929c 0dbd ee69 d2bc b9e3 bfbb d971 24bd
000000a0: 0ef5 db3e 25e8 6bbe f1eb 68bd 43eb a73d
000000b0: 0c7a 03be 0db3 0cbe 852c 32be 9391 fa3d
000000c0: d553 fb3b 3769 b53e f793 8abe ba99 48bb
000000d0: dd39 c13d c0cb 313d 00f6 043d 90e2 8d3e
000000e0: ce6d 3e3e 6200 06be 22c9 93bd 7ead c23d
000000f0: 680c 79bd e761 66be 771b 95b9 4158 793e
00000100: e613 7a3e 5d4d a13e 2880 663b 60a7 2ebe
00000110: 4631 e5bd cfdb e2bd 32db 89be d1d9 38be
00000120: 40d3 5d3d 5c4a 2e3e 6996 733d 2cd6 fdba
00000130: 3bad 31bd def7 babd 7af2 cd3d f3ed 52be
00000140: 5d6e fdbd 06e3 41be 1c43 0c3d eb0d 25be
00000150: 5a0a 933d c273 9cbe 6593 29be ed48 3b3d
00000160: 8562 ce3d 1ce5 283e df31 d1bd 20c3 1fbe
00000170: cb0d 28be fb48 583e dbf5 8abe 1dba febd
00000180: ec42 8b3e 4439 d43c da92 e43c 9f50 14bd
00000190: f6f4 c63c f2a0 0bbe 54ec 583c a636 31be
000001a0: 7e32 fcbd 9b4c 423e 2ee1 753c 52a1 6b3e
000001b0: fc1e 7abe f87b 6bbe da0c 443e 5c42 b6bd
000001c0: 5e37 29be 7a99 193e 2871 f0bd 2ae4 f5bb
000001d0: 5bf1 693e 1a19 713e eb46 5fbe 8abe b3bd
000001e0: 74ea 9cbd 7044 11bc 26e6 2d3e c1e1 bb3d
000001f0: 6fa4 f53d 8c4e 003e aa64 863e dcac a63d
00000200: e39f 7ebd 2add 603e 53de f83c b62a 8dbe
00000210: 7583 133e af31 4d3c 58e2 41be 6279 40be
00000220: 96f9 17be 97e6 fe3d efb1 d53c 1418 13be
00000230: 1987 0abb e5f0 fd3d c710 a8bd 7cc0 f23c
00000240: 7a29 9d3d c2f3 423e 56fb 623e 8b8d 13bd
00000250: eb90 dfbe 12dd f8bd fcaa 383e 4c15 efbd
00000260: ac66 a2be 545c 523c 08eb acbd 8f95 653e
00000270: 2a31 b0bd 968b 2abe 3d57 d53b db84 71be
00000280: f669 acbe f577 d13c 380c acbc dd81 12bd
00000290: 502f cd3d 2e1f b03d b33b 503e 6948 f4bd
000002a0: 2f09 bbbc f869 0dbd a19e 943c 1c1f 7d3d
000002b0: ca66 da3c 4b37 863d 423e 073e 4d97 983e
000002c0: 8dcb 7fbd ac3a c83c 3c54 133d 118a 40be
000002d0: 496e 82be 2039 16be 5432 cabd ba51 acbb
000002e0: d6be f23d 5721 183e 4d01 a3bd fc88 c83e
000002f0: 878c 893e d51c 843c c875 0fbe b1e3 463e
00000300: 8d90 87be cac5 92bd b684 9d3d a1e9 613e
00000310: 01e5 33bd 087c 503e a9f3 043e debd babc
00000320: d0e4 493e 2b20 5bbe d0eb c6be f050 b6bb
00000330: ebf7 193e 663c 0b3e 6dd7 82be f51b e9bd
00000340: bdb1 babd 4700 863d 3c01 a6bd 227c 1bbe
00000350: 41aa bc3e 5340 853e cf1d b4bd 1d58 03bd
00000360: 43f6 90be 8ead d83d 9faa 4abb 916d 13bd
00000370: d773 433e 5aea 973e c5db 82bc 8747 193e
00000380: 76e9 56bd 0bcb a2bd 981c 10be db02 1abe
00000390: 760d 483c df7e f73d deea 89bd d0ef 763e
000003a0: 7a83 95be 8274 55be 4454 7f3d da6f c23d
000003b0: 0480 e2bd 8f3f e33d 05cf 4b3e c3e2 a73c
000003c0: 39c4 1b3d e56e 913c 40c2 6cbe e964 7c3e
000003d0: 3bac e83e d91d 4b3e 588a 183e fc7e 9a3e
000003e0: df3b 4e3d aeb5 aabd 6eeb 3dbe cb3a b1be
000003f0: b807 323e 3f50 9d3e 4d81 083d e0e0 89bd

rb1.conv1.bias f4 [10]
0.00015431264 0.0002582147 2.5656122e-05 -5.4874163e-05 -1.8352985e-05 -4.4280827e-05 1.5701806e-05 0.000117073876
0.0001764273 2.7604185e-05
00000000: fcce 2139 fe60 8739 1a38 d737 af28 66b8
00000010: bcf4 99b7 2dba 39b8 5fb7 8337 8f85 f538
00000020: 58ff 3839 898f e737

rb1.bn1.weight f4 [10]
0.7972217 1.2357993 0.8546277 0.8711694 0.57007045 0.8003395 0.67488027 0.98384714
0.8212085 0.67637926
00000000: b916 4c3f ac2e 9e3f e2c8 5a3f f504 5f3f
00000010: 23f0 113f 0de3 4c3f f4c4 2c3f 68dd 7b3f
00000020: b83a 523f 3127 2d3f

rb1.bn1.bias f4 [10]
0.3236444 1.1250993 0.012502872 0.038263056 0.055124246 -0.021231957 0.0026193324 0.77004033
0.5409894 0.1240021
00000000: b8b4 a53e 4103 903f d9d8 4c3c b9b9 1c3d
00000010: f6c9 613d a4ee adbc 1ba9 2b3b 5d21 453f
00000020: 487e 0a3f d0f4 fd3d

rb1.bn1.running_mean f4 [10]
-0.014672046 -0.009882323 0.015292529 0.020758187 -0.029281707 0.10558173 -0.06513851 -0.0050761215
-0.022999145 -0.01369129
00000000: 0563 70bc 78e9 21bc 848d 7a3c 130d aa3c
00000010: 31e0 efbc 3c3b d83d 5767 85bd 9855 a6bb
00000020: b468 bcbc 6f51 60bc

rb1.bn1.running_var f4 [10]
0.082836874 0.040554803 0.19840404 0.23154777 0.040393986 0.39480335 0.20250428 0.060011916
0.040099222 0.3827005
00000000: 61a6 a93d cb1c 263d 6e2a 4b3e dc1a 6d3e
00000010: 2a74 253d aa23 ca3e 485d 4f3e 0ecf 753d
00000020: 153f 243d 52f1 c33e

rb1.conv2.weight f4 [10, 10, 3, 3]
-0.016502412 -0.1877162 -0.0021763935 0.018370649 -0.1417661 -0.050028116 0.016783444 -0.051980216
-0.02902602 0.017619068 0.17684902 -0.2530827 -0.2602208 -0.084548615 0.14493468 0.1436839
-0.21132527 0.027279405 -0.12886752 0.09107189 -0.10929305 0.0048469165 -0.20451196 -0.17082635
0.019149082 0.10704658 0.15876101 0.15008609 0.15378976 0.12635149 0.10374623 0.11218259
0.026069999 -0.12912688 -0.07451639 -0.23627195 -0.13315144 0.04637271 -0.04561527 -0.00057660893
-0.094798654 0.018575178 -0.061046377 -0.00966146 -0.07481658 0.083119266 0.235355 0.1687965
-0.025373334 0.0025818397 -0.03529886 -0.05154041 0.0502743 0.15700239 -0.06376596 -0.042192917
-0.08216274 -0.0889749 -0.23450354 -0.08137893 0.096947856 0.06829854 -0.06084268 -0.040088557
0.11044249 0.27615118 -0.058944963 -0.25536588 -0.3966206 0.021598373 0.16558875 0.10661875
-0.04653108 -0.16798134 -0.104090355 0.11925939 0.0580697 0.10591793 -0.19855003 -0.0146800205
-0.047169555 -0.3221653 -0.31684333 -0.11286095 -0.17712969 -0.048765555 -0.046843477 -0.13271417
-0.07875468 0.058636554 -0.010053423 -0.1170065 0.12767467 0.021792173 0.06609693 0.31176013
-0.042603936 0.16430484 -0.094541274 0.10849118 0.07962414 -0.17158799 0.15812345 -0.46596
0.059468877 -0.31472975 0.11795582 0.1422115 0.019954091 0.13672023 -0.10055905 -0.0067460616
-0.17170085 -0.15174997 0.027070034 -0.09554864 -0.056083728 -0.22676606 0.100935765 0.046711612
0.070010945 -0.048757754 -0.096609205 0.006870266 -0.191663 -0.0142592685 0.18521242 0.21918987
0.043582335 0.07269794 -0.031099483 -0.09732899 -0.020309854 -0.1468852 -0.16532001 -0.07874626
-0.08389405 -0.0920484 -0.05027037 -0.06142881 -0.12698624 -0.0766545 -0.18033853 -0.060688872
0.10256183 0.15897197 0.10642905 0.1496472 0.1752177 0.12132224 0.14673667 0.18375652
0.028403552 0.09331577 -0.28086543 -0.0054753404 -0.04618491 -0.2575695 0.20160045 -0.043959357
0.2567379 -0.0063020065 0.103602976 -0.0045350115 -0.21130925 0.036967684 -0.108149216 0.15280999
-0.010922566 0.14314292 -0.032766588 -0.027009534 -0.004958653 0.019403746 0.049348958 -0.02998583
0.03738106 -0.06691479 0.15179786 0.03513854 0.030086981 -0.3251466 -0.06761585 0.014759736
-0.07787909 -0.026974522 0.08671117 0.06562044 0.07042806 -0.06988815 -0.13516831 0.010073991
-0.07074227 -0.1492626 -0.02517862 -0.0058841845 0.14305803 0.15551636 0.2637943 0.04814055
0.046270084 0.35739774 0.061147857 -0.15801015 0.0798673 -0.11303126 -0.044325482 0.09269982
0.05091166 0.00018905944 -0.003893503 0.03821975 0.0047814953 0.28556094 -0.009098193 0.027045593
0.09426477 0.11832117 0.03073173 0.23231858 0.0732664 0.03692273 0.086351864 0.046003815
0.010160064 0.21507433 0.22977506 0.17774078 0.18228613 0.09478005 0.042309534 0.038535625
0.04112957 -0.10645864 0.018155115 -0.046495587 -0.11693442 0.019655546 -0.04895795 -0.1155605
0.02590176 -0.008660248 -0.11548247 0.16584027 0.10483584 -0.002103974 0.070555486 0.07586666
-0.018164463 -0.109026276 0.028256409 -0.0499185 0.2767835 0.2885444 -0.06033082 0.19995707
00000000: 1130 87bc ad38 40be d3a1 0ebb 0b7e 963c
00000010: 222b 11be 48ea 4cbd 6f7d 893c 35e9 54bd
00000020: fac7 edbc dd55 903c e917 353e 0e94 81be
00000030: a93b 85be d327 adbd c269 143e df21 133e
00000040: a765 58be 0f79 df3c d9f5 03be e683 ba3d
00000050: 09d5 dfbd e2d2 9e3b 956b 51be 1aed 2ebe
00000060: 89de 9c3c 3d3b db3d 3f92 223e 2bb0 193e
00000070: 107b 1d3e 4962 013e e778 d43d fcbf e53d
00000080: c090 d53c d639 04be 0d9c 98bd 46f1 71be
00000090: da58 08be 50f1 3d3d 14d7 3abd 9227 17ba
000000a0: cc25 c2bd f92a 983c c40b 7abd 1a4b 1ebc
000000b0: 6f39 99bd 6f3a aa3d e700 713e fdd8 2c3e
000000c0: bddb cfbc 1534 293b 8a95 10bd 091c 53bd
000000d0: 6dec 4d3d 3cc5 203e ba97 82bd 7bd2 2cbd
000000e0: f044 a8bd 7938 b6bd b221 70be ffa9 a6bd
000000f0: 998c c63d 1be0 8b3d 2d36 79bd e633 24bd
00000100: ac2f e23d b063 8d3e 4670 71bd 51bf 82be
00000110: db11 cbbe 12ef b03c 1990 293e ee5a da3d
00000120: 6097 3ebd 4d03 2cbe 532d d5bd 443e f43d
00000130: 7eda 6d3d 80eb d83d b350 4bbe 7884 70bc
00000140: dd34 41bd daf2 a4be 4a39 a2be a423 e7bd
00000150: 7c61 35be 64be 47bd f2de 3fbd 39e6 07be
00000160: 224a a1bd e22c 703d 1db7 24bc 1ba1 efbd
00000170: 26bd 023e 8085 b23c d45d 873d 069f 9f3e
00000180: 7781 2ebd 873f 283e db9e c1bd a030 de3d
00000190: fb11 a33d c3b4 2fbe 1deb 213e 4f92 eebe
000001a0: a395 733d 4224 a1be d292 f13d e49f 113e
000001b0: c376 a33c 6300 0c3e e7f1 cdbd 110e ddbb
000001c0: 59d2 2fbe 5864 1bbe fac1 dd3c 01af c3bd
000001d0: 0db8 65bd 5d35 68be 69b7 ce3d ad54 3f3d
000001e0: e661 8f3d 36b6 47bd 0cdb c5bd f81f e13b
000001f0: 4e43 44be b59f 69bc 53a8 3d3e 4f73 603e
00000200: 6483 323d a8e2 943d 58c4 febc 6c54 c7bd
00000210: da60 a6bc 1369 16be a649 29be b845 a1bd
00000220: a5d0 abbd df83 bcbd 4ee8 4dbd c79c 7bbd
00000230: ae08 02be 09fd 9cbd aaaa 38be e594 78bd
00000240: f00b d23d 8cc9 223e 79f7 d93d 1e3d 193e
00000250: 456c 333e cb77 f83d 2342 163e ab2a 3c3e
00000260: 91ae e83c 571c bf3d 98cd 8fbe 7c6a b3bb
00000270: 632c 3dbd 26e0 83be 5970 4e3e ba0e 34bd
00000280: 2673 833e 1081 cebb cc2d d43d 6f9a 94bb
00000290: 7461 58be 6d6b 173d 567d ddbd 397a 1c3e
000002a0: 90f4 32bc 0f94 123e 4236 06bd 1943 ddbc
000002b0: 327c a2bb 9bf4 9e3c 2222 4a3d d8a4 f5bc
000002c0: e21c 193d 9f0a 89bd e670 1b3e 6eed 0f3d
000002d0: f978 f63c 9d79 a6be 2e7a 8abd d2d2 713c
000002e0: 137f 9fbd acf9 dcbc a095 b13d 0264 863d
000002f0: 963c 903d 8521 8fbd 9069 0abe 610d 253c
00000300: 53e1 90bd 4cd8 18be 6543 cebc 1ed0 c0bb
00000310: ce7d 123e ae3f 1f3e 0c10 873e 062f 453d
00000320: b385 3d3d d6fc b63e 2d76 7a3d 6acd 21be
00000330: 7891 a33d ef7c e7bd a38e 35bd 67d9 bd3d
00000340: bf88 503d 423e 4639 242a 7fbb 508c 1c3d
00000350: 17ae 9c3b 0b35 923e 9610 15bc b88e dd3c
00000360: e30d c13d 5f52 f23d 1cc1 fb3c ece4 6d3e
00000370: b20c 963d 4a3c 173d 3fd9 b03d 7f6e 3c3d
00000380: 6676 263c 723c 5c3e 274a 6b3e ae01 363e
00000390: 37a9 3a3e 0b1c c23d c34c 2d3d 88d7 1d3d
000003a0: 7b77 283d fd06 dabd 09ba 943c 2872 3ebd
000003b0: 507b efbd ab04 a13c 2288 48bd fcaa ecbd
000003c0: ee2f d43c b6e3 0dbc 1382 ecbd 08d2 293e
000003d0: 2cb4 d63d d4e2 09bb 657f 903d fb5f 9b3d
000003e0: a4cd 94bc 2b49 dfbd fc79 e73c 5777 4cbd
000003f0: 91b6 8d3e 17bc 933e 731d 77bd 8cc1 4c3e

rb1.conv2.bias f4 [10]
-7.3039596e-06 5.100113e-05 -3.9129627e-05 -2.6525262e-05 -1.2799929e-05 8.972924e-05 3.6543115e-05 -3.087715e-05
9.333769e-06 1.0409338e-05
00000000: 8914 f5b6 0cea 5538 1e1f 24b8 9182 deb7
00000010: 47bf 56b7 052d bc38 df45 1938 1682 01b8
00000020: 3c98 1c37 c4a3 2e37

rb1.bn2.weight f4 [10]
1.0364989 1.1338091 0.80641955 1.106195 0.7265469 1.072079 1.3260149 1.0694615
1.1138357 0.8583378
00000000: ffab 843f a820 913f 8371 4e3f cc97 8d3f
00000010: fafe 393f e239 893f dbba a93f 1de4 883f
00000020: 2b92 8e3f 07bc 5b3f

rb1.bn2.bias f4 [10]
0.0588727 -0.06095926 0.29269502 -0.021769775 0.26069617 0.094486155 -0.017017098 0.10194544
0.058704924 0.27814806
00000000: 8024 713d 6bb0 79bd 1fdc 953e 8756 b2bc
00000010: f879 853e f581 c13d 7167 8bbc c5c8 d03d
00000020: 9374 703d 6c69 8e3e

rb1.bn2.running_mean f4 [10]
-1.2372009 -0.28563732 0.79068565 -0.012156629 -0.5779369 -0.15326132 -0.6342072 -0.25186774
0.087047644 1.5789155
00000000: 995c 9ebf 0e3f 92be 606a 4a3f 992c 47bc
00000010: acf3 13bf 89f0 1cbe 675b 22bf cff4 80be
00000020: 0946 b23d e719 ca3f

rb1.bn2.running_var f4 [10]
1.4753978 1.2422513 0.96859187 1.5419075 0.82953346 1.6216264 2.065037 1.5768127
1.89811 1.607801
00000000: d6d9 bc3f 1702 9f3f a3f5 773f 3a5d c53f
00000010: 4e5c 543f 7491 cf3f 9129 0440 00d5 c93f
00000020: 45f5 f23f 6ccc cd3f

rb1.shortcut.conv.weight f4 [10, 3, 1, 1]
0.45016617 0.010597348 0.33703455 -0.32530653 -0.55287373 -0.36767188 0.37092224 -0.35411438
0.1052284 -0.47023752 -0.7002867 0.16953427 -0.10416967 -0.19774637 0.57694966 0.37699458
0.14641555 0.47731906 -0.36114258 -0.33946237 -0.3275108 -0.2810866 -0.7065296 0.25723478
-0.3005461 -0.5214086 -0.06490605 -0.2840622 0.05506807 -0.58268756
00000000: 2e7c e63e 80a0 2d3c cb8f ac3e 948e a6be
00000010: 2289 0dbf 7d3f bcbe 85e9 bd3e 7b4e b5be
00000020: fd81 d73d f9c2 f0be fd45 33bf 649a 2d3e
00000030: e856 d5bd 067e 4abe f9b2 133f 6f05 c13e
00000040: f5ed 153e 2a63 f43e aee7 b8be 03ce adbe
00000050: 7faf a7be 95ea 8fbe 20df 34bf 47b4 833e
00000060: 2ee1 99be 097b 05bf 77ed 84bd 9a70 91be
00000070: 0e8f 613d 032b 15bf

rb1.shortcut.conv.bias f4 [10]
-9.4095696e-05 -2.0188547e-05 2.3116396e-05 -1.1494685e-05 -3.5000452e-05 -5.690047e-05 -3.417695e-05 -2.6366308e-06
0.00017451642 -1.1366642e-05
00000000: 3e55 c5b8 935a a9b7 15ea c137 4cd9 40b7
00000010: 73cd 12b8 6aa8 6eb8 3859 0fb8 f9f0 30b6
00000020: 65fe 3639 5bb3 3eb7

rb1.shortcut.bn.weight f4 [10]
0.97392476 0.9156811 1.0016155 0.89101326 1.1415402 0.9348949 0.5771027 0.67594534
0.8928469 0.90403324
00000000: 2253 793f 146a 6a3f f034 803f 7219 643f
00000010: fd1d 923f 4655 6f3f 01bd 133f c10a 2d3f
00000020: 9d91 643f b96e 673f

rb1.shortcut.bn.bias f4 [10]
0.0588727 -0.06095926 0.29269502 -0.021769775 0.26069617 0.094486155 -0.017017098 0.10194544
0.058704924 0.27814806
00000000: 8024 713d 6bb0 79bd 1fdc 953e 8756 b2bc
00000010: f879 853e f581 c13d 7167 8bbc c5c8 d03d
00000020: 9374 703d 6c69 8e3e

rb1.shortcut.bn.running_mean f4 [10]
-0.058433853 0.07809199 -0.012055302 0.014858706 -0.06797661 -0.08009562 0.06612175 -0.002046136
0.03561429 0.08454462
00000000: 5658 6fbd b1ee 9f3d 9a83 45bc ee71 733c
00000010: 5237 8bbd 2c09 a4bd d76a 873d 7718 06bb
00000020: 4ae0 113d bb25 ad3d

rb1.shortcut.bn.running_var f4 [10]
0.14648436 0.35926414 0.0064451597 0.24217905 0.03416707 0.23218885 0.24349414 0.13439932
0.18311363 0.15811844
00000000: ffff 153e 78f1 b73e eb31 d33b c9fd 773e
00000010: c5f2 0b3d eac2 6d3e 8756 793e fa9f 093e
00000020: 2482 3b3e cde9 213e

rb2.conv1.weight f4 [20, 10, 3, 3]
0.07204849 0.12760778 0.074762486 0.1673322 0.2330602 0.11276447 0.038241874 0.105280444
0.12624651 0.14885546 -0.11121292 -0.124690086 -0.12256096 -0.080134764 -0.032124944 0.14950345
-0.14647606 -0.09645898 -0.08740065 -0.31363872 -0.17780422 0.004669691 -0.26248822 -0.15810403
0.0480095 0.051039543 -0.09648184 -0.025568625 -0.118280575 0.100235514 0.0884661 0.073320694
0.109108806 0.039198365 0.03796055 0.20803578 -0.0052573183 0.12560941 -0.029884927 -0.054747064
0.017172445 0.08182534 0.021687811 -0.29814562 -0.23430087 0.092777416 0.044778094 0.07668792
-0.14619839 -0.071500614 -0.09216998 -0.04394961 -0.4669329 -0.03427244 0.1127275 0.08227785
0.16158001 0.070681 0.034759868 0.121178545 0.04553329 -0.034030057 -0.042822383 0.0703906
-0.09258036 0.062042367 -0.08416053 -0.34160048 -0.058451623 0.05727563 -0.1477017 -0.117262475
-0.010914094 0.018602086 -0.16614611 -0.16794953 0.075885125 0.16414762 -0.16649415 -0.03613833
0.0872456 -0.13115127 0.01912449 -0.1477471 -0.0025147586 0.035751555 -0.03154122 -0.08088434
0.05334734 0.21909794 -0.24749035 -0.17058772 -0.07575035 0.042593062 -0.043911815 0.001640736
0.15544187 0.18238275 0.21768698 -0.2819829 -0.13283993 -0.03321648 -0.14431792 0.09195454
-0.0067381402 -0.06957544 -0.030771127 -0.003040012 -0.25699824 -0.38153562 -0.24233833 0.10413787
0.022457324 -0.021208124 0.19945915 0.25863326 0.31388056 -0.066809945 0.027007978 -0.015141864
-0.1635818 0.05933985 -0.09862007 -0.0850367 -0.00010255626 -0.07890334 0.18489787 0.2395095
0.018840587 0.0068913414 -0.014096876 -0.13358223 -0.18571526 -0.24501899 -0.22508329 -0.0016649677
-0.029893693 0.13806325 -0.056760285 0.049202934 0.046690952 0.041436736 0.0009126496 0.084130175
0.09353963 0.10882651 0.043149453 -0.06493308 0.012495694 -0.11114451 -0.017714908 0.021028813
-0.042325668 0.14689583 0.28645542 0.13281274 -0.012099138 0.08186669 0.102818005 -0.13202168
0.014806118 -0.0542457 -0.106496885 0.074092634 -0.074317195 -0.11941573 0.07512044 -0.1784894
0.016319776 0.026855983 -0.058371622 -0.060221 0.014341168 0.020297796 0.017643781 0.13933346
0.055564053 -0.010576094 0.080319814 -0.06412646 -0.035977054 0.072384514 -0.10388241 -0.021329591
0.047463495 -0.038678966 -0.022113077 -0.045025133 0.05878697 -0.014844741 0.024532419 0.1834842
-0.15609944 0.07340072 0.11423601 -0.09202609 -0.26285496 -0.18020348 0.098916344 -0.19267578
0.05731373 0.1865633 -0.028574836 -0.018540058 0.048885223 0.043918177 0.060201555 0.24148011
0.23573661 0.12799357 -0.042462297 0.19585593 0.04697624 -0.081218794 0.11500478 0.0337532
-0.16112015 0.013670009 -0.058939468 -0.072953835 -0.066664286 -0.0020985063 0.104756564 -0.044272013
-0.0020041687 0.12580962 0.045721255 -0.08300758 -0.32184923 0.049319893 0.041193526 -0.25124502
0.033049747 0.08347265 0.23858672 0.1809395 0.04245087 -0.09094636 -0.07132417 -0.10952181
-0.5883908 -0.44510126 -0.13561338 -0.048986513 0.010735025 0.05910433 -0.11264128 0.061975762
0.08012046 -0.063169256 -0.08023121 -0.096515715 -0.08752443 -0.07222449 -0.020832729 -0.17011823
00000000: 298e 933d 9dab 023e 131d 993d 2259 2b3e
00000010: 55a7 6e3e 0ff1 e63d 83a3 1c3d 469d d73d
00000020: c446 013e 916d 183e 99c3 e3bd 845d ffbd
00000030: 3e01 fbbd b21d a4bd 7295 03bd 6f17 193e
00000040: d2fd 15be 498c c5bd 1dff b2bd 4195 a0be
00000050: 4f12 36be 3504 993b db64 86be 06e6 21be
00000060: 9ca5 443d d70e 513d 4598 c5bd 4b75 d1bc
00000070: 163d f2bd 4748 cd3d b72d b53d 2929 963d
00000080: 7074 df3d 778e 203d 867c 1b3d 5507 553e
00000090: 9545 acbb c19f 003e 3cd1 f4bc 753e 60bd
000000a0: 3aad 8c3c 0b94 a73d a3aa b13c 8ba6 98be
000000b0: 91ec 6fbe 1602 be3d 3c69 373d 8e0e 9d3d
000000c0: 08b5 15be ea6e 92bd 9dc3 bcbd 8204 34bd
000000d0: d411 efbe 4261 0cbd addd e63d 4a81 a83d
000000e0: 3b75 253e 33c1 903d 5d60 0e3d 752c f83d
000000f0: 1d81 3a3d 1a63 0bbd 8666 2fbd f228 903d
00000100: c69a bdbd 2320 7e3d 5b5c acbd 42e6 aebe
00000110: f86a 6fbd da99 6a3d 1d3f 17be 4f27 f0bd
00000120: 07d1 32bc 6763 983c 3522 2abe f6fa 2bbe
00000130: a969 9b3d 5016 283e 717d 2abe c905 14bd
00000140: d2ad b23d 854c 06be f6aa 9c3c 044b 17be
00000150: a6ce 24bb 3970 123d 5e31 01bd b0a6 a5bd
00000160: be82 5a3d 365b 603e 1c6e 7dbe 8cae 2ebe
00000170: 0023 9bbd 1076 2e3d e0dc 33bd f70d d73a
00000180: 272c 1f3e 8bc2 3a3e 56e9 5e3e 1060 90be
00000190: 3107 08be 010e 08bd 14c8 13be a952 bc3d
000001a0: 9ecb dcbb 917d 8ebd bb13 fcbc f03a 47bb
000001b0: 4695 83be a358 c3be 8a27 78be 3c46 d53d
000001c0: 6cf8 b73c a9bc adbc 053f 4c3e 946b 843e
000001d0: f4b4 a03e a7d3 88bd d63f dd3c 9515 78bc
000001e0: fd81 27be 580e 733d 52f9 c9bd b927 aebd
000001f0: 7913 d7b8 1398 a1bd de55 3d3e fa41 753e
00000200: 9357 9a3c c3d0 e13b 95f6 66bc c8c9 08be
00000210: 242c 3ebe 42e6 7abe 3c7c 66be 0c3b daba
00000220: 9ee3 f4bc 7460 0d3e 797d 68bd 0489 493d
00000230: 033f 3f3d 91b9 293d e13e 6f3a 714c ac3d
00000240: b591 bf3d 6fe0 de3d 7bbd 303d a2fb 84bd
00000250: bdba 4c3c bc9f e3bd db1e 91bc 9e44 ac3c
00000260: ae5d 2dbd dc6b 163e 49aa 923e 1000 083e
00000270: 773b 46bc b9a9 a73d 3f92 d23d b130 07be
00000280: 5c95 723c bd30 5ebd 0a1b dabd e1bd 973d
00000290: 9d33 98bd 3c90 f4bd bfd8 993d edc5 36be
000002a0: 0db1 853c 1401 dc3c 1517 6fbd 4caa 76bd
000002b0: 38f7 6a3c 9047 a63c b189 903c 6ead 0e3e
000002c0: 2297 633d 5a47 2dbc b77e a43d bc54 83bd
000002d0: ad5c 13bd 553e 943d 4dc0 d4bd 65bb aebc
000002e0: 1569 423d d66d 1ebd 7c26 b5bc 466c 38bd
000002f0: 9bca 703d 5b37 73bc 36f8 c83c 48e3 3b3e
00000300: 88d8 1fbe 1e53 963d 92f4 e93d 2d78 bcbd
00000310: ed94 86be 4387 38be a794 ca3d cd4c 45be
00000320: cdc1 6a3d 730a 3f3e c615 eabc 52e1 97bc
00000330: df3b 483d 8ce3 333d e895 763d 9046 773e
00000340: f064 713e bf10 033e f2ec 2dbd 758e 483e
00000350: 286a 403d 0a56 a6bd a087 eb3d cc40 0a3d
00000360: aefc 24be 2cf8 5f3c 836a 71bd d268 95bd
00000370: 4987 88bd 1887 09bb 9c8a d63d 9256 35bd
00000380: 5f58 03bb 3dd4 003e 3646 3b3d e1ff a9bd
00000390: 6cc9 a4be a803 4a3d 8bba 283d 30a3 80be
000003a0: 2c5f 073d b5f3 aa3d 1450 743e 3448 393e
000003b0: f7e0 2d3d 1642 babd 6812 92bd f94c e0bd
000003c0: c8a0 16bf 50e4 e3be 3cde 0abe 15a6 48bd
000003d0: f5e1 2f3c 6217 723d 79b0 e6bd 4cda 7d3d
000003e0: 3216 a43d e25e 81bd 4350 a4bd 08aa c5bd
000003f0: 0240 b3bd 6fea 93bd 66a9 aabc 7933 2ebe

rb2.conv1.bias f4 [20]
1.8086048e-05 -1.9687828e-05 1.8958473e-05 3.1593336e-05 -2.8216991e-05 -7.4952186e-07 1.2896181e-05 1.2380821e-05
-1.6864087e-05 -1.180286e-05 -4.9735986e-06 -4.3227396e-05 -1.5411535e-05 -1.4278406e-05 -4.1374365e-06 1.4673777e-05
-1.8613153e-05 -2.5888536e-05 6.085823e-06 -2.0214284e-06
00000000: 7eb7 9737 4a27 a5b7 0309 9f37 1683 0438
00000010: 87b3 ecb7 c032 49b5 ad5c 5837 39b7 4f37
00000020: 5a77 8db7 e604 46b7 e3e2 a6b6 104f 35b8
00000030: 0548 81b7 498d 6fb7 4fd4 8ab6 642f 7637
00000040: 7123 9cb7 352b d9b7 d234 cc36 e0a7 07b6

rb2.bn1.weight f4 [20]
0.83699495 0.86629593 0.89734846 1.0466206 1.0643215 0.73875093 0.95062065 0.83495694
0.6850919 0.8574196 0.77731085 1.0111566 1.0087259 0.9567967 0.91366786 1.0749213
0.8972636 0.87548393 0.9528099 0.9409509
00000000: 4d45 563f 92c5 5d3f a1b8 653f aaf7 853f
00000010: b03b 883f c81e 3d3f e05b 733f bdbf 553f
00000020: 2f62 2f3f da7f 5b3f d8fd 463f 946d 813f
00000030: ee1d 813f a1f0 743f 23e6 693f 0597 893f
00000040: 11b3 653f b71f 603f 59eb 733f 28e2 703f

rb2.bn1.bias f4 [20]
0.047874182 -0.1582903 0.13100041 -0.00026606393 -0.28331003 -0.062807016 0.025092332 0.1733629
-0.002350898 0.09150825 0.04405848 0.0654326 -0.086201735 0.02629105 -0.10457418 -0.07690218
0.13852097 0.007170198 0.1276761 -0.085459426
00000000: b817 443d da16 22be f924 063e 7f7e 8bb9
00000010: 030e 91be f7a0 80bd 6f8e cd3c 0b86 313e
00000020: 8611 1abb ad68 bb3d aa76 343d 8701 863d
00000030: 898a b0bd 5460 d73c fd2a d6bd e47e 9dbd
00000040: 71d8 0d3e fbf3 ea3b 86bd 023e 5a05 afbd

rb2.bn1.running_mean f4 [20]
-1.2906053 -0.23341255 -1.6260678 -2.9546409 -1.2248232 0.16656026 -1.3260429 -1.5009555
1.3209188 -0.2545265 -0.4526196 -1.0483779 -2.469542 -0.6401126 -0.8364226 -1.8361213
-2.012452 -0.35645407 -1.717337 -0.17916805
00000000: 8e32 a5bf b303 6fbe fd22 d0bf d618 3dc0
00000010: 02c7 9cbf c68e 2a3e c6bb a9bf 4f1f c0bf
00000020: de13 a93f 4c51 82be c2bd e7be 3f31 86bf
00000030: fa0c 1ec0 6bde 23bf cb1f 56bf 0606 ebbf
00000040: 03cc 00c0 2681 b6be b3d1 dbbf d477 37be

rb2.bn1.running_var f4 [20]
1.5865698 1.5085435 1.8640391 3.0570343 2.3533456 1.4295132 2.2853355 2.52928
1.313434 1.1864192 1.4722785 2.2130463 2.5458794 2.1879444 1.5224156 2.863849
2.3602703 2.0455656 1.81759 2.2272446
00000000: b814 cb3f f417 c13f d598 ee3f 73a6 4340
00000010: 379d 1640 4afa b63f f042 1240 b9df 2140
00000020: 9b1e a83f 96dc 973f 9f73 bc3f 8da2 0d40
00000030: b0ef 2240 4807 0c40 84de c23f 4d49 3740
00000040: ab0e 1740 8cea 0240 caa6 e83f 2d8b 0e40

rb2.conv2.weight f4 [20, 20, 3, 3]
-0.025539769 0.10589194 -0.07376952 0.015858961 0.021220379 -0.12146797 -0.03539232 -0.13574684
-0.08137515 -0.21641104 0.14619115 0.13234685 0.02282787 0.18370722 0.12551923 0.04582505
0.06224093 0.14156324 0.0154559715 -0.046456918 0.052866243 0.14867942 0.04691424 0.021195
-0.00023851564 -0.015727747 -0.11409255 -0.1735912 -0.02126727 -0.13449135 -0.10273481 0.10608353
-0.25721532 -0.26870543 -0.042844955 -0.029141838 -0.111457385 -0.07757034 -0.10559053 0.0026818914
0.0148489475 -0.03621928 0.07865078 0.15437643 0.040236972 -0.15116484 -0.023970233 -0.09567992
-0.15065202 0.15127718 0.024686972 0.08020451 -0.017263923 0.031804513 -0.021026378 -0.009295551
-0.089898415 0.09202734 -0.0018127688 -0.079037055 -0.12686622 -0.15923251 0.043900784 -0.18802805
-0.08524279 -0.14761953 -0.035288952 -0.13626201 -0.15211694 -0.11038554 -0.21350376 0.07019601
0.16739684 -0.2666904 -0.21947391 0.24551603 0.03749757 -0.10949742 -0.08661556 0.048745304
0.13888869 0.052126728 -0.22128132 -0.19293757 0.08472547 -0.108735785 0.1428944 -0.06152308
0.06548176 0.27927852 -0.0013692454 0.022968419 -0.09556803 0.18136938 0.07037935 -0.06493237
0.07201961 -0.14946312 -0.26966834 0.0014219559 0.06367584 0.13163309 0.012388067 -0.046623137
0.135142 -0.095871575 -0.10387734 -0.0785354 -0.023645386 0.06165252 -0.019111447 -0.1287994
-0.14335024 -0.095773764 -0.2950356 -0.17549635 -0.1714035 0.009830347 0.035988335 -0.017191991
0.122035824 -0.035724122 0.07538279 0.11224449 -0.0053756423 -0.004068946 0.17864978 0.026280686
0.14662099 -0.00072644156 -0.102379546 0.10672443 0.049256157 0.13928223 0.20146956 0.08123179
0.07021774 0.11592453 0.022146553 0.1007291 0.08594063 0.040766098 -0.020056695 -0.22061767
0.0584656 -0.0020426966 0.02808314 0.060649242 0.10525629 0.04006376 -0.0995076 -0.04115532
0.061069723 0.07863145 -0.11539338 0.00020453961 0.0337401 -0.15483867 0.057468344 -0.0114296805
-0.016364802 -0.06037546 -0.13874283 -0.015809048 -0.020565586 -0.120099634 0.114235796 0.051586103
-0.24892354 -0.03820788 -0.11157899 0.24480902 0.05133414 0.095021814 0.049741447 0.0783021
0.14740868 0.15071782 0.18163052 0.03577397 0.14355949 0.12881297 -0.19551595 -0.22757012
0.07931978 -0.1085444 0.005874162 -0.06107721 -0.12453989 -0.05491391 -0.23551229 -0.03762052
0.13228999 -0.037135314 0.08272975 0.07789352 0.06319129 0.0010835754 -0.09235417 -0.07732651
-0.052267976 -0.21990047 -0.075111836 -0.03805859 -0.041970547 0.033637077 0.057698045 -0.1495149
-0.0050503807 -0.017356725 -0.13496074 0.08197081 -0.10320395 -0.22746892 -0.15536003 -0.1359057
-0.19444738 -0.14405473 -0.11454806 -0.06665009 -0.0024873808 -0.16417247 0.098811045 -0.059177857
-0.11453274 -0.05422275 -0.0716637 0.16025515 -0.22642843 -0.21429364 0.06373822 0.017849153
-0.011382393 0.08564338 -0.008300934 -0.03806712 0.15618296 -0.03720786 0.01232134 0.034705658
-0.013045514 0.114952885 -0.020342046 0.027545009 0.032712266 -0.2020176 0.060383566 0.10648778
-0.08511072 -0.041560564 -0.06014236 -0.10830897 -0.12375732 -0.046994515 -0.057277456 0.10778401
00000000: c738 d1bc e0dd d83d 7914 97bd a7ea 813c
00000010: 5cd6 ad3c 33c4 f8bd 8af7 10bd 3801 0bbe
00000020: 04a8 a6bd db9a 5dbe 22b3 153e ef85 073e
00000030: 8301 bb3c bf1d 3c3e 1d88 003e 0cb3 3b3d
00000040: 58f0 7e3d f4f5 103e 0b3b 7d3c 9c49 3ebd
00000050: 468a 583d 6b3f 183e 2529 403d 23a1 ad3c
00000060: 0e1a 7ab9 7ad7 80bc 5ba9 e9bd e4c1 31be
00000070: b338 aebc 1ab8 09be a166 d2bd 5242 d93d
00000080: bab1 83be c293 89be 317e 2fbd ddba eebc
00000090: c543 e4bd 33dd 9ebd d93f d8bd acc2 2f3b
000000a0: 0049 733c ab5a 14bd a913 a13d db14 1e3e
000000b0: 86cf 243d f5ca 1abe 395d c4bc d5f3 c3bd
000000c0: 8644 1abe 68e8 1a3e 553c ca3c 4342 a43d
000000d0: 126d 8dbc 7345 023d 833f acbc 5e4c 18bc
000000e0: a91c b8bd d478 bc3d 6d9a edba 2ede a1bd
000000f0: 38e9 01be d90d 23be 4fd1 333d 6d8a 40be
00000100: c693 aebd 9329 17be 268b 10bd 4588 0bbe
00000110: 8bc4 1bbe d011 e2bd bba0 5abe edc2 8f3d
00000120: 146a 2b3e a58b 88be c5bd 60be 8e68 7b3e
00000130: 0d97 193d 2f40 e0bd 8063 b1bd 28a9 473d
00000140: d638 0e3e d682 553d 9297 62be 6d91 45be
00000150: 8c84 ad3d deb0 debd e952 123e a0ff 7bbd
00000160: 4d1b 863d 98fd 8e3e 4078 b3ba 4428 bc3c
00000170: 2cb9 c3bd e5b8 393e 0c23 903d 43fb 84bd
00000180: 047f 933d dc0c 19be f811 8abe ec60 ba3a
00000190: 7b68 823d d3ca 063e 52f7 4a3c e7f7 3ebd
000001a0: aa62 0a3e 5158 c4bd a5bd d4bd 2bd7 a0bd
000001b0: f8b3 c1bc 5a87 7c3d 9c8f 9cbc fde3 03be
000001c0: 68ca 12be 0925 c4bd e80e 97be 51b5 33be
000001d0: 6684 2fbe 770f 213c 8168 133d 38d6 8cbc
000001e0: ebed f93d 7553 12bd 4b62 9a3d 70e0 e53d
000001f0: 2826 b0bb cb54 85bb f8ef 363e 984a d73c
00000200: d023 163e ab6e 3eba 5eac d1bd 5792 da3d
00000210: d3c0 493d 00a0 0e3e 094e 4e3e da5c a63d
00000220: 52ce 8f3d d769 ed3d b06c b53c 0f4b ce3d
00000230: a401 b03d 5afa 263d f04d a4bc 99e9 61be
00000240: a079 6f3d c3de 05bb 9d0e e63c 576b 783d
00000250: 9c90 d73d e619 243d a4ca cbbd 7b92 28bd
00000260: 3f24 7a3d 8709 a13d 5d53 ecbd af79 5639
00000270: 0f33 0a3d 078e 1ebe ed63 6b3d 8e43 3bbc
00000280: 7a0f 86bc 424c 77bd 9a12 0ebe fa81 81bc
00000290: 2979 a8bc ccf6 f5bd 75f4 e93d f34b 533d
000002a0: d0e5 7ebe de7f 1cbd 8783 e4bd 37af 7a3e
000002b0: bf43 523d cc9a c23d b0bd 4b3d da5c a03d
000002c0: 4df2 163e c655 1a3e 5afd 393e ba87 123d
000002d0: 4201 133e 8ce7 033e 5535 48be 2408 69be
000002e0: 6972 a23d 874c debd 0b7c c03b 192c 7abd
000002f0: c50e ffbd 68ed 60bd 222a 71be f917 1abd
00000300: 0777 073e 331b 18bd 376e a93d a386 9f3d
00000310: 6f6a 813d c206 8e3a 2f24 bdbd 5c5d 9ebd
00000320: f216 56bd 972d 61be 3cd4 99bd 53e3 1bbd
00000330: 4fe9 2bbd 08c7 093d c954 6c3d 6f1a 19be
00000340: aa7d a5bb b12f 8ebc 2633 0abe 50e0 a73d
00000350: 985c d3bd 9ded 68be b316 1fbe dd2a 0bbe
00000360: 371d 47be 1583 13be 2c98 eabd d87f 88bd
00000370: 5303 23bb d41c 28be 725d ca3d 7b64 72bd
00000380: 2490 eabd ad18 5ebd 6bc4 92bd ed19 243e
00000390: dbdc 67be cb6f 5bbe 2f89 823d 6338 923c
000003a0: 377d 3abc cc65 af3d a400 08bc 45ec 1bbd
000003b0: 6dee 1f3e 4567 18bd 72df 493c 8527 0e3d
000003c0: dabc 55bc 6b6c eb3d 5da4 a6bc 12a6 e13c
000003d0: 4cfd 053d b4dd 4ebe c254 773d 4416 da3d
000003e0: 874e aebd 693b 2abd d657 76bd 18d1 ddbd
000003f0: 7a74 fdbd 527d 40bd c49b 6abd ddbd dc3d

rb2.conv2.bias f4 [20]
2.096041e-06 6.614456e-06 -1.8622351e-05 -7.363037e-06 1.0387221e-05 -2.5458527e-05 -4.2930708e-07 -4.111871e-05
-9.9342615e-06 -3.353006e-05 4.628002e-06 3.926486e-05 7.738294e-06 -2.1467526e-06 1.5978123e-05 3.2224965e-05
7.0532883e-06 1.9841447e-05 1.6903573e-06 -2.8522987e-05
00000000: b6a9 0c36 bff1 dd36 3237 9cb7 0210 f7b6
00000010: c644 2e37 c58f d5b7 847b e6b4 e176 2cb8
00000020: 54ab 26b7 a1a2 0cb8 3c4a 9b36 53b0 2438
00000030: b8d3 0137 ee10 10b6 c208 8637 4b29 0738
00000040: 49ab ec36 2f71 a637 3ce0 e235 a644 efb7

rb2.bn2.weight f4 [20]
0.8500406 0.91564876 1.1821036 1.113152 1.1886765 1.0935475 1.2401792 1.2198297
1.2342676 1.1489755 1.1418984 0.9942217 1.1595862 1.0138009 1.0937216 1.2685708
1.3318589 1.2910913 1.0988891 0.86472386
00000000: 439c 593f f567 6a3f 2c4f 973f c47b 8e3f
00000010: 8d26 983f 5df9 8b3f 31be 9e3f 6123 9c3f
00000020: 7bfc 9d3f a111 933f ba29 923f 5085 7e3f
00000030: 526d 943f 3ac4 813f 12ff 8b3f 8760 a23f
00000040: 5a7a aa3f 7b42 a53f 66a8 8c3f 8b5e 5d3f

rb2.bn2.bias f4 [20]
0.2085681 0.05343737 -0.17950782 0.002373888 -0.07827258 -0.16668098 0.09175991 -0.23655964
0.23288143 -0.15989803 0.056494385 -0.13119875 -0.010866832 0.05051105 -0.01101946 0.18885502
-0.020381153 -0.12333905 0.100578755 -0.27437282
00000000: e092 553e 25e1 5a3d e6d0 37be 3b93 1b3b
00000010: 604d a0bd 6bae 2abe 9fec bb3d b13c 72be
00000020: 7878 6e3e 4fbc 23be a866 673d f758 06be
00000030: cc0a 32bc ade4 4e3d f78a 34bc 3663 413e
00000040: 60f6 a6bc 2f99 fcbd 3cfc cd3d 987a 8cbe

rb2.bn2.running_mean f4 [20]
-0.63782907 -1.9988716 -1.0966439 -1.1827328 -0.7007654 0.16989036 -1.1828794 0.49961996
-2.8574626 -0.044367425 -0.87237513 0.071927935 -1.7610067 -0.4124539 0.23289837 -1.4313583
-2.770679 -0.18591262 -2.3102117 0.21921876
00000000: c448 23bf 06db ffbf d45e 8cbf ca63 97bf
00000010: 5c65 33bf bdf7 2d3e 9868 97bf 30ce ff3e
00000020: abe0 36c0 9eba 35bd fa53 5fbf f44e 933d
00000030: ab68 e1bf 282d d3be e97c 6e3e c036 b7bf
00000040: ce52 31c0 e15f 3ebe 82da 13c0 e27a 603e

rb2.bn2.running_var f4 [20]
0.84495544 0.87936205 0.69738066 1.0898767 0.6243404 1.0241593 1.073891 0.63248175
1.1573994 0.78938836 0.75671595 0.66317296 0.6462564 0.9899835 1.2703133 0.9468864
0.91686445 1.0362846 0.8975691 0.63693875
00000000: 004f 583f df1d 613f 8a87 323f 1481 8b3f
00000010: c6d4 1f3f a717 833f 4375 893f 53ea 213f
00000020: aa25 943f 5b15 4a3f 23b8 413f b4c5 293f
00000030: 0f71 253f 8f6f 7d3f a099 a23f 2667 723f
00000040: a1b7 6a3f f9a4 843f 17c7 653f 6b0e 233f

rb2.shortcut.conv.weight f4 [20, 10, 1, 1]
-0.01356904 -0.06989312 -0.3801037 -0.08943438 0.51588607 -0.023847867 0.013620011 -0.022196542
-0.016024496 -0.23590747 -0.04717495 0.13075727 -0.5983938 0.07476218 -0.16506834 -0.20595829
-0.03426802 -0.008351361 0.008870838 0.010564112 -0.09646016 -0.12821533 -0.03256643 -0.02640848
0.050545458 0.37381718 0.15118627 0.12115683 -0.15414412 -0.37568328 -0.06396825 -0.0022557857
0.32372412 0.13828638 0.19418165 -0.14666487 0.25267652 0.19687302 0.43022135 -0.13676733
-0.12328965 0.049316514 0.056143716 0.43992615 0.0663253 -0.07017963 -0.028748166 -0.08143222
0.3472039 -0.096487045 0.27593285 0.17311272 -0.11233661 -0.37144858 -0.0699462 -0.065523334
0.19546132 -0.13289851 -0.14382882 -0.40589848 -0.111724205 0.16956687 0.008476857 -0.3207498
0.03020506 -0.39691982 -0.25166777 0.07807176 0.2455284 -0.06478872 0.17570342 0.18362017
0.013821178 -0.04480663 -0.16519237 -0.039110716 -0.29541358 0.045561865 -0.5896257 -0.19307177
-0.085680075 0.13853937 -0.07593298 -0.055076156 -0.7076382 -0.08538543 -0.0009953072 0.2708532
-0.0902358 -0.006711872 -0.26255324 0.36123028 -0.15320736 -0.18770659 0.19215709 -0.12727112
-0.011856963 0.12189942 0.0045053945 -0.39908162 -0.021917101 0.06789445 -0.4260385 0.25652218
-0.31098092 -0.1290015 0.2700733 0.05807813 0.11479885 0.05083919 0.0032009536 -0.024238285
-0.3113587 0.25915828 0.27144077 0.22992253 -0.08868638 -0.06474077 0.14991789 -0.20449592
-0.09198955 -0.3559425 0.22000194 0.3251143 -0.09779432 -0.026735744 0.057004854 -0.10901155
-0.38871095 0.1029753 -0.05548989 -0.19673575 -0.10162804 -0.09257543 0.03833993 0.12171176
0.10566089 0.06268358 -0.6444751 -0.15571555 0.027135693 -0.25403747 -0.008928315 -0.17521317
-0.018017942 -0.37474334 -0.40339857 -0.0780964 -0.08523825 0.1922605 0.3715213 -0.33124498
0.23018666 0.11188682 -0.13075227 0.14353026 0.15816382 -0.1140906 -0.3059135 -0.04083994
0.1580859 0.31589937 -0.12967017 0.09108188 0.007137317 0.27129206 0.2020874 0.11770071
0.09971673 0.0047183093 0.046765056 0.082687825 -0.27646756 0.12012707 0.047683116 0.25226313
0.2560493 0.40322718 0.15484391 -0.12453297 0.023543205 0.086085826 -0.028532416 -0.25847474
-0.007951726 0.058827154 -0.017572131 -0.31176814 -0.4655437 -0.02016615 -0.24859156 -0.14630727
0.37380788 -0.010891153 0.1675996 -0.062185243 0.07557738 -0.10996697 -0.226576 0.088934354
00000000: ae50 5ebc 2024 8fbd f49c c2be 5f29 b7bd
00000010: 1c11 043f 9a5c c3bc 7726 5f3c 86d5 b5bc
00000020: ce45 83bc ba91 71be 853a 41bd 3ce5 053e
00000030: 5630 19bf ea1c 993d ad07 29be bbe6 52be
00000040: a05c 0cbd 26d4 08bc fe56 113c 1915 2d3c
00000050: e88c c5bd e14a 03be 6064 05bd 9956 d8bc
00000060: c108 4f3d f764 bf3e 93d0 1a3e 1221 f83d
00000070: f5d7 1dbe 8f59 c0be c901 83bd ced5 13bb
00000080: 2bbf a53e f29a 0d3e 8ed7 463e 512f 16be
00000090: d15e 813e 1599 493e f945 dc3e bc0c 0cbe
000000a0: 497f fcbd 1d00 4a3d f4f6 653d 003e e13e
000000b0: 8fd5 873d 56ba 8fbd 4681 ebbc f0c5 a6bd
000000c0: b6c4 b13e 009b c5bd 1247 8d3e 7644 313e
000000d0: bd10 e6bd 822e bebe f43f 8fbd 1931 86bd
000000e0: 0327 483e 8c16 08be dd47 13be edd1 cfbe
000000f0: a9cf e4bd f0a2 2d3e 84e2 0a3c 5139 a4be
00000100: 9a70 f73c 1339 cbbe 99da 80be 16e4 9f3d
00000110: cc6b 7b3e f3af 84bd 99eb 333e ed06 3c3e
00000120: 3972 623c 2887 37bd 3028 29be 8f32 20bd
00000130: 7340 97be 149f 3a3d b6f1 16bf 9bb4 45be
00000140: 0979 afbd 44dd 0d3e c082 9bbd 8997 61bd
00000150: c727 35bf 8ede aebd f874 82ba 45ad 8a3e
00000160: 8ccd b8bd 43ef dbbb 616d 86be 2df3 b83e
00000170: 64e2 1cbe 2836 40be d4c4 443e 5c53 02be
00000180: b543 42bc 67a6 f93d fda1 933b 6d54 ccbe
00000190: 7e8b b3bc 3f0c 8b3d b821 dabe e056 833e
000001a0: e438 9fbe f818 04be 0c47 8a3e 55e3 6d3d
000001b0: a91b eb3d c13c 503d 17c7 513b 5e8f c6bc
000001c0: 686a 9fbe 65b0 843e 49fa 8a3e d070 6b3e
000001d0: 34a1 b5bd cf96 84bd 1384 193e 6167 51be
000001e0: 0465 bcbd 183e b6be 3048 613e 6275 a63e
000001f0: 6348 c8bd eb04 dbbc ec7d 693d 7341 dfbd
00000200: 1f05 c7be b7e4 d23d 5e49 63bd 1975 49be
00000210: 5d22 d0bd 3098 bdbd 550a 1d3d 0444 f93d
00000220: bd64 d83d 4060 803d 52fc 24bf e673 1fbe
00000230: ac4b de3c 3311 82be 1148 12bc 156b 33be
00000240: 5d9a 93bc 5cde bfbe 428a cebe 01f1 9fbd
00000250: 6491 aebd f0df 443e 0a38 be3e f198 a9be
00000260: 0db6 6b3e eb24 e53d ece3 05be 99f9 123e
00000270: b2f5 213e 55a8 e9bd b2a0 9cbe c847 27bd
00000280: 45e1 213e 90bd a13e 42c8 04be 2389 ba3d
00000290: 28e0 e93b cbe6 8a3e 00f0 4e3e 120d f13d
000002a0: 4938 cc3d 0c9c 9a3b b78c 3f3d 3c58 a93d
000002b0: 288d 8dbe 2e05 f63d 5f4f 433d a228 813e
000002c0: e518 833e cb73 ce3e 678f 1e3e 240b ffbd
000002d0: aedd c03c c44d b03d d0bc e9bc cd56 84be
000002e0: f547 02bc bef4 703d 6ef3 8fbc 13a0 9fbe
000002f0: be5b eebe 7b33 a5bc c98e 7ebe 93d1 15be
00000300: bf63 bf3e ce70 32bc 3b9f 2b3e f4b5 7ebd
00000310: 50c8 9a3d 5d36 e1bd 8a03 68be 3723 b63d

rb2.shortcut.conv.bias f4 [20]
-3.0415496e-05 -1.0732553e-05 -2.4523601e-06 2.3207738e-06 9.543903e-06 -5.887886e-06 -2.2740605e-05 -5.1006436e-06
5.936765e-06 -1.7844004e-05 1.8710314e-05 2.1591222e-05 -8.6084965e-06 4.0422597e-06 6.141279e-06 1.1228073e-05
5.8889063e-06 -1.6373337e-05 5.937786e-06 -3.439382e-05
00000000: c824 ffb7 f70f 34b7 3a93 24b6 97be 1b36
00000010: c01e 2037 8e90 c5b6 14c3 beb7 3226 abb6
00000020: 6c34 c736 b5af 95b7 18f4 9c37 cc1e b537
00000030: 366d 10b7 bfa2 8736 2f11 ce36 3560 3c37
00000040: 5299 c536 7959 89b7 323d c736 1542 10b8

rb2.shortcut.bn.weight f4 [20]
0.9450466 0.698662 0.9033483 0.52395964 0.6850875 0.685322 0.5269432 0.7594818
0.8114967 0.8316567 0.5511797 0.6847286 0.46919304 0.86461663 1.0775417 0.47385737
0.6969856 0.52624077 0.35044625 0.7252943
00000000: 93ee 713f 83db 323f d641 673f 3822 063f
00000010: e561 2f3f 4371 2f3f c0e5 063f 666d 423f
00000020: 3fbe 4f3f 74e7 543f 1d1a 0d3f 604a 2f3f
00000030: 123a f03e 8457 5d3f e3ec 893f 6f9d f23e
00000040: a66d 323f b7b7 063f b16d b33e e3ac 393f

rb2.shortcut.bn.bias f4 [20]
0.2085681 0.05343737 -0.17950782 0.002373888 -0.07827258 -0.16668098 0.09175991 -0.23655964
0.23288143 -0.15989803 0.056494385 -0.13119875 -0.010866832 0.05051105 -0.01101946 0.18885502
-0.020381153 -0.12333905 0.100578755 -0.27437282
00000000: e092 553e 25e1 5a3d e6d0 37be 3b93 1b3b
00000010: 604d a0bd 6bae 2abe 9fec bb3d b13c 72be
00000020: 7878 6e3e 4fbc 23be a866 673d f758 06be
00000030: cc0a 32bc ade4 4e3d f78a 34bc 3663 413e
00000040: 60f6 a6bc 2f99 fcbd 3cfc cd3d 987a 8cbe

rb2.shortcut.bn.running_mean f4 [20]
-0.32992464 -0.8678133 -0.13425088 1.0270073 0.41889572 -0.72565347 -0.5680293 -0.8436887
-0.68824524 -0.5546483 -0.19478603 0.112960525 -0.20523453 -0.76414186 -0.914947 0.149044
0.8982229 0.7556984 -0.8204925 0.043569777
00000000: e2eb a8be 0329 5ebf 1079 09be fa74 833f
00000010: 8079 d63e 6dc4 39bf 5e6a 11bf fcfb 57bf
00000020: d730 30bf 6efd 0dbf fd75 47be d957 e73d
00000030: 0029 52be cd9e 43bf f739 6abf fe9e 183e
00000040: f0f1 653f 7375 413f cc0b 52bf 3976 323d

rb2.shortcut.bn.running_var f4 [20]
0.46880943 0.38700092 0.37230664 0.5435759 0.4343852 0.48493955 0.3610708 0.5704531
0.38881254 0.30801296 0.4392634 0.28524187 0.2434256 0.68560773 0.45980024 0.37091368
0.31929344 0.41567084 0.5402158 0.15787686
00000000: ca07 f03e fc24 c63e fa9e be3e ca27 0b3f
00000010: bd67 de3e ff49 f83e 46de b83e 3709 123f
00000020: 7012 c73e e0b3 9d3e 22e7 e03e 390b 923e
00000030: 8f44 793e fd83 2f3f f06a eb3e 66e8 bd3e
00000040: 6e7a a33e cfd2 d43e 954b 0a3f 79aa 213e

res1_sc1.conv.weight f4 [20, 3, 1, 1]
-0.54875505 0.088155694 0.331948 -0.24387723 0.56018215 -0.23704171 0.00970596 -0.30659598
-0.3844326 0.38170257 -0.33780542 -0.34964415 0.4818239 -0.11667816 0.21532978 -0.53941923
-0.3738839 0.32356927 -0.17548135 0.36899936 0.49995157 0.3532346 -0.56254447 -0.32964343
0.16760038 0.53066534 -0.17660537 0.26670778 -0.2610917 -0.36051154 -0.10015092 -0.25700694
-0.3706611 0.1487337 -0.085117504 -0.41278723 -0.34649464 -0.19670077 -0.05619155 0.0027842533
-0.14712577 -0.4744366 -0.2320595 0.22952077 0.34932435 0.37902078 0.1588597 -0.2609137
0.10444031 -0.32508093 0.05980109 0.056545 -0.34708583 0.05486622 0.23782769 0.30230275
-0.09826702 -0.512951 0.15606181 0.071828835
00000000: 367b 0cbf f98a b43d 17f5 a93e f4ba 79be
00000010: 1968 0f3f 10bb 72be bf05 1f3c 26fa 9cbe
00000020: 5ad4 c4be 856e c33e d5f4 acbe 8f04 b3be
00000030: 9fb1 f63e f6f4 eebd 697f 5c3e 6117 0abf
00000040: b66d bfbe dfaa a53e 62b1 33be 7ced bc3e
00000050: a7f9 ff3e 2adb b43e ea02 10bf 06c7 a8be
00000060: 6f9f 2b3e afd9 073f 0ad8 34be ec8d 883e
00000070: d0ad 85be f894 b8be ed1b cdbd 6a96 83be
00000080: 4bc7 bdbe a64d 183e 1652 aebd d958 d3be
00000090: bf67 b1be ed6b 49be 1c29 66bd 0578 363b
000000a0: 23a8 16be 5be9 f2be 01a1 6dbe 7e07 6b3e
000000b0: a4da b23e 030f c23e 1eac 223e 7b96 85be
000000c0: cde4 d53d 0271 a6be fdf1 743d bb9b 673d
000000d0: 3cb5 b1be 67bb 603d 1a89 733e 6dc7 9a3e
000000e0: 3840 c9bd c250 03bf abce 1f3e ff1a 933d

res1_sc1.conv.bias f4 [20]
-9.159934e-05 -1.9689283e-05 -3.5538727e-05 1.8338049e-05 8.5465224e-05 -2.5320222e-05 -2.6384661e-05 -4.518956e-05
1.8549712e-06 -0.00013250872 -3.0879255e-05 -1.47409e-05 1.4891138e-05 1.5320314e-06 0.000101427744 -5.2011633e-06
5.109565e-05 2.2072998e-05 -1.8916464e-05 -7.547612e-05
00000000: 0519 c0b8 6a2a a5b7 6b0f 15b8 a9d4 9937
00000010: cb3b b338 c366 d4b7 a154 ddb7 ec89 3db8
00000020: 53f8 f835 0af2 0ab9 5984 01b8 af4f 77b7
00000030: f3d4 7937 33a0 cd35 9bb5 d438 a785 aeb6
00000040: 894f 5638 6729 b937 ccae 9eb7 ef48 9eb8

res1_sc1.bn.weight f4 [20]
0.8026344 0.91464937 0.6759239 0.5534685 0.5056694 0.6086889 0.55119604 0.5892127
0.6041442 0.6493551 0.5820907 0.57261765 0.45662358 0.58610153 0.647503 0.37519908
0.5412478 0.47411335 0.4262944 0.8115824
00000000: 7379 4d3f 7626 6a3f 5909 2d3f 1db0 0d3f
00000010: 8d73 013f 09d3 1b3f 2f1b 0d3f a5d6 163f
00000020: 32a9 1a3f 233c 263f e503 153f 1297 123f
00000030: 91ca e93e c00a 163f c2c2 253f 181a c03e
00000040: 378f 0a3f fcbe f23e 4243 da3e ddc3 4f3f

res1_sc1.bn.bias f4 [20]
0.2085681 0.05343737 -0.17950782 0.002373888 -0.07827258 -0.16668098 0.09175991 -0.23655964
0.23288143 -0.15989803 0.056494385 -0.13119875 -0.010866832 0.05051105 -0.01101946 0.18885502
-0.020381153 -0.12333905 0.100578755 -0.27437282
00000000: e092 553e 25e1 5a3d e6d0 37be 3b93 1b3b
00000010: 604d a0bd 6bae 2abe 9fec bb3d b13c 72be
00000020: 7878 6e3e 4fbc 23be a866 673d f758 06be
00000030: cc0a 32bc ade4 4e3d f78a 34bc 3663 413e
00000040: 60f6 a6bc 2f99 fcbd 3cfc cd3d 987a 8cbe

res1_sc1.bn.running_mean f4 [20]
-0.032290198 0.019300006 0.06144167 0.04768798 -0.03795083 -0.015683647 -0.07447651 0.053372514
0.0009494737 0.049562573 0.0609486 0.053901505 0.02372019 0.06825414 -0.047966063 0.019025931
0.00022368171 0.002914743 -0.0037184835 -0.0008206905
00000000: ba42 04bd 0c1b 9e3c 43aa 7b3d 7954 433d
00000010: 5472 1bbd fe7a 80bc 2487 98bd 239d 5a3d
00000020: 1ae6 783a 2002 4b3d 3da5 793d d3c7 5c3d
00000030: d850 c23c d4c8 8b3d 1078 44bd 45dc 9b3c
00000040: 1a8c 6a39 4605 3f3b cdb1 73bb 9b23 57ba

res1_sc1.bn.running_var f4 [20]
0.02242423 0.006395511 0.113828644 0.03709625 0.07877325 0.098419406 0.12704399 0.08320241
0.06871412 0.041016806 0.1262503 0.03834708 0.083953775 0.097372994 0.038145144 0.027644975
0.007377261 0.014304041 0.048149295 0.025780473
00000000: 05b3 b73c 6f91 d13b fe1e e93d 3df2 173d
00000010: df53 a13d 1d90 c93d d217 023e 0666 aa3d
00000020: fdb9 8c3d 3d01 283d c247 013e d411 1d3d
00000030: f5ef ab3d 7e6b c73d 153e 1c3d b777 e23c
00000040: f3bc f13b 7f5b 6a3c 3238 453d 9231 d33c
