models/dense_max/epoch_0000.pth (torch, 645162 bytes, 174 tensors)

rb1.conv1.weight f4 [10, 3, 3, 3]
000000 52 6d 17 bd 88 48 52 3d 18 05 2c be b7 77 13 be
       -0.03696949 0.051338702 -0.16798818 -0.14401136
000010 a1 85 f3 3d ad 8f 20 3e 49 44 e5 bd 01 2f 24 3e
       0.11890722 0.15679808 -0.11194665 0.16033556
000020 85 ad e7 bd 1a ea 88 bd b1 35 9b 3d 81 f6 be bc
       -0.11312393 -0.06685276 0.075786 -0.023310902
000030 70 ff 75 be 1c eb 05 3e 04 77 4a 3e 30 d6 45 3d
       -0.24023223 0.13077968 0.19771963 0.04829997
000040 1e 4e 53 3e 05 e1 4a be 5a 7f 28 ba e3 88 46 3d
       0.20635268 -0.198124 -0.0006427668 0.04847039
000050 ae cf 41 bd 56 3d 26 be 9d a0 80 bd 33 bc 11 3d
       -0.0473172 -0.16234335 -0.062806346 0.03557987
000060 bc 69 4e 3e ca 0f b6 bc 0d 6b b1 3d 37 b8 83 bc
       0.20157522 -0.022224326 0.086629964 -0.016079051
000070 3d ae 32 3e 9b 27 9a 3d 3a b3 0e 3e 84 f4 3e ba
       0.17449279 0.075270854 0.13935557 -0.00072843605
000080 4a 1f 2d be 6b 88 72 bd 5c 41 b4 3d cc 39 27 be
       -0.16906467 -0.05921213 0.08801529 -0.16330642
000090 5f c8 1c be 05 49 9e 3d 13 f0 f1 bd e8 8f 54 3b
       -0.1531081 0.07728771 -0.11813369 0.0032434408
0000a0 47 63 82 3e 96 d3 0a bd 18 3a e0 bc 24 b8 0f 3e
       0.25466368 -0.03389319 -0.027371451 0.14035088
0000b0 48 6e 3b be fb 22 1d be 84 3b 7a bd ec 4f 67 3b
       -0.18303788 -0.15345375 -0.061091915 0.003529544
0000c0 9b f0 dd 3d 16 d7 4c 3e 19 a0 09 be 66 23 0d bd
       0.108369075 0.20003924 -0.13439979 -0.034457587
0000d0 60 83 a9 3d 2d d5 6a 3c a6 73 ef 3c c2 e4 0a 3e
       0.08277011 0.014333052 0.02922995 0.13563827
0000e0 a8 29 b6 3d dc 7a e2 bd 4a 85 8b bd ad 89 d4 3d
       0.08894664 -0.1105859 -0.06812532 0.10377822
0000f0 3f 08 06 3d 18 42 e7 bd 73 c7 b4 3d eb 84 81 3e
       0.032722708 -0.11291903 0.088271044 0.2529672
000100 c7 a4 e4 3d f0 b0 5c 3e d2 50 7d 3c cb f2 27 be
       0.11164241 0.21551871 0.015461164 -0.16401212
000110 98 bd 00 be f7 52 87 bd c1 a1 40 be b9 0f 2f be
       -0.12572324 -0.06607621 -0.18811704 -0.17095841
000120 d9 ce aa 3d 00 72 f0 3d 8b 8c 91 3a 8b 63 72 3c
       0.08340234 0.11740494 0.0011104507 0.014794241
000130 e9 e8 af b9 9a 88 c1 bd f0 ce 22 3e f3 1c 9b bd
       -0.00033552133 -0.09449883 0.15899253 -0.07573881
000140 8d 17 a5 bd d4 22 22 be ca f7 a5 3d f6 d9 f4 bd
       -0.080611326 -0.15833598 0.08103903 -0.11955635
000150 96 73 61 3d aa 09 5a be a6 fb c0 bd 92 29 0e bd
       0.055041872 -0.21292749 -0.09422998 -0.034707613
000160 7d a1 db 3c 8d 6a 84 3d e6 1f e3 bd a9 02 c3 bd
       0.026810402 0.064656354 -0.110900685 -0.09521992
000170 80 f8 e8 bd ba c6 6d 3e a0 bd eb bd 31 83 3a bd
       -0.113755226 0.2322034 -0.115107775 -0.04553527
000180 4b d1 45 3e 79 33 83 bd 67 be fe bd 75 a1 15 bd
       0.1931812 -0.06406302 -0.1243866 -0.03653093
000190 4a 71 a3 3d 90 f5 16 be ab 1e f8 3c c4 d5 f3 bc
       0.079805925 -0.14742112 0.030288061 -0.029765017
0001a0 30 93 b6 bd 36 96 27 3e 7d 70 1d 3d e1 59 30 3e
       -0.089147925 0.16365895 0.038437355 0.17221786
0001b0 37 fb a6 bd e3 5d 3f be 72 87 05 3e 4b 69 ad 3d
       -0.08153384 -0.18688159 0.1303995 0.08467349
0001c0 9f b1 37 be bf 44 07 3d ea 0b 98 3d a3 85 8f bd
       -0.17938851 0.033024546 0.074241474 -0.07007911
0001d0 0e f8 c7 3d 2e 07 46 3e dc d1 76 be 7d e7 17 be
       0.097641096 0.19338676 -0.24103492 -0.148344
0001e0 57 7f d5 bd 85 d1 53 bc 5a 35 10 3e b5 6d 05 3e
       -0.10424679 -0.012928371 0.14082852 0.13030131
0001f0 d5 c4 45 3d 7f 07 69 3d 12 c7 22 3e 11 9d ad 3d
       0.048283417 0.056891914 0.15896252 0.08477224
000200 3e f9 01 be 8b cb 0f 3e 29 06 f5 3d af 67 57 be
       -0.12692735 0.14042489 0.119640656 -0.21035646
000210 3c d0 3e 3e 57 03 dc 3d b9 a7 aa bd 21 52 eb bd
       0.18634123 0.107428245 -0.08332772 -0.11490274
000220 de 49 e4 bd 92 b8 1b 3e b1 52 3b bc 0a 35 30 bd
       -0.111469015 0.15207127 -0.011433289 -0.043019332
000230 28 df 55 3d 6c 90 63 3d 42 8b d2 bd b8 85 2c bc
       0.05221477 0.055557653 -0.102804676 -0.010529928
000240 f2 d6 9b 3d cb e3 44 3e 6b d7 4c 3e 75 78 0d be
       0.07609357 0.19227521 0.2000405 -0.13815482
000250 38 62 95 be fd 55 74 bd 79 23 d8 3d 46 49 bc 3c
       -0.29176497 -0.059652317 0.10553641 0.022984158
000260 ea 61 91 be 74 32 08 3e 65 e5 0b be bb b0 2e 3e
       -0.28395015 0.13300496 -0.13661726 0.17059605
000270 68 ba c2 bd ec e1 61 be 8b 20 0e be 7e b0 1a be
       -0.095082104 -0.22058839 -0.13879602 -0.15106389
000280 80 3a 67 be f4 41 2c bc f8 59 93 bc 99 42 b9 bd
       -0.2258091 -0.010513771 -0.017987236 -0.090459056
000290 f8 68 36 3e 65 ab e4 3c f8 4d ce 3d e3 fa 86 bd
       0.1781348 0.027913759 0.10073465 -0.065908216
0002a0 9e 50 91 3d b0 55 38 bc 2d dd 2f 3e ba af 17 3e
       0.07095455 -0.011250898 0.17174216 0.14813128
0002b0 db b5 04 3d f0 a8 53 3e 47 88 f4 3c f4 52 d1 3c
       0.032399993 0.20669913 0.029850138 0.02555225
0002c0 74 58 e8 bd 85 e3 47 3e f0 fb a7 3d a4 50 38 3b
       -0.11344996 0.19520386 0.0820235 0.0028124237
0002d0 00 83 0f be 91 61 47 bd 8e d2 2a 3d f6 81 29 3c
       -0.14014816 -0.04867703 0.041704707 0.0103459265
0002e0 a1 0d 5d 3d 71 b1 1a 3e 9a 50 e0 bd 18 df 82 3e
       0.053968076 0.15106751 -0.109528735 0.25560832
0002f0 b4 9a 46 3e 05 d1 fb bc 57 f0 c7 bd 3a e1 2e 3e
       0.19394952 -0.030739317 -0.09762638 0.17078105
000300 d5 b0 40 be d4 ab 96 3d 6b 80 06 be 15 22 51 3e
       -0.18817456 0.07356992 -0.13134925 0.20423158
000310 36 52 0e be 26 9e e1 3d 3d e0 74 3d 0e 9f 09 3d
       -0.13898548 0.110164925 0.059784163 0.033598952
000320 e7 34 69 3e a4 f5 4c be 91 f1 53 be ad 81 06 bd
       0.22774087 -0.2001558 -0.20697619 -0.032838512
000330 54 57 b9 3d 73 b5 03 3e 99 eb 26 be 23 1e 0c be
       0.0904986 0.12862186 -0.16300811 -0.13683371
000340 99 33 cb bd 59 ab 3f 3d 24 fb 45 bd 2a 25 aa bd
       -0.09921951 0.04679427 -0.04833521 -0.0830787
000350 e7 d2 86 3e 40 cc 6b 3e 56 9c 18 be a6 96 53 bc
       0.2633278 0.23027134 -0.14903387 -0.012914335
000360 7f ad 3a be c6 96 b6 3d a4 ac 96 bd 07 4b b7 3d
       -0.18230246 0.089154765 -0.07357147 0.08949857
000370 d1 d8 58 3d 88 c9 10 3e 9c 06 42 ba c8 eb 1c 3e
       0.052941147 0.14139378 -0.00074014976 0.15324318
000380 b7 99 cb bd ba 6d 90 bd 4b e4 e6 bd 74 ee d8 bd
       -0.09941428 -0.07052179 -0.11274012 -0.10592356
000390 58 88 56 3d 45 24 d7 3d 6e 2d 3b bd d6 44 35 3e
       0.05237612 0.10504965 -0.045697622 0.1770204
0003a0 44 df 54 be af 18 98 bd f7 92 47 3d 6b 97 91 3d
       -0.20788294 -0.07426583 0.04872414 0.07108959
0003b0 5a 76 6f bd cc 66 e8 3d ce 55 16 3e 86 f3 64 3d
       -0.05846248 0.11347732 0.1468117 0.055896305
0003c0 fc ea da bd 8f 12 c8 3c 13 07 20 be fc 86 7e 3e
       -0.10689351 0.024422912 -0.15627699 0.2485618
0003d0 fe 8c 83 3e 12 a0 61 3e 2a 0f 79 3e 60 f4 50 3e
       0.25693506 0.22033718 0.24322191 0.20405722
0003e0 71 5e 02 3d 5b 14 fe 3d b0 26 c5 bc b0 ca 10 be
       0.031828348 0.12406226 -0.0240663 -0.14139819
0003f0 b4 79 11 3e d2 59 51 3e 3e b5 7b 3d 4e ab e6 bd
       0.14206582 0.2044442 0.061452143 -0.112631425

rb1.conv1.bias f4 [10]
000000 81 3a 25 3a cc 4f e8 b9 43 84 43 b9 89 ed f5 39
       0.0006302968 -0.00044309942 -0.0001864592 0.0004690702
000010 5b 5f 0f ba 97 f3 0c 3a 54 5f a7 b8 3d 1a 7c ba
       -0.0005469226 0.0005376874 -7.980937e-05 -0.0009616947
000020 f8 85 2c 39 93 48 d8 37
       0.00016453105 2.5783002e-05

rb1.bn1.weight f4 [10]
000000 ed b7 5b 3f cd bf a0 3f a7 cf 69 3f 77 fa 64 3f
       0.85827523 1.2558533 0.9133248 0.8944468
000010 7b 2f 65 3f 7f 2a 6e 3f d9 00 50 3f 7e 43 81 3f
       0.89525574 0.93033594 0.81251293 1.0098722
000020 42 82 68 3f e7 6d 58 3f
       0.9082376 0.845427

rb1.bn1.bias f4 [10]
000000 48 5d 2d 3d 51 98 3a 3f a3 02 06 3e cf 64 62 3d
       0.042325288 0.72888666 0.13086943 0.05527192
000010 7f f3 80 bb b4 eb ca 3c a1 d4 ff bc 62 42 0c 3f
       -0.003935277 0.024770595 -0.031229319 0.5478879
000020 4f cd 8f 3e c8 ad 09 bd
       0.28086326 -0.033612996

rb1.bn1.running_mean f4 [10]
000000 fc b5 79 bc 05 da e6 bb b6 0e 07 bc 00 f0 6f b7
       -0.015241142 -0.007045033 -0.008243253 -1.43013895e-05
000010 34 bc 2b bd 3a 97 be 3d 55 d9 a8 bd 6e b8 9c 3b
       -0.04192753 0.09306188 -0.08244578 0.004782728
000020 4a d1 26 bc d0 20 6c bc
       -0.010181734 -0.01441212

rb1.bn1.running_var f4 [10]
000000 2e 49 03 3d 52 0b 0e 3d d0 c1 9d 3d a3 8b c2 3d
       0.03205221 0.034678765 0.077029824 0.0949929
000010 90 60 8c 3d c1 70 9f 3e 91 d6 c9 3e a2 da 04 3d
       0.06854355 0.31140712 0.39421514 0.032435067
000020 76 06 c9 3c 44 26 c5 3e
       0.024539214 0.38505757

rb1.conv2.weight f4 [10, 10, 3, 3]
000000 cf 3d 35 be 2e e0 e6 bc 97 60 8c bd 61 7d 11 3d
       -0.1769936 -0.02818307 -0.068543606 0.03551996
000010 4b 69 df bd 8e 85 d9 3b 8b 09 03 3c e8 a8 91 bc
       -0.10908755 0.0066382354 0.007997881 -0.017780736
000020 60 1c 65 bc 5e 1d 5e bd e2 db 0f 3c 35 f3 87 bd
       -0.013983816 -0.054227225 0.0087804515 -0.06638185
000030 93 71 1f be 70 f9 f7 bd 56 29 35 3e d3 c1 41 3d
       -0.15570669 -0.12108123 0.1769155 0.047303986
000040 ac 92 52 be 34 8f f5 bd 6b 69 41 be fe 40 b3 bd
       -0.20563763 -0.119902045 -0.1888787 -0.08752631
000050 af 13 b1 bc e8 2a cd bc 6c 7e 5d be 25 81 12 be
       -0.021615831 -0.025044873 -0.21630257 -0.14307077
000060 88 1b 31 bd 66 53 72 3d 75 cd 80 bc 78 37 31 3d
       -0.043239146 0.059161566 -0.01572297 0.04326579
000070 c3 05 a5 3d 9f 69 59 3d c4 4c 98 bd 70 16 2c bc
       0.080577396 0.053079244 -0.07436517 -0.010503396
000080 70 b8 dc 3d e0 bb 1c bd 00 8a 31 bd 9b 97 6e bd
       0.10777366 -0.03826511 -0.043344498 -0.05825005
000090 b8 a0 9b bd 18 53 9e 3d 63 21 c6 bc db 44 b7 3b
       -0.07599014 0.077306926 -0.024185842 0.005592925
0000a0 9a 0c d7 bd 38 e2 2c 3c 0f e2 03 be 6e 4b 26 3b
       -0.105004504 0.010551982 -0.12879203 0.002537455
0000b0 a2 31 ef bd 45 06 13 3d 36 9f d2 3d d7 39 47 3e
       -0.116793886 0.03589465 0.10284273 0.19455658
0000c0 5b 38 13 bb e1 fb 31 3c cf 3e ba bc 1b d3 f1 bc
       -0.002246401 0.010863275 -0.022735028 -0.029519608
0000d0 a7 8e 9a bb d3 15 50 3d f6 c1 e7 3b a2 6d f0 3c
       -0.0047167125 0.050802063 0.0070726825 0.029349152
0000e0 36 51 3c bd 33 6b 05 bd f7 36 07 be f6 8d 72 3c
       -0.045975886 -0.032572936 -0.13204561 0.014804354
0000f0 7d 9d 0c 3d b7 20 89 3d 68 da c3 bd 7e f7 1c bd
       0.03432988 0.06695693 -0.09563142 -0.038321964
000100 62 3c c8 3c ae 23 53 3e 65 ba 83 bd f1 5a ba bc
       0.024442855 0.2061908 -0.06432036 -0.022748442
000110 41 41 c3 bd 15 7c 36 3d ea 52 cc 3c 64 23 ae bd
       -0.095339306 0.044551928 0.02494188 -0.08502844
000120 39 b6 4b 3a 62 6b 16 bd 69 16 b9 bd 5f b1 e1 3d
       0.0007770989 -0.036723502 -0.090374775 0.11020159
000130 b2 73 11 3c 1d c8 14 3d fa ef b5 3d dd 41 fb 3a
       0.008877682 0.036323655 0.088836625 0.0019169409
000140 13 b6 d0 bb 27 a3 c0 bd 9e 32 2e be ac 2a 4e 39
       -0.006369361 -0.09406119 -0.17011496 0.00019661587
000150 47 8f 9d bd 1d 42 79 3c 1a e0 4d bc 1d 56 d7 bd
       -0.076933436 0.015213517 -0.012565637 -0.10514472
000160 bb 3e 44 bd ac 4a 2f 3d 13 53 2a 3d cf 14 5a 3d
       -0.047911387 0.042795822 0.041583132 0.0532425
000170 c2 df 58 3d 55 53 34 bc e9 db 71 3d c3 98 4a 3e
       0.052947767 -0.011006196 0.059047613 0.19784836
000180 67 0e ed 3b d2 a1 12 3d 37 98 06 bd d3 01 40 3d
       0.007234383 0.035798855 -0.032860007 0.04687674
000190 24 00 9b 3d 06 c5 0e be 3b 7a 4a 3d 43 a6 60 be
       0.07568386 -0.13942346 0.049432974 -0.21938424
0001a0 1a fc 47 3d 28 3e 0a be 9a ec de 3b 65 6e 86 3e
       0.048824407 -0.13500273 0.0068031074 0.262561
0001b0 d7 22 94 bc 42 4a 01 3e aa 5e 66 bc fe ee bc 3d
       -0.01808302 0.12625983 -0.014060656 0.09225272
0001c0 d3 78 8f bd 1b 1f 5a bd 43 45 13 bd 13 34 c0 3b
       -0.07005467 -0.05325232 -0.035954725 0.0058655827
0001d0 c7 d4 50 bd 2e ea 5f bd 98 be ac 3d 73 6d 69 bc
       -0.05098417 -0.05466669 0.084347904 -0.014247286
0001e0 e4 28 1e 3d 2c dc 09 bd 66 0b ed bd 5c ed 54 bd
       0.038613215 -0.033657238 -0.1157444 -0.051984176
0001f0 69 22 5f bd fe 41 00 3d 30 aa 0d 3d 48 72 1c 3d
       -0.054476175 0.031312935 0.03458613 0.038194925
000200 6e 5d 7f 3c 90 bf 79 bd f9 48 28 bd 0a 92 08 3c
       0.01558624 -0.060973704 -0.041085217 0.0083356
000210 19 dc a7 3d 29 6e ee bc e5 90 ae bd c5 a4 aa bd
       0.08196277 -0.029105263 -0.0852373 -0.083322085
000220 b7 d4 13 bd 83 8b c9 bc f7 2b 38 bd 1e 75 6d bc
       -0.036091533 -0.024602657 -0.044963803 -0.014493255
000230 24 67 99 bc a0 3f ff bc 9d af f4 bd 8f e4 b2 3b
       -0.01872594 -0.031158268 -0.11947558 0.005459375
000240 3b 02 00 3e af 79 fe 3d ad c9 37 bc 20 ed bd 3d
       0.12500851 0.12425553 -0.011217517 0.09273744
000250 38 59 5b 3d 8c 24 c6 bc 7d da 91 3d 72 89 d4 3d
       0.053551883 -0.024187349 0.071217515 0.10377778
000260 26 cf 12 bd 3d 43 8f 3d 1b d2 69 bd 2f 2b 04 ba
       -0.035842083 0.069952466 -0.057085138 -0.0005041835
000270 b8 0a b6 bc 2f 60 7e be be 57 f3 3d 73 fb 80 bd
       -0.022221908 -0.24841379 0.1188197 -0.0629796
000280 46 98 1b 3e b4 c2 7b 3d 5c 17 ca 3d 38 a4 63 bd
       0.15194806 0.06146498 0.09867737 -0.055576533
000290 63 8b fa bd b7 8d 79 bd be 93 53 bd 2e 0c 6f 3d
       -0.12233617 -0.060926165 -0.05165457 0.058361225
0002a0 ca 08 2b 3c db bb 66 3a a2 ac 10 3d a5 da 2e bd
       0.010439107 0.00088017964 0.035320885 -0.042688984
0002b0 bf a9 c3 bc 24 30 9d 3b ad 71 e5 3d 12 28 6d bd
       -0.023884652 0.0047969986 0.112033226 -0.057899542
0002c0 17 3d 67 bd 8e 84 b3 bd ec b3 6e 3d f8 ad f5 bc
       -0.056454744 -0.08765517 0.058277056 -0.029990181
0002d0 a6 b6 9d 3c 68 d2 b0 bd a3 84 59 bd af e5 98 3d
       0.019252133 -0.08633882 -0.053105008 0.07465684
0002e0 1d b8 51 3d c6 dc ae bd 7e 0e a5 3d 81 4c 6a bc
       0.051200975 -0.08538203 0.08059405 -0.0143004665
0002f0 91 44 4e bd ab 86 4b bd 03 7d c7 bd c4 54 81 bc
       -0.05035836 -0.049688976 -0.09740641 -0.01578749
000300 88 cd cb 3c 25 d7 07 be e6 d1 53 bc a9 04 48 bb
       0.024878278 -0.13265665 -0.012928462 -0.0030520356
000310 ae 0d db bb 3f 25 46 3c f1 42 cc 3d f4 1f b8 bc
       -0.0066849804 0.012093841 0.099737056 -0.022476174
000320 3a fd ba bb b8 78 b4 3d ea 79 12 b9 35 9d a7 bb
       -0.0057064565 0.08812088 -0.00013969062 -0.005115176
000330 65 c9 19 3e 15 27 38 3c 67 90 43 3c 1b 2b c6 bb
       0.15018232 0.011239787 0.011936284 -0.006047619
000340 7b c9 57 3b d2 87 ba bd 6a a0 e8 3c ff ee d5 3d
       0.0032926488 -0.09107937 0.028396804 0.104459755
000350 d5 74 a0 bd fd 1a 06 3e 64 8b 80 bb 8b f8 82 3d
       -0.07834784 0.13096233 -0.0039228667 0.06395062
000360 e9 a0 07 3e 70 9d d6 3d ec e9 ae 3d ab ae 2b 3e
       0.13244976 0.104792476 0.08540711 0.1676585
000370 0c dc 48 bd 10 d9 0c 3e b1 a7 bb 3d 74 d9 0e 3d
       -0.049037978 0.13754678 0.09162844 0.03487535
000380 1b dc 68 3d e5 28 11 3e ea e7 f2 3d 4e 8f ee 3d
       0.056850534 0.14175756 0.1186064 0.11648427
000390 ea 76 2d bd 90 6b ba bb da c4 99 3d 8a d5 2e 3d
       -0.042349733 -0.005689092 0.075082496 0.042684115
0003a0 76 20 8e 3c 4f 33 97 bd 1e d6 0f bd 86 10 8d 3d
       0.017349463 -0.07382833 -0.035116307 0.06887917
0003b0 bc 11 e8 3b 5d 23 8c bd f2 3c 05 3d 19 14 81 3b
       0.007082192 -0.068426825 0.032528825 0.0039391634
0003c0 28 37 47 3c 80 e7 cf 3c 11 cc cc bd 41 96 aa 3d
       0.012159146 0.025378942 -0.0999986 0.0832944
0003d0 69 f9 c1 3d 6d 6e 06 bd db 9c 2b 3d 4a fc f1 3d
       0.09471399 -0.032820154 0.041897636 0.118156984
0003e0 66 db 13 bd fb 1b e7 bd e9 2a a3 bc eb 02 cb bd
       -0.036097907 -0.11284634 -0.019917922 -0.09912666
0003f0 74 13 02 3e fd 2e 1a 3e c4 12 3c 3d 90 d5 dd 3d
       0.12702733 0.15056987 0.045916334 0.108317494

rb1.conv2.bias f4 [10]
000000 10 2a 68 38 fc d8 b9 b8 1c 84 a3 38 60 94 b0 b7
       5.5352284e-05 -8.861904e-05 7.797053e-05 -2.1049927e-05
000010 29 1a 3b 38 0c 9f fc b7 75 58 31 b9 1b 21 9b b9
       4.4608638e-05 -3.0114803e-05 -0.00016912988 -0.0002958857
000020 64 42 e1 38 96 4f 80 39
       0.00010741202 0.0002447336

rb1.bn2.weight f4 [10]
000000 37 44 76 3f c2 97 88 3f 3b b1 4e 3f 3c f5 87 3f
       0.9619784 1.0671313 0.8073918 1.0621715
000010 5f 24 55 3f b1 c3 8c 3f f1 ef 98 3f 53 9d 86 3f
       0.8325862 1.099722 1.1948224 1.0516762
000020 1b 77 84 3f 7a fe 5c 3f
       1.0348848 0.863258

rb1.bn2.bias f4 [10]
000000 33 33 6c 3d 4d bb c5 bc 9c b3 88 bc 0b e7 b6 bc
       0.057666015 -0.024137164 -0.016687207 -0.022326967
000010 27 aa 09 3d b6 87 ae 3d cf a1 51 3c 16 ff 95 3d
       0.033609536 0.085219786 0.012794926 0.073240444
000020 86 b0 84 3d 13 03 88 3d
       0.06478982 0.06641211

rb1.bn2.running_mean f4 [10]
000000 68 c7 6a bf b7 2d fa bc 93 42 04 3f ac 1a ac bd
       -0.9171052 -0.030539377 0.51664084 -0.08403525
000010 50 b5 80 bf 7f 7f af be 43 88 4a be 8a 98 90 be
       -1.0055332 -0.3427696 -0.19778542 -0.28241378
000020 d2 7a 80 3e db 99 0e 3f
       0.25093704 0.55703515

rb1.bn2.running_var f4 [10]
000000 99 fe 4d 3f 02 7d b4 3e a1 0a b0 3e f8 54 a7 3e
       0.8046661 0.35251623 0.3438311 0.32682014
000010 3c f5 8f 3f d3 46 5b 3f 50 fd 3b 3f 24 fc 1a 3f
       1.1246715 0.85654944 0.734334 0.60540986
000020 e2 eb 28 3f 80 03 00 3f
       0.6598493 0.5000534

rb1.shortcut.conv.weight f4 [10, 3, 1, 1]
000000 33 c9 ec 3e 58 ec dc bb bf f8 a2 3e 26 91 c1 be
       0.46247253 -0.0067420416 0.31830403 -0.37806052
000010 03 57 00 bf aa 42 d0 be 03 75 bc 3e 5f 75 a9 be
       -0.5013277 -0.4067586 0.36808023 -0.3309736
000020 49 00 71 3d a1 63 9d be 9b 7f 24 bf 91 51 c5 3e
       0.058838163 -0.30740073 -0.6425721 0.38538793
000030 2b 21 c0 bd 3e 93 5a be c6 da 0c 3f a6 ae 8c 3e
       -0.09381326 -0.21345231 0.5502132 0.27476996
000040 5e d6 bc 3b 73 83 1a 3f 58 23 f5 be c6 38 aa be
       0.0057628592 0.60356826 -0.47878528 -0.3324644
000050 a3 8c 66 be e3 08 90 be 5b a0 08 bf ba 61 e3 3e
       -0.22514586 -0.2813178 -0.53369683 0.44410497
000060 4a 7f e1 be 31 53 ab be 07 5a fd bd bd 3d df be
       -0.44042426 -0.33461908 -0.12370687 -0.4360179
000070 f4 e5 3a 3d 1e af e8 be
       0.045629457 -0.45446104

rb1.shortcut.conv.bias f4 [10]
000000 48 b5 ea 38 1c 53 b6 b8 f6 f1 74 b9 9a e6 3a b8
       0.00011191756 -8.6939166e-05 -0.00023359791 -4.456062e-05
000010 a7 c2 50 38 48 6b fe b7 8e 83 af 39 44 0d dc b9
       4.977235e-05 -3.0329116e-05 0.00033476617 -0.00041971554
000020 54 20 22 39 4b 7e c9 b8
       0.00015461567 -9.607951e-05

rb1.shortcut.bn.weight f4 [10]
000000 77 02 84 3f 53 fd 77 3f c9 d4 8d 3f 46 17 70 3f
       1.0313252 0.9687092 1.1080562 0.9378551
000010 32 04 8e 3f c4 9e 77 3f c6 48 4e 3f ff f3 63 3f
       1.109503 0.9672663 0.80579793 0.89044183
000020 9c 36 77 3f a4 6b 77 3f
       0.965677 0.9664862

rb1.shortcut.bn.bias f4 [10]
000000 33 33 6c 3d 4d bb c5 bc 9c b3 88 bc 0b e7 b6 bc
       0.057666015 -0.024137164 -0.016687207 -0.022326967
000010 27 aa 09 3d b6 87 ae 3d cf a1 51 3c 16 ff 95 3d
       0.033609536 0.085219786 0.012794926 0.073240444
000020 86 b0 84 3d 13 03 88 3d
       0.06478982 0.06641211

rb1.shortcut.bn.running_mean f4 [10]
000000 c5 95 4d bd 3a be aa 3d 45 2d c8 ba 51 72 63 bb
       -0.05019166 0.08337064 -0.001527228 -0.003470559
000010 9a 53 4c bd 7a f1 9f bd b6 45 69 3d a2 fa 85 bc
       -0.049884416 -0.0780973 0.056951247 -0.016354863
000020 8b 17 35 3d 31 ba 81 3d
       0.044211905 0.06334341

rb1.shortcut.bn.running_var f4 [10]
000000 13 0e 23 3e 40 2c e2 3e cb c5 d5 3b f8 32 c7 3d
       0.15923338 0.44174385 0.006523823 0.097265184
000010 b2 6c fd 3c 59 9c 5c 3e 3c c1 91 3e dd 86 51 3d
       0.030935619 0.21544017 0.2846774 0.051154006
000020 e1 d6 5b 3e 18 81 43 3e
       0.21468689 0.19092214

rb2.conv1.weight f4 [20, 10, 3, 3]
000000 e0 ac 53 bc 6c b8 d5 3d 5f 94 f0 3d 6c 0b 08 3e
       -0.012919635 0.10435566 0.117470495 0.13285607
000010 e4 8a c2 3d a9 7f ba 3d c6 68 58 3d 5f f6 13 3d
       0.094991475 0.091063805 0.052834295 0.03612363
000020 43 5f 02 bc b8 cf c5 3c e6 d8 b5 bd 1d 6d 45 bd
       -0.0079572825 0.0241469 -0.08879261 -0.04819976
000030 21 9f ac bd 0c 94 dd 3c 7e dc d6 3d 50 a1 6c 3d
       -0.08428789 0.027048133 0.10491274 0.057771027
000040 86 65 3c be 3e 35 ba bd 76 aa 8d bd c9 6f a1 bd
       -0.18398103 -0.090921864 -0.069172785 -0.078826495
000050 fa 50 67 bd ba 5c e5 bc bf 9b e8 bd 9f 1a 37 3d
       -0.05647371 -0.027998317 -0.11357831 0.044703122
000060 be 79 50 bd 71 41 84 3c 82 ca 05 be 05 bf 60 3d
       -0.050897352 0.016144486 -0.13065532 0.05486967
000070 7c 66 6a bd e4 72 07 3d 67 43 80 3c 48 8f 18 3e
       -0.057226643 0.033068553 0.01565714 0.14898407
000080 ad be e6 3d b4 9c 1e 3c 58 d8 ee 3d a4 d6 f1 3d
       0.11266837 0.009680916 0.11662358 0.118085176
000090 b4 76 61 3c d0 a3 93 3d 94 7f 5d bd bb f9 fa bd
       0.013761211 0.07208979 -0.054076746 -0.122546636
0000a0 b6 a8 2e bd 81 b4 a1 3d 03 a7 1c 3d f7 1b 15 be
       -0.042641364 0.078957565 0.038245212 -0.14561449
0000b0 6e 40 b3 bd 69 73 74 3d e7 bf f9 3d eb 7a c2 3c
       -0.08752523 0.059680376 0.121948056 0.023740252
0000c0 ed 5a 4c bd 72 97 c4 3b 8b a1 93 bd 48 2c 89 bd
       -0.0498914 0.005999499 -0.07208546 -0.06697899
0000d0 ea d2 8f be 31 4a 8d bd d0 db ad 3d 38 93 00 3d
       -0.28090602 -0.068989165 0.084891915 0.0313904
0000e0 8f c5 85 3d 47 44 83 bb 47 e2 db bc 55 fe 8c 3d
       0.06531822 -0.004005942 -0.026841296 0.068844475
0000f0 d9 93 da bc 38 f4 bf bc 0b 86 b4 bd 2c e3 7d 3d
       -0.026681827 -0.023431882 -0.08814629 0.061984226
000100 70 60 c5 bd 80 5c 27 bd 11 d6 37 bd d4 83 2b be
       -0.096375346 -0.0408597 -0.044881884 -0.16749507
000110 6b 11 1c bc 03 62 88 3d 59 a4 eb bd a2 45 07 be
       -0.009525637 0.06659319 -0.11505956 -0.13210157
000120 76 9e 6b 3d 12 cd ce bd 2a e3 c1 bd 15 0f 3a bd
       0.057524167 -0.10097708 -0.09467156 -0.04542454
000130 e0 3e e8 3c 87 41 18 3e d1 be 43 bd 36 b9 52 bd
       0.028350294 0.14868747 -0.0477894 -0.051446162
000140 cd d1 9a bb 7a 3d 71 bd c3 d9 40 bd 18 82 e8 bc
       -0.0047247172 -0.05889652 -0.047082674 -0.028382346
000150 dc 2d c9 3d 43 4c 48 bd 2c fa 4a bd a5 b4 2a bd
       0.098232 -0.048900854 -0.04955499 -0.041676182
000160 d5 4e a4 3d ed 3a c7 3d 6d 6d 04 be df be 90 bc
       0.080228485 0.09728036 -0.12932368 -0.01766914
000170 c3 ec 56 bc 8d b0 56 3d bf ba bd bd 06 24 e7 3c
       -0.013117972 0.052414466 -0.092641346 0.02821542
000180 e8 ab 0f 3e c6 9a 1e 3e b5 f1 93 3d a2 06 83 bd
       0.14030421 0.15488729 0.07223836 -0.063977495
000190 1a bf 87 bd 9f 18 c5 bd 50 2d 09 be 66 6f 8a 3d
       -0.066282466 -0.09623837 -0.13396192 0.06759529
0001a0 1f da dc 3c 8a 29 42 be db a5 14 bd 9b 30 eb bd
       0.026959477 -0.18961158 -0.036290985 -0.1148388
0001b0 58 ba 20 be 29 4e 24 be 50 e8 7d bd f7 aa 8f 3d
       -0.15696084 -0.1604544 -0.06198913 0.07015031
0001c0 b1 39 34 3d 35 d1 6a bd 60 73 85 3d 54 5a ff 3d
       0.04400033 -0.05732842 0.06516147 0.124684006
0001d0 2f 74 27 3e 15 9c 01 bd 99 70 9a bd 80 13 aa bc
       0.16352914 -0.031642992 -0.075410075 -0.020761251
0001e0 64 9b 1f 3c 66 9a 7b 3d 2c 96 87 bd d8 ef c8 bd
       0.009741638 0.061426543 -0.0662044 -0.098113716
0001f0 08 f8 9e bc 49 67 c2 bd cd ba b2 3c 8d 52 cb 3d
       -0.01940538 -0.09492356 0.02181759 0.09927855
000200 8e 02 1e 3d 1a 74 50 bd 42 5f 01 be bb 30 d3 bd
       0.038576655 -0.050891973 -0.12633994 -0.10312029
000210 b6 4a 8a bd 81 e4 39 be aa d0 97 bd f8 92 39 bd
       -0.06752531 -0.18153574 -0.074128464 -0.045306176
000220 c6 e7 88 bd 71 56 63 3c 9a d1 25 3b 9b cd d5 3c
       -0.06684832 0.01387559 0.0025301934 0.026099017
000230 03 cd 9a 3d ca 44 59 3d 30 4c 93 bd b4 47 e1 3d
       0.07558634 0.053044118 -0.07192266 0.110000044
000240 40 2a 8f 3d 18 a8 0a 3e 63 9a fc 3c 0f 5b 2a bb
       0.069904804 0.13540685 0.030835336 -0.0025994217
000250 d5 74 ff 3d dd f9 8d bc d7 35 38 be 9a b0 ca 3c
       0.12473456 -0.017331058 -0.17989288 0.024742413
000260 d2 c1 e3 bd 11 3a 02 bd e7 9a 41 3e 8e 45 18 3d
       -0.11120953 -0.031793658 0.18906747 0.037175708
000270 1c f5 d9 bd 8d 2b 17 3d 53 41 c2 3d d4 84 1f be
       -0.10642454 0.036906768 0.09485116 -0.15578014
000280 d3 94 9d 3d fc 34 11 3c 8e ac d9 bd d9 48 fc 3c
       0.076944016 0.00886273 -0.10628615 0.030796455
000290 ae 02 90 bd b2 12 19 3d c6 43 8e 3d c6 45 2c bc
       -0.07031761 0.037371345 0.069465205 -0.010514682
0002a0 59 a5 80 3d 02 ce 77 bc b6 73 8c bd 92 bd e6 bc
       0.062815376 -0.0151248 -0.068580076 -0.028166566
0002b0 af af 23 3d 5f 8e a1 bc 70 ff 2e bb 4c 00 c1 bc
       0.039962467 -0.019721208 -0.0026702546 -0.023559712
0002c0 8b e7 3b 3d 5e 0f 2e 3d e8 89 c0 3d f6 18 45 bd
       0.045875113 0.042495124 0.094013035 -0.048119508
0002d0 6e fd 2e bd 8b a1 75 bc 0e fd 8c bd 16 fb 65 bd
       -0.042722158 -0.014992128 -0.06884204 -0.056147657
0002e0 30 c1 45 3d a0 a5 b6 bb a2 96 9a 3c db de 20 bd
       0.04827994 -0.0055739433 0.018870655 -0.03927503
0002f0 f2 e0 40 3d c3 1f 51 bd 1f b5 40 3d 53 ee 78 3d
       0.047089525 -0.05105568 0.04704773 0.06077416
000300 cf 8b 28 bd da 25 d4 bd 1b 13 c0 bb fe 74 ad bd
       -0.041148957 -0.10358782 -0.0058616525 -0.0846958
000310 ed f0 9c bd 11 c2 4a bd 08 2e 73 3d d0 db 11 be
       -0.076631404 -0.049501482 0.05937007 -0.14244008
000320 73 8a 2b bd 74 09 c3 3d 3d dc 51 3b 27 14 86 bd
       -0.041880082 0.095232874 0.0032022141 -0.065468125
000330 14 f0 c8 3b 8d ac be 3c 14 7d bd 3b 0b cb 3b 3e
       0.006132135 0.023275638 0.0057827327 0.18339173
000340 63 2e cd 3d 2d 50 a3 3d e7 2e 31 3c a6 df ce 3d
       0.10018613 0.07974277 0.010814405 0.10101251
000350 97 01 17 bc 8f 33 22 be 2e 0a 8f 3c b4 18 18 3c
       -0.009216688 -0.1583998 0.017460909 0.009283233
000360 6f 5b 9c bd 46 4c ae 3c 5d c6 1a 3d 60 2a c2 bd
       -0.07634627 0.021276604 0.03778683 -0.09480739
000370 8d 3b c0 bd 60 43 65 ba be 25 86 3d 99 1d 74 bc
       -0.093863584 -0.00087456964 0.065501675 -0.014899635
000380 7e 80 dd 3c e4 f3 f8 3c 21 96 dc 3d 02 12 5f 3c
       0.027038809 0.030389734 0.10770822 0.013615133
000390 ea 4e 3b be 78 58 07 3d 1b 92 3d bd 2a 3a f5 bd
       -0.18291822 0.033043355 -0.046281915 -0.119739845
0003a0 a4 17 97 bb f0 b8 b1 bc 0e 9e 04 3e 8d d8 19 3e
       -0.0046109725 -0.02169463 0.12950918 0.15024014
0003b0 72 d3 e4 3b dc dd 7f bd f2 78 24 bd 5f b8 00 be
       0.006983214 -0.06246744 -0.040154405 -0.12570332
0003c0 4e ba 4e be 68 ef 8c be 3e d5 1e bc ed 97 b2 3d
       -0.20188257 -0.27526402 -0.009694396 0.08720384
0003d0 5c 2c 6e bd ab e3 08 bc 56 81 8a 3c 1a d7 1a bd
       -0.058147773 -0.0083550615 0.016907375 -0.037802793
0003e0 44 45 4a 3d cf 29 a1 bd cd 7a f6 bd 1a 8f f3 bc
       0.049382463 -0.078693025 -0.12035141 -0.029731322
0003f0 9e 15 a9 bc bd c8 70 bd fe 43 45 3d 4b e8 8d bd
       -0.02064019 -0.05878519 0.048160546 -0.06929072

rb2.conv1.bias f4 [20]
000000 59 8e 98 38 a9 01 c2 b8 04 33 2d b9 bc 83 5a 37
       7.274439e-05 -9.25095e-05 -0.0001651757 1.3024484e-05
000010 71 6e a0 37 40 8d 13 35 70 8d 04 37 c0 69 70 b7
       1.9124915e-05 5.4967313e-07 7.900744e-06 -1.4329737e-05
000020 64 73 d5 b8 38 1f d8 37 a4 52 0e b8 7c 11 75 38
       -0.00010178125 2.5763744e-05 -3.3932403e-05 5.8428835e-05
000030 0b 90 6b b9 9e fb fb b8 54 dd 2e b8 7a 9b 01 39
       -0.00022465007 -0.0001201548 -4.169096e-05 0.00012360318
000040 b6 13 ab b7 76 6f 2d 38 f8 d4 81 b8 7a 44 38 b9
       -2.0393967e-05 4.135022e-05 -6.190868e-05 -0.00017573117

rb2.bn1.weight f4 [20]
000000 94 20 71 3f d2 47 74 3f 26 34 84 3f 1b 62 8e 3f
       0.94190335 0.9542209 1.0328414 1.112369
000010 52 58 83 3f a2 71 61 3f ad 6a 6b 3f f5 1f 80 3f
       1.0261328 0.88064015 0.9195965 1.0009753
000020 24 47 5c 3f 20 8c 60 3f cf da 7b 3f 9a 4b 7b 3f
       0.8604605 0.87713814 0.9838075 0.98162234
000030 2e ca 85 3f 6f bd 80 3f 10 63 7e 3f b5 14 77 3f
       1.0452325 1.005781 0.9936991 0.9651597
000040 06 66 83 3f b8 b1 70 3f e4 61 80 3f 28 1b 81 3f
       1.026551 0.9402118 1.0029874 1.0086412

rb2.bn1.bias f4 [20]
000000 bb 0f 62 3d 33 be 97 bc 6b b9 0d 3e 2b e1 d2 3c
       0.055190783 -0.018523311 0.13840263 0.025742134
000010 b1 60 67 3c 12 27 7c bd 4f 55 9c 3c 44 a3 0b 3d
       0.014122174 -0.061560698 0.019083647 0.03409125
000020 5f 78 24 bd a9 fa 7a 3d 42 c0 61 bd b2 b6 4d bb
       -0.040153857 0.061274204 -0.055114992 -0.0031389412
000030 1d b1 fb bc 94 12 56 3d 7d e6 81 bd b6 ae df 3c
       -0.030724103 0.05226381 -0.0634279 0.027304988
000040 05 b9 aa 3d ea 5a 95 bd fb 7a 06 bc ea 2f 94 bd
       0.08336071 -0.07292731 -0.008208032 -0.072357014

rb2.bn1.running_mean f4 [20]
000000 5b fa 01 bf bd 27 d1 be cd 40 bd bf 6e 2c 0f c0
       -0.5077264 -0.4085063 -1.4785401 -2.2370868
000010 cc a9 2a bf 79 3d ce 3e 8f 71 b2 bf a4 71 fd be
       -0.6666534 0.40281275 -1.3940905 -0.49500763
000020 66 c8 73 3f 44 c9 8c bc f5 d8 b5 be b5 23 4e bf
       0.9522766 -0.017185815 -0.35517088 -0.80523235
000030 a1 8f a8 bf fc 87 09 bf a0 11 e9 be 66 ea c2 bf
       -1.3168832 -0.5372312 -0.4552126 -1.5227783
000040 89 c4 0b bf 1a 9e 1e be a0 d0 96 bf d0 9d b8 be
       -0.54596764 -0.15489998 -1.1782417 -0.360579

rb2.bn1.running_var f4 [20]
000000 c3 96 23 3f 39 57 27 3f 0d b9 88 3f 02 c4 c9 3f
       0.6390192 0.65367466 1.0681473 1.5762942
000010 4a 43 54 3f cb 4a 54 3f eb ab 91 3f 82 b0 87 3f
       0.82915175 0.82926625 1.138059 1.0600741
000020 b4 8e 3e 3f 90 25 fa 3e c3 b2 10 3f ae 41 58 3f
       0.744365 0.48856783 0.5652277 0.8447522
000030 2b a5 7b 3f fd 7c 64 3f bc 40 4f 3f 17 45 9e 3f
       0.982989 0.89253217 0.8095815 1.2364835
000040 08 35 38 3f 08 87 43 3f d8 30 16 3f 0b 65 2a 3f
       0.7195592 0.76377916 0.5866828 0.6656043

rb2.conv2.weight f4 [20, 20, 3, 3]
000000 42 38 6f bd e1 98 e9 3c 48 2e 5b 3d 0b ba 4c 3d
       -0.05840326 0.028515281 0.053510934 0.049982112
000010 ea 44 25 3d fd fd 62 bd 49 6b bf 3d 73 a2 87 bc
       0.040348925 -0.055418003 0.09346635 -0.016556954
000020 b8 dd 2d 3c ba dd 85 bd b8 e5 70 bc 89 86 bc bd
       0.010611944 -0.065364316 -0.014703207 -0.09205348
000030 0a 78 b4 3d 6d 23 a1 3d bf 47 6b 3c ec 82 a8 3d
       0.08811958 0.07868085 0.014360367 0.08228096
000040 b8 38 d9 3d 2a aa 7e 3d 14 6d 0f bd 45 7a 0e be
       0.10606521 0.062174 -0.035016134 -0.1391383
000050 1d dc 67 bd b4 d6 0b 3e de ca 72 3d e1 7a 28 bd
       -0.0566064 0.13656121 0.0592755 -0.04113281
000060 5b 6f aa 3d fc 03 87 3d 29 db d1 bd 00 de ca bd
       0.083220206 0.06592557 -0.102468796 -0.099056244
000070 f4 83 0e bd 9a f7 fa bd 8e c5 f5 bd 6a 65 52 ba
       -0.03479381 -0.122542575 -0.12000571 -0.0008025976
000080 7b bf 18 be 66 88 b1 bd 30 c0 0b be 9f 7c 82 bd
       -0.14916794 -0.08668594 -0.13647532 -0.06371426
000090 4c fb 5b bd 2f f1 aa bd 8c b6 0e bd c9 be 96 bc
       -0.053706452 -0.08346783 -0.03484206 -0.01840152
0000a0 90 7a 4d bd 25 84 79 3d 4e ef 9e 3d 6e 9b a3 3d
       -0.050165713 0.06091704 0.077604875 0.0798863
0000b0 8d 8c 2a bc dd f3 17 bd 49 7c 73 bd fd be 8a bd
       -0.0104094865 -0.0370978 -0.0594447 -0.067747094
0000c0 9b 10 73 bd 16 e7 5c bc 09 8c 80 bd 9b 62 54 3d
       -0.059342008 -0.01348283 -0.062767096 0.05185185
0000d0 b6 f3 c9 bd d4 68 a0 bd cb 42 d9 bc 6e 7b 16 bb
       -0.09860937 -0.078324944 -0.026521107 -0.0022961753
0000e0 f9 27 4a 3c 57 8e 90 3d 2c 5c b9 3d 49 2f 56 bc
       0.012338632 0.07058399 0.090507835 -0.013072797
0000f0 46 04 5a bd 14 a0 bd bd 3d ac b6 3d 10 74 3d bd
       -0.05322673 -0.09259048 0.089195706 -0.046253264
000100 b7 4c 96 3d bf 7f 9a 3c d4 2e 53 bc 4f c1 a9 3d
       0.07338851 0.018859742 -0.012889583 0.08288824
000110 da 66 7a 3d a6 0b 8a bd ef 45 0d bd 9c 5a 2c bb
       0.061133243 -0.06740503 -0.034490522 -0.0026299125
000120 41 93 26 3c 40 4a cd bd 8c d0 87 bd 24 76 0a 3e
       0.010166944 -0.10023928 -0.06631574 0.1352163
000130 19 1b 71 3d eb b3 3d bd b0 d5 fd 3c 2a dc 03 3d
       0.058863733 -0.04631416 0.030985683 0.032192387
000140 cb 75 8c 3d e7 6e 2c 3c fd 02 3b bd c7 82 7e bd
       0.06858405 0.010524488 -0.045657147 -0.062136438
000150 3b 8a 4a bd cd 65 ca 3a 05 47 04 bc d6 3b fb 3c
       -0.049448233 0.0015441716 -0.008073573 0.03066818
000160 ef ae db 3d db 1c bd 3d 0a de c7 3d 98 59 d1 3d
       0.10726725 0.09234019 0.097591475 0.10222167
000170 6a e1 a0 bc 8c bc cf 3d 08 b2 4d 3d f6 a8 04 be
       -0.019638736 0.10143384 0.050218612 -0.12955078
000180 f9 79 c9 3c 87 69 e8 bd e5 bf 0d bd ed 92 ab 3d
       0.024594294 -0.11348253 -0.034606833 0.08377633
000190 19 d3 bc 3d 03 2b 1e 3e 65 f9 1f 3d 53 d9 c7 3c
       0.09219951 0.15446095 0.0390562 0.02439562
0001a0 27 8d b7 3d 53 4e 3e bd 94 b2 fd bd 84 32 db 3b
       0.089624695 -0.046461415 -0.12387577 0.0066893715
0001b0 a3 39 d1 3d 6e d4 21 3d b5 88 93 bd fd 38 86 bc
       0.102160715 0.03950923 -0.07203809 -0.016384596
0001c0 c5 41 fe bd a4 52 86 bd 69 80 dc bd 83 b6 06 be
       -0.12414888 -0.06558731 -0.1076668 -0.1315556
0001d0 50 19 3a be 30 77 22 3c 62 5f 31 be e1 ed 87 bb
       -0.18173718 0.009916112 -0.17321542 -0.0041482304
0001e0 0f ce a0 3d 5f 83 8b bd d3 5f 0b bd 69 66 27 bc
       0.078518026 -0.068121664 -0.034026932 -0.010217288
0001f0 bc b7 3f 3d 72 6a 30 3d 9f 6e ac 3c cd 39 95 ba
       0.046806082 0.043070264 0.021048842 -0.0011385024
000200 53 a0 10 3d b5 94 2c bd b7 31 86 bd 50 7a 8a bd
       0.035309147 -0.042134006 -0.06552451 -0.067616105
000210 88 e7 94 3d ad 2a d1 3c 71 eb 13 bc 8f e3 9e 3b
       0.072707236 0.025533045 -0.009028302 0.0048489044
000220 58 d7 14 3d e5 98 ae b9 f1 e1 f9 bc 4a 54 62 3d
       0.03633818 -0.00033301782 -0.030503245 0.055256166
000230 46 4a f8 bc 82 0b b0 bd 53 b2 50 bd 6b 97 07 be
       -0.030308854 -0.08595945 -0.050951313 -0.13241355
000240 37 59 98 3d dd 3a 62 3d df 57 a0 3c 0c 57 1b 3d
       0.074388914 0.055231918 0.01957315 0.03792481
000250 f0 f5 5b 3c 57 01 92 3b 49 22 31 3d 4a f9 4c bc
       0.013425335 0.004455726 0.043245587 -0.012510607
000260 c7 46 d3 3b 58 3c 1e bd 25 06 b3 bc 05 05 f2 3c
       0.0064476463 -0.038631767 -0.021853516 0.02954341
000270 66 ab 33 bd 04 59 38 bd de 34 a1 bc 0a 82 5d bd
       -0.04386463 -0.045006767 -0.01967853 -0.054079093
000280 47 77 72 bd 5c 75 f6 bd 8f bc 6f bd af ae 16 3c
       -0.059195783 -0.12034103 -0.058529433 0.009196921
000290 08 77 78 3b aa a7 8b bd e8 01 05 3d a4 1b 75 3d
       0.0037912745 -0.06819089 0.03247252 0.059840813
0002a0 9a fe b5 bd b3 38 6c bd 8f 69 34 bc 2c 10 12 3e
       -0.08886452 -0.05767126 -0.011011495 0.14263982
0002b0 5e 19 1a 3e 1f ff 9c 3d 5a 62 e1 3c 3c d7 d6 3c
       0.1504874 0.07665848 0.027512718 0.026225679
0002c0 83 2b e4 3d e0 d5 c8 bc 2e 84 00 3d f0 ac 84 3d
       0.11141112 -0.024516046 0.031376056 0.06478298
0002d0 87 1d 9b 3d e5 c3 5a 3c 30 9c 25 bc 79 78 5d bd
       0.07573991 0.013352369 -0.010108039 -0.05406997
0002e0 34 45 39 3d 76 b0 0f bc 0a 64 30 bd 0d b8 16 3d
       0.045232013 -0.008770099 -0.043064155 0.03679662
0002f0 cb 89 07 be e0 fd 0c be 03 c8 21 be 52 e0 9d bd
       -0.13236158 -0.1376872 -0.15798955 -0.07708801
000300 d9 41 ec bb 60 9c e9 3c a7 5b 94 bc c1 02 94 bc
       -0.007209998 0.028516948 -0.01811011 -0.01806772
000310 14 d1 e4 3d 15 cd ce 3d 8c dc 13 be 0b 6b 77 bd
       0.11172691 0.1009771 -0.144396 -0.06040482
000320 11 69 d8 bd 2c d7 aa bd 0e 98 43 3c 97 44 31 3d
       -0.10566915 -0.08341822 0.011938108 0.043278303
000330 6f 4f 81 3d 45 1e a7 3c 3f 80 eb 3c 73 55 8d 3d
       0.06313979 0.020400176 0.028747676 0.06901064
000340 dd 13 76 3d be ea 82 bd a6 0e 00 be 90 3e 12 3d
       0.060077537 -0.0639243 -0.12505588 0.035704195
000350 3e 15 88 bd c8 5c 11 be d1 37 28 be e2 75 0f be
       -0.066446766 -0.1419555 -0.16427542 -0.14009812
000360 fe 86 ee bd d4 92 c2 ba e8 40 8a bd e8 ee 65 bd
       -0.116468415 -0.0014844784 -0.06750661 -0.056136042
000370 13 00 34 3d 90 0b 95 bd 50 0f 4c 3d ea cd 0e 3b
       0.043945383 -0.07277596 0.04981929 0.0021790215
000380 bc dd c0 bc 59 8b 0c be 58 43 f9 bc ab 2a 21 bd
       -0.023543231 -0.13725032 -0.03042762 -0.039347332
000390 c2 ab 4d be 97 57 a4 3c 24 2c c6 3b 34 07 fe bc
       -0.20085052 0.020061297 0.0060477424 -0.031009294
0003a0 22 b0 73 bd 51 3e 64 bd 12 8d 88 bc fa bb db bc
       -0.059494145 -0.055723492 -0.01666883 -0.026823033
0003b0 3c 96 fb b9 0b 01 f5 3c f8 d6 81 3c b4 e0 c1 bd
       -0.00047986384 0.029907724 0.015849575 -0.09466687
0003c0 70 c0 e8 bb d0 8d e0 bc 52 91 5e bd 8d da 14 3d
       -0.0071030185 -0.027411371 -0.054337807 0.03634124
0003d0 f5 19 df bc 5d d8 ac bd 10 24 3b 3d d1 cc a2 3d
       -0.027234057 -0.084397055 0.04568869 0.07949222
0003e0 b6 f9 44 bd 46 fd 2b 3d 8d 9e 19 3d d7 c2 87 bd
       -0.048089705 0.041989587 0.03750472 -0.066289596
0003f0 40 65 0f be c3 39 6b bd ad f2 9d bd 2b 39 ac bd
       -0.14003468 -0.057428133 -0.07712302 -0.084093414

rb2.conv2.bias f4 [20]
000000 e0 ac a1 b8 fc 2e 0c b9 0e a5 23 39 e4 83 a6 38
       -7.709279e-05 -0.00013368943 0.00015606379 7.9400634e-05
000010 2e 8e 8a 38 6c b2 88 38 0a d3 8c b8 8f 4f b4 b8
       6.606836e-05 6.518219e-05 -6.715029e-05 -8.597888e-05
000020 d0 28 1c 39 4e da 26 38 71 2f d6 38 7f 54 aa 38
       0.00014892523 3.9780796e-05 0.00010213152 8.12197e-05
000030 10 db 4f 38 d5 2c e9 36 05 1a a0 b8 38 64 6f 38
       4.9556664e-05 6.9491603e-06 -7.634241e-05 5.7075376e-05
000040 fe fb e7 b7 41 d4 5b b8 3c b3 aa 38 ea 77 66 b8
       -2.7654689e-05 -5.2411346e-05 8.139617e-05 -5.4947952e-05

rb2.bn2.weight f4 [20]
000000 3c 39 6b 3f 14 c3 89 3f 31 80 95 3f b0 17 80 3f
       0.9188421 1.0762658 1.1679746 1.0007229
000010 a3 e0 96 3f bf 6a 6b 3f b9 7e 82 3f 69 82 8a 3f
       1.1787304 0.91959757 1.0194923 1.0821048
000020 d5 ce 88 3f 2b 9e 96 3f 9d 03 9b 3f 23 be 81 3f
       1.068812 1.1767019 1.2110478 1.013615
000030 70 88 89 3f 47 07 73 3f ee 05 97 3f 0a 9c a1 3f
       1.0744762 0.9493298 1.1798685 1.2625744
000040 1c 4a 90 3f a5 24 98 3f de 26 8c 3f ce 11 6b 3f
       1.1272616 1.1886183 1.0949361 0.9182404

rb2.bn2.bias f4 [20]
000000 8d 40 c4 3d 4a 28 b9 3d 1a cb 94 bd dd 2b aa bd
       0.095826246 0.09040888 -0.07265301 -0.083091475
000010 70 e0 23 3c 2b ec c7 bd 65 5a 36 3d 36 06 ab bd
       0.010002241 -0.09761842 0.0445198 -0.08350794
000020 b4 08 54 3b 5b e0 e3 bd 4d 2c c4 3c b2 15 08 be
       0.003235382 -0.11126777 0.023946906 -0.13289526
000030 49 b7 77 3d 79 a9 bd bc 73 86 63 3c 07 ea 0c 3e
       0.06047753 -0.0231521 0.013887036 0.1376115
000040 89 3c 00 3d 08 c7 9a bd e4 0e 34 3b a1 95 f6 bd
       0.03130773 -0.075574934 0.0027474696 -0.12040258

rb2.bn2.running_mean f4 [20]
000000 fe 25 7f be 1b 59 c2 bf 88 fc 4c bf 88 f3 f1 be
       -0.24916837 -1.5183443 -0.8007283 -0.47256112
000010 f5 1c 9b bf a1 51 ce be e8 5c e7 be 29 0b 86 3e
       -1.2118212 -0.40296653 -0.4518807 0.2618039
000020 10 09 f1 bf c8 2d 9f 3e 3a 38 ac be 66 19 8f bc
       -1.8830891 0.31089616 -0.33636647 -0.017468166
000030 9f b9 c3 bf 35 54 c4 bf d4 2e 19 3f 5a 49 31 bf
       -1.5291022 -1.5338198 0.5983708 -0.6925255
000040 6f 30 f7 bf 15 8f bb be 4c e8 c0 bf a8 50 81 be
       -1.9311656 -0.366326 -1.5070891 -0.25256848

rb2.bn2.running_var f4 [20]
000000 0b 7f 00 3f 56 ec 1d 3f 25 60 26 3f b1 ce e7 3e
       0.5019385 0.61688745 0.64990455 0.4527488
000010 e4 42 09 3f 6c fa 12 3f 9d ea 2e 3f fa d0 20 3f
       0.5361769 0.57413363 0.6832674 0.6281887
000020 c9 5a 32 3f c8 b0 19 3f 0e 73 f9 3e 78 a9 e9 3e
       0.6966978 0.6003537 0.48720592 0.45637107
000030 68 1c d1 3e fa 0b 13 3f 11 b9 34 3f d4 4d fd 3e
       0.40841985 0.5744015 0.7059489 0.4947344
000040 b2 67 ce 3e 2b d8 0e 3f 4f 76 5c 3f 92 2d 05 3f
       0.40313488 0.55798596 0.86118025 0.5202266

rb2.shortcut.conv.weight f4 [20, 10, 1, 1]
000000 11 0a 5a bb bd 5f 16 be 6c 4d c8 be 1b f0 50 be
       -0.003327016 -0.14684959 -0.39121568 -0.20404093
000010 9c 4f 5e 3e 10 3a 14 3e 37 86 f1 bd a4 a3 43 3e
       0.21710056 0.14475274 -0.117931776 0.19105393
000020 8a 4c 87 bd a1 09 30 bd 8d ee 26 be 73 24 99 3d
       -0.066063955 -0.042977933 -0.16301937 0.07477655
000030 0a cb b8 be 3f 2c 89 3d ad f2 16 3e a6 8b 9a be
       -0.36092407 0.066978924 0.14741011 -0.30184668
000040 51 c9 48 be 02 f8 6f 3d 73 58 35 be d7 cd 99 3c
       -0.19608046 0.058586128 -0.17709522 0.01877491
000050 38 34 84 3c 3e b8 f9 bd 07 24 88 bd 7e e6 43 bd
       0.016138181 -0.121933445 -0.06647497 -0.047827236
000060 de 80 0a 3e 14 14 c1 3e 82 79 c5 3d 31 3c b5 3d
       0.13525721 0.3771063 0.096423164 0.08849371
000070 aa 2e 85 3d 45 f8 93 be 16 63 b3 bc 38 62 16 3e
       0.06503041 -0.28900352 -0.021897834 0.14685905
000080 85 98 b6 3e 1b 0d ce 3c 64 b8 2c bd 6a 8a 30 bd
       0.35663238 0.025152734 -0.042168036 -0.043100752
000090 89 e2 88 3e c7 db 84 3e e8 f2 a4 3e c5 db 95 be
       0.26735333 0.25948927 0.32216573 -0.29269233
0000a0 40 96 6f be 16 91 59 3c 45 9b 4e 3e 7a 01 43 3e
       -0.2339716 0.01327922 0.20176418 0.19043532
0000b0 46 de 9a bd 9b cc 62 3d 76 66 b5 bd f8 2e 6a bd
       -0.075619265 0.05537091 -0.088574335 -0.0571737
0000c0 ca a9 92 3e b9 2c 2c be d2 e3 74 3e 44 b4 80 3c
       0.28645164 -0.16813935 0.23915032 0.015710957
0000d0 92 fc b9 bd e7 f2 9b be 84 f7 0f be f3 0c 4d be
       -0.09081377 -0.30458757 -0.14059263 -0.20024471
0000e0 8f f9 5c 3e 38 d2 9f be fe 19 6e be a0 f8 7b be
       0.21579574 -0.31215072 -0.23252103 -0.24606562
0000f0 cd 77 4a 3e 4b d0 21 3e 05 6b 83 3b 7f d5 57 be
       0.19772263 0.15802114 0.0040105605 -0.21077536
000100 e9 15 5b bd e0 e1 92 be 37 ce 4a be f7 a1 b6 3d
       -0.053487692 -0.28687954 -0.19805227 0.08917611
000110 af a6 93 3e b5 ab 33 be 0e 9a a5 3e 0d f6 48 3e
       0.28838107 -0.1754597 0.32344097 0.19625111
000120 50 a5 d7 bd 60 79 33 be 1c 29 98 bd b4 79 29 be
       -0.10529578 -0.1752677 -0.07429716 -0.16550332
000130 82 0c b8 be 43 f8 a7 bd a1 64 91 be cd e0 6d be
       -0.35947043 -0.08201649 -0.28397086 -0.23230286
000140 5b 58 4f be 28 4a ab 3d 8f 82 04 be 6d 99 5b be
       -0.20248549 0.083637536 -0.12940429 -0.21445246
000150 c3 c0 c7 be 98 86 3d be 13 b0 89 3d f2 a9 4d 3e
       -0.39014253 -0.18508375 0.067230366 0.2008436
000160 c7 e9 27 be e3 41 6a 3e 94 1b 01 be eb 1d 68 3e
       -0.16397773 0.22876696 -0.12608176 0.22667663
000170 bd df 8b be c3 a2 69 be 5b 01 0b 3e 8f 14 cc bd
       -0.27319136 -0.22815995 0.13574736 -0.09964859
000180 76 4b 6a bd 52 cd a8 3e fb 16 11 be fd 7c 72 be
       -0.05720087 0.32969147 -0.14168923 -0.23680492
000190 3c f6 43 3e c6 51 d7 3d 42 cd 9f be 99 bf f6 3d
       0.191369 0.10513644 -0.31211287 0.12048263
0001a0 10 a4 8a be 06 bf c1 3d f6 1b 5e 3e 57 6a 2a 3e
       -0.27078295 0.09460263 0.21690354 0.16642128
0001b0 77 bb ab 3e ad c1 78 3e de 04 bb bc 44 37 2f be
       0.33541462 0.24292631 -0.02282947 -0.17110926
0001c0 01 a5 a1 be 3b 8b dd 3d c3 eb 81 3e 48 aa 7d 3e
       -0.315712 0.10817572 0.25375184 0.24771988
0001d0 c9 30 7f bd 36 35 30 be 7a 72 13 3e 39 93 9c 3c
       -0.062302385 -0.17207798 0.14399138 0.01911317
0001e0 41 86 43 be e7 55 98 be f7 31 67 3e d1 19 99 3e
       -0.19094183 -0.29753038 0.22577654 0.2990251
0001f0 0a 3f 3c be db ce 4f 3e 56 7c 4f 3e aa a3 e8 bd
       -0.18383422 0.20293753 0.20262274 -0.113593414
000200 29 ee 11 be 24 f5 7a 3e 1c 0e 1e 3d 8c 3e 16 be
       -0.14251007 0.24507576 0.038587674 -0.14672297
000210 7a 13 7c be 0a e3 da bd e2 73 3a 3e 6a 94 8f 3e
       -0.24616805 -0.106878355 0.18208268 0.28042918
000220 0d 08 aa 3d 94 db d0 3d 2c 35 9d be 17 41 b5 3b
       0.08302317 0.10198131 -0.3070463 0.005531441
000230 c8 01 68 3c 02 24 4d be 29 34 0d 3e f3 e8 01 be
       0.014160581 -0.20033267 0.13789429 -0.1268652
000240 e6 cd cd bb e4 aa 45 be e4 ce e5 be 8f ed 37 be
       -0.0062806485 -0.19303471 -0.44884408 -0.17961715
000250 9c ee 30 be b3 fe b1 3d cb b5 a3 3e e6 60 bb be
       -0.17278522 0.08691158 0.31974635 -0.36597365
000260 ff e4 3b 3e af 26 15 3e 62 e2 55 be 37 72 3d 3e
       0.18349074 0.14565538 -0.2088714 0.18500601
000270 63 0c 38 3e 4e e7 98 bd 28 06 d6 bb a0 90 66 be
       0.17973475 -0.07465993 -0.0065314956 -0.22516108
000280 e3 2f bb 3d 44 6b af 3e 21 02 c0 bd ce aa 05 be
       0.09139993 0.34261525 -0.09375406 -0.13053438
000290 a6 f5 29 bd f4 05 5a 3e 85 49 01 bd 6d 10 d2 3d
       -0.041494034 0.21291333 -0.031564254 0.10257039
0002a0 9a af 8c 3d 3d 0e 1f 3d 86 28 2b 3d c4 dd 52 3d
       0.06869431 0.038831938 0.041786693 0.051481023
0002b0 43 23 8a be 05 6d 4f 3e f1 02 86 bd a2 26 0b 3e
       -0.26980028 0.20256431 -0.0654353 0.13588956
0002c0 3c 22 0d 3e a6 22 cd 3e 7c b8 8c 3e 87 06 37 3d
       0.1378259 0.40065497 0.274845 0.04468396
0002d0 45 5e 9d 3d 4c 11 87 3e 1e ac e1 3b a4 f5 5a be
       0.07683996 0.26380384 0.006886973 -0.21382767
0002e0 1e 6c da bd 00 25 c0 3d b5 73 25 3e f0 31 48 be
       -0.10665153 0.09382057 0.1615742 -0.195503
0002f0 4c 0c 80 be a4 94 7a be d2 02 91 be 76 29 ed bd
       -0.25009382 -0.24470764 -0.28322464 -0.11580174
000300 d1 fa 91 3e e5 b2 1c bd b1 cb 28 3d 3e 56 22 be
       0.2851167 -0.038256545 0.04120988 -0.15853211
000310 53 cf 3c 3e e6 ad 81 bd fd 6e 47 bd 2b 51 a3 3d
       0.18438463 -0.063319966 -0.04868983 0.07974466

rb2.shortcut.conv.bias f4 [20]
000000 b4 f8 34 b8 73 3c 52 b9 f8 bd 80 b9 50 00 7a b6
       -4.3146967e-05 -0.0002004968 -0.000245556 -3.7253085e-06
000010 bf d3 8b 38 07 f9 29 38 a1 ef 71 36 60 8b b8 36
       6.667477e-05 4.0524665e-05 3.605128e-06 5.4998527e-06
000020 87 f6 ab b8 06 d1 52 b7 7d f4 06 b9 d6 e8 86 b8
       -8.199835e-05 -1.25656425e-05 -0.00012870315 -6.432987e-05
000030 31 62 53 b8 62 f0 9e 37 57 ee 69 37 ae a1 cc 38
       -5.0397768e-05 1.8947005e-05 1.3943375e-05 9.757593e-05
000040 6b db f0 38 38 88 0f 38 00 40 ef 32 47 fc 10 39
       0.000114849616 3.422072e-05 2.7852366e-08 0.00013826891

rb2.shortcut.bn.weight f4 [20]
000000 3f 97 82 3f d6 ea 79 3f ad d7 82 3f 5c ff 61 3f
       1.0202407 0.97623956 1.0222069 0.8828027
000010 8b 0b 5b 3f e4 8b 70 3f 08 1e 6b 3f 74 a8 7a 3f
       0.8556449 0.93963456 0.918427 0.9791329
000020 68 94 80 3f 82 99 75 3f 1d 93 3e 3f 7f cc 59 3f
       1.004529 0.9593736 0.7444323 0.8507766
000030 49 1e 5f 3f a7 30 77 3f 2c 37 83 3f 79 be 48 3f
       0.87155586 0.9655861 1.0251212 0.7841564
000040 22 ba 6d 3f 20 ed 57 3f af 72 5a 3f d0 7b 71 3f
       0.9286214 0.843462 0.85331243 0.9432955

rb2.shortcut.bn.bias f4 [20]
000000 8d 40 c4 3d 4a 28 b9 3d 1a cb 94 bd dd 2b aa bd
       0.095826246 0.09040888 -0.07265301 -0.083091475
000010 70 e0 23 3c 2b ec c7 bd 65 5a 36 3d 36 06 ab bd
       0.010002241 -0.09761842 0.0445198 -0.08350794
000020 b4 08 54 3b 5b e0 e3 bd 4d 2c c4 3c b2 15 08 be
       0.003235382 -0.11126777 0.023946906 -0.13289526
000030 49 b7 77 3d 79 a9 bd bc 73 86 63 3c 07 ea 0c 3e
       0.06047753 -0.0231521 0.013887036 0.1376115
000040 89 3c 00 3d 08 c7 9a bd e4 0e 34 3b a1 95 f6 bd
       0.03130773 -0.075574934 0.0027474696 -0.12040258

rb2.shortcut.bn.running_mean f4 [20]
000000 ea 37 a7 be dc c0 2e bf 88 34 5c 3e 83 1c 44 3f
       -0.32659847 -0.6826303 0.21504414 0.76606005
000010 16 b6 2a 3e 86 87 75 bf 30 de 38 be eb 8d 4d bf
       0.16671023 -0.9590992 -0.18053508 -0.80294675
000020 d6 1e e6 be 05 01 c5 be 42 d2 58 3f 64 07 96 3c
       -0.449454 -0.3847734 0.8469583 0.018314071
000030 f7 b1 8e 3e 50 55 dc bd 33 75 67 bf 96 20 10 3e
       0.2787015 -0.107584596 -0.90413207 0.1407493
000040 72 bc fd 3e 23 28 64 3f 39 52 be be 48 83 24 be
       0.49557835 0.89123744 -0.37172106 -0.16065705

rb2.shortcut.bn.running_var f4 [20]
000000 0c dd b5 3e 93 10 b1 3e 82 7c 85 3e d1 f0 b3 3e
       0.35520208 0.34582958 0.26071554 0.35144666
000010 f1 a1 3d 3e e2 26 07 3f 62 f3 78 3e 70 3c 01 3f
       0.18518807 0.52793705 0.24311593 0.50482845
000020 00 7f 67 3e 76 c9 95 3e bd f5 0f 3f 96 0f 6a 3e
       0.2260704 0.29255265 0.5623434 0.22857508
000030 34 50 b1 3e 3d 73 c3 3e 80 4b ec 3e 8e 7e 9e 3e
       0.34631503 0.38173857 0.46151352 0.3095593
000040 3c d5 46 3e ef 1c 0d 3f b8 58 8e 3e 27 82 09 3e
       0.1941728 0.55122274 0.27802062 0.13428555

res1_sc1.conv.weight f4 [20, 3, 1, 1]
000000 5f 0a 01 bf 1d b7 27 3e b7 1f b9 3e ae b4 97 be
       -0.5040645 0.16378446 0.3615701 -0.29630035
000010 ec 97 0f 3f ea 38 0e be b2 35 aa bd 72 97 cc be
       0.5609119 -0.13888898 -0.08311023 -0.39959294
000020 65 ae e5 be 46 ad a8 3e 16 8e 02 bf 8b d5 35 be
       -0.44859615 0.32944697 -0.50998056 -0.17757241
000030 f3 35 be 3e bd a3 77 be 8e 97 aa 3e 9c fb 0c bf
       0.37150535 -0.24183555 0.33318752 -0.55071425
000040 37 06 9c be 2a 52 de 3e e5 c6 a3 be 42 71 0a 3f
       -0.30473492 0.4342206 -0.31987682 0.5407907
000050 37 5e 49 3e 04 ca ff 3e bb 73 09 bf bf 84 49 be
       0.19664846 0.49958813 -0.53692216 -0.19679545
000060 83 9f 86 3e 39 bb dd 3e 36 0a a2 be d5 b7 8e 3e
       0.26293573 0.43306902 -0.31648415 0.27874628
000070 96 f1 4b be 7d 9d e2 be 27 4f 20 bd 82 ff b8 be
       -0.19916376 -0.4426078 -0.039137986 -0.36132437
000080 70 6d 2a bf 45 98 7a 3d 19 8b 78 be b9 a4 dc be
       -0.6657324 0.06118037 -0.24271812 -0.43094423
000090 9a db e7 be f3 59 b3 be ce b4 e4 bd 5f 6a fc 3d
       -0.4528473 -0.35029563 -0.11167298 0.12324976
0000a0 80 15 3a be 1f ba 0d bf c5 66 3d be a7 08 70 3e
       -0.18172264 -0.55362123 -0.18496235 0.234408
0000b0 b7 85 ea 3e 8f d7 e4 3e b7 ee 90 3e 7b 2d 53 be
       0.4580514 0.44695708 0.28307125 -0.20622818
0000c0 a3 de 57 be 30 8b 09 bf 9b 3a d1 3c 60 c5 ba bd
       -0.21081023 -0.5372801 0.02554064 -0.091196775
0000d0 f2 09 08 bf bd 90 ee 3c 86 f8 47 3e 41 d7 06 3f
       -0.53140175 0.029121751 0.19528398 0.526722
0000e0 ca 0c 44 3d da a6 f6 be ef 4d 7c 3d 4c 11 4c 3e
       0.04786376 -0.48174173 0.06159776 0.19928473

res1_sc1.conv.bias f4 [20]
000000 29 cf f2 b8 6a 45 36 37 a0 4c b7 b9 50 df e5 b8
       -0.00011578046 1.0864207e-05 -0.0003496157 -0.00010961166
000010 42 34 ba 36 e7 e1 1d 38 48 76 e9 b6 87 25 19 b7
       5.5493156e-06 3.7642105e-05 -6.957711e-06 -9.128248e-06
000020 18 79 d7 b8 42 92 2a b9 9f 1e 8d 38 ab 21 92 38
       -0.000102745544 -0.00016266949 6.7291076e-05 6.968094e-05
000030 e7 46 2c b8 20 3e de 37 14 6b cd b6 16 da fb 37
       -4.107403e-05 2.6493391e-05 -6.1219416e-06 3.0023086e-05
000040 06 87 0b b9 66 8b 03 b9 ab 0b df 38 90 53 be 37
       -0.00013306373 -0.00012545064 0.00010635642 2.2688677e-05

res1_sc1.bn.weight f4 [20]
000000 2a 04 87 3f 1b 76 83 3f 21 16 71 3f 1e 3b 6e 3f
       1.0548146 1.0270418 0.9417439 0.93058956
000010 6d 38 61 3f b8 fc 64 3f 9c 68 63 3f 35 ac 7a 3f
       0.87976724 0.8944812 0.88831496 0.9791902
000020 47 ca 65 3f c5 f0 60 3f f4 4a 6a 3f 47 3d 6b 3f
       0.89761776 0.87867385 0.9152062 0.91890377
000030 ba 17 74 3f 24 6e 67 3f e5 ea 6d 3f 1a aa 4b 3f
       0.95348704 0.90402436 0.92936546 0.7955643
000040 0a b7 6a 3f 84 56 4d 3f 81 29 5b 3f 16 50 81 3f
       0.91685545 0.8021014 0.85610205 1.0102565
