models/dense_max/epoch_0025.pth (torch, 645162 bytes, 174 tensors)

rb1.conv1.weight f4 [10, 3, 3, 3]
-0.07781073 0.081685975 -0.077389866 -0.23374185 0.27296358 0.1819769 -0.20530185 0.18806194
-0.12159723 -0.17613655 0.012754926 -0.042910356 -0.30901796 0.28697866 0.16785742 -0.015093535
0.2762539 -0.22676754 -0.021532526 0.0011919815 -0.09406564 -0.22589298 0.050532125 0.009336995
0.12941411 0.06757112 0.14067647 0.056181237 0.0195225 0.16167702 0.057326548 0.14044705
-0.35955763 -0.053021535 0.03793492 -0.076961815 -0.038000077 -0.02501417 -0.009654721 -0.039850216
0.42815542 -0.23168479 -0.054311376 0.085841924 -0.13114725 -0.1373433 -0.17427886 0.119897015
0.010070597 0.35220718 -0.27013156 -0.0027148388 0.09426252 0.046025287 0.031124637 0.27495515
0.1858775 -0.13184159 -0.07347369 0.09434057 -0.06005608 -0.22367135 0.0032190413 0.2463191
0.24458338 0.3165738 0.0051766597 -0.17024985 -0.112088256 -0.10920846 -0.26759103 -0.17880237
0.059443537 0.17194982 0.060457192 0.0006463981 -0.042967785 -0.092017 0.10150042 -0.20548514
-0.12299428 -0.19278722 0.03363627 -0.16181324 0.07494237 -0.30435103 -0.1652443 0.04771714
0.10375184 0.16507207 -0.105837025 -0.15363477 -0.15842095 0.21606956 -0.26630133 -0.120373204
0.27402833 0.028565936 0.026939625 -0.045924414 0.020488525 -0.13968967 0.012174964 -0.17297734
-0.12505326 0.18762165 0.016761603 0.23003776 -0.24384041 -0.22762558 0.19389787 -0.0879421
-0.16829643 0.14498943 -0.11318095 -0.006393332 0.2276065 0.2355357 -0.21559832 -0.086021274
-0.07553349 -0.0100681605 0.16581845 0.09842206 0.124666244 0.12725106 0.26473185 0.08520287
-0.0643323 0.22111513 0.03083893 -0.27995536 0.15086493 0.023143487 -0.18022683 -0.18967208
-0.1473352 0.12866688 0.01753178 -0.14607129 0.0018767595 0.118692 -0.08783232 0.02686917
0.07217006 0.1892281 0.22142777 -0.0477567 -0.44215623 -0.1199596 0.176303 -0.119144395
-0.32031834 0.014931701 -0.0838133 0.22580817 -0.09085416 -0.17297101 0.0020094372 -0.2311046
-0.33485067 0.022175528 -0.022783196 -0.038914938 0.102357715 0.0821753 0.20053802 -0.1155326
-0.025029322 -0.034493916 0.024030335 0.06581379 0.027112883 0.07024967 0.13339274 0.2969181
-0.059429266 0.030711526 0.044765163 -0.17842127 -0.2555997 -0.14853115 -0.097830474 -0.0045663957
0.1171164 0.14875631 -0.07723147 0.3949541 0.27327088 0.019376595 -0.13776158 0.19455518
-0.26089826 -0.06886035 0.07294814 0.22465779 -0.04830631 0.20002264 0.12862594 -0.021398703
0.1976301 -0.2138727 -0.3880287 -0.005638817 0.15373245 0.13327394 -0.25320864 -0.11685437
-0.091087736 0.06687235 -0.08094495 -0.15221065 0.36782074 0.26525685 -0.091086976 -0.03344254
-0.28331935 0.101161696 -0.005700914 -0.030427152 0.1904667 0.29467118 -0.01233927 0.14926824
-0.056641243 -0.083504565 -0.14463867 -0.15014479 0.013265944 0.122100785 -0.06501808 0.24140061
-0.29158324 -0.20671803 0.06444378 0.097265534 -0.104781576 0.11378433 0.20268406 0.024837457
0.037437893 0.018489746 -0.2304035 0.2504008 0.44796818 0.204155 0.15073967 0.29634959
0.049817678 -0.08528336 -0.18927585 -0.34507102 0.18409391 0.31136978 0.043643527 -0.060662102
00000000: 3b5b 9fbd fa4a a73d 947e 9ebd 065a 6fbe
00000010: e2c1 8b3e 2758 3a3e a63a 52be 4f93 403e
00000020: f807 f9bd 245d 34be 0afa 503c c5c2 2fbd
00000030: 9a37 9ebe deee 923e d1e2 2b3e e04a 77bc
00000040: 2771 8d3e c035 68be fb64 b0bc 433c 9c3a
00000050: 7ca5 c0bd 7d50 67be c6fa 4e3d 32fa 183c
00000060: 2285 043e ba62 8a3d 7e0d 103e 4c1e 663d
00000070: a6ed 9f3c a98e 253e 3ecf 6a3d 5ad1 0f3e
00000080: f017 b8be 1c2d 59bd a661 1b3d 289e 9dbd
00000090: f8a5 1bbd 84ea ccbc d62e 1ebc fb39 23bd
000000a0: 3037 db3e c73e 6dbe 9b75 5ebd e4cd af3d
000000b0: 774b 06be b9a3 0cbe 2876 32be 918c f53d
000000c0: 25ff 243c 8054 b43e af4e 8abe 70eb 31bb
000000d0: b50c c13d 0385 3c3d 18f9 fe3c ecc6 8c3e
000000e0: ac56 3e3e 7b01 07be 6079 96bd a135 c13d
000000f0: 5dfd 75bd 1a0a 65be 8df6 523b 133b 7c3e
00000100: 1174 7a3e f615 a23e f8a0 a93b fa55 2ebe
00000110: 878e e5bd afa8 dfbd b101 89be f817 37be
00000120: 117b 733d 9d13 303e f6a1 773d 0b73 293a
00000130: fdfe 2fbd 6973 bcbd 74df cf3d b26a 52be
00000140: 6de4 fbbd 036a 45be 2fc6 093d 5fb2 25be
00000150: 637b 993d e6d3 9bbe cd35 29be 0c73 433d
00000160: d87b d43d a708 293e 15c1 d8bd 6f52 1dbe
00000170: 1a39 22be 5741 5d3e a658 88be 3a86 f6bd
00000180: 714d 8c3e 1c03 ea3c 7db0 dc3c 3d1b 3cbd
00000190: 8dd7 a73c cf0a 0fbe 8079 473c f920 31be
000001a0: f60d 00be e41f 403e a14f 893c 058f 6b3e
000001b0: 4db1 79be ae16 69be 2a8d 463e fd1a b4bd
000001c0: e655 2cbe 1c78 143e 6acb e7bd 287f d1bb
000001d0: ae11 693e 4530 713e cec5 5cbe ec2b b0bd
000001e0: 4db1 9abd edf4 24bc 50cc 293e 8191 c93d
000001f0: 0451 ff3d 1a4e 023e ef8a 873e d87e ae3d
00000200: a7c0 83bd 016c 623e eca1 fc3c 4f56 8fbe
00000210: 567c 1a3e 6997 bd3c 628d 38be 6639 42be
00000220: 0adf 16be 40c1 033e cf9e 8f3c b693 15be
00000230: 99fd f53a cb14 f33d 6ee1 b3bd bc1c dc3c
00000240: e5cd 933d 03c5 413e f6bd 623e 889c 43bd
00000250: 4d62 e2be 61ad f5bd c688 343e fa01 f4bd
00000260: c400 a4be 18a4 743c 4fa6 abbd 423a 673e
00000270: bf11 babd 501f 31be c3b0 033b afa6 6cbe
00000280: 8c71 abbe 74a9 b53c d3a3 babc 4565 1fbd
00000290: eca0 d13d 864b a83d d759 4d3e 5b9c ecbd
000002a0: 4b0a cdbc 7e49 0dbd 44db c43c 61c9 863d
000002b0: d61b de3c 0fdf 8f3d 1b98 083e a605 983e
000002c0: 1a6c 73bd bd96 fb3c ad5b 373d 11b4 36be
000002d0: f7dd 82be 8d18 18be 585b c8bd b4a1 95bb
000002e0: b9da ef3d 9353 183e 882b 9ebd 6c37 ca3e
000002f0: 29ea 8b3e aabb 9e3c 5f11 0dbe 7939 473e
00000300: 7594 85be a806 8dbd d665 953d b10c 663e
00000310: d6dc 45bd bcd2 4c3e 85b6 033e 554c afbc
00000320: 8c5f 4a3e 7201 5bbe b3ab c6be d3c5 b8bb
00000330: 0a6c 1d3e f778 083e 90a4 81be 5851 efbd
00000340: 358c babd 5ff4 883d 77c6 a5bd 1cdd 1bbe
00000350: 0053 bc3e bfcf 873e cf8b babd 0bfb 08bd
00000360: 3c0f 91be dd2d cf3d bcce babb 5d42 f9bc
00000370: b409 433e 24df 963e a62a 4abc c6d9 183e
00000380: a600 68bd 7104 abbd 291c 14be 8ebf 19be
00000390: 6759 593c fa0f fa3d 3328 85bd b931 773e
000003a0: 664a 95be e4ad 53be 1afb 833d 2733 c73d
000003b0: b997 d6bd c207 e93d 698c 4f3e ec77 cb3c
000003c0: 7a58 193d cf77 973c e5ee 6bbe 8934 803e
000003d0: 165c e53e 020e 513e 805b 1a3e 22bb 973e
000003e0: 9f0d 4c3d 0ba9 aebd 87d1 41be 26ad b0be
000003f0: 1d83 3c3e dc6b 9f3e 8ec3 323d d378 78bd

rb1.conv1.bias f4 [10]
-0.00024223368 -0.00033935482 0.00012155171 -7.742658e-05 -0.00011029131 7.147176e-05 -3.5822835e-05 -0.00028418453
-3.4562167e-05 -1.3110962e-05
00000000: 1c00 7eb9 6feb b1b9 94e9 fe38 1460 a2b8
00000010: 324c e7b8 1ce3 9538 7a40 16b8 9afe 94b9
00000020: d8f6 10b8 27f7 5bb7

rb1.bn1.weight f4 [10]
0.7928872 1.2398201 0.85100996 0.8661734 0.57778865 0.7971884 0.67159396 0.98939866
0.8312264 0.67353475
00000000: a8fa 4a3f 6db2 9e3f cadb 593f 8abd 5d3f
00000010: f5e9 133f 8a14 4c3f 95ed 2b3f 3b49 7d3f
00000020: 41cb 543f c66c 2c3f

rb1.bn1.bias f4 [10]
0.3224489 1.1388422 0.0046639815 0.039706863 0.04884841 -0.024253175 -0.0069793384 0.7839434
0.5484043 0.1271293
00000000: 0618 a53e 95c5 913f 50d4 983b aaa3 223d
00000010: 4515 483d 98ae c6bc efb2 e4bb 84b0 483f
00000020: 3964 0c3f 2f2e 023e

rb1.bn1.running_mean f4 [10]
-0.009444602 -0.007337561 0.013531523 0.011293886 -0.030801699 0.081850275 -0.051766377 -0.0028510669
-0.012002068 -0.0035770473
00000000: 88bd 1abc ec6f f0bb 52b3 5d3c fe09 393c
00000010: d853 fcbc 1ea1 a73d fb08 54bd f7d8 3abb
00000020: 52a4 44bc e56c 6abb

rb1.bn1.running_var f4 [10]
0.07732678 0.03853215 0.19511491 0.23703992 0.04556466 0.45268187 0.2324942 0.056487452
0.03899326 0.4183944
00000000: 815d 9e3d e3d3 1d3d 34cc 473e 98ba 723e
00000010: 02a2 3a3d ebc5 e73e f612 6e3e 635f 673d
00000020: 66b7 1f3d ca37 d63e

rb1.conv2.weight f4 [10, 10, 3, 3]
-0.021850714 -0.1897098 0.002364719 0.01742406 -0.14350268 -0.05018849 0.010492413 -0.047293607
-0.022308832 0.011255303 0.1773569 -0.2611659 -0.26318124 -0.090248294 0.14297046 0.14241031
-0.21317753 0.01085349 -0.12939213 0.088766135 -0.110108875 0.009198883 -0.19937952 -0.17144024
0.019587493 0.11078394 0.15192463 0.14839216 0.15814531 0.12773953 0.09808397 0.108709104
0.025163328 -0.12781745 -0.07034094 -0.23578012 -0.13472685 0.051660676 -0.03974647 -0.005494107
-0.09744009 0.021006532 -0.060966972 -0.012288412 -0.07623216 0.08182652 0.23356743 0.1681057
-0.026490068 0.0034026909 -0.037344757 -0.04951703 0.055740822 0.15499769 -0.061486028 -0.03653676
-0.08318799 -0.091959186 -0.23265795 -0.0786352 0.09690718 0.07031395 -0.06293524 -0.03579689
0.112731524 0.28135663 -0.05913251 -0.25862673 -0.3931219 0.014766989 0.16539072 0.1028372
-0.045780245 -0.16706017 -0.1066727 0.12161144 0.05623476 0.09981766 -0.19972365 -0.019640911
-0.05067121 -0.3193158 -0.3176949 -0.11777317 -0.17410217 -0.047038883 -0.051622335 -0.13841149
-0.08107099 0.05526311 -0.008159059 -0.119346276 0.12024498 0.010111881 0.0664559 0.31256786
-0.045928646 0.1592685 -0.09535304 0.10925175 0.09133169 -0.1698475 0.16190045 -0.4620748
0.060554933 -0.31353486 0.12756354 0.1462568 0.016220456 0.13010906 -0.106845535 0.0063807913
-0.16780078 -0.1504631 0.025452169 -0.09344057 -0.050881725 -0.22251922 0.10537298 0.05229051
0.06837355 -0.047398634 -0.10141122 0.007121248 -0.19646274 -0.016860316 0.1827406 0.21692681
0.045441754 0.07198266 -0.028549157 -0.0859335 -0.017834488 -0.14434478 -0.16195202 -0.082016245
-0.085865706 -0.089680396 -0.047608107 -0.06124063 -0.12461838 -0.07238085 -0.1764773 -0.059239186
0.101787105 0.15682715 0.102337986 0.15440884 0.17331894 0.119655915 0.14668378 0.18086867
0.02525022 0.08984401 -0.28071186 -0.0090212785 -0.0469126 -0.26303893 0.19889015 -0.037711687
0.26757377 -0.007587424 0.10639967 -0.0050142854 -0.21622165 0.032864407 -0.10372733 0.15359345
-0.010956941 0.14441995 -0.0288359 -0.03279582 -0.008497062 0.01778121 0.053081922 -0.029914867
0.035771612 -0.069308795 0.14496958 0.032582395 0.027620759 -0.32256922 -0.07115819 0.016262071
-0.07167738 -0.024166979 0.083847135 0.06736099 0.06170605 -0.06497629 -0.13624056 0.011443346
-0.06728064 -0.15253541 -0.02952253 -0.013562277 0.14136487 0.14872466 0.26452324 0.051009905
0.040680055 0.35806057 0.059997644 -0.1648769 0.083729476 -0.11611195 -0.05572834 0.09288696
0.0483267 -0.007725783 0.0044402257 0.03842389 -0.003681117 0.27622834 -0.017554225 0.023681033
0.10662176 0.12425179 0.026809365 0.24017462 0.07949783 0.034143277 0.09371896 0.050410017
0.0059897737 0.21019572 0.22143881 0.17427756 0.17478919 0.08998692 0.042128213 0.03664897
0.038034342 -0.1086015 0.01328695 -0.04703144 -0.12086031 0.016869873 -0.043438636 -0.10870671
0.022092432 -0.008498401 -0.11861885 0.16751157 0.10898418 -0.0019300838 0.07425419 0.079112425
-0.018706545 -0.108956486 0.024457773 -0.05416918 0.28171384 0.28824842 -0.06779565 0.19949515
00000000: 4500 b3bc 4943 42be 67f9 1a3b e7bc 8e3c
00000010: 5ef2 12be 7292 4dbd 5fe8 2b3c f1b6 41bd
00000020: 03c1 b6bc 2a68 383c 0c9d 353e 89b7 85be
00000030: b1bf 86be 19d4 b8bd d966 123e 02d4 113e
00000040: 364b 5abe d6d2 313c 5f7f 04be 05cb b53d
00000050: c380 e1bd e9b6 163c 252a 4cbe 088e 2fbe
00000060: f375 a03c b1e2 e23d 2192 1b3e 1df4 173e
00000070: d8f0 213e 27ce 023e 40e0 c83d e1a2 de3d
00000080: 5323 ce3c 94e2 02be e90e 90bd 5870 71be
00000090: d6f5 09be 259a 533d 32cd 22bd e907 b4bb
000000a0: ab8e c7bd e415 ac3c 81b8 79bd 5655 49bc
000000b0: 9b1f 9cbd aa94 a73d 4d2c 6f3e e723 2c3e
000000c0: b301 d9bc aeff 5e3b d1f6 18bd 5fd2 4abd
000000d0: 7d50 643d b7b7 1e3e c6d8 7bbd 92a7 15bd
000000e0: 775e aabd 1955 bcbd e33d 6ebe 7e0b a1bd
000000f0: 4677 c63d c300 903d 31e4 80bd c29f 12bd
00000100: c9df e63d fa0d 903e ee34 72bd b96a 84be
00000110: 4647 c9be 3ef1 713c 2f5c 293e 4f9c d23d
00000120: 1184 3bbd d211 2bbe 3777 dabd 6b0f f93d
00000130: 6b56 663d 346d cc3d 5b84 4cbe fae5 a0bc
00000140: 9d8c 4fbd 5c7d a3be e8a8 a2be 0f33 f1bd
00000150: d747 32be d8ab 40bd f171 53bd bebb 0dbe
00000160: 8c08 a6bd 925b 623d 93ad 05bc d26b f4bd
00000170: 0043 f63d 4eac 253c 081a 883d e508 a03e
00000180: ad1f 3cbd 4817 233e 7448 c3bd 62bf df3d
00000190: 1c0c bb3d 81ec 2dbe 3bc9 253e 1195 ecbe
000001a0: 7308 783d a487 a0be 04a0 023e 58c4 153e
000001b0: c3e0 843c 4f3b 053e d5d1 dabd f515 d13b
000001c0: f8d3 2bbe 0013 1abe 1181 d03c c55d bfbd
000001d0: 5b69 50bd 14dc 63be cacd d73d 932e 563d
000001e0: 6f07 8c3d 1225 42bd b0b0 cfbd 5c59 e93b
000001f0: 872d 49be a51e 8abc 5a20 3b3e 1022 5e3e
00000200: 2221 3a3d a56b 933d ecdf e9bc e7fd afbd
00000210: a219 92bc 1ecf 13be c0d6 25be 22f8 a7bd
00000220: 5cda afbd 5baa b7bd b800 43bd 74d7 7abd
00000230: ec37 ffbd 693c 94bd 77b6 34be caa4 72bd
00000240: c275 d03d 4c97 203e 9496 d13d 5a1d 1e3e
00000250: 857a 313e 290e f53d 4634 163e a335 393e
00000260: 8dd9 ce3c 2300 b83d 77b9 8fbe fccd 13bc
00000270: 6d27 40bd 0aad 86be dca9 4b3e 9277 1abd
00000280: 6eff 883e ed9f f8bb 12e8 d93d e04e a4bb
00000290: 3569 5dbe d49c 063d ff6e d4bd 9a47 1d3e
000002a0: be84 33bc d3e2 133e 4439 ecbc e954 06bd
000002b0: 4337 0bbc e6a9 913c 6e6c 593d 0610 f5bc
000002c0: 4185 123d c5f1 8dbd e872 143e 1e75 053d
000002d0: ee44 e23c cb27 a5be 63bb 91bd 0938 853c
000002e0: 97cb 92bd d4f9 c5bc 0cb8 ab3d 8ff4 893d
000002f0: 7cbf 7c3d 4a12 85bd a582 0bbe df7c 3b3c
00000300: 6fca 89bd 3e32 1cbe 3cd9 f1bc 5034 5ebc
00000310: f4c1 103e 474b 183e 976f 873e c3ef 503d
00000320: 21a0 263d b753 b73e 17c0 753d 7dd5 28be
00000330: 5c7a ab3d 1acc edbd 6643 64bd 853b be3d
00000340: 38f2 453d 9128 fdbb 507f 913b 5e62 1d3d
00000350: e53e 71bb cd6d 8d3e e1cd 8fbc bafe c13c
00000360: 825c da3d b977 fe3d 509f db3c 56f0 753e
00000370: c2cf a23d d2d9 0b3d baef bf3d bc7a 4e3d
00000380: dd45 c43b 8c3d 573e dbc0 623e d175 323e
00000390: f0fb 323e 104b b83d a28e 2c3d 3b1d 163d
000003a0: e6c9 1b3d 776a debd 82b1 593c 0aa4 40bd
000003b0: 9c85 f7bd b032 8a3c b6ec 31bd a0a1 debd
000003c0: 30fb b43c e13c 0bbc 71ee f2bd 2788 2b3e
000003d0: 1933 df3d defa fcba 9512 983d b205 a23d
000003e0: 783e 99bc 9424 dfbd ab5b c83c 81e0 5dbd
000003f0: cc3c 903e 4c95 933e 72d8 8abd 7548 4c3e

rb1.conv2.bias f4 [10]
6.363403e-05 -2.6572718e-05 4.258498e-05 -3.0477818e-06 2.122981e-05 4.8929465e-05 4.735764e-05 5.4212585e-05
-1.5713142e-06 -4.1538795e-05
00000000: 4273 8538 7ae8 deb7 469d 3238 7e88 4cb6
00000010: ab16 b237 9d39 4d38 e1a1 4638 5262 6338
00000020: f2e5 d2b5 f139 2eb8

rb1.bn2.weight f4 [10]
1.0415184 1.1387813 0.80508983 1.1048503 0.73166126 1.0732958 1.3248094 1.0676605
1.1112362 0.85738164
00000000: 7a50 853f 96c3 913f 5e1a 4e3f bc6b 8d3f
00000010: 274e 3b3f c261 893f 5b93 a93f 19a9 883f
00000020: fd3c 8e3f 5d7d 5b3f

rb1.bn2.bias f4 [10]
0.061252523 -0.0683672 0.28343016 -0.02774833 0.25292537 0.0944661 -0.016641516 0.099540636
0.06095123 0.27507752
00000000: ede3 7a3d 1a04 8cbd c21d 913e 7750 e3bc
00000010: 6f7f 813e 7177 c13d ca53 88bc f6db cb3d
00000020: ffa7 793d f6d6 8c3e

rb1.bn2.running_mean f4 [10]
-1.2994448 -0.2597905 0.73431313 0.017254658 -0.55873305 -0.13619019 -0.6114917 -0.3201928
0.071329944 1.5690186
00000000: 3554 a6bf 4303 85be f2fb 3b3f a459 8d3c
00000010: 2109 0fbf 7175 0bbe b88a 1cbf 50f0 a3be
00000020: 6f15 923d 9ad5 c83f

rb1.bn2.running_var f4 [10]
1.564611 1.2580593 0.9504124 1.5933641 0.8918036 1.6779025 2.0684516 1.6103325
1.9045774 1.6481713
00000000: 2c45 c83f 1608 a13f 3a4e 733f 5bf3 cb3f
00000010: 3e4d 643f 82c5 d63f 8361 0440 601f ce3f
00000020: 31c9 f33f 47f7 d23f

rb1.shortcut.conv.weight f4 [10, 3, 1, 1]
0.4522984 0.013833308 0.3362454 -0.3315519 -0.54862624 -0.36878887 0.37070027 -0.35464346
0.10488555 -0.47687894 -0.6976208 0.17409886 -0.1040597 -0.19759457 0.57803273 0.37340254
0.14108156 0.48380697 -0.3664572 -0.34224164 -0.32376108 -0.28240547 -0.7041097 0.2631576
-0.30223352 -0.52225006 -0.06801834 -0.28492016 0.057025906 -0.58417815
00000000: a893 e73e 19a5 623c 5b28 ac3e 2cc1 a9be
00000010: c572 0cbf e5d1 bcbe 6dcc bd3e d493 b5be
00000020: 3cce d63d 7a29 f4be 4797 32bf f946 323e
00000030: 411d d5bd 3b56 4abe f4f9 133f 9e2e bf3e
00000040: af77 103e 8cb5 f73e 47a0 bbbe 4c3a afbe
00000050: 03c4 a5be 7397 90be 8940 34bf 98bc 863e
00000060: 5abe 9abe 2eb2 05bf 334d 8bbd 0ee1 91be
00000070: ff93 693d b38c 15bf

rb1.shortcut.conv.bias f4 [10]
-3.0519368e-05 -9.8425284e-05 -0.00013611726 9.7152224e-05 -0.00023889163 0.00012289584 4.2336933e-06 8.171381e-05
-4.4626402e-05 -0.0001640919
00000000: ec01 00b8 ac69 ceb8 b3ba 0eb9 34be cb38
00000010: fc7e 7ab9 9add 0039 260f 8e36 c55d ab38
00000020: 3c2d 3bb8 1610 2cb9

rb1.shortcut.bn.weight f4 [10]
0.97385055 0.9143293 1.0106816 0.8918444 1.1385949 0.93527883 0.5815172 0.6816757
0.8966434 0.90544724
00000000: 454e 793f 7c11 6a3f 045e 813f ea4f 643f
00000010: 7abd 913f 6f6e 6f3f 50de 143f 4c82 2e3f
00000020: 6c8a 653f 64cb 673f

rb1.shortcut.bn.bias f4 [10]
0.061252523 -0.0683672 0.28343016 -0.02774833 0.25292537 0.0944661 -0.016641516 0.099540636
0.06095123 0.27507752
00000000: ede3 7a3d 1a04 8cbd c21d 913e 7750 e3bc
00000010: 6f7f 813e 7177 c13d ca53 88bc f6db cb3d
00000020: ffa7 793d f6d6 8c3e

rb1.shortcut.bn.running_mean f4 [10]
-0.03926269 0.057767592 -0.0037132371 0.009785397 -0.050931003 -0.05703867 0.047270782 -0.0012032377
0.026441377 0.059888616
00000000: ead1 20bd b69d 6c3d c859 73bb ee52 203c
00000010: 079d 50bd 61a1 69bd 029f 413d f5b5 9dba
00000020: 969b d83c c44d 753d

rb1.shortcut.bn.running_var f4 [10]
0.1587783 0.38904154 0.00681445 0.26003927 0.03175001 0.24724197 0.2643097 0.14109935
0.20031115 0.16673104
00000000: c796 223e 7430 c73e c04b df3b de23 853e
00000010: 4c0c 023d 002d 7d3e 9a53 873e 597c 103e
00000020: 5e1e 4d3e 8bbb 2a3e

rb2.conv1.weight f4 [20, 10, 3, 3]
0.081530474 0.13000976 0.074327804 0.16163775 0.2285697 0.122467116 0.055831913 0.10900572
0.12499017 0.14397606 -0.115500055 -0.11733914 -0.13164626 -0.08003795 -0.032893308 0.15578294
-0.15873036 -0.102864146 -0.09773467 -0.3127556 -0.17470452 0.002468579 -0.25939354 -0.15763347
0.04910885 0.048919685 -0.09839699 -0.015026508 -0.11410202 0.101442024 0.08561477 0.068295084
0.10769891 0.031775795 0.04465838 0.21796353 -0.0020816533 0.13167727 -0.02703689 -0.06868472
0.008854789 0.08103978 0.018608373 -0.29857638 -0.23279269 0.10445396 0.047653954 0.07178645
-0.13621122 -0.06427711 -0.078187674 -0.042281713 -0.46437934 -0.030154692 0.114115685 0.08969237
0.15557364 0.068580225 0.04414565 0.112725236 0.051946543 -0.025592608 -0.048410676 0.07825819
-0.09340562 0.06331184 -0.08674577 -0.35619053 -0.06278598 0.06446251 -0.15310475 -0.121322274
-0.015711162 0.011246974 -0.1610824 -0.17296812 0.07098096 0.15870467 -0.16762859 -0.03509787
0.09685794 -0.12981026 0.021318339 -0.14084513 0.0020583645 0.029891683 -0.022550475 -0.084124096
0.05252251 0.21826072 -0.24994941 -0.17710903 -0.08005684 0.04779297 -0.04885372 -0.0010410416
0.15885018 0.19204001 0.2161977 -0.28377482 -0.14508231 -0.045754787 -0.14321472 0.0834589
-0.0047739074 -0.07262472 -0.03576806 -0.00862816 -0.2607712 -0.38126493 -0.24386153 0.10426435
0.02794688 -0.023825428 0.19846308 0.25884593 0.30968705 -0.06842612 0.020672813 -0.018022051
-0.16233885 0.057788122 -0.10093346 -0.09110748 -0.0040384163 -0.08237689 0.18439572 0.23867373
0.025049107 0.009504878 -0.013802665 -0.1318298 -0.1822602 -0.24814554 -0.23064241 -0.005145343
-0.022588966 0.13992678 -0.058193915 0.042420294 0.04345564 0.046256006 -9.990788e-05 0.080599226
0.09528934 0.110691115 0.04206124 -0.0632248 0.0148690995 -0.10663502 -0.019460136 0.024483154
-0.046935607 0.14970198 0.28244406 0.12873754 -0.00966751 0.07507748 0.1014538 -0.13367367
0.01728075 -0.051159766 -0.10662347 0.07377909 -0.07340861 -0.12246203 0.073917 -0.1760786
0.024969 0.03235478 -0.06238228 -0.057309885 0.017500792 0.014856107 0.02103779 0.14033602
0.054983813 -0.009280946 0.08050739 -0.061143924 -0.028073968 0.07776124 -0.09737739 -0.02742896
0.04373774 -0.033817317 -0.02219152 -0.05735973 0.05872609 -0.016099637 0.018863466 0.18565248
-0.15329865 0.0672844 0.11535617 -0.09046181 -0.264727 -0.1886441 0.102133915 -0.18987526
0.055175148 0.18974112 -0.024918664 -0.019671403 0.053763907 0.045354865 0.062012628 0.24453415
0.2270479 0.13240695 -0.034191765 0.18841659 0.045827802 -0.089127235 0.10833811 0.038307175
-0.15327543 0.011994054 -0.06261911 -0.07447059 -0.06831992 -0.00030513608 0.09970808 -0.045787305
-0.005981556 0.12489641 0.04809548 -0.08729814 -0.33020148 0.040788695 0.03861945 -0.25190216
0.025587395 0.08152147 0.23189467 0.1827001 0.036399648 -0.10878807 -0.077168636 -0.11870326
-0.59362626 -0.4488104 -0.1392637 -0.047060147 -0.004020543 0.062068045 -0.10573272 0.05706633
0.0860279 -0.059697658 -0.08223737 -0.09559057 -0.09063399 -0.07811196 -0.0154262055 -0.1663207
00000000: 73f9 a63d 4721 053e 2d39 983d 5e84 253e
00000010: 2d0e 6a3e 0ad0 fa3d 01b0 643d 643e df3d
00000020: d9fa ff3d 766e 133e 4b8b ecbd 814f f0bd
00000030: 47ce 06be f0ea a3bd 22bb 06bd 9085 1f3e
00000040: 368a 22be 70aa d2bd 1d29 c8bd 8121 a0be
00000050: bee5 32be e2c7 213b 3bcf 84be ab6a 21be
00000060: 5d26 493d 0260 483d 5c84 c9bd be31 76bc
00000070: 52ae e9bd d6c0 cf3d cc56 af3d 4bde 8b3d
00000080: 3f91 dc3d 5627 023d b5eb 363d d531 5f3e
00000090: 596c 08bb 68d6 063e 787c ddbc 93aa 8cbd
000000a0: ad13 113c 2ff8 a53d 9670 983c 01df 98be
000000b0: 3561 6ebe f5eb d53d cb30 433d c604 933d
000000c0: f47a 0bbe b8a3 83bd dc20 a0bd 972f 2dbd
000000d0: 21c3 edbe f906 f7bc 7cb5 e93d a2b0 b73d
000000e0: b24e 1f3e ca73 8c3d 12d2 343d 7ddc e63d
000000f0: e6c5 543d 97a7 d1bc 464a 46bd d445 a03d
00000100: 724b bfbd a3a9 813d c4a7 b1bd 9b5e b6be
00000110: f095 80bd ec04 843d 7ec7 1cbe d077 f8bd
00000120: b2b4 80bc 3a45 383c c9f2 24be 8e1e 31be
00000130: 775e 913d 7a83 223e d4a6 2bbe c9c2 0fbd
00000140: 755d c63d fbec 04be cca3 ae3c b539 10be
00000150: a0e5 063b 67df f43c c6bb b8bc 4149 acbd
00000160: d821 573d bd7f 5f3e bdf2 7fbe 125c 35be
00000170: d7f4 a3bd 90c2 433d d71a 48bd 8f73 88ba
00000180: 9fa9 223e 23a6 443e ee62 5d3e ef4a 91be
00000190: 7590 14be 5f69 3bbd e1a6 12be 80ec aa3d
000001a0: 706e 9cbb 45bc 94bd 8781 12bd 205d 0dbc
000001b0: cd83 85be 2835 c3be d6b6 79be 8c88 d53d
000001c0: dbf0 e43c 8b2d c3bc e839 4b3e 7487 843e
000001d0: 4d8f 9e3e fe22 8cbd 085a a93c fba2 93bc
000001e0: 283c 26be 3db3 6c3d 34b6 cebd 8f96 babd
000001f0: b154 84bb 37b5 a8bd 3bd2 3c3e e366 743e
00000200: c933 cd3c 59ba 1b3c 9324 62bc 64fe 06be
00000210: 6ba2 3abe dd19 7ebe 862d 6cbe 449a a8bb
00000220: 7f0c b9bc f748 0f3e be5c 6ebd e7c0 2d3d
00000230: 8bfe 313d f076 3d3d a285 d1b8 3511 a53d
00000240: 0f27 c33d 06b2 e23d 6848 2c3d 017c 81bd
00000250: 869d 733c 7663 dabd dd6a 9fbc e590 c83c
00000260: 8d3f 40bd 7a4b 193e 829c 903e c6d3 033e
00000270: 7a64 1ebc 39c2 993d 03c7 cf3d c0e1 08be
00000280: 5c90 8d3c e78c 51bd 685d dabd 7e19 973d
00000290: 4157 96bd 5fcd fabd cc61 973d f34d 34be
000002a0: ca8b cc3c 7286 043d 9084 7fbd c5bd 6abd
000002b0: d25d 8f3c 0767 733c 7257 ac3c 3fb4 0f3e
000002c0: b536 613d 1c0f 18bc 0fe1 a43d 0d72 7abd
000002d0: 61fb e5bc 4941 9f3d cc6d c7bd b3b2 e0bc
000002e0: 5826 333d 0784 0abd feca b5bc 09f2 6abd
000002f0: c58a 703d 63e3 83bc 8e87 9a3c af1b 3e3e
00000300: 52fa 1cbe 67cc 893d db3f ec3d 0b44 b9bd
00000310: 4c8a 87be eb2b 41be 962b d13d a96e 42be
00000320: 56ff 613d 7f4b 423e 3a22 ccbc ec25 a1bc
00000330: 8b37 5c3d 06c6 393d f400 7e3d 2967 7a3e
00000340: 3f7f 683e b095 073e aa0c 0cbd 47f0 403e
00000350: efb5 3b3d 5788 b6bd 5fe0 dd3d fce7 1c3d
00000360: 3cf4 1cbe b582 443c 733e 80bd 0984 98bd
00000370: 50eb 8bbd acfa 9fb9 c033 cc3d 788b 3bbd
00000380: ee00 c4bb b0c9 ff3d c4ff 443d 5ec9 b2bd
00000390: 2b10 a9be 0c12 273d 6e2f 1e3d 52f9 80be
000003a0: a89c d13c baf4 a63d cc75 6d3e bc15 3b3e
000003b0: cc17 153d 48cc debd 970a 9ebd b21a f3bd
000003c0: e4f7 17bf 7aca e5be 259b 0ebe 24c2 40bd
000003d0: c2be 83bb 103b 7e3d 658a d8bd 62be 693d
000003e0: 652f b03d 8885 74bd 116c a8bd fdc4 c3bd
000003f0: 509e b9bd 2af9 9fbd 32be 7cbc f94f 2abe

rb2.conv1.bias f4 [20]
1.49912985e-05 6.821777e-05 -1.6623986e-05 6.119683e-05 -6.250967e-06 -6.3897705e-06 -1.0606465e-05 -7.3133006e-06
3.6811439e-06 -5.380971e-06 -6.3687967e-06 -4.5974946e-05 -5.8690666e-06 -3.2660373e-05 5.603231e-05 3.380057e-06
4.964295e-06 -3.2968605e-05 6.794359e-05 -3.1554428e-05
00000000: 2383 7b37 2310 8f38 bd73 8bb7 cc56 8038
00000010: 66bf d1b6 b667 d6b6 6cf2 31b7 c664 f5b6
00000020: 9209 7736 308e b4b6 8cb3 d5b6 39d5 40b8
00000030: e6ee c4b6 cffc 08b8 3c04 6b38 f0d4 6236
00000040: f892 a636 c547 0ab8 f07c 8e38 4f59 04b8

rb2.bn1.weight f4 [20]
0.8300105 0.8686762 0.8949406 1.0483643 1.068467 0.7412481 0.9478079 0.84093505
0.684196 0.86003345 0.78132135 1.0145386 1.0162044 0.9584311 0.9236451 1.0804708
0.89892876 0.88186276 0.95715374 0.9473856
00000000: 917b 543f 9061 5e3f d41a 653f cd30 863f
00000010: 87c3 883f 6fc2 3d3f 8aa3 723f 8547 573f
00000020: 7827 2f3f 272b 5c3f ad04 483f 67dc 813f
00000030: fc12 823f be5b 753f 0174 6c3f de4c 8a3f
00000040: 3220 663f c2c1 613f 0708 753f dd87 723f

rb2.bn1.bias f4 [20]
0.03407079 -0.16017602 0.12329389 -0.007139027 -0.27448082 -0.06481554 0.033622675 0.16883881
-0.009888011 0.09193849 0.042066645 0.06406799 -0.088817805 0.02486787 -0.104355015 -0.07760834
0.14076947 0.0027537255 0.12243409 -0.09193697
00000000: d08d 0b3d 2f05 24be 8281 fc3d 80ee e9bb
00000010: c088 8cbe 03be 84bd eeb7 093d 15e4 2c3e
00000020: 5301 22bc 3f4a bc3d 134e 2c3d 1436 833d
00000030: 1ce6 b5bd b4b7 cb3c 15b8 d5bd 1ff1 9ebd
00000040: df25 103e d977 343b b9be fa3d 7349 bcbd

rb2.bn1.running_mean f4 [20]
-1.2043197 -0.27404797 -1.7438571 -2.909286 -1.183244 0.13605964 -1.3421859 -1.4472845
1.2871425 -0.1605074 -0.357025 -0.99033695 -2.5379708 -0.65211195 -0.800768 -1.7892969
-1.9891287 -0.3548486 -1.8368415 -0.106842585
00000000: 2627 9abf 0450 8cbe b636 dfbf be31 3ac0
00000010: 8a74 97bf 3853 0b3e bfcc abbf 9e40 b9bf
00000020: 16c1 a43f 0d5c 24be fbcb b6be b986 7dbf
00000030: 1d6e 22c0 cff0 26bf 22ff 4cbf ae07 e5bf
00000040: c59b febf b7ae b5be 9f1d ebbf 49d0 dabd

rb2.bn1.running_var f4 [20]
1.6513764 1.4829379 1.900561 2.797317 2.298131 1.5022871 2.3107243 2.485586
1.3705661 1.2303159 1.5867716 2.1904962 2.5630312 2.0309877 1.4771128 2.6989949
2.3498616 1.9208834 1.9012533 2.191952
00000000: 4d60 d33f e9d0 bd3f 9545 f33f 3e07 3340
00000010: 9414 1340 f24a c03f e8e2 1340 d713 1f40
00000020: b66e af3f fe7a 9d3f 551b cb3f 1731 0c40
00000030: b408 2440 b4fb 0140 0812 bd3f 55bc 2c40
00000040: 2264 1640 82df f53f 455c f33f f148 0c40

rb2.conv2.weight f4 [20, 20, 3, 3]
-0.01492319 0.1011964 -0.059212334 0.009476373 0.01247413 -0.12099189 -0.031038655 -0.13649735
-0.072961114 -0.2114905 0.14429909 0.12731884 0.020750428 0.17851433 0.12258808 0.061816204
0.06126943 0.14485891 0.014147874 -0.051395245 0.047687452 0.15408885 0.05063529 -0.00076417933
0.0040123286 -0.010757495 -0.121732794 -0.18325587 -0.022988865 -0.13305056 -0.10132508 0.09947093
-0.24863735 -0.2838136 -0.049228538 -0.032715127 -0.12286282 -0.075125165 -0.09979643 0.0051830327
0.01796004 -0.035641804 0.086950734 0.15478574 0.048473656 -0.1491098 -0.019522639 -0.08206102
-0.16650695 0.1522534 0.030622976 0.074924335 -0.017323716 0.024735756 -0.019568663 -0.0057964968
-0.09876144 0.093470134 0.0053179874 -0.08651664 -0.12677817 -0.15987183 0.03397068 -0.19468193
-0.07179318 -0.1385855 -0.04003777 -0.12933958 -0.15412565 -0.10843098 -0.21082303 0.06612187
0.171307 -0.2649035 -0.23133528 0.24917708 0.046667226 -0.11248583 -0.08194081 0.03189359
0.1243497 0.050170142 -0.21272138 -0.21432403 0.0832612 -0.10688648 0.13608678 -0.045774948
0.06772664 0.27871963 0.01091139 0.016553016 -0.09479071 0.18527687 0.07447199 -0.069613874
0.06997901 -0.15205069 -0.26471725 0.0020484468 0.061248634 0.14240816 0.00897695 -0.052199516
0.13440003 -0.09312443 -0.112685084 -0.080874756 -0.030294472 0.057988424 -0.020060988 -0.13716102
-0.14190252 -0.10124453 -0.3093129 -0.18011057 -0.1884268 0.012078795 0.032462895 -0.011440835
0.11766442 -0.031668343 0.071913496 0.1118283 -0.0036514874 -0.0035340611 0.17503129 0.017828992
0.1631714 -0.011287365 -0.093259595 0.12228013 0.039885953 0.1322669 0.2034912 0.064466484
0.06861645 0.12739259 0.004335449 0.09873298 0.08733069 0.025142139 -0.024104958 -0.2098975
0.060720973 -0.007315105 0.037223488 0.05289809 0.10775724 0.044062942 -0.10021202 -0.04268891
0.0489966 0.07563162 -0.10407357 0.008245569 0.01592844 -0.16367154 0.045186702 -0.0009836886
-0.026304314 -0.06255777 -0.14056064 -0.0072196056 -0.012452544 -0.12591776 0.11795582 0.06186537
-0.245302 -0.035601094 -0.11062727 0.24591783 0.04870079 0.10348532 0.06097774 0.08273979
0.15787278 0.14879912 0.18172142 0.04804869 0.14089538 0.13709475 -0.18449992 -0.21901219
0.07543631 -0.10570436 0.0019026849 -0.06276479 -0.12481196 -0.0724032 -0.23214206 -0.04289066
0.13816315 -0.027429447 0.08026921 0.078808054 0.060785614 -0.0024116496 -0.09710404 -0.084607966
-0.055036537 -0.22490062 -0.08033583 -0.037793294 -0.035398427 0.03399781 0.05298104 -0.14127894
0.0072126254 -0.015750172 -0.14123933 0.08632566 -0.11579281 -0.23022032 -0.15452453 -0.14934692
-0.19361642 -0.13571219 -0.11583435 -0.06640008 0.004968615 -0.16845553 0.093018174 -0.07132202
-0.12544984 -0.055047423 -0.07045613 0.1622733 -0.23404619 -0.21620768 0.066564895 0.024608264
-0.02155311 0.08174509 -0.024166405 -0.037226167 0.15338337 -0.04371284 0.0114087835 0.040604617
-0.005448 0.118815 -0.016075898 0.03285404 0.021967461 -0.20618415 0.063840054 0.10952403
-0.08095449 -0.029829405 -0.061154466 -0.11612248 -0.12864202 -0.05688377 -0.0829405 0.10156477
00000000: 6580 74bc 0f40 cf3d a288 72bd ca42 1b3c
00000010: 4b60 4c3c 99ca f7bd c744 febc f6c5 0bbe
00000020: a36c 95bd f790 58be 24c3 133e df5f 023e
00000030: cdfc a93c 76cc 363e 760f fb3d fd32 7d3d
00000040: a7f5 7a3d e555 143e 7ccc 673c d283 52bd
00000050: eb53 433d 78c9 1d3e f366 4f3d 3553 48ba
00000060: da79 833b 3440 30bc 0b4f f9bd 6da7 3bbe
00000070: 2553 bcbc 683e 08be 8683 cfbd 6ab7 cb3d
00000080: ca9a 7ebe 0450 91be dda3 49bd 4c00 06bd
00000090: 819f fbbd 39db 99bd 1262 ccbd 6ed6 a93b
000000a0: ef20 933c 24fd 11bd 3a13 b23d 2780 1e3e
000000b0: 508c 463d 3db0 18be f1ed 9fbc 9c0f a8bd
000000c0: cc80 2abe 51e8 1b3e 09dd fa3c ee71 993d
000000d0: 77ea 8dbc a4a2 ca3c 764e a0bc 8af0 bdbb
000000e0: 7043 cabd 456d bf3d 8342 ae3b a32f b1bd
000000f0: 23d2 01be 71b5 23be d724 0b3d b35a 47be
00000100: 4e08 93bd 5be9 0dbe a5fe 23bd 9871 04be
00000110: 1dd3 1dbe 1011 debd fee1 57be e76a 873d
00000120: 1a6b 2f3e 6ea1 87be 28e3 6cbe 4728 7f3e
00000130: 2226 3f3d f95e e6bd 95d0 a7bd daa2 023d
00000140: 0eab fe3d 357f 4d3d a2d3 59be c277 5bbe
00000150: d984 aa3d 4ce7 dabd 555a 0b3e 837e 3bbd
00000160: 44b4 8a3d 57b4 8e3e b0c5 323c 319a 873c
00000170: a221 c2bd 38b9 3d3e c584 983d b891 8ebd
00000180: 2851 8f3d 2db3 1bbe 0589 87be 3c3f 063b
00000190: d9df 7a3d 72d3 113e 0f14 133c 29cf 55bd
000001a0: 29a0 093e 05b8 bebd 70c7 e6bd aaa1 a5bd
000001b0: 1d2c f8bc 4585 6d3d f156 a4bc f073 0cbe
000001c0: e54e 11be 4b59 cfbd 435e 9ebe e86e 38be
000001d0: f4f2 40be 23e6 453c d0f7 043d 5772 3bbc
000001e0: 0bfa f03d aab6 01bd 6247 933d 3c06 e53d
000001f0: cb4d 6fbb b59b 67bb 673b 333e 1b0e 923c
00000200: 6716 273e a4ee 38bc e3fe bebd 016e fa3d
00000210: 745f 233d f970 073e ff5f 503e 0107 843d
00000220: c886 8c3d 3473 023e 6210 8e3b 8434 ca3d
00000230: 6fda b23d e3f6 cd3c c377 c5bc 5fef 56be
00000240: 8eb6 783d 8cb3 efbb a877 183d abab 583d
00000250: d4af dc3d 587b 343d f63b cdbd 91da 2ebd
00000260: a9b0 483d c0e4 9a3d 8624 d5bd 6c18 073c
00000270: 5c7c 823c 8399 27be b115 393d 1def 80ba
00000280: 257c d7bc 4a1e 80bd 21ef 0fbe 7192 ecbb
00000290: c105 4cbc 96f0 00be d292 f13d 8b66 7d3d
000002a0: 7330 7bbe 74d2 11bd 8d90 e2bd e2d1 7b3e
000002b0: 7b7a 473d 1df0 d33d cbc3 793d 7b73 a93d
000002c0: 67a9 213e cc5e 183e 2e15 3a3e b4ce 443d
000002d0: e146 103e 9162 0c3e 8ced 3cbe bb44 60be
000002e0: 5a7e 9a3d 877b d8bd 8363 f93a d48a 80bd
000002f0: 6a9d ffbd 2148 94bd a6b6 6dbe 1eae 2fbd
00000300: a47a 0d3e b8b3 e0bc 2f64 a43d 1e66 a13d
00000310: 56fa 783d c40c 1ebb 7cde c6bd f146 adbd
00000320: fe6d 61bd 594c 66be 1d87 a4bd 24cd 1abd
00000330: f1fd 10bd 4a41 0b3d a602 593d 6dab 10be
00000340: e357 ec3b 8106 81bc 0ba1 10be 82cb b03d
00000350: c824 edbd e0be 6bbe ae3b 1ebe 66ee 18be
00000360: 6243 46be 23f8 0abe 8f3a edbd c4fc 87bd
00000370: c3cf a23b 9b7f 2cbe 5080 be3d 4711 92bd
00000380: ec75 00be 6879 61bd 4e4b 90bd f92a 263e
00000390: cea9 6fbe 8c65 5dbe 2d53 883d 4597 c93c
000003a0: 2690 b0bc f869 a73d a0f8 c5bc 777a 18bd
000003b0: 8810 1d3e 3c0c 33bd e8eb 3a3c 0751 263d
000003c0: 2385 b2bb 4755 f33d 9ab1 83bc f591 063d
000003d0: 1bf5 b33c f021 53be 93be 823d 224e e03d
000003e0: 78cb a5bd cc5c f4bc 1b7d 7abd 9fd1 edbd
000003f0: bcba 03be f5fe 68bd b5dc a9bd 3101 d03d

rb2.conv2.bias f4 [20]
3.5385783e-05 2.3620965e-05 -2.2007956e-05 1.7401626e-05 3.758309e-05 3.488947e-05 6.3693697e-06 -1.4713801e-05
-2.3761282e-05 -7.55003e-06 9.252528e-06 1.187431e-05 -5.290309e-05 -2.3836557e-05 8.544844e-06 7.5520265e-06
-7.994652e-06 8.086024e-06 3.8979877e-05 -3.607397e-07
00000000: 326b 1438 a325 c637 ba9d b8b7 b5f9 9137
00000010: 89a2 1d38 4856 1238 78b8 d536 4bdb 76b7
00000020: f752 c7b7 4456 fdb6 4e3b 1b37 c637 4737
00000030: 43e4 5db8 9ef4 c7b7 d35b 0f37 6a67 fd36
00000040: c520 06b7 35a9 0737 537e 2338 b0ab c1b4

rb2.bn2.weight f4 [20]
0.8489444 0.9237677 1.1908165 1.1167647 1.1945734 1.0872859 1.2458279 1.2229991
1.2325284 1.1570933 1.1548319 1.0003446 1.16512 1.0113981 1.1005718 1.2737663
1.3391774 1.2920725 1.1136314 0.86180097
00000000: 6c54 593f 0a7c 6c3f ad6c 983f 25f2 8e3f
00000010: c8e7 983f 2f2c 8b3f 4a77 9f3f 3c8b 9c3f
00000020: 7ec3 9d3f a21b 943f 88d1 933f 4b0b 803f
00000030: a722 953f 7e75 813f 89df 8c3f c60a a33f
00000040: 2a6a ab3f a262 a53f 798b 8e3f fd9e 5c3f

rb2.bn2.bias f4 [20]
0.20224664 0.05076285 -0.18989317 0.0012454261 -0.078055136 -0.17010507 0.09012108 -0.23780406
0.22903869 -0.16082552 0.049683455 -0.13224834 -0.013342875 0.046876527 -0.01595101 0.173398
-0.02456952 -0.12312617 0.10126049 -0.27779648
00000000: be19 4f3e b5ec 4f3d 5b73 42be 913d a33a
00000010: 5fdb 9fbd 0630 2ebe 6791 b83d e882 73be
00000020: 1e89 6a3e 72af 24be e180 4b3d 1c6c 07be
00000030: 139c 5abc 9a01 403d b1ab 82bc 3f8f 313e
00000040: 0546 c9bc 9329 fcbd a961 cf3d 573b 8ebe

rb2.bn2.running_mean f4 [20]
-0.65676427 -2.0343704 -1.1448672 -1.1465985 -0.77747935 0.13231826 -1.2287343 0.47545242
-2.8676393 -0.101180494 -0.9189759 0.08029718 -1.8037053 -0.4781247 0.24294464 -1.4088221
-2.749196 -0.13916856 -2.360206 0.24054976
00000000: b421 28bf 2033 02c0 028b 92bf bdc3 92bf
00000010: e308 47bf 707e 073e 2a47 9dbf 806e f33e
00000020: 6787 37c0 b837 cfbd 0142 6bbf d972 a43d
00000030: d1df e6bf c3cc f4be 7bc6 783e 4854 b4bf
00000040: d4f2 2fc0 3482 0ebe 9d0d 17c0 ad52 763e

rb2.bn2.running_var f4 [20]
0.8728385 0.97327805 0.72085243 1.1963705 0.66797656 1.1313446 1.149971 0.6986276
1.1873816 0.8790226 0.8399414 0.71345586 0.68571544 1.0138338 1.3152556 0.99933386
0.9781732 1.0326283 0.9669704 0.66453993
00000000: 5872 5f3f c028 793f c989 383f ab22 993f
00000010: 8300 2b3f e6cf 903f 4032 933f 42d9 323f
00000020: 1ffc 973f a007 613f 6606 573f 0ba5 363f
00000030: 0c8b 2f3f 4ec5 813f 4c5a a83f 58d4 7f3f
00000040: 8f69 7a3f 2a2d 843f 5f8b 773f 4a1f 2a3f

rb2.shortcut.conv.weight f4 [20, 10, 1, 1]
-0.021083208 -0.07404377 -0.38651252 -0.09408476 0.512412 -0.015407836 0.0015269808 -0.016671838
-0.013427267 -0.23830745 -0.059921335 0.12846689 -0.595271 0.07775088 -0.17144296 -0.21436854
-0.032641053 -0.0128371585 0.011719418 0.010297305 -0.10187268 -0.12288369 -0.03756641 -0.023715472
0.053082924 0.37939355 0.15693781 0.11836318 -0.14592554 -0.3726054 -0.06392562 -0.0038342287
0.3286588 0.13608354 0.19418749 -0.14918643 0.2495199 0.20816058 0.42836422 -0.13534267
-0.12453165 0.0480228 0.056604445 0.43525845 0.07281737 -0.06820942 -0.023546709 -0.0759722
0.35809326 -0.09876651 0.27849677 0.18125135 -0.10840648 -0.3721539 -0.06760569 -0.06854169
0.1985823 -0.13876645 -0.13900878 -0.40439713 -0.11079197 0.16331217 0.01570539 -0.3197668
0.028706247 -0.39001736 -0.2559516 0.07304125 0.25633425 -0.07142205 0.18215008 0.18940435
0.0073352377 -0.046279613 -0.15831593 -0.049545847 -0.29102343 0.05199948 -0.5984134 -0.19200845
-0.09483912 0.13751389 -0.08121762 -0.056357186 -0.70802146 -0.09223138 -0.0014846689 0.27079827
-0.08813163 -0.0052782893 -0.26393184 0.36729872 -0.15408896 -0.19166498 0.18854573 -0.119815685
-0.0121081285 0.12896347 0.0032090559 -0.3927574 -0.02106071 0.05780467 -0.42043024 0.26803407
-0.3117449 -0.13211879 0.2678062 0.056083277 0.12892944 0.05206941 0.0076418137 -0.027522156
-0.3198734 0.2506606 0.27370298 0.23780921 -0.08319117 -0.07420465 0.14447187 -0.19931562
-0.09870678 -0.354964 0.22430463 0.33105913 -0.10242556 -0.024856001 0.055994164 -0.110232264
-0.38243937 0.10464564 -0.053248823 -0.18117666 -0.11050913 -0.09293744 0.04499513 0.1311058
0.10265821 0.07611215 -0.6440473 -0.157359 0.026738232 -0.26248172 -0.008148904 -0.18236953
-0.017252063 -0.37183744 -0.40103805 -0.0923326 -0.08664287 0.19012308 0.36980852 -0.34087798
0.23563743 0.1177548 -0.1371489 0.14053272 0.1498485 -0.11619655 -0.30325896 -0.031192306
0.15994442 0.31221762 -0.13359632 0.08627403 0.0074778916 0.27506506 0.20498659 0.1108086
0.10369803 -0.0032670293 0.05750475 0.0827354 -0.27655655 0.12111715 0.048570924 0.24794924
0.2567382 0.41464376 0.15082888 -0.12151252 0.029326849 0.09364244 -0.03138263 -0.26585016
-0.014460493 0.05086238 -0.010487056 -0.31360286 -0.47046405 -0.038238734 -0.24711606 -0.13916506
0.38051236 -0.0077065625 0.16783656 -0.06409875 0.07810042 -0.1094527 -0.21836002 0.09477951
00000000: b1b6 acbc 43a4 97bd f8e4 c5be 83af c0bd
00000010: 6f2d 033f 2671 7cbc f924 c83a 6193 88bc
00000020: 0afe 5bbc de06 74be 1370 75bd d38c 033e
00000030: ae63 18bf da3b 9f3d be8e 2fbe 6d83 5bbe
00000040: a0b2 05bd f252 52bc cd02 403c 07b6 283c
00000050: a0a2 d0bd 72aa fbbd 3cdf 19bd f346 c2bc
00000060: 7b6d 593d df3f c23e 4eb4 203e 6568 f23d
00000070: 816d 15be 23c6 bebe 6feb 82bd af47 7bbb
00000080: f745 a83e 7c59 0b3e 16d9 463e 54c4 18be
00000090: 2582 7f3e 0c28 553e 8e52 db3e 4597 0abe
000000a0: 730a ffbd 8eb3 443d 10da 673d 32da de3e
000000b0: 4621 953d 61b1 8bbd 07e5 c0bc 5097 9bbd
000000c0: 0058 b73e 1946 cabd 2197 8e3e f499 393e
000000d0: 3704 debd f58a bebe da74 8abd 965f 8cbd
000000e0: 2959 4b3e cb18 0ebe 5158 0ebe 240d cfbe
000000f0: e6e6 e2bd 4e3b 273e 97a8 803c 79b8 a3be
00000100: 5d29 eb3c 5bb0 c7be 170c 83be a796 953d
00000110: 3e3e 833e b945 92bd 8d85 3a3e 37f3 413e
00000120: 6f5c f03b b18f 3dbd 921d 22be 96f0 4abd
00000130: 0601 95be 68fd 543d 9f31 19bf dd9d 44be
00000140: 033b c2bd 71d0 0c3e 6c55 a6bd cbd6 66bd
00000150: e540 35bf cee3 bcbd 3999 c2ba 12a6 8a3e
00000160: 5b7e b4bd 80f5 acbb 1322 87be 940e bc3e
00000170: 7fc9 1dbe d343 44be 2212 413e ed61 f5bd
00000180: 2c61 46bc 000f 043e 064f 523b 7f17 c9be
00000190: 8387 acbc 97c4 6c3d a242 d7be c33b 893e
000001a0: 079d 9fbe 264a 07be e51d 893e 94b7 653d
000001b0: 1406 043e bc46 553d 2e68 fa3b 2576 e1bc
000001c0: 72c6 a3be 9656 803e cc22 8c3e 4284 733e
000001d0: 2260 aabd 9cf8 97bd 6ff0 133e 6519 4cbe
000001e0: c826 cabd d7bd b5be 1db0 653e 9580 a93e
000001f0: 7ec4 d1bd d09e cbbc 235a 653d 74c1 e1bd
00000200: 18cf c3be 7450 d63d 701b 5abd 6086 39be
00000210: 9c52 e2bd fc55 bebd d04c 383d 9940 063e
00000220: 783e d23d b0e0 9b3d 49e0 24bf b822 21be
00000230: 230a db3c 0164 86be fb82 05bc 14bf 3abe
00000240: 3354 8dbc 7a61 bebe dc54 cdbe e018 bdbd
00000250: d171 b1bd a0af 423e 8b57 bd3e 8f87 aebe
00000260: f04a 713e 6e29 f13d c370 0cbe cfe7 0f3e
00000270: e371 193e 75f8 edbd c244 9bbe 0287 ffbc
00000280: 78c8 233e fdda 9f3e 79cd 08be 70b0 b03d
00000290: 1a09 f53b 54d5 8c3e 01e8 513e 9fef e23d
000002a0: a25f d43d a81b 56bb 1a8a 6b3d 2d71 a93d
000002b0: d298 8dbe 450c f83d 4ef2 463d 68e6 7d3e
000002c0: 3073 833e 304c d43e e372 1a3e 8edb f8bd
000002d0: dc3e f03c 9cc7 bf3d 138b 00bd 831d 88be
000002e0: b4eb 6cbc 1255 503d e7d1 2bbc 8e90 a0be
000002f0: aae0 f0be 38a0 1cbd fe0b 7dbe 4981 0ebe
00000300: 84d2 c23e 5587 fcbb 59dd 2b3e 3546 83bd
00000310: 1df3 9f3d bd28 e0bd c599 5fbe c21b c23d

rb2.shortcut.conv.bias f4 [20]
9.563848e-06 2.3085286e-05 1.4463822e-05 7.339643e-06 -4.875575e-06 2.4153325e-05 -4.175944e-05 4.4848007e-06
-6.3675834e-05 -4.116288e-05 -1.9733321e-05 -3.5874723e-06 -1.8344075e-05 -1.6847638e-05 7.563954e-06 8.0447035e-06
-2.8606182e-05 1.7676984e-05 3.6647552e-06 -6.030781e-05
00000000: 6a74 2037 46a7 c137 a4a9 7237 0e47 f636
00000010: df98 a3b6 df9c ca37 db26 2fb8 257c 9636
00000020: b489 85b8 4ea6 2cb8 fc88 a5b7 4ec0 70b6
00000030: 9ae1 99b7 0754 8db7 dfcd fd36 bdf7 0637
00000040: 4ff7 efb7 0949 9437 04f0 7536 05f3 7cb8

rb2.shortcut.bn.weight f4 [20]
0.95203584 0.7012117 0.9111198 0.5340964 0.68643683 0.6965475 0.5425206 0.77452284
0.8087768 0.849765 0.56593335 0.68255585 0.48386168 0.87141633 1.0811913 0.4816263
0.6967934 0.5314857 0.354376 0.73837477
00000000: 9fb8 733f 9c82 333f 263f 693f 8bba 083f
00000010: 53ba 2f3f f050 323f a1e2 0a3f 2147 463f
00000020: ff0b 4f3f 338a 593f 02e1 103f fbbb 2e3f
00000030: b8bc f73e 2415 5f3f 7a64 8a3f b997 f63e
00000040: 0d61 323f 720f 083f c570 b53e 2106 3d3f

rb2.shortcut.bn.bias f4 [20]
0.20224664 0.05076285 -0.18989317 0.0012454261 -0.078055136 -0.17010507 0.09012108 -0.23780406
0.22903869 -0.16082552 0.049683455 -0.13224834 -0.013342875 0.046876527 -0.01595101 0.173398
-0.02456952 -0.12312617 0.10126049 -0.27779648
00000000: be19 4f3e b5ec 4f3d 5b73 42be 913d a33a
00000010: 5fdb 9fbd 0630 2ebe 6791 b83d e882 73be
00000020: 1e89 6a3e 72af 24be e180 4b3d 1c6c 07be
00000030: 139c 5abc 9a01 403d b1ab 82bc 3f8f 313e
00000040: 0546 c9bc 9329 fcbd a961 cf3d 573b 8ebe

rb2.shortcut.bn.running_mean f4 [20]
-0.3407717 -0.86270344 -0.11507702 1.0146564 0.42781073 -0.696301 -0.5578104 -0.8422791
-0.68923515 -0.5363482 -0.16274536 0.108670816 -0.2056682 -0.73155123 -0.9255699 0.14242016
0.87627846 0.77214825 -0.8445725 0.0575383
00000000: a179 aebe 22da 5cbf 80ad ebbd 43e0 813f
00000010: 020a db3e c840 32bf aacc 0ebf 9a9f 57bf
00000020: b771 30bf 1e4e 09bf b8a6 26be ce8e de3d
00000030: af9a 52be f146 3bbf 26f2 6cbf 97d6 113e
00000040: c953 603f 82ab 453f e735 58bf 48ad 6b3d

rb2.shortcut.bn.running_var f4 [20]
0.47559834 0.42507297 0.36162287 0.5222649 0.4171731 0.4575984 0.37049562 0.5489092
0.39844778 0.30316326 0.46329555 0.28561994 0.24573575 0.6580632 0.4580613 0.3679619
0.30024454 0.40178606 0.52615666 0.16767699
00000000: a081 f33e 2aa3 d93e a226 b93e 27b3 053f
00000010: b697 d53e 564a ea3e 9ab1 bd3e 5085 0c3f
00000020: 5901 cc3e 3738 9b3e 1335 ed3e c73c 923e
00000030: 27a2 7b3e d476 283f 0387 ea3e 8165 bc3e
00000040: a7b9 993e e7b6 cd3e 34b2 063f 84b3 2b3e

res1_sc1.conv.weight f4 [20, 3, 1, 1]
-0.54734343 0.08936966 0.33487135 -0.24426101 0.5610386 -0.23647372 0.012112016 -0.3065809
-0.39367107 0.38568607 -0.34143767 -0.34074745 0.4789597 -0.1254175 0.22258276 -0.54439604
-0.37058577 0.32785115 -0.17822182 0.37193066 0.51215315 0.3619144 -0.56232005 -0.32783046
0.1694406 0.5372698 -0.17634827 0.26825073 -0.25511324 -0.3703255 -0.09803382 -0.2512759
-0.38585973 0.1482695 -0.08575753 -0.418461 -0.35418808 -0.20132259 -0.055782307 0.003870934
-0.15115735 -0.4812994 -0.22797227 0.23339304 0.35525727 0.38097918 0.16090775 -0.26152164
0.09195466 -0.33814344 0.058158744 0.06039913 -0.34676582 0.05799529 0.24570052 0.30757964
-0.091391936 -0.5207469 0.1476817 0.072739564
00000000: b31e 0cbf 7107 b73d 4274 ab3e 8f1f 7abe
00000010: 3aa0 0f3f 2b26 72be 7a71 463c 2cf8 9cbe
00000020: 418f c9be a578 c53e ebd0 aebe 7376 aebe
00000030: 353a f53e 726d 00be bcec 633e 8a5d 0bbf
00000040: 6bbd bdbe 1bdc a73e c87f 36be b26d be3e
00000050: 781c 033f d84c b93e 35f4 0fbf 65d9 a7be
00000060: d681 2d3e 838a 093f a494 34be 2958 893e
00000070: 349e 82be 4e9b bdbe f5c5 c8bd 3ca7 80be
00000080: 688f c5be f6d3 173e a5a1 afbd 8540 d6be
00000090: 2458 b5be 8227 4ebe fd7b 64bd 7faf 7d3b
000000a0: fec8 1abe e06c f6be 9071 69be 96fe 6e3e
000000b0: 48e4 b53e b40f c33e 00c5 243e 2ae6 85be
000000c0: ba52 bc3d 2321 adbe dd37 6e3d 1465 773d
000000d0: 4a8b b1be 788c 6d3d eb98 7b3e 147b 9d3e
000000e0: b22b bbbd ab4f 05bf df39 173e 7bf8 943d

res1_sc1.conv.bias f4 [20]
-9.761579e-05 -1.6096748e-05 -3.183664e-05 4.2558746e-05 3.890879e-05 1.0183431e-05 1.1806151e-06 7.560586e-05
2.5306534e-05 8.2582665e-06 5.069334e-05 1.5927239e-05 -1.0535127e-05 -6.241989e-05 1.5285521e-05 -6.2707218e-06
0.00013538255 5.1618998e-05 -2.339272e-05 0.00010780716
00000000: 14b7 ccb8 8107 87b7 5588 05b8 1b81 3238
00000010: ff31 2338 81d9 2a37 a075 9e35 968e 9e38
00000020: 5e49 d437 fc8c 0a37 8f9f 5438 7c9b 8537
00000030: 07c0 30b7 6ce7 82b8 6839 8037 1769 d2b6
00000040: 7af5 0d39 7a81 5838 7c3b c4b7 8716 e238

res1_sc1.bn.weight f4 [20]
0.8197419 0.91354835 0.6833889 0.5676888 0.51796234 0.61698693 0.552264 0.599542
0.61990577 0.65220827 0.5938506 0.5824523 0.47628564 0.5987145 0.65446687 0.38453117
0.5474617 0.49054956 0.43113166 0.8131423
00000000: 9bda 513f 4ede 693f 93f2 2e3f 0e54 113f
00000010: 2e99 043f dbf2 1d3f 2c61 0d3f 967b 193f
00000020: 25b2 1e3f 1ff7 263f 9806 183f 981b 153f
00000030: b6db f33e 5a45 193f 248b 273f 45e1 c43e
00000040: 7326 0c3f 5029 fb3e 4abd dc3e 182a 503f

res1_sc1.bn.bias f4 [20]
0.20224664 0.05076285 -0.18989317 0.0012454261 -0.078055136 -0.17010507 0.09012108 -0.23780406
0.22903869 -0.16082552 0.049683455 -0.13224834 -0.013342875 0.046876527 -0.01595101 0.173398
-0.02456952 -0.12312617 0.10126049 -0.27779648
00000000: be19 4f3e b5ec 4f3d 5b73 42be 913d a33a
00000010: 5fdb 9fbd 0630 2ebe 6791 b83d e882 73be
00000020: 1e89 6a3e 72af 24be e180 4b3d 1c6c 07be
00000030: 139c 5abc 9a01 403d b1ab 82bc 3f8f 313e
00000040: 0546 c9bc 9329 fcbd a961 cf3d 573b 8ebe

res1_sc1.bn.running_mean f4 [20]
-0.030063393 0.009036454 0.047707852 0.039677054 -0.023045238 -0.015608629 -0.059618104 0.04533758
-0.00035335356 0.041266903 0.046488475 0.042245194 0.015126368 0.05174673 -0.03953123 0.017035505
0.003478956 0.004035215 -0.0027135706 -0.006087209
00000000: 8147 f6bc a30d 143c 4f69 433d 6884 223d
00000010: 5ec9 bcbc 56bb 7fbc 1d32 74bd e6b3 393d
00000020: 5042 b9b9 7c07 293d b36a 3e3d 4c09 2d3d
00000030: 96d4 773c 61f4 533d 80eb 21bd 0b8e 8b3c
00000040: 32ff 633b d639 843b 29d6 31bb 3677 c7bb

res1_sc1.bn.running_var f4 [20]
0.020913748 0.006313421 0.12414411 0.036471326 0.08346162 0.10224479 0.13910058 0.086080715
0.0757139 0.04300809 0.1381656 0.0401657 0.09432137 0.10571042 0.041917108 0.02839417
0.010443858 0.014637641 0.05603659 0.029623823
00000000: 4f53 ab3c d0e0 ce3b 443f fe3d f562 153d
00000010: eded aa3d b765 d13d 6270 0e3e 164b b03d
00000020: e40f 9b3d 4029 303d 487b 0d3e ca84 243d
00000030: 902b c13d b47e d83d 46b1 2b3d e49a e83c
00000040: b71c 2b3c b7d2 6f3c a086 653d a9ad f23c
