models/dense_max/epoch_0027.pth (torch, 645162 bytes, 174 tensors)

rb1.conv1.weight f4 [10, 3, 3, 3]
0	0xbda52f11	-0.08065618
1	0x3da5017d	0.080569245
2	0xbd9af560	-0.07566333
3	0xbe7005be	-0.2343969
4	0x3e8b5bd8	0.2721851
5	0x3e396e95	0.1810859
6	0xbe542b59	-0.20719661
7	0x3e3e945f	0.18611287
8	0xbdfc5154	-0.123201996
9	0xbe377597	-0.1791595
10	0x3c345b3a	0.011008078
11	0xbd2b9ec1	-0.041899446
12	0xbe9e42e9	-0.30910423
13	0x3e92efaa	0.28698474
14	0x3e2b5412	0.16731289
15	0xbc88efae	-0.01671585
16	0x3e8cfc5a	0.2753628
17	0xbe68e2b1	-0.22742726
18	0xbcb72504	-0.022356518
19	0x3ae7eda8	0.0017694728
20	0xbdbc2289	-0.091862746
21	0xbe660575	-0.22463019
22	0x3d55ffc8	0.052245885
23	0x3c22fd79	0.009948128
24	0x3e03ebec	0.12882966
25	0x3d8bd23d	0.06827209
26	0x3e10e431	0.14149548
27	0x3d741876	0.05959364
28	0x3ca49da9	0.02009471
29	0x3e25d1d7	0.16193329
30	0x3d6b4b70	0.05744499
31	0x3e11e893	0.14248876
32	0xbeb7722e	-0.358293
33	0xbd5c87bf	-0.053840395
34	0x3d1ebd4f	0.038754757
35	0xbd966f94	-0.073455006
36	0xbd115de9	-0.03548995
37	0xbccf60e9	-0.025314765
38	0xbc0dc20c	-0.008652221
39	0xbd23fdfe	-0.040037148
40	0x3edb8918	0.42878032
41	0xbe6c7721	-0.23092319
42	0xbd6851c4	-0.056718603
43	0x3dac8cd6	0.084253
44	0xbe045e51	-0.12926604
45	0xbe0bc32b	-0.1364867
46	0xbe33550e	-0.17512915
47	0x3df4eed0	0.11959612
48	0x3c2265af	0.009911939
49	0x3eb4b2ee	0.35292763
50	0xbe8ac81f	-0.27105805
51	0xbb782821	-0.0037865716
52	0x3dc1756f	0.09446227
53	0x3d39b90c	0.04534249
54	0x3cf99d0f	0.0304704
55	0x3e8ca7b3	0.27471694
56	0x3e3e0f70	0.18560576
57	0xbe078fb4	-0.13238412
58	0xbd97cd21	-0.07412172
59	0x3dbf333d	0.09335945
60	0xbd74ca7a	-0.05976341
61	0xbe65a676	-0.22426781
62	0x3a320a94	0.00067917374
63	0x3e7abecc	0.24486846
64	0x3e791e98	0.24328077
65	0x3ea1393c	0.3148898
66	0x3b8c31e7	0.0042784098
67	0xbe2f99a4	-0.17148453
68	0xbde95cc7	-0.11394649
69	0xbddfeaa9	-0.1093343
70	0xbe8992b8	-0.2686975
71	0xbe39c3bd	-0.18141074
72	0x3d6ced36	0.05784341
73	0x3e2e5b77	0.17027079
74	0x3d704af9	0.05866525
75	0x390c66cb	0.00013389734
76	0xbd34a03e	-0.04409813
77	0xbdc03ed0	-0.093869805
78	0x3dd1d358	0.10245389
79	0xbe528f2e	-0.20562431
80	0xbdfff952	-0.12498726
81	0xbe440731	-0.19143368
82	0x3d0e80b5	0.034790713
83	0xbe256666	-0.16152343
84	0x3d94867d	0.07252214
85	0xbe9c237e	-0.30495828
86	0xbe29af2a	-0.16570726
87	0x3d41e9ea	0.04734222
88	0x3dd49978	0.10380834
89	0x3e2a5813	0.1663516
90	0xbdd6c6b4	-0.10487118
91	0xbe1d39bc	-0.15354055
92	0xbe23e8d0	-0.1600678
93	0x3e5aef98	0.2138046
94	0xbe892217	-0.2678382
95	0xbdf9099a	-0.121600345
96	0x3e8be929	0.27326325
97	0x3ce438a5	0.027859041
98	0x3ce4738b	0.027887126
99	0xbd2fbdee	-0.04290574
100	0x3cb2598d	0.021771217
101	0xbe0e9a16	-0.13925967
102	0x3c3cd32b	0.011524956
103	0xbe31bdd6	-0.17357573
104	0xbe006804	-0.12539679
105	0x3e4022d4	0.18763286
106	0x3c83a39a	0.016069222
107	0x3e6b5691	0.22982241
108	0xbe78063c	-0.24221128
109	0xbe68ff59	-0.22753657
110	0x3e471c07	0.19444285
111	0xbdb4e8b9	-0.08833451
112	0xbe2afe76	-0.16698632
113	0x3e181583	0.14851956
114	0xbdeb508f	-0.11489975
115	0xbbc80dab	-0.006105145
116	0x3e6ad36c	0.22932214
117	0x3e7272af	0.23676561
118	0xbe5db977	-0.2165278
119	0xbdb07d9f	-0.0861771
120	0xbd9cbccb	-0.07653197
121	0xbc29788a	-0.01034368
122	0x3e2c48da	0.16824666
123	0x3dc24c95	0.09487263
124	0x3dfb2c05	0.122642554
125	0x3e024252	0.12720612
126	0x3e876c53	0.26449832
127	0x3da9fef9	0.08300585
128	0xbd837ef8	-0.06420702
129	0x3e608dbe	0.2192907
130	0x3cf07eaf	0.029357282
131	0xbe8e8410	-0.2783513
132	0x3e166613	0.14687376
133	0x3c9ff4fb	0.019525995
134	0xbe3b6a5b	-0.1830229
135	0xbe431bf9	-0.1905364
136	0xbe18add6	-0.14910063
137	0x3e01e3a4	0.12684494
138	0x3ca0b9b1	0.019619795
139	0xbe161546	-0.14656553
140	0xb9a87012	-0.00032126956
141	0x3df6717a	0.12033363
142	0xbdaf3771	-0.085554965
143	0x3ce1c3c4	0.027559169
144	0x3d927f3d	0.07153175
145	0x3e405a5e	0.18784472
146	0x3e6264dd	0.22108789
147	0xbd39d37c	-0.045367703
148	0xbee2d733	-0.4430481
149	0xbdfa564e	-0.122234926
150	0x3e34d905	0.17660911
151	0xbdf32153	-0.118715905
152	0xbea42883	-0.32062158
153	0x3c7d51a9	0.015461364
154	0xbda7f8e4	-0.08201769
155	0x3e69494c	0.22781867
156	0xbdb15d84	-0.08660415
157	0xbe2c7772	-0.1684244
158	0x3ba2578d	0.0049542845
159	0xbe6c3d16	-0.23070177
160	0xbeaa18d8	-0.3322208
161	0x3cc561d5	0.024094502
162	0xbcb0d9fe	-0.021588322
163	0xbd1b4705	-0.037909526
164	0x3dd0760f	0.10178768
165	0x3dabf96b	0.08397182
166	0x3e4ce750	0.20010114
167	0xbdf279bd	-0.11839626
168	0xbccf8ba4	-0.02533514
169	0xbd15f158	-0.036607116
170	0x3c9f0642	0.019412164
171	0x3d8581c0	0.065188885
172	0x3cda5950	0.026653916
173	0x3d8c382b	0.06846651
174	0x3e09173d	0.13387771
175	0x3e970338	0.29494643
176	0xbd808400	-0.06275177
177	0x3ce810e5	0.028328368
178	0x3d23fad4	0.04003413
179	0xbe3c652f	-0.18397973
180	0xbe834b7e	-0.25643533
181	0xbe19746c	-0.14985818
182	0xbdcc2441	-0.099678524
183	0xbb97eee2	-0.0046366313
184	0x3deca12a	0.11554177
185	0x3e16835c	0.14698547
186	0xbd9eddaa	-0.07757123
187	0x3ec972dc	0.39345443
188	0x3e8ada7e	0.2711982
189	0x3c89e5be	0.016833182
190	0xbe0d8974	-0.13821965
191	0x3e4772df	0.19477414
192	0xbe85bf25	-0.26122394
193	0xbd9190cc	-0.07107696
194	0x3d924bf7	0.071433954
195	0x3e651867	0.2237259
196	0xbd45536d	-0.048175264
197	0x3e4c0f3a	0.19927683
198	0x3e01fb1f	0.12693451
199	0xbcaafec3	-0.020873433
200	0x3e4b1f0e	0.19836065
201	0xbe5a7f8b	-0.21337716
202	0xbec6d86b	-0.3883699
203	0xbbf3f7df	-0.00744532
204	0x3e1d3ca4	0.15355164
205	0x3e093ba7	0.13401662
206	0xbe825f74	-0.2546345
207	0xbdf05307	-0.11734586
208	0xbdb6166a	-0.08890994
209	0x3d8cb2b8	0.068700254
210	0xbda30418	-0.07959765
211	0xbe1a68c1	-0.15079023
212	0x3ebcfd94	0.36912215
213	0x3e87eac9	0.26546314
214	0xbdb63d45	-0.08898405
215	0xbcfb5a12	-0.030682597
216	0xbe906fd1	-0.2821031
217	0x3dd285a1	0.10279394
218	0xbbcd29b5	-0.0062610754
219	0xbd0b77a3	-0.03404964
220	0x3e423019	0.1896366
221	0x3e967948	0.29389405
222	0xbc7c006b	-0.015380959
223	0x3e16e662	0.14736322
224	0xbd6c0d09	-0.05762962
225	0xbda2e1ab	-0.07953199
226	0xbe113cfe	-0.14183423
227	0xbe193592	-0.14961842
228	0x3c57716c	0.0131496005
229	0x3dfb136d	0.122595645
230	0xbd8638cd	-0.06553803
231	0x3e76e634	0.24111253
232	0xbe961071	-0.2930942
233	0xbe55e236	-0.20887074
234	0x3d87fba8	0.066397965
235	0x3dc8760d	0.097881414
236	0xbdd9215f	-0.10602068
237	0x3de8347e	0.11338137
238	0x3e4eadd8	0.20183504
239	0x3cbed096	0.02329282
240	0x3d1934ab	0.037403744
241	0x3c8961cf	0.016770272
242	0xbe6e7054	-0.23285037
243	0x3e827c30	0.25485373
244	0x3ee8e9a7	0.45490763
245	0x3e534951	0.20633437
246	0x3e210be0	0.15727186
247	0x3e9b67fe	0.30352777
248	0x3d5dacf6	0.054120027
249	0xbda1ff69	-0.07910044
250	0xbe3bca58	-0.18338907
251	0xbeaf160b	-0.34196505
252	0x3e375e2f	0.17907022
253	0x3e9cccad	0.30624905
254	0x3d19efbe	0.03758215
255	0xbd7dc0fe	-0.06195163

rb1.conv1.bias f4 [10]
0	0x38859ff2	6.371726e-05
1	0x3910e811	0.00013819362
2	0xb8172748	-3.603779e-05
3	0xb7594fae	-1.295276e-05
4	0x39144b10	0.00014142343
5	0x38bf3a87	9.118491e-05
6	0xb8527a29	-5.0181672e-05
7	0xb88c8616	-6.700696e-05
8	0x38576178	5.135077e-05
9	0x362ccca9	2.5749125e-06

rb1.bn1.weight f4 [10]
0	0x3f4ba5bd	0.7954977
1	0x3f9ea384	1.2393651
2	0x3f5a74ba	0.8533436
3	0x3f5e51da	0.86843646
4	0x3f12eefb	0.57395905
5	0x3f4cf247	0.80057186
6	0x3f2c528c	0.67313457
7	0x3f7d7bf3	0.99017256
8	0x3f53c93a	0.8272892
9	0x3f2bf2e2	0.67167485

rb1.bn1.bias f4 [10]
0	0x3ea6233b	0.32448754
1	0x3f90cf57	1.1313275
2	0x3c01175c	0.007879104
3	0x3d1a6d74	0.03770204
4	0x3d497551	0.049184147
5	0xbcb541df	-0.022126136
6	0xbb562d16	-0.0032680682
7	0x3f45c410	0.7725229
8	0x3f0c38b3	0.54774016
9	0x3e027664	0.12740475

rb1.bn1.running_mean f4 [10]
0	0xbc5540f4	-0.013015974
1	0xbc1e6ad8	-0.009669028
2	0x3c592274	0.013252843
3	0x3d2163ab	0.03940169
4	0xbd12d379	-0.035846207
5	0x3dff8b3a	0.12477727
6	0xbda715ec	-0.08158478
7	0xbb5f0a34	-0.003403318
8	0xbc86f9b3	-0.016476488
9	0xbd451384	-0.048114315

rb1.bn1.running_var f4 [10]
0	0x3d91a5ec	0.07111725
1	0x3d123c19	0.035701845
2	0x3e39876a	0.18118063
3	0x3e5db367	0.21650468
4	0x3d2780c9	0.040894303
5	0x3ecd105d	0.40051547
6	0x3e495e01	0.19664766
7	0x3d546d65	0.05186214
8	0x3d11104d	0.035415936
9	0x3ec7d08c	0.39026296

rb1.conv2.weight f4 [10, 10, 3, 3]
0	0xbcb492f4	-0.022042729
1	0xbe414753	-0.18874864
2	0xb9ad342a	-0.00033035997
3	0x3c9c93d9	0.019113468
4	0xbe0eaeb5	-0.13933833
5	0xbd51e2bd	-0.051241625
6	0x3c7adbde	0.0153112095
7	0xbd44df24	-0.048064366
8	0xbcb9abdb	-0.022664955
9	0x3c5a7659	0.01333388
10	0x3e33615b	0.17517607
11	0xbe8532b3	-0.26015243
12	0xbe865e4f	-0.26243827
13	0xbdb78f8e	-0.08962928
14	0x3e167d3b	0.14696209
15	0x3e14b017	0.14520298
16	0xbe573b69	-0.21018757
17	0x3c925c82	0.017866377
18	0xbe00c6b2	-0.12575796
19	0x3dbc6ea7	0.09200793
20	0xbddd8a12	-0.108173504
21	0x3c1f3a20	0.009718448
22	0xbe4c036f	-0.19923185
23	0xbe2cfc0b	-0.16893022
24	0x3c99ef66	0.018790912
25	0x3ddf4215	0.10901276
26	0x3e1e379c	0.15450901
27	0x3e191d1f	0.14952515
28	0x3e211243	0.15729623
29	0x3e00bed7	0.125728
30	0x3dd3c687	0.103406005
31	0x3de4f152	0.11178841
32	0x3ccd834f	0.025087027
33	0xbe01103c	-0.12603849
34	0xbd90760c	-0.07053766
35	0xbe7147e8	-0.23562586
36	0xbe092102	-0.13391498
37	0x3d4e22f7	0.050326314
38	0xbd20cb2f	-0.03925627
39	0xbb575bd1	-0.0032861123
40	0xbdc2b6bc	-0.0950751
41	0x3cb33052	0.021873627
42	0xbd79eb93	-0.061015677
43	0xbc2027a4	-0.009775076
44	0xbd9a91de	-0.07547353
45	0x3dad8223	0.08472087
46	0x3e725c4e	0.23668024
47	0x3e2d8a92	0.16947392
48	0xbccd4980	-0.025059462
49	0x3b84ac50	0.0040488616
50	0xbd14ed17	-0.03635892
51	0xbd4da0e8	-0.05020228
52	0x3d5c3515	0.05376156
53	0x3e1f6918	0.15567434
54	0xbd80e378	-0.06293386
55	0xbd1f14f4	-0.03883834
56	0xbdac5bb9	-0.08415932
57	0xbdbb3e5a	-0.09142752
58	0xbe6edc7f	-0.233263
59	0xbda2f290	-0.079564214
60	0x3dc8dfa5	0.09808282
61	0x3d911d8f	0.07085716
62	0xbd7d359f	-0.061818715
63	0xbd16c79b	-0.036811452
64	0x3de60c7c	0.1123285
65	0x3e8fff78	0.28124595
66	0xbd62ea1e	-0.055399053
67	0xbe82697d	-0.25471106
68	0xbec87e6e	-0.39158958
69	0x3c7cbbf4	0.015425671
70	0x3e2a6ec2	0.16643813
71	0x3dd5299b	0.10408326
72	0xbd39ff61	-0.045409564
73	0xbe2cc9cd	-0.16873856
74	0xbddbc8ca	-0.10731657
75	0x3df7ac71	0.120934375
76	0x3d68b8ba	0.056816794
77	0x3dd25149	0.1026941
78	0xbe4ce7e5	-0.20010336
79	0xbc89b18a	-0.01680829
80	0xbd49498b	-0.0491424
81	0xbea41f44	-0.32055104
82	0xbea286ab	-0.31743369
83	0xbded9421	-0.11600519
84	0xbe34bfa5	-0.17651232
85	0xbd465bb9	-0.048427317
86	0xbd509702	-0.050925262
87	0xbe0e2fda	-0.13885441
88	0xbda838c1	-0.0821395
89	0x3d605395	0.05476721
90	0xbc64bf5c	-0.013961639
91	0xbdf85ec6	-0.121274516
92	0x3dff652b	0.12470468
93	0x3c08f354	0.008358795
94	0x3d87178a	0.065962866
95	0x3ea0ad2a	0.31382114
96	0xbd4b662b	-0.04965798
97	0x3e245e60	0.16051626
98	0xbdbb97c4	-0.09159806
99	0x3dda1ea6	0.10650377
100	0x3dae9802	0.08525087
101	0xbe2a9831	-0.16659619
102	0x3e234e22	0.15947774
103	0xbeed9b4c	-0.46407545
104	0x3d86dac4	0.06584695
105	0xbea1425b	-0.31495938
106	0x3e01981e	0.12655684
107	0x3e156393	0.14588766
108	0x3c8f544c	0.01749625
109	0x3e0820fe	0.13293836
110	0xbdd4c6f1	-0.103895076
111	0x3b243e87	0.0025061683
112	0xbe2b75d1	-0.16744162
113	0xbe192500	-0.1495552
114	0x3cd04a4d	0.025426054
115	0xbdc105c9	-0.094249316
116	0xbd5c0522	-0.053715833
117	0xbe663442	-0.22480872
118	0x3dd3781a	0.10325642
119	0x3d41837b	0.04724453
120	0x3d8d6925	0.0690482
121	0xbd44ea58	-0.04807505
122	0xbdceae93	-0.10091891
123	0x3bb1e782	0.005429209
124	0xbe4a4932	-0.19754484
125	0xbc8df0ff	-0.01732683
126	0x3e3bfe49	0.18358721
127	0x3e5fca19	0.21854438
128	0x3d301aee	0.042994432
129	0x3d966327	0.073431306
130	0xbce25a33	-0.027630901
131	0xbdb4b7b6	-0.088241026
132	0xbc910d5f	-0.017706571
133	0xbe128706	-0.1430932
134	0xbe24520f	-0.16046928
135	0xbdac5eb2	-0.08416499
136	0xbdb16762	-0.08662297
137	0xbdbbbb01	-0.091665275
138	0xbd501246	-0.050798677
139	0xbd7f1744	-0.062278047
140	0xbe02e1ea	-0.12781492
141	0xbd9af9f8	-0.07567209
142	0xbe37f13c	-0.17963117
143	0xbd8271be	-0.06369351
144	0x3dd123d0	0.10211909
145	0x3e2256f0	0.15853477
146	0x3dd68b2e	0.10475765
147	0x3e1dff64	0.15429455
148	0x3e338cc1	0.17534162
149	0x3df784dd	0.120858885
150	0x3e18019f	0.14844368
151	0x3e3b666d	0.18300791
152	0x3cdcd475	0.026956776
153	0x3db5cdd3	0.088771485
154	0xbe8f5953	-0.27997836
155	0xbbd6c948	-0.0065547563
156	0xbd47ad02	-0.048748977
157	0xbe84be52	-0.25926453
158	0x3e4c7cf7	0.19969545
159	0xbd2f0da7	-0.04273763
160	0x3e860cdc	0.26181686
161	0xbc197d5c	-0.009368267
162	0x3dd7ce3e	0.105373845
163	0xbbe0d5f9	-0.006861445
164	0xbe5a1c46	-0.21299848
165	0x3cf874fa	0.030329216
166	0xbddbae64	-0.10726622
167	0x3e1b5f82	0.15173152
168	0xbc678544	-0.014130894
169	0x3e0ec573	0.13942508
170	0xbd06f065	-0.0329441
171	0xbcf1724d	-0.029473448
172	0xbb98adfb	-0.004659412
173	0x3cb35885	0.021892795
174	0x3d5e9a3c	0.054346308
175	0xbcdde92e	-0.027088728
176	0x3d21bbed	0.03948586
177	0xbd88df39	-0.06683201
178	0x3e1839c4	0.14865786
179	0x3d0ee958	0.034890503
180	0x3ccdb112	0.025108848
181	0xbea35027	-0.3189709
182	0xbd8e2719	-0.06941051
183	0x3c7c0ee7	0.015384412
184	0xbd8edb67	-0.069754414
185	0xbcb806ad	-0.02246412
186	0x3da9cda0	0.08291173
187	0x3d8967d3	0.06709256
188	0x3d8715ed	0.06595979
189	0xbd88b2b8	-0.06674713
190	0xbe0e3f8e	-0.13891432
191	0x3c4e2fe3	0.012584659
192	0xbd87fd69	-0.06640131
193	0xbe1d035f	-0.15333317
194	0xbd0bdc69	-0.034145746
195	0xbc16d682	-0.009206416
196	0x3e14465e	0.14479968
197	0x3e1d653a	0.15370646
198	0x3e86fdcb	0.26365504
199	0x3d482077	0.048859086
200	0x3d2c0251	0.041994397
201	0x3eb7b598	0.35880733
202	0x3d7ff862	0.062492736
203	0xbe24012e	-0.16016075
204	0x3db116f6	0.086469576
205	0xbde0ce4c	-0.10976848
206	0xbd47a245	-0.048738737
207	0x3dbf1755	0.09330622
208	0x3d4c7329	0.049914513
209	0xbb1f4fa1	-0.0024308937
210	0x3be10824	0.0068674255
211	0x3d31b097	0.0433813
212	0xba21ca97	-0.0006171851
213	0x3e8cbff0	0.27490187
214	0xbc8b50b2	-0.017006252
215	0x3cc2ea40	0.02379334
216	0x3dd8092e	0.10548626
217	0x3df87100	0.12130928
218	0x3cf59fd2	0.029983435
219	0x3e78987f	0.24276923
220	0x3d9e9f48	0.07745224
221	0x3d132df5	0.0359325
222	0x3dbfc74a	0.09364183
223	0x3d4c9280	0.0499444
224	0x3bd62e83	0.0065363063
225	0x3e581714	0.21102554
226	0x3e63e327	0.2225462
227	0x3e30863a	0.17238703
228	0x3e3284b8	0.1743344
229	0x3db479be	0.08812283
230	0x3d222e64	0.039595023
231	0x3d138f8a	0.03602556
232	0x3d13f7f0	0.036125124
233	0xbde2946f	-0.11063468
234	0x3c8c7277	0.017144425
235	0xbd35df6a	-0.044402517
236	0xbdece558	-0.11567181
237	0x3c9f18e8	0.019421056
238	0xbd35881a	-0.04431925
239	0xbde0b8c9	-0.10972745
240	0x3cca1431	0.024667831
241	0xbc0f2fec	-0.008739453
242	0xbdf05ed4	-0.11736837
243	0x3e2bf7b8	0.16793716
244	0x3dddeb6f	0.10835921
245	0xbbb6c265	-0.005577373
246	0x3d9b8f1e	0.07595657
247	0x3da9e6a6	0.08295946
248	0xbc8504b0	-0.016237587
249	0xbde9309c	-0.11386225
250	0x3cb54306	0.022126686
251	0xbd6a6a59	-0.057230327
252	0x3e909039	0.28235033
253	0x3e94a191	0.29029515
254	0xbd842ec4	-0.06454232
255	0x3e49fa10	0.19724298

rb1.conv2.bias f4 [10]
0	0xb82c1493	-4.1027157e-05
1	0x37086bcc	8.13133e-06
2	0x385a5732	5.2056457e-05
3	0x34d1f398	3.910652e-07
4	0xb7dc2eb8	-2.6247799e-05
5	0xb8923342	-6.97137e-05
6	0xb76cdfb0	-1.41187775e-05
7	0xb72eb7d6	-1.0414011e-05
8	0x38ba8f9b	8.89592e-05
9	0xb7b963c7	-2.2100181e-05

rb1.bn2.weight f4 [10]
0	0x3f853ecb	1.0409788
1	0x3f91658b	1.1359113
2	0x3f4eda37	0.8080172
3	0x3f8d9b30	1.1062984
4	0x3f3a4a89	0.7276998
5	0x3f897b33	1.0740722
6	0x3fa9df66	1.3271301
7	0x3f88a757	1.0676068
8	0x3f8e4746	1.1115501
9	0x3f5b839a	0.85747683

rb1.bn2.bias f4 [10]
0	0x3d70d0ec	0.058792993
1	0xbd8a8744	-0.06764081
2	0x3e920874	0.28522074
3	0xbcd2d3ba	-0.025735725
4	0x3e829429	0.25503662
5	0x3dc53184	0.09628585
6	0xbc4f4bdd	-0.012652365
7	0x3dd7b7f6	0.10533135
8	0x3d75b540	0.059987307
9	0x3e8f5cca	0.2800048

rb1.bn2.running_mean f4 [10]
0	0xbfa1b977	-1.2634724
1	0xbe91a528	-0.28446317
2	0x3f477815	0.77917606
3	0xbb8bacd5	-0.0042625465
4	0xbf19359c	-0.59847426
5	0xbe3ccfd0	-0.18438649
6	0xbf20112f	-0.6252622
7	0xbe9ab8ae	-0.30219024
8	0x3dac4176	0.08410923
9	0x3fc8b823	1.5681194

rb1.bn2.running_var f4 [10]
0	0x3fc40c02	1.5316164
1	0x3fa1cdcd	1.264093
2	0x3f72ff51	0.9492083
3	0x3fc33461	1.525036
4	0x3f60ff87	0.87889904
5	0x3fd04d49	1.6273586
6	0x40022089	2.0332358
7	0x3fccb8fb	1.5993952
8	0x3fef7221	1.8706704
9	0x3fd3939f	1.6529425

rb1.shortcut.conv.weight f4 [10, 3, 1, 1]
0	0x3ee64643	0.4497548
1	0x3c481657	0.0122123575
2	0x3ead4c74	0.33847392
3	0xbea81b4c	-0.32833326
4	0xbf0c9cc7	-0.54926723
5	0xbebd7ff2	-0.37011677
6	0x3ebcdb42	0.3688603
7	0xbeb5f80f	-0.35540816
8	0x3dd9f18f	0.10641777
9	0xbef195fc	-0.47184741
10	0xbf335ed0	-0.7006655
11	0x3e30a9ee	0.17252323
12	0xbdd501c4	-0.104007274
13	0xbe49a946	-0.19693479
14	0x3f14057e	0.5782088
15	0x3ebf64d2	0.37381607
16	0x3e10cd82	0.14140895
17	0x3ef73bd2	0.48287827
18	0xbebb7fb1	-0.36620858
19	0xbeae61dc	-0.34059036
20	0xbea5e689	-0.32402447
21	0xbe919cc2	-0.2843991
22	0xbf33a144	-0.70167947
23	0x3e87325c	0.2640561
24	0xbe99c363	-0.3003188
25	0xbf05f050	-0.5231981
26	0xbd8c0ee7	-0.0683878
27	0xbe914b3c	-0.28377712
28	0x3d6b250e	0.057408385
29	0xbf15ab3b	-0.584644

rb1.shortcut.conv.bias f4 [10]
0	0x3893d49a	7.049106e-05
1	0x36a3525a	4.8673655e-06
2	0x38b4d53f	8.622789e-05
3	0x39564713	0.00020435108
4	0xb8d122d3	-9.972383e-05
5	0x38944666	7.070303e-05
6	0x3899f13b	7.340541e-05
7	0x391a6d26	0.00014727245
8	0xb88bec07	-6.672e-05
9	0x38f83aa5	0.00011836485

rb1.shortcut.bn.weight f4 [10]
0	0x3f79025f	0.97269243
1	0x3f6a2917	0.9146895
2	0x3f80cfa6	1.0063369
3	0x3f646691	0.89219004
4	0x3f91e2a2	1.1397288
5	0x3f6f7dc1	0.9355126
6	0x3f140d3a	0.5783268
7	0x3f2e76a5	0.6814979
8	0x3f65240c	0.8950813
9	0x3f67a093	0.9047939

rb1.shortcut.bn.bias f4 [10]
0	0x3d70d0ec	0.058792993
1	0xbd8a8744	-0.06764081
2	0x3e920874	0.28522074
3	0xbcd2d3ba	-0.025735725
4	0x3e829429	0.25503662
5	0x3dc53184	0.09628585
6	0xbc4f4bdd	-0.012652365
7	0x3dd7b7f6	0.10533135
8	0x3d75b540	0.059987307
9	0x3e8f5cca	0.2800048

rb1.shortcut.bn.running_mean f4 [10]
0	0xbd8f28f4	-0.06990233
1	0x3dd2b519	0.10288448
2	0xbc299721	-0.010350973
3	0x3d418d1e	0.04725372
4	0xbd753285	-0.059862632
5	0xbdc0233d	-0.09381721
6	0x3dae31af	0.0850557
7	0x3ccd82d5	0.0250868
8	0x3d714403	0.05890275
9	0x3db85c24	0.090019494

rb1.shortcut.bn.running_var f4 [10]
0	0x3e12bf20	0.14330721
1	0x3eb311de	0.3497457
2	0x3bd3acfb	0.00645983
3	0x3e70ad3a	0.2350358
4	0x3cfedda2	0.031111542
5	0x3e6510bf	0.2236967
6	0x3e7365e1	0.23769332
7	0x3e0266c2	0.12734511
8	0x3e386b1e	0.18009612
9	0x3e1b28b5	0.15152247

rb2.conv1.weight f4 [20, 10, 3, 3]
0	0x3da1e4b0	0.07904947
1	0x3e04975d	0.12948366
2	0x3d9a4559	0.07532758
3	0x3e293122	0.16522649
4	0x3e6cd3f1	0.23127724
5	0x3debab45	0.115072764
6	0x3d46e253	0.048555683
7	0x3dde7fe7	0.10864239
8	0x3e023a57	0.12717567
9	0x3e140ebd	0.14458747
10	0xbdf2dbcc	-0.11858329
11	0xbdf6032f	-0.12012326
12	0xbe03a14d	-0.128545
13	0xbda29c94	-0.07940021
14	0xbd018bc1	-0.03162742
15	0x3e198941	0.14993764
16	0xbe1b8202	-0.15186313
17	0xbdc9a1d1	-0.09845317
18	0xbdbd4348	-0.092413485
19	0xbe9f6965	-0.31135097
20	0xbe370355	-0.17872365
21	0x3b9edcfe	0.0048481217
22	0xbe821e52	-0.25413758
23	0xbe1e7bf6	-0.15476975
24	0x3d49599b	0.04915772
25	0x3d4d2b9a	0.05009041
26	0xbdc91e83	-0.09820273
27	0xbcace988	-0.02110745
28	0xbde904c5	-0.11377863
29	0x3dcb63cf	0.09931146
30	0x3dac6037	0.08416789
31	0x3d8ba660	0.06818843
32	0x3de541c6	0.11194186
33	0x3d13f6f4	0.036124185
34	0x3d240b95	0.040050108
35	0x3e5931d3	0.21210413
36	0xbb8a5a05	-0.004222157
37	0x3e0382f5	0.12842925
38	0xbcf07a7d	-0.029355282
39	0xbd8b4251	-0.06799758
40	0x3c134dcb	0.008990715
41	0x3da3e37f	0.08002376
42	0x3c8af9b3	0.016964769
43	0xbe9a04cd	-0.30081788
44	0xbe6ff320	-0.23432589
45	0x3dcff0fa	0.101533845
46	0x3d3cb658	0.046072334
47	0x3d8e7517	0.06955927
48	0xbe0b5ae5	-0.13608892
49	0xbd8e6246	-0.06952338
50	0xbdadbf7a	-0.08483787
51	0xbd34067f	-0.043951508
52	0xbeefc441	-0.46829417
53	0xbd0e8dc0	-0.034803152
54	0x3df018e8	0.117235005
55	0x3dae5e08	0.08514029
56	0x3e1ef6b3	0.15523796
57	0x3d90ba67	0.070668034
58	0x3d22f586	0.03978493
59	0x3dec1594	0.11527553
60	0x3d4e35db	0.05034433
61	0xbd0d8e7c	-0.03455971
62	0xbd4a5dd8	-0.049405903
63	0x3d9ba2e6	0.0759943
64	0xbdc6923a	-0.09695859
65	0x3d7ff81e	0.062492482
66	0xbdb1898b	-0.08668812
67	0xbeb51331	-0.35366204
68	0xbd7bc179	-0.061463807
69	0x3d7095f8	0.05873677
70	0xbe19e2a8	-0.15027869
71	0xbdee0940	-0.11622858
72	0xbc80523d	-0.015664214
73	0x3c76b5fd	0.015058038
74	0xbe27816d	-0.16357966
75	0xbe2d6891	-0.1693442
76	0x3d9b8be4	0.075950414
77	0x3e29515f	0.16534947
78	0xbe27040d	-0.16310139
79	0xbd030eae	-0.03199642
80	0x3dc5d53c	0.09659812
81	0xbe072d16	-0.13200793
82	0x3ca9f83d	0.020748252
83	0xbe15ed5d	-0.14641328
84	0x3ad9bb50	0.001661161
85	0x3d1435e2	0.0361842
86	0xbcc9de84	-0.024642237
87	0xbda9d71e	-0.082929835
88	0x3d62424f	0.055239018
89	0x3e63c031	0.22241284
90	0xbe7e6472	-0.24843004
91	0xbe3231f7	-0.17401873
92	0xbd97a185	-0.07403854
93	0x3d3d5275	0.046221215
94	0xbd3c7b4b	-0.04601602
95	0x3b41d9bc	0.0029579243
96	0x3e258e6a	0.16167608
97	0x3e43fd63	0.19139628
98	0x3e61e461	0.22059776
99	0xbe90f2a2	-0.28310114
100	0xbe125fdf	-0.14294384
101	0xbd2ce113	-0.042206835
102	0xbe11ef0c	-0.14251345
103	0x3daeaf45	0.08529524
104	0xbb9a2a47	-0.004704747
105	0xbd93d1e5	-0.072177686
106	0xbd06c00b	-0.03289799
107	0xbc121267	-0.00891552
108	0xbe853cb7	-0.26022884
109	0xbec32006	-0.3811037
110	0xbe782c4f	-0.24235652
111	0x3dd063c0	0.10175276
112	0x3cd2dbb5	0.02573953
113	0xbcbb0fd3	-0.022834694
114	0x3e49eeed	0.19720049
115	0x3e840f97	0.25793144
116	0x3e9fd532	0.31217343
117	0xbd93c32f	-0.07214963
118	0x3c960407	0.018312467
119	0xbc923d17	-0.017851396
120	0xbe25e081	-0.16198923
121	0x3d6bf927	0.057610657
122	0xbdcff3f5	-0.10153953
123	0xbdae13e9	-0.08499891
124	0xbb459e9d	-0.0030154355
125	0xbda5ff23	-0.08105304
126	0x3e3cd3f6	0.18440232
127	0x3e7494e5	0.23884924
128	0x3cb1280a	0.021625537
129	0x3c0d42cf	0.008621885
130	0xbc568cb5	-0.013095071
131	0xbe089056	-0.1333631
132	0xbe3cbbf3	-0.18431072
133	0xbe7e6d2b	-0.24846332
134	0xbe6b00f8	-0.22949588
135	0xbb037197	-0.0020056718
136	0xbcac3a91	-0.02102402
137	0x3e12fc5a	0.14354077
138	0xbd6f1cda	-0.058377124
139	0x3d3852b1	0.045000736
140	0x3d447275	0.047960717
141	0x3d3313f2	0.043720193
142	0xba9dac72	-0.0012029542
143	0x3daaf4d2	0.08347477
144	0x3dbd17b7	0.09233039
145	0x3de31e1f	0.110897295
146	0x3d3de904	0.0463648
147	0xbd86cac4	-0.06581643
148	0x3c582812	0.013193147
149	0xbdd9e35e	-0.1063907
150	0xbc903139	-0.017601596
151	0x3caf3537	0.02138768
152	0xbd386056	-0.045013748
153	0x3e1832bb	0.14863102
154	0x3e91146a	0.28335887
155	0x3e05440d	0.1301424
156	0xbc40ee8b	-0.011775623
157	0x3d9c0e10	0.0761987
158	0x3dd2a57a	0.102854684
159	0xbe076723	-0.13222937
160	0x3c803b44	0.01565326
161	0xbd5bcf19	-0.0536643
162	0xbdde8c43	-0.108665965
163	0x3d933046	0.07186942
164	0xbd9743d0	-0.07385981
165	0xbdf0f498	-0.117654026
166	0x3d99fc93	0.07518878
167	0xbe35d2f0	-0.17756248
168	0x3ce75e37	0.028243167
169	0x3d08c463	0.033390414
170	0xbd66a732	-0.056311794
171	0xbd7acab9	-0.061228488
172	0x3c6a2b35	0.014292528
173	0x3c9eae30	0.019370168
174	0x3c8904c4	0.016725905
175	0x3e0c5ab0	0.1370647
176	0x3d5e550a	0.05428032
177	0xbc489624	-0.012242828
178	0x3d9d9a0e	0.07695399
179	0xbd808a45	-0.06276373
180	0xbcfa8d7d	-0.030585045
181	0x3d9f0458	0.077645004
182	0xbdcba0f6	-0.0994281
183	0xbcca3209	-0.024682062
184	0x3d3f1568	0.046651274
185	0xbd11ade0	-0.03556621
186	0xbc9b6837	-0.018970592
187	0xbd4bcf5c	-0.0497583
188	0x3d74cbb5	0.059764583
189	0xbc52dd03	-0.012870076
190	0x3cb58b9f	0.022161303
191	0x3e400cbb	0.18754856
192	0xbe1cd2c9	-0.15314783
193	0x3d926a99	0.07149238
194	0x3deeaec1	0.116544254
195	0xbdb5f0a3	-0.088837884
196	0xbe851365	-0.2599136
197	0xbe3ccc76	-0.1843737
198	0x3dd1a338	0.1023621
199	0xbe4338d0	-0.19064641
200	0x3d616706	0.05502989
201	0x3e428d0d	0.18999119
202	0xbcc591a6	-0.024117302
203	0xbc9738ba	-0.018459667
204	0x3d56dde9	0.052457724
205	0x3d3c435b	0.045962673
206	0x3d7ff8c5	0.062493104
207	0x3e7a1581	0.24422266
208	0x3e6cb6e8	0.23116648
209	0x3e097da8	0.1342684
210	0xbd14c69e	-0.03632223
211	0x3e453172	0.19257143
212	0x3d38c44a	0.04510907
213	0xbdb4d3bc	-0.088294476
214	0x3de121aa	0.10992749
215	0x3d1c5923	0.038170945
216	0xbe1dc8f2	-0.15408686
217	0x3c5a0cc5	0.013308709
218	0xbd782abf	-0.06058764
219	0xbd98cd2b	-0.07461008
220	0xbd8c40bc	-0.068482846
221	0xbaa306d5	-0.0012437949
222	0x3dd02d70	0.101649165
223	0xbd33dd8d	-0.04391246
224	0xbb55e4bc	-0.0032637557
225	0x3e028e21	0.1274953
226	0x3d423ce3	0.047421347
227	0xbdb34fca	-0.08755453
228	0xbea653c7	-0.32485792
229	0x3d35df03	0.044402134
230	0x3d231520	0.03981507
231	0xbe7f6139	-0.24939431
232	0x3d046bfc	0.032329544
233	0x3dad589e	0.08464168
234	0x3e6f52dc	0.23371452
235	0x3e3d0ca9	0.1846186
236	0x3d05d05f	0.03266942
237	0xbdd17004	-0.102264434
238	0xbd97c45c	-0.074104995
239	0xbdf1433c	-0.11780402
240	0xbf17feef	-0.5937337
241	0xbee5eebc	-0.44908702
242	0xbe0bd4fe	-0.13655469
243	0xbd442386	-0.04788544
244	0x3b213b19	0.0024601875
245	0x3d7d0831	0.06177539
246	0xbddb03b4	-0.10694066
247	0x3d7d1141	0.061784033
248	0x3daf2949	0.085527964
249	0xbd70f634	-0.058828548
250	0xbd9e1078	-0.07717985
251	0xbdb6f64e	-0.08933698
252	0xbdb320d1	-0.087464936
253	0xbd996d11	-0.07491506
254	0xbc8e5077	-0.017372353
255	0xbe29e5bd	-0.16591544

rb2.conv1.bias f4 [20]
0	0x369a1634	4.5921424e-06
1	0x37678542	1.3799699e-05
2	0xb7e17483	-2.6876345e-05
3	0x37b7f8e8	2.1931206e-05
4	0x38615318	5.3721567e-05
5	0x380f53e5	3.417199e-05
6	0xb831aa23	-4.235854e-05
7	0xb7e7d055	-2.7634358e-05
8	0xb71b19b8	-9.244708e-06
9	0xb85344f2	-5.037053e-05
10	0xb79cddeb	-1.8699988e-05
11	0xb8743a64	-5.8228514e-05
12	0x3800176c	3.053939e-05
13	0xb76d6a04	-1.41509845e-05
14	0x352f9210	6.540513e-07
15	0x36d237ce	6.264984e-06
16	0x3668febc	3.471897e-06
17	0x37d76cd0	2.5680667e-05
18	0x36c0abf0	5.742062e-06
19	0x378912ae	1.6340371e-05

rb2.bn1.weight f4 [20]
0	0x3f54ead4	0.8317082
1	0x3f5e736e	0.8689488
2	0x3f64965b	0.89291924
3	0x3f8620af	1.0478724
4	0x3f88beb6	1.06832
5	0x3f3d6e77	0.7399668
6	0x3f73e8ac	0.95276904
7	0x3f580372	0.8438026
8	0x3f2e8ed4	0.6818669
9	0x3f5c2578	0.8599467
10	0x3f479e66	0.7797607
11	0x3f81fc13	1.0155052
12	0x3f81f266	1.0152099
13	0x3f7597aa	0.95934546
14	0x3f6b410c	0.9189613
15	0x3f89b006	1.0756843
16	0x3f650916	0.8946699
17	0x3f61bf28	0.88182306
18	0x3f748ac2	0.9552423
19	0x3f7230de	0.94605815

rb2.bn1.bias f4 [20]
0	0x3d17a9da	0.037027217
1	0xbe22afbd	-0.15887351
2	0x3dfc26f1	0.12312115
3	0xbb9bf7b7	-0.0047597545
4	0xbe8e21ab	-0.27760062
5	0xbd7e14cc	-0.062031552
6	0x3d14b8c5	0.036309022
7	0x3e2b676e	0.16738674
8	0xbc162e9c	-0.009166386
9	0x3dbce569	0.09223444
10	0x3d2fdc4e	0.04293471
11	0x3d7fb907	0.062432315
12	0xbdb58618	-0.08863467
13	0x3ce24de6	0.027625035
14	0xbdd1b645	-0.10239843
15	0xbd9b665a	-0.075878814
16	0x3e0be02e	0.13659737
17	0x3bb82820	0.0056200176
18	0x3dfe5de8	0.12420255
19	0xbdb69122	-0.08914401

rb2.bn1.running_mean f4 [20]
0	0xbf9ffad7	-1.2498425
1	0xbe786d77	-0.24260508
2	0xbfcdebcf	-1.6087588
3	0xc039ad6b	-2.9012096
4	0xbf962887	-1.1731118
5	0x3e448e08	0.19194806
6	0xbfa4466b	-1.283399
7	0xbfb99150	-1.4497471
8	0x3fa9a325	1.3252913
9	0xbe46c6c7	-0.19411765
10	0xbecf4dcd	-0.40489045
11	0xbf81735b	-1.0113329
12	0xc01cee28	-2.452036
13	0xbf322d6f	-0.69600576
14	0xbf517a0d	-0.8182686
15	0xbfe6f257	-1.8042706
16	0xc000398d	-2.0035126
17	0xbe9efaf3	-0.31050834
18	0xbff31eb7	-1.8993748
19	0xbe613ed6	-0.21996626

rb2.bn1.running_var f4 [20]
0	0x3fd1a960	1.6379814
1	0x3fbdc220	1.4824867
2	0x3fee86e8	1.863492
3	0x4034dfba	2.8261552
4	0x4016cdb3	2.356305
5	0x3fba3b32	1.4549315
6	0x4011fff9	2.2812483
7	0x401da937	2.463453
8	0x3fa71593	1.3053459
9	0x3f982b57	1.1888226
10	0x3fbfce06	1.4984748
11	0x4010f7f8	2.2651348
12	0x401b6859	2.4282439
13	0x400a31b9	2.1592848
14	0x3fb94980	1.4475555
15	0x402597ec	2.5873976
16	0x401584f3	2.3362396
17	0x3fef2a3c	1.8684764
18	0x3ff02b34	1.8763185
19	0x4009a446	2.1506515

rb2.conv2.weight f4 [20, 20, 3, 3]
0	0xbc7f3fb2	-0.015579151
1	0x3dd3fceb	0.10350975
2	0xbd6fb42c	-0.058521435
3	0x3c5ee353	0.013604003
4	0x3c8c8242	0.017151956
5	0xbde6fcb9	-0.11278672
6	0xbce9aac8	-0.028523818
7	0xbe09fdd5	-0.13475735
8	0xbd8e3197	-0.06943052
9	0xbe5e8ecb	-0.21734159
10	0x3e17f28b	0.14838617
11	0x3e04dd6b	0.12975089
12	0x3cabc83e	0.020969506
13	0x3e3e0644	0.18557078
14	0x3e0318bf	0.12802409
15	0x3d5387a9	0.051643047
16	0x3d75aec6	0.05998113
17	0x3e138dab	0.14409511
18	0x3c87874c	0.016544007
19	0xbd4ca832	-0.04996509
20	0x3d475266	0.048662566
21	0x3e1ca8be	0.15298745
22	0x3d520160	0.051270843
23	0x3bf3b800	0.007437706
24	0xbb284c0f	-0.00256801
25	0xbc7d4bcc	-0.015459966
26	0xbdf7df6d	-0.12103162
27	0xbe355d92	-0.17711475
28	0xbc9cb10d	-0.019127393
29	0xbe096007	-0.13415538
30	0xbdd087dc	-0.10182163
31	0x3dda8ff1	0.10671986
32	0xbe80ba66	-0.2514221
33	0xbe8d8831	-0.27642968
34	0xbd2ff992	-0.04296262
35	0xbced2a54	-0.028950848
36	0xbdf73359	-0.12070341
37	0xbda0cc2c	-0.07851443
38	0xbddd407e	-0.108033165
39	0x3bdb67fa	0.0066957446
40	0x3c9c5077	0.019081337
41	0xbd20e267	-0.039278414
42	0x3db008b3	0.08595409
43	0x3e23ba8e	0.15989134
44	0x3d37a8b8	0.044838637
45	0xbe1c6ea9	-0.15276588
46	0xbcb4ba07	-0.022061361
47	0xbda58dbb	-0.080836736
48	0xbe2628f7	-0.16226564
49	0x3e1abf3c	0.15112013
50	0x3d070b58	0.032969803
51	0x3d9b51de	0.07583974
52	0xbc5863e0	-0.013207406
53	0x3cffc23d	0.03122055
54	0xbca46dcc	-0.020071886
55	0xbc3225ea	-0.010873297
56	0xbdc54ab9	-0.09633393
57	0x3dc64e84	0.096829444
58	0x3aafc3d7	0.0013409805
59	0xbdae38d4	-0.08506933
60	0xbe01b007	-0.12664805
61	0xbe2506e6	-0.16115913
62	0x3d09bd4f	0.033627804
63	0xbe3ccb16	-0.18436846
64	0xbd952707	-0.072828345
65	0xbe0ffdc6	-0.1406165
66	0xbd0aeade	-0.033915393
67	0xbe06400c	-0.1311037
68	0xbe1e58cd	-0.15463562
69	0xbddb9263	-0.107212804
70	0xbe5acc3a	-0.21366969
71	0x3d80287c	0.06257722
72	0x3e2b29be	0.16715142
73	0xbe87d765	-0.2653152
74	0xbe673bf5	-0.22581466
75	0x3e7b574c	0.2454502
76	0x3d43fbeb	0.04784767
77	0xbde04624	-0.10950878
78	0xbda83fab	-0.08215269
79	0x3d2e52fa	0.0425596
80	0x3e03cb7a	0.12870589
81	0x3d5575d7	0.052114334
82	0xbe5ef935	-0.21774752
83	0xbe56f293	-0.20990972
84	0x3da94852	0.08265747
85	0xbde5b5e5	-0.11216334
86	0x3e0a3564	0.1349693
87	0xbd4b7212	-0.049669333
88	0x3d8b92f1	0.06815136
89	0x3e91720c	0.28407323
90	0x3b999603	0.0046870722
91	0x3c9f471b	0.019443085
92	0xbdc5c693	-0.09657016
93	0x3e3bae46	0.18328199
94	0x3d99fb00	0.075185776
95	0xbd8c9cdd	-0.06865857
96	0x3d8c0e23	0.06838634
97	0xbe1c73cb	-0.15278547
98	0xbe89bf49	-0.26903751
99	0x3ba791c9	0.0051138145
100	0x3d888ae6	0.06667118
101	0x3e0f4399	0.1399063
102	0x3c4b2e9e	0.012401251
103	0xbd4d119b	-0.050065618
104	0x3e053211	0.1300738
105	0xbdc03947	-0.09385925
106	0xbde7ee7c	-0.11324784
107	0xbdaaa859	-0.08332891
108	0xbcf30219	-0.029664086
109	0x3d8947ce	0.06703149
110	0xbc8dd4d2	-0.017313395
111	0xbe04dcf5	-0.12974913
112	0xbe0ed7f6	-0.1394957
113	0xbdc6b641	-0.09702731
114	0xbe99ff8b	-0.30077776
115	0xbe35a1c5	-0.17737491
116	0xbe3f32e0	-0.18671751
117	0x3c3114a3	0.010808143
118	0x3d138506	0.036015533
119	0xbc57f3a8	-0.013180651
120	0x3dedffcf	0.11621057
121	0xbd07e115	-0.03317364
122	0x3d9346af	0.07191216
123	0x3de4c73f	0.11170816
124	0xbbffced2	-0.0078066373
125	0xbb0c173f	-0.002137616
126	0x3e340f61	0.17583992
127	0x3c88bbfb	0.016691199
128	0x3e25c075	0.16186698
129	0xbc101c98	-0.00879588
130	0xbdbf5a02	-0.093433395
131	0x3df88206	0.12134175
132	0x3d481f1c	0.048857793
133	0x3e0bc484	0.13649184
134	0x3e5334a5	0.20625551
135	0x3d8abc50	0.06774199
136	0x3d8bde61	0.06829525
137	0x3dff50af	0.12466561
138	0x3c38b740	0.011274159
139	0x3dc9cb73	0.09853258
140	0x3db2b226	0.08725385
141	0x3d0b1c41	0.033962492
142	0xbca9c9a5	-0.020726034
143	0xbe5744e8	-0.2102238
144	0x3d78e116	0.060761534
145	0xba790c18	-0.00095003983
146	0x3d09d734	0.0336525
147	0x3d6e6e0c	0.058210418
148	0x3de16271	0.11005104
149	0x3d2373b0	0.03990525
150	0xbdc71d1f	-0.09722351
151	0xbd2b9bda	-0.04189668
152	0x3d5eb3f3	0.05437083
153	0x3d91a3a7	0.07111292
154	0xbde29513	-0.1106359
155	0x3bafaac4	0.005360933
156	0x3c9dc496	0.019258779
157	0xbe270789	-0.16311468
158	0x3d4e0020	0.050293088
159	0xbc1fe6a0	-0.009759575
160	0xbcd67a83	-0.026181465
161	0xbd8176e3	-0.06321504
162	0xbe0ee514	-0.13954574
163	0xbc15f114	-0.009151716
164	0xbc5cca92	-0.013476031
165	0xbe0092c4	-0.12555987
166	0x3df140cf	0.117799394
167	0x3d7ccad3	0.061716866
168	0xbe7afabe	-0.24509713
169	0xbd0ba316	-0.034091078
170	0xbde010a9	-0.10940678
171	0x3e7a8b7d	0.24467273
172	0x3d35340e	0.044239096
173	0x3dc6cf42	0.097075
174	0x3d60914f	0.054826077
175	0x3da3842d	0.07984195
176	0x3e1d045b	0.15333693
177	0x3e181b55	0.14854176
178	0x3e3edef4	0.18639737
179	0x3d460274	0.048342183
180	0x3e13d152	0.14435318
181	0x3e0beeb3	0.13665275
182	0xbe3e9774	-0.18612462
183	0xbe6267ac	-0.2210986
184	0x3d9d3cc4	0.07677606
185	0xbdd86918	-0.1056692
186	0x3b92a1cd	0.0044748546
187	0xbd7788fd	-0.060433377
188	0xbdfa8092	-0.12231554
189	0xbd91cef4	-0.07119551
190	0xbe73ae77	-0.23797022
191	0xbd35fd96	-0.04443129
192	0x3e0a4875	0.13504203
193	0xbd0dc8c8	-0.034615308
194	0x3da221b8	0.079165876
195	0x3da0e99a	0.07857056
196	0x3d7b46d4	0.061346844
197	0xba951417	-0.0011373785
198	0xbdccbaa0	-0.099965334
199	0xbda55b45	-0.08074049
200	0xbd758f9f	-0.05995142
201	0xbe630344	-0.22169214
202	0xbd96b87c	-0.07359406
203	0xbd0e2175	-0.034699876
204	0xbd21cac5	-0.039500017
205	0x3d0bbc83	0.034115326
206	0x3d542a0a	0.051797904
207	0xbe0f063f	-0.13967226
208	0x3be8e329	0.0071071577
209	0xbc93e80d	-0.018054986
210	0xbe0d1df1	-0.13780953
211	0x3db551c2	0.08853485
212	0xbddfcc21	-0.109276064
213	0xbe6b2dd8	-0.22966707
214	0xbe1e7be9	-0.15476955
215	0xbe141182	-0.14459804
216	0xbe424288	-0.18970692
217	0xbe0e45d6	-0.13893828
218	0xbdeffcec	-0.11718163
219	0xbd81f0d0	-0.063447595
220	0x3bab0276	0.005218799
221	0xbe2c1f00	-0.168087
222	0x3dc4749a	0.095925525
223	0xbd835a36	-0.06413691
224	0xbdfcffb7	-0.12353461
225	0xbd5eb21c	-0.054369077
226	0xbd93a3b5	-0.07208959
227	0x3e265cd3	0.16246347
228	0xbe71b95e	-0.23605868
229	0xbe5f1311	-0.21784617
230	0x3d885055	0.06655947
231	0x3cb51840	0.02210629
232	0xbca10a88	-0.019658342
233	0x3dab65f7	0.083690576
234	0xbcc16e24	-0.02361209
235	0xbd35cbd5	-0.044383842
236	0x3e180aae	0.14847824
237	0xbd368357	-0.04455885
238	0x3bf7a721	0.007557765
239	0x3d159219	0.036516283
240	0xbbf1680d	-0.00736714
241	0x3dea785b	0.11448737
242	0xbc866554	-0.016405739
243	0x3d04752d	0.03233831
244	0x3cacbafc	0.021085255
245	0xbe54581b	-0.20736735
246	0x3d8f2cc6	0.06990962
247	0x3de0f66b	0.109845005
248	0xbdab420f	-0.08362209
249	0xbcf9d896	-0.030498784
250	0xbd85c563	-0.06531789
251	0xbdf45eb2	-0.11932124
252	0xbe077495	-0.13228066
253	0xbd69fd8c	-0.057126567
254	0xbd9e8a4d	-0.077412225
255	0x3dd507f4	0.104019076

rb2.conv2.bias f4 [20]
0	0x382dcec6	4.1438987e-05
1	0xb5d78db8	-1.6059994e-06
2	0x3883ef63	6.291156e-05
3	0xb71b71bc	-9.265201e-06
4	0x375d6e32	1.3198283e-05
5	0x37f86700	2.9611867e-05
6	0xb780250e	-1.5276044e-05
7	0xb7ed35a6	-2.8277584e-05
8	0xb83b33c4	-4.4632485e-05
9	0x373d4b0c	1.1282751e-05
10	0xb7e0deec	-2.6806687e-05
11	0xb7071eec	-8.053827e-06
12	0x37089c22	8.142584e-06
13	0x378fa1fa	1.7122355e-05
14	0xb842a36c	-4.6405403e-05
15	0x37b81a69	2.1946807e-05
16	0xb8078c2e	-3.231706e-05
17	0x372de0a6	1.0363909e-05
18	0x372fe80e	1.0484842e-05
19	0xb8068255	-3.206947e-05

rb2.bn2.weight f4 [20]
0	0x3f5a0a0f	0.851716
1	0x3f6c4edf	0.9230785
2	0x3f9817ae	1.1882226
3	0x3f8ebf93	1.1152214
4	0x3f98b554	1.1930337
5	0x3f8b4341	1.0879899
6	0x3f9f478c	1.2443709
7	0x3f9c2889	1.219987
8	0x3f9d9954	1.2312417
9	0x3f938225	1.1524092
10	0x3f93e129	1.1553088
11	0x3f7f672c	0.997668
12	0x3f94927c	1.1607203
13	0x3f81554d	1.0104157
14	0x3f8c7328	1.0972643
15	0x3fa3114b	1.2739652
16	0x3fab08b8	1.3362036
17	0x3fa56941	1.2922746
18	0x3f8e6d94	1.112719
19	0x3f5e5223	0.8684408

rb2.bn2.bias f4 [20]
0	0x3e50d40d	0.20393391
1	0x3d605f0e	0.05477815
2	0xbe41b5d2	-0.18917015
3	0x3aaf588a	0.0013377827
4	0xbd99107e	-0.07473849
5	0xbe2adc4c	-0.16685599
6	0x3db74117	0.08947962
7	0xbe72575b	-0.23666136
8	0x3e6c5ee6	0.23083076
9	0xbe296f80	-0.1654644
10	0x3d57f791	0.052726332
11	0xbe0908a5	-0.13382204
12	0xbc5cfbdf	-0.013487785
13	0x3d3fb27e	0.046801083
14	0xbc84492d	-0.016148174
15	0x3e37e79a	0.17959443
16	0xbcb45902	-0.022015098
17	0xbe00a5b7	-0.12563215
18	0x3dcb4402	0.09925081
19	0xbe8c3cc5	-0.27390113

rb2.bn2.running_mean f4 [20]
0	0xbf212124	-0.62941194
1	0xc00383b7	-2.0549142
2	0xbf8c6091	-1.096697
3	0xbf8fe940	-1.1243057
4	0xbf4124e8	-0.7544694
5	0x3e0999e7	0.13437615
6	0xbf9ca14b	-1.2236723
7	0x3ef3376c	0.4750322
8	0xc039f097	-2.9053094
9	0xbd8d9d85	-0.0691481
10	0xbf5e87d9	-0.8692604
11	0x3b177e88	0.002311619
12	0xbfe23e66	-1.7675292
13	0xbee717a1	-0.45135215
14	0x3e977a58	0.29585528
15	0xbfb4c3d9	-1.4122268
16	0xc0318076	-2.7734656
17	0xbdcafa6e	-0.09911047
18	0xc0151318	-2.3292904
19	0x3e6ef4ad	0.23335524

rb2.bn2.running_var f4 [20]
0	0x3f5d3c21	0.86419874
1	0x3f786434	0.970279
2	0x3f3bf47a	0.73419917
3	0x3f9410e0	1.156765
4	0x3f25fbcb	0.6483733
5	0x3f89a692	1.0753958
6	0x3f916c7c	1.1361232
7	0x3f2b1655	0.6683095
8	0x3f9ff897	1.2497739
9	0x3f5bffc4	0.8593714
10	0x3f504d6e	0.8136815
11	0x3f399aab	0.7250163
12	0x3f2a3bda	0.66497576
13	0x3f80b705	1.0055853
14	0x3fa9ac99	1.3255798
15	0x3f801bb3	1.0008453
16	0x3f7c1cc8	0.98481417
17	0x3f851435	1.0396792
18	0x3f7ad037	0.9797396
19	0x3f2b38a5	0.6688331

rb2.shortcut.conv.weight f4 [20, 10, 1, 1]
0	0xbc7ec49a	-0.015549803
1	0xbd9eb687	-0.07749658
2	0xbec51749	-0.38494328
3	0xbdbde3db	-0.092719756
4	0x3f0387e0	0.51379204
5	0xbc9bea90	-0.019032747
6	0x3baef550	0.005339302
7	0xbc72c367	-0.014817095
8	0xbc96ef59	-0.018424677
9	0xbe70b61c	-0.23506969
10	0xbd6117bc	-0.054954275
11	0x3e02755a	0.12740079
12	0xbf199ef4	-0.6000817
13	0x3d98c220	0.074589014
14	0xbe2eac33	-0.17057876
15	0xbe5346ff	-0.20632552
16	0xbd0ffd5e	-0.03515374
17	0xbc606afe	-0.013697384
18	0x3c4502ea	0.012024621
19	0x3c25fa14	0.010130424
20	0xbdc9f9d1	-0.09862102
21	0xbe0038dd	-0.12521692
22	0xbd0e8c60	-0.03480184
23	0xbcdaacad	-0.026693666
24	0x3d5213a9	0.05128828
25	0x3ec16830	0.377748
26	0x3e19aa31	0.15006329
27	0x3df39419	0.11893482
28	0xbe1708da	-0.1474947
29	0xbec10f5e	-0.37707037
30	0xbd79ace5	-0.0609559
31	0xbba0ade8	-0.0049035437
32	0x3ea7f14f	0.3280129
33	0x3e096d5b	0.13420622
34	0x3e460216	0.19336733
35	0xbe1aab45	-0.15104397
36	0x3e7fd846	0.24984846
37	0x3e54a09f	0.20764397
38	0x3edb52bc	0.4283656
39	0xbe095714	-0.13412124
40	0xbe0597dc	-0.13046211
41	0x3d4c2c9e	0.049847238
42	0x3d60f413	0.054920267
43	0x3ee04f42	0.4381047
44	0x3d8d15a0	0.0688889
45	0xbd8b247b	-0.067940675
46	0xbc9f69da	-0.019459654
47	0xbd94da00	-0.07268143
48	0x3eb4deb9	0.35326174
49	0xbdcb0f15	-0.09914986
50	0x3e8caad5	0.27474084
51	0x3e399613	0.18123655
52	0xbde203dd	-0.11035893
53	0xbec034f6	-0.37540406
54	0xbd83c8b1	-0.06434763
55	0xbd8f19dc	-0.06987354
56	0x3e4b8b5e	0.19877383
57	0xbe0afeb2	-0.13573721
58	0xbe13995e	-0.14413974
59	0xbecdf1cc	-0.4022354
60	0xbde18ab0	-0.11012781
61	0x3e26599c	0.16245121
62	0x3c857c7a	0.016294707
63	0xbea48d9d	-0.32139292
64	0x3cf4065b	0.029788187
65	0xbeca6bb1	-0.39535287
66	0xbe8329f2	-0.2561794
67	0x3d9da814	0.07698074
68	0x3e801f38	0.25023818
69	0xbd8ddb24	-0.069265634
70	0x3e3abd4d	0.18236275
71	0x3e42ae9f	0.19011925
72	0x3c0bb64a	0.008527348
73	0xbd46a392	-0.048495837
74	0xbe25e350	-0.16199994
75	0xbd3c9289	-0.046038184
76	0xbe968644	-0.29399312
77	0x3d5687f4	0.05237575
78	0xbf176fb4	-0.5915482
79	0xbe428fa8	-0.19000113
80	0xbdbf858b	-0.09351643
81	0x3e0e7668	0.13912356
82	0xbda56464	-0.080757886
83	0xbd6fc30b	-0.058535617
84	0xbf344494	-0.7041714
85	0xbdb9af0f	-0.09066593
86	0xbabd2754	-0.0014431276
87	0x3e8beef9	0.2733076
88	0xbdb66973	-0.089068316
89	0xbbf6d317	-0.007532488
90	0xbe85b088	-0.26111245
91	0x3ebb2501	0.3655167
92	0xbe1cf15a	-0.15326443
93	0xbe42cfc2	-0.19024566
94	0x3e46667f	0.19375037
95	0xbdfcb61e	-0.123394236
96	0xbc3b7438	-0.011441283
97	0x3e041b6e	0.12901089
98	0x3b3872f8	0.0028144699
99	0xbec936cc	-0.3929962
100	0xbca621a8	-0.02027972
101	0x3d81a5cf	0.063304536
102	0xbed7568e	-0.42058223
103	0x3e861b91	0.26192906
104	0xbea149a8	-0.31501508
105	0xbe0a9043	-0.13531594
106	0x3e89a9e4	0.2688743
107	0x3d659ae8	0.056055933
108	0x3e00d478	0.1258105
109	0x3d54076f	0.0517649
110	0x3c251c85	0.0100776
111	0xbcc39805	-0.0238762
112	0xbea1d415	-0.31607118
113	0x3e819c64	0.2531463
114	0x3e8a7add	0.27046862
115	0x3e721c46	0.23643598
116	0xbdb4ea8c	-0.08833799
117	0xbd8f31ae	-0.069918975
118	0x3e180c3c	0.14848417
119	0xbe4fbd67	-0.20287095
120	0xbdc35cec	-0.09539208
121	0xbeb53270	-0.35390043
122	0x3e650f00	0.22369003
123	0x3ea8f3c1	0.3299847
124	0xbdccf19d	-0.100070216
125	0xbcc8805c	-0.024475269
126	0x3d6be603	0.057592403
127	0xbde47266	-0.11154632
128	0xbec4a9b7	-0.38410732
129	0x3dd5c808	0.104385436
130	0xbd61ad43	-0.055096876
131	0xbe3f1bad	-0.18662901
132	0xbdde4812	-0.1085359
133	0xbdc68ca3	-0.09694793
134	0x3d29de72	0.041471906
135	0x3dfb2900	0.122636795
136	0x3dd6cd81	0.104884155
137	0x3d8f041b	0.06983205
138	0xbf2572b7	-0.64628166
139	0xbe2102f1	-0.15723778
140	0x3cd252d7	0.025674267
141	0xbe85e427	-0.2615063
142	0xbc10342b	-0.0088015
143	0xbe39c77a	-0.181425
144	0xbc9767c0	-0.018482089
145	0xbebd7006	-0.3699953
146	0xbece0bbd	-0.4024333
147	0xbdaa5773	-0.08317461
148	0xbdb6f210	-0.089328885
149	0x3e445af1	0.19175316
150	0x3ebcac55	0.3685023
151	0xbead33e6	-0.33828658
152	0x3e7130b8	0.23553741
153	0x3dec1d4a	0.11529024
154	0xbe079b63	-0.13242869
155	0x3e12218d	0.14270611
156	0x3e19836a	0.14991537
157	0xbde99c98	-0.11406821
158	0xbe9d99b7	-0.30781338
159	0xbd08a386	-0.033359073
160	0x3e232347	0.15931426
161	0x3ea2a384	0.31765378
162	0xbe06e6b0	-0.13173938
163	0x3db69f2f	0.089170806
164	0x3c24fedd	0.01007053
165	0x3e8c7eec	0.27440584
166	0x3e4ca84a	0.19986072
167	0x3dea191b	0.1143057
168	0x3dc95e2f	0.09832417
169	0x3a87e899	0.0010369002
170	0x3d5f3146	0.05449035
171	0x3dad216f	0.084536426
172	0xbe8c67ee	-0.27423042
173	0x3df433eb	0.11923965
174	0x3d42a7fe	0.04752349
175	0x3e7e26b6	0.24819455
176	0x3e838a03	0.25691232
177	0x3ed4d1a8	0.41566205
178	0x3e1b53c6	0.15168676
179	0xbdf874ad	-0.12131629
180	0x3d01b230	0.031664073
181	0x3dc01ba2	0.093802705
182	0xbce563f8	-0.02800177
183	0xbe87b3d9	-0.265044
184	0xbc64e7e9	-0.013971307
185	0x3d5bb1b8	0.053636283
186	0xbc45d086	-0.012073642
187	0xbe9ec9b1	-0.31013253
188	0xbef10558	-0.4707439
189	0xbd044329	-0.03229061
190	0xbe7cce44	-0.24688059
191	0xbe11a686	-0.1422368
192	0x3ec2803d	0.37988463
193	0xbc0f5ffc	-0.008750912
194	0x3e26092e	0.1621444
195	0xbd8433b5	-0.06455175
196	0x3d9e5c52	0.077324525
197	0xbde07458	-0.10959691
198	0xbe639851	-0.22226073
199	0x3dc253b6	0.09488623

rb2.shortcut.conv.bias f4 [20]
0	0xb7c78525	-2.3784649e-05
1	0xb7d368b6	-2.520192e-05
2	0x3839c5c7	4.429163e-05
3	0xb7892038	-1.6346676e-05
4	0x37dfa19d	2.6658929e-05
5	0x389a3ee6	7.355008e-05
6	0x3778dd6b	1.4833505e-05
7	0x36d8a1ec	6.456152e-06
8	0x37b54227	2.1607686e-05
9	0xb8727ee5	-5.7815476e-05
10	0xb75bfad3	-1.3111817e-05
11	0xb6850c73	-3.965158e-06
12	0x3767bb4f	1.3812284e-05
13	0x370a7c92	8.254445e-06
14	0xb830b27c	-4.2127896e-05
15	0xb7b08d5e	-2.1046664e-05
16	0xb5d70edc	-1.6023073e-06
17	0x38216d50	3.8487196e-05
18	0x36fb6834	7.4925138e-06
19	0xb820c9f8	-3.833507e-05

rb2.shortcut.bn.weight f4 [20]
0	0x3f73924f	0.95145124
1	0x3f33dd60	0.70259666
2	0x3f68ab8e	0.9088677
3	0x3f073590	0.52816105
4	0x3f3040b2	0.6884872
5	0x3f316932	0.6930114
6	0x3f0a0fed	0.5393055
7	0x3f45e737	0.7730593
8	0x3f4fb2b0	0.8113203
9	0x3f576e3b	0.84152573
10	0x3f0e7a04	0.5565493
11	0x3f2f20c9	0.684094
12	0x3ef66794	0.481259
13	0x3f5ee398	0.8706603
14	0x3f8a6f57	1.0815228
15	0x3ef33030	0.47497702
16	0x3f3314b4	0.69953465
17	0x3f06b6c2	0.52622616
18	0x3eb36102	0.3503495
19	0x3f3c0fff	0.7346191

rb2.shortcut.bn.bias f4 [20]
0	0x3e50d40d	0.20393391
1	0x3d605f0e	0.05477815
2	0xbe41b5d2	-0.18917015
3	0x3aaf588a	0.0013377827
4	0xbd99107e	-0.07473849
5	0xbe2adc4c	-0.16685599
6	0x3db74117	0.08947962
7	0xbe72575b	-0.23666136
8	0x3e6c5ee6	0.23083076
9	0xbe296f80	-0.1654644
10	0x3d57f791	0.052726332
11	0xbe0908a5	-0.13382204
12	0xbc5cfbdf	-0.013487785
13	0x3d3fb27e	0.046801083
14	0xbc84492d	-0.016148174
15	0x3e37e79a	0.17959443
16	0xbcb45902	-0.022015098
17	0xbe00a5b7	-0.12563215
18	0x3dcb4402	0.09925081
19	0xbe8c3cc5	-0.27390113

rb2.shortcut.bn.running_mean f4 [20]
0	0xbeaab982	-0.33344656
1	0xbf5fa2a1	-0.87357527
2	0xbe034240	-0.12818241
3	0x3f8339e7	1.0252045
4	0x3edb0466	0.42776793
5	0xbf362a0c	-0.7115791
6	0xbf0f91c7	-0.56081814
7	0xbf566dff	-0.8376159
8	0xbf318b0d	-0.693528
9	0xbf083ef4	-0.5322106
10	0xbe39efd1	-0.18157889
11	0x3de30a69	0.1108597
12	0xbe46f319	-0.19428672
13	0xbf40b6f4	-0.75279164
14	0xbf6a499b	-0.91518563
15	0x3e1467f8	0.14492786
16	0x3f60c5ad	0.8780163
17	0x3f454836	0.7706331
18	0xbf555727	-0.8333611
19	0x3d699be4	0.057033435

rb2.shortcut.bn.running_var f4 [20]
0	0x3ef52bd0	0.4788499
1	0x3ec8e7a8	0.3923924
2	0x3eb2b1a8	0.34901166
3	0x3f06b3bc	0.52618
4	0x3eddc0c2	0.43311125
5	0x3eeb1564	0.45914757
6	0x3ebc50f0	0.367805
7	0x3f0d78aa	0.55262244
8	0x3ec9cc6c	0.39413774
9	0x3e94c17a	0.2905386
10	0x3ee20bac	0.4414953
11	0x3e9200d2	0.2851625
12	0x3e77c03c	0.24194425
13	0x3f289c3d	0.658634
14	0x3eee666a	0.4656251
15	0x3eb91bc2	0.3615399
16	0x3e9eb5f1	0.30998185
17	0x3ed519ed	0.41621342
18	0x3f088836	0.5333284
19	0x3e25ece4	0.16203648

res1_sc1.conv.weight f4 [20, 3, 1, 1]
0	0xbf0c2eec	-0.547591
1	0x3db6bf74	0.089232355
2	0x3eab2076	0.33423203
3	0xbe7d7da1	-0.24754955
4	0x3f0ed501	0.5579377
5	0xbe74728d	-0.23871823
6	0x3c44d333	0.012013244
7	0xbe9d9209	-0.30775478
8	0xbec7a903	-0.38996133
9	0x3ec5d64d	0.3864006
10	0xbead8d5e	-0.33896917
11	0xbeaeb621	-0.34123328
12	0x3ef76ca4	0.48325074
13	0xbdfb7325	-0.122778215
14	0x3e5f267c	0.21792024
15	0xbf0b2dba	-0.5436665
16	0xbebceb30	-0.36898184
17	0x3ea7f429	0.32803467
18	0xbe368ca7	-0.17827092
19	0x3ebd1238	0.36927962
20	0x3f02dc21	0.5111714
21	0x3eb78fe8	0.3585198
22	0xbf100e1e	-0.5627154
23	0xbea95d6f	-0.33079097
24	0x3e2b7021	0.16741993
25	0x3f094102	0.5361482
26	0xbe349ba5	-0.17637499
27	0x3e889afb	0.2668074
28	0xbe842e9b	-0.25816807
29	0xbebc6c29	-0.3680127
30	0xbdbf3c5d	-0.09337685
31	0xbe80d1e2	-0.25160128
32	0xbec527be	-0.38506883
33	0x3e188e89	0.14898123
34	0xbdadb3a9	-0.08481533
35	0xbed543b4	-0.41653216
36	0xbeb35550	-0.35026026
37	0xbe4f4fd1	-0.20245291
38	0xbd6761d1	-0.05648977
39	0x3b9ce764	0.004788326
40	0xbe190e00	-0.14946747
41	0xbef5d0b6	-0.48010796
42	0xbe6a4d8b	-0.22881143
43	0x3e6ea195	0.23303826
44	0x3eb4deb6	0.35326165
45	0x3ec39474	0.38199198
46	0x3e24897b	0.1606807
47	0xbe8543a8	-0.2602818
48	0x3dbe7896	0.09300344
49	0xbeabcc5b	-0.33554348
50	0x3d7822a1	0.0605799
51	0x3d747c85	0.059689064
52	0xbeb0e4c1	-0.34549525
53	0x3d70c45d	0.058781017
54	0x3e7a1f7c	0.24426073
55	0x3e9c1993	0.30488262
56	0xbdc1ae55	-0.09457079
57	0xbf04ea52	-0.51920044
58	0x3e195b5f	0.14976262
59	0x3d9210f9	0.071321435

res1_sc1.conv.bias f4 [20]
0	0x38f97c51	0.00011896401
1	0xb8fb95b8	-0.000119965
2	0x3885fa10	6.388512e-05
3	0x38b83b16	8.784809e-05
4	0x383eefa6	4.552272e-05
5	0xb6eefcfd	-7.1224044e-06
6	0xb7d65eac	-2.5554873e-05
7	0x376f1e28	1.4252531e-05
8	0xb8779051	-5.9023794e-05
9	0xb8f1bc00	-0.00011526793
10	0x381f5bf2	3.7994185e-05
11	0xb78bbb1b	-1.6657219e-05
12	0x369cf01d	4.677115e-06
13	0x387561b8	5.850356e-05
14	0x36473182	2.9682128e-06
15	0xb83e49c2	-4.5368222e-05
16	0xb90c21fa	-0.00013364098
17	0x376db679	1.4168786e-05
18	0xb84999f1	-4.8065504e-05
19	0xb8bca66c	-8.995537e-05

res1_sc1.bn.weight f4 [20]
0	0x3f50ee88	0.8161397
1	0x3f6b2409	0.9185186
2	0x3f2e8388	0.6816945
3	0x3f0fe570	0.5620947
4	0x3f03d229	0.51492554
5	0x3f1dc004	0.6162112
6	0x3f0d609f	0.5522556
7	0x3f1942f8	0.5986781
8	0x3f1d3cf4	0.6142113
9	0x3f26fbb4	0.6522782
10	0x3f16c678	0.5889659
11	0x3f144c7a	0.57929194
12	0x3eefb16d	0.46815053
13	0x3f187d22	0.5956594
14	0x3f2778c6	0.6541866
15	0x3ec2a025	0.38012806
16	0x3f0c5655	0.5481923
17	0x3ef89da0	0.48557758
18	0x3edb8857	0.42877457
19	0x3f4fdd9a	0.8119751

res1_sc1.bn.bias f4 [20]
0	0x3e50d40d	0.20393391
1	0x3d605f0e	0.05477815
2	0xbe41b5d2	-0.18917015
3	0x3aaf588a	0.0013377827
4	0xbd99107e	-0.07473849
5	0xbe2adc4c	-0.16685599
6	0x3db74117	0.08947962
7	0xbe72575b	-0.23666136
8	0x3e6c5ee6	0.23083076
9	0xbe296f80	-0.1654644
10	0x3d57f791	0.052726332
11	0xbe0908a5	-0.13382204
12	0xbc5cfbdf	-0.013487785
13	0x3d3fb27e	0.046801083
14	0xbc84492d	-0.016148174
15	0x3e37e79a	0.17959443
16	0xbcb45902	-0.022015098
17	0xbe00a5b7	-0.12563215
18	0x3dcb4402	0.09925081
19	0xbe8c3cc5	-0.27390113

res1_sc1.bn.running_mean f4 [20]
0	0xbcb0fb3b	-0.021604171
1	0x3c0aacb7	0.00846403
2	0x3d92cdf1	0.071681865
3	0x3d42512e	0.0474407
4	0xbd3f0be6	-0.046642207
5	0x3c105ac0	0.008810699
6	0xbdaa54c2	-0.083169475
7	0x3d7e41ca	0.06207446
8	0xbca5b3d4	-0.02022735
9	0x3d5493fd	0.051898945
10	0x3d955c97	0.07293051
11	0x3d5ad8be	0.053429358
12	0x3d20be6c	0.0392441
13	0x3d9727b3	0.07380619
14	0xbd4ea442	-0.050449617
15	0x3b87d12b	0.004144808
16	0x3c0f358b	0.008740793
17	0x3c3cf275	0.011532416
18	0xbca51ff6	-0.020156842
19	0x3c03cda9	0.008044639

res1_sc1.bn.running_var f4 [20]
0	0x3cb09e43	0.02155984
1	0x3bb23ec6	0.005439612
2	0x3de3dc6c	0.111260265
3	0x3d0b3e8e	0.033995204
4	0x3d9c7dae	0.07641159
5	0x3dc00b80	0.093771935
6	0x3e005685	0.12533005
7	0x3da3ab2d	0.079916336
8	0x3d89fff4	0.06738272
9	0x3d24d2cf	0.040240105
10	0x3dfbd150	0.122957826
11	0x3d16ad7c	0.03678654
12	0x3dace9d8	0.0844304
13	0x3dc2bbd1	0.095084794
14	0x3d1c81e8	0.038209826
15	0x3cdf13a1	0.02723104
16	0x3c0f80e7	0.00875876
17	0x3c529fea	0.012855509
18	0x3d495e10	0.04916197
19	0x3ce1d84a	0.027568955
