models/dense_max/epoch_0010.pth (torch, 645162 bytes, 174 tensors)

rb1.conv1.weight f4 [10, 3, 3, 3]
00000000: 680d 95bd 5558 933d 330f b8bd 3075 6ebe
00000010: 095b 833e d618 463e 8800 47be 9f68 4c3e
00000020: eb7e dfbd 11cf 1bbe 41f2 9c3c 3135 2ebd
00000030: a067 9ebe da4e 873e cda4 353e ea15 3dbc
00000040: c5b6 893e 6252 6abe 361a 7fbc 114f 323b
00000050: a116 a9bd c678 68be baed 063d cc4e 013d
00000060: 87f7 0c3e de61 6c3d 2557 143e 256d 4d3d
00000070: 577c 2a3d 3e41 283e 2db3 993d d32c 023e
00000080: c68c a8be 3522 8fbd 68db 3e3d f077 d7bd
00000090: 04e4 49bd 8aea aabc 8f9a 97bc f5a5 d3bc
000000a0: b33d d13e 3cc4 59be 8d4c 48bd cfb0 e43d
000000b0: b539 16be d4ab 16be 6aa2 35be 1d2f d93d
000000c0: 873c ec3c 4c38 ab3e 17bf 88be 206b b2bb
000000d0: d8ed e63d 34b9 273d 4fe1 b83c 4923 823e
000000e0: cc22 393e 5db6 0cbe d7e6 9fbd ab81 c13d
000000f0: b461 74bd ab40 57be 5586 ab3c 3046 7e3e
00000100: fde7 5e3e 5290 993e 71c8 4c3b 0042 3cbe
00000110: fba6 03be c73f eabd 8a85 88be 3cd6 3fbe
00000120: 51ea 9f3d 5834 243e f169 463d 2f3f 003c
00000130: 14a8 4cbd cfeb d9bd 8230 d43d 5b84 4abe
00000140: a0ca fabd 41e1 48be a6a0 393d 6986 2fbe
00000150: f139 b33d b728 95be 0bd5 20be 2147 463d
00000160: f3c8 b93d 50ef 193e 7f7d 05be 7e5a 19be
00000170: 9c37 24be 7f86 6b3e 9d39 79be 0766 d7bd
00000180: 6f5b 883e 802f e93b 72af 613b cc51 9abd
00000190: e34b a43c ca8b 1dbe 11f5 9e3c cd6a 13be
000001a0: de89 e0bd 0ff0 3e3e 9055 f33c 142d 783e
000001b0: b156 6abe 4984 62be 6766 4b3e 0c66 86bd
000001c0: 2f03 3cbe dbf9 023e 171f aabd 1cca 95bc
000001d0: 2d5f 613e 2f5d 693e 45f9 62be 807f b4bd
000001e0: a903 99bd 2cdd b8bc c936 223e 4f05 de3d
000001f0: 9a03 e53d 1f48 013e 8414 893e 7c94 b73d
00000200: 90c9 a2bd 03a8 663e 2810 043d 1a53 91be
00000210: b8d3 1e3e 6c19 f93c 26ad 26be 4519 46be
00000220: f810 17be 7670 123e f606 063c 3871 0dbe
00000230: 965c cd3c 5f53 e43d 273e cebd 6178 963a
00000240: 9bc7 1d3d 0f8d 323e 1a7f 653e f957 aabd
00000250: 62df e1be 9797 c8bd 0eb3 203e fc42 efbd
00000260: 7db9 b6be ac46 a83c 308b b6bd e61f 733e
00000270: 38d6 c8bd 0a21 3fbe 463c 1ebc cbb4 56be
00000280: db14 9bbe 8404 a73b 6b5f 07bd 1a86 55bd
00000290: 4801 073e 270d 8d3d 748b 433e ca10 bcbd
000002a0: cef4 6dbc 4dd4 d7bc 2f6c 493d bd35 893d
000002b0: 1102 843c 8c9f e43d 73b2 ef3d cad4 883e
000002c0: 8482 41bd c798 933d 0f6c a73d b152 15be
000002d0: 9c46 81be 74a7 18be 956b 85bd 89f8 103b
000002e0: 9c0b df3d 184e 253e 8f2a 81bd c7cc cb3e
000002f0: e233 903e 73ae 383c 0adf 06be e816 4e3e
00000300: f316 7bbe 1158 19bd 84f6 2e3d 462f 6c3e
00000310: 5b90 86bd cbbc 383e 349c d73d 8c7b c0bb
00000320: 10e0 553e fd74 64be 1c2c b9be 1ffe 9cbb
00000330: f136 213e b1c7 053e eef0 71be 3233 11be
00000340: faaf bdbd 8c50 8a3d 5fd9 a5bd 0765 0ebe
00000350: 558b bc3e 3894 8e3e 676d cdbd 1bf0 bcbc
00000360: 17e3 8cbe 368a b53d f8e5 b4bc 0973 363c
00000370: 687f 353e 9086 843e bd9f c73b 8000 0d3e
00000380: 2ee4 aebd 7599 c7bd d9e6 1ebe 9435 1abe
00000390: 2d0f d93c dd18 023e 7ccc 84bd 5c0f 7a3e
000003a0: 739e 91be 3a52 40be bea6 813d 4191 b63d
000003b0: 27e2 ccbd fd70 033e 95a0 4e3e 8a6a 5b3c
000003c0: baa7 013d 3bde 923c 8c68 74be 87d3 943e
000003d0: f13e e53e cf11 7b3e 92ac 423e 991b 973e
000003e0: 2191 573d e92a 97bd 3895 39be 8aeb a2be
000003f0: 2160 2e3e b98f 903e b414 703d 26f0 88bd
-0.07277948 0.071945824 -0.08987274 -0.23286891 0.25655392 0.19345412 -0.19433796 0.19961785
-0.109128796 -0.15215708 0.019158484 -0.042531196 -0.30938435 0.26427346 0.17738648 -0.011540869
0.26897255 -0.22882989 -0.015570214 0.0027207772 -0.08256269 -0.22702321 0.032941557 0.031569287
0.13766299 0.05771052 0.14486368 0.050152916 0.041622486 0.16431138 0.07504878 0.12712412
-0.32919902 -0.06988946 0.04659596 -0.10520923 -0.04928972 -0.02086379 -0.018506316 -0.02583597
0.40867385 -0.21266264 -0.04890113 0.11166536 -0.14670451 -0.14713985 -0.17737737 0.10604689
0.028837455 0.3344139 -0.2670829 -0.005444899 0.11275834 0.040948108 0.022568373 0.25417545
0.1807968 -0.13741441 -0.07807701 0.0944856 -0.05966349 -0.21020763 0.020938078 0.24831462
0.21768184 0.2999292 0.0031247402 -0.18384552 -0.12856667 -0.11437946 -0.26664382 -0.18734068
0.07808364 0.16035593 0.048440877 0.007827564 -0.04996498 -0.1064068 0.10360815 -0.19777052
-0.12245679 -0.19617178 0.045319222 -0.17141117 0.08751286 -0.29132625 -0.1570627 0.048407678
0.09071531 0.15032697 -0.13036154 -0.14975926 -0.16036838 0.23000525 -0.24338384 -0.10517507
0.26632258 0.007116258 0.003443685 -0.07535133 0.020055717 -0.15385357 0.019403966 -0.1439621
-0.10963796 0.18646263 0.029703885 0.24235946 -0.22884633 -0.22120775 0.19863282 -0.06562433
-0.1836059 0.12790625 -0.08306711 -0.01828485 0.22008963 0.22789453 -0.22165401 -0.08813381
-0.07471401 -0.0225664 0.15841211 0.10840856 0.111823276 0.12625168 0.26773465 0.08963868
-0.07948601 0.22525029 0.03224197 -0.28383714 0.15510452 0.03040763 -0.16276988 -0.19345577
-0.14752567 0.14300713 0.008180371 -0.13812721 0.025068562 0.11148714 -0.10070448 0.0011479968
0.038520437 0.17436622 0.22411767 -0.08317561 -0.4411574 -0.097945385 0.15693304 -0.11682698
-0.3568839 0.020541511 -0.08913267 0.23742637 -0.09806484 -0.18664947 -0.009657925 -0.20967405
-0.3028935 0.005096974 -0.033049982 -0.052129842 0.13184083 0.06887274 0.19096166 -0.0918289
-0.014523698 -0.02634635 0.049175438 0.06699703 0.016114267 0.11163244 0.11703958 0.26724845
-0.04724361 0.07206874 0.081749074 -0.14582326 -0.25249183 -0.14907628 -0.0651466 0.0022120795
0.10890886 0.16143072 -0.063069455 0.3980467 0.28164583 0.011272061 -0.1317102 0.20125926
-0.24520473 -0.037437502 0.042715564 0.23064908 -0.06570502 0.18040769 0.1052784 -0.005874103
0.20886254 -0.22310252 -0.36166465 -0.004791036 0.15743615 0.13064457 -0.23627064 -0.14179686
-0.092620805 0.06753644 -0.08098101 -0.13905726 0.36825052 0.27847457 -0.100306325 -0.02306371
-0.27517006 0.08864252 -0.022082314 0.011135825 0.17724383 0.25883913 0.0060920403 0.13769722
-0.085396156 -0.097460665 -0.15517749 -0.15059501 0.026496494 0.12704797 -0.06484315 0.24419922
-0.284412 -0.18781367 0.06330632 0.08914424 -0.10004073 0.1283607 0.20178445 0.0133921
0.031654097 0.017928233 -0.23868006 0.29067633 0.44774583 0.24518512 0.19011143 0.29513243
0.05262864 -0.07381231 -0.18123329 -0.31820327 0.17028858 0.28234652 0.058613494 -0.0668643

rb1.conv1.bias f4 [10]
00000000: 67a0 9439 f8da 9f38 8ea6 cfb9 3bc9 1fb9
00000010: bf82 39b9 0b71 61b8 a66a 81b9 8654 41b9
00000020: f466 c4b9 900a b238
0.0002834827 7.622497e-05 -0.0003960621 -0.00015238386 -0.00017691682 -5.374946e-05 -0.00024684257 -0.00018437402
-0.0003746074 8.489669e-05

rb1.bn1.weight f4 [10]
00000000: 56ec 453f d796 a43f 14da 593f 45e4 5d3f
00000010: f510 1c3f 7a55 4d3f 958f 2a3f 4e36 7f3f
00000020: 9042 523f 1c49 2a3f
0.77313745 1.2858533 0.85098386 0.86676437 0.60963374 0.8020855 0.6662534 0.9969224
0.82132816 0.66517806

rb1.bn1.bias f4 [10]
00000000: 7b60 a33e c639 933f 4c3b 063d 268c a33d
00000010: 8e2d 833d 41c9 c33a 98a6 87bc 44d0 5a3f
00000020: c758 0c3f 64ab 0a3e
0.31909546 1.1502006 0.032771394 0.079857156 0.06405173 0.0014937298 -0.01655893 0.8547404
0.54822963 0.13541943

rb1.bn1.running_mean f4 [10]
00000000: c61e 97bc 3315 24bc 387a a83c 48a6 473d
00000010: 4eb4 2bbd 71a7 1f3e 4217 fbbd a326 efbb
00000020: 1d3d 68bc fc19 8bbd
-0.018447291 -0.01001482 0.020566091 0.048742563 -0.04192 0.15591218 -0.122602955 -0.007298307
-0.014174727 -0.067920655

rb1.bn1.running_var f4 [10]
00000000: eedc 8c3d d8bf 163d d988 273e 0b65 4b3e
00000010: 9961 3d3d 60d1 ef3e 2693 993e 838f 493d
00000020: 2575 1a3d 4fff bc3e
0.068780765 0.03680405 0.16360797 0.19862764 0.046235655 0.46839428 0.29995078 0.04920913
0.037709374 0.36913535

rb1.conv2.weight f4 [10, 10, 3, 3]
00000000: 18d2 85bd dd24 31be 9400 8fbc 9361 ce3c
00000010: b198 20be 2bbf 8dbd 6123 93bc 3f75 adb7
00000020: 4f24 dcbb 8db9 343c 9669 2a3e 0ce1 8cbe
00000030: bc7f 8bbe 2a59 8ebd 4ae5 243e 4f1f 193e
00000040: 9226 59be a89a f53b 096d 28be 1c31 aa3d
00000050: 1c2c b2bd 8aaf fdbb e1f4 52be f462 25be
00000060: 6066 773c 5558 fd3d 48fa fe3d d541 003e
00000070: d889 203e 3cdc 013e 34ff 583d 436e a53d
00000080: a4e8 0e3d 8d24 babd da9a 34bd 3e86 60be
00000090: ca2c f8bd 6e39 ad3d 9f6e 40bd 8004 c5bc
000000a0: 76ab cbbd c15c 333a 44cf 8cbd 1581 2fbc
000000b0: 9edf d9bd b02c 8f3d 2ad9 613e 1420 1d3e
000000c0: 7328 06bd 2342 213c febb 35bd efa5 3ebd
000000d0: cfde 923d 079e 1e3e aaf4 14bd bc95 71bc
000000e0: 1ae3 cabd d74f b3bd c1e4 5dbe 85e1 94bd
000000f0: 7435 d23d 9189 9e3d 23ae 96bd 742f 7dbc
00000100: b40e 053e 49b1 8e3e e7d9 10bd 88b3 93be
00000110: abc0 bfbe 022c 343c db95 283e 60f0 9f3d
00000120: b40e 48bd d67b 0ebe 437f d0bd 19aa 0d3e
00000130: a8df 7f3d 09a5 bc3d e050 27be 88db 4cbc
00000140: 54a4 36bd e12e 96be 7f53 9bbe c76b eebd
00000150: 0253 21be 9b4b 1ebd a0cc 85bd 6bf0 14be
00000160: 7e3d a3bd 3d14 263d dbdd c1bc db81 9dbd
00000170: 21d7 dd3d 7b8c d7bc 2dc6 c83d ea8f 973e
00000180: 39d7 03bd c581 0c3e 55c2 f5bd 6d33 d13d
00000190: 847c a73d b895 3abe 1f76 253e ddc5 ddbe
000001a0: 16ae 923d 87b7 a2be b35b 0a3e 7061 393e
000001b0: 9fb2 ac3c 4145 fa3d 07c0 e0bd 6d0a 373d
000001c0: db8c 21be 61d1 14be feda 2cbc 3460 a3bd
000001d0: 603f 4ebc 3439 47be 1eea e53d 69d0 e23c
000001e0: 0a62 973d 67cb ffbc 79b4 f6bd aa4a 71bc
000001f0: 8136 50be 0ae6 c9bc dae5 303e 143f 323e
00000200: fdca d33c 3ec1 8a3d c88f adbc cf1e 7cbd
00000210: a759 3d3c 867a 07be 00be 21be 8cc8 bbbd
00000220: b91b a7bd 7de2 99bd f832 4fbd b496 7fbd
00000230: f8d6 f3bd 9d25 a8bd abe8 29be 39f4 5cbd
00000240: 41a5 d63d 2dee 143e 5050 a73d 05f9 303e
00000250: ef58 2e3e 0009 c03d c24d 143e 449b 363e
00000260: 1e98 443b bb24 d13d 5c21 5cbe 047c b4bc
00000270: dc5b 2abd 99c9 88be 8995 4e3e 482a 60bd
00000280: f2e4 8f3e 56c4 78ba d295 023e 5967 b9bc
00000290: 133e 6ebe 2f22 753c 2853 bbbd 4074 0c3e
000002a0: 301f 45bc 0c6c f93d 4f85 d3bc 2d76 3bbd
000002b0: 16d2 09bb 82c7 e33c f194 8e3d 2b2b 0abd
000002c0: 60e2 e33c 15ef 86bd cbf0 f13d 2c3e f53c
000002d0: 1757 103d e756 94be dd41 a7bd e4ee 153d
000002e0: 3bc4 a2bd 60d4 b7bc 6688 a23d a63f ad3c
000002f0: 9333 373d 8841 9abd a53f 07be 9930 4f3c
00000300: 3f1f cdbc 1b29 26be c5f8 00bd 1484 bbbc
00000310: 2fc8 003e a142 f73d 4a02 883e c35b 883d
00000320: 02ef d13c d959 a23e db48 653d 7463 0ebe
00000330: a8f1 da3d cc2f a2bd 515b 72bd 2612 ce3d
00000340: dcce 633d fcae b1bb 7760 633d 09a1 843d
00000350: b56b 94bc 7d51 8e3e 4631 213b 95f5 013d
00000360: 4dab 163e e4cd e83d eaae 793c bf78 813e
00000370: bda9 693d da5a 763d b839 c63d 8bc2 a43d
00000380: 0e0f 1c3d 19c2 883e 084e 673e 92ee 3c3e
00000390: 98f7 243e 3f65 cd3d b357 813d da12 343d
000003a0: 245e 553d c775 86bd 0975 ab3c 1a28 5fbc
000003b0: 54d5 cfbd 7e24 aab9 6774 d7bc f6d2 c4bd
000003c0: a4f2 703c 174a 76bc 6cf4 03be 08c2 2a3e
000003d0: f15e ac3d 6c09 89bc c951 4d3d 878f b93d
000003e0: 3e71 a6bc 4ec8 03be 5773 113d 0a1f 74bd
000003f0: 7f49 8c3e 7ac5 8b3e 0576 52bd 9cc4 313e
-0.06534213 -0.17299218 -0.01745633 0.025193011 -0.15683247 -0.06921228 -0.017961206 -2.0677804e-05
-0.0067181955 0.011030567 0.1664184 -0.27515447 -0.2724589 -0.069506004 0.16103092 0.1495335
-0.2120612 0.007495243 -0.16447844 0.08310148 -0.086998194 -0.007741873 -0.20601226 -0.16151029
0.015100092 0.123703636 0.12450081 0.12525113 0.15677583 0.12681669 0.052977756 0.080776714
0.034889832 -0.09089003 -0.04409299 -0.2192621 -0.12117918 0.084582195 -0.046980496 -0.024049997
-0.09944813 0.00068421295 -0.0687547 -0.010711928 -0.10638355 0.06990945 0.22055498 0.15344268
-0.03275342 0.009842428 -0.044368736 -0.046544965 0.071714036 0.1548997 -0.036366142 -0.014745172
-0.099065974 -0.087554626 -0.21669294 -0.07269577 0.102641016 0.077410825 -0.07357433 -0.015453208
0.1299389 0.27869633 -0.035364058 -0.2884791 -0.37451681 0.01099682 0.16463415 0.0780952
-0.048842147 -0.13914427 -0.10180523 0.13834418 0.062469155 0.092111655 -0.16339445 -0.012503512
-0.04459031 -0.2933264 -0.3033714 -0.11641651 -0.15754321 -0.03864632 -0.0653317 -0.14544837
-0.07970713 0.040546644 -0.02366536 -0.076907836 0.10832048 -0.026312103 0.09803424 0.29601985
-0.032187674 0.13721378 -0.119999565 0.10214887 0.08178046 -0.18221176 0.16158341 -0.4331502
0.071621105 -0.31780645 0.13511543 0.18103576 0.021081267 0.122202404 -0.10974126 0.044687677
-0.15776388 -0.14532997 -0.010550259 -0.07977334 -0.012588352 -0.19455415 0.11226295 0.027687268
0.07391746 -0.03122492 -0.12046141 -0.014727274 -0.20333292 -0.024645824 0.17275181 0.17406875
0.025853628 0.06775139 -0.021186724 -0.06155282 0.011557019 -0.13230333 -0.15795135 -0.09169111
-0.081595846 -0.07513902 -0.050585717 -0.06239958 -0.119062364 -0.08210299 -0.16592662 -0.053943846
0.104807384 0.14543982 0.08169615 0.17282493 0.17026113 0.093767166 0.14482787 0.17832667
0.0029997895 0.10212084 -0.214971 -0.022031792 -0.04159151 -0.26716307 0.2017423 -0.054727823
0.2810436 -0.00094897056 0.12752464 -0.022632288 -0.23265867 0.014961763 -0.0914672 0.13716221
-0.012031361 0.121788114 -0.025820402 -0.045766998 -0.0021029762 0.027805094 0.06962002 -0.033732574
0.027817905 -0.0658857 0.11813506 0.029936872 0.035239305 -0.2897255 -0.08166859 0.036604777
-0.07947584 -0.022440135 0.07936172 0.021148514 0.04472692 -0.0753203 -0.13207872 0.012645864
-0.025039313 -0.16226618 -0.031487245 -0.022890128 0.12576364 0.12073255 0.26564246 0.06658127
0.025626663 0.31709173 0.055977684 -0.13905126 0.106906235 -0.07919273 -0.059169117 0.10062055
0.0556172 -0.005422471 0.055511918 0.064760275 -0.018117765 0.27796546 0.002459602 0.031728346
0.14713784 0.113673955 0.015239457 0.25287434 0.05704664 0.060145237 0.09678978 0.080449186
0.038100295 0.26710585 0.2258836 0.18450382 0.16110075 0.10029077 0.063155554 0.04396329
0.052091733 -0.06565433 0.02092983 -0.013620401 -0.10148111 -0.00032452116 -0.026300622 -0.0961055
0.0147062875 -0.015032313 -0.12886208 0.1667558 0.08416546 -0.016728126 0.050126825 0.09060579
-0.02031767 -0.12869379 0.035510387 -0.059599914 0.27399823 0.272991 -0.051382083 0.17360157

rb1.conv2.bias f4 [10]
00000000: 46cb 8b37 fa70 aa39 aa64 e438 46d9 8938
00000010: 3df7 59b8 2522 9ab7 ef31 99b8 1cc0 aeb8
00000020: 1a5d 3cb8 965d a3b8
1.6664748e-05 0.000325091 0.00010890637 6.5731394e-05 -5.196709e-05 -1.837413e-05 -7.3049094e-05 -8.33275e-05
-4.49094e-05 -7.7898774e-05

rb1.bn2.weight f4 [10]
00000000: 05d7 853f cbc7 913f bf35 4d3f a417 8e3f
00000010: 8309 3d3f e87b 893f 8a0c a93f c9c1 873f
00000020: a7c1 8e3f aebc 583f
1.0456244 1.1389097 0.80160135 1.1100965 0.7384264 1.0740938 1.3206952 1.0606014
1.1152848 0.846629

rb1.bn2.bias f4 [10]
00000000: 72a7 513d f9f0 7abd 1452 6f3e 60b8 5ebd
00000010: 7bf6 513e 8c27 c73d 8d4a 78bb 3ef2 ce3d
00000020: 9396 123d 927d 723e
0.05118508 -0.061264966 0.23371154 -0.054375052 0.20504181 0.0972434 -0.0037886233 0.10104798
0.03578813 0.23680714

rb1.bn2.running_mean f4 [10]
00000000: f619 a1bf fcc9 6ebe 5ab3 443f 65de 52bd
00000010: 40f7 43bf f54d 50be 8b44 2cbf c76b 82be
00000020: ad8c 353e e470 d23f
-1.2586048 -0.23319238 0.7683617 -0.051481623 -0.7654915 -0.20342238 -0.6729209 -0.25472853
0.17729445 1.6440701

rb1.bn2.running_var f4 [10]
00000000: f8a6 c53f b763 a13f fa45 9b3f 30c5 c43f
00000010: 94b5 813f a1fd e73f 2d37 0740 2cbc e93f
00000020: a273 f53f d6cf e33f
1.544158 1.2608556 1.213073 1.5372677 1.0133538 1.8124276 2.1127427 1.826055
1.9175913 1.7797801

rb1.shortcut.conv.weight f4 [10, 3, 1, 1]
00000000: 472e e43e c4e4 973b 380f b23e 5eac b5be
00000010: ebf4 04bf efa1 c5be bcbe b93e 4f25 b7be
00000020: 79e9 d73d c952 eebe 007e 36bf dae9 473e
00000030: 87c4 d5bd ed67 40be 3aff 153f 5063 b63e
00000040: 81bf fd3d 0eff 023f 0ebc cdbe bddd b1be
00000050: a75e 99be 313b 98be d5df 2fbf 4131 953e
00000060: 61b9 a8be c943 01bf 943d 98bd 8c9d 96be
00000070: 1c90 7a3d 72e1 15bf
0.44566557 0.0046354253 0.34777236 -0.35483068 -0.51936215 -0.38600108 0.3627833 -0.35770652
0.10542578 -0.46547535 -0.7128601 0.19522801 -0.10437875 -0.18789645 0.5859257 0.35622644
0.12390042 0.5117043 -0.40182537 -0.34739485 -0.29955027 -0.2973266 -0.68700916 0.2913914
-0.32953933 -0.50494057 -0.0743362 -0.29417074 0.06117259 -0.5854713

rb1.shortcut.conv.bias f4 [10]
00000000: e9b7 4139 6a2f a438 d262 91b9 fa1b c0b8
00000010: e66f 6538 03e5 8cb9 e3f7 1cb9 fc85 69b8
00000020: e821 6638 d480 79b8
0.00018474426 7.828961e-05 -0.00027730182 -9.1604845e-05 5.4702068e-05 -0.00026873508 -0.00014969664 -5.567631e-05
5.486785e-05 -5.9486207e-05

rb1.shortcut.bn.weight f4 [10]
00000000: 046f 7a3f a41e 6c3f 2d5a 853f 949e 633f
00000010: 2efc 903f 2e42 713f 8106 1e3f 53e9 373f
00000020: f4fc 683f cd13 6e3f
0.97825646 0.92234254 1.0418144 0.88913846 1.1326959 0.9424161 0.61728674 0.718404
0.91010976 0.92998964

rb1.shortcut.bn.bias f4 [10]
00000000: 72a7 513d f9f0 7abd 1452 6f3e 60b8 5ebd
00000010: 7bf6 513e 8c27 c73d 8d4a 78bb 3ef2 ce3d
00000020: 9396 123d 927d 723e
0.05118508 -0.061264966 0.23371154 -0.054375052 0.20504181 0.0972434 -0.0037886233 0.10104798
0.03578813 0.23680714

rb1.shortcut.bn.running_mean f4 [10]
00000000: 5a65 aebd 6918 023e e9ee 5bbc 13dd 8a3d
00000010: b450 79bd 21b1 e5bd 0c4c d43d c580 1e3d
00000020: 1122 a13d 89ce d13d
-0.08515425 0.12704624 -0.01342366 0.06780448 -0.06086798 -0.11215425 0.10366067 0.038697023
0.07867826 0.102444716

rb1.shortcut.bn.running_var f4 [10]
00000000: b7f1 103e ebf0 b53e 5341 bc3b 4b92 623e
00000010: cd35 103d 749f 633e 88f2 793e 433a ea3d
00000020: b329 3c3e 6775 1f3e
0.14154707 0.35535368 0.005745092 0.22126119 0.03520756 0.22228795 0.24408925 0.11436894
0.18375282 0.15572129

rb2.conv1.weight f4 [20, 10, 3, 3]
00000000: 6cfe 7a3d 70bb 0f3e df4c 8c3d 24a7 253e
00000010: 7955 423e 9600 053e 9938 593d cbfc 003e
00000020: 1f3a eb3d 190e 1c3e 7413 06be e09a f3bd
00000030: 449b c7bd 3711 41bd 8d6f babc 16a3 133e
00000040: e496 3bbe b9ec 0dbe 6331 02be 6393 94be
00000050: 7851 29be 2a1c c6bc 2138 6fbe 5831 06be
00000060: f831 343d 3d71 563d 3cfb f0bd 07aa ae3c
00000070: 32b7 efbd 4a13 983d 9426 573c 15a9 5d3d
00000080: 024e f93d 092f 113d 798f 903d a89e 4e3e
00000090: bf27 223c b266 1e3e 1311 28bc a197 ddbd
000000a0: 0975 24bc 8bb5 bc3d 0438 403c 4d96 91be
000000b0: 6ec4 63be e4c4 e43d ccf6 7c3d c68b 783d
000000c0: 4089 16be 94e1 9fbd 19ae 99bd 9381 96bd
000000d0: 1478 ebbe 9653 49bd d867 d13d a3ff c73d
000000e0: 45c0 0a3e a456 a93d 8ba8 943d de1f a63d
000000f0: 825a 783d 0d5d 59bc e4bc 38bd 8788 d43d
00000100: 7d6e 8fbd 79a1 5b3d 501a b6bd f3b5 bfbe
00000110: 74d6 babd ab80 d63d ac46 16be 6b15 b1bd
00000120: 5b0b a0bc 73f2 eabc ec89 f8bd 8677 25be
00000130: 523a bd3d 7565 253e 0b30 14be d181 fabb
00000140: c16b f03d b01f 09be a152 a0bb 03c9 27be
00000150: f8bd bf3b 06cb 123d 8e8e 65bc 70ea 0abe
00000160: 039e 1b3d 4eea 473e d4b6 91be 76ce 31be
00000170: d170 88bd 396e 2f3d 0222 8fbd 2250 2bbd
00000180: a250 353e 262d 623e ac4f 643e 6db1 97be
00000190: ef27 1bbe be2f 3fbd 64b0 febd 57bf aa3d
000001a0: c7a3 ecbb a794 c2bd 24ca 7ebd 0e58 eebc
000001b0: 214b 95be c79e b0be 0845 49be e5ca dd3d
000001c0: 9e4d 613d a243 b3bc b992 413e b8c9 743e
000001d0: 0ce2 8d3e 18c1 abbd 0850 74bc 2186 d1bc
000001e0: 99d3 1dbe 7dc1 3b3d 4634 b2bd 9559 fbbd
000001f0: 5dd0 7fbc cc15 dcbd a832 303e ea3e 5b3e
00000200: 77ae 1e3d e589 3b3c 7f2b d6bc 9c2e e0bd
00000210: b4e4 17be 6eba 5fbe 5309 5bbe 341f d6bc
00000220: 0171 70bc b6c0 083e 2da7 a5bd 9157 063d
00000230: 33cb 453d 38e4 523d 7878 9ebc aadb d43d
00000240: 3f47 b13d b9fd ef3d 4160 d43c 5d4e 4cbd
00000250: a774 ed3c f343 b4bd 7ba0 ddbc a672 da3c
00000260: 464f 1dbd 675c 093e a8e2 913e 759f 273e
00000270: 065a f4bb 2a7b a93d a333 083e 4286 27be
00000280: 7e1d 833d 3007 58bd 864e 9bbd 3476 bf3d
00000290: 3435 b5bd 349c abbd cea6 963d 5846 3bbe
000002a0: c49f 683d 9b44 8b3d 6b02 24bd f665 77bd
000002b0: 882d 503d d6bc c63c 9e03 083d 240e 0d3e
000002c0: 0a04 8e3d f367 a93b f75c c23d 0757 3fbd
000002d0: 0fb8 0ebd 3ee3 6d3d 6418 9abd 908a 4dbc
000002e0: d6d7 943d f174 92bc d80f 45bc ba31 34bd
000002f0: 5533 d43d b85e 2fbd 3f39 aa3c 8f36 333e
00000300: 1b7a 21be 9877 053d ac74 ba3d 5dff 8fbd
00000310: 4361 5bbe a55d 1cbe 07ec e43d 9746 2ebe
00000320: 7225 f23c c58e 2b3e f45b d2bc 83b2 2fbd
00000330: ca6c 4d3d 227a 223d 517b 853d 9125 853e
00000340: 4b55 683e 9e61 133e ce0a ef3c d2d6 493e
00000350: 61be 783d 5fc5 fbbd a483 043e 16d4 813d
00000360: 391c 16be b755 2f3c 35a3 1fbd 2aa6 bfbd
00000370: 29ae a5bd 3281 5d3c 44a7 8f3d 340f e0bc
00000380: f882 523c c111 bc3d 9d6d 883d a5c6 8abd
00000390: 4767 a9be 6a51 cf3c 7ece 5a3c 4e2d 66be
000003a0: 0583 dc3c 555b a93d 2643 703e 3645 4b3e
000003b0: a3f0 0d3d eb20 27be 16d4 eabd 690d 2cbe
000003c0: 0810 14bf 628e dfbe 273c 13be 3f41 16bc
000003d0: 7336 3abc 42b1 8a3d b58f a9bd bfdc 5c3d
000003e0: 3f9d b83d f3bb b0bd 2232 8bbd 4a39 eebd
000003f0: ba05 abbd 958e a7bd f173 a5bc 8ca0 0dbe
0.06127779 0.14036345 0.068505995 0.1617704 0.18977918 0.12988505 0.05303249 0.12596433
0.11485695 0.15239753 -0.13093358 -0.118947744 -0.097464114 -0.047135558 -0.02275827 0.14417681
-0.18319279 -0.13859834 -0.12714152 -0.29018697 -0.16534984 -0.024183352 -0.23361255 -0.1310476
0.043992966 0.052354086 -0.11766669 0.02132131 -0.117048636 0.07425554 0.013131756 0.054116327
0.12173082 0.035445247 0.07058615 0.2017771 0.0098971715 0.15468863 -0.010257977 -0.108199365
-0.010037669 0.09214314 0.011732105 -0.28434983 -0.222429 0.111703664 0.0617588 0.060680173
-0.14700794 -0.078066975 -0.075039096 -0.07348933 -0.4599005 -0.04915198 0.10224885 0.09765556
0.13549908 0.082684785 0.072587095 0.08111547 0.06063319 -0.013266814 -0.045102015 0.10377603
-0.07003496 0.05362079 -0.088917375 -0.37443504 -0.09122935 0.1047376 -0.14675397 -0.08646663
-0.019536665 -0.028680062 -0.121356815 -0.16158876 0.09239639 0.16151984 -0.14471452 -0.00764487
0.117393024 -0.13390994 -0.0048926626 -0.16385274 0.0058515035 0.03583815 -0.0140110385 -0.13565993
0.03799249 0.19522974 -0.284598 -0.17363915 -0.06662143 0.042829726 -0.06988908 -0.041824467
0.1770654 0.22087535 0.22296017 -0.29627553 -0.15151952 -0.04667639 -0.124359876 0.083372764
-0.007221672 -0.095010094 -0.062204495 -0.029094722 -0.2915888 -0.34496137 -0.1965524 0.10829715
0.055005662 -0.021882836 0.18903627 0.23905075 0.27711523 -0.08386439 -0.014911659 -0.025576653
-0.1541275 0.04583882 -0.087013766 -0.12272946 -0.0156136425 -0.10746345 0.17206824 0.21410719
0.0387406 0.011446451 -0.026143787 -0.1094639 -0.14833337 -0.21848461 -0.21390276 -0.026137926
-0.01467538 0.13354763 -0.08088527 0.032798354 0.04828949 0.051487178 -0.019344553 0.1039346
0.08656167 0.11718316 0.025924804 -0.04987942 0.028986288 -0.08802023 -0.027054062 0.026665997
-0.03840568 0.13414155 0.28493237 0.16369422 -0.0074570207 0.08275445 0.13300948 -0.16359809
0.064021096 -0.05274123 -0.075833365 0.09348717 -0.08848038 -0.08379403 0.07356034 -0.18288553
0.05679299 0.06800195 -0.04004137 -0.060399972 0.050824672 0.024259966 0.033206575 0.13774925
0.06934364 0.0051698624 0.09490388 -0.046713855 -0.0348435 0.058078043 -0.075241834 -0.012545243
0.0726773 -0.017878028 -0.012027703 -0.043992735 0.10361353 -0.04281494 0.02077925 0.17501281
-0.15769236 0.032584757 0.09104285 -0.070311286 -0.21423821 -0.15270098 0.11177831 -0.17019115
0.029558871 0.16753681 -0.025678612 -0.04289485 0.050152577 0.039667256 0.06517661 0.26005223
0.22688787 0.14392707 0.029179957 0.19710854 0.060728434 -0.12293505 0.12940842 0.0633928
-0.14659204 0.010701588 -0.038974006 -0.09357865 -0.08089859 0.013519572 0.07014325 -0.027351
0.012848608 0.09183074 0.06661532 -0.0677617 -0.33086607 0.025307376 0.013354896 -0.2247822
0.026917944 0.08269373 0.23463115 0.1985062 0.034653317 -0.16321151 -0.114662334 -0.1680199
-0.5783696 -0.43663317 -0.14378415 -0.009170829 -0.011365521 0.067720905 -0.08279363 0.053921457
0.09014367 -0.086295985 -0.067966715 -0.11632021 -0.08350702 -0.08181492 -0.020196887 -0.13830775

rb2.conv1.bias f4 [20]
00000000: 9842 89b8 26bb e338 c240 04b9 0ae4 c238
00000010: 5172 80b7 707f f138 f687 cf36 95a1 0d39
00000020: d0ac 1b38 568a 8837 c048 ebb6 dc64 db37
00000030: a0a8 b7b7 6d41 5037 106c 55b7 bbbe d438
00000040: e432 f3b7 a415 89b6 c772 abb8 e1a9 4f38
-6.545073e-05 0.000108590626 -0.00012612625 9.2931165e-05 -1.5312022e-05 0.000115155126 6.1849087e-06 0.00013507002
3.7115824e-05 1.6276881e-05 -7.012015e-06 2.61538e-05 -2.1893822e-05 1.2412999e-05 -1.272095e-05 0.00010144474
-2.8991555e-05 -4.0854375e-06 -8.175294e-05 4.9510858e-05

rb2.bn1.weight f4 [20]
00000000: 1903 5d3f ac07 663f 3ee8 663f 5d8c 8b3f
00000010: 6fc6 893f fdad 403f 2889 753f d0a2 5f3f
00000020: 837a 353f c578 5b3f 5d65 503f 54e2 813f
00000030: 82d6 843f b97b 763f 32ac 6e3f f700 8a3f
00000040: e36c 683f 8874 683f f939 7e3f 8788 723f
0.8633285 0.89855456 0.90198123 1.090221 1.0763682 0.75265485 0.9591241 0.8735781
0.70890063 0.85731155 0.8140467 1.0147195 1.0377963 0.96282536 0.932315 1.0781544
0.9079115 0.9080281 0.9930721 0.94739574

rb2.bn1.bias f4 [20]
00000000: 9f3a 063d f14c 23be 290e d03d b949 02bd
00000010: 7406 69be 7de3 b3bd 2f99 0a3d 68ff cb3d
00000020: 8a87 3ebc 9f44 a93d ec4d 733b e798 533d
00000030: 33e3 06be 645c a53c cae6 ebbd 908c 8bbd
00000040: d65c d73d 51b6 cbb6 6a29 eb3d 9962 f0bd
0.03277075 -0.1594732 0.10158951 -0.03180859 -0.22756368 -0.08783624 0.033837494 0.09960824
-0.011628995 0.082650416 0.0037125302 0.05165949 -0.13172607 0.020185657 -0.11518629 -0.068139195
0.10515754 -6.071096e-06 0.114825085 -0.11737556

rb2.bn1.running_mean f4 [20]
00000000: 9947 93bf 7e1d afbd b0c2 d5bf 076a 3bc0
00000010: 1816 98bf 22e3 89be dedc 9bbf cbc1 aebf
00000020: d590 7f3f 4465 4cbe b02d 9cbe 483b 83bf
00000030: 30a3 25c0 1965 37bf 3374 e9be 98d9 dcbf
00000040: 81fc ebbf c217 32bf 9bb7 eabf 3c67 98be
-1.1506225 -0.08550547 -1.6700039 -2.9283464 -1.1881742 -0.269311 -1.2176778 -1.3652891
0.9983037 -0.19960505 -0.30503607 -1.0252466 -2.5880852 -0.7163864 -0.45596465 -1.7253904
-1.8436433 -0.695675 -1.8337282 -0.29766262

rb2.bn1.running_var f4 [20]
00000000: c7e6 bd3f 057d ac3f 77f8 fa3f 2754 3540
00000010: ff24 1240 5f0b bf3f 51e1 1940 cfdd 2540
00000020: 8565 9d3f 8204 9e3f bf1c c13f 2af6 1840
00000030: 4938 3140 9ed0 f93f 6df0 b83f f545 1440
00000040: c898 1640 1468 ef3f c626 eb3f c85a 0f40
1.4836053 1.3475653 1.9607075 2.8332613 2.283508 1.4925345 2.4043772 2.5916631
1.2296606 1.2345126 1.5086898 2.3900247 2.7690604 1.951679 1.4448372 2.3167698
2.353075 1.8703637 1.8371208 2.2399158

rb2.conv2.weight f4 [20, 20, 3, 3]
00000000: a48d 883c e74a 833d 868b 9b3b d425 4c3d
00000010: 8667 463c 6037 f4bd ed5e 70bc 35e1 11be
00000020: 45df 3dbd 65a9 4fbe 6eff 3f3e ecd0 0b3e
00000030: 5a99 1b3d 09cf 293e 44bf 083e 672f b33d
00000040: f4f0 b03d 8931 253e d460 fcbc f346 45bd
00000050: 41f5 ba3c 9861 143e 1f07 a03d af65 e8bc
00000060: fb27 c2bc 0b68 693c 87ce b8bd 0f6b 26be
00000070: c282 bebc 6be9 2dbe 37cb bebd 310a e53d
00000080: fee5 71be f0a1 8abe a46e c9bc 296c b0bd
00000090: 459b 13be a075 eebd cb2f ecbd 063e 4abc
000000a0: 8bdf b8bc 7d76 27bc e1cf a03d 200b 123e
000000b0: 0d84 573d f4bf f3bd 7c9b 00bd 8de4 7dbd
000000c0: 6deb 36be f4a7 163e d00d 0dbb d7e6 8c3c
000000d0: 9840 34bd 799d 9dbc 7fdd 6cbb 9dd4 b83a
000000e0: ea75 8fbd 37b1 023e 417d 073c f5a1 b4bd
000000f0: cf09 febd 5f13 13be b366 b93c 15ee 29be
00000100: c98d 2abd 7cc6 d1bd 0713 e5bb 2c4a 02be
00000110: 0a7e a6bd 223f 12be 0be0 51be 6d7e 693d
00000120: 41fb 153e 617a 88be 6d1e 5fbe 62f2 893e
00000130: 8bd3 8e3d f91f 6dbd 1a5d 163a 4dd8 1fbc
00000140: 8d0a 963d 10e7 983d d5e5 25be e6ad 95be
00000150: aadc 833c d6e5 c9bd 1096 e33d 757b b9bd
00000160: 9779 a53d f3b2 893e 13ea fa3b b6c4 2b3c
00000170: bf1a adbd 3857 253e f79c ce3d 3209 90bd
00000180: 9fb1 4e3d 3c35 0abe 777f 94be 274b 303c
00000190: 00d8 773d 0154 4e3e fabd 143d 1346 40bd
000001a0: 2b8c e83d 5ff0 10bd 1437 0cbe 5c96 94bd
000001b0: 0d71 8bbc 2623 103d 5199 95bc 7450 f1bd
000001c0: d3e6 fcbd b732 cebd 9c73 b2be c458 52be
000001d0: c84a 69be 64af 2c3d e647 e83c 4206 b93c
000001e0: c7f9 1d3e 9075 bcbc 51bd a03d 5804 cb3d
000001f0: 7c1c 5abb 2dac 40bc 230b 2c3e 7ea0 c93c
00000200: de72 573e e73e ab39 9ba3 c8bd 3b21 103e
00000210: 5f77 6e3d 33c5 c63d 5fbc 363e 7825 aa3d
00000220: 76cf 9d3d ccc9 d93d 3ba0 8dbc ba91 f23d
00000230: f7ff 6b3d 5f20 183c 6931 d6bc 0897 60be
00000240: 5ea5 af3d 3ee2 da3c 0fe1 b43c dbed 3c3d
00000250: 39d8 d83d 2f98 383d 88c1 9bbd 6712 73bd
00000260: cdbe 6a3c 6cc0 803d fc71 6fbd 5c9b 503d
00000270: 99db 26bd 0801 31be 068c e03c 2e40 25bc
00000280: 2d5c 7dbd 8576 26bd a805 16be 4e01 4c3d
00000290: 301c 10bc 8e6c 13be 8ba1 043e 5553 cd3d
000002a0: 09a1 83be ea2d 59bd aef1 d9bd 5b8c 653e
000002b0: 235d 6b3d 534f 983d 9114 df3d 479b c73d
000002c0: 0931 083e 0430 173e 9314 2e3e ee9a 313d
000002d0: 84ee b03d e45e 0e3e 56cf c6bd f19f 18be
000002e0: 02eb 853d e7c9 c6bd 7d36 d5bb f932 94bd
000002f0: a07c 15be 2ddb d5bd 852b 84be f7e9 0dbd
00000300: 6f4d da3d f270 fcbb 3a5d 413d 20f4 493d
00000310: 4ed1 d23d a80b 6f3c a5ed c3bd 0452 90bd
00000320: bc05 8cbd 7ae1 60be db7e afbd 3144 03bd
00000330: 4de6 823c 8914 853d 7d43 043d 12fd 03be
00000340: e05a e33c 1c40 80bd 55ab 12be 78ac f13d
00000350: 353c ccbd e8aa 4abe b665 07be 2c91 47be
00000360: 7d4e 4abe 0d7e 10be be77 e4bd f48f 71bd
00000370: cc2c b43c c7ea 24be 9dc7 023e aecc a6bd
00000380: 95ef c2bd 8113 99bd 8cbc 7cbd aa10 1a3e
00000390: 63b2 8cbe e1d3 4fbe 5e89 863d 582c f53c
000003a0: 9277 0cbd 53ad ae3d dd4d 0dbd 0d9c f1bc
000003b0: db9f 973d a236 27bd 25d5 983c 78a7 ffbb
000003c0: 1406 103c c5f1 043e 32be 36bc 6fc2 843d
000003d0: 7a37 f63b ab93 75be c1f2 913d a754 c43d
000003e0: 1466 89bd 470e a1bc 5297 39bd 7c40 09be
000003f0: 906a 00be ab38 c7bd 236d 08be 8e0b 893d
0.016669102 0.06410771 0.004746857 0.049840763 0.012109643 -0.119246244 -0.01467107 -0.14246066
-0.046355505 -0.20279463 0.18749782 0.13653916 0.037988044 0.16582884 0.13354212 0.08749276
0.08639708 0.16132177 -0.03080789 -0.048163366 0.022822024 0.14490354 0.07813858 -0.028368799
-0.023700705 0.014245997 -0.09023767 -0.16251777 -0.02325571 -0.16983573 -0.09316104 0.111835845
-0.23622891 -0.27076674 -0.02458889 -0.0861438 -0.144147 -0.11643529 -0.11532553 -0.012343889
-0.022567531 -0.010221121 0.0785215 0.14262056 0.052616168 -0.119018465 -0.03139828 -0.06198554
-0.17863245 0.14712507 -0.0021523125 0.017199917 -0.044006914 -0.019240128 -0.0036142764 0.001410145
-0.07004912 0.12762915 0.008269609 -0.08819953 -0.124042146 -0.14362858 0.022631979 -0.16594727
-0.041639123 -0.10242936 -0.0069907936 -0.12723607 -0.08129509 -0.14281896 -0.20495622 0.057005335
0.14646627 -0.26655868 -0.2178895 0.26942736 0.06973942 -0.05789182 0.0005735919 -0.00975616
0.07326231 0.07465947 -0.16200955 -0.29234236 0.016096432 -0.09858291 0.111126065 -0.09056751
0.08079832 0.2689434 0.0076572984 0.010483911 -0.08452367 0.16146553 0.100885324 -0.07033004
0.05046236 -0.1349687 -0.29003498 0.010760105 0.060508728 0.20149232 0.03631399 -0.046941828
0.1135486 -0.035385486 -0.13692886 -0.07255241 -0.01702168 0.03518977 -0.018261584 -0.11782923
-0.12348714 -0.10068267 -0.34853828 -0.20541674 -0.22782433 0.042159453 0.028354596 0.022585992
0.15427314 -0.023005277 0.07848609 0.09912938 -0.0033281138 -0.0117598 0.16801123 0.024612661
0.21039912 0.00032662528 -0.0979683 0.14075176 0.05821931 0.097055815 0.17845295 0.08307928
0.07705586 0.10634193 -0.017288318 0.118442014 0.057617154 0.009285062 -0.026146607 -0.21932614
0.08576463 0.026719209 0.022079973 0.046125274 0.10588116 0.04506701 -0.076052725 -0.05934372
0.014327717 0.062867016 -0.058458313 0.050929412 -0.04073677 -0.1728555 0.027410518 -0.010086102
-0.061855484 -0.040640373 -0.14650595 0.04980593 -0.008795783 -0.14396879 0.12952249 0.1002566
-0.25708798 -0.053022303 -0.106418 0.22416823 0.05746187 0.07437005 0.108925946 0.09746414
0.13299955 0.1476441 0.17000036 0.043360643 0.08639243 0.13903385 -0.09707515 -0.14904763
0.06538965 -0.097064786 -0.0065067396 -0.07236285 -0.14598322 -0.10442195 -0.25814453 -0.034646954
0.106593005 -0.007703894 0.04720805 0.04930508 0.10293828 0.014590181 -0.095668115 -0.07046893
-0.06837031 -0.21961012 -0.08569118 -0.032047454 0.015978957 0.064980574 0.032290924 -0.12889507
0.027753294 -0.06262228 -0.1432317 0.11800474 -0.09972421 -0.19791758 -0.13222393 -0.19488972
-0.19756503 -0.14110585 -0.111556515 -0.058975175 0.021994017 -0.16105185 0.12771459 -0.08144508
-0.09518353 -0.07474423 -0.06170325 0.1504542 -0.27479848 -0.20295669 0.065691695 0.029928371
-0.03429372 0.08529153 -0.034498084 -0.029493356 0.07403537 -0.040823586 0.018656323 -0.0078019463
0.008790512 0.12982853 -0.0111537445 0.06482398 0.0075139375 -0.23982112 0.0712638 0.09586459
-0.06708923 -0.019660128 -0.045310326 -0.13403505 -0.1254065 -0.097276054 -0.13322882 0.06691657

rb2.conv2.bias f4 [20]
00000000: 038a 25b7 8c56 d137 00fc 1d38 d667 d2b7
00000010: cde5 2f38 b440 0c39 0c1a af37 4c9a a2b7
00000020: 74b7 b136 a6c1 6cb8 fba4 2639 68ee 8eb8
00000030: b07f 10b9 c7da 6638 8696 30b8 5e5d 07b8
00000040: ba6b 7938 2288 0e39 ea06 76b8 0729 b837
-9.8669e-06 2.4955043e-05 3.766641e-05 -2.5082303e-05 4.193727e-05 0.00013375544 2.0873755e-05 -1.9383755e-05
5.296368e-06 -5.6447134e-05 0.00015892454 -6.815494e-05 -0.00013780477 5.5040025e-05 -4.2101856e-05 -3.2273463e-05
5.9466554e-05 0.00013592889 -5.865741e-05 2.1953614e-05

rb2.bn2.weight f4 [20]
00000000: b70c 613f b7c3 803f efdb 9b3f 5b47 8e3f
00000010: 16bf 9a3f 3002 873f 5fb7 a03f 75cd 9c3f
00000020: 183f 9f3f 8c3b 9a3f fe7c 9c3f 1367 7e3f
00000030: 5686 993f ac5a 823f 51a4 903f 2f09 ab3f
00000040: 6b7e ac3f 186d a53f c32f 933f 303c 653f
0.87910026 1.0059727 1.2176493 1.1115526 1.2089565 1.0547543 1.255596 1.22502
1.244113 1.2049422 1.2225645 0.9937603 1.1994121 1.0183921 1.1300145 1.3362178
1.347608 1.2923918 1.1498951 0.89544964

rb2.bn2.bias f4 [20]
00000000: b985 273e 9787 443d 1ff2 65be d265 c1bc
00000010: bed0 d9bd ba49 44be 8bd5 a23d cfa8 7cbe
00000020: b59a 523e d287 0dbe d6d4 0d3d 4d47 2abe
00000030: 5359 763c 1245 6e3d 975a f5bc a188 023e
00000040: 5700 57bb 82bb 10be 8394 9b3d 0817 8cbe
0.16359605 0.04798087 -0.22455643 -0.023608122 -0.106355175 -0.1916875 0.07950886 -0.2467377
0.20566829 -0.13821343 0.034626804 -0.16628762 0.015035945 0.05817134 -0.029950423 0.12747432
-0.00328066 -0.14134029 0.07596686 -0.2736132

rb2.bn2.running_mean f4 [20]
00000000: 3b34 03bf ae30 10c0 8fd3 95bf 0adf 8ebf
00000010: 8bb3 89bf 5fe0 5b3e 6ac8 bcbf da07 7d3e
00000020: e442 3dc0 5a0a 4abe 7f84 92bf b8cf 5e3d
00000030: 3030 efbf 4aaf 1dbf a980 9f3e 1803 b7bf
00000040: 9073 2dc0 6875 8dbe 50f9 12c0 2cd3 7a3e
-0.5125157 -2.2529712 -1.1705188 -1.1161816 -1.0757917 0.2147231 -1.4748662 0.24710026
-2.9572077 -0.19730511 -1.1446685 0.054397315 -1.8686581 -0.61595595 0.31152847 -1.4297819
-2.7101784 -0.27628636 -2.2964668 0.24494618

rb2.bn2.running_var f4 [20]
00000000: 1047 833f ba2b 9d3f a56b 4c3f be00 9a3f
00000010: 4eb4 523f f50c a23f 07cd b13f 8f8a 4a3f
00000020: 3d21 ab3f 7384 793f 9e57 5e3f 861f 5c3f
00000030: a830 3a3f 470f 8e3f 2d19 bf3f bac3 8d3f
00000040: fbdf 723f 44b1 883f a42f 933f e002 2c3f
1.0256062 1.2278969 0.7985175 1.2031476 0.82306373 1.2660204 1.3890694 0.79117674
1.3369519 0.97467726 0.86852443 0.859856 0.72730494 1.1098412 1.4929558 1.1075356
0.9487302 1.0679097 1.1498914 0.67191887

rb2.shortcut.conv.weight f4 [20, 10, 1, 1]
00000000: 56bf 8bbd bf32 a0bd 6146 d3be 9194 b0bd
00000010: b095 fe3e 058f b43a 9a54 8a3b bf7c 573c
00000020: e092 26bb 1c49 75be ff67 9ebd 3d22 b83d
00000030: 70ad 21bf c529 863d 9dea eabd c8f1 81be
00000040: 4db2 1bbd 077f 25bd fa42 783c c704 20bc
00000050: a2e2 93bd c6d7 edbd 7b7d 0abd b20d c3bc
00000060: d91a 6e3d 2edf cf3e f38a 1f3e 7a6e c83d
00000070: 6f0a 27be 3a97 b1be 453f 35bd 9f65 363c
00000080: 72ca a93e 1e3d fd3d 2292 263e 45a0 15be
00000090: bf96 8e3e f58c 673e 9a24 dd3e ef18 21be
000000a0: ddef 1abe 2da5 313d 355c ac3d 26ba c33e
000000b0: 7726 713d 0ea5 a0bd de1e 22bd 430a 18bd
000000c0: 972b c53e 50fd 29be 5534 833e 8119 3a3e
000000d0: adc2 ccbd 14cd b8be 7ec3 98bd 1b06 abbd
000000e0: b48f 543e cbc3 2cbe 951e 40be a51e d1be
000000f0: b6e6 c4bd be06 1b3e 0412 463d 4267 90be
00000100: 6197 51bc 7c01 c4be caeb 9dbe c3cd 813d
00000110: ad4d 8d3e 1510 78bd ec98 363e cd11 523e
00000120: 039f a8bc 7821 aabd 423c 34be ed75 e2bd
00000130: b91f a3be f9ff b93c f9f5 16bf 4b51 34be
00000140: fbae eabd d9aa 0c3e fc14 cdbd 93a7 f1bd
00000150: e93d 2ebf 5ff6 a4bd b85a 91b9 c867 8f3e
00000160: 86bd ebbd 2508 e53c e3d3 6bbe 2f27 c03e
00000170: f0f1 36be e6a5 50be d744 3f3e cf00 c3bd
00000180: b15c 0cbc 5330 133e b45c 34bd f5c4 c1be
00000190: 63e6 1c3d 1a93 e83d 7393 d8be 5796 803e
000001a0: ee6b a8be e531 cfbd 9966 823e 1094 c33d
000001b0: d600 163e 014c c23d 19fe f33b bfbe 6fbd
000001c0: ff9e aabe f15a 733e 1132 783e 1539 773e
000001d0: aba5 ecbd 6438 1bbe 4dd0 153e 0419 28be
000001e0: c5ad febd 76bc c5be 9f4b 473e 62de b03e
000001f0: c6ca 35bd 203b 0e3d 8f0b 513d ed06 10be
00000200: cf57 c0be 985d bd3d aa57 41bd 217d 3ebe
00000210: 7ec3 0bbe b26e c8bd 915c b93d e7e9 043e
00000220: fac0 043e af85 eb3d 5d7c 1cbf 913a 0abe
00000230: 0e97 6e3c 5b3f 8cbe 6bc6 26bc 9be7 42be
00000240: daa4 50bb a31e b9be 334d cebe 37a2 e7bd
00000250: a60a d8bd 08e0 353e a328 d13e e1d3 b2be
00000260: 9ca4 743e 3f06 1a3e 4512 0cbe 996e 203e
00000270: 98c6 013e 6a90 fdbd f6bd 81be 8f34 9fbc
00000280: 021b 3f3e 5a7c a53e f826 01be ecbe 963d
00000290: 861b d4bc 7a23 863e 7052 4a3e 08d8 fb3d
000002a0: 6b84 ab3d b56d e4bc ca9a b03d d31d b63d
000002b0: 6e28 95be 066a 123e d928 fb3b 3d2e 7d3e
000002c0: 65b4 863e a280 cc3e eda6 273e c324 eabd
000002d0: 9d33 883d 0d4f 103e a4c3 c2bc 7c77 88be
000002e0: 2e65 07bd 3dea 8e3c a276 6b3d ff03 8abe
000002f0: ea40 00bf 7619 17be 8390 82be 51a6 05be
00000300: 042e c53e fbba 5fbc 59a7 0e3e 0264 a3bd
00000310: 5463 ce3d 2b9a bdbd c042 5abe dc33 c43d
-0.06823604 -0.07822179 -0.41264632 -0.08622087 0.49723577 0.0013775533 0.004221511 0.0131523
-0.0025417134 -0.2395367 -0.077346794 0.089909054 -0.6315527 0.06550936 -0.1147053 -0.25379777
-0.038011838 -0.040404346 0.015152687 -0.009766764 -0.07220961 -0.11613421 -0.033811074 -0.023810241
0.058131073 0.4059996 0.15580349 0.09786697 -0.16312574 -0.3468569 -0.04424979 0.011132627
0.33162266 0.12365173 0.16266683 -0.14611919 0.27849385 0.22612365 0.43191987 -0.15732168
-0.15130563 0.043370415 0.084160246 0.38227957 0.058874574 -0.07843982 -0.03958022 -0.03711916
0.3850982 -0.16600537 0.25625864 0.18173791 -0.09998069 -0.36093962 -0.07459162 -0.08350774
0.20757943 -0.16871564 -0.18761666 -0.40843692 -0.09614317 0.1513929 0.048357025 -0.2820378
-0.012792439 -0.38282382 -0.30843955 0.06338074 0.27598324 -0.060562212 0.17831773 0.20514603
-0.020583635 -0.08307165 -0.17601112 -0.11057649 -0.3186014 0.022705065 -0.58969074 -0.17609136
-0.11459156 0.13737048 -0.10013768 -0.1179954 -0.6806322 -0.08054804 -0.00027724146 0.28008866
-0.11510758 0.027957985 -0.23030047 0.37529895 -0.1786573 -0.20375785 0.18678604 -0.095216386
-0.008567021 0.14373903 -0.04403372 -0.3784558 0.03830565 0.113561824 -0.42299995 0.251147
-0.32894844 -0.101169385 0.254689 0.09549725 0.14648756 0.09487153 0.0074460623 -0.05853152
-0.3332443 0.2376516 0.24237849 0.24142869 -0.11555036 -0.1515823 0.14630242 -0.16415793
-0.12435488 -0.38620347 0.19462441 0.34544665 -0.044382833 0.034724355 0.051036414 -0.14065142
-0.37566993 0.09246367 -0.047202744 -0.1860242 -0.13648793 -0.097867385 0.09050859 0.12979852
0.1296424 0.115001075 -0.61127263 -0.13498904 0.014562381 -0.27392086 -0.0101791425 -0.19033663
-0.003183654 -0.36156186 -0.40293273 -0.11310237 -0.10548906 0.17761242 0.40851316 -0.34927276
0.23890918 0.15041445 -0.13678844 0.1566719 0.12673414 -0.123810604 -0.2534024 -0.019434242
0.18662646 0.32321435 -0.12612522 0.07360634 -0.02589203 0.2619894 0.1975801 0.12297064
0.08374866 -0.027884344 0.08623274 0.08892407 -0.29132408 0.14298257 0.0076647815 0.2472467
0.26309505 0.3994189 0.16372271 -0.11432793 0.066504695 0.14092655 -0.02377493 -0.2665366
-0.033055477 0.017445678 0.057486184 -0.26956174 -0.5009905 -0.14755806 -0.2550088 -0.13051726
0.3851167 -0.013655419 0.13931026 -0.07978059 0.10077539 -0.09257921 -0.21314526 0.09580204

rb2.shortcut.conv.bias f4 [20]
00000000: ebce 0a38 b9e8 1cb8 3c46 61b8 28f1 29b7
00000010: 0785 2238 4cbf 99b6 a456 2d38 4773 0838
00000020: ec68 4cb7 521a 21b7 bec8 8838 bf4d d137
00000030: f095 5138 5f8b b337 4dc2 15b9 9c30 9636
00000040: 391f 9b38 30e4 dc37 f060 cdb7 9039 d9b7
3.309447e-05 -3.741004e-05 -5.370959e-05 -1.01293335e-05 3.87477e-05 -4.582025e-06 4.1327105e-05 3.2532287e-05
-1.2183777e-05 -9.602476e-06 6.5223765e-05 2.4950945e-05 4.9969123e-05 2.1403363e-05 -0.0001428213 4.4760072e-06
7.3967916e-05 2.6332302e-05 -2.4483044e-05 -2.589522e-05

rb2.shortcut.bn.weight f4 [20]
00000000: 9d9b 793f 324c 393f c6f0 6e3f 03be 1a3f
00000010: 3ccb 373f 2090 463f b836 273f 3df6 4d3f
00000020: 1e40 573f fadb 633f 5b57 1c3f d4b7 393f
00000030: 228c 0e3f 2c35 693f a546 8c3f e8bd 083f
00000040: 9156 343f 713b 153f 23ec c93e 288f 463f
0.9750307 0.7238189 0.9333614 0.60446185 0.71794486 0.7756367 0.6531787 0.80453855
0.8408221 0.8900753 0.61070794 0.72546124 0.55682576 0.9109676 1.0959059 0.53414774
0.7044459 0.58293825 0.3943797 0.7756219

rb2.shortcut.bn.bias f4 [20]
00000000: b985 273e 9787 443d 1ff2 65be d265 c1bc
00000010: bed0 d9bd ba49 44be 8bd5 a23d cfa8 7cbe
00000020: b59a 523e d287 0dbe d6d4 0d3d 4d47 2abe
00000030: 5359 763c 1245 6e3d 975a f5bc a188 023e
00000040: 5700 57bb 82bb 10be 8394 9b3d 0817 8cbe
0.16359605 0.04798087 -0.22455643 -0.023608122 -0.106355175 -0.1916875 0.07950886 -0.2467377
0.20566829 -0.13821343 0.034626804 -0.16628762 0.015035945 0.05817134 -0.029950423 0.12747432
-0.00328066 -0.14134029 0.07596686 -0.2736132

rb2.shortcut.bn.running_mean f4 [20]
00000000: 46ae bdbe 8bed 6cbf 999b 6dbc 7e4c 7d3f
00000010: d105 ad3e 3574 37bf e6ae 12bf 11a4 74bf
00000020: b68f 23bf c8c9 febe f876 913d af08 aa3b
00000030: 298d 54be 25b1 16bf 9ae2 82bf ed07 803e
00000040: 3111 5b3f 7268 4f3f f865 56bf d8b6 983b
-0.37047023 -0.9254996 -0.014502429 0.9894484 0.337935 -0.7166169 -0.57298124 -0.95562845
-0.6389116 -0.49763322 0.071027696 0.0051890234 -0.20756973 -0.5886405 -1.0225403 0.25006047
0.85573107 0.81018746 -0.8374934 0.0046604685

rb2.shortcut.bn.running_var f4 [20]
00000000: 76a8 ee3e b82b d33e 9490 c63e ce09 063f
00000010: 0477 d73e a74d e23e 3e16 d93e c795 1b3f
00000020: 3486 af3e 60fe 9a3e 500e e73e e982 903e
00000030: abb0 803e 8864 223f c8c6 033f 62df b93e
00000040: 7ff3 9c3e ef86 d73e 3d51 093f d6a9 1b3e
0.466129 0.41244292 0.3878218 0.5235871 0.4208299 0.4419987 0.42399782 0.6077542
0.34282076 0.30272198 0.45128107 0.28224877 0.25134787 0.6343465 0.5147519 0.3630324
0.30654523 0.42095134 0.53639585 0.15201506

res1_sc1.conv.weight f4 [20, 3, 1, 1]
00000000: c825 0cbf 110e c43d 1839 ad3e c3c8 82be
00000010: a975 0d3f 2dc0 79be 973d d73c 8e7f 9cbe
00000020: 984f e4be b8e2 c73e 5962 bfbe 2be7 99be
00000030: e076 e73e 40e2 2ebe 8a5e 853e 6529 15bf
00000040: da81 b4be 0805 b03e fc6e 4fbe 436c d73e
00000050: f863 003f be65 ca3e c4ca 11bf 65e0 a6be
00000060: b4e1 333e bc90 123f 445b 33be 99f5 903e
00000070: d39a 64be 6f03 ccbe 64f9 8bbd e3ee 65be
00000080: 08ae f6be 83cc 263e be45 abbd b93b d7be
00000090: b663 dabe 262c 4bbe 0951 14bd 62f6 2a3d
000000a0: 2e6f 37be 5355 febe 83a1 43be 16ea 7a3e
000000b0: 3e81 da3e d78b cc3e f948 3f3e 05eb 81be
000000c0: e9d2 683d d6a6 c4be 52f5 4a3d e97d f43c
000000d0: 886e d3be 90ac 1d3d fefb 843e a5d6 b23e
000000e0: 0a52 57bd 2068 08bf 763d f53d 3ebe d43d
-0.5474515 0.095729955 0.33832622 -0.25543794 0.5525766 -0.24389715 0.026274486 -0.30566067
-0.44591975 0.3904016 -0.3737972 -0.3005918 0.45207882 -0.17078495 0.2604869 -0.5826629
-0.3525532 0.3437884 -0.20257181 0.42074785 0.5015254 0.39530748 -0.5695002 -0.32593074
0.17566568 0.572521 -0.17515284 0.28312376 -0.22324686 -0.3984637 -0.06834677 -0.2245441
-0.4817965 0.16288953 -0.08362912 -0.42037752 -0.42654198 -0.1984106 -0.036210094 0.041738875
-0.17913505 -0.49674472 -0.1910458 0.24503359 0.4267673 0.3995044 0.1868018 -0.25374618
0.056841765 -0.38408536 0.049550362 0.029845195 -0.41295266 0.038494647 0.25973505 0.34929386
-0.052568473 -0.5328388 0.11974613 0.10387848

res1_sc1.conv.bias f4 [20]
00000000: b4a5 f438 c083 0d39 fba2 ae38 9331 3fb8
00000010: e251 0c39 fc16 0939 9019 3bb5 76fd 85b8
00000020: 932f 0ab9 a59e 3db8 a671 9cb6 e1bb c438
00000030: 81d3 94b8 d799 dfb8 22bd 2a37 fb3a 08b7
00000040: 41a4 a9b7 80c5 7134 0a28 94b8 514e af38
0.00011665691 0.00013495889 8.327324e-05 -4.558412e-05 0.00013381944 0.000130739 -6.9700127e-07 -6.389145e-05
-0.00013178428 -4.520886e-05 -4.6623927e-06 9.3810035e-05 -7.0965856e-05 -0.000106621235 1.01768255e-05 -8.119964e-06
-2.0222857e-05 2.2516724e-07 -7.064648e-05 8.359238e-05

res1_sc1.bn.weight f4 [20]
00000000: 15e6 643f fcf4 6c3f c44a 3c3f eb6b 263f
00000010: f8f0 173f 3a79 253f 61c0 1a3f 3c1f 2f3f
00000020: 18bc 2b3f 78df 303f ba92 213f 815b 2a3f
00000030: 6a66 133f 496a 2e3f be40 313f 93e1 e23e
00000040: 3512 1c3f d9e7 113f 1b18 f73e 7391 5c3f
0.8941358 0.92561316 0.73551583 0.6500842 0.59352064 0.646381 0.60449797 0.68407035
0.67083883 0.69090986 0.6311451 0.66545874 0.57578146 0.6813093 0.69239414 0.44312724
0.6096528 0.56994396 0.4826058 0.8615944

res1_sc1.bn.bias f4 [20]
00000000: b985 273e 9787 443d 1ff2 65be d265 c1bc
00000010: bed0 d9bd ba49 44be 8bd5 a23d cfa8 7cbe
00000020: b59a 523e d287 0dbe d6d4 0d3d 4d47 2abe
00000030: 5359 763c 1245 6e3d 975a f5bc a188 023e
00000040: 5700 57bb 82bb 10be 8394 9b3d 0817 8cbe
0.16359605 0.04798087 -0.22455643 -0.023608122 -0.106355175 -0.1916875 0.07950886 -0.2467377
0.20566829 -0.13821343 0.034626804 -0.16628762 0.015035945 0.05817134 -0.029950423 0.12747432
-0.00328066 -0.14134029 0.07596686 -0.2736132

res1_sc1.bn.running_mean f4 [20]
00000000: 0c30 6bbc abc8 0d3c 48d8 b23d 55a2 343d
00000010: 5094 6bbd 1525 cb3c 6ad4 babd a1aa 823d
00000020: a502 14bd 4fba 5c3d be0d be3d 2cc2 5f3d
00000030: eae5 5e3d a472 a93d 87ee 88bd f41d 22bc
00000040: c81d a83c 3139 d93c 1e7b 29bd 5997 823c
-0.014354717 0.0086538 0.087326586 0.044100124 -0.05751449 0.024797956 -0.09122546 0.06380201
-0.036135335 0.053888615 0.09279965 0.054628536 0.054418482 0.08273819 -0.066861205 -0.009894837
0.020522013 0.026516529 -0.04137718 0.015941309

res1_sc1.bn.running_var f4 [20]
00000000: b17c af3c 1c9b 923b 7dbb 033e 703a 0a3d
00000010: 9bc2 873d 8b35 bf3d 5b99 0b3e 8d9d 9c3d
00000020: a4ef 9c3d 3469 273d 7cef 123e 03a2 193d
00000030: e9b3 c93d 99b7 d13d 66f5 863d 150c 073d
00000040: e434 983c 287c e53c d2c3 8f3d 3660 ef3c
0.021421762 0.004474057 0.1286449 0.033747137 0.06628915 0.093363844 0.13632719 0.07647238
0.07662895 0.040871814 0.14349169 0.037508022 0.09848768 0.102400966 0.06589775 0.032970507
0.018579908 0.028013304 0.07019772 0.029220682
