models/dense_max/epoch_0008.pth (torch, 645162 bytes, 174 tensors)

rb1.conv1.weight f4 [10, 3, 3, 3]
000000 3b 34 97 bd 79 9f 81 3d 16 16 c1 bd e9 24 66 be
       -0.07383009 0.06329245 -0.09428041 -0.22475018
000010 d1 3b 80 3e 00 a3 47 3e af b8 3d be 9c b1 50 3e
       0.25045636 0.19495773 -0.18527482 0.20380253
000020 fc bb eb bd b0 e6 19 be a4 28 61 3c 51 e4 27 bd
       -0.115104645 -0.15029407 0.0137426 -0.040989224
000030 d4 18 9e be b0 02 80 3e 2e af 37 3e ef 06 39 bc
       -0.30878317 0.2500205 0.1793792 -0.011293157
000040 10 52 86 3e da 43 70 be 17 95 a0 bc 62 84 3e bb
       0.26234484 -0.23463383 -0.019602342 -0.0029070606
000050 4f 52 a7 bd b5 9c 68 be 31 7b b7 3c 24 da 08 3d
       -0.08169996 -0.22716029 0.02239761 0.03341116
000060 f2 1f 0e 3e e4 75 4c 3d d5 ab 0d 3e 83 a5 1d 3d
       0.13879374 0.049917117 0.1383508 0.038487922
000070 bf f7 46 3d cb e7 1f 3e 84 79 9b 3d 44 7e f7 3d
       0.048576113 0.15615766 0.07591537 0.1208463
000080 6e 1d a5 be 8b 32 90 bd 34 ad 61 3d 91 01 dc bd
       -0.32249016 -0.0704089 0.05509682 -0.10742486
000090 c5 ce 5c bd 54 e1 ff bb 0a bc df bc c2 ef ca bc
       -0.05390813 -0.0078088436 -0.027311344 -0.024772529
0000a0 a0 a6 ce 3e 75 d7 55 be fe 40 44 bd ea af e9 3d
       0.403615 -0.20882972 -0.047913544 0.11410506
0000b0 48 8d 1d be 88 a6 15 be db 1e 2a be 8a 4c d4 3d
       -0.15385926 -0.14614308 -0.16613333 0.10366161
0000c0 b7 d3 06 3d 93 d2 a7 3e 31 6b 89 be 83 4f 68 bc
       0.03291675 0.32777843 -0.26839593 -0.014179113
0000d0 f3 4c da 3d ad f4 0e 3d 83 47 95 3c 0a 55 7b 3e
       0.10659208 0.03490131 0.018222576 0.24544159
0000e0 a1 98 3c 3e 03 17 0b be f5 ba 9c bd 63 ea cb 3d
       0.18417598 -0.13582997 -0.07652847 0.09956815
0000f0 ae 3e 68 bd 5c e3 4b be 6f fb 0c 3d b4 99 7e 3e
       -0.0567004 -0.1991095 0.034419473 0.2486332
000100 6c 95 57 3e e1 5a 9a 3e 62 ec db 3b 55 26 39 be
       0.21053094 0.3014746 0.0067115286 -0.18081029
000110 bd 49 01 be ec a0 f0 bd 2a ab 85 be f1 c3 3a be
       -0.12625785 -0.117494434 -0.2610715 -0.18238808
000120 5d 0c ac 3d e5 4c 25 3e 36 34 53 3d d2 74 5b 3c
       0.084007956 0.16142614 0.051563464 0.013394551
000130 60 23 30 bd f9 9c d6 bd 84 0f d2 3d 63 d8 40 be
       -0.043002486 -0.10479159 0.102568656 -0.18832545
000140 78 03 f0 bd 1b 21 36 be 9c d1 86 3d 17 49 33 be
       -0.117194116 -0.17786066 0.065829486 -0.1750835
000150 46 e1 c0 3d ba 7e 8f be 9a ad 2a be 95 ee 40 3d
       0.094179675 -0.28026372 -0.16667786 0.04710253
000160 56 92 b0 3d 32 38 0d 3e e1 03 f5 bd 63 b6 09 be
       0.08621661 0.13790968 -0.119636305 -0.13448481
000170 b7 30 2b be c8 94 74 3e 93 98 6f be fc ec f5 bd
       -0.16717802 0.2388488 -0.23398046 -0.12008092
000180 53 52 85 3e 91 19 9e bb 9c dd 94 bc 51 a6 7c bd
       0.2603937 -0.004824825 -0.018172078 -0.06168205
000190 83 8f 17 3d 99 7f 1f be b6 e7 ec 3c 81 95 06 be
       0.037002098 -0.15576018 0.028919082 -0.13142969
0001a0 d9 54 f8 bd 2a c1 42 3e 39 15 10 3d 85 2f 73 3e
       -0.121255584 0.19018999 0.03517649 0.23748596
0001b0 8e 21 6c be 14 22 63 be 73 8a 48 3e 09 5d 7b bd
       -0.23059675 -0.22180969 0.19584064 -0.061368022
0001c0 c1 6c 3c be 19 01 02 3e e8 aa 93 bd 79 9e 8e bc
       -0.18400861 0.12695731 -0.07210332 -0.01740955
0001d0 3d 34 58 3e f8 f1 5c 3e ad fd 68 be 10 72 c1 bd
       0.21113677 0.21576679 -0.2275302 -0.09445584
0001e0 1e c9 a1 bd ba 90 9d bc 8a a3 27 3e ee 28 ea 3d
       -0.07899688 -0.01923405 0.16370979 0.11433588
0001f0 4a 2a f3 3d 10 3a 02 3e 89 2b 7d 3e be 37 a5 3d
       0.118733004 0.12717462 0.24723639 0.080672726
000200 ec 18 c6 bd 06 b8 5b 3e 97 db 0e 3d e7 e1 91 be
       -0.09672722 0.21456918 0.034877386 -0.28492662
000210 49 ca 1f 3e 8b 64 28 3d 6c f9 23 be e4 10 45 be
       0.1560451 0.04111151 -0.16013116 -0.19244725
000220 cb ef 0a be 06 68 1e 3e 4e 47 29 3c 48 f1 f4 bd
       -0.13568036 0.1546937 0.010331942 -0.11960083
000230 40 dc 35 3d ef 51 ef 3d ef 3a c8 bd b8 94 4c 3c
       0.0443995 0.116855495 -0.09776866 0.012486629
000240 b6 41 08 3d 9f a0 3f 3e aa 0b 6f 3e 75 70 a9 bd
       0.03326579 0.18713616 0.23344293 -0.082734026
000250 12 f5 d2 be 70 cc 9b bd f2 2b 2a 3e 17 b4 dc bd
       -0.412026 -0.07607353 0.16618326 -0.10776537
000260 50 ad b1 be 1b c6 a8 3c 59 77 aa bd 3f ef 79 3e
       -0.3470254 0.020602277 -0.08323545 0.24407671
000270 92 d7 c8 bd dc 3a 41 be 0d ad 7e bc 8b f1 4e be
       -0.09806742 -0.1887011 -0.015544188 -0.20209329
000280 ea eb a3 be cd dd 4e bc 91 f1 2a bd 28 65 8d bd
       -0.32015926 -0.012626124 -0.041734282 -0.0690406
000290 ed 6a fb 3d e7 d1 97 3d bd 09 42 3e fe cd b3 bd
       0.12276254 0.074130826 0.18949027 -0.08779524
0002a0 fa 6e 36 3b de 2e 98 bc ac ab 64 3d 1c 9a 86 3d
       0.0027837143 -0.018577036 0.05582778 0.06572363
0002b0 7e c8 60 ba 75 d3 d9 3d 9c 0b ed 3d 37 bf 7f 3e
       -0.00085747975 0.10636035 0.1157448 0.24975286
0002c0 89 09 5a bd 4d e0 ab 3d 0d 4d a2 3d 8c 11 17 be
       -0.05323175 0.08392391 0.079248525 -0.14752787
0002d0 3e f3 80 be c0 de 1d be 41 f9 87 bd e7 45 fc 3b
       -0.2518558 -0.15417004 -0.06639338 0.0076987627
0002e0 28 4b db 3d f4 21 27 3e 42 69 81 bd 1d 7a c7 3e
       0.10707694 0.16321546 -0.063189045 0.38960353
0002f0 41 1b 8d 3e dc ea 3c 3b 73 ae 0c be d4 8f 43 3e
       0.27559856 0.002882651 -0.13738422 0.19097835
000300 1f 73 7a be f3 0f fe bc 0f bd b7 3c d6 ef 65 3e
       -0.24457978 -0.031013465 0.022429017 0.22454771
000310 8b ea 9e bd a5 06 2b 3e 02 2f c6 3d 69 8b b2 bb
       -0.07759579 0.16701753 0.09676935 -0.005448748
000320 8b 94 5c 3e b8 eb 64 be 07 74 b2 be 1b b8 a0 bb
       0.2154104 -0.22355545 -0.34854147 -0.0049047596
000330 18 5d 20 3e be f3 05 3e 79 e7 6d be 08 f6 22 be
       0.15660512 0.13081262 -0.23232831 -0.15914166
000340 df 7d db bd 17 8e 68 3d bf 74 b2 bd 43 bd 0d be
       -0.107173674 0.056776132 -0.08713674 -0.13841729
000350 b1 2a b5 3e f0 9a 91 3e 21 59 d0 bd 35 38 a8 bc
       0.35384133 0.2843852 -0.1017325 -0.020534614
000360 4d 2d 92 be e7 d2 a0 3d 45 e1 b2 bc ae 7a 6d ba
       -0.28550187 0.078527264 -0.021835933 -0.0009059113
000370 7c 71 2b 3e 32 55 80 3e 3e cf e3 bb 99 d4 0c 3e
       0.1674251 0.25065 -0.0069521954 0.13752975
000380 9f 4e ad bd 66 30 d0 bd e8 eb 20 be 8d 9d 15 be
       -0.084622614 -0.10165481 -0.15714991 -0.14610882
000390 8a f4 97 3c 00 2f 04 3e 92 85 82 bd 8f 40 70 3e
       0.018549222 0.12908554 -0.06373133 0.23462127
0003a0 46 03 8e be 33 dc 35 be a5 3e 82 3d 7d 3d ae 3d
       -0.27736872 -0.1775978 0.06359605 0.08507822
0003b0 e3 ee c3 bd 7d 4c 01 3e 3f 4d 50 3e ca 2d 59 3c
       -0.095670484 0.12626834 0.20341967 0.013255546
0003c0 fe a1 a7 3c b3 75 a2 3c 84 fb 6f be cf d4 8c 3e
       0.020462986 0.019831514 -0.2343579 0.2750611
0003d0 02 6c e0 3e b7 78 82 3e d5 35 4a 3e 43 98 95 3e
       0.43832403 0.25482723 0.19747098 0.2921773
0003e0 e9 67 50 3d d3 f3 99 bd 9d b1 39 be 59 dd 9f be
       0.050880346 -0.07517209 -0.1813416 -0.31223562
0003f0 cc 46 2a 3e fc b2 92 3e 9a 50 a3 3d 14 b8 6a bd
       0.1662857 0.2865218 0.07974358 -0.057304457

rb1.conv1.bias f4 [10]
000000 70 6a ef b9 8c d3 bd 39 ca 6b 09 39 4f c8 77 b9
       -0.00045664934 0.00036206504 0.00013105493 -0.00023630376
000010 ce 26 90 b8 a4 65 a7 39 00 02 ac b7 1e ca 2f ba
       -6.873683e-05 0.0003192845 -2.050493e-05 -0.0006705838
000020 f0 f4 fc 39 28 e6 46 39
       0.00048247678 0.00018968491

rb1.bn1.weight f4 [10]
000000 27 ea 43 3f b8 03 a7 3f bb 1c 5a 3f 78 50 60 3f
       0.76529163 1.304801 0.8520009 0.87622786
000010 d4 93 20 3f 6a 5a 50 3f 91 6c 2c 3f 47 be 7e 3f
       0.6272557 0.8138796 0.6735316 0.9950909
000020 7c d1 51 3f d7 8c 2b 3f
       0.8196027 0.6701178

rb1.bn1.bias f4 [10]
000000 17 d5 a9 3e ad f3 8f 3f 76 d5 fc 3c c3 4d 8e 3d
       0.33170387 1.1246239 0.030863505 0.069484256
000010 cd ac 4c 3d 7b f7 1d bc e6 c5 18 bd f6 5a 58 3f
       0.049969483 -0.0096415235 -0.037298106 0.84513795
000020 fe 12 08 3f 19 fa ef 3d
       0.5315398 0.11717624

rb1.bn1.running_mean f4 [10]
000000 2d 1f 24 bc c2 6f ae bb 62 b3 37 3c 6f 31 0e 3c
       -0.0100171985 -0.005323381 0.011212202 0.008678778
000010 9a f4 fd bc 94 d1 b3 3d d2 51 83 bd c1 e9 d0 3a
       -0.031000424 0.08780208 -0.0641209 0.0015938805
000020 b8 a5 0d bc 58 17 b5 bb
       -0.008645467 -0.0055264644

rb1.bn1.running_var f4 [10]
000000 44 40 95 3d a5 bb 30 3d 3a c0 31 3e 1e f4 4b 3e
       0.07287648 0.0431477 0.17358485 0.19917342
000010 2a 38 46 3d 30 8a d8 3e cb f5 97 3e af 5d 6b 3d
       0.048393406 0.4229293 0.29679713 0.05746239
000020 40 e5 1e 3d 1c e5 de 3e
       0.03879285 0.43534172

rb1.conv2.weight f4 [10, 10, 3, 3]
000000 a9 c0 cc bd ee 4b 36 be e7 ff d2 bc a9 2b 4e 3c
       -0.099976845 -0.17802402 -0.02575679 0.012583652
000010 90 1d 37 be 04 29 9b bd 2f b0 fb bc e1 db c3 bb
       -0.17882371 -0.075761825 -0.03072366 -0.0059771393
000020 0e 06 da bb 19 4f 81 bc 07 6b 28 3e 6c 53 91 be
       -0.006653554 -0.015784787 0.16447078 -0.28383958
000030 bf 8e 89 be 26 a4 b2 bd 87 b7 27 3e 9c bc 33 3e
       -0.2686672 -0.08722715 0.16378604 0.17552418
000040 aa 0e 4d be 87 15 a4 ba b2 8f 39 be c2 34 ab 3d
       -0.20025125 -0.0012518623 -0.18121222 0.08359672
000050 0f 5b aa bd 5f 19 f3 bc 6d c2 55 be 78 58 25 be
       -0.08318149 -0.029675184 -0.20874949 -0.1614703
000060 d3 c6 e0 ba 5d 19 01 3e 2f cc fb 3d 9e 6c f8 3d
       -0.0017149098 0.12607332 0.12294804 0.12130092
000070 cd 62 2e 3e 35 8d 0f 3e 1b d6 fb 3c 68 44 ad 3d
       0.17029877 0.1401871 0.030741742 0.08460313
000080 e3 c2 4c 3d d7 6d c3 bd bd 55 3b bd f0 a8 5b be
       0.049990546 -0.09542435 -0.045736063 -0.21451163
000090 d9 c2 c9 bd 35 7c d6 3d d7 d6 e9 bc 13 b8 80 bc
       -0.09851617 0.10472909 -0.028544826 -0.015712773
0000a0 66 bf b0 bd f6 4b 86 3c ed ce ac bd 66 16 1f 3b
       -0.08630256 0.016393643 -0.084379055 0.0024274825
0000b0 26 00 d8 bd f4 ca 80 3d f0 1c 63 3e de b1 27 3e
       -0.10546903 0.0628871 0.22179008 0.16376445
0000c0 f1 c1 2f bd 86 45 7f 3c 66 11 29 bd b9 64 8a bd
       -0.042909566 0.0155805405 -0.041276358 -0.067574926
0000d0 46 2f 8c 3d c9 f5 1f 3e 88 0c e8 bc 03 69 be bb
       0.06844954 0.15621103 -0.028326288 -0.005810858
0000e0 f8 82 c9 bd c0 af a6 bd 0b be 53 be 1c c4 87 bd
       -0.098394334 -0.081389904 -0.20677964 -0.06629202
0000f0 2f 34 cb 3d 8c 47 a8 3d 08 a6 a0 bd 7f 22 fe bb
       0.099220626 0.082167715 -0.07844168 -0.007755577
000100 26 dd ec 3d d0 82 84 3e af a3 35 bd bf e5 92 be
       0.11565618 0.25881052 -0.044345554 -0.28690907
000110 75 80 b4 be 50 04 27 bd 42 22 0b 3e 7d 26 7e 3d
       -0.35254255 -0.040775597 0.13587287 0.062048424
000120 51 d6 1e bd 99 17 c5 bd 9d ec ae bd 8c a8 18 3e
       -0.038778607 -0.096236415 -0.08541224 0.14908046
000130 96 45 84 3d 2d 94 a1 3d 8c 43 15 be 6b 8a 9d bb
       0.06458585 0.078895904 -0.14576548 -0.0048077605
000140 46 bb f0 bc 1c 62 8c be bd bb 91 be dc 67 da bd
       -0.029386174 -0.27418602 -0.28463545 -0.10664341
000150 7f 86 1a be 5f e9 02 bd 98 0a 66 bd cc 15 09 be
       -0.15090369 -0.03196084 -0.056162447 -0.13387221
000160 48 39 93 bd 29 95 50 3d 91 dd d8 bc d4 4d 4c bd
       -0.0718866 0.0509235 -0.026472839 -0.04987891
000170 57 b7 e0 3d cc b2 1d bd 1d aa db 3d 8d 3c 8d 3e
       0.10972469 -0.038500592 0.10725806 0.2758526
000180 12 b1 03 bd 20 84 09 3e 16 ca fb bd b1 c5 c0 3d
       -0.03215129 0.13429308 -0.12294404 0.09412707
000190 79 2e c2 3d cb 28 48 be 23 34 19 3e e1 84 d7 be
       0.0948152 -0.19546811 0.14961295 -0.42093566
0001a0 33 ff 89 3d 2b 4a a1 be 60 c3 03 3e 98 62 33 3e
       0.067381285 -0.31501898 0.12867498 0.1751808
0001b0 88 be 49 3c 37 9a 05 3e f8 20 c9 bd 23 8e 5f 3d
       0.012313493 0.1304711 -0.098207414 0.05457891
0001c0 62 d3 21 be 51 24 2b be d5 13 a7 bc 24 2c 93 bd
       -0.15803292 -0.16713072 -0.020395199 -0.071861535
0001d0 38 68 a0 bb 9b 88 43 be 5c ff e9 3d 5b 2e d4 3c
       -0.0048952363 -0.1909508 0.11425659 0.02590101
0001e0 d2 2a 93 3d fd af d9 bc 62 47 e5 bd fd ae dd bb
       0.07185902 -0.026573176 -0.11195256 -0.006765245
0001f0 2f 7c 41 be 4d e7 87 bc 2e 16 1f 3e 30 0e 1e 3e
       -0.18895029 -0.016589785 0.15535805 0.154351
000200 ea fc 88 3c a9 7f 31 3d ee e3 d6 bc e9 4e 5e bd
       0.016722161 0.043334637 -0.026231732 -0.054274473
000210 53 95 6c 3b 52 11 06 be dc 3e 22 be de 59 ad bd
       0.0036099746 -0.13092545 -0.15844291 -0.084644064
000220 e0 da 9d bd a2 33 76 bd 7d b7 20 bd fc 81 6d bd
       -0.07707763 -0.060107835 -0.039237488 -0.05798529
000230 96 46 e0 bd 5d 02 98 bd 5a 1f 1a be 63 18 2a bd
       -0.10950963 -0.07422326 -0.15051022 -0.041527163
000240 b6 77 ea 3d 6c aa 13 3e fa 7a 92 3d 28 fc 37 3e
       0.11448614 0.1442048 0.07152362 0.17967284
000250 e0 c0 2d 3e f2 4d b8 3d a7 dc 17 3e 00 76 40 3e
       0.16968107 0.08999242 0.14830266 0.18795013
000260 6f e9 ae 3b a3 5b a7 3d 9d d4 4d be 73 de 17 bd
       0.005337886 0.08171775 -0.20100637 -0.03707738
000270 17 f0 0c bd 5f 1f 8f be ec de 43 3e 7c e9 51 bd
       -0.034408655 -0.27953622 0.19128007 -0.05124806
000280 84 19 98 3e 0b c9 7c 3c 31 b2 07 3e 58 a4 ee bc
       0.29706967 0.015428792 0.13251568 -0.0291311
000290 d7 86 65 be 8f 66 ac 3c ee 39 b8 bd b8 27 08 3e
       -0.22414719 0.021044997 -0.08995424 0.13296402
0002a0 b6 ce 8a bc e6 59 e1 3d aa 7b c0 3b 7f 29 55 bd
       -0.01694427 0.11003475 0.005874117 -0.052041527
0002b0 c0 85 5a bc cb d4 3c 3c 40 20 a8 3d 3c 42 25 bd
       -0.013337553 0.011525343 0.08209276 -0.04034637
0002c0 91 64 20 3c fb c4 7f bd 40 14 db 3d 96 b7 96 3c
       0.009789602 -0.062443715 0.10697222 0.018398087
0002d0 63 ad 72 3d 6f e7 8c be 2b bc 9b bd f8 d0 5c 3d
       0.059247386 -0.2752032 -0.076042496 0.053910226
0002e0 6a 35 99 bd 40 0d 07 bd 24 c7 99 3d 25 45 ec 3c
       -0.07480891 -0.03297162 0.07508686 0.028841564
0002f0 5c 77 0f 3d b2 f9 ac bd a6 73 1d be b5 e8 0a 3d
       0.03502594 -0.08446063 -0.15376148 0.033913333
000300 71 de 85 bc 1a 91 24 be 3c bc 9b bc ce 85 62 bd
       -0.01634142 -0.16070977 -0.019010656 -0.055303387
000310 65 ff e7 3d a1 d8 d8 3d 7a 9e 8a 3e ce a6 68 3d
       0.113280095 0.10588194 0.27074033 0.056799702
000320 67 99 43 3c 4e 69 94 3e 30 e5 1a 3d 29 a6 0e be
       0.011938429 0.2898659 0.037816226 -0.13930573
000330 ab ee fa 3d 77 32 71 bd df 82 71 bd 36 8d af 3d
       0.122525536 -0.058886018 -0.0589627 0.08571856
000340 54 37 60 3d 72 9e 9e bc e6 86 8b 3d 18 be ae 3d
       0.054740265 -0.019362662 0.06812839 0.08532351
000350 cb 22 e2 ba 63 4f 92 3e 20 d5 47 3c f0 4a 39 3d
       -0.0017252801 0.28576192 0.012196809 0.04523748
000360 00 50 25 3e 1c d4 dd 3d 8c 2a 12 bc 0a 7b 86 3e
       0.16143799 0.10831472 -0.008921277 0.26265746
000370 0a c7 7e 3d 09 83 38 3d ef 12 ee 3d 42 99 bd 3d
       0.062201537 0.04504684 0.11624705 0.09257747
000380 c2 62 b8 3c ce 97 89 3e 0a b5 4a 3e 3d 70 3c 3e
       0.022508029 0.2687363 0.19795623 0.1840219
000390 5f 63 1e 3e f7 c8 a2 3d 4b b6 48 3d 7d 1d 25 3d
       0.15467595 0.07948487 0.049001973 0.040311325
0003a0 8a 19 bc 3c b4 0c bc bd 35 41 47 3c ce fe 95 bc
       0.022961397 -0.091821104 0.012161543 -0.018309977
0003b0 80 6a bf bd 85 ae 95 bc 57 fc 0e bd 13 69 c0 bd
       -0.09346485 -0.018271694 -0.03490862 -0.09395041
0003c0 79 e4 61 bc 22 cf 24 bd e5 de 11 be 63 6c 26 3e
       -0.013787382 -0.0402366 -0.14245184 0.16252284
0003d0 fe 04 95 3d bf 8e 85 bc ce b5 7f 3d 36 e0 aa 3d
       0.07276343 -0.016303418 0.06242924 0.08343546
0003e0 7c ec aa bc 1a 95 c9 bd ef 47 18 3d f8 54 71 bd
       -0.020864718 -0.09842892 0.037177976 -0.058918923
0003f0 0c 49 85 3e 04 cd 80 3e 12 b3 f0 bc 6a 7c 2f 3e
       0.26032293 0.25156415 -0.029382262 0.17137304

rb1.conv2.bias f4 [10]
000000 30 da 99 b9 ba 36 7a 39 4f 86 3c 39 1a 38 dd b7
       -0.00029344996 0.00023862245 0.00017979111 -2.6371377e-05
000010 ec 23 c4 b8 85 c3 f3 b8 d9 1d 0c b9 a2 70 1a b8
       -9.352699e-05 -0.00011623561 -0.0001336256 -3.682136e-05
000020 13 70 1a b9 c2 9e 2b 39
       -0.00014728335 0.00016366973

rb1.bn2.weight f4 [10]
000000 7d 44 85 3f 7d 52 91 3f b2 a9 4f 3f 40 c0 8e 3f
       1.0411526 1.1353298 0.8111831 1.115242
000010 b5 43 41 3f d4 bf 8a 3f cf b1 a9 3f da 41 88 3f
       0.7549394 1.0839791 1.3257388 1.0645096
000020 bd cb 8e 3f 33 db 59 3f
       1.1155926 0.85100096

rb1.bn2.bias f4 [10]
000000 85 ce 53 3d db 78 98 bd a6 2a 48 3e a4 87 60 bd
       0.051710624 -0.07444926 0.19547519 -0.054816857
000010 9c 6b 61 3e f7 0b ea 3d aa c8 55 bb 4b 99 d2 3d
       0.22013706 0.11428063 -0.0032620826 0.102831446
000020 d6 de 67 3d 5f f6 56 3e
       0.056608997 0.2099242

rb1.bn2.running_mean f4 [10]
000000 ef 4c a3 bf 03 78 7a be c1 d9 27 3f 2a af 0e 3d
       -1.2757853 -0.24459843 0.6556664 0.03483502
000010 c3 32 40 bf 7a 51 a6 be 22 3d 07 bf 96 83 61 be
       -0.75077456 -0.32484037 -0.52827656 -0.22022852
000020 fb 11 54 3e 36 c9 c4 3f
       0.20709984 1.5373905

rb1.bn2.running_var f4 [10]
000000 85 81 a6 3f 53 b2 8e 3f 25 7b a7 3f 7d 7e b9 3f
       1.3008276 1.114817 1.3084456 1.4491726
000010 9c c2 64 3f f3 ad d5 3f 2f 65 0f 40 c1 37 e2 3f
       0.8935945 1.669371 2.2405508 1.7673265
000020 d2 ff 04 40 6f f6 d2 3f
       2.078114 1.6481456

rb1.shortcut.conv.weight f4 [10, 3, 1, 1]
000000 38 fc e9 3e 1e 4b aa 3b 3c 86 ac 3e ca 52 b9 be
       0.4570024 0.005196943 0.33696163 -0.36195976
000010 de d3 04 bf 9c ee c4 be 2f cb bc 3e b8 f9 b3 be
       -0.51885784 -0.38463295 0.36873767 -0.35151458
000020 03 7a d8 3d 06 37 ef be 43 44 38 bf 21 f7 44 3e
       0.10570147 -0.46721667 -0.7197916 0.19234897
000030 0c 0f cb bd 8c 1f 43 be 1a fa 15 3f 48 63 ae 3e
       -0.09914979 -0.19055003 0.5858475 0.3406012
000040 73 74 ee 3d f7 85 07 3f 17 cb d7 be e1 25 b0 be
       0.11643305 0.5293879 -0.42147133 -0.344039
000050 db de 90 be 47 cf 97 be 55 6f 2e bf b4 38 9a 3e
       -0.28295025 -0.29650328 -0.6813863 0.30121386
000060 45 71 b4 be ad d5 f7 be e3 11 8f bd e0 08 96 be
       -0.35242668 -0.4840521 -0.069858335 -0.29303646
000070 79 bd 83 3d e9 c5 16 bf
       0.064326234 -0.58895737

rb1.shortcut.conv.bias f4 [10]
000000 60 04 fa b8 aa d3 0d 3a 5c 83 39 3a 4e c4 f6 38
       -0.00011921744 0.00054102635 0.0007076764 0.00011766759
000010 04 1a e0 b8 76 f6 64 38 d0 1a e5 b6 2c 1b 81 b9
       -0.00010685998 5.458897e-05 -6.827853e-06 -0.00024625042
000020 77 9e b8 b9 00 44 c0 39
       -0.0003521328 0.00036671758

rb1.shortcut.bn.weight f4 [10]
000000 59 f7 7a 3f b6 02 6e 3f d5 ac 84 3f a7 5c 62 3f
       0.9803367 0.92972887 1.0365244 0.88422626
000010 7e f0 8e 3f 33 a1 72 3f 9f e7 1f 3f 48 76 38 3f
       1.1167142 0.9477722 0.624628 0.7205548
000020 46 b8 67 3f 26 9c 6d 3f
       0.90515554 0.9281639

rb1.shortcut.bn.bias f4 [10]
000000 85 ce 53 3d db 78 98 bd a6 2a 48 3e a4 87 60 bd
       0.051710624 -0.07444926 0.19547519 -0.054816857
000010 9c 6b 61 3e f7 0b ea 3d aa c8 55 bb 4b 99 d2 3d
       0.22013706 0.11428063 -0.0032620826 0.102831446
000020 d6 de 67 3d 5f f6 56 3e
       0.056608997 0.2099242

rb1.shortcut.bn.running_mean f4 [10]
000000 ff c9 2d bd 26 64 85 3d c5 3a 5a bb 39 e8 52 3c
       -0.042428967 0.065132424 -0.003329919 0.012872749
000010 ff 21 5b bd ed 6c 85 bd d3 1d 47 3d 9a 9b 24 bb
       -0.053499218 -0.065149166 0.048612427 -0.002511716
000020 6c 80 f9 3c 2d ea 82 3d
       0.030456744 0.06392322

rb1.shortcut.bn.running_var f4 [10]
000000 ef 41 1b 3e e4 81 c3 3e 60 81 dd 3b 87 2f 77 3e
       0.1516187 0.38185036 0.0067598075 0.24139224
000010 65 d6 10 3d 61 73 70 3e f8 4c 85 3e f2 30 ef 3d
       0.035360713 0.23481514 0.26035285 0.116792575
000020 dd 35 48 3e bc f9 28 3e
       0.19551797 0.16501516

rb2.conv1.weight f4 [20, 10, 3, 3]
000000 4c c8 5e 3d be 10 f2 3d 25 fc 06 3d 89 0e 40 3e
       0.054390237 0.118195996 0.032955308 0.18755545
000010 d7 20 42 3e ae 35 00 3e 69 e3 2f 3d 66 39 d0 3d
       0.1895784 0.12520477 0.042941485 0.10167198
000020 79 9f c6 3d d1 e1 1e 3e 43 86 14 be 24 ee e6 bd
       0.09698386 0.1551583 -0.14504342 -0.112758905
000030 98 a1 d0 bd 6c c7 56 bd d8 61 49 bb 48 f5 30 3e
       -0.101870716 -0.052436277 -0.0030728485 0.17281067
000040 7b 57 44 be 39 58 e1 bd 7e 37 12 be c2 32 89 be
       -0.19173996 -0.11003155 -0.14278981 -0.26796538
000050 b5 a2 26 be 13 35 d1 bc 53 3f 6a be 99 36 f6 bd
       -0.16273005 -0.025538003 -0.22875719 -0.120221324
000060 a6 65 1a 3d 52 36 6d 3d 56 c4 e4 bd 9b df 7c 3c
       0.037694596 0.057913132 -0.111702606 0.015434171
000070 e5 98 05 be 38 8e a4 3d a9 1f 9a 3c 35 02 8d 3d
       -0.13046606 0.080349386 0.018813925 0.068851866
000080 5a e1 df 3d 1a 26 c0 3c 29 a8 c6 3d a9 6a 5a 3e
       0.10931654 0.023455668 0.09700043 0.2132975
000090 b2 41 bf 3c 79 64 05 3e 47 3c cf bc ee 14 e9 bd
       0.023346756 0.13026609 -0.025297297 -0.11380945
0000a0 87 7b 3f bc 73 36 b6 3d d1 b1 9f 3b 53 9e 8d be
       -0.011687166 0.08897104 0.0048734923 -0.27659854
0000b0 48 f0 5f be fc 39 f8 3d 10 70 64 3d 9e c3 6e 3d
       -0.21869004 0.12120435 0.055770934 0.058292024
0000c0 7b 56 0b be c4 f3 86 bd 40 58 86 bd 47 03 81 bd
       -0.13607208 -0.06589463 -0.06559801 -0.06299453
0000d0 38 e6 ed be a5 43 15 bd a6 ef b8 3d 5b f7 e4 3d
       -0.46464705 -0.036441464 0.09030084 0.11179992
0000e0 82 91 e6 3d 38 67 74 3d e8 c7 8e 3d c5 79 a3 3d
       0.11258222 0.05966875 0.06971723 0.0798221
0000f0 5b 35 c5 3d ad 0d 3a bc 3f 5f e5 bc b9 01 f4 3d
       0.096293174 -0.0113558 -0.027999518 0.11914391
000100 ff 9a 91 bd cd 13 88 3d a1 c7 ce bd 66 03 bd be
       -0.07109641 0.06644402 -0.1009667 -0.36916655
000110 8c b6 5d bd 46 9f f3 3d a4 c2 e9 bd 1f 25 4a bd
       -0.05412917 0.11895613 -0.11414078 -0.049351808
000120 f5 d2 29 bd 27 4c 70 bd 49 70 09 be ca 85 29 be
       -0.04146095 -0.058666375 -0.1342174 -0.16554943
000130 58 8f c1 3d a3 67 13 3e a1 9e 19 be b4 7e 57 bc
       0.09451169 0.14395003 -0.15001918 -0.013152767
000140 2a 80 d3 3d 17 55 06 be 92 8d 9b 3c 92 2c 05 be
       0.1032718 -0.13118397 0.018988404 -0.13005283
000150 6c fe 51 3d 12 8c 12 3d bd 25 5d bb 46 7f c1 bd
       0.051268026 0.035778113 -0.0033744418 -0.094481036
000160 8c 0b 80 3d 9e 26 3b 3e 69 73 8e be f7 cb 1c be
       0.062522024 0.1827645 -0.27822426 -0.15312181
000170 4b 92 87 bd cc 6a 5e 3d 1a 82 91 bd 57 8a bb bc
       -0.066197 0.05430107 -0.07104893 -0.022893114
000180 ff 87 22 3e 79 bc 66 3e d5 23 57 3e 1d 1e 9c be
       0.15872191 0.22532834 0.21009763 -0.30491725
000190 10 17 2b be 63 3b a3 bd 95 14 0b be d4 82 9a 3d
       -0.16708016 -0.079703115 -0.1358207 0.07544485
0001a0 89 fa 9c bc fc bb c4 bd 67 17 50 bd 31 1e 42 bd
       -0.019162433 -0.09606168 -0.05080357 -0.047392074
0001b0 b6 75 90 be 85 02 ad be 2a 10 48 be 48 04 e3 3d
       -0.28214806 -0.33790985 -0.19537416 0.11084801
0001c0 c2 f9 78 3d 40 fa a4 bc 29 92 3b 3e e3 de 69 3e
       0.060785063 -0.02013886 0.18317474 0.22838931
0001d0 ea e3 85 3e 6b 6b c6 bd b2 5f 15 bd 1e 65 20 bd
       0.26150447 -0.09688457 -0.036468215 -0.039158933
0001e0 3f ad 13 be 5a 22 5e 3d 4b 13 6c bd c1 b2 e9 bd
       -0.14421557 0.05423198 -0.057635587 -0.11411048
0001f0 af 89 84 bc 71 35 bd bd 20 22 1e 3e 56 33 61 3e
       -0.016178934 -0.09238709 0.15442705 0.2199224
000200 c0 a9 8b 3d c3 53 6e 3b 04 15 09 bd 8b 42 ca bd
       0.068194866 0.0036365844 -0.033467308 -0.09875973
000210 71 e3 1c be c8 df 60 be b2 88 5a be 7f af 27 bd
       -0.15321137 -0.21960366 -0.21341208 -0.04093885
000220 87 d8 b3 bc 46 ed 18 3e 81 14 a1 bd 40 28 ea 3c
       -0.021953834 0.14934263 -0.07865239 0.028583646
000230 d1 72 41 3d 7e 93 6c 3d 19 de aa bc 6d 03 9f 3d
       0.047228638 0.057757847 -0.020857858 0.07764325
000240 94 91 8d 3d f1 cf f3 3d 8d f7 d1 3c d3 f9 34 bd
       0.069125324 0.11904896 0.025630737 -0.044183563
000250 18 ec da 3c 5b d6 c1 bd 63 13 01 bd b9 5f e0 3c
       0.026723906 -0.09464713 -0.03151263 0.027389394
000260 da c0 61 bd 38 dd ce 3d 58 9d 8f 3e 0f 17 2c 3e
       -0.05511556 0.10100788 0.2804973 0.16805671
000270 b9 ff f7 bc 8e 43 a4 3d 20 34 08 3e 83 0c 28 be
       -0.030273305 0.080206975 0.13301134 -0.16411023
000280 f9 49 80 3d e1 c1 80 bd f6 4e b9 bd c0 61 b3 3d
       0.06264109 -0.062869795 -0.09048264 0.08758879
000290 d0 4b cc bd fe e3 a6 bd cc 52 90 3d b2 96 36 be
       -0.099753976 -0.08148955 0.07047042 -0.17830923
0002a0 53 17 5f 3d fe 66 92 3d 01 46 58 bd a4 5e 92 bd
       0.054465603 0.071485505 -0.052801136 -0.071469575
0002b0 4e bb 1d 3d 3f aa fc 3b f2 fc 06 3b fc 22 e8 3d
       0.038508706 0.0077107246 0.0020597544 0.11334798
0002c0 82 0c 82 3d c1 7a e8 3b 47 c8 c9 3d e9 c9 64 bd
       0.06350042 0.0070947115 0.09852653 -0.05585662
0002d0 0f a4 0f bd 1d 9e 0e 3d 89 54 e4 bd d5 4a 29 bc
       -0.035068568 0.034818757 -0.11148936 -0.010332783
0002e0 b0 37 c7 3d b1 60 f3 bb 71 45 48 bd 69 1a 8b bd
       0.097274184 -0.007427298 -0.04889435 -0.06792147
0002f0 ed be ae 3d 54 50 71 bd 91 a4 ab 3c 08 d6 2f 3e
       0.0853251 -0.058914497 0.020952495 0.1717149
000300 05 42 24 be 7a 94 ab 3c db c5 85 3d b7 e5 81 bd
       -0.1604081 0.020944823 0.065318786 -0.06342643
000310 d9 19 45 be 59 60 22 be c3 64 f6 3d 0b 35 1e be
       -0.19248141 -0.15857066 0.120309375 -0.15449922
000320 9f 88 f2 3c de 93 23 3e 00 7e 9e bc 90 ef 13 bd
       0.029606162 0.15974376 -0.01934719 -0.036117136
000330 b5 2b 3e 3d c5 43 08 3d 98 d0 4d 3d 30 11 87 3e
       0.0464284 0.033267755 0.05024776 0.263803
000340 21 6c 62 3e c2 28 13 3e 9e 8b 1e 3d 19 4c 45 3e
       0.2211156 0.14371017 0.038707368 0.1926731
000350 94 1a 1e 3d a3 3c 03 be 1f 10 0c 3e cc 28 84 3d
       0.038599566 -0.128161 0.13678025 0.06453094
000360 3d c9 12 be 65 28 14 3c 8a 28 21 bd 82 61 ba bd
       -0.14334579 0.009042834 -0.0393453 -0.091006294
000370 98 24 9a bd 25 79 8c 3c 6d 76 74 3d 71 c1 e8 bc
       -0.07526511 0.01714761 0.059683252 -0.028412553
000380 c3 f9 75 3c 49 20 7a 3d 96 6d 90 3d 38 a8 54 bd
       0.015013161 0.061065946 0.07052152 -0.05191824
000390 f4 6a ab be b4 c7 80 3c a7 b7 13 3c ca e8 6d be
       -0.33480036 0.015720226 0.009015954 -0.23233333
0003a0 ec a1 90 3c 3b 30 a0 3d d1 2a 6c 3e 35 ab 42 3e
       0.017655335 0.07821699 0.23063208 0.19010623
0003b0 a6 62 02 3d 09 23 2e be 67 c5 10 be 43 aa 2d be
       0.03183236 -0.17005552 -0.14137803 -0.16959481
0003c0 24 ee 10 bf a6 9a e5 be d4 5b 0b be f6 d7 92 3c
       -0.56613374 -0.4484455 -0.13609248 0.017925244
0003d0 a0 2e 23 bc 18 41 8d 3d 93 d0 74 bd 00 18 80 3d
       -0.009959847 0.06897181 -0.059769224 0.06254578
0003e0 e8 c5 ab 3d 6e d4 6e bd 33 97 47 bd 63 3b dd bd
       0.08387357 -0.058308057 -0.04872818 -0.10802343
0003f0 8d 78 b0 bd 19 89 aa bd 81 4d dd bc 9a 3b 18 be
       -0.08616743 -0.083269306 -0.027014496 -0.14866486

rb2.conv1.bias f4 [20]
000000 a5 b3 0d 39 7d 03 50 b8 32 73 b1 38 5f 91 e9 b8
       0.0001351373 -4.9594313e-05 8.4614745e-05 -0.00011137383
000010 78 dc 57 b8 7e 4c 10 b8 a0 51 31 b9 fc 8a 6a b8
       -5.1465322e-05 -3.4403514e-05 -0.00016910443 -5.5919387e-05
000020 f2 df 1b 38 d0 be a1 36 d3 92 65 38 40 f6 77 b6
       3.7163445e-05 4.8203874e-06 5.4734595e-05 -3.6949205e-06
000030 9d c3 24 38 24 b3 f3 36 ea 37 b0 38 94 14 d6 b8
       3.9282826e-05 7.262819e-06 8.402749e-05 -0.00010208148
000040 77 fe 53 b8 dd 9a a1 b8 ee 06 c9 b8 0e df fa 38
       -5.054331e-05 -7.705924e-05 -9.5857176e-05 0.00011962476

rb2.bn1.weight f4 [20]
000000 81 c0 5a 3f 59 38 69 3f a7 54 69 3f c8 93 8d 3f
       0.8544999 0.91101605 0.91144794 1.1060724
000010 c9 48 88 3f 4e 83 41 3f 11 8c 76 3f f2 c3 60 3f
       1.0647212 0.7559098 0.96307474 0.8779899
000020 43 e8 34 3f ae 84 59 3f db a2 58 3f 26 ab 81 3f
       0.70666903 0.8496808 0.846235 1.0130355
000030 c4 19 86 3f 93 e1 7c 3f e0 2f 6e 3f ef 0c 8a 3f
       1.0476613 0.987817 0.930418 1.0785197
000040 05 30 65 3f 58 d3 6d 3f c7 be 7f 3f 24 7f 72 3f
       0.89526397 0.9290061 0.9990048 0.9472525

rb2.bn1.bias f4 [20]
000000 fb f8 48 3c a2 70 1a be 87 82 d7 3d cd bd 02 bd
       0.012266393 -0.15082029 0.10522943 -0.03191929
000010 95 ce 50 be ec 96 f7 bd 66 18 09 3d 5f ea c6 3d
       -0.20391305 -0.12089333 0.033470534 0.097126715
000020 b9 04 0d bd 00 3f ca 3d a4 3a 19 bc 9c c0 2f 3d
       -0.034428332 0.098752975 -0.00935236 0.042908296
000030 ef 14 0a be 5f 24 ea 3c 33 ed d8 bd e9 2b 63 bd
       -0.13484548 0.028581796 -0.10592117 -0.055461798
000040 a2 81 b5 3d 46 72 4a bc 6d 5a ca 3d 68 34 05 be
       0.08862616 -0.0123563465 0.098805286 -0.13008273

rb2.bn1.running_mean f4 [20]
000000 2a e4 66 bf 76 f0 ba be dd 4b e8 bf ec 0c 3b c0
       -0.901919 -0.36511582 -1.8148152 -2.9226637
000010 3f f1 84 bf 7b 3b 84 be 7a 0c bc bf 9f 66 d2 bf
       -1.0386122 -0.2582663 -1.4691308 -1.6437567
000020 72 68 35 3f 97 19 bd bd e8 c8 ae bd 4c 94 a3 bf
       0.70862496 -0.092333965 -0.085344136 -1.2779632
000030 25 64 21 c0 39 60 48 bf 51 cd 0f bf 7c ba f7 bf
       -2.5217373 -0.78271824 -0.5617266 -1.9353786
000040 b6 0e e1 bf 3a 03 2b bf 15 13 f4 bf 46 0e 74 be
       -1.7582614 -0.668018 -1.9068323 -0.2383357

rb2.bn1.running_var f4 [20]
000000 b5 9f a9 3f 64 e2 b8 3f e0 26 f8 3f 78 1b 31 40
       1.3251864 1.4444089 1.9386864 2.7673016
000010 50 8e 1b 40 8c 7c cd 3f 03 5b 32 40 c1 d4 2b 40
       2.430561 1.6053634 2.786805 2.6848605
000020 9e 93 9f 3f ea e2 9e 3f 3b 33 ca 3f b4 ef 19 40
       1.2466924 1.2412999 1.5796884 2.4052553
000030 10 e6 38 40 a3 6c 0b 40 2c f7 c5 3f a0 64 27 40
       2.889042 2.1785057 1.5466056 2.6155167
000040 2f f6 1a 40 73 b8 01 40 6f 0d f5 3f 35 4d 0a 40
       2.4212759 2.026883 1.9144725 2.1609623

rb2.conv2.weight f4 [20, 20, 3, 3]
000000 a6 7c a9 3b a2 aa 67 3d 07 24 9b 3c 1c 62 7f 3d
       0.00517233 0.056559213 0.018938078 0.062349424
000010 39 2d a7 3a b4 cf 14 be 01 c6 95 bb 57 7f 01 be
       0.0012754566 -0.14532357 -0.004570723 -0.12646233
000020 ba 9f 57 bd d7 36 44 be eb ad 18 3e 1e b1 f7 3d
       -0.05264256 -0.19161545 0.14910094 0.12094329
000030 1d 4c 81 3d 39 52 26 3e 59 94 1b 3e 28 c3 ce 3d
       0.063133456 0.16242303 0.15193309 0.10095817
000040 e8 ea b5 3d 53 d8 2b 3e c9 f8 08 bd f1 5f 18 bd
       0.088826954 0.1678174 -0.033440385 -0.03720087
000050 b6 bc 30 bc 65 4f 22 3e 42 7d 99 3d b5 2e 54 bd
       -0.01078718 0.15850599 0.07494594 -0.051802356
000060 c5 22 44 bb 30 09 54 3d 05 45 84 bd 30 fd 37 be
       -0.002992795 0.051766574 -0.06458477 -0.17967677
000070 6f 6b ef bc 63 70 4d be 63 06 07 be 81 31 d3 3d
       -0.029226033 -0.20062403 -0.1318603 0.103121765
000080 e8 44 88 be 73 fb 87 be 37 04 c3 bc c2 d4 d0 bd
       -0.2661507 -0.26559028 -0.02380572 -0.1019683
000090 84 13 14 be cb 3d fc bd 88 ba 10 be 99 73 a0 3a
       -0.1446057 -0.123164736 -0.14133656 0.0012241482
0000a0 aa 00 3b ba 19 35 49 bc a1 a1 bd 3d 78 fd 0d 3e
       -0.0007133583 -0.012280726 0.09259344 0.13866222
0000b0 cf 16 3d 3d c1 e4 d0 bd e2 ae 30 bd 74 86 b5 bd
       0.04616433 -0.10199881 -0.04313553 -0.088635355
0000c0 16 3c 33 be eb b4 0b 3e 07 d7 09 bd b5 2e 04 3d
       -0.1750339 0.13643233 -0.03365233 0.032271106
0000d0 90 14 0d bd 9d 0d 34 bd b6 47 37 bc 9a 84 02 3c
       -0.034443438 -0.043958295 -0.011186531 0.007966185
0000e0 d6 b8 8d bd c7 90 f3 3d 18 29 c1 3a 88 fb ea bd
       -0.0692002 0.118928485 0.0014736978 -0.11473757
0000f0 d1 2e ef bd 64 d5 1c be bc 4a c7 3b 35 a1 06 be
       -0.116788514 -0.15315777 0.006081907 -0.13147433
000100 bb 8b 20 bc f4 20 eb bd 55 a7 ba bb ae 80 ec bd
       -0.009798939 -0.11480895 -0.005696217 -0.11547981
000110 a9 c8 55 bd 7c 06 fd bd 9a aa 30 be 27 e3 b0 3d
       -0.052193318 -0.123547524 -0.1725258 0.08637076
000120 5b d8 13 3e 9e f0 80 be bc 50 58 be cb 47 7d 3e
       0.14438002 -0.25183576 -0.21124548 0.24734418
000130 24 ee 5b 3d c5 61 0f bd 0c 6d 23 39 63 0b ef bc
       0.053693905 -0.03500535 0.00015585514 -0.029180234
000140 64 ef df 3d 53 26 8a 3d 48 c6 0c be 18 56 a3 be
       0.10934332 0.06745591 -0.13747513 -0.31901622
000150 aa 44 63 bb b7 01 d0 bd 55 c6 94 3d ae 1f d9 bd
       -0.0034678378 -0.10156577 0.07264391 -0.106017455
000160 f4 a8 9e 3d db b4 83 3e 5d b1 50 3d 78 40 fe 3c
       0.07747069 0.2572392 0.050950397 0.0310366
000170 f4 3d 43 bd 9c b4 34 3e 39 f2 bf 3d 6a d7 b4 bd
       -0.047666505 0.17647022 0.09372372 -0.088301495
000180 8c c7 9c 3d 7d 62 08 be 65 74 7d be c8 1f 93 3c
       0.07655248 -0.1331882 -0.24751432 0.01795949
000190 ad 88 c5 3d a0 81 59 3e b9 b8 9c 3c f3 98 54 bd
       0.096452095 0.21240854 0.019131051 -0.051903676
0001a0 60 91 e8 3d ab 29 26 bd 4c e8 09 be 3d 79 c8 bd
       0.11355853 -0.04056708 -0.1346752 -0.09788749
0001b0 84 df 94 bc b7 3a ef 3c e4 4c fd bc 47 20 d5 bd
       -0.018172987 0.029202802 -0.030920453 -0.10406547
0001c0 c1 69 0b be 69 d6 01 be 15 8d ad be 56 48 49 be
       -0.1361456 -0.12679447 -0.338967 -0.196565
0001d0 e9 02 4a be 66 eb 8f 3d 0c 07 2e 3d d2 25 8a bc
       -0.19727673 0.070273206 0.04248719 -0.016863737
0001e0 58 8a 1a 3e 5d 95 0b bc e5 82 73 3d 86 09 98 3d
       0.15091836 -0.008519498 0.059451003 0.074236915
0001f0 76 81 09 3d 84 75 2d 3c 67 6f 1e 3e 67 50 ad 3c
       0.03357073 0.0105871 0.15472184 0.021156503
000200 21 18 59 3e ad 29 21 bc a9 90 ce bd c0 20 f6 3d
       0.2120061 -0.009836596 -0.100861855 0.12017965
000210 9e dd 42 3d e1 4b b5 3d d7 97 23 3e 5a 51 a9 3d
       0.047574632 0.088523634 0.15975891 0.0826747
000220 84 b3 9e 3d 49 db c2 3d 4f 02 b4 bc 96 c6 a9 3d
       0.07749084 0.095144816 -0.021973757 0.082898304
000230 02 8d 9a 3c e0 14 88 3b a7 16 ca bc f3 90 61 be
       0.018866066 0.004152879 -0.024669005 -0.2202795
000240 89 3b bd 3d 11 25 89 3d 4b 93 e0 3c 30 fe d3 3c
       0.09239871 0.06696523 0.027413985 0.025878042
000250 a1 e4 f1 3d 48 0d 0c 3d bd 41 79 bd d7 b1 64 bd
       0.11811186 0.034192353 -0.06085371 -0.055833664
000260 77 81 9f 3c 44 fa 40 3d 84 7d 97 bd 8d f2 6b 3d
       0.019470913 0.047113672 -0.07396987 0.05760436
000270 ef d3 55 bd 3f c3 26 be a1 4a 30 3d 4c b5 27 3a
       -0.05220407 -0.16285418 0.04303992 0.000639756
000280 a0 ce 70 bd ae 44 83 bd ba bc 1b be d9 16 7f 3d
       -0.058790803 -0.06409584 -0.15208712 0.06227765
000290 03 51 8d bc 2c ed 0c be 54 ae 17 3e 6f 50 b6 3d
       -0.017250543 -0.13762349 0.14812595 0.0890206
0002a0 83 13 7a be 4e a0 35 bd 66 71 df bd f1 34 70 3e
       -0.24421506 -0.04434233 -0.10910301 0.23457696
0002b0 93 28 9a 3d 63 b2 84 3d e5 35 c1 3d 7b 3c b7 3d
       0.0752727 0.06479337 0.09434108 0.089470826
0002c0 47 00 13 3e ea c0 f1 3d c5 f6 fa 3d 9d 83 21 3d
       0.14355575 0.118043736 0.12254099 0.039432157
0002d0 ab d8 d5 3d c0 c0 09 3e c1 a9 7b bd 1a fc 07 be
       0.10441717 0.13452435 -0.061441187 -0.13279763
0002e0 24 e7 6d 3d 40 dd 9d bd bf 89 d3 bc 08 ef 96 bd
       0.05808176 -0.07708216 -0.025822518 -0.0736981
0002f0 41 4a 2c be 2a 3c b4 bd 38 37 8a be 33 05 8d bd
       -0.168252 -0.08800538 -0.26995254 -0.06885757
000300 3e 82 d1 3d 15 c8 ab 3c d9 14 13 3d 8c 68 b3 3c
       0.1022992 0.02096943 0.035908554 0.021900438
000310 74 13 d8 3d 3b 2b 11 3c 96 80 ce bd c8 34 57 bd
       0.105505854 0.008860405 -0.100831196 -0.05254057
000320 d3 a3 80 bd 0f c2 2e be fb a6 63 bd af 03 a1 bb
       -0.06281247 -0.17066215 -0.055579167 -0.004913769
000330 52 fc 1c 3d a2 1f 87 3d d8 46 f0 3c aa ad d8 bd
       0.03832657 0.0659783 0.029330656 -0.10579999
000340 e2 3d 37 3d 98 55 83 bd 3d 2b 1c be bd 11 cc 3d
       0.04473675 -0.0641281 -0.15250869 0.09964321
000350 7b d9 d4 bd e2 54 43 be a4 77 1d be 07 08 5d be
       -0.103930436 -0.19075349 -0.1537767 -0.21585093
000360 f7 a8 51 be 7e 02 02 be 48 15 0c be c4 2b 82 bd
       -0.20474611 -0.12696263 -0.13679993 -0.06356004
000370 90 e7 29 3d ff 25 2b be 6e 00 cc 3d 8a a1 3c bd
       0.0414806 -0.16713713 0.099610195 -0.046052493
000380 59 f5 ae bd ca 94 b8 bd c8 a1 74 bd fd 23 27 3e
       -0.0854289 -0.09012754 -0.0597246 0.16322322
000390 8f af 8c be 7b d3 26 be 97 d3 55 3d 57 7c 27 3d
       -0.2747769 -0.16291611 0.05220374 0.040890064
0003a0 10 4f 21 bd 84 90 28 3d ff f4 98 bc cd 90 6e ba
       -0.03938204 0.041153446 -0.01867151 -0.00091005565
0003b0 4b a6 45 3d bc 5b f6 3b 34 67 52 3d 2c 12 30 bd
       0.048254292 0.00751826 0.051367953 -0.04298608
0003c0 b1 77 f6 3c 37 53 fe 3d 31 dc 22 bd c7 f0 aa 3d
       0.03008637 0.12418216 -0.039760772 0.08346706
0003d0 5b 3b 36 3b 91 71 6b be 03 e3 d0 3d 01 62 c0 3d
       0.0027806375 -0.22992541 0.10199549 0.09393693
0003e0 34 bd 86 bd d1 66 4b bd d2 61 1f bd 2d f5 17 be
       -0.065790564 -0.0496586 -0.038911648 -0.14839621
0003f0 11 ad e3 bd c8 61 c4 bd 92 d6 19 be 17 ec 86 3d
       -0.11116994 -0.09588963 -0.15023258 0.06587999

rb2.conv2.bias f4 [20]
000000 c4 47 bf b6 9c 7e 80 37 7e c8 0d 38 db 3a 01 38
       -5.700598e-06 1.5317746e-05 3.3803743e-05 3.081081e-05
000010 86 14 de 37 1e 30 c9 38 fc 83 1e b8 61 66 0c 37
       2.647402e-05 9.5933894e-05 -3.7793056e-05 8.368487e-06
000020 54 ff ae b8 12 7a 15 38 4c ed d3 b8 69 67 a9 38
       -8.344525e-05 3.5638055e-05 -0.00010105464 8.0778096e-05
000030 cc 73 a0 b6 b2 d7 53 38 02 cb 48 38 d4 79 db 38
       -4.781852e-06 5.0507202e-05 4.787278e-05 0.00010465426
000040 82 21 f0 b8 04 c6 e3 36 f6 dc 76 b8 2a 9f 61 38
       -0.00011450333 6.7881792e-06 -5.8856756e-05 5.3792413e-05

rb2.bn2.weight f4 [20]
000000 36 cf 61 3f 7b 20 81 3f f1 bb 9d 3f a4 9d 8e 3f
       0.88206804 1.0088037 1.232298 1.1141858
000010 24 39 9a 3f 90 51 87 3f 58 1c a0 3f 62 4b 9c 3f
       1.2048688 1.0571766 1.250865 1.2210505
000020 f0 94 9e 3f 29 cc 9b 3f 4e 6e 9d 3f c5 4a 80 3f
       1.2389202 1.217168 1.2299287 1.0022818
000030 63 62 9c 3f ce 2f 80 3f 96 32 93 3f 3c 7c ad 3f
       1.2217525 1.0014589 1.1499813 1.3553538
000040 75 1c ad 3f df 26 a4 3f ec 3b 93 3f f2 ee 68 3f
       1.3524309 1.2824363 1.1502662 0.909896

rb2.bn2.bias f4 [20]
000000 a5 5b 28 3e 98 af 20 3d 93 b0 52 be a2 8d 1d bd
       0.1644121 0.03922996 -0.2057517 -0.03846515
000010 13 78 0b be 86 b1 15 be 3a bf 8d 3d c2 aa 6d be
       -0.13620023 -0.14618501 0.06921239 -0.2320967
000020 63 fa 37 3e f6 46 29 be 7d b6 7b 3c 0d a7 2c be
       0.17966609 -0.16530976 0.015363333 -0.168606
000030 7a 0a 35 3b 62 c8 86 3d 9d 66 02 bd 67 db e2 3d
       0.0027624653 0.06581189 -0.03183614 0.11077004
000040 96 05 be bc b0 18 04 be fe 00 76 3d 8d f4 86 be
       -0.023196023 -0.12900043 0.06005954 -0.26358452

rb2.bn2.running_mean f4 [20]
000000 3c 92 05 bf a5 af 15 c0 31 92 97 bf 1c 33 77 bf
       -0.5217626 -2.3388455 -1.1841489 -0.9656236
000010 c3 b7 92 bf 93 cd b6 3d 27 49 b8 bf 5a 8b 5a 3e
       -1.146233 0.08925929 -1.4397324 0.21342221
000020 e6 b5 4d c0 4f a2 1a be 3b 0a 91 bf 6f 5e 44 3d
       -3.2142272 -0.15100978 -1.1331247 0.04794162
000030 16 ae ec bf 4b 83 79 bf 77 5d 07 3f 37 0e c3 bf
       -1.8490627 -0.9746596 0.5287699 -1.5238713
000040 14 c1 2d c0 0f 38 44 be 43 13 10 c0 e6 03 af 3e
       -2.7149096 -0.1916201 -2.2511756 0.34182662

rb2.bn2.running_var f4 [20]
000000 43 c7 73 3f da 47 9c 3f 95 ba 4e 3f a3 05 8e 3f
       0.95225924 1.2209427 0.8075345 1.109547
000010 15 f8 61 3f a6 26 9e 3f 89 fc c3 3f 00 49 45 3f
       0.8826917 1.2355545 1.5311443 0.77064514
000020 6d 03 b4 3f 87 d5 88 3f 1e 19 64 3f 32 51 72 3f
       1.4063545 1.0690163 0.89100826 0.94655144
000030 a6 33 30 3f 44 fd 9b 3f 48 5c c2 3f 1b 31 8e 3f
       0.6882881 1.2186666 1.5184412 1.1108736
000040 a9 8f 63 3f 8d 86 8f 3f 97 df 86 3f d9 bf 43 3f
       0.88891083 1.1212937 1.0536984 0.7646461

rb2.shortcut.conv.weight f4 [20, 10, 1, 1]
000000 9f f8 96 bd 1d 4b 70 bd 59 39 cc be 6e 5d c3 bd
       -0.073716395 -0.058665384 -0.39887503 -0.09539305
000010 e2 4f 01 3f 83 97 d5 3c ef a8 0d bc 22 a9 8c 3c
       0.50512516 0.026073223 -0.008646234 0.017170493
000020 67 1a e0 3a 79 01 75 be 3b f7 ff bd f9 5f 6b 3d
       0.0017097712 -0.23926343 -0.12498327 0.057464574
000030 77 47 1f bf 95 cd 72 3d 20 db d5 bd a5 1a 8e be
       -0.6221842 0.05927809 -0.104421854 -0.27754703
000040 9a f8 8f bc 72 42 11 bd 34 76 b4 bb 7d 23 a2 bb
       -0.017574597 -0.035463758 -0.005507255 -0.004948078
000050 ec fa 52 bd 5e a6 e1 bd 2d 07 12 bd 2f 7d b5 bc
       -0.05150883 -0.1101806 -0.035651375 -0.022154419
000060 56 e1 88 3d 2d 57 cf 3e 1b e1 19 3e c3 bd 5e 3d
       0.066836044 0.40496197 0.15027277 0.05438019
000070 a2 87 24 be 14 44 b8 be 3c 7c 07 bd 5d a3 8e 3c
       -0.16067365 -0.3598944 -0.033077464 0.017411882
000080 03 8c aa 3e b1 60 fa 3d 85 e2 1e 3e e4 24 f7 bd
       0.33309945 0.12225474 0.15516098 -0.12067583
000090 3f fd 86 3e df 55 64 3e 67 a0 e4 3e 59 9e 31 be
       0.26365086 0.22298382 0.44653627 -0.17345561
0000a0 1e d6 2e be 32 23 c7 3d 04 34 b9 3d e5 90 b7 3e
       -0.17073867 0.0972351 0.09043124 0.35852733
0000b0 6a b1 3d 3d e1 39 a4 bd 36 d0 2d bd de 1b 0b bd
       0.046311773 -0.08018852 -0.042434894 -0.033962123
0000c0 04 3e c5 3e 7d b0 29 be 56 30 80 3e a1 d6 33 3e
       0.38523877 -0.16571231 0.25036877 0.17562343
0000d0 4e 4b ce bd 2c 15 b7 be 4a 10 9a bd 1b 95 d7 bd
       -0.10072957 -0.3575834 -0.07522638 -0.105264865
0000e0 c0 40 5b 3e c3 8f 32 be fa 00 36 be 5b 8e d2 be
       0.21411419 -0.17437653 -0.1777381 -0.41124234
0000f0 ad b6 e9 bd b0 62 01 3e 06 fc 77 3d 99 10 a4 be
       -0.11411796 0.12635303 0.060543083 -0.32043913
000100 58 ca 03 bd af cb bf be 72 d4 92 be fe 7b 40 3d
       -0.032175392 -0.37460086 -0.28677708 0.04699325
000110 90 4d 89 3e d3 84 91 bd d1 06 3b 3e 98 ce 6b 3e
       0.26816988 -0.07105412 0.18264319 0.23028028
000120 19 12 f4 bc e9 e7 b8 bd 32 9e 2c be b9 38 c7 bd
       -0.029793786 -0.09028608 -0.16857222 -0.09727616
000130 5d 56 ad be cd 5c 81 3c bd 47 11 bf c3 5d 30 be
       -0.33854952 0.015791321 -0.5675009 -0.17223267
000140 89 b0 e7 bd 7e da ed 3d 8f bb d7 bd 3d e5 e8 bd
       -0.11312968 0.1161394 -0.10533821 -0.11371849
000150 1c f0 2d bf 3f c8 a4 bd 11 26 0f 3c 7b 93 8c 3e
       -0.679445 -0.080460064 0.008737103 0.2745627
000160 4b 2a 0d be 0a 77 6d 3d a8 e4 56 be 26 95 bb 3e
       -0.13785665 0.057974853 -0.20985663 0.3663723
000170 4f b0 3f be 92 e3 53 be 08 5e 4a 3e a6 63 d7 bd
       -0.187196 -0.2069228 0.19762433 -0.10517053
000180 04 6f 76 bc f0 28 1a 3e 24 ef 42 bd e5 82 c1 be
       -0.015041117 0.15054679 -0.047591344 -0.37795177
000190 8e b0 70 3d b1 f1 de 3d c6 a7 cc be ea 58 94 3e
       0.058762126 0.10885943 -0.3997175 0.28974086
0001a0 2b 06 9b be 8d c2 95 bd 24 fe 83 3e d9 3b 00 3e
       -0.30278143 -0.07312498 0.2577983 0.1252283
0001b0 06 0c 31 3e 5a 7c cb 3d 86 bd 19 bb 4f 13 a7 bd
       0.17289743 0.099358276 -0.0023458912 -0.0815798
0001c0 5e b3 af be d9 b8 57 3e a6 22 78 3e b5 5e 88 3e
       -0.34316534 0.21066608 0.24231967 0.26634756
0001d0 77 10 da bd 1f 54 11 be f9 49 11 3e 21 60 16 be
       -0.10647672 -0.14192246 0.14188375 -0.14685108
0001e0 fd 4b df bd 80 7c cf be ed 11 4c 3e be 3c b0 3e
       -0.109031655 -0.40524673 0.19928713 0.34421343
0001f0 79 bd 2e bd 9f da 59 3d 30 95 ab 3d 8a e2 24 be
       -0.042661164 0.05318701 0.08378065 -0.16102043
000200 55 76 b0 be b8 08 ca 3d fc 09 28 bd a5 a7 4e be
       -0.3446528 0.09864944 -0.041025147 -0.20181139
000210 64 6a 24 be b0 56 d9 bd 92 4b d9 3d 5c 13 1b 3e
       -0.1605621 -0.106122375 0.10610117 0.15144104
000220 99 84 f9 3d 7f 1e e2 3d 11 f6 10 bf 87 2a 0e be
       0.12183494 0.11040973 -0.5662547 -0.1388341
000230 b6 3f b1 3c 4e 97 85 be 1b 97 0c 3c c4 cc 30 be
       0.021636825 -0.26092 0.008580948 -0.17265612
000240 b2 00 d8 3b bf 3d b0 be b0 b8 d7 be aa f6 f4 bd
       0.0065918798 -0.3442211 -0.42133093 -0.1196111
000250 8e 38 e7 bd 27 9d 3f 3e 9a 25 d7 3e 00 3c b0 be
       -0.11290084 0.18712293 0.42020875 -0.34420776
000260 9a e3 7f 3e f4 d7 22 3e 42 49 1d be 8c 44 09 3e
       0.24989167 0.15902692 -0.15359977 0.13405055
000270 a3 c6 be 3d 32 df 06 be ad 61 78 be a7 27 b7 bc
       0.09315231 -0.1317108 -0.2425601 -0.022357775
000280 c6 8d 2d 3e 4c 54 b1 3e 77 18 06 be 3e ac 95 3d
       0.16948614 0.34634626 -0.1309527 0.07308243
000290 b8 42 99 bc e8 3a 88 3e 4c 94 28 3e 52 9d ec 3d
       -0.018708572 0.26607442 0.16462821 0.11553444
0002a0 f7 4f b6 3d b2 da 7a bc 6b 62 88 3d c6 58 ab 3d
       0.08901971 -0.01531093 0.06659397 0.083665416
0002b0 bf f8 97 be d9 fe 17 3e 10 5b a6 3a bf 37 83 3e
       -0.29681966 0.1484331 0.0012691934 0.25628468
0002c0 7b 4c 7f 3e 5b 0a d1 3e eb d3 23 3e 96 c7 ca bd
       0.24931519 0.40828213 0.15998809 -0.09901349
0002d0 0f f0 73 3d 0b a4 1e 3e 4c 1e 09 bd 2a 87 6b be
       0.05955511 0.15492265 -0.03347616 -0.2300078
0002e0 c5 c1 fa bc 3f 51 ca 3b b7 59 97 3d ce f8 8a be
       -0.030609975 0.006174236 0.073901586 -0.27142948
0002f0 27 ff fc be a2 f8 45 be eb b4 88 be 39 26 0b be
       -0.49413416 -0.19333127 -0.2670053 -0.135888
000300 43 fe c3 3e 0b 6f 95 bc 4e 1a f8 3d 78 fb b0 bd
       0.38279924 -0.018241426 0.12114392 -0.08641714
000310 25 7e db 3d 48 7a d5 bd a2 2e 42 be 74 da c4 3d
       0.107174195 -0.10423714 -0.18963102 0.09611979

rb2.shortcut.conv.bias f4 [20]
000000 24 fe 6e 38 06 19 35 b7 c8 e6 2a b8 94 ca 30 37
       5.698031e-05 -1.0794267e-05 -4.074609e-05 1.0537584e-05
000010 aa 94 76 38 f8 a9 27 39 f2 38 dd 37 93 71 8d b7
       5.8789425e-05 0.0001598968 2.637177e-05 -1.6861397e-05
000020 fe fc c0 b8 12 6e 21 39 f6 e9 5e b7 4a 78 8c b8
       -9.202397e-05 0.00015395161 -1.3286704e-05 -6.698126e-05
000030 2c 62 3b 38 c7 72 7d 38 c5 f6 25 b9 10 46 4e 38
       4.4675704e-05 6.0426795e-05 -0.00015827555 4.9179478e-05
000040 10 8a 22 38 11 87 1b 38 ab dc 6d b8 97 e5 72 b8
       3.875239e-05 3.708067e-05 -5.6710716e-05 -5.791112e-05

rb2.shortcut.bn.weight f4 [20]
000000 8c a9 7a 3f a2 4f 3e 3f 20 3a 6e 3f 06 f9 1f 3f
       0.9791496 0.7434026 0.9305744 0.62489355
000010 31 f5 3b 3f 71 fb 4d 3f ba 41 2e 3f 34 b4 53 3f
       0.7342101 0.80461794 0.6806904 0.82696843
000020 f0 98 5b 3f 61 5e 60 3f 72 82 21 3f 42 b3 3c 3f
       0.8578024 0.8764401 0.6308967 0.73711026
000030 26 f1 11 3f 35 cd 6a 3f dd 4b 8b 3f 2e f8 0f 3f
       0.5700859 0.9171937 1.0882527 0.5623807
000040 e3 31 33 3f 60 45 17 3f 8e 3c d2 3e 5a cb 49 3f
       0.69997996 0.5909023 0.41061825 0.78825915

rb2.shortcut.bn.bias f4 [20]
000000 a5 5b 28 3e 98 af 20 3d 93 b0 52 be a2 8d 1d bd
       0.1644121 0.03922996 -0.2057517 -0.03846515
000010 13 78 0b be 86 b1 15 be 3a bf 8d 3d c2 aa 6d be
       -0.13620023 -0.14618501 0.06921239 -0.2320967
000020 63 fa 37 3e f6 46 29 be 7d b6 7b 3c 0d a7 2c be
       0.17966609 -0.16530976 0.015363333 -0.168606
000030 7a 0a 35 3b 62 c8 86 3d 9d 66 02 bd 67 db e2 3d
       0.0027624653 0.06581189 -0.03183614 0.11077004
000040 96 05 be bc b0 18 04 be fe 00 76 3d 8d f4 86 be
       -0.023196023 -0.12900043 0.06005954 -0.26358452

rb2.shortcut.bn.running_mean f4 [20]
000000 dd 3f 7f be 9f cc 70 bf 6a 00 17 bc 17 e8 78 3f
       -0.24926706 -0.94062227 -0.009216407 0.9722914
000010 42 db a5 3e 11 4f 39 bf 18 8f 2a bf af 85 6a bf
       0.32393843 -0.7238627 -0.66624594 -0.91610235
000020 0d 68 2a bf 1b c5 e6 be 41 8d 87 3e 7e 3a 97 3d
       -0.6656502 -0.45072255 0.26474956 0.073842034
000030 78 cd 40 be ee 84 09 bf c2 40 7f bf 49 c3 40 3e
       -0.1882838 -0.5371846 -0.9970819 0.18824495
000040 4a f6 63 3f f2 08 5d 3f 5a 93 58 bf b9 b3 ae bd
       0.8904768 0.86341774 -0.8459984 -0.08530373

rb2.shortcut.bn.running_var f4 [20]
000000 8e 01 ed 3e 3e 95 de 3e 94 dd d8 3e ae d2 f7 3e
       0.4629025 0.43473238 0.4235655 0.48402923
000010 dd 88 d2 3e d8 6b f0 3e 66 35 e6 3e 1b db 12 3f
       0.41120043 0.46957278 0.44962615 0.5736558
000020 32 97 bc 3e a6 f1 a2 3e 99 c7 07 3f f5 26 96 3e
       0.36834103 0.31824988 0.53038937 0.29326597
000030 75 92 8c 3e de ae 1d 3f 0d 88 03 3f d7 3f c9 3e
       0.27455488 0.6159495 0.5137947 0.39306518
000040 f6 7d 9e 3e 98 e1 e1 3e 36 ee 00 3f 42 d7 10 3e
       0.30955476 0.44117427 0.5036348 0.14144614

res1_sc1.conv.weight f4 [20, 3, 1, 1]
000000 38 ef 0b bf 08 cc c6 3d 3d c0 ad 3e ad b8 79 be
       -0.54661894 0.097068846 0.3393573 -0.24386854
000010 14 96 0f 3f 95 7b 74 be 76 db 9d 3c 26 56 a2 be
       0.56088376 -0.23875268 0.019269686 -0.3170635
000020 b7 d9 e6 be c4 4a c9 3e 3e 1c c0 be 43 07 97 be
       -0.45087978 0.39314854 -0.37521547 -0.29497728
000030 23 9e dd 3e aa 06 2d be 67 a6 92 3e 85 30 15 bf
       0.4328471 -0.16897073 0.2864258 -0.5827716
000040 3b 93 ab be 0e fa b8 3e b7 94 61 be 18 d5 d4 3e
       -0.33510765 0.36128277 -0.22029386 0.41568828
000050 ef 5c 03 3f a8 a4 d3 3e a3 d6 10 bf 53 4c 9d be
       0.5131368 0.4133656 -0.5657751 -0.30722293
000060 00 6d 43 3e 96 3d 0f 3f e1 4b 45 be ff 8b 8c 3e
       0.19084549 0.5595335 -0.19267227 0.2745056
000070 59 9c 74 be 9d a3 cd be 9f 85 3e bd 74 ec 65 be
       -0.23887767 -0.4016389 -0.04651415 -0.22453481
000080 ba cd 03 bf 6b 78 22 3e ed eb c3 bd ea 83 d8 be
       -0.5148579 0.15866248 -0.09566484 -0.42288142
000090 2f a0 ed be 2f b5 3b be 77 db bc bc 26 b9 51 3d
       -0.46411273 -0.18330835 -0.023053868 0.051201962
0000a0 53 67 3b be a9 ab 00 bf 39 94 39 be 96 bb 7e 3e
       -0.18301134 -0.5026193 -0.18122949 0.24876246
0000b0 9f 2e e4 3e 64 51 ce 3e 5b 1b 4c 3e 0b 38 7f be
       0.4456682 0.4029647 0.1993231 -0.24923722
0000c0 40 d6 d3 3c 77 35 cc be 9d 75 7e 3d b5 7d 78 3c
       0.025858998 -0.3988454 0.062123884 0.01516669
0000d0 ea 14 dc be de 15 45 3d 49 0b 82 3e ab 40 bc 3e
       -0.42984706 0.048116557 0.25399235 0.36768088
0000e0 c3 97 22 bd b7 45 0a bf 6a 8b db 3d d6 c6 d8 3d
       -0.039695513 -0.54012626 0.107199505 0.105848

res1_sc1.conv.bias f4 [20]
000000 76 bd 49 38 bd 50 e4 b9 36 1c 79 b8 e0 75 57 b9
       4.8098584e-05 -0.00043547704 -5.93925e-05 -0.0002054791
000010 70 1b ec b8 62 bd 8c 39 70 d8 ce 37 20 c1 9c b8
       -0.000112584676 0.00026843982 2.46579e-05 -7.474632e-05
000020 af ae 31 38 0c 76 33 38 cc 08 d6 b8 ba 06 59 39
       4.2362775e-05 4.2786865e-05 -0.00010205954 0.00020697239
000030 d7 39 a3 38 02 7a b0 b8 20 da 90 35 8c eb ea b8
       7.783219e-05 -8.41506e-05 1.0792319e-06 -0.000112018635
000040 15 d0 f6 b7 0b bb 8d 39 e5 b2 99 38 e3 2e 37 39
       -2.9422381e-05 0.00027032974 7.32893e-05 0.00017469707

res1_sc1.bn.weight f4 [20]
000000 02 bd 6b 3f bc 35 6e 3f 68 e1 40 3f 23 5d 2b 3f
       0.9208528 0.9305074 0.7534394 0.6693899
000010 ea d3 1a 3f 0d 0b 2b 3f 66 36 1b 3f dc f1 36 3f
       0.60479605 0.6681374 0.6062988 0.714628
000020 ef 08 2f 3f d8 49 35 3f c5 11 26 3f 37 20 2f 3f
       0.68373007 0.708158 0.64870864 0.6840853
000030 89 10 1c 3f 40 b7 37 3f 26 e8 35 3f e4 68 e1 3e
       0.6096273 0.7176399 0.71057355 0.44025338
000040 d5 63 21 3f b1 bd 19 3f 70 7c 01 3f 1c 9b 5c 3f
       0.63042957 0.6005507 0.505805 0.8617418

res1_sc1.bn.bias f4 [20]
000000 a5 5b 28 3e 98 af 20 3d 93 b0 52 be a2 8d 1d bd
       0.1644121 0.03922996 -0.2057517 -0.03846515
000010 13 78 0b be 86 b1 15 be 3a bf 8d 3d c2 aa 6d be
       -0.13620023 -0.14618501 0.06921239 -0.2320967
000020 63 fa 37 3e f6 46 29 be 7d b6 7b 3c 0d a7 2c be
       0.17966609 -0.16530976 0.015363333 -0.168606
000030 7a 0a 35 3b 62 c8 86 3d 9d 66 02 bd 67 db e2 3d
       0.0027624653 0.06581189 -0.03183614 0.11077004
000040 96 05 be bc b0 18 04 be fe 00 76 3d 8d f4 86 be
       -0.023196023 -0.12900043 0.06005954 -0.26358452
