models/dense_max/epoch_0018.pth (torch, 645162 bytes, 174 tensors)

rb1.conv1.weight f4 [10, 3, 3, 3]
-0.076797165 0.08307642 -0.080016494 -0.23228078 0.27055377 0.18260227 -0.19829458 0.19369999
-0.117541865 -0.17212255 0.014694004 -0.043357227 -0.31129017 0.28165138 0.16766056 -0.012236006
0.27777958 -0.22680248 -0.018980077 0.0044239354 -0.08928674 -0.22698675 0.047160406 0.015804572
0.1336892 0.06988118 0.1468005 0.058177076 0.019180376 0.16075107 0.06335108 0.14044999
-0.35078186 -0.064016685 0.044383764 -0.08087903 -0.039465163 -0.024537003 -0.012629934 -0.03761354
0.42764586 -0.22696005 -0.06037459 0.0944305 -0.13436271 -0.13474382 -0.17136502 0.11841914
0.015540166 0.35292944 -0.26667276 -0.0088787 0.10108886 0.046175722 0.02614909 0.27245083
0.19000162 -0.1370765 -0.07514105 0.09758223 -0.0625028 -0.2203913 0.012969201 0.24429025
0.2400314 0.31586573 0.0017960985 -0.17354491 -0.114442736 -0.11169823 -0.26715696 -0.1770912
0.060803868 0.16968049 0.0593496 0.000636438 -0.04409671 -0.094290204 0.10301869 -0.20237067
-0.120145395 -0.19527602 0.030661061 -0.16344187 0.07379988 -0.30994213 -0.16852628 0.044027545
0.09703744 0.15985955 -0.10703816 -0.15361212 -0.15853107 0.22061993 -0.26531875 -0.12098928
0.2717693 0.021664988 0.020893894 -0.04791842 0.02163394 -0.14331639 0.01597744 -0.1680434
-0.12685074 0.18762812 0.018830338 0.2296364 -0.24359408 -0.22950493 0.1964791 -0.083367445
-0.17215082 0.14804257 -0.113234036 -0.01279859 0.22401868 0.23003185 -0.22138982 -0.088826545
-0.07508231 -0.014029331 0.16791296 0.09488895 0.116432235 0.1220302 0.26022008 0.07943088
-0.07609811 0.2208363 0.02850118 -0.2824268 0.14592963 0.019843096 -0.1836185 -0.186939
-0.14586139 0.13548097 0.016425572 -0.14611648 0.010312007 0.11391882 -0.09720543 0.021073148
0.06852824 0.18864281 0.22447175 -0.053350627 -0.44367284 -0.11315435 0.16736549 -0.12910387
-0.33088222 0.021070324 -0.083296746 0.22833005 -0.08699255 -0.17777133 -0.0029222323 -0.22264397
-0.33350444 0.015126226 -0.028701073 -0.046868853 0.10030208 0.08107275 0.19521186 -0.11539039
-0.021799453 -0.03630955 0.022419637 0.0654015 0.022332216 0.06989561 0.13808556 0.29251963
-0.06286991 0.044971406 0.05150794 -0.18231617 -0.2604899 -0.15543865 -0.10117009 -0.0022501885
0.11118035 0.1455885 -0.07179389 0.3938586 0.27084455 0.013373411 -0.13321306 0.1953047
-0.26037022 -0.06349335 0.06339549 0.22525844 -0.056524273 0.19061552 0.12113668 -0.01582263
0.2040877 -0.22044297 -0.38133305 -0.0048288726 0.15309493 0.12955932 -0.25452003 -0.12107624
-0.088589415 0.07372424 -0.08417637 -0.14770183 0.3709698 0.26885659 -0.09349974 -0.03304831
-0.2785428 0.10198585 -0.0054997276 -0.018867277 0.19282357 0.2955038 -0.0128349615 0.14875321
-0.060619134 -0.086245365 -0.14345752 -0.14595725 0.016317395 0.12890936 -0.057413228 0.23859462
-0.28816858 -0.19980924 0.066870205 0.09780301 -0.10463946 0.119975954 0.206313 0.024355872
0.036783032 0.01992959 -0.23406726 0.25774384 0.4586565 0.22045633 0.16184387 0.30058956
0.055913296 -0.07872211 -0.18511888 -0.33570608 0.18462713 0.31252885 0.052181058 -0.053898077
00000000: d547 9dbd f823 aa3d b0df a3bd 03db 6dbe
00000010: 0686 8a3e 17fc 3a3e bc0d 4bbe 4a59 463e
00000020: cab9 f0bd e540 30be 1fbf 703c 5997 31bd
00000030: 6d61 9fbe 9c34 903e 36af 2b3e 8779 48bc
00000040: 2039 8e3e e93e 68be 1b7c 9bbc a9f6 903b
00000050: f7db b6bd 376f 68be 452b 413d 9778 813c
00000060: d2e5 083e dd1d 8f3d df52 163e 164b 6e3d
00000070: 2a20 9d3c ee9b 243e 36be 813d 1fd2 0f3e
00000080: ae99 b3be 2e1b 83bd c0cb 353d e8a3 a5bd
00000090: 39a6 21bd d301 c9bc c8ed 4ebc a810 1abd
000000a0: 66f4 da3e 3768 68be 594b 77bd c764 c13d
000000b0: 6196 09be 49fa 09be 507a 2fbe bc85 f23d
000000c0: 2e9c 7e3c 2bb3 b43e 5589 88be f877 11bc
000000d0: ad07 cf3d c122 3d3d 9e36 d63c ad7e 8b3e
000000e0: c98f 423e c85d 0cbe 8de3 99bd 31d9 c73d
000000f0: 7801 80bd 42ae 61be c67c 543c 3927 7a3e
00000100: cbca 753e 27b9 a13e 116b eb3a c2b5 31be
00000110: f460 eabd 0bc2 e4bd ccc8 88be 6557 35be
00000120: 7a0d 793d b9c0 2d3e 9118 733d a2d6 263a
00000130: c09e 34bd 391b c1bd 77fb d23d 423a 4fbe
00000140: ca0e f6bd 70f6 47be e82c fb3c 4e5d 27be
00000150: 6424 973d bcb0 9ebe 2792 2cbe 3a56 343d
00000160: 91bb c63d 39b2 233e d336 dbbd 7f4c 1dbe
00000170: f855 22be 31ea 613e dcd7 87be 3ac9 f7bd
00000180: 5825 8b3e c67a b13c ac29 ab3c 1b46 44bd
00000190: a939 b13c 88c1 12be 1fe3 823c 9213 2cbe
000001a0: 29e5 01be 9621 403e 1542 9a3c ce25 6b3e
000001b0: ba70 79be 5703 6bbe d131 493e 8dbc aabd
000001c0: 4e48 30be 7998 173e 3fe7 e7bd 2db1 51bc
000001d0: 2765 653e 788d 6b3e 03b4 62be b1ea b5bd
000001e0: c1c4 99bd 47db 65bc 60f1 2b3e 2355 c23d
000001f0: 0674 ee3d f8ea f93d 913b 853e a8ac a23d
00000200: 53d9 9bbd e922 623e 4e7b e93c 3f9a 90be
00000210: 946e 153e fd8d a23c 7d06 3cbe f06c 3fbe
00000220: b05c 15be 86bb 0a3e ec8e 863c 8f9f 15be
00000230: b1f3 283c 454e e93d a413 c7bd 98a1 ac3c
00000240: 8958 8c3d 952b 413e ecdb 653e 3086 5abd
00000250: 1629 e3be 78bd e7bd dc61 2b3e ce33 04be
00000260: 6569 a9be ac9b ac3c 7c97 aabd 5acf 693e
00000270: 2629 b2bd b009 36be ec82 3fbb c8fc 63be
00000280: 18c1 aabe fdd3 773c 831e ebbc 8ef9 3fbd
00000290: 2d6b cd3d 7809 a63d 9ee5 473e cc51 ecbd
000002a0: c494 b2bc 53b9 14bd 63a9 b73c 39f1 853d
000002b0: 0df2 b63c 6e25 8f3d 4d66 0d3e 22c5 953e
000002c0: f0c1 80bd f033 383d fdf9 523d 17b1 3abe
000002d0: ef5e 85be 4f2b 1fbe 4432 cfbd e677 13bb
000002e0: 86b2 e33d 2715 153e ad08 93bd d6a7 c93e
000002f0: 23ac 8a3e 271c 5b3c 0169 08be f5fd 473e
00000300: 3f4f 85be cd08 82bd 7fd5 813d 26aa 663e
00000310: ff85 67bd b730 433e 8216 f83d 769e 81bc
00000320: 5efc 503e cdbb 61be 163e c3be 853b 9ebb
00000330: ebc4 1c3e 33ab 043e 7350 82be d2f6 f7bd
00000340: 5e6e b5bd bcfc 963d a964 acbd 263f 17be
00000350: c1ef bd3e 92a7 893e cb7c bfbd aa5d 07bd
00000360: 299d 8ebe f5dd d03d 0f37 b4bb 8c8f 9abc
00000370: 8b73 453e 464c 973e bb49 52bc c352 183e
00000380: c54b 78bd 69a1 b0bd 87e6 12be d175 15be
00000390: 0fac 853c d100 043e 222a 6bbd 2652 743e
000003a0: d58a 93be cb9a 4cbe 3ff3 883d f24c c83d
000003b0: 374d d6bd f4b5 f53d b743 533e f785 c73c
000003c0: cea9 163d 6143 a33c 54af 6fbe 00f7 833e
000003d0: 06d5 ea3e 4ebf 613e 66ba 253e e0e6 993e
000003e0: 5705 653d 0f39 a1bd ce8f 3dbe abe1 abbe
000003f0: e50e 3d3e c803 a03e cebb 553d 3bc4 5cbd

rb1.conv1.bias f4 [10]
0.00021794831 0.0002744312 6.4725195e-05 0.00015826602 -0.00011834862 -0.000112824884 -4.9480306e-05 -0.000101522346
-3.6025296e-05 -0.0001936562
00000000: 0e89 6439 88e1 8f39 13bd 8738 36f4 2539
00000010: ee31 f8b8 669c ecb8 1389 4fb8 65e8 d4b8
00000020: de19 17b8 3110 4bb9

rb1.bn1.weight f4 [10]
0.7819325 1.2489638 0.85250974 0.8644674 0.5848471 0.79468447 0.6716448 0.9897102
0.8314952 0.67079735
00000000: ba2c 483f 0cde 9f3f 143e 5a3f bc4d 5d3f
00000010: 8ab8 153f 7170 4b3f eaf0 2b3f a65d 7d3f
00000020: dfdc 543f 60b9 2b3f

rb1.bn1.bias f4 [10]
0.3229488 1.1531969 0.0038192617 0.05188302 0.057421762 -0.02018731 -0.0029078831 0.8046439
0.5566519 0.13373525
00000000: 8c59 a53e f59b 933f 944c 7a3b 4a83 543d
00000010: 1533 6b3d dc5f a5bc 2f92 3ebb 25fd 4d3f
00000020: bd80 0e3f e5f1 083e

rb1.bn1.running_mean f4 [10]
-0.021816624 -0.012726956 0.016911212 0.06899859 -0.046418693 0.18575966 -0.12308958 -0.0007206695
-0.015220374 -0.108718865
00000000: c7b8 b2bc b984 50bc 6289 8a3c 224f 8d3d
00000010: 8721 3ebd c837 3e3e 6416 fcbd 50eb 3cba
00000020: e05e 79bc ffa7 debd

rb1.bn1.running_var f4 [10]
0.083036825 0.042847384 0.19120668 0.23649585 0.038262136 0.4262718 0.19855362 0.059177846
0.04364698 0.45781034
00000000: 360f aa3d bd80 2f3d afcb 433e f82b 723e
00000010: c2b8 1c3d 4c40 da3e a451 4b3e 7864 723d
00000020: 2dc7 323d 1e66 ea3e

rb1.conv2.weight f4 [10, 10, 3, 3]
-0.03515459 -0.19794884 0.0033002703 0.018046498 -0.15697877 -0.053621124 -0.0034301267 -0.04586383
-0.019976445 0.016823731 0.16995297 -0.26883134 -0.25836015 -0.08340246 0.14467715 0.15595488
-0.19955595 -0.0021412752 -0.15054049 0.07603954 -0.11085897 0.0059769056 -0.2055458 -0.17738111
0.015850652 0.116516456 0.14348932 0.14153607 0.16096748 0.12913011 0.08774614 0.1028174
0.030940974 -0.12322784 -0.06033211 -0.22930953 -0.1339031 0.056845363 -0.035215534 -0.017923454
-0.10490688 0.017754022 -0.066640295 -0.018636696 -0.08422573 0.07214062 0.23107862 0.16497822
-0.03576211 0.0021624446 -0.039514262 -0.049548343 0.060579494 0.15213259 -0.056671884 -0.032625273
-0.08964535 -0.09334833 -0.2305946 -0.076069586 0.099752314 0.07081582 -0.06863395 -0.028788814
0.12941512 0.2896805 -0.06400867 -0.26091298 -0.38822526 0.01138395 0.17343335 0.094098166
-0.04080072 -0.1587742 -0.101851836 0.13053907 0.059676677 0.095748946 -0.18821199 -0.010526011
-0.045313478 -0.31301022 -0.31762576 -0.11842331 -0.16476414 -0.040823776 -0.052403785 -0.14122427
-0.0810459 0.05311871 -0.015640296 -0.11848109 0.11344317 0.010153765 0.07422405 0.30833098
-0.04865727 0.15561119 -0.103004605 0.11074826 0.0837928 -0.17757353 0.16111156 -0.45412022
0.07536589 -0.30771384 0.12729824 0.16078229 0.021468256 0.12912674 -0.10932653 0.015916672
-0.16491361 -0.15323733 0.019379629 -0.08736729 -0.04880855 -0.21668814 0.11243402 0.047411297
0.06811285 -0.039548572 -0.10881311 0.005419492 -0.19667174 -0.022456428 0.18174946 0.20850249
0.03877279 0.072763205 -0.025432844 -0.08539206 -0.009893086 -0.14269425 -0.17260481 -0.08252722
-0.07874812 -0.079152964 -0.04911569 -0.058805566 -0.11800892 -0.07616397 -0.17387296 -0.056217734
0.10914192 0.16043167 0.101086505 0.16623305 0.18038857 0.12006324 0.15130095 0.1814385
0.018874781 0.08598987 -0.267289 -0.006637789 -0.03545457 -0.26425612 0.1984255 -0.027090762
0.27853963 -0.0093897125 0.11193281 -0.0068341037 -0.21695024 0.030125868 -0.10343573 0.14873795
2.345782e-05 0.14453304 -0.02429355 -0.035115156 -0.0055026794 0.022090973 0.060344793 -0.027936453
0.03459542 -0.06856926 0.13983057 0.033057842 0.02970049 -0.29711914 -0.062587835 0.026860457
-0.06346806 -0.017856088 0.0791221 0.06552819 0.06694273 -0.053301893 -0.14120601 -0.0009745502
-0.05964583 -0.14783041 -0.037114285 -0.02335216 0.12571374 0.1441861 0.272565 0.061603464
0.03915731 0.34786594 0.05484366 -0.17183405 0.09874847 -0.10057218 -0.05710715 0.10783112
0.054550275 -0.01224969 0.016533159 0.042843517 -0.0040821508 0.28164077 -0.010695715 0.034694772
0.12190072 0.12125362 0.023602784 0.24521142 0.07513704 0.03432101 0.09373838 0.04943376
0.0027514172 0.23278719 0.22750394 0.18073975 0.17666206 0.09481802 0.044886608 0.041672107
0.038770437 -0.11028903 0.01483355 -0.036674045 -0.11308565 0.012307012 -0.03177608 -0.09856358
0.0026213191 -0.025549455 -0.13217072 0.17762814 0.10919207 -0.0002285321 0.062495027 0.073351264
-0.0348216 -0.11380237 0.026027538 -0.070263475 0.27948797 0.284128 -0.06814757 0.2015173
00000000: 42fe 0fbd 1ab3 4abe 5949 583b 40d6 933c
00000010: 0bbf 20be d3a1 5bbd facb 60bb b6db 3bbd
00000020: a4a5 a3bc ecd1 893c 2708 2e3e 43a4 89be
00000030: c847 84be e9ce aabd 3f26 143e a3b2 1f3e
00000040: 6558 4cbe a354 0cbb 4927 1abe 9eba 9b3d
00000050: 070a e3bd ebd9 c33b 997a 52be 65a3 35be
00000060: 3ad9 813c 2ea0 ee3d ddee 123e d5ee 103e
00000070: a9d4 243e af3a 043e 40b4 b33d ee91 d23d
00000080: ed77 fd3c e15e fcbd cd1e 77bd 1ed0 6abe
00000090: e51d 09be afd6 683d 2a3e 10bd 35d4 92bc
000000a0: 6bd9 d6bd e270 913c b57a 88bd fcab 98bc
000000b0: 8a7e acbd 76be 933d e09f 6c3e 0df0 283e
000000c0: 4a7b 12bd cdb7 0d3b b5d9 21bd 34f3 4abd
000000d0: 3422 783d a5c8 1b3e c720 68bd 14a2 05bd
000000e0: fb97 b7bd 692d bfbd fe20 6cbe 5fca 9bbd
000000f0: f14a cc3d e207 913d f58f 8cbd 85d6 ebbc
00000100: 6685 043e 0151 943e fa16 83bd 6396 85be
00000110: 76c5 c6be bf83 3a3c 8398 313e 8ab6 c03d
00000120: a81e 27bd b495 22be b297 d0bd 09ac 053e
00000130: 886f 743d 0618 c43d a5ba 40be 4a75 2cbc
00000140: a09a 39bd e042 a0be d89f a2be ec87 f2bd
00000150: eeb7 28be d536 27bd 5aa5 56bd 189d 10be
00000160: 65fb a5bd 0193 593d 1420 80bc 37a6 f2bd
00000170: e554 e83d fa5b 263c c702 983d 8fdd 9d3e
00000180: d84c 47bd 8a58 1f3e 14f4 d2bd fccf e23d
00000190: 8f9b ab3d d6d5 35be 6efa 243e 7282 e8be
000001a0: 6f59 9a3d ab8c 9dbe 785a 023e 1da4 243e
000001b0: 32de af3c cd39 043e 96e6 dfbd ae63 823c
000001c0: 1ddf 28be 3fea 1cbe 07c2 9e3c 9fed b2bd
000001d0: 79eb 47bd 7fe3 5dbe cf43 e63d 5932 423d
000001e0: c07e 8b3d affd 21bd 68d9 debd fe95 b13b
000001f0: 5164 49be 8bf6 b7bc 881c 3a3e ad81 553e
00000200: 38d0 1e3d e004 953d 8a58 d0bc 08e2 aebd
00000210: 9c16 22bc 711e 12be 51bf 30be 0804 a9bd
00000220: b246 a1bd f31a a2bd 892d 49bd 1bde 70bd
00000230: a9ae f1bd dbfb 9bbd c10b 32be 9144 66bd
00000240: cd85 df3d 3348 243e 7106 cf3d ff38 2a3e
00000250: c8b7 383e b7e3 f53d a3ee 1a3e 04cb 393e
00000260: 499f 9a3c 751b b03d 1bda 88be cf81 d9bb
00000270: d038 11bd 944c 87be 0e30 4b3e 72ed ddbc
00000280: bf9c 8e3e 4fd7 19bc 073d e53d 9ef0 dfbb
00000290: 3428 5ebe 86ca f63c 1dd6 d3bd c34e 183e
000002a0: 49c7 c437 7800 143e 4403 c7bc e9d4 0fbd
000002b0: d24f b4bb 21f8 b43c 1a2c 773d fdda e4bc
000002c0: edb3 0d3d 0a6e 8cbd bf2f 0f3e a967 073d
000002d0: 714e f33c 0020 98be 0d2e 80bd 760a dc3c
000002e0: 8bfb 81bd ee46 92bc c40a a23d a533 863d
000002f0: 4519 893d 1653 5abd 4f98 10be f578 7fba
00000300: 304f 74bd db60 17be 2605 18bd 074d bfbc
00000310: 1abb 003e 85a5 133e a48d 8b3e ea53 7c3d
00000320: 6a63 203d 7c1b b23e bfa3 603d 44f5 2fbe
00000330: a33c ca3d c9f8 cdbd 30e9 69bd 90d6 dc3d
00000340: 1c70 5f3d ecb2 48bc 8c70 873c af7c 2f3d
00000350: 90c3 85bb 3833 903e 153d 2fbc 1b1c 0e3d
00000360: 16a7 f93d d153 f83d a05a c13c b418 7b3e
00000370: 73e1 993d 3094 0c3d e8f9 bf3d 0e7b 4a3d
00000380: 1f51 343b c45f 6e3e cbf6 683e d713 393e
00000390: e6e6 343e f32f c23d 05db 373d 5fb0 2a3d
000003a0: c0cd 1e3d 37df e1bd 6b08 733c 8637 16bd
000003b0: 7399 e7bd 5aa3 493c a327 02bd b4db c9bd
000003c0: 70ca 2b3b 174d d1bc c357 07be 27e4 353e
000003d0: 18a0 df3d 1ea2 6fb9 c9fa 7f3d 3039 963d
000003e0: 18a1 0ebd 3811 e9bd b437 d53c 4ce6 8fbd
000003f0: 0c19 8f3e 3a79 913e f490 8bbd 8d5a 4e3e

rb1.conv2.bias f4 [10]
-3.478296e-05 3.167779e-05 8.800891e-05 -2.7277527e-05 1.3040735e-05 -8.9136855e-05 0.00014626472 -4.2622152e-05
5.1666793e-05 -1.34189695e-05
00000000: ebe3 11b8 c5dd 0438 6c91 b838 0bd2 e4b7
00000010: 88c9 5a37 fcee bab8 a35e 1939 30c5 32b8
00000020: ccb4 5838 0922 61b7

rb1.bn2.weight f4 [10]
1.0331552 1.1351755 0.8039618 1.1057951 0.73817426 1.0720407 1.3320906 1.0604873
1.1150193 0.8578906
00000000: 6e3e 843f 6e4d 913f 71d0 4d3f b28a 8d3f
00000010: fdf8 3c3f a138 893f f281 aa3f 0cbe 873f
00000020: f4b8 8e3f b89e 5b3f

rb1.bn2.bias f4 [10]
0.05874973 -0.062835984 0.27801642 -0.035218664 0.25022885 0.09066362 -0.014536414 0.09788305
0.053632874 0.2679609
00000000: 8fa3 703d 27b0 80bd 2b58 8e3e 7241 10bd
00000010: ff1d 803e d9ad b93d 242a 6ebc e976 c83d
00000020: 25ae 5b3d 2c32 893e

rb1.bn2.running_mean f4 [10]
-1.2816367 -0.18217857 0.7035112 -0.036210876 -0.61584646 -0.15750772 -0.58838254 -0.15871625
0.019597381 1.6754378
00000000: ac0c a4bf 058d 3abe 4f19 343f db51 14bd
00000010: 1da8 1dbf b449 21be 3da0 16bf 8386 22be
00000020: b08a a03c bf74 d63f

rb1.bn2.running_var f4 [10]
1.6521028 1.2982248 0.9795898 1.5483555 0.990079 1.624904 2.1346855 1.6865903
1.9694362 1.7971771
00000000: 1b78 d33f 3b2c a63f 66c6 7a3f 8330 c63f
00000010: d175 7d3f dbfc cf3f b09e 0840 31e2 d73f
00000020: 7c16 fc3f e609 e63f

rb1.shortcut.conv.weight f4 [10, 3, 1, 1]
0.45042443 0.0016178115 0.34009188 -0.332006 -0.5438051 -0.37735248 0.36582342 -0.35761425
0.10667944 -0.47392926 -0.7011471 0.18194184 -0.09834122 -0.19353288 0.58405364 0.36275283
0.13687661 0.4973206 -0.37832612 -0.3349505 -0.3196619 -0.2831005 -0.6998007 0.2732652
-0.31535122 -0.5130534 -0.06799455 -0.29113317 0.05535164 -0.5816478
00000000: 089e e63e bf0c d43a 8620 ae3e b1fc a9be
00000010: d036 0bbf 5834 c1be 354d bb3e 3719 b7be
00000020: c07a da3d dba6 f2be 607e 33bf f64e 3a3e
00000030: 1f67 c9bd 7c2d 46be 8a84 153f bdba b93e
00000040: 6229 0c3e cea0 fe3e f6b3 c1be a27e abbe
00000050: b9aa a3be 8cf2 90be 2426 33bf 6be9 8b3e
00000060: b775 a1be 7857 03bf ba40 8bbd 680f 95be
00000070: 67b8 623d dfe6 14bf

rb1.shortcut.conv.bias f4 [10]
7.6550525e-05 -5.4053533e-05 -0.00014421999 -3.0342078e-05 -0.00030447537 -6.216639e-05 -0.00011032146 -0.00015921629
4.703018e-05 -0.00033316755
00000000: c089 a038 8ab7 62b8 c239 17b9 1e87 feb7
00000010: fea1 9fb9 545f 82b8 625c e7b8 4cf3 26b9
00000020: 4542 4538 feac aeb9

rb1.shortcut.bn.weight f4 [10]
0.98090637 0.91763896 1.024904 0.8932958 1.1363008 0.93834925 0.5877731 0.6904437
0.89889765 0.9095874
00000000: ae1c 7b3f 63ea 6a3f 0e30 833f 09af 643f
00000010: 4e72 913f a837 703f 4c78 163f ebc0 303f
00000020: 281e 663f b8da 683f

rb1.shortcut.bn.bias f4 [10]
0.05874973 -0.062835984 0.27801642 -0.035218664 0.25022885 0.09066362 -0.014536414 0.09788305
0.053632874 0.2679609
00000000: 8fa3 703d 27b0 80bd 2b58 8e3e 7241 10bd
00000010: ff1d 803e d9ad b93d 242a 6ebc e976 c83d
00000020: 25ae 5b3d 2c32 893e

rb1.shortcut.bn.running_mean f4 [10]
-0.09805382 0.15771964 -0.008372847 0.09096742 -0.07089257 -0.1340187 0.12720305 0.058251843
0.09890679 0.11975695
00000000: 71d0 c8bd 4281 213e 442e 09bc 204d ba3d
00000010: 2030 91bd 333c 09be 8441 023e 7c99 6e3d
00000020: a58f ca3d 2243 f53d

rb1.shortcut.bn.running_var f4 [10]
0.13947994 0.3546798 0.006610437 0.23463361 0.031299718 0.22264588 0.23915589 0.12492044
0.18334424 0.15176718
00000000: d4d3 0e3e 9798 b53e 5d9c d83b cb43 703e
00000010: 2234 003d 48fd 633e 48e5 743e 4ad6 ff3d
00000020: 98be 3b3e db68 1b3e

rb2.conv1.weight f4 [20, 10, 3, 3]
0.08180843 0.12985328 0.064527005 0.17317182 0.22710532 0.1396032 0.03945408 0.10530276
0.13066593 0.15472232 -0.122050025 -0.106656365 -0.110464886 -0.07207899 -0.030527938 0.1615503
-0.15549873 -0.10102005 -0.11865204 -0.3229842 -0.17874709 0.005105055 -0.25074083 -0.13991126
0.051808257 0.057740826 -0.08405215 -0.012755511 -0.11240641 0.11241235 0.070698455 0.05381304
0.11301681 0.04872832 0.04729212 0.21797384 -0.0036833768 0.12968346 -0.029666115 -0.08857986
0.011169794 0.08419942 0.0024769022 -0.2969051 -0.24080804 0.095997185 0.036340147 0.071119554
-0.14149947 -0.0708071 -0.07073279 -0.059910547 -0.45726848 -0.024957573 0.10940335 0.08474391
0.14803146 0.07111992 0.043542568 0.10603991 0.062079817 -0.020052953 -0.051393274 0.0688274
-0.082323834 0.054116014 -0.09930634 -0.36684912 -0.07946072 0.075352885 -0.16412771 -0.1170438
-0.019037237 0.003440676 -0.1506282 -0.17543493 0.06795657 0.1479828 -0.15824603 -0.022967702
0.10911362 -0.13695137 0.017046524 -0.15067515 0.0065071774 0.033630267 -0.014591518 -0.083789945
0.059537377 0.22750147 -0.25881594 -0.1746068 -0.08075195 0.033588443 -0.06915944 -0.014616808
0.16009131 0.1905832 0.21742412 -0.28956452 -0.1458144 -0.0468861 -0.13663477 0.07786222
-0.008028752 -0.072235316 -0.042010024 -0.0077509596 -0.2693931 -0.37528473 -0.2335783 0.106807776
0.03515358 -0.017098418 0.199746 0.25460747 0.30835614 -0.071140364 0.009582675 -0.029621484
-0.16133937 0.051452998 -0.1012923 -0.109023005 -0.008424886 -0.082714155 0.17783895 0.23731148
0.036628846 0.009259333 -0.017043533 -0.13009804 -0.17933384 -0.24601665 -0.23746656 -0.0024660253
-0.009044249 0.13353752 -0.06442815 0.030283365 0.042671677 0.05079351 -0.01570042 0.083454564
0.092291795 0.11233247 0.039961085 -0.052447528 0.014016041 -0.09208452 -0.0188865 0.0271122
-0.047990598 0.15556365 0.28242087 0.13658093 -0.007429514 0.07300458 0.11437579 -0.14655137
0.024391925 -0.055407714 -0.10786528 0.08122375 -0.080823444 -0.10716126 0.08901949 -0.16605541
0.029024016 0.043558706 -0.047785696 -0.044418726 0.0283576 0.011679085 0.026677841 0.14589198
0.061861835 0.006773507 0.09274659 -0.057154853 -0.04548676 0.07230502 -0.09643755 -0.01836823
0.051991094 -0.03514655 -0.012566615 -0.05262915 0.07639912 -0.016628085 0.019256102 0.19088921
-0.16396706 0.054902535 0.118962616 -0.08969497 -0.24069011 -0.17499882 0.106478475 -0.18254922
0.05530223 0.18348268 -0.029493712 -0.024918634 0.052979533 0.041669242 0.06828798 0.25366813
0.225034 0.1342592 -0.010133011 0.1919397 0.043315634 -0.107847735 0.11306851 0.039525405
-0.15341845 0.011050579 -0.061727777 -0.07579634 -0.066301346 0.0016169421 0.087741315 -0.046197567
-0.008405344 0.120239675 0.058241867 -0.07355077 -0.33650807 0.037782505 0.04383999 -0.24665804
0.019957302 0.0825662 0.22269605 0.19451265 0.046016894 -0.12975612 -0.086620666 -0.12746291
-0.59675795 -0.44790345 -0.15945256 -0.02097116 -0.005702844 0.06501403 -0.09603914 0.057987437
0.08727428 -0.066694885 -0.07246036 -0.098612316 -0.0879301 -0.076497085 -0.01950699 -0.1611195
00000000: 2e8b a73d 42f8 043e bc26 843d f453 313e
00000010: 4c8e 683e 24f4 0e3e 9a9a 213d f9a8 d73d
00000020: 4acd 053e 876f 1e3e 5df5 f9bd a76e dabd
00000030: 6a3b e2bd 269e 93bd ba15 fabc 716d 253e
00000040: 0f3b 1fbe 9ae3 cebd d7ff f2bd 2f5e a5be
00000050: 7a09 37be 4e48 a73b 1a61 80be e644 0fbe
00000060: e534 543d a581 6c3d 8923 acbd 7efc 50bc
00000070: 5535 e6bd 7238 e63d 5aca 903d 106b 5c3d
00000080: 5b75 e73d 5997 473d 62b5 413d 8934 5f3e
00000090: cf64 71bb becb 043e 5a06 f3bc 5c69 b5bd
000000a0: 8301 373c bf70 ac3d 8653 223b f203 98be
000000b0: 6296 76be 2c9a c43d 68d9 143d 21a7 913d
000000c0: 3de5 10be 5003 91bd 5adc 90bd c364 75bd
000000d0: 181f eabe d373 ccbc dd0e e03d 378e ad3d
000000e0: 8f95 173e 52a7 913d b159 323d 742b d93d
000000f0: 6847 7e3d 1746 a4bc c181 52bd 61f5 8c3d
00000100: 6699 a8bd c1a8 5d3d 1f61 cbbd a6d3 bbbe
00000110: 4dbc a2bd 9d52 9a3d 1811 28be a9b4 efbd
00000120: fbf3 9bbc f77c 613b 473e 1abe 37a5 33be
00000130: d02c 8b3d ce88 173e 3f0b 22be c326 bcbc
00000140: f676 df3d fb3c 0cbe 27a5 8b3c 964a 1abe
00000150: 293a d53b e4bf 093d 4311 6fbc 109a abbd
00000160: 77dd 733d 25f6 683e 8683 84be 20cc 32be
00000170: 4761 a5bd 0994 093d 77a3 8dbd 567b 6fbc
00000180: faee 233e 3e28 433e 6ea4 5e3e cd41 94be
00000190: 5f50 15be a40b 40bd fce9 0bbe 3a76 9f3d
000001a0: 078b 03bc 1cf0 93bd b412 2cbd c3fb fdbb
000001b0: e4ed 89be 5225 c0be 262f 6fbe 09be da3d
000001c0: 33fd 0f3d fb11 8cbc 378a 4c3e e95b 823e
000001d0: dbe0 9d3e 0ab2 91bd a700 1d3c c1a8 f2bc
000001e0: 2636 25be 61c0 523d 5672 cfbd 7447 dfbd
000001f0: 8808 0abc 0a66 a9bd 6a1b 363e c801 733e
00000200: 2108 163d 75b4 173c e19e 8bbc 6c38 05be
00000210: 4aa3 37be caeb 7bbe 6f2a 73be 0a9d 21bb
00000220: 542e 14bc 0fbe 083e e8f2 83bd d214 f83c
00000230: 7fc8 2e3d db0c 503d 2b9e 80bc 3aea aa3d
00000240: 7b03 bd3d 910e e63d 3cae 233d 38d3 56bd
00000250: 89a3 653c cf96 bcbd dcb7 9abc 681a de3c
00000260: ca91 44bd 144c 1f3e 7899 903e dfdb 0b3e
00000270: 4873 f3bb 6d83 953d db3d ea3d 9011 16be
00000280: 93d1 c73c 33f3 62bd 79e8 dcbd a358 a63d
00000290: c386 a5bd 5d77 dbbd da4f b63d 6e0a 2abe
000002a0: c6c3 ed3c 9d6a 323d efba 43bd 69f0 35bd
000002b0: 334e e83c a259 3f3c 7d8b da3c b564 153e
000002c0: d662 7d3d 4cf4 dd3b edf1 bd3d 351b 6abd
000002d0: 5350 3abd a814 943d 0d81 c5bd f878 96bc
000002e0: 9df4 543d d4f5 0fbd 34e4 4dbc aa91 57bd
000002f0: 2477 9c3d 9f37 88bc f9be 9d3c 7678 433e
00000300: fbe6 27be 7be1 603d aca2 f33d ffb1 b7bd
00000310: 7877 76be e432 33be 6311 da3d 2fee 3abe
00000320: 9784 623d e2e2 3b3e cc9c f1bc 2a22 ccbc
00000330: 1101 593d 5ead 2a3d 92da 8b3d cae0 813e
00000340: 506f 663e 3e7b 093e ee04 26bc d78b 443e
00000350: bc6b 313d 46df dcbd 7790 e73d 64e5 213d
00000360: ba19 1dbe 7d0d 353c 44d6 7cbd 1d3b 9bbd
00000370: 00c9 87bd 93ef d33a b8b1 b33d a939 3dbd
00000380: 91b6 09bc 3840 f63d 068f 6e3d c9a1 96bd
00000390: c94a acbe d4c1 1a3d 9091 333d ed93 7cbe
000003a0: 7f7d a33c 7818 a93d 6f0a 643e 532e 473e
000003b0: 367c 3c3d cade 04be 2d66 b1bd a385 02be
000003c0: 21c5 18bf 9a53 e5be 8847 23be b6cb abbc
000003d0: ecde babb 1326 853d 2bb0 c4bd 3c84 6d3d
000003e0: dcbc b23d 5497 88bd 1966 94bd 41f5 c9bd
000003f0: b214 b4bd 81aa 9cbd 20cd 9fbc 83fc 24be

rb2.conv1.bias f4 [20]
5.7209676e-05 3.7932343e-05 -2.6136524e-05 8.601151e-06 -1.8593626e-05 -1.1644448e-05 2.0223162e-05 -6.377306e-05
-3.8790104e-06 -2.6426214e-06 5.9878173e-05 5.533128e-05 3.1146392e-05 5.377768e-05 2.0439358e-05 -2.1283086e-05
7.889289e-05 4.948758e-06 1.5711794e-05 3.707942e-05
00000000: 6cf4 6f38 8b19 1f38 c23f dbb7 aa4d 1037
00000010: 82f9 9bb7 865c 43b7 e9a4 a937 e7bd 85b8
00000020: 7228 82b6 e457 31b6 b325 7b38 8213 6838
00000030: 2fa3 0238 588f 6138 3075 ab37 1489 b2b7
00000040: 4c73 a538 820d a636 d2cc 8337 b985 1b38

rb2.bn1.weight f4 [20]
0.8358752 0.87229854 0.9012707 1.0617901 1.0694331 0.73367786 0.9611863 0.85204947
0.68826014 0.85219985 0.7863166 1.0129001 1.0255996 0.96140003 0.92493606 1.0875139
0.9031769 0.8873356 0.9695998 0.94615334
00000000: ebfb 553f f54e 5f3f adb9 663f bde8 873f
00000010: 2fe3 883f 50d2 3b3f 4e10 763f ea1f 5a3f
00000020: d131 303f c529 5a3f 0b4c 493f b6a6 813f
00000030: d946 833f 501e 763f 9cc8 6c3f a833 8b3f
00000040: 9a36 673f 6d28 633f b137 783f 1b37 723f

rb2.bn1.bias f4 [20]
0.026416501 -0.16176033 0.116379656 -0.021998364 -0.27058822 -0.08950434 0.04361041 0.1487407
-0.010709206 0.09989564 0.034655083 0.059122484 -0.09341141 0.03695046 -0.11296041 -0.07354948
0.12513895 0.0022500276 0.1091368 -0.105162084
00000000: 6b67 d83c 80a4 25be 7558 ee3d ea35 b4bc
00000010: 8a8a 8abe 0d4e b7bd d4a0 323d 7b4f 183e
00000020: aa75 2fbc 1696 cc3d 7df2 0d3d 6b2a 723d
00000030: 7b4e bfbd 5e59 173d ca57 e7bd 1ca1 96bd
00000040: 6d24 003e 3375 133b 1d83 df3d 385f d7bd

rb2.bn1.running_mean f4 [20]
-1.2505105 -0.22401421 -1.7592013 -3.022475 -1.0638634 0.07547666 -1.3422891 -1.6505437
1.2664268 -0.22810502 -0.56208205 -1.0590383 -2.5995882 -0.6928683 -0.7927533 -1.9478344
-1.9466887 -0.37443954 -1.7886014 -0.17327678
00000000: ba10 a0bf fb63 65be 822d e1bf 3b70 41c0
00000010: ad2c 88bf 8293 9a3d 21d0 abbf 0445 d3bf
00000020: 461a a23f 5d94 69be 9ce4 0fbf 918e 87bf
00000030: a75f 26c0 d15f 31bf e1f1 4abf a352 f9bf
00000040: 182d f9bf 8ab6 bfbe e4f0 e4bf 786f 31be

rb2.bn1.running_var f4 [20]
1.7463871 1.6320812 2.0820074 3.028108 2.457582 1.5165751 2.4199762 2.5624135
1.4260001 1.2972325 1.6284597 2.4116273 2.6816542 2.1712127 1.5096524 2.667128
2.3966486 1.9354409 1.8043633 2.1285043
00000000: 9d89 df3f 09e8 d03f 9c3f 0540 85cc 4140
00000010: 0649 1d40 221f c23f e4e0 1a40 95fe 2340
00000020: 2c87 b63f b70b a63f 5e71 d03f 1a58 1a40
00000030: 39a0 2b40 26f5 0a40 4a3c c13f 3ab2 2a40
00000040: b162 1940 87bc f73f 60f5 e63f 6a39 0840

rb2.conv2.weight f4 [20, 20, 3, 3]
-0.007546807 0.09729269 -0.036733553 0.020260992 0.014839139 -0.11739303 -0.03397375 -0.13429922
-0.05440745 -0.21538764 0.1599271 0.13977458 0.024615621 0.17686692 0.1302804 0.065828815
0.07113456 0.14509086 -0.00025423738 -0.05383615 0.040813703 0.1409464 0.054555275 -0.0011363799
-0.006511611 -0.022369698 -0.14153655 -0.17229159 -0.024324251 -0.16609102 -0.10624227 0.09775072
-0.24762405 -0.30210033 -0.051126577 -0.045065515 -0.12034588 -0.07977338 -0.09641425 -0.0008782096
0.013800801 -0.026749436 0.0919489 0.15865478 0.049127776 -0.16083632 -0.024310747 -0.060938627
-0.17266527 0.14625633 0.024625544 0.053482674 -0.031196713 0.012207981 -0.025120474 -0.008435293
-0.09932427 0.09797878 0.0064121652 -0.07939286 -0.12718804 -0.14941153 0.032785423 -0.17625977
-0.07594355 -0.13036792 -0.024414955 -0.13245092 -0.13265085 -0.10616988 -0.22153564 0.067601986
0.1791483 -0.25693223 -0.23773381 0.26392895 0.061514426 -0.10118627 -0.065506674 0.019277668
0.10662038 0.06891977 -0.20863284 -0.2313009 0.08763457 -0.10700095 0.13574934 -0.045326553
0.07737377 0.28412837 0.01961434 0.019952204 -0.09250146 0.17449576 0.07337101 -0.08289745
0.06458671 -0.15067229 -0.29222697 0.00036879315 0.05618448 0.16406506 0.01867837 -0.057424337
0.115282126 -0.07991944 -0.10704317 -0.09030532 -0.03760852 0.04236746 -0.027984763 -0.12996152
-0.15445644 -0.11487334 -0.32441133 -0.20089228 -0.2126623 0.014536694 0.037421923 -0.0012395201
0.12164659 -0.032782547 0.067466 0.10380073 -0.023830665 -0.0017154227 0.18429184 0.008407719
0.14690001 0.0011374757 -0.10498848 0.12099267 0.0605454 0.10148323 0.19928737 0.08399668
0.07656577 0.12123668 0.007718401 0.11194892 0.07371038 0.019743824 -0.022916555 -0.19895704
0.07168688 0.001933697 0.053851455 0.064560205 0.11328845 0.05412559 -0.079214886 -0.04682348
0.042793706 0.049283125 -0.09790744 0.03405357 0.0010606059 -0.15865263 0.04874778 -0.0019903113
-0.023639882 -0.039850682 -0.14036623 -0.007415709 -0.009262621 -0.12128179 0.11456352 0.07336039
-0.25259942 -0.044418994 -0.12079255 0.2306931 0.057778243 0.08455563 0.06917238 0.08848665
0.15381351 0.14174464 0.17458081 0.056659866 0.12066765 0.13503222 -0.1832043 -0.20552011
0.068096496 -0.11251571 0.005400985 -0.07982613 -0.1227394 -0.07070911 -0.23458123 -0.06001751
0.14167176 -0.0141134625 0.05980889 0.08387005 0.07518688 0.006102014 -0.09531509 -0.0870995
-0.06378099 -0.22634335 -0.08151681 -0.048678413 -0.01874503 0.0568177 0.030184941 -0.13382222
0.018235203 -0.022206146 -0.14607796 0.086702645 -0.12221475 -0.2294011 -0.16719249 -0.17961709
-0.20856623 -0.11986387 -0.11619621 -0.08049375 0.006791023 -0.17620789 0.10949044 -0.0664293
-0.12853208 -0.06255668 -0.07055347 0.14967439 -0.2315543 -0.19767669 0.063430205 0.03297548
0.0052364278 0.09436382 -0.037862487 -0.02824048 0.1578592 -0.04867029 0.026035128 0.04128577
-0.014298915 0.12302625 -0.021022419 0.03304594 0.01659633 -0.21467024 0.057187136 0.10667698
-0.08387628 -0.030652508 -0.048909966 -0.13008022 -0.1274147 -0.053014506 -0.09277103 0.113851555
00000000: 354b f7bb 6441 c73d ec75 16bd 61fa a53c
00000010: dc1f 733c c26b f0bd 0f28 0bbd bc85 09be
00000020: 59da 5ebd 948e 5cbe eec3 233e 1121 0f3e
00000030: b3a6 c93c 9a1c 353e 3a68 053e 42d1 863d
00000040: ffae 913d b392 143e 2a4b 85b9 4b83 5cbd
00000050: 452c 273d 4154 103e 5a75 5f3d 95f2 94ba
00000060: 5a5f d5bb a840 b7bc f5ee 10be 356d 30be
00000070: a743 c7bc c413 2abe 8c95 d9bd 8831 c83d
00000080: 2991 7dbe e5ac 9abe 1a6a 51bd 9e96 38bd
00000090: e777 f6bd 3a60 a3bd d674 c5bd a637 66ba
000000a0: c11c 623c a221 dbbc b44f bc3d 6676 223e
000000b0: 353a 493d 47b2 24be 5527 c7bc c89a 79bd
000000c0: 2acf 30be 38c4 153e 82bb c93c a610 5b3d
000000d0: 4090 ffbc fc03 483c 74c9 cdbc 2f34 0abc
000000e0: 866a cbbd 19a9 c83d 241d d23b b998 a2bd
000000f0: 953d 02be 56ff 18be 024a 063d 717d 34be
00000100: 4b88 9bbd 2b7f 05be df01 c8bc 37a1 07be
00000110: a0d5 07be 986f d9bd 3dda 62be e972 8a3d
00000120: a772 373e 9f8c 83be 7e70 73be b221 873e
00000130: 8df6 7b3d bf3a cfbd 5d28 86bd 33ec 9d3c
00000140: c95b da3d cf25 8d3d d9a3 55be 25da 6cbe
00000150: c179 b33d 5023 dbbd e001 0b3e 56a8 39bd
00000160: 2476 9e3d 4679 913e 41ae a03c ce72 a33c
00000170: 6871 bdbd 04af 323e 8a43 963d 23c6 a9bd
00000180: 0946 843d d649 1abe c69e 95be 945a c139
00000190: b321 663d ac00 283e 6203 993c c835 6bbd
000001a0: 0919 ec3d ceac a3bd 7339 dbbd fff1 b8bd
000001b0: 640b 1abd 8089 2d3d 4d40 e5bc a214 05be
000001c0: d429 1ebe b742 ebbd 3e19 a6be b5b6 4dbe
000001d0: 25c4 59be 502b 6e3c bb47 193d 6577 a2ba
000001e0: d921 f93d fe46 06bd 9d2b 8a3d 7a95 d43d
000001f0: 8738 c3bc 09d8 e0ba 00b7 3c3e 88c0 093c
00000200: f56c 163e 5a17 953a 3304 d7bd 01cb f73d
00000210: 74fe 773d 71d6 cf3d fd11 4c3e 7406 ac3d
00000220: 84ce 9c3d f04a f83d a4ea fc3b 7a45 e53d
00000230: 78f5 963d cdbd a13c 80bb bbbc 65bb 4bbe
00000240: 92d0 923d 1b74 fd3a 5893 5c3d 2438 843d
00000250: c603 e83d cbb2 5d3d 6a3b a2bd fac9 3fbd
00000260: 7448 2f3d 1add 493d b283 c8bd c27b 0b3d
00000270: 0704 8b3a d675 22be c1ab 473d e26f 02bb
00000280: 6da8 c1bc 783a 23bd 2abc 0fbe 7aff f2bb
00000290: 40c2 17bc 9662 f8bd 47a0 ea3d f93d 963d
000002a0: b654 81be b1f0 35bd 1662 f7bd d03a 6c3e
000002b0: e1a8 6c3d 812b ad3d 40aa 8d3d 7d38 b53d
000002c0: 4a81 1d3e 8225 113e 50c5 323e 2d14 683d
000002d0: 9a20 f73d e345 0a3e e899 3bbe dd73 52be
000002e0: 2d76 8b3d a36e e6bd bffa b03b e27b a3bd
000002f0: cb5e fbbd f0cf 90bd 1036 70be ecd4 75bd
00000300: 6712 113e 273c 67bc 2bfa 743d 10c4 ab3d
00000310: 94fb 993d 67f3 c73b 8f34 c3bd 3961 b2bd
00000320: 9c9f 82bd 8dc6 67be 49f2 a6bd 0463 47bd
00000330: 2d8f 99bc adb9 683d 6946 f73c b108 09be
00000340: fe61 953c aae9 b5bc 7695 15be 2891 b13d
00000350: ba4b fabd 1fe8 6abe 8234 2bbe 8bed 37be
00000360: 6392 55be 307b f5bd 47f8 edbd e8d9 a4bd
00000370: 3b87 de3b d76f 34be 863c e03d 160c 88bd
00000380: ea9d 03be b71d 80bd 567e 90bd 3e44 193e
00000390: 921c 6dbe c26b 4abe b2e7 813d 4c11 073d
000003a0: 5796 ab3b d241 c13d b215 1bbd 9458 e7bc
000003b0: d8a5 213e 7f5a 47bd 9f47 d53c 441b 293d
000003c0: ff45 6abc 30f5 fb3d 3537 acbc 2e5b 073d
000003d0: 07f5 873c 84d2 5bbe 0f3d 6a3d 7679 da3d
000003e0: 54c7 abbd f81a fbbc d155 48bd c033 05be
000003f0: 0079 02be bd25 59bd bdfe bdbd 012b e93d

rb2.conv2.bias f4 [20]
-4.293797e-05 2.7117156e-05 -7.574358e-05 4.142289e-05 4.635963e-05 -4.5726072e-05 5.3320993e-05 2.0459453e-05
-2.2976768e-05 8.257513e-06 3.9003127e-05 2.2503711e-05 -1.1091304e-05 -1.1443626e-06 -4.422768e-05 -7.163221e-06
2.5221187e-05 -6.260899e-05 -1.9904759e-05 -1.6615724e-05
00000000: 4b18 34b8 a679 e337 86d8 9eb8 7dbd 2d38
00000010: 4672 4238 ffc9 3fb8 fba4 5f38 57a0 ab37
00000020: 3cbe c0b7 c089 0a37 4a97 2338 5ac6 bc37
00000030: ca14 3ab7 0098 99b5 1c81 39b8 9a5b f0b6
00000040: 1692 d337 f24c 83b8 25f9 a6b7 ff61 8bb7

rb2.bn2.weight f4 [20]
0.865323 0.9380043 1.1959257 1.1235738 1.1955199 1.0833585 1.2495134 1.2300345
1.2462397 1.167335 1.1873794 1.00376 1.1775569 1.0022218 1.0964217 1.2945958
1.3452399 1.292425 1.1231931 0.86860037
00000000: cf85 5d3f 0d21 703f 1814 993f 44d1 8f3f
00000010: cc06 993f 7eab 8a3f 0ef0 9f3f c571 9d3f
00000020: c884 9f3f 3c6b 953f 0cfc 973f 357b 803f
00000030: 2fba 963f ce48 803f 8c57 8c3f 51b5 a53f
00000040: d230 ac3f 2f6e a53f cbc4 8f3f 985c 5e3f

rb2.bn2.bias f4 [20]
0.1904612 0.047714032 -0.20355828 -0.002752445 -0.09193359 -0.17506221 0.09090792 -0.24662182
0.21774237 -0.1507636 0.04367304 -0.13575314 -0.025713336 0.06395649 -0.027303498 0.15580112
-0.030012734 -0.12687781 0.08194837 -0.27300522
00000000: 4308 433e ca6f 433d 9571 50be 5d62 34bb
00000010: ae47 bcbd 8243 33be ee2d ba3d 6e8a 7cbe
00000020: dbf7 5e3e c661 1abe 80e2 323d df02 0bbe
00000030: c6a4 d2bc 9ffb 823d 96ab dfbc 548a 1f3e
00000040: 44dd f5bc 42ec 01be 8cd4 a73d 57c7 8bbe

rb2.bn2.running_mean f4 [20]
-0.66151416 -2.1174924 -1.1562402 -1.0808576 -0.78899723 0.26160797 -1.3213048 0.4352959
-2.9198265 -0.17585532 -0.9930585 0.1291457 -1.8214718 -0.58223 0.25828987 -1.442232
-2.7590363 -0.18525669 -2.4259553 0.24626844
00000000: fe58 29bf ff84 07c0 aeff 93bf 8b59 8abf
00000010: b9fb 49bf 7bf1 853e 8420 a9bf 1bdf de3e
00000020: 70de 3ac0 6b13 34be 1539 7ebf c53e 043e
00000030: fd25 e9bf 060d 15bf 923e 843e 0f9b b8bf
00000040: 0d94 30c0 eeb3 3dbe da42 1bc0 cb2d 7c3e

rb2.bn2.running_var f4 [20]
0.97519284 0.98390377 0.72013885 1.0787274 0.7065799 1.1267607 1.2626188 0.7126283
1.3195595 0.87875444 0.81858855 0.75791883 0.67082125 1.0978193 1.4001163 1.0384486
0.9363855 1.1107268 0.96502733 0.73258585
00000000: 3da6 793f 1ee1 7b3f 055b 383f bd13 8a3f
00000010: 6ce2 343f b239 903f 7e9d a13f cf6e 363f
00000020: 53e7 a83f 0df6 603f 058f 513f f806 423f
00000030: f1ba 2b3f 5885 8c3f 0337 b33f e2eb 843f
00000040: f6b6 6f3f 4c2c 8e3f 080c 773f bf8a 3b3f

rb2.shortcut.conv.weight f4 [20, 10, 1, 1]
-0.022904621 -0.08020098 -0.38567817 -0.102512054 0.5182463 -0.0075543383 0.01703045 -0.0020458442
-0.005327379 -0.23036265 -0.07136295 0.10621886 -0.6165653 0.07815543 -0.15557878 -0.2188132
-0.019452672 -0.013551545 0.0038312217 -0.0060239336 -0.10519442 -0.13267967 -0.038018905 -0.028848337
0.050336666 0.39104527 0.15065724 0.10493493 -0.14773211 -0.36388096 -0.050922293 -0.0109235905
0.33743984 0.12594484 0.19630995 -0.15017962 0.25256747 0.20609312 0.4255285 -0.14707074
-0.12210101 0.04359992 0.06878599 0.42515177 0.058388814 -0.073898755 -0.027173035 -0.07526596
0.3696665 -0.116109505 0.26723236 0.1820275 -0.112097554 -0.36151543 -0.0637895 -0.06643685
0.21243541 -0.15133837 -0.15056191 -0.4089579 -0.10869933 0.1657937 0.01898074 -0.3155347
0.015129147 -0.3927274 -0.25913334 0.062582366 0.2620075 -0.07450684 0.17637686 0.19304758
0.0009851371 -0.05251711 -0.16998228 -0.07404909 -0.30592936 0.044145223 -0.5936479 -0.18985823
-0.10860262 0.14018281 -0.0919282 -0.07421574 -0.700354 -0.107503824 0.0020859595 0.2671985
-0.09262604 0.010852329 -0.26242706 0.36464638 -0.15451434 -0.19617608 0.18896237 -0.13077025
-0.01984529 0.13088913 -0.008866428 -0.392132 -0.0010742894 0.078287125 -0.42127818 0.26283297
-0.30945328 -0.1418972 0.26854873 0.06062325 0.13258727 0.07606644 0.012551546 -0.024958417
-0.32736066 0.24928884 0.26298568 0.24362421 -0.09888491 -0.08013461 0.14453061 -0.18784566
-0.10371744 -0.3683301 0.21722484 0.33690396 -0.09215394 0.0067199524 0.061103474 -0.11438889
-0.3781711 0.102442056 -0.040695887 -0.19028234 -0.12140582 -0.09346682 0.059077144 0.1254178
0.1111747 0.08409541 -0.63593525 -0.15681814 0.023650622 -0.26006955 -0.008959107 -0.19540437
-0.011381587 -0.36237898 -0.4108397 -0.08725811 -0.09398677 0.1874724 0.37626374 -0.35578284
0.22958025 0.13078646 -0.14158462 0.14150313 0.1436792 -0.12498518 -0.28923 -0.041234523
0.16418873 0.32306492 -0.13152885 0.073116444 -0.010292742 0.27957535 0.19701447 0.10961093
0.09791664 0.004190506 0.065036975 0.082673 -0.2755975 0.13504069 0.03910582 0.24188213
0.26027316 0.41355786 0.1615439 -0.12602614 0.036114383 0.10022171 -0.024326514 -0.25920692
-0.02428012 0.042449027 0.00084033667 -0.3043864 -0.49411777 -0.07181643 -0.25275135 -0.1391121
0.3817276 -0.014998898 0.15996054 -0.06722748 0.08254153 -0.11158574 -0.22154988 0.08477626
00000000: 79a2 bbbc 6940 a4bd 9c77 c5be d7f1 d1bd
00000010: caab 043f 628a f7bb 7183 8b3c 9213 06bb
00000020: 4b91 aebb 30e4 6bbe bd26 92bd 4689 d93d
00000030: 39d7 1dbf f40f a03d 0b50 1fbe 9110 60be
00000040: 365b 9fbc 4d07 5ebc 3c15 7b3b 6b64 c5bb
00000050: 2c70 d7bd 2edd 07be b6b9 1bbd 5953 ecbc
00000060: d22d 4e3d 1637 c83e e445 1a3e 20e8 d63d
00000070: 1647 17be 9b4e babe e593 50bd dcf8 32bc
00000080: eac4 ac3e aff7 003e 7a05 493e b0c8 19be
00000090: 8650 813e 130a 533e dfde d93e b699 16be
000000a0: 1810 fabd d495 323d abdf 8c3d 7ead d93e
000000b0: 1c29 6f3d 3b58 97bd fc99 debc 0a25 9abd
000000c0: ed44 bd3e d2ca edbd aed2 883e 6b65 3a3e
000000d0: 6793 e5bd 8d18 b9be 12a4 82bd 0b10 88bd
000000e0: ab88 593e 72f8 1abe e72c 1abe ee62 d1be
000000f0: c19d debd d3c5 293e 7f7d 9b3c c48d a1be
00000100: 3ee0 773c 9113 c9be 20ad 84be 2f2b 803d
00000110: d925 863e 0b97 98bd 239c 343e 44ae 453e
00000120: b71f 813a 2e1c 57bd d60f 2ebe 0da7 97bd
00000130: c6a2 9cbe 9fd1 343d 4ff9 17bf 326a 42be
00000140: 0d6b debd 158c 0f3e da44 bcbd 6cfe 97bd
00000150: 664a 33bf f72a dcbd 98b4 083b 3ece 883e
00000160: b9b2 bdbd f8cd 313c d75c 86be eeb2 ba3e
00000170: 0239 1ebe 62e2 48be 5a7f 413e a3e8 05be
00000180: 9792 a2bc cd07 063e 7f44 11bc 87c5 c8be
00000190: 2ccf 8cba 0055 a03d c6b1 d7be 0b92 863e
000001a0: a970 9ebe 804d 11be 387f 893e 1650 783d
000001b0: f5c4 073e b9c8 9b3d 00a5 4d3c 9875 ccbc
000001c0: d19b a7be 9345 7f3e 0fa6 863e a078 793e
000001d0: 2c84 cabd 9d1d a4bd d5ff 133e 9d5a 40be
000001e0: cf69 d4bd c395 bcbe 3070 5e3e ad7e ac3e
000001f0: 34bb bcbd 0c33 dc3b a347 7a3d b944 eabd
00000200: a49f c1be 24cd d13d bbb0 26bd 60d9 42be
00000210: 9da3 f8bd 886b bfbd e0fa 713d 866d 003e
00000220: 90af e33d 373a ac3d a7cc 22bf ef94 20be
00000230: f3be c13c d627 85be 38c9 12bc 1518 48be
00000240: d679 3abc bd89 b9be 9559 d2be 61b4 b2bd
00000250: 237c c0bd c4f8 3f3e a4a5 c03e 2b29 b6be
00000260: 1617 6b3e e3ec 053e 8ffb 10be 32e6 103e
00000270: a420 133e 3bf8 ffbd f415 94be 88e5 28bd
00000280: 1721 283e c468 a53e 80af 06be 13be 953d
00000290: e4a2 28bc 8024 8f3e 29be 493e b27b e03d
000002a0: 8588 c83d 8350 893b 1b32 853d 7650 a93d
000002b0: 1e1b 8dbe 1b48 0a3e 6d2d 203d f3af 773e
000002c0: 8642 853e dbbd d33e c46b 253e ff0c 01be
000002d0: adec 133d 0a41 cd3d 6648 c7bc c5b6 84be
000002e0: 1ae7 c6bc 08df 2d3d 0a4a 5c3a 89d8 9bbe
000002f0: 01fd fcbe 7e14 93bd a068 81be 6773 0ebe
00000300: cd71 c33e f0bd 75bc b2cc 233e 90ae 89bd
00000310: 890b a93d 1087 e4bd f9dd 62be 2d9f ad3d

rb2.shortcut.conv.bias f4 [20]
-7.107183e-05 -5.8926165e-05 -4.153676e-05 -1.7460663e-05 -5.3920776e-05 1.7968773e-06 4.177031e-05 -9.740514e-06
-0.000114928946 5.791711e-05 1.9485555e-05 3.0859235e-05 3.650927e-05 -2.3018438e-06 -7.9285666e-05 4.2701908e-05
-8.434919e-06 3.1705957e-05 2.2783803e-05 -2.443101e-05
00000000: 660c 95b8 7d27 77b8 c237 2eb8 7d78 92b7
00000010: fe28 62b8 3c2c f135 8732 2f38 306b 23b7
00000020: 0206 f1b8 06ec 7238 e974 a337 da6e 0138
00000030: 8821 1938 6079 1ab6 2b46 a6b8 d31a 3338
00000040: b483 0db7 03fc 0438 d81f bf37 32f1 ccb7

rb2.shortcut.bn.weight f4 [20]
0.9551298 0.7025248 0.91810125 0.5432684 0.6885178 0.71939445 0.5746822 0.7871745
0.8162841 0.8576531 0.57143235 0.6987319 0.49617034 0.88199097 1.0905181 0.4957228
0.70093924 0.55126905 0.3582404 0.7569643
00000000: 6383 743f aad8 333f af08 6b3f a313 0b3f
00000010: b442 303f 3c2a 383f 5f1e 133f 4584 493f
00000020: fff7 503f 278f 5b3f 6449 123f 18e0 323f
00000030: 0a0a fe3e 29ca 613f 1996 8b3f 61cf fd3e
00000040: c170 333f f81f 0d3f 496b b73e 6ac8 413f

rb2.shortcut.bn.bias f4 [20]
0.1904612 0.047714032 -0.20355828 -0.002752445 -0.09193359 -0.17506221 0.09090792 -0.24662182
0.21774237 -0.1507636 0.04367304 -0.13575314 -0.025713336 0.06395649 -0.027303498 0.15580112
-0.030012734 -0.12687781 0.08194837 -0.27300522
00000000: 4308 433e ca6f 433d 9571 50be 5d62 34bb
00000010: ae47 bcbd 8243 33be ee2d ba3d 6e8a 7cbe
00000020: dbf7 5e3e c661 1abe 80e2 323d df02 0bbe
00000030: c6a4 d2bc 9ffb 823d 96ab dfbc 548a 1f3e
00000040: 44dd f5bc 42ec 01be 8cd4 a73d 57c7 8bbe

rb2.shortcut.bn.running_mean f4 [20]
-0.30187896 -0.92144156 -0.11892003 1.0168521 0.4126722 -0.70803595 -0.58541226 -0.9010988
-0.7244047 -0.557755 -0.11360748 0.103280336 -0.17763704 -0.7100789 -0.95959276 0.12896578
0.8735878 0.78810364 -0.8758649 0.031865697
00000000: e18f 9abe 98e3 6bbf 588c f3bd 3628 823f
00000010: c549 d33e d841 35bf 94dd 15bf 69ae 66bf
00000020: 9672 39bf 08c9 0ebf 0aab e8bd a484 d33d
00000030: 7ce6 35be bbc7 35bf dfa7 75bf 9b0f 043e
00000040: 73a3 5f3f 29c1 493f af38 60bf 9b85 023d

rb2.shortcut.bn.running_var f4 [20]
0.5353478 0.4711284 0.36598215 0.52225125 0.4231376 0.45831612 0.38342047 0.5582934
0.41137272 0.30598402 0.47759977 0.332186 0.25782755 0.6492448 0.49650073 0.36805055
0.33528584 0.45691097 0.53721637 0.18678166
00000000: 8e0c 093f be37 f13e 0362 bb3e 42b2 053f
00000010: 7ea5 d83e 69a8 ea3e b04f c43e 51ec 0e3f
00000020: 729f d23e f0a9 9c3e f587 f43e 4914 aa3e
00000030: f901 843e e834 263f 5835 fe3e 1f71 bc3e
00000040: 96aa ab3e 3cf0 e93e 0387 093f b143 3f3e

res1_sc1.conv.weight f4 [20, 3, 1, 1]
-0.54796875 0.08813794 0.33636436 -0.24559382 0.5607117 -0.23729737 0.012221312 -0.30966294
-0.4049447 0.3925862 -0.34614936 -0.32480302 0.47974703 -0.13606696 0.22884025 -0.5541104
-0.36744747 0.33176902 -0.17897707 0.389543 0.51157546 0.37033296 -0.56678104 -0.32598975
0.16557427 0.5570068 -0.1685965 0.26748508 -0.2527524 -0.38164276 -0.089035355 -0.2443564
-0.41088617 0.14807588 -0.08817924 -0.42584512 -0.38027158 -0.1934325 -0.045849986 0.011391366
-0.15482613 -0.49364913 -0.21692686 0.23482805 0.38069788 0.3975738 0.17686932 -0.24880995
0.09038708 -0.34504375 0.054662213 0.058918186 -0.3615224 0.0474401 0.25465792 0.31530365
-0.08297561 -0.52490085 0.14243212 0.08038777
00000000: ae47 0cbf aa81 b43d f337 ac3e f27c 7bbe
00000010: cd8a 0f3f 15fe 72be e63b 483c 248c 9ebe
00000020: e954 cfbe 0f01 c93e 7d3a b1be 954c a6be
00000030: 67a1 f53e 2355 0bbe 1955 6a3e 2eda 0dbf
00000040: 1322 bcbe a1dd a93e c445 37be 2e72 c73e
00000050: 9cf6 023f 489c bd3e 9018 11bf 21e8 a6be
00000060: 4d8c 293e ff97 0e3f 90a4 2cbe cef3 883e
00000070: c368 81be ae66 c3be 2b58 b6bd 9038 7abe
00000080: ac5f d2be 34a1 173e 5197 b4bd 5f08 dabe
00000090: f5b2 c2be 2b13 46be 32cd 3bbd daa2 3a3c
000000a0: be8a 1ebe 94bf fcbe 1322 5ebe c476 703e
000000b0: d5ea c23e cb8e cb3e 3b1d 353e 09c8 7ebe
000000c0: dd1c b93d 93a9 b0be 7ce5 5f3d 3254 713d
000000d0: 7719 b9be 8d50 423d 8662 823e 7b6f a13e
000000e0: 1eef a9bd e75f 06bf bad9 113e 58a2 a43d

res1_sc1.conv.bias f4 [20]
-7.623425e-05 -0.00034306885 -5.184205e-05 -9.700372e-05 -7.470655e-05 -7.579989e-05 8.560163e-05 5.3503303e-05
7.483478e-05 -2.697135e-05 5.9739854e-05 2.2804052e-05 2.4209112e-07 -0.00012901981 5.979823e-05 0.00014318034
-9.2121656e-05 -0.00016326593 -4.6820196e-07 -0.00026616224
00000000: f4df 9fb8 ecdd b3b9 fa70 59b8 7a6e cbb8
00000010: c6ab 9cb8 c2f6 9eb8 0685 b338 bc68 6038
00000020: 9ef0 9c38 8840 e2b7 2e91 7a38 544b bf37
00000030: c0f8 8134 7e49 07b9 dccf 7a38 ae22 1639
00000040: 7031 c1b8 5d32 2bb9 305d fbb4 b18b 8bb9

res1_sc1.bn.weight f4 [20]
0.8355508 0.92646044 0.693508 0.5893458 0.5443965 0.6244242 0.5637494 0.6218023
0.63221365 0.664981 0.6025695 0.59823793 0.50245005 0.6231176 0.6689672 0.39887568
0.56790555 0.5095236 0.44625556 0.8214254
00000000: a8e6 553f 832c 6d3f be89 313f 5edf 163f
00000010: 925d 0b3f 44da 1f3f e151 103f 6f2e 1f3f
00000020: c1d8 213f 323c 2a3f ff41 1a3f 1f26 193f
00000030: 91a0 003f a384 1f3f 6f41 2b3f 6f39 cc3e
00000040: 4262 113f 2370 023f 9c7b e43e ef48 523f

res1_sc1.bn.bias f4 [20]
0.1904612 0.047714032 -0.20355828 -0.002752445 -0.09193359 -0.17506221 0.09090792 -0.24662182
0.21774237 -0.1507636 0.04367304 -0.13575314 -0.025713336 0.06395649 -0.027303498 0.15580112
-0.030012734 -0.12687781 0.08194837 -0.27300522
00000000: 4308 433e ca6f 433d 9571 50be 5d62 34bb
00000010: ae47 bcbd 8243 33be ee2d ba3d 6e8a 7cbe
00000020: dbf7 5e3e c661 1abe 80e2 323d df02 0bbe
00000030: c6a4 d2bc 9ffb 823d 96ab dfbc 548a 1f3e
00000040: 44dd f5bc 42ec 01be 8cd4 a73d 57c7 8bbe

res1_sc1.bn.running_mean f4 [20]
-0.021598674 -0.0034284517 0.10455952 0.06264981 -0.064631775 0.032269858 -0.117967874 0.090307966
-0.049275506 0.072319634 0.10673235 0.07103424 0.06261006 0.10198736 -0.07434455 -0.011131758
0.022580946 0.028497359 -0.043820456 0.014219546
00000000: b4ef b0bc e0af 60bb 4d23 d63d 8b4e 803d
00000010: aa5d 84bd 662d 043d 2499 f1bd 62f3 b83d
00000020: 1dd5 49bd 511c 943d 7e96 da3d 667a 913d
00000030: b439 803d c0de d03d f541 98bd fa61 36bc
00000040: adfb b83c 4b73 e93c 147d 33bd 19f9 683c

res1_sc1.bn.running_var f4 [20]
0.022671366 0.0061251046 0.11820349 0.033517413 0.074954495 0.09705976 0.1339858 0.080911
0.07544456 0.043020237 0.12908353 0.039184943 0.08869345 0.09925704 0.046624668 0.033502597
0.010906794 0.016615732 0.05690131 0.029404592
00000000: 4db9 b93c 1ab5 c83b ac14 f23d 8e49 093d
00000010: be81 993d 44c7 c63d 9333 093e abb4 a53d
00000020: ad82 9a3d fd35 303d 792e 043e 6480 203d
00000030: e9a4 b53d 4647 cb3d 82f9 3e3d 053a 093d
00000040: 69b2 323c b71d 883c 5911 693d e6e1 f03c
